foundation_models/Ensemble_model11_DeepSurv_ANN_Event_2_20250804_232111.pt (torch, 95192 bytes, 25 tensors)

model.0.weight f4 [115, 11]
00000000: 43fe 4cbc cdc9 e63c cccd 99bc d376 b4bd
00000010: 9498 2cbf 9ffc 44bd 2cff adbd d951 613e
00000020: a356 aebd ef69 d53d b8cf 72bc c50f f73c
00000030: f958 c2bd 50fc 983e f248 2d3e 6983 56bd
00000040: 0ceb ff3d 0905 aa3e f06e 4b3d 28ff 4b3e
00000050: af30 483d 7e92 e3be 1326 aabd 06a6 edbb
00000060: 8ee2 173f 27b9 4fbc 5376 4a3d 764a 98be
00000070: e193 c33e f20f 3c3e c058 523e a3dc 8a3d
00000080: 59ed 0c3d 7764 353e e727 e0bd 977a bb3e
00000090: c005 a2bc 80ed 3dbe b776 dcbe 4176 85bd
000000a0: 4f38 0e3e 7365 02bd 2fdb cc3d 2c1b 2e3f
000000b0: a508 8c3d 3acd 42be e552 2f3e 721f ce3e
000000c0: 5cc9 85bc ca6e 8b3e 0d09 b83e f646 983d
000000d0: 67fd 4fbc 17e6 ac3d ea21 893e fa83 1ebd
000000e0: 9a2e 04be 63c6 843e 1e77 2c3e f431 86bd
000000f0: abdb 0cbf 1017 af3d f876 d63c a8d2 583e
00000100: 9ece d6bc 5715 ae3e 7f31 413d a712 743e
00000110: bd05 36be 8c67 2bbe 0915 9fbe 25cd ebbd
00000120: 69ba 093d d958 2c3d 97f9 b53b 7363 d23d
00000130: 56d0 d73e 7cbb 18bc 0596 6fbd 58b4 88bd
00000140: 7f0d b3bd 73d3 273e bd0e f1be 8add 2bbe
00000150: 3363 fcbe 7d53 9abb 8c28 50bc 7f70 5bbe
00000160: 35b9 d8bd 10db 4b3e fe5f 343d 541b 403e
00000170: c1ec 0cbf 4357 a43c 4cbf 92be 5a53 20be
00000180: 4d56 debd 7313 0a3e 4e6e be3e ad24 9cbd
00000190: 901e 023e a887 1a3e e0f5 08be 65ae df3c
000001a0: 13a4 673f 0c75 513e 688a 763d e05a 79bc
000001b0: 2b5e acbd ddb4 10be d0cf a73d 92b0 13bc
000001c0: ec28 b23e 8079 88be e64b 1b3f 19e4 80be
000001d0: 2b52 6c3e 73aa c23d 330a 8bbe 9240 a3bd
000001e0: 893e 12be 8b26 053d 7118 7ebe d796 73be
000001f0: 7a76 0d3d 0451 973e fde8 19be a40f 063e
00000200: c6c8 0bbe 2e07 413c e059 73bd de31 bdbe
00000210: 8065 ae3d 6ae7 49be 55dc 253e a3d5 48bd
00000220: faf3 e8be a05c f6bb 10d2 bd3c 148a 6a3e
00000230: 3370 dabd 10b1 bebd 5f45 663e c304 d13c
00000240: e91b 4d3c a841 ad3b f732 873d 2741 cf3e
00000250: 6b52 f8be 5449 bf3e ac37 0d3d 6330 03be
00000260: f78d 9e3c 39f1 36be 7ca6 2fbe 7803 093e
00000270: f50b fc3d 858f b7be ffc2 8ebe c56c 6e3d
00000280: 60a3 dd3e 33de 753d 8cf0 343d 8c46 413e
00000290: 7686 ee3d 57f9 88bc f8ba fbbd edb8 b5be
000002a0: 4884 f33d bece 453e 6453 06bf d0cd 403e
000002b0: 52ef e1be 0986 82bd 9aae d5bd 90b5 4dbe
000002c0: 1231 343e 33d7 8fbd 715f 2fbd 6adc 7cbd
000002d0: d78e 0dbf 8e43 52be c69b d23d f3fa 923a
000002e0: 15c6 b53e 6ba6 043b dbff d73d 80a3 763d
000002f0: a83a 29be 2384 cdbd 1037 76be 3838 fb3e
00000300: 647b 86be 93eb 82be 7a69 043e 31bd 493d
00000310: c76b c73d 0c8d aebe 1cf1 b63d cf8c e8bd
00000320: a644 3a3e 89e2 6b3e 31bb b13e 951c c0be
00000330: 01ad 323e 873b b43d 4fe0 eb3a 7f79 693a
00000340: 7a3c cdbd af9a 38be e6cb 523e f113 37bf
00000350: 79f0 d83c 3a62 9e3e 4b08 dabc f295 e0bd
00000360: da3b afbc 42d8 7e3e 1e60 8c3d a512 2b3e
00000370: 3756 cd3d 4525 5bba deed 6b3e bd63 423e
00000380: 9d5c a83e 8fd2 1fbf 3b34 60bd 9116 a93d
00000390: 3f30 1f3e b348 cdbd a6c3 88be 5424 9abd
000003a0: cd2d cb3c 9de7 953d e535 ecbd 99e4 8d3e
000003b0: 90a6 da3e 47f0 ee3c eba5 ec3d 1542 bf3d
000003c0: ade8 dc3b 7071 acbe f9c6 1abe 74ae 3f3e
000003d0: 9cf8 c43e d0ff 34be d7a9 d33e a956 26be
000003e0: f210 4bbe 4d69 4fbe ad5e 4bbd a359 a3bd
000003f0: f8cb acbe ea92 26be 72e0 66bd 2122 56be
-0.012511793 0.028172398 -0.01877489 -0.088117264 -0.67420316 -0.04809248 -0.08495936 0.22003879
-0.085126184 0.10420596 -0.014820032 0.030158887 -0.094896264 0.2988 0.16922358 -0.052371416
0.124960035 0.33206967 0.049666345 0.19921553 0.048874553 -0.44447702 -0.08308043 -0.0072524576
0.5933007 -0.012678421 0.04942925 -0.2974431 0.3819876 0.18365458 0.20541668 0.06780364
0.03440604 0.17714106 -0.10945111 0.36616966 -0.019778132 -0.1854763 -0.43059322 -0.06516696
0.13888668 -0.03183503 0.100027435 0.6801021 0.06837586 -0.190236 0.17121466 0.40258366
-0.016331367 0.27232963 0.35944405 0.0743541 -0.012694693 0.08442324 0.26783687 -0.03870008
-0.12908402 0.25932607 0.16842315 -0.065524966 -0.55022687 0.08549321 0.026179776 0.21174109
-0.02622157 0.34000656 0.047166344 0.2383524 -0.17775626 -0.16738719 -0.31070736 -0.115137376
0.03362504 0.04207692 0.005553435 0.10272875 0.42151135 -0.0093220435 -0.05849268 -0.06675023
-0.087428086 0.16389255 -0.47081557 -0.16783729 -0.49294433 -0.0047096596 -0.01270498 -0.21429633
-0.105822004 0.19907784 0.044036858 0.18760425 -0.5504876 0.02006114 -0.28661573 -0.15656796
-0.10856304 0.13483982 0.3719353 -0.07624183 0.12706971 0.15090811 -0.13375044 0.027304837
0.9048473 0.20454806 0.06019059 -0.01521942 -0.084163986 -0.14131494 0.08193934 -0.009014266
0.34796846 -0.26655197 0.60662687 -0.25174025 0.2307822 0.09505167 -0.2715622 -0.079713
-0.14281668 0.03250746 -0.24814011 -0.2378801 0.034536816 0.29553998 -0.15030284 0.13091904
-0.13650808 0.011781497 -0.059411883 -0.36952108 0.08515453 -0.19717184 0.16197331 -0.049031865
-0.4549864 -0.007518366 0.023171455 0.22904235 -0.106659316 -0.09311116 0.224874 0.025514966
0.012518861 0.005287368 0.06601518 0.40479395 -0.4850038 0.37360632 0.03447692 -0.12811427
0.019354803 -0.17865457 -0.17153352 0.1338023 0.12306968 -0.35851684 -0.27883145 0.0582092
0.43288708 0.06002636 0.044174716 0.18874568 0.1164674 -0.016720457 -0.12291521 -0.3549265
0.11890465 0.19317147 -0.52470994 0.18828511 -0.441279 -0.063732214 -0.10433693 -0.20088792
0.17596844 -0.07023468 -0.04281563 -0.06173364 -0.5529608 -0.20533583 0.10283618 0.0011213705
0.35502687 0.0020240794 0.105468474 0.06021452 -0.16526282 -0.10034969 -0.24044442 0.4906633
-0.26266015 -0.25570354 0.12930861 0.049252693 0.09737354 -0.34091985 0.08932707 -0.11354982
0.1819025 0.23035635 0.34713128 -0.37521806 0.17448808 0.088004164 0.0017995926 0.0008906349
-0.100213006 -0.18027757 0.20585594 -0.71514803 0.026481854 0.30934316 -0.026615283 -0.109661
-0.021390844 0.24887183 0.068542704 0.16706331 0.1002621 -0.00083597406 0.23039958 0.1898336
0.32883158 -0.6243066 -0.05473731 0.08256257 0.15545748 -0.10023632 -0.26711768 -0.0752646
0.024802113 0.07319567 -0.11533717 0.2771347 0.42705202 0.029167308 0.11555084 0.09338776
0.0067416043 -0.33680296 -0.15114965 0.18718892 0.38470924 -0.1767571 0.41340515 -0.16243996
-0.19830683 -0.20255013 -0.049650837 -0.07976081 -0.33749366 -0.16266981 -0.05636639 -0.20911457

model.0.bias f4 [115]
00000000: 19f5 da3c f104 183e bf4d 323e 8aae 263d
00000010: b505 9fbd 603f 653d 2ea0 a83b 4f80 62be
00000020: 451c 68be 8b3b a43d b16b 5c3e 4988 70be
00000030: a108 b53d 7422 d83d b739 83be bb2b 0d3e
00000040: c3d4 113e 1044 b3bd c35a 6d3e 0c3c 693e
00000050: 376e 80bd a90f abbe c019 0dbe c21b 433e
00000060: 7b87 55bd 481b cb3c 1af0 1f3d b100 363e
00000070: 7add 0e3d b3a3 f83d ad04 733d eea1 a23a
00000080: 450e 9bbd 0eb7 22be f62b 2f3e d6de 0c3e
00000090: 727c 98be e020 1fbd b478 fdbd ba0a 6f3e
000000a0: 4b5b 08be 970f 02be 1d4d 833d ee79 7dbd
000000b0: 32af f0bd af73 d53b 290f 81be d4fe 343e
000000c0: 964c 16be 2563 ce3d ad64 813b cd59 693d
000000d0: 95cb 38be 4f48 5f3e 2cad 13be 9ee6 8bbe
000000e0: e0fc 5dbb 1c4d d93c 74e4 85be bf7e 1bbe
000000f0: ebae 7fbe 1b3e 583d 5f6f 53be 6c08 ed3d
00000100: 2a1f 6abe b0cc cebd 6f03 433e b54a 02be
00000110: d368 7d3c a36e 4cbe dec0 c2bd 08b8 d73c
00000120: edab 49be e590 28be b121 91bd 0f1d b63e
00000130: affe cbbd e095 e33e 15ae aa3e 1b2d 42bd
00000140: 8662 4c3c ec3b 413e 9781 98bc c76f e83d
00000150: b993 2f3d c815 06bc 4ebe a23d b804 aabc
00000160: 9b17 aa3d c966 b53b 4cec 35be 8e01 403e
00000170: 69b8 a2be 133a 9abd 096b bcbc 0101 c63d
00000180: d5c6 b83d 470e 9b3e 0d4b 24be fdfd 0e3e
00000190: 6a2f a23e 5612 6cbe c71e 823e f783 603d
000001a0: 07d9 12bc fcc1 ae3e 8f6e 923e c236 49be
000001b0: 95c8 af3e 375e c1bd 4639 8fbe 785a 4fbe
000001c0: 898a 12be 9e9f 97bd 6181 1b3d
0.0267282 0.14845635 0.1741247 0.040693797 -0.077647604 0.055968642 0.005146048 -0.22119258
-0.22667034 0.080191694 0.21525456 -0.23489489 0.088395365 0.105534464 -0.2562997 0.13786213
0.14241318 -0.08753216 0.23179154 0.22776812 -0.06271022 -0.33410385 -0.13779354 0.19053558
-0.052131157 0.024793282 0.039047338 0.17773701 0.034879185 0.12140598 0.05933063 0.0012407878
-0.07571081 -0.15890142 0.17106614 0.1375688 -0.29782444 -0.03884971 -0.12376538 0.23343936
-0.13316076 -0.1270126 0.064111926 -0.06188386 -0.11752166 0.0065140347 -0.2520688 0.17675334
-0.14677653 0.10077504 0.003948769 0.056970406 -0.1804641 0.21804927 -0.14421529 -0.27324384
-0.003387265 0.026526026 -0.26150858 -0.15185069 -0.2496907 0.052793603 -0.20647953 0.11573872
-0.2286345 -0.10097635 0.19044279 -0.12723811 0.015466887 -0.1996408 -0.09509443 0.02633287
-0.1969449 -0.16461523 -0.07086504 0.35569045 -0.099606864 0.44450283 0.3333594 -0.047406297
0.012474662 0.18870515 -0.01861648 0.11349445 0.04286549 -0.008183904 0.07946454 -0.020754203
0.08305284 0.0055359346 -0.17765921 0.18750593 -0.3178132 -0.07530608 -0.023000257 0.0966816
0.09022299 0.3028433 -0.16044255 0.13964076 0.316768 -0.2305387 0.25414106 0.05481335
-0.008962876 0.34132373 0.28599975 -0.19649795 0.3433272 -0.09441798 -0.27973384 -0.20249355
-0.1431066 -0.074034914 0.037965182

model.1.weight f4 [115]
00000000: d820 583f b207 513f 14a4 5e3f cda0 4b3f
00000010: d190 823f 8fdb 453f bd96 593f f3ca 653f
00000020: 1ae7 513f d57e 6f3f 5620 773f bf48 523f
00000030: 387e 4f3f ff45 783f 4535 503f 6158 613f
00000040: cde2 653f f487 1f3f 6707 6e3f b855 2c3f
00000050: 7fae 5c3f 25fa 523f cf62 453f 2e86 5a3f
00000060: 6980 493f 5bd0 323f 0520 713f 519b 5b3f
00000070: 14f8 783f e8ab 573f acd5 443f 41c0 313f
00000080: 63a0 643f 472f 513f 309b 773f 0402 5d3f
00000090: 12c0 6c3f 944b 753f 2826 4d3f 09bb 493f
000000a0: 6f85 2b3f ceb0 533f 0322 683f c41f 2c3f
000000b0: 141e 723f 7079 2e3f 7d68 463f d18d 553f
000000c0: 0514 513f 1d17 4c3f 48da 3d3f 8e97 6f3f
000000d0: ffaa 553f 28fb 503f 3a90 483f 3a65 643f
000000e0: fce4 6f3f bbaa 5a3f 837a 5a3f 346e 363f
000000f0: 2bc7 543f 3c84 613f a7a6 783f 05c8 763f
00000100: 2903 7e3f 566e 523f c7ee 4b3f fec0 523f
00000110: 509a 673f 4e11 593f f529 4b3f 0820 473f
00000120: 26c5 673f 2935 613f 5db9 833f 3850 693f
00000130: eaf7 4e3f 35ff 583f 5681 473f ca7b 493f
00000140: 8fc2 6e3f a0d7 683f 2d5f 353f 7a7f 0e3f
00000150: 0ef6 393f cee5 3b3f 9497 553f 14c7 403f
00000160: 251b 5b3f 7fd7 803f 69e1 3b3f a51d 7e3f
00000170: e9a0 5c3f 858b 483f 7d97 213f 1eb9 653f
00000180: 5ab1 2e3f 175a 5f3f a6ab 663f c2d7 6d3f
00000190: 422d 343f a910 593f 7853 6a3f a3b3 783f
000001a0: a937 533f 0806 4d3f d215 553f 94f3 573f
000001b0: 5560 723f dd06 5d3f 10a6 7c3f 8d32 4c3f
000001c0: 7bf5 653f 9fde 573f e000 533f
0.84425116 0.8165237 0.86969113 0.7954224 1.0200444 0.77288145 0.84995633 0.897628
0.8199326 0.93552905 0.96533716 0.8214225 0.8105197 0.96981806 0.8133128 0.8802548
0.89799196 0.62316823 0.92980045 0.67318296 0.8620376 0.8241294 0.77103895 0.8536099
0.78711563 0.69849175 0.9418948 0.8578387 0.9725354 0.84246683 0.7688854 0.6943398
0.8930723 0.81712765 0.9672117 0.863312 0.92480576 0.9581845 0.80136347 0.7880102
0.6700048 0.8269166 0.906769 0.6723597 0.94577146 0.6815405 0.77503186 0.8341952
0.8167117 0.7972277 0.74161196 0.9359063 0.83464044 0.81633234 0.7834507 0.8921696
0.9370878 0.85416764 0.8534319 0.71261907 0.83116406 0.880924 0.9712929 0.96398956
0.9922357 0.8219961 0.7966122 0.8232573 0.9046984 0.8479203 0.79360896 0.7778325
0.905352 0.8797174 1.0290943 0.9113803 0.80847037 0.84764415 0.77931726 0.7870451
0.9326562 0.9095402 0.7084835 0.55663264 0.72641075 0.7339753 0.83434415 0.7530377
0.85588294 1.0065764 0.73390824 0.99263984 0.8618303 0.7833789 0.6312178 0.8973559
0.68239367 0.8724684 0.90105665 0.92907345 0.7038156 0.84791046 0.91533613 0.97149104
0.82506806 0.8008733 0.8323642 0.84356046 0.9467824 0.863386 0.9869089 0.79764634
0.898277 0.8432407 0.8242321

model.1.bias f4 [115]
00000000: 7a43 58be 7c55 89be 24fb 9bbe e908 38be
00000010: 038f 8ebe 0326 92be b9c0 9abe 461a b7be
00000020: 542b a5be b856 4ebe 593b 0abf 35ed 6dbe
00000030: 5105 58be 1c21 c0be 719c 92be 1297 d1be
00000040: e61e 5cbe b90b 1fbe 3c94 e0be ccf8 9bbe
00000050: c793 12bf f44a 87be 4e32 ccbe 56bd cdbe
00000060: ac32 a5be 2c28 ddbe bd8e 20be 21b2 d5be
00000070: 3402 84be 6338 88be f533 d2be 7c1f 6dbe
00000080: 707f b0be 08a1 cabe d0a2 57be bc61 c6be
00000090: fca8 d1be 778d c9be 6b9f 2ebe dbf7 9ebe
000000a0: d3a4 3ebe b295 7cbe 71d2 a8be e2d0 c1be
000000b0: a287 d4be bf9e 84be bdea d5be c03f dcbe
000000c0: a18d 87be 55df e9be 95b5 f3be 9b87 b9be
000000d0: 2a3a 92be 15e1 78be e11a 97be bff2 b0be
000000e0: acbe 11be 723c 8fbe 63ef abbe 6574 5fbe
000000f0: 6b8b 6dbe c10e 16bf c0de b7be b9af 9bbe
00000100: 4517 dcbd 572c bfbe 1b04 4ebe 308d 9cbe
00000110: f110 a9be 415c 72be ffca eabe a7bf 65be
00000120: 678a 27be 7544 0bbf 5e54 92be e58d 75be
00000130: f3a2 77be 4a00 b7be 18ac 9ebe 5cb4 8bbe
00000140: be21 e1be a38b afbe 4a4c 12bc e808 91be
00000150: 99f5 49be 51f1 9dbe fdaf 94be b02b f7be
00000160: 67ce 85be 2aba a9be 2101 b2be 9537 1abf
00000170: c69d 6fbe 1bcf e0be 09d2 88be d7db d5be
00000180: 43d1 9bbe 2e20 aabe 6667 c0be f8d9 b2be
00000190: f07a 56be bce6 04bf 686e 26be c267 c2be
000001a0: 1153 a5be 99cf 9dbe 144e edbe cd49 b4be
000001b0: 5b6d dbbe 6977 b3be 2c99 d2be fd13 43be
000001c0: 5893 82be 2fa5 76be 3ca3 d4bd
-0.2111949 -0.26823032 -0.30465043 -0.17972149 -0.27843484 -0.28544626 -0.3022516 -0.35762233
-0.3225962 -0.20150268 -0.5399681 -0.23235019 -0.21095778 -0.3752526 -0.2863498 -0.4093557
-0.21496162 -0.15531816 -0.43863094 -0.30463254 -0.5725674 -0.26424372 -0.3988213 -0.40183514
-0.32265222 -0.4319471 -0.1567945 -0.41737464 -0.2578293 -0.2660552 -0.41055265 -0.23156542
-0.34472227 -0.39575982 -0.21058202 -0.3874644 -0.40949237 -0.39365742 -0.17053 -0.31048474
-0.18617563 -0.24666479 -0.32973054 -0.37854677 -0.4150973 -0.25902364 -0.41780654 -0.43017387
-0.26475242 -0.456782 -0.47599474 -0.3623627 -0.2856 -0.24304612 -0.29512694 -0.345602
-0.14232892 -0.27975804 -0.33581075 -0.21821745 -0.23197715 -0.5861626 -0.35912132 -0.30407503
-0.10746626 -0.37338516 -0.20118754 -0.30576468 -0.33020738 -0.23668005 -0.45858 -0.22436391
-0.1636139 -0.5440133 -0.28579992 -0.2397991 -0.24183254 -0.35742408 -0.30990672 -0.2728604
-0.43971056 -0.34286222 -0.008929322 -0.28327107 -0.19722594 -0.30848172 -0.29040518 -0.48275518
-0.26134035 -0.33149844 -0.34766486 -0.6024106 -0.2340003 -0.4390801 -0.26722744 -0.41769287
-0.30433092 -0.33227676 -0.37578887 -0.34931922 -0.20945334 -0.5191457 -0.16253054 -0.37969786
-0.32289937 -0.30822447 -0.4634863 -0.35212556 -0.4285687 -0.3505204 -0.41132486 -0.19050594
-0.2550304 -0.2408645 -0.10382697

model.1.running_mean f4 [115]
00000000: d776 f83e ba75 bb3f 0c12 3640 50f5 123e
00000010: f585 863f eb5e 25bc 53cc b43f 24e2 72c0
00000020: 4f61 a2bf 8f97 0540 a6b4 c53f afb3 e5bf
00000030: a326 d93d 41d8 c73f b34a 1340 081b 1cc0
00000040: 7c7a 4c3e eaaa 88bf 51e8 613f a07b 493f
00000050: 8d7f 573e 091a 4b3f efdf 5bbf 9224 eb3f
00000060: 7b7d c63f 1cc1 21c0 91df e8bf a6de 083f
00000070: 625e 78bf 107e 54c0 c66d 08c0 54bf 943f
00000080: 5f3b 983f 560e 83bd 4bf8 c63f 90db 5fbf
00000090: 1912 64be 3361 f0be 2ba5 a9be 623d bebd
000000a0: 3482 983f ec4c 72bf 5a91 c03f 6f95 05bf
000000b0: dfa6 80bf 763e d1be f30a a33d 830a 823f
000000c0: fe70 903f 60db 72bf 1234 c2bf 2213 b6bf
000000d0: 4a07 8cbf 8ce3 e4bf ea33 32c0 3c32 913f
000000e0: c0ed d43f c2fe ddbf 9a69 243f 33ae d3be
000000f0: 78fb 8abe 0e8f 3f3f 6873 48bf 52bd b53c
00000100: 3b19 96bf dfce cfbb a982 b03e 6fc5 1ac0
00000110: a28a 043f 6372 9d3f c365 513f 1fc7 403e
00000120: 2b0c 18bf 4150 03c0 ec03 3b3f 81eb 0a40
00000130: b683 4940 bcf1 b6bf 2866 9d3d ac92 5ebf
00000140: ed45 0a40 fa92 283f 0702 3340 a14c 8d3f
00000150: f711 d53c 5240 9cbf 47ed 82bb ef86 9ebf
00000160: 96da adbf 62d7 0bc0 b179 dbbe 7263 39bf
00000170: 8b58 fc3f a461 b53d 4805 ffbe b1f0 25be
00000180: 47cb f4be dbd2 70bf 1119 2f3f 9655 b53f
00000190: 8f97 83bf e535 943f 9531 74bf 8f8d 70be
000001a0: dfbd 073e 39aa 97bf 6c86 9dbf 8319 e9be
000001b0: a629 45bf 5091 99be 30e3 adbf 6712 3fbf
000001c0: 8a17 b93f 3854 793e d380 66bf
0.48528168 1.4645302 2.8448515 0.14351392 1.050963 -0.010093431 1.4124855 -3.7950525
-1.2685946 2.0873754 1.5445755 -1.794546 0.106030725 1.561287 2.3014343 -2.4391499
0.19968599 -1.0677159 0.8824511 0.7870426 0.2104475 0.793366 -0.8588857 1.8370535
1.5507044 -2.5274115 -1.8193227 0.53464735 -0.97019017 -3.3201942 -2.1317 1.1620889
1.1893119 -0.06399219 1.5544523 -0.874444 -0.22272529 -0.46949157 -0.33133826 -0.092890516
1.1914735 -0.94648623 1.5044358 -0.5218114 -1.0050925 -0.40867966 0.07961073 1.0159458
1.1284482 -0.9486599 -1.5172141 -1.4224589 -1.0939724 -1.7881942 -2.7844186 1.1343455
1.6635056 -1.7343371 0.64223635 -0.4134384 -0.2714498 0.7482766 -0.78301096 0.022185002
-1.172645 -0.0063417996 0.34474686 -2.4183004 0.51774037 1.2300533 0.817959 0.18825959
-0.59393567 -2.0517733 0.7305286 2.170624 3.148664 -1.4292521 0.076855004 -0.86942554
2.160518 0.6584927 2.7969987 1.103901 0.026009543 -1.2207129 -0.003995571 -1.2384928
-1.3582332 -2.185021 -0.4286628 -0.72417367 1.9714521 0.08856514 -0.49808717 -0.16205098
-0.47811338 -0.9407174 0.68397623 1.4166744 -1.0280627 1.1578947 -0.95388156 -0.234915
0.13256024 -1.1848823 -1.2306647 -0.45527276 -0.77016675 -0.29993677 -1.3584957 -0.74637455
1.4460309 0.24348533 -0.9004032

model.1.running_var f4 [115]
00000000: 8553 bf3c ff64 8f3c c0b4 2a3c 2f2e 063d
00000010: 059e 8b3c abed 2f3c ea59 183d b538 213d
00000020: 4e7f 0d3d c110 103c 528d 923c 3ed8 1d3d
00000030: 0954 823c b94a ea3b fe78 be3c ecc1 393d
00000040: c055 823c fbcf ea3c 696c 143c e040 1e3d
00000050: a5d7 5c3c f7cf 1f3c 9fd5 5e3c 9d21 553c
00000060: 0512 703d 4ce6 3f3c 39fe 593d df3f 8d3c
00000070: ce8a 193c a01e 4d3d e0f8 933c f8c0 823c
00000080: f921 be3c d4a8 8e3c a83a 013c e11a e43c
00000090: 2b1e d53c 8aed b63c 75ab c93c 9629 c43c
000000a0: 0efa 8d3c eb30 3e3c 427a 983c e6df a23c
000000b0: 9f8b 6d3c 222b 113d 561f 993c b25d 003d
000000c0: 4579 c83c 18e4 a93c 637b f33c bd43 983c
000000d0: d666 803c 6495 a63c 2f4f 213d ca64 2f3c
000000e0: f118 813c 5818 f83b e39a 573c 5886 3d3c
000000f0: a86e 8a3c 544b 873c 3200 733d 58e1 3c3c
00000100: 3f8b 283c c8e5 5c3c 35cd d03b 9266 4d3c
00000110: 0767 563c fc35 663c 5d74 9a3c 96e5 933c
00000120: 1699 b83b f792 cd3c 5cfa 873c 928c 7e3c
00000130: 2208 303c 2587 223c 3d09 393c 0a34 0a3d
00000140: 5be8 a83b d6d9 8d3c a5fb bc3c 8d96 193d
00000150: 4fb1 ac3c 56b2 473c 968a d83c 09bf 933c
00000160: 8f20 623d 3300 ca3c 5ad1 4b3c db24 2c3c
00000170: 3453 2f3c 4dab 9d3c aff2 e43c d9eb cb3b
00000180: 3fd7 a43c 7c6b 1c3c 3c33 2b3c 9861 ad3c
00000190: 3467 b03c 58e7 803c 34ac c63c fa4d 863c
000001a0: cf88 dd3b 430c a83c 6047 4f3c 5026 613c
000001b0: cd09 103d 485f ce3c c21b c63c 7517 833c
000001c0: b070 ac3c 3c15 223c 175d 863c
0.023355255 0.017504213 0.010419071 0.032758888 0.017043123 0.010737817 0.037195124 0.03936072
0.034545235 0.008793057 0.017889652 0.038536303 0.015909212 0.007150021 0.023251053 0.045350954
0.01591003 0.028663626 0.00905905 0.03863609 0.013479148 0.0097541725 0.013600736 0.013008502
0.058610935 0.011712622 0.05322096 0.01724237 0.0093714725 0.050078034 0.018063009 0.015961155
0.023209559 0.017414488 0.00788752 0.027844848 0.026015362 0.022330064 0.02461789 0.023945611
0.01733115 0.011608343 0.018612985 0.019882154 0.01449862 0.035441525 0.0186917 0.031339355
0.024471888 0.020738646 0.029721921 0.018586988 0.015674036 0.020334907 0.039382156 0.010705182
0.015758963 0.0075712614 0.013159486 0.011567675 0.016898468 0.016515411 0.05932636 0.0115283355
0.010287105 0.0134825185 0.006372119 0.012536662 0.013086087 0.014050957 0.018854314 0.018053811
0.0056334836 0.025094492 0.016598873 0.015536444 0.0107441265 0.009919916 0.0112937065 0.033741035
0.005154652 0.017315786 0.023069212 0.037497092 0.021080641 0.012188515 0.02643327 0.018035429
0.05520683 0.024658298 0.01244005 0.010506834 0.0107009895 0.019246722 0.027947752 0.0062231836
0.020122169 0.009547111 0.010449227 0.0211647 0.021533586 0.015735313 0.024252035 0.016394604
0.0067606936 0.02051366 0.0126512945 0.013742045 0.035165597 0.025191918 0.024183158 0.016002396
0.021049827 0.009892758 0.01640181

model.4.weight f4 [109, 115]
00000000: 9e4e 2139 0e2b 393d d27f 07bd 2250 b73d
00000010: 99ef 273e 93c3 033e c6b4 d13d 5696 2a3e
00000020: 506b 6c3c 891f c3bd cdc5 1a3d 1af7 ccbb
00000030: 3c07 40be b5b2 0bbc 7a2a 9f3d 0f61 9a3e
00000040: 5ab9 04be 1c5c 7b3a 95ec b0bd b240 d23d
00000050: de80 423d 520e d83b ab58 e63d 45dc fe3b
00000060: 0bd4 023e 4754 d9bd 2df9 0dbd 5172 5cbe
00000070: 9484 2cbd bc1e 9e3d 8764 21be 4ab7 06be
00000080: ac79 47bd 3763 0f3d b279 983d a0bd 02be
00000090: 3c7e 9c3d 93da 1abd 69f8 f4bd 761b 003e
000000a0: 5e17 32bd 1194 843d 09a2 b03d 8410 fd3d
000000b0: 7666 4a3d f570 2dbe 1627 843e 1ebe f8bd
000000c0: 27ac 01bd 703c 2bbd a93f f03d 2bf5 ea3d
000000d0: 409e cebb e727 37be 3405 023e e317 e9be
000000e0: 72c9 153d d66b f8bc a2ba d23d 0931 59bd
000000f0: 652e c5bb 5e88 f53c c288 42bd bc4f b93d
00000100: a5a8 aa3d c9ff 1cbe 4568 1fbe 8358 453d
00000110: fcde 143e 0d46 bfbd 2da1 c13d e6a1 c93d
00000120: 2bee 2f3d 3cd2 7f3d 694c 393e af76 55be
00000130: 1d0a 083e 08ee d03d abd3 883d 84ba c03d
00000140: f0c0 97bd 5ee3 a73d dc03 903d b023 9f3d
00000150: edbb cb3d 776f 593d c8d3 81bb 3e5e fa3d
00000160: fb0b 87bd b98d cc3b 4374 3bbb 3366 463d
00000170: eab2 6b3d eadb 953d 4332 8bbd 7519 3bbe
00000180: 9fd4 a4bb 4d54 383d 6b8e cb3b 74f1 193d
00000190: 27c1 80bd d817 c13d ec7a b3bd 24cf c3bb
000001a0: a713 f23d 9e77 e33d 556f 0f3e e970 1a3e
000001b0: a6fd 093e dc33 e7bb 64fd d73b 8064 96bb
000001c0: cb5f 48bc 67d7 0a3d dd88 333c 1551 753d
000001d0: 5928 67bd a395 12be 19a7 913c 57bf 5f3e
000001e0: 556a 023d d6a5 ec3d cdb4 14be 40c2 3e3b
000001f0: 871f 94bc c4db 7bbe f6bb 1fbe e4e8 98bd
00000200: 3e7a 0c3d cce9 e5bd 7b96 88be 881f 283e
00000210: 91e8 303d 83db 16be 87db 993d 993a adbd
00000220: 7ef2 0dbd c9b6 af3d edba 91bd 2194 963d
00000230: da76 6cbd f338 45be 9746 95bc ff5e 74be
00000240: fa44 c53d 7e80 f53c 6668 55bc c86c 463d
00000250: 86a3 28bc dbe3 923d e210 0dbe 50c1 afbd
00000260: bb3b 1a3e bb8a 38bd b3aa b1bb ead5 193e
00000270: cc4f d73b 7091 35be 4c3e 0a3e 7e57 18bc
00000280: b830 0a3d a18d 53bd 8b0e c93d 3306 a2be
00000290: 02f6 b5bd 826b c0bd e03c 843d 5a3a 11bc
000002a0: 1f72 4cb9 4615 febd a999 04b9 3c78 003e
000002b0: aa62 23be 261d c83d 7c15 52bd aa10 f0bc
000002c0: bd01 4fbe 3322 29be 835e 8d3e 0ca8 5d3e
000002d0: d5de 2e3b 996a bfbd a4a2 ed3b a056 9f3b
000002e0: e648 e4bd 05b6 6d3e ba6b af3c 26dd 1abd
000002f0: b2ac 43bd b718 47bd a369 1ebc 918c 55bd
00000300: 424a bdbd ffc6 e73d 3d1a f23c f2c3 07be
00000310: 440f 3a3d 2f09 2a3d 8d81 16be e81d 5fbe
00000320: 548d 4b3e 1e07 e5be 5855 243d 0437 1f3e
00000330: ddeb a2bd c6aa c73d 6fca efbc beee 97bd
00000340: 01dd 0dbd 5df5 943b a004 1ebc b0b2 92bc
00000350: dd90 9abc 937d 87bd bfd4 7f3c 2d8c 01bd
00000360: 6a0f 05bd d68b 51be fa8b e03d ab3f cc3d
00000370: 5f92 2ebb ceba 943d 4d39 433e 2e36 9a3d
00000380: da7b 5ebd e86e e23d bd81 093e a8c9 be3b
00000390: 64ca 073e 4650 5e3c f4b0 15bd 3fcd ec3d
000003a0: 6737 45be 59db 53bd c5c9 503d 5dc2 a83d
000003b0: de11 c13d facd 7a3b eb90 3e3e 1cfc 15be
000003c0: b0c7 9fbd 02b9 813d bb79 81be 09ee 2cbd
000003d0: 09e9 12be 2207 0a3e 6a4e 1abb 18e0 19bd
000003e0: 9504 c5bd 843a c83c 5463 4ebd d800 203e
000003f0: 8ec4 99bd fa40 08be a0ae f03c 907c d53b
0.00015383444 0.045207076 -0.033080883 0.08950831 0.16399993 0.12867574 0.10239558 0.16658911
0.014429882 -0.09527499 0.037786294 -0.0062550427 -0.1875276 -0.008526494 0.07771774 0.30152175
-0.12961331 0.00095886155 -0.086388744 0.10266246 0.04748618 0.006593504 0.11247381 0.007777723
0.127762 -0.10611778 -0.03466146 -0.21527983 -0.042118624 0.07720706 -0.15761004 -0.13155857
-0.04870002 0.035006728 0.074450865 -0.12767649 0.07641265 -0.037806105 -0.11961443 0.12510476
-0.043479316 0.06473554 0.08624656 0.12356666 0.04941412 -0.16937621 0.2581107 -0.12145637
-0.031658318 -0.041805685 0.11730892 0.11472543 -0.006305486 -0.17886315 0.12697297 -0.45526037
0.036569066 -0.030324858 0.10289504 -0.05302528 -0.0060174935 0.029972252 -0.047493704 0.09048411
0.08332948 -0.1533195 -0.1556712 0.048180114 0.14538187 -0.09339533 0.0945457 0.09845333
0.042951744 0.062456354 0.18095554 -0.20846055 0.13285108 0.10201651 0.066809975 0.09410575
-0.07409847 0.08197664 0.07031986 0.07770479 0.099479534 0.053084817 -0.003962014 0.122250065
-0.06594082 0.0062424806 -0.0028603233 0.04843731 0.057543673 0.07317336 -0.06796696 -0.1827143
-0.005030229 0.04500227 0.006212046 0.037583783 -0.06286841 0.09428376 -0.0876368 -0.005975621
0.11820155 0.111067995 0.14007314 0.15082134 0.13475665 -0.0070557427 0.006591486 -0.0045896173
-0.01222987 0.03389683 0.010957924 0.05989178 -0.056434963 -0.14314894 0.017779874 0.21850334
0.031839687 0.11555068 -0.14522095 0.0029107481 -0.01808144 -0.24595553 -0.15599045 -0.07466295
0.034296267 -0.11226234 -0.26677307 0.16418278 0.043190543 -0.14732175 0.07512575 -0.08458442
-0.034655087 0.085797854 -0.071157314 0.07352472 -0.057730533 -0.19260006 -0.018222136 -0.23864363
0.09632297 0.029968496 -0.013025379 0.048443586 -0.010292893 0.07172366 -0.13775972 -0.08581793
0.15061848 -0.04505418 -0.0054219603 0.15023008 0.006570792 -0.17731261 0.13500327 -0.0092982035
0.033737868 -0.05164874 0.09817227 -0.31645355 -0.08884813 -0.093955055 0.064569235 -0.00886401
-0.0001949747 -0.12406401 -0.00012645744 0.12545866 -0.15955606 0.097711846 -0.05129002 -0.029304821
-0.20215507 -0.16516952 0.2761117 0.21646136 0.0026683111 -0.09346504 0.0072520543 0.0048626214
-0.11146717 0.23213966 0.021413673 -0.03780856 -0.047772117 -0.048607554 -0.00966874 -0.052136008
-0.09242679 0.11317252 0.029553527 -0.13258341 0.045424715 0.041512664 -0.14697857 -0.21788752
0.19878131 -0.44731992 0.040120453 0.1554833 -0.079551436 0.09749369 -0.029271333 -0.07418583
-0.034634594 0.004545851 -0.009644657 -0.01790747 -0.018867904 -0.06615748 0.015614687 -0.031627823
-0.032485403 -0.204635 0.109641984 0.09973081 -0.0026637537 0.07262193 0.19064827 0.07529865
-0.054317333 0.1105631 0.13428397 0.005822379 0.132608 0.013568943 -0.03654571 0.11562585
-0.19259416 -0.051722858 0.050973672 0.08240197 0.09427236 0.0038269744 0.1860997 -0.14646953
-0.07801759 0.063341156 -0.25288185 -0.042219196 -0.14346708 0.13479283 -0.0023545274 -0.037567228
-0.096200146 0.024441965 -0.050387695 0.15625322 -0.07508193 -0.13306037 0.029380143 0.006515093

model.4.bias f4 [109]
00000000: 957d f1bc 7248 893d 1586 b1bd 1544 27bd
00000010: 81d7 46bc dd88 2abd 46f7 653d 4563 1c3d
00000020: 524c 4abd ba16 693d b384 4cbd 65fd c9ba
00000030: a193 6e3d 9a09 b6bd 6fe2 07bd 3ce9 bbbc
00000040: 2e3d c2bc 1ca8 ac3d b214 623d ed92 a63c
00000050: b631 e1bb 1dca bb3d 7c78 0dbc a4f2 d23d
00000060: 3827 6c3d 7477 b6bc c7ab acbd 2146 dabc
00000070: fbf6 98bc 2af4 78bb 09d7 82bd cfd9 5a3d
00000080: 28a7 74bd 2831 2bbd a825 b13b d27d a0bd
00000090: 7f0e ba3c 1c3b 523b 84db 153d 467d 5fbd
000000a0: 9a5d cebd 7563 613d 52eb 7a3d a825 6f3b
000000b0: ba46 6a3d 8b09 2b3d 188a b93d 48e5 a23c
000000c0: a2ce 5c3d acf0 31bd 423e 6fbb e868 07bd
000000d0: 30a3 343d 7611 05bc eaa9 38bd a86a 99bc
000000e0: d5ff 57bc cd1e 203d d106 513c 7ae2 bc3d
000000f0: ac00 b1bc c0c9 a03c e3ff 93bc e1c3 fd3d
00000100: 870c 213d a7e1 623d 2ef4 2ebd af67 3a3d
00000110: 32db a6bc 55e5 bfbc 2864 92bb 6d65 433d
00000120: 5902 183d dd2b 0e3c 8ed9 3b3c 40c3 53bd
00000130: 03bc 273c 761a 7c3d 848c 55bd c9dc 0f3d
00000140: e646 6bbd a024 d53c aef2 b7bc bf1a 153d
00000150: 7896 a73d 9d19 833d 599b d33d 7c8e 0e3d
00000160: 8b3d 753d bad9 653d e4c2 2cbd 283b 27bc
00000170: 9c5f 4dbb 1187 cb3c fb8d ac3d a2da 683d
00000180: 944e 8c3d 1614 9cbc ed1b 103d 9940 8bbc
00000190: a261 983d 2f90 56bd 2ad9 9b3d b67e b83d
000001a0: 2f3e 143c f544 e43c bfa8 ba3d 8794 28bd
000001b0: a2a6 15bd
-0.029478827 0.06703271 -0.08668152 -0.040836412 -0.012136341 -0.04163443 0.05614402 0.03818061
-0.04938919 0.05690644 -0.04993124 -0.00154106 0.05824626 -0.0888855 -0.03317493 -0.022938363
-0.023710813 0.08430502 0.055195518 0.020333732 -0.006872381 0.091694094 -0.008634683 0.10300186
0.05765459 -0.022273757 -0.084312014 -0.026644768 -0.018672457 -0.003798733 -0.06388671 0.053430375
-0.059729725 -0.041794926 0.0054061003 -0.07836498 0.02271199 0.003207869 0.0365863 -0.05456283
-0.10076447 0.05502649 0.061259575 0.003649095 0.057196356 0.041757148 0.090595424 0.01988472
0.053907998 -0.043442413 -0.0036505614 -0.03305903 0.04410094 -0.008121839 -0.045083918 -0.018727615
-0.013183554 0.039091874 0.012757973 0.092228845 -0.021606766 0.019627452 -0.018066352 0.123908766
0.039318588 0.05539098 -0.042713337 0.045509037 -0.020368192 -0.023424784 -0.004467506 0.04770415
0.037111614 0.00867745 0.011465443 -0.051699877 0.010237697 0.061548673 -0.05213596 0.035122667
-0.05744066 0.02601844 -0.022454586 0.03640246 0.081829965 0.0640137 0.103323646 0.034803852
0.059873145 0.056115843 -0.04217805 -0.010206975 -0.0031337505 0.024844678 0.08425518 0.05684913
0.06850925 -0.019052546 0.035182882 -0.016998576 0.07440497 -0.052383598 0.0760978 0.09008543
0.009048029 0.027864913 0.09114217 -0.04115727 -0.036535867

model.5.weight f4 [109]
00000000: 546f 4c3f 6086 533f 1c64 483f 9418 6a3f
00000010: 36e4 693f 61e2 393f c2f4 573f 91b5 5b3f
00000020: 445f 413f c5f4 6c3f 216a 513f 86e6 573f
00000030: 770c 493f 0b3c 413f 3567 573f b099 593f
00000040: c72e 3c3f d5a6 323f f7f5 453f 56ad 333f
00000050: 97bf 693f 17f7 623f 4fdb 553f aa85 623f
00000060: 1094 4a3f 4997 543f 0e25 623f bf5d 4d3f
00000070: 2fd8 463f 92f7 573f ec54 5b3f b892 473f
00000080: 237f 5b3f fa89 543f 5c38 433f 5d02 643f
00000090: 5394 563f 87a2 623f 8039 4d3f 53f7 683f
000000a0: 0ca0 563f b453 483f 0ea7 443f 1d60 4a3f
000000b0: 5e6e 513f c62a 5d3f 52bb 563f 4e21 653f
000000c0: 31e4 503f dcec 733f 6c19 443f aa31 563f
000000d0: 9936 593f 8bf5 333f e5a6 423f 2fc7 5b3f
000000e0: a748 693f 3a1d 3b3f 9dd2 453f 5ef7 4d3f
000000f0: d37f 4f3f ef7e 763f 96bc 6d3f 9c67 2e3f
00000100: 133b 653f e76a 513f a60c 523f 1918 5d3f
00000110: a479 553f 5afa 423f a892 523f c9c1 573f
00000120: 83a2 503f e0e2 533f 0d4f 673f 45ba 413f
00000130: 51c2 563f 99e8 543f 41f8 5c3f c785 4c3f
00000140: e3aa 603f fd5e 573f 2020 483f 1d92 8a3f
00000150: 3d32 5e3f 27ff 3b3f 5865 563f f4b9 463f
00000160: 7a08 763f 8924 443f 7988 403f 3958 5f3f
00000170: 3767 583f 932c 3c3f b16f 423f 3bd9 6d3f
00000180: 31bc 5b3f 6b3f 523f 1ee1 4f3f 4cd9 663f
00000190: 8a66 5b3f df46 603f d5a3 7b3f 6fab 513f
000001a0: e943 4e3f d0d7 513f 0024 673f 2e74 533f
000001b0: b877 443f
0.79857373 0.82626915 0.78277755 0.91443753 0.9136385 0.7261105 0.84357846 0.85823923
0.7553599 0.9256099 0.81802565 0.84336126 0.78534645 0.75482243 0.84141856 0.85000134
0.73508877 0.69785815 0.7732844 0.70186365 0.9130797 0.8865828 0.83537763 0.88485205
0.79132175 0.8304334 0.8833779 0.8022117 0.7767362 0.8436214 0.85676455 0.7795825
0.8574087 0.83023036 0.7625787 0.89066106 0.83820075 0.8852925 0.80165863 0.91002387
0.8383796 0.7825272 0.76817405 0.7905291 0.8180903 0.8639339 0.8387958 0.89503944
0.8159819 0.95283294 0.7660129 0.8366953 0.84848934 0.70296544 0.7603591 0.85850805
0.91126484 0.7309147 0.77274495 0.8045558 0.8105442 0.96287435 0.92865884 0.68126845
0.89543265 0.81803745 0.8205055 0.86364895 0.83388734 0.76163256 0.8225503 0.8428007
0.81497973 0.8276806 0.90354997 0.7567485 0.83890253 0.83167416 0.86316305 0.7989163
0.8776075 0.84129316 0.7817402 1.082584 0.8679541 0.73436207 0.8374839 0.7762749
0.96106684 0.7661825 0.7520824 0.8724399 0.84532493 0.73505515 0.7595168 0.9290959
0.8583403 0.8212802 0.81202877 0.9017532 0.8570334 0.8760814 0.9829686 0.8190221
0.8057237 0.8196993 0.90289307 0.8259915 0.76745176

model.5.bias f4 [109]
00000000: c4f9 52be 0660 35be 9f8b 7dbe 4ae0 d3be
00000010: d953 83be 19b9 bcbe be49 7bbe 1131 c1be
00000020: 0113 a2be 0f77 b3be ccdd d8be dbb2 afbe
00000030: dae2 d8be 5f62 e0be e710 a5be 1ecc babe
00000040: fcff a3be 8c94 bbbe 8d4f 80be c5f9 a9be
00000050: 0dff e5be 194d 95be 6f66 73be 5190 95be
00000060: 3f0d adbe 6e70 edbe 21e5 e7be b574 5abe
00000070: af91 e4be d04e a8be 965c bdbe ceb1 46be
00000080: b103 c6be dacd 76be 6878 a3be 8203 debe
00000090: 665f d4be 0d1a c5be 3ea4 d0be b947 cabe
000000a0: bbb0 d5be df34 9bbe a729 afbe caa9 94be
000000b0: f296 bfbe 30c7 b9be b8b5 d8be 7889 c2be
000000c0: 25cb 83be ef2e b3be 0328 e9be b147 cebe
000000d0: b0ad debe c0fd 8fbe b8aa 97be ce98 babe
000000e0: 1e91 a7be 1999 e3be caa7 9cbe 1d23 a3be
000000f0: 7ee7 58be 57c1 f6bd c224 b0be 6775 7fbe
00000100: 3658 d6be 5259 c6be 3b2d 13bf c4bd a2be
00000110: 6368 e4be 3b2c cabe 6aac abbe 81c7 cebe
00000120: e929 efbe 395a cebe 587e bbbe 787b c3be
00000130: c067 c8be ba99 c0be 6f7d 2abf bb00 0dbf
00000140: 19b5 f8be 5797 b3be bc1b c6be aa20 8ebe
00000150: ca88 8ebe 5f78 abbe 796f c3be 3325 febe
00000160: 2056 eabe 4ee0 c8be 32c3 a3be 33f4 8abe
00000170: 7252 cdbe 6466 43be 9e31 9abe 66ca efbe
00000180: 9294 9dbe b531 f4be 0644 78be 06e8 aebe
00000190: ec20 b7be 833a bfbe 041f 99be 4887 91be
000001a0: 4813 e0be e856 85be ff33 a5be 3c51 e4be
000001b0: 1bc5 d9be
-0.2060309 -0.17712411 -0.24760292 -0.41382056 -0.25649908 -0.36859968 -0.24539849 -0.37732747
-0.31655124 -0.35051772 -0.42356718 -0.34316143 -0.42360574 -0.4382505 -0.32239458 -0.36483854
-0.32031238 -0.3663677 -0.25060692 -0.33198372 -0.4492115 -0.29160383 -0.23769544 -0.29211667
-0.33799168 -0.4637484 -0.45292 -0.21333583 -0.44642398 -0.3287263 -0.369847 -0.19403765
-0.3867469 -0.24101964 -0.319278 -0.4336205 -0.41479033 -0.38496438 -0.40750307 -0.39507845
-0.41736397 -0.30313775 -0.34211466 -0.2903579 -0.3741985 -0.3628478 -0.4232614 -0.37995505
-0.25740924 -0.34996745 -0.4553834 -0.4028907 -0.43491888 -0.28123283 -0.29622436 -0.36444706
-0.32727903 -0.44452742 -0.30596763 -0.31862727 -0.21182057 -0.120485954 -0.34403044 -0.24947129
-0.41864175 -0.3874002 -0.5749089 -0.31785405 -0.4461089 -0.3948687 -0.3352998 -0.40386584
-0.46711662 -0.4030321 -0.3661983 -0.38180137 -0.39141655 -0.37617284 -0.66597646 -0.5507924
-0.48575667 -0.350764 -0.38693035 -0.27759296 -0.27838737 -0.33490273 -0.38170984 -0.49637756
-0.45768833 -0.3923363 -0.3198486 -0.27139434 -0.40101963 -0.19082028 -0.3011598 -0.46834105
-0.30777413 -0.47694173 -0.24244699 -0.34161395 -0.35767305 -0.37349328 -0.29906476 -0.28423524
-0.4376471 -0.26042867 -0.32266232 -0.44593227 -0.42533192

model.5.running_mean f4 [109]
00000000: 2a1f 7b3e 0a11 a4bd 4ceb d1be 07e9 c8bd
00000010: 4d4c f93c 7bb3 1dbe 19d5 653e e9cd eebe
00000020: 68c1 1bbf 9534 6cbe 6842 a6be a142 133f
00000030: 23c7 9b3e 0bc2 52bf c7b1 66bf 95ec c73e
00000040: b659 7cbe 76a1 263e f354 89be 1b76 d7bd
00000050: 9bc0 d3be 4922 d7be 08bf debe 9d5b 15be
00000060: 0726 29be 14ba debe 25eb e2be 4e8c 0f3f
00000070: b5db 08bf 1a0a bbbd 6634 0bbc 03ef adbe
00000080: 9acd a0be e804 10be cf28 cb3e 7b46 11bf
00000090: bc8b 9cbe a9c6 a0be 98df 5a3f d1a0 19bd
000000a0: 50b6 ecbe da22 76be b742 35be 7308 88be
000000b0: fb1b 50be e956 8bbe 6033 f43c 702b ebbd
000000c0: b8f1 333e e909 38bd 383b b3be 1047 a8be
000000d0: f0ef b7be 6bdd d13d 55b3 bc3c 71d6 15be
000000e0: 6b4a 7fbe 72ce 073e 1046 73be 785a 033f
000000f0: 0c9c 35be 9247 883c 0816 24bf 1f7b e43d
00000100: 0484 e8bd 0010 383e c769 f6be 09d9 c7be
00000110: 9c61 a5be f21a 3bbf fbbc c5be 6968 c6be
00000120: bc93 e23e 0b9d 0bbf ae60 18bf 6fa0 0bbf
00000130: b1ee ecbc 3344 88be c811 8fbe 7ccd eb3e
00000140: 17fe fa3c 01c6 76be b163 fcbe 2a57 213e
00000150: ed61 df3e 0dd1 c13c 51aa cbbe c749 3fbf
00000160: 65e7 023f 1d68 41be bcc5 aebe 8c55 89be
00000170: 82df 9abe f1c9 b93e 2a21 8f3e b346 b1be
00000180: a312 753b 1a53 24be 8c60 62be 47d3 35bf
00000190: c4b6 1bbe 75c5 d5be 9bfe 113f 67d9 3b3e
000001a0: 7332 2cbe fbf8 08bf cece babe 947e 81be
000001b0: 724e 04bf
0.24523607 -0.080110624 -0.4099983 -0.098100714 0.03043189 -0.15400498 0.22444572 -0.46641472
-0.6084199 -0.23066933 -0.3247254 0.5752354 0.30425367 -0.82327336 -0.90115017 0.39047685
-0.24643597 0.1627253 -0.26822624 -0.10520574 -0.41357884 -0.42018345 -0.4350512 -0.14585729
-0.16518413 -0.4350134 -0.44320026 0.5607346 -0.53460246 -0.09132786 -0.0084963795 -0.33971414
-0.31406862 -0.14064372 0.39679572 -0.5674817 -0.3057536 -0.31401566 0.85497427 -0.037506882
-0.46232843 -0.24036732 -0.17701231 -0.26568946 -0.20323174 -0.27214745 0.029809654 -0.114828944
0.17572677 -0.044931326 -0.35006118 -0.32866716 -0.35925245 0.1024731 0.02303473 -0.14632584
-0.24930732 0.13262346 -0.23757195 0.5130992 -0.17735308 0.01663569 -0.64096117 0.11156296
-0.11353305 0.17974854 -0.48127577 -0.39032772 -0.32301033 -0.7308799 -0.38620743 -0.38751534
0.44253337 -0.54536504 -0.5952252 -0.5454168 -0.02892241 -0.26614532 -0.27943254 0.4605521
0.030638738 -0.2409897 -0.49294809 0.15755907 0.436294 0.023659253 -0.3977838 -0.7472195
0.5113433 -0.18887372 -0.34135234 -0.2682308 -0.30248648 0.36286882 0.2795499 -0.34624252
0.0037395142 -0.16047326 -0.22107142 -0.7102551 -0.15206438 -0.4175221 0.5702912 0.18344651
-0.1681612 -0.53504914 -0.36485904 -0.25291884 -0.516822

model.5.running_var f4 [109]
00000000: d918 763e a562 cc3e 929b a63e b789 c43e
00000010: 400b c03e f765 cd3e 5272 b13e af82 553f
00000020: 528a c73e 69a0 033f c753 bd3e 9b71 e93e
00000030: a3d4 d53e fa02 d33e 120e 363f 2517 c63e
00000040: 4f50 c43e 5c33 983e f2ab e33e d367 933e
00000050: 2db2 f93e b2fa c63e 5b66 043f 8a61 c53e
00000060: 10b0 873e dd15 ae3e 7224 f53e 0924 9d3e
00000070: 2e7d 533f 23fc a83e 2844 a53e 789a 013f
00000080: 5c5d 9d3e 927e b23e db0a 7c3e 9b6b d83e
00000090: 4af7 ca3e 23f0 af3e 6b37 d83e 3ba7 ee3e
000000a0: 8498 ca3e 92de d33e 618c 103f 4a02 ae3e
000000b0: 9949 a73e f830 be3e 8684 863e d5a5 d23e
000000c0: a012 ad3e b715 1f3f 659b 023f 8efd 423f
000000d0: 5c5f cc3e 7113 0a3f edf7 8a3e 1caf c03e
000000e0: 812d b53e a5ba ca3e 63b3 ac3e 42e0 743e
000000f0: 3d39 a03e b730 dc3e bfa7 e93e 5d98 673e
00000100: 4ab3 203f a672 ce3e 0a23 b93e 44bd b53e
00000110: 376a ad3e 5e1d 033f a9fe db3e 00df f53e
00000120: 8171 9a3e ebd3 1d3f 90ad 0f3f 8ef9 bf3e
00000130: ec99 913e 90ff f13e a38a b03e 25ef cc3e
00000140: e6bc f63e 0226 ad3e 0748 ec3e 3f4a 123f
00000150: ccd7 f93e 97ee ad3e e301 f93e 8a40 db3e
00000160: b7c4 c73e 44f2 9b3e abae 9a3e d7ec 103f
00000170: daeb df3e 90e8 e63e 50f2 a93e 91ab 0c3f
00000180: e0d9 e13e d1ee a33e b7f1 cf3e 8af2 ef3e
00000190: 1fc1 d53e 0708 b73e b922 133f b77a 693e
000001a0: fde0 a63e bcf3 e83e eef2 0f3f bb8f da3e
000001b0: 814c 163f
0.24032916 0.3991901 0.32540566 0.38386318 0.37508583 0.40116856 0.34657532 0.8340253
0.38972718 0.5141664 0.3697798 0.45594487 0.4176379 0.41213208 0.7111522 0.38689533
0.3834252 0.29726684 0.4446712 0.2879015 0.4876875 0.3886314 0.5171868 0.3855098
0.26501513 0.34001055 0.47879368 0.30691555 0.82612884 0.33004865 0.32278562 0.50626326
0.3073529 0.3486219 0.24613516 0.42269596 0.39641792 0.34362897 0.4222978 0.46611962
0.39569485 0.41380745 0.564642 0.3398612 0.32673338 0.37146735 0.26272982 0.41142145
0.33803272 0.6214251 0.51018363 0.76168144 0.39916503 0.53935915 0.27142277 0.37633598
0.3538628 0.39595523 0.3373061 0.23913673 0.3129367 0.43005916 0.45635793 0.22616716
0.62773573 0.40321845 0.36159545 0.3549596 0.33870098 0.51216686 0.42967728 0.48021698
0.30164722 0.61651486 0.5612421 0.37495083 0.28437746 0.4726529 0.3448077 0.40026203
0.48190993 0.3381806 0.46148703 0.5714454 0.48797452 0.33971092 0.48634252 0.42822677
0.3901727 0.30458272 0.30211386 0.5661139 0.43734628 0.45099306 0.33192682 0.5494929
0.44111538 0.3201814 0.406141 0.4686473 0.41748902 0.35748312 0.5747486 0.22800718
0.32593527 0.45498455 0.56230056 0.42687783 0.58710486

model.8.weight f4 [47, 109]
00000000: a46f 073b b876 f83c 6fee 7dbc 257c f03c
00000010: c838 143d 87ae f33c 9b0b 13be 6436 d83d
00000020: 0bfd d8be 1f34 bcbd ac11 22bc ab82 1abd
00000030: 02ae d33d 2b14 d6be 84b5 953e 9067 753d
00000040: 9079 453d 0007 e23d 329e 8f3c 86aa 983d
00000050: 1501 0b3e 5501 17be 2032 313d 22c9 a63c
00000060: ddf6 e3bd 3924 a53b 64f3 ba3d ca39 73bd
00000070: 6c04 efbd dfe3 083c 6cb2 f63c 551a 80bd
00000080: 5549 cbba 02ad de3d fec2 febc 4e82 3dbe
00000090: ed84 64bd 1686 123e a5bf b03c 9ddf 513d
000000a0: 8d4b c3bd e1b4 df3c d9b9 cc3d 6378 24bd
000000b0: ab08 ac3c fb61 8f3d b29e 9bbd 9f28 11be
000000c0: 8977 053d 1d5d 8b3e 7956 bb3d b62f f3bc
000000d0: 25b8 823d c5d8 a5bd aaeb 6bbe 0410 2fbd
000000e0: 5cec 523d 693b 5e3d 294a 8dbb a1f5 49bd
000000f0: 391f af3d d354 5e3e 552f e13d 387a c53c
00000100: 1ca6 db3d 5288 a3bd 418b 70bb c43b f63d
00000110: ca87 4a3d 7680 40bd 01a4 3b3d babe 53be
00000120: 387a d0bd a019 503d 8f50 2fbd a272 14be
00000130: 2221 5abb 2f88 82be d7ad aebc 52c2 b63c
00000140: c629 353d 3825 423d 7cc1 153c 2e6f 67be
00000150: 5d53 a33d 4d87 e33b 16e6 c8bc f695 cbbd
00000160: 9a42 00be 0efc 083e fd27 143d d5bb be3d
00000170: 9233 d1bc 43a3 2dbb 6283 f8bc 7607 713e
00000180: 5b5f 213e 4cbb a4bd 3c69 263c 0160 9bbd
00000190: 84ac 06be b80f 0fbd 6e4f f7bd d20a 1d3d
000001a0: d5e5 cabd ea9b 103e 62e1 d83d a19f 50bd
000001b0: 0f09 86bd 4723 6b3d ecdc aabe 9e6b 1abd
000001c0: 143a 633d 2fb9 68bc 7e7a c63c e78f 6fbe
000001d0: 4365 91be 7f22 c23c 9473 6c3d 7d44 64be
000001e0: 1de6 123e 32b0 3d3c 11d8 19bd cce1 c23c
000001f0: d6e2 073d d5e6 7abd 587a 50be 403a 07bd
00000200: 1ae4 24bd fe40 77bc 027e 18ba d304 10bd
00000210: ab0f 20bc 3cb0 0cbe c484 5c3d 51f3 053e
00000220: d0ba 04be b079 66bc 2cb8 57bc 596d 503d
00000230: f243 893d 6f55 3ebd 0b32 5ebd 4e65 a83d
00000240: 4348 013c 9863 95be 4d9b 113e d52d 213d
00000250: 1175 aabd 208e 17bc 277f 62bd 3243 15be
00000260: e06b 7d3b 611a a1bd 9571 a43d 7c9f 75be
00000270: cc5d b23d 3df9 b6bc 870b 533e cb0d 96bc
00000280: 86ee c8be 3cf2 27bd 4e5a fcbd 9bec 2bbd
00000290: f63c 80bd 4a47 15be ca0a d03d 9ddc fb3c
000002a0: aacb 93bd 07a5 b03d 2f99 273c 42d1 fe3b
000002b0: 62db 8d3c c7fc d23d cfb8 c43b b194 cdbd
000002c0: 7934 c03b ec9c 56be 4ad2 363a 8456 1d3d
000002d0: c1e0 96be 139c d9bc 3afe 07be 66b2 92bc
000002e0: 1a0a 9ebd b5ee 193d c55c 12be f92b 52bc
000002f0: ed77 123d 19cd cbbd 0abb a8bb 1001 77ba
00000300: 675b 14be 4f29 ccbc d654 16bd d765 1dbe
00000310: 176d ad3d e379 703e e1fc 793d 02a4 dc3d
00000320: 327c babd ed43 633d 0a3d 9a3c 64f9 85bc
00000330: 89f7 0ebd 903e 633d 2369 01be 2a30 fa3c
00000340: e846 88bd b979 23be 8f7c c93d 8021 efbd
00000350: 3265 d33c 9508 c4bd f9b8 013e bc91 873e
00000360: 8892 18bc 8f64 f7bb 7a0d 26be 34c0 973c
00000370: fe76 1dbc 8811 47be 82b4 813e f30f e83d
00000380: d02d f83c 7a13 8d3d 911f 16be d29b c6bd
00000390: fac2 6b3c 9398 ffbb fc9a 5ebd 4765 b7bc
000003a0: 7fa3 38be 31aa 0cbd 88f2 babd 7394 f5bc
000003b0: 6587 613e aa41 83bd f456 49be 5166 3c3d
000003c0: 137e a73c 9b3c e83d d3b6 2d3c 78ff fabb
000003d0: b9dd 25be 3197 ceb9 0bbf 01be 88aa c2bd
000003e0: bff1 8c3d eb16 d53d 5d9c 303e b917 113e
000003f0: 16ca 173e f145 9f3d d52c cd3d 84e1 903c
0.0020665908 0.030330047 -0.0154987415 0.029356072 0.036186963 0.029746307 -0.14359896 0.10557249
-0.42380556 -0.09189629 -0.009891909 -0.03772227 0.10335924 -0.41812262 0.29240048 0.059913218
0.048211634 0.110364914 0.017531488 0.074544 0.13574632 -0.14746602 0.043260694 0.02035958
-0.1113107 0.0050397185 0.09128454 -0.059381284 -0.11670765 0.00835511 0.030114375 -0.062550224
-0.0015509526 0.10872842 -0.031098839 -0.18506739 -0.05579083 0.14308962 0.021575758 0.051238645
-0.095358945 0.02730793 0.09996385 -0.040153872 0.021000227 0.0700111 -0.07598628 -0.14175652
0.0325847 0.27219477 0.09147353 -0.029685836 0.06382779 -0.08097986 -0.23039117 -0.042739883
0.05149494 0.054255877 -0.004311819 -0.049306516 0.08550877 0.21712045 0.10995356 0.02410613
0.10725042 -0.079849854 -0.0036704096 0.12023118 0.049445905 -0.04699751 0.045810703 -0.20678225
-0.101795614 0.050805688 -0.042801436 -0.14496854 -0.003328391 -0.25494525 -0.021323128 0.022309456
0.04422929 0.047398776 0.009140369 -0.22601005 0.07974885 0.0069436193 -0.024523776 -0.09940712
-0.12525406 0.13377401 0.03617095 0.0931317 -0.025537286 -0.0026495017 -0.030336086 0.23538002
0.15759031 -0.080435365 0.010156926 -0.07586671 -0.13151747 -0.0349271 -0.12075697 0.038340397
-0.09907118 0.14121976 0.10589863 -0.050933484 -0.065446965 0.05740669 -0.33371675 -0.037700288
0.05547531 -0.014204307 0.02422833 -0.23394738 -0.2839757 0.02369809 0.05772741 -0.22291751
0.14345594 0.011577653 -0.037559573 0.023789309 0.033175312 -0.061255295 -0.2035917 -0.033014536
-0.040256597 -0.015091179 -0.00058171165 -0.03516085 -0.009769361 -0.13739103 0.053837553 0.13081099
-0.12961888 -0.0140670985 -0.013166469 0.050885532 0.06702413 -0.046468195 -0.054246943 0.08222447
0.007890764 -0.29177547 0.14219399 0.03935035 -0.0832311 -0.009250194 -0.055297043 -0.14576414
0.0038669035 -0.078663595 0.080294766 -0.2398662 0.087092966 -0.022335643 0.20609866 -0.018317124
-0.3924448 -0.041002497 -0.12321912 -0.04197369 -0.062616274 -0.14577976 0.10158308 0.030744845
-0.0721658 0.086252265 0.010229393 0.0077764103 0.017316524 0.1030212 0.006003476 -0.10038126
0.00586563 -0.20958298 0.00069740845 0.038412586 -0.2946835 -0.02656368 -0.13280573 -0.017907333
-0.077167705 0.037581164 -0.14293201 -0.012827867 0.0357589 -0.09951229 -0.00514925 -0.00094224606
-0.14487992 -0.024922041 -0.036702 -0.1537088 0.08468073 0.23483996 0.06103218 0.107734695
-0.091057196 0.0554847 0.018827934 -0.01635427 -0.034904037 0.055479586 -0.12637763 0.030540545
-0.06654149 -0.15964402 0.09838211 -0.116763115 0.02580509 -0.095719494 0.12668218 0.26478374
-0.0093122795 -0.0075498293 -0.16216078 0.018524267 -0.0096108895 -0.19440281 0.2533303 0.11331167
0.030295283 0.068884805 -0.14660479 -0.09697689 0.014389748 -0.0078001707 -0.054347023 -0.02238716
-0.18031119 -0.034341995 -0.091282904 -0.029978013 0.22024305 -0.06409009 -0.19662076 0.045996014
0.020445859 0.113396846 0.010602671 -0.007659849 -0.16197862 -0.00039404028 -0.12670533 -0.095051825
0.06882047 0.10404762 0.17247148 0.14169206 0.14823183 0.07777012 0.10018317 0.01768566

model.8.bias f4 [47]
00000000: a7d4 b93d c70b de3d 0f58 fc3c b83c 853d
00000010: e218 e6bd ab6c dfba 3fbf 71bd eaf1 2a3c
00000020: 4faa 163c 5f53 b1bc 0867 84bd f9e7 95bd
00000030: 886f 133b b530 7a3d 1ccf bcbd eb98 39bc
00000040: 5a83 f43d 93b7 f73c 7658 57bd 70fe d4bc
00000050: 80c6 53bd fdf4 293b 3462 cebd 184a 9f3d
00000060: de2d 813c 42f4 f5bb 67e1 07bb 84c5 9fbd
00000070: 0a4b 903d 2202 dcbc 6dc0 43bc d7be 0bbd
00000080: 49a0 adba 19ce 9f39 8b18 a0bd b6ca 293d
00000090: 3ff0 5d3a 7ed2 9cbc dff8 083d 2e06 fb3c
000000a0: cbd7 583d 17c8 c1bd 3ad4 3d3d f28e 2ebd
000000b0: aa04 f83d 19a3 a33d 797c c9bc
0.09073763 0.1084209 0.030803708 0.06505722 -0.11235215 -0.0017045935 -0.059020277 0.010433653
0.009195878 -0.0216462 -0.06464964 -0.07319636 0.0022496898 0.061081607 -0.092191905 -0.011327962
0.11939116 0.030238902 -0.052574597 -0.026000232 -0.051702976 0.0025933378 -0.100773245 0.07777804
0.015768941 -0.0075059244 -0.0020733716 -0.07801345 0.070455626 -0.026856486 -0.011947733 -0.034117546
-0.0013246621 0.00030480398 -0.07817181 0.041453086 0.00084662804 -0.01914334 0.033440467 0.030642595
0.05294017 -0.09461992 0.046344973 -0.042616792 0.121102646 0.07990093 -0.024595486

model.9.weight f4 [47]
00000000: 574e 473f 29c7 483f 1c6b 643f 9a1d 593f
00000010: 4b67 563f b4cd 563f 2c06 483f 2953 583f
00000020: 40f8 4c3f 5f95 4e3f 325b 543f 57bd 413f
00000030: 0d7d 333f 3bdd 3f3f 8d1b 4e3f 4676 563f
00000040: 9c5c 603f 8a33 4d3f 1b62 673f 564d 533f
00000050: 6dad 423f b0f2 5d3f 8c29 503f 5b88 353f
00000060: e5ab 573f d68f 323f e475 5b3f 1a72 583f
00000070: 277c 523f 4ff7 4c3f 71c6 453f 8559 373f
00000080: c7ee 623f bc8c 523f 4b3c 353f a794 2e3f
00000090: 4ddd 4c3f d2cf 383f dd9e 5f3f a836 463f
000000a0: 24a3 413f 141c 3c3f 3c34 763f c94a 583f
000000b0: 7332 403f 1845 5c3f 3578 683f
0.7785391 0.78428894 0.89225936 0.84810793 0.8375136 0.8390763 0.7813442 0.8450189
0.800663 0.8069667 0.82951653 0.75679535 0.7011269 0.74946946 0.8051079 0.8377422
0.8764131 0.8015677 0.9038407 0.8253988 0.76045877 0.86698437 0.81313396 0.70911187
0.84246665 0.69750726 0.8572676 0.84549105 0.8222069 0.8006486 0.7725592 0.7162097
0.88645595 0.82245994 0.70795125 0.68195575 0.8002518 0.7219211 0.8735178 0.7742715
0.7563956 0.73480344 0.96173453 0.84489113 0.7507698 0.8604293 0.9080842

model.9.bias f4 [47]
00000000: 2761 a9be 5325 00bf 899e cebe 5262 e1be
00000010: ffc4 adbe b2ba 00bf 3a9f c9be 369f d1be
00000020: 8aca fabe dcb5 b5be 66fb cabe 4fef dbbe
00000030: 4e4e f3be 0914 b7be 35f8 b9be 8736 dcbe
00000040: 4dec 9dbe ec77 9abe 9442 b4be cea0 adbe
00000050: c34b a5be b28f e6be a0ab bfbe 7c3c b0be
00000060: f382 96be 87d9 95be 7044 34bf bf45 efbe
00000070: a1e5 d0be 92bd dabe aa6d 8dbe ee3a b9be
00000080: 7081 bdbe a18e b0be 18b9 8cbe 0cc5 c0be
00000090: da49 dabe 06cc ccbe dd06 c7be 49a7 bebe
000000a0: e92c f2be e7f2 d7be 251a a3be 3af6 8bbe
000000b0: a3c5 04bf bffa c4be 36f5 99be
-0.33081934 -0.5005695 -0.40355328 -0.44020325 -0.3393936 -0.50284874 -0.39379293 -0.4094178
-0.4898265 -0.3549031 -0.39644927 -0.42956015 -0.4752068 -0.35757473 -0.3632218 -0.4301035
-0.30844346 -0.30169618 -0.35207045 -0.33911747 -0.32284364 -0.45031506 -0.37435627 -0.34421146
-0.2939678 -0.29267523 -0.7041693 -0.467329 -0.40800193 -0.42722756 -0.2762273 -0.36177772
-0.37012815 -0.34483817 -0.27484965 -0.37650335 -0.4263447 -0.39999408 -0.38872424 -0.37237003
-0.4729989 -0.42177507 -0.31855884 -0.27336293 -0.5186407 -0.38472554 -0.30069894

model.9.running_mean f4 [47]
00000000: e944 833d b870 9cbe 085b 953d a0ff f2be
00000010: 950f c3be f095 afbe e4bf e3be bbc7 96be
00000020: 95a7 ffbd b0a3 eabd 33df 783c b21a 02be
00000030: 622e a3be 8086 1cbf d5a3 09bf e923 a0be
00000040: 1705 7e3d e95d b0be 6ea3 6fbe 68a9 293d
00000050: f1b7 b8be 3a42 47bd 8185 eebe 62be bbbe
00000060: 24dc 0abe 4bc4 cbbe c3ae 05bf eade febe
00000070: 19b6 40be 1be5 aebe 8f0c 8fbd c86a 92be
00000080: 3a58 c9be 0cef d2be e100 eebe 37f3 99be
00000090: 445a 81be 204d 92bd d39d 29be f345 05be
000000a0: 801b 13bd 722b c3be 2890 e2bc 417d 263d
000000b0: 5b2b 1fbe 91ae 88be f8fe 13be
0.06409628 -0.30554748 0.072927535 -0.4746065 -0.38097826 -0.3429408 -0.44482338 -0.29449257
-0.124831356 -0.11457002 0.015189934 -0.12705496 -0.31871325 -0.6114273 -0.5376561 -0.31277397
0.062016573 -0.34446648 -0.23402187 0.041421324 -0.36077836 -0.048647143 -0.4658623 -0.36668688
-0.1356054 -0.39798197 -0.5221979 -0.49779445 -0.18819465 -0.3415917 -0.06984817 -0.28597093
-0.39325124 -0.41198003 -0.46485046 -0.3006837 -0.2526418 -0.07143617 -0.16564111 -0.13014965
-0.035914898 -0.38119084 -0.02765663 0.040646795 -0.15543883 -0.26695684 -0.14452732
