foundation_models/Ensemble_model21_DeepSurv_LSTM_Event_1_20250805_003835.pt (torch, 883528 bytes, 17 tensors)

lstm_layers.0.weight_ih_l0 f4 [324, 11]
0	0xbc6176ae	-0.013761206
1	0xbcf53698	-0.029933259
2	0xbcd1ba56	-0.025601547
3	0xbde8a722	-0.11360003
4	0xbe279339	-0.16364755
5	0xbd9f5de6	-0.077815816
6	0xbccfd824	-0.025371619
7	0x3d0e7d62	0.034787543
8	0xbdd32a75	-0.103108324
9	0xbe1e3fd9	-0.15454043
10	0xbd002d3f	-0.03129315
11	0xbdae73a6	-0.08518152
12	0xbdbeac49	-0.093102045
13	0x3daa38b4	0.083115965
14	0xbefcb512	-0.49356896
15	0x3e47d2e3	0.1951404
16	0xbd8f9ce0	-0.070123434
17	0x3dac8db1	0.08425463
18	0x3cc84f67	0.024451924
19	0xbdc82942	-0.09773494
20	0xbe4f5367	-0.20246659
21	0x3e2a3244	0.16620737
22	0x3ced1202	0.02893925
23	0xbd7439db	-0.059625488
24	0x3d23151b	0.03981505
25	0xbe434d75	-0.19072516
26	0x3c0a90b5	0.008457352
27	0xbdd1fa99	-0.10252876
28	0xbd4374ae	-0.047718696
29	0x3da29021	0.07937647
30	0x3cc4a713	0.024005448
31	0x3df2b8b7	0.11851638
32	0x3d31cb43	0.043406736
33	0x3ca8b632	0.02059469
34	0xbdec5511	-0.11539663
35	0x3d186dd5	0.03721412
36	0x3c4439b9	0.011976653
37	0xbdff765d	-0.12473748
38	0x3d19b225	0.037523407
39	0x3daceb52	0.08443321
40	0x3dcb90ab	0.099397026
41	0xbd8cedc7	-0.0688129
42	0xbd199623	-0.037496697
43	0x3d519c5f	0.051174518
44	0xbd6c0f13	-0.057631563
45	0xbc3f236c	-0.01166616
46	0xbce302f4	-0.02771137
47	0x3c3f233e	0.011666117
48	0x3cc151b8	0.023598537
49	0xbe048667	-0.12941895
50	0xbe234e7f	-0.15947913
51	0xbceac96f	-0.028660504
52	0xbdb55e7d	-0.08855913
53	0x3d29771b	0.041373353
54	0xbe22250c	-0.15834445
55	0xbd8cbab7	-0.068715505
56	0x3d28683c	0.04111503
57	0xbaa2be02	-0.0012416246
58	0x3cd7d464	0.026346393
59	0x3e096af5	0.13419707
60	0xbd25aff0	-0.04045099
61	0xbdca3310	-0.09873021
62	0xbdf8f673	-0.121563815
63	0xbd900d50	-0.07033789
64	0xbd8f055f	-0.06983446
65	0xbdea0c07	-0.11428075
66	0x391877c7	0.0001454047
67	0x3d6aff56	0.057372414
68	0xbb312857	-0.00270321
69	0xbd247f77	-0.040160622
70	0x3d8ebcde	0.06969617
71	0xbd2ac263	-0.041689288
72	0xbbba1fb4	-0.005680049
73	0x3d657ee8	0.05602923
74	0x3c6c4b68	0.014422275
75	0xbe314554	-0.17311603
76	0xbe34b3cc	-0.17646712
77	0xbb13fc91	-0.0022580961
78	0xbd902dee	-0.070400104
79	0x3da2871a	0.07935925
80	0xbeae4097	-0.34033653
81	0xbbcf7714	-0.006331334
82	0x3cc1d69c	0.023661904
83	0x3ddd69c6	0.1081119
84	0xbd314700	-0.0432806
85	0x3d0d69a9	0.034524594
86	0x3cde0044	0.027099736
87	0x3eab7cd9	0.3349369
88	0xbd255cfd	-0.040371884
89	0x3c3b27da	0.011423076
90	0xbe185bcc	-0.14878768
91	0x3d899af4	0.06719008
92	0x3d83f5e6	0.06443386
93	0xbe1afb03	-0.15134816
94	0xbe3e898a	-0.18607154
95	0xbe332bfd	-0.17497249
96	0x3c930799	0.017947959
97	0xbe30ad13	-0.17253523
98	0x3d1559dd	0.036462653
99	0x3d78301c	0.060592756
100	0x3c6f6206	0.014610773
101	0x3db3a336	0.087713644
102	0x3bdd6df2	0.0067574913
103	0x3bb1574d	0.0054120184
104	0x3ce7a9ac	0.028279148
105	0xbb9d9250	-0.0048087016
106	0xbd9cac91	-0.07650102
107	0xbdaf6246	-0.08563666
108	0xbd853d0e	-0.06505786
109	0xbd0e29b8	-0.034707755
110	0xbd3139bc	-0.04326795
111	0x3d1bed95	0.038068373
112	0x3b25768d	0.0025247664
113	0xbdb7366e	-0.089459285
114	0xbe20d551	-0.15706374
115	0xbddaecec	-0.106897205
116	0x3d5ec33d	0.054385412
117	0xbde283ca	-0.11060293
118	0x3dbb89a4	0.09157112
119	0x3d756452	0.059910126
120	0x3e48a15b	0.19592802
121	0xbe30a02e	-0.17248604
122	0xbd83e263	-0.06439664
123	0xbe05725c	-0.13031906
124	0x3c4bdc3e	0.012442647
125	0xbb37f692	-0.0028070551
126	0xbe455bb1	-0.19273259
127	0xbd3a2cdf	-0.04545295
128	0x3c9b48b0	0.018955559
129	0xbd9c364d	-0.076275446
130	0x3d6b7b78	0.057490796
131	0xbc770613	-0.015077132
132	0xbd2d9ede	-0.042387836
133	0x3bf3d6c1	0.007441372
134	0xbddeb65d	-0.10874627
135	0xbe0ff34a	-0.14057651
136	0xbe3b0960	-0.18265295
137	0xbda8fe9c	-0.08251688
138	0xbcb8cb13	-0.02255777
139	0x3d987713	0.074445866
140	0xbc193f83	-0.009353521
141	0xbd921122	-0.07132174
142	0x3db41730	0.08793485
143	0xbd7e47b5	-0.062080104
144	0xbc9a2a49	-0.018818991
145	0x3d1bdc09	0.03805164
146	0x3da335ce	0.07969247
147	0xbc12c26c	-0.008957487
148	0xbdaa16de	-0.08305143
149	0xbcf75656	-0.030192535
150	0xbd87b4fb	-0.06626316
151	0x3c8e8cf4	0.017401196
152	0x3dc74e1e	0.097316965
153	0x3e483643	0.19551949
154	0x3d9ed613	0.07755675
155	0x3c4d8e8a	0.012546191
156	0x3e5eb478	0.21748531
157	0x3f3b031f	0.7305164
158	0x3e32309b	0.17401354
159	0xba79e15f	-0.0009532179
160	0x3d0593cb	0.03261165
161	0x3dcc38c5	0.099717654
162	0xbda757cd	-0.081710435
163	0x3e027f23	0.12743811
164	0xbd61547b	-0.055012207
165	0x3c6eee94	0.014583249
166	0xbdbfcef4	-0.09365645
167	0x3d7d5a91	0.06185395
168	0x3de737bc	0.11289927
169	0x3de19a8f	0.11015808
170	0xbe29fa28	-0.16599333
171	0x3dab128b	0.08353146
172	0xbdaae90c	-0.083452314
173	0xbdb4d9d0	-0.08830607
174	0x3d8019fb	0.062549554
175	0xbca3ae1e	-0.019980486
176	0x3db3c758	0.08778256
177	0xbd3debcc	-0.04636745
178	0x3dcb708c	0.09933576
179	0x3e2a20ac	0.16614026
180	0x3ea029fd	0.31282035
181	0x3c33c587	0.010972387
182	0x3d6c8ffb	0.057754498
183	0xbc980967	-0.01855917
184	0x3c659515	0.014012595
185	0xbd469836	-0.048485003
186	0xbe378990	-0.1792357
187	0x3d825978	0.06364721
188	0xbe19bf36	-0.15014347
189	0x3e0b65bd	0.13613029
190	0xbd6aa688	-0.057287723
191	0x3e8b4279	0.27199152
192	0xbd94de98	-0.07269019
193	0xbd49b048	-0.04924038
194	0x3d074ccd	0.033032227
195	0x3d91ab07	0.07112699
196	0xbdc396b0	-0.09550226
197	0xbe38f5e8	-0.18062556
198	0x3df0a316	0.11749856
199	0xbdb57ddf	-0.08861899
200	0x3da9f06d	0.08297811
201	0xbdedeaa4	-0.1161702
202	0xbc90f198	-0.017693326
203	0xbd431a6c	-0.04763262
204	0xbc046cc5	-0.008082573
205	0xbd143504	-0.036183372
206	0x399e0a3d	0.00030143737
207	0x3d3048b3	0.04303808
208	0xbd822978	-0.06355566
209	0x3d21bb0a	0.039485015
210	0xbe47a67a	-0.194971
211	0xbdc94130	-0.09826887
212	0x3d4a18ef	0.049340185
213	0xbe2164d7	-0.15761124
214	0xbdf95558	-0.12174481
215	0xbcd0cecf	-0.025489239
216	0xbdfb52c6	-0.12271647
217	0x3d4923ab	0.04910628
218	0xbc8562e5	-0.016282508
219	0x3d10d7ec	0.03536217
220	0x3da318cc	0.07963714
221	0xbdfd8456	-0.12378757
222	0x3db741a5	0.089480676
223	0xbc923a8f	-0.017850189
224	0xbbdb14b2	-0.0066858167
225	0x3d70bbd5	0.05877288
226	0x3d1f250f	0.0388537
227	0xbe0348a0	-0.12820673
228	0xbdc8fb39	-0.09813542
229	0xbd54076f	-0.0517649
230	0xbdfa7685	-0.12229637
231	0xbcf58180	-0.029968977
232	0xbd320800	-0.04346466
233	0x3ca93246	0.020653855
234	0x3d0ecebc	0.034865126
235	0x3e946051	0.28979734
236	0x3d32b437	0.043628898
237	0x3d813b39	0.06310124
238	0x3d85a582	0.06525709
239	0x3da393ff	0.079872124
240	0x3dc2eabf	0.095174305
241	0xbe2c48f8	-0.1682471
242	0x3c4f814e	0.012665106
243	0x3d9129b9	0.07088036
244	0x3e251cd6	0.16124281
245	0xbe188216	-0.14893374
246	0x3d8ca0ae	0.06866585
247	0x3dec2df9	0.11532206
248	0x3d902e85	0.07040123
249	0x3da7e690	0.08198273
250	0x3dacaf3d	0.084318615
251	0xbd264444	-0.040592447
252	0x3e405c8c	0.18785304
253	0x3dab961d	0.08378241
254	0xbe2f59ea	-0.17124143
255	0xbc49fb89	-0.012328037

lstm_layers.0.weight_hh_l0 f4 [324, 81]
0	0x3de1ae40	0.11019564
1	0xbdcfa970	-0.101397395
2	0x3c8cfc75	0.017210225
3	0x3dfd5457	0.12369602
4	0x3e045288	0.12922108
5	0x3d6e24b6	0.05814048
6	0xbdec60a5	-0.11541871
7	0xbe107e97	-0.1411079
8	0xbcb5fe2f	-0.02221593
9	0xbd808208	-0.062748015
10	0x3daffe9c	0.08593485
11	0xbdc6c88d	-0.09706221
12	0x3d8b45c2	0.068004146
13	0x3cd2bd32	0.025724981
14	0x3d913088	0.07089335
15	0x3cca490d	0.024693036
16	0xbd8a0cf2	-0.0674075
17	0xbe1729b8	-0.14762008
18	0xbdc7472e	-0.09730373
19	0x3d2c736c	0.042102262
20	0xbe0a1f5c	-0.13488525
21	0xbe09c123	-0.13452582
22	0x3e04faf8	0.12986362
23	0x3dccd6ca	0.10001905
24	0xbe0b4446	-0.13600263
25	0x3d4a67fa	0.049415566
26	0x3ddac7b2	0.1068262
27	0x3dd216d8	0.10258263
28	0xbdf3bea0	-0.11901593
29	0x3cc9b3a7	0.024621798
30	0xbd315e4a	-0.04330281
31	0x3d83c0c5	0.06433252
32	0x3d00f21c	0.031480893
33	0xbcf0a7f5	-0.029376963
34	0x3d00838a	0.031375445
35	0x3d261975	0.04055162
36	0x3e031404	0.12800604
37	0xbd1573e3	-0.03648747
38	0x3de2ae65	0.11068419
39	0x3ddb2ff4	0.10702506
40	0xbe0169fa	-0.12638083
41	0xbd6d7761	-0.057975177
42	0xbd8e7f9d	-0.06957934
43	0xbd273dc2	-0.04083038
44	0x3d722caa	0.059124626
45	0xbd8ec9b9	-0.06972069
46	0xbdf46308	-0.11932951
47	0xbd30b033	-0.043136787
48	0x3dd15e45	0.102230586
49	0xbdbcfc91	-0.09227861
50	0xbb95a29c	-0.0045665037
51	0xbd17361c	-0.036916837
52	0x3d3efe57	0.046629276
53	0x3c20f039	0.009822899
54	0x3cf9d2cd	0.030496025
55	0xbde4ca58	-0.111714065
56	0xbdf742bd	-0.12073276
57	0x3da89036	0.08230631
58	0xbcfc3bd3	-0.030790245
59	0x3da8e495	0.082467236
60	0xba3fb53c	-0.0007313078
61	0x3e01959a	0.12654725
62	0x3d7a75f8	0.06114766
63	0xbd82107f	-0.06350803
64	0xbddd01ce	-0.1079136
65	0xbc11b515	-0.008893271
66	0x3d7ee8ca	0.062233724
67	0x3d5116f2	0.051047273
68	0x3d073260	0.033007026
69	0xbe0405e8	-0.12892878
70	0x3d9d7c3f	0.07689714
71	0x3e261838	0.16220176
72	0x3cac4aef	0.021031825
73	0x3d42bb03	0.04754163
74	0xbd400e58	-0.04688868
75	0x3cbea4a0	0.023271859
76	0xbe598bbd	-0.21244712
77	0xbd3abad4	-0.04558833
78	0x3d16f687	0.0368562
79	0x3d28ed80	0.041242123
80	0xbd55095a	-0.05201087
81	0xbd272e07	-0.04081538
82	0xbd0de3b1	-0.03464097
83	0xbe17fb01	-0.14841844
84	0x3dd15360	0.10220981
85	0xbda93eda	-0.08263941
86	0xbde7acc3	-0.113122486
87	0x3d6d578f	0.05794483
88	0xbde8cd35	-0.11367265
89	0x3c36ac91	0.0111495415
90	0x3db68c4d	0.08913479
91	0xbdcb772d	-0.0993484
92	0x3e1a0949	0.15042605
93	0xbdcd1473	-0.10013666
94	0xbe0ec84b	-0.13943593
95	0xbe4b2086	-0.19836625
96	0xbe086313	-0.13319044
97	0x3db97478	0.09055418
98	0x3d7d9dac	0.061917946
99	0xbe1638fb	-0.14670174
100	0x3dc6991f	0.09697174
101	0xbb48c9f4	-0.0030637952
102	0x3d039ad2	0.03213007
103	0x3c8ec8d9	0.017429756
104	0xbd6cea96	-0.057840906
105	0x3ddf6870	0.10908592
106	0x3d955a0c	0.07292566
107	0xbdbc7921	-0.09202791
108	0xbc597ee4	-0.013274882
109	0x3d1e0315	0.038577158
110	0x3e108a36	0.14115223
111	0xbe00ec6f	-0.12590192
112	0xbd80cf7f	-0.06289577
113	0x3dd13521	0.10215212
114	0x3d8f53c9	0.069984026
115	0xbcac90c6	-0.021065127
116	0xbe087311	-0.13325144
117	0xbc591335	-0.013249208
118	0x3cb9208c	0.022598527
119	0x3d76057b	0.06006382
120	0xbd60a17c	-0.054841504
121	0x3dd5cd86	0.10439591
122	0x3d0b0428	0.03393951
123	0xbe201391	-0.15632464
124	0x3db81499	0.08988304
125	0x3d9857ed	0.074386455
126	0xbdba85a7	-0.091075234
127	0xbdd0f5d4	-0.10203138
128	0xbddc5700	-0.107587814
129	0xbdd6b961	-0.10484577
130	0x3e1d0024	0.15332085
131	0xbd54c584	-0.051946178
132	0xbddd091e	-0.107927546
133	0x3d030288	0.031984836
134	0xbd8bd358	-0.0682742
135	0x3de12e85	0.10995201
136	0xbd64fc71	-0.05590481
137	0x3dff4719	0.12464733
138	0xbe493a25	-0.19651087
139	0x3d8293a7	0.06375819
140	0x3dfaf87c	0.12254426
141	0xbd82a172	-0.063784495
142	0x3e153e8f	0.14574645
143	0xbe9c59f7	-0.30537388
144	0xbc15630d	-0.009117854
145	0x39b69b65	0.00034829523
146	0x3d08be2a	0.03338448
147	0xbe748ea3	-0.23882537
148	0xbe35d606	-0.17757425
149	0x3c2e3f05	0.010635142
150	0x3d27eefc	0.040999398
151	0xbd4f01ae	-0.05053871
152	0xbdf25d9a	-0.11834259
153	0x3ccc9018	0.024971053
154	0x3bfd268f	0.007725544
155	0xbbc1e654	-0.00591735
156	0xbea6f2c4	-0.3260709
157	0xbdc997d9	-0.09843416
158	0x3b586ecb	0.0033025022
159	0x3def937b	0.116980515
160	0x3e0765cc	0.13222426
161	0xbc9673a1	-0.018365683
162	0xbdbf2bfb	-0.093345605
163	0x3d336f03	0.04380704
164	0x3d50de89	0.050993476
165	0x3d104447	0.035221364
166	0x3e00964f	0.12557338
167	0xbdc5022d	-0.096195556
168	0x3d32245e	0.043491714
169	0xbe0c26a1	-0.13686611
170	0x3d661f31	0.05618209
171	0xbccffa69	-0.02538796
172	0xbd44ff90	-0.048095286
173	0x3db17ee1	0.08666778
174	0xbc7e3a14	-0.015516777
175	0x3b46e5cc	0.0030349372
176	0x3e24d84a	0.16098133
177	0x3ddac78e	0.10682593
178	0xbe5634a3	-0.20918517
179	0x3d24b57b	0.040212136
180	0xbc0d10dd	-0.008609978
181	0xbddbe245	-0.10736517
182	0xbd18a6a8	-0.03726831
183	0x3e23af22	0.15984777
184	0x3d474434	0.048649028
185	0x3e339edd	0.1754107
186	0x3d309b30	0.04311675
187	0xbcc2e6ba	-0.02379166
188	0x3d01f116	0.031724058
189	0xbccfe60a	-0.025378246
190	0x3d329245	0.043596525
191	0xbc806f13	-0.015677964
192	0xbbaec293	-0.0053332536
193	0xbcd7a2a0	-0.026322663
194	0xbdf47c8a	-0.119378164
195	0xbdde045f	-0.108406775
196	0xbe0e7355	-0.13911183
197	0xbdecd7d6	-0.11564605
198	0x3e07f0f8	0.13275516
199	0x3d547ff1	0.051879827
200	0x3d4f9bfa	0.05068586
201	0x3d30a766	0.043128394
202	0x3e19e546	0.15028867
203	0x3dfb79b1	0.1227907
204	0xbd83fc00	-0.064445496
205	0x3da34170	0.079714656
206	0xbe14f712	-0.14547375
207	0xbdcab860	-0.09898448
208	0xbe043501	-0.12910844
209	0x3aa51987	0.0012596109
210	0x3d9da914	0.07698265
211	0xbe0ecef5	-0.13946135
212	0xbde8716a	-0.11349757
213	0xbdd860cb	-0.10565337
214	0x3d76fe5a	0.060301162
215	0xbe0e029f	-0.13868187
216	0x3e1182b9	0.14210023
217	0x3d8871bc	0.06662318
218	0x3e222228	0.15833342
219	0x3c4d886a	0.012544731
220	0x3e29748b	0.16548364
221	0x3c33ff11	0.010986106
222	0x3d42237e	0.04739713
223	0xbd55290e	-0.052041106
224	0xbdaccc95	-0.084374584
225	0xbe55e873	-0.20889454
226	0xbc78d2eb	-0.0151870055
227	0x3e0b4081	0.13598825
228	0xbde2d062	-0.11074902
229	0xbd8040d7	-0.06262367
230	0x3d443204	0.04789926
231	0x3e025af0	0.12730002
232	0x3d916706	0.07099728
233	0x3d00a014	0.031402662
234	0x3c96e8ff	0.018421648
235	0x3e11c228	0.14234221
236	0xbd085761	-0.033286456
237	0xbd5f36fb	-0.054495793
238	0x3daf507d	0.08560274
239	0x3d2a4d97	0.0415779
240	0x3d1171f6	0.035509072
241	0xbc91a2ce	-0.017777827
242	0xbc1564a8	-0.009118237
243	0x3d18aa08	0.03727153
244	0x3d1b1e8a	0.03787092
245	0xbdd8d608	-0.10587698
246	0xbb04f849	-0.002028959
247	0xbd457a22	-0.048212178
248	0xbce4266f	-0.027850358
249	0x3cb63ac8	0.022244826
250	0x3e999d72	0.30002934
251	0xbc9cf903	-0.019161707
252	0x3d25fb18	0.040522665
253	0xbcba08f3	-0.022709345
254	0x3c4cd350	0.012501553
255	0xbd36462f	-0.044500526

lstm_layers.0.bias_ih_l0 f4 [324]
0	0xbdb40bd5	-0.08791319
1	0xbd3e4831	-0.046455566
2	0xbdadda97	-0.08488958
3	0x3dd13c68	0.102166
4	0x3c82daf9	0.015973555
5	0xbd0c0c5f	-0.034191485
6	0x3c1c24d7	0.009530268
7	0xbd98e57c	-0.07465646
8	0xbdb5fccb	-0.08886107
9	0x3ce0526c	0.027383052
10	0xbb75268d	-0.0037407011
11	0xbd479568	-0.04872647
12	0xbe0644ff	-0.13112257
13	0x3ae66a7a	0.001757934
14	0xbcae5afb	-0.021283617
15	0x3d3f049a	0.046635248
16	0xbc5f9ab4	-0.013647724
17	0xbdb2bf6e	-0.087279186
18	0x3de4602d	0.111511566
19	0x3b90522e	0.004404328
20	0xbcedbeea	-0.029021699
21	0xbe04c69c	-0.12966388
22	0x3daae1ef	0.08343875
23	0x3d13d821	0.03609479
24	0xbdc7dc80	-0.09758854
25	0xbd527b04	-0.051386848
26	0xbd279cc5	-0.04092099
27	0x3d9444b6	0.07239668
28	0x3da39a2b	0.079883896
29	0x3d6cf326	0.057849072
30	0xbda24087	-0.07922464
31	0x3cbc62ad	0.022996271
32	0xbc1e36da	-0.009656632
33	0xbc65e042	-0.014030518
34	0x3c01459b	0.00789013
35	0xbd5aaa3d	-0.053385008
36	0x3e0cc9f5	0.13748915
37	0x3cd19141	0.025581958
38	0xbdc0b501	-0.09409524
39	0xbc27fc39	-0.010253006
40	0xbdf8ccc8	-0.12148434
41	0xbb0cece7	-0.002150351
42	0xbd88d2ee	-0.06680857
43	0xbe27e06e	-0.16394207
44	0xbd00883e	-0.03137993
45	0xbd883d1c	-0.06652281
46	0xbdd9a22f	-0.10626637
47	0xbd436df6	-0.04771229
48	0xbd9d31e3	-0.07675531
49	0x3d376549	0.044774327
50	0xbdef90bb	-0.11697527
51	0x3dc3cf49	0.09561021
52	0xbe03109d	-0.12799306
53	0xbb68bb3e	-0.0035511996
54	0x3dce689b	0.10078546
55	0x3d7e1bf6	0.062038384
56	0xbc3a706f	-0.011379345
57	0x3ca80a4e	0.020512726
58	0xbdae2dc8	-0.08504826
59	0xbe3924f1	-0.18080498
60	0xbdf99c3c	-0.121880025
61	0xbd7d87ae	-0.061896972
62	0x3c409b8d	0.011755836
63	0xbe09508e	-0.13409635
64	0xbd8bdc00	-0.06829071
65	0xbd0ab33d	-0.03386234
66	0x3ca055ff	0.019572256
67	0x3d20797e	0.039178364
68	0x3e42d9cf	0.190284
69	0x3b2027ce	0.0024437788
70	0xbdcf562b	-0.10123857
71	0xbd1bdc3d	-0.038051832
72	0xbd63f247	-0.055650976
73	0x3d2753aa	0.040851273
74	0xbca1ccec	-0.019751035
75	0x3d862ee8	0.065519154
76	0xbd305c60	-0.043056846
77	0xbdd13115	-0.1021444
78	0x3d4ad5d4	0.04952033
79	0x3de1809d	0.11010859
80	0x3b85c910	0.0040828064
81	0xbdad053d	-0.08448265
82	0xbe03fb06	-0.12888727
83	0xbde8a9de	-0.113605246
84	0xbca899ef	-0.020581214
85	0xbcfd733e	-0.03093874
86	0xbdda6e27	-0.10665541
87	0x3b081e15	0.0020769883
88	0xbd17c202	-0.037050255
89	0xbde8c400	-0.11365509
90	0xbd8dafdb	-0.069183074
91	0x3dc3fc4c	0.09569606
92	0xbd9f8ff9	-0.077911325
93	0xbdbc1409	-0.09183509
94	0xbd809784	-0.06278899
95	0x3dfafdbc	0.12255427
96	0xbd4ed61b	-0.050497156
97	0x3d83113f	0.06399774
98	0x3e0ef2f8	0.13959873
99	0xbc0c0e92	-0.008548396
100	0x3cbb2c53	0.022848284
101	0x3ced939c	0.02900105
102	0xbd39277a	-0.045203663
103	0xbe12ab78	-0.14323223
104	0x3d811126	0.06302099
105	0xbd9668b4	-0.07344189
106	0xbdf39bdf	-0.118949644
107	0x3cf5dc0b	0.030012151
108	0x3da3f17c	0.08005044
109	0x3d03f792	0.032218523
110	0xbd515f4d	-0.051116277
111	0xbdec9daa	-0.115535095
112	0xbd41600f	-0.04721075
113	0xbcf70d14	-0.030157603
114	0xbdf5bf75	-0.11999408
115	0xbb7da572	-0.003870335
116	0xbe00ff5c	-0.12597412
117	0x3c267a85	0.010161047
118	0x3df6ebfc	0.12056729
119	0xbdc292c2	-0.09500648
120	0xbde98dab	-0.11403974
121	0xbdd22cba	-0.10262437
122	0xbc2fc49f	-0.01072803
123	0xbe0d27e9	-0.13784756
124	0xbb7b26f4	-0.0038322778
125	0xbd6c840e	-0.057743125
126	0x3d8b517b	0.068026505
127	0xbdb9ae9e	-0.09066509
128	0xbbd14d95	-0.0063874223
129	0xbd07b521	-0.033131722
130	0x3dc78218	0.0974161
131	0xbe102e51	-0.14080168
132	0xbd947170	-0.07248199
133	0xbdfd40a2	-0.12365843
134	0xbdc7492d	-0.09730754
135	0x3d8a9138	0.067659795
136	0xbb90358d	-0.004400915
137	0xbd22d086	-0.039749645
138	0xbda17b1f	-0.078848116
139	0x3dba7cd8	0.09105843
140	0xbd0c52e8	-0.034258753
141	0xbd155e6d	-0.036467005
142	0xbdc6dbef	-0.09709918
143	0xbd9503f5	-0.07276145
144	0xbd2baf35	-0.041915137
145	0xbdd0e528	-0.10199958
146	0xbe059385	-0.13044555
147	0x3c25ca7f	0.01011908
148	0xbd328a66	-0.04358902
149	0xbcd49a19	-0.025952386
150	0xbdc71337	-0.09720462
151	0xbdf05140	-0.11734247
152	0x3dbe8532	0.09302749
153	0x3a8c5d10	0.0010708887
154	0xbd981d23	-0.074274324
155	0xbe0ab1d6	-0.13544402
156	0x3e161132	0.14654997
157	0xbd873b87	-0.06603151
158	0x3daee0d9	0.0853898
159	0x3db21447	0.08695274
160	0x3dc12172	0.09430207
161	0x3d8c953b	0.06864401
162	0xbcd6ab39	-0.026204692
163	0x3d925c2f	0.07146489
164	0xbd89abf3	-0.0672225
165	0x3e04b42f	0.1295936
166	0xbdefdaba	-0.11711641
167	0x3d8d765b	0.0690734
168	0x3da98249	0.08276803
169	0x3d95a773	0.07307329
170	0xbe2c4549	-0.16823305
171	0x3d9e198f	0.07719719
172	0xbd92314e	-0.071383104
173	0x3d90b9c0	0.07066679
174	0x3cee67b4	0.029102184
175	0x3db2a13b	0.087221585
176	0xbb80ffa8	-0.0039367266
177	0x3d8b67d7	0.06806915
178	0xbda31808	-0.07963568
179	0x3d985c7b	0.07439514
180	0x3ccfce44	0.02536691
181	0x3d5ecd4d	0.05439501
182	0x3d5be3da	0.053684093
183	0x3d96e9a0	0.07368779
184	0xbd607ace	-0.054804616
185	0xbe1f460a	-0.15554062
186	0x3ca49d8b	0.020094654
187	0xbcb414b2	-0.021982525
188	0xbc288f5a	-0.010288084
189	0xbccc0b92	-0.02490786
190	0xbd27c727	-0.04096141
191	0xbcf57c5e	-0.02996653
192	0x3d8b84a3	0.06812408
193	0x3dac1afe	0.08403586
194	0xbe0611f6	-0.13092789
195	0x3d796cb5	0.060894687
196	0xbd907fb9	-0.07055611
197	0x3dbbf352	0.09177269
198	0x3d766fe2	0.060165294
199	0x3ddb9ae4	0.107229024
200	0xbd2065b3	-0.039159488
201	0x3e3bc4c9	0.18336786
202	0x3dd01353	0.10159936
203	0xbde51e64	-0.11187437
204	0xbd80572c	-0.06266627
205	0x3d01e35f	0.03171098
206	0x3dce787a	0.10081573
207	0xbba6df17	-0.0050925124
208	0x3d032c47	0.032024648
209	0xbd67f4a2	-0.056629784
210	0xbd72817f	-0.05920553
211	0x3d48c1c3	0.04901291
212	0x3d2536ac	0.040335342
213	0xbd8c8e66	-0.06863098
214	0x3e018e6a	0.12651983
215	0x3d306a97	0.043070402
216	0x3d7ead5f	0.06217706
217	0x3dda2913	0.106523655
218	0x3c441816	0.011968633
219	0x3c906486	0.017626058
220	0xbccb3381	-0.024804832
221	0x3dcf9a35	0.101368345
222	0xbd03c5bb	-0.032170992
223	0xbccc07ab	-0.024906
224	0x3d6fbb6c	0.05852835
225	0xbde14b27	-0.11000662
226	0xbd8e0cd9	-0.06936044
227	0x3cdff233	0.02733717
228	0xba88b481	-0.0010429771
229	0x3db8e595	0.09028164
230	0x3e2c38fc	0.16818613
231	0x3e08ac46	0.13346967
232	0xbd7667c6	-0.06015756
233	0xbcd71b54	-0.026258148
234	0xbe04d7b5	-0.1297291
235	0x3c839959	0.016064333
236	0xbb34813c	-0.002754285
237	0xbdc578ba	-0.096421674
238	0x3bb6b7c8	0.0055761077
239	0x3de7fa20	0.113270044
240	0x3d343be6	0.044002436
241	0x3d3a1af0	0.045435846
242	0x3e0dd880	0.1385212
243	0xbc82759b	-0.01592522
244	0x3c8d8ff5	0.017280558
245	0xbe074828	-0.13211119
246	0x3d9ee234	0.077579886
247	0xbe08a8ba	-0.13345614
248	0x38ac7f4b	8.225309e-05
249	0xbdb6b58b	-0.08921345
250	0xbccf09b0	-0.025273174
251	0xbd230e12	-0.03980834
252	0xbdfc561b	-0.12321111
253	0x3cad8a87	0.021184219
254	0xbe08d000	-0.13360596
255	0xbe0a9926	-0.13534984

lstm_layers.0.bias_hh_l0 f4 [324]
0	0xbdc66c3d	-0.096886136
1	0x3d89ea0d	0.06734095
2	0x3bc670ab	0.0060559115
3	0x3dcac03a	0.098999456
4	0xbdf8dd03	-0.1215153
5	0xbdd20584	-0.10254958
6	0xbe0257c2	-0.1272879
7	0x3d2799a5	0.04091801
8	0x3d5c05ab	0.053716343
9	0xbdfc6556	-0.12324016
10	0xbd87a144	-0.06622556
11	0xbe333981	-0.17502405
12	0xbd206241	-0.039156202
13	0x3d41d636	0.047323428
14	0x3e0a57d3	0.13510065
15	0xbd85bb1d	-0.0652983
16	0xbd2f289a	-0.04276333
17	0xbde3eca0	-0.11129117
18	0x3ba2fa83	0.004973711
19	0x3dabf58e	0.08396445
20	0xbd93bbc6	-0.07213549
21	0xbd9732ec	-0.073827595
22	0xbad2c362	-0.0016079957
23	0x3cda0c3d	0.026617164
24	0x3da789d2	0.08180584
25	0x3cd94948	0.026524201
26	0xbca63740	-0.020290017
27	0x3e0fcbd2	0.14042595
28	0x3d0cc986	0.034371875
29	0xbdadf619	-0.08494205
30	0x3ce81db5	0.028334478
31	0xbe03b859	-0.12863292
32	0x3d825dcd	0.06365547
33	0xbdd95641	-0.10612155
34	0xbdc6872e	-0.09693752
35	0xbdf0e92f	-0.11763226
36	0x3e2aae51	0.16668059
37	0x3e1583f7	0.14601122
38	0xbd848c12	-0.06472029
39	0xbd3d0911	-0.046151225
40	0x3c15b527	0.009137428
41	0x3d7d72e6	0.061877154
42	0x3b118589	0.0022204837
43	0xbdfc2340	-0.12311411
44	0x3db18bff	0.0866928
45	0x3d14b411	0.036304537
46	0xbcddcdc9	-0.027075665
47	0xbdf836fb	-0.12119862
48	0x3bd08fff	0.006364822
49	0x3c2598ec	0.01010726
50	0xbd901e80	-0.070370674
51	0x3cfa1276	0.030526381
52	0xbccb29a4	-0.02480013
53	0xbcd58f0b	-0.026069185
54	0x3d8547f2	0.06507863
55	0x3d83a572	0.064280406
56	0xbd8a21bd	-0.06744716
57	0x3d889281	0.066685684
58	0xbdb5ca9f	-0.088765375
59	0xbdc1ccc2	-0.094628826
60	0x3c96e4ff	0.01841974
61	0x3c8ebb66	0.017423343
62	0xbd36ea73	-0.044657182
63	0x3d8601fa	0.06543346
64	0xbd8b3611	-0.06797422
65	0x3d04eabd	0.032450426
66	0x3d9e42d2	0.07727589
67	0x3da7e485	0.081978835
68	0x3e0ad057	0.13556038
69	0x3cadc72a	0.021213133
70	0xbc1ec203	-0.009689811
71	0x3d32fc57	0.04369768
72	0xbdd7fb51	-0.10545982
73	0x3aa88723	0.0012857657
74	0xbce495c1	-0.02790344
75	0xbd296c0f	-0.04136282
76	0x3d9efa7e	0.07762621
77	0x3dc2b83d	0.09507797
78	0xbcd56cc0	-0.026052833
79	0x3de62134	0.11236802
80	0x3d50733f	0.050891157
81	0xbd7993f5	-0.06093212
82	0xbd5428e2	-0.0517968
83	0x3d02bbe8	0.031917483
84	0xbc272256	-0.010201057
85	0xbdcc4067	-0.09973221
86	0xbbfc9e8a	-0.007709329
87	0x3c2c3e66	0.010512924
88	0x3dd999a1	0.106250055
89	0xbca6e24a	-0.020371575
90	0xbcce1bc6	-0.025159728
91	0xbdb6cc04	-0.08925632
92	0xbdf9e337	-0.12201541
93	0x3caaf08e	0.020866659
94	0x3cc225b4	0.023699619
95	0xbba60ecd	-0.0050676824
96	0x3ceec642	0.029147271
97	0xbd9160e7	-0.07098561
98	0x3d077a68	0.03307572
99	0xbc18adcc	-0.00931878
100	0x3d29201e	0.041290395
101	0x3cafe234	0.021470167
102	0x3b800f49	0.003908072
103	0xbd464fc1	-0.048415903
104	0xbd0677d0	-0.032829106
105	0x3d8588aa	0.06520207
106	0x3ccd9df7	0.025099738
107	0xbd74346a	-0.0596203
108	0x3d82bfc7	0.06384235
109	0xbc3622f1	-0.011116729
110	0x3dbe5c27	0.092949204
111	0x3d0046b6	0.031317435
112	0x3cb45e24	0.022017546
113	0xbe0415b6	-0.12898907
114	0xbd7c28c6	-0.061562322
115	0x3bf0759a	0.007338238
116	0x3c56eddb	0.013118233
117	0x3e32f56d	0.17476435
118	0x396d1626	0.00022610332
119	0xbde281ab	-0.110598885
120	0x3d0dc3b5	0.03461047
121	0xbc770a32	-0.015078114
122	0xbdfe9d2a	-0.124323204
123	0x3d56c389	0.05243257
124	0xbdf7ca2a	-0.120991066
125	0xbdf05a4b	-0.11735972
126	0x3d9c5982	0.0763426
127	0xbdcd5fab	-0.10028013
128	0xbde2814d	-0.110598184
129	0xbdaba118	-0.083803356
130	0xbd13e642	-0.036108263
131	0xbd21b92d	-0.039483238
132	0xbd4b875c	-0.049689636
133	0xbdc1087f	-0.094254486
134	0xbd3f4c2a	-0.046703495
135	0x3e0124d8	0.12611711
136	0x3c4901c5	0.012268488
137	0x3dae0540	0.08497095
138	0xbcf9b9ab	-0.030484041
139	0x3dc14571	0.09437073
140	0xbcb7e467	-0.022447778
141	0xbdd1cd5a	-0.10244246
142	0xbcf8aede	-0.03035682
143	0xbdabef09	-0.08395202
144	0xbda3bc28	-0.07994872
145	0xbd8e6ba8	-0.069541276
146	0xb8d99e7c	-0.00010376886
147	0x3e109b99	0.14121856
148	0xbd592a47	-0.053018834
149	0x3dc5d662	0.09660031
150	0x3d252d85	0.040326614
151	0x3bbfd909	0.00585473
152	0x3cf87370	0.030328482
153	0x3cb41ca4	0.021986313
154	0xbd69f84a	-0.057121553
155	0xbd3e576b	-0.046470087
156	0xbd4c4f1e	-0.04988014
157	0x3da82ab7	0.08211272
158	0xbb663e17	-0.0035132223
159	0xbd7d0976	-0.0617766
160	0xbcd35f0a	-0.025802154
161	0xbdcd11bc	-0.10013148
162	0x3df47919	0.1193716
163	0xbd905386	-0.07047181
164	0xbd91c345	-0.07117323
165	0x3c34eaf2	0.011042343
166	0xbd9b35ca	-0.07578619
167	0xbd982c74	-0.07430354
168	0x3d4aade9	0.04948226
169	0x3cd3b4d1	0.025843056
170	0xbd238d29	-0.039929543
171	0x3cc98210	0.024598151
172	0xbcaf5457	-0.021402521
173	0xbdada21a	-0.08478184
174	0xbdbdd00a	-0.09268196
175	0x3d493941	0.049126867
176	0x3dbb3863	0.09141614
177	0x3d883bfb	0.06652065
178	0x3d328f8f	0.04359394
179	0x3e10c8af	0.14139055
180	0xbd942a89	-0.072346754
181	0xbd36716d	-0.044541765
182	0xbc78392c	-0.01515035
183	0x3e064e71	0.1311586
184	0xbdf027ac	-0.11726317
185	0xbe6f562f	-0.2337272
186	0x3c689584	0.014195804
187	0x3d37fd86	0.044919513
188	0xbe323303	-0.17402272
189	0xbc11e7aa	-0.008905331
190	0xbc8a7e45	-0.016905913
191	0x3df21e70	0.11822212
192	0x3d7aadd2	0.061200924
193	0x3dd4783a	0.10374494
194	0xbd87e07c	-0.06634614
195	0x3d2daa5a	0.042398788
196	0x3bb6d524	0.0055796076
197	0xbd85f5f9	-0.06541056
198	0x3b912221	0.0044291173
199	0x3da74496	0.081673786
200	0x3b9390e7	0.0045033577
201	0x3d18843a	0.037235476
202	0xbd1bc16d	-0.038026262
203	0x3d12a71c	0.0358039
204	0x3cebb7b6	0.028774124
205	0xbd06b9a3	-0.03289188
206	0x3e610eb1	0.2197826
207	0x3c41d641	0.011830867
208	0xbe141ced	-0.1446416
209	0xbdb812df	-0.089879744
210	0x3d6447bc	0.055732474
211	0x3e1b85a2	0.15187696
212	0xbcc7f3f4	-0.024408318
213	0xba82f5f7	-0.0009991516
214	0x3d736fcc	0.05943279
215	0x3e22502c	0.15850896
216	0x3d65952b	0.05605046
217	0xbd088f6f	-0.033339914
218	0xbe171ad4	-0.14756328
219	0x3d7dd8b4	0.061974242
220	0x3c4ee5dc	0.012628045
221	0x3bf62c73	0.007512623
222	0x3d62052d	0.055180717
223	0x3c5da48e	0.013528002
224	0x3bd0dd8e	0.0063740676
225	0xbceaebed	-0.028676951
226	0xbda165f8	-0.07880777
227	0xbd8274d9	-0.06369943
228	0x3dab4a38	0.083637655
229	0x3d3a1a0e	0.045435004
230	0x3dc788be	0.097428784
231	0x3e0c9d96	0.1373199
232	0xbd60491a	-0.054757215
233	0xbd4895ca	-0.048970975
234	0x3ac63e87	0.0015124836
235	0xbddaead0	-0.10689318
236	0xbd7719eb	-0.06032745
237	0xbb8de625	-0.004330414
238	0x3e1e78f6	0.1547583
239	0x3b0baa24	0.0021311129
240	0xbd717dfe	-0.058958046
241	0x3cb21bd0	0.021741778
242	0x3def6f89	0.116911955
243	0x3c0187a1	0.007905872
244	0x3d9917fd	0.074752785
245	0x3d4e8aa3	0.050425183
246	0x3de15824	0.110031396
247	0xbdffe03d	-0.12493942
248	0xbe046401	-0.12928773
249	0xbe0310cc	-0.12799376
250	0x3db444b7	0.08802169
251	0x3c48e472	0.012261497
252	0x3c2e477d	0.010637161
253	0xbddfa87a	-0.10920806
254	0xbda8dbc3	-0.08245041
255	0xbd78a879	-0.060707543

lstm_layers.0.weight_ih_l0_reverse f4 [324, 11]
0	0xbd72e34c	-0.0592988
1	0x3de249e6	0.11049251
2	0x3d3db4f7	0.04631516
3	0x3c3e0d2a	0.011599818
4	0x3e18dd1c	0.14928097
5	0x3de2de5d	0.11077569
6	0x3e298c5b	0.16557448
7	0x3d69dcbe	0.05709528
8	0x3e1c8442	0.15284827
9	0xbcda7174	-0.026665427
10	0x3d42a8b1	0.047524158
11	0xbc32239d	-0.010872749
12	0x3e118df7	0.14214312
13	0xbe0890ba	-0.13336459
14	0x3ea46073	0.32104835
15	0x3e23d448	0.15998948
16	0x3d21d034	0.0395052
17	0xbcfef1c1	-0.031121137
18	0x3da6c96c	0.08143887
19	0x3e0be293	0.1366065
20	0xbdab1e07	-0.08355337
21	0x3cdb57d7	0.026775284
22	0xbcda1e45	-0.026625762
23	0xbd74f218	-0.05980119
24	0x3de167ba	0.110061124
25	0xbe8f3fbd	-0.27978316
26	0xbdb6906e	-0.089142665
27	0x3db9e9fa	0.090778306
28	0xbdb4d862	-0.08830334
29	0x3b08dd91	0.0020884017
30	0x3d2856cb	0.041098397
31	0x3be061ec	0.0068476107
32	0x3c8c26ad	0.017108286
33	0xbd7dbed4	-0.061949566
34	0xbd9dcf86	-0.077055976
35	0xbdfebaa5	-0.12437943
36	0xbe413bd2	-0.18870476
37	0xbe2ef587	-0.17085849
38	0xbdf183cb	-0.11792716
39	0x3d612a60	0.054972053
40	0xbc2ae523	-0.010430607
41	0x3c42bd3c	0.011885937
42	0x3ba6ac13	0.005086431
43	0x3e0f2aa2	0.13981107
44	0x3d78a007	0.06069949
45	0x3bf32a54	0.0074208174
46	0xbe33f7bb	-0.1757497
47	0xbce34d1c	-0.02774673
48	0xbe1997fd	-0.14999385
49	0xbdd28824	-0.10279873
50	0x3c0d0eda	0.008609498
51	0xbd8b0a33	-0.06789055
52	0xbd0b88a8	-0.034065872
53	0x3df4cf10	0.119535565
54	0xbe1793f2	-0.1480253
55	0xbdfe0287	-0.12402826
56	0xbe0e597e	-0.13901326
57	0x3d809ba0	0.06279683
58	0x3db8c0bc	0.09021136
59	0x3ccc00bd	0.024902696
60	0xbdbdb09f	-0.092622034
61	0xbde225bd	-0.11042354
62	0xbe031866	-0.12802276
63	0x3d17b344	0.037036195
64	0x3c09a640	0.0084014535
65	0x3c215eeb	0.00984929
66	0x3db88d62	0.09011342
67	0xbc23e62a	-0.010003606
68	0xbcee76fc	-0.02910947
69	0x3ed6beef	0.41942546
70	0x3e779218	0.24176824
71	0x3c2fbbf2	0.010725962
72	0x3d12973a	0.035788752
73	0x3e0c1265	0.13678892
74	0x3d26aeea	0.040694155
75	0x3ddc9645	0.10770849
76	0x3dc44f2d	0.09585414
77	0xbe246ecb	-0.16057889
78	0xbc282595	-0.0102628665
79	0xbe1a03b1	-0.1504047
80	0xbe3536ec	-0.17696732
81	0x3d04329f	0.03227484
82	0x3b916ec8	0.004438255
83	0xbdb14385	-0.086554565
84	0xbd6eb460	-0.058277488
85	0xbd4439f3	-0.047906827
86	0xbdfb43e1	-0.12268806
87	0xbe389421	-0.18025257
88	0x3d755beb	0.059902113
89	0xbca4beef	-0.020110575
90	0xbd6be929	-0.057595406
91	0xbe489428	-0.19587767
92	0x3d4ff593	0.050771307
93	0xbb37420c	-0.002796295
94	0xbd7ae969	-0.061257754
95	0xbcd09e58	-0.02546613
96	0x3c67fea8	0.014159836
97	0x3c196447	0.009362287
98	0xbe55e015	-0.20886262
99	0xbdc504fa	-0.0962009
100	0xbc16e293	-0.009209293
101	0x3e25d5b1	0.16194798
102	0xbd023b26	-0.03179469
103	0x3e3e845a	0.18605176
104	0x3de7a252	0.11310257
105	0x3e0c0ed1	0.13677527
106	0x3dbb48f0	0.09144771
107	0x3dc1cdbb	0.09463068
108	0x3e1e5ce1	0.15465118
109	0xbba87b6e	-0.005141667
110	0x3d4168df	0.047219153
111	0xbc38ad3d	-0.011271772
112	0x3d4be3ba	0.049777724
113	0x3e8f0950	0.27936792
114	0x3e634824	0.22195488
115	0x3dabd854	0.08390871
116	0x3da0374a	0.078230456
117	0x3d63c911	0.055611674
118	0xbd09232e	-0.033480816
119	0xbae3bed1	-0.0017375593
120	0xbd314959	-0.04328284
121	0x3d17819e	0.036988847
122	0xbd8fa43b	-0.07013746
123	0xbcd5dcc4	-0.026106246
124	0xbd8dddbf	-0.0692706
125	0x3d8122e6	0.063054845
126	0xbd64e175	-0.055879075
127	0xbd72234d	-0.059115697
128	0xbb664d4f	-0.0035141294
129	0x3d057e39	0.03259108
130	0x3d49eb9d	0.049296964
131	0xbe320cab	-0.17387645
132	0xbe3974ee	-0.18111011
133	0xbd502d68	-0.050824553
134	0xbe5f5f5d	-0.21813722
135	0xbe0b74c4	-0.13618761
136	0xbcf16ca7	-0.029470755
137	0xbd90823f	-0.070560925
138	0xbe4672ae	-0.19379684
139	0xbe28b77a	-0.16476241
140	0xbe20c72e	-0.15700981
141	0x3cd64ecc	0.02616062
142	0xbe59d4f2	-0.21272638
143	0x3c3d5c02	0.011557581
144	0xbcca1e55	-0.024672667
145	0x3d5a998e	0.053369097
146	0xbe3c3c51	-0.18382384
147	0x3de04482	0.10950567
148	0x3a8fe8c0	0.0010979399
149	0x3dac25db	0.08405658
150	0xbd4886b8	-0.048956603
151	0x3df2ea97	0.11861151
152	0x3c3fee6f	0.011714562
153	0xbe240803	-0.16018681
154	0xbe06a266	-0.13147888
155	0x3d1fa6d1	0.038977448
156	0xbe075a54	-0.13218051
157	0xbe9d8d4f	-0.30771872
158	0xbe24f121	-0.16107608
159	0x3c48629c	0.012230542
160	0xbd0e34b3	-0.034718227
161	0x3d73a5c8	0.059484273
162	0x3dc10d38	0.094263494
163	0x3df63dd3	0.12023511
164	0x3dd0c3b3	0.10193577
165	0x3db6d516	0.08927362
166	0xbe269767	-0.16268693
167	0x3dab7f39	0.08373875
168	0x3dcd55ec	0.10026154
169	0xbd9e4610	-0.07728207
170	0xbb2ede26	-0.0026682704
171	0xbd6fc1e6	-0.058534525
172	0xbd7ec482	-0.062199123
173	0x3d406b88	0.04697755
174	0xbd969ff3	-0.07354727
175	0xbdbce920	-0.092241526
176	0xbe1c2f85	-0.15252502
177	0xbe0a3cb7	-0.13499723
178	0xbde6c533	-0.112680815
179	0xbe7783a4	-0.2417131
180	0xbe892159	-0.26783255
181	0xbdfd2a56	-0.123615906
182	0xbd69e945	-0.05710723
183	0xbdb43b35	-0.08800355
184	0xbdc30924	-0.09523228
185	0xbdb4fd33	-0.088373564
186	0x3d9d55c8	0.07682377
187	0xbdef428c	-0.11682615
188	0xbd8fde2f	-0.070248
189	0x3da089af	0.07838761
190	0xbdd58e5f	-0.10427546
191	0xbdaa5547	-0.083170466
192	0x3c9750bc	0.018471114
193	0xbded7c14	-0.11595932
194	0xbda38606	-0.07984547
195	0x3cbc6399	0.02299671
196	0xbd8cd939	-0.068773694
197	0xbe0f0a19	-0.13968696
198	0xbe005623	-0.12532859
199	0xbc9400e3	-0.01806683
200	0xbd5ac7a4	-0.05341305
201	0xbdf5e729	-0.12006981
202	0xbdc237f1	-0.09483326
203	0xba3b72b2	-0.0007150575
204	0xbe3389da	-0.17533055
205	0xbd1aa5b2	-0.037755676
206	0xbd84508d	-0.06460676
207	0xbe1d6ec5	-0.15374286
208	0xbe24a635	-0.16079028
209	0x3e16273a	0.14663401
210	0x3cb9cbf5	0.022680262
211	0x3d937c90	0.07201493
212	0xbd930bcc	-0.071799845
213	0xbe05958f	-0.13045333
214	0x3d8132c1	0.06308509
215	0x3c8565fd	0.016283983
216	0x3e1efde4	0.15526539
217	0x3da902ee	0.08252512
218	0x3c441b78	0.01196944
219	0x3d1ffb09	0.039057765
220	0xbc20935e	-0.00980076
221	0xbe2c15ab	-0.1680514
222	0xbda7f585	-0.08201126
223	0xbc8af25f	-0.016961275
224	0xbe46a858	-0.19400156
225	0x3c469414	0.0121202655
226	0xbcfb1d74	-0.030653693
227	0xbd541ba3	-0.05178417
228	0xbd7a3b39	-0.061091635
229	0xbd8226e3	-0.06355073
230	0xbd868488	-0.06568247
231	0x3db83c97	0.089959316
232	0xbe1720fb	-0.14758675
233	0xbde9a2e8	-0.11408025
234	0x3d949ea1	0.072568186
235	0x3b8b79a1	0.0042564427
236	0xbd822ddf	-0.063564055
237	0xbcce78e0	-0.025204122
238	0xbdf06b0e	-0.11739169
239	0xbd0dac82	-0.034588344
240	0xbd9ad0b8	-0.07559341
241	0xbdfc19c4	-0.12309602
242	0x3c985126	0.018593382
243	0xbe141564	-0.14461285
244	0xbdb568c9	-0.08857877
245	0xbdfc21da	-0.12311144
246	0xbdee819b	-0.11645814
247	0xbd9cefa4	-0.07662895
248	0xbd59cc32	-0.05317325
249	0xbdd32d38	-0.10311359
250	0xbd19acd2	-0.03751833
251	0x3d439dff	0.0477581
252	0x3d5bf3cb	0.053699296
253	0xbd843c5a	-0.06456824
254	0x3b9b2830	0.0047350153
255	0xbd347a0f	-0.044061717

lstm_layers.0.weight_hh_l0_reverse f4 [324, 81]
0	0x3e91048b	0.2832378
1	0xbc87b521	-0.016565861
2	0xbd9b846c	-0.07593617
3	0x3dde5029	0.10855133
4	0x3e066037	0.1312264
5	0xbd932ba6	-0.0718606
6	0x3e05bd8f	0.13060592
7	0xbc84d0a8	-0.016212776
8	0xbdb54ed0	-0.08852923
9	0x3d753b65	0.059871096
10	0x3d3f7e8e	0.04675155
11	0xbdd47786	-0.1037436
12	0xbcd5c0d6	-0.026092928
13	0xbde6bed4	-0.11266866
14	0xbd4c2fcf	-0.04985028
15	0xbdb58e0b	-0.08864983
16	0xbc7a0f8e	-0.015262498
17	0xbe5fcb6d	-0.21854945
18	0xbd6df696	-0.05809649
19	0x3e7adf41	0.24499227
20	0xbe44915d	-0.19196077
21	0x3d9bfc7a	0.076165155
22	0x3e4f5115	0.20245774
23	0xbde9fc9b	-0.11425134
24	0xbcd21d90	-0.025648862
25	0x3d6ba76c	0.057532713
26	0xbe07eaf4	-0.13273221
27	0x3a27f762	0.00064074073
28	0x3d48aa6f	0.048990663
29	0xbde648ff	-0.11244392
30	0x3d129cfb	0.03579424
31	0xbc75d70b	-0.0150048835
32	0xbb8cad8a	-0.0042931484
33	0xbc272399	-0.010201358
34	0x3e4307f3	0.19046001
35	0x3d4a3f3e	0.04937672
36	0x3d654a07	0.0559788
37	0x3cd13857	0.02553956
38	0xbd920384	-0.07129577
39	0x3d17a1d9	0.037019584
40	0x3df9fe77	0.122067384
41	0x3cce94e5	0.025217483
42	0xbd17f559	-0.037099216
43	0xbd332c1a	-0.04374323
44	0xbd0981a3	-0.033570897
45	0xbd11b016	-0.03556832
46	0xbcf7ace3	-0.030233806
47	0xbd3d268d	-0.046179343
48	0xbd0a72eb	-0.033801
49	0xbd053aa4	-0.032526627
50	0x3d16f288	0.03685239
51	0x3df98630	0.12183797
52	0xbbde53bd	-0.0067848847
53	0xbe3ca079	-0.1842059
54	0x3d5b7b60	0.053584456
55	0x3cd820e4	0.026382871
56	0x3e15ada0	0.14617014
57	0x3e0b1d04	0.13585287
58	0x3c9c92c3	0.01911295
59	0x3daa16ef	0.083051555
60	0x3d983dde	0.07433675
61	0x3d97ffb8	0.07421821
62	0x3ddf3fec	0.10900864
63	0x3d8624e5	0.06550006
64	0xbdf07caf	-0.117425315
65	0x3e3461b0	0.1761539
66	0x3d4f8977	0.050668206
67	0xbd5e31d0	-0.054246724
68	0xbccaf1fc	-0.02477359
69	0xbdf5fcbc	-0.12011096
70	0x39dd5ebf	0.00042222996
71	0x3ceb570c	0.02872803
72	0xbd37638e	-0.044772677
73	0x3deb3372	0.11484422
74	0xbe54e404	-0.20790106
75	0xbe055f9c	-0.13024753
76	0x3daa2e90	0.08309662
77	0x3bddc37a	0.0067676874
78	0x3c1137ed	0.008863431
79	0x3d018b50	0.031627
80	0xbe0779ef	-0.13230108
81	0xbd7a7ac4	-0.061152235
82	0xbcefedfd	-0.029288286
83	0x3d932ac1	0.07185889
84	0x3d387c6b	0.04504053
85	0x3d93a8b5	0.07209913
86	0xbdac6514	-0.084177166
87	0x3dea30ed	0.11435113
88	0xbdc69409	-0.09696204
89	0xbe0d5b1e	-0.1380429
90	0x3e00718c	0.12543315
91	0xbe11f810	-0.14254785
92	0x3c5933af	0.013256951
93	0xbe5546e4	-0.20827824
94	0x3cde6473	0.027147507
95	0x3c8c3585	0.017115364
96	0x3d72c797	0.059272375
97	0xbc8160c3	-0.01579321
98	0xbd3fc34f	-0.04681712
99	0x3dc5ac33	0.09651985
100	0xbce7d30c	-0.028298877
101	0xbba1ca13	-0.004937419
102	0xbdc15005	-0.09439091
103	0x3cf2d802	0.029644016
104	0xbd1a0073	-0.037598085
105	0x3c549ad5	0.012976368
106	0xbdb989e8	-0.09059507
107	0xbdd493fb	-0.103797875
108	0xbb8ea547	-0.0043531987
109	0xbd2ae137	-0.041718688
110	0x3ca8a1c8	0.020584956
111	0xbd3e9f65	-0.04653873
112	0x3e63ffa5	0.2226549
113	0xbd5116f6	-0.051047288
114	0xbdc07fb9	-0.09399361
115	0x3d4b1257	0.049578037
116	0xbcf8aac8	-0.030354872
117	0xbacfc226	-0.0015850707
118	0x3d38e113	0.045136523
119	0x3d670642	0.056402452
120	0x3d5c8450	0.05383712
121	0x3d4db6eb	0.050223272
122	0x3d31c69d	0.043402303
123	0x3da2e4b1	0.07953776
124	0xbe666a42	-0.22501472
125	0x3dfdc580	0.12391186
126	0x3e28a99e	0.16470954
127	0x3d55afb0	0.0521695
128	0xbde02f68	-0.10946542
129	0x3d49c3e2	0.049259074
130	0x3df9fd5e	0.12206529
131	0x3e00fd57	0.12596641
132	0x3ac5284e	0.0015041919
133	0x3d840272	0.06445779
134	0xbd8d1e98	-0.06890601
135	0x3e414f86	0.18877992
136	0x3dffa8d3	0.124833725
137	0x3d9c9886	0.07646279
138	0x3d8c8dc4	0.06862977
139	0xbdc18545	-0.09449247
140	0x3d6ce9b7	0.057840075
141	0xbcbb1342	-0.022836331
142	0x3ba62d1a	0.0050712945
143	0xbcf4f054	-0.029899754
144	0xbdeaa45e	-0.11457132
145	0xbe8658d5	-0.26239648
146	0xbd926a75	-0.07149211
147	0xbc7aa281	-0.015297533
148	0xbd915893	-0.07096972
149	0xbd33776d	-0.043815065
150	0x3c0b15cc	0.0084890835
151	0x3cccc4dc	0.024996214
152	0xbe18118c	-0.14850444
153	0xbe239751	-0.15975691
154	0x3db321ca	0.08746679
155	0x3d94bb0d	0.072622396
156	0xbc57bc0e	-0.013167394
157	0xbe0919f3	-0.13388805
158	0x3d8e8a8a	0.06960018
159	0x3d05723f	0.032579657
160	0x3b708c05	0.0036704552
161	0xbda4e7f8	-0.08052057
162	0x3cdf54c2	0.027262095
163	0x3e186cac	0.14885205
164	0x3e1f1ba4	0.15537888
165	0x3d116ffb	0.035507184
166	0xbdc3ddf0	-0.095638156
167	0x3d2c40b8	0.042053908
168	0x3d2d4ac8	0.042307645
169	0x3d87a82c	0.06623873
170	0xbd3e6d5f	-0.046491023
171	0xbdab0e43	-0.083523296
172	0xbe120808	-0.14260876
173	0xbd02616d	-0.031831194
174	0x3a1cf85d	0.0005987937
175	0xbd850000	-0.064941406
176	0x3d83ff92	0.064452305
177	0x3c3b5382	0.011433484
178	0x3cc02e75	0.023459652
179	0xbdd4efe6	-0.103973195
180	0x3d04619e	0.032319658
181	0x3d45d3f7	0.04829785
182	0x3d653532	0.055958934
183	0xbdc1ca7d	-0.0946245
184	0xbd3e1bce	-0.046413235
185	0x3c0824e2	0.008309575
186	0xbde17533	-0.11008682
187	0xbd245caf	-0.040127452
188	0xbbd64932	-0.0065394873
189	0x3d342cf5	0.043988187
190	0xbdd41eb8	-0.10357422
191	0xbd4130f7	-0.047165837
192	0xbe1fce18	-0.15605962
193	0x3e9b0ee7	0.30284807
194	0x3d9d5f12	0.07684149
195	0xbc9a7534	-0.018854715
196	0x3da93dfd	0.082637765
197	0x3db24517	0.08704584
198	0x3e0ce21e	0.13758132
199	0x3c82d15a	0.015968967
200	0xbb8cf922	-0.00430216
201	0x3d86dbc1	0.065848835
202	0x3d525308	0.051348716
203	0xbd8d3fc0	-0.06896925
204	0x3d5fc67b	0.054632645
205	0xbe197804	-0.14987189
206	0xbdc0a2c5	-0.09406046
207	0x3d9b95c5	0.07596926
208	0x3e336aea	0.17521253
209	0x3cf47df4	0.029845215
210	0x3dede95c	0.116167754
211	0x3ddfea29	0.109333344
212	0x3e46a7a2	0.19399884
213	0xbe298168	-0.16553271
214	0xbd04fc39	-0.0324671
215	0x3da75033	0.08169594
216	0x3dc3e4a4	0.09565094
217	0xbdb3ab62	-0.08772923
218	0xbcd93ef1	-0.02651927
219	0x3d87b90c	0.06627092
220	0xbd85f7af	-0.065413825
221	0x3cb48a6e	0.022038665
222	0x3d36f682	0.044668682
223	0xbda5eefa	-0.08102222
224	0xbd365a0a	-0.04451946
225	0x3d50b315	0.050952036
226	0xbdf13fab	-0.11779722
227	0x3c158b0a	0.009127388
228	0xbd89edab	-0.06734785
229	0xbc076d4d	-0.008265805
230	0xbdc8b4b7	-0.098000936
231	0x3dd35424	0.10318783
232	0xba9beddc	-0.0011896449
233	0xbe889c1d	-0.26681605
234	0xbdbd086e	-0.092301235
235	0x3d769d8c	0.060208842
236	0x3dbda828	0.09260589
237	0x3ce38d43	0.02777732
238	0xbda9f7bb	-0.08299204
239	0x3e682f17	0.22674213
240	0x3e13ab74	0.14420873
241	0x3e16b2b2	0.14716604
242	0x3d22b161	0.039719943
243	0x3e0a234a	0.13490024
244	0xbcfb0234	-0.030640699
245	0x3d5bcfd3	0.053664993
246	0xbcfb7271	-0.030694218
247	0x3da9d895	0.08293263
248	0xbd0d1f43	-0.03445364
249	0xbe580486	-0.21095476
250	0x3b543772	0.003238168
251	0xbdf7796f	-0.120837085
252	0x3e97177a	0.295101
253	0x3d9c1435	0.07621042
254	0xbcfb9f03	-0.030715471
255	0xbd3a1207	-0.04542735

lstm_layers.0.bias_ih_l0_reverse f4 [324]
0	0x3e6e77f5	0.23287947
1	0xbc95b8c3	-0.018276578
2	0xbd975722	-0.07389666
3	0x3d9c2807	0.07624822
4	0x3d86432e	0.06555782
5	0x3d8b6545	0.06806425
6	0xbd932cd1	-0.071862824
7	0xbb69b0e9	-0.0035658425
8	0xbd9b5fab	-0.075866066
9	0x3dbb0740	0.09132242
10	0xbb219f7b	-0.0024661708
11	0x3df51f38	0.11968845
12	0xbc813d7b	-0.015776386
13	0x3d4c0bd0	0.049815953
14	0x3e1f5421	0.15559436
15	0xbd1e31f1	-0.038621847
16	0xbde35ef5	-0.11102096
17	0x3da960ae	0.08270393
18	0xbc3410ed	-0.010990364
19	0x3d410395	0.047122557
20	0x3c439fb0	0.011939928
21	0x3c31fbe2	0.010863276
22	0x3d1426a7	0.036169674
23	0x3e2ab983	0.1667233
24	0xbd93e49a	-0.07221337
25	0xbe053258	-0.13007486
26	0xbd50e810	-0.051002562
27	0x3d12245f	0.035679217
28	0xbd857b6c	-0.065176815
29	0xbe15ca44	-0.1462794
30	0xbd3414ef	-0.043965276
31	0xbddb3ae2	-0.107045904
32	0x3d076f45	0.0330651
33	0x3c8d43da	0.017244268
34	0x3d77c4ac	0.060490295
35	0xbdd03fe1	-0.10168434
36	0xbc2011bd	-0.009769854
37	0x3d27b965	0.04094829
38	0x3a967066	0.0011477589
39	0xbe1f7fd8	-0.15576112
40	0xbd3e0f3d	-0.04640125
41	0x3e1277d1	0.14303519
42	0x3ddec0fb	0.10876652
43	0x3d06ed77	0.032941308
44	0x3c8fec65	0.017568776
45	0x3bb236c8	0.0054386593
46	0x3e45e9ca	0.19327465
47	0xbdec09d6	-0.115253136
48	0x3d95c6d8	0.07313317
49	0xbd103204	-0.03520395
50	0xbd657e67	-0.05602875
51	0xbd5462b0	-0.05185193
52	0xbe31d1ca	-0.17365184
53	0x3dcc5a20	0.099781275
54	0x3cb8bdf8	0.022551522
55	0xbe179667	-0.14803468
56	0xbdc87c21	-0.09789301
57	0x3d49851a	0.0491992
58	0x3d01ae20	0.0316602
59	0xbdd9e64f	-0.10639631
60	0xbd739e42	-0.0594771
61	0x3d4b608a	0.049652614
62	0xbdbca4b4	-0.09211102
63	0x3cd70eeb	0.02625223
64	0xbd965b8e	-0.073416814
65	0xbde022d8	-0.10944146
66	0xbcfbf6bf	-0.030757306
67	0x3d12fae4	0.0358838
68	0x3cf3e9b6	0.029774528
69	0x3e0c3c04	0.13694769
70	0x3d0aeded	0.03391831
71	0xbd344399	-0.04400978
72	0x3be7a2b6	0.007068957
73	0xbdbe2988	-0.09285265
74	0xbd8d3fcf	-0.06896936
75	0xbd8f07d3	-0.06983914
76	0x3d5a6462	0.05331839
77	0xbdd29430	-0.10282171
78	0xbcd5c151	-0.026093157
79	0x3e04e02a	0.12976137
80	0x3d4b3a7f	0.049616333
81	0x3ddcd0eb	0.107820354
82	0x3e05f539	0.13081826
83	0x3c8336a0	0.016017258
84	0x3e3c8a84	0.18412215
85	0x3d01fd64	0.031735793
86	0x3b83ee6e	0.004026226
87	0x3d2094b4	0.039204314
88	0x3daf7122	0.085665
89	0xbd0ed70f	-0.034873065
90	0xbd3925be	-0.04520201
91	0xbd885b18	-0.06658
92	0x3d85c696	0.06532018
93	0x3df0d934	0.11760178
94	0xbd72c859	-0.059273098
95	0x3d8ea78b	0.0696555
96	0x3db7652d	0.089548446
97	0x3dfde721	0.123976
98	0xbdbd9b75	-0.09258167
99	0x3d408109	0.046998058
100	0x3d6fec97	0.05857524
101	0x3dfe5094	0.12417713
102	0xbdb936e3	-0.09043672
103	0x3ca3b424	0.019983359
104	0x3d84a4d6	0.064767525
105	0xbe074d76	-0.13213143
106	0x3da23863	0.07920911
107	0xbbab91a7	-0.005235869
108	0x3dbe5be3	0.0929487
109	0xbd456992	-0.048196383
110	0x3dfef34f	0.12448751
111	0x3d734cab	0.05939929
112	0xbd74d36a	-0.059771933
113	0xbd33b906	-0.043877624
114	0xbdc2adc8	-0.095058024
115	0x3d6a1978	0.057153195
116	0xbc970c55	-0.018438498
117	0x3c312d9b	0.010814096
118	0x3d71bc10	0.05901724
119	0x3dd3ed70	0.10348022
120	0x3c8ff397	0.017572207
121	0x3dfa043b	0.12207838
122	0x3c96d0cc	0.018410109
123	0xbd944e54	-0.072415024
124	0x3de085b3	0.10963001
125	0xbde73b47	-0.11290603
126	0x3df8b664	0.12144163
127	0x3e8554db	0.26041302
128	0xbd824bc8	-0.063621104
129	0xbd2bbb2a	-0.04192654
130	0xbd5c2324	-0.05374445
131	0x3dd9c6eb	0.10633644
132	0x3dadfdef	0.084956996
133	0xbe10d6b2	-0.141444
134	0xbd7fd156	-0.062455498
135	0x3d9488e4	0.07252672
136	0xbe29ca25	-0.16581018
137	0x3e0096ce	0.12557527
138	0xbd0af924	-0.033929005
139	0x3e11e27c	0.14246553
140	0xbde35dda	-0.11101885
141	0xbd822cc1	-0.063561924
142	0x3d5ed203	0.0543995
143	0x3df1da55	0.11809222
144	0xbd49eb7c	-0.04929684
145	0x3c0cf0de	0.008602349
146	0x3d714e37	0.058912482
147	0xbcb6be3c	-0.022307508
148	0xbd23d06d	-0.039993692
149	0x3db6fc14	0.08934799
150	0x3d8c61ba	0.06854577
151	0x3ddb625d	0.10712121
152	0x3e03fec4	0.12890154
153	0x3dafd9e4	0.08586481
154	0xbc6619c4	-0.014044229
155	0x3e0ac706	0.13552484
156	0xbdffb520	-0.12485719
157	0xbbfebe97	-0.007774185
158	0x3e073d8e	0.13207075
159	0x3df09a91	0.11748231
160	0x3df0ecbb	0.11763903
161	0xbd83bf12	-0.06432928
162	0x3d6af832	0.057365604
163	0xbc402684	-0.011727933
164	0xbd5db0f1	-0.054123823
165	0x3cf8d58b	0.030375263
166	0x3d9c7e79	0.0764131
167	0x3ca20043	0.019775515
168	0xbdd7203d	-0.10504196
169	0xbb82257f	-0.003971755
170	0xbdd53044	-0.104095966
171	0x3df4b7d3	0.11949124
172	0xbd1272ce	-0.035754018
173	0xbd292c87	-0.04130223
174	0x3d1907d1	0.03736097
175	0xbd236fdd	-0.039901603
176	0xbcfc1aba	-0.030774463
177	0x3d9bd910	0.07609761
178	0xbd4189e9	-0.047250662
179	0x3b2915f3	0.0025800436
180	0x3d191ac9	0.03737906
181	0x3e1252ed	0.14289446
182	0x3b83bc2d	0.004020235
183	0x3e2d3bcd	0.16917343
184	0xbcea1df5	-0.028578738
185	0x3e0fc6ef	0.14040731
186	0xbd9dee79	-0.07711501
187	0x3c90b1cf	0.01766291
188	0x3df29082	0.11843969
189	0xbdb77076	-0.08956997
190	0xbd2dad9f	-0.042401906
191	0x3d30a98a	0.043130435
192	0x3e1a2e4c	0.15056723
193	0xbd577f0c	-0.052611396
194	0x37c1acc8	2.308785e-05
195	0x3d86e75a	0.065870956
196	0xbdd2fa74	-0.103016764
197	0xbcb5ac5b	-0.022176912
198	0x3d0b979d	0.034080137
199	0x3bc89819	0.006121647
200	0x3cec7e32	0.028868768
201	0x3d10598a	0.03524164
202	0x3d7d3fbc	0.06182836
203	0xbdb7b3d1	-0.08969844
204	0x3d16a86e	0.03678172
205	0x3d0ad365	0.033893008
206	0xbd135f9c	-0.035979852
207	0xbd2a9b12	-0.041651793
208	0xbd8ae718	-0.06782359
209	0x3dbe98f4	0.09306517
210	0xbdf50301	-0.119634636
211	0x3d9e494d	0.07728825
212	0xbd207122	-0.03917039
213	0x3e0cabb3	0.13737373
214	0xbc4fc06e	-0.012680156
215	0xbce783e9	-0.028261142
216	0xbe17d15c	-0.14825958
217	0x3d2cd00a	0.04219059
218	0x3ca05408	0.01957132
219	0xbd97dd35	-0.07415239
220	0x3d99a0ff	0.07501411
221	0xbdc0f77e	-0.094222054
222	0xbced2c62	-0.028951827
223	0xbd0c7539	-0.03429148
224	0xbccad107	-0.024757875
225	0x3d9894f0	0.074502826
226	0x3e096c47	0.13420211
227	0x3d8951d8	0.067050636
228	0x3d39b490	0.045338213
229	0x3ddf3815	0.10899369
230	0xbdf49860	-0.11943126
231	0x3d8cdf31	0.06878508
232	0x3ca38ad6	0.019963663
233	0x3e16a0b3	0.1470974
234	0xbd51677b	-0.051124077
235	0x3d38ab0b	0.045084994
236	0x3d2282ea	0.03967563
237	0xbd366bba	-0.04453633
238	0xbd64f7e9	-0.055900488
239	0x3d168a4d	0.036752988
240	0xbe1b330a	-0.15156189
241	0x3d9fd4e2	0.07804276
242	0x397ebeba	0.00024294379
243	0x3da1ebe0	0.07906318
244	0x3b57e561	0.0032943117
245	0xbd02ac68	-0.0319027
246	0x3c877142	0.016533498
247	0xbd6f4ff6	-0.058425866
248	0xbd543221	-0.05180562
249	0x3debc7f0	0.115127444
250	0xbc882492	-0.016619
251	0xbd8cbd7b	-0.06872078
252	0xbcddeb5f	-0.027089773
253	0xbd09ed70	-0.033673704
254	0x3da1442b	0.0787433
255	0x3df55647	0.11979347
