foundation_models/Ensemble_model22_DeepSurv_LSTM_Event_1_20250805_005046.pt (torch, 721928 bytes, 17 tensors)

lstm_layers.0.weight_ih_l0 f4 [292, 11]
00000000: a24b e8bd 435c b1be d298 28be 0909 8fbf
00000010: dc7b d5be eca0 87bd 97d5 a43d 80a4 05be
00000020: 6cd2 31be 360f 1a3e 38cf b33e 69b9 e7bd
00000030: 5957 efbd 1d28 ffbb 7c29 083f 8a8b 90bd
00000040: c9bf 11be 909a 88bd a070 c6bd 1a8c 22be
00000050: 4f0f dc3d 9ece 9f3e b11a 89be a0b7 433e
00000060: 21c1 f33d 4286 da3f eac3 973e c61b fb3d
00000070: ba9e 04bb 9965 2cbd 7805 75be d056 723d
00000080: 3b7c d4be 035a cebd 6398 4dbe f79e 8abd
00000090: 50c7 183f 2d98 a8bc 01ea 64be 086c ad3d
000000a0: 248e f3ba b540 4d3c 3b5f fdbd b965 1c3f
000000b0: 9e09 893c ae37 49be 0ce7 d4be 2a66 fcbd
000000c0: f138 cfbe 42bf a8be f22f 0abe 09d2 fe3c
000000d0: 70bf 1fbe 047a cdbc 85c4 a23e ec71 c8bd
000000e0: 00f2 bf38 b42d ae3d f9e1 a93e a5eb 8a3e
000000f0: 5e91 723e 2344 c8bd 4a1b bfbc 7af8 f5bc
00000100: c841 c8bb 81bc b2be 5ea4 b2bd ec56 8dbe
00000110: 1b08 18be 1c6e 90bd cee4 55be 0b8b e5bd
00000120: a009 04be eff9 11be 19e2 4b3d b04d c43d
00000130: 9894 0bbd 858e ae3d 02be d2bc ad06 2ebe
00000140: ff29 c03e 477f 02bd 728a 1c3e 79de 24ba
00000150: 7600 a9bc dbe5 84be faca edbd c4ba 4e3d
00000160: e5d2 023d 91dc 88be e9a9 8ebe 8a6d 3c3d
00000170: 2bc9 13bf 146c 69be b29e 08be f2d9 553d
00000180: e334 36be e005 633d d8ba b63e 1590 833d
00000190: e195 8c3e 198a 843e 2db7 013f 0aaa a83e
000001a0: a4b0 9e3d 7034 953e 1b8b 913e 35c7 de3d
000001b0: 0867 473e a813 45bc 2825 55be 6eed 5f3e
000001c0: 888c e5bb 6b35 5c3e 9052 2d3f d99f 913e
000001d0: a9f3 4bbc 1c10 173d 612d 5c3e b468 703e
000001e0: 6931 ed3d 34cf a1bd e9d4 263e 9eb5 0f3e
000001f0: 4f83 ee3e 1c36 a6bd f603 1b3d 2d01 133e
00000200: 92c6 c23d 9136 043e 574c 133e 6b2d b53d
00000210: 4601 983c d462 1cbe ec2b f5bc c319 993d
00000220: e957 05bf d88a 9bbd 16ef 1abd 2b59 21be
00000230: a835 61bd 903e 4b3d 35ee ee3e 08f9 88bd
00000240: 5de0 68be d0cf 04bd c638 573d 413e aa3d
00000250: d117 47be 1c7c fbbc 2946 b1bd 833b 4fbc
00000260: ded3 073d 713b 5dbe c477 5dbd 6f32 3abd
00000270: fe91 21bd 6f02 e4be a68d 94bd 71e3 d23d
00000280: c5b0 8f3b 25f4 5dbd f9d9 0ebd fa54 ff3d
00000290: 0e9c 24bb f697 32be 9915 af3d 8d27 ee3d
000002a0: 2e82 513f 39d8 243f 3736 6a3e 364b dcbd
000002b0: d854 0abe df11 30be fb81 513d cdb7 0ebf
000002c0: f306 90bd 12cf ff3b 8130 d53d bc06 52bf
000002d0: 85df 2e3e 8f85 2a3e 29c3 483d 225e 903c
000002e0: 8430 87bc 2b40 2a3e 0f9d 8dbe 4c92 4e3e
000002f0: 7e3a 45be c235 93bc 3863 4c3e 1b2a 34be
00000300: 4bb1 9bbb 3653 6d3d 8e32 3dbc 4933 983d
00000310: 983a d13d 6daa 183e b199 d1be d23f 01be
00000320: 89f0 55bd 9de2 bf3e 4fd6 ba3e 6a8d e4bd
00000330: 23de 52be a623 0ebe 6063 39be 1c9b cbbc
00000340: 0acc 183e 75a2 17be e228 b53d 46c7 843e
00000350: d6bc 27be d7e9 7b3e 55e3 003e 5d2a 383d
00000360: 2d06 b13d a273 203d ee80 bd3d 512a 8a3e
00000370: 3494 2fbe 7410 b0be 5314 32be 1ca3 a7be
00000380: 2f30 72be 9ee4 60be 0c87 38be 2f0b ffbd
00000390: 3020 cabd f3c5 c53d f9a8 c23d 7ee6 61be
000003a0: 5c3b 4fbe 4dcf dfbd 48fa 24bf 9224 1dbe
000003b0: 44a3 85be 90f3 2c3d b6a7 1dbe 635c 47bd
000003c0: e841 023e 8298 993d 3f7e 713e bfbf 81bc
000003d0: 0daf c1bd d4f0 9b3d 7aee 063f a20d 6f3a
000003e0: 8120 c53d 3168 623c eef0 443d 5c4f 07bc
000003f0: 3cfe 513d 5a0c bbbe c5f5 083e 246c 863d
-0.11342551 -0.34640703 -0.16464546 -1.1174632 -0.4169606 -0.0662249 0.080485515 -0.13051033
-0.17365426 0.15044865 0.35119033 -0.11314661 -0.11686582 -0.0077867643 0.531883 -0.07057865
-0.14233316 -0.066701055 -0.0968945 -0.15873757 0.107451074 0.31212324 -0.26778176 0.19113016
0.11902071 1.7072222 0.29641658 0.12261157 -0.002023621 -0.04208908 -0.23927867 0.059164822
-0.4150103 -0.10075762 -0.20077662 -0.067686014 0.59679127 -0.020580376 -0.2235489 0.08467871
-0.001858179 0.012527634 -0.123716794 0.61092716 0.016728219 -0.19650146 -0.41582525 -0.12324174
-0.4047313 -0.32958418 -0.13494852 0.031106012 -0.15600371 -0.025082596 0.31790558 -0.09787354
9.152666e-05 0.08504811 0.33180216 0.27132908 0.23688266 -0.09778621 -0.023328442 -0.03002571
-0.0061113574 -0.34909442 -0.08722757 -0.2760538 -0.14846842 -0.07052252 -0.20888063 -0.11208161
-0.12894297 -0.14255498 0.04977617 0.0958513 -0.034077257 0.08523277 -0.025725368 -0.16994734
0.3753204 -0.031859662 0.15287188 -0.00062892545 -0.020630103 -0.25956616 -0.1161098 0.050471082
0.031939406 -0.2673078 -0.27864006 0.046002902 -0.5772883 -0.22795135 -0.13341787 0.052209802
-0.17793612 0.055425525 0.35689425 0.06423966 0.274581 0.2588661 0.5067013 0.3294223
0.07748535 0.2914157 0.28426442 0.108778395 0.19472897 -0.012028612 -0.20814955 0.21867916
-0.007005278 0.21504752 0.67704105 0.28442267 -0.01244823 0.036880597 0.21501686 0.23477441
0.1158169 -0.07900849 0.16292156 0.14034125 0.46584556 -0.08115789 0.037845574 0.14355917
0.095105305 0.1291144 0.1438459 0.088465534 0.018555295 -0.15272075 -0.02992817 0.07475617
-0.52087265 -0.07594842 -0.037825666 -0.15756671 -0.05498281 0.04962021 0.46666113 -0.06688124
-0.22741838 -0.032424748 0.052544378 0.08312655 -0.19442679 -0.030698828 -0.0865596 -0.012648466
0.033161037 -0.21604706 -0.054069296 -0.045458253 -0.03944587 -0.44533107 -0.0725358 0.10297287
0.0043850862 -0.054187912 -0.034875844 0.1246738 -0.002511743 -0.17440781 0.08549041 0.116286375
0.81839263 0.6439243 0.22872244 -0.10756533 -0.13508928 -0.17194317 0.05114935 -0.5574921
-0.070325755 0.007806667 0.10409642 -0.82041526 0.17077453 0.16652511 0.049014244 0.017623011
-0.016502626 0.1662604 -0.2765889 0.20172995 -0.19260594 -0.01796997 0.19959724 -0.17594187
-0.0047513596 0.057940684 -0.011547698 0.07431657 0.10216254 0.14908762 -0.4093757 -0.12622002
-0.052231345 0.3747758 0.3649163 -0.11159785 -0.20592551 -0.13880786 -0.18104315 -0.024854235
0.14921585 -0.14808066 0.088456884 0.25933284 -0.16380629 0.24600922 0.1258672 0.044962276
0.08643756 0.039172776 0.09253107 0.2698541 -0.17146379 -0.34387553 -0.17390566 -0.3274163
-0.23651193 -0.2196221 -0.18020266 -0.12453305 -0.098694205 0.096568964 0.09504885 -0.22060582
-0.20237488 -0.10928211 -0.644444 -0.15345982 -0.26101124 0.042224467 -0.15396008 -0.04867209
0.12720454 0.07499792 0.23583315 -0.015838502 -0.094572164 0.07614294 0.52707636 0.0009119158
0.0962534 0.0138187865 0.04808133 -0.008258667 0.051267847 -0.3653286 0.13375004 0.06563595

lstm_layers.0.weight_hh_l0 f4 [292, 73]
00000000: 534a 0a3d 3ef9 ab3d 9e92 1cbe 3045 c3bd
00000010: efcd 35be d010 c6be 0378 28be 93bc 123e
00000020: 2f30 8c3d 4d3e e8bd ae54 823d 28d2 0ebe
00000030: dba7 8ebc aae9 93bd c5c6 36bc 8672 f63d
00000040: a0cd 46be cfd9 47bc a94e 943d e00a 273e
00000050: bbe8 53be 0cd8 b2bc 133c a33e 4784 463c
00000060: 8b1a 19bd 2685 a23e 6bb8 063e 70b0 96be
00000070: 20f2 393e 6c4a 613e 6e2b 5a3e 5ac5 073e
00000080: 55c6 013c f9a9 41bd 802d 2fbe 44b2 91bd
00000090: 2417 423e 7248 b23c ad40 b2bc 3cdb c83d
000000a0: 1c6a b4bd bd9a fabd 2914 5abe 45c9 6cbd
000000b0: a883 c63d fae0 ed3d 3ba4 103e b7d1 f5bc
000000c0: 433a 17be 0b24 f3be 4df8 303e 4633 ab3d
000000d0: 9630 a6bc 90bd 1abe e995 aabe d09b a4be
000000e0: c2f8 5a3d b532 80be 65b2 a4bd 7556 5dbe
000000f0: 9837 833d 75fe 34bd 4781 e7bd 60a9 073e
00000100: 0696 14be d5c9 0ebb 1692 f83d 70f0 37be
00000110: a349 aa3d fb2b 75bd 8aff adbd e017 923d
00000120: f821 16be 366b 18be 7ec2 a4bd ca2e 14bc
00000130: f777 21be 6fbd 99bb ff87 bd3d a309 083e
00000140: 127d 873c 5748 34bb 5b90 1e3e f1fe 75bd
00000150: 099c f8bd a50f 863d 9d1b 4c3b 263b 80be
00000160: d2ef 40be 0139 bc3d 2cb1 9e3e 59ca 2a3e
00000170: 1234 e23d 7330 90bd f19f 153d 5905 78bb
00000180: 6581 4c3e 1545 18be cbe9 5c3d 2d8e d83d
00000190: 7e5c ecbd 3f9d 8e3d a841 10bd 274b 15be
000001a0: 17cd 68bd 0816 69bd ec39 20bd 5da5 353e
000001b0: 156e 32bd bd65 0d3d 7b5d e43c 015a 4a3d
000001c0: 0ed2 e0bd 2cc4 c83d 6e05 8ebd 7e76 b1bc
000001d0: c206 08bd af57 4fbd d138 fd3c d92d 403d
000001e0: c33f 033c f205 99be 28d5 a7bd e936 893d
000001f0: e035 6ebd dc43 f93c 2172 1dbb 3cb2 c73d
00000200: cd6b a43d dffc 44be f04e 86be 4ca0 4ebe
00000210: 1a48 5bbc 72a6 bebc ad67 13bd 1f5b 8a3d
00000220: 2fda 30be d261 0ebd c06e 3dbe 11e3 dd3d
00000230: b8df ee3d 2684 05bd 57b4 6dbd ea9f 07bd
00000240: 02a1 83be c198 ea3d 88e1 fd3e afee 22be
00000250: 42d0 333e 482b 503e 73f2 273e fbad 5bbd
00000260: 696c 963d 273a 8fbb b8cf b13e 7cfd aa3e
00000270: c04e d43e 49d6 e93e 9702 29be 0676 ae3e
00000280: fd09 3dbe 9e20 be3d a213 c1bd b0e3 b4be
00000290: 2e87 4bbb 46a9 49be baab 733e ac6d a23e
000002a0: 8a34 e2be 186c 20be f9c6 d33d b9f7 48bc
000002b0: 36a8 953e a3ca 8b3e 30a0 a9be 52d6 293e
000002c0: 93b4 b83d 9eee ec3d 960b 123e d70d 813d
000002d0: b049 c53e 4359 d03e 28e6 61be 31b9 043d
000002e0: bcce 4fbe f5e3 bc3d dbdf 083f 6aa4 ed3e
000002f0: 459c 893e 6728 853e 0dc7 733e e7ce b8be
00000300: 7303 31be 2f27 2d3e 0314 94bd 34e8 583f
00000310: f3e1 84be 0233 94be abd6 06bd d8b6 1e3e
00000320: c933 373e a233 983e 9e73 183f d68e 38ba
00000330: 69e8 2dbe 9cb5 14bd 9308 0bbf 38bd f73d
00000340: c912 913e ced4 4f3e 1cce dbbd 2b05 373e
00000350: 73d6 943e b491 893d a268 65be e6d1 53be
00000360: 4320 453d 62b1 8ebe e808 d93e 105c 3fbe
00000370: 9657 7b3c fe24 85be 8d76 4a3c a57b 053e
00000380: 792d 933e 36a5 103e fab1 033e 070b 953d
00000390: 555c 723e 3cd3 9ebe 9bde 06be 1384 113e
000003a0: 14d9 3f3e d913 323e 496e cfbe cbaa da3e
000003b0: 071f 7dbd 4057 adbc 5bbe 8d3e b120 d0bd
000003c0: 0971 13bd 4718 bdbe b2e7 343e 0762 d73c
000003d0: cb2c 29bc b12c 97be 48db 14be 3213 a73e
000003e0: e926 5abd 7925 58be 59ab 48be e261 16be
000003f0: 3612 bfbd 4c4f ab3e 6070 143e b7b3 bebd
0.033762287 0.083971485 -0.15290305 -0.09534681 -0.17754339 -0.38684702 -0.16452031 0.14329748
0.06845128 -0.11340008 0.063638076 -0.13947356 -0.017414024 -0.07222302 -0.011155789 0.12033562
-0.19414377 -0.012197926 0.07241566 0.16312742 -0.20694248 -0.021831535 0.3188177 0.012116498
-0.03737883 0.3174221 0.13156287 -0.29431486 0.1815877 0.22001046 0.2130563 0.13258877
0.007920821 -0.04728124 -0.171072 -0.071140796 0.1895414 0.02176306 -0.021759355 0.09807441
-0.08809301 -0.12236545 -0.21296753 -0.057809133 0.0969308 0.116151765 0.14125149 -0.030007226
-0.14768319 -0.47488436 0.17282219 0.08359389 -0.02028684 -0.15111375 -0.33317497 -0.32150126
0.05345989 -0.25038686 -0.080418386 -0.21615012 0.06407088 -0.04418798 -0.113039546 0.13248205
-0.14510354 -0.0021787782 0.12137239 -0.17962813 0.08314826 -0.059856396 -0.08496006 0.0713346
-0.14661396 -0.14884648 -0.08044909 -0.0090443585 -0.15768419 -0.0046917717 0.09254455 0.13284926
0.01653913 -0.0027508938 0.15484755 -0.060057584 -0.12139136 0.06545953 0.0031144388 -0.25045127
-0.18841484 0.0919056 0.30994546 0.16678752 0.11045088 -0.07040491 0.036529485 -0.0037844984
0.19971235 -0.14870103 0.0539339 0.10573993 -0.11541079 0.06963586 -0.035218865 -0.1457945
-0.056836214 -0.056905776 -0.03911774 0.17738862 -0.043562014 0.034520853 0.027876606 0.04940224
-0.10977565 0.09803042 -0.069346294 -0.021662947 -0.03320957 -0.05062073 0.030910881 0.046918724
0.008010807 -0.29887348 -0.08194953 0.066999264 -0.058156848 0.030427866 -0.0024024325 0.097507924
0.08028374 -0.19237088 -0.262321 -0.20178336 -0.01338389 -0.023272727 -0.035987545 0.06755661
-0.1727073 -0.034761257 -0.18499279 0.10834325 0.11663765 -0.03259673 -0.058033314 -0.03311149
-0.25708777 0.11454917 0.4958613 -0.15911363 0.17559913 0.2032901 0.16401081 -0.053632718
0.07344896 -0.004370946 0.3472879 0.33396518 0.4146633 0.456713 -0.16504894 0.3407442
-0.18460841 0.09283565 -0.09427573 -0.35329962 -0.0031055915 -0.19693479 0.23795977 0.31724298
-0.4418071 -0.15666234 0.103406854 -0.012266093 0.29229897 0.27303037 -0.33130026 0.16585663
0.09018817 0.1156895 0.14262232 0.06301468 0.38532782 0.406931 -0.22060454 0.032403175
-0.20293707 0.09223167 0.53466576 0.464145 0.26877037 0.26007387 0.238064 -0.36095354
-0.17286472 0.16909479 -0.072303794 0.84729314 -0.25953636 -0.28945166 -0.032919567 0.15499437
0.17890848 0.29726893 0.5955142 -0.0007040327 -0.16983189 -0.03630601 -0.5430996 0.120966375
0.28334644 0.20296022 -0.107326716 0.17873065 0.29069862 0.06717244 -0.22403196 -0.20685539
0.04812647 -0.27869707 0.42389607 -0.18687463 0.015340706 -0.26004785 0.012357366 0.13035448
0.2874563 0.14125523 0.12860861 0.07277494 0.23668034 -0.31020534 -0.13170855 0.14210539
0.18735152 0.17390384 -0.40513828 0.4270843 -0.061797168 -0.021159768 0.27684292 -0.101624854
-0.03599647 -0.36932585 0.1766651 0.02629186 -0.010325621 -0.29526284 -0.14536774 0.32631832
-0.053259764 -0.21108045 -0.19596614 -0.14685777 -0.09329645 0.33458936 0.14495993 -0.09311622

lstm_layers.0.bias_ih_l0 f4 [292]
00000000: 3649 1c3c 9deb 32be 3e8d 33be 279c 34be
00000010: 18d0 233d bfc1 28be 2549 ae3d de18 60bd
00000020: da10 233b bd9b 0ebe a871 3ebe 51d3 d93c
00000030: d2fd 90bc dddf b93d a6a0 d9bd 8a3d 55be
00000040: 3896 efbd 54bf ad3d 30eb 04bd 6d1f 92bd
00000050: 4a9d fbbd 7ae0 cebd bf5f b3bd 6a3e 25be
00000060: 02e3 b7bd 2f6b edbd 8bea 4c3d be83 76be
00000070: 6582 013d 0cb5 23be e298 3abc bdde 1fbe
00000080: 21c3 c03d ef37 563c 5080 cc3d e287 693e
00000090: 959f 41bc b548 77be 7a85 413d 3af9 c9bd
000000a0: dd21 153e 6f16 dd3d 6a7c 25be 65f9 57be
000000b0: 914b 51be 1f06 553e ddd1 f4bd f9cd 93bd
000000c0: a1f4 983e f2ca bcbc e152 b73c b1ad 61bd
000000d0: 0471 993d f0d9 1fbe 277a 6b3c b4d4 e5bc
000000e0: aafa 203d 063a 47bd a838 ea3d f5fc 67be
000000f0: f826 80bc 88b4 fabc 09a0 4c3e 817e bebb
00000100: cb42 d9bc 7575 f8bc cc61 b43d e593 fabd
00000110: 08a1 19be 1e3f 7bbe 2683 72be 8caa 0ebc
00000120: b331 3d3e dd3a 3d3e d8f3 0abe 4c20 16be
00000130: c8ce 713c d83e b6bc a6f9 13bd 614c 20bd
00000140: 2308 48be 9d18 21be 1e83 52be eb4a 04bd
00000150: bc9a 59be 75a5 883d a3f5 a73d 4e73 0bbe
00000160: 66d4 cf3b eac6 51be 8e8d 883e d158 2bbe
00000170: 5257 10be 4db1 24be d6d1 923c 304f 173e
00000180: 27ed 03be f1c3 87bd 0f0c 8cbd a5b0 3bbe
00000190: e61a 29be 3f3b ddbd b7b5 62bd 1cf7 e1bd
000001a0: 6760 f9bd c9fd 33bd b3e8 e9bd 604b f8bd
000001b0: a549 be3d d85d 353e 70ff d2bd 5460 75bd
000001c0: 88e0 06be 5f55 db3d 4196 4e3d 6235 18be
000001d0: 4da2 e1bd 361d c8bd 7d03 00bd 07b5 3ebe
000001e0: cafc 46bd cb09 113e 9b48 a7bd ac58 52be
000001f0: db6c 9fbb f6b8 bd3c 8c90 d5bd 36e4 49bd
00000200: 568d f7bd 7444 ff3c e5ab 6bbd 8a25 b0bd
00000210: c4dd a7bd 71d8 393e 2086 64be 4cbc ccbd
00000220: 8c90 3ebd ad0b 803d dbbe 6dbc a3b6 50bd
00000230: 3945 683c 09a9 5ebe 6f44 85be 8f9d 58be
00000240: 21ba 59bc 4cbb 613e b52c 163d 9070 06be
00000250: 2bbf 81be 406f b0bd cea4 15bd 3b78 d93c
00000260: d645 1cbe 7983 243e cf5b dfba 7e23 c7bd
00000270: d477 15be 4843 7f3b 88c8 c6bc 0d2e 09be
00000280: 7e65 633e e4ce a6bd ddd6 e63c 5920 48be
00000290: 0e0e 12be a9b7 b63d c19c 073e 0ab6 883d
000002a0: d295 a8ba 8ec0 9f3d 987e 6d3d cf49 823b
000002b0: af17 19be 80dd 91bc c8ff a43d d0a4 83bd
000002c0: c67f e73d 0e0f 31be 9afa 3a3d 01b8 ea3d
000002d0: c474 d13d edb7 dcbd 3ba4 223c 4ad9 dbbc
000002e0: 186b 583c 5cbd 2c3d c1d7 e3bc 0bbb 3e3d
000002f0: fcbe d73d a36d 183c bb06 c93c 4eaa a53d
00000300: 142b 4fbc a917 803d f7cb bc3c 500b 44be
00000310: f62f a93d 0700 8a3d bee8 3abd d81d cebc
00000320: 6736 71bc c1c3 75be dca8 0e3d 8dfb 623d
00000330: 5141 ba3d 0bf1 e6bd 9b7b c03b da9b ae3d
00000340: 29ca f0bc efb8 df3d 7c72 81bc 3fcd d13b
00000350: 430b a2bd b5c6 3e3e cd42 153d ae8b 89bd
00000360: 7fea b33d 21ef b63d b821 713d 623b 723e
00000370: d78e 75be 5020 283d cca0 5dbd 99e0 b5bd
00000380: ac7a c0bc 0723 cf3d 5b9d fabd 3947 9e3d
00000390: 08c5 1a3e 5c9b 3fbe 7624 b7bd c59a 60bd
000003a0: 089b 093e 12d5 21bd 103f 28be 75ac 073c
000003b0: 46d2 643e 38f7 1fbb 2518 04be 1e1f 36bc
000003c0: 569b f5bc a686 7bbd 82db 2abd 4c56 b33d
000003d0: 8b72 0bbd 01c8 fdba 3395 6fbc d49c c5bd
000003e0: feb0 1dbd 8dcf c2bc 41ef a8bd 1867 acbc
000003f0: 7a83 13be 3f9c 903e 110a 7f3c 6c45 53bd
0.009538939 -0.17472692 -0.17534348 -0.17637692 0.039993376 -0.16480158 0.08510045 -0.054711215
0.002488187 -0.13926597 -0.18598044 0.026590021 -0.017699156 0.09075902 -0.106263444 -0.20824257
-0.11698574 0.084837586 -0.032450855 -0.071349 -0.1228586 -0.10101409 -0.087584965 -0.1613709
-0.08978845 -0.11592709 0.050028365 -0.24073693 0.031618495 -0.15987033 -0.011388989 -0.15612312
0.09412218 0.013074859 0.09985411 0.22805741 -0.0118178325 -0.2414883 0.047246434 -0.09861989
0.14563699 0.107952945 -0.16160741 -0.2109123 -0.20438983 0.20803116 -0.11954091 -0.072170205
0.29874137 -0.02304599 0.022378387 -0.055097286 0.07492259 -0.1561048 0.014372385 -0.028055526
0.039301552 -0.04863932 0.114365876 -0.22655089 -0.015643582 -0.030603662 0.19982924 -0.0058134203
-0.026521107 -0.030329445 0.08807716 -0.1223524 -0.15002835 -0.24535796 -0.23682842 -0.008707654
0.1847599 0.18479486 -0.13569582 -0.14660758 0.014758773 -0.022246763 -0.036126755 -0.03913534
-0.19534354 -0.15732045 -0.2055783 -0.03229801 -0.21250433 0.066721834 0.08201148 -0.13618204
0.0063424585 -0.20486036 0.26670498 -0.167331 -0.1409581 -0.1608326 0.017922323 0.14776301
-0.12883435 -0.0662917 -0.068382375 -0.18329103 -0.16514167 -0.10802316 -0.055349078 -0.110334605
-0.121765904 -0.0439432 -0.11421337 -0.12123752 0.0929139 0.1771158 -0.10302627 -0.05990632
-0.1317159 0.107096426 0.050436262 -0.14864114 -0.110172845 -0.097711965 -0.031253327 -0.18623744
-0.048580922 0.14163892 -0.08168145 -0.20541638 -0.0048652715 0.023159485 -0.10427961 -0.049289905
-0.120875046 0.03116057 -0.05753698 -0.0860091 -0.08196595 0.18148972 -0.2231679 -0.09996852
-0.04652457 0.06252227 -0.0145108355 -0.050955426 0.01417666 -0.2174417 -0.26028773 -0.21153854
-0.0132890055 0.22044104 0.03666373 -0.13128877 -0.25341162 -0.08614969 -0.036534123 0.026546588
-0.15261015 0.16065778 -0.0017040911 -0.097235665 -0.14596492 0.0038950015 -0.024265543 -0.13396473
0.22206685 -0.0814493 0.028178627 -0.1954359 -0.14263174 0.08921749 0.1324339 0.06675346
-0.0012862033 0.07800399 0.057982057 0.003976084 -0.14950441 -0.017805815 0.08056599 -0.0642792
0.11303668 -0.17290899 0.04564915 0.11460877 0.102273494 -0.107772686 0.009926851 -0.02683701
0.013209127 0.042172775 -0.02781284 0.046565097 0.10534474 0.009303483 0.024539342 0.08089124
-0.012644548 0.06254513 0.023046477 -0.1914494 0.08261101 0.067382865 -0.045632116 -0.025160715
-0.014722443 -0.24000455 0.034829006 0.05541568 0.09094489 -0.11276444 0.00587411 0.0852582
-0.029393272 0.10923945 -0.01580166 0.006402641 -0.07912304 0.18630488 0.03644066 -0.06716095
0.08784961 0.08932329 0.058870047 0.23655465 -0.2398027 0.04104644 -0.054108426 -0.08880729
-0.023495995 0.10114103 -0.122370444 0.077284284 0.15114224 -0.18711609 -0.08942501 -0.0548351
0.13438046 -0.03950984 -0.16430306 0.008280863 0.22345838 -0.0024408828 -0.12899835 -0.011115817
-0.029981297 -0.061407708 -0.041713245 0.08756694 -0.034044784 -0.0019361974 -0.014622974 -0.09649053
-0.03849887 -0.023780609 -0.08248759 -0.021045253 -0.14405623 0.28244206 0.015566365 -0.051579878

lstm_layers.0.bias_hh_l0 f4 [292]
00000000: e0d3 3d3e a2ae 2bbd b9f8 28be 4c39 7abd
00000010: 0013 b1bd 6db7 5cbe dd33 043e ab83 04bc
00000020: d464 83bd c579 8fbd 86d3 2dbe c0cb e23b
00000030: 5c09 103d 05a3 df3d 49b6 74bd f5f0 58bd
00000040: 938c 90bc efbd 423e e6d8 013d 017d 0abe
00000050: b794 2d3c 5cf3 bb3a 6975 793c c837 d6bd
00000060: bf39 dabd 5ec5 80bd 1da2 b0bd 4700 12be
00000070: df95 48bd 471c 7abc 69f7 59be 82a0 41be
00000080: 88df fcbd 0710 83bd dea2 b23d 88f6 5b3d
00000090: ab29 8c3c ddc1 3cbd 1068 01be b16b 2ebe
000000a0: 4117 4b3e 5a19 a43d 992d e7bd 6f9a 83be
000000b0: 8600 27bd 1940 d13d 40de 67bd fad1 4abe
000000c0: bcc8 453e a62a 37be 1ad1 b5bd 7985 c63c
000000d0: 5072 ecbd 3397 50be a53e 15bb 220a 4f3b
000000e0: 1468 253e de9c b0bd 1b43 a5bd 4495 11be
000000f0: 2fbc 81bd d2ec 78be 7913 8f3d a6f5 05be
00000100: de22 cfbd f82e fcbd adf2 1c3e 64f1 99be
00000110: 5483 bdbd 8407 4abd 6ad3 7fbe faee 813d
00000120: 9d7d 083e e7ad ee3d d392 33be afc4 ac3c
00000130: fed7 4abd 82cf 103c 85a7 adbd 17c9 9cbd
00000140: 3d91 14bd 0ed7 283d d701 a1bd 91b4 cdbc
00000150: d768 4bbe b211 d4bc 5a44 36bd a996 10be
00000160: ce1e b5bd 7b48 c4bd 0024 493e d69a 653d
00000170: bbbb ccbd 2293 de3c 45eb 31bc 7103 c33c
00000180: 5a2c 6abe 9d7d 26be 178b 603d 8f07 6fbe
00000190: e844 5dbe 6436 45be 80b0 29bc 0cf6 8fbd
000001a0: 3fb7 f6bd f3e5 933a 3955 3fbe 4d30 27be
000001b0: 2327 193e 3450 313e a734 11be bc75 42be
000001c0: 83b6 46bc dc30 a23c 8a26 e83c 6393 87be
000001d0: 3a22 41be 0b5d a1bd 7d1f 073e ac0c a8bd
000001e0: 70d5 8ebd e2ce b73d a7d0 0fbe 05bb 21be
000001f0: 04b3 013c 518f 3dbe ab1a abbd 3730 2abe
00000200: bafb 71be b580 9e3d 39e9 553d a7c4 bfbb
00000210: cd2b 37be a959 cf3d 8752 95bd ffbc 94bc
00000220: 4e97 10be 93cb f8bd 0e2a 93bd 2868 0f3e
00000230: 7542 0ebd ba32 bfbd cdf1 9ebe 685d cebc
00000240: 0dea 103c fac5 cf3d f0a5 733d e4d7 dd3c
00000250: 33c9 34be 2d9c d2bc 757a 64bd 92d3 99bc
00000260: 7869 513c 9cbc 053d 8d5c b13d c0af efbd
00000270: 28cf c2bc de5a dabd 6b15 b0bd ba27 553b
00000280: a6d2 bf3c 0541 55be f6d9 9bb9 8a9c 9ebe
00000290: 32c1 2fbe e8e4 db3b 9d79 1c3e c340 e4bd
000002a0: 6ef3 fd3d 763e 453c deb2 c53d 5980 863d
000002b0: 4a25 f03c 3bb7 4fbe f155 643e 12c4 63bd
000002c0: 7642 153e 1843 e9bc 186f 063b 7f99 813c
000002d0: aaee f7bc cde8 323c e2a0 943d c506 01be
000002e0: 8e1c b13d 09a3 d23d 67b4 be3d 6538 f13c
000002f0: a4dd ea3c 0c60 3dbb 63dc 163d 19b1 0e3d
00000300: 2629 05be f74f 1a3d c824 6e3d b0ea 89be
00000310: 6872 ae3b 9814 7a3d f583 d73d d6c7 d6bc
00000320: b48e 16be aa2a 69be 5585 ddbb 7d64 ea3d
00000330: d172 173e dd66 b3bc 5520 0fbe 88ac 92bc
00000340: 8e0f 86bd ae85 e53d b8da cf3d 70c1 ca3c
00000350: 8d07 2abd 039f 423e a604 623d 0cdd a63d
00000360: 731f 57bc 5c7d 79bb 260d 9cbd ceee cb3d
00000370: ef25 64bd 05c0 53bd 6ef9 97bd 0426 853d
00000380: 7e66 5abe 6d31 85bc ab10 80bd fc17 8a3d
00000390: 6762 e13c 2a82 0ebe 96af 4e3b e079 aa3d
000003a0: 2dc9 f93d d474 e73a f840 5dbe 0cdb 53bd
000003b0: 2ef2 813e 1fc7 c03b f3e6 9bbd dd64 e1bc
000003c0: 7567 65be 1faf 28be 85bc 12be 0ee6 873d
000003d0: dedf 3dbe 8285 2dbd aeee dbbd 33fb 1bbe
000003e0: ada2 5bbc cad7 e5bd 37a6 97bc 9fbd c63d
000003f0: ef55 0dbe ecf9 843e 668d c1bc 8742 47bc
0.18537855 -0.04191459 -0.1650113 -0.0610898 -0.08646202 -0.21554346 0.1291041 -0.008088033
-0.06415716 -0.070056476 -0.16975221 0.0069212615 0.035165176 0.109197654 -0.059744153 -0.05296417
-0.017645156 0.19017766 0.03170099 -0.13524248 0.010594538 0.0014339495 0.015225747 -0.10459858
-0.106555454 -0.06287645 -0.08624671 -0.14257918 -0.048971053 -0.015265531 -0.21285786 -0.18908885
-0.12347323 -0.06399541 0.08722471 0.053701907 0.017109713 -0.04608332 -0.12637353 -0.17033269
0.1983309 0.08012648 -0.11287994 -0.2570376 -0.040771984 0.10217304 -0.05660844 -0.19806662
0.19314855 -0.17887363 -0.088777736 0.024233567 -0.11545241 -0.20370178 -0.0022772935 0.0031591733
0.16152984 -0.0862367 -0.0806944 -0.14217097 -0.06334721 -0.2430909 0.06986136 -0.13081989
-0.10114072 -0.12313646 0.15326948 -0.3006698 -0.092535645 -0.049323574 -0.24982992 0.06344409
0.13329168 0.11654263 -0.17536478 0.02108988 -0.049522392 0.008838536 -0.084792174 -0.07655542
-0.036271323 0.041220717 -0.07861679 -0.025110515 -0.19864212 -0.025887344 -0.04449878 -0.14119972
-0.08843766 -0.09584137 0.19642639 0.056055866 -0.09996744 0.027169768 -0.010859315 0.023805352
-0.22868481 -0.16258855 0.054820146 -0.23342727 -0.21608317 -0.1925903 -0.010357022 -0.070293516
-0.1204667 0.001128374 -0.18684854 -0.16327019 0.14956336 0.17315751 -0.14180242 -0.18990225
-0.012128475 0.019798689 0.02833869 -0.26479635 -0.18860713 -0.07879075 0.13195606 -0.08205542
-0.06974304 0.08975007 -0.14044438 -0.15793999 0.007916216 -0.18511702 -0.08354696 -0.16619955
-0.23631182 0.07739393 0.05222437 -0.0058523 -0.17887802 0.10124523 -0.072911315 -0.018156527
-0.14120218 -0.12148204 -0.07185756 0.14004576 -0.034731347 -0.09335847 -0.31043854 -0.025191024
0.008844865 0.10145183 0.059484422 0.027080484 -0.17654876 -0.025709236 -0.055780847 -0.018777642
0.012781493 0.032650575 0.08660231 -0.117034435 -0.02378042 -0.10661863 -0.08597835 0.00325249
0.023415875 -0.20825584 -0.00029726297 -0.30978805 -0.17163542 0.0067106374 0.15280767 -0.11145165
0.12399946 0.012038818 0.09653257 0.06567449 0.029314656 -0.2028474 0.22298409 -0.05560691
0.14576134 -0.028474376 0.0020512994 0.015820263 -0.030265171 0.010919762 0.072572485 -0.12600239
0.086480245 0.10285003 0.09311753 0.029445836 0.02867014 -0.002889636 0.03683127 0.034836862
-0.13003978 0.037673917 0.058140546 -0.26936865 0.005323697 0.061054796 0.10523216 -0.026218336
-0.14702874 -0.22770181 -0.006760279 0.11444948 0.14789893 -0.021899635 -0.13977177 -0.017904535
-0.065459356 0.11207138 0.10149139 0.024750441 -0.041511107 0.1900597 0.055180214 0.0814763
-0.013130057 -0.0038069105 -0.07619695 0.09957658 -0.05570024 -0.051696796 -0.07420622 0.065013915
-0.2132816 -0.01625892 -0.06253179 0.06742856 0.027512742 -0.13916841 0.0031537763 0.08324027
0.12196574 0.0017658719 -0.21606815 -0.05172257 0.2538008 0.005883112 -0.076124094 -0.027513916
-0.22402747 -0.16473053 -0.14329727 0.06635676 -0.1854243 -0.04236365 -0.10738884 -0.15232544
-0.013405484 -0.11222799 -0.018511875 0.09704136 -0.13802312 0.25971925 -0.023626994 -0.012161857

lstm_layers.0.weight_ih_l0_reverse f4 [292, 11]
00000000: bf11 06be 52fc 3a39 ea4d 6ebe 552e 45be
00000010: 52a6 16be d774 11be 72f5 66be d115 1ebe
00000020: 8b45 4cbe dfe9 a83c 2c7c 5bbe 353d 11be
00000030: aa57 a4bc 7a69 dfbd 1111 8ebd 1ea5 85bd
00000040: 362c b4bc 3908 04be fc86 cdbd 3da4 06bc
00000050: f6c7 07be c8f4 d9bd bf0e 66bd bb98 97bd
00000060: fb9c 6a3d 95bf 95bc 89f7 c8bd dfb9 aabd
00000070: a3a9 1cbe 6349 ff3c 46ae 93bd bc83 b3bd
00000080: 2079 8abe 8f21 f7bd b25d 08be 9004 083e
00000090: c97a 4a3e b760 3f3e 107a 2e3d bd31 3c3d
000000a0: eb11 963d d908 183e 9030 ba3d e23a 88be
000000b0: dc68 05be 4254 a6bd 03e6 5abe 5b6a dbbe
000000c0: 5b40 e83d 16ab 173c 292a 19bd 7ffa e3bd
000000d0: eb50 5a3d 57a6 20bd 4456 06be 9cdc a33a
000000e0: 8e09 4bbe c0c7 3abe 4c96 363e a2b3 c6be
000000f0: c0b1 b1be 59c5 68be e1e7 cabd 5ccc 9dbe
00000100: 4fe8 193d 312e 48bf 32ba 533d 80fc 36be
00000110: eb40 7c3e 94b3 9b3e ae8f 5c3e 7d19 d5bd
00000120: db10 0dbe 3256 19be 08cb 3cbd 1ccb 87bd
00000130: 60ba 133e 6fe1 7d3e ce9e d9bc 62aa 2f3e
00000140: db99 26be b152 d23e c0c7 583d a8a3 843c
00000150: 3194 2cbe ea5e 533e 9325 1f3e cc36 2ebe
00000160: 5055 fbbc fe83 8cbe 19c0 63be ea49 553e
00000170: 8afe a0be 13bf 08be d551 33bd 9d9d 04bc
00000180: f262 09be 7524 793d 8bcd d8be fd30 40be
00000190: f67d 43bc 14c2 08be 4f02 863d 2194 8bbd
000001a0: 6f6b dbbb cbb7 19be 64d3 2abe 06a6 83bd
000001b0: 177e 6e3d 74b1 bfbe c576 1e3d 687b 46be
000001c0: 32c7 54bc b00f 25be 9310 6bbe 4ec6 fabd
000001d0: f287 873d bc8c 0abd e406 00bd 2f1a 8cbd
000001e0: e381 a63d 5df5 1c3c 06f8 e13d 517b c2bd
000001f0: be21 a6be 5ed7 a13e aaf5 1e3c 9ff8 883c
00000200: b109 da3d 4120 34bc 726a f4bb 45c6 a0be
00000210: 374c ebbb dba9 083e e36c 33be f038 e63d
00000220: ea62 2a3e 2d9d 06be 1c94 01be 8956 913d
00000230: f496 b03c b5b8 b2bd ed7f cfbc 525a 0b3d
00000240: b9f1 063d 36be 93bd a2da 973e 5fe2 8a3d
00000250: ddec 25be 8820 9abd b59b 65bc af96 c8bd
00000260: 40cf bd3d d7e6 17bf d5a5 22bd 4c38 8abd
00000270: 23ca 9c3d 15f1 1abe 6c5c f23d 80c1 debd
00000280: fa43 513c 4daf 0fbe b7b0 daba 2fba 8abd
00000290: e5bf e1bd d6ff 09be 3055 f13d 3aad a1bd
000002a0: ed65 313f 2e7a ac3e e3ba 18be 4d2c 0abd
000002b0: 6f9a 4f3d 43d5 fbbc 5885 99b8 49e7 19bd
000002c0: b1ec 63bd d3e4 43be eb40 21be 0dad 553e
000002d0: cded 79be ae81 46be 912b 55be a038 1dbd
000002e0: a9de a7bd 216a c8bb a690 4cbe 5f3c 9e3d
000002f0: fc85 c2bd 50ae 82be 4ea9 26bf 4269 95bc
00000300: 2e73 aa3c dc94 f3bd 6166 80bd 58f5 5d3c
00000310: 675d 163d beb4 cebe a106 863c 4264 783d
00000320: ef33 97bd 229a 303f cfff 1e3e e54a 2fbe
00000330: d25a cc3d be73 3cbc f0ad 983d 89d5 d83d
00000340: b002 c63d a279 6bbd 31c4 873e bdc7 c33c
00000350: 9d8a 0c3f 0327 203f f744 5fbc 710e 26be
00000360: 64fe 43bd 7717 923d 32b5 843c c8d6 09bf
00000370: 18f3 a2be e7fa 543e 0734 9bbd 0b99 503f
00000380: 5a30 063f 9e9a e8bc b225 013d 641f 54bd
00000390: 2b46 96bd c79a 2c3e 3756 f7be c2dd 30bc
000003a0: 18c7 37be efb1 21be 9bd9 84be 7e22 46be
000003b0: 9687 d8bc 0fac 98bc df6e 26bc 5b2f 9cbd
000003c0: 61d7 dcbc b0f7 d93d 8159 c13e a6b9 da3d
000003d0: ed48 1f3a de9f 163f d979 593e 5f8e 4fbe
000003e0: 7d6d 153d c9fa 4b3d 7cb8 c03b 373e fbbd
000003f0: b04a 103c cda8 b4bd b6a2 e1bd cc7b a7be
-0.13092707 0.00017832339 -0.2327191 -0.19255956 -0.14711884 -0.14204727 -0.22554567 -0.1543801
-0.19948404 0.02061933 -0.21434087 -0.14183505 -0.020061333 -0.1090879 -0.06936849 -0.06525634
-0.021993738 -0.12893762 -0.10035512 -0.008217868 -0.13259873 -0.106423914 -0.056166407 -0.07402178
0.057278614 -0.01827983 -0.098128386 -0.08336233 -0.15299086 0.031162923 -0.072109744 -0.08765361
-0.27045536 -0.12066948 -0.13316992 0.1328299 0.19773401 0.18689238 0.042596877 0.04594587
0.07327636 0.14847125 0.09091294 -0.26607424 -0.13028282 -0.0812154 -0.21376805 -0.4285458
0.113404 0.009257099 -0.037393723 -0.11131763 0.053299826 -0.039221134 -0.13118845 0.001250166
-0.19827864 -0.18240261 0.17830771 -0.38808924 -0.34705925 -0.22731532 -0.09907509 -0.30819976
0.037575062 -0.7819548 0.05169124 -0.17869759 0.24634139 0.30410445 0.21539184 -0.10405252
-0.13775961 -0.14974287 -0.046092063 -0.06630537 0.14426565 0.24793027 -0.026564982 0.1715484
-0.16269629 0.41078714 0.05292487 0.016191319 -0.16853406 0.20641676 0.15541677 -0.17013091
-0.030680329 -0.27444452 -0.22241248 0.20828977 -0.31444198 -0.13354139 -0.043779213 -0.008094219
-0.13416651 0.060825784 -0.42344317 -0.18768688 -0.011931887 -0.13355285 0.06543409 -0.06815363
-0.0066961567 -0.15011518 -0.16682202 -0.06428151 0.058225717 -0.37440073 0.038687486 -0.19383013
-0.012986945 -0.16119266 -0.22955541 -0.12244855 0.066177264 -0.03382562 -0.03125657 -0.068409316
0.08130243 0.009579984 0.11033635 -0.09496177 -0.32447618 0.31609625 0.009702126 0.016720114
0.1064638 -0.010994018 -0.0074589783 -0.31401268 -0.0071807164 0.13346045 -0.17522006 0.11241329
0.16639295 -0.13145895 -0.12654155 0.070965834 0.021556355 -0.08726636 -0.025329554 0.034021683
0.03294537 -0.07214014 0.2965899 0.06781458 -0.16203637 -0.07525736 -0.014014174 -0.097943656
0.092680454 -0.5933661 -0.03970893 -0.06749019 0.07655742 -0.15131028 0.11834034 -0.10876751
0.0127725545 -0.14031716 -0.0016684745 -0.06773793 -0.11022929 -0.134765 0.11783826 -0.078943685
0.6929615 0.33686966 -0.14915042 -0.033733655 0.05068439 -0.03074134 -7.320446e-05 -0.037574086
-0.05564565 -0.19130258 -0.1574742 0.20866795 -0.2440712 -0.19385406 -0.208174 -0.03838408
-0.08196766 -0.006116167 -0.19977054 0.077263586 -0.09498212 -0.25523615 -0.6510209 -0.018238667
0.020806875 -0.11893627 -0.06269527 0.013547264 0.03671017 -0.4037227 0.016360583 0.06064249
-0.073829524 0.6898519 0.1552727 -0.17118414 0.0997826 -0.011502204 0.07455051 0.105876036
0.09668481 -0.057489045 0.2651687 0.023898954 0.5489901 0.6255953 -0.013627282 -0.16216446
-0.047850028 0.07133382 0.016199682 -0.53843355 -0.3182609 0.20798837 -0.07578283 0.81483525
0.5241753 -0.02839404 0.03153009 -0.05178775 -0.07337602 0.16855918 -0.48307964 -0.010795059
-0.17947042 -0.15790533 -0.2594727 -0.19349095 -0.02643184 -0.018636731 -0.01015827 -0.0762622
-0.02695817 0.10642946 0.377636 0.10679941 0.00060762354 0.5883769 0.21237887 -0.20269154
0.03648137 0.049799714 0.0058813673 -0.12267726 0.008806869 -0.08821259 -0.11017363 -0.32711637

lstm_layers.0.weight_hh_l0_reverse f4 [292, 73]
00000000: dd06 bf3c 4819 463d f0d6 0cbe 9d81 083d
00000010: f19d 5ebe 1f61 8abd 902e ee3d f40c 0a3d
00000020: cd3d 28be e5c6 8b3e 6025 c73d 82d1 9b3d
00000030: dc74 d7bd 89b0 4abc aa94 7ebd c920 6dbc
00000040: 7763 753d 8881 77bd 2afc 783d 47d2 32be
00000050: c542 6abd ae49 35bd 0202 aabd fbb1 9abc
00000060: 39f2 983d bff1 4ebe f843 a2bd 5d30 9d3d
00000070: 51df b43d 8a81 533e 02a1 be3d 4d64 16be
00000080: a3b2 303d 5e82 aa3d 9483 8ebe 145a 223c
00000090: 9831 51bd 6ea7 ebbc 6785 0d3e 5479 c83c
000000a0: bc6d 423e b50f d83d a97d c3bc 9dca 223c
000000b0: b92c 203d abf1 cb3c deea 32be 8c1c cb3d
000000c0: 6f69 09bf 6cb6 613d b842 aa3d c958 71bd
000000d0: 403d 8dbd 1f6c 4f3d 4e68 023e df76 23bb
000000e0: 0458 c63d 393d 82bd 3cf5 483e eb86 a13d
000000f0: 22be c23e 0eef d2bc 6876 0f3d f79c 82bc
00000100: b47f 40be 1755 e8bd 2fdb 00be d3ed a7bd
00000110: d985 0abe bf4f 3e3e 0c11 3cbe dc1c c0bc
00000120: 2fbf cfbc 4af9 e93c 86a4 90bd 6c04 353d
00000130: 55e7 df3d bf83 983d 470d b0bd 9b4f 84bd
00000140: 54cc c33c 8438 13bd 4ca5 103a 801b 53bc
00000150: 6700 18be 63e0 583d 6c87 a03b 4d19 343d
00000160: 757e bdbc 912b 79bc d423 b8bb a818 ecbd
00000170: ec12 ed3a f7ad ff3c eadf 51bd 7592 80bd
00000180: 04ab 99bc 93d1 213c f4f7 8b3c a960 963d
00000190: 4e79 febd 4dff 0c3d d94a 843b 5dfc 04be
000001a0: 7d91 abbd 6736 16be 04f7 de3d 7b02 c5bc
000001b0: fa22 743c e4cb 993c 443c b53d 5f1e d5bb
000001c0: 700d 45bd 263e 63bd 3f73 92bd 702b d7bd
000001d0: 04de 3dbc 771c 9fbd 1e7d ccbc d023 6c3d
000001e0: ab22 b53d 6023 903c d436 bdbc 52bd a73b
000001f0: 8d1a 533c ebf2 a13d e0a0 9f3d e12f a03d
00000200: dea4 d2bc fa00 e2bc f61e 9d3d cfbd cebb
00000210: 6a02 803d 7947 fd3d 0533 b73d 827b d8bc
00000220: 12ee f53d f112 89bd 5762 f7bc 9026 91bd
00000230: 2bab a23c 4f07 9dbd 3cf1 cfbd 3aaa c0bd
00000240: c21c a9bd 8e23 243e 5d66 0eba 3a0e 803d
00000250: 8fe6 a73d 0537 d2bb 5462 56bc f761 ffbd
00000260: 236f 6ebc bfb8 7cbd 86a6 c2bc 9dad 2c3d
00000270: 0722 0abd ceb2 8c3d 692f 5cbd 2c97 bf3d
00000280: b124 72bd 2336 0d3d 693a 833c 8da7 823d
00000290: 698d 54bd 1317 1fbd 06aa 8c3d 796a e63b
000002a0: 521b 793d 8104 bfbc 79df 6a3c 32ab d7bc
000002b0: 3595 c53d dbea 7cbb ed34 abbd 6a52 913c
000002c0: d8d2 e2bd eb54 76bd 19e2 cc3c fa2c 26bb
000002d0: d100 85bd ef40 3fbd a984 5dbb 3b96 003c
000002e0: 0293 c63d 3466 af3c c3ef 93bd 8303 623c
000002f0: 1b51 b6bb 8a45 f7bc 36b6 acbd e005 f5bd
00000300: a448 9c3d 2365 033c 69dd 13be ed65 fbbd
00000310: 1d5c 1dbd 3bac d7bc fe66 07be faa2 98bd
00000320: d264 f73b 38a7 273d 050a ab3d 7cbb e0bd
00000330: f891 af3d f9d4 0f3d 6e70 87bb 3862 ce3c
00000340: d291 37bc 84c9 27bd 86b8 dabd 7a9a 9a3d
00000350: 1901 5bbd 8f31 a03c 866d 023e 1d9b 24bd
00000360: 6d23 bcbd 1f9a 63bd 0c62 aabd 7ed2 9d3d
00000370: 8a26 46bc 3280 fdbd 1efa 11be d437 5d3c
00000380: 24f9 2b3e f8f2 3c3c 1381 9c3d 2878 273e
00000390: d758 23be a188 d63c 9b38 71be f63a 083e
000003a0: f164 2e3e 90af 2a3d 5bd4 713e bb6f ddbd
000003b0: d275 9abc 8c48 49be 9095 063e 61b6 773e
000003c0: 270c abbc f728 36bd f80a 78bd c089 11be
000003d0: 143e 8e3d 3802 dc3d 8f0c dfbd 6529 aa3d
000003e0: cec6 adbd 111b 34be 2e49 593d b472 32bd
000003f0: beaa b73d be3a 213e 5d5e 9abd 7e1f 40bd
0.023318702 0.048363954 -0.13753867 0.033326734 -0.21739937 -0.06756806 0.11629975 0.03370376
-0.16429825 0.27300182 0.097239256 0.0760832 -0.10520336 -0.012371191 -0.062153496 -0.014473149
0.05990931 -0.060426265 0.060787357 -0.17463027 -0.057192583 -0.04425972 -0.08301164 -0.018883696
0.07468075 -0.20209406 -0.0792312 0.0767524 0.08831657 0.20654884 0.093080536 -0.14686699
0.04313911 0.08325647 -0.2783476 0.009909172 -0.051072687 -0.02876636 0.1382042 0.024471916
0.18987173 0.10549871 -0.02386363 0.009936002 0.03910515 0.02489551 -0.17472407 0.09917554
-0.53676504 0.05510561 0.08313507 -0.058922563 -0.06896448 0.05064022 0.12735102 -0.002494268
0.096847564 -0.063593335 0.196248 0.07887062 0.38035685 -0.025748756 0.03502503 -0.015943987
-0.18798715 -0.113443546 -0.12583612 -0.08199658 -0.13527621 0.18585108 -0.18365878 -0.023451261
-0.025359718 0.028561253 -0.0706263 0.04419367 0.10932795 0.074470036 -0.085962825 -0.06460496
0.023901142 -0.03594257 0.0005517795 -0.0128849745 -0.14843903 0.052948367 0.004898956 0.04396944
-0.023131588 -0.015208141 -0.0056195054 -0.1152814 0.0018087304 0.031210883 -0.05123893 -0.062779345
-0.018758304 0.009876627 0.017086007 0.07342655 -0.12425481 0.03442316 0.004037243 -0.12986894
-0.08377359 -0.1466919 0.10886958 -0.024049034 0.014900917 0.01877398 0.088493854 -0.0065038647
-0.048108518 -0.05547919 -0.07150888 -0.10506332 -0.011588577 -0.07769101 -0.024962004 0.05765134
0.08844503 0.017594993 -0.023097433 0.0051190043 0.012884748 0.07907661 0.07794356 0.07821632
-0.02571338 -0.027588356 0.07671921 -0.006309248 0.062504604 0.12367148 0.08945278 -0.02642608
0.12008299 -0.06693066 -0.03019826 -0.07087433 0.01985701 -0.0766741 -0.10153434 -0.09407468
-0.08257438 0.16029188 -0.00054321234 0.062527135 0.081982724 -0.0064152502 -0.013084967 -0.12469857
-0.014552864 -0.061699625 -0.023761045 0.042157758 -0.033723857 0.06870042 -0.05375615 0.093550056
-0.059117023 0.034475457 0.016019063 0.06379614 -0.05189267 -0.038840365 0.06868367 0.0070317355
0.06081707 -0.023317577 0.014335507 -0.02632675 0.096475996 -0.0038592133 -0.08359704 0.017739493
-0.110753715 -0.060139578 0.025010156 -0.0025356398 -0.06494296 -0.046692785 -0.0033800995 0.007848318
0.09696008 0.021411039 -0.07223465 0.013794783 -0.0055638677 -0.030184526 -0.084331915 -0.11964011
0.076310426 0.008019718 -0.1443993 -0.122753 -0.038417924 -0.026327243 -0.13222882 -0.0745296
0.0075498605 0.040930957 0.083515204 -0.1097326 0.08572763 0.035115216 -0.0041332757 0.025193319
-0.0112042 -0.040963665 -0.10679726 0.07548995 -0.053467844 0.019554881 0.12737092 -0.04018699
-0.091864444 -0.055566903 -0.08319482 0.07706164 -0.012094149 -0.12377967 -0.14255568 0.01350208
0.16794258 0.011532538 0.076418065 0.1635443 -0.15951858 0.026188197 -0.2355675 0.13303742
0.17030694 0.041671336 0.23616163 -0.108123265 -0.01885501 -0.1965658 0.13142991 0.24190666
-0.020879818 -0.04447266 -0.060557336 -0.14212704 0.06945434 0.10742611 -0.10891067 0.08308677
-0.084851846 -0.1758845 0.053048305 -0.04356642 0.08968113 0.15745065 -0.075375296 -0.046905033

lstm_layers.0.bias_ih_l0_reverse f4 [292]
00000000: 3241 c4bc 6196 8b3c 89ef 74ba 2946 083e
00000010: 60b9 a93d b700 0b3e 7ca9 793d 8264 89bd
00000020: cca7 80bb 4f74 c6bd 96e1 4fbc d7dc 96be
00000030: 7b96 48be b994 da3c de3a 8cbd 01c2 96be
00000040: 563c fabc e016 79bd 10c8 b8bc ad64 16be
00000050: 54e7 cbbe ceb3 c9bd 2f1a 4cbe 955a 583d
00000060: 7ad5 703d 35a9 97bd dee3 d2bd 271d e43d
00000070: f319 ee3e 79c2 353d 593c cc3d f04d edbc
00000080: b9ad 49bc 7644 25be 39ff bdbd 0138 aa3b
00000090: 881a 20bd 3554 0abd 225e 1fbd db07 053e
000000a0: e862 febd 116a 803c 6e7d d1bb 779e c3bd
000000b0: bb3c cabd 2812 7c3d 44c4 a63d 33bc c53d
000000c0: 8708 263e 642a 9bbc 21f2 3abe e444 acbd
000000d0: 2dd6 3ebd e936 b03e 60c7 cbbb eb54 f7bd
000000e0: c055 5b3e 92e3 4d3d 249d d6bb 0308 2a3e
000000f0: cde8 533e d906 053e cc29 76bc 92c4 043e
00000100: b1c9 11be 95f1 1ebd 822b 08be c79b 11be
00000110: 148e 383d 9705 9f3b 29e4 12bd 3aa3 3e3b
00000120: 875a bc3c c424 dcbb d9ee 45bd 8e6f 3bbd
00000130: a60d 9dbd 382c da3d 5809 e83d aa6b 08bd
00000140: 18db 24bd 7a4c c43d 20ad 8039 28fc 203d
00000150: 99d5 e6bd 0005 cbbd 13bf 783d 79e9 e23d
00000160: c322 e6bd 5325 59ba 4928 093d dc30 49be
00000170: 3c65 38be e373 7b3d 0bbc a6bd af20 873d
00000180: 3cc6 0cbd 167a dabc f394 1b3e cece ddbd
00000190: fbbb 833d 441f a03d fbeb 083e 5bf3 b938
000001a0: a339 6d3d 6db6 44be 3593 b1bd 65f3 543c
000001b0: 9bda 393d 3876 ac3c 6322 063d 2f74 5b3d
000001c0: dc00 fc3c 40a6 aebd d1b8 113d d219 11bd
000001d0: 68c1 6ebd b981 da3a d7c8 423d 13d8 093e
000001e0: 9873 f73d 3e36 873d 8684 35bd 2650 29be
000001f0: 912b 11be 0c23 be3d 6d53 713c 0af3 2b3c
00000200: 8eb2 0c3d 124f 813d 4f8c 5e3d 1f5e 903e
00000210: f764 a73c 5acf b23c f5a1 cf3d 09ac f93c
00000220: 314f 713e 1da4 c7bc b4d8 a3bd 2303 6fbc
00000230: f8d9 67bd a79f e3bd bb3c 3abd dbd3 9b3d
00000240: 52d7 6f3e 982f 2d3e cd92 29bc 4f87 643d
00000250: 431f 1abc 8b43 71bd 25d7 39bd deb2 433e
00000260: db55 f0bd 7068 4bbe 93b4 1b3c 09c2 0bbb
00000270: b6c9 973d 4a2f 0b3e 5118 9fbd 7b42 783d
00000280: 571a c5bd 31de 88be 04f6 1ebe f9f5 85bc
00000290: 11fc 423e b44e d7bd 2efd 85be a8e9 a53d
000002a0: 1506 e73b 14e4 2cbd eb4f 62bd cdce 05bd
000002b0: 3d38 62bc 8b74 563d d8c9 95bd 120a 07bd
000002c0: a7b2 8d3a 1c00 debd bca5 023d 994d 023e
000002d0: cfa5 7cbe b511 a23d bcc3 6a3d 9f62 2d3d
000002e0: 62dc bebd 4cd3 d43c c172 3d3e 7013 1bbe
000002f0: 0d87 f9bd ac78 1fbd c223 dc3d bc0a 4abe
00000300: e423 dcbd 837c 0bbe 820a 8abd d363 d63d
00000310: 05bb ac3d a88d c63c db48 b9bd 3024 07be
00000320: 96bd 86bd 8ab0 3e3e 5fc7 863d 4787 81be
00000330: a007 7a3d 4455 d13b 8ffe bbb8 18a5 233d
00000340: 4156 11be 0fb5 093d 1377 e9bd 2d40 bbbe
00000350: 16bb e8bd a48e 443d 9179 863d 99b7 fb3d
00000360: dbe9 403d 379f 3dbe a975 8c3d 2b70 a1bc
00000370: dfb6 493c d607 ccbd 6e64 c83d 20cc a53c
00000380: ea4a 6b3e 00f2 bbbd f995 a0bd 3cc3 ad3d
00000390: c392 673d c39a 74bc 9e72 62be 2300 28be
000003a0: 224c 55bd 15d2 4b3c be8d 92be 2a4a 92bd
000003b0: 4786 cdbc fd98 23be 90b2 62be c3fb a9bd
000003c0: 2c95 dc3b d33e 793c 9fbc fabd f201 333d
000003d0: 5a91 283e 46f6 49bc 4eab 8e3c 7704 24bc
000003e0: 0e7b d23d 199d 783d 306b 6dbc 2400 1fbd
000003f0: 197e c5bd 97d8 3cbe c36c 15be db9e d9bd
-0.023956869 0.01703948 -0.0009343555 0.13308014 0.082873106 0.13574491 0.06095265 -0.067086235
-0.003926253 -0.09690153 -0.012688061 -0.29465362 -0.19588654 0.026682245 -0.068471655 -0.29444888
-0.030546349 -0.06081283 -0.022556335 -0.14686842 -0.39824927 -0.09848748 -0.19931863 0.05282076
0.058797337 -0.074053206 -0.102973685 0.11138373 0.46504173 0.044374917 0.09972448 -0.028967828
-0.012309485 -0.16139397 -0.092771955 0.0051946645 -0.039087802 -0.033771712 -0.03890813 0.12991278
-0.124212086 0.015675576 -0.006393126 -0.09551709 -0.09874865 0.061540753 0.081429034 0.09655037
0.1621419 -0.018941112 -0.18256427 -0.08411577 -0.046590973 0.34416893 -0.0062188357 -0.12076744
0.2141943 0.050265856 -0.0065494943 0.16604619 0.20694275 0.12990893 -0.015024614 0.1296561
-0.14237095 -0.03880461 -0.13297847 -0.1421958 0.04505737 0.0048529613 -0.03586212 0.002908899
0.022992386 -0.00671825 -0.048323486 -0.045760684 -0.07668619 0.10652965 0.11329907 -0.0333058
-0.040248007 0.09584899 0.0002454305 0.039302975 -0.11271209 -0.09913063 0.060729098 0.110796876
-0.11237099 -0.0008283455 0.033485685 -0.19647545 -0.18007368 0.061389815 -0.08141335 0.06598031
-0.03436874 -0.026669543 0.15193538 -0.108304605 0.06432339 0.078184634 0.1337127 8.866816e-05
0.057916295 -0.19210215 -0.08670656 0.012997483 0.045374494 0.021052465 0.032747637 0.0535776
0.030762129 -0.085278034 0.035576645 -0.035425015 -0.058289915 0.001667074 0.047554817 0.13461332
0.12082595 0.06602143 -0.044315837 -0.1653448 -0.14176776 0.092840284 0.014729363 0.010494957
0.03434997 0.063139096 0.054333027 0.2819681 0.020433886 0.021827389 0.10138313 0.03047754
0.23565365 -0.024370247 -0.08000317 -0.01458815 -0.056604356 -0.11114436 -0.045468073 0.076087676
0.23421982 0.16912687 -0.010349941 0.055793103 -0.009406867 -0.058902305 -0.045371193 0.19111201
-0.11735126 -0.19864058 0.0095035015 -0.002132537 0.0741152 0.13592258 -0.0776831 0.060610276
-0.096241646 -0.2673202 -0.15523535 -0.01635264 0.19041468 -0.10513058 -0.26169723 0.08101207
0.0070502856 -0.0422097 -0.055251997 -0.032667924 -0.013807354 0.052357238 -0.07313889 -0.03296859
0.0010810689 -0.108398646 0.031896338 0.12724914 -0.24672626 0.079135336 0.057315573 0.04233038
-0.093193784 0.02597966 0.18500806 -0.15144134 -0.12183962 -0.03893344 0.10749008 -0.19730657
-0.10749033 -0.13621716 -0.067402855 0.10468259 0.08434109 0.024237469 -0.09047099 -0.13197398
-0.065791294 0.18622032 0.06580996 -0.2529852 0.061042428 0.0063883383 -8.96427e-05 0.039952368
-0.1419306 0.033619937 -0.11399665 -0.365724 -0.11363809 0.047987595 0.06566156 0.12290878
0.047098022 -0.18517767 0.068583794 -0.019706806 0.012311666 -0.09962432 0.097847804 0.020238936
0.22977796 -0.09177017 -0.07841105 0.084845036 0.056536447 -0.014929476 -0.22114035 -0.16406302
-0.05207456 0.012440224 -0.28623766 -0.07143052 -0.025088442 -0.15976329 -0.22138429 -0.08299973
0.00673165 0.015212732 -0.12243008 0.043703027 0.16461697 -0.012326783 0.017415669 -0.01001083
0.10277377 0.060696695 -0.0144908875 -0.038818493 -0.09643192 -0.18441997 -0.1459227 -0.106260024

lstm_layers.0.bias_hh_l0_reverse f4 [292]
00000000: 2816 2bbe 8534 4abd ad3e 56bd 365f e33d
00000010: 1172 6d3c 0584 5d3e fd04 7cbc cb57 0fbe
00000020: c93d 7f3d 277f de3a cf57 20bd b675 79be
00000030: 9912 7abe 1984 003e 9fae f53d 1940 32be
00000040: 3fc0 d13b 8fb7 e7bc f56e a7bd 474b 22be
00000050: 4e7f babe 9693 1cbe f492 39be 7c8a 40bd
00000060: 2678 5fba fc57 1a3d 30f8 a5bd 5fbb a43e
00000070: 4e60 ce3e 6e11 20bd 33b6 d9bc c444 0fbe
00000080: 807b 03be 6767 c2bc 308b 35be 1aab bbbd
00000090: dc83 aabd 8dd2 fbbd 1fc7 babd 494c 8f3d
000000a0: 1499 c3bd 25a9 3abd 7020 ae3d 499d 0bbe
000000b0: 8943 3dbc 4b83 4b3d 0b04 aebd a826 8a3e
000000c0: 50db 023d ff84 67be 0085 18be ddf0 20be
000000d0: 13d2 c73d de8e 5b3e a110 dabd 669b 94be
000000e0: e07f 4f3d 88b4 713d 7f12 e23d 80e3 0e3e
000000f0: 7f2b a93d a1b6 c43d b831 25bd 8a86 a23c
00000100: a3c1 83be bb86 66be 01b7 2bbe 773f d23c
00000110: 9221 d2bd f5d2 423e 4170 b2bc 2878 d63d
00000120: e49b eebc e01e f13d be22 3cba d498 a23c
00000130: b9a3 cab9 604e 2f3e 7017 f63c b8b5 f3bc
00000140: c770 2fbe 934b b73d 5ead 263e ecda 113d
00000150: 5cd0 52be 5f0f c53d 2eac 7f3d 4e05 f53d
00000160: 94ef 34bd 947e 883d c42a 1c3d ef59 eebd
00000170: 9b39 41bd 40e0 0b3d beb3 57bc d50d e2bc
00000180: d59b b4bd 8dc5 ee3c 5013 e63d 94ba 4f3d
00000190: 929e 573e ca4c ab3d 3023 573d 93ea 853d
000001a0: d0ce 15bd 7f94 1cbe dced bfbb d776 4d3d
000001b0: 41cf 9c3d 76e4 d9bc 4367 fe3b 11e8 593d
000001c0: c48e 833e 9119 aebc 3928 563d 5f7e 9bbd
000001d0: b1eb c2bd e718 8f3c adb0 3cbd 6999 2f3e
000001e0: f3da 713b 0fcd 4b3e 922c 593d f30b 263d
000001f0: fcb9 f7bd ab06 633d ac05 333e 3204 67bd
00000200: 28c6 d3bb 9342 6d3e 313c 13be 365b ca3e
00000210: d5b1 103d 369b 973d 4166 9fbc 6764 febc
00000220: 81f8 8e3e 2b80 f73c 582c febd 1b29 7c3d
00000230: 4426 f8bc 8015 b7bd c1bc 9bbc 862f f0bc
00000240: 421d 473e aef4 463d b1ee a4bd c503 bd3d
00000250: 7ce9 a4bd 18d5 da3c 529e 8b3d 5515 a63d
00000260: d418 15be dcb3 b9bc 4d93 c03d 3ef3 c9bd
00000270: 409a b73d a877 7a3e 7034 15be faa7 adbc
00000280: bd45 353d e196 f6bd 5541 1ebd 59fc 9abb
00000290: cf17 0b3e a289 8ebe bbc2 93be 8306 e13d
000002a0: 3df6 2b3e 1d85 debd 918f 23bb 6a8c 263d
000002b0: 93ff de3c ceeb efbc cf27 c7bc b9d1 93bd
000002c0: b67a 753c c1d8 14be bae0 f13d 43f3 413e
000002d0: 7c0f 1cbe 4faa cd3c be8f dd3d 939d 2cbd
000002e0: 4f8a f3bd c7c2 bdbc 01b6 1c3e 8e19 87bd
000002f0: 8103 6dbd aa9f b8bb 3848 063e e236 72be
00000300: 9a8c 8f3d ddd3 b4bc 0a8d 26be f02f fd3d
00000310: b133 313e e106 af3d 95bd 33be f899 23bd
00000320: bd3f 80bd 1aec ae3d cc64 4dbd f69d 0fbe
00000330: 7b8b d03d e7d9 ce3d 5c41 c03d 39a8 403d
00000340: 24dd 173d d12b b1bd 75a2 d5bc 280f b6be
00000350: f830 4bbe 99b3 1b3e 8921 933d 1614 083e
00000360: cf48 8e3d 2d87 94bd 93cb 0fbe 5a2d 1bbe
00000370: 141b e2bd babd c7bd d588 8fbd fa55 c63d
00000380: fbaa 763e 102b a7bd df41 823d 3022 223e
00000390: e3fc 32bd 8b81 b83d ad21 c8bd b24a 4ebe
000003a0: 4ebb d43c 140e e33d d782 1bbe 8df4 a5bd
000003b0: 534d 59bc 10dd b9bc 18ce 65be 458a 28be
000003c0: 9276 26bc 6999 9b3c 11e9 efbd d51e 2bbd
000003d0: 499d 23bc 481f 1cbd 751a 4d3e a99a b43d
000003e0: bc0b f43c cb44 1c3e dfb3 b8bc e1f0 1bbc
000003f0: 99d0 13be 861c 0bbe 1429 2cbd 6d25 13be
-0.1670767 -0.049366493 -0.052305866 0.111021444 0.014492528 0.21632393 -0.015382049 -0.13998334
0.062314782 0.001697515 -0.03914624 -0.2436131 -0.24421157 0.12550391 0.11996197 -0.17407264
0.0064010913 -0.02828577 -0.0817546 -0.15849029 -0.3642525 -0.15290675 -0.18122464 -0.04700707
-0.00085246784 0.037681565 -0.08103979 0.32174203 0.4030785 -0.039079122 -0.026576137 -0.13991076
-0.1284008 -0.023730947 -0.17728877 -0.091634944 -0.083259314 -0.12296019 -0.091200106 0.06996972
-0.09550682 -0.045571465 0.08502281 -0.13634218 -0.011551746 0.049685758 -0.08496865 0.26982617
0.031947434 -0.22609328 -0.14894485 -0.15716882 0.09756865 0.21441218 -0.10647703 -0.2902481
0.05065906 0.05901006 0.11038684 0.13953972 0.08260249 0.09605146 -0.04033062 0.019839544
-0.2573367 -0.22512333 -0.16769029 0.025665028 -0.10260309 0.19025786 -0.021782042 0.10472137
-0.029127069 0.11773467 -0.0007176808 0.019848265 -0.00038650425 0.17119741 0.030040473 -0.029749736
-0.17132865 0.089499615 0.16277072 0.03560917 -0.20587295 0.096220724 0.062420063 0.119639024
-0.044173792 0.06664768 0.038126722 -0.11638247 -0.047174077 0.03414941 -0.0131654125 -0.027594486
-0.08818785 0.029146934 0.11234152 0.050715044 0.21056584 0.08364256 0.05252379 0.06538882
-0.036574185 -0.15291022 -0.0058572125 0.050162163 0.07656718 -0.026598196 0.0077637746 0.05319983
0.2569486 -0.021252425 0.052284453 -0.07592463 -0.09517611 0.017467929 -0.04606693 0.17148365
0.0036904186 0.19902442 0.05302102 0.04053874 -0.120960206 0.05542628 0.17482632 -0.056400485
-0.006462831 0.23169927 -0.1437843 0.39522713 0.035325844 0.07402651 -0.019457938 -0.031053735
0.27923968 0.030212482 -0.12410802 0.06156264 -0.030291684 -0.08939648 -0.019010903 -0.029319536
0.19444755 0.04857319 -0.08053339 0.092292346 -0.08052346 0.02671294 0.068173066 0.081095375
-0.14560252 -0.022668771 0.094030954 -0.09860848 0.08964968 0.24459708 -0.14570785 -0.021198262
0.04425596 -0.120404966 -0.038636524 -0.004729789 0.13583301 -0.2783938 -0.28859505 0.1098757
0.16793151 -0.10865233 -0.0024957398 0.040661253 0.027221477 -0.029287245 -0.024310974 -0.07217736
0.01498287 -0.1453581 0.11810441 0.18940453 -0.15240282 0.025105624 0.10818432 -0.042142462
-0.11891615 -0.023164166 0.15303804 -0.06596671 -0.05786467 -0.005634268 0.13113487 -0.23653749
0.070092395 -0.02207368 -0.1626474 0.12362659 0.17304875 0.08546234 -0.17552789 -0.039941758
-0.06262157 0.085411265 -0.050144956 -0.14025101 0.10182854 0.10100155 0.09387466 0.04703543
0.03707613 -0.086509354 -0.026078442 -0.35558438 -0.19842899 0.1520523 0.07184131 0.13288912
0.06947481 -0.07252345 -0.14042501 -0.15154019 -0.11040321 -0.09752984 -0.070085205 0.096843675
0.24088661 -0.081625104 0.0636022 0.15833354 -0.043698203 0.09009083 -0.09772048 -0.20145682
0.02596822 0.110866696 -0.1518663 -0.08103285 -0.013263064 -0.022688419 -0.224419 -0.16458996
-0.010160105 0.01899405 -0.11714376 -0.04177745 -0.00998623 -0.03811577 0.20029624 0.088185616
0.029790752 0.15260617 -0.022546707 -0.009517879 -0.14435042 -0.135851 -0.042031363 -0.14369746
