foundation_models/Ensemble_model31_DeepHit_LSTM_Both_20250807_170228.pt (torch, 515983 bytes, 12 tensors)

lstm_layers.0.weight_ih_l0 f4 [476, 11]
000000 ae 0f a2 bc d6 4e 92 bd 76 0f 4a bb e3 ad 9f 3d
       -0.019782867 -0.07143943 -0.003083197 0.07796838
000010 8f 45 a0 bd 84 e8 6d bd 8b 44 33 3d ca 09 3c bd
       -0.07825767 -0.058083072 0.04376654 -0.045907773
000020 15 3d 51 3d fe 50 f6 bd 9d ac f6 3d 03 0b 1d 3d
       0.051083643 -0.12027167 0.12044642 0.03834058
000030 62 ed af 3d 50 aa ae 3d 1b 7d cb 3e ba 6a 39 3e
       0.08590199 0.08528578 0.39743885 0.18107119
000040 3a f2 27 3e 52 99 3b bb 2c be c8 3d 92 0d a8 3d
       0.16400996 -0.0028625322 0.098018974 0.08205713
000050 db 9a c1 3d ec 18 a9 bd e5 32 c2 bc d0 1e ad 3d
       0.094533645 -0.082567066 -0.023705909 0.08453143
000060 33 d5 4c bd 75 14 02 3e fb 60 1a bd 5e 2f fd 3c
       -0.05000801 0.12703116 -0.037690144 0.030906375
000070 11 37 f8 3d 10 73 cc bc b6 9f ec 3d 58 ba 74 3d
       0.12119878 -0.02495721 0.115539 0.059748024
000080 e0 cc 5d be d4 f0 33 bd 78 d6 72 3d da 65 e7 bb
       -0.21660185 -0.043930843 0.059286565 -0.007061702
000090 69 77 84 3e 1e 7b 75 3d 6e 3f 07 3e f1 0a a5 3c
       0.25872353 0.059931867 0.1320779 0.020146819
0000a0 7b 3e 2b bd 63 87 ba 3d 7c 33 69 b9 1d d1 ba 3d
       -0.041807633 0.09107854 -0.00022239791 0.091219164
0000b0 c6 b8 88 3e c2 ac 67 3d ac 85 45 3d 5d fe 52 3d
       0.2670347 0.05656124 0.048223183 0.05151211
0000c0 2a e4 16 3e f7 2f d6 3d 7e f1 22 3d aa 48 fd 3d
       0.14735475 0.10458367 0.039781086 0.12367375
0000d0 d4 da c1 3d 75 ed 87 3d 5a 1b e7 3d 9f 9a 53 3d
       0.09465566 0.06637088 0.11284514 0.05166113
0000e0 91 91 0c bd 50 73 9f bd e8 2f 74 3d 60 02 98 3c
       -0.03431851 -0.07785666 0.059616 0.01855582
0000f0 55 23 6f bd c3 0a be bd 90 6e 03 bd 97 b2 0a bd
       -0.058383305 -0.092793964 -0.032087862 -0.033861723
000100 b0 3e a8 3d 74 e0 49 be f2 fd d2 3d bf 0b 18 3e
       0.08215082 -0.19714528 0.103023425 0.14848231
000110 70 58 e3 3d 20 e5 da 3e fa 65 dc 3d 26 64 9b 3c
       0.111008525 0.42752934 0.10761638 0.018968653
000120 92 3d 33 3e 94 37 20 3e bf 43 27 3d 71 4b 8b bd
       0.17503956 0.15646201 0.040836092 -0.06801499
000130 ea 0f 04 3e 0a 94 88 3c 80 14 b5 3d 92 64 a2 3d
       0.12896696 0.016672153 0.08841801 0.079293385
000140 18 2a 92 3e 0f a5 14 3d 9c 2e 97 3c af f8 f3 bc
       0.2854774 0.036290225 0.018454842 -0.029781668
000150 17 48 4a 3c a3 96 1d 3d 80 15 81 3d 22 e6 cb 3d
       0.012346289 0.038473736 0.06302929 0.09956004
000160 ad 05 86 3e ec 24 cb 3d 72 e1 de bd 78 8e 36 3e
       0.26176205 0.09919152 -0.10882844 0.17827785
000170 03 7a e7 bc 4a b4 91 3c 3b d4 8d bc ed 99 54 3d
       -0.028256422 0.017786164 -0.017313113 0.051904608
000180 30 a9 a4 3c e7 ce 79 3d f2 84 a9 3b 90 90 38 be
       0.020100206 0.060988333 0.005173319 -0.18023896
000190 62 59 10 3d 40 31 6b bc 57 18 3a 3e 5d 58 1b be
       0.035241492 -0.014355004 0.18173347 -0.15170427
0001a0 29 10 08 bd c3 fa 1c 3c ed 5e fa 3c 31 cb 1f 3c
       -0.033218537 0.009581271 0.030562842 0.009753034
0001b0 63 51 2d bd f5 44 88 be 2c 59 64 3c a2 d3 f8 bd
       -0.042313945 -0.2661511 0.013937276 -0.12149741
0001c0 f9 78 87 3a 00 06 a6 3d f8 97 c5 bd 8c 9b 33 bd
       0.0010335735 0.08106613 -0.09648126 -0.043849513
0001d0 fc e4 92 3c 7f 85 f3 bd 68 5c 99 bd 29 8a c8 bc
       0.017931454 -0.11890697 -0.07488328 -0.024479942
0001e0 e4 6c 3b be b9 f5 1d 3e 23 a7 2c bd 90 1d a4 3d
       -0.18303257 0.15425767 -0.04215158 0.08013451
0001f0 e6 3f f6 bd 96 30 d6 bd 05 6d 1f 3c 49 30 d6 3c
       -0.120239064 -0.10458486 0.009730582 0.026146071
000200 67 d7 87 3c df 75 d8 bc 24 4d a3 3c db 5a 89 bc
       0.016582204 -0.026423393 0.019934244 -0.016766956
000210 02 a2 56 3e 3a 71 10 3e 2b 73 42 3e 1d 3f 79 3c
       0.20960239 0.14105693 0.18989246 0.015212801
000220 95 5f 1e bd 6e 39 37 3d 93 f2 c0 3c 19 95 2a 3e
       -0.038665373 0.044732504 0.023553168 0.16658439
000230 a3 e0 2b 3d 80 df 41 3e 48 8c 3f 3c 8e d5 52 3c
       0.041962277 0.18932915 0.0116911605 0.012868298
000240 6c 2c 91 3d dc c1 39 bd c1 35 3a 3d b2 a4 63 3e
       0.07088551 -0.045350894 0.04546142 0.22230795
000250 2f 8f 26 3d fa 37 bf bc 24 9c 11 3e 51 0a b1 3d
       0.040663894 -0.023342121 0.14219719 0.08644546
000260 89 e0 30 bd a0 fc 95 3d b0 1d b1 3c 8d 7d 09 3c
       -0.043182883 0.07323575 0.021620601 0.00839175
000270 94 97 83 3d 4c ff b6 3d 26 12 59 3d 20 44 95 3c
       0.064253956 0.08935413 0.052995823 0.018220961
000280 04 29 5f 3d 33 44 7a 3d 89 d5 4f 3d 1d 03 e6 ba
       0.054482475 0.061100196 0.050740752 -0.0017548535
000290 76 8a a4 3c 7b 9a 8c bd 01 33 a9 3b b0 0c 94 3d
       0.020085555 -0.06865402 0.005163551 0.072289824
0002a0 7f 30 8a 3e a4 f1 c3 3c 7b a2 ca 3d 61 5e b6 3d
       0.26990125 0.023918934 0.09894272 0.0890472
0002b0 8e a5 29 bd 4e 2f 33 3d 1b 08 8f 3d 75 17 b8 3d
       -0.04141765 0.043746285 0.06983968 0.08988849
0002c0 d3 88 38 3d a5 b5 07 bc 47 9b b2 3d ee be 1f bd
       0.04505236 -0.0082830535 0.08721023 -0.039000444
0002d0 1c a3 19 3e d7 e6 7a 3d a9 63 1c 3e 6c 23 ff 3d
       0.15003628 0.061255302 0.15272392 0.12457928
0002e0 a1 d9 cc bb d3 30 f1 3c 10 08 07 3e c9 41 f2 3d
       -0.0062515293 0.029442227 0.1318667 0.11828954
0002f0 03 89 12 3e 4d fb cf bc fb e1 32 bf 15 f9 b2 bc
       0.14310078 -0.025388384 -0.6987607 -0.021847287
000300 e1 61 c0 3c 9d c5 29 3e f5 52 94 3d f3 a3 f1 3d
       0.023484172 0.1657929 0.07242385 0.11798849
000310 6a 46 2e bd c3 59 d3 3d 7c 4b 14 3e a2 89 b2 3c
       -0.04254762 0.10319855 0.1448192 0.021794144
000320 19 51 6c bd b9 6a f3 bd 35 56 07 be 82 32 ef 3d
       -0.05769453 -0.1188559 -0.13216479 0.116795555
000330 6d a8 1d bd 91 53 17 3d 8f 5e 11 bb 07 68 89 3d
       -0.0384907 0.03694493 -0.0022181605 0.06709295
000340 89 5a 66 3d 15 68 37 bd bd 71 cc bc fd 0d 88 3d
       0.056238685 -0.044776995 -0.024956578 0.06643293
000350 a9 d4 6f 3e bb 3e c5 bd 4a b2 f4 bb 88 6e 26 bd
       0.23420967 -0.096311055 -0.007467543 -0.040632755
000360 e4 50 04 3d 69 79 87 3b 20 39 ba bd 97 86 0d be
       0.032303706 0.0041343463 -0.09092927 -0.13820873
000370 a3 e4 67 3d a0 d0 d4 bd 36 0c 8e 3c aa aa 4a 3d
       0.05661453 -0.103913546 0.017339807 0.049479164
000380 00 dd 33 3e bc d4 cd 3c 1d 9a d8 3c 8b 93 32 3d
       0.17564774 0.025125854 0.026440674 0.04359774
000390 b4 ab b0 bc 6d f8 1a 3d 1d 9b 42 be c1 c3 2a bd
       -0.02156625 0.037834574 -0.19004484 -0.04169059
0003a0 c2 c4 c1 3d 9c 2a 99 bd 20 03 c6 3d 3f c6 4c 3e
       0.09461357 -0.0747883 0.09668565 0.199975
0003b0 dd 27 47 bd 43 6e 38 bd b8 7f c3 3d d4 70 14 bd
       -0.048622 -0.04502703 0.09545845 -0.036240414
0003c0 f1 d5 42 3d e9 77 e1 3c 7d 88 e6 3c dc 7d c2 bc
       0.04756731 0.027522998 0.028141255 -0.023741655
0003d0 1e 3b e9 bd 16 64 c4 bd 7f dc 11 3e 53 26 f9 3d
       -0.11388229 -0.095894024 0.14244269 0.12165513
0003e0 1a 4a c6 bd 40 b4 93 3d f9 b9 96 ba 57 23 12 3e
       -0.096821025 0.07212114 -0.0011499516 0.14271294
0003f0 64 8c 07 bd 48 cb 9f 3c 18 d0 06 3d 15 3a 03 3e
       -0.03309287 0.019506112 0.032913297 0.12815125

lstm_layers.0.weight_hh_l0 f4 [476, 119]
000000 3a 04 85 bd 45 b7 39 bd 4d 5b 12 bd 94 f1 2c bd
       -0.06494947 -0.045340795 -0.035731602 -0.042222574
000010 5a 01 8d bc 5c 4b 30 3d ea e5 27 be ee bf 98 bd
       -0.017212559 0.04304062 -0.16396299 -0.07458483
000020 05 cf b4 bc d1 4f c1 3d 70 ba 64 3d 3b 9d cf 3d
       -0.02207137 0.09439052 0.055841863 0.10137411
000030 ba b5 b3 3d 2a 97 bd bd 01 e5 08 3d 8b df fc 3b
       0.08774896 -0.09257348 0.03342152 0.007717078
000040 05 14 d0 3d 9d 88 0e bd 99 93 3e 3d 93 dd a2 bd
       0.101600684 -0.034798253 0.04652748 -0.07952418
000050 b5 a8 5f bd ed b7 78 3d 60 c5 a6 3c 5a 41 d1 3d
       -0.05460425 0.06072228 0.020357788 0.10217543
000060 a9 e9 bb 3c 2d 66 2f bc b7 70 bf bc 0a 00 d5 3c
       0.022938566 -0.010705513 -0.023369176 0.026000995
000070 e1 a8 a5 3d 88 40 a9 bd 8a f3 6e 3c 29 31 66 bd
       0.08088852 -0.082642615 0.014584431 -0.056199227
000080 68 f9 5a bd fe e3 5f bd e0 76 9c bd 04 a2 1b bd
       -0.05346051 -0.05466079 -0.07639861 -0.037996307
000090 2f fc 32 bc de e9 4b bb 95 0f 17 3d 71 81 e9 3d
       -0.010924383 -0.0031114738 0.036880095 0.11401642
0000a0 bf 5e 33 3c 34 e3 3c bd f9 03 92 bd a1 cf c9 bd
       0.010947882 -0.046115115 -0.07129664 -0.09854055
0000b0 88 52 80 bc 36 38 56 3d 03 fd a0 3d 66 b6 21 3c
       -0.015664354 0.0522997 0.07860758 0.009870147
0000c0 da 2c d0 bd b0 ba 12 bd f0 0e 43 3d 5b 28 a5 3c
       -0.10164805 -0.03582257 0.047621667 0.020160845
0000d0 73 44 45 bd fb 51 ef 3d 66 6e 7f bc e9 c6 ca bb
       -0.04816098 0.116855584 -0.015590286 -0.0061882627
0000e0 a4 7c 7d 3d c3 39 df bc 45 99 98 3d a4 cf 9b 3d
       0.061886445 -0.027249223 0.07451109 0.07607964
0000f0 a6 c5 97 3d bf f6 a2 bc f4 22 e7 3d d1 7f 2e 3e
       0.07410745 -0.019893048 0.11285964 0.17040946
000100 82 e9 fc 3d 33 3a ed bc 58 47 13 3d f3 0e f6 3c
       0.123492256 -0.028958416 0.03595671 0.030036425
000110 79 91 60 3d df ba a5 3d d4 98 a3 3d d2 ba 68 3d
       0.054826234 0.080922835 0.07988134 0.05681879
000120 52 e7 cd 3d 6c 56 a8 bd 0b 34 98 bc 3e 6b 69 3b
       0.100538865 -0.08219609 -0.018579504 0.00356169
000130 20 99 27 bd 2c 12 0d bc 54 b7 35 3b 11 54 a8 bd
       -0.040917516 -0.00861029 0.002772768 -0.082191594
000140 2d 9b a9 3d 4f 1c b9 bb 1f 43 d0 3d ed a1 1b 3d
       0.082815506 -0.0056491266 0.10169052 0.03799622
000150 d9 85 32 bd 27 d8 2e bc ab ec 0c 3d 70 f8 8c 3d
       -0.04358468 -0.010671652 0.03440539 0.06883323
000160 e5 af 81 bd 80 d9 84 3d 23 d4 a8 3c c0 83 db 3c
       -0.06332377 0.06486797 0.020608967 0.026796222
000170 72 08 40 3d 76 05 35 bd 87 da bd 3c cf e8 f2 bd
       0.046883054 -0.04419466 0.023175491 -0.11860811
000180 9c 8b 2d bd 29 74 44 bd c9 9b d5 3d 91 4b ca 3d
       -0.04236947 -0.04796234 0.10430104 0.098776944
000190 23 9a 70 3d 96 16 bc bb db 64 46 3c 51 92 eb bc
       0.058740746 -0.005739997 0.012109007 -0.028756293
0001a0 b9 54 09 3d 73 ef 12 bc a0 63 1f bd dc d4 97 3b
       0.033528063 -0.008968222 -0.03891337 0.004633529
0001b0 c7 0b 9a 3d 12 67 f2 3c 94 99 4c bc de a5 f2 3c
       0.075217776 0.029590163 -0.012487788 0.029620107
0001c0 62 ca b4 bd 8a ab 3e 3d 90 3a 36 38 5e 9d 48 3d
       -0.08827664 0.04655031 4.3446722e-05 0.048978202
0001d0 01 e5 91 bd f8 be 72 bd ec 5b 36 3d 8c de a8 3d
       -0.07123757 -0.059264153 0.044521257 0.082455724
0001e0 a8 55 49 bd 8d 1d c4 3d f8 3a d6 bd 39 a4 53 3c
       -0.049153954 0.09575949 -0.10460466 0.012917572
0001f0 b2 ae 24 be be 2a d6 bd 4f c9 d1 3d b2 ef 82 3d
       -0.16082266 -0.10457371 0.10243475 0.063933745
000200 df 11 42 be 49 6f 4f bd 3d 84 ff 3d bd da 80 3c
       -0.1895213 -0.05064324 0.12476394 0.015729303
000210 14 95 10 3d 34 15 54 bd a9 85 93 bd 05 6c 92 3d
       0.035298422 -0.051778033 -0.07203228 0.07149509
000220 0a 23 9c be 00 16 98 bd dc 11 68 be 69 a6 ee 3d
       -0.30495483 -0.07426071 -0.22663063 0.11652834
000230 03 55 92 bd 38 19 38 3e 14 b1 28 3c b8 2a 72 3d
       -0.07145121 0.1797837 0.010296125 0.05912277
000240 11 df 18 be 44 8b 3d 3e 36 8a 3a bd 7a d0 ce 3a
       -0.14928843 0.18510157 -0.045541964 0.0015778684
000250 91 93 2f be fb 8f d4 3d fb 13 da bd 04 51 1b 3d
       -0.17146136 0.103790246 -0.10648342 0.03791906
000260 d9 07 d8 bd b0 79 e6 bd 47 ac c8 bd 70 a1 82 bd
       -0.10548372 -0.11253679 -0.09798484 -0.06378448
000270 c8 45 0a bd b4 33 86 be 1f de 14 3d db ae e6 bd
       -0.033757955 -0.2621132 0.036344644 -0.1126382
000280 6b cf cd 3b 87 a2 f9 3d 1a a8 35 3e e9 be 6a ba
       0.0062808297 0.12189203 0.17739907 -0.00089548394
000290 34 9e 24 bc e8 63 c7 bd 38 24 c1 bd 39 1d cc 3a
       -0.010047484 -0.097358525 -0.09430736 0.0015572674
0002a0 62 28 cc 3c a3 55 9b bd e8 3c d1 3d 50 19 da bc
       0.0249216 -0.07584693 0.10216695 -0.026623398
0002b0 36 22 84 bc b8 3b b5 3d 39 b5 42 be e7 b7 46 bd
       -0.016129594 0.08849281 -0.19014443 -0.048515227
0002c0 08 c3 0b 3d 9c 3e 1e 3e 5b ca d6 bd 87 79 1f 3d
       0.034121543 0.15453571 -0.10487815 0.038934257
0002d0 9d 94 7c 3e 10 0f 41 3d 0b 3f 55 3b 8b 6d 26 be
       0.24666066 0.047133505 0.0032538797 -0.16252725
0002e0 ef 1c 47 3c ea 9a 22 3e 5c 53 18 bd 1f bc 5a 3d
       0.012152894 0.15879408 -0.037188873 0.053402063
0002f0 1a 8c 13 be 5f c2 b9 bd 8c 81 e4 bc 6a 73 9e 3c
       -0.14408913 -0.090702765 -0.027893804 0.019342143
000300 02 c1 08 be 67 99 9a bc b7 b6 2b bc 03 03 22 be
       -0.13354877 -0.018871976 -0.010480574 -0.15821461
000310 2b 18 99 3d f1 78 2e be 78 4b 1b be b1 3a ff 3d
       0.07475313 -0.17038323 -0.15165508 0.12462366
000320 e8 a5 e6 bd b2 c2 25 3e 8d e6 9e 3d d1 c2 ce 3d
       -0.11262113 0.16187552 0.07758818 0.10095752
000330 17 c7 93 bd 96 e2 09 be 21 f9 3d 3e fe 26 b4 bd
       -0.07215708 -0.13465342 0.18552066 -0.087965
000340 e2 18 c6 bd 30 65 fa 3d de 7b c3 3d 8a 2d c2 bd
       -0.09672715 0.12226331 0.0954511 -0.09481342
000350 d1 c5 a2 bd fa bd 24 bd 69 ff 86 bd 7b 84 17 3d
       -0.07947887 -0.04022024 -0.06591684 0.036991578
000360 17 95 1e 3e 56 90 13 3e ed 84 2b bc 53 f0 a0 bd
       0.15486561 0.14410529 -0.010468704 -0.07858338
000370 e4 73 e6 bd 39 8b f8 3d 22 03 ca 3c 78 ee db 3d
       -0.11252573 0.121359296 0.024659697 0.10738844
000380 07 e8 54 3c 0b ab 47 3c 63 63 b2 bd 3a 4e 1a 3d
       0.012994773 0.012186776 -0.08710363 0.03767226
000390 9f ef 02 be 3f 26 c4 bb 21 7f da 3d 7f 1c f8 3c
       -0.1278672 -0.0059860046 0.10668779 0.030287025
0003a0 2e 38 f5 3d 93 d2 d2 3c 0f ba 25 3d 31 15 a6 bb
       0.11973606 0.025735175 0.040460642 -0.005068444
0003b0 a2 ba fe 3d 10 0a ff bb 70 c0 25 bd 24 15 9e 3c
       0.12437941 -0.007783182 -0.040466726 0.01929719
0003c0 c0 5a 0e be ca 83 3c 3d ad 67 90 3e c8 eb 25 be
       -0.13901806 0.04602412 0.28204098 -0.16203225
0003d0 89 92 b0 bb 62 ae be bd 4f 1b b7 bd f7 50 53 be
       -0.005388562 -0.09310605 -0.089407556 -0.20636354
0003e0 bf 41 bb bd 6f 20 e5 bc 30 e9 96 3c 78 c9 e7 bc
       -0.091433994 -0.027969567 0.01842174 -0.02829431
0003f0 38 2e 99 3d b6 8f 62 3c ed cf 3e 3d e9 22 22 be
       0.07479519 0.013828209 0.046585012 -0.1583363

lstm_layers.0.bias_ih_l0 f4 [476]
000000 7c 65 a4 3d b9 bb 3f 3d 66 8e f6 3c 9e 31 3f 3d
       0.08027169 0.046809886 0.030097198 0.046678178
000010 a8 57 d6 3c a3 31 1f 3d 88 4a 66 bd 97 27 93 bd
       0.026164845 0.038865697 -0.056223422 -0.071852855
000020 d1 a6 b9 3d 86 42 99 3a de e8 ea bc 14 f1 49 bd
       0.09065021 0.0011692799 -0.028675493 -0.049302176
000030 ee cd ab bd 27 45 e7 3d 5d 18 0c bc ec 6f 46 3d
       -0.08388887 0.11292487 -0.0085507305 0.04844658
000040 f3 78 a3 3d 6c 71 6a 3d 7d 7f 80 bd dd 41 58 bd
       0.079820536 0.057237074 -0.062743165 -0.052797187
000050 08 1c 6b 3d b5 b5 a3 3d 60 97 a7 3d 32 31 aa 3d
       0.05739978 0.07993642 0.08183169 0.083101645
000060 23 ba f5 3c 3e 3f da 3c 1d 3f 03 bc 14 e7 3a 3e
       0.029995983 0.026641484 -0.008010653 0.18252212
000070 3e 78 4c bc 60 b6 3a 3d 03 c0 59 bc 84 33 39 bd
       -0.01247984 0.045584083 -0.013290408 -0.045215145
000080 ad 94 4c 3d 24 3a 70 3d 68 86 83 bd b5 91 39 bc
       0.049946476 0.058649197 -0.0642212 -0.011326243
000090 3b ba dd 3d 94 79 0b 3d 52 ae cc 3d cc 5e 87 bd
       0.10826536 0.034051493 0.099941865 -0.06609878
0000a0 25 a3 34 39 0d e6 37 3e 72 d6 8d bd ee 7f 07 bc
       0.00017226914 0.17958851 -0.06925668 -0.008270247
0000b0 d2 8e 97 3c 81 a1 f8 bc 12 0f a9 bc a4 29 ac 3d
       0.01850072 -0.030350449 -0.020637069 0.0840638
0000c0 91 a7 91 bd b8 bb 0a bd d0 7f 07 3d f4 5f 02 ba
       -0.07112039 -0.03387043 0.033080876 -0.00049734046
0000d0 f4 44 25 bb d5 95 39 bb 0d c1 31 3c 29 5b b9 bb
       -0.0025218101 -0.0028318067 0.01084925 -0.005656619
0000e0 2c 79 5b bc b8 f3 81 3d a8 4d 93 3c 98 08 9c 3d
       -0.013395589 0.06345314 0.017981365 0.07618827
0000f0 21 cb f1 bc 56 1c 1f 3d 28 81 4d bd d7 0f 6f 3d
       -0.029515805 0.038845383 -0.050172 0.058364715
000100 38 b3 34 3b 81 b9 88 3d 56 f1 ff 3c 5d 0b 7f bc
       0.0027572643 0.06676007 0.031243008 -0.015566674
000110 5a 90 1e 3d 59 5c 20 3c 86 dc 54 3d 5d 35 be bd
       0.038711883 0.009787642 0.05196812 -0.09287522
000120 fa 6a 5f 3b 03 4f c6 3d 99 83 71 3d a9 e9 21 bb
       0.0034090863 0.09683039 0.058963392 -0.0024705923
000130 e7 e8 83 3d 46 f9 ef 3c 32 ef 55 bd ff a1 0a bc
       0.06440907 0.029293668 -0.052230068 -0.008461474
000140 6e 34 d5 bc 1c e9 5b bd 73 e9 8c bc 79 2c 93 3c
       -0.026025977 -0.053689107 -0.017201161 0.017965542
000150 28 06 26 bd 54 61 7c 3d 5a 66 15 bc dd b6 30 3c
       -0.040533215 0.061616257 -0.009118641 0.0107857855
000160 49 ad e5 3c ad 81 16 bd 97 72 4c bb 7b 76 bf 3d
       0.02803673 -0.036744762 -0.003119623 0.0934877
000170 1a a5 6a 3d 37 0f 31 3c a0 f0 8a 3c b9 0a 14 bd
       0.05728636 0.01080685 0.016960442 -0.03614304
000180 4d ab 4d ba d2 98 a9 3c d6 8a 22 3d c9 20 90 bd
       -0.0007845655 0.020702753 0.039683186 -0.07037503
000190 1e 84 73 3c 4f cf 89 3c ab 47 71 3d f0 85 2c 3c
       0.014863042 0.016822485 0.05890624 0.01052998
0001a0 e7 54 13 bd 5d 54 80 3c 87 bd 95 3d a4 e0 4f bd
       -0.03596964 0.015665228 0.0731154 -0.050751343
0001b0 00 17 9f 3c bc 6b 94 3d 51 ed 57 bb 01 79 8f 3d
       0.019420147 0.07247111 -0.0032947848 0.070055015
0001c0 0a ea 75 bd f8 9e 9f 3c b7 be 13 3e ab df 1f 3d
       -0.06003765 0.019484982 0.1442822 0.039031666
0001d0 12 fb db 3d 5f 1f 71 3d 88 15 db bd 8f 23 7f 3d
       0.10741247 0.05886781 -0.10697466 0.06228977
0001e0 39 7b 97 3d 0b 5a 0c 3e 38 e7 a5 bd bf 24 a4 3c
       0.0739655 0.13706224 -0.08100742 0.020037053
0001f0 85 78 8a bb d2 a9 b5 3c b5 8d c2 3c 26 01 0d 3e
       -0.004225793 0.022175703 0.023749212 0.1376997
000200 e0 ea 88 bd d4 ef 01 3c ed c6 d9 bb cc 2c 12 bc
       -0.06685424 0.007930715 -0.0066460283 -0.008921813
000210 33 c1 8b 3d 23 ae a8 3d cf b9 8e bd ab fd 97 3d
       0.06823959 0.08236339 -0.06969034 0.0742143
000220 41 8e 58 3d 63 3c 1c bd ed 4c 9d 3d 41 a4 9b bc
       0.05287004 -0.038143527 0.07680688 -0.01899922
000230 c9 54 2f bd bc e0 da bc 30 3f 30 3e 9b 70 e4 3d
       -0.042805467 -0.02671849 0.17211604 0.1115429
000240 fb a6 ae bc 7e 3b f3 bc 8e 2b 14 3e 22 b1 c0 3b
       -0.021319857 -0.029691454 0.1446974 0.005880491
000250 0d 88 cc 3d d1 8b 06 3d 44 8f 82 3d da fc 5c bd
       0.09986887 0.032848183 0.06374982 -0.053952076
000260 38 00 93 bd d3 0c 40 3c 04 69 8f 3d 32 28 8d bd
       -0.07177776 0.0117218075 0.07002452 -0.06892432
000270 21 35 f2 3d 19 81 bc ba 3f 40 a1 bc 5b b9 48 3d
       0.1182654 -0.0014381736 -0.019683955 0.049004894
000280 7c b1 41 3e 95 0e a3 3b 0c 8d 8e bc 9b df c2 bc
       0.18915361 0.0049761035 -0.01740124 -0.023788264
000290 50 2c 61 bd fa f6 28 bd e4 15 c8 3d 95 42 71 3d
       -0.0549739 -0.04125116 0.097698 0.05890139
0002a0 1a c2 14 3a 29 b0 61 bd 92 a0 b5 bd 29 9b 22 3c
       0.00056746753 -0.05509964 -0.08868517 0.009924688
0002b0 17 9d 2d 3d 09 95 43 3c a5 0d 54 3c f8 08 6b bb
       0.04238614 0.011937388 0.012942706 -0.00358635
0002c0 ff 9f 69 bd 47 40 6c 3d 27 19 53 bd ce 59 5a bd
       -0.05703735 0.057678487 -0.05153766 -0.0533083
0002d0 3e 9b 80 3d 9f e4 c7 3c e2 0a 1c 3e 2e 7e 10 3d
       0.0627961 0.024401007 0.15238526 0.035276584
0002e0 76 b6 53 3d 1c 86 87 3d a6 40 1c bd ea b0 8a ba
       0.05168768 0.06617376 -0.03814759 -0.0010581289
0002f0 ff e3 11 3d 41 c9 44 3c 59 c6 c6 3d 60 d0 85 3b
       0.035617825 0.012010873 0.097058006 0.004083678
000300 eb 6a e0 3c f1 ef 2d 3d 9f 27 07 3e 7f 30 dd 3d
       0.027394732 0.042465154 0.13198708 0.108002655
000310 cb cd e1 3d 42 6d 84 3d 52 2d 00 bd 57 a1 6c 3d
       0.1102558 0.06466152 -0.03129322 0.057771053
000320 d3 7a fd bc 98 f5 33 3d d3 10 d0 3d 15 a5 31 3b
       -0.030942356 0.04393539 0.10159459 0.0027106453
000330 af 3e 01 3e b2 38 6e 3d 23 e6 33 bd a3 bb b6 3c
       0.12621568 0.058159538 -0.043920647 0.022306269
000340 7d ce 22 bc ad 29 72 bc 73 dc 3f 3d e4 9c 41 bd
       -0.009936926 -0.014780444 0.046841096 -0.047268763
000350 93 d4 31 bc 98 e8 7c 3d 82 f1 92 bd bb 12 3f bc
       -0.010853904 0.061745256 -0.0717497 -0.011662181
000360 bf d5 bb bd c3 cc c1 3c 53 b4 60 bd 5a 22 3e bd
       -0.09171628 0.023657208 -0.05485947 -0.04641948
000370 5c 7b 72 bd 1d 8b 4b bd 92 3e 0e 3d 1c d9 7f bc
       -0.059199676 -0.049693216 0.03472764 -0.015615728
000380 99 17 59 3c 88 db bc 3c 2a 81 93 3d 4e 83 81 3c
       0.013250255 0.0230539 0.072023705 0.015809681
000390 6e 2d aa 3d 60 73 95 3c f4 5d e9 3a 26 38 59 bd
       0.08309446 0.018243492 0.001780449 -0.053032063
0003a0 34 51 f6 3d 9b 8e 22 bc 48 2c a9 bd 0b d2 59 3d
       0.12027207 -0.009921695 -0.08260399 0.05317883
0003b0 4d 80 27 3c d7 d8 6a 3d 0b c1 51 3d 9b 0d 89 3b
       0.01022346 0.0573357 0.05120949 0.00418253
0003c0 7d 7e a2 3d 0c 9d 71 bd a5 a6 43 3d 58 71 72 3d
       0.07934282 -0.058987662 0.047766346 0.059190124
0003d0 46 e2 fb bd 86 f4 05 bd 9b 8c 61 3d b7 8a a0 3c
       -0.122990176 -0.0327039 0.055065732 0.019597394
0003e0 a2 da 9d 3c 23 f8 9e 3d 5c 1c f9 3d 7a 6c 72 3d
       0.019269291 0.07762172 0.12163612 0.059185483
0003f0 f4 27 dd 3c ff b0 50 3d c6 5f 7e bc 04 d9 95 3d
       0.02699659 0.050950047 -0.015525764 0.07316783

lstm_layers.0.bias_hh_l0 f4 [476]
000000 3f a3 ad bd c3 21 e7 3d 90 15 c2 3d 37 1e 71 bd
       -0.08478402 0.112857364 0.09476769 -0.058866706
000010 b6 9a 9c 3d f2 07 63 3d a8 3d 34 3d f4 f8 ba bd
       0.07646696 0.0554275 0.044004112 -0.09129515
000020 10 59 91 3b 82 69 4b bd 06 f4 a5 3d a5 db 7d 3d
       0.004435666 -0.049661167 0.081031844 0.061977047
000030 ef 76 c2 bd 65 6d 0e 3e 9a cb 97 3a 61 2b 5e 3d
       -0.09495341 0.13908918 0.0011581064 0.054240588
000040 ec 11 c1 3d a8 98 f6 3d 17 cc 9c bd 64 0d 13 3c
       0.094272465 0.120408356 -0.076561145 0.008975361
000050 1f 45 9e bc 81 b6 03 3d 48 18 26 bc 09 cc 3d 3d
       -0.019320069 0.03215647 -0.010137625 0.04633716
000060 e4 ee bd 3d 8c c6 8d 3d 59 fc c3 bd 98 4e 78 3e
       0.092740804 0.069226354 -0.09569616 0.24248731
000070 f9 00 86 bd bd 31 7e bd 8b ac 64 3d a5 38 4e bd
       -0.06543154 -0.062059153 0.055828612 -0.05034699
000080 1a 93 23 bd 2e 40 2b 3c 72 83 6d bd 80 df 1e 3d
       -0.03993521 0.010452313 -0.057986684 0.038787365
000090 6c 61 a7 3d 89 1d 81 3d bb 20 ad 3d fc cb 9d 3d
       0.081728786 0.063044615 0.084535085 0.077049226
0000a0 4a 5e 49 3d 48 f6 02 3e 07 e0 8d 39 92 b3 18 3d
       0.049162187 0.12789261 0.0002706053 0.037280627
0000b0 fa a6 e5 3d b7 78 1b 3d fb 93 ef 3b bb 78 46 3c
       0.11213489 0.03795692 0.007311342 0.012113745
0000c0 c6 88 c1 bd 43 d5 1a 3d 6a 5d 95 3c 21 34 78 bc
       -0.094499156 0.03780104 0.01823302 -0.015149147
0000d0 99 06 6f bc 4a 3d c0 bd f4 28 5d 3d ce cf 80 bd
       -0.014588975 -0.0938669 0.053994134 -0.062896356
0000e0 66 cc df 3c 0f cd 22 bd 3e 0c f7 3c ac fb a1 bd
       0.027319144 -0.03974634 0.030157205 -0.07909331
0000f0 bb 0d 8f 3d 8c a0 54 3d e1 53 82 3d 72 0e d4 3d
       0.06985041 0.051910922 0.06363655 0.10354318
000100 fb 1f 19 3e e0 10 80 3d 37 a8 b0 3d af ad 90 bd
       0.14953606 0.06253219 0.086258344 -0.070643775
000110 f9 52 30 bc 29 d5 4d 3c f0 e0 20 bd b0 96 b4 3c
       -0.01076197 0.012563028 -0.039277017 0.02204451
000120 ee 29 05 bd 5e 56 b8 3d 35 59 ce 3d 93 20 82 3d
       -0.03251069 0.09000848 0.10075609 0.06353869
000130 e7 1e dc 3d 41 96 d5 3c 33 ee 1e 3d 16 f4 44 bd
       0.10748082 0.026072623 0.038801383 -0.04808434
000140 fb 5b b5 bd 82 d6 88 3d d8 13 ab 3d 5d 12 7d bb
       -0.088554345 0.06681539 0.08353394 -0.0038615682
000150 a7 24 41 bd a9 04 97 3d 9f 3f 28 bd 53 92 71 bd
       -0.047154095 0.07373936 -0.0410763 -0.058977436
000160 d9 d6 01 3d ae 7f 54 3d 04 d9 56 bd 7f 3c f0 3c
       0.031699035 0.051879577 -0.052453056 0.029325722
000170 75 6d 94 3d 45 0d d0 3d 6f c0 57 bd 6b 6b 0e bc
       0.0724744 0.10158781 -0.052673753 -0.008692603
000180 74 90 01 3c 12 5b 41 3c 08 c9 43 bd 15 42 55 bd
       0.007907975 0.011801498 -0.04779914 -0.052064974
000190 e2 53 2a bd c6 de 11 bd b9 97 b0 bd d7 e5 c4 3d
       -0.041583903 -0.035612844 -0.08622689 0.09614151
0001a0 cc c9 b4 3d 36 5a f9 bc 70 01 17 3e f1 d8 00 3c
       0.08827552 -0.030438524 0.14746642 0.007864223
0001b0 12 48 58 3d f6 d6 fc 3c ef 36 4c 3d fe 82 8f bd
       0.052803107 0.03086422 0.049857076 -0.07007407
0001c0 d6 53 81 bd e5 f9 a2 3d 20 cf 7d 3d bd 63 2a 3d
       -0.063148186 0.0795782 0.061965108 0.041599024
0001d0 ae 43 26 3d cc 5c 6d bd 2c 7c 2d 3d 30 05 8f bd
       0.040591888 -0.057949826 0.042354748 -0.06983411
0001e0 91 8c 33 3e 89 22 1a 3d ce 14 2e 3d 8a 58 4e 3d
       0.1753409 0.03763059 0.04250031 0.050377406
0001f0 1c 13 02 bd a6 d2 ea 3c 03 49 58 bd c9 d0 de 3d
       -0.031756505 0.028664898 -0.052804004 0.10879666
000200 79 5d 4f bd c1 c2 36 bc 07 e4 16 3e 57 4b 3d 3d
       -0.05062625 -0.011154831 0.14735423 0.046214428
000210 99 32 b1 bb 51 7a 1c 3d 4b a1 f4 3b 94 dc d4 bb
       -0.005407643 0.038202588 0.0074655167 -0.0064960215
000220 db c6 1c 3e af 86 de 3c fd 66 32 3d a9 68 f0 3d
       0.15310232 0.027163832 0.04355525 0.11738712
000230 14 b9 61 3d 09 e9 a9 3d c6 4c 07 3e 52 2c f3 3d
       0.055108145 0.08296401 0.1321288 0.11873688
000240 9b c5 8a bd d2 53 42 bd f2 3f 9c 3d 10 29 ba 3d
       -0.067759715 -0.04744322 0.07629384 0.09089863
000250 81 d7 e8 3d d9 ec 86 3d 4a d2 b8 3d 8a 13 ef 3d
       0.11369229 0.06588144 0.090244845 0.11673649
000260 11 6f 3c bd 08 78 de 3c 50 bd 0b 3d c4 0c c2 3d
       -0.04600436 0.027156845 0.03411609 0.09475091
000270 8c 9d ce 3d 00 32 10 3e 69 c3 4a 3d 19 00 ef bc
       0.100886434 0.14081573 0.049502764 -0.029174851
000280 11 f5 bf 3d 61 1c a3 bd d2 6d e6 3d 54 13 b5 3d
       0.093729146 -0.07964397 0.11251415 0.08841577
000290 2b 4a 68 3d 2a 9d b2 bc 8b 0a e0 bb a9 78 af bd
       0.056711357 -0.021803457 -0.0068371943 -0.08567936
0002a0 c8 ab a9 3c 76 83 8b 3d 19 a6 db bd 3c 75 de bd
       0.020711794 0.068121836 -0.1072504 -0.108622044
0002b0 5c 6f 1d 3d 34 96 61 bd 17 41 34 bd fc d7 4e 3c
       0.03843628 -0.055074885 -0.044007387 0.012624737
0002c0 20 2e 74 bd 75 ef ab 3c e2 88 4a bd 0e 68 57 3d
       -0.0596143 0.020988205 -0.049446948 0.05258947
0002d0 c5 15 22 3e e8 17 6b bc 24 1e 13 3e 96 39 cf 3d
       0.15828617 -0.014348961 0.14366966 0.101184055
0002e0 b2 de 40 3d 5c fd a8 3d 28 40 89 3d d9 f2 81 3d
       0.04708738 0.082514495 0.0670169 0.06345148
0002f0 86 bf 05 3e c0 bd 0b 3e 83 5d d0 3c da c6 1e bd
       0.13061342 0.13646603 0.025435215 -0.03876386
000300 6e 1d 03 3d e5 c6 25 bb dc 4b 64 3d df 81 96 3d
       0.03201049 -0.0025295552 0.055736408 0.0734899
000310 00 d9 d6 3d 7a 86 83 3c 3c 0d 7b 3d ad b3 87 bd
       0.10490608 0.016055334 0.06129192 -0.06626067
000320 f7 05 df bc 01 23 b6 3d 38 52 f8 3d ad 85 bb 3d
       -0.027224524 0.08893395 0.12125057 0.09156356
000330 d6 e1 b0 3d cd e9 59 bc 0e d8 e5 bc ee d9 89 bb
       0.08636825 -0.013300371 -0.028057124 -0.0042068874
000340 c9 26 99 bd 1c f2 8b bc 6d 11 2e bc 6d 23 a6 bb
       -0.07478101 -0.01708322 -0.010624272 -0.005070141
000350 ee f9 62 bc 82 53 10 3c b8 fe 1b bb 18 ea fb 3d
       -0.013853533 0.008808972 -0.0023802947 0.12300509
000360 0f bf 8a bc 37 16 1f 3d ba a8 b8 bc f8 fc fc 3c
       -0.016936807 0.038839545 -0.022541393 0.030882344
000370 31 34 92 bd 56 9b fc bc cc 15 c7 3c 96 91 b9 bc
       -0.07138861 -0.030835789 0.024302386 -0.022652429
000380 d9 3b 93 3d e9 4e 8d 3d 03 c4 86 3d 1b 9c 85 bd
       0.071891494 0.068998165 0.06580355 -0.065239154
000390 87 4b 75 bc 60 2a ef bb 07 fa 81 bd 7d b5 cf bd
       -0.01497162 -0.0072987527 -0.06346517 -0.10142038
0003a0 38 9c 90 3d 34 93 a8 bc 8e 0b b5 bd 6d 51 1d 3d
       0.07061046 -0.020578004 -0.088400945 0.03840773
0003b0 05 a5 4d bd 7a 82 e7 bc 8e af fd 3c 22 ac 35 3d
       -0.050206203 -0.028260458 0.0309675 0.04435361
0003c0 90 74 38 3d a5 e2 85 bd 92 d8 ce 3d 55 57 74 bd
       0.045033038 -0.0653737 0.10099901 -0.0596536
0003d0 47 5d a2 bd 28 d4 20 3d e0 cc a9 3d f9 bb 34 bd
       -0.079279475 0.039264828 0.0829103 -0.044124577
0003e0 8d e4 a3 3d da 34 61 3d b2 20 a6 3d ea b1 02 bc
       0.08002577 0.054982044 0.08111705 -0.007976988
0003f0 33 32 91 bd f8 00 d7 3c f8 bb b1 bd 8a 39 82 3d
       -0.07089653 0.02624558 -0.0867843 0.06358631

lstm_layers.0.weight_ih_l0_reverse f4 [476, 11]
000000 01 42 aa bd 20 7f 4b bd 49 79 d2 bc ee 8a 70 3d
       -0.083133705 -0.049681783 -0.025692599 0.058726244
000010 d5 7d 55 3d da 97 4c bd a0 b4 9c bd 40 13 93 bc
       0.052121956 -0.049949504 -0.07651639 -0.017953515
000020 11 a4 42 bd d7 88 42 3d 50 86 3e bc ee 00 21 3e
       -0.047519747 0.047493782 -0.011628702 0.15723011
000030 51 b7 79 3e 1b f8 3c 3e 62 b1 b0 3e a3 1e cb 3d
       0.24386336 0.1845402 0.34510332 0.09917953
000040 f1 2e 6c 3e 42 d8 30 3e a8 df b1 3d 56 d0 ff 3d
       0.23064782 0.17269996 0.08685237 0.12490909
000050 05 c1 0d 3e 28 d0 33 3e ff c2 3f 3d cc 47 6f bd
       0.13843162 0.17559874 0.046816822 -0.05841808
000060 ce e0 b5 3d 9c 45 b2 bd f2 a8 41 3e d3 69 de bd
       0.08880769 -0.08704683 0.18912104 -0.10860028
000070 6d e0 72 bd de 47 58 3d 18 63 ab bd e3 af 66 bd
       -0.05929606 0.052802913 -0.0836851 -0.056320082
000080 a3 5c c9 3c 02 e1 8a 3d 8f 2f 76 bd 83 fb 56 3d
       0.024580305 0.06781198 -0.06010395 0.052485954
000090 91 ce 2e bd 13 44 6b 3d 78 57 d5 3d bc b5 26 bd
       -0.042677466 0.057437968 0.10417074 -0.04070066
0000a0 01 06 aa 3d 1e 1d d8 bc 87 e4 40 3d 8b 31 c1 3c
       0.083019264 -0.026381072 0.04709294 0.023583194
0000b0 07 78 55 3c 6d 07 05 3e 5f dc 4f 3d 85 c1 c8 bd
       0.013029105 0.12991114 0.05074727 -0.09802536
0000c0 3e 94 f6 3d d2 05 7c 3d 36 5f 26 3d 9e 29 5a 3c
       0.12039994 0.06152899 0.040618144 0.013315586
0000d0 94 34 b6 bd 55 8d e7 bd b0 b4 b7 bd 1c 93 f8 bc
       -0.08896747 -0.11306254 -0.0897001 -0.030343585
0000e0 03 53 e3 bd 3a fc 3f be 06 4c f9 bd fa e0 c1 bd
       -0.110998176 -0.1874856 -0.121727034 -0.09466739
0000f0 10 42 ec bd 9a 87 36 be 84 c2 9d bd 14 18 b8 bd
       -0.11536038 -0.17825165 -0.077031165 -0.089889675
000100 ff 66 32 3c a5 af a2 bd 9a 02 9d bc 01 6d 8e 3d
       0.010888814 -0.07943658 -0.01916628 0.069543846
000110 31 0f a3 b9 14 4d 93 be fb 6d b7 bd 87 5f 16 3e
       -0.000311011 -0.28769743 -0.08956524 0.14684878
000120 4f a5 1a 3e 7d c2 82 3d 44 72 ce 3d 5e ad 50 bd
       0.15102123 0.06384752 0.10080388 -0.050946586
000130 e2 f3 01 3e 26 e4 41 bd 5f fa a0 bc 31 5c e3 bd
       0.1269069 -0.04733672 -0.019650636 -0.111015685
000140 ff 1c 30 bd 08 3d fe bd 0a aa 6c bd 9f 8d 99 3c
       -0.042996403 -0.124139845 -0.05777935 0.018744288
000150 9f 39 d0 3c f7 16 b8 3c 23 2a df bd 20 80 bf 3d
       0.0254181 0.022471888 -0.10896709 0.0935061
000160 5e fd b2 bc 87 a4 d2 bd 36 0f 4c bd 68 7c 12 3d
       -0.02184933 -0.10285287 -0.049819194 0.035763174
000170 e9 8e a8 bd b2 ff 6a 3d c0 94 35 3d ca a3 7c 3b
       -0.08230383 0.057372756 0.044331312 0.0038549774
000180 dd 07 8e 3d 70 46 c6 3d 03 3e bf 3c a3 35 28 3d
       0.069350936 0.09681404 0.023345 0.041066777
000190 fb 12 14 bc da 95 ad bc a5 81 d6 3c 3b 03 23 be
       -0.009037728 -0.021189619 0.026184866 -0.15919201
0001a0 d4 27 f9 bd f0 a7 b8 3c 35 d1 c8 bd 5a de 9a 3c
       -0.121658 0.022541016 -0.09805528 0.018904854
0001b0 36 fb a8 3c 92 4b 99 bd ea be 8f 3c 82 11 5b bd
       0.0206276 -0.07485117 0.01754709 -0.053483494
0001c0 3c 0f 34 be 91 ac 5d 3d 42 d8 d2 bd fb 8e 96 bc
       -0.17583936 0.05411965 -0.10295154 -0.018378725
0001d0 d7 a5 8e bd b5 b5 0a be 4d 89 45 bc 97 38 e7 3c
       -0.06965225 -0.13545878 -0.012056661 0.028225226
0001e0 74 82 e0 bc d1 ca df bc 81 69 99 bd ff a5 b5 bc
       -0.027405955 -0.02731839 -0.074908264 -0.02217388
0001f0 a6 e5 bb bc 0d d6 39 be 4c 82 11 3b 8b d6 7b bd
       -0.022936653 -0.1814806 0.0022202907 -0.0614839
000200 b3 82 c3 bd 0d d1 58 3d 4e a1 cb 3c c2 17 c1 bd
       -0.09546413 0.05293374 0.02485719 -0.094283596
000210 87 b6 f8 bb b9 1e a1 3b 00 c4 a0 bd 8e aa b3 3c
       -0.0075901183 0.0049169925 -0.07849884 0.021931913
000220 7f b5 cf 3c 11 43 80 bd 35 c1 e1 bc 77 1b 93 bc
       0.025355099 -0.06262792 -0.027557949 -0.017957432
000230 1b 3b 2a 3d 93 08 4d 3c 8f 3f 1d be 09 3a 4a 3c
       0.041560274 0.012514251 -0.15356277 0.012342938
000240 d2 93 7d 3b 6a 35 ad 3d 72 2d 2f be 40 9c aa bd
       0.0038692844 0.084574535 -0.1710718 -0.083305836
000250 22 ae 02 3e 16 fb 09 3e 71 fb ba 3c 35 1e 02 3d
       0.12761739 0.13474688 0.022824975 0.03176709
000260 9c 16 d9 3d c2 58 83 3e 68 65 a4 bc 5b 18 a7 bd
       0.106000155 0.25653654 -0.020067886 -0.08158942
000270 8f 86 18 3d c2 5c e1 be 22 50 48 be 37 77 88 3d
       0.0372377 -0.4401608 -0.19561818 0.066633634
000280 85 2c 06 bc 54 67 70 bd 29 8e 81 bb 2c d8 94 bd
       -0.008189325 -0.05869229 -0.0039537144 -0.07267794
000290 d9 3f 5f 3d 42 e2 1f 3d 30 dd cd bc e7 fe 8a 3c
       0.05450425 0.039034136 -0.025129884 0.01696725
0002a0 94 70 ff bd e6 be fb bd b6 46 a6 bd f6 0c d0 3d
       -0.124726444 -0.1229227 -0.08118956 0.10158722
0002b0 ee c7 1b bb 43 8e d3 3a 15 f9 5e 3d 33 4b ff bc
       -0.002377029 0.001614042 0.054436762 -0.031163787
0002c0 20 8f 85 3c a0 da 18 3a 1b cb 18 3d cc 9e 94 3d
       0.016303599 0.00058309175 0.03730307 0.072568506
0002d0 f6 84 e0 bd 43 f1 af ba 97 54 80 3c 39 54 b2 bd
       -0.1096286 -0.0013423342 0.015665336 -0.087074704
0002e0 a5 d8 80 3d b5 09 31 3d 1e 9e 33 bd 7c 77 8b 3d
       0.06291322 0.043222148 -0.043851964 0.06809899
0002f0 53 b0 be bd d2 29 3e 3d 68 bc 8f 3d 27 83 ea bd
       -0.09310975 0.0464266 0.070183575 -0.114507966
000300 54 97 c9 bd c1 ae f3 3c 1b f5 41 bc 88 2f 8f 3d
       -0.09843317 0.029746415 -0.011838223 0.06991488
000310 3d 1d 82 bd db 7f 95 3c 0e 3b 1e 3e 30 9a 6c 3d
       -0.06353233 0.018249443 0.15452215 0.057764232
000320 04 6d 17 bd e3 80 f5 3d fb ad b3 3d 33 5e 89 3d
       -0.0369692 0.11987474 0.087734185 0.0670742
000330 50 9a 93 3c a5 f2 bf 3d cd d7 af bc 0e d2 2d 3d
       0.018017918 0.09372453 -0.021465207 0.042436652
000340 51 8b ad 3c 46 d1 ac 3d bd c3 c4 bd 5e f2 6f bd
       0.021184595 0.08438353 -0.096076466 -0.05858075
000350 8f 0f 02 bd dd 6c 17 be 90 13 7f 3c ae 17 50 3d
       -0.03175312 -0.14787622 0.015568629 0.050803833
000360 7b 4c d9 bd 55 74 f8 3c 1a ff 4d 3d 7e 00 cb 3c
       -0.106102906 0.030328909 0.050292112 0.024780508
000370 e0 9f b3 bc f3 ed 91 3d 5f 86 27 3d 70 2c 5c bd
       -0.02192682 0.07125463 0.04089963 -0.053753316
000380 36 bc d6 3b dd d8 48 3b 4e a9 42 3d e9 a4 ff 3d
       0.006553198 0.0030646839 0.047524743 0.12482626
000390 b5 70 c7 3c 46 e3 b4 3d 54 ce d0 3d 1f cf 46 be
       0.024345735 0.088324115 0.10195604 -0.19414948
0003a0 b2 a3 b2 bd 94 79 ef bc 20 c2 8f 3e 3f 30 7e bd
       -0.08722629 -0.029232778 0.28077793 -0.06205773
0003b0 10 fe 2e bd d9 3a 32 3d 34 20 00 be b5 9d 48 bc
       -0.04272276 0.043513153 -0.12512285 -0.012244632
0003c0 81 c2 b0 bd c3 2b 1a 3d 77 d2 a9 3d d2 fd 03 bd
       -0.08630849 0.03763939 0.08292096 -0.032224484
0003d0 e5 fd 97 3d c3 36 b8 3e 99 68 84 ba 48 b3 e1 bb
       0.074214734 0.3597928 -0.0010101973 -0.006887827
0003e0 8b c3 1a 3c 8e 5f 95 3d 8d 8c a5 bd 7b d9 b0 3d
       0.009446035 0.07293616 -0.080834486 0.08635231
0003f0 d1 f1 7a 3d db fd 26 3a 9a d1 9b 3c a1 aa 49 bd
       0.06126577 0.0006370225 0.019020844 -0.04923499

lstm_layers.0.weight_hh_l0_reverse f4 [476, 119]
000000 2f 47 e2 bb 6d 8a 63 3c d6 14 54 bd 6d b0 c4 bc
       -0.0069054584 0.013887984 -0.051777683 -0.024009908
000010 37 ae 82 3d af 89 07 bd 9c be 2d 3e 9f 06 c1 3d
       0.06380885 -0.03309029 0.16967243 0.09425091
000020 5d b9 7a 3d 20 11 ec bb 89 f5 d1 3d 1a c3 5f 39
       0.061211932 -0.00720419 0.1025191 0.00021339618
000030 4f 1a 44 bc 58 da 36 3d cc fb 2e 3d 2a 05 cd ba
       -0.011969163 0.044641823 0.0427206 -0.0015641798
000040 85 70 5e bd 30 2e b7 bb 0f 8b 03 3d c1 78 e4 bc
       -0.054306526 -0.005590223 0.03211504 -0.027889611
000050 6c 94 fe bc 09 f6 62 3c ae 9a 30 3d 82 72 18 3c
       -0.031076632 0.013852605 0.043116264 0.009304645
000060 ab 9d 30 ba 54 7c 46 bd b6 2d 5b bd 41 4d 50 bc
       -0.00067373615 -0.048458412 -0.05351039 -0.012713731
000070 07 19 f3 bc 89 b7 a3 bc 8d 55 4d bd 2c 7a ea 3d
       -0.02967502 -0.019984977 -0.050130416 0.11449084
000080 17 5e a5 bd 16 2f b0 3c 63 32 1c bc dd 11 88 bd
       -0.08074587 0.021506827 -0.0095334975 -0.06644032
000090 10 20 10 bd 5a d4 5f bc 8c 0b 94 3c e5 01 28 bd
       -0.035186827 -0.013661468 0.018071912 -0.04101743
0000a0 25 f0 01 be 4c 7e 5d 3d 5a 3e dc bc 18 5e b7 3c
       -0.12689264 0.054075524 -0.0268852 0.022383735
0000b0 c8 04 3f bd 52 33 ef 3d 35 4e bc bc f4 be 18 3e
       -0.04663542 0.116797104 -0.02298651 0.14916593
0000c0 63 e4 23 bd 6e 31 67 3d e9 03 fa bd 06 d6 8b bd
       -0.04001273 0.056443624 -0.12207777 -0.06827931
0000d0 c6 b3 cb 3d 5d 94 8a bd 06 58 72 3d 35 f1 0a 3d
       0.099463984 -0.06766579 0.059165977 0.03392144
0000e0 a4 5d e3 3c 16 82 1f bc ec 7f 89 bd 66 69 c7 38
       0.027754612 -0.009735605 -0.06713852 9.5086914e-05
0000f0 0a b7 86 bd 35 e7 91 3c 26 43 6e 3c 8c 90 d9 3d
       -0.06577881 0.017810443 0.014542377 0.10623273
000100 9d 54 0c 3d 51 00 13 bd 78 6d 4d bc 32 d2 94 3d
       0.03426038 -0.035888974 -0.012538306 0.07266654
000110 0a 28 1a 3d d9 87 54 3d f6 44 ab 3d 45 3c e3 bc
       0.03763584 0.051887367 0.08362763 -0.0277387
000120 ea e6 e8 3b bf 0d 93 bc 89 68 90 3d 22 1f d8 bd
       0.007107605 -0.01795089 0.070511885 -0.10552813
000130 e1 05 52 bd 0b 4d 66 bd a0 63 bb bc 1f f5 04 be
       -0.051275138 -0.056225818 -0.022874653 -0.12984131
000140 e1 96 8e bc a9 a7 25 bd 5e 52 2c 3d 0f b2 d2 3d
       -0.017405929 -0.040443096 0.04207074 0.10287868
000150 ee 94 83 3c eb 5d 65 bd ad f5 1f bc 8b ea 97 bd
       0.016062226 -0.05599777 -0.0097631635 -0.074177824
000160 82 4b 79 3d 59 9c e8 3c ba ce eb bd 6d 3b 25 bd
       0.060863025 0.028394865 -0.11514039 -0.040339876
000170 85 9e 62 bd be ef 58 3d 1e 84 9d 3c 69 6b 33 3d
       -0.055326957 0.05296301 0.019228037 0.043803606
000180 fc dc fe bc 03 4f 24 3d 3c 05 92 bd 53 6d 12 bd
       -0.031111233 0.040114414 -0.07129905 -0.03574879
000190 fd f4 55 3d 1b 43 cb bd 68 7c d9 bd 0a af 46 3c
       0.052235592 -0.09924909 -0.10619432 0.0121266935
0001a0 8d b4 bb 39 20 5c a3 3c 61 4c 86 bd bd ef c8 bc
       0.0003580194 0.01994139 -0.06557537 -0.024528379
0001b0 5a 1f d0 3d 8c d2 99 bc 4a 52 41 3d 6d d2 89 bd
       0.1016223 -0.018777154 0.047197618 -0.06729589
0001c0 54 ff 81 3d f1 cf 06 bc 7a 11 a4 3c 17 b1 b3 bd
       0.06347528 -0.008228288 0.020027865 -0.087740116
0001d0 1a a5 61 bc 06 fa 31 3d 9d f8 86 bc 2d 2a f2 ba
       -0.013772273 0.04345133 -0.01647597 -0.0018475704
0001e0 dd d0 88 bd f7 e8 4a bd f9 db 60 be 2f 3a 8c 3e
       -0.066804625 -0.04953858 -0.21958913 0.2738814
0001f0 ef f1 34 be 81 1f ce 3d c5 fe 31 be 1b 1c cf 3c
       -0.17670415 0.10064603 -0.17382343 0.025281956
000200 c9 81 6b 3d ec d6 15 3e 97 22 08 3e 84 10 38 bd
       0.05749682 0.14632767 0.13294445 -0.044937626
000210 8e 5c a0 3d 7b 71 79 bd ac b7 16 bd 08 5f eb bc
       0.078301534 -0.06089924 -0.036796257 -0.028731838
000220 e3 38 41 bd f8 cc 32 3e 90 70 ab bd 80 f7 e9 bc
       -0.047173392 0.17461002 -0.08371079 -0.0285604
000230 48 d4 d2 bd 36 d8 f8 bd 85 f1 57 3e 7d 95 e2 3d
       -0.10294396 -0.12150614 0.21088226 0.11063669
000240 78 40 94 3e 34 e8 1e be 0f 52 91 3e ec 1b 40 bd
       0.28955436 -0.15518266 0.28382918 -0.04690163
000250 74 ac a3 bc ce 15 1a 3e 41 6c 0d 3e 46 40 e2 3c
       -0.019979693 0.1504738 0.13810827 0.027618539
000260 bb 99 4f be 80 9d 92 3d 6a 05 52 be 92 fb 6e 3d
       -0.20273487 0.07158947 -0.20509878 0.058345385
000270 33 a5 b1 bd f2 5d 50 bd 8e 91 de 3c 40 dc 62 3e
       -0.086740874 -0.050870843 0.027169015 0.22154331
000280 2f 0a eb bd 99 13 1e bd e1 e3 a2 3e ea e0 6f 3d
       -0.11476552 -0.03859291 0.31814483 0.058564104
000290 93 66 81 3d 0f f3 6a 3e 6d 7b 38 be bc f3 bc bd
       0.063183926 0.22944282 -0.18015833 -0.09226176
0002a0 a6 31 9f bd 97 8f 84 be e4 86 10 be cb fc 1c be
       -0.077731416 -0.258908 -0.14113957 -0.15330808
0002b0 0f 4e 68 bc 9b 02 ef 3d ef 07 52 bd 37 7b c9 bd
       -0.014178767 0.11670419 -0.051277097 -0.098379545
0002c0 b7 ed 84 3e 75 1b 87 3d 5f 0d e0 3a 32 7c 33 be
       0.25962612 0.06597034 0.0017093829 -0.17527846
0002d0 01 8c 04 bd 56 84 d1 ba cd ac 8e be ab 67 c1 3d
       -0.03236008 -0.0015984874 -0.27866212 0.09443601
0002e0 40 d8 fe bd 85 9f aa bc 61 77 6b 3d 3e c7 ea 3d
       -0.1244359 -0.020828018 0.057486895 0.11463784
0002f0 4a 9e 8b bd a2 9f 49 bd dd a4 fa 3c 13 0d ba 3e
       -0.068173006 -0.049224503 0.030596191 0.363381
000300 df 02 ed 3c 37 ee 3a 3e 41 4a 7f be 99 9e b7 bc
       0.028932033 0.18254934 -0.2493067 -0.022414492
000310 7e 7b 2c 3c d7 13 07 3e dc d9 63 3c d8 db c8 3e
       0.01052749 0.13191162 0.013906922 0.39230227
000320 38 5b 36 bd e3 05 a1 3d 7d 09 0d 3e 85 30 f4 3d
       -0.044520587 0.07862451 0.1377315 0.11923317
000330 bd 29 95 be d7 4f 23 3e a7 d6 ba be 86 16 1d bd
       -0.29133406 0.15948425 -0.36491892 -0.03835156
000340 09 7b 05 be 77 fa 02 bd 33 42 67 3e 2d 9f d2 3d
       -0.13035215 -0.031977143 0.22583847 0.102842666
000350 50 9e 54 3c 30 e4 b5 bd 55 61 03 bd ac 33 22 be
       0.012977198 -0.08881414 -0.032075245 -0.15840024
000360 d4 83 5c 3e 08 75 bf bd b8 34 f5 bc 82 45 94 be
       0.21534663 -0.09348494 -0.029932365 -0.2895928
000370 84 db fe 3d 2d c1 b2 3c 36 4e 88 bd 2d 43 a6 be
       0.12444213 0.021820629 -0.066555426 -0.32473126
000380 1d 29 9a be f2 a4 99 be 2d 5c 81 be 4b 25 3a 3e
       -0.30109492 -0.30008656 -0.25265637 0.18178289
000390 c2 c2 5f be dd 5e 08 39 84 31 63 bd 43 1a 01 3e
       -0.21851638 0.0001300531 -0.055467144 0.12607674
0003a0 9c de eb 3d 6d 5d 17 bd 64 8c ce bd ed 12 8e be
       0.11517069 -0.036954332 -0.10085371 -0.27748814
0003b0 c3 ac 3a 3d 64 9d 2a 3e 41 ee ba 3d d4 73 a3 3c
       0.045574915 0.16661602 0.091274746 0.019952692
0003c0 4c 6f e1 bc 60 14 c4 bd 9a 70 0c 3d 8a f5 4e bd
       -0.02751889 -0.09574199 0.034287073 -0.050527133
0003d0 e5 bd 06 3d ca f4 a5 bc 6d 7c 1b 3d 2b 0f 88 3d
       0.03289594 -0.020258326 0.03796046 0.06643518
0003e0 70 6b 2a 3d f9 d9 05 3d 8c f1 55 3d 4a d6 d4 3b
       0.041606367 0.032678578 0.05223231 0.006495272
0003f0 48 4c f4 ba 46 6d 2a bd ca 4f ae 3c e5 dd 5e 3d
       -0.0018638456 -0.041608118 0.02127828 0.054410834

lstm_layers.0.bias_ih_l0_reverse f4 [476]
000000 44 1f 3d 3d 88 f5 26 3e c8 58 5e bd 25 d7 fb bd
       0.046172395 0.163046 -0.054283887 -0.12296895
000010 79 20 18 bd 06 08 b3 bc 51 71 a2 3d ff e7 38 bd
       -0.037140343 -0.021854412 0.0793177 -0.045143124
000020 4a bf e1 bc 18 b6 88 3c 42 bc a5 bd 99 1e fb 3c
       -0.027557034 0.016688392 -0.08092548 0.030654239
000030 62 f4 f2 3c 26 d8 33 3d 26 71 77 3d 29 92 e2 bc
       0.029657546 0.043907307 0.06041064 -0.027657585
000040 d7 7e 7b bd cc 5d b4 bc c6 6a 12 bd 03 c8 91 3d
       -0.06140026 -0.022017382 -0.03574636 0.07118227
000050 df 4f eb 3d fb bd ee bc 22 f9 81 bc 02 07 5b bd
       0.114898436 -0.029143324 -0.015865866 -0.05347348
000060 bb 6c 0a 3d 31 50 a6 bd 8a 7f 9e 3d 57 81 0f bd
       0.0337951 -0.08120764 0.0773917 -0.035035457
000070 8f a7 bc 3d 8e 85 ba bc ca 95 c1 bd 4c 1d 43 3d
       0.09211647 -0.022768762 -0.09452398 0.04763536
000080 71 8a ae 3d f7 88 c8 bd c0 82 d1 3d db 4b 89 3d
       0.08522499 -0.09791749 0.10230017 0.067039214
000090 c7 35 07 bd 91 0b 95 bd 20 16 33 3d 7c 9a 26 3e
       -0.03301027 -0.07277597 0.043722272 0.16269869
0000a0 18 01 48 3c 1f 9e f6 3d b8 94 55 ba 46 e8 ad 3d
       0.012207292 0.12041878 -0.0008147466 0.08491568
0000b0 12 dc c8 3d 5b 43 d6 3c 88 86 42 3d 1f 9d 8e 3d
       0.098076 0.026155164 0.04749158 0.06963562
0000c0 b6 f8 4d bd 61 65 ac 3d b9 7c b3 bd 68 83 9e 38
       -0.050286017 0.08417774 -0.08764023 7.5585034e-05
0000d0 2b e3 b6 bd 8a b1 a7 bc 2c 4f b3 bc 0c 20 d6 3c
       -0.089300476 -0.0204704 -0.021888338 0.026138328
0000e0 1e 5d 15 3e e0 c1 81 bd 88 a8 9e bd b8 39 6a 3d
       0.14586303 -0.06335807 -0.077469885 0.05718395
0000f0 65 00 cc bc 13 8a e9 bc e7 ff 46 3d c6 4e 5d bc
       -0.024902532 -0.028508222 0.04858389 -0.013507551
000100 95 c3 a8 3d 0a 30 c9 3d a4 72 a1 bd 7b c5 93 3d
       0.08240429 0.09823616 -0.07883194 0.07215401
000110 7d 46 b4 3d ad e3 a1 3c 92 72 6d 3d 73 47 fc 3d
       0.08802507 0.019761885 0.05797059 0.12318315
000120 52 1c 6f bd c3 a4 30 bd 95 34 ad bd 65 78 6f 3d
       -0.058376618 -0.04312588 -0.08457295 0.058464427
000130 ce e4 aa bc 7f b7 84 3d bb ec 4e 3c 65 25 d6 3d
       -0.020861056 0.064803116 0.012629683 0.10456351
000140 4e 08 5a 3d 01 4a e3 bc a9 f5 61 3d 6c cc 3b bd
       0.053230576 -0.027745249 0.05516592 -0.04584925
000150 3a 0a 4a 3d db 30 ec 3c 70 27 77 bc 1c 6f cd 3d
       0.04932616 0.02883189 -0.015085086 0.10030958
000160 a0 b0 61 bd d3 ce 51 3d 9d 99 8c 3d 6e d0 36 3d
       -0.055100083 0.051222634 0.06865237 0.044632368
000170 7c 97 7a bd f8 3a 09 3d 90 d4 48 3c 29 82 c2 bd
       -0.061179623 0.033503503 0.01225771 -0.09497482
000180 6a 70 e1 bc 64 a8 c6 bc 5b 44 26 3d 8c 1a f4 3c
       -0.027519424 -0.024250217 0.040592533 0.029797815
000190 be bd 83 bd 1e 81 e8 3b 53 bf b3 3d ce 42 ef 3c
       -0.06432675 0.00709547 0.087767266 0.02920666
0001a0 cc 64 12 bd 8f 02 cd bd a9 b9 ca bd c7 04 25 3d
       -0.03574066 -0.10010254 -0.09898693 0.04028776
0001b0 d6 1a 16 3e 88 e5 bc 3c 97 59 c4 3d de dc 1a bc
       0.14658675 0.023058668 0.095874004 -0.009452073
0001c0 ad 8f ba bc 89 43 8c bd 75 e7 60 3d ad 31 ab bd
       -0.022773588 -0.06848819 0.054908235 -0.08359084
0001d0 76 2e 3f 3d 2a 7c 4a 3d 2a b1 4f bd 72 fb 73 3d
       0.046675168 0.04943482 -0.050706066 0.05956597
0001e0 77 4c 7f 3e cd d1 8c bd 52 86 3b 3d 18 0f 95 bc
       0.24931513 -0.06875954 0.045782395 -0.018195674
0001f0 63 dd 60 3d 06 52 0c 3e 3f b2 83 3d 96 1c 12 3d
       0.05489863 0.13703164 0.06430482 0.035671793
000200 b3 5e ef 3c 19 c6 bf 3b d2 38 8f 3c ac b3 c3 3d
       0.02921996 0.0058524725 0.017483149 0.09555754
000210 02 3f b8 3d 82 d1 bf 3d e2 9e 46 3e 0f c9 72 3c
       0.08996393 0.09366132 0.19396546 0.014818444
000220 0b ef d7 bb db ec 82 3c 92 ac bf 3d a6 d9 a2 bc
       -0.0065897754 0.015982082 0.09359087 -0.019879173
000230 c2 4c bb 3c 03 8f ed 3d 08 f5 12 bd 22 04 09 bd
       0.02286375 0.11599543 -0.03587821 -0.033451207
000240 5e ee bc bd d7 00 ae 3d 34 a7 31 bd 1b 0a 1b 3e
       -0.092251524 0.08496254 -0.043372348 0.15140574
000250 2d 61 fd 3d 1b 17 0d bd 26 71 85 3d 90 a9 21 3d
       0.123720504 -0.034445863 0.06515722 0.039468348
000260 e4 26 24 bc 71 9b 0e 3d 7f 9c 15 bd 70 11 81 3c
       -0.010019038 0.03481621 -0.0365262 0.015755385
000270 ce 30 29 3d dc 1b df 3d 37 bc 02 3e 65 90 0f 3c
       0.04130631 0.10893986 0.12767111 0.008762454
000280 d5 9e 1e 3e b2 c2 d1 3d ca d2 28 3e 1f 43 4f 3d
       0.15490277 0.10242213 0.1648666 0.05060112
000290 a2 4d dc 3d 48 98 22 3d 03 ff bb 3d ab 38 9a 3d
       0.10756995 0.039696008 0.09179499 0.0753034
0002a0 3e 56 75 bd 8b a5 1f 3d 72 0b 17 3e 82 c5 ad 3d
       -0.0598967 0.038976233 0.1475046 0.08484937
0002b0 b0 bf 97 3d 72 65 b3 3d 9c a9 c7 3d 90 cd 90 3d
       0.07409608 0.087595835 0.09749147 0.07070458
0002c0 6a 8c e1 3c 6a 77 89 bd 69 af 30 3e d9 17 25 bd
       0.027532775 -0.067122295 0.17254414 -0.040305946
0002d0 00 37 80 3d 12 13 09 3e fa c0 a3 bd ae 60 45 3e
       0.062604904 0.13386181 -0.07995792 0.19275162
0002e0 dd 10 1b 3e 33 a1 80 bd 5a b9 42 3d 38 cb 3f 3e
       0.15143152 -0.06280746 0.047540046 0.18729866
0002f0 5e 52 87 3d 4e 78 82 3d 3b f9 a6 3d 62 76 9c bc
       0.06607507 0.063706025 0.08153006 -0.019099418
000300 b8 78 5c bc 18 40 51 3c 6f 9f 28 3e 75 64 b3 3d
       -0.013456516 0.012771629 0.16467069 0.08759395
000310 be 95 07 3e 1d e5 14 3e ab fc b8 3d 95 65 c9 3c
       0.13240716 0.14540525 0.090325676 0.02458457
000320 81 db 75 3d b0 ca 25 bd c5 93 4c b9 00 d3 3c 3c
       0.06002379 -0.0404765 -0.00019510004 0.011524916
000330 fb ce 94 3d 56 bc b9 3c ce 58 5b 3d 4e 85 72 3d
       0.07266041 0.022672813 0.053551488 0.05920916
000340 ee 23 cb 3c 4a 0c de 3d 9e 08 03 bd 9d 5b 1f bd
       0.024797406 0.10842188 -0.03199064 -0.03890573
000350 7b b0 64 3d 62 42 b1 3d 8b 41 74 3c f5 07 18 3d
       0.055832367 0.0865524 0.014908205 0.037116963
000360 fa a5 37 3d a1 3b 2b 3e 48 a3 00 3e e9 a0 3d bd
       0.044836022 0.16721965 0.12562287 -0.046296034
000370 00 29 1d 3b cc bc 35 3b 4c fd 1a bd 1f 0b 85 3d
       0.0023980737 0.002773094 -0.03783922 0.06496262
000380 09 ee b8 3c d1 cf f0 bc c2 17 77 3d 65 35 ac 3c
       0.022574442 -0.02939597 0.06032539 0.021021554
000390 12 00 81 3d 56 4c 06 bd 86 46 b6 3c 97 76 9a 3d
       0.062988415 -0.032787643 0.022250425 0.075421505
0003a0 56 0e 37 bd aa 83 58 3d 32 96 ea 3d a6 f7 52 3e
       -0.044691406 0.05285994 0.11454429 0.20602283
0003b0 47 b6 d7 3d fc 97 46 38 56 81 d3 bd 3b fd a0 bd
       0.105328135 4.7348425e-05 -0.10327403 -0.078608
0003c0 8a 39 83 3d 43 b5 60 3d a0 2e 03 bd 71 94 54 3d
       0.06407459 0.054860365 -0.032026887 0.051899377
0003d0 50 64 6a 3c a9 cc dd bb c3 1a c9 bb ef 81 2e be
       0.014306143 -0.006768782 -0.0061372234 -0.17041753
0003e0 1a 36 d3 3d 64 e1 18 3e d1 c8 a4 3c db 73 4f bc
       0.103130534 0.1492973 0.020115288 -0.012661899
0003f0 34 a1 0c 3d b2 11 96 3c a9 c8 db bc 4c 4f c0 bd
       0.034333423 0.018318985 -0.02682908 -0.09390125
