foundation_models/Ensemble_model4_DeepSurv_ANN_Event_2_20250804_145011.pt (torch, 57206 bytes, 25 tensors)

model.0.weight f4 [31, 11]
000000 c6 7f 02 3e 32 46 a1 3c 6e 4c 20 3e 37 d1 15 bd
       0.12744054 0.019686792 0.15654156 -0.036576476
000010 49 ac c7 3e 7a 33 9b 3e c6 81 5e be 1e 0d 59 be
       0.3899863 0.3031271 -0.21729192 -0.2119641
000020 97 0f cb bd a0 cd a9 bd 96 f5 fa 3b 28 3a 00 3e
       -0.09915083 -0.08291173 0.0076586707 0.12522185
000030 88 85 89 3c f4 74 f5 bd f6 04 5a 3e ff 4c dc be
       0.016787305 -0.11985198 0.21290955 -0.43027493
000040 67 6b 75 3e 31 b5 ed bd 4a 95 dd bd d4 b3 98 bd
       0.23966752 -0.11606825 -0.1081949 -0.074561745
000050 2d ca c5 3d c8 e0 31 3d 97 b2 3e 3d e5 ba da bd
       0.096577026 0.04342726 0.046557035 -0.106801786
000060 17 0e ae be de 75 84 bd 26 a1 cc 3e 80 eb bf 3e
       -0.33995125 -0.06467794 0.39966697 0.3748436
000070 90 de de bd c1 7b 2a 3d 10 1e d3 bb a0 16 a2 3d
       -0.10882294 0.041621927 -0.0064427927 0.079144716
000080 b9 a7 5c 3c 6c 7c da 3d 9b 05 ff bd f4 65 8c 3d
       0.013467723 0.10668263 -0.12452241 0.068553835
000090 68 6d 17 3e 56 e9 83 3e da 52 2a bf b9 97 52 3e
       0.14787829 0.2576396 -0.6653267 0.2056569
0000a0 b3 cb 56 bd 54 b8 7d 3d ca 68 29 bd 47 13 02 3e
       -0.052440356 0.061943367 -0.0413597 0.12702666
0000b0 33 86 be 3b cc 14 be 3d 61 c2 64 be 7f 8d 27 be
       0.0058143376 0.092813104 -0.22339775 -0.1636257
0000c0 6a dd 35 be ac 4e 45 3f d6 19 7a bc 2b f3 82 3d
       -0.17760244 0.7707317 -0.015264949 0.06394037
0000d0 d6 1c fe 3b ae 59 ed bd 5c 40 8f 3d df cf 22 3d
       0.0077549024 -0.11589371 0.069946975 0.039749023
0000e0 a1 30 ec 3d c6 02 bc be 7f 04 d3 3d 34 c5 6b 3e
       0.11532713 -0.36720866 0.10303592 0.23024446
0000f0 76 ac fd be c6 24 0e bd f0 cc af bc 8c 8d 04 be
       -0.4954564 -0.03470304 -0.021460027 -0.12944621
000100 e2 44 0d be 66 5a ce 3d 9f 69 2f 3e b1 69 e3 bd
       -0.13795808 0.10075836 0.17130135 -0.111041434
000110 0c ec bb be cb d9 40 3e e0 f8 23 be 1b aa 81 3e
       -0.36703527 0.18833081 -0.16012907 0.25325093
000120 69 77 e6 bd dc 83 f9 3d 43 65 0b 3d 08 68 16 be
       -0.112532444 0.12183353 0.034032118 -0.14688122
000130 72 1f 79 be 3e 11 b2 bd 3a eb 00 be 36 90 09 3e
       -0.24328402 -0.08694695 -0.12589732 0.13433918
000140 9c 00 5f be e3 07 a0 3e 8b 67 0d bf e0 b5 e9 bb
       -0.21777576 0.31256017 -0.5523612 -0.007132277
000150 69 51 13 3e 2b 9d bf bc c2 33 23 be f4 a3 af bc
       0.14386524 -0.023390373 -0.15937713 -0.021440484
000160 3b 35 a9 3d 65 26 1f be 60 07 bb 3e 6d ad e2 3d
       0.08262106 -0.1554199 0.36529064 0.110682346
000170 7e 5e a7 be 16 87 02 be 3a 2a 29 3e 69 11 37 3e
       -0.3268928 -0.12746844 0.16520014 0.17877735
000180 2b e3 bd bd a2 f2 83 bd cf 04 d3 bd a5 0a 15 3e
       -0.092718445 -0.06442763 -0.103036515 0.14554842
000190 3b 0f d6 3d 85 e8 96 3d fe 89 48 3e 87 43 09 3f
       0.10452124 0.07368568 0.1958389 0.53618664
0001a0 7a 70 e4 3d 24 c4 8c bd c6 28 cd 3c b4 77 76 be
       0.11154266 -0.06873348 0.025043856 -0.240691
0001b0 a7 1c 04 bd 13 bb 09 3e 99 7e e9 bd 57 95 a5 bc
       -0.032253888 0.1345027 -0.114011 -0.020212812
0001c0 56 b4 b6 3d 86 af b3 bb 98 21 68 be fe fd 01 3e
       0.08921115 -0.0054835705 -0.22669065 0.12694547
0001d0 3a 20 a6 3e 75 7b ce be c6 1d bc 3d 01 8f d7 3d
       0.32446462 -0.40328565 0.09185366 0.10525323
0001e0 0b 7b 59 3e 75 ef 87 3d c8 19 46 3e f2 bb 42 be
       0.21238343 0.0663747 0.19345772 -0.19017008
0001f0 a5 c8 ff 3d f0 d8 af bc b2 35 fc 3b 75 5e 91 be
       0.12489442 -0.021465749 0.0076968307 -0.28392377
000200 0b 7e a9 3c 5e 01 18 bd 5a ca 7d 3e 13 24 92 3d
       0.020689985 -0.03711068 0.24784222 0.07135787
000210 23 f2 e0 3d 17 74 d3 bd 2f 23 bc be 9d 2a 70 be
       0.10983684 -0.10324877 -0.36745593 -0.23453756
000220 9c 2e b0 be 38 76 f0 3d c0 68 b3 bb ca ba a6 bd
       -0.3441056 0.117412984 -0.0054751337 -0.08141096
000230 cf 57 e8 bd 28 ad 0a 3e 5e b7 08 3e 6c e5 00 bd
       -0.11344873 0.13542616 0.13351199 -0.031468794
000240 ea 50 84 bd 5c 6d 61 be eb 71 86 3d cf 71 e6 bd
       -0.06460746 -0.22014374 0.06564697 -0.11252176
000250 21 6e b9 3e ca 97 b7 3e 2b 9f d3 3d ef 32 ae bd
       0.36216834 0.35857993 0.10333093 -0.085058086
000260 08 cd 24 be 3c e9 83 be d0 61 42 bc dd 8f f5 3d
       -0.16093838 -0.2576388 -0.011864141 0.1199033
000270 e4 70 9a 3e f5 82 a3 3d f7 bb fc bd 22 81 1a bc
       0.30164254 0.079839624 -0.12340539 -0.009430202
000280 ff 2b 80 be d2 be 84 be 97 92 8b 3d fa 92 92 bc
       -0.25033566 -0.25926834 0.06815069 -0.01789235
000290 6e d4 a5 be 06 4a a4 bd 28 eb 9f bd 64 d0 28 3e
       -0.32388633 -0.08021931 -0.07808524 0.16485745
0002a0 be 71 42 3e 8a aa b0 3e 93 c8 2c 3f 95 e1 f1 3b
       0.18988702 0.3450511 0.6749355 0.007381628
0002b0 1c f2 d8 bc a8 3f 7d 3d 36 29 30 bd e1 e4 6e 3c
       -0.026482634 0.061828285 -0.04300805 0.014580936
0002c0 77 d4 56 bd 43 5e 9e bc d8 47 02 be 63 f2 83 bd
       -0.052448716 -0.019332057 -0.12722719 -0.06442716
0002d0 2c e5 a0 bd d6 78 94 3e f0 6d d2 3e a9 9c 34 be
       -0.07856211 0.2899844 0.410995 -0.17637886
0002e0 c9 d9 19 3e be 48 2a be 74 a1 a8 bd 7d b4 0b 3e
       0.15024485 -0.16629311 -0.0823392 0.1364307
0002f0 35 48 48 3d 3a 39 34 bd d4 76 4e 3c 12 01 ff 3e
       0.048896987 -0.043999888 0.012601573 0.49805504
000300 8e c4 91 be 3c 94 27 3e 99 a7 ca 3c 5e fe 55 be
       -0.28470272 0.1636514 0.02473812 -0.20897815
000310 18 ac 00 3d f8 74 4b be b2 a8 d6 bd 8a ce f7 3d
       0.03141412 -0.19868839 -0.10481395 0.12099941
000320 29 21 85 be 96 82 38 bd 69 32 f1 3e 61 a2 04 3d
       -0.26001862 -0.04504641 0.47108772 0.03238142
000330 c0 49 15 be f8 ee 31 3e 8d cb 6e bc a9 00 a3 3d
       -0.14578915 0.17376316 -0.0145748975 0.0795911
000340 d7 42 f0 3d 5e 80 16 bd d6 92 ab be 21 d4 89 3e
       0.11731499 -0.036743514 -0.33510464 0.26919654
000350 69 97 92 3d 70 a6 63 be dc f5 a8 be e8 30 f6 3d
       0.071577854 -0.2223146 -0.33000076 0.12021047
000360 91 72 aa bd ce 1b dd bd ad 6e 68 bd 39 c9 8f bc
       -0.08322633 -0.10796319 -0.056746174 -0.017552005
000370 b5 5b 13 bd 93 2c 00 be c3 2f ed be 48 ef 62 3d
       -0.03597613 -0.12517004 -0.46325502 0.055403978
000380 15 42 5a be f2 85 26 bc 34 c1 43 be 7a cf 73 be
       -0.21314271 -0.010163771 -0.1911667 -0.23809615
000390 a8 93 db 3d 91 91 1c bd 63 79 43 3d 20 b5 bb 3d
       0.107215226 -0.03822476 0.047723185 0.09165406
0003a0 08 0e 46 be 91 7a b0 3d 59 dd 8a bd e8 fa 13 be
       -0.1934129 0.08617128 -0.067805 -0.14451182
0003b0 a8 27 2f be 55 6c 33 3e 1d d6 45 3e 55 86 8f 3d
       -0.17104971 0.17521794 0.19319959 0.07008044
0003c0 09 b1 8c 3e b5 84 85 3e c1 09 60 be 31 c8 e3 3d
       0.27478817 0.2607781 -0.21878721 0.11122168
0003d0 c4 d3 03 be 69 1a 16 be be c4 b4 be a5 21 cb 3d
       -0.12873751 -0.14658512 -0.35306352 0.099185266
0003e0 fa 61 7e 3d 73 64 32 3c 31 ff b3 bd 34 37 fc 3d
       0.062105156 0.010888207 -0.08788908 0.12315217
0003f0 8d 02 70 be 01 f9 c7 3d 02 62 14 3e 04 c6 88 3e
       -0.23438473 0.097642906 0.14490512 0.26713574

model.0.bias f4 [31]
000000 d9 de ef 3c 53 db 14 3e 25 df bb 3d 30 1c e2 3d
       0.029281067 0.1453679 0.09173421 0.110405326
000010 4b 13 8f be a2 83 b5 3d 17 91 39 3e dd 09 6a bb
       -0.27944407 0.088629976 0.18121754 -0.0035711445
000020 53 4b 3b be b7 67 69 bd 2c 18 2f 3e 33 1c 18 3e
       -0.18290453 -0.056983676 0.17099065 0.14854507
000030 0e 96 a8 3e b4 39 0d bd bc 48 0e 3e 21 ef a3 3e
       0.32926983 -0.034478858 0.13894933 0.32018378
000040 e5 25 dc bd 44 ef 43 3e 32 52 39 3e 12 b2 ea 3d
       -0.10749415 0.19134241 0.18097761 0.114597455
000050 fc d8 8e 3e 30 f2 9d bd 65 15 18 3e 4d 4a 51 be
       0.2789992 -0.07712209 0.14851911 -0.204385
000060 7f fb 42 3d 80 12 91 bd 3a 02 b7 3c de 00 78 bd
       0.047603127 -0.07083607 0.022339929 -0.060547702
000070 03 91 65 3c 4b 16 27 bd 98 da 40 3e
       0.014011624 -0.040792745 0.18833387

model.1.weight f4 [31]
000000 4d eb 0f 3f 47 ad 08 3f fe 2a 19 3f 2f b0 ff 3e
       0.56218415 0.533894 0.59831226 0.49939105
000010 06 07 00 3f 31 70 0d 3f 1a 02 05 3f 89 9e 0c 3f
       0.50010717 0.55249316 0.5195633 0.54929405
000020 d5 d0 09 3f 66 cd 12 3f 84 95 42 3f 94 c2 0b 3f
       0.5383428 0.57344663 0.7600939 0.5459378
000030 d3 33 10 3f 01 63 00 3f 22 71 0d 3f 78 df 22 3f
       0.5632908 0.5015107 0.5525075 0.63622236
000040 f3 f8 00 3f 6c 15 22 3f 88 9b 0f 3f 04 fe 3c 3f
       0.50379866 0.6331394 0.56096697 0.738251
000050 9a bb 1e 3f 2f 01 02 3f 4b 51 0a 3f bc e9 0f 3f
       0.6200501 0.50783056 0.54030293 0.56216025
000060 61 8a 11 3f 1b 4e 3f 3f 6e 3d fe 3e 3f 0d 18 3f
       0.56851774 0.74728554 0.49656242 0.5939521
000070 f5 39 06 3f 1d c5 27 3f 52 9f 08 3f
       0.52432185 0.65535146 0.53368104

model.1.bias f4 [31]
000000 7a ba 77 bd 9a ee 6c bc 7f 11 5d 39 2e 93 8c 3d
       -0.060480572 -0.014461184 0.0002108272 0.0686401
000010 72 75 e3 bc 43 19 85 bd f2 56 c8 bd 77 58 74 bd
       -0.027765963 -0.06498959 -0.097822085 -0.05965468
000020 68 1c 78 3d b8 6e f5 bc 9d ef 8b bc e9 da 88 3b
       0.060573965 -0.029960021 -0.01708203 0.0041764867
000030 81 da b7 bd 49 12 c0 bc 24 cd a8 3d 12 87 05 3c
       -0.08977223 -0.023446219 0.082422525 0.008149879
000040 45 11 a3 bc b1 e8 f7 bc cf a8 b1 3b 46 8b da bd
       -0.019905696 -0.030262323 0.005421735 -0.106710956
000050 81 24 45 3d 16 25 8f bd 4a c2 c1 bc af b7 20 bc
       0.048130516 -0.069894955 -0.023652215 -0.009809419
000060 de c3 f5 bc c9 c9 80 3c a5 24 93 3c 43 59 43 bd
       -0.030000623 0.015721219 0.01796181 -0.04769255
000070 97 88 22 bd 55 9a e1 bd 1c 8e 4c 3d
       -0.039681043 -0.110157646 0.049940214

model.1.running_mean f4 [31]
000000 71 1b af bf 79 2b 56 bf 04 96 a7 be 60 2f 5c 3c
       -1.368025 -0.83660084 -0.3273164 0.013439029
000010 82 73 09 3f b5 fe 93 3c 12 aa bf be 35 2a 18 be
       0.53691876 0.01806579 -0.3743444 -0.1485985
000020 85 df b0 3e 4c 48 20 3f 6b 5e 1f bf 9a 82 8f 3e
       0.34545532 0.62610316 -0.62253445 0.2802933
000030 0c 41 63 bf 88 d5 95 3f f8 7a b8 bf 28 9c dd 3e
       -0.8877113 1.170579 -1.4412527 0.432832
000040 03 97 d9 3e 93 b9 90 3f 9d 29 a5 3f b1 52 ed bf
       0.42498025 1.1306633 1.2903324 -1.854086
000050 1c 9f 20 c0 39 2d 4c 3f 2b 7d 0c 3f 85 f1 8c 3e
       -2.5097113 0.79756504 0.5487849 0.27528015
000060 56 5f 3d be 7b e6 db 3d 63 4f 04 c0 6b 2d c4 3f
       -0.18493399 0.1073732 -2.0673454 1.532636
000070 2e 88 20 40 c6 1f 0b bf e6 40 86 bf
       2.5083117 -0.5434536 -1.0488555

model.1.running_var f4 [31]
000000 fd f5 a7 3c 1c ee 3c 3c 56 00 33 3c 9d 6c 4d 3c
       0.020503039 0.011531379 0.010925373 0.012538102
000010 fe 33 2a 3c 4d 25 8f 3c 70 1d a5 3c 15 7d 97 3c
       0.0103883725 0.017473841 0.020155638 0.018492261
000020 55 f0 5d 3c 29 df 88 3c c1 75 59 3d 8f 3e 36 3d
       0.013546069 0.016707974 0.053090815 0.044493254
000030 20 7c 88 3c b2 b6 7c 3c a9 e1 4a 3c cb 8d 52 3c
       0.01666075 0.015424417 0.012382903 0.012851189
000040 40 00 c6 3c 32 c7 2c 3c f3 8a f4 3c cf 77 54 3d
       0.024170041 0.010545539 0.029851412 0.05187207
000050 26 fe 99 3c a7 e4 f3 3c 5b 03 ac 3c 1c 63 b6 3c
       0.018797945 0.029772116 0.020997694 0.022264056
000060 d1 ff 4f 3c e0 ce 83 3c d0 e9 3a 3c 9d 7e 59 3c
       0.012695269 0.016089857 0.011408284 0.013274816
000070 42 d3 6f 3c b8 75 88 3c cd 03 e3 3b
       0.01463777 0.016657695 0.0069279433

model.4.weight f4 [113, 31]
000000 75 62 1c 3c ab 0b ea 3d 04 a1 d2 3d d5 ba 28 bd
       0.009544958 0.11428007 0.102846175 -0.041193802
000010 6e 0b 8c 3e 4e 67 15 be 35 af 0c be 15 18 73 3d
       0.2735247 -0.14590189 -0.13738711 0.05934914
000020 8e 2f 9b 3d 41 81 1f 3d 03 36 dd be b2 d7 2c 3e
       0.0757743 0.038941626 -0.4320527 0.16879156
000030 b7 e0 0b bd 69 5a b8 3d 41 1a bc bc 72 d5 bf 3d
       -0.03414985 0.09001619 -0.022961738 0.09366883
000040 61 68 20 bc 9c c2 ce 3d d8 7c e3 bd 9e 33 94 bd
       -0.009790511 0.100957125 -0.111077964 -0.07236408
000050 93 cf 33 bd 4a 17 85 bd 89 38 82 be 6e aa b5 bd
       -0.04389913 -0.06498583 -0.25433758 -0.088703975
000060 8f 60 47 bd 27 8c 2c 3c 6f dd 50 3e a0 31 b2 be
       -0.04867607 0.010531462 0.2039697 -0.34803486
000070 07 28 5e 3e 4e b3 2e bd 2d ee f4 bd 51 34 af bb
       0.21694957 -0.042651467 -0.11959491 -0.005346813
000080 6b ca 00 be 46 c0 8b 3c 8e af 9a 3e b0 63 a4 bd
       -0.12577216 0.017059457 0.30212063 -0.080268264
000090 fe 23 c5 bc 95 a7 6b 3e 37 8e 23 3e da b6 be 3c
       -0.024065014 0.23013146 0.1597222 0.02328055
0000a0 6a c2 da 3d 15 70 2a be 47 60 fc 3d 0e ca 3c 3e
       0.10681613 -0.16644318 0.12323051 0.18436453
0000b0 58 8a 28 bb 53 b0 56 3d 59 74 4b 3e 45 ae 5a 3e
       -0.0025717225 0.05241425 0.19868602 0.21355541
0000c0 cc d9 8d be e8 62 cd 3d b0 67 af bd 07 c9 76 bd
       -0.27705228 0.100286305 -0.08564699 -0.06025031
0000d0 02 17 b8 3d 00 ae 76 bd 54 89 49 bd 76 48 20 be
       0.089887634 -0.060224533 -0.049203232 -0.15652642
0000e0 e0 41 96 3d 2e be 44 3d a9 73 31 be b1 8f 03 3e
       0.073367834 0.048032932 -0.17329277 0.12847783
0000f0 fa cf 7f 3d 44 2a 32 be 4b 74 41 3e ba 8d 03 be
       0.0624542 -0.17398936 0.18892018 -0.12847033
000100 b0 25 83 3d 05 6e 74 3d 7f 5e b0 bd 2d 9e 89 3c
       0.06403673 0.059675235 -0.08611774 0.016799057
000110 c5 d6 4e 3d 1e a9 5b 3e dc 6d 36 be dd 62 dd bb
       0.05049779 0.21451232 -0.17815346 -0.00675617
000120 45 e1 30 be 38 db 47 be 6c aa 83 be 61 00 7b be
       -0.17273434 -0.19517219 -0.2571596 -0.24511863
000130 b5 4d 18 be 88 90 f3 bd 7c 02 2f 3c fb 5b 37 be
       -0.14873393 -0.118928015 0.010681745 -0.17906182
000140 1f e2 b4 3c e5 a6 3c 3c 7b c5 9b bb 3e 35 98 be
       0.02208048 0.0115144 -0.004753766 -0.2972812
000150 0f 3b d7 3d 48 20 08 bd f1 54 f4 bd bd b7 09 3d
       0.105093114 -0.03323391 -0.11930264 0.033622492
000160 f1 56 86 3c f2 16 d9 bd 38 85 24 bd d5 b4 78 be
       0.016398879 -0.106000796 -0.04016611 -0.24287732
000170 e3 73 18 3c 66 30 f3 bd 57 39 f6 3c 22 71 03 be
       0.009304973 -0.11874466 0.030056639 -0.12836125
000180 ca 30 7d 3e 95 61 84 be d7 04 8e 3c f5 3f 85 bd
       0.24725643 -0.258557 0.017336292 -0.065063395
000190 d5 99 c9 be 11 f4 53 bd ae 91 8e bc d8 2f 47 3d
       -0.39375177 -0.05174643 -0.01740345 0.04862961
0001a0 d2 bc 41 3d f1 8a 3b bd 1e 64 b8 3c ed ea 51 3e
       0.047299214 -0.0457868 0.022508677 0.20499773
0001b0 62 d2 bf be 96 08 c0 3d 7b f4 5a 3c 75 6d 14 bd
       -0.37465197 0.09376638 0.013363953 -0.0362372
0001c0 99 96 c0 3d b5 45 bf 3c aa 60 0c be 08 a9 8d 3d
       0.09403724 0.023348669 -0.1370875 0.06917006
0001d0 c1 ad 36 3d 5f b2 5d be b2 95 e0 bd 5a 6c cc bd
       0.0445993 -0.21650074 -0.10966052 -0.09981604
0001e0 c1 23 9e 3c e7 63 cc bd 94 e3 66 3e e2 23 d4 3c
       0.019304158 -0.09979992 0.22547752 0.025896017
0001f0 9f 41 ab bd 8d e7 43 3e 0a 10 f8 bd 80 46 b0 3d
       -0.083621256 0.19131298 -0.12112434 0.08607197
000200 87 f2 13 3e 3a ae 07 be 1e ab 56 be a8 45 80 bc
       0.14447986 -0.13250056 -0.20963714 -0.015658215
000210 81 1f ec 3d e4 6b e5 3d 97 ac 87 bc b4 8d 1e be
       0.115294464 0.11202219 -0.01656179 -0.15483743
000220 07 0d 8b 3b de 4f 3d bc 18 f1 42 be d2 62 14 be
       0.0042434963 -0.011554686 -0.19037282 -0.14490822
000230 f9 c8 85 bd 72 b8 0b be 73 dd 0e be 99 15 35 3e
       -0.06532473 -0.13644579 -0.13951664 0.1768402
000240 b5 49 f8 3c e2 81 1d 3e 46 d3 b1 3d 93 28 1a be
       0.030308584 0.15381578 0.08682875 -0.1505454
000250 10 0c c2 3d 44 c3 ec 3d a7 e0 2d 3e 56 dc 3c be
       0.09474957 0.115606815 0.1698023 -0.18443426
000260 5e 71 19 bc 44 36 b4 be f5 02 1f be 1f b4 95 3d
       -0.009365408 -0.3519765 -0.15528472 0.07309746
000270 31 2c 21 be 28 6f 65 be 72 f0 4d 3e ef 60 c0 3d
       -0.15739514 -0.22405684 0.20111254 0.093934886
000280 22 4b 68 be 40 38 88 3d a6 ea 14 3e 1e 88 d2 bc
       -0.22684911 0.06651354 0.14542636 -0.025699671
000290 7b 28 1c bd 9c 4b 18 3c e2 b1 04 bd 08 68 dd 3d
       -0.038124543 0.00929537 -0.032396205 0.10810858
0002a0 e3 d4 2c be ac 24 04 be 06 33 82 be e9 61 76 be
       -0.16878085 -0.12904614 -0.25429553 -0.24060787
0002b0 d3 33 7c 3e 6e bc 90 3d 7b 53 8d 3d 41 d3 4a bc
       0.24629144 0.0706719 0.06900688 -0.012379468
0002c0 4f 1f 73 bd 25 f9 3b be 06 38 62 bd 37 82 d6 3d
       -0.05935603 -0.1835676 -0.05522921 0.10474055
0002d0 20 b8 0c 3e 13 0f 12 3e 9e 8b 71 3d a0 f2 d5 bd
       0.13742113 0.14263563 0.05897104 -0.10446668
0002e0 90 c1 28 be 3c 53 23 bd 30 3e 19 3e cb 1d 48 3e
       -0.16480088 -0.0398743 0.14965129 0.19542615
0002f0 67 ae 8f bd b3 eb 48 bd b0 48 b1 3c 38 a5 41 be
       -0.070156865 -0.049052905 0.021641105 -0.18910682
000300 3a fe f1 3d 64 5c 43 3d 7c 04 8b be de 4a c1 3d
       0.11816068 0.047695532 -0.2715186 0.09438108
000310 b1 3c b8 3d d1 aa 2b 3e ff b0 8e bc e5 e3 b4 3d
       0.08995951 0.1676438 -0.017418383 0.0883253
000320 a8 77 0a 3d 4e 85 02 be 29 8b f3 3d dd ed 97 3d
       0.03380552 -0.12746164 0.11891777 0.07418416
000330 6c ae 74 be 09 08 2c 3e a3 16 17 3e a9 fc 09 be
       -0.23894662 0.1679994 0.14754729 -0.13475288
000340 49 8c 97 3d 6b 76 6e 3d 7b 52 e8 bc f7 5f ae be
       0.07399804 0.0582184 -0.028359642 -0.3405759
000350 83 49 8c 3c 31 5f 77 bd ba a5 1e bd 04 63 d5 bd
       0.017124897 -0.060393516 -0.038732268 -0.10419276
000360 31 7d 93 be 93 cb 97 3c d0 8e 1c be 4d c7 81 3d
       -0.2880645 0.018529689 -0.15288854 0.06336842
000370 e9 8c 97 3d a5 4a 89 3d 8e 20 01 bd ee 56 7b be
       0.07399923 0.067036904 -0.031525187 -0.2454488
000380 42 f4 e2 3d d6 13 a4 bd 75 df 02 3e d6 bc 91 be
       0.11081745 -0.08011596 0.12780555 -0.28464383
000390 cc 1f 29 3d 1e 5a 02 bd 5c fe a7 3d a1 c2 65 be
       0.04129009 -0.031824224 0.08202812 -0.22437526
0003a0 dc be 91 bd e7 c0 84 3e d6 fd cb 3d d9 01 9b bd
       -0.07116482 0.25928423 0.09960525 -0.07568712
0003b0 69 63 16 3d f6 64 fd 3d ac 02 97 3e a5 0f b6 3d
       0.0367159 0.123727724 0.29494226 0.08889703
0003c0 2e 95 ab 3d 47 ec 00 be 21 49 d9 3d 93 a3 2d 3d
       0.08378063 -0.12590133 0.10609651 0.042392325
0003d0 ee b8 15 bd 42 ff d2 3d 20 51 a8 3c 37 06 29 3e
       -0.036553316 0.10302593 0.020546496 0.16506277
0003e0 32 79 09 3e fa 55 c5 3d 01 85 cc 3d d8 31 00 be
       0.13425139 0.09635539 0.09986306 -0.12519014
0003f0 61 71 7d 3d a0 2a b5 3d 66 dd 2c 3e 78 97 2d bd
       0.061875705 0.08846021 0.16881332 -0.04238078

model.4.bias f4 [113]
000000 0c 9b 07 bd c9 44 5d 3b 2a ea 05 3d c9 84 71 3b
       -0.03310685 0.0033762923 0.03269402 0.0036852828
000010 c9 f5 87 3d 78 a9 89 3c c4 d5 80 3d 7e 10 c0 3c
       0.06638677 0.016804442 0.062907726 0.023445364
000020 c6 ea 99 3d b8 72 c8 3d 33 9a 84 bd e0 d4 10 b9
       0.075154826 0.09787506 -0.06474724 -0.00013812212
000030 4b 43 72 bc b7 02 21 3d 75 c5 28 bd 5c 65 cd 3a
       -0.014786552 0.03930923 -0.041203935 0.0015670466
000040 06 56 b3 bd ff 02 3e 3b c6 7f d3 3d fc 89 e8 bc
       -0.08756642 0.0028993485 0.10327105 -0.028386109
000050 96 2c d9 3c 42 60 88 3d 9c d0 4c bd 64 76 09 3e
       0.026510518 0.06658985 -0.050003633 0.13424069
000060 d2 d9 a2 bd ec 17 03 be 41 67 46 3d cb 8a b1 bc
       -0.07951702 -0.12802094 0.048438314 -0.021672627
000070 2e 83 b1 3d ec ad ff bd 7c 97 45 3d f8 df 5b 3c
       0.08667599 -0.12484345 0.04824017 0.0134200975
000080 eb d7 52 3e 54 5b b4 bc fa 2e 21 3d 9a 03 1f 3d
       0.20590179 -0.022016205 0.03935144 0.038821794
000090 99 2d 2b bd d4 9f 35 3d b4 60 a3 3c 7d 10 94 bb
       -0.041791532 0.044341877 0.019943573 -0.004518567
0000a0 29 85 9f bd 9b 38 3e 3d 2a 70 d2 bb ac 20 80 3d
       -0.0778907 0.046440702 -0.0064220624 0.06256232
0000b0 15 df 02 bd 06 7f 9a bd 9d c0 08 bd 39 56 0b 3d
       -0.03195103 -0.07543759 -0.033386815 0.034017775
0000c0 e8 39 3a 3d 5b de db 3d 1c 0b d9 bd 12 ee c8 bd
       0.04546538 0.1073577 -0.10597822 -0.09811033
0000d0 7f d2 6e 3d 52 03 c6 bd 7c 69 0e 3e 22 a4 72 3b
       0.058306213 -0.09668602 0.13907427 0.00370241
0000e0 61 f4 82 bd df 4b 87 3e ed 23 b2 3d 28 e9 31 bd
       -0.06394268 0.26425073 0.086982585 -0.043435246
0000f0 06 c3 1a 3e c5 d6 c8 3c 22 f4 0a bd b3 b4 f4 3d
       0.15113458 0.024516473 -0.03392423 0.11948528
000100 f4 6d b2 3d 25 82 1f 3e 86 b7 22 be 5f 08 fe bd
       0.08712378 0.1557699 -0.15890321 -0.124039404
000110 35 0a ff 3d 1d f8 9b 3d b9 30 b1 bd f5 92 49 3c
       0.12453119 0.07615683 -0.08651871 0.012303104
000120 8a b0 01 3e e4 cf fa 3b ff a4 24 bd 3c 89 bd 3d
       0.12665 0.007654177 -0.040196415 0.09254691
000130 08 5c 5f 3d 54 6d 1f 3d fa 4c ce bc 86 54 60 3c
       0.054531127 0.038922623 -0.02518319 0.013692027
000140 0a aa 8b 3d 63 38 cb 3c 44 7b a6 3d 80 c6 c0 3c
       0.06819542 0.02480716 0.0812898 0.023532152
000150 44 f6 35 be c4 51 0a 3e 0b 1d 04 3e de 97 b5 3d
       -0.17769724 0.13507754 0.12901704 0.08866857
000160 3c 71 1d 3d be 22 94 3d ee 5f fd 3d c7 7e 08 be
       0.038438067 0.07233189 0.12371813 -0.13329612
000170 f5 b5 4d 3d 17 d0 d4 3d 32 e4 4d 3c 96 04 76 bd
       0.050222356 0.103912525 0.012566613 -0.060062967
000180 7e 98 52 be c6 ea 9d bd 3f c2 e9 3c 20 b5 c0 bd
       -0.20565984 -0.07710795 0.028535007 -0.09409547
000190 92 62 13 be c1 77 95 3d 68 84 0b bd 93 cc 5d 3d
       -0.1439307 0.07298232 -0.03406182 0.054150175
0001a0 31 1b db 3d 87 30 85 bd 8f 73 44 3c d3 2a a4 3c
       0.10698546 -0.065033965 0.011990442 0.020039951
0001b0 e4 b5 70 bd cc 2c 6d 3d 27 d5 0e 3e 5b 61 00 be
       -0.058767214 0.05790405 0.13948499 -0.12537138
0001c0 52 75 c0 bd
       -0.09397377

model.5.weight f4 [113]
000000 00 d7 02 3f a4 37 19 3f f6 67 00 3f 95 32 15 3f
       0.51109314 0.59850526 0.5015863 0.5828031
000010 0a d1 21 3f 3e f7 f4 3e 96 3c 18 3f 59 cc c0 3e
       0.63209593 0.4784488 0.59467447 0.37655905
000020 89 a9 07 3f 3e 6b 01 3f 6c a9 13 3f 57 e7 f6 3e
       0.52993065 0.50554264 0.5768039 0.48223373
000030 d5 7a 0e 3f 8d 7d fc 3e fc ab fa 3e b9 03 01 3f
       0.55656177 0.49314538 0.4895934 0.50396305
000040 3f 25 f5 3e 6b 5a ef 3e a3 1c 14 3f 6a 45 f8 3e
       0.4787998 0.4674867 0.57856196 0.4849046
000050 56 2e 01 3f ae db 29 3f a1 ee 1c 3f 5c 13 0b 3f
       0.5046133 0.6635083 0.6130162 0.54326415
000060 cc 14 28 3f b5 44 09 3f c3 58 20 3f 56 77 25 3f
       0.65656734 0.53620464 0.6263544 0.6463522
000070 20 65 0d 3f f9 a7 19 3f 20 23 e6 3e 41 16 08 3f
       0.5523243 0.6002193 0.44948673 0.53158957
000080 db a2 25 3f d7 2e 12 3f a9 2d ef 3e c9 60 1e 3f
       0.6470162 0.5710272 0.46714523 0.6186643
000090 9a b0 09 3f f4 4f f7 3e f0 48 1c 3f e1 24 36 3f
       0.537851 0.48303187 0.61048794 0.7115002
0000a0 94 02 11 3f 61 30 00 3f c7 f4 00 3f b6 56 0d 3f
       0.5664456 0.5007382 0.503735 0.55210435
0000b0 7f 35 17 3f 00 4f 1f 3f 05 04 08 3f 00 ed 03 3f
       0.59066004 0.6222992 0.53131133 0.5153351
0000c0 14 03 0d 3f c0 c5 14 3f ac 68 0b 3f 1b d9 0c 3f
       0.5508282 0.5811424 0.5445659 0.55018777
0000d0 e1 b0 22 3f 21 ed 1e 3f 27 a7 19 3f 34 2e fc 3e
       0.63551146 0.6208058 0.6002068 0.49254
0000e0 69 4b 09 3f 58 8b 07 3f 0c 48 0e 3f 77 34 14 3f
       0.5363069 0.52946997 0.55578685 0.57892555
0000f0 ba 44 de 3e 82 0e 1c 3f 78 fd 0e 3f 4b 74 00 3f
       0.4341181 0.6095964 0.5585551 0.5017745
000100 92 0b 16 3f e7 cf 15 3f 6c 9e ee 3e 59 2f e4 3e
       0.58611405 0.5852036 0.4660524 0.44567373
000110 1d c7 fa 3e 18 ef 0d 3f 99 3d 10 3f 8d cb 07 3f
       0.48980036 0.55442953 0.5634399 0.5304497
000120 f6 47 05 3f 18 01 13 3f 60 df d3 3e fb e3 27 3f
       0.5206293 0.57423544 0.4138136 0.65582246
000130 6a 59 f2 3e db 83 1d 3f 57 8a 0e 3f de 4e 0a 3f
       0.47333843 0.6152932 0.5567984 0.5402659
000140 8d 0d 26 3f 1c aa 08 3f cd 50 05 3f 8a 69 0f 3f
       0.64864427 0.53384566 0.5207642 0.56020415
000150 19 87 07 3f 51 f5 fb 3e 96 67 15 3f 7a 57 12 3f
       0.5294052 0.492106 0.58361185 0.5716473
000160 f9 77 2b 3f a4 d5 03 3f 78 24 f3 3e 4f 59 0f 3f
       0.6697994 0.51497865 0.4748876 0.5599565
000170 0b 21 08 3f 20 27 18 3f 04 61 12 3f 1c 31 1d 3f
       0.5317542 0.594347 0.57179284 0.6140306
000180 3e 2a 02 3f 87 fb 15 3f af eb f0 3e d1 bc 15 3f
       0.50845706 0.58586925 0.47054812 0.58491236
000190 4f 22 17 3f f2 5e 02 3f c5 e5 20 3f 00 bb 03 3f
       0.59036726 0.50926125 0.628506 0.51457214
0001a0 d1 00 f4 3e 6c 29 29 3f 59 09 26 3f 91 dc 32 3f
       0.47656873 0.6607883 0.64858013 0.6986781
0001b0 d4 d9 19 3f ab 27 d0 3e 71 f3 02 3f f7 59 00 3f
       0.60098004 0.40655264 0.5115271 0.50137275
0001c0 ff 33 07 3f
       0.52813715

model.5.bias f4 [113]
000000 54 b1 49 be 8a 0a 84 be d2 68 9e bd 2d 11 5b be
       -0.19696552 -0.2578929 -0.07734837 -0.21393271
000010 09 86 fc bd 13 db 80 be 3d 21 6f be 86 86 03 be
       -0.12330253 -0.2516714 -0.23352523 -0.12844285
000020 60 3a 5a be 98 e2 4b be ae d5 9a bd fc 8b d4 bd
       -0.21311331 -0.19910657 -0.075602874 -0.103782624
000030 e0 a9 9b bd 35 56 11 be 62 1c 0d be 3c bc 80 be
       -0.076007605 -0.14193042 -0.13780358 -0.2514361
000040 be d1 0b be 8d 4d e4 bd 17 bc 20 be 3e 5d fa bd
       -0.13654229 -0.11147604 -0.1569675 -0.12224816
000050 86 65 d6 bd 74 26 85 be 55 a0 90 be 5e eb 35 be
       -0.10468583 -0.260059 -0.28247324 -0.17765567
000060 29 46 6a be d8 e5 8b be 3f ca 2f be d6 97 43 be
       -0.22878326 -0.27323794 -0.17166995 -0.1910089
000070 5b b4 bf bd df 71 4c be 54 08 42 be 54 4d 4a be
       -0.09360572 -0.19965313 -0.1894849 -0.19756061
000080 8b 12 86 be 37 41 2e be 4f 86 0a be bf 4a 8a be
       -0.26186022 -0.17017065 -0.13527797 -0.27010152
000090 55 ba 9d bd 1e bf 6f be 3d a1 1a be 30 75 2d be
       -0.07701556 -0.23412749 -0.1510057 -0.16939235
0000a0 3b 54 10 be 4a 41 75 be 53 e2 1c be 18 3e 0a be
       -0.14094631 -0.23950687 -0.15320711 -0.1350025
0000b0 8c eb 6e be 19 e9 0d be 5c 86 c4 3c 40 4e c5 bd
       -0.23332042 -0.13858451 0.023989849 -0.09634066
0000c0 d7 d9 50 be 11 97 f0 bd b9 31 e8 bd 40 ba 36 be
       -0.203956 -0.11747564 -0.11337609 -0.17844486
0000d0 da 1f 36 be 57 cd 5e be 0a cb dc bd d7 09 08 be
       -0.17785588 -0.21758018 -0.10780914 -0.13285004
0000e0 73 86 57 bd cd 07 76 be 51 dc 62 be 20 ec 24 be
       -0.052618455 -0.24026413 -0.22154357 -0.161057
0000f0 38 99 87 3c d2 e7 85 be 18 48 6d be 3d 36 b0 bd
       0.016552553 -0.26153427 -0.23172033 -0.08604095
000100 db 51 71 be a7 3b 89 be 1d 2c f9 bd a3 31 8a bd
       -0.23566382 -0.26803324 -0.12166617 -0.06747749
000110 d6 a3 46 bc 24 17 4b be de fd 5b be 64 ed 0d be
       -0.0121240225 -0.19833046 -0.21483561 -0.13860089
000120 cc 93 47 be f6 aa 17 be f6 d6 63 bd 9a af 55 be
       -0.19489974 -0.1481131 -0.055624925 -0.20867768
000130 c2 c0 e9 bd 88 ab 66 bb 77 4a df bd cf 22 62 be
       -0.11413719 -0.0035197455 -0.10902875 -0.22083591
000140 9e 86 36 be 15 db 77 be 89 36 1d be 11 0d 1c be
       -0.1782479 -0.24204667 -0.15352835 -0.1523936
000150 25 2f db bd 28 f5 dd bd 5a 2b 2d be d8 ba 96 be
       -0.107023515 -0.108377755 -0.16911069 -0.29439425
000160 1a a2 29 bd 7b d5 89 be aa c9 0a be ea e7 ea bd
       -0.041414358 -0.26920685 -0.13553491 -0.11470015
000170 23 f4 2e be ab ef 82 be 28 1e e7 bd f1 2d 57 be
       -0.17085318 -0.25573477 -0.11285049 -0.21013619
000180 31 6d 2c be 26 54 4e be 58 09 e9 bd 87 d4 37 be
       -0.16838528 -0.20149288 -0.11378735 -0.17952166
000190 f3 91 12 be a1 44 84 be 8b 49 a9 be 44 cc 30 bd
       -0.14313488 -0.2583361 -0.3306392 -0.043163553
0001a0 6e 0c 0f be 7d 95 30 be 3b c2 36 be 9e bc 30 be
       -0.13969585 -0.17244525 -0.1784753 -0.17259452
0001b0 22 1f c3 bd 0f 56 ac bd 1c 6b 84 be 7c 36 2f be
       -0.095274225 -0.08414852 -0.25862968 -0.17110628
0001c0 93 cf 01 be
       -0.1267684

model.5.running_mean f4 [113]
000000 be 60 20 be 27 99 eb 3d d3 30 b4 be 2e d0 36 be
       -0.15661904 0.11503821 -0.351935 -0.17852852
000010 f7 b8 e4 bd ab d2 d5 bd 00 c6 45 bd cd 07 0f 3e
       -0.11168092 -0.10440572 -0.04828453 0.1396782
000020 be d9 89 3e b1 91 41 3e d3 81 f8 bd 09 bc bf bc
       0.26923937 0.18903233 -0.12134137 -0.023405092
000030 45 e4 5c be 91 04 22 be e4 cb 03 be cc 9d 5d be
       -0.21571453 -0.15822054 -0.12870747 -0.21642226
000040 a2 2f 38 be 63 8f 0c bc 4c a8 55 3d a7 7c 24 be
       -0.1798692 -0.008579108 0.052162454 -0.16063176
000050 23 28 07 bd a1 f4 16 bc 2a 95 89 be 06 9d c3 3d
       -0.03299726 -0.0092135975 -0.26871616 0.09551434
000060 a7 1c 7f 3e a7 bb fd 3d 01 f7 b2 be c2 17 9c bd
       0.24913274 0.123893075 -0.34954074 -0.07621719
000070 c2 4e 8e bd 4b 87 ed bd 43 d1 24 be 7a 45 de bc
       -0.069486156 -0.11598071 -0.16095452 -0.027132738
000080 97 ed 0a 3f ad f9 80 bc 8e 70 d0 3e 71 e5 20 3e
       0.54268783 -0.015744055 0.40710872 0.15712525
000090 e3 d0 ce 3d f3 3e 69 3e 3c 5c b5 be 5e 17 f9 be
       0.10098436 0.2277792 -0.35421932 -0.4865064
0000a0 93 20 a3 39 b0 85 ea bd 66 78 42 be e9 42 39 3c
       0.00031114052 -0.1145128 -0.18991241 0.0113074565
0000b0 10 6b 0f 3d d1 26 92 be 87 bd 1d be 8c c6 38 be
       0.035014212 -0.2854524 -0.1540433 -0.1804449
0000c0 41 a3 e8 3d 31 5c 9a be 8e f2 62 be 6b b4 d5 bd
       0.11359263 -0.3014846 -0.2216284 -0.104348026
0000d0 72 51 17 be c6 31 ae be 7d 42 90 3d 24 ff 06 3e
       -0.14777163 -0.3402235 0.07043932 0.13183266
0000e0 27 e3 37 be 7d 1e 59 3d ca 42 0d 3e 80 15 ae be
       -0.17957745 0.05300759 0.1379501 -0.34000778
0000f0 bb a9 89 bc 71 c2 a2 bd ef b5 c9 bd c6 4c 58 be
       -0.016804567 -0.07947243 -0.09849154 -0.21123037
000100 92 5d dd bc d3 f8 59 3e ad 78 fd bc db 51 88 be
       -0.027022157 0.21286325 -0.030941332 -0.2662495
000110 39 bd 5f bd b5 b0 e9 bd bf 47 8f 3d 27 c2 a1 3c
       -0.054623816 -0.11410657 0.06996106 0.0197459
000120 94 c3 8c be 33 81 ae 3e b2 74 31 3e 50 6d 4e bd
       -0.27492964 0.34082946 0.17329672 -0.050397217
000130 48 e6 59 3e 2d bb 94 bd 31 95 fa be f3 1c 03 be
       0.21279252 -0.072622634 -0.4894195 -0.12804012
000140 18 3f ad be f2 93 98 bb 1b 5f 45 bc 72 84 93 be
       -0.338372 -0.0046563083 -0.012046601 -0.28811985
000150 fb 8c f0 3c 60 8e ac 3d 90 48 96 3d 39 b9 57 be
       0.0293641 0.084255934 0.07338059 -0.2106675
000160 31 a0 86 be ec ca 5a 3e be 28 e6 bd 67 a5 f2 bd
       -0.2629409 0.21366471 -0.1123824 -0.11847954
000170 6b fd 04 bd c1 8c b9 bd 20 bf e9 bc 6d 4d 77 bd
       -0.03246824 -0.0906005 -0.028533518 -0.060376573
000180 99 37 d6 be 46 16 ef 3d 54 55 9c bd f7 2d 7e be
       -0.41839293 0.1167417 -0.076334625 -0.24822222
000190 a4 6d c5 be af 12 17 3e 10 3d f6 bc 50 3c 60 be
       -0.38560212 0.14753221 -0.030058414 -0.21898007
0001a0 13 a9 86 be f4 8f c7 3d 75 89 d8 3e aa f7 55 be
       -0.26300868 0.09744254 0.4229237 -0.20895258
0001b0 9c 3d 91 be 21 37 19 bc 42 2b 2f 3e fb 72 fe bb
       -0.28367317 -0.009351523 0.17106345 -0.0077651716
0001c0 e7 1a 32 be
       -0.17393075

model.5.running_var f4 [113]
000000 d2 82 9d 3d 9e 88 3a 3d 4e 11 74 3d e7 0e a8 3d
       0.076909676 0.045540445 0.059586816 0.082059674
000010 0c 5a 69 3d 74 da 07 3d 91 68 cf 3d f2 ba e4 3c
       0.05697064 0.033167318 0.10127366 0.027921174
000020 ff 36 ae 3d 0c 98 0f 3d d6 e7 35 3d 5c a2 7f 3d
       0.085065834 0.035057113 0.04441055 0.062410697
000030 8a 6c 59 3d d4 af 21 3d d4 78 0d 3d 11 9c f4 3c
       0.053082027 0.039474323 0.03453906 0.029859575
000040 fa 41 3a 3d d2 e8 23 3d c2 7b 20 3d 6b 61 10 3d
       0.045473076 0.040016957 0.039180525 0.035249155
000050 58 db 0a 3d b9 8f 75 3d ac 90 4b 3d d8 1f 2c 3d
       0.03390059 0.059951518 0.049698517 0.042022556
000060 8b 7b 0e 3d c1 0f 41 3d 29 09 d3 3d 3f ad 9a 3d
       0.03478579 0.047134165 0.103044815 0.07552575
000070 3d 57 3d 3d 4b eb 66 3d 0f 43 43 3d 50 fe 06 3d
       0.046225775 0.056376737 0.047671374 0.032957375
000080 2a a9 20 3d f1 30 86 3d da e5 63 3d 7b 99 21 3d
       0.039223827 0.065523036 0.055639125 0.03945301
000090 7b 03 83 3d 65 72 1f 3d a3 e9 cf 3d f5 22 ab 3d
       0.06397148 0.038927455 0.101519845 0.08356277
0000a0 00 99 ce 3d 36 0a 28 3d df 3a a9 3c 9e 5a 1f 3d
       0.10087776 0.041025363 0.020657955 0.03890478
0000b0 d4 e3 11 3d 51 f3 a5 3d 93 32 3f 3d f7 a0 74 3d
       0.035617664 0.081030495 0.04667909 0.05972382
0000c0 73 46 22 3d be 36 d2 3d e4 a8 1e 3d d5 f9 2b 3d
       0.039617967 0.102643475 0.038735285 0.041986305
0000d0 40 04 9c 3d 4a 49 98 3d e3 0b 4d 3d 6b 57 17 3d
       0.07617998 0.07435854 0.050060164 0.036948603
0000e0 2b 11 51 3d a5 e0 22 3d 0b e3 4c 3d a6 de 46 3d
       0.051041763 0.03976502 0.050021213 0.048552178
0000f0 e2 bb 50 3d b5 8d 1e 3d 49 59 2e 3d 0b 39 58 3d
       0.05096043 0.03870936 0.042565618 0.052788775
000100 cc 66 26 3d 21 5c 4f 3d ff 10 14 3d 76 25 20 3d
       0.04062538 0.05062497 0.03614902 0.039098226
000110 c8 d9 11 3d f6 ed 25 3d 06 62 36 3d f3 81 52 3d
       0.035608083 0.04051014 0.044527076 0.05139346
000120 da 14 3d 3d 65 9c 48 3d 8c c6 1b 3d e3 5b c3 3d
       0.046162464 0.048977274 0.038031146 0.095390104
000130 70 6b 1e 3d 2b e5 b7 3d 13 e4 cb 3d d6 83 52 3d
       0.03867668 0.08979257 0.09955611 0.05139526
000140 34 3b 86 3d 54 56 16 3d ba f6 1d 3d 81 17 94 3d
       0.06554261 0.036703423 0.038565375 0.072310455
000150 c1 5e 7c 3d 6b 5e 4b 3d d2 d0 3b 3d b0 b4 16 3d
       0.061613802 0.04965059 0.045853443 0.03679341
000160 35 3b 88 3d 58 b9 34 3d a2 6a a8 3d ab f8 b2 3d
       0.06651918 0.04412207 0.082234636 0.08738836
000170 b5 96 26 3d a3 96 e0 3c cc 65 82 3d f1 98 6c 3d
       0.04067107 0.02741558 0.063670725 0.057763044
000180 a1 ef 15 3d 9e b1 86 3d e3 67 93 3d 56 10 97 3d
       0.03660548 0.065768465 0.07197549 0.07376163
000190 58 6c 80 3d c8 6b 37 3d af 78 3c 3d 46 74 69 3d
       0.06270665 0.044780523 0.04601353 0.056995653
0001a0 a2 e3 9b 3d d5 d2 6d 3d a2 b1 41 3d f3 20 9a 3d
       0.07611777 0.058062393 0.047288544 0.07525816
0001b0 76 15 46 3d 7e 71 5f 3d 19 f5 60 3d de fd 98 3d
       0.04836031 0.054551594 0.054921243 0.07470296
0001c0 1a ca ac 3d
       0.08436985

model.8.weight f4 [49, 113]
000000 4a 16 0f 3e 50 dd 48 bd 82 d1 b6 3d 4c b1 ee bd
       0.13973346 -0.049039185 0.08926679 -0.116549104
000010 a1 a3 17 3d bb ca c6 3d 8b 46 7c 3c 1e e7 ab 3d
       0.037021283 0.097066365 0.015397678 0.083936915
000020 d8 65 03 bc 88 5e dc 3c e7 85 75 bd ec 4c 5c 3e
       -0.008019887 0.026900545 -0.059942152 0.21513718
000030 7b e4 7e be 8e 0b 31 bd 80 8c 27 bd bf 48 77 be
       -0.24891846 -0.04322391 -0.040905476 -0.24148844
000040 9d fe 3e 3e 95 13 c6 3c 8c e7 7f 3e b9 42 a8 3a
       0.18651815 0.02417926 0.24990672 0.0012837268
000050 82 00 03 be 37 ba 86 3e 35 b6 78 be fc 92 42 be
       -0.12793162 0.26313946 -0.24288256 -0.19001383
000060 d4 11 37 3e 08 0b 9b 3c 38 8f a3 3d c5 c4 d6 bd
       0.17877895 0.018926159 0.07986301 -0.104867496
000070 51 6d 9f 3d 18 83 e3 bb e8 f1 f2 bd 46 b9 e4 3d
       0.07784522 -0.006943118 -0.11862546 0.111681506
000080 25 6a f6 3c ce e9 23 bd e1 f6 26 be a8 d8 24 bd
       0.03007991 -0.040017895 -0.16305114 -0.040245682
000090 32 95 07 3e 74 df 0a 3e 29 6d 6e 3e 64 99 22 3e
       0.13240507 0.13561803 0.23283829 0.15878826
0000a0 56 78 09 3d 69 0c 9f b8 fc 00 45 bc 27 a1 a4 3d
       0.033562027 -7.5840224e-05 -0.0120241605 0.0803855
0000b0 cc 1e 4b 3e a9 b6 70 bb d3 e1 e1 bd 08 79 50 3c
       0.19835967 -0.0036729968 -0.11029401 0.012724169
0000c0 72 a8 c2 3b 17 56 da bd df 65 2f bd 53 cb a9 ba
       0.0059404904 -0.106609516 -0.04282176 -0.0012954272
0000d0 cc 3e 87 be 30 56 49 bd 4f 19 16 3e 8a 17 05 3d
       -0.26415098 -0.04915446 0.14658092 0.03249315
0000e0 f6 64 23 be 66 7a fd bc 76 23 3c 3d 9c 74 8f 3d
       -0.15956482 -0.030942153 0.045932256 0.07004663
0000f0 f7 5c 35 be 32 83 af 3d dc d3 f9 bd 2a 36 c6 3e
       -0.17711245 0.085699454 -0.12198612 0.387132
000100 5e f3 c2 be e3 ea 9b 3d 4f fc 1d bd 1e f6 49 be
       -0.380763 0.076131605 -0.0385707 -0.19722793
000110 cb 62 01 3d d7 97 56 bd 9a 81 07 3e 92 3a 19 bd
       0.031588357 -0.0523909 0.13233033 -0.037409373
000120 fd 1c c6 3d 0b 51 47 3e 1e 3f 86 bd a9 03 a1 bb
       0.09673498 0.19464509 -0.065550074 -0.0049137664
000130 de 02 44 3e 93 bc 37 3d 45 32 95 bd cf d7 14 be
       0.19141719 0.044857573 -0.07284979 -0.1453545
000140 bc c9 23 3e 84 2a 22 3e d7 91 b0 3d 2a 41 11 3d
       0.15994924 0.15836531 0.08621567 0.035462536
000150 c8 e2 ef 3b 01 13 ea bd b9 61 a6 bd 87 d9 8e 3d
       0.0073207356 -0.11429406 -0.08124108 0.06975084
000160 04 9b 39 be 9a 68 f4 3d b9 5d e3 bb 9d 19 19 3d
       -0.1812554 0.11934014 -0.006938663 0.037377942
000170 0f 7d e8 bd a9 bc f3 3d ef 27 58 be e5 9e bc 3c
       -0.11351978 0.119012184 -0.21108983 0.023024986
000180 51 47 b5 3a 2d fd 91 bd d1 03 40 bd 43 d5 83 bc
       0.0013830458 -0.071283676 -0.04687864 -0.016092902
000190 98 78 a3 3d ef b1 1e be 04 04 eb 3a 9f 12 89 3c
       0.07981986 -0.15497564 0.0017930274 0.016732512
0001a0 a7 50 08 be 1c ed b3 bd 5a a7 c6 3d 1a 76 61 3c
       -0.13312016 -0.087854594 0.096998885 0.013761068
0001b0 c1 65 0e 3e 03 b6 29 be 53 ed 07 bc dd e2 ba 3d
       0.13906004 -0.16573338 -0.008296329 0.09125302
0001c0 e6 e6 aa 3d c0 21 fc 3d c0 f1 12 3e 2b d7 8c 3d
       0.08344822 0.12311125 0.14350033 0.068769775
0001d0 c7 4b 76 3e 93 04 a0 be bc 98 2e be 75 d0 8e be
       0.24052344 -0.3125349 -0.17050451 -0.27893415
0001e0 5f 6a 9e bd 3f 25 21 3e 9f 1a 17 be fb 55 16 be
       -0.077351324 0.15736865 -0.14756249 -0.14681236
0001f0 6b 18 47 bd ab f4 91 bd fd e4 4c 3e b6 6e bb 3d
       -0.04860727 -0.07126745 0.20009227 0.09151976
000200 2a f7 2a 3e 10 38 96 bd 80 d6 ed 3c cf bd a1 3c
       0.16695848 -0.07334912 0.029032946 0.019743828
000210 6c da e6 bc 46 9c 78 be 90 7e 74 3e ad cd 16 3e
       -0.028180324 -0.24278364 0.23876405 0.14726897
000220 fd 6a e4 bc ab 92 18 3e 2a 97 97 bd 9f f6 8d bb
       -0.027883047 0.148997 -0.07401879 -0.004332378
000230 19 a6 36 bd 1a e8 86 3e cc 3b 22 be 84 2b 9f bd
       -0.044591997 0.26348954 -0.15843123 -0.07771972
000240 00 61 39 bd a6 01 17 bd 44 3b 0a 3e 38 01 25 3e
       -0.045258522 -0.036866806 0.1349917 0.16113746
000250 15 95 81 be 4e 27 3c 3e 20 2a 48 3d 34 a7 04 bd
       -0.25309053 0.18374369 0.0488683 -0.03238602
000260 0d 8d 94 bd 37 2e 9d bd 8d b8 bd 3d 84 3e 1c 3e
       -0.07253466 -0.076748304 0.09263716 0.15258223
000270 97 3c c2 bd 02 98 f2 bd 12 81 2a bd b7 bf 10 3e
       -0.09484213 -0.118453994 -0.041626997 0.14135633
000280 b1 4e fb bc ff 9c 60 be 26 1b 19 bd ca 51 38 3e
       -0.030677171 -0.2193489 -0.037379406 0.1799995
000290 37 2c 97 3c 9e b9 80 be a7 34 23 3e 0b cf f8 3c
       0.0184537 -0.25141615 0.15938054 0.030372163
0002a0 3a 70 98 3d 63 94 df 3d e0 78 05 be 28 8b dd 3d
       0.074432805 0.109169744 -0.13034391 0.108175576
0002b0 fe af 41 bd 1a 07 90 bd 55 2d 68 3e 7e 76 86 bd
       -0.04728698 -0.070326045 0.22673543 -0.06565569
0002c0 ad ac 26 be 39 0e 2c be 46 38 8d bc 41 b9 d3 3d
       -0.16276808 -0.168023 -0.017238747 0.10338069
0002d0 3a 9d c0 bd 1a 81 67 be 68 d7 df 3c 76 77 f6 3d
       -0.094049886 -0.22607842 0.027324393 0.12034504
0002e0 a9 58 10 bd f6 a0 a6 bd 3d 9b a5 3a 33 13 74 bd
       -0.035240803 -0.081361696 0.0012634766 -0.059588622
0002f0 72 12 1a 3e 1f 35 82 3d 96 24 00 3e 13 78 52 bd
       0.15046099 0.06357788 0.12513956 -0.051384043
000300 69 45 bd bd 65 07 43 3e ff e0 cb bd cd 26 de bd
       -0.092417546 0.1904579 -0.09955024 -0.108472444
000310 82 c8 58 3d 42 0f 8a bd f6 5b 4c 3c 85 f3 df 3d
       0.052925594 -0.067411914 0.012473097 0.109351195
000320 9d 17 03 3e 20 e2 6a be 9e a9 f8 3d 36 c8 28 3e
       0.12801977 -0.22937822 0.12141727 0.16482624
000330 77 7a 49 3c 29 93 16 bd 9b de 6d b9 8a b2 4c 3e
       0.012297264 -0.036761437 -0.00022685008 0.19989982
000340 51 68 97 bd 79 dc 04 3e 5d f8 98 bd a3 e2 8c 3c
       -0.07392944 0.12974729 -0.074692465 0.017197913
000350 75 e7 74 be 11 22 3a be e1 b8 38 3d 85 9f fa 3c
       -0.23916419 -0.18177058 0.04509819 0.030593643
000360 2b 30 8b 38 34 15 57 bd 5e f0 65 bd 95 66 8a bc
       6.6370085e-05 -0.052510455 -0.056137435 -0.016894618
000370 6a bc 1a be 57 89 d8 3c 6e bb 0a bc 31 2e 47 3d
       -0.15110937 0.026432676 -0.008467538 0.048628036
000380 1b 13 2f bd 10 44 0e 3d 63 28 c9 bc 5c 2a c2 bc
       -0.04274283 0.03473288 -0.02455539 -0.02370184
000390 e5 d3 94 bd 55 70 62 be 81 a1 3a 3e 71 da 9f bc
       -0.07266978 -0.22113164 0.18225671 -0.01951334
0003a0 c8 26 fd bd 3d 41 c0 3c 35 c9 a7 bc 16 7d db bc
       -0.123609126 0.023468608 -0.020481685 -0.026793044
0003b0 d4 33 0d 3d 83 0e 85 bb 67 c9 0d 3b a4 16 26 3e
       0.034473255 -0.004060568 0.0021634938 0.16219574
0003c0 16 53 de 3d 05 a5 54 be 04 a9 09 3e 46 3b 00 bd
       0.10855691 -0.20766075 0.1344338 -0.031306528
0003d0 ba 45 2d 3e c4 ea ff bc e5 77 69 bd ee aa b0 be
       0.1692113 -0.031239875 -0.056999106 -0.3450541
0003e0 e5 a8 a9 be ba 59 27 bc 15 fc 2b 3e 7a 86 b5 3c
       -0.3313667 -0.010214264 0.1679538 0.02215885
0003f0 20 c8 9b bd 59 e6 00 3e 6d 58 ba bd 6d ff 85 bd
       -0.0760653 0.1258787 -0.09098897 -0.06542859

model.8.bias f4 [49]
000000 f0 7d bf 3d db 06 8f bd 64 90 1e 3c b3 1c 9d bd
       0.093501925 -0.069837295 0.00967798 -0.076714896
000010 80 03 83 bd 82 f2 6b bc 97 53 50 bd fb db 7e bc
       -0.06397152 -0.01440108 -0.050860967 -0.015555377
000020 a4 ea d5 3c 6e 97 54 bd 52 5a 77 3d 65 64 4e 3d
       0.026112862 -0.051902227 0.06038887 0.050388712
000030 43 93 06 3d 0f 53 bb 3d d6 82 97 bd 53 d0 8c 3d
       0.032855283 0.091467015 -0.07398002 0.06875672
000040 c2 7a 97 bd 17 23 ce bc 12 0f a2 bd 4d e2 8a 3c
       -0.07396461 -0.025163217 -0.07913031 0.016953612
000050 62 eb 1e 3c 73 fa c1 bd 96 b5 17 be f0 1c a2 bc
       0.009699674 -0.094715975 -0.14815363 -0.01978919
000060 7c 5d 29 3c 70 e1 be 3c 37 d5 34 bc 4e 92 84 3d
       0.01033723 0.023300856 -0.0110371625 0.06473218
000070 ae ac 5c bc 9e f0 2e ba 6e 01 f2 bc 36 ca 52 bd
       -0.013468904 -0.0006673428 -0.029541697 -0.051462375
000080 1f 3c 1e ba e8 03 bc 3d 2f b6 10 3c c4 ca 17 bc
       -0.00060361804 0.091804326 0.008832498 -0.009264652
000090 5f 94 1b bd c4 90 44 bd 9e b8 ec bd 87 55 59 bc
       -0.037983295 -0.04798962 -0.115586504 -0.01326502
0000a0 5f 4a 14 be f0 d6 ae 3c 0a 5b f6 bc 0b a9 70 bd
       -0.14481495 0.021342725 -0.030072708 -0.058754962
0000b0 a5 85 0f bd de c0 29 3d 16 50 c6 3d 4d 83 d8 3c
       -0.035039563 0.041443698 0.09683244 0.026429797
0000c0 4f bc 4d 3d
       0.050228413

model.9.weight f4 [49]
000000 71 96 0f 3f 23 23 00 3f 10 5d 11 3f 74 51 0e 3f
       0.5608893 0.50053614 0.5678263 0.5559304
000010 b3 7c 1d 3f 48 0b 0b 3f 3b 67 18 3f a8 10 14 3f
       0.615184 0.5431409 0.5953252 0.57837915
000020 e8 f1 05 3f a3 91 06 3f e1 d6 01 3f 47 05 15 3f
       0.52322245 0.52565974 0.50718504 0.5821118
000030 37 c2 0f 3f 25 c1 09 3f f5 aa 08 3f 49 21 1d 3f
       0.56155723 0.5381034 0.5338586 0.61378914
000040 91 c0 f8 3e 70 a3 08 3f 84 92 17 3f 2d 85 00 3f
       0.48584417 0.53374386 0.5920794 0.5020321
000050 04 3e 0e 3f 5e f6 0b 3f a1 6d 0a 3f 61 58 1a 3f
       0.5556338 0.546728 0.5407353 0.60291106
000060 a1 a2 08 3f 7e 7d 1c 3f 26 1a f0 3e ff 03 0e 3f
       0.5337315 0.61128986 0.4689495 0.5547485
000070 07 42 05 3f 35 d1 f3 3e 8d 23 08 3f 4e ee 14 3f
       0.52053875 0.4762055 0.53179246 0.58176124
000080 cc 7b fd 3e 03 22 10 3f 96 95 15 3f 1a 86 01 3f
       0.49508512 0.563019 0.58431375 0.5059525
000090 5f 6d 09 3f 87 40 10 3f 19 d2 d6 3e 64 ef 07 3f
       0.5368251 0.5634846 0.41957167 0.53099656
0000a0 20 64 07 3f e9 3a 03 3f 51 71 0d 3f 35 85 34 3f
       0.52887154 0.51261765 0.5525103 0.7051576
0000b0 6a 7c ed 3e 7d 8a 10 3f 19 0b 10 3f 8f 25 2f 3f
       0.46383983 0.56461316 0.56266934 0.68416685
0000c0 cb 82 0c 3f
       0.54887074

model.9.bias f4 [49]
000000 05 74 87 bd 92 50 3c be 3e 89 7d be e1 4c 03 be
       -0.06613926 -0.1839011 -0.24759385 -0.12822296
000010 c5 fb cb bd 67 ff ef bd a5 cc 17 be 3e 7a cb bd
       -0.099601306 -0.11718636 -0.1482416 -0.09935425
000020 12 c7 17 be 87 53 61 be 40 6e 86 be af 4c 0c be
       -0.14822033 -0.2200452 -0.2625599 -0.13701127
000030 c2 be 76 be 57 d6 2c be 28 c9 27 be 61 71 a1 be
       -0.24096206 -0.16878639 -0.16385329 -0.31531814
000040 c9 0b 30 be a7 6c 2f be 32 53 2b be a6 39 52 be
       -0.17191996 -0.17131291 -0.16730955 -0.20529804
000050 3c 77 03 be 35 37 17 be bf 8b 98 be e5 3c 93 bd
       -0.12838453 -0.14767154 -0.29794118 -0.07189349
000060 d8 51 18 be 2e d3 8e be ce 3f 81 be 8f a5 b0 bd
       -0.14874971 -0.27895492 -0.25243992 -0.08625328
000070 e3 d5 90 be bd 5b b8 bd ba 7b dc bd 74 b4 97 be
       -0.28288183 -0.09001873 -0.107657865 -0.29629862
000080 24 68 95 bd 1e 12 8d be 3e 87 35 be bc f1 23 bd
       -0.07295254 -0.27552885 -0.17727372 -0.040025458
000090 66 6d b1 bd 41 11 5a be 56 c7 c6 bd 43 8b 0b be
       -0.08663444 -0.21295644 -0.09705989 -0.13627343
0000a0 55 7e 60 be 60 47 37 be 04 f4 48 be ff 6e bb bd
       -0.21923192 -0.17898321 -0.19624335 -0.0915203
0000b0 a4 65 91 bd 1b a7 8c be 36 e9 8a be dc 70 80 be
       -0.070994645 -0.2747124 -0.2713105 -0.25086105
0000c0 b6 14 42 be
       -0.18953213

model.9.running_mean f4 [49]
000000 c8 c7 2e 3e 36 f7 01 be 2f a9 cd bd fe cc 4f be
       0.17068398 -0.1269196 -0.10042035 -0.20293042
000010 e3 5b 81 be c0 f9 15 be f0 f7 04 3c b7 19 d7 be
       -0.25265417 -0.14646053 0.0081157535 -0.42011806
000020 fc 54 5d bd 46 3e 89 bc da 80 96 3d 32 99 26 be
       -0.054036126 -0.016753327 0.07348795 -0.16269377
000030 13 6c 01 bd c7 1c b7 bd 54 44 b7 bc 34 1f 92 be
       -0.03159721 -0.08941036 -0.022371449 -0.2853943
000040 ff ad 5c be ca 5d 47 3d fd a8 da bc e5 06 91 be
       -0.21550749 0.04867343 -0.026691908 -0.28325573
000050 bd 98 a1 3c 1b 50 63 be 34 52 5c be aa 4a 8f be
       0.019726152 -0.22198527 -0.21515733 -0.27986652
000060 a8 c5 c1 be 3c a8 6a bc a4 e4 5b 3b 0d b4 54 be
       -0.37846112 -0.014322337 0.0033553028 -0.20771809
000070 1a 73 3f be 03 21 59 be 46 bd 2b be 30 74 ad bd
       -0.18696252 -0.21203999 -0.16771421 -0.08469427
000080 e1 26 ac bd 35 29 cd 3c ce b5 b2 bb aa 7d 61 3e
       -0.08405853 0.025044063 -0.0054538017 0.22020593
000090 b5 23 21 be bc c8 a9 be 2a 72 ee 3d b3 94 9e be
       -0.15736277 -0.3316096 0.11642869 -0.30972824
0000a0 bc c6 02 bd c7 77 84 be ef e6 c0 be 46 f9 96 bc
       -0.03192781 -0.25872633 -0.37676188 -0.01842941
0000b0 f7 c5 e8 3c ab 9c b7 ba cb d2 2d be 17 fb 51 3e
       0.02841471 -0.0014008483 -0.16974942 0.2050594
0000c0 72 5f 4c bc
       -0.012473928

model.9.running_var f4 [49]
000000 07 c3 c6 3d 92 0a b9 3d ee e2 9b 3d 0f d6 0c 3e
       0.09705167 0.09035219 0.07611643 0.13753532
000010 4c 77 cb 3d b2 7e e2 3d a4 48 03 3e 33 17 c9 3d
       0.099348634 0.110593215 0.12820679 0.09818878
000020 11 7e 08 3e 64 b4 b3 3d fc b9 bd 3d cd 20 db 3d
       0.1332934 0.08774641 0.09263989 0.10699616
000030 27 68 05 3e 1d 1a c5 3d 1e 17 09 3e f5 64 d1 3d
       0.13028012 0.09624121 0.13387725 0.10224334
000040 58 90 17 3e 32 5c c4 3d 93 5f 29 3e c0 28 e1 3d
       0.14801157 0.09587897 0.16540365 0.109941006
000050 ca 4d e4 3d cf a1 15 3e 97 21 17 3e 81 b1 ef 3d
       0.111476496 0.14612506 0.14758907 0.11703778
000060 3f 19 d9 3d ec 41 d5 3d 60 dc 56 3d 31 60 cd 3d
       0.106005184 0.10412964 0.05245626 0.10028113
000070 98 cc 9d 3d c6 f7 d6 3d e1 a5 a6 3d bd a2 f4 3d
       0.07705039 0.10496478 0.08137108 0.11945102
000080 49 9e f4 3d ce cf e7 3d 84 a3 f8 3d f1 12 f9 3d
       0.11944253 0.113189325 0.12140563 0.12161816
000090 bb c8 c3 3d 89 6e b9 3d 1a 1f cf 3d 8e 3b e0 3d
       0.09559771 0.09054286 0.10113354 0.10948859
0000a0 db 9e be 3d 9e 05 06 3e 8f dd 12 3e eb 45 47 3e
       0.09307643 0.1308808 0.1434233 0.19460265
0000b0 6c 15 b9 3d 71 2d c3 3d 8c 8e e7 3d de 5f 4c 3e
       0.09037289 0.09530152 0.113064855 0.19958445
0000c0 05 4b c4 3d
       0.09584621
