foundation_models/Ensemble_model36_DeepHit_LSTM_Both_20250807_173649.pt (torch, 766774 bytes, 20 tensors)

lstm_layers.0.weight_ih_l0 f4 [300, 11]
000000 8f 3f 0e 3e 7c b3 0b 3e 22 3f 0f bd 3a c2 01 3e
       0.13891433 0.13642687 -0.034972318 0.12671748
000010 63 f8 ac 3d 5e 21 06 3d 44 15 ea 3d 9c c8 ed bc
       0.084458135 0.032746665 0.11429837 -0.029026322
000020 b2 0b 24 3e 54 29 44 3d 70 cb 85 bd 7b 6b 3f bd
       0.16020086 0.047890976 -0.06532943 -0.04673336
000030 f2 c4 ef 3d b4 97 e9 3c 6f bf 12 3e 3a aa 1f 3c
       0.11707486 0.02851472 0.14330839 0.009745175
000040 18 ad 43 ba 45 fc c9 bd 03 ff 19 3d 62 2b b7 bc
       -0.00074644526 -0.0986257 0.037596714 -0.022359554
000050 0b d3 9c bc b1 4e 87 bd 95 2b 8c 3e 99 79 ae 3d
       -0.019143602 -0.06606806 0.27377 0.08519287
000060 67 84 5e 3e da a4 00 3c 71 e0 01 3c 45 42 41 3e
       0.21730195 0.007851804 0.007927046 0.18872936
000070 aa 5f 39 3d ad 45 c3 3d 49 c0 6b 3e 8e 98 38 3e
       0.045257248 0.09534774 0.2302257 0.18026945
000080 09 9d a6 3e 73 ac ab bd c4 fb 49 3c e5 ab d8 3c
       0.32541683 -0.083825015 0.012328092 0.026449153
000090 67 29 aa bd d5 18 08 3e 48 62 a7 bd e4 83 73 3d
       -0.08308678 0.13290723 -0.081730425 0.059451953
0000a0 47 c8 00 3d 63 5b 83 bc ed 6b ff bd 2e 22 0e 3e
       0.031441 -0.016034788 -0.12471757 0.13880226
0000b0 c8 72 dc 3c c8 ba ef 3d 57 56 e8 bb b0 44 a8 3d
       0.0269102 0.117055476 -0.0070903706 0.08216226
0000c0 29 eb e7 bd 15 8c c5 3d 52 02 1d 3e a2 83 08 3d
       -0.1132415 0.09645859 0.15332916 0.03332866
0000d0 f8 47 53 3c e4 9a cc 3c b9 3f a8 bd 87 44 01 3c
       0.012895577 0.024976201 -0.08215279 0.007889873
0000e0 6f bb 35 bb c5 41 68 bb fb a5 4d be f3 cb a9 bd
       -0.0027730127 -0.0035439592 -0.20082848 -0.08290853
0000f0 0d bb 38 3d 52 a7 2c 3d 00 5a ea 3d 60 a5 e2 bc
       0.04510026 0.042151757 0.114429474 -0.027666748
000100 a4 22 c7 bc 53 1d 04 3d 43 b5 52 3d be b3 a0 3d
       -0.02430851 0.03225453 0.051442396 0.07846783
000110 8e 20 55 bd a4 01 33 3d b0 34 c2 bc 51 f6 20 bd
       -0.052033 0.043702736 -0.023706764 -0.039297406
000120 35 00 c0 bb 07 e3 9c bd 53 a9 56 3c b9 ec a7 3c
       -0.0058593997 -0.076604895 0.0131018935 0.02049862
000130 16 c9 36 bd 97 1f b3 3d 53 fe 12 bd ee 60 a9 bd
       -0.044625364 0.0874626 -0.035887074 -0.08270441
000140 cb 87 46 3c 36 c3 0f be 03 09 ae bd 53 08 d0 bc
       0.0121173365 -0.14039311 -0.084978126 -0.025394594
000150 c3 ce 21 3b cd 14 25 3d fe c0 a4 bd 5b b6 00 bd
       0.002468989 0.04030304 -0.08044623 -0.031423908
000160 6c 0f 8b 3b 61 40 ab 3d 61 4d e4 bc e1 5e 13 be
       0.004243782 0.08361889 -0.027868928 -0.14391662
000170 37 02 99 bb 54 c8 cc bc 79 70 08 be 6b a2 bf bd
       -0.0046694535 -0.024997868 -0.13324155 -0.09357151
000180 ec e7 0b be 23 a2 61 bd f7 ac ed 3c 4f 33 ef bc
       -0.1366269 -0.055086266 0.02901314 -0.02919927
000190 3c ca 69 3d 81 68 ad 3d dc b4 84 bd 6b 82 ec 3b
       0.05707763 0.08467198 -0.06479809 0.0072176955
0001a0 f9 3f 96 3d 6e b2 6c 3d 98 31 c7 3d 16 e5 f3 3d
       0.073364206 0.05778735 0.09726256 0.11908929
0001b0 c9 f1 59 3e cc 68 6d 3d 2a 4c 8d bd 43 86 e1 bd
       0.2128364 0.05796127 -0.06899293 -0.110119365
0001c0 e1 64 10 be 62 c4 d8 3d e1 bb 28 be b9 62 f2 3c
       -0.14100982 0.10584332 -0.1647792 0.02958809
0001d0 f2 63 cb 3b a7 4d f0 bd 8e 51 a8 3d 88 e3 ec bd
       0.006206983 -0.11733561 0.0821868 -0.11566836
0001e0 df f9 84 be a8 d6 54 bc 87 3e ed bc 66 61 92 3c
       -0.25971887 -0.012990631 -0.02896048 0.017868709
0001f0 56 8d 6c bd ab 5d 8c bd f1 a0 12 3d db 5e dc ba
       -0.057751976 -0.06853803 0.035798017 -0.0016812937
000200 f0 ab 99 bd 7f ed 65 bd be 13 ee bc 98 4b cb bd
       -0.075034976 -0.056134697 -0.029062148 -0.09926528
000210 fb dc 8b be 6e 30 8d bd b3 b6 d1 bd 7e d0 85 be
       -0.27317032 -0.06894003 -0.10239925 -0.2613563
000220 14 84 38 bc 66 59 84 bd 18 8e 17 3c 04 3d ce 3d
       -0.011261959 -0.06462364 0.009250186 0.100702316
000230 bf 45 8b 3d 8e e7 c5 3c 83 a9 0c 3c 46 cc 30 bd
       0.068004124 0.024158265 0.008585337 -0.04316356
000240 f5 d5 00 be 4a 4b 46 bd 45 69 d9 3c d0 ad bf 3d
       -0.12581618 -0.048411645 0.026539454 0.09359324
000250 5b 04 e8 bd f4 36 99 bc 4b bd a3 bd d5 da a6 bd
       -0.11328956 -0.018702962 -0.07995089 -0.08147208
000260 56 30 0c be f0 1f cd 3c c1 4b 70 3e b4 3e 0e 3d
       -0.13690314 0.025039643 0.23466398 0.034727767
000270 c9 4c 5d 3e d3 8e 81 bd d1 5a ae 3d ae 9e 8a 3d
       0.21611322 -0.0632607 0.085134156 0.06768547
000280 75 cf 51 3e 6b 63 2e 3c e0 c0 20 3e 44 5d 4b 3e
       0.20489295 0.01064382 0.15698576 0.19859797
000290 0f 95 81 3e 06 5c 6c 3a 53 b2 a1 3d 57 91 84 3d
       0.25309035 0.0009016398 0.07895341 0.06473034
0002a0 2b e7 8b 3d 06 7b 88 bd 8a 23 df bc a1 55 7e bd
       0.06831201 -0.0666409 -0.027238626 -0.06209338
0002b0 59 4b 8a 3d 4d 3a 15 3d 28 67 77 3d 9c 6d 37 3e
       0.06752653 0.036432553 0.06040111 0.17912906
0002c0 a4 9d 95 bd f5 0f f4 bd 78 ce 1d bd 24 4b 92 3d
       -0.07305458 -0.11917106 -0.038526982 0.07143238
0002d0 58 70 6a bd 93 ce 9e bd 02 2b 19 3d 37 84 16 3c
       -0.057236046 -0.07754245 0.03739453 0.009186796
0002e0 e4 a2 52 3d 13 2c 9e bd 65 b6 19 be 58 a3 05 3e
       0.051424876 -0.0772325 -0.15010984 0.13050592
0002f0 89 a2 11 3e 28 59 42 3e 28 3c e2 3d 23 e5 27 3e
       0.14222158 0.18979323 0.1104663 0.16396002
000300 1e 4d 82 3e d6 a7 60 3d 4b f6 00 3e eb 9f cd 3d
       0.2544946 0.05484756 0.12593953 0.100402676
000310 90 67 68 be 50 06 13 be dc 60 6d 3c b5 4a 1d 3e
       -0.22695756 -0.14357877 0.014488425 0.1536053
000320 6c 86 67 3d 2b 8b a8 3d 7d cf c7 3d f1 2a 7b 3d
       0.05652468 0.08229669 0.09756372 0.06132025
000330 f3 eb cd bd 11 0d 85 bd 95 6c 7b 3d b9 d6 9d bd
       -0.10054769 -0.06496633 0.06138285 -0.07706971
000340 87 ee bb 3d 62 18 b2 bd 01 93 cd bd e5 7f c4 3a
       0.09176355 -0.08696057 -0.100378044 0.0014991729
000350 d0 d5 51 3d e8 05 86 bd 91 57 64 bd 65 d4 89 bd
       0.051229298 -0.06544095 -0.055747572 -0.06729964
000360 d1 97 05 be 4e 4f c2 3d 5b a7 ed bd 67 1c 85 bd
       -0.13046195 0.094877824 -0.11604186 -0.06499558
000370 6d da 45 3d 2c fc 94 bd 0a cf b7 3d 0a dd cd 3d
       0.04830401 -0.072746605 0.089750364 0.100519255
000380 63 56 3d be c8 b9 9a 3d 7e a6 a9 3d f4 51 1d 3d
       -0.18489985 0.07554966 0.08283709 0.038408235
000390 92 83 4f 3d 1a d0 5c 3d 71 26 5f 3d 74 bf 1c 3c
       0.050662585 0.0539094 0.05448002 0.00956713
0003a0 3a 1e 6e 3d 10 f7 81 bd 36 75 93 bd 38 82 14 be
       0.058134295 -0.063459516 -0.072000906 -0.145028
0003b0 70 37 99 3d 13 b1 c2 3d 9c 91 5c bd 7c c1 e4 bc
       0.07481277 0.095064305 -0.0538498 -0.027924292
0003c0 2e 63 bb 3d c2 c6 ca bc eb e1 cf 3d f2 5b 84 3d
       0.091497764 -0.024752978 0.10150512 0.0646285
0003d0 36 b7 04 3e 4e 2c 7a 3e db 65 0d bd b5 5a bf bd
       0.12960514 0.24430963 -0.034520965 -0.09343473
0003e0 a6 23 30 bc 6d ad eb 3d 0e 3d 8c 3c e6 43 03 bd
       -0.010750687 0.11507688 0.017118957 -0.032047175
0003f0 45 27 3e be 94 8e 8e 3b 80 b3 81 ba fd 40 ab 3c
       -0.18569668 0.0043504927 -0.0009895414 0.020905012

lstm_layers.0.weight_hh_l0 f4 [300, 75]
000000 cd 15 11 be 2e 95 4c 3d 72 f6 fd 3d 98 be 73 3d
       -0.14168473 0.049946956 0.12400521 0.059507936
000010 c3 f6 54 3e 0e 44 aa 3c 62 37 ae 3d b7 fc bb bc
       0.20797257 0.020784404 0.08506657 -0.022947652
000020 b4 b6 e6 bc 5a d9 7b bd a4 ae b9 3d 2a a1 78 bd
       -0.028163292 -0.06148658 0.09066513 -0.060700573
000030 63 b3 17 3d 54 84 41 3e 20 bf 0f 3e 58 bc 02 bd
       0.03703631 0.18898135 0.14037752 -0.0319179
000040 f4 48 28 3e 6c eb 81 bd 2a 83 a1 3d d8 d7 a2 3d
       0.1643408 -0.06343731 0.07886346 0.07951325
000050 c0 d1 33 3e 58 e6 d0 3c a6 de 95 bd d0 46 9f 3d
       0.17560482 0.025500461 -0.073178574 0.07777178
000060 b5 a7 51 ba 08 cb 8d bd e6 62 b9 3a 2f a7 71 3d
       -0.00079977076 -0.06923491 0.0014143854 0.05899733
000070 ea c8 66 3e 1a 75 be 3d 2e ad fa 3d 9d 2d b7 3b
       0.2253758 0.09299679 0.12240063 0.0055901543
000080 cc 37 c0 bd c8 0f 39 be c1 0e 29 be d4 d0 bf 3d
       -0.093856424 -0.18072426 -0.16509534 0.09366003
000090 73 14 b4 bd ac 4d b1 3d 81 fa ac 3b 16 c3 b1 bd
       -0.08792963 0.08657393 0.005278886 -0.08679788
0000a0 ec eb 83 bc e5 3b c5 bd 9f 96 b2 bd 6b 86 0f be
       -0.016103707 -0.096305646 -0.08720135 -0.1401612
0000b0 5d 9b 87 3d 30 8d ba 3d 1d eb ec bd 82 a0 e8 bd
       0.0662143 0.09108961 -0.11568282 -0.113587394
0000c0 94 35 36 be 7d 39 91 bd 54 6b 4f 3c 73 b0 13 3d
       -0.17793876 -0.07091043 0.012659866 0.036056947
0000d0 fb 7a 03 3d 50 96 96 bd 2c ed 5d 3a 52 d0 0b be
       0.032099705 -0.073528886 0.00084658223 -0.13653687
0000e0 63 59 17 bd fe ee 18 3c 68 85 74 be c7 97 b8 3d
       -0.03695048 0.009334324 -0.23879015 0.09013324
0000f0 e6 de ab 3d 10 d3 17 3e 48 92 ff bd 11 d5 05 3d
       0.08392124 0.14826608 -0.12479073 0.0326739
000100 af e4 22 3d 33 11 bd 3d e6 88 8e 3d 93 10 ac bd
       0.03976887 0.09231796 0.06959705 -0.08401599
000110 68 49 18 3d 8d 2d bb 3d 16 63 88 bd fb 8e e5 bd
       0.03717938 0.091395475 -0.06659524 -0.11208912
000120 b2 a5 2f be 80 22 3e be d0 2e d7 bc c0 23 b1 3d
       -0.17153051 -0.18567848 -0.02626744 0.08649397
000130 02 a4 31 3d db ef 0b be 80 7f 2a bd c9 ed e0 bd
       0.0433693 -0.13665716 -0.0416255 -0.10982854
000140 24 ee 2e 3d 16 07 ab 3d 8c 98 21 3d 39 b9 c1 3d
       0.042707577 0.08350961 0.03945212 0.094591565
000150 e8 9f 08 bd 9e 1a c9 bd a8 3a ba bd 06 3c ed b9
       -0.033355623 -0.0981953 -0.09093219 -0.00045248884
000160 9f 1e 91 bc c7 1f ac 3d a0 4e 63 bc 9b e5 f5 bd
       -0.017714797 0.084044985 -0.013873726 -0.120066844
000170 d5 2e 1f be 73 fb 1c 3c ae 57 74 3d 60 5c f9 bc
       -0.15545209 0.009581435 0.05965393 -0.030439556
000180 b9 bd 94 3d a2 39 d4 3d 8c fb dc 3d e2 1d bc 3d
       0.07262749 0.10362555 0.10790166 0.09185387
000190 6a c8 a9 bd 96 25 ac bd c5 bb a5 3d 3b cc 39 3d
       -0.08290179 -0.084056064 0.08092455 0.045360785
0001a0 b8 11 ce 3d 64 1c a2 bd 96 ef c1 3c 99 be d1 bb
       0.10061973 -0.07915571 0.023673814 -0.006400895
0001b0 07 6d d0 bd 97 a5 ef 3d 57 ae 27 be 6a 30 ab 3d
       -0.10177045 0.11701506 -0.16375099 0.083588436
0001c0 39 f6 a3 3e f1 2d b8 bc b6 63 c6 bd aa 38 04 3d
       0.3202379 -0.022482844 -0.09686987 0.0322806
0001d0 02 36 3c bd b1 ca 09 be cb 18 00 3e 5a ee eb 3d
       -0.045949943 -0.13456227 0.12509458 0.11520071
0001e0 dd 72 c1 3d ab 06 ff 3d b3 30 2f bd de 91 10 be
       0.094457366 0.12452444 -0.042771053 -0.14118144
0001f0 9c d5 ca bd c7 b9 c0 bd 6e ad b8 3d 0b db e5 bc
       -0.09904024 -0.09410434 0.09017454 -0.02805855
000200 61 b2 33 bd 3b 36 b1 bd b1 16 a8 3d aa 50 90 bd
       -0.043871287 -0.08652922 0.08207453 -0.070466354
000210 89 fe 70 3b 59 1e 5d be 6b a6 42 be 7e c0 99 3b
       0.0036772809 -0.21593608 -0.19008796 0.0046921363
000220 ec b2 c8 bd 21 09 bf 3d ff 17 93 bd dd 5d 8c bc
       -0.09799752 0.09327913 -0.07182311 -0.017134601
000230 25 11 6e bd 3f 92 30 3e ab eb 90 3d 8d 27 62 be
       -0.05812182 0.17243288 0.070762 -0.220854
000240 d5 7c 19 3e fc 13 b2 3b 14 8b e1 bb 86 73 4c bc
       0.14989026 0.005434511 -0.0068830345 -0.012478715
000250 77 63 1c be e1 b6 58 3d dc 0a 8f be ee c6 14 bd
       -0.15272318 0.052908782 -0.27937973 -0.036322527
000260 36 de 88 3d 06 69 01 3e 7c da 27 3e c1 43 72 be
       0.066830084 0.1263772 0.16391939 -0.23658659
000270 78 fb 54 3d 47 3b 20 be ec 3f 19 3d 8d 5a 13 be
       0.05199763 -0.15647613 0.037414476 -0.14390011
000280 e7 10 08 3e 8c 61 46 bd cd af a5 ba d6 59 48 3e
       0.13287698 -0.04843287 -0.0012640894 0.1956552
000290 56 e6 57 3e cf 58 a3 bd 03 2f 85 3e 4c aa 08 3c
       0.2108396 -0.07975923 0.2601243 0.008341383
0002a0 33 d5 b6 3b 08 f6 63 3e 88 d1 80 3c 10 f1 59 3e
       0.0055796145 0.22261822 0.015724912 0.21283364
0002b0 3f 7b 2b bd 6e 8b 8a bd a0 dd 4e be 78 da 55 bc
       -0.041865584 -0.06764875 -0.2020173 -0.013052575
0002c0 c7 be 14 be 0d b2 95 3d b2 16 9b 3e a1 e9 e5 3e
       -0.14525901 0.07309351 0.30290753 0.44904807
0002d0 3c 59 66 3e 4b 92 eb 3d 5e 68 ee bd 32 1c 80 be
       0.22494978 0.115025125 -0.11641 -0.2502151
0002e0 a7 eb c8 bd df 49 6c bc 68 c1 d8 be 89 cf 86 3d
       -0.09810572 -0.014421909 -0.42335057 0.06582553
0002f0 a5 f3 55 3e cc 33 92 be 2e 7a 2a 3c d0 ef 66 3e
       0.20893724 -0.28555143 0.0104051065 0.22552419
000300 b8 87 27 be 8e bb 86 b9 8a eb 07 bc 07 88 1a 3e
       -0.16360366 -0.0002569821 -0.008295903 0.15090953
000310 d0 6c 63 3d 3a 07 55 be ab 75 77 be db d7 14 be
       0.055523694 -0.20803538 -0.2416598 -0.14535467
000320 dc 73 ef bd 1a 0b 88 3e 35 f9 6c be 12 52 81 be
       -0.1169202 0.2657097 -0.2314194 -0.25257927
000330 d3 0a a9 bd b8 2d c9 bd 54 67 80 be 05 6a 0b be
       -0.08254018 -0.09823173 -0.25078833 -0.13614662
000340 51 f4 86 bd 71 97 4c be 66 a8 03 3e 4e ef fd 3c
       -0.065895684 -0.19979645 0.12857208 0.030997898
000350 a5 fc 28 be 86 bc 82 be 33 9a c0 3d a9 6d 64 bd
       -0.16502626 -0.25534457 0.09404411 -0.055768643
000360 0b 30 62 bd 17 db fd bd 99 78 7d bd c8 b0 63 3e
       -0.0552216 -0.12395304 -0.06188259 0.22235405
000370 92 b0 2e 3e 03 ec 9b 3e db 07 75 bd 0f 56 df 3d
       0.17059544 0.304535 -0.059821945 0.10905086
000380 c3 25 f3 3b 42 db 86 3d 73 88 36 3b 76 cd 89 bd
       0.007420273 0.06584789 0.0027852326 -0.06728642
000390 06 a1 58 bd a9 22 c9 bd 33 12 b9 bd e1 47 b3 bd
       -0.05288794 -0.09821064 -0.09036674 -0.08753944
0003a0 23 35 33 3d 34 40 f6 3c e5 ee 03 3e b6 69 97 bd
       0.043751847 0.030059911 0.128841 -0.0739321
0003b0 76 0f 6b 3d 5d ee f5 bd b0 69 a1 bd 27 17 c8 3d
       0.05738779 -0.12008355 -0.078814864 0.09770041
0003c0 ff 9f dc bc ec fe 7b 3d fb 7d 51 bd a4 5c b6 bc
       -0.02693176 0.06152241 -0.051145535 -0.022260971
0003d0 c0 7f b1 bd 8d 20 a1 3d 3e 86 4a bc 26 fc 9c 3d
       -0.086669445 0.07867537 -0.012361107 0.07665281
0003e0 ea 21 89 bd de 79 b8 3b 8e d2 0b be c3 df 77 bd
       -0.06695922 0.005629762 -0.13654539 -0.06051613
0003f0 6b e1 06 bd 5c 26 15 be 82 7a 95 bb dc 9f dc bc
       -0.03292982 -0.14565414 -0.004561723 -0.026931696

lstm_layers.0.bias_ih_l0 f4 [300]
000000 ae b5 c6 3d f2 7c 22 3d 8d 87 f7 3d fd f4 87 bd
       0.097026214 0.03966994 0.12086401 -0.06638525
000010 9c c7 51 3a 7a 5a b0 3d ed 53 bc 3b 27 54 a7 bd
       0.00080024614 0.08611007 0.0057473094 -0.08170348
000020 dd 5a af bd 41 db 36 bd 10 cc 81 3d 23 23 ef bd
       -0.08562253 -0.04464269 0.0633775 -0.11676624
000030 28 7a 9e 3d ea d2 ce 3d 63 a1 87 3c d9 f5 62 3b
       0.07738143 0.100988224 0.016556447 0.00346314
000040 a1 22 2e bd ab 8e ac bd 9e 3f 0c bd 72 97 41 bd
       -0.042513493 -0.08425649 -0.034240358 -0.04726357
000050 31 54 41 bd 45 e9 bd 3d 62 08 ad 3c 7e df 82 bd
       -0.04719943 0.09273008 0.021122161 -0.06390284
000060 b5 7d 9d bd 54 81 c4 bc 59 f3 89 3d 14 0b a9 3d
       -0.07689992 -0.02398745 0.06735868 0.08254066
000070 10 00 73 bd 87 35 be 3d 75 96 97 3d e4 3b ac 3d
       -0.05932623 0.09287553 0.07401744 0.08409861
000080 a7 c6 08 3e a3 b4 71 3d 5e a0 37 bd 88 1e 80 bd
       0.1335703 0.05901016 -0.044830672 -0.062558234
000090 5a 78 99 3d c1 ca 66 3e 54 bd 2b 3d 5d d7 94 bd
       0.07493658 0.22538282 0.041928604 -0.0726764
0000a0 31 30 b5 3c 35 cc 5b 3b 1e 21 54 bd 72 c2 7c 3c
       0.022117706 0.0033538465 -0.051789396 0.015427219
0000b0 73 6f fa bd ba 5a d2 3c 17 68 ae 3d d8 c2 e4 bc
       -0.122282885 0.025678027 0.08515947 -0.02792494
0000c0 5b 73 1e bc fb 91 d1 3d 58 c1 9e bd 4b 09 90 3d
       -0.009671058 0.10232922 -0.07751721 0.070330225
0000d0 5e 24 25 3d 81 ec 5d bd 91 ac 62 bd 4f 73 dc 3d
       0.040317886 -0.054180626 -0.055340353 0.10764181
0000e0 28 2a 53 3d 29 04 f0 bd 6e 8b 0b 3e 1e 4f 10 3b
       0.051553875 -0.117195435 0.13627407 0.0022019814
0000f0 dc 1f 31 bd ff 0e c0 3c 90 e5 9f 3d 54 73 82 3d
       -0.043243274 0.02344465 0.078074574 0.06369653
000100 11 38 09 3d d9 d3 b6 bc 0d 98 0a 3d c3 06 88 3d
       0.033500735 -0.022317814 0.033836413 0.06641915
000110 cb 0f d4 3d f2 b9 f5 3c 7c 0f d2 3b 20 13 f9 bd
       0.10354575 0.029995892 0.0064105373 -0.12161851
000120 6a b0 00 bd b8 b5 46 bd 3c 2d a4 3d 16 f0 b9 3d
       -0.03141824 -0.048513144 0.0801644 0.09078996
000130 20 ed a8 3d 4b 7d e7 3d cb b4 44 3c 95 04 d0 3d
       0.08248353 0.113031946 0.012005995 0.10157124
000140 5c 6c c9 3d 8c 59 fc bd 96 79 8f 3d cf 93 95 bd
       0.09835121 -0.12321767 0.070056126 -0.07303583
000150 57 b7 c5 3d 78 fa a5 3c 69 7a ac bd 67 e7 7a bd
       0.0965411 0.020261034 -0.084217854 -0.06125584
000160 f7 77 1f 3d 7d aa 3e bd e2 12 41 3d ac ca 09 bd
       0.038932767 -0.04654931 0.04713715 -0.03364055
000170 7b 03 9e 3d 2a ef 1c bd c3 83 0b bd dd b8 b9 3d
       0.077155076 -0.038314022 -0.034061205 0.09068463
000180 93 fa 3e bd a6 64 8e 3d 1f 1b e0 bc 68 bd cf bd
       -0.046625685 0.06952791 -0.027356682 -0.10143548
000190 2f 00 0a 3e bc fb e2 bc 4a e0 95 3d 54 fb 3c 3b
       0.13476633 -0.027707927 0.0731817 0.0028836327
0001a0 c3 62 12 3e 1d ed 4c 3c 1d 0d 43 bd 9b ec 26 3d
       0.14295487 0.012507704 -0.047619928 0.04075299
0001b0 37 1d 2e 3c 3e f8 16 bd 66 f7 8a bd df aa 4b 3e
       0.010627083 -0.036857836 -0.06785469 0.19889401
0001c0 b5 30 16 3e fd b7 16 bc 77 fc 39 3c 9d 57 dc bd
       0.14667018 -0.00919914 0.011351696 -0.107588984
0001d0 67 3a 2c 3d aa d3 22 3d 24 92 03 be d5 25 b8 3d
       0.042047884 0.03975264 -0.12848717 0.08991591
0001e0 ba a4 26 bd 9f 17 8d 3c 52 99 98 bd 73 0a 77 3d
       -0.04068444 0.017223177 -0.074511185 0.0603127
0001f0 20 4d 0b bd 3e b8 5e bc ff 7e 94 3d cc c1 e6 3d
       -0.0340091 -0.013593731 0.07250785 0.112674326
000200 f6 58 41 bd 82 60 dc 3d f0 5b ce 3d 44 62 a5 3d
       -0.04720398 0.10760595 0.100761294 0.08075383
000210 fa 3c ef 3d d0 01 97 bd 18 50 4d bc c3 dd 6b 3b
       0.11681552 -0.073733926 -0.012531303 0.0035990335
000220 04 1d bd 3d f9 d0 fa 3d 26 2e 95 3d ec fc 59 3d
       0.0923405 0.122468896 0.07284193 0.05321972
000230 65 b5 a6 bd f2 84 cf bb e8 76 a9 bd af 23 f6 3d
       -0.08140067 -0.006332987 -0.08274633 0.12018525
000240 e1 e2 ca 3d a2 04 c9 3c 12 a4 1b 3b ec f4 07 3d
       0.09906555 0.024538342 0.0023748917 0.03319256
000250 ff 66 6e 3d 03 a3 be 3d 8e 37 de 3d ae ce 9a 3d
       0.058203693 0.09308436 0.1085044 0.07558952
000260 9d f3 ad bd 6b 77 bf bd 0b 1c 69 3d db 7f 9b 3d
       -0.08493731 -0.09348949 0.05691151 0.07592746
000270 c5 b4 c2 3d df 0c 3d bc a5 82 f8 bd f8 4c 8e bd
       0.09507135 -0.011538713 -0.121342935 -0.069482744
000280 d1 76 eb bd b5 b1 da 3b 60 b3 a8 bd 93 25 85 3d
       -0.11497272 0.0066740164 -0.08237338 0.06501307
000290 12 a0 09 bd 73 4b ae 3d d9 76 00 3e f2 b5 f5 ba
       -0.03359992 0.085104845 0.12545337 -0.001874624
0002a0 81 0e 03 be c6 f9 17 be e0 1a 1a 3d ef 26 57 bd
       -0.12798502 -0.14841375 0.037623286 -0.052527364
0002b0 eb d5 9a 3d ef 5c 9c 3d e4 7d 1c 3c 21 be b4 bd
       0.07560333 0.07634913 0.009551499 -0.08825327
0002c0 b3 96 a9 3d 20 40 a4 bd ec fe 09 3d 59 9a fb 39
       0.08280697 -0.080200434 0.033690378 0.0004798945
0002d0 1c 0d 23 bd b4 22 96 3d 87 ec df 3d 53 e3 85 bd
       -0.039807424 0.07330838 0.10933786 -0.06537499
0002e0 c6 59 61 bd 2c 41 21 be 21 58 1a 3e 85 19 91 3d
       -0.055017255 -0.15747517 0.15072681 0.070849456
0002f0 67 8a c9 bd aa 5e e7 39 40 10 b2 3d 0e 4c 0b 3e
       -0.09840851 0.00044130284 0.08694506 0.13603231
000300 98 0d 87 3d 4b 6f b7 3c 53 10 b4 bd c7 25 2e 3e
       0.0659439 0.022391936 -0.08792176 0.17006598
000310 e2 6d fd 3c d8 09 da bb 28 22 f7 3d 81 0b c5 3d
       0.030936185 -0.0066540055 0.12067062 0.09621335
000320 22 ea c7 bd 36 a6 93 bd a8 bf 61 3d 1a 9b 0b bd
       -0.09761454 -0.072094366 0.05511442 -0.034083463
000330 83 29 37 3d a6 f6 d8 bd a7 97 09 3d 9b 74 e8 bd
       0.044717323 -0.105939195 0.033591893 -0.11350366
000340 15 12 ab bc 16 7e 19 be 77 a4 4b bb 9b c4 39 be
       -0.020882646 -0.14989504 -0.003107337 -0.18141405
000350 f6 a5 3c bd 23 c3 fd 3d f8 4c 57 3c 6d a1 13 bd
       -0.04605671 0.12390735 0.013140909 -0.03604262
000360 4d 8a 1c 3d 8e 69 c5 3d a7 f0 d9 bc e0 f9 3f bd
       0.03821783 0.096392736 -0.02660401 -0.04686916
000370 48 fd ab 3d d1 b7 7d bd a3 b7 8e 3c 33 a6 17 3d
       0.08397919 -0.06194288 0.01742155 0.037023734
000380 d6 9d 82 bc b8 a5 fa 3d 73 1d f4 bb dd 38 9a 3d
       -0.015944403 0.122386396 -0.0074497997 0.07530377
000390 d6 e8 a1 3c 93 fa b6 bd bd 21 db 3c dd da 8c 3d
       0.019764345 -0.08934512 0.026749486 0.06877682
0003a0 43 4c 73 3d 7f 63 0f bd 39 2d 73 bc 17 d9 d9 3d
       0.0593989 -0.035006996 -0.014842325 0.1063711
0003b0 0b 86 06 be 6f 90 8c 3d b2 5e eb 3d f9 65 2c 3e
       -0.13137071 0.06863486 0.11492671 0.16835774
0003c0 97 f1 20 3d 61 a8 a1 3d 64 bd 93 bd ac a2 cb 3d
       0.039292898 0.07893444 -0.07213858 0.099431366
0003d0 6c 4a ed 3d 5d a4 72 3d 83 ff 97 3d f3 a6 81 bb
       0.115864605 0.05923878 0.07421782 -0.0039566695
0003e0 8a c5 82 3d 3d 3e bb bc a0 ad 0c 3e 52 09 b2 bb
       0.06385334 -0.022856826 0.13738108 -0.00543324
0003f0 1b 38 2b bd 58 a7 81 bd 96 93 6a bd 4e 82 cd 3d
       -0.041801553 -0.063307464 -0.057269655 0.10034619

lstm_layers.0.bias_hh_l0 f4 [300]
000000 dd 47 11 3e 50 a1 17 3d d5 53 89 3e c1 ae f4 3c
       0.1418757 0.037019074 0.2682177 0.029868485
000010 99 76 2a bd 8c b6 9b bd 67 b7 85 bd 9a 66 22 3d
       -0.04161701 -0.076031774 -0.06529122 0.03964863
000020 64 25 a4 bd c6 8d c6 3d 85 75 00 bd 04 1b bf 3d
       -0.08014944 0.0969501 -0.031362075 0.09331325
000030 59 f1 8a 3d 59 b0 95 3d 4b ff bf 3d 92 dc 1c bd
       0.06784315 0.07309026 0.09374865 -0.03829629
000040 56 fc 82 bc 90 36 12 bc bd 7a f5 bd 5f 62 0a bd
       -0.015989464 -0.0089241415 -0.11986301 -0.03378522
000050 f3 1f f3 bc f9 9f 3b 3d 20 be c8 bd 3f d3 f2 3d
       -0.02967832 0.04580686 -0.098018885 0.11856698
000060 95 e4 82 bd ba d9 75 3d ff 14 9c bd fd 36 94 bc
       -0.06391255 0.060022093 -0.07621192 -0.018092627
000070 c1 df 01 3e cc 23 7a 3e fd 54 c7 3d 22 de 51 bd
       0.12683012 0.24427718 0.09733007 -0.051237233
000080 df d3 08 3e dc a4 da 3c b6 ef 71 bd c0 1a 15 3d
       0.13362072 0.02668994 -0.059066497 0.036402464
000090 dd b1 8d 3c 40 34 1e 3e 03 9e 8a bd 80 45 30 bc
       0.017296726 0.1544962 -0.067684196 -0.010758758
0000a0 b5 a0 a8 bd 73 38 59 3d 9a e2 9f 3d e5 a9 8c bd
       -0.082337774 0.05303235 0.07806893 -0.06868342
0000b0 92 d8 0a bd 3a a8 93 bc 36 f7 44 bd a8 b4 93 3d
       -0.033897944 -0.018024553 -0.04808732 0.07212192
0000c0 7d 23 d9 3d c4 78 fc bc ee 15 b4 bc b1 a9 41 3d
       0.10602472 -0.030819304 -0.021983113 0.04728097
0000d0 ed 05 22 3d 41 6f eb 3b 58 0a 26 bd a4 64 41 bd
       0.039556433 0.0071848934 -0.04053721 -0.04721512
0000e0 01 0e ec 3b 1c 88 43 3d b6 fa 1e 3e b6 ff bc 3d
       0.007203818 0.047737226 0.15525326 0.092284605
0000f0 dc a7 b6 bb 94 d6 f2 3c da 70 79 bd a6 5f 92 3d
       -0.0055742096 0.029643334 -0.06089864 0.0714715
000100 a3 7a 26 3b b3 e5 bd bc 59 70 b4 3d 92 c8 43 3d
       0.0025402687 -0.023180818 0.08810491 0.0477987
000110 46 40 a8 3d 6f cf 8c bd 90 47 ee 3d 9a dd 39 3d
       0.08215384 -0.06875502 0.11634743 0.04537735
000120 7b 80 f2 bd c4 12 57 bd 16 84 89 39 af 81 2e bd
       -0.11840912 -0.05250813 0.00026229088 -0.042604145
000130 ce 0b fd 3c bd 78 22 bc 01 74 a8 3d 72 31 ff 3d
       0.030889418 -0.009916482 0.08225251 0.12460603
000140 ee 00 41 3d fe 26 69 bc cd d6 a0 3d 40 1c bc 3c
       0.047120027 -0.014230488 0.0785347 0.02296269
000150 e9 06 01 3e 4d f8 91 bc 15 e4 5e bd cd 53 7f 3d
       0.12600292 -0.017818594 -0.054416735 0.062335778
000160 76 95 a5 3d e2 c2 f2 bc 1a 66 d9 bb b9 f4 3f 3d
       0.08085148 -0.029633943 -0.006634486 0.046864245
000170 83 71 ea 3b 5d 99 e4 bc 14 d0 30 3d 73 46 fb 3d
       0.007154645 -0.02790516 0.04316719 0.122692965
000180 73 da bd 3c 6b f4 56 bd 07 a9 56 bd c3 14 13 be
       0.023175454 -0.05247919 -0.05240729 -0.14363389
000190 f3 bf 99 bd d7 73 a6 3c a4 f3 99 3d 17 d7 c8 bb
       -0.075073145 0.020318909 0.07517174 -0.0061291563
0001a0 c7 37 0f 3e 22 1d 2b 3d b5 b4 01 bd 63 18 eb 3b
       0.13986121 0.04177583 -0.031666476 0.007174538
0001b0 db 1e 1e bc 50 a3 78 3d 04 dc f2 bc b4 28 51 3e
       -0.009650911 0.060702622 -0.029645927 0.20425683
0001c0 1d c1 1a 3e 02 b0 48 3c 73 1b 0e 3e c1 da 72 bd
       0.1511273 0.012248995 0.13877659 -0.05929065
0001d0 0c 24 7d 3c 00 e5 f0 3d 03 6e 07 be 0c 02 11 bd
       0.015450489 0.11762428 -0.1322556 -0.035402343
0001e0 90 a8 16 3d d6 c9 ad 3c b9 0f be 3c 3a 5f d3 3d
       0.036781847 0.021214407 0.023200857 0.103208974
0001f0 ae 7d ac 3d d3 29 45 3d 00 0e 84 3d 6d 2f b3 3d
       0.08422409 0.04813559 0.06447983 0.0874928
000200 a1 c4 0b 3d 08 84 c7 bc c9 8d bf bd b6 e4 c2 3d
       0.034123067 -0.02435495 -0.09353215 0.095162794
000210 fa 74 2e 3d cc 57 b9 3d ca 2f fd 3c b6 a4 aa 3d
       0.042592026 0.09049949 0.030906577 0.08332197
000220 d9 f4 7e bd 6c 55 f2 b7 ce f2 8c bd 75 b3 4e bd
       -0.062245224 -2.8888426e-05 -0.06882249 -0.050464112
000230 9e eb 19 bd 1d da bc 3d e5 8b a2 bd 6d b9 d5 3d
       -0.037578218 0.09221289 -0.07936839 0.10435758
000240 52 2f e3 3d 12 5a b4 3d 23 ee 0b 3d 3f b7 a4 bb
       0.1109301 0.08806242 0.03416265 -0.0050267274
000250 be 7b be 3d 35 35 f8 bc 87 90 47 3d 3d b8 6a 3d
       0.09300946 -0.030298809 0.048721816 0.05730461
000260 50 fe 85 bd 4c 68 96 3d 89 62 b5 3d ec 38 ad 3a
       -0.06542647 0.07344112 0.08856685 0.0013215817
000270 08 7c 31 3e be 50 65 3d 26 53 eb 3c d3 cd 4e 3d
       0.1733247 0.055985205 0.028726172 0.050489258
000280 c6 23 23 be a0 62 89 3d 04 1e 0c be 91 ec 07 3e
       -0.15931615 0.06708264 -0.13683325 0.13273837
000290 21 13 da 3d 29 e7 99 3c 1c ad 16 3d 44 c6 25 bd
       0.1064818 0.018786984 0.036786184 -0.040472284
0002a0 7a 60 ff bc 3d 0a 95 bd 99 88 f3 3a 0d 8b 9f bd
       -0.031173933 -0.072773434 0.0018580138 -0.07790194
0002b0 bf 75 f6 ba a0 f9 65 bd 0e b6 a8 3d 19 a5 fa bc
       -0.0018803402 -0.056146264 0.08237849 -0.030596303
0002c0 58 7a 03 bd 9c d2 9b 3d 71 48 18 3d cd 65 07 bd
       -0.032099098 0.0760853 0.03717846 -0.03305607
0002d0 c0 90 74 3d ce 0a b9 bd e5 2a 86 3d e8 97 00 3d
       0.059708357 -0.09035264 0.0655115 0.03139487
0002e0 9f 6c 99 bd a7 48 f5 bd ec 6c 1e 3e 35 76 cc 3d
       -0.07491421 -0.11976748 0.15471238 0.09983484
0002f0 66 b1 e4 3c a7 44 5f 3d c2 29 7e 3c 6c 3f 9e 3c
       0.027916621 0.05450883 0.0155128855 0.019317351
000300 f2 2c 0a 3d 2d f5 a7 bd e1 06 ae 3d ff 90 c5 3d
       0.03373427 -0.082010604 0.08497406 0.096467964
000310 60 56 51 bd 78 b7 10 bd 2e b8 4c 3c 14 93 56 3d
       -0.051107764 -0.03533122 0.012495084 0.05238636
000320 36 50 4c 3d 90 00 92 bd b1 c5 c9 3d 29 f1 ce 3d
       0.049881183 -0.071290135 0.0985216 0.101045914
000330 06 45 15 3e 75 49 0e be 60 a4 e2 bb fd 7c d1 3b
       0.14577112 -0.13895209 -0.0069165677 0.0063930736
000340 4f 43 97 3d 6e c8 1f 3d 26 8b 65 3d 97 c8 a8 bd
       0.07385885 0.039009504 0.056040905 -0.082413845
000350 41 48 b0 3d c6 fa fe bc 3a fe 0d 3d 1a d7 60 bc
       0.08607531 -0.031125437 0.034666277 -0.013723159
000360 89 2d 03 3e 2e cd e8 3c 1b 3a b1 3d 03 94 12 be
       0.12810339 0.02841815 0.08653661 -0.14314274
000370 8b 6f 88 3c d0 48 fb bd 57 ed 8e 3d 0e f4 bf bc
       0.01665475 -0.12269747 0.06978863 -0.023431804
000380 8a 31 e3 3d 99 69 3d 3d 5a a0 b6 3d 8e 60 d5 3d
       0.11093433 0.046243284 0.089173034 0.10418807
000390 80 6d eb 3c 32 fc a2 bd 8f 6a 2b 3d 6b 27 9f b8
       0.028738737 -0.07958259 0.04184967 -7.589053e-05
0003a0 d1 db 5a 3d fc f7 64 bd 3b de 91 3c 39 7f 57 bd
       0.05343229 -0.05590056 0.017806163 -0.052611563
0003b0 d3 f0 cf bd 17 ef 2a bd 4b f3 2d 3d e1 63 de 3d
       -0.101533554 -0.04173192 0.04246835 0.10858894
0003c0 5b fa 83 3d 88 29 5f 3d 93 e6 af 3d 6d a7 9d bd
       0.06444236 0.054482967 0.085889004 -0.076979496
0003d0 5f 7c 0d 3e 0b 16 a9 bc 26 5a b9 3d 8c 9f 63 3d
       0.13816975 -0.020640394 0.090503976 0.055572078
0003e0 d1 ff fe 3d 1b d6 80 bd f0 a3 7d bc 49 19 e3 3c
       0.12451137 -0.062908374 -0.01548098 0.027722018
0003f0 a6 56 9b 3d 1c b6 57 bd 20 19 83 bd a8 35 85 bd
       0.07584886 -0.052663907 -0.064012766 -0.06504375

lstm_layers.0.weight_ih_l0_reverse f4 [300, 11]
000000 ce 20 cc 3b f2 f6 b0 bd 47 a3 14 3e 6a ca 64 3b
       0.0062294966 -0.08640851 0.1451541 0.0034910687
000010 9f 6e c0 3d 66 69 89 3c 75 21 1e be c2 43 c9 bd
       0.09396099 0.01677389 -0.1544245 -0.09827377
000020 51 41 32 3d 0e 86 12 3d fa 93 ac bd 2c 60 83 bc
       0.04351932 0.035772376 -0.08426662 -0.01603707
000030 9d f9 ac 3a 8d 56 06 be 9e e0 80 3e aa df e0 3d
       0.0013196949 -0.13118954 0.2517137 0.109801605
000040 fb 9a 56 3d 92 e0 14 3d c3 57 1a 3d 69 48 3b 3e
       0.052393895 0.03634698 0.037681352 0.18289341
000050 7d df 30 bb 0a 04 49 3d db b0 0a 3e ea 1e 1d 3e
       -0.0026988678 0.049076118 0.13544028 0.15343824
000060 11 dd e3 bb c0 3a ed bc e1 2e e1 3d 2b e0 83 3c
       -0.0069538434 -0.028958678 0.109952696 0.016098103
000070 1a d0 33 3c 09 38 2f 3b 90 ac 54 bd a6 fd bc 3d
       0.010974908 0.002673628 -0.05192238 0.09228067
000080 01 b3 30 3e 0b 12 3a 3e 04 34 34 3e 00 ce 83 bd
       0.17255785 0.18170945 0.17597967 -0.06435776
000090 b3 a6 c9 3d 05 b8 6d 3e d0 58 1d 3b 46 d3 30 bc
       0.098462485 0.23214729 0.0024009235 -0.010792559
0000a0 65 3f 7d bc db 6b 11 bb b6 1e 0e 3e f3 e0 c1 3c
       -0.015457009 -0.002218953 0.13878903 0.023666834
0000b0 e5 64 04 3e ec 9a 6c 3d c4 7a bb bd b3 9f f2 3d
       0.12929113 0.057764933 -0.09154275 0.118468665
0000c0 b3 24 bd bd cb b4 a7 3c 7a 93 62 3c 4a f5 f9 ba
       -0.092355154 0.020471951 0.013829106 -0.0019070294
0000d0 be 17 8a ba 00 31 64 bd 56 32 59 3d 44 c6 86 3d
       -0.001053564 -0.055710793 0.05302652 0.06580785
0000e0 96 89 ba bd ea 5b da 3d 21 1d 8c 3d a7 2c 4c 3e
       -0.09108274 0.106620625 0.068414934 0.19938909
0000f0 61 1b 00 3c 08 6e 79 bd a5 db 95 3d d9 de 1c 3e
       0.007819028 -0.06089595 0.073172845 0.15319385
000100 2a f0 dd bd e0 9d 96 3d 86 16 86 bd c4 97 e0 3d
       -0.10836823 0.07354331 -0.06547265 0.10966447
000110 d0 40 a6 3d 8a 32 b5 3d 60 4f a2 bd 9b cc 30 3c
       0.08117831 0.0884753 -0.07925296 0.010790969
000120 20 b4 b2 3d 59 cb 7b 3d 18 26 9c 3c f0 6d 1d 3d
       0.08725762 0.061473224 0.019061133 0.038434923
000130 b6 bb 8a bb ee ff a6 bd 61 2c 09 be a3 f2 a8 bc
       -0.0042338027 -0.081542835 -0.13395835 -0.02062351
000140 7e ef 65 be 1b 79 f3 bd 31 ab 2f be c6 41 d4 3b
       -0.2245464 -0.118883334 -0.17155148 0.0064775674
000150 c2 1c 6a bd 0e 90 4d 3d 8d 4b 5c be 98 f9 8b be
       -0.05715633 0.05018621 -0.21513195 -0.27338862
000160 04 8e 04 3d f2 22 cc bc 0a 1d fe 3d d3 5d fd 3e
       0.032362 -0.024919007 0.124078825 0.49485645
000170 5b 74 e6 3c d5 30 8a 3d 1a 04 87 bd 48 78 86 3d
       0.028131654 0.06747595 -0.06592579 0.065659106
000180 a8 fe 49 bd 49 f8 15 3e c2 db c8 be 04 83 09 3d
       -0.049315125 0.14645495 -0.39230162 0.03357221
000190 4c 8f f8 bd ce e0 4a 3d ff 8c 27 3d f4 ad 61 be
       -0.12136707 0.049530797 0.04090595 -0.22039014
0001a0 2a 85 c6 3d 16 7e 8f 3c 7f c7 7a 3d c6 95 b6 3d
       0.09693368 0.017516177 0.06122541 0.08915286
0001b0 72 80 46 3d f5 77 8d bd d3 2f fe bd 57 e2 a9 3d
       0.04846234 -0.069076456 -0.124114655 0.08295124
0001c0 54 50 d7 3d be eb fa bd b0 ee 5f bd e9 45 56 3d
       0.10513368 -0.122519955 -0.05467099 0.052312765
0001d0 f6 bd d6 3d 00 f8 bc 3c 38 15 c5 3d 71 20 a7 bd
       0.10485451 0.023067474 0.09623188 -0.081604846
0001e0 ae 43 91 3c a3 23 d7 bd be 63 a2 bd 3c 8e d6 bd
       0.017732468 -0.10504844 -0.079291806 -0.10476348
0001f0 84 71 26 bd 80 e7 85 bd 35 59 e5 bd 70 87 68 bd
       -0.0406356 -0.06538296 -0.111986555 -0.05676979
000200 6c c0 07 3d 5c f5 45 3d 3a 7a 17 3e 05 cb ba bd
       0.033142492 0.048329696 0.1479272 -0.09120754
000210 1a 95 0a 3c e4 6b f5 3d 60 12 32 3e 87 6b b2 bd
       0.0084584 0.11983469 0.17389822 -0.087119155
000220 a0 ee fe bd a8 f6 00 3d 7e 74 ad bd f0 af 78 3d
       -0.12447858 0.03148523 -0.08469485 0.060714662
000230 e7 a2 0f 3d db a7 a4 3d ac 0a ab bb ab 8f b9 bc
       0.035067465 0.080398284 -0.005219778 -0.022651514
000240 65 1b f6 bb 8e 98 0b 3e 38 9d f8 3d 6d 1f cf bd
       -0.00751059 0.13632414 0.12139362 -0.10113416
000250 42 5d ae bd d7 27 1d 3e b9 a5 a0 3d 65 4b 90 bc
       -0.08513881 0.15347229 0.07844109 -0.017614076
000260 12 6f a8 bc 97 53 21 3d df ea f4 ba b6 34 02 be
       -0.020560775 0.039386358 -0.001868572 -0.1271542
000270 1a 01 e9 bc 76 30 e0 3d 9d 94 8e bc 10 9a 0d 3e
       -0.028442908 0.10946743 -0.017404849 0.13828301
000280 9a d9 45 3c d3 d4 9b bd 4c 98 aa bd a2 5a 30 be
       0.012075806 -0.076089524 -0.083298296 -0.17222074
000290 c5 b5 bf 3d 83 2d 8a 3d 06 c3 19 be 73 87 cd bd
       0.09360842 0.06746962 -0.15015802 -0.100356005
0002a0 12 75 89 bd 54 cd 18 be 8d bd 25 3d 9a 0b 21 be
       -0.067117825 -0.14922076 0.040463973 -0.15727082
0002b0 16 71 00 3d 0c 5b f8 3d 56 29 29 be fe 14 c5 3c
       0.031357847 0.12126741 -0.16519675 0.024057861
0002c0 e9 68 3c 3c 6e ab 8c 3c da 09 c7 bd 71 3f 99 3d
       0.011499622 0.017171588 -0.09718676 0.074828036
0002d0 19 b9 23 3e f8 73 b6 bd 35 96 46 bd c3 81 d6 3d
       0.15988578 -0.08908838 -0.048483092 0.10473969
0002e0 b9 98 1b bd 83 f4 85 bd 70 71 8f bd 40 68 18 3d
       -0.037987445 -0.065407775 -0.07004058 0.037208796
0002f0 ff b4 4c bd f9 e9 0a 3d f7 0a 9f 3e 33 5e 8e 3d
       -0.0499773 0.03391454 0.31063053 0.06951561
000300 3b 1f 94 3d 33 5e 8d bd bd ad 81 bd b6 a9 b4 bd
       0.07232519 -0.06902733 -0.06331966 -0.08821432
000310 3a 1a 1d 3e 78 c5 2e be 5e 6d b4 3c d9 0e 77 bd
       0.15342036 -0.17067516 0.022024807 -0.060316894
000320 3b 6c 89 bd ff e5 83 bc fb bb 63 bd 01 77 be 3d
       -0.067100964 -0.016100882 -0.055599194 0.09300042
000330 dd 50 11 3d 26 c7 bb 3d 7a 43 3b 3b 8b b7 81 3d
       0.035477508 0.09168844 0.0028574155 0.06333836
000340 01 01 81 bd e5 f4 a0 3b 30 68 80 bd f8 bb 67 bd
       -0.062990196 0.004912006 -0.06269872 -0.056575745
000350 fe d3 8d 3d f2 c2 cf 3d 37 27 cb 3b c9 ce 8d bd
       0.069252 0.10144605 0.006199743 -0.06924207
000360 38 08 a6 3d 1c a9 a5 bc b4 f8 8d 3d 5d 5b b9 3d
       0.08107036 -0.02022224 0.06932202 0.09050629
000370 2c 00 70 3d 2a 05 1a 3e 3b cb 02 3b f7 df da be
       0.058593914 0.15041032 0.001995756 -0.42748997
000380 d5 67 8c 3c c3 cd aa bc 23 c6 62 3b 44 26 bc 3d
       0.017139355 -0.020850068 0.0034602962 0.09186986
000390 5b d6 d3 bb e3 52 22 be 7f 76 31 be 01 dd cf 3d
       -0.006464762 -0.15851931 -0.17330359 0.10149575
0003a0 63 b3 06 3d 77 35 47 3e 27 aa cc 3e 92 e4 8d 3d
       0.03288592 0.19453989 0.39973566 0.06928362
0003b0 1f 86 d8 3d d2 39 a1 3d 99 6c b3 bd 38 76 aa bd
       0.105724566 0.078723565 -0.08760948 -0.0832333
0003c0 e6 f2 0f 3e f1 da 64 be 37 62 f7 3d 4f 63 c8 bd
       0.14057502 -0.22349145 0.1207928 -0.097845666
0003d0 86 ec 93 bd 01 6c b4 bd 81 c9 34 3e 7d 1e 08 bd
       -0.07222848 -0.088096626 0.17654993 -0.0332322
0003e0 eb cd 38 bd 75 6b 03 be 3f 05 ef 3d 2a 09 af bd
       -0.045118254 -0.1283396 0.116709225 -0.0854667
0003f0 83 7f c7 3d 4c b7 16 3d dd fb c5 bd 7d 18 14 be
       0.09741118 0.0367959 -0.0966718 -0.14462467

lstm_layers.0.weight_hh_l0_reverse f4 [300, 75]
000000 f4 b6 a3 bd 44 37 34 be 88 9d c3 3d f8 e3 e7 3d
       -0.0799388 -0.17599207 0.09551531 0.113227785
000010 ba ff ed bd 47 a9 01 bd 4c ea 04 3e ea 72 30 be
       -0.116210416 -0.031655576 0.12980002 -0.17231336
000020 a0 6b b9 3d 6e a6 04 be 58 86 5b 3d 06 06 8d bd
       0.09053731 -0.12954113 0.053594917 -0.068859145
000030 e3 75 cc bd ab a5 14 bd 8c cd ac bd 60 cd 3b 3c
       -0.099834226 -0.036290806 -0.084376425 0.011462539
000040 d8 f0 80 3d 42 ca 4e bd 5d 59 8d bd 0c 63 16 bc
       0.06295937 -0.050485857 -0.0690181 -0.009178888
000050 42 b9 bf 3d 45 14 a4 be a6 0b b0 3d 71 61 da bd
       0.09361507 -0.32046714 0.08595972 -0.10663117
000060 a9 fe 01 3e c7 3e b9 bd 9a 00 b1 3c 15 6e 4b bc
       0.12694801 -0.09045177 0.021606732 -0.012416382
000070 b3 a1 a8 3d be 5f 0f 3e 6d 2d b8 3c 54 90 1e 3d
       0.08233967 0.14001366 0.022482598 0.03871186
000080 51 93 a8 3d 4f d6 2f bd f3 bc 75 3d ee d0 b3 3c
       0.082312234 -0.04292899 0.05999465 0.021950211
000090 e2 c9 0e be 12 87 99 bd 01 8e 2e 3e 66 36 c6 bd
       -0.139442 -0.07496466 0.17046358 -0.096783444
0000a0 d4 56 3a bd b0 b2 a7 bd 67 91 df bc e2 90 76 3d
       -0.045492962 -0.08188379 -0.027291013 0.060196765
0000b0 09 ae 33 bd 31 23 03 be 0c 89 61 3d e2 a8 0a 3e
       -0.043867145 -0.12806393 0.05506234 0.13540986
0000c0 83 06 8c bd a3 da 2e bc 83 7e 0d 3d dc af 7e bc
       -0.068371795 -0.010672244 0.03454448 -0.015544858
0000d0 2a bc 47 bd d1 ab ee 3d 73 72 aa bc 31 dd 9e 3c
       -0.04876343 0.11653865 -0.020806527 0.019392582
0000e0 1b d2 56 bd de af 16 bd 7a 70 c3 3c 6b 61 5c bd
       -0.052446466 -0.036788814 0.023857344 -0.053803843
0000f0 03 b3 c4 bd 31 f1 e6 3c 43 34 5c bb 5e 0f 10 3d
       -0.09604456 0.02819118 -0.0033600486 0.035170905
000100 37 bc 0c bc dc 65 1c 3e 2b 9b 01 be 58 c4 21 bd
       -0.008589796 0.15273231 -0.12656848 -0.03949389
000110 f8 2f 0b bd 73 32 0d be fa 98 39 bc d1 61 58 bd
       -0.033981293 -0.13788776 -0.011327976 -0.05282766
000120 39 b0 c8 3d c9 c1 2b be 8a 88 b1 bd d3 0e 3b bd
       0.09799237 -0.16773142 -0.08668621 -0.045668434
000130 43 10 a1 3d 0e 9a c3 3d e2 75 08 be af 1e 66 3e
       0.0786443 0.09550868 -0.13326219 0.22472642
000140 38 56 16 3e f7 80 cc bd db 50 35 bd 87 b2 00 ba
       0.14681327 -0.099855356 -0.044266563 -0.0004909415
000150 95 10 a4 3d 3c 43 99 bb ea 9b 12 be 5a cd 53 3b
       0.08010975 -0.0046772044 -0.14317289 0.0032318444
000160 ae 45 3a be f4 e6 7c 3d a7 57 3a 3d 07 e1 60 3d
       -0.18190643 0.06174369 0.045493748 0.054902103
000170 3c d0 d4 bc 43 b1 a5 3c 4a f2 62 bd a0 29 6a 3b
       -0.0259782 0.020226127 -0.055406846 0.0035730377
000180 04 c0 7d 39 84 76 d0 bd 6e a3 ac 3b 2f 3e cd bd
       0.00024199492 -0.10178855 0.005268506 -0.10021626
000190 09 d1 87 3d 5b fe 24 3e 66 a2 4d 3c e9 0d 19 be
       0.06631667 0.16112654 0.012550926 -0.14946713
0001a0 b1 ea 1c be b4 2a dc 3d 0e 98 54 bd 04 4a c5 bd
       -0.15323903 0.107503325 -0.051902823 -0.09633258
0001b0 7d 5c c3 3d 38 ad 96 3d b5 5a b3 3d 52 00 75 3d
       0.09539125 0.073572576 0.08757535 0.05981476
0001c0 a8 06 a0 bc 00 6c 8f bc 15 19 04 be 23 af dd bc
       -0.019534424 -0.017507553 -0.12900193 -0.02706105
0001d0 f1 28 09 be f6 ad 90 3b ed dc 28 bd b1 d2 10 bc
       -0.13394524 0.004415269 -0.041226316 -0.008839295
0001e0 f9 0c 41 bd 2f ca 18 bd dd f1 0c bd a4 25 9b 39
       -0.047131512 -0.037302192 -0.034410346 0.00029591948
0001f0 30 48 fa bc b8 e3 56 bc 26 d7 24 3c 5d 46 2e 3e
       -0.030552 -0.013115816 0.010061061 0.17019029
000200 4c 22 1b be e1 04 a5 3c 46 3f 8d bc 38 ec 54 3e
       -0.15149802 0.020143928 -0.017242085 0.20793235
000210 81 98 31 be f2 21 d1 3d 89 88 b4 bc 7e 93 0e 3e
       -0.17343332 0.10211553 -0.022037761 0.13923451
000220 a0 ed 0f bc 18 48 10 be b3 60 07 3e b2 c0 c6 bd
       -0.008784682 -0.14090002 0.13220482 -0.097047225
000230 3b b7 af bd a5 66 0b 3e c7 8e d9 3d 3d a1 06 3d
       -0.0857987 0.13613375 0.10622936 0.032868613
000240 92 d0 40 3d bf a7 72 3b 79 93 df bd 75 02 f7 bd
       0.04707391 0.0037026254 -0.109168 -0.120610155
000250 bc ec b4 3d 87 78 e9 3c 65 dd 85 bd fa 5c 99 bb
       0.08834216 0.028499855 -0.06536368 -0.004680273
000260 de 42 4b bd 00 25 80 bd 46 f2 04 3e 3e d3 9c 3d
       -0.049624316 -0.06257057 0.12983045 0.07657479
000270 13 e9 ba bb a2 4f ec 3d 1f 19 06 be e6 48 b8 bd
       -0.005704054 0.11538626 -0.1309552 -0.08998279
000280 58 2e aa bd 6b 7e c0 3c 84 9f 31 3c 8c 85 5d bc
       -0.083096206 0.02349778 0.010841254 -0.01352061
000290 7e 12 4b bd 26 bc 53 bd 27 f4 fb 3d 7c 92 1a 3e
       -0.049578182 -0.051693104 0.12302428 0.15094942
0002a0 da 48 11 3d 64 06 04 bd 08 01 05 3e c3 b1 2d 3e
       0.035469867 -0.032232657 0.12988675 0.16962342
0002b0 ab 12 6a 3d fc 5c a2 bc ce cf b1 3c fc 51 ba 3d
       0.05714671 -0.019819729 0.021705534 0.090976685
0002c0 6e dd 6a 3d ef 33 72 bd 2b 6e 81 bd d8 4c 2f be
       0.057340078 -0.05913156 -0.06319841 -0.17119157
0002d0 db 48 5c bd d2 65 e0 3d 6f 28 9a bd 96 f1 78 3d
       -0.053780418 0.10956921 -0.07527243 0.06077727
0002e0 d2 df ac 3b 7d 63 30 3e 4b 25 b2 3d 14 0b 75 bd
       0.005275705 0.17225452 0.08698519 -0.059825018
0002f0 ba d2 14 be 88 cb ee 3d 13 da 55 bd fb 9c bb 3c
       -0.14533511 0.11659914 -0.052209925 0.022902003
000300 b8 74 87 3d c2 62 d2 3d f3 6f e6 bc 3c e0 83 3d
       0.06614059 0.10272743 -0.028129553 0.06439254
000310 19 b9 d2 3d 51 50 1f bd 50 8d 48 3c 35 d5 1e 3d
       0.10289211 -0.038894955 0.012240723 0.03877755
000320 7e 6d 90 bd 21 ac 98 3d df a4 b9 bd 7e ad 94 bd
       -0.07052134 0.07454706 -0.0906465 -0.072596535
000330 a7 34 4b 3d 4e 03 b8 bd 29 48 e5 bd be da 1d 3d
       0.04961076 -0.08985005 -0.11195404 0.038538687
000340 8b 18 24 3d 00 c8 9b 3d 4d 61 81 3d 39 3f 5a 3a
       0.04006247 0.07606506 0.06317387 0.0008325461
000350 ac 44 33 3d a7 ce 27 3e fc 4f c7 bd c0 bb c7 3d
       0.043766662 0.16387425 -0.09732053 0.09752607
000360 19 89 03 3d fb e6 68 bd ba e5 b1 bd 08 79 cc 3d
       0.03211317 -0.056860905 -0.08686395 0.099840224
000370 b2 87 0c 3e 56 a3 d9 bd 41 e9 af bb ae b4 35 bd
       0.13723639 -0.10626857 -0.005368382 -0.044361763
000380 a5 8a 87 bd b3 71 8c 3d 41 15 b3 3d ea c3 be bd
       -0.06618241 0.06857624 0.08744288 -0.093147114
000390 e0 c1 bb 3c 83 08 0a bc eb bb 38 3d 8c eb 88 bd
       0.022919595 -0.008424881 0.045101088 -0.06685552
0003a0 c6 be a0 bd e4 a0 d9 3d cf c1 8d bb 1f 74 9c bd
       -0.07848887 0.106263906 -0.0043260823 -0.07639336
0003b0 bd 16 90 bd 79 82 f9 3c 17 1b b0 bd 5b f8 32 3d
       -0.07035587 0.030457722 -0.08598917 0.04369388
0003c0 96 2e dc bd 15 38 60 bd 96 10 a7 bd 4e 6a 7c 3d
       -0.10751073 -0.054740984 -0.081574604 0.061624818
0003d0 0c dd eb 3d a9 24 bb 3d 31 29 69 3e 15 8c d3 3d
       0.11516771 0.09137852 0.2276962 0.10329453
0003e0 25 42 ef bc 3a 2b 1c be e0 c7 5d 3d 6f f6 f2 3c
       -0.029206345 -0.15250865 0.054145694 0.029658524
0003f0 5b 05 a2 bc 27 47 05 be 88 0e e5 3c 5a d1 08 bd
       -0.019777944 -0.13015424 0.02796103 -0.03340278

lstm_layers.0.bias_ih_l0_reverse f4 [300]
000000 14 a5 47 bd 11 71 65 3e ad 17 ba bd 79 2a dd 3c
       -0.048741415 0.22406413 -0.09086547 0.026997792
000010 42 b0 30 3c 3c d5 6f 3d b3 a7 87 bc 48 2c 49 3e
       0.010784211 0.058552966 -0.016559457 0.19645798
000020 20 9b 80 bd d2 1c d7 3d bb 49 b9 3d 15 c6 27 bd
       -0.06279588 0.10503544 0.09047266 -0.04096039
000030 4d 4c c3 bd fa c4 17 3e 1b 8c 0e bd 26 d5 6a 3d
       -0.095360376 0.14821234 -0.034801584 0.05733218
000040 21 e5 2e bd 80 08 7c 3e 96 8b 2c bc 37 82 3a 3d
       -0.042698983 0.24612617 -0.010531327 0.04553434
000050 83 23 f7 3d a2 54 9b 3e af 8f ce 3d 87 fb a7 3d
       0.1206732 0.30338007 0.10085999 0.08202272
000060 00 38 cd 3d e9 ce bf 3d a2 ab d8 3d bb 35 5f 3c
       0.10020447 0.09365637 0.10579611 0.01362365
000070 98 74 3c 3d ab 25 57 bd b0 1d 46 bd f4 d4 32 3e
       0.04600963 -0.052526157 -0.048368156 0.17464048
000080 22 f2 cd bd cc ee 06 3e d3 85 74 bc 8f 66 21 bc
       -0.10055949 0.13177031 -0.014924484 -0.009851112
000090 9c 25 c4 3d f3 d0 8b 3d 8a ee 57 3e 29 14 bb bb
       0.09577486 0.06826963 0.21087089 -0.0057091904
0000a0 5e c7 04 3e 4b 75 12 bd f5 73 fe bc 63 90 a5 3c
       0.12966678 -0.03575639 -0.031061152 0.02021045
0000b0 d5 fd ea 3c 84 c3 f8 bb f2 6b b1 3d ec 00 4d 3d
       0.02868549 -0.0075916667 0.08663167 0.050049707
0000c0 fe 50 19 3d 93 f0 54 3d 39 43 8d 3e 5d ad 0e 3e
       0.037430756 0.051987242 0.2759035 0.1393332
0000d0 b9 48 10 bc b2 ee 7c 3d 1f 32 7c 3c e2 9f 8e 3c
       -0.008806401 0.061751075 0.015392809 0.017410222
0000e0 3b b3 4f 3e ff fa 33 3e aa ca 33 3d ed 3d d7 3d
       0.20283215 0.17576216 0.043894447 0.10509858
0000f0 5a f1 fd bc 62 9e 5a 3d c8 2e 1d 3e b4 20 a9 3d
       -0.030998874 0.053373702 0.15349877 0.08258191
000100 76 55 35 3d 30 e2 2a bd e9 0b 31 3e 29 90 89 bc
       0.044270955 -0.041719615 0.172897 -0.016792374
000110 59 ac e1 bc b6 d3 f8 3b 7b d6 b5 bd 0b fc a4 3c
       -0.027548002 0.0075935973 -0.088787995 0.020139715
000120 ea 18 15 3f 28 1b d3 3d a9 4f 33 bc 53 c1 d2 3d
       0.5824114 0.10307914 -0.010944285 0.1029078
000130 aa b8 59 3d d1 e5 44 3d 66 ac 33 3e 6b 0b 8d 3d
       0.053154625 0.048070733 0.17546234 0.068869434
000140 dc ab b8 3c c8 df 91 3d e0 a0 b3 3e 65 23 d3 3d
       0.022542886 0.07122761 0.35083675 0.10309485
000150 a7 93 de 3c 1a 00 67 bd 89 67 bb bc d6 97 2a 3d
       0.027170015 -0.05639658 -0.022876518 0.04164871
000160 9d fd 55 3d b1 a3 e5 bc 39 8b 27 bd ef a6 f3 bd
       0.052243818 -0.028032156 -0.040904257 -0.118970744
000170 f7 3e 9a 3e c8 98 92 3c 1c ef 07 3d 97 c4 92 3d
       0.30126163 0.017895117 0.033187017 0.07166403
000180 64 37 f2 3e 50 58 eb 3d 61 aa 30 bd 2f 3f d0 bd
       0.47307885 0.11491454 -0.043131236 -0.10168301
000190 8f a6 f3 ba f9 8a 08 bd c9 85 8e 3d 63 f6 63 bd
       -0.0018589067 -0.03333566 0.06959111 -0.055654895
0001a0 b6 22 10 3e 6b dd d0 3d 49 f0 10 be 16 1f 28 bd
       0.14075741 0.10198482 -0.14154162 -0.04104527
0001b0 c9 15 46 bd d4 92 81 bd ac 59 a4 bc ad f4 34 3e
       -0.04836062 -0.06326833 -0.02006229 0.17671461
0001c0 3c e3 33 3e f4 b1 95 3e e2 87 8d bd cd 8e 06 3e
       0.17567152 0.2923733 -0.06910683 0.13140412
0001d0 13 f2 c3 bc 6b 0f 1e bd ae 0e f5 3d ae 1b 67 bd
       -0.02391914 -0.038588922 0.119656906 -0.05642288
0001e0 25 0b 56 3d 9b 28 6f bd 88 b1 96 bd 2f b3 0e 3d
       0.052256722 -0.058388334 -0.0735808 0.03483885
0001f0 16 58 34 3d dd b4 d6 3d 8b e2 41 3e 2c 9f 1c 3e
       0.044029318 0.10483716 0.18934076 0.15295094
000200 3c 62 22 bd b4 a3 d4 bc 7d b8 2f 3a f6 33 19 3e
       -0.039644465 -0.025956966 0.0006703211 0.14961228
000210 0a 43 32 bd d2 7e b5 bc fb 3e 4c 3c 98 83 a3 3d
       -0.043520965 -0.0221552 0.012466188 0.07984084
000220 c2 0c e2 3b a9 c7 6c 3d 12 86 7d 3d 54 04 20 3c
       0.0068984935 0.0578076 0.061895438 0.009766657
000230 89 2d 43 3e 9c ba 9f 3d ef ed b1 bc ff 66 8d bd
       0.19060339 0.07799265 -0.0217199 -0.069044106
000240 4a 6e ab 3d 9c 09 1a 3c 8b 27 81 3d 19 42 1a 3f
       0.08370645 0.009401705 0.0630637 0.60257107
000250 8c 2a e0 3d 5e 14 ef bd d5 4e e8 bd d6 86 3d 3d
       0.10945615 -0.116738066 -0.11343161 0.046271168
000260 a4 01 7a 3d 0f c2 d4 3c cf fa d1 3d 07 b6 f2 3c
       0.06103672 0.02597144 0.10252916 0.029627813
000270 38 78 7c bd 50 6a fe bd 73 bb f7 bd 3b 04 88 3d
       -0.061638087 -0.12422621 -0.120963 0.06641432
000280 9c 2e dd 3b cf f0 28 be 68 66 d5 bd a7 7c 19 bd
       0.006749941 -0.16498111 -0.10419923 -0.037472393
000290 4f d7 7c bc 07 40 36 3d 99 61 12 be 14 4e 92 39
       -0.015432193 0.044494655 -0.14295043 0.00027905463
0002a0 10 41 2d bd 86 6a fc bc 12 c3 a0 bd 91 9b c2 bc
       -0.042298377 -0.030812513 -0.07849707 -0.02375582
0002b0 b1 73 ac 3d 16 58 ad 3d 32 00 b3 bd f7 e5 78 bc
       0.08420504 0.08464067 -0.08740272 -0.015191547
0002c0 8d ad ba bc f9 36 37 3e 6f 67 ce 3c 24 08 9a bb
       -0.022787834 0.17892064 0.025195805 -0.0047006775
0002d0 66 15 93 3d ad fd 88 3c 2a 0e 95 3d c8 c7 30 3e
       0.07181816 0.016722525 0.07278092 0.1726371
0002e0 92 06 92 bd fd b8 be bd f1 86 c1 bd 94 1d 73 3d
       -0.071301594 -0.093126275 -0.09449566 0.05935438
0002f0 72 ae 00 3a 47 49 8a bd b7 40 72 3d 2b cf 31 bd
       0.0004908807 -0.06752258 0.059143748 -0.04341046
000300 92 a6 45 3b 6e de a7 bc 72 a3 b4 bc dd 60 9e bd
       0.0030159098 -0.020491805 -0.022050593 -0.07733319
000310 7c ba b4 3c e2 d7 db bd ff 69 aa bd c3 92 27 3e
       0.022061579 -0.10734536 -0.083209984 0.16364579
000320 b0 e8 74 3d 07 64 a3 3d 94 da 29 bd d0 ac 03 bc
       0.05979222 0.07978063 -0.041468218 -0.008036807
000330 92 b5 45 3d ad 7a d3 3b c7 0b 8d bd 88 9f 1b be
       0.048268862 0.006453833 -0.06887012 -0.15197575
000340 e9 a4 87 bd 61 ad 27 3e 26 1f 1c 3e 16 71 fa bd
       -0.06623251 0.16374733 0.15246257 -0.12228601
000350 17 2a 5f 3d ce 5c 02 3d 8d 5f a7 bd 2d c8 e2 3c
       0.0544835 0.031826787 -0.08172522 0.027683342
000360 13 f9 10 be 59 11 a8 3b 8a bf 5d 3d 8a 06 0c 3d
       -0.14157514 0.005129021 0.054137744 0.034185924
000370 17 95 81 bb 79 fc 03 3d f5 1f 38 3d 72 8f d9 bd
       -0.0039545405 0.0322232 0.04495235 -0.10623063
000380 a5 e2 99 bd 8c 21 0b bd e0 b3 f6 3c b1 97 91 bd
       -0.07513932 -0.03396754 0.030115068 -0.07109011
000390 97 34 04 3e 14 7f ba 3d 61 e6 13 3e 54 12 de 3d
       0.12910686 0.091062695 0.14443351 0.108433396
0003a0 bb c4 b0 3e f4 df 8e bd 68 2c 27 bd e2 d8 d8 3d
       0.34525093 -0.069763094 -0.040813833 0.10588242
0003b0 d0 8c f8 bb f2 d0 d2 3a e2 85 3d bb d0 92 60 3d
       -0.0075851455 0.0016083999 -0.0028918912 0.05482751
0003c0 fa fb 28 3e 5a 5d ae 3d 71 26 ed 3d 9b 4c c2 bd
       0.16502371 0.08513899 0.11579598 -0.094872676
0003d0 44 cc 83 3d c7 60 13 3e b1 e6 55 3e 80 12 00 3e
       0.06435445 0.14392386 0.20888783 0.12507057
0003e0 07 29 0b 3d 27 b2 03 bd 62 50 bd 3c 6b 9a 52 3d
       0.033974674 -0.03215232 0.023109619 0.051416796
0003f0 fa 29 7d bd 72 a7 c2 3d f5 96 a2 bd e3 49 ce 3d
       -0.06180761 0.09504594 -0.07938949 0.100726865
