foundation_models/Ensemble_model25_DeepHit_ANN_Both_20250805_184403.pt (torch, 335422 bytes, 56 tensors)

conv1.weight f4 [32, 1, 3]
00000000: 2771 4e3c 3044 493e c173 59be b495 d0be
00000010: b49e 92be beb2 9dbd 61a2 40be c354 c8be
00000020: e2ee 7b3d 0095 6a3e 09ca 0a3e 624f 3cbc
00000030: 8012 133e fa06 dfbe 03a0 26be 7823 e83d
00000040: cd3e 893d 6463 c63d bc6d f53c f8cd 9b3c
00000050: ef07 23be 0c27 b73e 40b6 66be c721 2e3e
00000060: 001a 5ebe dc97 9fbe b509 a53e 7e33 15be
00000070: f05a 2bbd 0d8d 8e3e 877a 3d3d 0312 8ebd
00000080: 62ac 303d 2bf6 a83d cc4e 803e 4889 01bd
00000090: e2a1 013e 53cf 06be 8bf0 2dbd 2c7f 04be
000000a0: 2b20 6c3d a842 adbe a86b a3be 8629 9fbe
000000b0: 9a90 74be 6c01 b73d 2057 cf3d 52f1 523d
000000c0: 7b24 c3be ca17 6c3e d3b0 693d 2ba4 ddbd
000000d0: f7a6 9d3e a80a 7d3e a875 f1bd 4a69 0abe
000000e0: d6f1 80be 4eec 963e 75ad 62be 17c5 3a3e
000000f0: f343 9c3d cecb b63b 84b6 373d 7c26 973d
00000100: 5586 ebbe b8d6 943c f922 b9bd 03ef e53d
00000110: f1fb f43c 418b 75bc 2fe1 a63d ac27 083e
00000120: e3a1 853e 82a4 eebc 1c19 7fbe 4ad7 63be
00000130: 425c 14bf 77ec dbbc e03e 1f3e 5966 78be
00000140: 5268 253e e0b2 223d cafd f93d bc58 9dbe
00000150: a827 23be d192 8dbe ff9a ccbc 6266 05be
00000160: 6ef3 82be 7743 94be 7924 943b 6435 5ebe
00000170: bf69 97be e49e 733e 9309 3cbe 8a44 f6bd
0.01260022 0.19654918 -0.21235563 -0.40739214 -0.28636706 -0.07700108 -0.18811943 -0.39127168
0.061507113 0.22908401 0.13553633 -0.011493536 0.14362526 -0.4356001 -0.16271977 0.1133489
0.067014314 0.09686926 0.029959552 0.019019112 -0.15920995 0.35771978 -0.2253046 0.17005073
-0.21689606 -0.31170547 0.32233968 -0.14570424 -0.04183477 0.27841988 0.04625943 -0.06937029
0.043133147 0.08250078 0.25060117 -0.031625062 0.1265941 -0.13165025 -0.042465728 -0.12939137
0.057647865 -0.33839917 -0.31918073 -0.31086367 -0.23883286 0.08935818 0.1012404 0.051499672
-0.3811377 0.2305595 0.0570534 -0.10822328 0.30791447 0.24711096 -0.11790019 -0.13516727
-0.25184506 0.2947716 -0.22136481 0.18239246 0.07630148 0.0055784946 0.044851795 0.07380387
-0.46000925 0.018168792 -0.09039874 0.112272285 0.029905291 -0.014986814 0.08148419 0.13296384
0.26100072 -0.029131178 -0.24911922 -0.22250095 -0.57953274 -0.026846154 0.15551329 -0.24257793
0.16153076 0.03972137 0.122066095 -0.3073176 -0.15933096 -0.27651075 -0.024976252 -0.13027337
-0.25576347 -0.28957722 0.0045209494 -0.21700054 -0.29572865 0.2379108 -0.18363027 -0.120247915

conv1.bias f4 [32]
00000000: 8a6a a03e fab9 8d3e cf06 12bc a44b bd3d
00000010: efe6 81be 50e6 a2bd 4209 9c3e 832b 6ebe
00000020: d631 3bbe 0923 523e 2b6d 57be d4c9 16be
00000030: c991 cfbe d9bf c03e 2d84 743e 1a6f 203e
00000040: 6c50 2abe 97bf 53bd a008 9a3e 9ce2 2b3e
00000050: a860 cf3e 9c93 ed3d 381e 62bd 5185 c83d
00000060: bf04 503d 430e 233e e5eb b5be f1a7 ff3d
00000070: b651 1e3e 7d57 673e 6b4a 883e 5156 953e
0.31331283 0.2768095 -0.008912756 0.09242943 -0.253715 -0.07954085 0.30475813 -0.23258786
-0.1828073 0.20521177 -0.21037738 -0.14725429 -0.40540913 0.37646368 0.23878546 0.15667382
-0.16632241 -0.051696386 0.30084705 0.16785663 0.4050343 0.1160042 -0.0552046 0.09791053
0.050785776 0.15923409 -0.35531536 0.12483204 0.15460858 0.22591968 0.26619276 0.29167417

conv2.weight f4 [64, 32, 3]
00000000: b73a b6bd 4040 353d 3f96 b1bc 76d3 a73c
00000010: 44f4 323d 2511 0abd d0fe b4be 2217 ca3c
00000020: 8df6 5d3e 5636 77be f6e7 3a3c cab6 653d
00000030: 595c 633d 1045 a53c 58a0 1fbd cc71 e7bd
00000040: f4b8 3b3d 9fd8 b73b e396 913d 2bd7 123b
00000050: 1152 533c 37b5 01be e43b 2ebd cba3 9b3c
00000060: 233c fd3d 8294 78bc a428 813d 1de8 243d
00000070: 4fc4 813d 3b84 1b3c 93f9 c7bd 621b 493e
00000080: 4afd 0f3d 1702 8cbe 149b 863d b8ed 10bc
00000090: efa3 053d 8715 723b 18c5 333d fa3c bf3d
000000a0: 0207 5dbd b79c 933d c1cf 54bd c2bd 283d
000000b0: 8876 183e 6e2c d8bd 4824 993d 03a5 213d
000000c0: e490 003e ac82 163b 90c1 47be 168e 893c
000000d0: 6750 41bd 81a5 be3d c861 1a3e 6b0f 643d
000000e0: 448b 593d 6892 f3bc af97 06be d8c5 573c
000000f0: e3da d3bd 9401 84bd 7377 a63c 1a67 133e
00000100: c97c 1ebc 994b 153a d97c 393d 7e6a 9d3c
00000110: c362 06be d853 1bbd 7d98 393d ed96 103d
00000120: 8d5e 57be 8594 a3bd 86b4 2b3d 2eda 53be
00000130: c6ee a5bd 9f23 64bd 1b18 ccbd bb46 08bd
00000140: 51e9 223d eddd 46bd 6b6e 5e3d 36cf 643d
00000150: 306f 68bd 21d1 2fbd 08d1 febd b4d0 c6bd
00000160: 6d29 b0b9 ee02 333e 94d9 113e b396 593d
00000170: 2ee0 cf3d 3ff7 1b3d 4902 9bbd 3eea 973b
00000180: b0da 253e c2b3 0e3d 6d21 563d e1b1 a9bb
00000190: e881 b53c f827 0c3e 9ae3 843c dff0 8c3c
000001a0: 4a0c 863e e57b d7bd c5e4 8d3c 4b77 21bd
000001b0: 28f8 6a3c 7513 5abd 4b91 30be 85d1 b5bc
000001c0: ce6a fb3b 25c3 1fbd db5e 4b3e b9d7 a13b
000001d0: 21ba fb3c 5a4e d13d f55d 4bbe 308f 9b3c
000001e0: edd1 fc3d d835 45bc 2cc6 313d 6656 6d3d
000001f0: 7164 953d b129 1c3d 95f1 493d 271e 59be
00000200: e9da 06be bd02 57be d97f 70bd 8b4b 5bbd
00000210: 1bef dfbb 9b92 38bd d207 33bb 10fd 043e
00000220: 759c eebc 54b3 cebc fab7 563e b465 0bbe
00000230: 2646 63be b93b efbd 7c5e 263d 45ec 80bd
00000240: c273 d7bd ff1a 293e 82ba 3cbe f22b 1cbe
00000250: 9d30 b43d 98c5 52bd b854 973c 0466 d3bd
00000260: f01e 663c ebfb 3d3e d02e 92bd f1a4 493d
00000270: 1e45 e93d ecad 5cbc 2499 8a3c 2923 71bc
00000280: 1c48 d1b9 aac2 7f3d da9a 3abe 30df c83d
00000290: e61f 1abe 1a85 183c 4728 b33c 9cdc eebc
000002a0: 60f5 593e 4355 643d 876d 9f3a a95e a73d
000002b0: 49b8 24bc 2aba 01be 731e 4a3e d0b2 32bd
000002c0: e042 e33c b90f 223e fc8f 2cbd 7823 45bc
000002d0: e523 15be 6a19 aebd 6e37 0d3e 6c32 433e
000002e0: 36d6 10be 6690 44be e322 9b3c dfa1 9c3b
000002f0: 1678 6d3d 2ae5 12ba 5caf febd 1678 37bd
00000300: f5c7 4c3d d3cf 3f3d 2f3c 17bd 6eff 063c
00000310: 15cf 04bd d714 8abd a472 b63c 7f73 89bd
00000320: b6d0 f6bc e53b cdbc 16b3 f93c a254 4fbd
00000330: 10f2 1bbc f329 3f3c e3d1 22bd 2794 86bc
00000340: 8697 86bd 79ae 053d 3840 603d 8248 853c
00000350: db8f b13c 630b 98bc 3348 0b3d a8f5 98bc
00000360: 8699 783d 8149 2e3d e73a 6cbc 2785 32bd
00000370: f0fc 1f3c 9c94 723c 291a 39bd 611d 66bd
00000380: af71 24bc 5991 19bd c623 893c 00b6 04bb
00000390: e465 573d c3c2 b6bc 42d4 acbd a7a8 803b
000003a0: 80fe 1f3d 632d e53b d28c 0fbd a902 633d
000003b0: 51aa fdbb eb9f 17bd ef5e 88bc cdd5 3dbd
000003c0: a2b2 69bc 0ddc 01bd 6d49 d03c eb56 dbbc
000003d0: 8fd2 27bd 2b75 01bd cc71 af3c b1f4 c93b
000003e0: 537b 68bd 69a5 40bd 0f3e 36bc 62a4 0ebc
000003f0: fdd2 08bd ff40 6c3b 31ce adbc 1970 bbbb
-0.08897918 0.044250727 -0.021678088 0.020486575 0.04368998 -0.033707757 -0.35350657 0.024669234
0.21676083 -0.24141821 0.011407843 0.056082524 0.05550799 0.020174533 -0.038971275 -0.11301002
0.045830682 0.00561054 0.071088575 0.0022406082 0.012897984 -0.12666784 -0.042537585 0.018999001
0.12364986 -0.015172126 0.0630658 0.040260423 0.06336271 0.009491975 -0.097643994 0.19639352
0.035153665 -0.27345344 0.065725476 -0.008845739 0.032627042 0.00369391 0.043889135 0.09337802
-0.05396176 0.07207625 -0.051955942 0.041196592 0.14888966 -0.10555349 0.07477623 0.039464008
0.12555271 0.002296607 -0.19507432 0.016791385 -0.04719582 0.09308911 0.15076363 0.055678766
0.05311133 -0.029732898 -0.131438 0.013169728 -0.10344484 -0.064456135 0.02032063 0.14394799
-0.009673306 0.0005695164 0.04528508 0.019215818 -0.13123612 -0.037921757 0.04531144 0.035300184
-0.21032162 -0.07987312 0.041920207 -0.20688698 -0.08102183 -0.055698033 -0.09965535 -0.03327058
0.03977329 -0.04855149 0.05430452 0.055861674 -0.05674666 -0.04292405 -0.12442213 -0.09707776
-0.000336002 0.17481586 0.14243156 0.053122234 0.10150181 0.03807759 -0.07568795 0.004636078
0.16196704 0.0348394 0.05227797 -0.0051786755 0.02215667 0.13687122 0.01622181 0.0172047
0.2618125 -0.10521678 0.017321 -0.039420407 0.014341392 -0.053241212 -0.17242925 -0.022194633
0.007672644 -0.039004464 0.19860403 0.004939046 0.030728402 0.102200225 -0.1986006 0.018989176
0.12344728 -0.012036763 0.043401882 0.057943724 0.07294548 0.038125698 0.049302656 -0.21202908
-0.13169445 -0.20997138 -0.058715675 -0.05353884 -0.0068339235 -0.04506169 -0.0027317894 0.1298716
-0.029127339 -0.025231995 0.20968619 -0.13613015 -0.22194728 -0.11681313 0.04061745 -0.06295065
-0.10520126 0.16514204 -0.18430522 -0.15251139 0.08798335 -0.05145797 0.018473014 -0.10322192
0.014045462 0.1855313 -0.07137835 0.049229566 0.11390136 -0.013469201 0.016918726 -0.0147178555
-0.00039917312 0.062441505 -0.18223134 0.09808195 -0.15051231 0.009309078 0.021869792 -0.02915793
0.2128501 0.055745374 0.0012163379 0.08172352 -0.010053703 -0.12668672 0.19738178 -0.04362756
0.02774185 0.1582631 -0.0421295 -0.012032382 -0.14564474 -0.08500941 0.13790676 0.19062203
-0.14144215 -0.19195709 0.018937534 0.0047800387 0.05797585 -0.0005603606 -0.12435791 -0.044792257
0.04999538 0.046829056 -0.03692263 0.00823961 -0.03242405 -0.06742256 0.022271462 -0.06711482
-0.030128818 -0.025052974 0.030480903 -0.05061782 -0.009518161 0.011667716 -0.039750945 -0.016428066
-0.065718696 0.032637093 0.054748744 0.016269926 0.021675041 -0.018560117 0.0340044 -0.018671826
0.060693286 0.042550568 -0.01441834 -0.043584015 0.009764895 0.014805939 -0.045190964 -0.05618036
-0.01003687 -0.03749213 0.01674069 -0.0020250082 0.052587405 -0.022309666 -0.084389225 0.003926355
0.03906107 0.006993936 -0.035046406 0.05542246 -0.0077412506 -0.037017744 -0.01664683 -0.046346474
-0.014263781 -0.031703997 0.025425637 -0.026774844 -0.04097229 -0.03160588 0.021416567 0.0061632027
-0.056758236 -0.047032747 -0.011123194 -0.008706184 -0.03340434 0.0036049483 -0.021216484 -0.00572015

conv2.bias f4 [64]
00000000: d77a 90bd 9fbb 33bd 18cb f33c 6353 d3bd
00000010: 0ddc 5cbe 1efe f73c 480e 543d 4b59 4e3d
00000020: a254 fdbd 3068 89bc a584 db3b 4a0a fabc
00000030: 5f8e 7cbd 93f5 013d 4037 2ebd 223c 973c
00000040: 5b4a 5e3d f237 73bd 248c 053e bfaa 463d
00000050: 1b89 bd3c 9395 8a3b f0a9 b33d 5a93 e0bd
00000060: 455e 903d 828c 81bd 5dff 2e3d f960 80bd
00000070: 73d7 48bd 8324 0f3d 14da 31bc 1865 94bc
00000080: dc04 313d e9f1 d6bc 8785 0dbd bd9c 7e3d
00000090: da7e d83d f486 5bbd 8b15 833d 096d 043d
000000a0: a71c 78bc 88a7 0cbc bc73 263d 051c fc3d
000000b0: f79a ffbc b61d f2bd 8b99 f0bc 20c1 55bd
000000c0: dca3 d5bc 318c eabb a0c7 19bd fc88 2c3c
000000d0: 9e92 74bc 2db5 703d e75f 77bb 0e27 54bc
000000e0: 6131 3dbd 091e a83c 5e64 28bd 5756 8b3c
000000f0: 6e60 ce3b f2f7 aabb 1b9f 23bd ead8 b5bd
-0.0705468 -0.0438801 0.029759929 -0.10318639 -0.21568318 0.03027254 0.051771432 0.050378125
-0.12369658 -0.016773313 0.006699162 -0.030522484 -0.061659213 0.03172834 -0.04253316 0.01846129
0.05427013 -0.059379525 0.1304174 0.04850268 0.023136666 0.0042292564 0.087726474 -0.10965605
0.070492305 -0.06325628 0.042724002 -0.06268496 -0.049033593 0.03494693 -0.0108552165 -0.018114612
0.043217525 -0.026238399 -0.03455117 0.062161196 0.1057107 -0.0535955 0.06400593 0.032330547
-0.01514355 -0.008584864 0.040637717 0.12310032 -0.031201823 -0.11822073 -0.02937009 -0.05218613
-0.02607911 -0.0071578254 -0.037543893 0.0105307065 -0.014927534 0.058766533 -0.0037746371 -0.0129487645
-0.04618967 0.020522134 -0.041111343 0.017008943 0.0062981164 -0.0052175457 -0.039946657 -0.08879264

cause_networks.0.0.weight f4 [124, 128]
00000000: abce 25be 5fb9 24be 9033 b9bd 9398 26bd
00000010: 809f f33c c4c1 e8bc 287e 8dbc 2b3a 51bb
00000020: 810d 47bc 900e 68bc 6e70 913c 569f febb
00000030: 20a3 24bd 3f85 f13c 8f26 ce3c b5ef 2dbc
00000040: 64f8 583b 616a 65bd cde7 41bc 5cd9 d13c
00000050: 6951 5e3d 2c14 adbd 1896 8b3c d3ef f1bb
00000060: 3b43 17bd 9c8d 243c bf14 db3c 6533 463d
00000070: 726d 9bbd 4a45 f4bd 0c63 bf3c ec41 023c
00000080: 5e55 e73a 5e0b 29bd 6712 da3d c4d4 963d
00000090: 5baa 82bc d02e 4abc d772 583d 2a52 6fbd
000000a0: bde8 0d3d ad83 31bd 1770 3f3d 4ac0 a03c
000000b0: ce3d 81bd b6e1 42be 4679 b239 dda3 dcbc
000000c0: 3174 003e 7d83 913b c829 4cbe e4cd db3c
000000d0: 2b73 27bd 00db 733d 8560 96bc 27db a9bc
000000e0: 9784 dd3c bacc 1bbd eb86 57bb 480d 36bc
000000f0: e9c4 223d 19a9 a8bb 7f78 29bd ee10 a839
00000100: 5426 febc 9128 36bd ba1f 05bc 9196 45be
00000110: 343c eabd cabc 6ebd 834c 11bd f703 4dbd
00000120: 9150 03bc 5389 973d fe5c b43d 31f7 193d
00000130: 4227 203d 80fe c7bd 2099 05bd 8c86 93bb
00000140: 100f 64bd 5e18 bdbb 2743 c43c 89fb a93c
00000150: bd2f c63c 1a8d 3bbd 04c5 273d 27eb b0bd
00000160: 19c2 43bd 2043 39bd d952 d1bb 2c0d e0bd
00000170: 115c b63c f8ef 9dbc 7799 02bd d9b8 f53c
00000180: 97bc ae3c 6c2c ec3c 1ceb a4bd 915d afbd
00000190: e187 8ebd 1bc0 bcbd 6a7f 193c f791 efbc
000001a0: f1e1 f63b ffb3 8fbd 3047 fb3c 2886 463d
000001b0: d4a1 8bbd 06d2 a1bd 333c 643c e87f c03c
000001c0: bc13 bfbc 853e 46bc fee9 34bc c1bc c33c
000001d0: a442 b1bc 6488 40bb 78c6 403d 3ae7 f5bc
000001e0: f743 18bd 4e8d ef3b 4c78 5dbd 7386 47bd
000001f0: 60b8 a83c 1bb1 b1bc e052 7e3d e377 b73d
00000200: 92f9 e7bd d7d9 87ba 42b0 543d 711a 893d
00000210: 6f1d b53b 2143 e73c 5e5a afbc 38e0 4e3d
00000220: aa5a a6bd 34ba 82bc 5162 bcbd 5af9 02be
00000230: 43c3 5b3a 84dc 063d 6264 abbd 5763 a43c
00000240: 4f8b 88bd a79b c8bd e1f6 493d ca7c 99bd
00000250: 3174 cc3c a74e 1c3d 2d69 5dbd d0a9 8eb9
00000260: 3403 033b 6b2c c53b bbaa 7bbc 0470 343d
00000270: 47ac 53be fbb4 3d3d 0cbc debc d02c 3bba
00000280: a6e7 57bd 1fb7 543d cb69 bdbc 231e 48be
00000290: e0f6 d4bd 0464 3a3d 5748 1a3c 6f7f febc
000002a0: f703 bfba b1d2 993c 42b1 a43c 753d a2bd
000002b0: 8e9d 143d b566 d53d 1d78 debd 7eea 1abe
000002c0: 806c 78bc edef 403b 848d 223d 2f3d c63d
000002d0: 2416 0a3c b474 6abb ed8d 993c 4710 0dbd
000002e0: e491 95bb 3fdc 37bd 1bf7 82bd 69a7 d8bd
000002f0: 7222 13bd f878 f8bc a8dc c5bb d6ad b73b
00000300: be10 59bd 5f7a 153d 05be 33bd d52f 3d3d
00000310: e885 b9bd b3e4 0ebe 5653 19bd e1db 18bd
00000320: 6aa9 9ebd 3a56 8bbd ca95 9ebc c95b 92bc
00000330: 14ca a83c b1d8 fe3c 11b7 e33b 04dc 75ba
00000340: 1171 30bd b927 e7bc 5064 743c 9761 c73c
00000350: af14 533c 4486 28bd 7958 e73b 5ff9 8ebc
00000360: f507 7cbb 1b1b de3c ffa7 8a3c c357 bc3d
00000370: e11d 31bd 6e33 083d 2019 ea3c 4b60 0e3d
00000380: 8c25 27bd 10fc fe3b 9e2d 3dbd a002 39bc
00000390: 1646 21bd acf3 10bd 1cf5 65bd c51a f0ba
000003a0: 7852 63bd 1ba3 04bd a0e4 8b3b f54d ac3c
000003b0: e486 353d 0249 453d 3a12 25be ac2c f73b
000003c0: 1b8d 48bc 35cd 593d 436d b4bc 666a 31bd
000003d0: 2114 e43c 9403 363d 6a63 293d 8445 8ebb
000003e0: 9aec 493d 4bf3 5bbc cab4 523d aa2c 23b9
000003f0: a374 08bd 5714 5ebd 12fa 73bd d566 d8bd
-0.16192119 -0.16086338 -0.09043038 -0.04067285 0.029739141 -0.028412707 -0.01727207 -0.003192554
-0.012149216 -0.014163628 0.017753806 -0.007770459 -0.04019463 0.029482482 0.02516487 -0.010616233
0.0033107037 -0.056009654 -0.011835051 0.02561634 0.054276858 -0.08451113 0.017039344 -0.0073833256
-0.03692935 0.010043528 0.026743291 0.048388857 -0.075892344 -0.11927278 0.023362659 0.007950287
0.0017649343 -0.041270606 0.10648041 0.073648006 -0.015950372 -0.0123402625 0.052843895 -0.058427967
0.034645785 -0.043338466 0.046737757 0.01962294 -0.063106164 -0.19031414 0.0003404116 -0.026933605
0.12544324 0.0044407235 -0.19937813 0.026831575 -0.040881317 0.059535027 -0.018356571 -0.020734383
0.027040763 -0.03803704 -0.0032886814 -0.011111565 0.03973857 -0.005147111 -0.04137468 0.0003205607
-0.031024136 -0.04447228 -0.00812524 -0.19295718 -0.11437264 -0.058285512 -0.035473358 -0.05005261
-0.008014814 0.073992394 0.08806799 0.037589256 0.03909994 -0.09765339 -0.032616735 -0.004502123
-0.055678427 -0.005770727 0.023957802 0.020749824 0.024192685 -0.04578886 0.040959373 -0.08638602
-0.047792528 -0.04523003 -0.00638805 -0.10940012 0.022260698 -0.019279465 -0.031884637 0.029995369
0.021330161 0.028829776 -0.08052656 -0.08562768 -0.069595106 -0.09216329 0.009368757 -0.029244406
0.0075342585 -0.070167534 0.030673593 0.048467785 -0.06817976 -0.07901387 0.013930368 0.02349849
-0.02332484 -0.012099867 -0.011042116 0.023893716 -0.021638222 -0.002937817 0.047064275 -0.030017484
-0.03717419 0.007310546 -0.054069802 -0.048712205 0.02059573 -0.021690896 0.062090755 0.089584135
-0.11326899 -0.0010364604 0.051925905 0.066944964 0.0055271904 0.028230252 -0.021405395 0.0505068
-0.081227615 -0.01595793 -0.0919844 -0.12790433 0.0008383283 0.032925144 -0.08368756 0.0200669
-0.06667196 -0.09795313 0.049307708 -0.07494505 0.024957748 0.038160946 -0.05405538 -0.0002721087
0.0019990923 0.006017258 -0.01536053 0.04405214 -0.20671187 0.046315175 -0.027189277 -0.00071401615
-0.05271115 0.05193245 -0.023121735 -0.19542746 -0.1039865 0.04550554 0.009416661 -0.031066624
-0.0014573325 0.018777223 0.020104054 -0.07921878 0.03628307 0.104199804 -0.108627535 -0.15128514
-0.015162587 0.0029439882 0.03968574 0.096796386 0.00842813 -0.0035775127 0.018744433 -0.03443935
-0.0045645107 -0.044887777 -0.06394788 -0.10578806 -0.03592152 -0.03033112 -0.006038267 0.0056054397
-0.052994482 0.036493655 -0.04388239 0.046188194 -0.09058744 -0.1395443 -0.03743299 -0.037319068
-0.07747157 -0.06803556 -0.019358534 -0.017866032 0.02060417 0.031109186 0.0069493135 -0.0009378793
-0.04307658 -0.028217183 0.0149164945 0.024338527 0.012883349 -0.04114367 0.0070601073 -0.017452894
-0.0038456891 0.027112534 0.01692581 0.09196427 -0.043241385 0.033252172 0.028576434 0.0347598
-0.040807292 0.007781513 -0.046186082 -0.01129213 -0.03937348 -0.035388634 -0.056141958 -0.0018318525
-0.05549857 -0.032382112 0.0042691976 0.021033267 0.044318095 0.04816533 -0.16120234 0.007543167
-0.012240673 0.053174216 -0.022024756 -0.04331436 0.02784163 0.044437006 0.041354574 -0.004341783
0.049297906 -0.013424705 0.051441945 -0.0001556153 -0.03331436 -0.054218616 -0.059564658 -0.10566489

cause_networks.0.0.bias f4 [124]
00000000: f9a3 0ebd 8fdd cc3c 402b ef3b 485a 813c
00000010: 356f e43c b5b8 473d 7911 25bd 90b8 f8bb
00000020: 10ae 3f3d b9ac 25bd 9e36 98bc f702 1e3b
00000030: fa42 6ebc 5560 61bd d851 043c a35c 5cbd
00000040: 9228 d13d 694b 73bd e7b8 efbd 9191 843d
00000050: 431d 583d 3cc5 6fbd ccdf 233d 3d02 27bd
00000060: 4eaf 5ebc 7cc6 72bd 79c7 6cbc a3de 7d3d
00000070: 57b6 db3c 0a06 68bd 51aa 16bd f8b8 eebb
00000080: 08d0 523d 42fe b03c f09d d53d 247a 77bd
00000090: 0a81 9ebd c913 8ebc 1af2 03bd 90b1 773d
000000a0: b51b 88bc 8d3b 103d 63d9 21bd 1072 b1bc
000000b0: 52ce 1ebd 2a29 b4bc a1da 4c3c 0131 0cbd
000000c0: 2cb4 dfbc a464 3bbd f497 aebc 6e3f cabb
000000d0: 50a6 eb3c 0784 28bd 260e bcbd 16ac 51bc
000000e0: 0dd6 1f3d fa94 b13c fbc6 5bbd 5ab7 023b
000000f0: c139 613b d71a ce3c 7c0f 2abd 5761 5a3d
00000100: 982c 063d 386f e6ba c1a9 9c3d b07c 023d
00000110: 856f 513d f86d 8bbc 360a 59bd 2b0a a63b
00000120: 478f b1bd 43fd 2abd 4142 ea3d a892 36bd
00000130: 7883 15bd fa07 7bba c283 97bc 74a2 87bd
00000140: 77be 5f3c 1de4 9cbd bcce 2a3d d811 a0bd
00000150: dfb2 8d3c 8ae4 5d3d 0a45 0c3e 9f2d 693d
00000160: d2c8 88bd b4b6 94bd 4718 513c 1d25 a3bc
00000170: 0c36 043d ad0b 94bc 7fb8 4fbc f23b f93a
00000180: 6ff3 453d 1d32 59bc f875 21bb 12f3 a3bd
00000190: b00c 17bc fc63 eb3c d533 07be 5484 5b3d
000001a0: 1d49 02bd a425 6d3c 2442 f0bc d220 f4bd
000001b0: a841 5e3d 67b8 4d3d 298e 05bd 16a8 623c
000001c0: 0a00 313d 9b31 2ebb 6ef1 03be 5d86 183a
000001d0: 0e23 a8bc afe3 123d dea4 1bbc 795c 1cbc
000001e0: 66a5 813d 9c9e 973d 5523 fe39 99aa 65bd
-0.034824345 0.025007991 0.007298857 0.01579012 0.027885059 0.048760135 -0.040299866 -0.007590361
0.04679686 -0.040447924 -0.018580731 0.0024110654 -0.014542336 -0.05502351 0.008076154 -0.053799283
0.10212816 -0.05939809 -0.11705189 0.06473077 0.05276228 -0.058537707 0.04000835 -0.04077362
-0.013591601 -0.05927132 -0.014451855 0.0619799 0.026820345 -0.056646384 -0.03678352 -0.0072852336
0.051467925 0.021605615 0.10430515 -0.060419217 -0.07739456 -0.017343419 -0.032213308 0.06047207
-0.016614774 0.035213042 -0.039513957 -0.021660835 -0.03877098 -0.021992285 0.012503297 -0.03422642
-0.027307592 -0.045750275 -0.021312691 -0.006172112 0.028765827 -0.041141536 -0.09182386 -0.012797376
0.039022494 0.021677483 -0.05365656 0.0019945712 0.00343667 0.025159283 -0.041518673 0.053315487
0.03275737 -0.0017580753 0.076495655 0.031857193 0.051131744 -0.01702021 -0.052988254 0.00506713
-0.08669906 -0.041745435 0.11438418 -0.044573456 -0.03650233 -0.0009576079 -0.018495444 -0.06622782
0.01365625 -0.07660697 0.041701064 -0.078159034 0.017297206 0.05417303 0.13698211 0.056928273
-0.066789284 -0.0726141 0.012762136 -0.019915158 0.032278106 -0.018071974 -0.012678265 0.0019015057
0.04832786 -0.013256577 -0.0024636965 -0.08005346 -0.0092193335 0.0287342 -0.13203366 0.053592995
-0.031808008 0.014474306 -0.029328413 -0.119203225 0.054261833 0.050224688 -0.032606278 0.01383402
0.043212928 -0.002657986 -0.12885067 0.00058183615 -0.020524528 0.035861667 -0.009499757 -0.009543532
0.063303754 0.07403299 0.0004847298 -0.056070898

cause_networks.0.1.weight f4 [124]
00000000: f11d 2b3f 4efe 073f 08ba 2b3f c68d df3e
00000010: 19b4 f13e e8d4 153f 55db 0f3f 2de2 f13e
00000020: 28df 1e3f 5bf2 0c3f 2ae0 143f 5f1b e03e
00000030: 4751 213f d61a 063f 1cc7 1a3f 5c90 f63e
00000040: dd80 3a3f 813a 2e3f 885a f43e d53f 0d3f
00000050: e9dd 143f 5963 fa3e 1eb3 2d3f 99bb 093f
00000060: b081 263f 2c6b 273f 85b5 043f 4bcb ed3e
00000070: 8df3 253f 3914 2d3f ca3e 293f 98b1 093f
00000080: 491f 213f dfce 1e3f 6ee0 e13e cc06 003f
00000090: 3798 1b3f 2fb3 493f ca0a 203f b14f 1d3f
000000a0: f436 013f 4c20 1f3f 460f f93e b523 143f
000000b0: cab1 283f ed8b 2a3f 82c1 173f dfb1 0c3f
000000c0: a158 313f 31e6 0a3f 9eb6 243f 98da 3f3f
000000d0: 7dfd 163f 6f96 ea3e f5ce 0e3f bb94 f33e
000000e0: 452b 243f 69e0 213f 123d 243f 4a55 263f
000000f0: e79a 1b3f f3a4 df3e d27a 3a3f 86db 213f
00000100: 7531 1a3f 60b7 233f 3fa0 1d3f 5ed2 213f
00000110: cec1 183f 418d 0c3f 826e 313f fd0e 073f
00000120: d232 2a3f 5a8a 1c3f b669 143f f3c7 1e3f
00000130: 2519 2c3f 7503 3e3f 6c1b 113f 0f6c 123f
00000140: 82da 123f 60aa 1e3f 8ea9 0f3f 46a7 013f
00000150: 8641 0f3f 606e fc3e 4f21 323f 4e86 333f
00000160: 28ce 293f cd18 153f 388b 1e3f 9604 233f
00000170: 621a ea3e 9cc2 143f 35e9 413f 14ca 343f
00000180: f14e 0a3f 83aa 233f 6b90 f83e 91ab 3c3f
00000190: 1f2e 373f 7f5c 1e3f caa8 f53e 8571 e13e
000001a0: 3711 f23e 3760 1d3f fb6f 293f 4576 2f3f
000001b0: 93a5 2a3f 1aeb 3a3f 6dca 293f d53b 0c3f
000001c0: a61e 133f e0d2 153f cea8 373f 4d36 103f
000001d0: cb22 f83e ecef 0f3f 2297 173f bed5 0c3f
000001e0: 052a 093f f7d3 eb3e ae76 1e3f 6cb5 333f
0.6684256 0.53122413 0.67080736 0.43662852 0.47207716 0.58527994 0.5619405 0.4724287
0.6205926 0.55057305 0.5815455 0.43770882 0.63014644 0.523847 0.60460067 0.48157012
0.7285288 0.6805802 0.4772532 0.55175525 0.5815111 0.4890392 0.67851436 0.53801876
0.6504164 0.65397906 0.51839477 0.46444163 0.64824754 0.6760898 0.66111434 0.5378661
0.6293836 0.6203441 0.4411654 0.5001037 0.60779136 0.7878904 0.6251646 0.61449724
0.50474477 0.62158656 0.48644465 0.57866985 0.65896285 0.6661976 0.59279644 0.5495891
0.6927586 0.54257494 0.6434115 0.7494292 0.5898054 0.45817897 0.5578454 0.4757441
0.64128524 0.6323305 0.64155686 0.6497389 0.6078324 0.43680534 0.7284366 0.6322559
0.60231715 0.63951683 0.6157264 0.6321162 0.5967072 0.54903036 0.69309247 0.52757245
0.66483796 0.6114861 0.579738 0.6202385 0.6722587 0.74224025 0.5668247 0.57196134
0.57364666 0.6197872 0.56118095 0.50645864 0.55959356 0.4930296 0.69582075 0.7012681
0.66330194 0.5824097 0.6193118 0.6367887 0.45723253 0.5810945 0.7574647 0.70620847
0.54026705 0.63932055 0.48547682 0.7369929 0.7155475 0.6185989 0.47980338 0.4403192
0.4727876 0.6147494 0.66186494 0.6853984 0.66658896 0.73014987 0.663245 0.54778796
0.5746864 0.58524895 0.7174195 0.56332856 0.48464045 0.56225467 0.59214985 0.55013645
0.5357974 0.46060154 0.6189984 0.701987

cause_networks.0.1.bias f4 [124]
00000000: 14bf 74bd 3091 10be 6d6c c73c c0a2 983c
00000010: f705 ffbd 1a1b 54bd 9d08 40be 5c2e 44bd
00000020: 4ecf 92be a0f0 38be 1f0a 12be 41de ed3b
00000030: f6a1 d63c 3b73 25be 384d 8bbe 5240 39bc
00000040: aa8c 51bd 9fc9 61be aab2 51be 7196 69be
00000050: 70c6 69be 4a12 6dbe 810b ccbd bbc7 1bbe
00000060: 03ae 0cbd b2cf a9bd 49a9 c4bc 4821 583d
00000070: 2630 863c ccfb 2bbe 310b 573c 3057 06be
00000080: 24da 08be 3a35 b1bc 765e 20be 4e01 10be
00000090: c238 46be ff22 30be a174 26be fdf9 85be
000000a0: d28f 3bbe 8cb2 15be ae76 d3bd 7f38 4f3d
000000b0: 2b58 8cbd fb58 47bc 38bf 4dbe e0c6 05be
000000c0: f2bc 06be a4de 3dbe 8aa8 f4bd a13a 2abe
000000d0: a5b7 48be a7a4 38bd aa71 0bbe 6167 5cbd
000000e0: 908a 0ebe f9bf 8ebb 0113 76be 32f3 2c3d
000000f0: 3b75 0abd 6caa 1abe e7ea c2bd a41f 1cbd
00000100: 4f3e d2bd a28b 6abe 1852 6cbe 5038 1bbe
00000110: 7bd5 b0bb b7f3 59be 3d04 8fbd 0384 93bd
00000120: d501 da3b 04e8 4dbe e32d 9ebe 2da3 32be
00000130: ba42 c3bd 07e8 d1bc 945c 50be 39c3 7ebe
00000140: 069f 38be d534 27be fed7 52be f727 efbc
00000150: fcc5 35be cada 94be 51a6 3fbd ab56 b9bc
00000160: bb9d 503c f45c 86bd 4738 debd a04b 5bbe
00000170: ab7e 8abe 4a86 90be 646a fcbd 3335 16be
00000180: 1b8c 81be 3a4a e0bd 8653 84bd 0a66 04be
00000190: cf24 e9bd a45a 06bc 60cb 01be c400 58be
000001a0: d628 92be 7f9a 35be 1774 24bd 3e87 18be
000001b0: 3a29 84be f044 b1bd 8d76 5cbe c206 48bd
000001c0: 715e ccbd 1742 3abe 5efd c2bd aa66 b8bd
000001d0: 3afd dbbd 1eae 86bd eae5 0ebe b2de 6fbc
000001e0: 5621 893b 985c 813d d1b9 3bbe 70bd a4bd
-0.05975254 -0.14117885 0.024343694 0.018632293 -0.124523096 -0.05178366 -0.18753286 -0.047895774
-0.28673786 -0.18060541 -0.14261673 0.0072591607 0.026200276 -0.16157238 -0.2720735 -0.011306839
-0.05115954 -0.22049569 -0.20478311 -0.22811295 -0.22829604 -0.23151508 -0.09963132 -0.1521291
-0.034345638 -0.08291568 -0.024006503 0.052766114 0.01638038 -0.16795272 0.013125227 -0.13119197
-0.13364464 -0.021631826 -0.15661034 -0.14062998 -0.19357589 -0.1720085 -0.16255428 -0.26167288
-0.18316582 -0.14618891 -0.10325371 0.05059099 -0.06852754 -0.012167211 -0.20092475 -0.13064146
-0.13158014 -0.18541962 -0.11946209 -0.16623928 -0.19601305 -0.0450789 -0.13617578 -0.053809527
-0.13920045 -0.004356381 -0.24030687 0.042224117 -0.033803206 -0.15104073 -0.0951746 -0.038116112
-0.10265791 -0.22904828 -0.23078191 -0.151582 -0.0053965426 -0.21284376 -0.0698323 -0.072029136
0.0066530504 -0.20108038 -0.30894384 -0.17445059 -0.095342115 -0.025623335 -0.20347816 -0.24879159
-0.18029413 -0.16328748 -0.20590207 -0.029193861 -0.17751306 -0.29073173 -0.04678947 -0.022624334
0.012732918 -0.06560698 -0.10850578 -0.21415567 -0.27049765 -0.28227454 -0.1232498 -0.14668731
-0.25302204 -0.109516576 -0.06461243 -0.1292955 -0.11383974 -0.008200321 -0.12675238 -0.21094042
-0.2854678 -0.17734717 -0.040149774 -0.14895341 -0.25812703 -0.08655727 -0.21529599 -0.04883457
-0.09978951 -0.18189274 -0.09520982 -0.090039566 -0.107416585 -0.06576179 -0.13954893 -0.014640497
0.004184882 0.06316489 -0.18332602 -0.08043945

cause_networks.0.1.running_mean f4 [124]
00000000: 6823 33bf 10b7 3fbf c866 81be 2594 2e3f
00000010: f865 313d 0650 50bf 7bb1 313d 591a 713f
00000020: c22c 20bf aea4 313e 6a90 1f3f d4c7 b63e
00000030: 1ea3 1f3f 57b0 8e3d dd44 10bf 1428 de3e
00000040: ac11 a6be 2f21 c5be 73f4 3e3f 64d7 e03d
00000050: 0317 a5be 914e 633e 2dff b8bd fe92 f23d
00000060: 9ba2 a23d a997 41bf 064b 5e3e 06a8 343f
00000070: cb23 87bd 2678 c03e 0f16 0d3f c0b4 fb3e
00000080: 869c 07be 2886 e13e b4de 52be dedf 163f
00000090: 1552 7cbf ecdb 9abe 1112 b4be a2ec 1a3e
000000a0: e168 d3bc d594 04bf fbde b03d 53d2 5a3e
000000b0: ca60 bf3e 8b04 a9bd c263 14be 9785 e83e
000000c0: 263e 6d3e 0b57 a1be 7860 813e 4277 793e
000000d0: 8aff 0dbf cbc8 183f e379 a83d 08c0 46bc
000000e0: e164 3c3d 9bad e5be 66c4 a4be 4cb9 553e
000000f0: cff6 d03e 82b2 573e 47f4 10bf af75 523f
00000100: e9b6 063f fa4e 3e3d b5ff 8bbe 2c78 d9be
00000110: 9690 9e3d 67ca 16bc 3380 70ba aec4 d2be
00000120: ebdd dfbe ce6f 0fbf 6f4d efbe e878 6fbf
00000130: 85d0 bc3d 788e eabd 60b3 a83e f8f8 82bf
00000140: e1ef 903e 4fc1 153f a599 453e 5e5c 123e
00000150: a76c e83d 2e0e fc3e 8714 d6be cd81 34bf
00000160: 4ce2 eebe 3b3c 13bc 9baa 2cbf 34dd 3ebf
00000170: aa53 ea3d 4478 3f3f 048d a7bd 588a dd3e
00000180: db92 4fbe 70cb 803e 9587 ff3e a8f3 4e3f
00000190: 1068 c13d 476c 513e fc4c 5c3e 1b16 19be
000001a0: 1069 8abe bbbb 703e 983c 6dbf 6781 fbbe
000001b0: b5fb b7be 578c f9be 2b77 413f 9103 803b
000001c0: 8890 36bd b0be b0be 5c4d 9abf 7c21 ebbb
000001d0: 8367 293e 1b32 08bf f6b6 fdbe b44a 0d3f
000001e0: c9e1 6bbe 0482 5ebf 8ef6 51be c756 6cbf
-0.699759 -0.74888706 -0.25273728 0.681948 0.043310136 -0.81372106 0.04338215 0.9418083
-0.62568295 0.17347977 0.62329733 0.35699332 0.6235827 0.06967228 -0.5635508 0.43389952
-0.32435358 -0.3850188 0.7459175 0.109785825 -0.3224412 0.2219794 -0.09033046 0.11844443
0.07941171 -0.7562204 0.21708307 0.70568883 -0.06598624 0.37591666 0.55111784 0.4916134
-0.13243303 0.44047666 -0.20592767 0.58935344 -0.9856275 -0.30245912 -0.35170034 0.15129331
-0.025806846 -0.517896 0.0863628 0.21369295 0.37378532 -0.0825282 -0.1449118 0.4541442
0.23168239 -0.3151172 0.25268912 0.243619 -0.55468047 0.59681386 0.08226373 -0.012130745
0.045994643 -0.44859013 -0.3218109 0.20871466 0.408133 0.21064189 -0.5662274 0.8221082
0.5262285 0.046462037 -0.27343526 -0.42474496 0.07742421 -0.00920353 -0.00091743766 -0.4116568
-0.43723997 -0.56029975 -0.46738765 -0.93543863 0.092194594 -0.11452955 0.32949352 -1.0232229
0.28308013 0.5849809 0.19296892 0.14293048 0.11348849 0.49229568 -0.41812536 -0.7051056
-0.46657026 -0.008986528 -0.67447823 -0.7455628 0.11441739 0.74792886 -0.081811935 0.4326961
-0.20270865 0.2515521 0.49908128 0.8084054 0.094436765 0.20451461 0.21513742 -0.14949839
-0.2703328 0.23509113 -0.92670584 -0.49122164 -0.35934225 -0.48739883 0.7557246 0.003906675
-0.04457143 -0.34520483 -1.2054858 -0.0071756225 0.16543393 -0.53201455 -0.4955365 0.5519211
-0.23035349 -0.8691714 -0.2050421 -0.9231991

cause_networks.0.1.running_var f4 [124]
00000000: f103 793b 1b28 043b e829 fc3a d27d 6e3b
00000010: e088 2f3b 75ad 153c 585e 153b 9931 673b
00000020: b578 393b 028a e53a 2288 ce3a c28a 443b
00000030: 435f 073b 7263 283b ff1d 2d3b 02ca 843b
00000040: fe4e 363b c374 ea3a 4d00 2c3b 9010 ed3a
00000050: db7a f43a 9e84 fd3a 2715 143b 712f 9a3a
00000060: 3fe0 163b 6e6c 813b 3d0a 113b 46cf a43b
00000070: ff26 9e3b 42d2 f83a fce6 b03a 32a1 9c3a
00000080: 08d0 e03a 9478 863a 9108 d13a 5279 073b
00000090: e789 513b 9954 153b 8eca 203b 26c9 f53a
000000a0: 6702 f33a 0a60 d73a bb07 2e3b 7212 e43a
000000b0: 6054 f93a 147c 873b 639d a13a d134 fc3a
000000c0: 76e9 f13a 79de 613b 1e2a c13a afe5 033b
000000d0: f326 153b 36d0 323b 59c3 af3a a0d2 143b
000000e0: 6634 e93a 4156 d13a 6978 713b 583a 0f3b
000000f0: 81c6 1f3b 1b30 ee3a 4535 3e3b de0d da3a
00000100: 7250 f53a af90 2f3b 6946 bc3a 90b1 b93b
00000110: 51a4 b63a 5607 ca3a b1e2 213b e0ad 293b
00000120: f386 753b fc4a ff3a c704 9e3a 5b49 1c3b
00000130: 02bd 4a3b 6d39 f53a 66f0 cf3a 24a0 483b
00000140: 1a06 c03a 851a cf3a c6e8 c93a c34d 423b
00000150: 96a9 0a3b e729 263b d641 5d3b ce4e 093b
00000160: c5ad 253b a6bd 393b a105 4e3b 24fe 2a3b
00000170: 79e2 8e3b 22fe 923a 75f1 3d3b 0f29 093b
00000180: 325f 033b 87ca 103b 219e 033b 0825 a43a
00000190: b42d 1f3b c558 ae3b 984a 3a3b b49a fd3a
000001a0: 1ac1 e73a 8d50 d83a cee3 833b 3c1d 0a3b
000001b0: 20b9 293b 81e0 f83a fc82 203b b402 893b
000001c0: 932e 173b 765b af3a c5cd 103b 8647 193b
000001d0: 7eba 273b 7d3d 063b 6e1f a63a 0fb1 093b
000001e0: ee04 c53a 0cec cd3a 4aab c43a 95ee 753b
0.0037996734 0.0020165506 0.0019238563 0.0036390913 0.0026784465 0.009135594 0.002279183 0.0035277365
0.0028300707 0.0017512443 0.0015757123 0.0029989933 0.0020656146 0.002569404 0.0026415584 0.0040524015
0.002781808 0.0017887581 0.0026245296 0.0018086601 0.0018652336 0.0019341891 0.0022595616 0.0011763406
0.0023021845 0.0039496934 0.0022131347 0.0050295917 0.004826426 0.001898356 0.0013496573 0.0011949895
0.0017151842 0.0010259324 0.0015947988 0.0020671678 0.0031973065 0.002278602 0.0024534795 0.0018751964
0.0018540145 0.001643182 0.00265549 0.0017400517 0.0019022338 0.0041346643 0.001233023 0.0019241815
0.0018456418 0.003446488 0.0014737283 0.0020125916 0.0022758811 0.0027284748 0.0013409659 0.002270855
0.0017792105 0.001597114 0.0036845452 0.0021854844 0.0024379792 0.0018172296 0.002902345 0.0016636213
0.0018715991 0.002678912 0.0014364246 0.005666919 0.0013934468 0.0015413563 0.002470177 0.002589099
0.003746447 0.0019477303 0.0012055867 0.0023847434 0.0030935411 0.0018709131 0.0015864491 0.003061303
0.0014650256 0.001580075 0.0015404455 0.00296484 0.002115821 0.0025354566 0.0033761165 0.0020951512
0.0025280577 0.00283418 0.003143646 0.002609142 0.0043604937 0.0011214653 0.002898303 0.0020929014
0.0020045754 0.0022093372 0.0020083266 0.0012523243 0.0024288716 0.0053206407 0.002842581 0.0019348473
0.001768145 0.0016503498 0.004024959 0.0021074554 0.0025897697 0.0018987806 0.0024492135 0.0041812304
0.0023068532 0.0013378698 0.0022095304 0.0023388579 0.0025593336 0.0020483427 0.0012674162 0.0021010076
0.0015031376 0.0015710606 0.0015004661 0.003752624

cause_networks.0.4.weight f4 [103, 124]
00000000: bc50 f23b 8177 01bd 74fa bebd fda4 31bd
00000010: 82ec 373d a899 eebc 0234 c1bb 8d3d 0fbe
00000020: 8a99 1fbe 07b0 1cbd 5261 683c 1be2 af3d
00000030: 3366 753d 5d26 91bd 3965 f4bc f89b 96bd
00000040: 5fa6 dc3d 6251 1c3d 084c 9fbd 8f4a 28be
00000050: 946a a73d e8f7 4cbb a944 d7bc 583d 23bd
00000060: f3df 863d c28e 61bd 74f6 a83d 753f 39bd
00000070: 4de8 b83d 8db3 84bd 3dea aa3d dc86 213d
00000080: d7e2 e33b 2488 10be c416 1bbc 62a8 e43c
00000090: 1301 ef3c 7c09 523e 4c01 053d ed11 c33d
000000a0: 2d96 593d 93c0 9e3d 4bf3 c93d 17e8 c73b
000000b0: ffd1 09be 68ce f23c 30fe 7a3d d73f 1bbd
000000c0: c3ce 613d 2af6 9e3a 89f3 f8bb 2a49 433d
000000d0: 0ecb d4bb 3352 ca3d da32 27bd 1d5f e03d
000000e0: 9e1f 5d3d 837e 62bd cf42 0a3e 364d 183c
000000f0: cf30 debc d142 b9bc 5f1c 7b3d cd63 22bd
00000100: e450 0f3d 84cc 9e3d 00ec 073d ceb2 43bc
00000110: 5b02 3abd 82e8 e53d ffe6 b33c 54df 95bd
00000120: 924e 89bd e5c0 e8bd 4d7a 7ebd 6633 17bc
00000130: 987c 2cbd db30 843d f2f4 0bbd 824e aa3b
00000140: 67b3 3dbd 4517 afbd ca86 283d ce62 f43d
00000150: 8cfa 9fbd bf32 903d 80ef 053e e6c9 a93d
00000160: 0806 4abb c649 97bd e088 e3bc 4cbc c73d
00000170: dbc8 803d a4de 16be c44c acbd dfed 713c
00000180: ca20 4bbc 1e36 aebb e008 7cbd 8c2a bfbd
00000190: db0b df3d feea 983d 88ac 13bc 882e 393e
000001a0: c108 c13d d6d3 f1bd 3a6c 073d 8094 193e
000001b0: 2776 2c3e b37a bcbd 1ee5 5bbd baaf 0c3d
000001c0: db55 f73c d5b2 8ebb 19fc aa3d e6bc a2bb
000001d0: 8658 05bb 1395 87bd 8db9 033d f131 d93c
000001e0: d402 023d 22ec 393d e9c6 f2bc bfe7 813d
000001f0: a8d0 ff3c 78b4 32bd 8b3d 1f3d d068 bf3c
00000200: 8305 fdbc 90fe 943d 5046 96bd 0321 4a3c
00000210: d85e 68bb 210b 63bd a9e0 113d 66a4 b03c
00000220: f749 18bb c13d d03c 26e6 dd3d ad34 8ebd
00000230: 05bd 223e 537b a23d 26bf 86bd 05a5 0d3d
00000240: b0e7 783c dc50 42bd 6268 503d 5871 fcbd
00000250: 0e8a 163d e909 293e 779a 54bc 4816 3a3b
00000260: cd5d fb3d ba88 b83d b019 a0bd 8ad0 db3d
00000270: 5e6c 98bd 6bee 0f3d 7b11 49bc 8211 cbbd
00000280: ba8f 3fbd 7049 1cbe 4dc7 1fbd 97f6 23bd
00000290: 823e 083d a9d3 28bd 6a0d e0bb 45b8 9a3d
000002a0: 9b93 4b3d f9c8 98bc 22d2 a8b9 93d7 c83d
000002b0: 06c5 953d c449 0f3d 1975 433d b349 633d
000002c0: c85f 20be a870 9b3d 0bdc 1ebd a261 2dbb
000002d0: c696 063d 1489 453c c904 d03d 5632 cc3d
000002e0: f38a 9e3d dade 97bd 8af8 9fbd 59f8 483d
000002f0: 825d bf3d fde1 77bc 4519 e93d f33f b83d
00000300: 0491 39bd 2c55 0abe 13c3 233d 0db4 843d
00000310: cc05 aa3d 1f4f 093e 9d19 d93c 6add f23d
00000320: 7fcf 0d3e 99fd 59bd 6e9c cdbb 2e9d d13d
00000330: 8954 3d3d 50e9 20bd c287 02be 61fb b43d
00000340: 8318 ecbd f328 5d3d 52c4 a63c 4737 98bd
00000350: 704e ca3d 0eb3 30bd 15e9 1a3d b73a 0dbe
00000360: 01d0 a1bd c50b ad3d 45b4 b6bd 522c a93d
00000370: 0e24 f2bc 8db6 c43d 7409 6a3d 0223 953d
00000380: 5a66 173e 39ae 023c b803 f33d 0217 793d
00000390: 86f9 1ebd e6a5 343d 81b5 3c3e 777c c9bc
000003a0: 93ae 263e 55fb 7e3d 9375 95bc 59ad d0bc
000003b0: 683b e4bc 95bf d83c 634a 173e 868d 873c
000003c0: d700 b0bd 25c8 463d 1ed6 4fbd 602a 1c3d
000003d0: ce9d de3c ee1f 7ebc c71c e23d 7e28 06be
000003e0: b697 ad3c db33 0e3c db35 85bd f795 cabc
000003f0: 9204 303c 150e 1f3d bdbc 73bd 1dcb bcbc
0.007394878 -0.03160811 -0.09325114 -0.043370236 0.044903286 -0.029126003 -0.0058960924 -0.13988324
-0.15585914 -0.03825381 0.014183359 0.08588048 0.059911918 -0.07087395 -0.029833423 -0.073539674
0.1077392 0.03816355 -0.07778174 -0.16434692 0.08174625 -0.0031275693 -0.026277857 -0.039853424
0.06585684 -0.055067785 0.08250132 -0.045226533 0.09028683 -0.06479559 0.08345459 0.039435253
0.0069545317 -0.14114434 -0.009465877 0.027912322 0.029175317 0.2051143 0.03247194 0.095249034
0.053121734 0.07751574 0.098608576 0.0061006653 -0.13459013 0.029639438 0.06127757 -0.03790268
0.055128824 0.0012127806 -0.007597391 0.047677197 -0.0064939326 0.098789595 -0.04081998 0.109556414
0.05398523 -0.055296432 0.13502048 0.009295752 -0.027122883 -0.022614868 0.061306354 -0.03964596
0.034989253 0.07753852 0.03318405 -0.011944486 -0.045412403 0.11225988 0.021960733 -0.07317987
-0.06704439 -0.11364917 -0.062128354 -0.009228563 -0.04211101 0.06454631 -0.034169145 0.005197347
-0.04631367 -0.0854936 0.04114417 0.11932908 -0.0781146 0.07040929 0.13079643 0.08290462
-0.0030826349 -0.07387118 -0.027775228 0.09752712 0.0628831 -0.14733368 -0.084130794 0.014766186
-0.012397954 -0.00531651 -0.0615319 -0.09334287 0.10890933 0.07466696 -0.009013303 0.18084157
0.09425498 -0.118079826 0.033062197 0.14998055 0.16841947 -0.092030905 -0.0536853 0.034347273
0.030192306 -0.0043548145 0.08348865 -0.004966366 -0.0020346954 -0.066202305 0.032159377 0.026513072
0.03174098 0.04539121 -0.029635863 0.0634303 0.031227425 -0.04362914 0.03887705 0.023365408
-0.030886417 0.072751164 -0.0733763 0.012336972 -0.0035456922 -0.055430535 0.035614643 0.021562766
-0.0023237446 0.025420072 0.10834913 -0.06943641 0.15892418 0.079336785 -0.065794274 0.034581203
0.015191957 -0.047440395 0.050880797 -0.12326306 0.036752753 0.16507687 -0.01297628 0.0028394628
0.122737505 0.090104535 -0.078173995 0.10733135 -0.074425444 0.035139482 -0.012272234 -0.09915449
-0.046767928 -0.15262389 -0.039008427 -0.04003009 0.033262737 -0.04121748 -0.0068375366 0.07554678
0.049701314 -0.018650519 -0.00032200018 0.098067425 0.0731297 0.034982458 0.047719095 0.055490207
-0.15661538 0.07589847 -0.038784068 -0.0026455899 0.032858633 0.012056608 0.10157163 0.09970538
0.07741346 -0.074155524 -0.07811077 0.049064968 0.09344007 -0.015129563 0.11381773 0.08996572
-0.045304313 -0.13509053 0.03998096 0.064796545 0.08301887 0.13409089 0.026501471 0.11858638
0.13848685 -0.053220365 -0.0062747514 0.10235058 0.046223197 -0.039285004 -0.127471 0.08837009
-0.11528113 0.05399413 0.020357285 -0.07432418 0.09878242 -0.04313951 0.03781994 -0.13791929
-0.07901002 0.084495105 -0.089211024 0.082604066 -0.029558208 0.09605131 0.05713792 0.07282068
0.14785138 0.007976108 0.11865944 0.060812958 -0.038812183 0.044103526 0.18428613 -0.024595482
0.16277532 0.062251408 -0.01824454 -0.025473284 -0.027860358 0.026458541 0.1477447 0.016546976
-0.0859391 0.048530716 -0.050741307 0.03812635 0.027174857 -0.015510542 0.11040645 -0.13101384
0.021190505 0.0086793555 -0.06504413 -0.024729712 0.010743277 0.03883179 -0.059506167 -0.02304607

cause_networks.0.4.bias f4 [103]
00000000: a479 643d 754a d2bc 0ec2 3e3d 021d 0bbc
00000010: 9670 03bd 1f32 c4bc 57bf 183d 7738 f9bc
00000020: 6de4 98bc 1d9d d63c 9ee4 163d 7280 13bd
00000030: fd97 cb3c 25fc 0f3c 9d9d 5d3d 8f79 1cbd
00000040: fc3e 17ba 9c17 ae3c 6277 533d 4351 973c
00000050: b8dd 953c 3e3c 35bd edd1 06bd a60d 463d
00000060: 5d27 f93b 1dcc 9e3c 48cf d4bc aea5 5abd
00000070: c58d cd3c d19a 543d b961 2bbd 8ff3 1bbd
00000080: 053f 5bbd cd19 383d 4452 803c 1989 16bd
00000090: 39b0 3f3d 295f 1d3d c1e5 853c d584 0cb8
000000a0: 74b9 4fbd 290e 4d3d 3306 2d3d dda2 05bc
000000b0: 2513 56bd 3949 ff3c c3cd fcbc 3a3f 8f3b
000000c0: 9c4f 0d3b 933a 933c 517f 083d 610c 09bd
000000d0: 7709 f13c 0d4a 16bd 9aa1 203d 3e38 aebc
000000e0: f0cf 86bc 2457 f1bc 0356 303d 25fe 7f3c
000000f0: 1bda 853c 5d8d e13c 4d00 35bd ea37 5c3d
00000100: 3b51 3a3d 9313 0e3d c682 a0bc 522d 0abd
00000110: 7da2 f6bb 0145 01bc 9794 c53b c1d7 61bd
00000120: 5d05 5c3d afcd 08bd 16db 163d 7dd5 06bd
00000130: 2914 3ebd 1973 923b 44b3 9cbc 59f1 083d
00000140: 14d5 03bd 38a9 adbc dc07 163d 5c18 493d
00000150: 53de 55bd fc9b e3bc 52d7 753b da97 a03c
00000160: be7d 143c 9310 e53c d97e 08bd a118 2dbd
00000170: 703b a33c 782e b9bc adff 793c 5f9c 6abd
00000180: afde 0d3d 96e7 16bd b211 f43a c233 a43c
00000190: 1735 4bbd d9d9 04bd 01d4 0dbb
0.055780068 -0.02567027 0.046571784 -0.008490803 -0.032089792 -0.02394968 0.03729185 -0.030422432
-0.01866361 0.026197964 0.03683912 -0.036011167 0.024852747 0.008788143 0.05410539 -0.038201865
-0.0005769578 0.021251492 0.051627524 0.018471366 0.0182942 -0.044246905 -0.032915045 0.04835286
0.0076035694 0.019384438 -0.025977746 -0.05338066 0.025092015 0.051905457 -0.041841242 -0.038074072
-0.053526897 0.04494648 0.015664227 -0.03675184 0.04679892 0.03842083 0.016344907 -3.350231e-05
-0.05071397 0.050062332 0.04224224 -0.008156505 -0.05226435 0.031162845 -0.030859834 0.004371551
0.0021562343 0.017972266 0.033324543 -0.03345907 0.029423459 -0.036691714 0.039216615 -0.021267053
-0.016456574 -0.029460497 0.043050777 0.015624558 0.016339352 0.027533228 -0.04418974 0.05376426
0.045487624 0.034686636 -0.019593608 -0.033734627 -0.0075266943 -0.007889987 0.006029676 -0.0551374
0.053716052 -0.03339928 0.03683003 -0.032918442 -0.046405945 0.004469287 -0.01912845 0.033433292
-0.03218563 -0.021198854 0.03662859 0.049095497 -0.052213978 -0.02778434 0.0037512374 0.019603658
0.009063182 0.027962005 -0.033324096 -0.042259816 0.019925803 -0.022605166 0.015258712 -0.057278033
0.034636196 -0.03684195 0.0018620996 0.020044211 -0.049611177 -0.03243432 -0.0021641257

cause_networks.0.5.weight f4 [103]
00000000: c2fd 1d3f b14e 233f d103 1e3f 6448 413f
00000010: 3ea3 173f a566 053f 5eb7 0b3f 8aed fa3e
00000020: 6b20 173f 309f 333f 395c 253f c902 143f
00000030: 6378 1f3f bcc0 0e3f ca9f 123f 2af2 203f
00000040: 076a 173f fe61 123f 41b2 163f 2e57 273f
00000050: 2b9c 313f 2452 113f f609 2c3f 7017 123f
00000060: 5451 1a3f d3e5 053f f866 183f b856 193f
00000070: a37c 123f 0005 1c3f 94c9 f53e 6848 043f
00000080: 655f 0c3f ef42 373f e49f 243f 874e 1c3f
00000090: 6195 343f 8e58 0d3f 87d1 0b3f 4113 0a3f
000000a0: 448f 0f3f 2a76 0e3f b2e8 203f 836a 203f
000000b0: 4303 223f f79e 153f e07a 0b3f 20ad 283f
000000c0: 500b 093f 136d 1a3f da90 1c3f d53e 093f
000000d0: 7b54 273f 248a 143f b59e 283f 1bf6 eb3e
000000e0: 631f 0f3f acba 063f 760b 323f 7c90 2d3f
000000f0: 28d0 0c3f 8041 103f 98c9 043f 04ba 113f
00000100: cd46 133f 4d8e 293f 4be2 123f 5365 0f3f
00000110: 3096 273f 36a0 213f 588b 043f ea51 133f
00000120: 44cc 063f 8525 173f 64b3 143f 11aa 143f
00000130: 989d 153f d869 153f 1927 153f 5561 1a3f
00000140: d145 313f 8b2d 303f d09a 2f3f a495 1c3f
00000150: 57c8 163f 85c9 1d3f 11fc 1b3f 0b87 1c3f
00000160: 8555 373f 189c 003f ea20 0a3f 09f3 173f
00000170: 0a28 183f 4efb 1c3f b7a7 033f ed80 273f
00000180: 498d 213f 0d54 193f 67d0 293f 5018 143f
00000190: df17 fe3e 3201 043f 7edc 253f
0.6171533 0.6379195 0.61724573 0.75501084 0.5923346 0.5210975 0.5457667 0.49009353
0.5903384 0.70164776 0.64593846 0.5781675 0.6229307 0.5576284 0.5727507 0.62869513
0.5914616 0.57180774 0.58865744 0.653674 0.6937892 0.5676596 0.672027 0.5706701
0.60280347 0.5230381 0.5953212 0.5989795 0.5722143 0.6094513 0.48005354 0.51672983
0.5483306 0.7158651 0.64306474 0.61057323 0.70540434 0.5521325 0.5461659 0.5393563
0.5607798 0.55649054 0.62855065 0.62662524 0.63286227 0.58445686 0.5448437 0.6588917
0.53532887 0.60322684 0.61158526 0.536115 0.6536328 0.58023286 0.6586717 0.460862
0.5590727 0.5262859 0.6954874 0.6779859 0.5500512 0.56349945 0.5187011 0.5692446
0.5752991 0.6623276 0.57376546 0.56013983 0.6546354 0.6313509 0.5177512 0.57546866
0.52655435 0.59041625 0.5808623 0.58072 0.58443594 0.5836463 0.58262783 0.60304767
0.69247156 0.68819493 0.685956 0.61165833 0.58899444 0.6163562 0.609315 0.6114356
0.7161487 0.5023818 0.5395647 0.5935522 0.59436095 0.6132096 0.5142779 0.654311
0.6310621 0.59893876 0.6633362 0.578496 0.49627587 0.51564324 0.6478957

cause_networks.0.5.bias f4 [103]
00000000: 6192 dabd a7b4 ecbd 1f17 edbd 6e24 5cbd
00000010: 10a6 22be 2481 64be e7e6 54be e865 90be
00000020: 4efd 34be eeee 9cbd 20cc 19be a43a 1cbe
00000030: b833 21be c19b 09be e888 75bd 1d72 3bbe
00000040: 1bd1 09be c372 dabc 55e1 bebd bb1b fabd
00000050: ab1a e1bc ec96 5ebe 4d1d 21be bf46 2ebe
00000060: 7a07 1ebe 6cc7 6dbe 49db 20be 1994 1ebd
00000070: c13a d3bd dd15 14be 23c0 2abe 2257 89be
00000080: 61e5 02bd 492b 6ebd 6d19 1abe 265a 56be
00000090: 7f34 c73b 8c0d 1ebe 7206 60be f5a7 5bbe
000000a0: 94fb 67be d419 7ebe 7371 57be 5e93 6abe
000000b0: 93fd 54be 1467 d6bd c817 3fbe de78 e4bd
000000c0: d373 92be e249 52be b762 b6bd 87ca 73be
000000d0: 2939 1bbe 499b 3cbe 16e5 4cbe d778 6cbe
000000e0: 2695 b0bd 52ee acbb 6576 17bc 16b6 c6bd
000000f0: 379a abbd 929f a1bd 178c ffbd 5a17 26be
00000100: 0c49 5bbe 5344 6ebd 9b82 11be c887 4dbe
00000110: ac84 65bd 30a4 86bd 57e8 a8bd 45ca 5cbe
00000120: 8aa6 48be 9a7b 0abe 11fb 23be a4be 5fbe
00000130: f4d7 c1bd 567c 08be a50e ecbd ff1e 44be
00000140: 98b9 d3bd ab6a e1bd d834 24bd 9cf2 0abe
00000150: 1c36 69be 875b 09be 463b 3dbe 124a 33be
00000160: da23 40bd 3568 51be e8b4 33be 758e ebbd
00000170: fb78 b8bd 372f 1fbe b145 64be 9181 cabc
00000180: fbe3 31bb a875 2cbe 9d0e 02be 4cee 8abe
00000190: ad88 39be 903d 62be cee9 8dbd
-0.10672451 -0.11557894 -0.115766756 -0.05374568 -0.1588366 -0.22314888 -0.20791207 -0.28202748
-0.17674753 -0.0766276 -0.15019274 -0.15256745 -0.15742385 -0.13438322 -0.059945017 -0.1830525
-0.13458674 -0.02666605 -0.093203224 -0.122123204 -0.027478537 -0.2173726 -0.15733834 -0.17019175
-0.1543254 -0.23220605 -0.1570865 -0.038715456 -0.10313941 -0.14461465 -0.16674857 -0.2682429
-0.031957034 -0.05814675 -0.15048762 -0.20932826 0.006079256 -0.15434855 -0.21877459 -0.2145079
-0.22654563 -0.2481454 -0.21039371 -0.22907779 -0.20799856 -0.10468879 -0.18661416 -0.11155866
-0.28603992 -0.20535997 -0.08905547 -0.23807727 -0.15158524 -0.18418612 -0.20009264 -0.23092972
-0.08622198 -0.0052774334 -0.009244536 -0.09702699 -0.083790235 -0.07891764 -0.12477892 -0.16219845
-0.21414584 -0.058170628 -0.14209978 -0.20071328 -0.05603473 -0.06574285 -0.0824744 -0.21561535
-0.1959478 -0.13523713 -0.16013743 -0.21850067 -0.09465018 -0.1332868 -0.11526231 -0.19152449
-0.103381336 -0.110066734 -0.04008946 -0.1356911 -0.22774547 -0.13413821 -0.18479642 -0.17508724
-0.04690919 -0.20449908 -0.17549479 -0.11501781 -0.0900745 -0.15545355 -0.2229221 -0.024719985
-0.0027143944 -0.16841757 -0.12700887 -0.2713493 -0.18118544 -0.22093797 -0.0692936

cause_networks.0.5.running_mean f4 [103]
00000000: cce1 803e 928e d83e 9bf0 3fbe 4133 663d
00000010: 6164 8fbe 3805 e63d da49 acbe 2e38 2cbe
00000020: 99f0 943e 4d06 ef3d 3ef5 103d a21b dfbe
00000030: 217b 0b3e c70f 373e 601f e1be 039b 9abe
00000040: 4b56 893d ccd1 96be f6ae 12bd 2282 9f3e
00000050: 7f03 5abe 0866 8fbd 6b9d 0bbe 7e32 653e
00000060: ef92 ab3d 1914 ffbd 41d7 013f 12ea 9f3e
00000070: 34d3 f23d b362 cebd bf5e 24be bfc2 33be
00000080: e29f 92be 923e d4bd 9e4d 823d 316f f03e
00000090: a99e f33d bc93 a63d 1e6a 253e 53c8 10be
000000a0: 141b 1d3e b057 813e 87ff 9dbe 106a f23e
000000b0: 9ee2 e7bd b300 a73d 1895 c1be 3b91 173f
000000c0: dc9e 0cbd 0c9d d3bb f1e2 5e3c d245 ebbd
000000d0: 8bdf 893e 10fb c3bd bea7 3c3e 24bc 26be
000000e0: a29e 6ebc 39f2 a4be 1f64 2dbd 21de 233e
000000f0: 104a 69be 96c5 42be 9a4d b5be 5004 9fbd
00000100: edb0 2d3e 48d7 59bd 16e0 d3bd bf10 83be
00000110: f4fe 78bd a600 a5bc 7260 08bf bb5e bcbe
00000120: 1db9 4dbc 7878 07be d306 3abe 5768 6ebe
00000130: f8cc 98be a466 20be c381 983d b3b7 c6bd
00000140: 5e63 a83e d831 3b3e 7e82 16be 6196 d6bd
00000150: c4b4 0dbf d00a e7bc 29b2 f0bd bee1 31be
00000160: 27eb fd3d fd8a adbe e742 883e 080f 63bd
00000170: 64af cabd 647c 713c 97c0 283d 6bd6 96bd
00000180: 3328 e1bd da00 8abe 416d edbd 408d 793d
00000190: 46c1 f0bc a61c 21be 95d9 98bd
0.2517227 0.42296273 -0.18744127 0.056201223 -0.2800627 0.11231464 -0.33650094 -0.16818306
0.2908981 0.11671124 0.03539013 -0.4357577 0.13621189 0.17877112 -0.4396925 -0.3019639
0.06705912 -0.29456937 -0.035811387 0.3115397 -0.21290396 -0.07001883 -0.13634269 0.22382542
0.08377635 -0.12455005 0.50719076 0.3123327 0.1185669 -0.10077419 -0.16051768 -0.17554758
-0.28637606 -0.10363497 0.063624606 0.46959832 0.118954964 0.08133647 0.16153762 -0.14138918
0.1534236 0.25262213 -0.30859014 0.47346544 -0.11322521 0.0815443 -0.37809062 0.5920598
-0.034331188 -0.0064579304 0.013603912 -0.114879265 0.26928362 -0.09569371 0.18423364 -0.16282707
-0.014564188 -0.3221605 -0.04233181 0.16002704 -0.22782159 -0.19020686 -0.35410768 -0.077644944
0.16962023 -0.053183824 -0.103454754 -0.25598714 -0.060790017 -0.02014191 -0.53272164 -0.36791024
-0.0125563415 -0.13229549 -0.18166666 -0.2328199 -0.2984388 -0.15664154 0.07446625 -0.097030066
0.3288831 0.18280733 -0.14698216 -0.10477901 -0.5535395 -0.028203398 -0.11752731 -0.1737127
0.123983674 -0.33895102 0.26613542 -0.055434257 -0.09896734 0.01473913 0.041199293 -0.07365116
-0.109939955 -0.26953775 -0.11593104 0.060925722 -0.029389035 -0.15733585 -0.074633755
