foundation_models/Ensemble_model16_DeepSurv_LSTM_Event_2_20250805_001010.pt (torch, 712136 bytes, 9 tensors)

lstm_layers.0.weight_ih_l0 f4 [476, 11]
0	0x3db6edd4	0.08932081
1	0x3e1a91e6	0.15094718
2	0x3d0f2c75	0.034954507
3	0x3ed68561	0.41898635
4	0xbcb1eafb	-0.021718493
5	0xbc60aca1	-0.013713033
6	0x3dd677f4	0.10472098
7	0x3ca336b1	0.01992354
8	0x3d671906	0.05642035
9	0xbb64ef2a	-0.0034932592
10	0x3d895c3f	0.06707048
11	0x3e029db9	0.12755479
12	0x3d16edc2	0.036847837
13	0xbd2ac60e	-0.041692786
14	0x3f054823	0.52063197
15	0xbe6903fe	-0.22755429
16	0x3c319b94	0.010840315
17	0x3bb640e3	0.0055619343
18	0xbd6338da	-0.05547414
19	0xbdc853ac	-0.09781584
20	0x39bdf095	0.00036228137
21	0x3d8e3b8e	0.06944953
22	0xbd0ef4b6	-0.034901343
23	0xbcc133b8	-0.023584232
24	0xbdc57cc5	-0.096429385
25	0xbe9299f6	-0.28633088
26	0xbe58c4e2	-0.21168855
27	0x3d322d8d	0.04350047
28	0xbe3c8a8e	-0.1841223
29	0xbd827972	-0.0637082
30	0xbc029faa	-0.007972637
31	0xbd2d3cd8	-0.042294353
32	0xbe8f876c	-0.28033006
33	0xbd8aaf7d	-0.06771753
34	0x3aee5dad	0.0018185877
35	0xbe65c326	-0.22437724
36	0xbe27be9e	-0.16381308
37	0xbe31e86b	-0.17373817
38	0xbdb2e591	-0.087351926
39	0xbe90a1bc	-0.28248394
40	0xbc104d3a	-0.008807475
41	0xbd24fb9b	-0.040279012
42	0xbcb54982	-0.022129778
43	0xbdbbf83a	-0.09178205
44	0xbd52c2ac	-0.051455185
45	0x3be213b9	0.006899324
46	0xbe007bbd	-0.12547202
47	0x3ded254e	0.11579381
48	0x3e1fa89f	0.15591668
49	0xbcb7ec59	-0.022451567
50	0xbe387318	-0.18012655
51	0xbc24f261	-0.010067553
52	0x3dc632d7	0.09677666
53	0xbd1faa84	-0.038980976
54	0xbe1279dc	-0.14304298
55	0xbd902bf7	-0.07039636
56	0xbcfee6a6	-0.031115841
57	0xbe7eaed0	-0.24871373
58	0xbe25129d	-0.16120382
59	0xbe97c3ee	-0.2964167
60	0xbe0b0ffe	-0.1358032
61	0xbe72616b	-0.23669975
62	0xbe10b1e2	-0.14130357
63	0xbd56b0ef	-0.05241483
64	0xbd8629e0	-0.06550956
65	0x3ccabfd5	0.024749676
66	0xbdd34ac6	-0.10316996
67	0xbde5498d	-0.11195669
68	0xbe9c2039	-0.30493334
69	0xbe013007	-0.12615977
70	0xbeba8b77	-0.36434528
71	0xbd1c8f26	-0.038222454
72	0xbe4edaf4	-0.20200711
73	0xbd526f0e	-0.05137544
74	0x3caaaf80	0.020835638
75	0xbdf8b36e	-0.121435985
76	0x3d79df38	0.061003894
77	0x3daa312f	0.08310162
78	0xbe00114e	-0.12506601
79	0xbd0b9d8a	-0.034085788
80	0x3cbdbf8c	0.023162626
81	0xbe81cfe4	-0.2535392
82	0xbd449861	-0.047996882
83	0xbdc50f9e	-0.09622119
84	0xbcec7d00	-0.028868198
85	0x3d2db079	0.042404626
86	0x3d02df45	0.031951208
87	0xbe91be8c	-0.28465688
88	0xbc46b3b2	-0.012127804
89	0xbd24f2d1	-0.04027063
90	0xbe30ab05	-0.17252739
91	0x3d746f08	0.0596762
92	0x3bfeaefe	0.0077723255
93	0xbd494e77	-0.049147096
94	0xbe634b7a	-0.22196761
95	0xbd8fac29	-0.07015259
96	0x3dbedfb1	0.093200095
97	0x3df2521c	0.11832067
98	0x3d429b4a	0.047511376
99	0x3cc59b91	0.024122031
100	0xbe1d9622	-0.15389302
101	0xbdd17298	-0.10226935
102	0xbd6d8092	-0.057983942
103	0xbcd60de5	-0.026129672
104	0x3ce33532	0.027735326
105	0x3d140953	0.036141705
106	0xbe005491	-0.1253226
107	0x3c526089	0.012840399
108	0xbdde7822	-0.10862757
109	0xbe1652c5	-0.14680012
110	0x3e81b33d	0.2533206
111	0x3e27582e	0.16342232
112	0xbd61dd9c	-0.055142984
113	0x3e0d6adc	0.13810295
114	0x3dc89ce9	0.09795553
115	0x3d2ce601	0.042211536
116	0x3d1082d1	0.035281006
117	0x3bff4798	0.007790517
118	0xbcb4b28c	-0.022057794
119	0x3e088189	0.13330664
120	0x3caf7737	0.02141915
121	0x3d9ee053	0.0775763
122	0xbb9a9029	-0.0047168923
123	0xbdd12f95	-0.10214154
124	0x3eb51db6	0.3537423
125	0xbd2682a4	-0.040651932
126	0x3ddac180	0.106814384
127	0xbd5cddc4	-0.05392243
128	0x3d386203	0.045015346
129	0x3d53294e	0.051553063
130	0xbdf2c6f0	-0.118543506
131	0x3dc56ae4	0.096395284
132	0x3dbca669	0.09211428
133	0xbda9d14e	-0.08291875
134	0x3d080225	0.03320517
135	0x3f087c08	0.53314257
136	0xbea035b5	-0.31290975
137	0xbdce8b8a	-0.10085209
138	0x3de16763	0.110060476
139	0x3d909918	0.0706045
140	0x3ca3fd68	0.020018294
141	0xbc6e905c	-0.014560785
142	0x3d3814b8	0.044941634
143	0x3ccddb37	0.025128944
144	0xbd8bbf36	-0.0682358
145	0x3d249f7a	0.04019115
146	0x3d94a8b7	0.07258742
147	0xbdc58809	-0.09645087
148	0xbdd7105f	-0.105011694
149	0xbd8b7303	-0.06809046
150	0x3c7edbca	0.0155553315
151	0x3d1ad807	0.037803676
152	0xbdfd5117	-0.12368982
153	0xbc80c218	-0.015717551
154	0x3dae0af6	0.084981844
155	0xbd0a346e	-0.033741407
156	0x3d442674	0.047888234
157	0xbe9158f8	-0.2838819
158	0x3d1a8f79	0.037734482
159	0xbe656c81	-0.22404672
160	0xbd3db2c2	-0.046313055
161	0xbdbe6a96	-0.092976734
162	0xbe1e6801	-0.15469362
163	0xbd3ba4a6	-0.045811318
164	0xbf22e311	-0.63627726
165	0xbc46ea6e	-0.012140853
166	0x3ddbc534	0.10730973
167	0x3d908e96	0.07058446
168	0x3f1b0fd7	0.60571045
169	0xbe6a1f2e	-0.22863457
170	0x3d80e52e	0.062937126
171	0x3d2c8e5e	0.04212796
172	0x3dbc4452	0.091927186
173	0x3d98038f	0.07422554
174	0x3d009bfd	0.031398762
175	0x3ca21e9a	0.019789983
176	0xbe1714c2	-0.14754012
177	0xbddb2550	-0.10700476
178	0xbe25062a	-0.16115633
179	0xbe3a1bd1	-0.18174674
180	0xbe62b930	-0.22140956
181	0xbd58003b	-0.052734595
182	0xbc85d379	-0.01633619
183	0xbe02410b	-0.12720124
184	0x3dcc01fc	0.09961316
185	0xbe0b180f	-0.13583396
186	0xbe805946	-0.2506811
187	0x3cac48f3	0.021030879
188	0xbe024a77	-0.12723719
189	0xbe53472d	-0.2063262
190	0xbe695329	-0.2278563
191	0xbe8a1268	-0.26967168
192	0xbe025ddd	-0.12731119
193	0xbe8fdd2c	-0.28098428
194	0xbd94894e	-0.07252751
195	0x3e0c204a	0.13684192
196	0xbda4f417	-0.08054369
197	0xbb336e68	-0.002737904
198	0xbc76aa75	-0.015055289
199	0x3cfd9478	0.030954584
200	0xbe36e0a7	-0.17859136
201	0x3e098b50	0.1343205
202	0xbbe93fe4	-0.007118212
203	0x3d91b74e	0.07115041
204	0xbd502de3	-0.05082501
205	0xbc58603a	-0.013206536
206	0xbd053636	-0.032522403
207	0xbe1d360e	-0.15352651
208	0x3d6ddc40	0.058071375
209	0xbd478514	-0.048710898
210	0xbd4f348f	-0.050587233
211	0xbe70c03e	-0.23510835
212	0x3c4027d6	0.011728248
213	0x3de575db	0.1120412
214	0xbd6cc526	-0.057805203
215	0xbe6c3022	-0.23065236
216	0x3c66f281	0.014095903
217	0x3d4c651b	0.04990111
218	0xbd27f697	-0.04100665
219	0xbda9e344	-0.082953006
220	0xbd8ab592	-0.06772913
221	0xbe01a388	-0.12660038
222	0x3ce28348	0.02765049
223	0x3da65bb2	0.08122958
224	0xbeb74fd4	-0.35803092
225	0xbe062533	-0.13100128
226	0xbbfb5562	-0.0076700905
227	0xbceb78fd	-0.028744215
228	0xbdbf70e1	-0.09347702
229	0x3d25be15	0.04046448
230	0xbdb1f28f	-0.086888425
231	0x3d6056cf	0.054770287
232	0xbc0cf416	-0.0086031165
233	0x3e0bd2d6	0.13654646
234	0x3e3dfdbf	0.18553828
235	0xbea0ed21	-0.31430915
236	0x3d259e70	0.0404343
237	0x3ccb67a0	0.024829686
238	0x3a9a8475	0.0011788743
239	0xbe1bdc7c	-0.15220827
240	0x3caceb6f	0.021108357
241	0x3c9ac5a2	0.018893067
242	0xbd5f1582	-0.05446387
243	0xbc9af265	-0.01891441
244	0x3c8ea99d	0.017414862
245	0x3e178020	0.1479497
246	0xbe6bbdd0	-0.23021626
247	0x3d3e74fe	0.04649829
248	0x3bc6c9f4	0.006066555
249	0x3d118fb5	0.03553744
250	0x3d5721b7	0.052522387
251	0xbd85ffc5	-0.06542925
252	0x3dd44009	0.10363776
253	0x3c97ae1c	0.018515639
254	0xbd85101e	-0.06497215
255	0xbe68cf2b	-0.22735278

lstm_layers.0.weight_hh_l0 f4 [476, 119]
0	0xbe1b3358	-0.15156305
1	0x3d7de700	0.061987877
2	0xbdfb58f7	-0.12272828
3	0xbd9d84ef	-0.07691371
4	0x3de44dfd	0.111476876
5	0xbc423207	-0.011852748
6	0xbd614d5f	-0.055005427
7	0x3d0f4ace	0.03498345
8	0xbdc5f3d9	-0.09665651
9	0x3b24526a	0.0025073537
10	0x3ce26fb8	0.027641162
11	0x3e01bf2f	0.12670587
12	0xbcfe1864	-0.03101749
13	0xbc93a8f9	-0.018024908
14	0xbe9b19e5	-0.30293193
15	0x3cdff759	0.027339624
16	0xbd2f2794	-0.042762354
17	0xbd89c588	-0.06727129
18	0xbdddebeb	-0.108360134
19	0xbd113331	-0.03544921
20	0xbd97e62b	-0.07416948
21	0xbc56dbf7	-0.013113967
22	0xbd9e4335	-0.077276625
23	0xbd2229d0	-0.039590657
24	0x3d9e78de	0.07737897
25	0x3b5839ba	0.0032993392
26	0xbd285f0a	-0.04110626
27	0xbe32ff47	-0.17480193
28	0x3e14ccee	0.145313
29	0x3d99820b	0.07495507
30	0x3db2be8a	0.08727749
31	0xbe664d80	-0.22490501
32	0xbd574e35	-0.05256482
33	0x3de22db9	0.11043877
34	0x3b4764b2	0.003042501
35	0xbd53aadc	-0.051676616
36	0xbdd72924	-0.10505894
37	0x3d544599	0.051824186
38	0x3e044ada	0.12919179
39	0xbdab1433	-0.08353462
40	0xbdc124d5	-0.09430853
41	0x3c73b7e5	0.014875387
42	0xbdb326fd	-0.08747671
43	0x3c5696ab	0.0130974455
44	0x3d0c584a	0.034263887
45	0xbd97fc9f	-0.074212305
46	0x3947a702	0.00019040334
47	0xbe1aad75	-0.15105231
48	0xbd6ab14f	-0.057298
49	0xbd4064dc	-0.046971187
50	0x3d91a641	0.071117885
51	0x3d1da9cf	0.03849202
52	0x3e1f4762	0.15554574
53	0x3d9c61e4	0.07635859
54	0x3d80ef61	0.06295658
55	0xbda135d1	-0.07871593
56	0x3c9d8c9d	0.019232089
57	0xbc96573f	-0.018352149
58	0x3db1bc64	0.08678511
59	0x3d8e77c2	0.06956436
60	0xbd376e00	-0.04478264
61	0xbe1857bc	-0.14877218
62	0xbcf4a3c8	-0.029863253
63	0x3e177d97	0.14794002
64	0xbe3331eb	-0.17499511
65	0x3dc538b7	0.09629958
66	0x3d189a5e	0.03725659
67	0x3e887d69	0.2665818
68	0xbe09251d	-0.13393064
69	0x3dcb7330	0.0993408
70	0xbb34bcae	-0.0027578282
71	0xbc61a546	-0.013772314
72	0xbe22f058	-0.15911996
73	0xbd4a220d	-0.04934888
74	0x3c015b9e	0.007895378
75	0x3d700a47	0.05860355
76	0x3d1ac383	0.03778411
77	0x3daecd08	0.085352
78	0x3e07dc8d	0.13267727
79	0xbd508365	-0.050906558
80	0xbd29f3cc	-0.04149227
81	0x3d5f6d83	0.054547798
82	0x3dfb9cd2	0.122857705
83	0xbd2a6a9a	-0.04160557
84	0xbd76f634	-0.06029339
85	0xbd972cee	-0.073816165
86	0x3d76ebc7	0.06028345
87	0xbd21ff63	-0.039550196
88	0xbdba6773	-0.091017626
89	0xbcb8f1b7	-0.022576196
90	0x3d4b44ed	0.04962628
91	0xbd56c2ec	-0.052431986
92	0x3d05260d	0.03250699
93	0x3ba433dd	0.0050110654
94	0x3c62de92	0.01384701
95	0x3d008023	0.0313722
96	0xbc0d3a8b	-0.008619915
97	0x3d3215a5	0.043477673
98	0x3d2dce8c	0.042433307
99	0x3eb47714	0.352471
100	0x3ad1fc3c	0.0016020606
101	0xbe51fefc	-0.20507425
102	0xbd08dd83	-0.033414375
103	0xbdb1b7a4	-0.08677605
104	0x3d822ae0	0.06355834
105	0xbe6588f2	-0.22415522
106	0xbd6f5a8d	-0.058435965
107	0x3e755e03	0.23961644
108	0xbdd4c99e	-0.10390018
109	0x3d442c6c	0.047893927
110	0xbc45564f	-0.012044503
111	0x3e27f7bd	0.16403098
112	0x3d3acf3c	0.04560779
113	0xbe01eed5	-0.12688763
114	0x3d050487	0.03247502
115	0x3da5190f	0.0806142
116	0xbd799261	-0.060930613
117	0xbe0d58dd	-0.1380343
118	0xbcbc2cde	-0.022970613
119	0xbe530d3b	-0.20610516
120	0xbdbe8412	-0.09302534
121	0x3dccb528	0.0999549
122	0x3ce45a1a	0.027874995
123	0x3db3c157	0.08777111
124	0xbda9676a	-0.08271678
125	0xbd4a3363	-0.049365412
126	0xbba74c41	-0.0051055257
127	0xbdec7f02	-0.11547662
128	0x3dfd69cc	0.12373695
129	0x3d413305	0.047167797
130	0x3e2c78d8	0.16842973
131	0xbbabb37d	-0.0052399025
132	0xbb9791a7	-0.0046255174
133	0xbebb6236	-0.36598366
134	0xbb24ebaa	-0.002516488
135	0x3c7c466b	0.015397648
136	0xbbfa2f74	-0.0076350514
137	0xbdc7785b	-0.09739753
138	0xbd4daa20	-0.050211072
139	0x3d9ee36f	0.07758223
140	0x3dbc5f95	0.09197918
141	0xbd284ac7	-0.04108694
142	0x3dd7b960	0.10533404
143	0x3d320acf	0.04346734
144	0x3bc4ae7f	0.006002247
145	0x3db57b02	0.088613525
146	0xbe5dec1d	-0.21672101
147	0xbc836b43	-0.016042357
148	0x3d2af598	0.041738123
149	0x3d0a9446	0.03383281
150	0xbe34080d	-0.17581196
151	0xbe1df680	-0.15426064
152	0x3e316945	0.17325313
153	0x3c943458	0.018091366
154	0x3c012ca7	0.007884181
155	0xbd41a208	-0.047273666
156	0xbda254e2	-0.07926346
157	0x3e5b409e	0.21411368
158	0xbd08b677	-0.033377137
159	0xbdf877a0	-0.12132192
160	0xbe5b6909	-0.21426786
161	0xbe8033f2	-0.2503963
162	0x3dfe2993	0.124102734
163	0x3d8530b4	0.0650343
164	0xbd78225b	-0.06057964
165	0xbdc13444	-0.09433797
166	0x3a9fec91	0.001220124
167	0xbdc4915d	-0.09598038
168	0x3d24abb1	0.0402028
169	0x3d3ad29d	0.045611013
170	0x3da5c465	0.080941
171	0x3e4467f3	0.19180278
172	0xbd10fd0e	-0.03539758
173	0x3d449040	0.04798913
174	0xbd576293	-0.052584242
175	0x3c52ee68	0.012874223
176	0x3d88a65d	0.06672356
177	0x3dc6ae1e	0.09701179
178	0x3e587e61	0.2114196
179	0x3cda3ca0	0.026640236
180	0xbd8314c4	-0.06400445
181	0x3d6cdd46	0.05782821
182	0x3c91c814	0.0177956
183	0xbda220ef	-0.07916438
184	0x3df24d74	0.11831179
185	0xbdb3a4e6	-0.08771686
186	0x3e361fa0	0.17785501
187	0xbd443256	-0.047899567
188	0xbc2a5a78	-0.010397546
189	0xbc17a3c8	-0.009255357
190	0xbd25656c	-0.040379927
191	0x3c804eb4	0.015662529
192	0xbd3c1823	-0.045921456
193	0xbc99c4e3	-0.01877064
194	0x3d45ec9d	0.048321355
195	0xbd97594d	-0.0739008
196	0x3d3988a4	0.045296326
197	0xbe3a7fb3	-0.18212776
198	0x3d23877c	0.03992413
199	0x3df734e4	0.12070635
200	0x3c8f0278	0.017457232
201	0x3d89c6ac	0.06727347
202	0x3d7f32b7	0.062304225
203	0x3d51baf9	0.0512037
204	0x3c2f73f2	0.010708796
205	0xbe029f76	-0.12756142
206	0x3cb238d6	0.021755617
207	0xbdb080ab	-0.086182915
208	0x3df3d56d	0.11905942
209	0x3d151502	0.036396988
210	0xbd034c86	-0.0320554
211	0x3d63cd36	0.055615626
212	0x3cbf2cf7	0.02333687
213	0x3c9a0b83	0.018804317
214	0xbc5e396a	-0.013563493
215	0x3d1cfea1	0.03832877
216	0xbe1c4c71	-0.15263535
217	0x3bc9f8ee	0.006163708
218	0x3e2d49f9	0.1692275
219	0x3dc992f0	0.09842479
220	0x3ca1b2af	0.019738523
221	0xbc808b4a	-0.015691418
222	0x3c9a15af	0.018809168
223	0x3d7bf901	0.061516766
224	0xbe6512e0	-0.22370481
225	0xbe0804ba	-0.13283053
226	0x3e358fcc	0.17730635
227	0x3c81a019	0.01582341
228	0xbddeb47c	-0.108742684
229	0x3d0b0327	0.033938553
230	0x3e8f3d20	0.27976322
231	0xbd86afe6	-0.06576519
232	0xbe28cc1d	-0.16484113
233	0x3dd3ac94	0.10335651
234	0x3cf6bb74	0.030118681
235	0xbd6bf4cc	-0.057606503
236	0xbe005674	-0.12532979
237	0xbc58ccea	-0.013232449
238	0x3cd25592	0.025675569
239	0xbdbead8a	-0.09310444
240	0xbc12d44c	-0.008961748
241	0xbd0c9734	-0.034323886
242	0xbd03a707	-0.03214171
243	0x3dae05db	0.084972106
244	0xbe2c6589	-0.16835608
245	0x3bd639a8	0.006537635
246	0xbdfbb73b	-0.12290808
247	0x3dec4cba	0.11538072
248	0x3c1de18c	0.009636294
249	0x3d967d6b	0.0734814
250	0x3e023b43	0.12717919
251	0x3ce19126	0.027535032
252	0xbdd59363	-0.104285024
253	0xbe1144e3	-0.14186434
254	0x3c5c8185	0.013458614
255	0x3e43e99f	0.19132088

lstm_layers.0.bias_ih_l0 f4 [476]
0	0x3da3deb3	0.08001461
1	0xbd0c276e	-0.03421729
2	0xbdc2e0f6	-0.09515564
3	0x3cccf683	0.02501989
4	0xbdc2000d	-0.09472666
5	0xbdfc9f2c	-0.12335047
6	0xbbb69d99	-0.0055729863
7	0xbdbd4eba	-0.092435315
8	0x3d4963bb	0.049167376
9	0xbcf3b182	-0.029747728
10	0x3d439204	0.047746673
11	0xbc0dadfa	-0.008647436
12	0x3c61765d	0.01376113
13	0x3cbad21a	0.022805262
14	0xbda04a72	-0.07826699
15	0xbd824419	-0.06360645
16	0xbdf4660d	-0.11933527
17	0x3ca7d7f2	0.020488713
18	0xbd82218b	-0.06354054
19	0xbddcfb3c	-0.10790107
20	0xbd35825c	-0.044313774
21	0xbd843aec	-0.06456551
22	0xbd336d4d	-0.04380541
23	0xbe31cc15	-0.17363007
24	0x3c074146	0.0082553085
25	0x3d863c41	0.06554461
26	0xbde427e8	-0.11140424
27	0xbe375e07	-0.17906962
28	0xbda78973	-0.08180513
29	0x3d8292af	0.06375634
30	0xbe05f6cf	-0.13082431
31	0xbd6f8de2	-0.05848492
32	0xbb19f1e8	-0.0023490135
33	0xbd4fa9f2	-0.05069918
34	0x3e12fbc0	0.14353848
35	0x3d75e5dc	0.060033664
36	0xbde5070e	-0.11182986
37	0xbd61244c	-0.054966256
38	0xbda28d73	-0.079371355
39	0xbe085b02	-0.13315967
40	0xbd016765	-0.031592745
41	0xbd893dca	-0.067012385
42	0xbd344f20	-0.044020772
43	0xbd8fdf62	-0.07025029
44	0xbe04f37b	-0.12983505
45	0xbd47633b	-0.048678618
46	0x3e293885	0.16525467
47	0xbc8a072a	-0.01684912
48	0xbd97fb44	-0.07420972
49	0xbe219be4	-0.15782124
50	0x3d152bd9	0.03641877
51	0x3d559d0d	0.05215173
52	0x3b36cf71	0.002789464
53	0x3d3b19ee	0.045679025
54	0x3ce21fa0	0.02760297
55	0x3d4ee170	0.050507963
56	0x3c9aa6b2	0.018878315
57	0xbd108181	-0.035279755
58	0x3e0a2b26	0.13493022
59	0x3d5a60cb	0.053314965
60	0x3cfcc498	0.030855462
61	0x3d6e44bc	0.05817102
62	0xbd37b50c	-0.044850394
63	0xbb94cfd7	-0.004541378
64	0xbd8534ab	-0.06504186
65	0x3dcd6c95	0.10030476
66	0xbd3c81f9	-0.04602239
67	0x3c3d9516	0.011571189
68	0x3de77b3b	0.11302801
69	0xbd72391e	-0.059136502
70	0x3c801559	0.01563518
71	0x3d2fe25d	0.042940486
72	0xbccdd84d	-0.025127554
73	0x3d7f1e98	0.062285036
74	0xbda69d71	-0.08135498
75	0xbd84f005	-0.064910926
76	0xbde18e42	-0.11013462
77	0x3d393049	0.045212064
78	0x3e06b196	0.13153681
79	0x3ddfa0df	0.109193556
80	0xbe98f4eb	-0.29874358
81	0xbea22b7a	-0.31673795
82	0xbe304c27	-0.1721655
83	0xbdec0890	-0.11525071
84	0xbdb693e1	-0.089149244
85	0x3db1ebad	0.0868753
86	0x3d6eefd3	0.058334183
87	0xbe5b4d35	-0.21416171
88	0x3d2ba59b	0.04190598
89	0xbd969146	-0.073519275
90	0xbe38df7e	-0.18054006
91	0xbdef3daf	-0.11681687
92	0xbe2fc577	-0.1716517
93	0xbd883487	-0.06650644
94	0x3b9211db	0.004457695
95	0x3dfbbaa6	0.1229146
96	0xbe6ccbc0	-0.231246
97	0x3d43c123	0.04779161
98	0xbe37d49f	-0.17952202
99	0x3d88280c	0.06648263
100	0xbc613f64	-0.013748024
101	0x3d344e88	0.044020206
102	0x3935b63b	0.00017329391
103	0xbcce9783	-0.02521873
104	0xbd9c35cb	-0.07627448
105	0xbd667257	-0.056261387
106	0x3e0b2bf5	0.13590987
107	0x3c300769	0.010743954
108	0x3d513fbd	0.051086176
109	0xbea40584	-0.32035458
110	0x3de5282f	0.11189305
111	0x3d456db6	0.04820033
112	0x3b8f0725	0.0043648654
113	0x3e3c263e	0.18373963
114	0xbdbf0b10	-0.09328282
115	0xbce1e8c4	-0.027576812
116	0x3e3ee6a8	0.18642676
117	0xbc956e48	-0.018241063
118	0xbe919683	-0.28435144
119	0xbce00446	-0.027345788
120	0xbdeae665	-0.114697255
121	0xbd75ca17	-0.06000718
122	0x3c1e735d	0.009671059
123	0xbd5e0318	-0.05420217
124	0xbd535e34	-0.05160351
125	0x3d69da53	0.057092976
126	0xbe2140d5	-0.15747388
127	0x3deab225	0.114597596
128	0xbcf0e891	-0.029407771
129	0xbe982db9	-0.29722384
130	0xbd7b5446	-0.061359666
131	0xbe251f54	-0.16125232
132	0x3a17b888	0.000578769
133	0x3e13fa7c	0.14451021
134	0x3c2dbc20	0.0106039345
135	0xbe120638	-0.14260185
136	0x3d14db5f	0.03634202
137	0xbe0a3dc8	-0.1350013
138	0x3cb88373	0.022523617
139	0xbcb7db22	-0.022443358
140	0xbe0d8f6a	-0.1382424
141	0xbb43bcd0	-0.002986718
142	0xbdc33942	-0.095324054
143	0xbd2a179d	-0.041526426
144	0xbd76e9e9	-0.060281668
145	0xbe0caa4b	-0.13736837
146	0xbcf25ec8	-0.02958621
147	0xbdf963e4	-0.12177256
148	0x3c263a94	0.010145802
149	0xbdbd0b7c	-0.09230706
150	0x3aecca6d	0.0018065699
151	0x3d67e87e	0.056618206
152	0xbd7302b1	-0.05932874
153	0xbd8c6798	-0.068556964
154	0xbe4ef075	-0.20208915
155	0xbde229c5	-0.11043123
156	0xbe6f8aaf	-0.23392747
157	0xbe29285f	-0.16519307
158	0xbe8dc883	-0.2769204
159	0xbe5f318e	-0.21796247
160	0xbdd3827d	-0.10327623
161	0x3d55058e	0.05200725
162	0xbd8fdbbf	-0.07024335
163	0xbd9b4d28	-0.07583076
164	0x3c75242c	0.014962237
165	0x3e0f1306	0.139721
166	0xbdd4a7ac	-0.10383543
167	0xbe1592ee	-0.1460683
168	0xbe568792	-0.20950153
169	0xbce0ed75	-0.027456978
170	0xbe4d22b0	-0.20032763
171	0x3b3d339c	0.0028869873
172	0xbc768c2a	-0.015048066
173	0x3c1560d9	0.009117329
174	0xbe39c62a	-0.18142
175	0xbe2bda28	-0.16782439
176	0xbd817e28	-0.063228905
177	0xbdd8ca8e	-0.10585509
178	0x3e112d74	0.14177495
179	0xbd961226	-0.0732768
180	0xbd571983	-0.052514564
181	0xbc8d8cc9	-0.017279046
182	0x3dc29eda	0.09502955
183	0xbc84c1e7	-0.016205741
184	0xbe68631b	-0.22694056
185	0xbcff3342	-0.031152371
186	0xbdf8283b	-0.12117048
187	0xbe09bc1e	-0.13450667
188	0xbdc94939	-0.09828419
189	0x3d4ee674	0.050512746
190	0xbd2dde1a	-0.04244814
191	0xbe4e668a	-0.20156303
192	0xbdaeea7f	-0.0854082
193	0xbdd70fd4	-0.10501066
194	0xbd7fca74	-0.062448934
195	0xbdf02ba0	-0.11727071
196	0x3d94a89f	0.072587244
197	0xbd7d0bb3	-0.061778735
198	0x3d1c5814	0.038169935
199	0xbe44af2e	-0.19207451
200	0xbe16d8d7	-0.14731155
201	0xbe515664	-0.20443112
202	0x3db29252	0.08719315
203	0xbe09987a	-0.13437071
204	0xbd972dc8	-0.07381779
205	0x3d4ff1f5	0.050767858
206	0xbe637cd4	-0.22215587
207	0x3d00987b	0.031395417
208	0x3d1fc1b8	0.039003104
209	0xbc2b342c	-0.01044945
210	0xbd56cc81	-0.052441124
211	0xbdc0bd30	-0.09411085
212	0x3c3055e5	0.010762666
213	0xbd4fd2f0	-0.050738275
214	0xbd203c1d	-0.03911983
215	0xbe22ddc5	-0.15904911
216	0xbdc4c036	-0.09606974
217	0xbe1c5ba4	-0.15269333
218	0xbd74cff1	-0.05976862
219	0xbe2b5d29	-0.16734757
220	0xbe1f3b60	-0.15549994
221	0xbe257b52	-0.16160324
222	0x3ce16612	0.027514491
223	0xbe427f29	-0.1899382
224	0x3d9739d0	0.07384074
225	0xbda384c8	-0.079843104
226	0xbd71d0cc	-0.059037015
227	0xbe1348b8	-0.14383209
228	0xbe3daed6	-0.18523726
229	0x3dd59b02	0.10429956
230	0x3d014879	0.031563256
231	0xbe5fe777	-0.2186564
232	0x3dc4a850	0.096024156
233	0xbdb4dcff	-0.08831214
234	0x3c9a91ca	0.018868346
235	0xbe59f0b0	-0.21283221
236	0xbe6ab26c	-0.22919625
237	0xbec9263f	-0.39286992
238	0xbd1fed4e	-0.03904467
239	0x3d91758f	0.07102501
240	0x3d586bb1	0.052837078
241	0xbd2e96b5	-0.042624194
242	0x3cb06753	0.021533644
243	0x3d4b589e	0.04964506
244	0x3e1910de	0.1494784
245	0x3d63d017	0.05561837
246	0x3dddeba1	0.10835958
247	0x3bf7e9aa	0.0075656967
248	0xbdd55aac	-0.10417685
249	0x3d04d3d6	0.032428585
250	0x3ceb813b	0.028748145
251	0x3df59a55	0.11992327
252	0xbab26f55	-0.0013613502
253	0xbe130cf0	-0.14360404
254	0xbd0ea19a	-0.034822084
255	0xbc0fe108	-0.008781679

lstm_layers.0.bias_hh_l0 f4 [476]
0	0x3c893d7c	0.01675295
1	0xbd09ef76	-0.033675633
2	0xbcc86095	-0.024460116
3	0xbd990bf4	-0.07472983
4	0xbcbcc405	-0.023042688
5	0xbd4d3f9a	-0.050109483
6	0x3dd97501	0.1061802
7	0x3d2b96d4	0.041891888
8	0x3d0a848a	0.033817805
9	0xbd4dbef0	-0.05023092
10	0xbd847e57	-0.0646941
11	0x3bccc0e0	0.0062485784
12	0x3cc1a1ed	0.023636783
13	0xbd7a1125	-0.061051507
14	0xbd89af38	-0.067228734
15	0xbdaa775d	-0.08323548
16	0xbd6d0e34	-0.057874873
17	0x3d426790	0.047462046
18	0x3d583d57	0.052792873
19	0x3d53b5d6	0.051687084
20	0xbda8d43f	-0.08243608
21	0xbb32d77f	-0.002728909
22	0xbda450ad	-0.080232
23	0xbe0e6d12	-0.13908795
24	0x3da1975f	0.078902
25	0x3d850718	0.06495494
26	0xbd7e286f	-0.06205028
27	0xbe33123a	-0.17487422
28	0xbd896a82	-0.06709768
29	0xbdb5ca1f	-0.08876442
30	0xbdd033b3	-0.10166111
31	0x3d166ce8	0.036724955
32	0x3c8852b3	0.016640997
33	0xbcca8fb2	-0.024726722
34	0x3de89ac4	0.11357644
35	0x3c227490	0.009915486
36	0xbdae1185	-0.08499435
37	0xbdb7e92b	-0.0898002
38	0xbd52131a	-0.051287748
39	0xbe2384ff	-0.15968703
40	0xbd6501cc	-0.055909917
41	0xbd0f8564	-0.03503932
42	0x3d38ddf3	0.045133542
43	0x3d4162bc	0.0472133
44	0xbe00dceb	-0.12584274
45	0x3de6dc4b	0.11272486
46	0x3e1c8c48	0.15287888
47	0x3d1e5650	0.038656533
48	0xbe66a161	-0.22522499
49	0xbddf0325	-0.10889272
50	0xbdb61cca	-0.0889221
51	0x3db9306e	0.0904244
52	0xbd81ba84	-0.06334403
53	0x3d95aeda	0.07308741
54	0x3d0ba0ae	0.034088783
55	0x3dae87f6	0.08522026
56	0xbe2191ca	-0.1577827
57	0x3d4ddbfe	0.05025863
58	0x3df38ee3	0.11892488
59	0xbd2fe4c0	-0.042942762
60	0xbcd9f6ce	-0.026606943
61	0xbd5c3035	-0.05375691
62	0xbc6eb1d6	-0.014568767
63	0x3d352c6c	0.044231817
64	0x3d78a2d8	0.060702175
65	0x3db87785	0.090071715
66	0xbe25cb9b	-0.1619095
67	0x3c357bfb	0.0110769225
68	0x3d31bbaf	0.04339188
69	0xbd78590c	-0.060631797
70	0xbcd4e66d	-0.025988782
71	0xbcfa68a5	-0.030567477
72	0xbb03f9c0	-0.0020137876
73	0xbb9966cc	-0.004681444
74	0xbc7b206a	-0.015327552
75	0x3c29c377	0.010361544
76	0x3cedb1a8	0.029015377
77	0xb91c0fab	-0.00014883156
78	0xbc066409	-0.008202561
79	0xbbc64cac	-0.0060516205
80	0xbe239cfa	-0.1597785
81	0xbe99b75f	-0.30022714
82	0xbe3ef51d	-0.18648191
83	0xbc9c88f4	-0.019108273
84	0xbdd065f9	-0.101757
85	0x3d664585	0.056218643
86	0xbcdf6c02	-0.027273182
87	0xbe33caea	-0.17557874
88	0xbd8b28b5	-0.067948736
89	0x3dda58af	0.10661446
90	0xbe25fbaf	-0.16209291
91	0xbe00b6c5	-0.12569721
92	0xbd841073	-0.0644845
93	0xbc33b0a9	-0.010967412
94	0x3d1c8e2f	0.038221534
95	0xbd72dac1	-0.05929065
96	0xbe7a380e	-0.24435446
97	0x3d9c0483	0.07618048
98	0xbde5ba63	-0.11217191
99	0x3dc8b979	0.09801001
100	0xbdd23e40	-0.102657795
101	0xbd285a88	-0.041101962
102	0xbcd2a282	-0.025712255
103	0xbdc9d472	-0.09854974
104	0xbd8e78fd	-0.069566704
105	0xbd9a8889	-0.07545573
106	0x3df0b0f8	0.11752504
107	0xbdbfd930	-0.09367597
108	0xbcea7638	-0.028620824
109	0xbe75ae46	-0.23992261
110	0xbc6b1e6a	-0.014350513
111	0x3cb860c8	0.022507086
112	0xbd2b82ea	-0.041872896
113	0x3d970342	0.07373668
114	0xbda76443	-0.0817342
115	0x3bd26f61	0.006421969
116	0x3dd4d33c	0.10391852
117	0xbe23ace0	-0.15983915
118	0xbe53e2d3	-0.20691995
119	0xbdba3324	-0.090917856
120	0xbe412850	-0.18863034
121	0xbcc9dcee	-0.02464148
122	0x3ccf62ab	0.025315603
123	0xbc8b048e	-0.016969945
124	0xbdee2adc	-0.116292685
125	0x3e15f7fd	0.14645381
126	0xbe2f6d28	-0.17131484
127	0x3e27e994	0.16397697
128	0xbd47ca81	-0.048777107
129	0xbe5e7110	-0.21722817
130	0xbd5d35fd	-0.054006565
131	0xbe17f6c1	-0.14840223
132	0xbd3a7978	-0.045525998
133	0x3defffa0	0.117186785
134	0x3d0598ef	0.032616552
135	0xbe336947	-0.17520629
136	0xbdd36cb4	-0.10323468
137	0x3cc76db5	0.024344305
138	0xbcb7577c	-0.022380583
139	0xbe08f52d	-0.13374777
140	0x3aeb16f0	0.0017935913
141	0xbe0deb17	-0.13859211
142	0xbe3fbbec	-0.1872403
143	0x3c532916	0.012888214
144	0xbe5100d3	-0.2041047
145	0xbe2d39a4	-0.1691652
146	0xbccb7330	-0.0248352
147	0xbd53a388	-0.051669627
148	0xbdacac01	-0.08431245
149	0xbd7aa95e	-0.061196677
150	0xbd05b3d9	-0.03264222
151	0xba4e73a9	-0.0007875511
152	0xbda0b015	-0.07846085
153	0x3c910ec7	0.017707242
154	0xbdecf12e	-0.11569439
155	0xbdb0759a	-0.08616181
156	0xbe8cb1fc	-0.2747954
157	0xbd41f216	-0.04735001
158	0xbe77427c	-0.24146456
159	0xbdcc2d31	-0.09969557
160	0xbe63d772	-0.22250155
161	0x3d8f0c56	0.06984775
162	0xbe5a7fef	-0.21337865
163	0xbd62ed16	-0.055401884
164	0xbdc970c4	-0.098359615
165	0x3d59b793	0.053153586
166	0xbe3b274d	-0.18276711
167	0xbde732f2	-0.11289014
168	0xbe536855	-0.20645268
169	0xbe40fecf	-0.18847202
170	0xbe46a05e	-0.19397113
171	0x3d8b8ab0	0.06813562
172	0x3df3ff37	0.11913913
173	0xbd8a9df1	-0.06768406
174	0xbe38c37c	-0.18043321
175	0xbd49faea	-0.049311556
176	0xbdb68d1d	-0.08913634
177	0xbe0e5859	-0.1390089
178	0x3c515b80	0.012778163
179	0xbc070323	-0.008240494
180	0xbd6ea30f	-0.058260974
181	0xbdb588c1	-0.08863974
182	0x3d7bd706	0.06148436
183	0xbdd51ddf	-0.10406088
184	0xbe4598d7	-0.19296585
185	0xbe24c01c	-0.16088909
186	0xbde92378	-0.11383718
187	0xbe057c28	-0.13035643
188	0xbce84b4b	-0.028356215
189	0x3d3cbc2d	0.046077896
190	0xbdfe0b3d	-0.12404487
191	0xbe1cafe7	-0.15301476
192	0xbd9ee86a	-0.07759173
193	0xbd1614e2	-0.03664101
194	0xbe122a27	-0.14273892
195	0xbdca281f	-0.09870934
196	0x3cc824c1	0.024431588
197	0xbdae047f	-0.08496951
198	0x3d05a633	0.032629203
199	0xbe415b74	-0.18882543
200	0xbe6203a8	-0.22071707
201	0xbe31575c	-0.17318481
202	0x3d419c1f	0.04726803
203	0xbde9008b	-0.11377057
204	0xbde56f13	-0.11202826
205	0x3e028380	0.12745476
206	0xbe695546	-0.22786435
207	0x3d971edf	0.07378935
208	0x3dd60777	0.104506426
209	0xbd3df899	-0.04637966
210	0xbe350116	-0.17676196
211	0xbd63e8ba	-0.055641867
212	0xbdc331dc	-0.09530994
213	0xbe337a2f	-0.17527078
214	0x3db15a7b	0.08659836
215	0xbe7f5c84	-0.24937636
216	0xbe0331b8	-0.12811935
217	0xbe5e6d1c	-0.2172131
218	0x3d9b9c23	0.0759814
219	0xbde350df	-0.11099409
220	0xbe0b6342	-0.13612083
221	0xbe375a53	-0.1790555
222	0x3db915eb	0.09037384
223	0xbe3252bd	-0.17414375
224	0x3c667b1d	0.014067438
225	0xbdf68ed8	-0.12038964
226	0xbd733d6f	-0.05938476
227	0xbe048735	-0.12942202
228	0xbe929ea5	-0.2863666
229	0x3dc3b60e	0.095562086
230	0x3ad54123	0.0016270023
231	0xbe602b87	-0.21891604
232	0xbb82a374	-0.0039867703
233	0xbe03bb07	-0.12864314
234	0xbda10e61	-0.07864071
235	0xbdfeda73	-0.1244401
236	0xbe9c0f0a	-0.30480224
237	0xbee18843	-0.44049272
238	0x3dbb475b	0.09144469
239	0xbcfc34b6	-0.030786853
240	0x3d321ae2	0.04348267
241	0xbc72d53d	-0.014821348
242	0xbe0e5517	-0.13899647
243	0x3ce2cb45	0.027684817
244	0x3d5f4719	0.054511163
245	0xbd7791be	-0.060441725
246	0x3ca6f033	0.020378208
247	0xbda1b359	-0.07895536
248	0xbd9d277a	-0.07673545
249	0xbda54f55	-0.08071772
250	0x3dba2eb8	0.09090942
251	0x3d0e7f49	0.034789357
252	0x3d9fe1b3	0.078067206
253	0xbdaa1b71	-0.08306015
254	0xbc0f5ac6	-0.008749669
255	0x3ddc3265	0.107517995

lstm_layers.1.weight_ih_l0 f4 [476, 119]
0	0xbe68e130	-0.22742152
1	0x3d21ead9	0.03953061
2	0xbd607516	-0.05479916
3	0x3cb2ea06	0.021840107
4	0x3dac25a1	0.08405615
5	0xbdd4388e	-0.103623495
6	0x3dd09a8b	0.10185727
7	0x3e134ea3	0.14385466
8	0x3d0fc235	0.03509732
9	0x3b654e55	0.0034989316
10	0x3e06393c	0.1310777
11	0x3d07e37a	0.033175923
12	0xbc64652e	-0.013940139
13	0x3bd505ca	0.0065009343
14	0xbd1fc694	-0.03900774
15	0xbdbfdf06	-0.0936871
16	0xbd3a361d	-0.045461763
17	0xbe3fb35a	-0.18720761
18	0x3d880ad7	0.066426925
19	0xbbcbe315	-0.0062221386
20	0xbd440e2d	-0.04786508
21	0x3ced5355	0.0289704
22	0xbd4102fc	-0.047121987
23	0x3bc13c91	0.0058971127
24	0x3dca6783	0.098830245
25	0xbd915b4f	-0.07097494
26	0x3c95ef5f	0.018302618
27	0xbdb1018f	-0.086428754
28	0xbd30b6d2	-0.0431431
29	0xbd614b60	-0.055003524
30	0x3df306c8	0.11866528
31	0xbdb522d3	-0.08844533
32	0x3d4cd9c8	0.05001238
33	0x3dbe7ffc	0.09301755
34	0xbd80116c	-0.06253323
35	0x3bee39ce	0.0072700744
36	0xbd3bb298	-0.045824617
37	0xbc2e9094	-0.010654587
38	0x3d976f3c	0.07394263
39	0xbda3408a	-0.07971294
40	0xbe2e74dc	-0.17036766
41	0xbd365525	-0.044514794
42	0x3dd01711	0.101606496
43	0x3dcef2ce	0.10104905
44	0xb96da11e	-0.00022662102
45	0x3e3addc5	0.18248661
46	0xbde41e27	-0.111385636
47	0xbd3b3bc2	-0.045711286
48	0xbd3492dc	-0.04408537
49	0xbdc8e041	-0.09808398
50	0x3e1df082	0.15423778
51	0xbd584f4d	-0.052810002
52	0x3e0bf6c7	0.13668357
53	0x3cf1cd1e	0.029516753
54	0x3df28943	0.11842587
55	0x3c0fe8ce	0.008783532
56	0xbcb05269	-0.021523671
57	0x3d51188f	0.05104881
58	0xbe338bdd	-0.17533822
59	0xbd8388a4	-0.064225465
60	0xbda6aa69	-0.08137972
61	0xbdbffc58	-0.093743026
62	0x3ddb1417	0.10697191
63	0xbdd17c5b	-0.10228797
64	0xbcfe0ae6	-0.031011056
65	0x3e32ab4b	0.17448156
66	0x3d585d52	0.052823372
67	0x3ddc5d9a	0.107600406
68	0x3c98f300	0.018670559
69	0x3da8cbae	0.08241974
70	0xbcc00084	-0.023437746
71	0x3d04014c	0.0322278
72	0xbdd06027	-0.101745896
73	0xbd61660d	-0.055028964
74	0x3d8be144	0.068300754
75	0x3dc9496f	0.098284595
76	0x3cdc87c8	0.026920214
77	0xbd72edf5	-0.059308965
78	0xba1e4840	-0.0006037988
79	0x3d8c4004	0.068481475
80	0xbd830989	-0.06398303
81	0x3d1c8fb8	0.038223
82	0xbe027307	-0.12739192
83	0x3dde21d7	0.10846298
84	0x3da44140	0.08020258
85	0xbd6b6374	-0.057467893
86	0x3d0ce0da	0.034394123
87	0x3e0fa635	0.14028247
88	0x3d7b4172	0.06134171
89	0x3cda956d	0.02668258
90	0x3d251eef	0.040312704
91	0xbda1c79e	-0.07899402
92	0x3d87ec14	0.06636825
93	0xbdda0cde	-0.106469855
94	0xbd2b0167	-0.041749384
95	0x3db0875e	0.08619569
96	0x3e363eb6	0.1779736
97	0xbd4c191f	-0.049828645
98	0x3cf39ba1	0.029737296
99	0x3d6a8ba6	0.057262085
100	0x3dbaaf52	0.09115471
101	0xbdd01ac8	-0.10161358
102	0x3d31d11e	0.04341232
103	0x3d85c1b5	0.06531087
104	0x3d80a589	0.06281573
105	0x3d259575	0.040425736
106	0xbe1c1398	-0.1524185
107	0x3de87a05	0.113513984
108	0xbe0aa655	-0.13540013
109	0xbd34b033	-0.04411335
110	0xbc78fd47	-0.015197105
111	0xbe4f668a	-0.2025396
112	0x3de3f9c9	0.11131627
113	0x3dd6e643	0.10493138
114	0x3c35dc3d	0.011099872
115	0x3dcab038	0.09896892
116	0x3c9a3bdb	0.01882737
117	0x3daec476	0.08533566
118	0xbb7cf11e	-0.0038595865
119	0x3d8dc652	0.06922592
120	0xbbd264d5	-0.0064207115
121	0x3c66daa4	0.014090214
122	0x3da1888d	0.07887373
123	0x3e72994f	0.23691295
124	0xbd6e9192	-0.058244295
125	0x3c993027	0.018699719
126	0x3c77acd0	0.015116885
127	0x3e297e1c	0.16552013
128	0x3cea3290	0.028588563
129	0xbca93ec3	-0.02065981
130	0x3db289f4	0.08717719
131	0xbd0781bf	-0.03308272
132	0xbcd4b900	-0.025967121
133	0xbdaa2681	-0.08308125
134	0x3daac83f	0.08338975
135	0xbccb7e00	-0.024840355
136	0xbe19c842	-0.15017799
137	0xbe13f8b1	-0.14450337
138	0x3e2752e0	0.16340208
139	0x3c0ac601	0.008470059
140	0x3d94d788	0.07267672
141	0xbcaef9e8	-0.021359399
142	0x3cb5b8af	0.02218279
143	0x3b28189f	0.002564944
144	0x3df589e4	0.11989191
145	0x3d4a34bd	0.0493667
146	0x3d5a4e40	0.05329728
147	0xbcddad17	-0.027060075
148	0xbe29effb	-0.16595452
149	0x3e2c7f29	0.16845383
150	0x3d8f1693	0.069867276
151	0xbd993727	-0.074812226
152	0xbd21bc15	-0.03948601
153	0x3dad9a13	0.08476653
154	0x3d92b90f	0.071642034
155	0xbd7250d7	-0.059159126
156	0x3d980caf	0.07424294
157	0x3b8174ab	0.0039506755
158	0x3b4ada46	0.0030952855
159	0xbc32fa66	-0.010923957
160	0x3e9638e0	0.29340267
161	0x3b740a31	0.003723752
162	0xbc27c5ce	-0.010240031
163	0xbcf74873	-0.030185914
164	0xbd8c0343	-0.068365596
165	0xbe2c498e	-0.16824934
166	0xbdf66015	-0.12030045
167	0xbd3d6d6a	-0.046246924
168	0xbd13d98b	-0.036096137
169	0x3e163d49	0.14671816
170	0xbe0d391f	-0.13791321
171	0xbd5f3c00	-0.05450058
172	0x3e86a923	0.26300916
173	0x3dfcdaaa	0.12346394
174	0xbd688154	-0.056763962
175	0x3cb0391f	0.021511612
176	0x3d5ab7ca	0.05339793
177	0xbd67abaa	-0.056560196
178	0xbe389b55	-0.18028004
179	0xbdbe330c	-0.0928708
180	0xbd9640d7	-0.07336586
181	0x3de3ee6e	0.11129461
182	0x3c974529	0.018465595
183	0x3dc62a44	0.0967603
184	0xbc83db9d	-0.01609593
185	0x3c175a5a	0.00923785
186	0xbd69ed8e	-0.057111315
187	0x3d06344f	0.03276473
188	0xbdc17a54	-0.0944716
189	0xbe55d395	-0.20881493
190	0x3da57f1d	0.080808856
191	0xbc408acb	-0.011751841
192	0xbde0fa33	-0.10985222
193	0x3c8e6f5f	0.01738709
194	0x3d7dbd84	0.061948314
195	0x3d9e24ec	0.07721886
196	0xbdb2c83a	-0.087295964
197	0xbc69ca4d	-0.014269424
198	0xbe58b4bf	-0.21162699
199	0x3d1111b3	0.03541727
200	0xbdbb436d	-0.0914372
201	0x3b23ada4	0.0024975324
202	0x3dad6067	0.08465653
203	0x3bdb93fc	0.0067009907
204	0x3dcb89e9	0.09938414
205	0x3ed37402	0.41299444
206	0xbd22576c	-0.039634153
207	0x3c5a0f4f	0.013309314
208	0xbda3cc27	-0.07997923
209	0xbd7b0098	-0.061279863
210	0xbd8f1d53	-0.06988015
211	0x39b680ad	0.00034809616
212	0xbd5cf210	-0.053941786
213	0xbd8cfa67	-0.06883698
214	0x3e6e4c8d	0.2327139
215	0xbdf137b3	-0.11778202
216	0x3d99b180	0.075045586
217	0xbd45b401	-0.04826737
218	0xbd8fc985	-0.07020859
219	0x3cb07fc6	0.021545302
220	0xbda31285	-0.07962517
221	0x3e17858b	0.14797036
222	0x3e1185fe	0.1421127
223	0xbda8d3a1	-0.0824349
224	0x3da08477	0.07837766
225	0x3dac3c30	0.08409917
226	0x3df789e2	0.12086846
227	0xbd9564db	-0.07294627
228	0x3a58bf7e	0.00082682807
229	0x3e5f2cc3	0.21794419
230	0xbd5daf13	-0.054122042
231	0x3d22a30e	0.039706282
232	0xbdfe0a28	-0.12404281
233	0xbbcab512	-0.006186136
234	0x3df92c18	0.12166613
235	0x3c822797	0.015888019
236	0x3d07eecd	0.033186723
237	0xbd390b34	-0.0451767
238	0xbd9cab6e	-0.07649885
239	0x3e0b5c64	0.13609463
240	0x3cee7b5f	0.029111562
241	0xbc3cdbbe	-0.011527
242	0xbd844ea7	-0.06460314
243	0x3c49363a	0.012280995
244	0xbddaa377	-0.1067571
245	0x3e176457	0.1478437
246	0xbd097ee4	-0.033568278
247	0xbbcea362	-0.006306098
248	0xbd395ec9	-0.04525641
249	0xbd8014e9	-0.06253988
250	0xbe356a3f	-0.17716311
251	0xbd8974ad	-0.06711707
252	0xbe84d25c	-0.2594174
253	0x3d705dc2	0.058683164
254	0x3d3f44ef	0.0466966
255	0x3dc099dd	0.09404347

lstm_layers.1.weight_hh_l0 f4 [476, 119]
0	0xbd028b2b	-0.031871002
1	0x3d2698b2	0.040672965
2	0x3da5cc68	0.08095628
3	0x3da77335	0.08176271
4	0x3debc4aa	0.1151212
5	0x3d6b7745	0.05748679
6	0xbda7c58c	-0.08191976
7	0xbcd9d70d	-0.026591802
8	0xbbcb51e1	-0.006204829
9	0x3dd9437c	0.10608575
10	0xbd696d64	-0.05698909
11	0xbd31f79f	-0.04344904
12	0x3d53a47c	0.051670536
13	0x3d8e588c	0.06950483
14	0x3ca39734	0.01996956
15	0xbd147ba5	-0.03625073
16	0x3cc590ce	0.0241169
17	0x3d2526e2	0.040320285
18	0x3d9f0730	0.07765043
19	0x3d9599d9	0.07304735
20	0x3c2ae246	0.010429924
21	0xbcb47c5b	-0.022031954
22	0x3d8e4f93	0.06948771
23	0xbdf55f50	-0.1198107
24	0x3dec7c91	0.11547197
25	0xbd8a52d1	-0.06754077
26	0xbe012367	-0.12611161
27	0xbc414776	-0.011796823
28	0x3cd789db	0.026310852
29	0x3cfe78e6	0.031063508
30	0x3c64a99f	0.013956456
31	0xbd8098f0	-0.062791705
32	0xbdce4696	-0.10072057
33	0x3d85f2db	0.06540462
34	0x3dd4b6f8	0.10386461
35	0x3ce12638	0.027484044
36	0xbcf0c321	-0.02938992
37	0x3d27ec65	0.040996928
38	0x3ced5e15	0.028975526
39	0xbd9afda5	-0.0756791
40	0x3dcdf4e1	0.100564726
41	0xbdcb5be6	-0.099296376
42	0xbe14c760	-0.1452918
43	0x3cc9d0bd	0.024635667
44	0xbdb84e7d	-0.089993455
45	0xbd72b0f9	-0.059250806
46	0xbd882680	-0.06647968
47	0xbc5feeef	-0.013667806
48	0x3d141527	0.036152985
49	0xbd846608	-0.064647734
50	0xbd84eac5	-0.06490091
51	0x3c1c8f8e	0.0095557105
52	0xbcf9ca33	-0.030491924
53	0xbd3ffdcc	-0.0468729
54	0xbc5d9eb5	-0.013526608
55	0x3d8b3a53	0.06798234
56	0xbd17d45b	-0.037067752
57	0x3cf7f600	0.03026867
58	0x3b3677e9	0.0027842468
59	0xbe071331	-0.13190915
60	0xbdb0bb3d	-0.08629463
61	0xbe0aab77	-0.13541971
62	0x3d892f29	0.06698448
63	0xbd5f952b	-0.054585617
64	0xbd0ec4d3	-0.034855675
65	0x3d4aeecc	0.04954414
66	0x3c4d7fa3	0.012542638
67	0x3d265c4f	0.040615376
68	0x3da68cd2	0.08132328
69	0xbda3c814	-0.07997146
70	0xbd64a4b3	-0.055821132
71	0x3d0355be	0.032064192
72	0x3dc502bc	0.09619662
73	0xbd8560af	-0.065125816
74	0xbd3c1dda	-0.045926906
75	0x3ccb398d	0.024807716
76	0x3dcbab14	0.0994474
77	0x3dcc5130	0.09976423
78	0x3e165d3e	0.14684007
79	0xbc288a8c	-0.010286938
80	0xbcb0db3e	-0.021588918
81	0x3d30c02e	0.043152027
82	0xbe078bdf	-0.1323695
83	0x3d591e32	0.053007312
84	0x3c840cf4	0.016119458
85	0xbc546012	-0.012962358
86	0xbdb05be8	-0.0861128
87	0xbd0693f0	-0.032855928
88	0x3b0d0d49	0.002152281
89	0xbd9498af	-0.072556846
90	0x3d9c5b06	0.07634549
91	0x3c59778c	0.013273131
92	0x3cf4187b	0.02979683
93	0x3d7ac199	0.061219785
94	0x3afef863	0.0019452687
95	0xbce7c034	-0.028289892
96	0x3cd5e1e0	0.026108682
97	0x3cd5cd79	0.026098954
98	0xbdf78eae	-0.12087761
99	0xbd899265	-0.06717376
100	0xbd4b9782	-0.049705036
101	0xbcda80b7	-0.026672704
102	0xbcb3289e	-0.021869954
103	0x3cc3a648	0.023883
104	0xbd19b966	-0.037530325
105	0xbd0aeb00	-0.03391552
106	0x3caa171e	0.020762976
107	0xbc0f2b1c	-0.008738305
108	0x3d875347	0.06607681
109	0x3d51200b	0.05105595
110	0xbd8faac5	-0.070149936
111	0x3d2dfa9b	0.042475324
112	0xbd90c29a	-0.07068367
113	0x3e1600ba	0.14648715
114	0x3d0a36fb	0.03374384
115	0x3ad680ef	0.001636533
116	0x3d65fdfd	0.056150425
117	0x3ce70b5d	0.02820366
118	0x3d80b117	0.06283777
119	0xbe65d886	-0.22445878
120	0xbd6096be	-0.05483126
121	0xbc9f9e8d	-0.019484783
122	0xbe78e6db	-0.24306814
123	0x3d2e6aaf	0.04258221
124	0xbd0a9f04	-0.033843055
125	0xbddd21e5	-0.107974805
126	0xbd9681fa	-0.0734901
127	0x3e03b491	0.1286185
128	0xbd30b845	-0.043144483
129	0xbdfd5038	-0.12368816
130	0xbc91b0a6	-0.017784428
131	0xbdffb4dd	-0.12485669
132	0xbc284f63	-0.0102728335
133	0x3d83e05e	0.06439279
134	0x3d2f18e6	0.042748354
135	0x3e36283a	0.17788783
136	0x3d4863c8	0.048923284
137	0x3dbc6113	0.09198203
138	0x3db07bcc	0.086173624
139	0xbd62caa5	-0.055369038
140	0xbcae38c8	-0.02126731
141	0x3dd1395c	0.102160186
142	0xbd03737c	-0.032092556
143	0x3de56bf5	0.11202232
144	0x3d166aca	0.036722936
145	0xbcf93c80	-0.030424356
146	0x3c9e6d5e	0.01933926
147	0x3dda1a92	0.10649599
148	0xbc68d699	-0.01421132
149	0x3d55669b	0.052099805
150	0x3dedb383	0.11606505
151	0x3cabb684	0.020961054
152	0x3dabd630	0.083904624
153	0x3c9feb17	0.01952128
154	0x3d822de6	0.06356411
155	0xbd667e0b	-0.056272548
156	0xbe196f97	-0.14983974
157	0xbce72be0	-0.028219163
158	0x3de26ade	0.110555395
159	0x3e1df0c4	0.15423876
160	0xbe9d966f	-0.30778834
161	0xbe0f2464	-0.13978726
162	0xbc735dca	-0.014853904
163	0xbd26f97d	-0.040765274
164	0x3abaf0b3	0.0014262408
165	0x3c15e927	0.009149826
166	0xbdd54068	-0.10412675
167	0xbe8a0e26	-0.2696392
168	0xbc84a377	-0.016191227
169	0xbd826d6f	-0.06368529
170	0xbe267ff1	-0.16259743
171	0x3cfb2dfc	0.030661575
172	0xbda6a04f	-0.08136045
173	0xbdbdebc0	-0.09273481
174	0x3d4320e4	0.04763879
175	0x3cd0ce82	0.025489096
176	0xbe301980	-0.17197227
177	0x3dee7544	0.116434604
178	0xbdcc6c29	-0.099815674
179	0xbe0d3bbe	-0.13792321
180	0xbdcd8579	-0.100352235
181	0xbd9e74d5	-0.07737128
182	0xbb574f26	-0.0032853573
183	0x3ce69be8	0.028150514
184	0x3d88282b	0.066482864
185	0x3dd46e62	0.10372616
186	0xbe022624	-0.12709862
187	0xbd0bfa07	-0.03417399
188	0xbd6a465c	-0.057196006
189	0xbe2711a6	-0.16315326
190	0xbdaefbd4	-0.08544126
191	0x3db7dd83	0.08977797
192	0x3d95a549	0.07306916
193	0x3d8e22c4	0.06940225
194	0xbd4906f0	-0.04907888
195	0xbd4d03f6	-0.050052606
196	0x3d8c1410	0.06839764
197	0x3e3d7809	0.18502821
198	0x3d16afd8	0.03678879
199	0xbd9df89d	-0.07713435
200	0xbe00d9fd	-0.12583156
201	0xbd9ca7dc	-0.07649204
202	0x3e43456c	0.19069451
203	0xbe0e6692	-0.13906315
204	0x3c702eb4	0.014659572
205	0x3e34104e	0.17584345
206	0xbb2fa398	-0.002680039
207	0x3c01d028	0.0079231635
208	0xbcecbf07	-0.028899683
209	0x3d99058e	0.074717626
210	0x3dd01e5c	0.101620406
211	0x3e29d905	0.16586693
212	0xbc19d8a3	-0.009390029
213	0xbdd9ea55	-0.106403984
214	0x3ce55016	0.02799229
215	0xbe071482	-0.13191417
216	0x3e554247	0.20826064
217	0x3d12198a	0.035668887
218	0x3c8f9bb0	0.017530292
219	0xbe2434bf	-0.16035746
220	0x3e19aab0	0.15006518
221	0xbdc17f20	-0.09448075
222	0xbd50af46	-0.050948404
223	0x3c150af4	0.00909685
224	0xbd13c297	-0.036074247
225	0xbb9d5139	-0.0048009423
226	0xbd6054b4	-0.05476828
227	0xbd1ddbfa	-0.038539864
228	0xbc39ca9c	-0.01133981
229	0x3d931c63	0.07183149
230	0x3d978aaa	0.07399495
231	0x3dd3c5d9	0.10340471
232	0xbb480fdb	-0.0030527029
233	0x3e2ce4a8	0.168841
234	0x3e3b475b	0.18288939
235	0x3daa35c0	0.08311033
236	0x3d5f0ee1	0.05445755
237	0x3e13aa07	0.14420329
238	0x3cd080cb	0.025452038
239	0x3bf43255	0.007452289
240	0xbd99452b	-0.07483896
241	0x3d33af0a	0.043868102
242	0xbe1db1c1	-0.15399839
243	0xbdd450dc	-0.10366985
244	0xbd72e3b1	-0.059299175
245	0x3d337ac9	0.04381827
246	0x3d1c5b72	0.038173147
247	0xbd0e3b68	-0.034724623
248	0xbd018620	-0.031622052
249	0xbe1a2bdd	-0.15055795
250	0x3e1666f5	0.14687712
251	0xbc7b735f	-0.015347331
252	0xbe0a9f23	-0.13537268
253	0x3bb7fa90	0.005614586
254	0xbdac2f02	-0.084074035
255	0xbc221568	-0.009892799

lstm_layers.1.bias_ih_l0 f4 [476]
0	0xbda6f311	-0.0815183
1	0xbe8816aa	-0.2657979
2	0x3d429246	0.04750278
3	0xbe45d521	-0.19319583
4	0xbe80ece0	-0.2518072
5	0xbc80b8ea	-0.015713174
6	0xbd9acf78	-0.07559103
7	0xbdf3ea7f	-0.11909961
8	0xbe4295db	-0.19002478
9	0xbde0ba92	-0.109730855
10	0xbe0a3e71	-0.13500382
11	0x3c621a9e	0.013800291
12	0xbdc24f45	-0.09487776
13	0xbe15b0dc	-0.14618248
14	0xbd7c5294	-0.06160219
15	0xbe0f96f1	-0.14022423
16	0xbda329ee	-0.07966982
17	0xbea18e5f	-0.31553933
18	0xbd86a0da	-0.06573649
19	0xbd9cf1e7	-0.07663327
20	0xbe57c2a5	-0.21070345
21	0xbd65c456	-0.056095444
22	0xbeaeaa6d	-0.341144
23	0xbe776ba0	-0.2416215
24	0xbdb1fe0c	-0.08691034
25	0xbd21ed5b	-0.039533
26	0x3d0e3605	0.034719486
27	0x3d2f8306	0.042849563
28	0xbdb5502e	-0.08853184
29	0xbe7fbcf9	-0.24974431
30	0xbd7e54a1	-0.062092427
31	0xbd2cb1b3	-0.042161655
32	0x3d26b46e	0.040699415
33	0xbe0b517b	-0.13605301
34	0xbc6add3f	-0.014334976
35	0x3cb40c42	0.021978501
36	0xbd70658e	-0.0586906
37	0xbce0cb1a	-0.027440596
38	0xbdce97a9	-0.10087521
39	0x3d8f12e4	0.06986025
40	0x3dc71de4	0.09722498
41	0xbe327caf	-0.17430376
42	0xbe17e525	-0.14833505
43	0xbe3f56ba	-0.18685427
44	0xbdaed2b5	-0.08536283
45	0x3d0cf9ca	0.034417905
46	0xbdb5bd71	-0.08874024
47	0xbe140cd5	-0.1445802
48	0xbe163924	-0.14670235
49	0x3ba78ddc	0.0051133465
50	0xbd93f802	-0.07225038
51	0xbc18f7e1	-0.009336443
52	0xbc37c441	-0.011216224
53	0x3b2413c7	0.0025036202
54	0xbc8098b5	-0.015697816
55	0xbd88229b	-0.066472255
56	0xbe10e37d	-0.1414928
57	0xbddad646	-0.10685401
58	0xbd297108	-0.04136756
59	0xbe2624c2	-0.1622496
60	0xbd2583d1	-0.040408913
61	0x3bc2b253	0.005941668
62	0xbd269784	-0.04067184
63	0xbd171daf	-0.036893543
64	0x3ca87b25	0.020566532
65	0xbed24ba7	-0.41073343
66	0xbe982a73	-0.29719886
67	0xbe917cf6	-0.2841565
68	0xbdc5c416	-0.09656541
69	0xbcc9a829	-0.024616318
70	0xbe923b33	-0.2856079
71	0xbdf5b6c4	-0.119977504
72	0xbd9b1522	-0.0757239
73	0xbd8ebdb3	-0.06969776
74	0xbbbafa91	-0.0057061394
75	0xbe8b024d	-0.27150193
76	0xbdc46396	-0.09589307
77	0xbd0ec7b1	-0.03485841
78	0xbe482330	-0.19544673
79	0xbb3c277c	-0.0028710058
80	0xbea50db2	-0.3223701
81	0xbdcdddc5	-0.10052065
82	0xbdf6d584	-0.120524436
83	0xbdde0d91	-0.10842431
84	0xbd197b43	-0.037471067
85	0xbe1732b1	-0.14765431
86	0x3c5667a4	0.013086233
87	0x3c8ec71a	0.017428923
88	0xbd7a6aa2	-0.06113685
89	0xbcd4d2c4	-0.025979407
90	0xbc73bdde	-0.014876811
91	0x3c6633af	0.014050408
92	0xbd770e17	-0.06031617
93	0xbc5304bd	-0.012879548
94	0xbdd3048d	-0.10303602
95	0xbcb2db12	-0.021832976
96	0xbe09c73f	-0.13454913
97	0xbdfd8e77	-0.12380689
98	0xbe54b41e	-0.20771834
99	0xbd828718	-0.06373423
100	0xbe47f917	-0.19528614
101	0xbe297fcb	-0.16552655
102	0xbe330b69	-0.17484821
103	0x3da81cd8	0.082086265
104	0xbd7cadd9	-0.06168923
105	0x3cdfab50	0.027303368
106	0x3c33b41b	0.010968233
107	0xbeac3a92	-0.33638436
108	0x3a518737	0.0007992866
109	0xbd445fc3	-0.047942888
110	0xbe8b5384	-0.27212155
111	0x3c0ae204	0.008476738
112	0xbc095b68	-0.008383609
113	0xbe86efd4	-0.2635485
114	0x3cb6e32d	0.022325123
115	0xbccade39	-0.024764167
116	0xbd8e200f	-0.069397084
117	0x38998003	7.3194526e-05
118	0x3d5af70d	0.053458262
119	0xbdde70d1	-0.10861362
120	0xbe8909b7	-0.26765224
121	0xbd9e151d	-0.07718871
122	0xbe677c0a	-0.22605911
123	0xbe0b215a	-0.13586941
124	0xbe12f8b8	-0.14352691
125	0xbd6ba814	-0.05753334
126	0xbcc5625a	-0.02409475
127	0xbe6047f9	-0.21902455
128	0xbbc257d7	-0.0059308815
129	0xbd801364	-0.062536985
130	0xbd0d649d	-0.03451978
131	0xbe6e44ac	-0.23268384
132	0xbddc218c	-0.10748586
133	0xbd94cad8	-0.07265252
134	0xbe6348a6	-0.22195682
135	0xbdc6e4ad	-0.09711585
136	0xbe92b235	-0.28651586
137	0xbe5b10b3	-0.21393089
138	0xbc418a31	-0.011812733
139	0xbea467c3	-0.32110414
140	0xbe057e07	-0.13036357
141	0xbec46863	-0.3836089
142	0xbe796b89	-0.24357428
143	0xbe23b0c4	-0.159854
144	0xbd92ef88	-0.07174593
145	0xbdb52839	-0.088455625
146	0xbd1becbd	-0.038067568
147	0xbe3a3521	-0.1818433
148	0xbe4c711c	-0.19965023
149	0xbdcc9fa9	-0.0999139
150	0xbd3bb03a	-0.04582236
151	0xbe039cc3	-0.12852769
152	0xbe852841	-0.26007274
153	0xbd3f348c	-0.046680972
154	0x3d2e289b	0.042519193
155	0xbd7f787f	-0.062370773
156	0xbdd8fc62	-0.10595013
157	0xbe249065	-0.16070707
158	0xbdb0140b	-0.08597573
159	0x3c1443d1	0.009049372
160	0xbdaffa17	-0.08592623
161	0xbe55c541	-0.20876028
162	0xbe8b42b9	-0.27199343
163	0xbe1d6399	-0.15370025
164	0xbd79020c	-0.060792968
165	0xbaf0bd13	-0.0018366895
166	0xbde71a82	-0.11284353
167	0xbeb111f9	-0.34584025
168	0xbe36978d	-0.1783125
169	0xbd4a7a7d	-0.04943322
170	0xbdf2e788	-0.11860567
171	0xbe4296f6	-0.190029
172	0xbdb82443	-0.089912914
173	0xbdfeb346	-0.124365374
174	0xbbe51cb4	-0.006991947
175	0xbda0a84b	-0.07844599
176	0xbe4d4fb1	-0.20049931
177	0x3c8bbbbc	0.017057292
178	0xbe35fd2f	-0.17772363
179	0x3c37d969	0.011221268
180	0xbdc8342b	-0.09775575
181	0xbd01c2cd	-0.031679917
182	0x3d1e7c9c	0.038693056
183	0xbe1a4300	-0.15064621
184	0xbea93ed2	-0.3305574
185	0xbe8fe572	-0.2810474
186	0xbe878619	-0.26469496
187	0xbcc9c054	-0.024627842
188	0xbc9ec178	-0.019379362
189	0xbe9af3ac	-0.30264032
190	0xbe2539dd	-0.16135354
191	0xbe6203fe	-0.22071835
192	0xbd99d6b8	-0.075116575
193	0xbc6347c1	-0.013872088
194	0xbe9b2379	-0.303005
195	0xbe5124f4	-0.20424253
196	0xbe67bbc1	-0.22630216
197	0xbe499637	-0.19686209
198	0xbe3e769b	-0.18599932
199	0xbe8228e1	-0.25421813
200	0xbe418f51	-0.18902327
201	0xbd27217a	-0.04080341
202	0xbdbb2bc2	-0.091392055
203	0xbe2edc0f	-0.17076133
204	0xbd0e9f4f	-0.034819897
205	0xbb076135	-0.0020657305
206	0xbda7c4a6	-0.081918046
207	0xbc35048c	-0.011048447
208	0xbe0bc5d5	-0.13649686
209	0xbe153947	-0.14572631
210	0xbe0d56e8	-0.13802683
211	0xbe34d834	-0.176606
212	0xbe019aea	-0.12656751
213	0xbe1627eb	-0.14663665
214	0xbddad2ab	-0.10684713
215	0xbe440a0e	-0.1914446
216	0xbe91a2cf	-0.28444526
217	0xbdd1301c	-0.10214254
218	0xbc66e354	-0.014092285
219	0xbe347fd8	-0.17626894
220	0xbe237543	-0.159627
221	0xbe7a58bd	-0.24447913
222	0x3acbd7e2	0.0015552009
223	0xbe5010f9	-0.20318975
224	0x3b4325c7	0.0029777156
225	0xbd518578	-0.051152676
226	0xbe8fddbf	-0.28098866
227	0xbe372454	-0.17884952
228	0xbda80c41	-0.08205462
229	0xbe9b011b	-0.3027428
230	0x3d4cd609	0.050008807
231	0xbe032c03	-0.12809758
232	0xbe658cbb	-0.22416966
233	0xbe19f194	-0.15033561
234	0x3ba90782	0.0051583657
235	0xbdb896f3	-0.09013166
236	0xbccc1aac	-0.024915062
237	0x3cfff9a5	0.03124697
238	0x3cf4cd2b	0.029882988
239	0x3d793fee	0.060851984
240	0xbde31e06	-0.11089711
241	0x3bcf3d72	0.0063244635
242	0x3cf282d5	0.029603401
243	0xbd1a6f4f	-0.03770381
244	0xbca3fc18	-0.020017669
245	0xbbff4469	-0.0077901375
246	0xbcc4f24d	-0.02404132
247	0x3d8bce4b	0.06826457
248	0x3d8c0ea9	0.06838734
249	0x3b8d6065	0.0043144696
250	0xbd125401	-0.035724644
251	0x3d227cfd	0.03966998
252	0xbce28004	-0.027648933
253	0xbdca7b7a	-0.098868325
254	0xbc5726ef	-0.013131841
255	0x3ca65453	0.02030388
