foundation_models/Ensemble_model14_DeepSurv_LSTM_Event_1_20250805_000424.pt (torch, 593928 bytes, 17 tensors)

lstm_layers.0.weight_ih_l0 f4 [264, 11]
-0.074428774 -0.24962614 0.027643023 -0.025538856 -0.024363164 -0.029847778 -0.09039454 -0.12647171
-0.14237538 -0.12926039 -0.1795071 0.096595936 0.15816025 0.30962217 0.2734881 0.21302173
0.050858576 0.069088854 0.14014035 0.12815927 0.022720326 0.025127966 -0.005655407 -0.18919751
-0.0111321565 -0.0012038322 -0.1362372 -0.059253044 -0.13127007 -0.10911861 -0.08470588 0.089607425
0.013888855 0.02842136 0.07171857 0.012859338 0.43185747 0.2714394 -0.0218275 0.06771171
-0.1152686 -0.043961063 0.11914713 0.4086292 -0.014492964 0.11152225 -0.28413147 0.6456799
0.045413364 0.02058949 -0.11212375 0.031993248 -0.040150445 -0.19977187 -0.5527691 0.10696315
-0.21068507 -0.18999329 0.071478724 -0.25588843 -0.12326899 -0.047116525 -0.10970289 -0.1662793
0.04115013 -0.019873474 -0.0080390675 0.11913016 0.17839484 0.6700898 0.555346 0.082126
0.068411656 -0.082850136 -0.07201211 0.027123688 -0.0003684883 0.011413566 -0.105308995 -0.20727275
-0.37840253 -0.4010792 -0.24370125 -0.028423468 -0.14737079 -0.042780902 0.07325942 0.17875096
0.26005796 0.37581515 0.31855693 0.26888606 0.3878714 0.36367014 0.36760414 0.38525346
0.34326184 0.14630023 0.20451386 0.022416305 0.006356245 -0.2077906 -0.039742436 0.41479918
0.0097444495 -0.09162628 -0.11526374 0.078733556 -0.17195815 -0.18895337 0.16345176 -0.04869057
-0.04439476 0.3098071 0.39967972 0.03470667 0.083307154 -0.03574568 -0.015072635 -0.14853208
-0.16076338 0.09443849 -0.2616913 0.12690361 0.049230617 0.018054055 -0.034274727 0.08767497
-0.13842024 -0.0050145863 -0.12501557 -0.07617792 0.045512248 -0.006345754 -0.24145381 -0.043034047
-0.27369916 -0.16833578 -0.23316328 -0.032655668 0.057699822 -0.03082874 0.035640396 -0.049867656
0.073562965 -0.007421688 -0.31066173 0.44652963 0.36722082 -0.04430875 0.019785464 0.13580264
-0.0021181128 0.1249802 0.19892253 0.2499706 0.14267391 0.112029985 0.20211402 0.13803348
0.22946805 0.2796258 0.12905456 0.22152454 0.08193709 -0.10181323 0.15350257 0.04149251
0.007811934 0.3146747 0.15873279 0.0035701476 -0.1416508 0.18131751 0.16915531 -0.195105
-0.22560178 0.08198515 -0.05531246 0.30032805 -0.28802982 -0.2074927 0.02248795 0.022084447
0.0042691194 0.13107538 0.032753445 -0.21974126 -0.08642717 0.097903885 -1.5004791 0.53646815
0.3557955 -0.05928645 -0.039296247 0.12674248 0.0016458404 0.05783811 0.10020962 -0.24044518
-0.055051487 0.065970406 -0.06846493 -0.08966848 -0.0875302 -0.1104346 -0.005915993 -0.051700246
0.10149847 0.0010159895 -0.17037652 -0.13500482 -0.21488082 -0.14101124 0.00093484035 -0.0074913306
-0.16034335 -0.10673757 0.08600364 -0.034624413 -0.098931685 0.06753213 -0.4457487 1.2970098
-0.09968822 -0.42538702 -0.05573195 -0.06556079 -0.0659663 0.03592832 -0.3255918 0.11418584
-0.07818415 -0.2421892 -0.10347793 -0.10835908 -0.30427223 -0.09765815 -0.08736977 -0.22509417
-0.06635475 0.06811346 -0.011363918 0.02420563 -0.29158366 0.27051055 -0.3384346 -0.28170887
0.12036789 0.09890556 -0.034951936 -0.119102895 0.092429906 0.027409405 0.14238079 0.21848309
00000000: 1d6e 98bd ff9d 7fbe 9f73 e23c dd36 d1bc
00000010: 4295 c7bc 5483 f4bc c620 b9bd cd81 01be
00000020: daca 11be d65c 04be b6d0 37be 17d4 c53d
00000030: c3f4 213e cc86 9e3e a206 8c3e 5e22 5a3e
00000040: 1551 503d 757e 8d3d f480 0f3e 2f3c 033e
00000050: fa1f ba3c 2ad9 cd3c fe50 b9bb febc 41be
00000060: a663 36bc e8c9 9dba c481 0bbe 52b3 72bd
00000070: a96b 06be 9479 dfbd 477a adbd 1984 b73d
00000080: 158e 633c e9d3 e83c 30e1 923d f9af 523c
00000090: 6c1c dd3e 1bfa 8a3e 96cf b2bc 70ac 8a3d
000000a0: f211 ecbd 8410 34bd 6903 f43d d937 d13e
000000b0: e673 6dbc c765 e43d ae79 91be 474b 253f
000000c0: 5d03 3a3d 4aab a83c 23a1 e5bd 5a0b 033d
000000d0: cb74 24bd ff90 4cbe 4782 0dbf 7f0f db3d
000000e0: d4bd 57be 9a8d 42be 7063 923d cf03 83be
000000f0: 7474 fcbd 42fd 40bd e9ab e0bd 1f45 2abe
00000100: 0a8d 283d b2cd a2bc 4bb6 03bc 83fa f33d
00000110: 23ad 363e 018b 2b3f 282b 0e3f ad31 a83d
00000120: 691b 8c3d 55ad a9bd 167b 93bd 7f32 de3c
00000130: aa31 c1b9 f7ff 3a3c 3eac d7bd 4f3f 54be
00000140: fabd c1be 415a cdbe d28c 79be 55d8 e8bc
00000150: 5ee8 16be 073b 2fbd 0909 963d 7e0a 373e
00000160: 5126 853e d86a c03e e519 a33e 6fab 893e
00000170: 1597 c63e f932 ba3e 9c36 bc3e f13f c53e
00000180: 04c0 af3e bacf 153e 156c 513e 66a2 b73c
00000190: 0c48 d03b 0fc7 54be f7c8 22bd 8f60 d43e
000001a0: 2fa7 1f3c 8fa6 bbbd 650f ecbd 0f3f a13d
000001b0: cc15 30be fe7c 41be e65f 273e c36f 47bd
000001c0: 48d7 35bd 099f 9e3e d2a2 cc3e 9528 0e3d
000001d0: f19c aa3d 106a 12bd 37f3 76bc cb18 18be
000001e0: 289f 24be f868 c13d 67fc 85be 05f3 013e
000001f0: 0ba6 493d 19e6 933c a863 0cbd ef8e b33d
00000200: 09be 0dbe 6651 a4bb 1504 00be 2b03 9cbd
00000210: 0d6b 3a3d 0bf0 cfbb ab3f 77be 7844 30bd
00000220: 4c22 8cbe 3760 2cbe 5bc2 6ebe f3c1 05bd
00000230: a656 6c3d 8e8c fcbc aafb 113d 0742 4cbd
00000240: 2ea8 963d a231 f3bb 0e0f 9fbe 889f e43e
00000250: 5e04 bc3e 187d 35bd 2015 a23c d90f 0b3e
00000260: 09d0 0abb 9ef5 ff3d 59b2 4b3e 4bf8 7f3e
00000270: 1c19 123e fa6f e53d faf6 4e3e a658 0d3e
00000280: acf9 6a3e 1d2b 8f3e e126 043e 54d7 623e
00000290: a2ce a73d 7483 d0bd c72f 1d3e 0df4 293d
000002a0: 41fb ff3b 0b1d a13e d98a 223e 23f9 693b
000002b0: e80c 11be 4cab 393e 0d37 2d3e 9bc9 47be
000002c0: 2704 67be d5e7 a73d 518f 62bd 99c4 993e
000002d0: a578 93be f778 54be a638 b83c 71ea b43c
000002e0: f8e3 8b3b a038 063e 7a28 063d da03 61be
000002f0: ba00 b1bd d581 c83d b30f c0bf fa55 093f
00000300: d42a b63e 59d6 72bd 1af5 20bd c8c8 013e
00000310: 3db9 d73a a7e7 6c3d b43a cd3d 4337 76be
00000320: ab7d 61bd 7e1b 873d 5737 8cbd 1ca4 b7bd
00000330: 0943 b3bd 892b e2bd f2da c1bb a3c3 53bd
00000340: 6ede cf3d f32a 853a 2f77 2ebe b43e 0abe
00000350: b809 5cbe 4065 10be 1310 753a d679 f5bb
00000360: 0c31 24be 3a99 dabd ad22 b03d 54d2 0dbd
00000370: b29c cabd 494e 8a3d 2c39 e4be 6b04 a63f
00000380: 5629 ccbd 54cc d9be 2f47 64bd bc44 86bd
00000390: 5719 87bd 9329 133d f8b3 a6be 44da e93d
000003a0: 031f a0bd 7200 78be 3dec d3bd 5eeb ddbd
000003b0: 92c9 9bbe ff00 c8bd ecee b2bd 167f 66be
000003c0: 00e5 87bd 127f 8b3d ba2f 3abc e34a c63c
000003d0: 744a 95be 5c80 8a3e 4d47 adbe 253c 90be
000003e0: 7183 f63d 008f ca3d c329 0fbd 38ec f3bd
000003f0: e44b bd3d b089 e03c 45cc 113e 08ba 5f3e

lstm_layers.0.weight_hh_l0 f4 [264, 66]
-0.02998168 -0.043422796 0.079823665 0.08501211 -0.010347927 0.06468501 -0.071291335 -0.08200677
0.06768164 -0.043297403 -0.12267401 -0.08899288 -0.0068324767 -0.013560342 0.028114025 -0.03435505
-0.041901372 -0.06839564 0.08672802 0.088230535 -0.04622002 0.11508107 -0.16267693 0.16466227
0.09017616 -0.08245272 -0.038231336 0.058921494 0.039485298 0.05213925 -0.02208906 -0.06334985
-0.059085365 -0.038650375 0.008514709 0.016833363 -0.031767063 0.099316806 0.10513361 -0.108485766
-0.07471846 -0.048667137 -0.14762634 0.010447237 0.040864404 -0.05494194 0.056363143 0.026998356
-0.08386999 0.051556036 0.026445761 -0.046891626 0.028553266 0.09705535 -0.015436882 -0.042167947
0.012842105 -0.019756682 -0.0654834 0.06341975 0.1648729 0.0050010504 0.061044678 -0.03215794
0.074076794 0.0059472234 -0.034078173 0.089562505 -0.22634365 0.031988487 -0.024845462 0.1639955
-0.048426468 0.089137085 -0.15079957 -0.006731278 0.12315422 0.12137926 0.20531642 -0.06735616
-0.16052283 -0.0030022187 0.070035346 -0.00353052 -0.18919837 0.0162395 0.036105722 0.094404735
0.22440729 -0.08055404 0.2696944 0.053625606 0.08064752 -0.053912386 0.0394471 -0.06439768
-0.06854288 0.29779994 0.18127388 -0.060262408 -0.048987586 0.12007649 -0.110964656 -0.25456998
-0.117090166 0.016925164 0.03593588 0.1423551 0.16717674 -0.17946924 -0.018605318 0.08793941
0.004718359 0.020566795 0.095539324 -0.18622994 0.13501762 -0.07497611 -0.061635952 0.30011055
0.14541458 -0.11646093 -0.05440438 0.01163262 0.19869386 0.16187192 -0.11837895 -0.08594553
0.0038676052 -0.22681375 -0.19984396 -0.2527362 0.08808073 -0.039796583 -0.04971522 -0.011193771
0.021909395 0.016566364 -0.05314751 0.027057648 -0.1595999 0.09082352 0.2374774 0.061923955
-0.064928405 -0.11744664 0.07959853 -0.05701325 0.018057061 0.0038116132 -0.13440028 0.020535372
0.052511793 0.03453317 -0.14458884 -0.063040935 0.060589213 0.007774509 0.033870675 0.018325133
-0.04558613 0.023228291 -0.06720642 0.0052279867 -0.0045191073 -0.1486375 0.032687355 0.028495012
0.069794916 -0.15571994 0.0758363 0.034355804 0.077720195 -0.05613679 -0.07413693 0.07800103
0.02750299 0.08346386 0.12731783 -0.08692929 0.06094844 -0.12286631 0.03354332 -0.11374969
0.0042301426 0.13601449 0.03691612 -0.029900461 0.0890764 -0.050583888 -0.016706968 0.075364605
-0.018596403 0.006782425 0.093909845 0.057808958 0.03188069 -0.16324683 -0.008039677 0.039403122
0.015155082 -0.029789712 -0.08947977 -0.11603431 -0.06544751 -0.1485104 0.0735729 0.02335462
-0.015622219 -0.0025250835 0.118783824 0.014453835 0.22015138 -0.087446116 -0.23498707 0.12326059
0.10981776 0.1105181 0.19123106 0.02066439 -0.38605747 0.008083506 -0.28196743 0.06457529
-0.12354236 0.16574551 -0.15363954 0.015171505 -0.16562355 -0.19298625 -0.3132254 -0.22625625
0.0981494 0.12914151 0.028377563 -0.26520967 -0.05498636 0.11561844 -0.13408248 0.07756036
-0.24453977 0.03236781 0.079558305 -0.11497481 0.20403928 0.095497765 -0.13031067 0.21573313
0.025560234 0.38784185 0.00032984733 -0.24553749 0.20844424 0.1429894 0.14889465 -0.059420384
00000000: 249c f5bc 1adc 31bd 977a a33d d41a ae3d
00000010: 5a8a 29bc 9379 843d 3101 92bd 2af3 a7bd
00000020: ac9c 8a3d 9e58 31bd 833c fbbd e641 b6bd
00000030: f8e2 dfbb 322c 5ebc 624f e63c e2b7 0cbd
00000040: c6a0 2bbd 0313 8cbd 769e b13d 36b2 b43d
00000050: 3451 3dbd a0af eb3d c894 26be 3a9d 283e
00000060: 47ae b83d f9dc a8bd 7698 1cbd aa57 713d
00000070: 56bb 213d f78f 553d 1ef4 b4bc 91bd 81bd
00000080: 7f03 72bd db4f 1ebd 4781 0b3c 1fe6 893c
00000090: 2e1e 02bd 9c66 cb3d 4a50 d73d c92d debd
000000a0: fe05 99bd 3157 47bd 5c2b 17be e32a 2b3c
000000b0: 6f61 273d cd0a 61bd 0add 663d a82b dd3c
000000c0: 08c4 abbd 6c2c 533d c8a4 d83c 6f11 40bd
000000d0: 8ae8 e93c f5c4 c63d faea 7cbc 4cb8 2cbd
000000e0: b167 523c c4d8 a1bc 291c 86bd 37e2 813d
000000f0: 71d4 283e dadf a33b fc09 7a3d 0bb8 03bd
00000100: 93b5 973d ede0 c23b 8e95 0bbd 8c6c b73d
00000110: a1c6 67be 5c06 033d b688 cbbc 70ee 273e
00000120: d55a 46bd 818d b63d 346b 1abe 0d92 dcbb
00000130: 4838 fc3d b195 f83d 783e 523e 07f2 89bd
00000140: 1960 24be dfc0 44bb b16e 8f3d 4c60 67bb
00000150: 38bd 41be b308 853c 98e3 133d 4557 c13d
00000160: 06cb 653e 84f9 a4bd 6215 8a3e 86a6 5b3d
00000170: 872a a53d 3cd3 5cbd 4893 213d eee2 83bd
00000180: 3660 8cbd 3c79 983e dc9f 393e b7d5 76bd
00000190: 35a7 48bd aaea f53d 7041 e3bd ff56 82be
000001a0: f8cc efbd a4a6 8a3c 8031 133d 89c5 113e
000001b0: 6130 2b3e c9c6 37be 2e6a 98bc 9419 b43d
000001c0: 779c 9a3b b27b a83c 1faa c33d 10b3 3ebe
000001d0: 0f42 0a3e 138d 99bd fb75 7cbd 17a8 993e
000001e0: 8fe7 143e 1183 eebd 21d7 5ebd bf96 3e3c
000001f0: 6776 4b3e c1c1 253e aa70 f2bd 3604 b0bd
00000200: a677 7d3b dd41 68be e5a3 4cbe a466 81be
00000210: ab63 b43d be01 23bd 30a2 4bbd 1466 37bc
00000220: 557b b33c 2fb6 873c 34b1 59bd 00a8 dd3c
00000230: 286e 23be af01 ba3d 472d 733e f9a3 7d3d
00000240: 2ff9 84bd dd87 f0bd 8e04 a33d ba86 69bd
00000250: 67ec 933c 42cc 793b 3aa0 09be cc39 a83c
00000260: 9b16 573d a772 0d3d 190f 14be 9b1b 81bd
00000270: 652c 783d 4fc1 fe3b fabb 0a3d 971e 963c
00000280: 86b8 3abd 4249 be3c 85a3 89bd 884f ab3b
00000290: 0515 94bb 6e34 18be 2de3 053d 5f6e e93c
000002a0: a3f0 8e3d 0c75 1fbe 1050 9b3d acb8 0c3d
000002b0: c42b 9f3d b1ef 65bd 1ad5 97bd 01bf 9f3d
000002c0: f34d e13c 1aef aa3d 9b5f 023e fc07 b2bd
000002d0: 12a5 793d 55a1 fbbd b864 093d 99f5 e8bd
000002e0: 029d 8a3b 6247 0b3e 5c35 173d d0f1 f4bc
000002f0: b06d b63d 0d31 4fbd 0ddd 88bc c258 9a3d
00000300: 7c57 98bc 1b3f de3b ce53 c03d 16c9 6c3d
00000310: 5495 023d 2d2a 27be d9b8 03bc 2b65 213d
00000320: 054d 783c 8e09 f4bc 2b41 b7bd 65a3 edbd
00000330: 5809 86bd 1c13 18be 63ad 963d 3052 bf3c
00000340: 56f4 7fbc df7b 25bb ef44 f33d c7cf 6c3c
00000350: 5d6f 613e f316 b3bd 73a0 70be 0c70 fc3d
00000360: 22e8 e03d 5057 e23d 13d2 433e 5e48 a93c
00000370: 53a9 c5be ae70 043c 095e 90be 0d40 843d
00000380: c703 fdbd 31b9 293e af53 1dbe e791 783c
00000390: 3899 29be 309e 45be 145f a0be b8af 67be
000003a0: 8d02 c93d ac3d 043e 1078 e83c 90c9 87be
000003b0: 6139 61bd 5cc9 ec3d eb4c 09be f7d7 9e3d
000003c0: a268 7abe 1c94 043d 77ef a23d ea77 ebbd
000003d0: acef 503e 5594 c33d 2970 05be 25e9 5c3e
000003e0: b263 d13c 3593 c63e 5cef ac39 2e6e 7bbe
000003f0: 6872 553e d06b 123e d777 183e ca62 73bd

lstm_layers.0.bias_ih_l0 f4 [264]
-0.11174906 0.15525822 -0.047572993 -0.043217134 -0.14648645 0.006247598 -0.08618912 -0.12814663
-0.08225692 -0.15320422 -0.047353484 0.14108549 -0.16892777 0.043157395 0.053047292 -0.13583003
-0.13444851 -0.0835677 0.017463114 -0.21981522 -0.034773845 -0.2391985 0.021780673 -0.16070005
-0.050854426 0.16744258 -0.2166819 -0.20868336 -0.07002997 -0.1427656 -0.17507397 0.21259376
0.10186217 -0.23473771 -0.20519906 -0.007525713 0.039427828 -0.18420394 -0.15791614 -0.027205637
-0.05367806 -0.041045252 -0.19016607 0.027073422 -0.076045476 0.099773616 -0.1241817 0.008472491
0.05098809 0.17586358 -0.17212409 -0.12734891 -0.18290713 0.13848361 0.051373545 -0.0909757
0.022934236 -0.32036817 0.22284198 -0.038084302 0.016768606 0.040789247 -0.15923648 0.2645483
0.11292042 0.16090348 0.04647791 0.15655331 0.05323984 -0.15677778 -0.26241094 -0.024581103
-0.00516069 0.030133873 0.023437493 -0.22477114 -0.22054088 0.12785055 -0.11370195 -0.2266787
0.032427255 -0.03314257 -0.043044582 -0.211627 0.067519106 -0.22923866 -0.19028588 -0.23562343
0.05535216 -0.039930753 -0.11133549 0.008472791 -0.11365211 0.0068447962 -0.04183904 -0.17368275
-0.21960476 0.13637386 -0.09673517 -0.24474224 -0.028574334 -0.18322039 -0.21454024 -0.13439569
-0.24285969 -0.23890877 -0.19001685 -0.14553837 0.030996611 -0.087062694 0.0056416737 0.06133281
-0.008004671 0.0050053378 -0.0017566286 0.11847161 -0.077479176 -0.14738455 -0.17344216 0.06771117
-0.30777946 0.15427965 -0.082189605 -0.3781029 0.154814 0.09349553 0.024381034 0.05274594
-0.12815587 0.08916735 -0.24082927 0.1566482 -0.096654095 -0.020035483 0.14640453 0.20629217
0.22822452 -0.07228259 -0.18383785 0.08374817 -0.035241112 0.0044782497 0.040224742 0.042196162
-0.107298404 0.13479644 -0.021084366 -0.09206206 0.045851156 0.034006592 -0.06265198 -0.108622685
-0.05398196 -0.043376938 0.060524452 -0.006692874 -0.096447125 -0.091382 -0.22634643 -0.039073426
0.1196285 0.14483345 0.035772122 -0.17809379 0.1793152 0.19188862 0.20869043 -0.0027198857
0.08873865 0.021164497 -0.022408554 -0.16787186 -0.02921704 0.049975846 -0.04607747 -0.12224783
0.16537534 -0.09049541 0.14888321 0.032636896 -0.03887502 0.11963666 -0.14386797 -0.25686353
0.18161793 -0.2796527 -0.08614516 -0.06461991 -0.101092495 0.17739539 -0.03734292 0.036123477
0.100210264 -0.066593386 0.103629954 0.08511972 0.13145867 -0.18259943 0.03288998 -0.034860898
0.15545402 -0.15573573 -0.1444898 0.004421289 -0.058719497 -0.054398213 0.04065041 0.0024148477
-0.122156695 0.28369632 0.027438434 -0.115936995 -0.050132904 -0.10963318 0.0023986972 -0.070651226
0.13544358 -0.12196227 -0.12728278 -0.11843016 -0.05884711 -0.018628782 0.12815867 -0.029059522
-0.0642995 -0.043878652 -0.04187817 -0.17512994 -0.15247692 0.026214061 -0.0051677134 -0.08350855
-0.061050884 -0.08944107 0.094870396 -0.0405732 -0.16583692 -0.18458453 -0.22838968 -0.08932792
0.034690164 0.2155659 -0.06234125 -8.33698e-05 -0.27326906 -0.1394703 0.033083476 0.07514296
-0.17691197 -0.13160895 -0.013159887 0.036957096 -0.034073286 0.046521384 -0.10203941 -0.20039198
00000000: b1dc e4bd 03fc 1e3e e6db 42bd 7304 31bd
00000010: 8b00 16be a7b8 cc3b ec83 b0bd df38 03be
00000020: 5176 a8bd 91e1 1cbe baf5 41bd b778 103e
00000030: 67fb 2cbe cfc5 303d 1e48 593d 0717 0bbe
00000040: dfac 09be 8b25 abbd ce0e 8f3c 3e17 61be
00000050: 056f 0ebd 74f0 74be 626d b23c 8e8e 24be
00000060: bb4c 50bd 1176 2b3e dce1 5dbe 17b1 55be
00000070: df6b 8fbd 2531 12be 9746 33be 2eb2 593e
00000080: 1d9d d03d 155f 70be b41f 52be 429a f6bb
00000090: 137f 213d f59f 3cbe c5b4 21be 5bde debc
000000a0: 87dd 5bbd 111f 28bd e5ba 42be 15c9 dd3c
000000b0: bbbd 9bbd 1c56 cc3d fa52 febd 34d0 0a3c
000000c0: e3d8 503d 9515 343e 4c41 30be c167 02be
000000d0: 024c 3bbe a6ce 0d3e 116d 523d 7851 babd
000000e0: 94e0 bb3c 4c07 a4be b030 643e 49fe 1bbd
000000f0: 515e 893c a012 273d e30e 23be e072 873e
00000100: d242 e73d e2c3 243e 9f5f 3e3d 834f 203e
00000110: 0512 5a3d 5b8a 20be ba5a 86be 4f5e c9bc
00000120: 011b a9bb 50db f63c fcff bf3c 682a 66be
00000130: 78d5 61be 41eb 023e 91dc e8bd 761e 68be
00000140: 71d2 043d 81c0 07bd 844f 30bd c0b4 58be
00000150: 7547 8a3d 8abd 6abe 4dda 42be 4547 71be
00000160: f2b8 623d 6e8e 23bd dd03 e4bd 76d1 0a3c
00000170: 70c2 e8bd 504a e03b 6a5f 2bbd e4d9 31be
00000180: 12e0 60be 97a5 0b3e 171d c6bd b69d 7abe
00000190: b914 eabc 209e 3bbe 70b0 5bbe 069f 09be
000001a0: 36b0 78be 80a4 74be c793 42be 0308 15be
000001b0: 9bec fd3c ed4d b2bd cadd b83b 1d38 7b3d
000001c0: 0626 03bc d103 a43b ad3e e6ba 3ea1 f23d
000001d0: 67ad 9ebd faeb 16be d29a 31be 27ac 8a3d
000001e0: 4595 9dbe 7cfb 1d3e 0653 a8bd b496 c1be
000001f0: 9087 1e3e 967a bf3d bcba c73c 200c 583d
00000200: 4b3b 03be 5f9d b63d f39b 76be 6368 203e
00000210: 95f2 c5bd 7421 a4bc 12eb 153e 413e 533e
00000220: b0b3 693e e508 94bd fd3f 3cbe 2984 ab3d
00000230: fc58 10bd 48be 923b b3c2 243d e2d5 2c3d
00000240: 44bf dbbd 1408 0a3e 1fb9 acbc 098b bcbd
00000250: 6cce 3b3d 7f4a 0b3d ae4f 80bd 9275 debd
00000260: 301c 5dbd 04ac 31bd 7de8 773d e54f dbbb
00000270: 1286 c5bd 7c26 bbbd 5cc7 67be 750b 20bd
00000280: c9ff f43d 384f 143e ca85 123d 385e 36be
00000290: 679e 373e 737e 443e f2b2 553e 1c40 32bb
000002a0: 9cbc b53d 2b61 ad3c 2592 b7bc 9ae6 2bbe
000002b0: 9358 efbc 79b3 4c3d bbbb 3cbd 125d fabd
000002c0: 2758 293e a855 b9bd d774 183e 44ae 053d
000002d0: 6a3b 1fbd 1104 f53d 2052 13be 9e83 83be
000002e0: 0dfa 393e a42e 8fbe e06c b0bd 7257 84bd
000002f0: 9509 cfbd 23a7 353e e4f4 18bd 36f6 133d
00000300: 0a3b cd3d 1d62 88bd f13b d43d 3f53 ae3d
00000310: 1a9d 063e 58fb 3abe a5b7 063d 4dca 0ebd
00000320: 572f 1f3e 3079 1fbe 22f5 13be 76e0 903b
00000330: db83 70bd a9d0 5ebd 0b81 263d 6c42 1e3b
00000340: 4a2d fabd a540 913e 91c6 e03c 6070 edbd
00000350: 2958 4dbd 5c87 e0bd 7633 1d3b 97b1 90bd
00000360: b9b1 0a3e 5bc7 f9bd 6b56 02be 838b f2bd
00000370: ab09 71bd 639b 98bc 073c 033e 3c0e eebc
00000380: 75af 83bd 1aba 33bd 7288 2bbd 4355 33be
00000390: e922 1cbe dfbe d63c ec55 a9bb 8806 abbd
000003a0: 7e10 7abd e12c b7bd 694b c23d 1530 26bd
000003b0: 27d1 29be ba03 3dbe fcde 69be 8ef1 b6bd
000003c0: 4617 0e3d 4fbd 5c3e 8a59 7fbd d2d6 aeb8
000003d0: ece9 8bbe 4dd1 0ebe 8a82 073d 8de4 993d
000003e0: 6928 35be 7fc4 06be 919c 57bc 5360 173d
000003f0: 6e90 0bbd 358d 3e3d 0afa d0bd 8e33 4dbe

lstm_layers.0.bias_hh_l0 f4 [264]
-0.091626965 0.0930762 0.030891307 -0.1343074 -0.17047498 0.11631785 -0.1986979 -0.000633575
-0.08802714 -0.06988426 0.014158112 0.07830756 -0.1873316 0.086726524 -0.023245841 -0.08558863
-0.06690421 -0.12257399 0.14242591 -0.17027205 -0.15379526 -0.24878202 0.053597607 -0.115626216
-0.033185553 0.0032297224 -0.037465315 -0.18157853 -0.010569065 -0.12614137 -0.17747304 0.34126553
0.043375768 -0.08372744 -0.25735041 0.004844783 0.18288583 -0.13331686 -0.0891073 -0.123256534
-0.19572139 -0.047560476 -0.18979527 0.12070869 -0.06657749 -0.026619453 -0.19192107 -0.083002515
0.16984078 0.17221867 -0.25609928 -0.17014873 -0.1695416 0.05028796 -0.026038472 0.05892312
-0.063527815 -0.1780851 0.2537527 0.015028428 0.034110386 0.061718117 -0.17928459 0.3008523
0.18831317 0.05649186 0.015581658 0.15444504 0.01757736 -0.024277953 -0.35979012 -0.0049132067
-0.06019782 -0.048146352 -0.026423326 -0.051782507 -0.13366307 0.12625678 -0.074254915 -0.10593386
0.11124557 -0.010703434 -0.096066095 -0.15887813 0.08261247 -0.09250912 -0.2157892 -0.20248342
0.14929254 -0.062091403 -0.14997952 0.110181935 -0.12832817 -0.12835395 -0.11573737 -0.040707473
-0.16959973 0.103704385 -0.14007322 -0.1757651 -0.0920927 -0.070750386 -0.14524068 -0.05638514
-0.14696652 -0.09908378 -0.032178935 -0.15959455 0.1636487 -0.045499913 -0.060400262 -0.028788362
-0.09770194 -0.08305134 -0.012206357 0.096855424 -0.032705586 -0.09682736 -0.04047868 -0.035798963
-0.16191022 0.10838426 -0.03728064 -0.4283357 0.0961441 -0.034814477 -0.13208161 0.032679368
-0.016778532 0.17205647 -0.07070956 -0.0044337288 0.021788491 -0.0083190445 0.07286175 0.021087045
0.16931288 -0.041980136 -0.11969355 0.063001886 -0.052236542 -0.09236877 0.025811546 0.095614746
-0.091955915 0.0815271 -0.033828568 -0.11840775 0.024176044 0.10919666 -0.1281509 -0.020971129
-0.06506178 0.03589274 0.11004901 0.082981564 -0.1842968 -0.044941016 -0.17074709 -0.016365299
0.15420465 0.1741549 -0.062206432 -0.29495615 0.21852532 0.10801102 0.21929863 -0.025999226
0.031427253 0.12289832 0.0013011431 -0.12920982 -0.09897093 -0.12383777 -0.0552805 -0.0018963488
0.09463925 -0.108734615 0.029641127 -0.06522346 -0.09240594 0.14454663 -0.0908233 -0.25801972
0.14314395 -0.32894883 -0.010586989 0.026343543 -0.009466036 0.20037386 -0.17632397 0.04141936
-0.031379413 -0.08175818 0.1664131 0.1455053 0.045120187 -0.18423751 -0.08628166 0.009936815
0.13703834 -0.15261184 -0.31311253 0.10020123 -0.21827053 -0.0913157 0.0919183 -0.050340883
-0.12352849 0.12664156 -0.011007601 0.017317282 0.0038904387 -0.124246754 0.026946131 -0.09648784
0.1934634 -0.23615122 -0.10479384 -0.101266555 0.12363903 -0.04545061 -0.0784097 0.13349332
-0.11618981 -0.15874544 -0.042445574 -0.22776116 -0.23777755 0.17192881 0.0021007922 -0.2142602
-0.15434995 0.0549217 -0.020595105 -0.035066538 -0.03151541 -0.049827415 -0.10257122 0.022273067
0.02487118 0.07134179 -0.106428504 0.079622425 -0.23745464 -0.16864216 0.028791428 0.019009395
-0.13402627 -0.18518361 -0.18359688 0.074813135 0.030959591 0.14560369 -0.01015975 -0.17152958
00000000: eba6 bbbd bc9e be3d c40f fd3c e187 09be
00000010: fe90 2ebe 0e38 ee3d 7677 4bbe 8016 26ba
00000020: 9347 b4bd 7b1f 8fbd 6df7 673c b75f a03d
00000030: dbd3 3fbe ad9d b13d 106e bebc 1749 afbd
00000040: 1305 89bd 1208 fbbd 19d8 113e cc5b 2ebe
00000050: 817c 1dbe b7c0 7ebe 2a89 5b3d 70cd ecbd
00000060: 93ed 07bd c0a9 533b 3b75 19bd b9ef 39be
00000070: df29 2dbc 342b 01be 7ebb 35be 5bba ae3e
00000080: caaa 313d 4b79 abbd 6fc3 83be fcc0 9e3b
00000090: 6c46 3b3e 3784 08be e37d b6bd ec6d fcbd
000000a0: 306b 48be c6ce 42bd b159 42be 1e36 f73d
000000b0: c759 88bd 0a11 dabc f586 44be 39fd a9bd
000000c0: beea 2d3e 175a 303e 721f 83be 783b 2ebe
000000d0: 509c 2dbe bffa 4d3d a24e d5bc 5f59 713d
000000e0: df1a 82bd f15b 36be e0eb 813e cc39 763c
000000f0: 55b7 0b3d 23cc 7c3d 6196 37be 5009 9a3e
00000100: 2bd5 403e 0264 673d 364a 7f3c d726 1e3e
00000110: 65fe 8f3c 8fe2 c6bc 6936 b8be f7fe a0bb
00000120: fd91 76bd 1c35 45bd bb75 d8bc e519 54bd
00000130: f9de 08be 7549 013e f612 98bd daf3 d8bd
00000140: b8d4 e33d 755d 2fbc 4dbe c4bd f3b0 22be
00000150: ba30 a93d 6c75 bdbd d8f7 5cbe d057 4fbe
00000160: 25e0 183e 8e53 7ebd 3b94 19be 11a7 e13d
00000170: 7668 03be 386f 03be b707 edbd e1bc 26bd
00000180: 8dab 2dbe f762 d43d 5b6f 0fbe c4fb 33be
00000190: 199b bcbd 94e5 90bd f9b9 14be 1bf4 66bd
000001a0: 647e 16be 70ec cabd 0fce 03bd c16c 23be
000001b0: 8693 273e 1e5e 3abd 4466 77bd 92d5 ebbc
000001c0: f417 c8bd d216 aabd 2cfd 47bc 235c c63d
000001d0: 4bf6 05bd 6c4d c6bd f9cc 25bd efa1 12bd
000001e0: cbcb 25be 91f8 dd3d 96b3 18bd d14e dbbe
000001f0: 33e7 c43d a099 0ebd 6740 07be cdda 053d
00000200: 2273 89bc 922f 303e 2cd0 90bd d048 91bb
00000210: c77d b23c 9a4c 08bc 8b38 953d bdbe ac3c
00000220: 5b60 2d3e 5df3 2bbd e421 f5bd 2207 813d
00000230: fcf5 55bd d62b bdbd bc72 d33c aad1 c33d
00000240: 6253 bcbd aef7 a63d d38f 0abd c37f f2bd
00000250: d70c c63c 80a2 df3d fd39 03be a5cb abbc
00000260: 1c3f 85bd 4404 133d 6061 e13d 3df2 a93d
00000270: 4db8 3cbe 1214 38bd 53d8 2ebe 8510 86bc
00000280: d3e7 1d3e a955 323e 2ccc 7ebd 7e04 97be
00000290: 1ac5 5f3e e234 dd3d d28f 603e 54fc d4bc
000002a0: ddb9 003d 1db2 fb3d 1e8b aa3a 944f 04be
000002b0: 45b1 cabd a89e fdbd ce6d 62bd e88e f8ba
000002c0: 39d2 c13d 41b0 debd f3d1 f23c e193 85bd
000002d0: 533f bdbd 0804 143e 9101 babd 291b 84be
000002e0: 5494 123e fb6b a8be 0d75 2dbc 6ace d73c
000002f0: 6f17 1bbc ce2e 4d3e 458e 34be 59a7 293d
00000300: b387 00bd d570 a7bd 3268 2a3e 57ff 143e
00000310: f2cf 383d c2a8 3cbe 70b4 b0bd 06ce 223c
00000320: c753 0c3e 4746 1cbe 4950 a0be 4d36 cd3d
00000330: 4f82 5fbe ba03 bbbd a93f bc3d 3e32 4ebd
00000340: 81fc fcbd 53ae 013e 3a59 34bc f9dc 8d3c
00000350: bbf6 7e3b 1575 febd 22be dc3c 6b9b c5bd
00000360: 451b 463e a0d1 71be 279e d6bd d764 cfbd
00000370: 7636 fd3d 6b2a 3abd 4495 a0bd 79b2 083e
00000380: ecf4 edbd 2a8e 22be 69db 2dbd 393a 69be
00000390: f57b 73be 1b0e 303e 72ad 093b 0767 5bbe
000003a0: ea0d 1ebe 94f5 603d 11b7 a8bc eea1 0fbd
000003b0: 4d16 01bd d517 4cbd dc10 d2bd 0276 b63c
000003c0: a5be cb3c a51b 923d 30f7 d9bd 1511 a33d
000003d0: 4f27 73be 88b0 2cbe 00dc eb3c 97b9 9b3c
000003e0: 2f3e 09be c6a0 3dbe d200 3cbe a137 993d
000003f0: f89e fd3c 2219 153e 1475 26bc 73a5 2fbe

lstm_layers.0.weight_ih_l0_reverse f4 [264, 11]
-0.15077695 0.12869646 -0.02221617 0.25566003 0.21905553 -0.09388639 -0.023536019 0.033807572
0.16104516 0.07575151 0.1445328 0.045352317 -0.19264205 0.03210948 -0.097139485 0.27506194
0.054453082 0.067061834 -0.09405116 0.03232746 0.049100127 -0.29832816 0.014445998 0.14772125
-0.17140538 0.21263237 0.15619801 -0.0015071662 -0.1576636 0.014804112 0.170786 -0.08312738
-0.0050641038 -0.08644001 -0.102863185 -0.10146395 -0.0802378 -0.3558979 -0.10557645 -0.040578026
-0.026249042 -0.05915957 -0.19024423 0.21861893 -0.1758852 -0.10015896 0.13408846 -0.0025867089
-0.2773892 -0.019937254 -0.07003318 0.014860235 -0.22911698 -0.017913906 0.029663756 -0.07286236
-0.1703125 0.1549349 -0.28476343 0.2333691 -0.022799272 -0.14270835 -0.01644078 0.052727025
0.014248083 -0.27897754 0.07206787 0.14051087 0.15336837 0.20280835 0.24015233 0.019849272
0.013810316 0.05728866 0.12763822 0.047298413 0.04999664 -0.08171492 0.11261028 -0.16837452
0.033127256 0.04413018 -0.032266393 -0.16784966 -0.12912966 0.057016067 -0.14482139 0.097792335
-0.1143156 0.13377747 -0.25546634 0.10638176 -0.26546878 -0.07598135 -0.048694726 -0.009715753
0.06263751 0.00052309135 0.14771378 0.089371555 -0.04400393 -0.09145282 0.0073051895 -0.07749921
-0.05382271 -0.12693456 -0.061378986 0.15704285 -0.21109958 0.009368532 -0.09449698 0.1279295
-0.1638042 0.13142015 0.017510185 -0.14945558 -0.041348018 0.008540094 0.043156445 -0.08650115
0.22492893 0.020504748 -0.24722067 0.003208693 -0.06552959 0.36473525 0.10316714 -0.16121736
-0.12563553 0.012369167 0.10715682 -0.3080348 0.15383798 0.118697256 -0.22655159 0.46148458
0.16047703 -0.04883524 0.12831499 0.072207324 0.1917823 -0.015454164 0.051813282 -0.056076124
-0.27552333 0.049229696 0.037412748 0.065309666 0.04637188 -0.054629464 -0.102386355 -0.14297032
0.11802758 -0.32220483 0.15471731 0.059665393 0.3201388 0.17521745 0.5499556 0.168029
0.026394801 0.13243178 0.2098064 -0.042803902 -0.017340902 -0.07756345 0.045864362 -0.026457591
0.14701663 -0.007531465 -0.10566438 -0.11738305 -0.15356909 -0.24680512 -0.12660623 -0.3053178
-0.08177079 0.16627218 -0.014519998 -0.25719732 0.052655734 -0.033211093 0.031232681 -0.029486263
0.05793133 -0.16182432 0.07404432 0.034275427 0.19653665 -0.23738757 -0.05827159 -0.20911494
0.012021707 -0.106287986 -0.00611361 0.16779447 -0.018819029 0.2824925 0.2550182 -0.11018544
0.19035207 -0.45457354 0.53987014 0.10872383 0.08908706 0.053740777 0.1464259 0.029303627
-0.067002214 -0.13511981 -0.045671433 -0.19856007 -0.20382953 -0.044162985 -0.030428514 -0.12353957
-0.05876126 -0.15314293 -0.17340185 -0.09327439 0.019222751 -0.22435068 0.1446662 -0.039811246
0.33710203 0.1331399 0.075152405 -0.105888106 0.060764484 -0.032940477 -0.35830274 -0.025913123
0.08085939 -6.892487e-05 0.012353166 0.12393568 -0.066345885 -0.015230506 0.06238743 -0.035331436
-0.055272948 -0.056892857 -0.016951166 0.02666512 0.21970323 0.08657266 0.56143105 0.13420793
-0.09846277 0.03765933 -0.0014146186 -0.02419701 -0.094695844 0.027676461 -0.18502736 -0.11775397
00000000: 4665 1abe 01c9 033e affe b5bc dfe5 823e
00000010: 1850 603e 8247 c0bd 9cce c0bc cf79 0a3d
00000020: 06e9 243e 9c23 9b3d 6800 143e 5ac3 393d
00000030: f543 45be 3b85 033d 11f1 c6bd ebd4 8c3e
00000040: 320a 5f3d b757 893d e59d c0bd cc69 043d
00000050: 371d 493d 78be 98be e8ae 6c3c 3d44 173e
00000060: e484 2fbe 4dbc 593e 5ff2 1f3e 1b8c c5ba
00000070: 9172 21be f28c 723c 86e2 2e3e b03e aabd
00000080: c8f0 a5bb 7607 b1bd efa9 d2bd 55cc cfbd
00000090: b753 a4bd 4038 b6be 7738 d8bd 2535 26bd
000000a0: 3b08 d7bc 4e51 72bd 62cf 42be a4dd 5f3e
000000b0: 401b 34be 2420 cdbd 7c4e 093e c685 29bb
000000c0: f505 8ebe 7453 a3bc 8e6d 8fbd 5878 733c
000000d0: a49d 6abe 2fc0 92bc 6801 f33c dc38 95bd
000000e0: 6666 2ebe 41a7 1e3e 83cc 91be 4ff8 6e3e
000000f0: 8ac5 babc 2322 12be d1ae 86bc 4bf8 573d
00000100: cb70 693c 25d6 8ebe 5298 933d 15e2 0f3e
00000110: 990c 1d3e feac 4f3e 7eea 753e f19a a23c
00000120: aa44 623c 84a7 6a3d 98b3 023e fbbb 413d
00000130: 47c9 4c3d 275a a7bd 38a0 e63d 5f6a 2cbe
00000140: 72b0 073d d9c1 343d c429 04bd c8e0 2bbe
00000150: 913a 04be ae89 693d 0f4c 14be 5947 c83d
00000160: 4c1e eabd f6fc 083e 7ccc 82be aede d93d
00000170: 86eb 87be 1c9c 9bbd 1f74 47bd d22e 1fbc
00000180: 1848 803d 1120 093a 4842 173e 6f08 b73d
00000190: 773d 34bd 9e4b bbbd 5f60 ef3b e8b7 9ebd
000001a0: 3475 5cbd 22fb 01be 8868 7bbd d7cf 203e
000001b0: 7d2a 58be 797e 193c a287 c1bd f3ff 023e
000001c0: 4abc 27be 0193 063e 8571 8f3c e20a 19be
000001d0: 8a5c 29bd c0eb 0b3c d0c4 303d 8427 b1bd
000001e0: c553 663e 93f9 a73c 6a27 7dbe ef48 523b
000001f0: 6134 86bd 94be ba3e 4b49 d33d 2a16 25be
00000200: 9aa6 00be 0ca8 4a3c 0975 db3d bdb6 9dbe
00000210: b487 1d3e 8c17 f33d 24fd 67be b547 ec3e
00000220: 1754 243e 7607 48bd 0165 033e 6fe1 933d
00000230: 9462 443e 7633 7dbc 2a3a 543d 14b0 65bd
00000240: 6511 8dbe 14a5 493d 1c3e 193d 13c1 853d
00000250: 71f0 3d3d 25c3 5fbd f0af d1bd d066 12be
00000260: 72b8 f13d 08f8 a4be 376e 1e3e b363 743d
00000270: 3ce9 a33e 346c 333e e4c9 0c3f cb0f 2c3e
00000280: e939 d83c 329c 073e 7dd7 563e 2553 2fbd
00000290: 820e 8ebc 96d9 9ebd 45dc 3b3d 97bd d8bc
000002a0: 878b 163e 82ca f6bb 9166 d8bd 8666 f0bd
000002b0: 3741 1dbe 7bba 7cbe 10a5 01be 9d52 9cbe
000002c0: 7277 a7bd 4143 2a3e 49e5 6dbc 5eaf 83be
000002d0: 8aad 573d 5b08 08bd aedb ff3c 2d8d f1bc
000002e0: 6749 6d3d 46b5 25be 8ca4 973d 6464 0c3d
000002f0: e740 493e ba15 73be 31ae 6ebd 3a22 56be
00000300: b2f6 443c 84ad d9bd ae54 c8bb 50d2 2b3e
00000310: 5d2a 9abc dba2 903e bf91 823e e7a8 e1bd
00000320: a7eb 423e ddbd e8be ee34 0a3f 99aa de3d
00000330: 4773 b63d 4a1f 5c3d acf0 153e 290e f03c
00000340: 7538 89bd d95c 0abe f811 3bbd 5553 4bbe
00000350: b0b8 50be 3fe4 34bd 3845 f9bc 5002 fdbd
00000360: a6af 70bd 80d1 1cbe 4190 31be a506 bfbd
00000370: 0879 9d3c 2fbc 65be 6023 143e 1e11 23bd
00000380: a398 ac3e d355 083e 81e9 993d dddb d8bd
00000390: 2ee4 783d 98ec 06bd 7573 b7be c247 d4bc
000003a0: 9c99 a53d c28b 90b8 ef64 4a3c fdd1 fd3d
000003b0: 5ae0 87bd 5f89 79bc f689 7f3d b2b7 10bd
000003c0: e365 62bd 7c08 69bd 2cdd 8abc cf70 da3c
000003d0: e2f9 603e 024d b13d f2b9 0f3f ce6d 093e
000003e0: d9a6 c9bd ab40 1a3d b96a b9ba cf38 c6bc
000003f0: e5ef c1bd bfb9 e23c d077 3dbe fe28 f1bd

lstm_layers.0.weight_hh_l0_reverse f4 [264, 66]
0.15936558 0.02019828 -0.122898534 -0.16927229 -0.10714334 0.07879645 -0.023974271 0.052505437
0.0652176 -0.025581786 0.06981349 0.012945322 0.027850647 0.022662899 0.042424414 0.036658686
0.07292817 0.056015182 -0.004327618 -0.03893691 -0.03047466 -0.0368825 -0.00013008961 0.069498174
0.102527395 -0.01118212 0.08905965 0.020485852 -0.074407876 -0.0059330836 -0.04368528 -0.108583525
-0.14127406 -0.09049013 0.03535064 -0.018350776 0.01947605 0.08794607 0.06448337 -0.054609794
-0.07306162 -0.11370136 -0.096669585 0.00456294 0.039111402 -0.106288105 -0.10542671 0.006696678
-0.031321913 0.029376488 -0.02992866 -0.10050589 0.060670946 -0.07133753 -0.01791787 0.106676176
-0.0028205225 0.089626595 -0.119508505 -0.018329687 1.570104e-06 -0.04096309 -0.16759253 -0.058681153
0.08288329 0.01568528 -0.073221415 -0.02501948 -0.041249238 0.008798547 -0.13022572 -0.03305459
-0.09900172 0.057245143 0.21122596 0.0040831454 0.098299935 0.068640485 -0.13632159 0.022009557
-0.007895542 -0.047721513 -0.10647901 -0.08775353 0.095245235 0.004186278 0.083597325 -0.10129999
-0.085064076 -0.023171578 0.018887853 -0.042384475 -0.084452055 0.062467508 0.08527992 -0.04775259
0.024316674 0.020806279 -0.032407243 0.056456827 0.16631375 -0.047543526 -0.069972485 -0.14406931
-0.00911704 -0.097406834 0.043515246 0.3096641 -0.08051977 0.03785984 0.10513419 0.14415568
0.04342632 -0.03867276 0.092862956 0.04252634 -0.1025741 -0.20115578 0.054780323 0.06961327
-0.10149759 0.07794615 -0.23173296 -0.10663584 0.12910439 -0.19963984 0.02174489 0.070907116
0.026910957 -0.021593044 -0.026092023 0.024644634 -0.24458842 -0.04050891 0.019893095 0.057096917
0.1085344 0.087308384 -0.09813071 -0.0819606 -0.015417531 -0.050737593 0.16074307 0.011138657
-0.14907621 0.13178204 -0.15798236 -0.04185808 -0.08323102 -0.11367536 0.0022077076 0.013484898
0.042534232 -0.14600399 -0.012613281 0.06637148 0.075125955 0.03125608 -0.078773275 0.07032077
0.18287466 0.064322464 -0.032254335 0.0925626 0.03101963 -0.053880263 0.12246234 0.0438811
0.0209283 -0.05558199 -0.07407172 0.020795988 -0.049534194 0.07567423 -0.010862663 0.16289076
0.09650102 0.13494013 0.09174102 0.12928654 0.23740025 -0.0020689263 -0.06930316 -0.13323344
-0.06736436 -0.16324022 -0.08057797 0.040498693 -0.09622384 -0.25291255 0.025857167 -0.13334955
0.09825903 0.06170079 -0.018761048 -0.022149427 -0.057784267 0.036221556 0.16437352 -0.085532844
0.084085606 -0.06747182 -0.011335794 0.045958 -0.033452198 0.06688791 -0.07346918 -0.058541708
-0.1239661 0.014010771 -0.035771735 0.13714518 -0.112581246 -0.05653827 0.07408502 -0.08431482
0.037670042 0.10810053 -0.06659831 -0.10097809 0.082944274 0.0479729 0.019552093 0.0047673667
0.015185335 0.040224522 0.15536484 0.062286355 0.08933252 0.126006 -0.12597986 -0.10454057
0.1282006 0.016027391 -0.046573833 -0.026335916 -0.0580296 -0.17644124 -0.058061678 -0.18365899
0.10700022 0.05067554 0.0015845043 0.04426744 -0.010392779 0.024564484 0.07661056 0.086857185
-0.10522398 -0.063501015 0.012737972 0.0789301 -0.088494696 0.12796858 -0.06776092 -0.017829841
00000000: bb30 233e dd76 a53c 3ab2 fbbd b755 2dbe
00000010: f86d dbbd 0860 a13d b165 c4bc f10f 573d
00000020: ce90 853d e590 d1bc 60fa 8e3d 9e18 543c
00000030: 0a27 e43c 8ba7 b93c 39c5 2d3d 6b27 163d
00000040: 5d5b 953d 2d70 653d b1ce 8dbb 4f7c 1fbd
00000050: ffa5 f9bc 1b12 17bd aa68 08b9 0f55 8e3d
00000060: e2f9 d13d 3635 37bc e864 b63d f2d1 a73c
00000070: 2863 98bd 506a c2bb 56ef 32bd 0a61 debd
00000080: 26aa 10be e452 b9bd d5cb 103d 5e54 96bc
00000090: 3d8c 9f3c 121d b43d db0f 843d 85ae 5fbd
000000a0: 55a1 95bd 42dc e8bd b4fa c5bd b784 953b
000000b0: 4733 203d 94ad d9bd f5e9 d7bd cf6f db3b
000000c0: 684b 00bd f6a6 f03c f32c f5bc 08d6 cdbd
000000d0: 1982 783d 6919 92bd 7fc8 92bc 0a79 da3d
000000e0: 84d8 38bb 268e b73d e0c0 f4bd 2428 96bc
000000f0: 5dbc d235 eac8 27bd 609d 2bbe a65b 70bd
00000100: b7be a93d 6b7e 803c 1cf5 95bd a7f5 ccbc
00000110: f6f4 28bd c827 103c e459 05be 4064 07bd
00000120: 6ac1 cabd e279 6a3d 9e4b 583e e8cb 853b
00000130: 7a51 c93d 6293 8c3d e397 0bbe 634d b43c
00000140: 4e5c 01bc a277 43bd ab11 dabd 1fb8 b3bd
00000150: ef0f c33d 0c2d 893b 1335 ab3d 5f76 cfbd
00000160: 1336 aebd 52d2 bdbc b3ba 9a3c 589b 2dbd
00000170: 33f5 acbd eedd 7f3d 3da7 ae3d 3898 43bd
00000180: c333 c73c ee71 aa3c 75bd 04bd 463f 673d
00000190: 274e 2a3e 00bd 42bd bc4d 8fbd e886 13be
000001a0: a35f 15bc 3c7d c7bd 0b3d 323d 4b8c 9e3e
000001b0: 8de7 a4bd eb12 1b3d 9850 d73d 8c9d 133e
000001c0: ccdf 313d 5467 1ebd ef2e be3d 1930 2e3d
000001d0: 5f12 d2bd c8fb 4dbe 5561 603d 6791 8e3d
000001e0: f8dd cfbd 3ba2 9f3d 684b 6dbe e463 dabd
000001f0: f133 043e 636e 4cbe 5722 b23c c037 913d
00000200: 5e74 dc3c e5e3 b0bc f0be d5bc 8be3 c93c
00000210: 6375 7abe acec 25bd d8f6 a23c 75de 693d
00000220: 4947 de3d bdce b23d c1f8 c8bd f6da a7bd
00000230: d099 7cbc 39d2 4fbd d599 243e ea7e 363c
00000240: 6fa7 18be dff1 063e 21c6 21be 6173 2bbd
00000250: 0675 aabd a1ce e8bd 30af 103b c3ef 5c3c
00000260: 6038 2e3d 1282 15be efa7 4ebc c5ed 873d
00000270: a3db 993d 6006 003d e253 a1bd 5604 903d
00000280: 7f43 3b3e 7fbb 833d 1f1d 04bd 7691 bd3d
00000290: e11c fe3c 8db1 5cbd 89cd fa3d abbc 333d
000002a0: d471 ab3c f1a9 63bd eab2 97bd 595c aa3c
000002b0: 5ee4 4abd 17fb 9a3d 50f9 31bc d6cc 263e
000002c0: 54a2 c53d bf2d 0a3e b7e2 bb3d b163 043e
000002d0: 0d19 733e d396 07bb d1ee 8dbd 596e 08be
000002e0: 53f6 89bd 7228 27be 1006 a5bd f5e1 253d
000002f0: 0111 c5bd c17d 81be 69d2 d33c c98c 08be
00000300: 083c c93d f8b9 7c3d c5b0 99bc b772 b5bc
00000310: 32af 6cbd 0e5d 143d 8851 283e d82b afbd
00000320: 1335 ac3d aa2e 8abd c4b9 39bc 753e 3c3d
00000330: 2c05 09bd 87fc 883d 0277 96bd 6ec9 6fbd
00000340: f0e1 fdbd 6f8d 653c 6285 12bd c96f 0c3e
00000350: ff90 e6bd ac94 67bd e3b9 973d 40ad acbd
00000360: e74b 1a3d d063 dd3d b264 88bd 9acd cebd
00000370: b0de a93d 3b7f 443d b62b a03c 9237 9c3b
00000380: e9cb 783c 78c2 243d f617 1f3e fa1f 7f3d
00000390: f8f3 b63d b807 013e dd00 01be 5e19 d6bd
000003a0: 0547 033e e04b 833c 34c4 3ebd 6bbe d7bc
000003b0: 72b0 6dbd 03ad 34be 15d2 6dbd 1a11 3cbe
000003c0: ee22 db3d 2891 4f3d 24af cf3a c651 353d
000003d0: 7946 2abc 753b c93c ffe5 9c3d 2ee2 b13d
000003e0: ac7f d7bd d20c 82bd edb2 503c 1ba6 a13d
000003f0: b53c b5bd 320a 033e 3dc6 8abd e30f 92bc

lstm_layers.0.bias_ih_l0_reverse f4 [264]
-0.12185849 0.0468543 -0.22145821 -0.18066636 -0.084625214 0.02638254 -0.12721136 -0.17934407
-0.05030293 -0.12354033 -0.13890967 -0.0015780343 0.023298537 -0.03368608 0.12678458 -0.037120868
0.04047131 -0.10522884 0.13739575 -0.20135769 0.022851365 -0.2248538 -0.06533438 -0.09448798
-0.00855817 -0.004921593 0.13131434 0.04630733 0.049736157 -0.09206065 -0.049614295 -0.10429553
-0.009340056 -0.26054913 -0.09893818 -0.2254233 -0.15993337 -0.17287877 -0.17901552 0.024000742
-0.10471022 -0.051454518 -0.13700809 -0.018439975 0.012232192 -0.12578642 -0.11678693 -0.0889792
-0.12907054 -0.28178066 -0.12685098 -0.06904151 0.035429273 -0.1737523 -0.01891377 -0.026095087
-0.06942175 -0.034701396 -0.2146669 -0.011572852 -0.080147 0.09091582 -0.08431918 -0.030353377
0.024291927 -0.13323984 0.10521596 0.1302717 0.011081367 -0.03834156 -0.048275724 0.010799293
0.05298334 -0.008204986 -0.048635244 -0.06933955 0.06976581 0.01846151 0.016226921 -0.036863465
0.0877032 -0.0543439 -0.071763895 0.114027895 0.029540619 0.003214209 -0.1639609 -0.12863334
-0.16511385 -0.09196379 0.086279325 0.06615172 -0.059427958 0.08168297 0.057897244 0.015843043
-0.113776095 0.13525683 0.036757678 0.08381278 0.08910902 0.07929566 -0.013523196 -0.026593184
0.06738316 -0.010565847 0.007088712 0.10234553 -0.056161482 0.16255392 -0.09685288 -0.119116
-0.059333265 -0.053812977 -0.008393471 -0.07056173 -0.0898597 0.0776125 0.046400916 -0.2570188
0.08689546 -0.11760285 -0.06430579 0.091350675 -0.1403546 0.017906643 -0.016372796 -0.041447494
-0.10116021 0.04004152 0.028177274 -0.024779886 0.0805791 -0.07688094 0.18979937 0.07499381
0.14689954 -0.05111547 0.20241295 -0.1775074 -0.16365042 0.23407213 -0.13005143 -0.03679322
0.1950162 -0.00028302753 -0.05790934 -0.22314309 -0.07846512 0.08443371 -0.08345705 0.25396973
-0.010522917 0.096919395 0.18158126 -0.19470501 0.046390444 0.12097186 -0.039516315 0.07121931
-0.14102237 -0.102071665 0.1641944 0.14616275 -0.22882798 0.14646666 -0.018865671 -0.005232857
-0.07837649 0.005032381 -0.14531581 -0.105313644 -0.03268506 -0.230645 0.15387982 0.1301829
-0.03441691 -0.18803614 0.11808923 0.018624518 -0.05043279 0.15840073 0.04181095 0.07284312
-0.10854527 0.23246346 -0.040380836 0.11148461 0.16551362 -0.07841141 -0.17569476 0.03970848
0.30342475 0.16117138 -0.12400489 0.08922098 -0.040652666 -0.06748932 -0.15168293 -0.09408717
-0.28085458 -0.15965576 -0.1876448 -0.07421244 -0.11412515 -0.19477199 -0.043316655 -0.14687091
-0.118430905 0.15263961 -0.08924796 0.23401345 0.030025879 -0.11413379 0.032995667 -0.089726694
0.019957412 -0.07921688 -0.05125095 -0.070880495 -0.067292444 -0.054831922 -0.026369015 0.024389507
0.054063406 -0.079957254 0.1444566 -0.17755626 -0.06880928 0.081373714 -0.08242636 -0.15924661
-0.064732276 -0.0831461 -0.06872121 -0.142831 -0.08882162 0.11715803 0.03328945 -0.11364992
0.00022602007 -0.0066858456 0.037912562 -0.16607484 -0.113058284 -0.11786579 0.03869042 -0.17153765
-0.07904599 -0.03095598 0.042193446 -0.023752017 -0.105788656 0.098887525 -0.12509039 0.05624746
00000000: f290 f9bd 4bea 3f3d f1c5 62be 9a00 39be
00000010: fc4f adbd 3220 d83c b243 02be f9a5 37be
00000020: 720a 4ebd b602 fdbd 563e 0ebe 0bd6 ceba
00000030: 93dc be3c 6afa 09bd d1d3 013e 0d0c 18bd
00000040: 3fc5 253d 3882 d7bd 79b1 0c3e b630 4ebe
00000050: c932 bb3c 1340 66be 08ce 85bd ea82 c1bd
00000060: 9137 0cbc 5045 a1bb 4477 063e c1ac 3d3d
00000070: 24b8 4b3d 4b8a bcbd 5c38 4bbd e598 d5bd
00000080: 0907 19bc b266 85be 1aa0 cabd 5ed5 66be
00000090: 93c5 23be 2207 31be d84f 37be 349d c43c
000000a0: 5072 d6bd f9c1 52bd d94b 0cbe 6e0f 97bc
000000b0: 8869 483c 28ce 00be fc2d efbd ba3a b6bd
000000c0: 112b 04be 8e45 90be 39e5 01be a365 8dbd
000000d0: 491e 113d 1fec 31be 0df1 9abc 5dc5 d5bc
000000e0: fe2c 8ebd 0d23 0ebd a4d1 5bbe 0f9c 3dbc
000000f0: 1c24 a4bd 1332 ba3d 89af acbd a5a7 f8bc
00000100: ddff c63c 0670 08be 777b d73d f265 053e
00000110: 9f8e 353c 0a0c 1dbd c4bc 45bd 85ef 303c
00000120: 0f05 593d 356e 06bc c035 47bd e501 8ebd
00000130: 61e1 8e3d 983c 973c 52ee 843c 25fe 16bd
00000140: bc9d b33d b697 5ebd f3f8 92bd 7587 e93d
00000150: 2bff f13c 7ba5 523b 5ee5 27be 75b8 03be
00000160: 9b13 29be 8357 bcbd 37b3 b03d 8e7a 873d
00000170: bb6a 73bd 6749 a73d a925 6d3d 45c9 813c
00000180: 7103 e9bd c480 0a3e 388f 163d 09a6 ab3d
00000190: ca7e b63d c365 a23d 6590 5dbc f3d9 d9bc
000001a0: 2f00 8a3d 601c 2dbc 6d48 e83b 899a d13d
000001b0: 9509 66bd 8974 263e ce5a c6bd 17f3 f3bd
000001c0: 7007 73bd ff6a 5cbd c584 09bc ab82 90bd
000001d0: 5d08 b8bd 4df3 9e3d e30e 3e3d f897 83be
000001e0: 3ff6 b13d c3d9 f0bd c1b2 83bd 1016 bb3d
000001f0: 1eb9 0fbe f4b0 923c 3e20 86bc d9c4 29bd
00000200: 162d cfbd 9402 243d 07d4 e63c 30ff cabc
00000210: a806 a53d c173 9dbd c45a 423e 5b96 993d
00000220: d56c 163e 745e 51bd 5745 4f3e 80c4 35be
00000230: fa93 27be 9bb0 6f3e 342c 05be 7db4 16bd
00000240: 54b2 473e 5063 94b9 5832 6dbd 9f7f 64be
00000250: 52b2 a0bd 95eb ac3d 88eb aabd 5208 823e
00000260: 5068 2cbc ad7d c63d 70f0 393e c060 47be
00000270: e803 3e3d 18c0 f73d dcdb 21bd 6edb 913d
00000280: 2b68 10be f30a d1bd 9422 283e b0ab 153e
00000290: e251 6abe 5bfb 153e 2e8c 9abc 6378 abbb
000002a0: da83 a0bd ace6 a43b abcd 14be aeae d7bd
000002b0: c5e0 05bd 342e 6cbe ac92 1d3e ab4e 053e
000002c0: bff8 0cbd 8c8c 40be c4d8 f13d 7292 983c
000002d0: 9d92 4ebd cd33 223e f541 2b3d c62e 953d
000002e0: fc4c debd e70a 6e3e 6066 25bd 0b52 e43d
000002f0: 677c 293e 2996 a0bd 54e9 33be 5ca5 223d
00000300: 7d5a 9b3e 1c0a 253e 47f6 fdbd 7db9 b63d
00000310: 6983 26bd d737 8abd c552 1bbe c6b0 c0bd
00000320: 2ccc 8fbe cd7c 23be f525 40be b1fc 97bd
00000330: 72ba e9bd 4f72 47be ce6c 31bd 5465 16be
00000340: e78b f2bd 8f4d 1c3e a2c7 b6bd 39a1 6f3e
00000350: d5f8 f53c fabe e9bd 7726 073d a1c2 b7bd
00000360: ba7d a33c 763c a2bd 84ec 51bd cb29 91bd
00000370: 9fd0 89bd 7097 60bd d503 d8bc 81cc c73c
00000380: 9771 5d3d a1c0 a3bd 6eec 133e 4fd1 35be
00000390: e1eb 8cbd 43a7 a63d 27cf a8bd 8b11 23be
000003a0: 5b92 84bd 8148 aabd b5bd 8cbd 4a42 12be
000003b0: 1ce8 b5bd 8df0 ef3d 855a 083d 4ac1 e8bd
000003c0: cdff 6c39 f014 dbbb 344a 1b3d 860f 2abe
000003d0: 1a8b e7bd 9f63 f1bd d979 1e3d 91a7 2fbe
000003e0: dde2 a1bd 6597 fdbc 09d3 2c3d 9793 c2bc
000003f0: b9a7 d8bd 8b85 ca3d b217 00be bd63 663d

lstm_layers.0.bias_hh_l0_reverse f4 [264]
-0.062465455 -0.049732666 -0.2691162 -0.095336564 -0.10213892 -0.04407146 0.00065519236 -0.082504354
-0.031691305 -0.18723316 -0.2765207 0.096965745 0.025798602 0.09661948 0.17490357 -0.1375702
-0.071511306 -0.1560123 0.15470475 -0.1638593 -0.030476306 -0.19584095 -0.14800546 -0.16140524
0.17641896 -0.015890082 0.07637602 0.06102224 0.07332259 -0.16523209 -0.22778293 0.06787996
-0.17531914 -0.086137034 -0.21088079 -0.1738953 -0.091854416 -0.21196233 -0.17024066 0.02471408
-0.08251832 -0.1341974 -0.0953086 -0.021935008 0.052246075 -0.074284345 -0.13186674 0.029121635
-0.13994023 -0.09829243 -0.0686441 -0.0018519964 -0.03600453 -0.10658785 -0.1519547 0.0053312876
-0.13692369 0.0028872674 -0.060962904 -0.02011578 -0.21225344 0.02359479 -0.1592404 -0.048663653
-0.01164361 -0.085219726 0.029508222 0.13420019 0.030056858 -0.09545102 -0.044932995 0.0030377079
-0.09497667 -0.131513 0.052649476 -0.14390732 -0.033562344 -0.13765313 0.06925655 -0.0033125135
0.18012834 -0.017089216 -0.12818782 0.026296865 0.05585264 -0.00061920716 -0.15745467 0.049761053
-0.085065074 -0.07215814 0.013104437 -0.047257777 0.042322613 0.0639424 -0.08164123 -0.11935968
-0.13463043 0.054113943 -0.012823705 -0.10465374 0.07063867 0.10511296 -0.001458992 0.022485735
-0.010052063 0.07307888 0.09523113 0.0778751 -0.1483123 -0.007870509 -0.025374854 -0.10527208
-0.04413174 0.06848624 0.10447805 -0.13804382 -0.083373405 0.05212164 0.018767357 -0.10988491
0.05752923 -0.005426479 0.05770771 -1.4599649e-05 0.015524935 0.041641764 -0.10875121 0.14448458
-0.13488084 -0.06577356 0.017449925 -0.04633366 0.035461448 0.04444275 0.20615245 0.09833396
0.17137386 -0.17110655 0.15716673 -0.18231744 -0.17181356 0.122032486 -0.13000026 -0.0013209356
0.19568062 -0.13496244 -0.04561157 -0.17098582 -0.22189716 0.1881235 0.030490825 0.2175176
0.0072157546 0.11662379 0.24084076 -0.19171172 0.023941262 -0.05292898 0.09792587 -0.07210349
-0.10413171 -0.028703406 0.15198535 0.15856364 -0.26938555 0.21291265 0.03316714 0.19252285
-0.019020291 -0.017536057 -0.070244536 0.06925527 -0.097866096 -0.10587659 0.22046435 0.12860818
0.0010904889 -0.11379189 0.08432269 -0.051428173 -0.015447972 0.14848769 0.039951432 0.06001702
0.017626055 0.29209924 -0.06786668 0.10480988 0.09608968 -0.062672 -0.040040717 0.13059287
0.29885206 0.14673309 -0.11194663 0.04136344 -0.0145758055 -0.04925662 -0.06038499 -0.10095646
-0.26834264 -0.06254936 -0.1933587 0.012618292 -0.16449809 -0.1805683 -0.053776324 -0.11407121
-0.04155583 0.13305448 -0.06629609 0.11773711 0.03293476 -0.20050372 -0.13726723 -0.0992787
0.11322216 -0.13191442 0.10660099 -0.15698822 -0.21771951 -0.16745082 0.09807669 -0.12560077
-0.026417688 0.057345 0.050614547 -0.24646075 -0.115368985 0.04718463 -0.08142032 -0.20416962
-0.14194745 -0.021435356 -0.19457708 -0.2246103 -0.19279927 0.15424791 -0.034370866 -0.1609707
-0.0244441 -0.10752354 -0.05347307 -0.09514083 -0.11076422 -0.012610073 -0.10927892 -0.11564519
-0.13200042 0.03776887 0.1270543 -0.122441284 -0.13687336 -0.035273273 -0.10125254 0.041979283
00000000: c7db 7fbd 7bb4 4bbd 99c9 89be d13f c3bd
00000010: 362e d1bd 4684 34bd 37c1 2b3a 0bf8 a8bd
00000020: bece 01bd 0dba 3fbe 1f94 8dbe fa95 c63d
00000030: 9757 d33c 6fe0 c53d ec19 333e 34df 0cbe
00000040: 8574 92bd b0c1 1fbe ec6a 1e3e bbca 27be
00000050: 72a9 f9bc 888a 48be be8e 17be 6a47 25be
00000060: 2ca7 343e eb2b 82bc 086b 9c3d 75f2 793d
00000070: 272a 963d 9a32 29be ee3f 69be a604 8b3d
00000080: dc86 33be 9d68 b0bd 22f1 57be 9c11 32be
00000090: 2b1e bcbd a70c 59be 9153 2ebe 2f75 ca3c
000000a0: 5dff a8bd 0b6b 09be 2831 c3bd 0cb1 b3bc
000000b0: fbff 553d 6422 98bd 1308 07be 7f90 ee3c
000000c0: 7e4c 0fbe 8b4d c9bd 4795 8cbd b0be f2ba
000000d0: 7c79 13bd bb4a dabd 039a 1bbe 15b2 ae3b
000000e0: b935 0cbe 4f38 3d3b 3db4 79bd d9c9 a4bc
000000f0: f758 59be dc49 c13c ea0f 23be 8a53 47bd
00000100: d7c4 3ebc ae87 aebd 3abb f13c c66b 093e
00000110: cd39 f63c d37b c3bd a90b 38bd 4814 473b
00000120: 2183 c2bd 58ab 06be faa6 573d 715c 13be
00000130: ab78 09bd f1f4 0cbe 61d6 8d3d c116 59bb
00000140: 9073 383e affe 8bbc ab43 03be 866c d73c
00000150: bdc5 643d 4a52 22ba cc3b 21be 3fd2 4b3d
00000160: 9936 aebd a6c7 93bd feb3 563c 5f91 41bd
00000170: 7a5a 2d3d 3cf4 823d 8433 a7bd d972 f4bd
00000180: 8fdc 09be 95a6 5d3d 841a 52bc b354 d6bd
00000190: 02ab 903d 7745 d73d a63b bfba 0134 b83c
000001a0: 68b1 24bc 61aa 953d 8a08 c33d fb7c 9f3d
000001b0: 2edf 17be 4ff3 00bc edde cfbc e398 d7bd
000001c0: 7cc3 34bd 8442 8c3d 96f8 d53d 5c5b 0dbe
000001d0: adbf aabd 807d 553d 00be 993c 570b e1bd
000001e0: c5a3 6b3d 9bd0 b1bb eb5e 6c3d 04f1 74b7
000001f0: 4c5c 7e3c 8e90 2a3d f4b8 debd c4f3 133e
00000200: 341e 0abe 4ab4 86bd 25f3 8e3c 5dc8 3dbd
00000210: 0640 113d 9a09 363d a119 533e 5163 c93d
00000220: a17c 2f3e 8e36 2fbe 51f0 203e 6cb1 3abe
00000230: e5ef 2fbe 2bec f93d ca1e 05be 3e23 adba
00000240: 8060 483e 9833 0abe 33d3 3abd e816 2fbe
00000250: 0239 63be 72a3 403e e5c7 f93c efbc 5e3e
00000260: 2372 ec3b 74d8 ee3d f69e 763e 1450 44be
00000270: 7720 c43c 0fcc 58bd 5c8d c83d ffaa 93bd
00000280: 0243 d5bd 6823 ebbc 0ca2 1b3e 825e 223e
00000290: e7ec 89be c605 5a3e 44da 073d b624 453e
000002a0: 71d0 9bbc c7a7 8fbc 5edc 8fbd b5d5 8d3d
000002b0: 056e c8bd d3d5 d8bd 68c1 613e ddb1 033e
000002c0: bcee 8e3a b90b e9bd 60b1 ac3d 59a6 52bd
000002d0: 7e19 7dbc 280d 183e 1da4 233d 68d4 753d
000002e0: 8464 903c 088e 953e b0fd 8abd 90a6 d63d
000002f0: abca c43d 2d5a 80bd bc01 24bd 23ba 053e
00000300: 2303 993e 3341 163e 4644 e5bd b66c 293d
00000310: 5ccf 6ebc 4fc1 49bd 4056 77bd 43c2 cebd
00000320: 3564 89be e119 80bd d3ff 45be f4bc 4e3c
00000330: 3072 28be e5e6 38be 9044 5cbd 2b9e e9bd
00000340: 7236 2abd 6f3f 083e 3fc6 87bd 2720 f13d
00000350: 99e6 063d d950 4dbe c88f 0cbe a252 cbbd
00000360: 05e1 e73d 9314 07be 9f51 da3d 85c1 20be
00000370: ddf1 5ebe 3a78 2bbe 6fdc c83d 7d9d 00be
00000380: e869 d8bc 97e2 6a3d 3351 4f3d 3560 7cbe
00000390: 9346 ecbd ac44 413d b2bf a6bd d711 51be
000003a0: ac5a 11be 3399 afbc 373f 47be 3e00 66be
000003b0: 2c6d 45be 2af3 1d3e 77c8 0cbd 81d5 24be
000003c0: fe3e c8bc 4d35 dcbd 9406 5bbd 32d9 c2bd
000003d0: 5ad8 e2bd 7b9a 4ebc a0cd dfbd 63d7 ecbd
000003e0: 1e2b 07be 88b3 1a3d 861a 023e 7fc2 fabd
000003f0: 8828 0cbe b57a 10bd 7e5d cfbd 78f2 2b3d
