foundation_models/Ensemble_model10_DeepSurv_ANN_Event_1_20250804_224739.pt (torch, 85611 bytes, 19 tensors)

model.0.weight f4 [119, 11]
000000 10 15 80 3d 48 07 9a bc a2 d4 b1 3e ce be b4 3d
       0.06254017 -0.0188023 0.34732538 0.088254556
000010 fc 6c 80 be 0c 2b cb bd 45 91 c5 be 26 08 17 c0
       -0.25083148 -0.0992032 -0.38587394 -2.3598723
000020 86 c6 ea 3c 7d 34 33 3d 26 13 b4 3c 97 8d 91 3e
       0.028659116 0.04375123 0.021981787 0.28428337
000030 6a ed ce be 39 70 57 3f 8f 44 da 3e a7 59 06 3d
       -0.40415508 0.84155613 0.4263043 0.032800343
000040 0d 6d 2d bf 10 94 24 bf 5f 2a 95 bb aa 63 b0 bd
       -0.67744523 -0.64288425 -0.00455217 -0.086127594
000050 88 55 97 3d 99 09 c9 3e 33 13 9c be 60 cb 1c 3e
       0.07389361 0.39265135 -0.30483398 0.15311956
000060 ea f0 46 3f dd 2d 83 3f e9 5d 1e 3f 6a a1 5d 3e
       0.77711356 1.0248371 0.61862046 0.21643606
000070 6b 84 d2 be e5 c8 9e bc 8b 01 02 be 8f 6e a9 bc
       -0.41116652 -0.019382903 -0.12695901 -0.020682601
000080 fd 39 bf be ce 0b ed 3d 98 a0 7b be 24 db ca 3d
       -0.3734893 0.11574517 -0.2457298 0.09905079
000090 d8 13 7d 3f 7c ef a3 3d 5a 79 4f 3f 22 a9 56 bd
       0.98858404 0.080046624 0.8104454 -0.05240739
0000a0 69 1a 5b be 3c b0 8e bd f2 4e 31 be c3 f0 df bd
       -0.21396793 -0.06967208 -0.17315271 -0.109345935
0000b0 e8 e2 fb bc 6e ba 1f be 8c 4f 3d bf 3d 55 6a 3e
       -0.030747846 -0.15598461 -0.73949504 0.22884078
0000c0 a6 23 81 3d fb 86 ea be d1 35 0e bf a2 6b 5d bf
       0.063056275 -0.45806107 -0.5555087 -0.8649236
0000d0 87 27 55 3e 08 88 3c 3e 3f 90 38 3e 6a f8 d5 bc
       0.2081586 0.18411267 0.18023776 -0.02611943
0000e0 8b 26 c1 3c 09 51 74 bf c4 2d 82 be e8 70 f5 3e
       0.023577949 -0.9543615 -0.2542554 0.47937703
0000f0 c9 92 23 bf 9c 0e 86 3f 95 03 ab be 15 25 9d be
       -0.6389585 1.0473208 -0.3340117 -0.30692354
000100 f9 3c 06 3e fa 7a 60 3e 13 32 eb 3d d4 b2 b2 be
       0.13109197 0.21921912 0.1148416 -0.3490206
000110 9e ad 6d be 87 8e d1 3d 95 50 7a 3f 10 2e 0f bf
       -0.23210761 0.10232263 0.9777921 -0.5592966
000120 70 44 f5 3e af 3d c8 3e 93 39 83 be 89 8d f0 bc
       0.47903776 0.3910956 -0.25629863 -0.029364364
000130 ab 1e 42 be 55 c8 60 3e 26 d5 4e 3e 61 17 4c 3f
       -0.18957011 0.2195142 0.20198497 0.79723173
000140 10 2b 8b 3d 94 45 55 3f 57 76 62 3f da fd 6a 3e
       0.06795323 0.8330929 0.8846182 0.22948399
000150 3b d4 89 3e 98 b3 68 3e b2 10 68 3e dc fd bd 3e
       0.26919731 0.2272476 0.22662619 0.37107742
000160 47 c3 d3 be 35 4b be 3e 71 56 b8 be 66 91 45 3f
       -0.41359922 0.37166753 -0.3600345 0.77174985
000170 a4 8b d7 bd 0c 19 c7 3e 60 01 92 3e 33 a2 f0 3d
       -0.10524681 0.38886297 0.28516674 0.11749687
000180 7f e8 bd 3e 6e f6 7d bd 59 7a 29 3e 2c dd ae 3e
       0.37091443 -0.06200259 0.16550578 0.34153116
000190 ff 1d 66 3e 39 ed 9b 3e 7f 3c 7c bc 12 1f 5e 3f
       0.2247238 0.30454424 -0.015395283 0.8676616
0001a0 6b 64 4f 3e 24 ea 81 3e 6d bb 12 bf 16 96 3d be
       0.2025315 0.25373948 -0.5731724 -0.18514284
0001b0 4f 45 6e 3e c4 56 ea 3e 3a d1 29 3e d3 d6 b5 bd
       0.23268627 0.45769322 0.1658372 -0.08878865
0001c0 ae ed 4d 3f a7 a7 09 3c 71 1f 8e 3f 74 1d 28 be
       0.80440795 0.008401788 1.1103345 -0.16417485
0001d0 dc 9e 24 be 7b 57 27 bd 9d 4d 8e be 44 a2 ab 3e
       -0.16076225 -0.040854912 -0.2779359 0.33522236
0001e0 17 7e 1c be ec e3 b4 3a 28 56 0c bf d9 3d bf be
       -0.15282474 0.0013800836 -0.54818964 -0.37351874
0001f0 d5 a4 e7 be 70 0f 77 be 39 fc 3d be 9d 29 1e 3f
       -0.45242944 -0.24126983 -0.18553247 0.61782247
000200 ea 76 c3 3d f8 fe 8a 3e 7d 68 bc be 89 2e fd bd
       0.095441654 0.2714765 -0.36798468 -0.123623915
000210 72 10 8d 3d 67 84 d0 be ee b2 0e 3f cd 6f 83 3e
       0.06887902 -0.40726015 0.55741775 0.25671235
000220 1a af 10 3f d3 8a d8 be e7 fd ee 3e a3 75 01 3d
       0.56517184 -0.42293414 0.46678087 0.031606328
000230 34 42 92 be ae 26 20 3c dc a9 30 3f e5 20 03 be
       -0.28566134 0.009774847 0.69009185 -0.12805517
000240 6e 02 b9 be 76 39 8a 3e 18 0b ae 3e a4 0c 70 3e
       -0.36134666 0.26996964 0.3399284 0.23442322
000250 70 59 37 3e c8 08 b5 3f 5e 15 c1 3e f6 ed 1a be
       0.17905211 1.4143305 0.37711614 -0.15129837
000260 40 5b d3 be 50 1f 22 be 75 60 77 3e c6 65 02 bf
       -0.41280556 -0.15832257 0.24157889 -0.50936544
000270 e5 7f 61 bf a1 e9 8c 3e 96 04 23 be 3b 3c 77 be
       -0.88085777 0.27521995 -0.15919718 -0.2414407
000280 de 08 fe 3e 4b 7a bb 3e 68 76 16 3e 2c c0 5c be
       0.4961614 0.3661674 0.14693606 -0.21557683
000290 4e 36 04 3c 2c 55 58 be 39 35 07 3f db d2 1d 3f
       0.008069588 -0.2112624 0.52815586 0.61649865
0002a0 54 31 10 be 02 68 d0 3e cf ce 49 be c6 cc 16 bf
       -0.14081317 0.40704352 -0.19707797 -0.5890621
0002b0 b4 67 42 3d 3c 6e a4 3e e8 35 c3 be 5f 5b da be
       0.04746218 0.32115352 -0.38127065 -0.42647836
0002c0 18 01 ba 3e 18 ca dd bd a5 65 ab be fa 16 6f bd
       0.3632896 -0.10829562 -0.33475986 -0.05837152
0002d0 bd f8 7f bf e0 3f 95 be 00 49 a4 be f2 52 99 3e
       -0.9998892 -0.29150295 -0.32086945 0.29946095
0002e0 2f 15 c6 bd ee 9e 2b be eb d4 ff 3e c7 93 9d bd
       -0.09672009 -0.16759846 0.4996713 -0.07694202
0002f0 75 78 a1 3d 45 b7 2c 3f 66 33 a5 be bc eb 19 3f
       0.078843035 0.6746715 -0.32265776 0.6012533
000300 51 b3 95 bf 9f 8a 57 bc 64 04 a1 be 9f 5f 73 3e
       -1.1695348 -0.013155608 -0.31448662 0.23766945
000310 85 38 de bd e4 1c b6 be 48 a3 34 3e 66 6c eb be
       -0.10850624 -0.35568917 0.17640412 -0.4598114
000320 ff 68 34 3c d3 b4 d5 3e fa 2a 31 3f a1 eb 43 bf
       0.011011361 0.4173952 0.692062 -0.76531416
000330 14 ca 0a bf 06 12 a7 bc f1 e2 9b be 1f 2d 35 3d
       -0.54214597 -0.020394336 -0.3044658 0.044232484
000340 34 74 af be 70 19 72 3e 95 a7 85 3d ec 09 00 bf
       -0.34268343 0.23642516 0.06526104 -0.5001514
000350 0a 4a 00 bf 12 29 88 3e 80 e3 8f bf cc e8 00 3f
       -0.50112975 0.26593834 -1.1241302 0.5035522
000360 12 b3 0c bf a2 71 2a 3e 9f ff c5 3d 47 56 84 be
       -0.5496074 0.1664491 0.096678965 -0.25847074
000370 6c ab 1d 3d 3a 3d e4 3d 21 77 61 be c4 1f 87 3c
       0.03849356 0.111444905 -0.220181 0.01649464
000380 f9 8c 27 bd 79 bd ac bf 69 74 b9 3e c7 21 51 be
       -0.040905926 -1.3495322 0.36221626 -0.20423041
000390 a9 cb 06 3f a6 25 84 ba 1e 7f 57 bf 07 2d ad bd
       0.5265451 -0.0010082021 -0.8417834 -0.08455854
0003a0 4c bc d1 bc e6 c0 93 3f 09 95 03 3d a3 9c 81 3e
       -0.025602482 1.1543243 0.032124553 0.25314817
0003b0 9a 5a c5 be e6 ad b1 3f 4a 32 9c 3d 22 89 8a bd
       -0.38545686 1.3881195 0.076267794 -0.06764437
0003c0 b3 f0 20 3e 49 ae 05 bd 89 40 8e be 9e ed 1d 3e
       0.1571682 -0.032636914 -0.2778361 0.15422675
0003d0 9f 18 72 be 6c 04 ab be 0b 54 80 3e b9 60 92 3f
       -0.23642205 -0.3340181 0.2506412 1.1435767
0003e0 f8 50 ff be 9b 89 09 bf d2 b3 0d 3e 27 31 38 3e
       -0.49866462 -0.53725594 0.13838127 0.179875
0003f0 7e 82 bb be 09 c1 eb bd d9 6c b2 be 84 2e 3c bf
       -0.36622995 -0.11511428 -0.3484867 -0.7350848

model.0.bias f4 [119]
000000 34 ac a5 3d 45 bd 1f 3e b6 16 47 3e a2 21 06 3f
       0.08089486 0.15599544 0.19442257 0.5239507
000010 7a f9 4f be 69 3c 7c 3d 20 b9 45 3f 25 26 5b bd
       -0.20310012 0.06158105 0.77235603 -0.053503174
000020 a5 8b f9 bb 8b 53 2b be b2 bd 88 3d 7d 93 3a bd
       -0.007615524 -0.16731088 0.066768065 -0.045550812
000030 7c d7 4d 3e 00 e0 0c bf fb 24 f9 be 37 d1 a0 3d
       0.20101732 -0.55029297 -0.48661026 0.078524046
000040 00 ce cf 3e 94 35 e5 bc 51 64 41 3e 94 13 7a 3e
       0.40586853 -0.02797965 0.18885924 0.24421531
000050 a5 94 28 3e 1d c1 4e bf 68 b2 5e bf 6c 1e 47 3f
       0.16462953 -0.8076342 -0.86990976 0.77780795
000060 b4 b4 ef 3c e6 e0 2f bf e9 ed 49 bd 57 56 54 be
       0.02926097 -0.6870254 -0.049299154 -0.20736061
000070 5f 60 a5 3e 88 17 18 3f 34 b3 20 bf 9d 09 38 3f
       0.32300088 0.59410906 -0.6277344 0.7188967
000080 aa 12 24 bf a7 90 f2 be f0 08 e8 ba 04 00 07 bf
       -0.6409098 -0.47375986 -0.0017702859 -0.527344
000090 b3 f8 e1 3e d3 a1 4c 3e 7b ae c2 be 1d 03 4b bf
       0.44135055 0.19983606 -0.38023743 -0.79301625
0000a0 99 57 f8 be 7d 70 f8 be bf 45 c6 be d0 d2 19 bf
       -0.48504332 -0.48523322 -0.38725087 -0.600873
0000b0 bb 42 a9 3e 13 1a f3 be 1d 2f 29 be 10 b4 01 3f
       0.33058724 -0.4748083 -0.16521879 0.5066538
0000c0 a5 47 32 3e 6a a6 bc be 68 e6 a0 3e 0e ff 23 3f
       0.17410143 -0.36845714 0.31425786 0.6406106
0000d0 a8 13 58 3f cb 8a 10 bf 8b fc 23 bf 6d b4 94 3c
       0.84404993 -0.5646178 -0.64057225 0.01815244
0000e0 c6 76 ad be ed cf 18 3e f0 0e 58 3f 36 eb e7 3e
       -0.3387968 0.14923067 0.8439779 0.4529664
0000f0 41 61 f1 3e 28 29 80 bd 92 34 88 be 8f 5e 4c bf
       0.4714451 -0.0625785 -0.26602608 -0.79831785
000100 e4 36 bd be 0e ec 83 bd 3f 1c 7a be 58 ab 5f bd
       -0.3695594 -0.06441508 -0.24424838 -0.054606766
000110 58 72 c5 bc c6 6b 6f 3e 64 d9 de 3e 38 76 ff 3d
       -0.024102375 0.23380956 0.4352523 0.1247372
000120 15 e6 38 bf 34 c9 92 be 8f a4 fb 3d b3 3c 17 bf
       -0.7222608 -0.2866913 0.122872464 -0.59076995
000130 3a 68 1d bf 9d d6 b2 bd 9b bd a1 3d e7 c0 bf bd
       -0.6148716 -0.087323405 0.078974925 -0.09362965
000140 3c 2c c5 be 3a ef dc be f2 ac 0f be 6f f4 23 3f
       -0.3851031 -0.43151265 -0.14030817 0.6404485
000150 e7 51 73 3f e8 63 f1 bd 36 e4 af bd cc 5a dc be
       0.9504685 -0.11786634 -0.0858845 -0.43038023
000160 e5 a8 48 bf 15 31 6e 3e 8b 3b ad bb eb 3f c5 3e
       -0.7838271 0.23260911 -0.005286639 0.38525328
000170 dc 0c 61 bb 72 f3 9b 3e 34 97 cf bd 0c 35 ae be
       -0.003433994 0.30459172 -0.101362616 -0.34024847
000180 74 4c 22 3f 20 90 ab 3e 3d 0e 60 be 9c 58 1f 3f
       0.6339791 0.33508396 -0.21880431 0.6224458
000190 38 c4 ce 3d 7d 95 a8 3d 3e 49 46 bf 5c 4f 02 bf
       0.100960195 0.082316376 -0.7745551 -0.5090234
0001a0 63 bd f0 3e be 02 64 be 0b 3e 10 3e 85 0e 33 3e
       0.4701949 -0.22266671 0.14086168 0.17486008
0001b0 58 80 0b bf 42 8e 05 3f d0 83 e4 3e 64 98 13 3f
       -0.5449271 0.52170193 0.44631815 0.57654405
0001c0 01 e3 59 3e f1 09 fe 3d 97 7d c0 3e 54 2e 81 be
       0.21278001 0.1240424 0.37595817 -0.25230658
0001d0 4a 15 70 3e 92 28 81 3f e3 11 03 3f
       0.23445621 1.0090506 0.5119917

model.1.weight f4 [119]
000000 d4 97 07 40 3c 73 8c 3f 6d e0 76 3f 0c 6f 85 3f
       2.1186419 1.0972667 0.96436197 1.0424514
000010 11 43 c6 3f 62 75 55 3f 14 a5 aa 3f f5 d7 5d 3f
       1.5489217 0.83382237 1.3331628 0.8665765
000020 e1 68 4a 3f d4 52 88 3f ef 15 b2 3f 86 03 98 3f
       0.7906628 1.0650277 1.3912944 1.1876075
000030 53 fd af 3f 56 93 62 3f 8e b0 70 3f 80 87 46 3f
       1.3749183 0.88506067 0.940194 0.77550507
000040 0f 95 64 3f 56 2e b0 3f 46 30 ae 3f 94 70 95 3f
       0.89289945 1.3764141 1.3608482 1.1674981
000050 71 3d 78 3f b0 d6 ae 3f 45 8f 9f 3f d1 4d 80 3f
       0.9696875 1.3659267 1.2465597 1.0023748
000060 33 bd 9f 3f 1b 42 67 3f f5 cf 83 3f d2 1e 47 3f
       1.2479614 0.90335244 1.0297838 0.77781403
000070 5e 0a 55 3f e7 6c 36 3f 8d 63 5a 3f 38 38 80 3f
       0.83218944 0.7125992 0.8530815 1.0017157
000080 13 d3 46 3f 7f c6 88 3f 84 06 89 3f 5e 05 87 3f
       0.77665824 1.0685576 1.0705113 1.0548513
000090 6a 96 60 3f 05 1e 47 3f 2e 48 60 3f 0b e6 85 3f
       0.87729514 0.7778018 0.8761014 1.0460829
0000a0 60 32 36 3f 98 c8 36 3f 71 3a 85 3f 86 f8 42 3f
       0.71170616 0.7139983 1.040846 0.76160467
0000b0 21 91 90 3f f6 54 91 3f fc dd 8c 3f da 0d 6d 3f
       1.129429 1.1354053 1.1005244 0.9259926
0000c0 4d 18 93 3f 5b ce 81 3f 14 18 71 3f 65 9b 94 3f
       1.1491791 1.01411 0.94177365 1.1609923
0000d0 fb 21 7f 3f 2f 5b 81 3f bd 8e 56 3f 58 2c 93 3f
       0.99661225 1.0105952 0.8381155 1.1497908
0000e0 05 2d 47 3f fe 5c 7f 3f f4 13 9f 3f 14 2b 91 3f
       0.7780307 0.9975127 1.2427964 1.1341271
0000f0 84 c7 a8 3f 1c 2a 87 3f 61 db 63 3f 5c e6 62 3f
       1.3185887 1.0559726 0.8900662 0.8863275
000100 37 5e 54 3f 46 47 56 3f b7 c8 b5 3f cc 5c 5a 3f
       0.8295626 0.83702505 1.4201878 0.85297847
000110 9a 5a 96 3f f3 e2 a6 3f 9c a4 91 3f 6d 4b 8e 3f
       1.1746399 1.303801 1.137836 1.1116768
000120 a8 8a 95 3f 5f 56 68 3f 68 ed 73 3f 76 1e 99 3f
       1.168294 0.9075679 0.9528413 1.1962421
000130 a0 d7 31 3f db cf a8 3f 0b 97 66 3f 68 de 4c 3f
       0.6946964 1.3188432 0.90074223 0.80026865
000140 97 ac 88 3f c5 df 94 3f fd 6b 72 3f ad 3d 82 3f
       1.067767 1.1630789 0.9469603 1.0175072
000150 7a 40 43 3f 8a 6e 7a 3f 73 a8 85 3f df 60 8e 3f
       0.7627026 0.9782492 1.0442032 1.1123313
000160 a4 5a 9d 3f 54 f1 85 3f 0e 5b 8a 3f 94 d1 7a 3f
       1.2293286 1.0464272 1.0809038 0.9797604
000170 ab 98 99 3f f4 1a 6a 3f 3e 11 a6 3f a8 28 50 3f
       1.1999716 0.9144738 1.2974012 0.81312037
000180 eb e2 43 3f 59 4f 42 3f 72 56 59 3f 4b 5d b5 3f
       0.76518124 0.75902325 0.8489753 1.4169096
000190 32 f1 91 3f 24 e8 ab 3f 54 b7 56 3f 73 7f 85 3f
       1.1401732 1.3430219 0.83873487 1.042952
0001a0 52 7e 40 3f a1 e6 6e 3f 38 4d 70 3f dd 82 76 3f
       0.7519275 0.9332066 0.93867826 0.9629343
0001b0 2a 7c 4b 3f 5d f0 9b 3f b1 27 22 3f a7 06 bc 3f
       0.79486334 1.2182728 0.63341814 1.468953
0001c0 0d 16 8b 3f 8d c3 97 3f b7 16 54 3f 1c be 40 3f
       1.0866104 1.1856552 0.8284716 0.75290084
0001d0 f1 24 69 3f 50 3d 5e 3f 53 01 ba 3f
       0.91071993 0.86812305 1.4531654

model.1.bias f4 [119]
000000 4f 0a 83 bf 21 9d 85 be 69 56 3c 3d f7 86 45 be
       -1.0237521 -0.26096442 0.045980845 -0.19289766
000010 84 24 13 bf 66 5b 27 be 30 05 79 3e c3 7f 99 bd
       -0.57477593 -0.1634346 0.24318385 -0.07495072
000020 77 52 81 be 47 03 79 be d4 e2 f6 3d 5f 63 0c bf
       -0.25258228 -0.24317656 0.12054983 -0.5483913
000030 a0 e6 fa bd 7b ba 13 be 52 0b 15 bf b5 1d eb bd
       -0.122510195 -0.14426605 -0.582204 -0.114802755
000040 47 ce 10 bf b1 df 3e 3e d7 4c 04 3e 6e c5 7b be
       -0.56564754 0.18640019 0.12919937 -0.24587032
000050 79 77 a2 bd 3a 54 ba 3d a5 60 c9 be 69 43 21 be
       -0.07932944 0.09098096 -0.39331546 -0.15748371
000060 14 2d 24 bf 33 bf 19 be 16 5f 03 bb 84 eb e1 bd
       -0.64131284 -0.15014343 -0.002004569 -0.11031249
000070 4a 36 a9 bd dd cf 15 be 82 b7 6d be 33 4a 91 be
       -0.08262308 -0.14630075 -0.23214534 -0.28376922
000080 a0 9b 44 be 54 17 da bc 21 48 2c 3e d3 80 dc bd
       -0.19199991 -0.026622452 0.1682439 -0.10766759
000090 66 f5 b8 bd 5d db 3d bd a9 aa 5e 3e 79 46 b3 bc
       -0.09031181 -0.04635178 0.21744789 -0.02188419
0000a0 aa 0b 26 be c6 5f aa be 4e 2f 71 be 70 68 76 be
       -0.16215387 -0.33276194 -0.23553202 -0.24063277
0000b0 e5 dc da be 01 6d b0 bd 67 2a 82 bd 6f 11 75 be
       -0.42746654 -0.08614541 -0.06355744 -0.23932432
0000c0 94 e0 77 bd f6 f0 42 3d 63 3d e4 be ad 72 95 be
       -0.06051691 0.04759308 -0.44578084 -0.29189053
0000d0 09 4b 87 bd 14 c7 b8 be a8 a9 4c be 93 08 dd bd
       -0.06606109 -0.36089385 -0.19986594 -0.10792651
0000e0 35 c1 8f bb 02 b2 f3 bd 73 a6 04 bf 46 7f 5c be
       -0.0043870457 -0.11899187 -0.5181648 -0.21532926
0000f0 ba 71 21 bf 4b 62 67 bd 88 1d 67 bd b3 f5 99 be
       -0.6306416 -0.056490224 -0.056424648 -0.30070266
000100 3f 51 62 3e bc 58 1b bf d4 03 0b bf 39 d6 3f be
       0.22101305 -0.6068227 -0.54302716 -0.18734063
000110 e4 c8 7f be 2e 83 eb be e8 f8 97 be 66 8e 88 bd
       -0.24978977 -0.4599852 -0.29682088 -0.06667785
000120 1a f8 cd be 27 d4 4e be b8 67 02 bf 2d b2 42 be
       -0.4022835 -0.20198117 -0.5093951 -0.19013281
000130 63 dc 8f 3d 1e 71 a5 be 76 b1 e6 bd 6a fd 1d be
       0.07024457 -0.32312864 -0.11264317 -0.15428701
000140 33 02 1f be 76 4a 01 be 9e b5 32 be a9 66 ff be
       -0.15528183 -0.12626061 -0.17452094 -0.4988301
000150 8d 56 c2 be 0a 62 2f be 56 55 55 3e eb ef 38 be
       -0.37956658 -0.17127243 0.20833334 -0.18060271
000160 bf 09 18 bf bd 8f ed be 57 94 a6 bd b3 f2 65 be
       -0.5938987 -0.46398726 -0.08133762 -0.22455864
000170 1b 00 b9 3d fb 5f 80 be 60 37 fd bd 6a 1a aa bd
       0.09033223 -0.25073227 -0.123640776 -0.08305819
000180 82 dd e9 be 8c db be be fe d2 01 be 0f d3 a5 be
       -0.4567681 -0.37276876 -0.12678143 -0.32387587
000190 cf 09 24 be 86 a9 03 3d d7 19 e6 bc cb c8 06 bf
       -0.16019367 0.032144092 -0.028088493 -0.52650136
0001a0 ee 79 86 be 14 4b b1 be ac 14 84 bc 10 e6 97 be
       -0.262649 -0.34627593 -0.016123138 -0.2966771
0001b0 81 b8 11 be 7d e3 a4 3d bc 11 ba b9 2f fc 7d be
       -0.14230539 0.080512024 -0.00035489898 -0.24803232
0001c0 11 df ee be b7 5c 80 be 95 1d c6 be 33 a3 e9 be
       -0.4665456 -0.25070736 -0.38694444 -0.45632324
0001d0 bd ab f2 be ff ee 61 be 97 c2 d7 be
       -0.4739665 -0.22063826 -0.42140648

model.1.running_mean f4 [119]
000000 3f d1 53 c1 f0 ff 79 c0 12 cd 9b bd c5 4c c9 bf
       -13.238585 -3.9062462 -0.076074734 -1.5726553
000010 97 47 f1 c0 f1 14 d4 3f 15 71 27 40 b4 8c a1 40
       -7.539989 1.6568891 2.616277 5.0484257
000020 09 23 70 40 48 fe 53 3d 79 6f 8c be 24 8f 18 bf
       3.7521384 0.051756173 -0.27428797 -0.59593415
000030 cb cd b8 3e 14 d3 90 40 b4 a4 cd 3d ca a0 91 3f
       0.36094508 4.5257664 0.1004118 1.1377194
000040 68 ac 07 bf 35 2a 93 bf fe b2 8e c0 1e 3e 3e bf
       -0.52997446 -1.1497256 -4.4593496 -0.74313533
000050 67 69 15 3f 7f e9 a0 40 0c c8 83 c0 8e 04 7d c0
       0.58363956 5.028503 -4.11817 -3.953403
000060 0c a5 7f bf fa 11 0b 3f f4 e1 18 bd de a4 66 3f
       -0.99861217 0.54324305 -0.03732486 0.9009532
000070 0a 48 a9 3e a7 68 70 be 4b 46 12 40 fe 85 15 c0
       0.33062774 -0.23477422 2.2855403 -2.3363032
000080 10 bd e5 3f f4 a1 d3 3f d5 52 a1 3f 08 58 5d 40
       1.7948322 1.6533799 1.2603403 3.458498
000090 47 a9 2c 40 19 9c a9 be 8a 26 95 3e 4b dc 4b 40
       2.6978319 -0.33126906 0.29130965 3.1853206
0000a0 09 f9 f2 3f 8e 5b 01 3f 4a 85 09 40 ec ff f0 3d
       1.898225 0.50530326 2.1487603 0.11767563
0000b0 54 31 90 c0 87 cb 87 bf 02 5a 46 c0 44 c9 4d 3f
       -4.5060215 -1.0608987 -3.0992436 0.8038523
0000c0 1c 90 a7 3e c2 b6 df 3f 05 7f e4 bf b6 ad b6 c0
       0.32727134 1.7477648 -1.7851263 -5.708705
0000d0 b4 91 48 bf 45 1f 1a 40 88 56 8f 40 19 55 89 3d
       -0.78347325 2.4081585 4.479313 0.06705684
0000e0 3f 9b 31 40 eb 59 bb 40 48 9c c2 be 40 8c 07 40
       2.7751005 5.8547263 -0.38009858 2.1179352
0000f0 3c 42 45 be 21 7b 9d 3e e6 9a 70 bf c8 63 17 40
       -0.19263548 0.30758002 -0.93986356 2.3654652
000100 57 ce fc 3f 9f 08 8c c0 28 63 4c bf 25 07 39 be
       1.975047 -4.3760524 -0.798388 -0.18069132
000110 3f 27 dc 3e e0 46 8d c0 a5 56 b9 bf e2 d0 1e c0
       0.42998692 -4.4149017 -1.4479567 -2.4814992
000120 97 94 53 40 8b 64 c0 c0 9e 60 93 3e cf d1 71 40
       3.3059442 -6.0122733 0.2878465 3.7784307
000130 fe c7 9c 40 32 77 7e 3f c1 72 cf 3f 40 0a ba 3f
       4.899413 0.9940063 1.6206895 1.4534378
000140 44 70 8a 40 19 0d c7 3e cc 01 ea 3e 59 af fc bf
       4.3262043 0.3887718 0.45704496 -1.9741012
000150 30 9f 01 c0 a3 5e e7 3f 39 5a 2e 3f 67 66 d2 c0
       -2.025341 1.8075756 0.6810642 -6.5750003
000160 45 69 c1 c0 fb e3 0c bf 79 67 1f 40 2c 05 a6 be
       -6.0441003 -0.5503537 2.4906905 -0.3242582
000170 b2 4a 61 bf a6 7c 08 40 2d b0 25 3e 5a c4 1a 40
       -0.880046 2.132608 0.16180487 2.4182343
000180 a1 ce 4e bf 2e e0 2c c0 e1 c3 e4 3f 3e c1 21 40
       -0.8078404 -2.7011828 1.7872277 2.5274196
000190 06 92 b3 c0 f3 80 c4 3e 07 e1 85 40 de 4c 80 3f
       -5.611575 0.3837963 4.183719 1.0023458
0001a0 62 ea d6 be 3d c0 c9 3c ef e3 97 3f ad 4d a0 c0
       -0.41975695 0.0246278 1.1866435 -5.009482
0001b0 95 04 b8 40 32 09 4b c0 6a 64 8b c0 d5 6e 2a c0
       5.7505593 -3.1724362 -4.3560076 -2.6630147
0001c0 5c dd 31 c0 5c f3 5c bf bf dd bd bf 33 7a 91 3e
       -2.7791357 -0.86308837 -1.4833297 0.28413543
0001d0 b3 a1 37 3e 83 22 10 bf 91 80 34 40
       0.17932777 -0.5630266 2.820347

model.1.running_var f4 [119]
000000 52 c1 a8 3f 80 af a5 3d 48 ef ec 3d 96 3a 89 3d
       1.3183997 0.080901146 0.11569077 0.067006275
000010 9c 65 3c 3e 15 cc aa 3d e0 72 65 3d 08 20 b6 3d
       0.18398136 0.08339707 0.056017756 0.08892828
000020 3d 42 7d 3e 43 17 16 3e 85 71 b7 3d 0a 06 63 3e
       0.24732299 0.14657311 0.08957199 0.22170272
000030 e0 0b f0 3d 22 cd 03 3e 2d ac 78 3d 54 9f 0f 3e
       0.11721015 0.1287122 0.060711075 0.14025623
000040 42 11 c5 3d a4 2d 86 3d 02 fd c0 3d fc b5 04 3e
       0.09622432 0.06551674 0.094232574 0.12960047
000050 ed e5 39 3d 3a 43 9e 3d 05 e3 af 3d 7b d9 82 3d
       0.04538529 0.07727666 0.085882224 0.06389137
000060 dd ff 2d 3d ef 42 7b 3d 44 a3 8e 3d 55 29 10 3e
       0.04248034 0.06134313 0.06964734 0.14078267
000070 da 50 9e 3d 0a 71 14 3e 31 49 f7 3d ac 6c 8c 3d
       0.07730265 0.14496246 0.12074507 0.06856665
000080 72 e7 54 3d 2c 93 3e 3e 0e ef aa 3d 9e 78 2d 3d
       0.051978536 0.18610829 0.08346377 0.042351358
000090 51 37 64 3e c9 11 39 3d 4b e3 fa 3d b4 0e 5f 3d
       0.22286727 0.045182977 0.12250384 0.05445738
0000a0 12 37 38 3d 8c 9b ff 3d 1b 00 80 3d f0 09 62 3d
       0.044974394 0.1248084 0.0625002 0.05518526
0000b0 b5 8c e5 3d 7c 0e aa 3d 09 59 a5 3d e1 f9 53 3d
       0.11208478 0.08303544 0.08073623 0.051751975
0000c0 51 20 8a 3d 84 29 8b 3d 8c 34 89 3d ed 4e 5e 3d
       0.06744445 0.06795028 0.06699476 0.05427449
0000d0 0b b8 29 3d ea 51 db 3d d8 f4 b6 3d e7 c1 3f 3d
       0.041435283 0.10708983 0.08933419 0.04681578
0000e0 8f a2 de 3d 38 16 a3 3e af 3b 62 3d a9 5b 17 3e
       0.10870849 0.3185289 0.0552327 0.1478106
0000f0 4c 93 25 3e 78 08 2e 3e 63 7e 47 3d 1f d3 22 3e
       0.1616947 0.16995418 0.048704516 0.15900849
000100 75 e2 18 3e 01 cd 07 3e b1 79 e8 3d c1 e0 95 3d
       0.14930137 0.13261797 0.11351336 0.07318259
000110 b1 bf 0c 3e d3 cd 07 3e e7 43 59 3d 1d de 97 3d
       0.13745 0.1326211 0.053043272 0.074154116
000120 0e 41 a1 3d 32 20 e5 3d 06 d3 a4 3d 65 fb cc 3d
       0.07873736 0.111877814 0.08048062 0.10008887
000130 71 ff e4 3d e3 ed a2 3d fb 52 26 3d 6a d7 3d 3e
       0.11181534 0.079555295 0.04060648 0.18539205
000140 ae 7a 93 3d 44 59 b4 3d 25 a2 b5 3d 10 43 8e 3d
       0.07201134 0.088060886 0.08868817 0.06946385
000150 1e cd 6d 3d 49 d4 28 3e 2b 5c 4e 3d 78 64 fd 3d
       0.058056943 0.1648723 0.050380867 0.123726785
000160 3e cc 6a 3e 32 67 13 3d 61 98 00 3e 35 f8 cb 3d
       0.22929475 0.035987087 0.12558128 0.09959451
000170 a1 cd 48 3e 2b f0 96 3d 1f 75 60 3e b7 55 6d 3d
       0.19609691 0.07370027 0.21919678 0.057943072
000180 a5 d7 5e 3d 3a 57 7a 3d 28 a5 20 3e 2d 8d 0f 3e
       0.054404873 0.061118342 0.15688002 0.14018698
000190 cb f7 85 3e 2c eb 9e 3d 15 81 ce 3d 98 0e 6c 3d
       0.26165614 0.07759699 0.10083214 0.057631105
0001a0 7d ad 29 3e 13 b9 62 3d 6e 1b a7 3d 8b 51 23 3d
       0.16570087 0.05535228 0.08159529 0.039872687
0001b0 3a b6 9d 3d 99 e2 15 3e 1b 66 05 3e c5 98 d4 3d
       0.077007726 0.14637221 0.13027231 0.10380701
0001c0 0c 9d 63 3d 3c d8 a9 3d bb aa b0 3d e9 7c 8b 3d
       0.055569693 0.082931966 0.08626314 0.06810934
0001d0 cb 84 a8 3d 64 c9 b5 3d 71 49 81 3e
       0.08228453 0.08876303 0.25251344

model.4.weight f4 [99, 119]
000000 21 77 f1 bd 08 be ad 3d 11 5d 9e 3e 1d e6 fe bd
       -0.117903 0.08483511 0.3093038 -0.124462344
000010 30 1d 16 3f bd 93 8a 3e 82 2d 4b 3e 54 86 ea 3e
       0.58638287 0.2706584 0.19841579 0.4580561
000020 de b8 3c 3e 1a 90 02 bf 45 5c bc 3e 6b 5d 37 3d
       0.18429896 -0.5100113 0.36789146 0.044766825
000030 02 53 9c be f5 b1 8a 3e 82 ee 88 3e 94 09 27 be
       -0.3053208 0.27088895 0.26744467 -0.16312248
000040 ad 22 64 be e8 2e 94 3e ff a1 20 3e 5f ec 7b 3d
       -0.22278853 0.28942037 0.15686797 0.061504718
000050 a2 2f 87 be 40 2e 04 3f 98 ac c1 bc ed 43 80 3e
       -0.26403528 0.5163307 -0.02364187 0.25051823
000060 eb 03 58 3e 6b 26 2b bf 05 ba fb 3e e7 8e 27 be
       0.21095245 -0.66855496 0.4916536 -0.16363107
000070 17 c3 2f bf 65 7a af be f3 b8 4a 3e ba 04 4f 3e
       -0.6865706 -0.34273067 0.19797115 0.20216647
000080 4f 57 ff bd 45 8a 3f be 98 fa f1 bd 8f d2 98 be
       -0.12467825 -0.1870509 -0.11815375 -0.29848143
000090 83 85 d2 3e e5 ff 35 bf 90 b4 a5 3e 88 06 3b bd
       0.41117486 -0.7109359 0.3236432 -0.045660526
0000a0 50 d5 4f 3f 8b cf 40 3e 37 66 57 3e cc 7e 8f 3e
       0.81184864 0.18829171 0.21035086 0.28026426
0000b0 2e ca a3 bc bb ea 2a be 90 4e 12 3e 98 46 03 bf
       -0.019993868 -0.16691105 0.14287782 -0.5127959
0000c0 10 89 8d 3e 49 f6 86 3d 0e 67 b0 bc 91 b8 8c be
       0.27643633 0.06589944 -0.021533515 -0.27484563
0000d0 e7 63 bb 3e c7 74 17 3e 22 23 93 3e f0 be 8e 3d
       0.36599657 0.14790641 0.28737742 0.06970012
0000e0 1c 1b 9b bc c4 e3 47 3e 7a 44 72 3d 40 ff 63 be
       -0.018933825 0.1952048 0.059147336 -0.22265339
0000f0 95 9e c8 bd f4 ba 8d 3d 79 f9 23 be 65 55 de be
       -0.09795872 0.06920424 -0.16013135 -0.43424526
000100 e6 77 67 be f0 bd 30 3f cd f6 a1 be 24 cb 1a 3d
       -0.22604331 0.6903982 -0.31633607 0.037791386
000110 c9 50 92 3e 35 22 90 3e 1a d1 da 3d d9 e6 b6 3e
       0.2857726 0.28151098 0.10684414 0.35722998
000120 ec b5 3d 3e eb 0d ed 3e 2c 53 89 3e 35 0e 36 3e
       0.18526429 0.4629968 0.26821268 0.17778857
000130 98 d7 bb 3d 84 0f 92 3e a9 75 7f 3d 18 a0 ed 3d
       0.091719806 0.28527462 0.06236807 0.11602801
000140 b5 6d 9b 3e 7b a7 ae 3e e4 f6 66 bf 98 af cd be
       0.30357137 0.34112152 -0.90220475 -0.4017303
000150 b4 29 27 bf 70 0f fe bd 9b 94 35 3d 69 1b 52 3e
       -0.6529801 -0.12405288 0.044331174 0.20518269
000160 a3 d1 05 be 0a 85 1a bd e5 99 ad 3e 66 87 47 be
       -0.13068251 -0.037724532 0.33906475 -0.19485244
000170 45 6a 33 3e c0 66 a2 3e 70 69 a0 be 0c dd 25 be
       0.17521007 0.31719017 -0.31330442 -0.16197604
000180 51 b6 2b bd 08 d5 10 be e3 40 90 3e e1 a2 0a 3f
       -0.041921917 -0.14143765 0.28174505 0.54154783
000190 4c 99 0a 3d 8a 34 c1 3e 2c 86 55 bf cc a2 7a bf
       0.0338376 0.37735397 -0.83407855 -0.9790466
0001a0 ef 84 f2 3e 5e 45 49 be 29 18 37 be f4 aa 2c be
       0.47367045 -0.19655368 -0.1788031 -0.16862088
0001b0 a2 70 6e bd 15 e6 be bc 85 1c d5 bb fd 19 ba 3e
       -0.058212884 -0.023303071 -0.006503644 0.36347952
0001c0 a2 56 9b bd 6b d8 6e bf b6 f0 d3 bc 71 a2 20 3f
       -0.07584883 -0.9329898 -0.025871616 0.62747866
0001d0 3f 6c aa 3e 0e a9 37 3f f3 ae 12 be a3 da eb 3d
       0.3328571 0.7174233 -0.1432455 0.11516311
0001e0 7a f5 0b bf a2 54 ce be b1 f9 c0 3e 11 57 7b 3d
       -0.5467144 -0.40298945 0.376905 0.06136233
0001f0 9c 8a 4a 3d c7 0a 00 3e 38 d1 bd be 26 8a 02 be
       0.049448594 0.12504111 -0.37073684 -0.12748012
000200 95 67 92 3e ab 97 71 bd 97 83 83 3e 83 e0 5b 3b
       0.28594652 -0.058982532 0.25686333 0.0033550567
000210 94 eb c2 bd 5b 80 41 be 76 1b e6 be 01 4d 52 3e
       -0.09517589 -0.1889662 -0.44942826 0.20537187
000220 86 8c e7 3d 53 27 62 be ff dd 31 3e ce d5 c8 bd
       0.113060996 -0.22085313 0.17369841 -0.09806405
000230 55 51 da 3e ee 74 5d 3d 29 bc 1c 3f f2 b5 31 3e
       0.42640176 0.05406659 0.6122461 0.17354563
000240 31 13 d6 3d d0 12 a5 3e 53 68 94 3d 88 a9 a3 bc
       0.10452879 0.32240915 0.07246461 -0.0199783
000250 b0 8d 28 be b1 9c 82 bd 62 d2 9f 3e 61 6e b0 bd
       -0.164603 -0.06377543 0.31215197 -0.08614803
000260 ff 6a 06 3f e3 99 dd 3e 82 19 2b be a3 7a 9a 3e
       0.52507013 0.4328147 -0.16708949 0.3017169
000270 d7 65 9c 3d 5e 04 a4 be b0 e5 d5 3e 96 1d 7e be
       0.07636612 -0.32034582 0.417768 -0.24815974
000280 ee 6f 43 bf 4c 63 bd 3e 31 13 a7 3e 62 25 03 3e
       -0.76342666 0.3698982 0.3263183 0.12807229
000290 5f 36 49 3e 5b 82 b8 3e 54 a9 7e 3e 35 7a d5 be
       0.19649647 0.36036953 0.24869281 -0.416948
0002a0 2a 77 05 3e a9 b5 93 be af 80 2c bf 07 23 3f 3d
       0.13033739 -0.28849533 -0.67383856 0.046664264
0002b0 53 f4 e9 bb 54 7e ef bd 48 13 3f be d5 0e 35 3e
       -0.0071397214 -0.11694017 -0.18659699 0.17681439
0002c0 e3 94 28 be 76 b2 22 3e ed aa 19 be 5c c8 de be
       -0.16463046 0.1588839 -0.1500661 -0.43512237
0002d0 04 0b d9 3e a5 ee 86 3e 53 8a 04 bf 29 d5 bf bd
       0.42391217 0.26353946 -0.51773566 -0.09366829
0002e0 60 ab ae bd 26 67 1f 3f ae 21 f5 be 51 dd 42 3e
       -0.08528781 0.6226677 -0.47877258 0.19029738
0002f0 f4 6f b5 be 3d 7a a0 be db a3 d4 3d af c8 9d 3e
       -0.35436976 -0.3134326 0.103828155 0.30817172
000300 86 e2 d8 3d 2d 39 08 3f 06 bd e6 be a1 db 5b 3d
       0.10590081 0.53212243 -0.45066088 0.05367625
000310 77 c7 c5 3e 81 07 be 3d 66 b8 b4 be 10 13 df 3e
       0.38628742 0.09278775 -0.35296935 0.4356923
000320 96 7c b6 3e 5f ae 3b be 7e 71 cd be 2a 0d 99 3e
       0.35641927 -0.18328236 -0.4012565 0.29892856
000330 51 7c 45 3d af f9 59 bd 3e d1 3f 3d 15 32 c9 bd
       0.04821426 -0.053216632 0.04683041 -0.098240055
000340 53 95 d2 3e b0 42 14 bf e4 2c dd bd 39 29 c1 3e
       0.4112955 -0.5791426 -0.10799578 0.37726763
000350 a9 83 db bd 45 fd f9 3e 0e 85 29 3c d6 2c 8f 3d
       -0.107184716 0.48826042 0.010346664 0.06990974
000360 88 44 58 3e a7 1f 17 3f 6d 60 85 be f0 ee 68 3e
       0.21119893 0.5903267 -0.2605013 0.22747397
000370 50 0c f6 3c 39 3a 77 be 6a 20 9e bd 90 e2 3d 3f
       0.030035168 -0.24143304 -0.07721026 0.7417383
000380 47 d5 dc bd 11 52 a1 3e ef 80 13 bf 6e ff 18 3d
       -0.10782867 0.31507924 -0.5761861 0.03735297
000390 08 70 19 3f 0a 6c 9c 3e 04 b7 2e 3e 3e 55 a7 3e
       0.5993657 0.30551177 0.17062002 0.32682222
0003a0 52 c4 0c bf a0 21 cd bd 0f 3f e4 bd 67 99 16 3f
       -0.5498706 -0.10016179 -0.1114484 0.58827823
0003b0 6d 20 82 3e 41 59 30 3f 91 5d b0 3f 59 29 1a bf
       0.25415364 0.6888619 1.3778554 -0.6021934
0003c0 8c fd b6 3d c6 46 9b 3d 7f c7 6d 3e 73 e8 54 be
       0.08935079 0.07581858 0.23220633 -0.20791797
0003d0 31 96 de 3e 0e 73 14 3e 1f 71 92 3d 19 81 e8 bd
       0.43473962 0.14497015 0.071504824 -0.113527484
0003e0 6b 9a 9e 3e 6d 0d fa be cd bf fc be 66 d2 c9 3e
       0.30977187 -0.48838368 -0.49365082 0.39418334
0003f0 a3 d7 e5 3e e3 14 55 bc 89 5e 03 bf e9 be b9 be
       0.4489108 -0.013005468 -0.51316124 -0.36278465

model.4.bias f4 [99]
000000 34 ef 59 3d 92 7a b4 3d 2c 0e 2d be 7a 37 52 bd
       0.053206638 0.08812441 -0.16899937 -0.051322438
000010 97 d2 81 bd e7 a9 7f be 09 a6 5e bd 09 da 00 3c
       -0.06338995 -0.24967156 -0.054357562 0.007864484
000020 30 cd 44 3e 3d e3 8e 3c 01 19 41 3d 5c 22 bf 3b
       0.19218898 0.01744234 0.047142986 0.0058329534
000030 ae 47 91 3d 59 0d cf bc b0 bc fc bc ea 09 1a be
       0.0709375 -0.02527492 -0.030851692 -0.15042844
000040 06 75 19 bd 32 d0 3b 3e 24 32 0e 3e b3 d5 f6 3c
       -0.037465118 0.18341139 0.13886315 0.030131197
000050 04 8d d4 bd 6c c6 2d 3d 5d a7 ca 3d 01 24 b3 3d
       -0.10378459 0.042425558 0.09895203 0.087471016
000060 ef aa 25 be 3b 47 bc 3d 41 f9 3a 3e 13 4b 87 3d
       -0.16178487 0.09193274 0.18259145 0.06606116
000070 4d bf bd bd 37 3b 00 3e b0 ed b9 3d 98 17 04 3d
       -0.09265003 0.12522589 0.090785384 0.032249063
000080 b6 3b a8 3d de 23 84 3d e4 de 12 be 3d fb ff 3c
       0.08214514 0.064521536 -0.14342839 0.03124773
000090 97 eb ce 3c 08 fa 53 3d 04 2f 8d 3d 29 4a 21 3c
       0.025258822 0.05175212 0.06893733 0.009844341
0000a0 b6 c2 f9 bd e1 f5 17 be 06 dc 6d 3e 1f 79 f0 bc
       -0.12195341 -0.14839889 0.23228464 -0.02935463
0000b0 82 13 0e 3e e4 99 9e 3d 2d 95 89 3d 1f 11 db 3b
       0.13874629 0.07744196 0.06717906 0.0066853906
0000c0 0e 22 52 bc ba ae e8 bb fc 42 fb 3c 9b 62 91 bc
       -0.012825502 -0.007100907 0.03067159 -0.017747214
0000d0 5c a3 7f bc fc ae 15 3e 99 4a ea bd cc c5 ac 3d
       -0.015602913 0.14617532 -0.114400096 0.08436164
0000e0 9d f2 3c 3e fe ba 50 3e c4 7f 18 3e f2 d9 16 3e
       0.18451925 0.20383832 0.14892489 0.14731577
0000f0 f7 24 17 3e 80 4e 0f be 5f 58 a6 3d 57 22 80 3d
       0.14760195 -0.13994789 0.08122324 0.0625655
000100 4a 67 30 be 11 87 71 bd f4 f3 95 3c 28 b6 ec 3c
       -0.17226902 -0.0589667 0.018304802 0.028895453
000110 66 74 43 3d 10 7a b0 3d 00 2c ba bd 2b af c5 b9
       0.047718428 0.086170316 -0.090904236 -0.00037705278
000120 ab 94 e4 3d 31 23 22 3e 04 fc 7b 3c 2c 78 9f bd
       0.11161169 0.15833737 0.015379909 -0.07786593
000130 77 fb 92 bc c9 54 b0 3d 02 35 26 3e 09 dd 6b bd
       -0.017942173 0.086099215 0.16231158 -0.057583842
000140 ac 8a d6 bc 32 e8 b2 3e b9 73 6b 3d 22 b4 a0 bc
       -0.02618917 0.34942776 0.05748341 -0.019617144
000150 f4 41 96 3a 98 bf 8c 3d d3 ae c0 bb c1 13 08 bd
       0.0011463747 0.06872481 -0.0058802157 -0.033221964
000160 66 ff 9f 3c 34 ea 74 be 16 46 31 3e cf b5 05 3e
       0.019530963 -0.23917466 0.17311892 0.13057636
000170 de c4 87 3d be 38 1e 3e 93 0e c9 3d 25 d9 20 3d
       0.06629346 0.15451333 0.09817233 0.039269585
000180 da 1a 40 be 68 6c af bd 9b f7 4b 3e
       -0.18760243 -0.08565599 0.19918673

model.5.weight f4 [99]
000000 0c 78 b8 3f fc 48 8d 3f d3 d8 83 3f 1a 91 81 3f
       1.4411635 1.1037898 1.0300545 1.0122406
000010 91 34 51 3f 78 b2 87 3f 43 2f 85 3f 97 3b 92 3f
       0.81720835 1.0601339 1.0405048 1.1424435
000020 4e e9 9c 3f 90 31 85 3f 5d e7 74 3f 20 2f 6d 3f
       1.2258699 1.040575 0.9566553 0.9265003
000030 62 2d 90 3f d6 d8 8a 3f 9c 98 99 3f 55 0d a8 3f
       1.126385 1.0847423 1.1999698 1.3129069
000040 a3 87 77 3f 48 76 91 3f 11 e7 85 3f 5e 1d 79 3f
       0.9669134 1.1364222 1.0461141 0.97310436
000050 1f 9e 9c 3f 81 9a a8 3f 3f 6d 90 3f 19 6d 53 3f
       1.2235755 1.3172151 1.1283339 0.82588345
000060 89 cb 9e 3f df 74 2d 3f cb 8e 94 3f 4b 00 b8 3f
       1.2405864 0.67756456 1.1606077 1.437509
000070 32 50 96 3f 19 ea 53 3f f1 ac 9f 3f 46 28 81 3f
       1.1743224 0.8277908 1.2474653 1.0090415
000080 82 f4 93 3f 5c f2 85 3f 96 75 9d 3f 48 c6 b2 3f
       1.1558993 1.0464587 1.2301509 1.3966761
000090 a6 84 73 3f 9e f9 89 3f b1 ad ab 3f ea ef 44 3f
       0.9512428 1.0779302 1.3412381 0.7692858
0000a0 31 6d 7c 3f ec 91 63 3f d4 e4 ad 3f 82 ef 3a 3f
       0.9860411 0.88894534 1.3585458 0.7302171
0000b0 5d fb 9f 3f 64 b5 6c 3f 3f 3d 87 3f 2e 66 3a 3f
       1.2498585 0.9246428 1.0565566 0.72812164
0000c0 ec 8c 95 3f ed 23 9e 3f 67 0a 54 3f 32 a6 9d 3f
       1.1683631 1.2354714 0.8282837 1.2316344
0000d0 1a 68 3d 3f 56 d0 2e 3f cf 28 64 3f 06 1f 80 3f
       0.7398697 0.68286645 0.8912477 1.0009468
0000e0 85 b4 59 3f bb fd 5e 3f 5b 6c 8d 3f c4 80 79 3f
       0.85041076 0.8710591 1.1048692 0.97462106
0000f0 11 6c 66 3f 9f 3c 8d 3f eb cd 7c 3f 1b c5 95 3f
       0.90008646 1.1034125 0.98751706 1.1700777
000100 d0 34 42 3f 9b 08 96 3f cc 74 38 3f 5f b9 62 3f
       0.75861835 1.1721376 0.7205322 0.88564104
000110 cd 4e 84 3f 17 35 a3 3f 7d ab 56 3f 5d 08 6c 3f
       1.0336548 1.2750577 0.8385542 0.9220026
000120 15 e9 61 3f f4 96 6e 3f e6 36 3f 3f 17 6b 8d 3f
       0.8824628 0.93199086 0.74693143 1.1048306
000130 4e 9d ad 3f a4 19 47 3f ed 7b 6a 3f 77 c8 7a 3f
       1.356363 0.777735 0.91595346 0.97962135
000140 5d f9 32 3f 53 09 89 3f c2 e0 52 3f 03 95 80 3f
       0.6991175 1.070597 0.82374203 1.0045475
000150 a8 0f 5b 3f 11 1d 65 3f 73 3f 89 3f cc 6f 89 3f
       0.85570765 0.89497477 1.0722488 1.0737243
000160 6b 83 8f 3f 51 1f 60 3f 6e cd 9c 3f 64 13 8d 3f
       1.121198 0.87547785 1.2250192 1.1021543
000170 70 44 5e 3f 01 26 9c 3f fb 7a a5 3f aa 2f 7f 3f
       0.8682318 1.2199098 1.2928156 0.99682105
000180 19 2d 82 3f 66 ad 87 3f 33 e9 98 3f
       1.0170013 1.0599792 1.1946167

model.5.bias f4 [99]
000000 a7 ac fd be 22 b6 1f bf 9f 5b 06 bf 44 29 37 bf
       -0.49545786 -0.6238729 -0.5248355 -0.7154734
000010 13 05 7b be 15 77 34 be ac f8 ca be d6 70 8d be
       -0.24513654 -0.17623551 -0.39642847 -0.2762515
000020 ad f7 b5 be 5d 09 4c be 67 9d 21 bf cd 2b 4c be
       -0.35540524 -0.19925447 -0.631308 -0.19938584
000030 10 95 cc be af f3 81 be aa 56 da be f2 93 99 be
       -0.39957476 -0.25381228 -0.42644244 -0.29995686
000040 cc c9 13 be 68 c0 c1 be a6 b1 3d be f3 62 26 bf
       -0.14432448 -0.37842107 -0.18524799 -0.64994735
000050 ae 9d 84 be 20 df 61 bd 5d ff 7a be b9 cf 4a be
       -0.2590155 -0.05514443 -0.24511476 -0.19805802
000060 14 d1 06 bf 64 15 81 bd fe 56 da be 4a 38 1c 3d
       -0.5266278 -0.06302908 -0.42644495 0.03813962
000070 2f 90 07 3b 0c 2d 6f be f9 ad 2a bf 4b 52 43 3c
       0.0020685305 -0.23357028 -0.6667171 0.011921476
000080 38 31 12 bf af b4 05 bd ce b5 07 bf 1d 6d 05 be
       -0.5710635 -0.032643016 -0.53011787 -0.13029905
000090 00 9d 8c be 80 24 d0 be 1d 2c b9 be e9 f3 bb be
       -0.27463531 -0.40652847 -0.36166468 -0.36709526
0000a0 df 8e 1a be ca ff 02 be 4b cb a9 be ea 87 ce be
       -0.15093563 -0.12792888 -0.33162913 -0.4033807
0000b0 c2 f7 0d be c4 d4 dc be 62 5f b5 bd 30 05 18 bf
       -0.13864043 -0.43131077 -0.088560835 -0.59382915
0000c0 44 7a c5 be 58 58 b7 be 83 12 88 be 7d 6b 50 be
       -0.38569844 -0.35809588 -0.26576623 -0.20353504
0000d0 af 7e 7d be af f5 a6 be 19 b0 aa be c5 d6 46 3d
       -0.24755357 -0.32609317 -0.33337477 0.048544664
0000e0 2c 56 69 be 45 d8 c5 bd 71 a0 8e be 06 c6 dd bb
       -0.22786778 -0.09660391 -0.27856782 -0.006767991
0000f0 9a 72 98 3d 07 79 84 be 5e 13 9f be 5a f7 8c be
       0.074437335 -0.25873587 -0.31069463 -0.27532464
000100 b7 c7 11 bf 65 1f 35 be 30 f9 05 bd d9 b5 cf be
       -0.56945366 -0.17687757 -0.032708347 -0.40568426
000110 5e a7 b1 be bc 36 ca be be 4a 03 be 01 53 9b be
       -0.34698004 -0.39494884 -0.1282148 -0.30336764
000120 50 80 a6 be 73 b0 88 be 3b c5 c0 be a4 38 b9 be
       -0.3251977 -0.2669712 -0.37650475 -0.36176026
000130 8a 35 03 be 9a 3b 24 be 27 4a 2c 3d 4f 3f 36 be
       -0.12813392 -0.16038361 0.042062905 -0.17797588
000140 47 1c b0 be b9 34 ac bd cf f3 ef be 25 0e 14 bf
       -0.34396574 -0.084084935 -0.468657 -0.5783408
000150 5e bf cd be 31 e2 0c be 4f 3c b7 be 9e ae 51 be
       -0.40185064 -0.1375816 -0.357882 -0.20476767
000160 8c 71 ab be 6e e3 4b be 9c 55 29 bf 8b 45 43 be
       -0.33485067 -0.19910976 -0.66146255 -0.19069497
000170 9f 73 d0 be b7 b7 75 be cd 86 a9 be 99 ac 6a be
       -0.40713212 -0.23995863 -0.33110657 -0.22917403
000180 d7 b4 6f bd 35 51 9f be ef 3a ae be
       -0.05852207 -0.31116644 -0.34029338

model.5.running_mean f4 [99]
000000 ce 2f ee 3f 96 6b 12 40 3e 49 a1 be ca 6c 0a 40
       1.8608339 2.2878165 -0.31501192 2.16289
000010 4e d1 68 3f 57 1a 0a bf a6 d5 d6 3f dd b1 de bf
       0.90944374 -0.5394644 1.678395 -1.739803
000020 01 83 21 3e 13 6a f9 be 01 cb a0 3f 4e 40 86 bf
       0.1577263 -0.4871374 1.2561952 -1.0488374
000030 9c 87 2a c0 99 c6 96 bf 49 23 d2 3d a9 e4 c6 3f
       -2.664527 -1.1779357 0.10260636 1.5538532
000040 14 04 9d bf c4 5a a2 bf 3e 71 f2 bf bb a5 82 be
       -1.226687 -1.268395 -1.8940809 -0.25517067
000050 c0 c3 99 bf 5f 58 40 bf 5b b8 2a bf f6 7a 87 c0
       -1.2012863 -0.75134844 -0.66687554 -4.23376
000060 e4 db 94 be 83 9c 03 c0 e4 23 6f bf 75 6d 87 bf
       -0.29074013 -2.0564277 -0.9341414 -1.0580279
000070 2c b6 90 bf 73 21 f7 bf e3 0d 1c 40 b8 67 0f c0
       -1.1305594 -1.9307083 2.4383476 -2.2407055
000080 80 11 3a c0 30 94 a8 be 6e 28 06 3f 7b 68 11 bf
       -2.907318 -0.32925558 0.5240544 -0.5680005
000090 94 f3 29 c0 d2 9d 88 bd 3b ae af 3f ce fa 5d 3f
       -2.6554918 -0.06670727 1.3725046 0.8671082
0000a0 31 a0 91 bf 22 0b 2b c0 5c 5e 5f c0 20 6e 76 40
       -1.1377012 -2.6725545 -3.4901342 3.8504715
0000b0 24 38 97 be ae e6 87 bf 3e f8 1a c0 04 9a 18 bf
       -0.2953502 -1.0617273 -2.4214015 -0.5961001
0000c0 89 35 d4 bf ca fe 05 c0 d5 77 01 be de fb 0f be
       -1.6578838 -2.093676 -0.12643369 -0.14060923
0000d0 5e 6d f8 bf 5d 76 b6 bf 56 1d 1d c0 66 8d 1d c0
       -1.9408376 -1.4254872 -2.4549155 -2.4617553
0000e0 fc f3 74 bf 21 05 1c c0 ba 81 e7 bf 5f ce e2 bf
       -0.9568479 -2.437813 -1.8086464 -1.771923
0000f0 79 ab 7f c0 93 b3 20 bf c5 b3 b9 bf 84 1b 29 c0
       -3.9948409 -0.6277401 -1.4507986 -2.6423044
000100 f2 ee 89 40 d7 c3 3d c0 ee 8c 45 c0 08 ea b1 bf
       4.310418 -2.965078 -3.0867267 -1.3899546
000110 ad b1 f9 bf 83 d9 0e 40 a4 cf 6d c0 28 94 93 be
       -1.9507347 2.2320259 -3.7157984 -0.28823972
000120 87 2f 3b bf c1 3f 8d 3f 66 96 9b bf 4c fe 2e 3e
       -0.73119396 1.1035081 -1.2155273 0.17089194
000130 34 d5 83 3e 4e c1 1f 3f b9 74 0c c0 c1 60 08 c0
       0.257486 0.62404335 -2.1946242 -2.1309054
000140 49 a0 5d 3d af 78 28 3f 52 2d 0c c0 5f 7b c4 bf
       0.054107938 0.6580915 -2.1902661 -1.535015
000150 0b 02 d0 bf eb 23 32 c0 4e 2e 1a 3f 35 2a 35 c0
       -1.6250623 -2.7834423 0.60226905 -2.830701
000160 93 a5 97 bf b2 c6 a8 bf 1d 17 16 c0 4d f4 1e c0
       -1.1847404 -1.3185637 -2.3451607 -2.483661
000170 59 ea e8 bf fa 9b 00 c0 a1 ea 03 bf 9e 67 82 bf
       -1.8196517 -2.00952 -0.5152989 -1.0187871
000180 6d c9 a9 bf 20 9e df be 5b e5 19 c0
       -1.3264595 -0.43675327 -2.4046237

model.5.running_var f4 [99]
000000 78 13 e9 40 10 db 64 40 8e 38 52 40 2f f8 9a 40
       7.2836266 3.5758705 3.2847018 4.842796
000010 37 9c 5a 40 d6 ab 39 40 08 09 c0 40 12 25 dc 40
       3.4157846 2.901113 6.0011024 6.879525
000020 e6 8d 7f 40 aa ab 65 40 c0 56 7b 40 37 51 8a 40
       3.9930358 3.5886025 3.9271698 4.322414
000030 70 58 9d 40 48 93 80 40 8d 65 46 40 71 25 10 41
       4.9170456 4.0179787 3.0999482 9.009141
000040 2c 95 ac 40 62 e6 fb 40 e1 7d 80 40 10 f5 8a 40
       5.3932095 7.871873 4.015366 4.342415
000050 ee 61 3f 40 d5 88 a8 40 c0 e1 26 40 22 b2 e2 40
       2.9903522 5.266703 2.6075287 7.0842447
000060 30 03 35 40 0e 04 9c 40 ae ec 33 40 8a ef cc 40
       2.8283195 4.875495 2.8113208 6.4042406
000070 29 0f c8 40 d2 30 5c 40 4e 6a 90 40 98 bf af 40
       6.2518506 3.4404798 4.5129766 5.492138
000080 04 ed 53 40 74 b1 6f 40 dd 81 79 40 27 2a c7 40
       3.3113413 3.7452059 3.8985512 6.2238955
000090 7b b9 51 40 52 33 ad 40 7e 4d 92 40 6a d4 a6 40
       3.2769458 5.4125147 4.5719595 5.2134295
0000a0 ff d2 90 40 16 b5 52 40 64 0c 96 40 e9 54 a5 40
       4.5257564 3.2923026 4.6890125 5.166615
0000b0 f2 ae 60 40 b8 5d 7e 40 48 c6 f8 40 c0 c9 c1 40
       3.5106778 3.9744701 7.7742043 6.0558777
0000c0 c9 3e 74 40 f2 75 78 40 fd b3 07 41 0e cd 84 40
       3.816332 3.8821988 8.481442 4.150031
0000d0 8e 65 26 40 05 4b 0c 40 2c 56 d2 40 5f f1 84 40
       2.5999484 2.1920788 6.573019 4.1544642
0000e0 6f 21 2f 40 c1 ac 49 40 bb e6 82 40 d8 b0 2f 40
       2.7364156 3.151169 4.0906653 2.7451687
0000f0 9a 71 9e 40 97 a0 93 40 53 50 27 40 52 ff 96 40
       4.9513674 4.6133533 2.6142776 4.718667
000100 bc 31 83 40 a3 30 a9 40 8b 59 67 40 2d 98 80 40
       4.099821 5.287187 3.6148403 4.018576
000110 c3 17 c3 40 cc 33 c1 40 ae 74 5e 40 b4 44 a6 40
       6.0966506 6.037573 3.4758716 5.1958866
000120 e7 3b 14 40 0b 2b 6d 40 84 fd c6 40 71 cb 22 40
       2.3161561 3.7057521 6.2184467 2.543667
000130 ee 17 a9 40 bd d1 14 40 04 6f 55 40 fe ac d0 40
       5.284171 2.3253014 3.3349009 6.521117
000140 77 bf 67 40 4f 28 6c 40 4d 44 96 40 da 27 89 40
       3.621061 3.6899602 4.6958375 4.2861147
000150 f9 12 5f 40 2d 2a 7c 40 13 e8 73 40 d7 0d 67 40
       3.485533 3.9400742 3.8110397 3.6102197
000160 f1 93 6e 40 3a ad 83 40 ba 15 8a 40 a4 d4 49 40
       3.7277796 4.114896 4.315152 3.1536036
000170 94 26 8d 40 d7 93 51 41 28 d7 7e 40 c3 f2 29 40
       4.4109592 13.098594 3.981882 2.655442
000180 f7 f4 7c 40 d5 3c ef 40 79 79 53 40
       3.9524515 7.476176 3.304289

model.8.weight f4 [47, 99]
000000 5e 4c b3 3c 58 8a 91 3e ea 4b 45 bf 6d 55 8e 3d
       0.021887 0.2842586 -0.7706896 0.069498874
000010 8d c5 2c be 33 7c e8 3d 95 f3 23 3e 89 f6 08 3f
       -0.16872235 0.11351814 0.16010888 0.5350118
000020 b3 64 ea bd 9f 55 7d 3e 94 ed f4 be ae 9c a4 3d
       -0.11444988 0.24739693 -0.47837508 0.08037697
000030 f1 28 24 c0 c0 d5 95 3e 42 23 05 3f be 1b df 3e
       -2.5649989 0.2926464 0.52006924 0.43575853
000040 3a 75 34 bf 56 86 97 bd 1b eb d5 3e 14 a6 45 3e
       -0.70491374 -0.073986694 0.41780934 0.19301635
000050 f6 8c 9f be d0 c5 1d bf 28 78 3f 3e a1 db bc 3d
       -0.31162232 -0.6162996 0.1869818 0.092215784
000060 c6 02 13 bd 1a fc c3 3d 96 11 47 be 27 17 e8 be
       -0.035891317 0.09569569 -0.19440302 -0.45330164
000070 08 52 ab be 53 f7 e6 3e 9b 41 61 be 8a 88 f7 bd
       -0.33461022 0.45110568 -0.21997683 -0.1208659
000080 72 c2 c4 3c 87 8c dd bd 7e 3c c0 3d c3 30 5a 3e
       0.0240185 -0.10817819 0.09386538 0.21307664
000090 66 fd 6d be 34 b2 24 3e 96 20 8a 3e a2 cf 4e be
       -0.23241195 0.16083604 0.26977986 -0.20196393
0000a0 0f cb 00 bf 5f 78 09 bf d6 7e e3 3c 05 5b 22 bc
       -0.5030984 -0.53699297 0.027770441 -0.009909396
0000b0 cf bd e9 3e bc 63 68 3e 90 3b 45 3e 1f 52 13 be
       0.45652625 0.22694296 0.19261003 -0.14386795
0000c0 82 61 03 bf f8 18 d6 be e4 82 19 3e c1 45 87 3e
       -0.5132066 -0.41815925 0.14991337 0.26420406
0000d0 5f a8 37 3e 9c db b4 bd dd d2 23 3e 5a 36 7f 3e
       0.17935322 -0.0883095 0.15998407 0.24923077
0000e0 96 7f 08 be 76 6c eb be f3 29 d7 3e 0b a5 4e be
       -0.1332992 -0.45981187 0.42024192 -0.20180146
0000f0 47 84 1c 3d eb ab 4e be 55 92 e7 bd cc ce b6 3d
       0.038212087 -0.20182769 -0.113072075 0.08926162
000100 38 3a 0d bd 0f c5 35 3e a6 87 99 bd ef b9 85 3e
       -0.03447935 0.17750953 -0.07496576 0.2611842
000110 ea 2a 1d 3f bb e4 c0 3d c1 75 01 3f 37 2f af be
       0.61393607 0.09418627 0.50570303 -0.3421571
000120 34 7c ec be 9c f3 91 be d0 54 47 be 8a 99 91 3e
       -0.4618851 -0.28506172 -0.19465947 0.28437454
000130 ff c5 46 3e 73 d7 0a bd 11 03 00 be 88 ac 2f 3d
       0.19411467 -0.033896875 -0.1250117 0.042889148
000140 72 a8 20 bd 55 12 8e 3e 5b c1 a7 bd 0d fa a8 3d
       -0.039223142 0.2774836 -0.081911765 0.082508184
000150 90 3a 42 be 81 e3 c5 3e 91 87 b4 3e 88 89 f9 3e
       -0.18967652 0.38650134 0.3525968 0.4873774
000160 93 9e b1 be d9 56 7d 3e 60 45 df bd a1 7b 2a 3e
       -0.34691295 0.24740161 -0.10901904 0.16648723
000170 1a f7 da 3c 38 6c 88 be a6 c9 bb 3e 41 4d 7a 3e
       0.026729155 -0.26645064 0.36677283 0.24443533
000180 2e 65 27 3d 77 30 c8 3c 60 9c d7 be e5 a3 bb 3d
       0.040867977 0.024437172 -0.42111492 0.0916212
000190 3a 65 14 be 82 fd 25 be 13 6b d6 3d c5 87 9d 3e
       -0.1449174 -0.16209987 0.104696415 0.30767646
0001a0 7e 1d 66 be 41 9b 93 3e fd 46 85 be a3 5c 1e 3e
       -0.22472188 0.28829387 -0.26030722 0.15465026
0001b0 36 7a c9 be 90 34 32 be b8 20 58 3e 1e da 43 bf
       -0.39351052 -0.17402864 0.21106231 -0.76504695
0001c0 16 4f a5 3e dd 1c 48 be 38 78 39 3e 2f f4 36 be
       0.322869 -0.1954226 0.18112266 -0.17866586
0001d0 7b 40 2e be bf 95 f6 3e 13 f9 5f bd 01 f3 8b 3e
       -0.17016785 0.48161122 -0.054680895 0.27333835
0001e0 ac ae d3 3e 90 63 37 bf 76 0f a2 3e ad 2d a1 3e
       0.41344202 -0.71636295 0.3165242 0.3148016
0001f0 be 2c 1e be e0 53 0a be 1e 4e 5a bf 0d a7 c4 3d
       -0.15446755 -0.13508558 -0.8527545 0.09602175
000200 9d df 3b 3e 53 a5 03 3d 86 e4 fb bd ad 76 9e bd
       0.1834702 0.032140087 -0.12299447 -0.07737479
000210 2b 46 73 3d 58 d8 97 3e 06 e0 94 be 95 7b b3 be
       0.05939309 0.29657245 -0.29077166 -0.35055223
000220 a5 3c d2 be 85 c7 a5 be d2 c0 1a 3e d4 c0 48 3e
       -0.41061893 -0.32378784 0.15112618 0.19604808
000230 5e c6 aa be a1 50 db be c5 af 3c 3e 6d 34 c7 bd
       -0.33354467 -0.42834952 0.18426426 -0.09726796
000240 0d 9f 3d be 31 f5 7d bd a0 b8 aa 3e 0e 82 1b bf
       -0.18517704 -0.06200141 0.33343983 -0.6074532
000250 40 2c c8 be ac fe 97 bd 28 af 40 3d 14 c3 44 3e
       -0.3909626 -0.07421622 0.047042042 0.19215041
000260 47 3c 7d 3e 39 1a 88 bd 73 23 6d be 3a fe 8c be
       0.24730025 -0.066456266 -0.23158054 -0.2753771
000270 3f 3b d9 3e d2 25 0c bf 17 0e d7 3d 6c d5 a3 3e
       0.42428014 -0.5474521 0.10500734 0.31998765
000280 93 c6 47 bf d6 28 72 be 8d b4 8b 3d 21 04 f0 3c
       -0.78037375 -0.2364839 0.06821547 0.029298844
000290 4f 60 32 be cb bd f8 bd 2b 74 c2 3d 02 17 06 be
       -0.17419551 -0.12145575 0.094948135 -0.13094714
0002a0 fc fb a2 bf 15 94 ca 3e 4c 76 0e bf de 51 9c be
       -1.273315 0.39566103 -0.55649257 -0.3053121
0002b0 97 3e 3f 3d ec cb 16 bd ab a9 16 3f 03 31 07 bf
       0.04669055 -0.03681557 0.5885264 -0.5280916
0002c0 b8 ed d9 3d a2 2b 22 be 47 10 7e be 76 45 04 3e
       0.106410444 -0.15836957 -0.24810897 0.12917122
0002d0 65 07 10 bc 75 55 8b 3e 0d 92 54 be b1 b3 18 3e
       -0.0087908255 0.27213636 -0.20758839 0.14912297
0002e0 b0 fe 0a bf 6a 10 ee 3e 1d 43 36 3d e3 76 a5 3d
       -0.5429487 0.46496898 0.044497598 0.080793165
0002f0 9d f0 b4 3d ab fc cf be 17 f7 ae bb 8e 0e cb 3e
       0.08834956 -0.40622458 -0.005339514 0.39659542
000300 78 11 2f 3d 8a 72 ce 3e 70 6c cd bc 46 00 86 3e
       0.04274127 0.4032176 -0.025076121 0.26172084
000310 6e 4b a4 3e 90 2a 49 3f 87 fe 95 3d 23 cd 05 be
       0.32088798 0.7858057 0.07323938 -0.13066535
000320 1f 44 0e 3e 77 33 27 be 17 a8 fb bc d4 c8 05 3d
       0.13893174 -0.16328226 -0.0307198 0.032662228
000330 04 0d 42 be 48 14 22 bf fe a3 ef 3e 4f 74 d2 bd
       -0.18950278 -0.63312197 0.46804804 -0.1027609
000340 cd 92 63 3e b5 30 f8 3e 57 9e 89 3c a0 2c 74 3e
       0.22223969 0.4847466 0.016799135 0.23845148
000350 49 99 8e 3f fa ae 07 be d0 66 8b 3d 39 0f d7 be
       1.1140529 -0.13250342 0.06806719 -0.420038
000360 59 30 2d 3e 43 af 3b 3e 1d cf 77 be aa 1f eb be
       0.16912974 0.18328576 -0.24200101 -0.45922595
000370 06 02 d8 be 7b cc b8 bd 71 3f 47 be a9 88 23 be
       -0.42189044 -0.090233766 -0.19457795 -0.159701
000380 14 f4 94 bd 8a b4 0e 3e 52 c4 51 be 43 19 52 bf
       -0.07273117 0.13936058 -0.20485047 -0.82069796
000390 f1 f0 0d be 8d 36 72 be 71 f3 1a 3e fd 4f 3e 3e
       -0.13861443 -0.23653622 0.15131928 0.185852
0003a0 06 85 23 bf 48 04 a1 3e 35 74 0d be e0 57 a5 3c
       -0.6387485 0.3144858 -0.1381386 0.020183504
0003b0 a5 0f 1f bd 9b d0 ae bd 1c 05 d8 bd fb 23 f4 bd
       -0.03883328 -0.08535882 -0.105478495 -0.11920925
0003c0 9e db f7 3e f7 5c c5 3e e3 2d 9b 3d 9e 6a ab 3d
       0.48409742 0.3854749 0.075771116 0.08369945
0003d0 25 7c 14 3e e7 74 3b be 52 f5 16 3f 76 b5 c6 3e
       0.14500482 -0.18306313 0.5896808 0.3881032
0003e0 bb 31 03 3d ac e0 59 3e 5f 2e ce bd d5 68 0d 3d
       0.03202985 0.21277112 -0.10067438 0.034523804
0003f0 ef 27 42 3e 4e af 0b be 69 9e c5 3d cb 72 3a 3e
       0.18960546 -0.13641092 0.09649355 0.18207853
