foundation_models/Ensemble_model12_DeepSurv_ANN_Event_2_20250804_234627.pt (torch, 48344 bytes, 25 tensors)

model.0.weight f4 [86, 11]
000000 b2 58 15 bd 8a fd 98 bd 5c 2e 2a 3f 28 68 ac bd
       -0.03646154 -0.07470234 0.6647699 -0.08418304
000010 fc f5 00 bf a5 4b 91 3f 73 2b ba 3d 3e af 12 3e
       -0.5037534 1.135121 0.090903185 0.14324662
000020 15 9d f4 3e f7 57 0a be b6 a9 dd be f6 1a ab 3c
       0.47776094 -0.13510118 -0.43293542 0.02088688
000030 c9 cf a7 3d 25 ca 3a 3e 63 a0 d8 be eb ec 84 3f
       0.08193929 0.18241175 -0.42309865 1.0384802
000040 11 1e ba be a9 cb 0f 3f fe 06 a2 3d 5d 64 1a be
       -0.36351064 0.56170136 0.0791149 -0.15077348
000050 9f 6c 83 bd ee 6c aa be 42 c8 0a 3c 69 84 57 3e
       -0.06417202 -0.33286232 0.008470597 0.21046604
000060 75 78 e5 3e 5d 16 15 3f a6 3b 9c 3d ea 6f 6d 3f
       0.44818464 0.5823725 0.076285645 0.9274889
000070 4b 79 37 3e e3 07 58 bd 63 ed ce 3e 22 31 8e be
       0.17917363 -0.052741896 0.40415487 -0.2777186
000080 cb 7e 12 3e 99 3a f5 3d 35 8a 0b 3e 73 a5 49 3e
       0.1430618 0.11974067 0.1362694 0.1969202
000090 92 13 06 be 80 5d 87 3f 6a 72 30 3f 4d 12 2b 3f
       -0.13093403 1.0575409 0.6892458 0.668248
0000a0 86 cf 09 3e 12 cd 89 be ab f7 a0 3d 5f ee ad 3d
       0.1345807 -0.2691427 0.07859739 0.08492731
0000b0 ff fc 9b bd ad 23 bd 3d f6 75 80 be b0 81 f1 3e
       -0.076166146 0.0923532 -0.25089997 0.47169256
0000c0 c7 32 1d bc b8 bf 34 be 1e da d8 3e ca 33 39 bf
       -0.009594626 -0.1765126 0.4235391 -0.7234465
0000d0 42 8d f5 3e c7 1f 2c 3e 4d 0d 12 be ab 98 49 3d
       0.47959334 0.16808997 -0.14262886 0.04921786
0000e0 83 e1 53 3e 67 92 99 3e af 62 7c 3e 33 67 01 bf
       0.20691495 0.2999451 0.2464702 -0.50548095
0000f0 80 4a 64 be b5 fe 8e 3f 7a db 4e 3e bc 05 4c be
       -0.22294044 1.117148 0.20200911 -0.19924062
000100 58 11 20 be 84 9a c0 bd 54 cb 2b be c1 3d 69 3e
       -0.15631616 -0.094044715 -0.16776782 0.22777463
000110 fa aa bd bd 6d 90 a0 be 45 8f 8a 3f f3 86 26 3e
       -0.09261127 -0.31360188 1.0824972 0.16262417
000120 66 4a 3d be f2 06 ac 3d 63 71 b1 be 8f ea 59 be
       -0.18485412 0.08399762 -0.3465682 -0.21280883
000130 d5 73 c5 be fc d3 79 bd 85 a4 db 3d 1b ea cb 3e
       -0.38564935 -0.06099318 0.10724739 0.39827046
000140 64 a5 29 bf 6e 73 94 3e 73 53 70 bd cc 5e 23 bf
       -0.6626799 0.28994316 -0.058673333 -0.63816524
000150 75 62 35 3e 44 58 18 3f 82 bb 3b 3e ca ef 19 be
       0.1771334 0.5950968 0.18333247 -0.15032879
000160 45 e6 89 3e df 3e f9 bd b4 81 dc be cd cb b3 3d
       0.26933494 -0.12170195 -0.43067706 0.08779106
000170 e1 95 33 bf 10 c7 68 3e a5 1e 4d 3f 68 23 c7 3d
       -0.7015057 0.22732186 0.80124885 0.0972355
000180 0e 3e 19 bd f6 70 9a 3d 98 96 8f 3e 2d b1 d9 bd
       -0.037412696 0.07541077 0.2804458 -0.10629497
000190 41 23 f3 bd 0d 8c 15 be 53 45 9d bd 07 d1 43 3f
       -0.118719585 -0.14604206 -0.07679238 0.76490825
0001a0 95 2c 79 bf d1 cb 44 3f 36 0c 54 bd 38 99 9d be
       -0.9733365 0.768735 -0.051769458 -0.3078096
0001b0 ce 90 95 3c 4e 1f 0d be 53 6e 98 3e be fe cc 3d
       0.018257525 -0.13781473 0.2977167 0.10009526
0001c0 52 4e 6c bf 71 f1 b7 be 5b 40 0b 3e c7 89 64 be
       -0.9230701 -0.35926393 0.13598768 -0.22318183
0001d0 0f a6 a4 3e 2e e9 f8 3d c0 fc 91 3e c7 84 9d 3d
       0.32157943 0.121538505 0.28513145 0.07691341
0001e0 27 9b f4 3d 58 4d b9 3e 3f 01 be be 96 54 35 be
       0.119436555 0.3619182 -0.37110326 -0.17708048
0001f0 de 65 b7 3e 6e 08 25 3f 2e 0b cc be 34 8e 6d be
       0.35819906 0.6446599 -0.3985228 -0.23198777
000200 12 18 92 3d 7f ea 9d be bc 2a ff bd dc b2 bd bc
       0.07133497 -0.3084297 -0.12459323 -0.023156576
000210 44 59 c6 be ad 94 9a bc 38 e4 f9 3e 3d 5b 4f 3e
       -0.3873998 -0.018869722 0.4880693 0.20249648
000220 a5 a4 d6 be 92 fa 37 bf 01 f6 7f be 33 fe 96 3e
       -0.4192249 -0.71866715 -0.24996187 0.29490814
000230 91 06 44 3e ec a8 f9 bd 1a 83 c5 be d5 40 57 3e
       0.1914313 -0.121904224 -0.38576585 0.21020825
000240 6c d7 a6 be 6c 18 c2 3c 5e e4 06 3d 37 73 5d bf
       -0.3258623 0.023693286 0.03293263 -0.8650393
000250 2b f0 f4 be d7 66 8f be d1 d2 79 3b b5 13 cb 3e
       -0.47839484 -0.28008148 0.003812004 0.39663473
000260 45 e5 29 3e 06 e4 9f 3e ad ba a0 3c e9 61 7b be
       0.16591366 0.31228656 0.019620264 -0.24549069
000270 ef 50 d5 3c 78 a5 47 3e 39 74 83 3f 1b fa dd 3d
       0.026039569 0.19496715 1.0269843 0.108387195
000280 1e 22 0c bf 74 de 9c 3d 18 bd de 3d 26 c3 af 3c
       -0.5473956 0.07659617 0.108759105 0.021455359
000290 4f 37 2e 3e aa 6d ec 3c 5d e5 89 3e 25 8f 4d 3f
       0.17013286 0.028860886 0.26932803 0.80296546
0002a0 9b 26 76 be f9 df 53 be ae ad 70 3f 40 3c 9d bd
       -0.24038164 -0.20690908 0.94015014 -0.076775074
0002b0 f4 51 45 be 1b 63 82 bd d1 0b 22 3d a7 56 84 3d
       -0.19269544 -0.06366559 0.03956205 0.0646184
0002c0 08 99 d8 3d 4b a1 fe bc 16 a4 56 bf 6e 30 85 bd
       0.105760634 -0.03108277 -0.83844125 -0.06503378
0002d0 80 63 d4 be f2 3b 5a 3f dc 9c 77 3e 83 67 f9 bd
       -0.41482162 0.8524772 0.24180931 -0.121779464
0002e0 4b de 61 3e eb 08 21 be 99 0c 01 bf d3 72 79 bc
       0.22057454 -0.15726058 -0.5040985 -0.01522513
0002f0 62 09 9b 3e 0e 81 65 3f 62 9d 2b 3e 81 cd 3e be
       0.30280596 0.89650047 0.16759256 -0.18633081
000300 90 69 5f 3f 6a 43 74 be 25 ed 83 bd 8f 3d 81 be
       0.8727045 -0.23853841 -0.06441716 -0.25242278
000310 a8 fd 0a 3e f8 ec d9 3d 89 27 5c be b2 6b 9e 3e
       0.13573325 0.10640901 -0.21499456 0.3094154
000320 56 fa 5b 3d b6 62 23 bd a1 fa 27 bf 05 52 7d 3f
       0.053705536 -0.03988906 -0.65616804 0.98953277
000330 19 d2 01 3e 00 90 51 3e 42 a1 8c 3e 2c 03 59 be
       0.12677802 0.20465088 0.2746678 -0.21192616
000340 57 97 44 3e df c4 af bd b1 a8 71 3e c3 2b 33 bf
       0.19198357 -0.08582472 0.23599507 -0.6998865
000350 7b b1 20 3e 91 50 17 3f a2 7e 8a 3f 4a 57 86 be
       0.15692703 0.5910731 1.0819895 -0.2623847
000360 de 2d e1 bd 19 fa 66 3e 1e 27 15 be 42 3b e9 3d
       -0.109950766 0.22556342 -0.14565703 0.11388256
000370 18 bc b7 3c f5 ac ba 3d 61 80 d1 be 46 7a 08 3e
       0.022428557 0.0911502 -0.40918258 0.13327894
000380 1a d9 57 3e 45 41 ff be 33 37 19 bf aa 1e ea 3d
       0.21078911 -0.49854484 -0.5984985 0.1143163
000390 17 50 e1 3e e5 6f af bd 74 df 27 3f 3e e0 01 be
       0.44006416 -0.08566264 0.6557534 -0.12683198
0003a0 25 b8 01 be 73 7a b0 3d 3f 04 37 bd ec 7d aa 3e
       -0.12667902 0.08617105 -0.044681784 0.33299196
0003b0 82 6a 5b bf fb 13 fe be c9 ef 0d bf 5c 68 a3 3d
       -0.85709393 -0.4962462 -0.5544401 0.07978889
0003c0 40 ac 0c bd ab 0d 19 be bb f6 1a be 28 db e8 3d
       -0.034343958 -0.1494662 -0.15133183 0.11369926
0003d0 00 30 0d 3f 30 d2 8e 3e c7 65 2b bf 13 12 2d be
       0.5515137 0.27894735 -0.66952175 -0.16901426
0003e0 a8 c9 3c be 60 34 a7 be 3a 8f a9 3d 15 45 6f 3e
       -0.18436301 -0.32657146 0.082792714 0.23366196
0003f0 15 79 e1 3e 92 55 6b 3e a5 58 8c 3d ea 29 58 bf
       0.4403769 0.22981861 0.06852845 -0.84438956

model.0.bias f4 [86]
000000 b9 62 a4 3e 1c 7c a2 3e c8 e7 87 3d df f0 0e 3f
       0.3210657 0.31735313 0.06636006 0.5583629
000010 31 3e 05 be fa a0 81 3d 0f 85 a1 bd c2 e5 3f 3e
       -0.13012005 0.06329532 -0.07886707 0.1873999
000020 97 b8 38 3e 97 be 35 3e 58 44 7f be 67 08 85 3e
       0.18039165 0.17748486 -0.24928415 0.25982973
000030 78 d5 9e be 06 22 00 3d fb 3e da 3d 43 e0 1c 3e
       -0.3102224 0.031282447 0.10656544 0.15319924
000040 29 17 91 be a2 fb 4a 3e 63 17 bc bd fb 21 22 be
       -0.28337982 0.19822553 -0.09184148 -0.15833275
000050 54 36 a4 3e c2 cc 92 be 71 b2 29 bc b1 82 f6 3d
       0.320727 -0.28671843 -0.010357485 0.12036646
000060 81 65 6d 3c dd b8 8a 3e 76 b1 d9 3c dd 30 57 3e
       0.014489532 0.27094164 0.026573878 0.21014734
000070 ed a8 21 3e b2 a6 59 be 50 ab 9e 3e cd 3f 10 be
       0.15787096 -0.21254995 0.30990076 -0.14086838
000080 8e de b2 3e f8 9b 2c bd 34 ab 0b bf 18 cf 00 be
       0.3493542 -0.04214093 -0.5455811 -0.12579
000090 8c 03 c0 bd eb 05 e3 bd 7c 31 2f 3e e3 52 83 3e
       -0.093756765 -0.11085113 0.1710872 0.25649175
0000a0 be 77 36 3e 59 bc 8b be ef 62 94 bd cc b3 01 3e
       0.17819116 -0.27292135 -0.072454326 0.12666243
0000b0 47 d5 62 be 30 09 d7 bd 6b 15 b6 3e 5d 98 3e 3e
       -0.22151671 -0.10499799 0.35563216 0.1861281
0000c0 a9 3b f5 bd 06 e7 15 3e 1d d3 c2 bd c8 af b7 3e
       -0.1197427 0.1463891 -0.09512923 0.35876298
0000d0 24 00 f8 bc 1c 40 22 be 2c 66 09 bd b0 5f dd 3e
       -0.030273505 -0.15844768 -0.033544704 0.43237066
0000e0 e6 aa 1c be bb a6 38 3e 15 f4 6a 3e 25 bc 47 bd
       -0.15299568 0.18032353 0.22944672 -0.048763413
0000f0 23 9b 0a 3d eb 43 5d 3e 42 ff b5 bd b4 37 8b 3e
       0.033839356 0.2160794 -0.08886577 0.27190936
000100 21 d5 69 be b4 6a 3c 3e e9 be 63 3c 74 8d d2 3d
       -0.22835208 0.18400079 0.013900497 0.10280886
000110 be b4 0d 3f 3d 86 d0 be bc 54 b5 3e 6c c6 fc 3d
       0.55353916 -0.40727416 0.3541621 0.123425335
000120 b4 d2 8c 3d 4b 24 24 3e ea dc 16 be 36 34 76 bd
       0.06876126 0.1602947 -0.1473271 -0.060108386
000130 4c 14 07 3e 2c af a5 bd 27 f8 f5 be 41 2f 5a 3e
       0.13191336 -0.08090052 -0.48040888 0.21307088
000140 4e b5 2b 3e db 40 92 3e 2d 12 c6 bc 6e ca fe bd
       0.16768381 0.28565106 -0.024178589 -0.12440954
000150 b9 7a 33 3e f3 9a 54 3e
       0.17527284 0.20762233

model.1.weight f4 [86]
000000 84 8e 4c 3f 0c e5 81 3f 37 8b 5b 3f 1d 8e 7e 3f
       0.7990496 1.0148025 0.857593 0.994356
000010 06 c8 64 3f 29 dd 6e 3f 79 6e 84 3f bf fb 11 3f
       0.8936771 0.93306214 1.0346214 0.5702476
000020 52 f2 85 3f 90 9b 6a 3f 88 af 43 3f cf 99 67 3f
       1.0464575 0.9164362 0.76439714 0.9046907
000030 5c 44 62 3f e7 93 54 3f 29 8f 6c 3f e9 74 7f 3f
       0.8838556 0.8303818 0.92405945 0.99787766
000040 1b ea 41 3f 6b b0 54 3f 54 7a 6b 3f 04 85 73 3f
       0.7574784 0.8308169 0.9198353 0.9512484
000050 0d 99 72 3f 21 92 82 3f a7 80 75 3f 3d ba 71 3f
       0.94764787 1.0200845 0.9589943 0.944248
000060 45 19 4d 3f b7 94 95 3f e8 c3 58 3f 3e 4e 65 3f
       0.80116683 1.1686009 0.8467393 0.89572513
000070 1f e3 79 3f f8 da 5e 3f 9c b2 70 3f d9 c3 13 3f
       0.97612184 0.8705287 0.94022536 0.57720715
000080 46 80 47 3f 13 18 7c 3f de 78 94 3f ff 9d 80 3f
       0.77930105 0.98474234 1.1599386 1.0048217
000090 17 5b 4a 3f 26 a1 61 3f 87 b4 54 3f fb f7 6a 3f
       0.7904524 0.8813652 0.8308796 0.9178464
0000a0 20 35 65 3f 8f 56 7a 3f dc 4a 5a 3f f3 3b a5 3f
       0.8953419 0.9778833 0.85270476 1.290892
0000b0 ea 52 95 3f 83 3d 8b 3f d1 8d 62 3f 70 2f 7e 3f
       1.1665928 1.0878147 0.88497645 0.99291134
0000c0 07 c2 8a 3f 6a d5 90 3f 5d 85 60 3f cb 49 84 3f
       1.0840462 1.1315129 0.87703496 1.033502
0000d0 ef 06 7c 3f 5f f6 2f 3f 48 99 6b 3f 2d 61 97 3f
       0.9844808 0.6873531 0.92030764 1.1826531
0000e0 8a 23 5b 3f 50 5d 1d 3f c1 68 53 3f 94 7b 34 3f
       0.85601103 0.6147051 0.82581717 0.70501065
0000f0 8b 9b 79 3f ff bb 8e 3f 70 e4 73 3f a0 b4 78 3f
       0.97502965 1.1151122 0.9527044 0.9715061
000100 7c b8 7b 3f 1e fb 54 3f d0 0c 37 3f 7b 82 69 3f
       0.98328376 0.83195674 0.71503925 0.9121472
000110 54 99 65 3f 79 d3 61 3f 47 b4 84 3f b3 00 51 3f
       0.89687085 0.88213307 1.0367516 0.8164169
000120 df 54 80 3f a8 27 6c 3f 13 71 4b 3f 16 87 7b 3f
       1.0025901 0.9224801 0.7946941 0.98253
000130 64 2d 3e 3f fa 2b 8e 3f 68 29 6c 3f 51 11 92 3f
       0.7428801 1.110717 0.9225068 1.1411535
000140 d6 07 58 3f 5c c3 88 3f 38 e6 87 3f 49 da 36 3f
       0.84386957 1.0684619 1.0617132 0.71426827
000150 5f 1f 69 3f c8 e9 17 3f
       0.91063493 0.59341097

model.1.bias f4 [86]
000000 e8 e0 02 bf 89 46 08 bf ce 75 e2 be 33 80 fc be
       -0.5112443 -0.5323263 -0.44230503 -0.49316558
000010 1a 92 b4 be d1 92 b8 be 96 69 af be 53 d7 13 bd
       -0.35267717 -0.36049512 -0.34260243 -0.03609402
000020 72 e6 5e bf 30 4a 1c be af 8a e8 be c9 9c ef be
       -0.8707038 -0.15262675 -0.45418307 -0.46799305
000030 97 75 f7 be 4c 2e bc be cb 72 b0 be ba 44 20 bf
       -0.483319 -0.36754072 -0.3446258 -0.6260487
000040 7f a6 15 bf 15 6c ae be ee 18 c4 be 29 1e ee be
       -0.5845718 -0.34066835 -0.3830027 -0.46507385
000050 85 fb 23 bf 94 75 e1 be 59 2a a0 be 0e 7d b5 be
       -0.64055663 -0.44035017 -0.3128231 -0.35446972
000060 fd 8a a2 be d4 5d 06 bf ee d7 89 be 72 f9 0c bf
       -0.31746665 -0.5248692 -0.26922554 -0.55068123
000070 59 d7 19 bf 05 b7 d0 be 94 5f 00 bf 9d 1b c1 3b
       -0.6009422 -0.40764633 -0.5014584 0.0058931843
000080 e8 4f 99 be e8 78 36 bf 7e 25 3c bf 7c 0a ee be
       -0.29943776 -0.7127824 -0.7349471 -0.46492374
000090 b8 f3 c9 bd 74 b8 9e be b4 78 c1 be 1a 17 35 bf
       -0.09860939 -0.31000102 -0.37787402 -0.70738375
0000a0 5b f1 04 be c0 c0 a0 be 06 c7 d6 be 7e fb 26 bf
       -0.12982695 -0.31397057 -0.41948718 -0.65227497
0000b0 f5 9d 17 bf 89 82 9d be da 87 08 bf bb 29 18 bf
       -0.592254 -0.30763653 -0.53332293 -0.59438676
0000c0 0b 11 54 bf fd a9 13 bf b2 24 ad be a3 e9 fe be
       -0.82838506 -0.57681257 -0.3381706 -0.49787626
0000d0 d5 68 91 be 7c 5a f8 bd c8 53 ee be 78 d2 2d bf
       -0.28400293 -0.121266335 -0.46548295 -0.67899275
0000e0 1a 28 6e be 80 3b 83 bd 47 56 3c bf 57 a0 4d be
       -0.23257485 -0.06407833 -0.7356915 -0.20080696
0000f0 29 5e ad be 85 2a 2c bf 3b 7d 29 bf f4 3c d8 be
       -0.338609 -0.6725238 -0.6620671 -0.42234004
000100 c8 99 0b bf 65 61 35 bf 5f a1 3d be 90 f3 f0 be
       -0.54531527 -0.7085174 -0.1851859 -0.47060823
000110 75 e8 0f be 11 4b c5 be 49 ef eb be 61 be 17 be
       -0.14053519 -0.38533834 -0.46080998 -0.14818718
000120 74 fc 0a bf 79 3f f4 be 22 49 ff be 09 d7 6c bf
       -0.5429146 -0.47704676 -0.49860483 -0.9251562
000130 08 8f 58 be da d8 01 bf 25 4a 0c bf 11 08 1b bf
       -0.21148312 -0.50721514 -0.54800636 -0.60559183
000140 2f 44 c6 be 40 5d c1 be eb a0 2f bf e7 fa 9f be
       -0.38723895 -0.37766457 -0.68604916 -0.3124611
000150 96 01 a7 be 5e 37 b7 bc
       -0.32618397 -0.022365268

model.1.running_mean f4 [86]
000000 e9 d5 e0 3f 4c a9 5a 40 35 b1 1e 40 70 90 a7 40
       1.756528 3.416583 2.4795659 5.2363815
000010 91 cc ae bf c5 f9 b3 40 55 ce 43 3f c3 b4 53 3e
       -1.3656179 5.6242394 0.7648671 0.20674424
000020 6f 6d 2d 40 6b 35 d6 3f 28 3e 04 40 f9 01 09 c0
       2.7098043 1.6735052 2.0662937 -2.1407454
000030 75 0a d7 be 0b cb 25 c0 b1 f4 ec bf 00 ea 6e 3f
       -0.42000166 -2.5905178 -1.8512174 0.93325806
000040 d8 5b bc be 34 e4 90 3f ce 2f 44 40 15 50 ed 3d
       -0.3678882 1.1319642 3.0654178 0.1158754
000050 c6 ac 0f bf 3e c1 b5 c0 3e 06 d6 bf 4b 15 42 3f
       -0.56123006 -5.679839 -1.6720655 0.7581374
000060 99 21 37 3f df 96 b2 be 05 64 7b c0 24 9f 56 3f
       0.7153564 -0.3488073 -3.9279797 0.8383658
000070 ba ec ce be a4 70 94 3f cf c4 c8 bf 16 40 9e c0
       -0.40414983 1.1596875 -1.5685061 -4.945323
000080 b8 d8 ef 3f bd 55 06 c0 a8 64 28 40 a1 ea dd bf
       1.8738012 -2.098983 2.6311436 -1.7337228
000090 3e f2 06 3f b6 2f f9 3f 4c 3c 2b c0 7f f2 ad bf
       0.5271338 1.9467685 -2.6755552 -1.3589629
0000a0 79 13 4e 40 04 df 16 c0 c6 3b 20 40 48 e8 01 c0
       3.2199385 -2.3573618 2.5036483 -2.0298023
0000b0 44 73 cf bf 8b 75 0d c0 29 48 b6 3f 67 d4 b6 be
       -1.6207051 -2.2102993 1.4240772 -0.35708925
0000c0 46 a6 cc 3f 2e c4 90 bd 2b 31 82 3f 08 e2 2b c0
       1.5988243 -0.07068668 1.0171255 -2.6856709
0000d0 b9 17 f4 3e 10 87 26 40 14 9e b7 3f db 60 aa c0
       0.4767435 2.6019936 1.4345117 -5.324323
0000e0 37 0c 12 3e 2f c6 22 c0 7f f5 bf bf e1 6e 09 3e
       0.14262472 -2.5433462 -1.4996794 0.13421203
0000f0 31 4b 1d 40 3f 36 68 c0 d2 01 06 c0 6a 86 22 c0
       2.4577143 -3.628311 -2.093861 -2.539454
000100 29 d4 52 c0 42 ab e7 bf f8 82 08 bf ca e5 47 40
       -3.2941992 -1.8099139 -0.5332484 3.1234002
000110 74 47 7c bf a3 67 fd 3f dd a8 35 be b1 fd cf bf
       -0.9854653 1.9797252 -0.17740197 -1.6249295
000120 4f d9 3d bf b8 4c 6f 40 88 06 92 bf 6a 7b 55 3f
       -0.7415971 3.7390575 -1.1408243 0.8339144
000130 2c d0 64 c0 f3 d4 54 c0 82 82 89 40 05 15 6b be
       -3.5752058 -3.3254974 4.297181 -0.22957237
000140 d5 3a d5 3f b6 ab 9a 3e 0e e0 eb be f6 d9 9a 3f
       1.6658579 0.3020913 -0.46069378 1.2097766
000150 98 ee 7a c0 38 b4 37 c0
       -3.9208126 -2.8703747

model.1.running_var f4 [86]
000000 86 f8 1c 3d a6 62 00 3d 26 f2 44 3d 66 1e 17 3d
       0.038322948 0.03134408 0.048082493 0.036894225
000010 0f d3 a9 3d 50 19 93 3d a2 65 38 3d 8b 04 45 3d
       0.08292209 0.07182562 0.0450188 0.048100036
000020 12 b3 14 3d 48 4a 16 3d 25 07 2c 3d f4 4d 4b 3d
       0.036303587 0.036691934 0.041999 0.04963489
000030 4d 0b 95 3d 61 a0 16 3d 30 48 4b 3d 73 b5 e3 3c
       0.07277546 0.036774043 0.04962939 0.027796483
000040 53 5a 09 3d dd b3 09 3d 3d 6b 84 3d 96 78 1b 3d
       0.033533406 0.033618797 0.064657666 0.037956797
000050 d9 91 54 3d c5 1c 90 3d bb f7 33 3d 54 9c 0e 3d
       0.051896904 0.07036737 0.043937426 0.034817055
000060 75 5b 52 3d eb 30 f9 3c 60 31 b1 3c c5 32 6a 3d
       0.05135675 0.030418834 0.02162999 0.057177324
000070 ba 73 86 3c 00 e2 1c 3d 7e 13 a9 3c 0f ad 2f 3d
       0.016412605 0.038301468 0.020639177 0.04288965
000080 18 b0 0d 3d 69 19 55 3d 00 4f 1c 3d e6 b2 60 3d
       0.034591764 0.052026186 0.038161278 0.05485811
000090 64 c8 16 3d b1 57 3c 3d bc a8 71 3d 0b 12 5b 3d
       0.0368122 0.045982067 0.05899881 0.053484004
0000a0 95 d1 b0 3d 2e f1 3d 3d 90 db 31 3d 96 c2 d6 3d
       0.086337246 0.046372585 0.04342228 0.10486333
0000b0 1c 13 41 3d 69 98 24 3d 40 75 88 3d c3 b1 2c 3d
       0.047137365 0.040184412 0.06662989 0.042161714
0000c0 ee 6a 80 3d 02 8c 34 3d e8 9a 3e 3d ac 4f 41 3d
       0.06270395 0.044078834 0.04653445 0.04719512
0000d0 54 bb 72 3d ba 13 56 3d 9a 1d b0 3c 80 cf 1d 3e
       0.05926068 0.052264906 0.02149849 0.15411186
0000e0 be f2 61 3d 53 f0 2f 3d 02 b8 27 3d bb 26 28 3d
       0.055163138 0.0429538 0.040946968 0.04105256
0000f0 b0 7c fe 3d 5d b3 80 3d c6 49 54 3d 0b 94 71 3d
       0.12426126 0.06284211 0.05182817 0.058979075
000100 4d 0c 16 3e 7c cb cb 3c ba c6 17 3d 8a 63 09 3d
       0.1465313 0.024877302 0.037054755 0.033542193
000110 60 4f ec 3c 41 6f 39 3d d7 b5 37 3d b2 ee 0d 3d
       0.028846443 0.045272116 0.04485115 0.034651466
000120 5a 50 db 3d 7a 9a 3b 3d f2 0b 65 3d 44 2e 89 3d
       0.10708685 0.045801617 0.055919595 0.066982776
000130 fb 48 83 3d 02 ef 0e 3e d0 cf cb 3c 59 18 9d 3c
       0.06410404 0.13958362 0.024879366 0.019176649
000140 8e ef 0e 3d 44 39 76 3d e8 38 fe 3c 95 89 06 3d
       0.034896426 0.060113207 0.031032994 0.032846052
000150 a7 2a 37 3d c5 02 f8 3c
       0.04471841 0.030274758

model.4.weight f4 [41, 86]
000000 4b 92 6e be 28 d5 a2 3d 4c 96 55 be f2 91 93 3e
       -0.23297994 0.079508126 -0.20858115 0.28822285
000010 2c 87 9c bc 67 93 24 be 19 0c 15 3c 99 3c f8 3c
       -0.019107424 -0.16071855 0.009097123 0.030302333
000020 23 5c be bf 45 1d ac 3e 44 66 cb 3d 9b 93 61 3e
       -1.4871868 0.3361608 0.09931615 0.22028963
000030 06 a7 20 be 27 06 aa be d7 47 5a be 59 66 5c be
       -0.15688714 -0.3320782 -0.21316467 -0.21523418
000040 e7 c8 95 bd d0 e8 99 3d d0 09 3f be 41 06 52 3e
       -0.0731371 0.075151086 -0.18656087 0.20510198
000050 e7 56 07 3e 58 58 84 be d3 5d 78 3a c4 3d 1f bd
       0.13216744 -0.2584865 0.000947443 -0.038877264
000060 c5 ae 88 3e 85 30 9e 3c af 5e c1 3e c0 b1 66 3e
       0.2669584 0.019310245 0.3776755 0.22528744
000070 4d d2 f6 3d fb cc 3e 3e e3 a0 0c bd c3 b5 9c bd
       0.120518304 0.18632881 -0.03433312 -0.07651856
000080 1b 20 6d 3d 48 2f 58 3e 7a 17 0b 3e d6 2c 5e be
       0.057891946 0.21111786 0.13583174 -0.21696791
000090 68 28 f8 bd 2a f5 12 bd fb 0f c1 bd 0a 65 12 3c
       -0.12117082 -0.035878338 -0.09426876 0.008935222
0000a0 e8 32 d2 bc 18 35 14 bf 12 08 8d be d3 7e f1 3d
       -0.02565904 -0.57893515 -0.2754522 0.11791768
0000b0 70 6b 15 bf 60 c8 bc 3d bb 77 09 3e 09 dc 7e bd
       -0.5836706 0.09217906 0.1342458 -0.06222156
0000c0 fb 0e 0c be 84 e9 27 3e aa 74 ce 3d bb cb 83 bf
       -0.1367759 0.16397673 0.10080846 -1.0296549
0000d0 ef ce 2e 3e 03 91 12 bd 58 39 c9 3d 2c b1 1d 3c
       0.17071126 -0.035782825 0.098253906 0.009624761
0000e0 26 2f 2f bf 0a 70 06 3e d4 10 da 3d d8 11 41 bf
       -0.6843132 0.13128677 0.10647741 -0.7541785
0000f0 26 fb 38 be a9 67 05 3d 99 3f 35 3d e9 a1 ea 3e
       -0.18064556 0.03256956 0.044250105 0.45826653
000100 40 fb d9 bd c3 20 15 3d 9a a7 5c 3d 04 44 8b bf
       -0.10643625 0.036408197 0.053870775 -1.0880132
000110 99 17 cf 3d 2b ac d9 3d 83 bb d7 3b 5f a9 65 be
       0.10111923 0.106285416 0.0065836324 -0.22427891
000120 00 35 2f bd 2d 2f 70 3e 7a 0f 01 3e c0 e7 8d be
       -0.042775154 0.23455496 0.1260356 -0.27715874
000130 3b 1f b8 3c 91 2d 83 be cb bc f1 3d e1 d5 51 3d
       0.02247583 -0.25620702 0.118035875 0.05122936
000140 ae 64 0c be 35 4d 60 3d c4 64 42 be 6d a8 15 bd
       -0.13710281 0.05476113 -0.18983752 -0.036537576
000150 52 dc 19 3e 06 a7 33 3e c6 49 45 bf b9 56 dd 3d
       0.15025452 0.17544183 -0.77065694 0.10807557
000160 1f 8d 77 bd 19 d3 6e 3d be 9f 15 bc 06 d1 14 3f
       -0.060437318 0.058306787 -0.009132324 0.58131444
000170 c2 ff 0d 3e cc cd db 3d 01 dd 48 be c4 9e e9 bd
       0.13867095 0.10732612 -0.19615556 -0.11407235
000180 77 e0 2e be 02 fe 10 be 60 8d bb bd 61 9e f9 bd
       -0.17077814 -0.14159396 -0.091578245 -0.121884115
000190 7a 04 2a 3e 55 04 67 3e 67 b3 fd be 3e f3 36 be
       0.1660327 0.22560246 -0.49550936 -0.17866227
0001a0 7c ee 02 3e 2c 4e 55 3c 97 df f6 3c 9b 8f c2 bd
       0.12786287 0.013019126 0.030135913 -0.09500047
0001b0 a4 47 0f 3e 36 07 bd 3c 69 92 69 3a 1b 1d cd be
       0.13992172 0.023074728 0.00089100614 -0.40061268
0001c0 84 25 e7 3d 22 1c ec 3e 55 f9 f3 3d 76 77 3a 3e
       0.112864524 0.46115214 0.11912791 0.18209633
0001d0 23 8c 85 be 81 e5 a5 bf ff cc 39 3d 8a 7e c0 be
       -0.26083478 -1.2960664 0.045361515 -0.37596542
0001e0 d0 03 2a 3f 31 5e a3 3e ea 8f a3 3d d4 d5 11 3e
       0.6641207 0.319078 0.07986434 0.14241725
0001f0 69 6e c7 3d 99 20 05 3b 45 52 d2 bc f6 f5 7b 3e
       0.09737856 0.002031362 -0.025673995 0.24605545
000200 94 01 b5 bc 70 f5 23 bd 67 33 55 3e 68 85 65 be
       -0.02209548 -0.04002899 0.2082039 -0.22414172
000210 e5 5c 10 3e f6 8c 9d be 1b ae 81 3e 93 e7 f3 3e
       0.14097936 -0.30771607 0.25328144 0.47637615
000220 56 b6 d5 bd dc 97 09 be 3f 8b 86 bd 3b 43 63 3d
       -0.104351684 -0.13436836 -0.06569528 0.055484038
000230 1f cc 6e 3d 95 ec b3 3e 16 be c6 bd 87 38 09 3e
       0.058300134 0.35141435 -0.09704225 0.1340047
000240 81 6a 9c be 9e 1d 88 3e f1 61 fc 3e 57 9d 73 3e
       -0.30550006 0.26585096 0.49293473 0.23790489
000250 d3 c2 ec 3d 77 2f 53 3d ba b3 b1 3c e2 41 66 be
       0.11560597 0.051558938 0.021692146 -0.2248607
000260 70 3b 25 3e 02 15 87 3e 9d 8b 06 be 35 23 3b bd
       0.16135955 0.26383215 -0.13139196 -0.045687873
000270 fe 46 ca 3e 27 9a fa be 4c 98 3e be ff 70 ea bc
       0.39507288 -0.48945734 -0.18612784 -0.028618334
000280 9d ef 40 be d8 c5 71 bd 1d 2f d2 bc 65 e5 07 be
       -0.18841405 -0.05902657 -0.025657231 -0.13271101
000290 9d b4 77 bd 72 b7 59 3e c9 38 b1 3d 32 0f 5f 3e
       -0.06047498 0.21261385 0.08653409 0.2178314
0002a0 91 08 8b be 57 74 0b bf 8b d0 95 3c 89 04 0f 3e
       -0.27154973 -0.54474396 0.018287918 0.13966574
0002b0 13 f0 aa 3e 62 ae 2b bf 03 8b 85 bc 69 d8 57 bd
       0.33386287 -0.6706296 -0.016301638 -0.05269662
0002c0 13 18 0a 3e 1d d7 c8 be c9 3a f4 3d 5a d2 bb be
       0.13485746 -0.39226618 0.11925275 -0.36683923
0002d0 3d e3 0f 3f b0 d7 31 3d 38 3d 3c be a9 f6 02 bf
       0.56206113 0.043418586 -0.18382728 -0.51157624
0002e0 2b 6d d9 3c 34 cd fe 3e 3a a8 1b 3d 3b 90 4f be
       0.026541313 0.49765933 0.03800223 -0.20269863
0002f0 b1 64 31 3e 60 51 c2 3d fb 43 b7 be ba db 05 3e
       0.17323567 0.09488177 -0.35794052 0.130721
000300 93 07 37 3e 5b a9 42 3e 60 17 1e 3c 05 9d ac 3d
       0.17873983 0.19009916 0.009649128 0.084283866
000310 66 ca 2a 3e 4d 21 9f 3e 28 11 70 bd 1a 79 27 be
       0.16678771 0.31080094 -0.05861011 -0.1635479
000320 2d 20 fa bd e3 d1 89 3e e1 f4 92 3e 9d 9e c8 3c
       -0.12213168 0.26917943 0.28702453 0.024489695
000330 30 3b 01 be 10 7b a8 3e 2a a4 b3 bd d0 15 ef 3d
       -0.12620234 0.3290639 -0.08771546 0.11674082
000340 3f 26 04 3e a2 f7 99 be 90 8d 29 3e 6f 0b 5c be
       0.12905215 -0.3007174 0.16557908 -0.21488737
000350 ea 37 0b be 53 aa 79 be 17 9e d2 3d 7e 1a 08 3f
       -0.13595548 -0.2438138 0.102840595 0.53165424
000360 2d 34 5d be 58 ed 02 3e 85 c6 e1 3e 63 a1 40 3e
       -0.21601935 0.12785852 0.4409677 0.18811564
000370 ff 0a 31 3c 55 ad 32 bd 79 79 1f 3b a4 bb 47 38
       0.010805844 -0.043622334 0.0024333878 4.762005e-05
000380 c4 43 93 be 09 9b ac 3d 51 14 51 3e b9 8c 9a 3d
       -0.2876264 0.08428008 0.20417906 0.07546372
000390 cd 1d 8f bd 29 fa df bd 1a 7b c7 3e f9 71 e7 3d
       -0.06988106 -0.10936386 0.38961107 0.113010354
0003a0 ba c5 2b 3e 39 bf 59 3e 21 aa b3 bd 3b 18 fd 3e
       0.16774645 0.21264352 -0.08772684 0.4943255
0003b0 e0 da 0b 3e 6e 1c 0a be 5e ca f5 3d d4 1d a6 bd
       0.13657713 -0.13487408 0.12001489 -0.08111158
0003c0 18 4d 50 bd b6 b7 ce be 9f ce 02 3e aa 35 5c 3e
       -0.050854772 -0.40374535 0.12774132 0.21504846
0003d0 88 40 0d 3e 43 70 14 3f 42 2c 12 bf 99 88 df 3e
       0.13794148 0.579838 -0.5709878 0.43658903
0003e0 91 9f 9c bd 9e 9c 74 3e 4b 66 1d 3c 45 75 55 3e
       -0.076476224 0.2388787 0.009606908 0.20845516
0003f0 3c 1d 95 3e 05 bd 81 3e b2 95 69 3e 8c 0b 43 3d
       0.29123867 0.25339523 0.2281101 0.047618434

model.4.bias f4 [41]
000000 ae ce 1c 3e 45 96 19 3c ba ce 91 3d df 14 28 3d
       0.15313217 0.009374206 0.07119508 0.04103553
000010 c2 f6 4b 3d e7 40 ae bd 2d 4b 88 3d a9 ed 15 3d
       0.049795873 -0.08508473 0.06654964 0.036603604
000020 94 8b 0e be 43 6b b8 3d 4e 5d d7 3c f5 7c 03 bd
       -0.13920432 0.090048335 0.026289608 -0.03210159
000030 5f db d3 bd cd 7f 09 3d e7 1e e9 3c fe d9 98 3c
       -0.10344576 0.033569146 0.028457118 0.018658634
000040 1a 14 70 bd 54 a0 a2 bd a1 14 94 3c 08 bf a0 bd
       -0.05861292 -0.079407364 0.018076243 -0.07848936
000050 6d 8b f3 bc 7e f3 60 bc a5 9f 14 bd a0 21 41 bd
       -0.02972957 -0.013729928 -0.03628506 -0.047151208
000060 2e e8 a4 bc d7 2c cc 3d 8b 00 72 bd ee f3 90 3d
       -0.020130243 0.0996949 -0.05908255 0.07077776
000070 2a 14 69 bd 4a de cc 39 6d 7f 97 3d d1 23 ae bd
       -0.056903996 0.0003907553 0.073973514 -0.08502925
000080 fa df be bd 06 9c de bd 7e db 1d be 5f a3 f0 3d
       -0.09320064 -0.10869603 -0.15415761 0.117499106
000090 c0 a1 52 bd 01 c4 b6 bc 25 02 3d 3d 4e 19 e6 bc
       -0.051423788 -0.022310259 0.046144623 -0.028088238
0000a0 1e e2 ac bd
       -0.08441566

model.5.weight f4 [41]
000000 73 b2 7a 3f 95 eb 6d 3f ab 25 65 3f b8 4a 70 3f
       0.9792854 0.92937595 0.895106 0.9386401
000010 80 33 46 3f d6 f3 78 3f 8a 01 74 3f b1 6f 3a 3f
       0.7742233 0.97247064 0.9531485 0.7282668
000020 b8 84 82 3f f0 21 8a 3f 4a 35 5b 3f 5f cd 4c 3f
       1.0196753 1.0791607 0.8562819 0.8000087
000030 6e 17 65 3f aa 1f 46 3f 48 ce 8c 3f d5 7c 81 3f
       0.89488876 0.77392066 1.1000452 1.0116221
000040 bd 84 5a 3f d7 48 6f 3f 37 b2 63 3f 77 31 69 3f
       0.8535879 0.9347052 0.8894381 0.910911
000050 68 e6 74 3f c4 9d 55 3f df 3e 3b 3f 68 54 62 3f
       0.9566407 0.83443856 0.7314281 0.88410044
000060 fd f9 58 3f fa 1e 72 3f c7 8e 52 3f 52 12 3f 3f
       0.8475645 0.94578516 0.8224911 0.7463733
000070 37 c8 88 3f ca 3a 72 3f 25 31 90 3f f7 4c 7f 3f
       1.0686101 0.94620955 1.1264998 0.99726814
000080 2a 2d 7c 3f 58 f0 75 3f b4 69 88 3f cb ba 5a 3f
       0.98506415 0.9606986 1.0657258 0.85441273
000090 3a c8 74 3f f4 62 70 3f 74 88 75 3f 4e 12 5b 3f
       0.9561802 0.9390099 0.95911336 0.85574806
0000a0 67 c3 64 3f
       0.8936066

model.5.bias f4 [41]
000000 ad e6 f4 be f0 11 24 bf 77 c6 0a bf 08 a2 08 bf
       -0.47832242 -0.6408987 -0.54209083 -0.5337224
000010 a7 57 e6 be 2d 04 f9 be d0 dd 17 bf 80 2b a9 be
       -0.44988748 -0.48635998 -0.59322834 -0.33041
000020 97 82 ad be 2b b8 0f bf de 95 ec be 3f e1 13 bf
       -0.33888695 -0.56140393 -0.4620809 -0.57765573
000030 b2 76 c4 be 45 ec c4 be 9c d6 0c bf e5 fc 02 bf
       -0.38371807 -0.3846151 -0.5501497 -0.51167136
000040 1c b2 ef be 78 a9 ba be 13 09 09 bf 62 e1 cb be
       -0.46815574 -0.3645742 -0.5352947 -0.3982039
000050 f1 f5 00 bf 52 74 dc be 47 f0 ef be 3d 3c 1a bf
       -0.50375277 -0.43057495 -0.46863005 -0.60248166
000060 11 45 1c bf 2f 98 24 bf 08 80 86 be 76 5d e7 bd
       -0.61042887 -0.64294714 -0.26269555 -0.11297123
000070 f1 ae d5 be e8 9b e3 be 45 2d 15 bf 30 bb 1b bf
       -0.41735032 -0.44454885 -0.582722 -0.608325
000080 ce d9 fb be 0c 99 03 bf fd 2c e4 be e5 00 c0 be
       -0.4918961 -0.51405406 -0.44565573 -0.37500682
000090 70 5a 04 bf e8 96 d2 be 18 e4 d9 be d4 39 c3 be
       -0.51700497 -0.41130757 -0.42556834 -0.38130057
0000a0 66 51 a8 be
       -0.32874602

model.5.running_mean f4 [41]
000000 1d 9d 17 bf e5 1e 0f 3e ad 2e 23 3f 2e 7c 2a 3f
       -0.5922411 0.13976629 0.63743097 0.66595733
000010 92 16 cc bc bb 97 b4 bf 92 08 e5 be 86 0c a8 3e
       -0.024913106 -1.4108804 -0.447331 0.32822055
000020 6d 02 fe bb 2d 0b 9d bf c9 ae 81 bf bf b1 a7 be
       -0.007751754 -1.2269036 -1.0131465 -0.32752797
000030 1b 3a 0c bf 4a 6d eb 3e f4 99 90 bf 56 2b d9 be
       -0.5477616 0.45981818 -1.1296983 -0.42415875
000040 a8 15 0f bf b0 f8 b9 bd a0 23 cb be 70 b6 89 bf
       -0.5589242 -0.090806365 -0.39675617 -1.07588
000050 bc ef 9e bf f8 f9 01 bf 66 7c 88 bc 99 c3 62 bf
       -1.2416911 -0.5077205 -0.01666088 -0.8857971
000060 d1 45 89 3f a8 28 f4 be eb bc 0d bf e9 f5 12 3e
       1.0724431 -0.47687268 -0.5536639 0.1435162
000070 77 60 3f bf b6 26 d1 be 62 36 81 bf 6f 42 6e bf
       -0.7475657 -0.40849847 -1.0094721 -0.9307012
000080 e9 46 8a bf ae 64 ac bf ee c9 b2 bf 3e a8 a2 be
       -1.080289 -1.3468225 -1.3967874 -0.31768984
000090 75 17 dc bf 76 e9 1a bf 9c 66 06 bf ce 1a e9 3d
       -1.7194659 -0.60512483 -0.5250032 0.11382066
0000a0 c0 1f 6c bf
       -0.92235947

model.5.running_var f4 [41]
000000 8d be 0f 40 24 6f bd 3f cb d9 c7 3f 48 59 e1 3f
       2.2460053 1.4799542 1.561334 1.7605371
000010 00 0e 85 3f b5 fb 37 40 e5 fc c4 3f ad e2 81 3f
       1.0394897 2.874738 1.5389677 1.0147301
000020 2c 49 c3 3f be 07 18 40 5d a1 d1 3f 66 71 8e 3f
       1.5256705 2.3754725 1.6377369 1.1128356
000030 62 2a bc 3f 28 49 c9 3f 5d d7 86 40 c8 d9 07 40
       1.4700434 1.572545 4.2137895 2.1226673
000040 05 f4 d7 3f 10 5f f6 3f 8b fe ad 3f 54 9f 0f 40
       1.6871344 1.9247761 1.3593305 2.2440996
000050 6b ee 1e 40 6d 12 bb 3f fe a8 3f 3f b6 69 ab 3f
       2.4833019 1.4614998 0.74867237 1.3391635
000060 d7 d7 8a 3f 48 ef 97 3f 29 24 d9 3f 6b f3 cf 3f
       1.0847119 1.1869898 1.696416 1.624616
000070 c8 12 3d 40 12 e7 ee 3f ca ae 2a 40 0f d6 08 40
       2.9542713 1.8664267 2.6669183 2.138065
000080 c5 51 ed 3f c5 2a 05 40 a2 05 47 40 2e 19 e5 3f
       1.8540579 2.0807354 3.1097188 1.7898309
000090 cd 76 e4 3f 8a 8f ef 3f ab 3c 1d 40 cf 2e ef 3f
       1.7848755 1.871568 2.4568279 1.868616
0000a0 e3 b4 e3 3f
       1.7789577

model.8.weight f4 [64, 41]
000000 19 83 73 3e 9e 37 db be 2e 1f 2f 3a a8 4b 1e 3e
       0.23780479 -0.4281587 0.00066803664 0.15458548
000010 ae 13 d9 3d 34 a3 1e bd 9a 44 8d 3d ca c9 6c bf
       0.10599457 -0.03872986 0.0689785 -0.92495406
000020 86 41 9f be c4 07 39 bf b5 3b 70 bd e4 d6 fc be
       -0.31104678 -0.72277474 -0.05865069 -0.493827
000030 6e 9b 26 3c 61 1a 19 bf 1d 15 ed 3e 97 f8 8d be
       0.010168893 -0.59805876 0.4630517 -0.27728721
000040 d3 ce 7e bc 4a 3c 03 3e 6b 0b 89 3e 87 1c 96 3e
       -0.01555224 0.12815967 0.26766524 0.2931864
000050 6e 99 5c 3e b3 2a 5c 3c 4e 2c ba 3a 82 32 9d be
       0.21542904 0.013437915 0.0014203878 -0.30702597
000060 c3 8b c9 3c f7 c3 95 bd 9d 2e 17 3e 50 39 4e 3d
       0.024602776 -0.07312768 0.14763875 0.050347626
000070 5a 94 d3 bd 23 41 37 3e ab 61 89 3e d5 8c b8 bb
       -0.1033103 0.17895941 0.26832327 -0.005632023
000080 58 4c d8 3b da ab 60 bf 22 12 ca 3d 26 1f 06 bf
       0.0066008978 -0.87762225 0.0986674 -0.5239128
000090 2c b5 d8 bd 37 df 97 3d 7a 42 b0 3d 49 c1 44 be
       -0.10581431 0.07415622 0.086064294 -0.19214357
0000a0 90 4d 41 3c c8 ca 99 be 12 ad ee bc 06 b7 7b 3e
       0.0117982775 -0.30037522 -0.02913526 0.24581537
0000b0 83 29 5f bb cb 40 3e 3e ff b2 1f bd db ae 84 3d
       -0.0034051843 0.18579404 -0.038989063 0.064786635
0000c0 62 db 5f be e5 ac db bd d3 7f 7d be 3f 74 cd be
       -0.21861032 -0.107263364 -0.24755792 -0.4012775
0000d0 42 47 15 3d 43 92 27 bd 39 7c 8f be 47 0a a3 3e
       0.03644491 -0.04091097 -0.28024462 0.31843778
0000e0 f0 11 86 3d 01 fa 7d bf af eb b7 be 27 f9 3a bd
       0.0654639 -0.992096 -0.35922 -0.045647766
0000f0 34 4f 82 3e bb 70 a5 3e cc 7c b3 be 62 1b 86 bd
       0.25451052 0.3231257 -0.3505615 -0.065481916
000100 ab a9 a6 3d c0 cc 13 3e 53 0a 9f be 3f b6 22 be
       0.0813783 0.14433575 -0.31062564 -0.15889834
000110 75 f4 22 3e c7 49 c1 3d 3a b0 ed bd 13 3d b3 3d
       0.15913565 0.094379 -0.11605878 0.08751883
000120 1b 10 24 bf 73 52 09 be 01 ab 47 be 77 b0 19 be
       -0.64087075 -0.13410358 -0.19498827 -0.15008722
000130 1b 19 95 be 4c 83 12 3e 9a 00 0f be 7b fc 28 3e
       -0.29120716 0.14307898 -0.13965073 0.16502564
000140 f4 c3 64 bf e3 3d a1 bd 8a bf 60 3d 8f 4c 2d bf
       -0.893615 -0.07873132 0.054870166 -0.67694944
000150 70 7f da 3b 14 3a 66 bf d3 45 32 3e 16 73 fa 3d
       0.0066680238 -0.8993237 0.17409448 0.12228982
000160 f0 9a 5b 3e d5 12 b2 be 71 66 d9 bd 54 da a2 be
       0.21445823 -0.34779993 -0.10615242 -0.31807196
000170 48 11 84 bd e0 d5 02 bf c8 4d 57 be ea ee d7 bd
       -0.06448609 -0.511076 -0.21025765 -0.10543616
000180 a5 f3 83 3e d9 16 72 3e f0 5a 68 3d f8 10 a3 3e
       0.25771824 0.23641528 0.05672735 0.31848884
000190 d8 bb 02 3e 48 48 ad bd d7 4e 4c 3d 36 0d 89 be
       0.12766969 -0.08461052 0.049879875 -0.26767892
0001a0 7b d1 80 3d 6b 7b ab be 45 69 05 3e 4c a8 83 3e
       0.06289955 -0.33492598 0.13028438 0.25714338
0001b0 a8 48 7d 3c 11 05 fb be 63 f8 8c 3e ef b7 ef bd
       0.015459217 -0.49027303 0.27533254 -0.117050044
0001c0 42 dc 40 be 8d 43 cd 3e 1c 4d 75 3d b6 f5 6f 3e
       -0.18834022 0.400906 0.05988799 0.23433575
0001d0 db 7d e6 3d cd 1d 6e be 81 76 9f 3d 66 5c 10 3e
       0.11254474 -0.23253556 0.07786275 0.14097747
0001e0 be 14 5d 38 dc cb 00 be 47 c5 63 bf 1d f3 09 3c
       5.2709824e-05 -0.12577766 -0.88972896 0.008419779
0001f0 71 d2 01 bf 40 9e 01 3e ca 55 b1 be 2a 9e 0f ba
       -0.50711733 0.12658024 -0.34635764 -0.00054785854
000200 82 e0 d8 3d 44 8f 16 3d 5e 13 2c bd d4 5c ca 3c
       0.105896965 0.036757722 -0.042010657 0.024702467
000210 58 0b 16 bc 91 ff ff be e9 08 66 3e be eb 5f bd
       -0.009157978 -0.4999967 0.22464336 -0.05466818
000220 8a a6 0b bf 61 e1 2a 3e 57 bb 08 bd 13 b0 38 3d
       -0.54550993 0.16687538 -0.033381786 0.045089792
000230 63 5e 25 3d f5 c0 20 3e db c9 94 bd 1b 6d 1e bf
       0.040373217 0.15698607 -0.072650634 -0.6188523
000240 4b 82 16 be 57 85 f0 3e cd 21 a6 3e 8a 4a fb be
       -0.1469814 0.4697673 0.32447663 -0.49080306
000250 47 69 c5 be b2 1d 8f be 59 ef 3c 3d ec d1 bf 3d
       -0.38556883 -0.27952343 0.046126697 0.09366211
000260 3b 68 a5 be 6b 7d 02 be d7 f5 e5 bd 88 c5 98 be
       -0.32306084 -0.12743156 -0.11228531 -0.29838204
000270 9c 8c 14 3f de 18 85 3e cc 35 c6 bc fd d1 a1 be
       0.5802705 0.25995535 -0.024195574 -0.3160552
000280 d5 7d 1f bd 01 54 2f bd d5 87 0c be 89 fb 0e be
       -0.038938362 -0.04280472 -0.13723691 -0.1396314
000290 81 42 93 3e 5c 38 c1 3e b0 88 2b 3e e2 5e 5f 3b
       0.28761676 0.3773831 0.16751361 0.0034083654
0002a0 a3 11 ac be e8 70 f7 be 27 3d 92 be cf 98 b5 bc
       -0.33607206 -0.48328328 -0.2856228 -0.022167591
0002b0 6f 22 59 3e 8a 11 6b 3e cc 6f 73 3d 94 35 39 bd
       0.21204542 0.2295591 0.05943279 -0.04521711
0002c0 58 91 ec 3d b3 61 13 bf 17 14 c6 3d 66 6d b1 bd
       0.115511596 -0.5757095 0.096718006 -0.08663444
0002d0 ac 14 f2 bb 54 46 65 be 16 e0 e8 be e2 cc d2 3d
       -0.007387718 -0.2239011 -0.45483464 0.102929845
0002e0 99 89 a4 be 03 df a8 3b 29 c0 08 3b 83 ce 4a be
       -0.3213623 0.005153538 0.002086649 -0.1980534
0002f0 cb d1 1b be ed 98 8a 3d c2 be 3e bd b6 b1 a8 3c
       -0.15216748 0.067674495 -0.04656864 0.020592552
000300 76 79 1c 3e c6 f3 c6 bc da 30 b0 bf 3f 04 2c 3e
       0.15280709 -0.024286162 -1.3764908 0.16798495
000310 ab b6 9e 3e 99 ad fa be 9c 18 cc be c4 69 54 bd
       0.3099874 -0.4896057 -0.39862525 -0.05185868
000320 9d 17 d7 3d 00 61 4b 3e 4a ed 51 3d a8 6f 83 3d
       0.10502551 0.19861221 0.051251687 0.06417781
000330 be e6 9a 3e be 4f 00 3f 86 df 22 3e 8f f1 62 be
       0.30254167 0.50121677 0.1590558 -0.2216246
000340 d0 0e 9f 3d 0d 58 02 3e e0 fb 45 3e e3 10 4b be
       0.07766497 0.12728901 0.19334364 -0.1983066
000350 ae 1a 93 be bf 2d b8 be 16 88 1e 3e 11 fe aa bd
       -0.28731292 -0.35972401 0.154816 -0.083492406
000360 11 b9 16 be 0f c8 d0 bc 2d 0b ae be 71 83 87 3e
       -0.14719035 -0.02548602 -0.339929 0.2646747
000370 68 bf e5 3c d9 38 41 bd 51 a9 04 3e 55 34 5a 3e
       0.028045371 -0.047173355 0.12955214 0.21309026
000380 83 83 1b be 2c ea 28 bd ae 1f f3 be 1d cb b2 bd
       -0.15186886 -0.04123895 -0.47485107 -0.08730147
000390 8c 70 28 be 1e 78 8d be e2 b9 8d 3e 92 5f db 3d
       -0.16449183 -0.27630705 0.2768088 0.10711588
0003a0 77 a8 4e 3c 97 21 24 3d 5e b8 c6 3d 71 43 af 3e
       0.012613407 0.040071096 0.09703134 0.3423114
0003b0 61 b8 e1 3c 4a 17 b6 3e 90 e4 d9 be 4b 9a 2b bf
       0.027553739 0.35564643 -0.42557192 -0.6703231
0003c0 d4 0a 84 3e 9a c0 3c 3e f4 0d 3f bf 1f 7c a9 bd
       0.2578951 0.18432847 -0.74630666 -0.08275627
0003d0 12 60 19 bf 31 67 d9 bd d8 d9 2d be d6 f5 1b 3e
       -0.59912217 -0.10615385 -0.16977632 0.15230498
0003e0 9d 10 0d 3e ae f4 5a 3d 6b d3 ad 3d 10 e7 fd 3e
       0.13775869 0.053456 0.084875904 0.4959035
0003f0 68 74 51 bd f1 db 43 be ab 0e 41 be 03 1e 71 3d
       -0.051136404 -0.1912687 -0.18853252 0.058866512

model.8.bias f4 [64]
000000 1b ca aa 3d c4 1c 40 bd ec e5 34 3e 3c dd 8c 3d
       0.0833933 -0.046902433 0.17665833 0.068781346
000010 1f c9 09 3c 64 c8 19 3e 40 a6 e7 3d 61 75 c7 3c
       0.008409767 0.15017849 0.113110065 0.024347963
000020 a1 ea 8a 3d 2d 4a 8a 3c 5a 96 26 bd 0f ea 19 bd
       0.06783033 0.016881073 -0.04067073 -0.03757673
000030 05 2c ae bd e9 d0 81 3d 8f c0 42 3d f8 1a db 3a
       -0.0850449 0.063386746 0.04754692 0.0016716411
000040 00 96 d5 3d 64 b2 11 be c2 88 30 be ac 9c 38 bd
       0.10429001 -0.14228207 -0.17239669 -0.04507129
000050 83 d6 aa bd 20 d4 07 3e 8c c0 ae bc 34 5d bf 3b
       -0.08341696 0.13264513 -0.021332048 0.005839968
000060 f5 88 ef bc 4d d6 bc bc e7 e8 6c 3c c5 e6 3d bd
       -0.02924011 -0.023051405 0.014459825 -0.046362657
000070 d7 08 0c 3c 37 23 d5 bc 99 2b 60 3d 0f 2b 37 be
       0.008547029 -0.026017768 0.054729078 -0.1788752
000080 cc 6d 1f 3d a8 46 71 3b 16 4c 66 3d c8 ad 87 3c
       0.03892307 0.0036815796 0.056224905 0.016562358
000090 a7 d3 88 bd 30 de 4a 3e 77 48 d9 bb 46 21 00 bd
       -0.066809945 0.1981132 -0.006630953 -0.031281732
0000a0 a8 05 5f bd 1b cb d3 bb a1 3c 90 bd 5b 61 f2 3d
       -0.054448754 -0.006463421 -0.07042814 0.11834975
0000b0 1c 8c f6 bd f8 de 4b 3e 06 45 8f 3d 11 26 0a 3c
       -0.120384425 0.19909275 0.06995587 0.008431927
0000c0 c7 f3 cb bd 97 a8 5f 3d 82 1e 4a 3e a7 b2 81 bd
       -0.09958606 0.05460414 0.197382 -0.06332903
0000d0 2a db 31 3e 30 3d 1d bd 66 e9 4b 3d 9e 09 c0 bd
       0.1736876 -0.03838843 0.049783133 -0.09376834
0000e0 f0 1e 91 bc 91 d3 a1 bd ef cd 9a bb 16 aa 6b 3c
       -0.017714947 -0.07901681 -0.004724256 0.014383813
0000f0 d6 46 99 3d 2a 47 ea bc f7 e8 5d bd 4f a5 65 3e
       0.07484214 -0.028598387 -0.05417725 0.22426341

model.9.weight f4 [64]
000000 29 62 6e 3f 19 5f 72 3f e8 ac 82 3f a7 62 51 3f
       0.9311853 0.9467636 1.0209017 0.81791157
000010 24 76 57 3f e1 ff 64 3f 5f 0a 50 3f 0b 7f 81 3f
       0.84164643 0.8945294 0.81265825 1.0116895
000020 d7 78 30 3f 97 f2 62 3f 9e 89 7b 3f 75 21 63 3f
       0.68934387 0.8865141 0.9825686 0.88722926
000030 07 e6 81 3f 18 9c 62 3f 07 83 58 3f d9 09 4e 3f
       1.0148324 0.8851943 0.8457493 0.80483776
000040 5f 3c 7e 3f 4c fd 7d 3f 50 d5 60 3f ca 4e 67 3f
       0.9931087 0.99214625 0.8782549 0.903546
000050 35 d8 61 3f ba 1a 67 3f 42 48 61 3f ed bd 63 3f
       0.8822053 0.90275156 0.8800088 0.8896168
000060 e7 bf 85 3f 6c b7 41 3f 65 1a 6b 3f 70 19 70 3f
       1.0449189 0.75670505 0.9183715 0.93788815
000070 7d 41 57 3f 80 92 67 3f a8 2b 63 3f 63 49 62 3f
       0.840843 0.90457916 0.8873849 0.8839323
000080 4e 11 60 3f 3d d8 5e 3f a1 80 59 3f 02 67 3c 3f
       0.87526405 0.87048703 0.849619 0.7359468
000090 c3 28 6d 3f c4 42 67 3f f7 c8 4c 3f a7 bc 80 3f
       0.9264032 0.9033625 0.7999415 1.0057572
0000a0 13 1f 3a 3f c8 5a 8e 3f e9 33 84 3f 95 6b 56 3f
       0.72703665 1.1121454 1.0328342 0.8375791
0000b0 ab 37 76 3f eb ac 49 3f 74 06 71 3f 26 d9 71 3f
       0.9617869 0.78779477 0.9415047 0.9447197
0000c0 e1 72 65 3f d1 54 41 3f 67 dd 5f 3f a8 6c 7b 3f
       0.89628416 0.75520045 0.8744721 0.9821267
0000d0 5c 14 7a 3f 79 82 6d 3f 7a 2c 70 3f 25 8a 89 3f
       0.97687316 0.9277721 0.93817866 1.0745283
0000e0 35 90 61 3f a0 f8 69 3f 80 05 6b 3f 05 c8 70 3f
       0.8811067 0.91394997 0.9180527 0.94055206
0000f0 3b db 4b 3f 33 b5 4c 3f 33 6e 77 3f b8 e4 67 3f
       0.79631394 0.7996399 0.96652526 0.9058337

model.9.bias f4 [64]
000000 0d 39 e1 be 0b e3 8a be 7d b3 11 bf 14 e4 e1 be
       -0.4398884 -0.27126345 -0.569145 -0.44119322
000010 57 56 af be a6 d4 01 bf 68 d7 f1 be 7c 81 e5 be
       -0.3424556 -0.507151 -0.47234654 -0.4482535
000020 38 c5 b8 be 3b 16 d2 be 26 84 cc be ce a8 8e bf
       -0.36087966 -0.41032586 -0.3994457 -1.1145265
000030 06 7a 68 bf 44 ac fe be 6a 2d c9 be 7b 37 55 be
       -0.90811193 -0.49740803 -0.3929246 -0.20821945
000040 28 41 96 be a1 55 91 bf aa 03 fd be 39 24 e6 be
       -0.29346585 -1.1354257 -0.49416858 -0.4494951
000050 50 93 8c bd a7 13 d6 be c5 7d d7 be 70 d2 c1 be
       -0.06864035 -0.4181187 -0.42088142 -0.37855864
000060 7f ea e4 be 66 a1 e9 be d4 76 a1 be 23 8e 19 bf
       -0.44710156 -0.4563095 -0.3153597 -0.5998251
000070 e9 ac 91 be cc ef f2 be f4 a8 06 bf a9 d4 0e bf
       -0.28452232 -0.47448575 -0.5260155 -0.55793244
000080 16 55 01 bf db f7 95 be 6d 01 ce be 31 e2 3a bf
       -0.50520456 -0.2929066 -0.40235463 -0.7300139
000090 13 67 fc be 59 9f 17 bf 71 9c 83 be 27 86 a5 be
       -0.4929739 -0.5922752 -0.25705293 -0.32328913
0000a0 b0 2d e9 be 9a c1 ac be a1 6b fe be b5 4d c8 be
       -0.4554267 -0.33741456 -0.4969149 -0.39121786
0000b0 cc 8a db be 5b 40 e8 be 8e 50 07 bf 33 41 27 bf
       -0.4287933 -0.453616 -0.5285729 -0.6533386
0000c0 d5 9a f5 be 2f ce 1c bf 63 cf 2f bf 51 66 1d bf
       -0.4796969 -0.6125211 -0.6867582 -0.6148425
0000d0 fc 35 f0 be 9c 14 2e bf a7 81 11 bf 63 09 05 bf
       -0.46916187 -0.680002 -0.5683846 -0.5196745
0000e0 62 e5 b5 be 6c 52 f8 be 53 a7 04 bf f5 60 18 bf
       -0.35526568 -0.48500383 -0.51817816 -0.59522945
0000f0 82 a3 3b bf 12 4e c1 be 47 1b 13 bf d3 d2 ab be
       -0.7329637 -0.37754875 -0.57463497 -0.33559284

model.9.running_mean f4 [64]
000000 77 59 93 be ed a1 21 bf 09 76 50 be f4 2c a8 be
       -0.28779194 -0.63137704 -0.20357527 -0.32846797
000010 b0 89 6a be 28 b1 04 be 3c 0a f0 3e d5 7d 41 bf
       -0.22904086 -0.12958205 0.46882808 -0.7558263
000020 77 39 98 3b 89 48 38 3c cc 48 36 be 58 dd 2b 3f
       0.004645522 0.0112477625 -0.17801207 0.6713462
000030 60 8c e4 be 79 fc 75 be f8 31 bc be 23 b8 54 be
       -0.44638348 -0.24022092 -0.36756873 -0.20773368
000040 19 92 9d be b9 ef 96 be a5 3a 25 bf b8 44 1d bf
       -0.30775526 -0.2947977 -0.6454261 -0.6143298
000050 5a 91 ec be 80 95 f1 bd d1 8a 3d be 4a 08 dd bd
       -0.46204644 -0.11796093 -0.18509986 -0.10792597
000060 0e e0 08 bf 98 94 90 bd db 16 d4 be 14 90 89 be
       -0.5346688 -0.07059592 -0.41423687 -0.26867735
000070 db b4 9a be b7 8e 19 bf 15 6e 3b bf 6b e5 83 be
       -0.30216107 -0.5998339 -0.73214847 -0.2576097
000080 14 65 19 bf a3 4f 6c be f0 66 e8 be a7 35 de 3e
       -0.5991986 -0.23077254 -0.45391035 0.43400308
000090 d6 ae f6 be ce 6c 70 be 22 67 3c be 46 43 43 bf
       -0.48180264 -0.23479006 -0.18398717 -0.76274526
0000a0 f8 22 73 be 6b db 3d bf 32 45 29 bf 0a 26 0d be
       -0.23743808 -0.7416293 -0.6612121 -0.13784042
0000b0 b7 54 34 bf b6 f8 33 3e 47 5c 29 be 34 b7 c0 be
       -0.70441765 0.17575344 -0.16539107 -0.37639773
0000c0 f1 e1 07 bf 53 f0 9f 3e 61 4f 49 be 7a 2f c7 be
       -0.53079134 0.3123804 -0.19659187 -0.3890341
0000d0 28 a0 06 be e6 d4 1c bf 24 e4 28 bf f9 8b f8 be
       -0.13147032 -0.6126236 -0.65973115 -0.4854429
0000e0 d9 68 30 be d5 2a 30 bf 0b 61 0f bc d6 23 9f be
       -0.17227496 -0.68815356 -0.008751164 -0.31082028
0000f0 9f 80 54 3d 8a 6e a9 be c3 68 06 bf 1f ca 40 be
       0.051880475 -0.33092147 -0.52503604 -0.18827103

model.9.running_var f4 [64]
000000 20 e6 2e 3f f0 63 0f 3f a7 e9 24 3f 63 7d 89 3e
       0.6831989 0.5601187 0.64419025 0.26853475
000010 e1 8e b6 3e 11 5f c1 3e 20 56 2d 3e 5d d9 74 3f
       0.35655883 0.37767842 0.16927385 0.9564417
000020 d2 a1 97 3e 9c a9 9c 3e 05 c9 e0 3e 72 a1 e3 3e
       0.29615647 0.30598152 0.43903366 0.4445911
000030 84 cd d8 3e 12 57 f6 3e 18 30 e2 3e 9c 26 9a 3e
       0.42344296 0.48113304 0.44177318 0.30107582
000040 dd c7 f3 3e d2 27 a7 3e 64 17 ea 3e 70 6b bb 3e
       0.4761342 0.32647568 0.4572097 0.36605406
000050 eb 88 5f 3f 70 55 f9 3e f6 6a b7 3e 0c 28 ba 3e
       0.87318295 0.48697996 0.35823792 0.36358678
000060 16 19 4f 3f 5e 6f 88 3e 42 5e 02 3f a3 98 ea 3e
       0.80897653 0.26647466 0.50925076 0.45819578
000070 18 74 5c 3f 1b 80 92 3e 38 a8 88 3f 84 c5 83 3e
       0.86114645 0.28613362 1.0676336 0.2573663
000080 ad bd c3 3e 9e ce 0f 3f af 13 0c 3f 0f b6 b2 3e
       0.3823065 0.5617465 0.54717535 0.34904525
000090 af 1b 24 3f a4 fc 1d 3f d1 46 98 3e 04 ce 58 3f
       0.6410474 0.61713624 0.2974153 0.84689355
0000a0 2a be 9f 3e 60 fa 44 3f be 2a 44 3f de 0b ac 3e
       0.3119977 0.7694454 0.7662772 0.33602804
0000b0 5d 42 67 3f 94 ed ab 3e 37 de bd 3e 67 b9 f7 3e
       0.9033564 0.33579695 0.370836 0.48383638
0000c0 ab 96 17 3f 76 20 7a 3e 06 97 8e 3e 96 1f f7 3e
       0.59214276 0.24426445 0.27849597 0.48266286
0000d0 6c 21 cb 3e 53 1a 50 3f a8 14 58 3f ea 69 40 3f
       0.39673936 0.8129017 0.8440652 0.7516161
0000e0 13 c4 ee 3e 70 35 dd 3e 16 fd af 3e 95 f6 c5 3e
       0.46633968 0.43204832 0.34372777 0.3866469
0000f0 81 88 73 3e 48 7d b1 3e 6b d7 51 3f fc d8 29 3f
       0.23782541 0.34665895 0.81969327 0.66346717
