foundation_models/Ensemble_model2_DeepSurv_ANN_Event_1_20250804_122147.pt (torch, 84022 bytes, 25 tensors)

model.0.weight f4 [112, 11]
00000000: 8816 afbd 8da7 1abd 7a29 ae3e 04a2 47be
00000010: 5bfc 013f 72ae c93d 631d 40be f895 6dbe
00000020: 2296 493e 293b e4bd bf32 b1bd 56e1 6a3c
00000030: 3276 113e 41cb ab3c e413 20bd 539f 21bf
00000040: 53e3 80be 28bb 4fbe db38 9e3d 5fff 233f
00000050: c7f0 e43d c9cd 843e 06e2 dfbd 1c36 45be
00000060: b5f1 e73c 3dc4 aabc c24b eebe a989 323d
00000070: 0bf8 5fbe 7296 9c3d 0bca b63d 797f 533e
00000080: 7dc9 383c 9db2 98bc 068c 0ebe 6be8 83bd
00000090: 2a3d 333d 5935 f73e 6146 95be 292a b13e
000000a0: 01c3 c83d 0204 ba3e 47b2 0cbe c4e9 4d3e
000000b0: 4791 9b3d 69c3 c53c 5f3c a53e e059 1abd
000000c0: 81f3 103f b256 03bf 2014 c8bd bc5b 38be
000000d0: 5ac0 adbc 4129 503d 92ce 37bd d1a0 0c3e
000000e0: 00e5 96be 58ef 3b3d cc93 0dbe 6a4c b9be
000000f0: 24a4 d6be 540c 8b3e 6fc6 fe3c 9f50 16bb
00000100: ec10 12be c951 9e3c 3a71 8b3d 091f 31be
00000110: 1bd4 a5ba ac97 5d3d 219f 8abe 7833 64bf
00000120: 8095 b2be c0b0 8ebd 3c9c e63d 1ce3 0cbd
00000130: a62e 063e efa7 da3c 282a 163e e4e5 f2bd
00000140: 5df3 773e a442 223e ddf5 08be 0385 1ebf
00000150: 1aac 3d3e 4d8b d8bb af8a e43d fc63 68be
00000160: 5760 9b3d 6cc5 eebd cc0d d43c 8399 76bd
00000170: 9786 373f f66c 293e bcd5 3b3e dce4 063e
00000180: 77bc 05bc b670 cbbd 27d3 0cbd f28f e6bc
00000190: 67f0 3abc 2382 7a3e 9f0d a4be f6be 0cbe
000001a0: 8296 8bbe c2e5 eabe 3f01 d8bc c1ae 39bd
000001b0: c874 09be 1a00 a53e 785b 333e f939 9cbe
000001c0: ce1a 4d3d 2d05 683d 3eb0 88bd 9a4d 88be
000001d0: 1eb3 dfbe 573c 09be 6790 2dbd 6a6e 25be
000001e0: fc91 593e 5464 56bd d991 593e e9df 85be
000001f0: a6c9 3a3e f29d e9be d39d 99bd 2f7b 94be
00000200: 757f 053d 7395 ba3d 9faf 24bd 3b8d 8ebe
00000210: 3a0c 5fbe 2b61 3dbe 18f3 333e daef 0a3e
00000220: 7007 c53b e96d e73e fced 82be 1cd1 f73d
00000230: 967a fbbd 0f5a 323e 90a6 95be 6d5b 97bd
00000240: 5f7e fc3d a2f1 0d3f dd1d babd 9360 afbe
00000250: 9cab fb3d b1b0 093f 3033 a9bd f448 ed3c
00000260: 03d8 d03c 0d4f 15be 651f 0cbe d3b5 cfbd
00000270: 66c4 28bd b43b 503e 0ee1 cbbe 52a3 123f
00000280: e69b 4bbe 1c73 073c 23bb 753e bb6c 4f3b
00000290: a02c 1d3e 5968 f8ba 6a5a adbe 76c7 813e
000002a0: 4f3a 023c ea3d e63e d317 b33d 3e2a 073f
000002b0: 5376 003e 19aa 3fbe 7e3a 463d 7272 88bc
000002c0: b791 873d ae3b f8bd 7764 78be c7f6 bd3d
000002d0: 0b39 c6be 24c5 723f fe21 2ebe 11b8 b9bb
000002e0: 920e 133c 6762 cabc 50bd 183d 7c61 203e
000002f0: b150 80be 6006 29be 09c3 783e d068 343d
00000300: 985b b93e 47a3 71be 2e42 0f3e d28d b7bd
00000310: 0f0e 0c3e fcec 8dbe fc16 a33d 4ba0 53bd
00000320: 8c2d 91be 33c6 543e 3460 55be 414b 063f
00000330: f01e 463f 7c80 d0bd 1437 813c b09c 583d
00000340: f4cc 913c 4738 53bb c6f3 923e 3c53 413e
00000350: c9d8 873d 2245 7c3e 6eda 433f eaf4 07be
00000360: 6a36 a5bd e5cd 843d 3255 cb3b cefe 61bc
00000370: 1c7d d63d 03a1 193e b6af 91be 1b68 93be
00000380: 30f4 37be 59a6 70bf eefd b7bd 91c3 363c
00000390: 9e9b d1bc b9bd b53a 06a7 5fbe 663c 023e
000003a0: f0ef 75be 7e72 713c 77f3 b6bd f026 d1be
000003b0: 2985 ee3d 4514 403e 44b4 14be fc86 f03d
000003c0: 81d3 67bc d047 863e f000 f43d a3cf 18be
000003d0: a05e c4be 2a5e adbd 570c bfbe 608d 0bbf
000003e0: aa68 613a d8ea 1ebc e5cc 293e 5c1f 993d
000003f0: 836e ac3d a0f0 0bbe 6b2c cd3e 3cf6 1d3e
-0.08549219 -0.037757445 0.3401602 -0.19495398 0.5077569 0.09847726 -0.1876121 -0.2320174
0.19686177 -0.111440964 -0.08652257 0.014335951 0.14205244 0.020970942 -0.03908147 -0.63133734
-0.25173435 -0.20286238 0.07725688 0.6406154 0.11178737 0.25938252 -0.109317824 -0.19258922
0.028313497 -0.020845527 -0.46542174 0.043588314 -0.21871965 0.07645883 0.089252554 0.20654096
0.011278507 -0.018639857 -0.13920602 -0.064408146 0.043759502 0.4828289 -0.29155257 0.34602478
0.09802819 0.36331183 -0.13739882 0.20108706 0.07596069 0.02414103 0.32272622 -0.037683368
0.5662156 -0.5130416 -0.097694635 -0.18003744 -0.021209884 0.050820593 -0.044874735 0.13733222
-0.29471588 0.045882553 -0.13825911 -0.36191112 -0.41922104 0.27157843 0.03110048 -0.0022936238
-0.14264268 0.019326108 0.06808706 -0.17296995 -0.0012651713 0.054099724 -0.2707453 -0.89141035
-0.34879684 -0.06967306 0.11260268 -0.034396276 0.13103732 0.026691405 0.14664519 -0.118602544
0.2421393 0.15845734 -0.1337504 -0.6192171 0.18522683 -0.006608403 0.11159264 -0.22694391
0.07586735 -0.11658749 0.025885485 -0.060204994 0.7168974 0.16545472 0.18343252 0.1317324
-0.008162609 -0.09933607 -0.034381058 -0.02814481 -0.011409855 0.24463706 -0.32041642 -0.13744721
-0.27263266 -0.45878416 -0.026367782 -0.045332674 -0.13423455 0.3222664 0.17515361 -0.3051298
0.05007439 0.05664556 -0.066742405 -0.26621705 -0.43691343 -0.13401924 -0.04237404 -0.16155401
0.21247095 -0.052341774 0.21247043 -0.26147392 0.18240985 -0.45628315 -0.07500806 -0.29000232
0.032592256 0.091105364 -0.040206548 -0.27842125 -0.21782008 -0.18494098 0.17573202 0.13568059
0.0060128495 0.45201042 -0.25572193 0.12100431 -0.12279241 0.17417167 -0.2922864 -0.07390485
0.12328791 0.5544683 -0.09087727 -0.34253368 0.12288591 0.53785235 -0.08261716 0.02896545
0.025493627 -0.14580937 -0.13683851 -0.10142102 -0.041202925 0.20335275 -0.3982014 0.5728046
-0.1988369 0.00826719 0.23997168 0.0031650502 0.15349054 -0.0018951996 -0.33858043 0.2534749
0.007948472 0.44969112 0.087447785 0.5279883 0.12545137 -0.18717231 0.048395626 -0.016656134
0.0661959 -0.12120758 -0.24257074 0.09275585 -0.38715395 0.9483206 -0.17005154 -0.0056676944
0.008975642 -0.024705125 0.037289917 0.15662187 -0.25061563 -0.16506338 0.2429315 0.04404527
0.36202693 -0.23597442 0.1399009 -0.08962597 0.13677238 -0.27719867 0.07963368 -0.05166654
-0.28355062 0.20778732 -0.2083748 0.5245858 0.77390957 -0.101807564 0.015773334 0.052883804
0.017797925 -0.0032229589 0.2870161 0.18879408 0.06633145 0.24635747 0.7650517 -0.13277021
-0.08067019 0.06484584 0.0062052244 -0.01379366 0.104730815 0.15002827 -0.2845437 -0.28790364
-0.17964244 -0.94003826 -0.0898398 0.011155025 -0.0255869 0.0013865746 -0.21841058 0.12718353
-0.2401731 0.01473677 -0.08933156 -0.4085002 0.11646492 0.18757732 -0.14521891 0.11744496
-0.014149548 0.26226664 0.11914241 -0.14922957 -0.38353443 -0.08465226 -0.37314102 -0.54512596
0.0008598665 -0.009699546 0.16582067 0.074766845 0.08419516 -0.1366601 0.4007295 0.15425962

model.0.bias f4 [112]
00000000: 2288 f73d bf65 0e3d 0baa 1abe 7224 293e
00000010: 6616 2b3e c994 443e c80e 263e 0d85 b8bd
00000020: df3f 393e 7350 2bbd 1afc 3c3e 762a 7a3d
00000030: df59 993e 8ea2 61bc ffc8 8dbd 3883 22bd
00000040: 900d 3ebc b5bd 82bd a613 61be 7791 89be
00000050: af5b 3a3b 719c 0a3e 6eaf 473e 4f25 37be
00000060: a802 dabc 8748 603d 4a63 5bbd 9324 3f3d
00000070: 01dd cb3c 3af8 a9bd f202 163c 186e ddbd
00000080: 8a13 8ebe 535f af3c 279d 40bd 73b5 d5bd
00000090: 468d 42be 62d6 95bd 1b43 dd3d 36a9 a93d
000000a0: f890 51be 699a 8b3b f887 c8bc 8268 ca3c
000000b0: d027 423d 765e 59be f788 16bd 7675 45bd
000000c0: 5e28 f63c a458 543e afe3 28be e20a 833c
000000d0: c5ec 763d 691c 403c 5ac2 333e f7d0 69be
000000e0: b1d8 3bbd 114a 383e 3c89 1bbd 0454 d0bd
000000f0: 6131 9f3c 0240 613c 26de c23d 656a b73d
00000100: 234f 44be 28f3 e13d 5d74 6a3d 8252 663e
00000110: 0b51 38be 3d75 7c3d dbe3 fd3d a8e1 f33d
00000120: f92a 1dbe 5c41 bebe 2cae f1bd 09b7 163e
00000130: 481e 95bd c9cd 27be 537e 173e d15e b43d
00000140: 0539 c1bd f801 60be c8be e1bd ddcb 91bc
00000150: f3f1 65bd eb8f 253d 6489 54be 1f43 5abe
00000160: 0439 44be e230 c8b9 6f6f a0bc 917c d73c
00000170: c795 5fbd 5478 2b3e 73ba 14be 4df1 0b3e
00000180: 9a2c 1ebe 6fd5 5e3d b5fa 9b3d 48cd 80bd
00000190: faf7 9fbc bd64 a5be 9830 d1bd 555c c7bd
000001a0: 3b45 843d 7304 cbbd ac12 99be 76e3 223e
000001b0: 0b3e c3bd cfb6 3ebe 7fbb 42be b572 5dbd
0.12086512 0.034765 -0.15103929 0.16517809 0.16707763 0.19197382 0.16216576 -0.090097524
0.18090771 -0.04182477 0.18455544 0.06107565 0.2995138 -0.013771666 -0.069231026 -0.03967592
-0.011599913 -0.0638384 -0.21980152 -0.26868793 0.0028435995 0.1353624 0.19500515 -0.17885326
-0.026612595 0.054756667 -0.053561486 0.04666574 0.024885656 -0.082992986 0.009155976 -0.10812014
-0.27749282 0.021407759 -0.047024872 -0.10434999 -0.18999204 -0.07316281 0.10803815 0.082842276
-0.20465457 0.0042603505 -0.024478897 0.024708036 0.04740125 -0.2122744 -0.036751714 -0.048207723
0.030048545 0.20736939 -0.16493104 0.0159964 0.060284395 0.0117255235 0.17554608 -0.2283362
-0.04586095 0.17997004 -0.037972674 -0.10172275 0.019432725 0.013748171 0.09515028 0.0895584
-0.19170813 0.110327065 0.05723988 0.22492412 -0.17999665 0.061635245 0.123969756 0.11908275
-0.15348424 -0.3715924 -0.11800799 0.1471826 -0.07281166 -0.16387095 0.14794283 0.08807147
-0.09434704 -0.21875751 -0.11022717 -0.017797405 -0.056138944 0.040420454 -0.20755535 -0.21314667
-0.19162375 -0.00038183393 -0.019584386 0.026304515 -0.0545862 0.1674512 -0.1452425 0.13666268
-0.15446702 0.054402765 0.07616178 -0.06289154 -0.019527424 -0.3230342 -0.10214347 -0.09734408
0.06458517 -0.09912958 -0.29897058 0.15907082 -0.09533318 -0.18624423 -0.19016837 -0.05406447

model.1.weight f4 [112]
00000000: 2e0a 153f 6e51 ab3e e237 ec3e 7149 ad3e
00000010: 6f55 273f 489d 0b3f 2c9d e03e 6a2d 573e
00000020: 6415 3a3f f249 d63e 4dcb 023f 79d3 d73e
00000030: 7106 ed3e 665b ec3e 941f be3e 6d60 2b3f
00000040: aa74 f43e 0f3d ce3e 5442 053f df3f ea3e
00000050: 1946 ad3e 3643 f03e 4ef4 de3e 38d3 c43e
00000060: 1203 b43e 96ab f73e 1a8c 813e d594 153f
00000070: aba2 a63e 3776 2e3f f355 ea3e 5c8e e53e
00000080: 41cd b73e 5de3 ac3e 1ef5 f63e 3611 ff3e
00000090: e20e 283f 2e19 2e3f 7d68 d33e a621 1a3f
000000a0: b88b a83e 4f5c 393f 76e1 0e3f 9f24 9c3e
000000b0: 8668 233f 98b3 af3e 1cda fe3e ba6b 503e
000000c0: 67d7 d13e 8de6 343f 8c1a 0a3f 7ce4 c33e
000000d0: c4eb bf3e 3a97 883e 7976 093f fd82 d63e
000000e0: d06e ef3e f1c9 073f 13d6 033f 50e0 143f
000000f0: 940c b03e c7c4 e13e 494b c63e c777 fc3e
00000100: 4cab 013f 7b7e d83e f099 123f ece7 0c3f
00000110: 5f8f 343f ee7c b93e 63d8 133f 1906 c83e
00000120: cb71 a73e 672a 973e 0fe7 703e 1152 8d3e
00000130: 0b37 813e 444a b23e 348f 133f 0190 ec3e
00000140: 99a0 be3e 82c5 dd3e 93dc 0c3f c4bc 023f
00000150: 4129 bc3e e225 943e 21ef b93e c3b5 b03e
00000160: 12fa e43e 87a4 db3e f25a de3e a8ef 263f
00000170: 8484 6a3e 049f cc3e 203b ca3e b43a fa3e
00000180: 2117 cd3e 3d45 f63e 5563 a43e 3a7e c03e
00000190: c11a 0c3f b131 103f 28bc 183f c752 d23e
000001a0: 605f 0a3f 0f20 b43e 33dd ca3e f05e 223f
000001b0: 4775 c33e 96c3 e23e bb4d bc3e af99 ba3e
0.5821866 0.33460563 0.46136385 0.33845094 0.65364736 0.5453687 0.43869913 0.21013418
0.7268889 0.4185329 0.5109146 0.42153528 0.46293977 0.4616348 0.37133467 0.6694401
0.47745258 0.4028096 0.52054334 0.45751855 0.33842543 0.46926278 0.43545765 0.38442397
0.35158592 0.48373097 0.25302202 0.58430225 0.3254598 0.6814913 0.457687 0.44835174
0.35898784 0.33767214 0.48233885 0.49817818 0.6564771 0.6800717 0.41290656 0.60207593
0.32919097 0.72406477 0.55812776 0.3049669 0.63831365 0.34316707 0.4977578 0.20353594
0.4098465 0.7066429 0.5394676 0.38260257 0.37484562 0.26677877 0.536964 0.4189681
0.4676423 0.53042513 0.51498526 0.58154774 0.34384596 0.44095442 0.38729313 0.49310133
0.50652003 0.42283997 0.5726614 0.55041385 0.70531267 0.36228126 0.57752055 0.39067152
0.32704005 0.29524538 0.23525642 0.27601674 0.25237307 0.34822285 0.57640386 0.46203616
0.372319 0.4331475 0.5502407 0.51069283 0.36750224 0.28935152 0.36315253 0.34513673
0.44722039 0.42898962 0.4342876 0.65209436 0.22902113 0.3996507 0.39498234 0.48872912
0.40056708 0.480997 0.32107034 0.37596303 0.54728323 0.56325823 0.59662104 0.4107878
0.5405178 0.3518071 0.39621887 0.63426113 0.38175413 0.44289845 0.36778054 0.36445376

model.1.bias f4 [112]
00000000: 1606 f9bd 3481 39be 340d 00bf 30af 69bd
00000010: 696c 5bbe 0a87 05bf eb95 dabe cb1b 70bc
00000020: 0a08 5cbe ba19 09bf 3c69 b1be d972 8dbe
00000030: 5105 cabe 8283 abbe a96e ddbe 8594 85be
00000040: 436e 0dbf 34f3 99be 82e5 aebe 24c3 efbe
00000050: 0b91 92be a124 86be 923a fbbe 564b d6be
00000060: 6de1 e2be e629 dcbe 7136 a2bd 3080 5abe
00000070: fe68 34be a03b 88be a8c2 d6bd 4928 79be
00000080: 767c 7fbe 0646 c2be 9ca9 adbe a58e 70be
00000090: cd80 8fbe a1e4 b4be dd44 1abf cd80 23be
000000a0: 8317 79be 04dd cabe 2e9b 37be 5ba1 5dbe
000000b0: e321 44be 6221 0abf 777a f5be ff12 adbc
000000c0: 321d bdbe 12f9 02be 0378 a5be 3237 acbe
000000d0: 4654 b7be c653 c9bd ab03 14bf edb1 0ebf
000000e0: e297 dcbe 6061 84bd 15fd 86be 53e7 c9be
000000f0: b094 3fbe 05fe 82be a5d2 f7be 1850 acbe
00000100: fee6 f5be 940f 82be b473 04bf bbdf a6bd
00000110: 6a0f 81be b881 07bf 6556 d1be 89b2 c3be
00000120: 9151 8abe 0572 b3bd f94b d4bd f40e 77be
00000130: 3815 bebd 41bb a5be 16dd b9be 1abb 16bf
00000140: bf1e 88be be89 d5be a8cf 8fbe 1bc4 a5be
00000150: 447f 9abe 5988 96bd ecfa 5ebe b620 89be
00000160: d684 c8bd 9c72 83be 1a04 ccbe 7b91 f6be
00000170: ca99 81bd d85f 54be 0b0d 36bf 64d4 5bbe
00000180: 4b80 a9be a259 84be d045 93be 49cf 68be
00000190: 0971 8bbe 4a4d cabe 709d 0bbe 526a 01bf
000001a0: 5747 f5be 5b52 c0be 6e0b 28bf 8529 a9be
000001b0: 1f14 c2be d862 d8be 3784 4bbe 5a96 7cbe
-0.12159364 -0.18115693 -0.50020146 -0.057051837 -0.21428074 -0.5215918 -0.42692503 -0.014655064
-0.21487442 -0.5355488 -0.346506 -0.27626684 -0.3945718 -0.3349877 -0.4324849 -0.26089874
-0.5524637 -0.30068362 -0.34159476 -0.46828568 -0.28626284 -0.2619982 -0.49068123 -0.41854352
-0.4431261 -0.43000716 -0.0792054 -0.21337962 -0.17618176 -0.2660799 -0.104863465 -0.24331774
-0.24949822 -0.3794405 -0.33918464 -0.23491915 -0.28027955 -0.3533068 -0.6026133 -0.15967102
-0.24325375 -0.39621747 -0.1793029 -0.21643583 -0.19153552 -0.5395719 -0.47944996 -0.021127222
-0.36936337 -0.12790325 -0.32318124 -0.3363586 -0.35806483 -0.09830432 -0.57818097 -0.55740243
-0.43084627 -0.06463885 -0.2636496 -0.394343 -0.18709064 -0.25584427 -0.48402897 -0.33654857
-0.48027796 -0.2540251 -0.5173905 -0.08148142 -0.25207072 -0.5293231 -0.40886226 -0.3822215
-0.27015355 -0.08761982 -0.10366053 -0.24126798 -0.09281391 -0.32369426 -0.36301488 -0.58879244
-0.26585957 -0.4170665 -0.28088117 -0.3237618 -0.3017522 -0.07350225 -0.21775407 -0.2678277
-0.097909614 -0.25673378 -0.3984688 -0.48157868 -0.06328161 -0.20739686 -0.7111365 -0.2146774
-0.33105692 -0.25849634 -0.287642 -0.22735323 -0.27234676 -0.39512092 -0.13634276 -0.50552857
-0.4790599 -0.37562832 -0.6564244 -0.3303949 -0.37905976 -0.42262912 -0.19874655 -0.2466673

model.1.running_mean f4 [112]
00000000: 8fe9 afbf e9ef 363f aab4 cdbf 56fb d53f
00000010: 8c7c 2bbf b313 0dbf faf1 2dc0 dc5f 35bf
00000020: dc3c b33f 1dbc 05c0 0bd1 6ec0 bdaf 70be
00000030: 04af 5ebf f428 0f40 1234 83bf 9505 8c3f
00000040: 3a7b 8fbf ab9a adbf 3759 f93f f5c1 703f
00000050: 5440 82be c2e5 83bf c572 76bf d643 1340
00000060: bd31 19c0 93c6 01be 0b1f 753f 53d7 fdbf
00000070: edd4 a63f ee9e 86c0 09e4 eabe b990 af3e
00000080: 1827 1f40 cbe0 25be 10a4 3940 ad01 a1bf
00000090: 305d 3540 722b 15c0 338b 833e b96b 00bf
000000a0: 49f8 163f 0436 b1bf 979d 8fbf 819a 10bf
000000b0: a015 4dbf 5e4e 6740 b9d7 1a40 f151 3a3f
000000c0: 65db 013f d915 7b3f a2a9 89c0 a564 b53d
000000d0: b284 d23e 3cda 6640 b6a6 bbbf 4325 b43f
000000e0: 687a 4fbe d83a 8dbf fae3 17c0 0deb f5bf
000000f0: 0fbd 543e 7b49 6abe 77a0 40bf 90d9 16c0
00000100: e4e7 a33f 9871 8d3f 82f5 aebf 0663 a23d
00000110: 00d4 63bd c002 bfbf 99ac 92c0 76b8 3a3e
00000120: f283 a53f b2df 113f 87a2 613f ee0f 09c0
00000130: 4ac6 0740 7bee 19bf 7c62 80bf 2aaa d1bf
00000140: 503a 1fbf 4e4a 4240 a6c2 8ec0 68ea 973f
00000150: 4159 bf3f 0632 c8be c26b 9d3f 733f ea3f
00000160: 3384 8abf 031d 2540 0eba e63f 5352 febf
00000170: 214a 8b3f 49f5 80bf 076e 5f40 9e57 0d40
00000180: 10ca 26bf fa80 423e 5796 18c0 709f 5440
00000190: 5194 fd3f 95ce bcbf 0557 21c0 1603 0a40
000001a0: b8f5 eabe b85e 1ebe 540a 5240 92ec c8bd
000001b0: e4b6 3abe 43d0 e33d 7c19 e33f 43fc 3ac0
-1.3743151 0.71459824 -1.6070759 1.6717327 -0.6698692 -0.55108184 -2.717894 -0.70849395
1.4002948 -2.0896065 -3.731509 -0.23504539 -0.869858 2.2368746 -1.0250266 1.0939204
-1.1209481 -1.3562826 1.9480351 0.94045955 -0.25439703 -1.0304492 -0.96268874 2.3010154
-2.3936608 -0.12673406 0.9575049 -1.9831337 1.303373 -4.2069006 -0.45877102 0.34290102
2.486761 -0.16199033 2.9006386 -1.2578636 2.8338127 -2.3307767 0.25692138 -0.5016437
0.58972603 -1.3844609 -1.1219968 -0.56485754 -0.8011112 3.6141582 2.4194167 0.7278128
0.50725394 0.9808021 -4.301957 0.08857087 0.41116863 3.60707 -1.4660251 1.4073871
-0.20261538 -1.1033583 -2.3732896 -1.9212357 0.20775245 -0.22879593 -0.7524485 -2.357029
1.2805142 1.1050291 -1.3668673 0.079290435 -0.0556221 -1.4922714 -4.583569 0.18234429
1.2930892 0.56981957 0.8813862 -2.1415973 2.1214776 -0.6012952 -1.0030055 -1.6380055
-0.6219835 3.0357852 -4.461261 1.186841 1.4949113 -0.39100665 1.229851 1.8300613
-1.0821594 2.5798957 1.8025529 -1.9868873 1.0881997 -1.0074855 3.4910905 2.2084727
-0.6515207 0.18994513 -2.384176 3.3222313 1.9810888 -1.4750544 -2.5209363 2.1564384
-0.45890594 -0.1546582 3.2818804 -0.09810747 -0.1823383 0.11123707 1.7742152 -2.9216468

model.1.running_var f4 [112]
00000000: 3730 283d 21f5 123d 5b2b b63c 7d6e 973c
00000010: 1bc8 973c 8391 263d 0b84 3a3c 1af9 793d
00000020: 0e20 8b3c 3c65 943c 1591 433d 5262 4d3d
00000030: f563 1a3d c212 903c b077 523c e4b6 593d
00000040: 5d8d 083c f3f2 ab3c b2e9 9c3c e1dd a13c
00000050: 7099 cc3c 0639 353d a6d9 1a3c 3576 c83d
00000060: f618 483c 2979 783c cea6 3c3d 3ad1 703d
00000070: f830 163d c751 223e e2f9 943c 69a5 513c
00000080: bacb 9c3d 1898 693c c107 ba3c b4df 323c
00000090: 0804 df3c ae9f 6f3d f8eb 1c3c a392 ca3c
000000a0: 9a84 9e3d 6645 843c 6166 903d 009e fc3c
000000b0: c448 243d 5900 073e a278 983c eac3 a93d
000000c0: 0fd4 603c 5248 523d eac3 1a3d fff4 773c
000000d0: dffe 2f3c 66b2 903d 6908 ff3c e927 8d3d
000000e0: c857 853c c58b 193d 6135 8f3c f8db a93c
000000f0: d46a 0d3d dd73 9d3c 44d7 803c dfd6 813c
00000100: c8c3 a53c 2b78 973c 2fd0 2a3d 92fe a73c
00000110: 4e9d b43d c15c 733c 9883 5c3d 1464 823c
00000120: b4dd e43c da7d 3d3d 8baa 273d 0646 493c
00000130: 167a 1b3d b10a d53c 0a3e 673d 0a69 6e3c
00000140: 3100 b13c 0dea e83c 829e 663d 664d 4e3c
00000150: 55dc 9e3d 806b 5b3d a606 2c3d cc1a d83c
00000160: 3af0 ad3c 2557 813c a70d 8b3c 777d 0c3d
00000170: 788a 553c da90 be3c 3488 f23d c1da aa3c
00000180: 6985 d53c c5c7 6c3d 89ac 393c 3156 d93c
00000190: 4b6f bd3c e420 143c 624b 773d 099b 5d3d
000001a0: b746 8e3c bad7 713c b457 f63d 3aa2 6c3d
000001b0: b4fe ce3c 4669 3f3c 2bee ed3c bb3f 3e3c
0.041061606 0.035878304 0.02223747 0.018485302 0.018528035 0.040666115 0.011384021 0.061028577
0.016983058 0.018114679 0.047745783 0.050142594 0.037692983 0.01758707 0.012845919 0.053152934
0.008334485 0.02098987 0.019154403 0.01975912 0.024975508 0.044243835 0.0094513055 0.09788171
0.012212982 0.015165606 0.046057515 0.058793284 0.036667794 0.15851508 0.01818556 0.0127957845
0.07656045 0.014257453 0.022708775 0.010917593 0.027223602 0.05850189 0.009577744 0.024728125
0.077401355 0.016146373 0.07050777 0.030837059 0.040108457 0.13183726 0.01861221 0.08289321
0.013722434 0.0513385 0.037784494 0.015134095 0.010741918 0.07065277 0.03113194 0.06892378
0.016277209 0.03748681 0.017481508 0.020734772 0.034525707 0.019220287 0.015727647 0.015849529
0.020234957 0.018489918 0.041702446 0.02050713 0.08819066 0.014853657 0.053836435 0.015916862
0.027937748 0.0462626 0.040934127 0.012284761 0.037958227 0.026006075 0.05645565 0.01455141
0.021606537 0.028431917 0.05630351 0.012591695 0.07756869 0.053569317 0.041998528 0.026379965
0.021232713 0.015788624 0.016974283 0.03429934 0.013033502 0.02326243 0.11842385 0.020856263
0.026064591 0.057807703 0.0113326395 0.026530357 0.023124358 0.009041045 0.060374625 0.05410293
0.017367704 0.014760906 0.12028447 0.0577719 0.025267936 0.011682814 0.029044231 0.011611874

model.4.weight f4 [96, 112]
00000000: 6040 9abd 2964 e0bd 49fc bfbc a859 b7bd
00000010: d595 43bd 0745 8b3d 87b8 2e3d f585 db3c
00000020: 5b55 1cbf c4c0 1b3e bd75 c53d 3dbe 6bbc
00000030: e683 a4bd 1c89 83bd 3d72 2ebd 4043 6fbe
00000040: da82 d03d 5162 c23d 9c4c 83bd d2b8 a0bd
00000050: e4fc 0d3e fb92 38bc 99a4 69be fd37 e2be
00000060: ccd2 1abe ecad 763e 16c7 2cbd 8124 2abf
00000070: 4049 f3bd 711c 66be b400 ccbd 3da9 54bd
00000080: eb7f a8be f9c2 9dbd 3171 aabd 198f 213e
00000090: 4ffa 45bd 4d1d f9be 90b8 a0be 49cb 6d3d
000000a0: 2137 d1bd 0558 03bf bef6 95be eb90 e7bd
000000b0: c543 513d 131a 75bc f0cf e7be c89e 563d
000000c0: f5f4 bdbd fb8c 15bf 90da 21bd f828 b0bd
000000d0: 0ef6 5dbd 5e22 173d 1048 213e c9ed 9c3a
000000e0: 9faf 2fbf a489 533d 9725 803e 4b0c 22be
000000f0: 7f11 163d f2c0 dc3c 8579 623c e67e ae3d
00000100: 020a cbba deee 943d a5b6 3dbe a08f 41be
00000110: 9e41 63bd 5b35 473d 481e de3d 3202 803b
00000120: 4bdb e63d dd06 00be 149f 9d3c de89 6abc
00000130: 46d8 46be 337d 83be 14b1 d33d 5041 8d3d
00000140: d7cd 93bd 2fc4 06be 031b 3b3e 539e 803d
00000150: 4558 0ebf 3643 ba3c dd70 13bd 7a73 0cbd
00000160: 16b1 df3d 5b59 103d b1af ffbe 1b74 9ebd
00000170: e654 8bbd 95ef 6d3d 0e9e 933e e962 193e
00000180: 1975 fbbd f021 a43d 22f8 8c3c 006c adbd
00000190: d649 f1be ccc6 8fbd 7d5a b6bd 95eb babe
000001a0: 5445 213b 0754 92be f0a7 41bd b03b 42be
000001b0: c5d5 e7bd 2e62 bbbe f9fa 40bd f4fe 4c3e
000001c0: 4eec 6ebe 1318 a53d 7b91 0b3e 88a1 fabd
000001d0: 3fe3 a1bd 575c ccbe 7c78 033d bc03 063e
000001e0: c0d3 1d3e 291c 183d a091 08bf 3c49 c43d
000001f0: d1ab f33b 0a69 d23d 851b 0b3d f2fa e2bc
00000200: 2524 8a3e 3481 0a3e 8f2c edbd 3d74 13bf
00000210: 1aa1 933c a5da 583d 1320 c3be d737 0e3d
00000220: bc11 babd 2694 24be 8520 953d a503 333d
00000230: 333b 433d 84ad 783e aa54 83be 8cc5 a63e
00000240: ee89 f9bd c412 b5be d36e 3cbe 12fe 39be
00000250: 78c9 113e d8c2 413d 533a d5be 476f 4ebd
00000260: e822 ea3d bf40 88bd 3abe 2a3e a499 b2be
00000270: 121d e53c da9c afbe ca06 aabe e314 cf3d
00000280: 0ac6 b1bd 44fa 98be edfb 5abc 83a0 23be
00000290: 42be 2ebe ae88 c33c bc65 033e e365 7cbe
000002a0: 4305 3bbd f2d1 bf3b 7c06 0dbe 5f11 253e
000002b0: d658 b73d e98a e43d 5d74 803a 9197 8e3e
000002c0: 9179 3f3e 45de 00bf 9b1b 09bc f1fc 47be
000002d0: b85d 383e 0719 493d a7f4 e7bd be1c 9f3d
000002e0: 0d49 57bc eda9 673d 5f2b 0a3e 3e0d a7bc
000002f0: 13f1 1d3d 1a1d 92be fe8d e13d 175b 95bd
00000300: 460d c9bd f1a1 62be efeb d5bd d201 b9be
00000310: 82ae ad3d 8ee7 3f3e fb50 4c3c 4789 c03d
00000320: a5b5 d0bc d9cb 39be 2e07 b2be af2e 30bf
00000330: 127a 99bd 9241 66be 9e2c 3bbf c05f 96bd
00000340: 72e6 e5be d37a 343e 4ce1 133e 5bfe 96bd
00000350: 111f 5c3e ff57 413e 7f5f 0f3e b56c 42bb
00000360: 3189 ffbc a10d 30bd 8a58 eabe 6999 2dbe
00000370: 24f9 fdba 60c0 03bf 676e 6d3d c253 bebd
00000380: 3f05 123e 6ce8 ac3d bc3c 593c ac49 253e
00000390: 2481 e7bd c337 9a3d dee3 a9bc 062a 663c
000003a0: c1da 8cbe 7d74 b23d 22c1 a63c ab07 393c
000003b0: b971 243e 337c 9fbd 14f2 38bc 1e18 553e
000003c0: 0fe3 b73e c845 fa3d e0bb ffbc 584c 5b3e
000003d0: d1fa 12be a148 ee3d 4049 c73d 9280 403d
000003e0: 498f 2b3e 0575 6bbe 3a03 2b3e 32af 733e
000003f0: 3734 043c f840 413e b896 e73d 7904 04be
-0.0753181 -0.10956604 -0.023435729 -0.089526474 -0.047750313 0.06800275 0.042656448 0.026797274
-0.6106774 0.15210253 0.096415974 -0.014388618 -0.0803297 -0.06422636 -0.042589415 -0.23365498
0.10181208 0.094914086 -0.064110965 -0.07847752 0.13866001 -0.011265512 -0.22816695 -0.4418334
-0.15119475 0.24089783 -0.04218205 -0.6646195 -0.11879206 -0.22471787 -0.099610716 -0.05191921
-0.32910094 -0.07703204 -0.08322371 0.15777244 -0.048334416 -0.48655167 -0.3139081 0.058055196
-0.10215593 -0.5130618 -0.29289812 -0.11306938 0.05109002 -0.01495983 -0.4527583 0.05239752
-0.092752375 -0.58418244 -0.039515078 -0.08601564 -0.054189734 0.03689801 0.15750146 0.0011972721
-0.6862735 0.051644936 0.2502868 -0.15825002 0.03663778 0.026947472 0.013822918 0.08520298
-0.0015490653 0.07272123 -0.18526705 -0.18902445 -0.0554825 0.048634868 0.108456194 0.0039065117
0.112722956 -0.12502618 0.019240893 -0.014315097 -0.1941844 -0.25681457 0.10336509 0.06897223
-0.07216995 -0.13160776 0.18272023 0.06280198 -0.5560344 0.022737127 -0.035996307 -0.034289815
0.10922448 0.035241466 -0.4993873 -0.07736989 -0.068033025 0.05808981 0.28831524 0.14979137
-0.12278194 0.080142856 0.017208163 -0.08467865 -0.47126645 -0.07020339 -0.08903978 -0.3650786
0.0024607973 -0.28579733 -0.0472793 -0.18968081 -0.1132007 -0.36598343 -0.047114346 0.20019132
-0.2333233 0.080612324 0.13629715 -0.12237841 -0.07904672 -0.399142 0.032097325 0.13087362
0.15412807 0.03713623 -0.53347206 0.09584281 0.0074362536 0.10273941 0.03396179 -0.02770755
0.269807 0.1352585 -0.115807645 -0.5759924 0.018021155 0.05294289 -0.38110408 0.03472122
-0.09085414 -0.16072139 0.07281593 0.043704648 0.04766388 0.24284941 -0.2565053 0.3257259
-0.12184511 -0.3536588 -0.18401651 -0.18163326 0.1423701 0.047304958 -0.4164606 -0.05039909
0.11432439 -0.06652974 0.16674128 -0.34882843 0.027967963 -0.34299356 -0.33208305 0.10111406
-0.08680351 -0.29878438 -0.013365728 -0.15979199 -0.17064765 0.023868885 0.12831777 -0.24648242
-0.045659315 0.005853885 -0.13772005 0.16119908 0.08952491 0.111593075 0.0009800304 0.2785001
0.18698718 -0.50339156 -0.008368398 -0.19530083 0.18004501 0.049096134 -0.113259606 0.07769154
-0.013139975 0.05655854 0.13493107 -0.020392057 0.038559984 -0.28537828 0.11013411 -0.07292765
-0.09816985 -0.22132088 -0.104453914 -0.361342 0.0848055 0.18740675 0.012470479 0.094011836
-0.02547724 -0.18144168 -0.34771103 -0.68821234 -0.07493986 -0.2248595 -0.73114955 -0.073424816
-0.44902378 0.17624979 0.14441413 -0.07372733 0.21496226 0.18881224 0.14001273 -0.0029666845
-0.031193348 -0.042981748 -0.45770675 -0.16953053 -0.0019376618 -0.51465416 0.057966616 -0.09293319
0.14259814 0.084427685 0.013259109 0.16141385 -0.113039285 0.07530167 -0.020738538 0.014048105
-0.27510646 0.087136246 0.020355765 0.011293332 0.16059007 -0.07787361 -0.011288185 0.20809981
0.3591542 0.12220341 -0.031217515 0.21415842 -0.14353491 0.116349466 0.09730768 0.046997614
0.16753878 -0.22993858 0.1670045 0.237973 0.00806909 0.1887244 0.11308044 -0.12892331

model.4.bias f4 [96]
00000000: aee9 2f3d b8e8 233d 4ff9 05bd 136d 8a3d
00000010: 6cd7 7b3c 95c9 55bd 0c49 91ba 81a4 373d
00000020: 405f 4cbc 382b 913d 8b73 d23a 01a9 e8bc
00000030: 60ef c13d 5621 c03c 0af5 873c 5c0b 88bd
00000040: 3e49 83bd 2800 5bbd 47e7 40bc 3898 3c3c
00000050: e6db a03d 8b0c a23d d517 47bc 503d 86bd
00000060: 646c 783c 444e c1bd 7908 4dbc 5208 01be
00000070: d25f 48bd 60ae 8dbc 87b0 933c 1037 e33c
00000080: 3039 71bc 1173 10bd d266 423d c628 8fbd
00000090: 9e28 afbd 5b9d 41bd 0a19 45bd fc8d 4b3c
000000a0: e0f5 41bd 9bb3 833c 7e01 09bd fb7d 6abd
000000b0: 3a67 edbc 8568 4abd 9d03 3ebd 6ebe a23d
000000c0: 0e48 4dbd 99fc 92bc cf22 86bc aab6 06bc
000000d0: 4327 b2bc f860 93bd 2032 023d 2546 8dbc
000000e0: 1fa8 aa3c 2d63 f53c 1263 a3bd 5629 273d
000000f0: 2508 5dbd 82e1 b0bc aa77 c0bd f896 82bd
00000100: e85c f83a d4d0 a03d 6996 3a3d f4e7 f03b
00000110: 7b41 29bd f29f 54bc 155f 7c3c 5396 39bc
00000120: e8e4 1cbc 3c6f 0c3d 5824 1b3d 0b6d fe3c
00000130: 546e 98bc 8dd1 2abb 17ea 29bd abe0 32bc
00000140: fee1 4fbd b8b9 16bd 653b 39bd 203d debc
00000150: 1b1d 333d 81ee 4b3d 32a6 073d 087e d23c
00000160: a9c1 d5ba ac0c a33d 216a 3e3d 9b2d febc
00000170: 6f0a 3dbd 00ac b23d 3122 64bc b31c e2bc
0.042947464 0.04001686 -0.032708462 0.067590855 0.015371185 -0.052194197 -0.0011084392 0.044834618
-0.012473881 0.070883214 0.0016056163 -0.0284009 0.09469485 0.023453396 0.016596336 -0.06642792
-0.06410454 -0.053466946 -0.011773891 0.011510901 0.07854442 0.07912549 -0.012151678 -0.06554663
0.015162561 -0.09438756 -0.012514227 -0.1260083 -0.048919506 -0.017295063 0.01802851 0.027736217
-0.014723107 -0.035265986 0.04746134 -0.06990199 -0.08552669 -0.047269206 -0.048119582 0.012423988
-0.047353625 0.016076853 -0.03344869 -0.05724905 -0.028979886 -0.049416084 -0.046390165 0.07946478
-0.050117545 -0.017942714 -0.01637402 -0.008222261 -0.021747237 -0.0719623 0.031786084 -0.017245362
0.02083212 0.029954517 -0.079778805 0.040810905 -0.053962845 -0.021591906 -0.09397824 -0.06376451
0.0018948587 0.07852331 0.0455536 0.0073518697 -0.041322213 -0.012977587 0.015403529 -0.011327344
-0.00957606 0.03428577 0.037876457 0.031057855 -0.018607296 -0.0026064843 -0.04148301 -0.010917823
-0.050752632 -0.03679821 -0.04522266 -0.027128756 0.04372893 0.049788002 0.03311748 0.025694862
-0.0016308326 0.07961401 0.04648793 -0.031027606 -0.04615253 0.08724213 -0.0139241675 -0.027601575

model.5.weight f4 [96]
00000000: c06b ec3e cc1d 003f 4243 ce3e 79ce cd3e
00000010: 0a1e db3e efc1 123f 7f19 d43e ea7e 083f
00000020: c86c 043f ba91 023f 50ad 063f 396b cb3e
00000030: 9b5b f73e ef02 f43e f2f1 dc3e 3e2f 0d3f
00000040: 3a4d 073f 0097 b33e f5a7 0f3f 45c8 db3e
00000050: 7443 db3e 67d9 e93e df11 fb3e 077a c83e
00000060: aab1 ca3e b79a bd3e 0688 023f 1400 183f
00000070: ab82 1f3f 04b0 093f 2fb9 113f a7f7 0f3f
00000080: 4605 ed3e 6957 183f eff8 003f e3be da3e
00000090: 2aba 203f 31c2 e63e 15d5 fc3e bd66 133f
000000a0: 7de6 d93e c49e 143f 268b e13e 7f39 003f
000000b0: 2a54 133f eb33 e13e a818 0d3f 9859 b33e
000000c0: 2a4f d13e 97ee 053f 0ed7 fd3e ef95 d73e
000000d0: aa15 bf3e 27c5 cf3e 1558 fa3e fa8f 013f
000000e0: 9781 e43e 1cd8 f63e 9a8a 173f f558 d73e
000000f0: 74e7 c63e 6689 cf3e 2db0 de3e bbb2 123f
00000100: f96d ee3e cee2 043f 2152 c93e 2973 063f
00000110: 8cb7 df3e 678d 0e3f 4ee6 f53e 7f55 0b3f
00000120: c51b e83e 735c 113f 6eb8 c03e 00e7 053f
00000130: f2c8 ce3e bef9 1f3f aa9b 113f 5303 243f
00000140: e39a 273f ad26 c43e ffe5 0d3f beae 283f
00000150: 5a5a 1e3f bb73 0d3f 1131 013f a90a 133f
00000160: 6645 293f 492e da3e 1b69 133f 401b e03e
00000170: b74e 163f 6d98 183f f3cb e13e 247b ca3e
0.46175957 0.50045466 0.4028569 0.4019659 0.42796355 0.5732717 0.41425702 0.53318655
0.51728487 0.5100361 0.52608204 0.39730242 0.48312077 0.47658488 0.4315334 0.5515021
0.52852213 0.3507614 0.5611566 0.4292623 0.428249 0.45673677 0.49037072 0.391556
0.39588672 0.370321 0.50988805 0.5937512 0.6230876 0.53784204 0.5692319 0.5623726
0.46293086 0.5950838 0.5037984 0.4272376 0.62784064 0.4507003 0.4938132 0.5757864
0.4255866 0.5805476 0.44051474 0.5008773 0.575503 0.43984923 0.5511575 0.35029292
0.4088071 0.52317184 0.49578136 0.42106578 0.37321216 0.40580103 0.48895326 0.50610316
0.4463012 0.48211753 0.59195864 0.42060056 0.3884846 0.40534514 0.43493786 0.5730397
0.46568277 0.51908576 0.39320472 0.5251947 0.43694723 0.5568451 0.4802727 0.5442733
0.45333686 0.5678169 0.3764071 0.52305603 0.40387684 0.6249045 0.5687815 0.6406757
0.65470713 0.38310757 0.5542907 0.65891635 0.61856616 0.55254716 0.50465494 0.5743814
0.6612152 0.42613438 0.57582253 0.4377079 0.5871386 0.59607583 0.44100913 0.39547074

model.5.bias f4 [96]
00000000: 083b 8fbe 63c2 80be 5359 f1be 0da9 82be
00000010: 6587 a1be 2a89 70be 78a5 e5be 8fcc 1dbe
00000020: 962e 10be be13 97be 1611 83be d033 5cbe
00000030: 29ea acbe 9a97 8abe b1b1 b3be ea99 82be
00000040: 3511 89be 0e44 e7be a458 52be cf67 79be
00000050: ca93 9fbe 5251 95be a453 a1be 83a9 b3be
00000060: b634 acbe a8b5 3dbe 910b 64be 60f7 81be
00000070: b562 56be daca f0bd 5953 53bd 1c83 8abe
00000080: 30d7 c1be 2050 81be a58d 89be aede a9be
00000090: d622 00be d02a 96be bc3e 80be bbc3 06be
000000a0: e61b 33bf edac 8bbe f2c9 d1be 3198 7bbe
000000b0: a718 66be db16 aebe 83f8 3cbe 319c 14bf
000000c0: 07c6 c4be 2623 9ebe 78c0 80be 5894 b2be
000000d0: 73e4 a4be c984 70be 4e4a 88be 2690 c4bd
000000e0: fd57 9fbe 9f1c 1cbe 7667 a2be fd30 d3be
000000f0: ebb6 dfbe 70be a5be 3469 babe a37d a8bd
00000100: 1998 bdbe fcf0 86be f558 93be bdc0 77be
00000110: 3dd5 8ebe ba3f 86be ad62 52be 760c d0be
00000120: 22b4 ddbe a511 33be fbd8 33be fc53 74be
00000130: ceb8 6ebe e808 51be 40af 96be e249 59be
00000140: ceaf 71be d814 aebe 1818 19be dc28 f7bd
00000150: 62b1 01be 3b4a 82be ed62 75be 86be 8ebe
00000160: a8f2 77be 7414 d8be e000 71be e0e8 95be
00000170: affd 88be 938d 03be fc46 aabe 8405 a9be
-0.27974725 -0.25148305 -0.4713846 -0.255196 -0.3154861 -0.23489824 -0.44852805 -0.15410064
-0.14080271 -0.2950725 -0.25598973 -0.2150414 -0.337724 -0.27068788 -0.35096505 -0.25508052
-0.2677094 -0.4516911 -0.20541626 -0.24356006 -0.31167442 -0.29163605 -0.31509125 -0.35090265
-0.33633965 -0.18526328 -0.22270037 -0.25384045 -0.20936091 -0.11757441 -0.05159316 -0.27053154
-0.37859488 -0.25256443 -0.2686588 -0.33177704 -0.12513289 -0.29329538 -0.25047863 -0.13160603
-0.69964445 -0.2728037 -0.40974385 -0.24569775 -0.22470342 -0.34001812 -0.18454175 -0.5805083
-0.38432333 -0.3088619 -0.25146842 -0.34878802 -0.32205543 -0.23488154 -0.2661919 -0.09597807
-0.31121817 -0.15245293 -0.3171956 -0.41248313 -0.43694243 -0.32371855 -0.3640839 -0.08227088
-0.37030104 -0.2635573 -0.28778806 -0.24194618 -0.27897063 -0.26220495 -0.20545454 -0.40634507
-0.43301493 -0.174872 -0.1756324 -0.23860162 -0.23312685 -0.20413554 -0.2943058 -0.2121959
-0.2360222 -0.34000278 -0.14950597 -0.1206834 -0.12665322 -0.25447258 -0.23963518 -0.27879733
-0.2421366 -0.42203104 -0.2353549 -0.29279232 -0.26756045 -0.12846975 -0.33257282 -0.3301202

model.5.running_mean f4 [96]
00000000: 62c0 39bf 2261 9abe 902f b83e d01d 93be
00000010: cb9e 0abf f9fc 95be ffc1 e5be 2a2a 83be
00000020: e2a5 0abf c176 86be e51a eabe 5e60 cfbe
00000030: ee1f 54be 52ac 07bf 4fec 05bf fbdb 10bf
00000040: 6d7f 3dbe 0d36 0a3e b92a c9be a4e1 67be
00000050: a58f 24be 8a4d adbe ea0d 06bf 4cbe 8fbd
00000060: 8968 7e3e dc53 6dbe 2355 d8be 68de ddbe
00000070: ac3a abbe ccd1 023d 0840 a3be 6d80 71be
00000080: 4431 3abf 1d33 8dbe 363e 6c3e f33e f3be
00000090: 6094 4dbe bb92 efbe d7d9 263e bf4e bebe
000000a0: 2c3c d93e c0c0 b1be fb31 45bf 7f57 dcbe
000000b0: bfe6 cabe 0795 28bf 3c7f adbe edc9 b03d
000000c0: ca67 87be b315 04bf 6c37 98be 6d65 05bf
000000d0: f8d6 10bf 7fed c5bd a2de acbd 7569 933e
000000e0: 40f3 343d fe9a a6be e3c9 9dbe def6 eebe
000000f0: 5dbf 47bc aad0 9bbe 5c4e 6cbf 8ba9 4bbe
00000100: c00a 643d ff0b 04bf 5b32 1cbf 78ff 01bf
00000110: 25af b6be 0338 e6be 3101 87be 238a db3e
00000120: 6c20 4e3e 24a0 2fbe 0cef bdbe b5e8 b8be
00000130: b210 083e 7871 1dbe 6159 e1be 34e3 a7be
00000140: 0643 45be c266 ab3d a872 a0be 61c2 dcbd
00000150: d7a8 67be 3261 8bbe bbed 26bf b4aa b1be
00000160: 0960 b9be a775 19bf 0868 b6be 8212 b8be
00000170: d9a6 8bbe e238 af3d 141c 40bf 41be 4bbf
-0.7255918 -0.3015223 0.35973787 -0.28733683 -0.5414855 -0.29294565 -0.4487457 -0.25618106
-0.5415937 -0.26262477 -0.45723644 -0.4050321 -0.20715305 -0.52997315 -0.52313703 -0.56585664
-0.1850564 0.13497181 -0.39290407 -0.22644669 -0.16070421 -0.3384822 -0.5236498 -0.07018718
0.24844564 -0.23176521 -0.42252454 -0.43333745 -0.334432 0.03193836 -0.3188479 -0.23584147
-0.72731423 -0.2757806 0.23070607 -0.47508964 -0.20076132 -0.46791634 0.16294037 -0.37169454
0.4242872 -0.3471737 -0.7702939 -0.43035504 -0.3962917 -0.658524 -0.33886135 0.08632264
-0.26446372 -0.5159561 -0.29729784 -0.5210789 -0.56578016 -0.096644394 -0.08440901 0.28791395
0.044177294 -0.32540125 -0.3081809 -0.4667272 -0.012191621 -0.30432636 -0.92307067 -0.19888894
0.055674314 -0.51580805 -0.61014336 -0.5078044 -0.356805 -0.4496461 -0.26368096 0.42878827
0.20129555 -0.17150933 -0.3709644 -0.3611504 0.13287619 -0.15375316 -0.44013503 -0.3279053
-0.19263849 0.08369209 -0.31337476 -0.10779262 -0.22623001 -0.27222592 -0.652065 -0.3470055
-0.36206082 -0.5994515 -0.35626245 -0.3595162 -0.27275732 0.085557714 -0.75042844 -0.7958718

model.5.running_var f4 [96]
00000000: 2d82 143f 660a b23e 21af 943e ca33 a53e
00000010: bdd8 c53e 1539 913e 4823 a93e 453d c93e
00000020: 1288 123f 9e31 513e 4c66 c03e 3d56 ee3e
00000030: 72cd 933e 0bc3 023f 8469 f13e 24a1 9d3e
00000040: 8c83 973e f5a8 8a3e 0aae 133f 8193 bd3e
00000050: b499 033f e64e b13e c700 c43e 3ef8 aa3e
00000060: 10d0 b23e 06b4 003f 0ac8 d13e 4a52 ea3e
00000070: 894f c13e 688a e33e 1dd4 113f d390 f63e
00000080: a980 0d3f 0955 033f 05c5 ac3e 6ab8 653e
00000090: a888 1c3f c6b3 9a3e d73e 093f ca56 363f
000000a0: 243f 1c3e d221 f03e aa09 c73e e53c bc3e
000000b0: 454d bd3e d171 f73e f8b2 133f 8c72 de3d
000000c0: 3415 103e b4ef 9d3e cd24 893e 648c d53e
000000d0: c2d1 0d3f 4646 f83e fb5a 713e 25a5 843e
000000e0: fcf8 2d3e 9c08 b73e 4711 ba3e ffd5 943e
000000f0: 296c b13e 1f44 483e 1ec8 293f 3df1 073f
00000100: 40c4 e33e 9184 e63e 5a65 103f 2937 263f
00000110: af1b 973e 1bc2 e73e a935 a13e bbcb 7e3e
00000120: 8122 833e 1dae ca3e 16f9 f43e dde3 be3e
00000130: 765c 963e 33a6 de3e 43cc d23e 84ab 553f
00000140: 3819 003f 56d0 613e ff16 ea3e 6a87 f93e
00000150: 5e50 183f 7c57 933e 6063 d53e 0c64 cf3e
00000160: 78e7 233f 1c76 313f 3a84 fc3e bcfd a93e
00000170: db4f 5a3e a790 a93e 25ab e13e 01e2 3b3f
0.5801113 0.34773558 0.29039863 0.32266074 0.3864192 0.28363863 0.3303473 0.39304557
0.57238877 0.20429084 0.37578046 0.4655017 0.2886768 0.5107886 0.47150815 0.30787003
0.2959255 0.2708203 0.5768744 0.370266 0.5140641 0.34630507 0.38281843 0.3339252
0.34924364 0.50274694 0.4097293 0.45765907 0.37755993 0.44441533 0.56964284 0.48157367
0.55274445 0.5130163 0.33744064 0.2243363 0.6114602 0.3021528 0.5361151 0.7122618
0.15258461 0.46900803 0.3887456 0.3676521 0.36973014 0.48329023 0.5769496 0.10861692
0.14070588 0.3084694 0.2678589 0.41708672 0.5539819 0.48491114 0.23569863 0.25907245
0.16989511 0.35748756 0.36341307 0.29069516 0.34652832 0.19557236 0.6632098 0.53102475
0.44485664 0.45023015 0.5640465 0.6492792 0.29513308 0.45265278 0.31486252 0.24882405
0.25612262 0.39585963 0.47846287 0.3728322 0.29367417 0.43486175 0.41171464 0.8346484
0.5003848 0.2205213 0.4572067 0.48736125 0.5949763 0.28777683 0.4167738 0.40506017
0.6402507 0.69320846 0.4931963 0.33201396 0.21319525 0.33118173 0.44075885 0.7339173

model.8.weight f4 [37, 96]
00000000: 9fcf 13bc fb54 9c3d f821 25be fa1b 90be
00000010: 23e8 e2be 648b ba3e 27c3 6b3d 57a6 da3b
00000020: dc7f d23d 5ca6 1d3e 5a8f 053e 2992 57be
00000030: 2884 e8be d583 acbe 2fea b6be c860 a23d
00000040: 6b0d b33d 62b7 853d cc59 133e cb91 3abe
00000050: 2be0 8abe dc25 063e 7b92 38be 5130 2e3c
00000060: 09c6 a13c e3c7 22be fbad 423e 03df 0a3e
00000070: dc62 693e 80e0 f73d e9ae c03d b3be 203e
00000080: 8580 5f3c 41d3 1abe dc2c 203e 292d fabe
00000090: a442 543d b958 5b3d 9543 13be dcfa d73d
000000a0: d59c 0fbe 347c 503d ff16 f8be 41da 7cb9
000000b0: 1b68 953e 8b3d 96bd d9a7 753e a5b9 e7be
000000c0: 5cd9 84bd d045 5ebe 2c1b 9b3e 5c87 52be
000000d0: 3f79 38be bd78 ccbe 16dd e23d e500 4d3d
000000e0: 5946 2fbe 7e31 c93d 2711 0abe 072d abbb
000000f0: b152 c3bd 23ea 0b3c c521 e0be b1af a53d
00000100: 256a 8f3d 4d6a 953d a0f0 1abe 0596 5b3e
00000110: b4bf ebbe 640b f63d 7182 eb3d 0400 16bd
00000120: 55fd 99be 3765 fa3d f76a 9dbe d34d 0c3e
00000130: 0e0a 85be e85a f63c d0f4 2dbe 5704 163e
00000140: b1ae 0dbe b176 d0bd 071b 1f3d 3f08 033e
00000150: ad41 f13d d357 8b3e ecf1 c53d e920 5fbe
00000160: e3c3 2d3d 25f4 a6be f727 833e 541c 693e
00000170: 64d7 5c3e 2c14 e83d 6b58 a43b 5e00 93be
00000180: 088a b63d 0c08 e73d cea8 89be 00e7 96be
00000190: 1681 c8be 9caa 163e 166e bdbd 02ed 263c
000001a0: 38b3 6abd 82ef be3e 522e 893d 96ba 9ebe
000001b0: ead9 c7be a6cf 9cbe e9d1 b2be 69e4 423e
000001c0: ec29 a7bd d79f 163c 4e79 de3d 8d95 86bd
000001d0: 9e6e b9be 43b7 52bd c1fa 3cbe 5dd6 22be
000001e0: e7e0 ac3d 9426 89be d1cc b33d 1fa9 733d
000001f0: d3b7 583d 22e8 cc3d 11f4 5e3d 8490 643d
00000200: e198 dbbe 3698 f0bd ae57 7a3e 7815 aebe
00000210: ec30 c03d 0900 7c3d 24da 8fbe aa43 ad3c
00000220: 910b 2d3e 088a d53d 767a 96be 87f5 44bd
00000230: 3730 a43d cd10 6dbe b902 e53c 8052 a4be
00000240: 279f b6bd ded2 26be 7a01 3b3e 6e27 5cbe
00000250: 7e5d f1be 3953 13bf 1847 b03c c2a1 083e
00000260: 76e6 61bd 583d 64be 31b4 3f3e a21c d63d
00000270: 9dc1 23be 3139 823c 8fb8 14bf f902 703c
00000280: d134 17be 3383 46bd 162b aabe de24 6bbc
00000290: bdc4 babd a8e9 27bd 3fdc 67bd 71a2 b83d
000002a0: ce2d 063c f8b7 303e 86b3 a6be 9ef4 563d
000002b0: 96cf d9bc 3504 243e 8d0b 98bd e7ef a8bd
000002c0: 0a95 f4bd 873a 81be 003c 8ebd a085 e83c
000002d0: 2e8c 553d fc63 923e 06aa 3e3c 1afa 053e
000002e0: 8011 563e 5c43 dbbe ab6a 393e 68c0 3abe
000002f0: 8264 b93c 07d2 3c3d 5bf0 38be 2573 e3be
00000300: eea0 ed3d 2ac6 873d 3001 5b3e 7fe8 8bbd
00000310: 689b 83bd 7702 733d a6b9 ce3d e387 77bb
00000320: a91c a3bb 7481 373e 3cc4 9b3d d638 3e3c
00000330: 30ca 213c ba0f 34be c50a 02be d851 e4bd
00000340: 6778 de3d 2f4c cdbe 4fb4 32be 1e43 74bd
00000350: de4c 69be 6415 073e da4f 663d 2ba0 b6be
00000360: 19df f3be 23f7 f8bc 3696 f5be ce95 4a3d
00000370: e701 593d dc2e 5fbe 9b20 cb3d 782c 2fbd
00000380: e7d9 63be 8aaf 143e 4acf bcbe 15f8 cabd
00000390: d85d 91bd cc3a 80bc d39d e4be 7880 bbbd
000003a0: fb71 88bd 91f0 663d 8e6a c5bc 0f44 8d3d
000003b0: dbd5 1cbd 4e2a 9fbe d71b b23d 5aa0 893e
000003c0: 76fc f8be 8070 5e3d 2dda 8f3c 7fb1 81be
000003d0: bd33 69be 1eb2 8cbd d8c3 b5bd c0f3 1bbe
000003e0: 30a0 2dbe 2bde 013c 8cae 67bc 30e6 14bf
000003f0: c0f5 acbe 1d02 08bf 801f a03d be1a 9d3d
-0.009021669 0.07633396 -0.1612624 -0.28146344 -0.4431773 0.36434472 0.05755916 0.0066726613
0.102782935 0.15395492 0.13042966 -0.2105185 -0.45413327 -0.3369433 -0.35725543 0.07928616
0.08742794 0.06529118 0.14389724 -0.18219678 -0.27124152 0.1310038 -0.18024628 0.010631637
0.01974775 -0.15896563 0.19011681 0.13561635 0.22791618 0.12103367 0.094083615 0.15697746
0.013641481 -0.1511965 0.15642112 -0.4886258 0.051821366 0.05355141 -0.14381249 0.105458945
-0.1402467 0.0508997 -0.48455045 -0.00024113899 0.2918099 -0.07335957 0.2398981 -0.45258823
-0.064867705 -0.21706319 0.30294168 -0.20559448 -0.18015002 -0.39935866 0.11077325 0.05004968
-0.17116679 0.09823893 -0.13483106 -0.0052238735 -0.095372565 0.008539709 -0.43775764 0.08090151
0.07002667 0.07295666 -0.15130854 0.21443947 -0.46044695 0.12013891 0.11499489 -0.03662111
-0.3007609 0.122263364 -0.3074567 0.13701563 -0.25984234 0.030072644 -0.1698792 0.14650093
-0.1383617 -0.101788886 0.038844135 0.12796114 0.11780105 0.27215442 0.096652836 -0.21789898
0.04242314 -0.32608142 0.25616428 0.22764713 0.2156654 0.113319725 0.005015423 -0.28711218
0.08913046 0.11280832 -0.268866 -0.29473114 -0.39160985 0.1471352 -0.09249513 0.010188343
-0.057299823 0.37292105 0.06698288 -0.3100173 -0.39033443 -0.30627173 -0.34925774 0.19032444
-0.08162293 0.009193382 0.10862981 -0.06571493 -0.36217207 -0.051444303 -0.1845503 -0.15902086
0.08441334 -0.26787245 0.087793 0.05948746 0.052909683 0.10005213 0.05443198 0.055801883
-0.42890075 -0.11747782 0.2444751 -0.34000754 0.09384331 0.06152347 -0.28096116 0.021150429
0.16898943 0.10426718 -0.29390305 -0.048085716 0.08017009 -0.2315094 0.0279554 -0.32094193
-0.08917075 -0.16291377 0.18262282 -0.21499416 -0.4714164 -0.5754886 0.021518275 0.13342956
-0.055151425 -0.22289026 0.18721081 0.1045468 -0.15991826 0.015896412 -0.58094114 0.014649146
-0.14766242 -0.048464965 -0.33235997 -0.014352052 -0.09119556 -0.040994316 -0.056606527 0.09015358
0.008189632 0.17257679 -0.3255884 0.05247938 -0.026588243 0.1601723 -0.07424078 -0.08248883
-0.119424894 -0.25239965 -0.06945038 0.02838403 0.05213564 0.28591907 0.011637216 0.13083687
0.20905113 -0.4282483 0.18107097 -0.1823746 0.022630934 0.046098735 -0.18060438 -0.44423786
0.116029605 0.06629594 0.21387172 -0.068314545 -0.06426126 0.059328523 0.100940034 -0.0037770204
-0.004977782 0.17920476 0.07605788 0.01161023 0.009874865 -0.17584124 -0.12699421 -0.11148423
0.10862809 -0.40097186 -0.17451595 -0.05963432 -0.22783229 0.13191754 0.056228496 -0.35669073
-0.47631148 -0.030391281 -0.47966164 0.04945927 0.05298033 -0.21795219 0.099183284 -0.042767018
-0.22251092 0.14520088 -0.368769 -0.09910599 -0.070979774 -0.015653037 -0.4465166 -0.09155363
-0.06662365 0.056381766 -0.02409866 0.06897747 -0.038289886 -0.31086963 0.08696716 0.2688015
-0.48630112 0.054306507 0.017560089 -0.2533073 -0.22773643 -0.06869911 -0.08875245 -0.15229702
-0.16955638 0.007926504 -0.014140736 -0.5816374 -0.33781242 -0.53128225 0.07818508 0.07671116

model.8.bias f4 [37]
00000000: 2b6d 53bb 9eb0 bfbd b042 d9bd 48b2 d03b
00000010: 7b43 4e3d c239 f6bc 4ce3 13bd 5851 87bb
00000020: 0163 633d ba9c c7b9 02d9 cebb 984c 973d
00000030: e520 543c 8eb4 33bd 0d9d c43c 88c2 ab3d
00000040: c2eb e3bc 7d4e 03bc 5ba7 883d 0620 a03c
00000050: 070c da3d 4c97 1fbd f09c 663d 1222 60ba
00000060: 1bd3 c53c bbc7 bd3d bfb4 c73c 4f6c 8bbd
00000070: 0a06 25bd a9e8 2c3d de3f 31bc 541b 07bc
00000080: aa0b 303d 66c6 faba 602c 06be eaaa 72bc
00000090: d3f9 ce3c
-0.0032261114 -0.09359859 -0.10608423 0.006368909 0.050357323 -0.030056838 -0.03610544 -0.00412957
0.05551434 -0.00038073008 -0.0063124904 0.07387656 0.012947296 -0.043873362 0.024000669 0.08386713
-0.027822379 -0.0080143185 0.066725455 0.01954652 0.10646825 -0.038962647 0.05630201 -0.0008549999
0.024148514 0.09266611 0.024378179 -0.068077676 -0.040288962 0.04221407 -0.01081845 -0.008246262
0.042979874 -0.0019132614 -0.13102865 -0.014811257 0.02526561

model.9.weight f4 [37]
00000000: 7e60 313f 9b39 3d3f cd5e 963f c35b d43e
00000010: a816 eb3e 7d08 4d3f 1b81 dc3e 2725 ca3e
00000020: 016b 633f fb92 d33e 78a5 cc3e 2d7e c93e
00000030: b9fe 2f3f 9817 f03e ef89 473f 21a0 f33e
00000040: 293e 343f 7bfc 053f b008 cb3e 7562 483f
00000050: 91c9 d93e c63f 333f 1ebc 063f d86f dd3e
00000060: 0a1f d83e 2360 d13e 1628 c93e e67e 3a3f
00000070: 6152 a43e d0f8 ca3e ac61 213f 39fd e53e
00000080: e592 403f 5377 2e3f 7445 3f3f 7dd7 d63e
00000090: ee26 e23e
0.6928786 0.73916024 1.1747681 0.4147626 0.45915723 0.8009108 0.4306725 0.3948147
0.8883515 0.41323075 0.39969993 0.39354077 0.6874805 0.46893 0.77944845 0.47583106
0.7040735 0.5233838 0.39655066 0.78275234 0.42536595 0.70019186 0.52630794 0.43249393
0.4221118 0.4089366 0.39288396 0.7284988 0.320941 0.39642954 0.6303966 0.44919756
0.75224143 0.68150824 0.7471535 0.4196128 0.44170326

model.9.bias f4 [37]
00000000: 37b6 c43d 3098 343c 3def 6cbd 4a72 78be
00000010: 8541 35be 0f8d d43d 190e 8fbe 958c 80be
00000020: eb39 3abd 0be6 07bf 697e 11be 6e08 2cbe
00000030: ddee 3c3d 2acf b33d 0bc5 b1bd 99e5 0c3e
00000040: c066 65bd 4edd 2e3e 4dd1 95be e084 b13d
00000050: 1197 48be eb72 a23c c61b 173e 43ad ad3e
00000060: e84b 89be 0d10 bbbe f3ac 84be 80f7 c8bc
00000070: 69d8 8d3e 6814 10be 69d2 17bc caf7 f3bc
00000080: 1e5e 80bd 4798 45be 6de4 56bc 8943 d5bd
00000090: 7447 c5be
0.09605067 0.011022612 -0.057845343 -0.24262348 -0.17700775 0.10378467 -0.27940443 -0.25107256
-0.04546539 -0.5308539 -0.14208378 -0.1680009 0.046126235 0.08779748 -0.08680161 0.1375946
-0.056006193 0.17076609 -0.29261246 0.08667922 -0.19588877 0.019830188 0.14756688 0.3392125
-0.26815724 -0.36535683 -0.259132 -0.02453208 0.2770417 -0.14070284 -0.009266474 -0.029781241
-0.062679514 -0.1929637 -0.013115984 -0.10413272 -0.38531077

model.9.running_mean f4 [37]
00000000: 68ac 423d 164e 7fbe b128 edbe dc07 1cbf
00000010: 34d2 8bbe 6772 783c 3fe2 48bf c55d 23bf
00000020: c945 94be c6cd 55bf 7aa6 52be 28ed 1dbf
00000030: d4a8 a9bd 21de aabe e0ce 72be 4a1d eebd
00000040: 98f4 66be ef94 13be c1b2 d8be f74e 90be
00000050: d247 30be 8cf6 d9bd 8060 1abe fffb e23d
00000060: b803 fcbe e28f f0be f9d3 fcbe f368 33bd
00000070: 52d1 10bd cffb 91be 158a cabd f9d9 0fbe
00000080: 6f43 f7bd 3d95 82be 46fd 96be a347 bbbe
00000090: 5cd9 41bf
0.0475277 -0.24932131 -0.46320108 -0.6094949 -0.2730881 0.015163994 -0.78470224 -0.63814956
-0.28959492 -0.8351711 -0.20571318 -0.61689997 -0.082841545 -0.33372596 -0.23711729 -0.1162668
-0.22554243 -0.14412282 -0.42323878 -0.28185245 -0.17214897 -0.10642728 -0.15075874 0.11083221
-0.49221587 -0.46984774 -0.49380472 -0.04380126 -0.035355873 -0.28512427 -0.09889618 -0.14047994
-0.12073409 -0.25504485 -0.29490107 -0.36578092 -0.7572229

model.9.running_var f4 [37]
00000000: b284 403f 49b1 343f 2731 6f3f 021b e83e
00000010: c3da ca3e a23d 1c3f dbba 023f 44ac b13e
00000020: 9dd3 573f 7eb0 723e 071f 453e 1dd3 ff3e
00000030: dc2a 2e3f 747e 913e 33eb 593f eb6e a93e
00000040: 3453 0c3f 9c6f c03e 4d60 963e 3f32 1d3f
00000050: 360d 433e 476f 133f 6cbf ed3e 1c48 ff3e
00000060: 746a b03e 3871 253e 50e2 7f3e 5abc cd3e
00000070: 67ea 9a3e 422b b53e 0ac7 033f af2a 093f
00000080: 7aaf 5b3f 93b0 8d3e b68d 623f 1c94 e43e
00000090: 2e14 e23e
0.75202477 0.70583016 0.93434376 0.45333105 0.39620027 0.61031544 0.5106637 0.3470174
0.8430727 0.23700139 0.19250117 0.49965754 0.6803415 0.2841679 0.8512451 0.33092436
0.5481446 0.3758515 0.29370347 0.61404794 0.19048008 0.5759167 0.46435106 0.49859703
0.34456217 0.16156471 0.24988675 0.40182763 0.3025696 0.35384566 0.51475585 0.53580755
0.8581463 0.27673778 0.88497484 0.44644248 0.4415602
