foundation_models/Ensemble_model1_DeepSurv_ANN_Event_1_20250804_111238.pt (torch, 85648 bytes, 19 tensors)

model.0.weight f4 [119, 11]
000000 91 d6 20 3e 5d 06 1e 3d 3f 99 88 bc ae 92 b4 bd
       0.1570685 0.038580287 -0.016674636 -0.088170394
000010 54 a9 7c bf 20 ff 8b 3d 2f fb a6 3c 5d 26 5d 3e
       -0.98695874 0.068357706 0.020383446 0.21596666
000020 ba cb 8f 3e be 19 43 be b0 7b 2c 3e d6 75 1d 3e
       0.2808512 -0.19052789 0.16844058 0.15376982
000030 41 6d 2a 3b 0f cf 52 3e 1e 46 f9 3e 5c 77 82 be
       0.0026005062 0.20586799 0.48686308 -0.2548169
000040 fe 88 42 3f 91 2d 7a 3d 8b de 1e bf fe 16 d4 3c
       0.75990283 0.06107861 -0.62058324 0.02588987
000050 50 1b 8c bd b6 3a a6 be d7 41 a1 3d 83 02 dc bd
       -0.06841147 -0.32466668 0.07873886 -0.107426666
000060 f3 36 a4 be 7a a4 15 3f 76 5f 97 bb 23 8e 24 3d
       -0.32073173 0.58454096 -0.004619534 0.040174615
000070 b9 4f 10 bf a8 8c 34 be c4 e2 44 3e f3 ec 44 be
       -0.5637165 -0.17631781 0.19227129 -0.19231014
000080 bc d0 7d be 2d ee 58 be e7 b9 59 3e 1f b8 b1 3d
       -0.24786657 -0.21184607 0.21262322 0.086776964
000090 9f 34 c2 3d 41 55 82 bf cf e4 24 3f 0c 20 81 3e
       0.09482693 -1.0182267 0.64411634 0.25219762
0000a0 91 fe 47 3e 09 0c b4 3c 53 87 95 3d 0c ee da 3d
       0.19530703 0.021978395 0.07301202 0.10689935
0000b0 c1 88 9a be 3f 6a be bd 14 ef d4 3e 18 de 89 be
       -0.3018246 -0.092976086 0.41588652 -0.26927257
0000c0 1f 38 18 bf 96 36 bd 3e f0 c9 3e 3f d5 ca 36 bd
       -0.59460634 0.36955708 0.7452688 -0.04462703
0000d0 7b b2 8a 3d 60 bd b5 bc b1 76 ad 3d e7 cb 1e 3e
       0.06772324 -0.022185028 0.08469904 0.1550747
0000e0 a6 d1 a9 3d 85 54 26 3f 08 fc e3 3d 4b 10 db 3e
       0.082919404 0.64972717 0.111320555 0.42785868
0000f0 76 c1 2e 3f 7e ac 18 bf e7 e3 90 3d 92 52 06 3e
       0.6826395 -0.596382 0.07074719 0.13117436
000100 43 6e a3 bd 73 92 bd 3e f0 10 c7 bc 32 7a f4 ba
       -0.07980015 0.37025794 -0.024300069 -0.001865214
000110 97 ce 1c bf 18 b4 2e be 64 bc 95 3f 4d 27 da 39
       -0.6125273 -0.17060888 1.1698117 0.00041609482
000120 ff 81 e2 bd ce ce 53 3d 01 14 ca be d2 27 a5 3d
       -0.11059951 0.051710896 -0.39468387 0.08064236
000130 7b 60 3e 3e 28 ea 17 bd 0a 37 ff 3d 0a a2 22 be
       0.18591492 -0.037088543 0.1246167 -0.15882125
000140 5b 20 dc 3e b9 1a 83 3e 26 d5 e5 be f4 11 6e bf
       0.42993435 0.25606325 -0.44889182 -0.92996144
000150 ae 29 c1 3d 86 e1 b7 3d fc d9 41 3e 05 23 52 be
       0.09431778 0.08978562 0.1893081 -0.20521171
000160 02 9c b6 3e 32 ee a3 bd 29 98 a3 3e b5 96 87 3e
       0.356659 -0.080044165 0.31952026 0.26482168
000170 50 50 1d 3f b6 0a 3e 3f e2 1d a9 be 6d cc 7f be
       0.6145067 0.74235094 -0.3303061 -0.24980326
000180 eb d6 b1 bc d8 69 bd 3c b0 05 ff 3b a6 ce 73 be
       -0.021708926 0.02312176 0.0077826604 -0.23809299
000190 79 d2 35 3e 68 ce 77 3f fc bd 65 3e 3d 3e 0e 3e
       0.1775607 0.96799326 0.22435755 0.1389093
0001a0 04 a7 c2 be 68 5d 6d be 62 6e 21 bd ed 2e 1a 3e
       -0.38018048 -0.23180163 -0.03941191 0.15056963
0001b0 78 d9 d3 3d 62 f0 a3 be dd 58 ea bd c9 62 5d 3e
       0.10344213 -0.32019335 -0.114427306 0.21619715
0001c0 40 c9 18 3f 21 3b 72 bd ba 71 ac be c8 03 67 be
       0.59682083 -0.05913842 -0.33680516 -0.22560036
0001d0 52 bd a8 3e 1f fe 90 3e 4f d0 47 3f b7 8f 20 3e
       0.3295694 0.2831888 0.7805223 0.15679823
0001e0 5c ad 83 3e 29 08 8a 3d b7 1b ae be 15 ce 90 be
       0.257182 0.06739838 -0.3400552 -0.28282228
0001f0 e6 e6 83 3b 37 e6 01 bf 47 e6 5d bf 7b 61 00 bf
       0.004025328 -0.50741905 -0.866795 -0.50148743
000200 81 22 f5 bd a1 72 6b 3e d9 69 ad bd af 7e 97 3e
       -0.11969472 0.22992946 -0.084674545 0.2958884
000210 76 8e 6e 3e 83 1d 8c be c0 34 5f be de 79 ea 3e
       0.23296532 -0.27366266 -0.21797466 0.45796102
000220 95 b2 95 be 13 56 ec bd 8c 56 08 bf 53 b1 53 3d
       -0.2923781 -0.11539855 -0.5325706 0.05168278
000230 63 e0 2a be 63 aa 36 3e f8 ff 22 3d 82 3f fb bd
       -0.16687159 0.17838435 0.039794892 -0.122679725
000240 fa 09 6a be 20 3f b1 3e 68 a4 28 3f 55 86 ef 3d
       -0.22855368 0.34618473 0.65875864 0.11695544
000250 bb 85 c9 be 32 a7 34 bd ab 7e b1 3e 7c f1 ae bd
       -0.3935984 -0.044104762 0.34666952 -0.08542153
000260 17 01 31 be 12 6b ec be ee ca fc be ef df 92 3e
       -0.17285572 -0.46175438 -0.49373573 0.28686473
000270 48 e8 a2 bd 11 9c a8 3e b1 6a d3 3e 04 61 7a bd
       -0.079544604 0.3293157 0.41292337 -0.061127678
000280 35 63 23 3d 74 8b 43 3d 13 26 c7 bd 1a 8f 06 bd
       0.039889533 0.047740415 -0.09724059 -0.032851316
000290 9c e1 0b 3e d2 89 5a be aa 11 53 3e dc ce a2 3e
       0.13660282 -0.21341637 0.20612207 0.31798446
0002a0 ba c4 c7 bd 5a 49 91 bf 61 45 a7 be ea 9e 8c be
       -0.097543195 -1.135051 -0.3267012 -0.27464992
0002b0 66 02 df 3d 80 49 d2 bd 19 5e 3f be 0a ab fe 3e
       0.10889129 -0.10267925 -0.18688239 0.49739867
0002c0 69 a7 72 3e 31 ee e6 bd e9 60 54 bf c3 b9 48 be
       0.23696674 -0.112759 -0.82960373 -0.19602112
0002d0 34 e9 44 be c1 b3 8e 3e fb 29 79 be ed ac d5 bd
       -0.19229585 0.27871516 -0.2433242 -0.104333736
0002e0 41 68 db 3d 8f 55 73 bd 81 08 d9 be 4f a6 1b be
       0.10713244 -0.059407767 -0.423893 -0.1520016
0002f0 18 81 63 be 5a 82 33 bd 1b 71 63 3e 0c bc 2a bf
       -0.22217214 -0.043825485 0.22211115 -0.66693187
000300 6e 75 41 3f 76 80 a2 3e 08 6f 8c bd 7e 43 31 3e
       0.7556981 0.31738633 -0.06857115 0.17310902
000310 e1 0b 25 bd d9 35 cc bd b7 53 ce 3d 97 49 dd bd
       -0.04029453 -0.09971208 0.10074561 -0.10805052
000320 ae a4 cb be 8f fa f7 bc 92 c8 34 3f 45 22 5b 3f
       -0.39774078 -0.030270843 0.70618546 0.85599166
000330 dd c2 d5 be 54 ab c5 3c 8e 30 9a be 56 ce 34 be
       -0.4175023 0.024129547 -0.3011517 -0.17656836
000340 55 72 53 3e 2e 89 36 3e b4 93 af be e5 41 b7 be
       0.20649083 0.17825767 -0.34292376 -0.3579246
000350 21 50 a3 bd 97 3f 52 3d 2b 3b 5a bf 84 b6 df 3e
       -0.07974268 0.051330175 -0.85246533 0.43693936
000360 f8 46 2c 3c c8 16 b8 bb d1 ae 80 3e 91 37 21 be
       0.010514967 -0.00561795 0.25133374 -0.15743853
000370 00 bc bd 3e 82 d9 1c be 9c d1 e7 3d 10 97 8b be
       0.37057495 -0.15317348 0.11319277 -0.2726369
000380 21 71 88 be 88 eb 5b bf 64 ae a7 3e 28 b1 44 3c
       -0.2664881 -0.8590627 0.32750237 0.012005128
000390 88 ec 61 3c 74 36 46 3e 3d 16 41 3e 40 fa 37 3e
       0.013789304 0.1935671 0.1885614 0.17966557
0003a0 06 2d 62 be fc 86 11 bf 12 cf ab be c1 6a 19 3e
       -0.22087488 -0.56846595 -0.3355642 0.1498213
0003b0 b0 89 b3 3e f7 8f 9c 3f b7 2b 02 bd 86 0e b2 3d
       0.35065985 1.2231435 -0.03177997 0.086941764
0003c0 e3 3d 5d 3d fd 38 27 be 9c a6 43 3d a1 06 77 3e
       0.054014098 -0.16330333 0.047766313 0.24123622
0003d0 dd fe 38 bf d5 7e d7 bd b1 2e 09 bf 5b c2 89 be
       -0.7226389 -0.10522238 -0.5358687 -0.26906094
0003e0 55 b1 a9 3e a5 dd 7d be 02 7c a3 3d 84 e2 ce 3c
       0.33143106 -0.24791582 0.07982637 0.025254495
0003f0 b8 2c 42 3e fc 75 a1 3d ea ac 92 be 00 aa e2 be
       0.18962371 0.07883832 -0.28647548 -0.44270325

model.0.bias f4 [119]
000000 49 ad 85 3d 1d ec d8 bd 29 f5 b2 3e 45 25 e4 be
       0.06527192 -0.1059191 0.34952667 -0.44559684
000010 b1 d3 30 3e 82 03 8f be b1 60 91 3c b5 6c 02 3e
       0.17268254 -0.27932364 0.017746301 0.12736781
000020 7c 53 98 be 96 c8 50 be a7 e6 03 bf cc 37 ab 3e
       -0.29751194 -0.20389017 -0.5152382 0.33441007
000030 4f 26 27 be 58 58 33 be 80 a2 28 bc b2 43 ac bd
       -0.16323207 -0.17514169 -0.010292649 -0.08411349
000040 1f 9d 0b 3e 2d df ad 3e 98 76 05 bd 7e 97 c5 3e
       0.13634156 0.33959332 -0.032583803 0.38592142
000050 19 10 9f 3d ff 7d 5b be 47 69 8b be 0e 2e b7 3e
       0.07766742 -0.21434782 -0.27228758 0.35777324
000060 d9 c2 03 be 76 b3 5f 3e eb 02 bd bd 4c 3b 95 bd
       -0.12867297 0.21845803 -0.09229072 -0.072867006
000070 30 a1 4a be 27 a9 04 3f 01 b2 ad 3e 29 4a a9 3d
       -0.1978805 0.51820606 0.3392487 0.08266098
000080 bb d6 0a be 38 49 ac 3e fb 85 c9 bd 5f 53 f0 be
       -0.13558476 0.3364961 -0.09840008 -0.46938607
000090 c6 f5 a8 be 83 c3 a8 be 45 d5 83 be a6 34 ba 3e
       -0.3300001 -0.32961664 -0.2574865 0.36368293
0000a0 c9 9d e7 3d 20 82 1c 3d cb f0 ac bd 7e 4e 04 be
       0.11309392 0.038210034 -0.08444365 -0.12920567
0000b0 23 6c a3 bc c3 c5 33 bf fb 8d 09 3e 59 7c 01 bf
       -0.019949025 -0.70223635 0.13433068 -0.50580364
0000c0 a1 93 bf 3e 33 80 2d 3a 8f 52 9e bd e2 a4 c6 bb
       0.3741732 0.00066185294 -0.077305906 -0.006062136
0000d0 c6 c8 7d bc bb 93 49 3d 6d cc 02 bc 6b c8 00 bf
       -0.015489763 0.049213152 -0.007983309 -0.50305814
0000e0 45 63 a2 3e c6 a6 85 be 94 04 c7 3e 5e 97 82 3e
       0.31716362 -0.261038 0.3887068 0.2550611
0000f0 c0 27 8c 3e b4 fd 8f be c5 d6 3a be 62 54 f7 be
       0.27374077 -0.28123248 -0.1824599 -0.48306566
000100 14 7b 34 3e ce 66 d6 3e e0 91 e5 3d 5e b9 04 3d
       0.17625076 0.4187531 0.11209464 0.032403342
000110 23 9e 28 be a9 5f 78 be 15 f9 b2 be 9c 07 ee bd
       -0.16466574 -0.24255241 -0.3495566 -0.11622545
000120 95 0c d0 3d 44 eb fb 3e 5b 4a 77 bd f3 8a 81 bd
       0.1015865 0.4920293 -0.060373645 -0.063253306
000130 24 18 a0 3e 8d 6a 1d bd e4 90 2b ba 8c 9f 3c be
       0.31268418 -0.038431693 -0.0006544723 -0.18420237
000140 e7 67 11 3d 39 ad 35 3f 2f 85 17 be fe 2f ca be
       0.03549948 0.7096744 -0.147969 -0.3948974
000150 94 c1 21 be 55 5f 06 3f 0f 11 58 bf 83 38 93 3e
       -0.157965 0.52489215 -0.8440103 0.28754053
000160 3b bb 8c bc 91 35 a2 be d9 dc fd 3d a6 ae 89 be
       -0.017179122 -0.31681493 0.12395639 -0.2689106
000170 3b ac a2 bc d0 76 89 3d 93 6e 8f 3e a4 07 84 bd
       -0.019857517 0.06712115 0.2801405 -0.0644677
000180 00 ab 58 3e a5 6b ea bd 6b d5 e2 bd cf 7f f2 bd
       0.21158981 -0.11446313 -0.110758625 -0.11840784
000190 3b 1f a6 be 76 60 a6 3e 76 6f 9f bd 5a fe 70 3e
       -0.32445702 0.3249547 -0.07784931 0.23534527
0001a0 59 19 57 bc ef 40 4b 3d 9e bb 97 3d 54 32 92 3d
       -0.013128602 0.049622472 0.07408832 0.071385056
0001b0 59 7a bb be 44 3a b1 be 87 8e 9a 3e 3c b0 d4 be
       -0.3661678 -0.34614766 0.30186865 -0.41540706
0001c0 10 0b f5 be 84 1f fc 3b 6f 81 d6 3e 9e de 69 3e
       -0.47860003 0.0076941866 0.41895625 0.22838828
0001d0 31 8e ff 3e ae d2 c8 3d 4b c8 63 bd
       0.4991317 0.09805809 -0.055610936

model.1.weight f4 [119]
000000 b8 f6 35 3f f4 22 92 3f c4 68 6b 3f 5f 40 48 3f
       0.7107959 1.1416917 0.91956735 0.7822322
000010 ac 2f 97 3f 6f fa 3b 3f 29 fe b0 3f c4 5a fe 3e
       1.1811423 0.73429006 1.3827564 0.49678624
000020 1d d0 75 3f 5c df 65 3f c5 55 39 3f 2b 58 69 3f
       0.9602068 0.89793944 0.723965 0.9115016
000030 8d c1 5b 3f 72 ab 41 3f 19 f7 51 3f 94 93 33 3f
       0.8584221 0.7565223 0.82017666 0.7014706
000040 99 57 65 3f cd 35 73 3f 1b de 8c 3f a1 be 0e 3f
       0.8958679 0.9500397 1.1005281 0.55759627
000050 e4 0d 81 3f a9 7d 8a 3f 7d cf 3f 3f 8f 67 5d 3f
       1.0082364 1.0819598 0.74925977 0.8648614
000060 c8 98 2a 3f a5 c5 15 3f a8 9d 97 3f 65 f2 56 3f
       0.66639376 0.58504707 1.1844988 0.83963615
000070 05 03 99 3f 81 f3 89 3f 49 b9 69 3f 84 62 a1 3f
       1.1954046 1.0777436 0.9129835 1.260819
000080 90 f6 78 3f c1 4c 95 3f a0 42 49 3f 4a 88 7e 3f
       0.97251225 1.1664048 0.78617287 0.9942671
000090 3e 3d 84 3f 57 4a 2b 3f 07 b8 32 3f 4a e3 b5 3f
       1.033119 0.6691031 0.69812053 1.4209988
0000a0 dd 82 a6 3f 1b c0 5a 3f 15 99 42 3f da c6 64 3f
       1.3008686 0.8544938 0.76014835 0.89365923
0000b0 e0 04 17 3f 5e a4 28 3f 7a e1 7a 3f fe db 49 3f
       0.58991814 0.65875804 0.980003 0.78851306
0000c0 81 6f a3 3f d7 8e 80 3f 87 82 33 3f 87 f8 8b 3f
       1.2768403 1.0043591 0.70121044 1.093522
0000d0 2c 6e 6e 3f b9 44 56 3f 36 8c 49 3f f6 42 97 3f
       0.9313686 0.8369861 0.7872957 1.181731
0000e0 eb 2a 86 3f 37 37 40 3f e3 83 60 3f b4 0e 4c 3f
       1.0481848 0.7508425 0.87701243 0.79709935
0000f0 03 b5 24 3f 8d 3c 09 3f 98 54 99 3f db 99 7d 3f
       0.643387 0.5360802 1.1978941 0.9906289
000100 72 30 94 3f ff 19 b6 3f ee 11 a0 3f 1c 0c 7d 3f
       1.1577284 1.4226683 1.2505472 0.988466
000110 71 27 6f 3f b6 22 69 3f e0 4f 82 3f d7 73 57 3f
       0.9341956 0.9106859 1.0180626 0.8416113
000120 98 05 5e 3f 13 c0 52 3f 18 2d 86 3f 7d 93 f3 3e
       0.86727285 0.8232433 1.0482512 0.47573462
000130 03 48 44 3f 51 8e 67 3f 5a ec 3e 3f 94 20 4f 3f
       0.7667238 0.9045153 0.74579394 0.80909085
000140 85 64 84 3f ec 01 54 3f 61 ec 23 3f 00 5a 27 3f
       1.0343176 0.8281543 0.6403256 0.65371704
000150 46 59 1c 3f 56 e6 43 3f 11 2e 3c 3f ec 05 4a 3f
       0.6107372 0.7652334 0.7350779 0.78915286
000160 50 46 8b 3f 9c cc 89 3f 4d 62 55 3f a7 19 0f 3f
       1.0880833 1.0765567 0.8335312 0.5589852
000170 0d b8 5c 3f 3d 06 3a 3f 6b 68 a8 3f 09 64 a9 3f
       0.8621834 0.7266577 1.3156866 1.3233653
000180 dc 49 b8 3f 22 01 6e 3f d6 c2 ab 3f c1 68 49 3f
       1.439754 0.9297048 1.3418834 0.78675467
000190 c5 eb 8a 3f ad 1e 6b 3f 95 db 5d 3f 51 e1 34 3f
       1.0853201 0.9184368 0.8666318 0.70656306
0001a0 ec e1 73 3f 61 7f 84 3f f7 64 98 3f 49 9d b2 3f
       0.95266604 1.0351373 1.1905812 1.395425
0001b0 5e 31 37 3f 88 e5 db 3e cd 66 62 3f a8 e0 a1 3f
       0.71559703 0.42948556 0.8843811 1.2646685
0001c0 8b 85 69 3f 66 22 43 3f 9b dc 77 3f fc 17 8d 3f
       0.91219395 0.7622436 0.9682099 1.1022944
0001d0 90 55 b4 3f e7 35 34 3f c1 aa 9c 3f
       1.4088612 0.7039475 1.223961

model.1.bias f4 [119]
000000 96 94 0f bf 44 56 da be a3 8e 10 bf fc ec 19 bf
       -0.560861 -0.4264394 -0.56467646 -0.60127234
000010 ce 32 64 bf ce 00 94 be 09 ae 02 bf 58 ea 09 be
       -0.8914002 -0.28906864 -0.51046807 -0.13468301
000020 e1 4b 93 bd 5e 9e ac be b8 68 0f bf 65 11 3e bf
       -0.07192207 -0.33714575 -0.56019163 -0.7424529
000030 3c f6 21 bf d3 29 95 be b6 49 c0 be ed 81 0b bf
       -0.6326635 -0.29133472 -0.37556237 -0.54495126
000040 e4 73 d4 be 93 7e 0a bf 4d ef a5 be b8 32 ea 3c
       -0.41494668 -0.54099387 -0.32409135 0.028588638
000050 5e 69 39 bf 4d e5 cd bd 53 b8 35 bf 4d cc 26 be
       -0.724264 -0.10053501 -0.7098438 -0.16288872
000060 46 c3 19 bf 76 6d c8 bc ad 48 7c be 49 73 40 be
       -0.6006359 -0.024466258 -0.24637099 -0.18793978
000070 45 c1 3e be df fe 1f bf 1e 38 98 be 93 5f d7 be
       -0.18628414 -0.6249828 -0.29730314 -0.42065105
000080 a3 a9 83 be 81 34 1d bf 2d be 8c be d7 2e bc be
       -0.2571536 -0.6140824 -0.27488843 -0.36754486
000090 60 98 c7 be 96 76 02 bf 41 38 0b bf 8c c0 8d be
       -0.3898344 -0.509622 -0.5438271 -0.27685964
0000a0 6c 78 92 be 20 3a 15 bf 17 44 f5 be 92 77 5a be
       -0.286075 -0.58291817 -0.4790351 -0.21334675
0000b0 2d 98 c5 bd aa 75 d2 be 0b de a8 be a7 ad f4 be
       -0.09648166 -0.41105396 -0.32981905 -0.47788736
0000c0 d4 8b 1b bf d7 6a e6 be b1 7f 10 bf c0 d6 06 be
       -0.60760236 -0.45003387 -0.5644484 -0.13167858
0000d0 f0 b7 ed bd 98 3b 1a bf 0e 31 84 be a5 93 c8 bc
       -0.11607349 -0.6024718 -0.25818676 -0.024484465
0000e0 ee f9 1d bf 1d ab c2 be b6 ec 46 bf 6e 8d ea be
       -0.6170949 -0.38021174 -0.7770494 -0.45811027
0000f0 fa a0 ed be 09 7a b9 bd 60 35 c9 be 71 c9 12 bf
       -0.46411878 -0.090564795 -0.39298534 -0.57338625
000100 02 27 c2 be ab b6 4a bf 93 79 c7 be d1 6f 7c be
       -0.37920386 -0.7918498 -0.3895994 -0.2465203
000110 f0 7a c2 3b fd 6c 5b be dc 68 b8 be 41 23 12 bf
       0.0059350654 -0.21428294 -0.360175 -0.57085043
000120 eb a5 13 bf e1 b0 08 bf b8 2f d3 be ac c7 d4 bd
       -0.57675046 -0.53394896 -0.41247344 -0.10389647
000130 89 d3 de be 39 4a 8e be 77 8d 40 bd 6e 3f 86 bd
       -0.43520764 -0.27791002 -0.04700991 -0.06555067
000140 b8 39 e3 be 4e 09 4a bf 36 1e 6d be ee ec 9e be
       -0.44379973 -0.7892045 -0.23156056 -0.31040138
000150 59 76 a2 be 33 af b4 be e1 54 2a bf df 68 34 bf
       -0.31730917 -0.35289916 -0.66535765 -0.7047252
000160 fa 8b 32 bf cb 6a 2a bf 6e 1e 19 bf 4d 97 a2 be
       -0.6974484 -0.66569203 -0.59812057 -0.31756058
000170 4e 17 36 bf bf 65 e3 be 62 5d b3 be 85 78 03 be
       -0.7112931 -0.44413564 -0.35032183 -0.12838943
000180 8c 6f 94 be 0b 64 2f bf 51 a3 56 bf d3 27 ce be
       -0.28991354 -0.6851203 -0.8384295 -0.40264758
000190 37 06 3e bf c0 8d 8d be 73 82 a6 be c9 41 e9 be
       -0.74228233 -0.2764721 -0.325214 -0.45558003
0001a0 73 f6 7e bf f0 fa 2a bf f8 16 37 be d5 0c cc be
       -0.995948 -0.6678915 -0.17879856 -0.3985354
0001b0 a2 8e e0 be 61 80 28 bd a4 04 05 bf ba 13 91 be
       -0.4385882 -0.041138057 -0.51960206 -0.28335363
0001c0 7a ac 2e bf 6d c7 87 be 03 74 d8 be be c4 89 be
       -0.6823193 -0.26519337 -0.4227601 -0.26907915
0001d0 f2 9d 7b be 10 5e 25 bf bd 96 b7 bd
       -0.2457197 -0.64596653 -0.08964298

model.1.running_mean f4 [119]
000000 98 5b 92 3f a1 34 29 c0 8f f2 4b c0 a7 d6 0f 40
       1.1434202 -2.6438372 -3.1866796 2.2474763
000010 3f 53 08 40 44 6a 06 bf 47 a5 74 bd 2b d4 09 c0
       2.130081 -0.525059 -0.059727933 -2.1535747
000020 a9 74 05 c0 f0 7d 03 3d 5f 22 82 40 63 81 8a c0
       -2.0852454 0.032102525 4.0666957 -4.3282943
000030 c6 2b 5b c0 53 90 18 bd ec 6f d6 3f a5 17 bb be
       -3.4245467 -0.037247013 1.6752906 -0.36541477
000040 e0 8a 0c c0 d6 81 d1 3c cf ad d4 bf 66 00 02 bd
       -2.1959763 0.025574606 -1.6615542 -0.03173866
000050 d0 4b e1 3e 00 b9 46 40 cc d9 99 3e 7d 52 fc 3f
       0.44003153 3.1050415 0.30048978 1.9712673
000060 30 90 de bd 92 a1 b5 3f 93 1a 94 bf b0 2a 03 c0
       -0.10867345 1.4189932 -1.157061 -2.0494804
000070 a1 3a 8e c0 99 f1 cd 3f c7 e4 43 3f 93 08 bd 3f
       -4.444657 1.6089355 0.7652096 1.4768242
000080 1f 5c 7c 40 8c ad 85 3f 0d f0 9b c0 d0 37 8f c0
       3.9431226 1.0443587 -4.873053 -4.475563
000090 17 ae 52 c0 c7 1c cb 3e 96 8e 3a 40 b4 6b 9f c0
       -3.2918756 0.39670393 2.9149528 -4.9818974
0000a0 46 b5 1b 3f 05 66 25 3e ed fd 44 40 c0 6c 9b c0
       0.60823476 0.16152199 3.0779984 -4.857025
0000b0 ad fd 84 40 ef 40 a4 3f fe 47 6f bf 05 8f 29 40
       4.1559663 1.2832316 -0.93469226 2.6493542
0000c0 5b 79 84 bf a0 34 40 c0 27 36 5d c0 7f f5 1a 40
       -1.0349535 -3.003212 -3.4564302 2.421234
0000d0 a7 55 f7 bf a9 b2 71 3f 20 65 cb 3e bc a1 18 c0
       -1.9323014 0.9441324 0.3972559 -2.3848715
0000e0 c4 23 4d 3e d8 d1 6f 3f 3e 2c fc be 26 7f 26 bf
       0.20033175 0.9367957 -0.49252504 -0.65037763
0000f0 af fa d0 3e a6 2b 8a be f7 74 19 c0 0e 8b 63 c0
       0.40816256 -0.26986426 -2.397764 -3.5553622
000100 1a 43 e7 bf e6 42 52 c0 58 17 d8 c0 74 a8 d3 3f
       -1.8067353 -3.2853332 -6.7528496 1.6535783
000110 b8 00 44 c0 97 eb 23 40 93 12 b2 40 29 2f 67 40
       -3.0625439 2.5612543 5.5647674 3.6122534
000120 e2 8c 0a 40 3d fd 79 bf 68 1a 8a 40 80 0d 11 40
       2.1648488 -0.97652036 4.3157234 2.266449
000130 fb 5e 82 40 a4 9c bc bf 15 17 37 3f 3f d9 5d 40
       4.0740943 -1.4735303 0.71519595 3.4663846
000140 44 b7 ac be f3 0a 2c 3b a5 5c 45 be be 98 03 40
       -0.3373357 0.0026251643 -0.19273622 2.0561976
000150 ba d6 11 40 0c e0 96 40 12 8f 93 3f 2e ac 6e 3e
       2.2787309 4.7148495 1.1528037 0.23307869
000160 2e 6a 1c c0 63 f3 44 3f 5a ac 5c be eb 0c 82 3f
       -2.4439807 0.7693388 -0.21550122 1.0160192
000170 b8 1a 35 3f b1 9b 31 c0 62 53 84 bf 06 ee 4f be
       0.70743895 -2.7751276 -1.0337946 -0.20305642
000180 b9 c5 ce 3f 17 ff 45 c0 90 e6 5b c0 52 60 9c bf
       1.615409 -3.0936944 -3.4359474 -1.2216895
000190 9e 0e 28 bf 04 2f 12 40 2b 8d cb 3f 4e b4 46 c0
       -0.65647304 2.2841196 1.5902456 -3.104755
0001a0 77 46 ca bf 12 c9 e4 bf 45 73 c9 bf 0e aa 44 40
       -1.5802754 -1.7873862 -1.5738302 3.0728793
0001b0 9b 3a 13 40 6a cc 4d 40 b5 84 b6 be 4a 54 4d bf
       2.300452 3.2156014 -0.35648122 -0.8020674
0001c0 0d d1 81 3f 60 b1 a2 bf 41 78 9b be fd 59 b5 bf
       1.0141922 -1.271038 -0.30365184 -1.4168087
0001d0 0d fa 86 3f dc d3 96 3e 3c c7 e0 3e
       1.054506 0.2945851 0.43902004

model.1.running_var f4 [119]
000000 47 b3 64 3d 5b 78 b8 3d ca a8 03 3d 12 9b 94 3d
       0.055835035 0.09007331 0.03214339 0.0725614
000010 81 4e 7c 3d ee 2d 0c 3d a6 d6 26 3d de ed a0 3d
       0.061598305 0.03422349 0.04073205 0.078578696
000020 19 0d 81 3d 83 16 df 3c b1 0c 6f 3d e6 11 26 3d
       0.06301326 0.027232414 0.058361713 0.040544413
000030 50 77 dc 3c 8b 4f 86 3d 7c c7 d2 3d ac b1 a9 3d
       0.026912361 0.0655814 0.10291955 0.08285841
000040 e1 5b 0b 3d c0 ed 24 3d 6a 64 fc 3c da 9c 5f 3d
       0.03402317 0.0402658 0.0308096 0.054592945
000050 b8 3c 74 3d 8c 40 94 3d fd c2 00 3d 6d 1e 0b 3d
       0.05962822 0.07238874 0.031435955 0.033964563
000060 61 f1 12 3d 99 37 48 3d 3d 7c da 3d b2 9f 24 3d
       0.035874728 0.048881147 0.10668228 0.04019136
000070 a0 cf d5 3d 15 f1 45 3d ae ef 78 3d 29 d6 17 3d
       0.10439992 0.048325617 0.06077545 0.037069473
000080 28 97 ec 3c 7c 58 72 3d 81 5f 46 3d 56 db 96 3d
       0.02888067 0.059166417 0.048430923 0.07366054
000090 bd c5 1f 3d fb 10 47 3d 99 7c 21 3e 06 aa 09 3e
       0.039006937 0.04860018 0.15770186 0.13443765
0000a0 e3 4c 8c 3d fb c7 05 3d 8e fe e1 3d 4b c9 88 3d
       0.068506025 0.03266142 0.110348806 0.066790186
0000b0 eb b7 2d 3d ac 0a b0 3d e7 74 31 3d 26 eb c6 3d
       0.042411726 0.085957855 0.043324377 0.0971282
0000c0 d3 28 7c 3d 1a 8d a2 3d 8a 24 0c 3d 3f ab f4 3c
       0.06156237 0.07937069 0.034214534 0.029866813
0000d0 8b c9 68 3c c9 6f e5 3c 08 03 ec 3c 90 aa e6 3d
       0.014208208 0.028007405 0.02881004 0.11263001
0000e0 f3 e2 3e 3d 7b 15 4e 3d ac b7 04 3d 5b cd 20 3d
       0.046603154 0.050313454 0.032401726 0.039258342
0000f0 d3 f1 39 3d 81 77 72 3d d3 ca cb 3d e9 f6 53 3d
       0.045396637 0.059196 0.09950795 0.051749144
000100 96 ed ff 3d 90 66 a6 3d 9f 86 34 3e d7 5a b4 3c
       0.12496488 0.08125031 0.17629479 0.022015972
000110 a9 ca 1f 3d bf ca 7c 3d e1 af 30 3d 55 45 4b 3d
       0.03901163 0.06171679 0.04313648 0.049626667
000120 27 be bc 3d 5a 1f 62 3c 84 09 2c 3d 55 4d fd 3d
       0.09215956 0.01380142 0.042001262 0.123682655
000130 74 fc 82 3d e4 33 b8 3d f5 3d 34 3d 3d 2f 18 3d
       0.06395808 0.08994272 0.0440044 0.037154425
000140 cc 03 01 3d 41 60 15 3d 30 fe 91 3d b0 4c fb 3d
       0.03149776 0.036468748 0.071285605 0.12270486
000150 0a 82 e3 3c c5 06 62 3d 4c 89 83 3d f7 9a 40 3d
       0.027771968 0.055182237 0.06422672 0.047022786
000160 aa 0d 92 3d 45 e2 fc 3c 8c 4b bd 3c 68 d6 31 3e
       0.071315125 0.030869612 0.023107313 0.17366946
000170 2a 78 0b 3d a4 d7 03 3d f8 df 6b 3d 03 1d 81 3d
       0.034050144 0.032188073 0.05758664 0.06304362
000180 f5 24 de 3c 4e 2e 1c 3d 61 ce 86 3d 72 86 fd 3c
       0.027117232 0.038130097 0.065823324 0.030947898
000190 65 58 90 3d a7 e3 d9 3c bf ba 2f 3d d1 8f 04 3d
       0.0704811 0.02659781 0.042902704 0.032363717
0001a0 34 bf 07 3d 78 2d c3 3d a6 20 fc 3c cc 69 bb 3d
       0.03314133 0.09530157 0.030777287 0.091510385
0001b0 c6 42 01 3e d5 f7 33 3d ef 68 e4 3c 6d f8 39 3d
       0.12623128 0.043937523 0.027882067 0.045402933
0001c0 14 08 ea 3c 7d 57 66 3d b6 88 e3 3c 47 40 dc 3c
       0.028568305 0.05623578 0.02777515 0.026886119
0001d0 24 19 80 3d c7 ca 81 3d 67 88 48 3d
       0.06254795 0.06337505 0.04895821

model.4.weight f4 [124, 119]
000000 8e 10 4e 3c cb fe 9b bd 7b 47 9b 3e 62 52 11 3e
       0.012577189 -0.07616957 0.30327973 0.14191583
000010 f4 2a 8b 3e 20 5c 3d be 4b 92 ed 3e d0 34 86 bd
       0.27181208 -0.18492174 0.46400675 -0.06553042
000020 8f 2b 45 be cb 0c 98 3d b4 94 16 3e c4 0f 2f 3c
       -0.19254898 0.07424315 0.14705163 0.010684911
000030 5c bf db 3c d2 70 69 3d 37 b3 87 3d 95 51 0a be
       0.026824646 0.05699236 0.066259794 -0.13507684
000040 5f 9a b2 3b 7d b7 6b 3e 1e 48 23 be 06 60 cc bb
       0.0054505314 0.23019214 -0.1594548 -0.006237033
000050 11 f9 0e 3e 9c 9e d0 bc 21 e5 24 3e 0a c5 25 bf
       0.13962199 -0.025466256 0.1610303 -0.6475378
000060 14 d0 f1 3c 98 00 02 bd 3b 36 a8 3e c9 cd 13 3f
       0.029518165 -0.031738847 0.32853875 0.5773588
000070 b8 98 e1 3e b9 0c 59 bd 9c d1 2d 3d f1 32 05 3e
       0.44061828 -0.05299065 0.042436227 0.13007714
000080 97 83 83 3e e9 0a f8 ba 97 5c dd bd d4 69 45 be
       0.25686333 -0.001892415 -0.10808676 -0.19278651
000090 14 5a 82 3c 67 a3 d6 bc a9 68 08 3e 99 d7 9a 3e
       0.015912093 -0.026200963 0.13321175 0.30242613
0000a0 27 74 81 3d cc 69 66 bd b0 09 5f bd fc 8a 27 bf
       0.063209824 -0.05625324 -0.054452598 -0.6544645
0000b0 89 27 22 be 2e 22 19 be 7b 5e 8f 3e 02 a5 88 be
       -0.15835394 -0.14954445 0.2800177 -0.2668839
0000c0 87 fc 96 be 9a e7 94 be c4 8f c6 3e 1b 9a f7 bd
       -0.29489538 -0.29082948 0.3878156 -0.1208994
0000d0 43 f8 e9 bd 69 79 3d 3c 20 9d 51 be 76 65 e6 bc
       -0.11424305 0.011564591 -0.20470095 -0.028124552
0000e0 5f 99 70 3d f1 42 82 bd d3 3f aa 3d 94 37 86 3e
       0.058740016 -0.06360424 0.08312955 0.26214278
0000f0 c7 f1 1b be 91 ed 8b ba 6c 86 e5 bd 12 c9 ea 3d
       -0.1522895 -0.0010675659 -0.112072796 0.11464132
000100 b3 f8 70 bd 58 d6 b8 bd 7c 22 ea 3c d9 55 24 be
       -0.058830928 -0.09025258 0.028580897 -0.16048373
000110 0e 3e 5c bd ea 24 35 3e a4 27 b5 3e 2f 88 d5 3e
       -0.053770117 0.17689863 0.35381806 0.41705462
000120 da 11 03 3b 7f b3 8a 3e 31 24 86 3d dc ed c4 bc
       0.0019999654 0.2709007 0.06549872 -0.024039201
000130 dc 69 6b bd cb 43 93 be f4 bc 49 be 9e 04 8b 3c
       -0.057474002 -0.2876266 -0.19700986 0.016969975
000140 c9 c7 05 bf 24 df e2 3d 24 6a c0 3e 0c 71 03 3e
       -0.5225797 0.11077717 0.3758098 0.12836093
000150 5e ee 2d be a6 0a 97 3d 10 55 79 3d cc 97 35 3e
       -0.16985461 0.07375078 0.060872138 0.17733687
000160 4f d7 f0 bd b5 1e 90 be ba 45 aa 3c a1 a2 9a be
       -0.11759817 -0.28148428 0.020785201 -0.302022
000170 32 b7 c1 be e7 f5 1f 3d ee 72 90 3e 2b c3 a1 3e
       -0.3783508 0.03905287 0.28212684 0.31594214
000180 58 6a a4 3d d2 30 b2 3e 3d 99 4f be 37 aa a1 bd
       0.08028096 0.34802872 -0.202733 -0.07893794
000190 27 0e 82 be 41 a6 5b 3e 01 e5 de be d6 cd d4 3e
       -0.25401422 0.2145014 -0.4353409 0.4156329
0001a0 7d f7 33 3e 0a 9f 33 3c 7b 97 08 3c 0d 47 9d 3e
       0.17574878 0.010963211 0.008336897 0.3071827
0001b0 5c fe a8 be 24 4d 95 bd 54 fd c3 3e 20 a9 7c 3e
       -0.3300656 -0.07290104 0.38279212 0.24673891
0001c0 b1 b2 1c 3f fb 41 58 3e c4 c8 08 3e 29 d4 ae 3d
       0.6121016 0.2111892 0.13357836 0.0853656
0001d0 fc f8 60 3e 6e d8 fa 3e ed d2 7d 3e 4b 83 c5 3d
       0.2196998 0.48993248 0.24787493 0.09644183
0001e0 01 e9 aa 3d ff 1a ea bd f9 73 9f 3d 31 e4 49 3e
       0.08345223 -0.1143093 0.07785792 0.19715954
0001f0 2a 66 52 bd bc bd 2f 3d e8 bc 24 be bc 07 94 3d
       -0.051366962 0.042905554 -0.16087687 0.07228038
000200 d7 8a 40 be 53 85 f8 bd c6 9a 9f bf 15 8b a2 3e
       -0.18802963 -0.121348046 -1.2469108 0.31746736
000210 c0 a4 14 be b3 ed 30 be e2 2e d0 bc be db 06 be
       -0.14515972 -0.17278175 -0.02541298 -0.13169762
000220 fe 9f bc 3d 51 45 83 3e 75 e6 72 be 23 f3 26 bf
       0.092102036 0.25638822 -0.23720725 -0.6521475
000230 e1 ed 7b be c3 ed ad bd 0c b0 ab 3d d7 6d 54 3c
       -0.24602462 -0.08492615 0.08383188 0.012965641
000240 40 87 d8 bd e3 56 b1 be 63 e4 8e be 62 9f 2c bf
       -0.10572672 -0.34636602 -0.2790862 -0.674307
000250 cb 0b 0a bf 63 4b b5 3c 43 23 72 be 4d 44 40 3e
       -0.53924245 0.022130674 -0.23646264 0.18776055
000260 43 e7 51 bf b5 ac 4f 3d c1 49 3c bf 7e 15 a0 bf
       -0.819935 0.050701816 -0.7355004 -1.2506559
000270 72 78 07 3e 0a 61 bc bd 55 3c 08 be b7 32 5d 3e
       0.1322954 -0.09198196 -0.13304265 0.21601377
000280 c3 bb 12 bd 28 5f 23 be 9f 41 64 3d d8 78 a6 3c
       -0.035823595 -0.15954268 0.055726644 0.020321295
000290 3f b7 3f be 61 7c 8e 3d b3 a5 18 be 90 71 1a 3e
       -0.18722247 0.06957317 -0.14906959 0.15082383
0002a0 b3 b3 08 bd 9f 0c 73 be 2d e4 cd 3c 30 d7 03 bd
       -0.0333745 -0.23735283 0.025133217 -0.03218764
0002b0 28 4f af bd f6 d8 1d bd 15 36 20 bb ff 62 54 3e
       -0.0856002 -0.03853699 -0.0024446298 0.20740889
0002c0 4d 0e 6d bc c0 db c2 3d ea c4 ca bc a9 61 13 bd
       -0.014468742 0.0951457 -0.024752099 -0.035981808
0002d0 8a e3 24 be 2d a2 9c bd a1 0b 86 be 77 09 16 bf
       -0.16102424 -0.0764812 -0.26180747 -0.5860819
0002e0 18 b0 65 3e 81 94 bb 3c f3 10 bd be cd fb 02 be
       0.22430456 0.02289796 -0.36926994 -0.12791367
0002f0 77 a5 fa 3d d4 92 d7 bd f1 a2 59 bc b6 84 01 be
       0.12238591 -0.10526052 -0.013283477 -0.12648281
000300 54 86 90 3c b0 f3 cd bc 6f 6e 47 bd 0c 9d 4b bd
       0.017642178 -0.025140613 -0.048689302 -0.04971032
000310 82 c1 af be e0 9a 8c bd 95 a3 7c 3d 07 47 e0 3c
       -0.34327322 -0.068654776 0.06167944 0.027377618
000320 90 d8 bc bd f9 c7 40 be 7f 4c 7a bd 72 2d 7b bd
       -0.092209935 -0.18826284 -0.06110811 -0.061322637
000330 f2 e9 2f bd 16 1a 25 be d1 06 a3 3c 77 e1 21 3e
       -0.042947717 -0.16123232 0.019900711 0.15808664
000340 28 86 3b be 37 d0 2a 3d 9c 1d 0b bd 14 20 3a be
       -0.18312895 0.041702475 -0.033963785 -0.181763
000350 09 92 87 be dd 12 b6 3c c7 88 0f 3e 8f f9 07 3e
       -0.26478603 0.022225792 0.1401702 0.13278793
000360 79 dd fd bf 0e f5 71 be eb a9 89 bd c7 f1 98 3d
       -1.9833213 -0.23628637 -0.067218624 0.0746799
000370 1e cf a1 be 49 8f 8a bd c8 a2 42 be 88 01 06 be
       -0.3160333 -0.06765611 -0.19007409 -0.13086522
000380 80 58 93 bc e2 3a 80 3e 73 0c bb be ef 8b 51 be
       -0.017986536 0.25044924 -0.36532936 -0.20463537
000390 a0 56 e7 3d ac d1 2c 3e 08 c9 33 bf ad e6 72 bd
       0.11295819 0.16876858 -0.70228624 -0.05930202
0003a0 6d 10 f7 3c 23 9d ae 3e b3 e9 02 3e ac 4a 55 bd
       0.0301592 0.3410426 0.12784462 -0.052073166
0003b0 9b 72 5b be ab 8e dd bd 07 04 d8 3e 5e 1a c3 bc
       -0.21430437 -0.108182274 0.42190573 -0.023816284
0003c0 b0 dd e1 bd 84 b2 63 3d 7a 60 8e 3d bf f1 c5 be
       -0.11028612 0.055590168 0.06951995 -0.38661
0003d0 b8 e9 0e 3e b2 0b bc be 6e 9c b5 be d2 5d 09 bf
       0.13956344 -0.36727673 -0.3547091 -0.53658783
0003e0 1b b7 bc be c7 38 8d be 30 ac 23 bf 49 69 3c 3d
       -0.36858448 -0.2758238 -0.6393461 0.045998845
0003f0 ae 01 82 3e d2 95 33 bd 74 36 9a 3d f2 38 9a 3e
       0.25391906 -0.04384405 0.07529917 0.3012157

model.4.bias f4 [124]
000000 50 c2 d8 bc e3 45 7f bc 28 0e c9 bc 10 5b d4 3c
       -0.026459843 -0.015580627 -0.024542883 0.025922328
000010 da 78 fb bc 27 4a d8 3c 2f 2e b7 3d db fe c9 3b
       -0.030697275 0.026402546 0.08944356 0.0061644143
000020 1e 28 dc 3b 00 98 9b bd 9f 08 8f 3d cb eb 24 3d
       0.0067186495 -0.07597351 0.06984066 0.040263932
000030 23 33 bd 3d 7e e3 3f bd d7 5d 4a 3d c8 a9 ad 3d
       0.09238269 -0.046847813 0.0494059 0.08479649
000040 87 a6 f9 3c cd d9 ce 3d 2d 9c 1c 3a aa 25 a1 3c
       0.030474914 0.10100136 0.00059742 0.01967128
000050 0a 3a 6f bd 92 cc c9 bd e3 bc f7 bc 51 fe 24 3d
       -0.05840496 -0.09853472 -0.030241435 0.040281598
000060 c2 3d 3e bd ad d0 24 bd 21 f6 ca 3d 30 29 af bd
       -0.046445616 -0.04023807 0.099102266 -0.08552778
000070 f0 f2 e9 3d 8d 96 86 bd a5 8a 94 bd e1 16 a4 bd
       0.1142329 -0.06571684 -0.07253007 -0.08012176
000080 c1 60 ec 3b 55 99 97 3c 31 10 cb 3c a6 6d 4f bd
       0.0072136824 0.018505732 0.024787994 -0.05064168
000090 78 02 e2 3b 08 9e 86 bd a8 44 7d 3d 7e 62 32 3e
       0.006897267 -0.06573111 0.061833054 0.17420384
0000a0 22 97 62 3d 3f 31 c8 bd 55 5a 99 bd 82 b5 fe 3d
       0.055319913 -0.09775018 -0.074879326 0.124369636
0000b0 a4 a4 b1 3b 3a 5b d8 bd e7 1f 12 be 9c 0b 08 be
       0.005421238 -0.10564275 -0.14269982 -0.13285679
0000c0 ca 3a 27 3d a0 0b 9c bc 1e e6 68 3d 4d a3 a0 bd
       0.04082755 -0.019048512 0.05686008 -0.07843647
0000d0 8d 03 b8 3d ef 4e e8 3c 33 0e ae bd 32 34 4c bd
       0.08985052 0.028357951 -0.08498802 -0.049854465
0000e0 0a 9d 13 3d c0 5c 88 3d da 11 c0 bd 9c c0 09 3e
       0.036038436 0.06658316 -0.09378405 0.13452381
0000f0 f1 3e cd 3c 2a a1 ee 3c 34 af b1 3d a3 d0 d7 3d
       0.025054427 0.029129583 0.086759955 0.10537841
000100 9f b0 ae 3d a0 0a d9 bd 16 79 21 3d 9f 84 e9 3d
       0.085297816 -0.1059773 0.039422117 0.114022486
000110 4a b5 72 3c 57 94 09 3d 0a 6e 49 bd 62 a3 2c 3c
       0.0148137305 0.033588734 -0.049177207 0.010537
000120 f8 5d bf 3d 15 de 3a 3d 1d a6 d3 3d 2a 4c 0f bd
       0.09344095 0.04562195 0.10334418 -0.034984745
000130 fa 89 bf 3d 68 26 5c 3c 03 97 e6 bd 3f 26 6c bd
       0.09352489 0.013436891 -0.11259272 -0.05765366
000140 25 95 1e 3d c2 1c 97 bd 3e cd 78 3c 8d 75 e2 ba
       0.038716454 -0.07378532 0.015185652 -0.0017277465
000150 de 45 18 bb bc f7 75 3d 56 a9 35 3d 8e e7 01 3d
       -0.0023235003 0.06005071 0.044350944 0.03171497
000160 b4 dc 00 bd 2b 21 a9 3c 9d 8e a1 bd 67 24 e7 3a
       -0.03146048 0.020645699 -0.078885294 0.001763475
000170 f7 7d 82 bd 0c 90 e5 bc 69 88 4f bd ea a8 15 bd
       -0.06371682 -0.028022788 -0.0506672 -0.036538042
000180 58 70 cd bd d3 8f 81 3b 38 19 82 3d 2e a1 be 3d
       -0.100311935 0.0039539128 0.06352466 0.09308086
000190 3d 78 c4 3d c1 54 83 3c c6 41 8f bc a5 20 f6 bc
       0.09593246 0.016031625 -0.017487418 -0.030044863
0001a0 d0 48 7f 3d 41 8a 4e 3d f6 e6 36 3d f4 70 95 3c
       0.0623253 0.050424818 0.044653855 0.018242337
0001b0 8b 2d 74 bc c2 56 be bc 81 c5 37 3b 98 a6 e3 3d
       -0.014903436 -0.023234729 0.0028041305 0.111157596
0001c0 e3 98 90 bd 81 31 0c 3d 63 92 d6 bc f1 99 bf bd
       -0.07060411 0.034226898 -0.02619285 -0.09355534
0001d0 64 8e 0a bd 42 6d ff 3d 5c 25 88 3d 1d ca 65 bd
       -0.0338272 0.12472011 0.06647751 -0.056100953
0001e0 b9 98 8c 3c b0 28 51 3c 78 22 7c 3d b6 3b 5b bd
       0.017162668 0.012766048 0.06155631 -0.05352374

model.5.weight f4 [124]
000000 c6 3f 6c 3f 24 63 5b 3f cb 3d 8a 3f 0c cd 24 3f
       0.9228481 0.8569815 1.0800108 0.64375377
000010 8a 52 44 3f 18 f4 64 3f 82 64 76 3f ea fd 34 3f
       0.76688445 0.8943496 0.9624711 0.7069994
000020 e4 da 6c 3f 64 01 69 3f 19 db 93 3f 36 7e 98 3f
       0.925215 0.91017747 1.1551238 1.1913517
000030 ef 5f 77 3f 9e c0 85 3f 8b d2 82 3f 50 7f 2f 3f
       0.9663076 1.0449407 1.0220503 0.6855364
000040 21 e3 39 3f 68 79 8f 3f 02 03 88 3f 1a b3 8d 3f
       0.72612196 1.1208925 1.0625918 1.1070282
000050 a6 79 35 3f b5 fc 85 3f 8a 53 35 3f 7e 6a 2c 3f
       0.70888746 1.0467745 0.70830595 0.67349994
000060 fd b8 56 3f 50 8e 9f 3f bb a8 97 3f 26 a8 88 3f
       0.8387602 1.2465305 1.1848367 1.0676315
000070 57 f7 51 3f 65 6c 98 3f 3b a4 58 3f 59 a4 6f 3f
       0.82018036 1.1908079 0.84625596 0.9361015
000080 20 fd a5 3f 5b bf 38 3f 84 41 60 3f 9e 7f 65 3f
       1.2967873 0.72166985 0.8759997 0.89647853
000090 e0 a1 83 3f 05 9c 83 3f a2 2d 73 3f 9d c8 2f 3f
       1.0283775 1.0281988 0.94991505 0.68665487
0000a0 82 83 6b 3f ff 48 87 3f ef f9 49 3f 3d a0 a0 3f
       0.9199754 1.0569152 0.78896993 1.2548901
0000b0 64 eb 53 3f 04 9b 31 3f b6 fc 7c 3f 6e 17 5e 3f
       0.8278105 0.6937716 0.98823106 0.867545
0000c0 02 e9 76 3f 33 b1 a4 3f 75 f8 3f 3f 93 d2 8a 3f
       0.9644929 1.2866577 0.7498849 1.0845512
0000d0 c2 05 91 3f cc ac 12 3f af eb 52 3f 6f 01 68 3f
       1.1329882 0.5729492 0.82390875 0.9062719
0000e0 f7 58 92 3f 5f 6d 63 3f 3a a5 61 3f ec 73 48 3f
       1.14334 0.8883876 0.8814274 0.7830188
0000f0 a7 4a 7f 3f ec 4e 4b 3f 84 05 28 3f 14 5b 9a 3f
       0.99723285 0.794173 0.65633416 1.2059045
000100 bc e1 69 3f b2 84 81 3f d0 d1 2d 3f 78 73 47 3f
       0.9136007 1.011862 0.67898273 0.77910566
000110 aa 7b 20 3f f6 0f 21 3f 7d 5a 6b 3f a4 d3 79 3f
       0.62688696 0.6291498 0.9193495 0.9758856
000120 99 e8 41 3f 2d 5e 83 3f 01 b3 90 3f c9 a6 8a 3f
       0.7574554 1.0263115 1.1304628 1.0832149
000130 8c 01 74 3f 82 a7 3d 3f db af 7e 3f 10 e5 8f 3f
       0.9531486 0.7408372 0.99487084 1.1241779
000140 eb e2 56 3f f2 e9 62 3f 97 8e 89 3f 54 d2 34 3f
       0.8394 0.8863822 1.074664 0.70633435
000150 8c 2b 65 3f 19 1b 1f 3f 43 58 7c 3f 63 da 70 3f
       0.8951957 0.6215072 0.98572177 0.9408323
000160 cf 29 54 3f 35 52 81 3f 21 37 54 3f 58 3f 96 3f
       0.82876295 1.0103213 0.8289662 1.1738081
000170 93 6f 4b 3f 03 70 4c 3f 58 b4 43 3f 20 8d 5e 3f
       0.79467124 0.79858416 0.7644706 0.8693409
000180 fe 76 7a 3f 84 41 53 3f 75 ad 95 3f cf 11 6c 3f
       0.9783782 0.82521844 1.169356 0.92214674
000190 56 6b 6b 3f 09 be 98 3f 0c 9b 4e 3f 9e 1e 68 3f
       0.91960657 1.1932994 0.8070533 0.9067172
0001a0 5f 2c 83 3f 37 61 53 3f 84 aa 85 3f c4 1e 31 3f
       1.0247916 0.82570213 1.0442662 0.6918757
0001b0 07 f1 8c 3f e7 1d 99 3f bf 1c 8a 3f d5 46 4c 3f
       1.1011056 1.196225 1.0790023 0.7979558
0001c0 27 78 80 3f 0c a7 63 3f c2 ea 42 3f 36 1f 81 3f
       1.0036668 0.8892677 0.7613946 1.008765
0001d0 20 bd 6f 3f a8 2c 67 3f 3c d5 7c 3f 81 95 66 3f
       0.93647957 0.90302515 0.9876287 0.90071875
0001e0 56 74 3e 3f 48 63 53 3f 5c 10 7f 3f 52 ae 7f 3f
       0.74396265 0.82573366 0.9963434 0.99875367

model.5.bias f4 [124]
000000 e7 a8 e6 be 2b 60 98 be 85 30 03 bf 30 0a e3 be
       -0.45050737 -0.2976087 -0.5124591 -0.4434371
000010 8a a3 09 bf 38 4f b0 be 40 22 17 bf ab 8f f7 be
       -0.53765166 -0.3443544 -0.59036636 -0.48351797
000020 d1 53 51 bf 99 be 78 be 7d 8a 67 be fb 3e 87 be
       -0.8176852 -0.24291457 -0.22611423 -0.26415238
000030 1e 2b f4 be ba 7e 9f bd 1a 53 36 bf 3d 72 30 bf
       -0.47689146 -0.07787843 -0.7122055 -0.68924314
000040 1f 37 e6 be 7b 47 97 be cf f6 a7 be 60 80 fe be
       -0.4496393 -0.29546723 -0.32805488 -0.49707317
000050 7b 09 68 be d2 2a 53 be 3b ff a1 be 11 d8 f9 be
       -0.22659867 -0.20621803 -0.31640038 -0.48797658
000060 f7 64 1b be 2b 82 68 be ad 78 7a be d9 a1 c3 be
       -0.15175234 -0.22705905 -0.24460097 -0.38209417
000070 d9 f1 14 bf 88 08 b7 be 05 e2 2f bf b5 cc 4c bf
       -0.5818153 -0.35748696 -0.68704253 -0.7999986
000080 8d 44 b6 be 0a 7e 0f bf 3a e5 5f be 94 3b 32 bf
       -0.35599175 -0.56051695 -0.21864787 -0.6962216
000090 25 87 e2 be 6e 03 81 be 11 56 9c be ff 05 e5 be
       -0.44243732 -0.2519793 -0.30534413 -0.44731137
0000a0 90 af 37 bf 5f d1 15 bf 31 d2 e7 bc 22 4a b8 be
       -0.7175226 -0.585226 -0.02829847 -0.3599406
0000b0 ae 63 90 be 1b 36 21 bf b3 f9 18 bf fd c0 06 bf
       -0.2820105 -0.62973183 -0.5975601 -0.52638227
0000c0 63 67 1e bf 34 45 e6 be 12 1c 24 bf ff 5b df be
       -0.61876506 -0.44974673 -0.6410533 -0.43624875
0000d0 81 ec 09 bf ee 48 aa be fc 0f 01 bf 16 f0 1b be
       -0.538765 -0.33258766 -0.50415015 -0.15228304
0000e0 13 dc eb be 3f f1 13 bf 27 7d dc be ed 13 12 bf
       -0.4606634 -0.5778999 -0.43064234 -0.57061654
0000f0 6c d8 02 bf ad 95 0c bf ec 4c f9 be fc 49 e7 be
       -0.51111484 -0.5491589 -0.486915 -0.45173633
000100 39 d8 74 be 1e cc 93 be ca de e5 be ac 42 2e bf
       -0.23910607 -0.28866667 -0.44896537 -0.68070483
000110 c2 90 7b be aa 4a 8f bc b3 06 f6 be 0f c2 55 bf
       -0.2456694 -0.017491657 -0.48051986 -0.83499235
000120 5f d0 ec be ec e8 27 bf 94 80 dd be 30 dd 9c be
       -0.46252725 -0.65589786 -0.4326216 -0.30637503
000130 73 e5 3a bf ef c8 1c bf ce 09 a8 be 3a 24 a4 be
       -0.7300636 -0.612441 -0.3281998 -0.3205889
000140 56 e9 a6 be 28 02 04 bf 7e d3 9c be d8 48 f9 be
       -0.32599896 -0.5156579 -0.30630106 -0.48688388
000150 03 da 1b be d9 88 8e be 7a d6 a5 be 67 ad 9d be
       -0.15219884 -0.2783878 -0.32390195 -0.30796358
000160 e5 99 4c be b8 35 34 bf 6a 82 2f bf 6e c3 7d be
       -0.19980581 -0.7039447 -0.6855837 -0.24781582
000170 81 24 16 bf 7c ce 3b be 91 c8 19 bf 41 75 6c be
       -0.5864945 -0.18340486 -0.60071665 -0.23091604
000180 6e 04 82 be d3 87 07 bf 1b b1 bf be dd 1d 4a 3d
       -0.25394005 -0.52941626 -0.37439808 0.049344886
000190 6e 7f 9b be 46 57 95 be 1c 97 de be 4a 94 28 bf
       -0.3037066 -0.29168147 -0.43474662 -0.6585127
0001a0 65 11 cf be 92 be 64 be 39 4c 87 be f8 2f d1 be
       -0.40442958 -0.22338322 -0.2642534 -0.4085691
0001b0 8d f1 d2 be 57 de ea be 69 74 da be 5d 50 f4 be
       -0.41199914 -0.45872757 -0.4266694 -0.47717562
0001c0 db 97 08 bf d9 74 17 bf 81 73 f8 be 24 ea fd be
       -0.53356713 -0.5916267 -0.48525622 -0.49592698
0001d0 dc 3f c4 be c0 95 31 bf 9a 5a 87 be 56 3a f9 be
       -0.3832997 -0.69369125 -0.2643631 -0.4867732
0001e0 ef 40 83 be 50 0d 11 bf c4 3c 60 be 38 64 ae be
       -0.25635478 -0.5666094 -0.2189818 -0.34060836

model.5.running_mean f4 [124]
000000 14 ba 6c 3f 5b 1c 18 c0 65 1a b1 bd 36 71 8f 3b
       0.9247143 -2.3767307 -0.086476125 0.0043775095
000010 94 7e d5 bf 17 1b 61 bf 81 c4 7c bf 58 c7 94 bf
       -1.6679254 -0.8793196 -0.9873734 -1.1623335
000020 f1 51 70 3f 78 98 a4 bf fc c2 56 be 29 cf e1 be
       0.9387503 -1.285903 -0.20972818 -0.44103363
000030 67 3b 80 bf 9a 90 7e bf 46 2b b6 bf c2 d0 93 bf
       -1.0018128 -0.99439394 -1.4231956 -1.1548083
000040 65 5c 11 c0 8a c8 7b bf 48 4f 0e bf d3 59 19 bf
       -2.2712643 -0.98352873 -0.55589724 -0.59902686
000050 f3 86 5d 3e c5 01 d3 be e4 02 c7 bf 9f 9e ac bf
       0.2163351 -0.41212288 -1.5547757 -1.3485907
000060 b7 1e 65 bf 66 a0 32 bf 5d ca d0 3e a9 e9 9d bf
       -0.8949999 -0.69776 0.4077939 -1.2336932
000070 61 f2 81 bf 35 ec 86 be b9 1e 9a bf af e1 bc 3e
       -1.0152093 -0.26352087 -1.2040626 0.36890933
000080 17 04 88 bf c2 ce dd bf 03 bf 68 bf 23 72 8e bf
       -1.0626248 -1.7328722 -0.9091646 -1.1128582
000090 21 4e 0a bf 23 83 c7 bf e1 ac 2a bf 9e b5 cf be
       -0.54025465 -1.5586895 -0.6667004 -0.4056825
0000a0 ed 1b 83 3f 94 55 8d bf a9 9c c6 bf d8 10 7a bf
       1.0242897 -1.1041741 -1.5516559 -0.9768195
0000b0 bf 34 a1 bf 26 60 8c bf 2b f9 c4 be be cf 4b 3f
       -1.2594222 -1.0966842 -0.3847135 0.79613864
0000c0 62 9d d5 bf e9 c5 be bf 08 cb 80 bf ec 62 6e bf
       -1.6688654 -1.4904147 -1.006196 -0.9311969
0000d0 b2 db cf bd 93 c2 01 bf 81 c2 a0 bf 7d 26 86 be
       -0.101493254 -0.5068752 -1.2559358 -0.2620124
0000e0 a7 09 a7 bc b6 df e9 bf 21 65 f8 be 80 dd ac bf
       -0.020390345 -1.8271396 -0.48514655 -1.3505096
0000f0 6d f4 83 bf 53 42 5b bf af 96 be bd 23 81 a4 bf
       -1.0308968 -0.8564808 -0.09306084 -1.2851909
000100 07 59 75 bf e9 8b c4 bf 4b a3 9a bf 8a 6d bf bf
       -0.9583897 -1.5355197 -1.2081083 -1.4955304
000110 e9 4e 01 c0 bc 35 82 bf c6 76 63 bf 96 6f 9e bf
       -2.0204413 -1.0172648 -0.8885311 -1.2377803
000120 3f 82 94 bf dc 1e 31 be c9 f7 d1 be b9 d3 5b bf
       -1.1602248 -0.17296928 -0.41009358 -0.8586994
000130 98 77 7a bf 07 e6 d4 bf 24 38 f8 3d bf 09 a0 bf
       -0.97838736 -1.6632699 0.12120083 -1.2502974
000140 26 af c8 3e 86 ae 36 3f 8d 47 58 bf 59 0b e0 be
       0.39196128 0.7136005 -0.8448418 -0.43758658
000150 d8 57 0e bf df d6 a5 bf a5 49 31 bf d7 11 39 bf
       -0.5560279 -1.2956198 -0.69253 -0.72292846
000160 02 4f 05 c0 d8 c5 44 3e 25 d8 dd bf 19 cf 33 bf
       -2.0829473 0.19216096 -1.7331587 -0.7023788
000170 bf 86 a1 bf 12 03 a6 bf 0d ed c8 bf 4f 54 89 bf
       -1.2619246 -1.2969687 -1.5697342 -1.0728854
000180 80 01 fe bf d3 16 d0 bf 0a f1 ca bf 5a a2 ea be
       -1.9844208 -1.6256965 -1.5854809 -0.4582699
000190 19 0d 17 bf 86 1a cb bf 09 2b a5 bf 38 1f 75 3e
       -0.5900436 -1.5867469 -1.2903758 0.2393769
0001a0 86 74 88 bf ec b6 b7 bf 55 8e ba be d6 5d 9d bf
       -1.066056 -1.4352698 -0.36436716 -1.2294261
0001b0 85 69 10 3f c1 f2 7f bf 77 c9 c9 bc 9d 38 a8 bf
       0.5641101 -0.9997979 -0.024632199 -1.3142277
0001c0 75 e2 43 3e 5c c1 ef bf 84 ac bb bf 06 cd b6 3d
       0.19129355 -1.8730884 -1.4662023 0.08925824
0001d0 d0 39 3d bf 37 68 4f bf b0 57 8e 3e d2 b3 7f bf
       -0.7391634 -0.81018394 0.27801275 -0.9988376
0001e0 97 dd df bf cf 16 dd bf 8a bd ca be 7d 1a 95 bf
       -1.7489499 -1.7272586 -0.39597732 -1.1648709

model.5.running_var f4 [124]
000000 e5 6b a8 3f bc d4 1a 40 c1 9a 17 40 84 5c cd 3f
       1.3157927 2.4192343 2.3688204 1.6043859
000010 a3 c6 29 40 0a 50 b1 3f 8b 38 ab 3f c9 c9 ec 3f
       2.6527488 1.3852551 1.337663 1.849908
000020 bb 19 fa 3f 28 e4 ab 3f ce e7 08 40 d5 05 1c 40
       1.9539102 1.3429003 2.1391482 2.437856
000030 09 0c ca 3f 4f 37 41 40 80 d2 07 40 28 0d 8d 3f
       1.5784923 3.0190008 2.122223 1.101964
000040 3b 0b 02 40 3f a8 49 40 d0 40 08 40 65 09 1a 40
       2.0319355 3.150894 2.1289558 2.4068234
000050 d1 f4 51 3f 24 fc fa 3f 8b 22 cb 3f 9d 7e 5f 3f
       0.82014185 1.9608197 1.5869917 0.8730257
000060 6b 13 c9 3f 92 3a 22 40 e0 29 1d 40 81 b0 13 40
       1.5709051 2.5348248 2.4556808 2.307648
000070 38 e1 3c 3f 02 52 0b 40 1b b8 10 40 ec 17 9a 3f
       0.73781157 2.1768804 2.261237 1.203855
000080 c6 df 35 40 4a 23 1b 40 8f 90 a7 3f 56 df 00 40
       2.841783 2.4240289 1.3090991 2.0136313
000090 4c 39 ec 3f 11 02 18 40 e6 d9 09 40 be 89 de 3f
       1.8454986 2.3751261 2.1539245 1.7385786
0000a0 5f 66 cd 3f f2 d3 57 40 b0 cf 18 40 d7 c3 21 40
       1.6046866 3.372311 2.3876762 2.527578
0000b0 99 b1 46 3f cb ab b0 3f 14 05 40 40 3e 87 8c 3f
       0.7761474 1.3802427 3.00031 1.0978773
0000c0 1e 5e ec 3f 17 d4 6a 40 11 4e 8d 3f 21 b0 1b 40
       1.8466222 3.669195 1.1039449 2.432625
0000d0 0f 92 21 40 28 68 7a 3f 37 17 c8 3f e6 51 e6 3f
       2.5245397 0.9781518 1.5632085 1.7993743
0000e0 c4 bc b8 3f 92 74 da 3f 0b 88 a4 3f 4f 20 fc 3f
       1.4432607 1.7066824 1.2854017 1.969736
0000f0 1e 27 c3 3f 4e fe c2 3f 63 c6 41 3f 4e dc 74 40
       1.5246313 1.5233858 0.7569334 3.8259463
000100 d1 f7 b0 3f 80 f6 31 40 53 ad 43 40 63 f2 e7 3f
       1.3825628 2.7806702 3.0574539 1.8120846
000110 be 95 36 40 c4 e3 e4 3f ad 6f ac 3f b1 34 0e 40
       2.8528895 1.7882009 1.3471581 2.221966
000120 e5 13 c4 3f 68 5c c1 3f 7b 67 f9 3f 96 23 f8 3f
       1.5318571 1.5106325 1.9484705 1.938586
000130 b3 c9 cc 3f 00 57 ec 3f ff 63 f1 3f 12 23 4a 40
       1.5999054 1.846405 1.8858641 3.1583905
000140 41 eb a9 3f 90 f4 cb 3f c2 d0 d5 3f 12 d9 ff 3f
       1.3274919 1.593401 1.6704333 1.998812
000150 54 e0 e0 3f 1e 01 66 3f a7 10 cb 3f 7f e1 c4 3f
       1.756846 0.89845455 1.5864457 1.5381316
000160 76 fd 23 40 be ad f2 3f 5b ba 37 40 49 4d 12 40
       2.562345 1.8959272 2.8707492 2.285967
000170 e4 0a 48 3f 7a c9 b1 3f 49 bf 47 3f 78 ee 08 40
       0.7814162 1.3889611 0.78026253 2.139555
000180 b1 79 4c 40 9e 3d 09 40 1c 1c be 3f 9e 17 12 40
       3.1949275 2.1443858 1.4852328 2.2826915
000190 af dc 04 40 69 4a 9b 40 8b 1b 79 3f 77 bb 2e 40
       2.0759695 4.8528333 0.9730765 2.730192
0001a0 7b 9c 09 40 fe af d4 3f b7 e8 01 40 fa 4b 23 40
       2.1501758 1.6616209 2.0298288 2.5515122
0001b0 00 75 10 40 98 e2 bc 3f 49 84 e9 3f 87 62 ab 3f
       2.257141 1.4756651 1.8243495 1.3389443
0001c0 c2 14 d4 3f c7 16 ff 3f b4 a0 e3 3f fd dc d1 3f
       1.6568835 1.9928826 1.7783418 1.6395565
0001d0 c2 f8 f5 3f 90 aa d6 3f ef 53 d3 3f 36 fe db 3f
       1.921654 1.6770802 1.650999 1.7186954
0001e0 09 ac f7 3f 11 fd 71 3f b5 88 c0 3f b6 d0 1a 40
       1.9349376 0.94526774 1.504172 2.4189887
