foundation_models/Ensemble_model24_DeepSurv_LSTM_Event_2_20250805_010824.pt (torch, 741192 bytes, 17 tensors)

lstm_layers.0.weight_ih_l0 f4 [296, 11]
00000000: aaac 2dbd 7c2b 5abd 3033 803c 8996 4e3d
00000010: 0889 80bd d0a9 06be d45a 4bbd 1be7 d43b
00000020: 0dea aeba a0de abbd 6ff6 24be 08f2 833c
00000030: ffb9 043e acdd c73d 7f00 f43e 55be a3bd
00000040: 8668 843d b258 a93d 11bd 843c 9fe4 c63d
00000050: 1950 f4bb 1b7c 9e3d 4bcb 07be 960a b23c
00000060: 1e19 783c 9d38 d13d f652 a3bd 53fe 10be
00000070: c354 09bd daa4 c6bc bb7f 1ebe f91d aa3d
00000080: 0923 10bd 7114 ed3d 2aae bcbc 4954 9a3c
00000090: 8d24 a33e c63d 3cbe ef7e bcbd 4f02 78bd
000000a0: 0088 a33d af64 d3bd 3de9 96bc 7dc5 0bbe
000000b0: 669e 043e 5796 7fbc 959d 15bd 6571 a63e
000000c0: 15b2 4abd edc0 063e 8652 9c3d 2ccf 18bd
000000d0: 7cb1 de3d d2b2 b13d 8e9e 54be 9eef 4a3c
000000e0: ab64 1f3d f08a c1bd ee8a c4ba 0dee 95bd
000000f0: f7f5 84bd 8ff3 b9bd 77e3 b73c 3ca2 0d3e
00000100: 5353 d3bc 41a7 2e3e be05 1dbd 83fb 49bd
00000110: 70a7 97bd 97c8 dc3d 56bf e93d 8a88 ffbd
00000120: acb7 0cbe 7f05 a3bd 09a3 9d3d fa8d 923c
00000130: 22c6 d7bd 2ace 60bc c2cb ea3d 136a 0d3e
00000140: 86cd 893d 04f1 3c3d 36e9 fcbb e3cf 943d
00000150: 2d7f 9f3d fce5 27bd f25a 95bd d9f4 883c
00000160: 0555 eebb de96 73bd 01fd 253a a938 adbe
00000170: 1ec1 f5bc 22f3 213e d589 e9bd f18f 7cbc
00000180: 4c52 e93d c3c7 0b3d 1778 413e 36e5 a23a
00000190: c0d3 8a3d 5fbe c6bc fbe8 623e 98c5 193d
000001a0: 49ad ccbd e474 8ebd c4dc 22bd 0e6b 4dbd
000001b0: 4400 22bd b884 f23d 48cd d53d cc07 1e3d
000001c0: 8fb3 783e 6c5a 023e 12bd 99ba e264 063e
000001d0: 210f 2f3e 51ab d53d 30dd 873d 6763 9f3d
000001e0: 154f aebd 2ce9 1f3e d18e 6cbd 6051 103e
000001f0: f528 c63e afde 52be da56 b23d 35b9 3e3d
00000200: 71a6 c13d 93e1 fbbd 63b0 62be 6272 59be
00000210: aa17 a53c 68ff eb3d 0eb8 29bc 878c 16bf
00000220: 8669 2bbb 0902 b03c 138b 933d 114a 793d
00000230: 8cdd 7ebd 2578 32be eb63 9d3d 96fa f53b
00000240: 7c28 7fba b4d8 63bd 6e85 323d 1708 1c3d
00000250: 0380 e13d 1e41 b13d 0ff7 d73d 252a e53d
00000260: baae 88bd 56da 09be b284 35bd 00b5 61bd
00000270: 716a 9c3c 9c33 da3e 448a 10bd e06d ca3d
00000280: a610 f83d f9b1 d83c 643f 1a3d 7ea3 8bbd
00000290: 6a37 79bd 608a 223d 59f9 193d 7b61 cf3d
000002a0: 144f 773e b6f5 8dbe 6117 0bbc 2db0 aabd
000002b0: 64ce 00bd 2b81 84bd 8b4f 1abe c8ba bc3d
000002c0: c06d 4c3e a497 1a3e 378d d3bd faea 9ebd
000002d0: 2fb8 9fbd f44b b63c 9241 1bbd 12d6 403d
000002e0: fe00 063e d1e7 83bd 450c 8fbd 05da ca3c
000002f0: cc41 20be 3004 8b3d ac73 c13d 49c9 27be
00000300: 5aac 7d3d 6a34 503c 63ca 5fbd 7019 b23d
00000310: fc56 173d 0f6a c53d 4d27 a53d df98 6f3d
00000320: 727f 3ebd 26bb 1a3e 2fd6 e0bd 486b 1a3d
00000330: 7a7c aebd ce5f 933d d20b fcbc 14c6 17be
00000340: df8e e9bd e4a6 3dbe d0ce f3bc ab08 3abe
00000350: 56e5 c93c 0bb5 2cbe 4e9d 18bd 69ed 08be
00000360: 1b97 96bd 2d13 37be 9e52 17be 8a3a 4ebc
00000370: c0e1 4e3c d386 0fbe 5308 afbd bc1c 6dbd
00000380: 5dd5 2dbe bffb 0e3d ad23 06be ea1d 3bbe
00000390: e124 9a3c 7a65 a7bc 2989 c6bb ff29 393d
000003a0: 1dc8 2fbe f444 13be 9088 ccbd 72f3 a0bd
000003b0: 46c3 d43d 0484 efbd df12 d2bd 2021 33bc
000003c0: 84bc e93c 4e7d 973d 9931 273d 8fc8 14bc
000003d0: 7adb 72bd 0c40 babb aaae 39be f152 a1bd
000003e0: 0de6 51be 3368 0ebe f426 9bbd bfa9 9bbd
000003f0: 3788 41bd 33ae b9bd a0ec 3bbe 962a 93bd
-0.042400993 -0.053264126 0.015649408 0.05043653 -0.06276137 -0.13150716 -0.049647167 0.0064972765
-0.0013344899 -0.08392072 -0.16109632 0.01610662 0.12961577 0.097590774 0.47656628 -0.07995287
0.06465249 0.082688704 0.016203435 0.09711575 -0.0074558374 0.07738515 -0.13261144 0.021733563
0.015142707 0.10215876 -0.07974808 -0.14159517 -0.0335281 -0.02424853 -0.15478413 0.08306498
-0.035189662 0.115761645 -0.023032267 0.018839018 0.31863824 -0.1838294 -0.09203898 -0.060549077
0.07984924 -0.10321938 -0.018421764 -0.13649555 0.12951049 -0.015599809 -0.036527235 0.32508388
-0.04948624 0.13159533 0.076329276 -0.03730695 0.10873696 0.086766854 -0.20763609 0.012386231
0.038914364 -0.09450328 -0.0014995018 -0.07320795 -0.064922266 -0.09079658 0.02244733 0.13831419
-0.025796568 0.1705599 -0.038335554 -0.049312126 -0.07404983 0.10780447 0.114134476 -0.12477215
-0.1374194 -0.07960033 0.07697112 0.017889965 -0.10535838 -0.013721028 0.11464645 0.13809995
0.067286536 0.046128288 -0.0077182306 0.07266214 0.07787929 -0.040990815 -0.07292737 0.016718315
-0.0072733187 -0.05947005 0.0006331951 -0.3383229 -0.029999312 0.15815404 -0.114032425 -0.015415178
0.1139265 0.034126054 0.18893467 0.0012427929 0.06778669 -0.024260698 0.22159187 0.037541956
-0.09993989 -0.06955889 -0.03976132 -0.050150923 -0.039551035 0.1184172 0.10439545 0.038581654
0.24287246 0.12729806 -0.0011729321 0.13124421 0.17095615 0.10433067 0.06633985 0.07782631
-0.085111775 0.15616292 -0.057753388 0.14093542 0.38703123 -0.2059276 0.08707972 0.046563346
0.09455574 -0.12298884 -0.22137599 -0.2123504 0.020152885 0.11523324 -0.010358823 -0.5880818
-0.0026155426 0.021485345 0.07204261 0.06086165 -0.062223002 -0.17428644 0.076850735 0.007506679
-0.00097335107 -0.055626586 0.04358428 0.038093653 0.110107444 0.08654998 0.105451696 0.11189679
-0.066739514 -0.13462195 -0.044316 -0.055104256 0.019093724 0.426175 -0.03528811 0.09884238
0.121125504 0.026452051 0.03765811 -0.06818293 -0.060843863 0.039682746 0.037591312 0.10126015
0.2415126 -0.27726525 -0.008489461 -0.08334384 -0.03144683 -0.06469949 -0.15069406 0.09215313
0.19963741 0.15096909 -0.10329669 -0.07759662 -0.07798802 0.022253014 -0.03790433 0.047079153
0.13086316 -0.064407 -0.06984762 0.024762163 -0.156501 0.06787908 0.09445891 -0.16385378
0.061931945 0.012707809 -0.05463637 0.08696258 0.03694819 0.0963937 0.08064137 0.0584954
-0.04650826 0.15110454 -0.10978352 0.037699968 -0.08519836 0.07196008 -0.030767355 -0.14821655
-0.114042036 -0.18520695 -0.029761702 -0.18167369 0.024645489 -0.16865937 -0.037259392 -0.13371815
-0.0735304 -0.17878409 -0.1477761 -0.012587199 0.012627065 -0.14016275 -0.085465096 -0.05788873
-0.16975923 0.034908053 -0.13099547 -0.1827313 0.018816413 -0.02043413 -0.0060588312 0.045206066
-0.17166181 -0.14381772 -0.09986985 -0.078589335 0.10388808 -0.11695102 -0.102575056 -0.010933191
0.028532274 0.07396947 0.040818784 -0.00908102 -0.05929134 -0.0056839045 -0.18133035 -0.07877148
-0.20497914 -0.13906936 -0.07575789 -0.07600736 -0.047249045 -0.09066429 -0.18351984 -0.07185857

lstm_layers.0.weight_hh_l0 f4 [296, 74]
00000000: 7e08 e13b 95ae cbbd 05fd 3d3d 113c 663d
00000010: c428 0e3e 7aa2 083e 891f e0bc d671 6cbd
00000020: 38ea 41be 4cca 223d 2f7a 05be 0cd8 ccbd
00000030: f87a c8bd 52e2 2d3d 84e5 3cbe 9154 cfbd
00000040: 3207 6bbd b471 b43d d694 d7bd 89aa 683d
00000050: 0686 3bbc a083 a4bd 737d 9b3c 04d3 933d
00000060: f086 823d db84 5abd 0bc1 443e a87d 71bd
00000070: 74ce 033e ac0a c6ba c178 a2bd e576 563e
00000080: d9e6 b8bd aa56 963e 979a aebd 3984 60bb
00000090: 171d 7bbc 1241 a8bd 538e 6e3d ff8a 9d3d
000000a0: 87fc 12bd f54c b73c 79e0 ad3c 045b d8bc
000000b0: dd56 02be b369 e73d 673f 8bbd da4d d1bc
000000c0: 8c04 fc3c 02cc 463c 6b3c 6abd 07d7 02be
000000d0: 3633 e2bd a412 263e a70f ff3d 99e5 283e
000000e0: 8b44 783d 7af0 67be f042 9b3c 132d aabd
000000f0: 915d bcbd 14ee 423d 052d abbd d644 5dbc
00000100: eaf0 84bc 043b c2bd 7df0 efbc 53f4 333e
00000110: 79f8 89bd 58b0 95be 8b79 86bd 00be 373e
00000120: bec6 ee3c 8823 32be 73e7 463d 0af7 5abd
00000130: a930 7bbd c035 5a3b b693 c6bc f761 a5bd
00000140: 2f6e 5d3c 4bff a7bd f506 f63d 3622 14be
00000150: bb38 053e fa04 bdbd 50e6 aa3d 6659 7cbc
00000160: 4f2e 023d 7bdd 083e a28b c13b 38ad 17bd
00000170: ac95 85bd 36e1 02bd f179 9dbd b322 3a3d
00000180: 1884 cd3d de64 8f3d a79a 913d dabe b5bc
00000190: 99d5 a5bb 6dc1 a63c bd7b 88bc befb cabc
000001a0: f461 39bd dc52 fe3d 5364 0d3e 3386 d8bd
000001b0: 921f 1b3e 700e ec3a 54a8 fa3d 23c4 413b
000001c0: 3251 a53d b130 293e 7162 7d3d c6c7 7a3d
000001d0: 32c4 673d affa 22be 2a8d 10bc 0ae6 103e
000001e0: 2470 17be 5b40 db3c 70fc 93bd 1318 563e
000001f0: ec57 f23b e98d f8bd b97d 6abd e97f 323d
00000200: b2b9 b73b 9ed9 a6bd 2323 00bd 9d85 253e
00000210: 250e 01be d741 f1bc dffe 09bd a9a0 55bd
00000220: d1fe 36bc 9d72 80bd 58dc b0bc 8c6a c4bb
00000230: a521 0c3d 76d5 1e3d b41d 0d3e bad5 c63a
00000240: a2c4 34bd fe4d dc3c 2d41 f8bd 1bc0 ffbd
00000250: c25f d5bd 6be6 e53c 6bf7 4d3e 4ac6 513c
00000260: 65f7 64bd 903c 85bd 40dc 8b3d c239 82bd
00000270: b58b 61bd 3e70 913d d3ab d83d 9081 12bc
00000280: d3ad b4bc e5c9 b2bd b85d 93bd 5fca 213d
00000290: 3afa 673d 27ac 57bd 21a1 093e 6c1d 1b3d
000002a0: 88de af3c c3da bfbb 7d29 eabc c07d 473d
000002b0: 0a85 b33d ade2 023e 22f7 283e fdd0 a53d
000002c0: b23c c4bd 3940 233d fb72 a53c 1591 f83d
000002d0: 0eb3 1f3d ff36 013e 372a 233b 6d75 4bbd
000002e0: c929 e93d aa2b f5bd e871 993d d4a6 7dbd
000002f0: ddb8 3fbd 0ec9 513d cb67 94bd ee4a a23d
00000300: d26e d0bd 87fe 4e3d f447 3abe 87b4 caba
00000310: c1d0 96bd e865 503d 3b87 e5bd e6f1 51bd
00000320: bd61 57bd d551 943d 259b 98bd f974 8dba
00000330: 15b9 efbd 682f 1a3e d0c9 8e3d 228c a5bc
00000340: cee2 16bd 82b7 8e3d c63f f3bd 8aa7 a5bb
00000350: 3cee 64bd a084 b1bd e55c ac3d 6de3 5b3d
00000360: a6b0 a5bd 2b8d c53d 5ebe c0bd 6909 183e
00000370: 0913 6fbd ef58 acbd 3082 d3bb e774 9b3d
00000380: f898 acbc 7734 70bd ed42 d33c 690e 14bd
00000390: b2cb d83c 42c9 e8bd 215b 2dbd f0b7 1e3d
000003a0: 7972 64bd 9269 22bb 8fc3 303e 484b 10be
000003b0: e846 2f3e ab0f 463e efac 6fbe 8d3c de3d
000003c0: 49c5 c93d 1e0b 97bb d347 d43c efbb 19ba
000003d0: e575 d8bc 7846 81bd 31b4 343d b4fa 92bd
000003e0: 6da8 9c3c 035f 81bd e0fd 3ebe f757 c03d
000003f0: 3d4c a73d a12b 103e fad9 ecbc 24e6 ff3d
0.0068674674 -0.09945408 0.046383876 0.056209628 0.13882738 0.1334323 -0.027358787 -0.05772575
-0.18937004 0.039743707 -0.1303489 -0.10002145 -0.097890794 0.042452164 -0.18446928 -0.10123552
-0.05737991 0.0881075 -0.10526435 0.05680326 -0.011445528 -0.08032918 0.018980717 0.072179824
0.063733935 -0.053349357 0.19214265 -0.058957726 0.12871724 -0.0015109382 -0.07933188 0.20943792
-0.09028406 0.29362994 -0.085255794 -0.0034258498 -0.01532676 -0.08215536 0.0582412 0.07692527
-0.03588536 0.022375563 0.021225201 -0.026410587 -0.12728448 0.112994574 -0.067992024 -0.025549818
0.030763887 0.0121336 -0.057186525 -0.12777339 -0.11044924 0.16218048 0.12454157 0.16493835
0.060612243 -0.22650328 0.018952817 -0.083093785 -0.09197534 0.04759033 -0.08358196 -0.013505181
-0.016228158 -0.094839126 -0.029289478 0.17573671 -0.067368455 -0.29236102 -0.06566151 0.17943573
0.029147502 -0.17396367 0.04856057 -0.05345825 -0.061325703 0.0033296198 -0.024240356 -0.08075326
0.013515039 -0.0820299 0.12013046 -0.14466175 0.13009922 -0.09229465 0.0834471 -0.015402174
0.031782445 0.13365738 0.005906538 -0.03703043 -0.06522688 -0.03195306 -0.07689274 0.045443248
0.100349605 0.07001661 0.07109576 -0.022185732 -0.005060863 0.020355904 -0.016660566 -0.024778243
-0.04525943 0.12418148 0.13807802 -0.105724715 0.15148762 0.0018009674 0.12239137 0.002956637
0.080721274 0.1652248 0.06186146 0.061225675 0.05658359 -0.1591594 -0.008822719 0.14150253
-0.14788872 0.026764086 -0.07225883 0.20907621 0.007395735 -0.12136442 -0.057248805 0.043579016
0.0056068534 -0.08146976 -0.03128351 0.1616425 -0.12603052 -0.02945034 -0.03369033 -0.05215517
-0.011169151 -0.06271861 -0.021589443 -0.0059941467 0.034211773 0.03877779 0.13780862 0.0015169897
-0.044132836 0.026892658 -0.12121806 -0.12487813 -0.10418655 0.028063973 0.20113914 0.012803623
-0.055899996 -0.06505692 0.06829119 -0.06358673 -0.055064876 0.071014866 0.10579648 -0.008942023
-0.022055542 -0.087299146 -0.0719561 0.039499637 0.05663512 -0.05265441 0.13440372 0.037869856
0.021468416 -0.005854936 -0.028584236 0.04870391 0.087656096 0.12781782 0.16500524 0.08096502
-0.09581889 0.03985617 0.020196429 0.12137047 0.03898912 0.12618636 0.0024896988 -0.049672533
0.11384923 -0.11971219 0.07492429 -0.061926678 -0.04680716 0.05121713 -0.072463594 0.07924448
-0.10177387 0.050535705 -0.1819151 -0.0015465178 -0.073640354 0.050878435 -0.11207434 -0.051256083
-0.052583445 0.07242171 -0.074514665 -0.0010792307 -0.117052235 0.15057147 0.069720864 -0.020208422
-0.03683739 0.06968595 -0.11877398 -0.0050553726 -0.05589126 -0.08667874 0.08416156 0.053683687
-0.08090334 0.09646066 -0.0941131 0.1484734 -0.058367763 -0.084154 -0.0064547285 0.07590657
-0.021069035 -0.058643784 0.025788749 -0.036146555 0.026464317 -0.11366512 -0.042323235 0.038749635
-0.055773232 -0.0024782163 0.172621 -0.14091218 0.17116892 0.19341914 -0.23405813 0.10851393
0.09852082 -0.0046094796 0.025913155 -0.0005864491 -0.026423404 -0.06312269 0.044117156 -0.07176724
0.01912328 -0.0631695 -0.18651533 0.09391778 0.08168838 0.14079143 -0.028912533 0.12495068

lstm_layers.0.bias_ih_l0 f4 [296]
00000000: 8072 c0bd ad81 83bd 01c6 c9bd d689 ae3b
00000010: 9ed9 febd d713 883d 0315 613d 95fd 2c3c
00000020: e21e b8bd a2c3 e8bc f2a1 f6bc 12d2 27be
00000030: 851e aabd 7fdf 4ebd 8e32 f03c ea39 ab3d
00000040: bc5a 6abd 9611 e8bd 4459 363d 9619 20be
00000050: 75f9 953c 4360 043e 022f 0cbd 225f f6bd
00000060: c8d0 c93c 1df2 c5bd 0977 573d a758 cebc
00000070: 62fa ae3d 00a8 793c 28d6 72bb 5076 e7bd
00000080: 3630 ea3d 1e72 f13d 1189 59bd cee0 ec3d
00000090: 0f6f c73b 53c6 a13c a523 123e aa5c 9fbd
000000a0: 07be f6bd 75c3 8b3c 8946 433d 351d 07bd
000000b0: 1fc2 6abc aec5 51bc bf74 e8bb d8c0 7dbb
000000c0: d1c9 c93d ecbc 01bd 6734 b03d 84c5 cb3d
000000d0: a1a6 20bd d4a9 723d 09b6 473c 3e67 0bbe
000000e0: 566d b7bd 2146 063d c428 b93d 5eed 41bc
000000f0: 1659 873d 8aa9 2c3d 59f2 91bb a052 20bd
00000100: 8005 93bd 440e d2bd 7817 793d eeee ab3b
00000110: 79d0 873d fa00 e63d 228f 40bd 4d40 b83d
00000120: 7ad3 2d3d 6360 e33d eb76 12be 01f7 d1bd
00000130: 34be af3c 94d4 9c3c 7623 44bd 84cb d8bc
00000140: facb ba39 d653 8d3d f34f d43c ad32 1fbc
00000150: 42e2 c33d e6f5 833c 86a9 6e3d 7083 fcbc
00000160: 7da7 03be 115e 65bc 746f 01be 0673 0e3d
00000170: 357b c1bd e591 e2bd ef03 01be ae8c 103e
00000180: 2bb8 993c 8924 4b3c 14e4 64bc 5ab3 e3bd
00000190: 71b2 6bbd 3239 cc3d a7b8 0c3e c096 ce3d
000001a0: 6ed7 773d 4c79 ae3d 2332 d53d 37be f23b
000001b0: 32e5 b4bd a202 1cbe 1104 5ebd 4dac 17bd
000001c0: d631 5c3d f715 3a3d 7cef 06be 9120 c4bc
000001d0: e32b 96bd 3fb5 09be da3b d9bd d47c 633d
000001e0: 6379 d13c 6321 12bd 3420 ebb9 5e79 a5bd
000001f0: bdbc ab3d a5b0 253d f740 28bd 8a61 a2bc
00000200: a20f 9bbc 8f83 c33c 6c60 1cbe b229 81bd
00000210: 0448 abbd ac21 fb3b 1d07 0c3d 48fd a5bd
00000220: 230c 243d a4a4 8a3d aa97 f03d 4a66 0d3d
00000230: 1995 10be 268b 4a3d d4b7 ffbd 30e3 60bd
00000240: 715a 10bd ad2b e83d 91cb c93c 9870 633c
00000250: a4ae c03d 7c79 debd 49dd 9dbd fb3b b3bd
00000260: a19e 67bd ff70 1dbd 1918 18bc c490 33bc
00000270: c40a 8fbd 8f8c 063d a2b5 b83d 31a8 7bbd
00000280: dae3 08be 4516 6ebc 745d d3bd c659 ea3c
00000290: 4a8f 86bd 968b 933d 6524 32bd f40b a0bd
000002a0: 326b a83d 7aa0 9d3b 8414 ea3d 3352 ddbd
000002b0: 21c2 9d3c a29d 0d3c 5c04 9c39 e496 39bc
000002c0: ee27 a43c c9e2 463c d104 803d 7002 053e
000002d0: ab87 093e 90a2 05bd 544f 08be 45c0 63bd
000002e0: e7f3 843d 45d8 8c3d 43fc f9bd 9948 dd3d
000002f0: ac4b 1bbd 015e 0dbc 6d7a abbc b9d4 e2b9
00000300: 5c4b 1abc c585 483d 77cf b33d f782 9b3d
00000310: 3539 3a3c 943d 7ebc ec28 93bd 3710 04be
00000320: ee30 0d3e fc6a 18bd a963 bc3d d5f2 a63d
00000330: c540 1a3d 4306 f0bd 5577 87bd e4aa 8cbd
00000340: 7535 c8bd b5b2 31be f7f0 ca3d e686 153c
00000350: 7045 a5bc 7e93 093e f2da c9bd c450 123e
00000360: eb93 f8bd 7d0c 8cbd 05bd 983c 9946 833d
00000370: 7e4e 013d a2da 03be 83dd e7bd 2b11 233e
00000380: 59c1 2a3c c26d bbbc aa62 ecbd 7dd3 9dbd
00000390: 2c2b 1f3c 94a3 b53d 3d57 52bd 6668 a7bd
000003a0: cd99 083d 8d37 e9bd 7440 1f3d b2c1 383b
000003b0: e92d 5fbc 5b59 ad3d 9273 183e 9e22 39bd
000003c0: 3654 cf3b f7ca d2bd 42ba 613d 516c 1d3d
000003d0: 5652 4e3d 14f4 2f3d 9b33 833d dc68 92bd
000003e0: 19ad 85bc f617 c83d 7ded 4e3d eecc 8cbd
000003f0: 9ad0 09bc ccac 1f3d 82e2 c63d af45 c83d
-0.09396839 -0.06421218 -0.098522194 0.00532649 -0.12443851 0.06644409 0.05495168 0.010558506
-0.089902654 -0.028413597 -0.030106518 -0.16388729 -0.083066024 -0.05050611 0.029320981 0.083606556
-0.057215437 -0.11331479 0.044518724 -0.1563476 0.018307427 0.12927346 -0.034224518 -0.12029864
0.024635687 -0.0966532 0.052603755 -0.025188757 0.085438505 0.015237808 -0.0037053917 -0.11301863
0.11434977 0.11789344 -0.053109232 0.115663156 0.0060862373 0.019747889 0.1427141 -0.07781346
-0.120479636 0.017060975 0.04767469 -0.03298684 -0.014328509 -0.012803478 -0.0070939953 -0.003871968
0.098529465 -0.03167431 0.08603745 0.099497825 -0.03922141 0.059243992 0.012189397 -0.13613603
-0.08956401 0.032781724 0.090409786 -0.011836378 0.06608789 0.042153873 -0.004453939 -0.039141297
-0.071787834 -0.10256627 0.060813397 0.0052469885 0.0663156 0.11230655 -0.047011502 0.089966394
0.042438008 0.11102369 -0.14303176 -0.102521904 0.021453 0.019144334 -0.04788538 -0.026464231
0.0003562866 0.06900756 0.025917029 -0.009716672 0.0956464 0.016108464 0.05826714 -0.030824393
-0.1285686 -0.013999478 -0.12640172 0.034777664 -0.09447328 -0.110629834 -0.12599157 0.14116165
0.018764576 0.012398847 -0.013970394 -0.11118193 -0.05754322 0.09971847 0.13742314 0.10087347
0.060508184 0.08519229 0.104099534 0.0074079293 -0.08832778 -0.1523538 -0.054203097 -0.037029553
0.053758465 0.045431104 -0.13177294 -0.02394131 -0.073325895 -0.13448046 -0.10607119 0.055538967
0.025570577 -0.03567637 -0.00044846686 -0.080797896 0.08385608 0.040451664 -0.04107758 -0.0198219
-0.018928353 0.023866443 -0.15271157 -0.06306781 -0.08363345 0.007663926 0.03418647 -0.0810495
0.040050637 0.06769684 0.117476776 0.03452138 -0.14119376 0.04944911 -0.12486234 -0.054904163
-0.0352425 0.113364555 0.0246332 0.013881825 0.0940831 -0.10863015 -0.077082224 -0.08751675
-0.056547765 -0.03843784 -0.009283089 -0.010959808 -0.06984475 0.03284889 0.09019019 -0.061439697
-0.13368168 -0.014531677 -0.10320559 0.02860726 -0.06570299 0.07204358 -0.04349174 -0.0781478
0.08223571 0.00481039 0.11429694 -0.10806694 0.019257607 0.00864354 0.00029757887 -0.011327479
0.020038571 0.012139031 0.06250919 0.12989211 0.1343066 -0.032625735 -0.13311511 -0.055603284
0.06491833 0.06877188 -0.12206318 0.108048625 -0.037913963 -0.008628369 -0.0209324 -0.0004326457
-0.009417381 0.048955698 0.08779805 0.07593339 0.011366178 -0.015517611 -0.071855396 -0.1289681
0.13788196 -0.037211403 0.09198696 0.08151785 0.037659425 -0.11719944 -0.06614558 -0.06868532
-0.09775821 -0.17353328 0.09909242 0.009126401 -0.020174712 0.1343517 -0.09856214 0.14288622
-0.12137588 -0.068383195 0.018644819 0.0640995 0.031568997 -0.1287637 -0.11321547 0.15924518
0.010422074 -0.022879485 -0.11542256 -0.07706354 0.009714883 0.08869091 -0.05135273 -0.08174209
0.0333498 -0.113875486 0.038879827 0.0028191623 -0.013621786 0.08464309 0.14887837 -0.04519903
0.0063271774 -0.10292619 0.05510927 0.038433377 0.05037149 0.04295738 0.06406327 -0.071489066
-0.016317891 0.09770195 0.050519455 -0.06875025 -0.008411551 0.03898315 0.09711172 0.09778916

lstm_layers.0.bias_hh_l0 f4 [296]
00000000: d79e 8bbc 8b7c 753a 7223 21be 1bd4 7c3c
00000010: 869c bcbd 7de5 773c 31b2 323d 5f9f 29bd
00000020: 2892 f4bd 66d8 f13d 3a0f 86bd bb1b a4bc
00000030: 80f1 2bbd 70a6 013d 9c00 413d 9666 debc
00000040: 231c 0f3e cc43 1c3d 0c0d 92bc 8baf 4fbe
00000050: 8b10 cbbd b1be da3d 2942 c3bc fccc a7bd
00000060: a9f0 b1bd 5fd0 e3bd 4065 cfbd 0b27 1d3e
00000070: 2bb5 64bd 5d6b 0b3e d7d3 46bc 1414 1a3d
00000080: eaf3 0c3d 8a40 f83b 0e80 683d e985 c83d
00000090: d07d d5bc 0fb3 683c b7b3 013e d5d4 84bd
000000a0: 19b7 73bd 0f6e 74bd 25e5 133d 66d1 76bd
000000b0: a9f2 b5bd 3d40 8f3d 701d 08be 6e54 963d
000000c0: d3d5 aabc 166d a83d 9bcb 1c3e 5a44 8f3d
000000d0: 2804 da3d 828e f43d ee3a ffbd 3776 ad3c
000000e0: deb3 a3bd 1976 9dbd ecbc c439 9772 11bc
000000f0: 688f d03c e3d4 e0bd 363f c13d 1f2e a53d
00000100: ccf9 b43d 3cde eebd e76e 80bd aba7 cabd
00000110: 2c5a 9bbd e914 1c3e 5999 903c ce0b 37bb
00000120: f1a5 9f3d 3d76 db3d 08a4 d6bd 3f1a 98bc
00000130: 54cb 523b 1899 2bbe 339a 873d 199f 8cbd
00000140: b6ad e4bd 32b8 d4bd 84cf 433d ed6a 213d
00000150: ec16 0ebd 8f6f 26be 07ea 08bd dba6 3ebe
00000160: 747b 093c af5d 6cbc 6671 1dbe c6df c03c
00000170: 2b45 283d 9600 46be d0cb f7bc 2945 98bd
00000180: d7f8 a0bd 7ae0 4ebd 0d7f 20be 3e03 e1bd
00000190: 319e 02be 4a83 4f3c 03da ec3d 94c2 f03d
000001a0: 06d7 e3bd fe5c 06bd 6c57 503d c618 193c
000001b0: fd76 68bb 0a8e 5dbd 304d 193b 590a 3e3a
000001c0: 6760 a23d 50db 6ebc 2314 18be 03d5 aabc
000001d0: 8848 1dbe b8a6 eabd 0009 e33b 93f8 35bc
000001e0: 89b4 00be 9af9 bbbd 1584 1d3d 7abc 6fbc
000001f0: 61e5 043e e9d0 d33c 7a89 123e d8f4 073e
00000200: 22c1 d1bd 7715 56bd 7805 823d beab 92bd
00000210: e0ae 66bd 0731 80bd effc c1bd c2c8 a93d
00000220: 7a5a 983d cd04 5d3d e5d2 22bd 3d00 2e3d
00000230: 817e 85bd 042e ba3c 36bd 7bbd 138d f93d
00000240: 6749 683c a6d3 c73d 3feb 003d 71e8 69bc
00000250: b427 dfbd 2d4f 9e3d aa0b 9dbd 3706 093d
00000260: b844 a03d ed79 49bd 3091 adbc 4a5d 26bd
00000270: 4ff1 0cbc 91e8 753d 1f9b 8d3c f7d7 fcbd
00000280: 583a f6bd f0a4 533d dd99 393c 037f 703c
00000290: d154 acbc 2284 a03d ff67 2fbc 2f9f 5f3c
000002a0: e73d b2bc f374 04be 46d2 1e3e f86d d6bc
000002b0: 36f8 1b3c a3ef 073b d371 903c fcc5 bb3d
000002c0: a583 033c d93e 1a3e 22df 5fbc 5dee 043e
000002d0: 8d09 ed3d 3768 823d df53 7abd 30b5 d23d
000002e0: dbca b4bd 330c 51bc e80a 92bd 1094 2a3d
000002f0: 3127 24bd 9aad b4bc b882 86bd 8852 80bd
00000300: 077a c3bd 0a08 c33d 9f2b 4d3b 33e8 93bd
00000310: 73a2 35bd d3c7 24bd 8156 793d b3de d7bb
00000320: b808 023e 2c73 0abc 18cb 52bd 3554 3ebc
00000330: 71bc e2bc 51be b6bd e405 4a3d b8de 133d
00000340: c6cd 6abd 9818 06be bf13 e1bd 3962 0ebd
00000350: 97ce d53d 22f5 edbc 361c e53c 562c cb3d
00000360: 926f cc3d b04f 633d 80c0 0bbe daaa d5bd
00000370: 9422 64bd 71b4 073b 3b1b 23bd 47a1 0b3e
00000380: 08bc 8abd b782 ea3a 8cf2 a9bd 1bb9 c5bd
00000390: 9a53 04be f67a 8a3d c22d cc3c 3165 df3c
000003a0: bb00 a33d 5518 96bd 0132 993d 9768 a8bd
000003b0: 4b4b 1cbd 5aec a53d 9a04 753d 87f3 673d
000003c0: c1bd a1bd 2c43 88bc 5a29 19bd 0f25 c53c
000003d0: 0fa6 f03d bca7 bcbc 804e 9c3d 5226 453c
000003e0: 2eab 353d 5196 3b3d eece 41bd c22a 113e
000003f0: 5800 c83d f480 d33d c9c4 fabc 46fd 0f3e
-0.017043514 0.00093645666 -0.15736178 0.015431429 -0.09209542 0.015130398 0.043626968 -0.041411754
-0.119419396 0.11808853 -0.06545873 -0.020032754 -0.04197836 0.031652868 0.04711972 -0.027148526
0.13975577 0.038150594 -0.017828487 -0.20281808 -0.09915265 0.10680903 -0.023835259 -0.081933945
-0.086884804 -0.11123728 -0.10126734 0.15346925 -0.055836838 0.13615175 -0.0121354675 0.037616804
0.034412302 0.007576053 0.056762747 0.09791166 -0.026060969 0.014202847 0.12666212 -0.06485907
-0.059500787 -0.059675273 0.0361072 -0.06025829 -0.088841744 0.06994674 -0.1329248 0.073403224
-0.020853912 0.082239315 0.15312044 0.06995459 0.10645324 0.11941244 -0.12462412 0.021174533
-0.07993291 -0.07688541 0.0003752479 -0.008877418 0.025459006 -0.10978105 0.09435885 0.080654375
0.088367075 -0.116634816 -0.06271153 -0.098952614 -0.07585558 0.15242352 0.017651247 -0.002793062
0.07795323 0.107159115 -0.10480505 -0.018567203 0.003216465 -0.1675762 0.06621208 -0.06866283
-0.11165945 -0.10386695 0.047805324 0.039408613 -0.03468983 -0.16253494 -0.03342631 -0.18618338
0.00839125 -0.014426633 -0.1537529 0.023544203 0.04108159 -0.19336161 -0.030248553 -0.07435066
-0.078599624 -0.050507046 -0.15673466 -0.109869465 -0.12755658 0.012665579 0.1156502 0.11755863
-0.11124997 -0.032803528 0.050864622 0.009344285 -0.0035471313 -0.054090537 0.0023391955 0.0007249467
0.079285435 -0.014578655 -0.14851432 -0.020853525 -0.153597 -0.1145758 0.006928563 -0.011106628
-0.12568869 -0.09178467 0.03845604 -0.014632339 0.12978126 0.025856452 0.14310256 0.13276994
-0.10241915 -0.052266564 0.06348699 -0.071616635 -0.056319118 -0.06259351 -0.094720714 0.08290245
0.07439132 0.053959657 -0.039751906 0.042480696 -0.06518269 0.02272702 -0.061459742 0.12185111
0.014177657 0.097571656 0.03147435 -0.01427661 -0.10896245 0.07729945 -0.0766824 0.033453193
0.07825607 -0.049188543 -0.021187395 -0.04061631 -0.008602454 0.060036246 0.017285882 -0.123458795
-0.12022847 0.05167097 0.011328188 0.014678719 -0.021036537 0.07837702 -0.010705947 0.013648792
-0.021758033 -0.12935238 0.155099 -0.026175484 0.009519627 0.00207422 0.0176324 0.09168622
0.008026992 0.15063037 -0.013664039 0.12981553 0.11574087 0.06367534 -0.061115142 0.10288465
-0.08827754 -0.012759256 -0.071309865 0.04164511 -0.04007644 -0.022055436 -0.065679014 -0.062657416
-0.09544759 0.09523018 0.0031306518 -0.07222023 -0.044344377 -0.04022963 0.060873512 -0.006587827
0.12698638 -0.008450311 -0.051463217 -0.011616756 -0.027677746 -0.08923019 0.049322024 0.036101073
-0.057325147 -0.1309532 -0.109900944 -0.03476164 0.104397945 -0.029047552 0.027967554 0.09920566
0.09982218 0.055495918 -0.13647652 -0.10432978 -0.05569704 0.0020706917 -0.03982089 0.13635741
-0.06774145 0.0017891739 -0.08298215 -0.09654447 -0.12922516 0.06761734 0.024924163 0.027269932
0.07959124 -0.0732886 0.074802406 -0.08223074 -0.038157742 0.08101721 0.05981884 0.05662873
-0.07897521 -0.016633593 -0.03739295 0.024065522 0.11750423 -0.0230292 0.0763216 0.012033062
0.044352703 0.04579765 -0.047316484 0.14176467 0.097656906 0.1032733 -0.030611413 0.1406146

lstm_layers.0.weight_ih_l0_reverse f4 [296, 11]
00000000: 46b3 563d e124 333b d518 cdbd 7f98 833d
00000010: 5ed8 f6bd 28b4 3d3e 4715 7c3d 4a65 563e
00000020: 08ba 1b3d 3921 2bbc e4fb 69be d6c5 6e3d
00000030: e952 823d cbc2 34be d63a c7bd 2ed7 b4bc
00000040: 96b0 22bd ab8c dcbd cae5 09be 0170 4cbd
00000050: 4bc5 0abe 6101 6d3b 030e 64bd c195 62bd
00000060: f878 723e ec6b acbd 0d0d 1ebe 7146 7f3d
00000070: 45b4 fe3d 9f8d 453d 6386 b13d 291e 7ebd
00000080: 0d1b debb 6616 1d3d efd8 b6bd 45e5 fe3c
00000090: 9a79 e9bd 9d68 83be 84e2 12bd 878d 8d3d
000000a0: 5507 45bc a274 1bbd 9553 bbbd 1ef6 ad3b
000000b0: b7e9 143c da9a e8bd eabe a03d fd63 03bd
000000c0: c80c 8b3d 815d a73d 8310 85bd a69d f43d
000000d0: 166c 923c 338e 243e f30a 6d3e 91c5 ff3d
000000e0: 6084 353d 85ee 0cbe 3b09 2c3b 5d54 45bd
000000f0: d0d3 e43c 6f2a c4bd bc19 a8bd 45df 5a3c
00000100: c16e 8dbc 031e ec3d 9c3c 78bd 1620 cf3d
00000110: 05cc 8d3d 13a4 92bd b7ac 023e 50cd fd3d
00000120: 40d8 d3bc 2fdc 003e dba4 9f3d c869 be3d
00000130: 531d bd3a bfe1 873d 0139 823d c5b2 3a3e
00000140: 8fdd 253e 5aab cfbd 6588 743d 3a8c 233e
00000150: d6ca d83d 53e5 fa3d 161f d23d f418 99bd
00000160: b1bb 1f3e 512e 1bbc 2026 4e3d bea1 883e
00000170: 0e0a 15be 9a41 86bd 9802 173e 6ad0 413d
00000180: f023 83bd 7321 7ebd e885 debd 2487 4abd
00000190: 2f15 81bc 9534 38be a0d0 abbd 16ce b93d
000001a0: b03e e03d 6754 de3d f6fa ef3c 16e7 1abb
000001b0: d17b 163e a1cc 5bbe 0c7d 84bd 72ff 93bd
000001c0: eb52 82be 5ad7 483c f7c8 26bd e832 bbbd
000001d0: 996a 1bbe 27af 2c3c 8df2 dbbd ce17 d3bd
000001e0: 6b06 debd 9744 ddbd d887 9f3d 815d ca3d
000001f0: 850d 243d 292a 6f3d 741a 363e 0ed3 51bd
00000200: 9568 ce3d 185a e43d db16 6d3d f43d 5c3e
00000210: e494 e63d 3d0a 433d 882b 5abe 50f6 0fbe
00000220: 2d8c 00bd ef96 30bd 7907 b2bd 13e3 10be
00000230: a003 6a3d c79a e8ba 353b ae3d 65c3 1cbd
00000240: 071d 823d 4857 c2ba 1abd 313d 7378 edbd
00000250: 4a1a f33d be56 d03d 380b 0c3e cf4e e53c
00000260: 25a4 4d3c a0e4 bcbd bb94 8bbc 4cad 3d3e
00000270: 09f4 fdbc 1e5e 9ebe 5aad 8dbd 4092 d53d
00000280: 6a5c e9bc a195 1e3e 3cd6 283e 1d1b eebd
00000290: af36 ce3e 957e fb3d f7ff 003e f6e3 853d
000002a0: bdb6 833d 99da c6bd 3da1 c5bd 231a 9e3d
000002b0: 4e6d a6bd ea8f 933c c30e 9ebb fe79 56bd
000002c0: e1b3 e33d 6467 3d3e 93bc 4e3e aa01 6e3d
000002d0: 5569 73bd ea7c 6dbd bc13 43bd e256 7ebd
000002e0: da34 b2bc cf29 503d b1cb fbbd bb03 19bd
000002f0: 6c64 17be f67d 1cbe 171d 2ebb 29a4 433d
00000300: 7447 2c3d ea6f 8fbd 8f0b 52bd a689 c2bc
00000310: dec1 0d3c c1b9 3cbe ebef 1c3e 9c14 b53c
00000320: 15c3 e63d 5b07 0b3c 3cac b3bd 9815 353e
00000330: 39ee 243e 129b 163e 4ea4 26bd 294b 15be
00000340: ae1a 8d3d 2864 9dbd d97f 94bc 96b9 d1bc
00000350: adb9 da3d 6718 17be a056 603d 68d5 123d
00000360: e885 8f3d 2f43 37bd a088 393d 0fe9 83bd
00000370: 553e 84bd c5fd 0ebe 4171 16bd f4f8 2b3e
00000380: 1818 1cbd 7eba 1fbd d855 0dbd f532 a7bd
00000390: 2c07 02be 4578 07be 12a3 843c 36c5 c7bd
000003a0: 1a37 a43d 4182 12bd 1c2c 073e 37b3 5fbd
000003b0: 3e8e d23d 89eb a03d c166 a2bd 06f9 a5bd
000003c0: 7284 96bb 65da 023a 3aa5 24bd fcc3 8c3d
000003d0: 4b83 f9bd 04db 07bb 6ab8 443e 6da2 743c
000003e0: 8428 35be aebd eebd 674a 5ebc 2eaa 81bd
000003f0: 9ee4 be3d 7b4d 1f3d 27a6 aabd e563 533e
0.052417062 0.0027335214 -0.10014502 0.06425571 -0.120529875 0.18525755 0.06154373 0.20937076
0.03801921 -0.010444933 -0.22849995 0.05829414 0.0636347 -0.17652433 -0.09728019 -0.022075262
-0.039719187 -0.10769018 -0.13466564 -0.049911503 -0.13551824 0.0036164152 -0.055677425 -0.055318598
0.23678958 -0.08419022 -0.15434666 0.062323038 0.124367274 0.048230764 0.0866821 -0.06204048
-0.006778127 0.03835144 -0.089280955 0.031115184 -0.11400147 -0.2566575 -0.035860553 0.0691176
-0.012025674 -0.037953027 -0.091468014 0.0053088805 0.009088925 -0.113576606 0.07848914 -0.032077778
0.06789547 0.08172131 -0.0649729 0.119441316 0.017873805 0.1606987 0.23148708 0.12488855
0.044315696 -0.13762863 0.002625062 -0.04817616 0.027933031 -0.09578406 -0.082080334 0.013358896
-0.017264726 0.11529162 -0.060604677 0.10113542 0.06923679 -0.07160201 0.12761198 0.12392676
-0.025859952 0.12583993 0.077951156 0.0929752 0.0014428295 0.066348545 0.06358529 0.18232258
0.16197799 -0.101401046 0.05970039 0.15971461 0.10585563 0.122507714 0.102598354 -0.074754626
0.15598942 -0.009471492 0.050329328 0.266859 -0.14554617 -0.06555481 0.14747083 0.0473179
-0.06403339 -0.06204362 -0.10865384 -0.049445286 -0.015757171 -0.17988808 -0.083894014 0.09072511
0.10949457 0.10855942 0.029294472 -0.0023636273 0.1469567 -0.21464778 -0.06469163 -0.07226457
-0.25453886 0.012258375 -0.040719 -0.09140569 -0.15177383 0.010539806 -0.10739622 -0.10307275
-0.10841068 -0.10804098 0.07789582 0.09881116 0.040051956 0.058389816 0.17783529 -0.051226668
0.10078541 0.111499965 0.057883125 0.21508008 0.112588674 0.047617186 -0.21305668 -0.14058805
-0.031383682 -0.04311269 -0.086928315 -0.14149122 0.057132363 -0.0017746323 0.085073866 -0.03827228
0.06353193 -0.0014827037 0.043393232 -0.115952395 0.118702486 0.10172795 0.13676155 0.02799168
0.012551342 -0.09223294 -0.017038694 0.18523139 -0.031000154 -0.3093118 -0.0691783 0.104282856
-0.02848645 0.15486766 0.16487974 -0.11626265 0.40276095 0.12280003 0.12597643 0.06537621
0.06431339 -0.09709663 -0.096498944 0.07719829 -0.08126317 0.01801296 -0.004823537 -0.052362435
0.111182936 0.18496472 0.20189123 0.058107056 -0.059426624 -0.057980455 -0.047626242 -0.062094577
-0.021753717 0.05082112 -0.122947104 -0.037357073 -0.14784402 -0.15282425 -0.0026567632 0.047763977
0.04206033 -0.07003768 -0.051280554 -0.023747277 0.008652179 -0.18430234 0.15325896 0.022104554
0.11267678 0.00848564 -0.087730855 0.17684019 0.161065 0.14707592 -0.040684037 -0.14579453
0.06889854 -0.07685119 -0.018127369 -0.02560119 0.10679946 -0.14755403 0.054770112 0.03584805
0.070079625 -0.044741806 0.04529631 -0.06440937 -0.064572014 -0.13963993 -0.0367291 0.16794187
-0.038108915 -0.038996212 -0.034505695 -0.08164016 -0.12698048 -0.13229473 0.01619104 -0.09754412
0.08018322 -0.03576875 0.1320042 -0.054614272 0.10281037 0.07857425 -0.07929755 -0.08104138
-0.0045934254 0.000499165 -0.040196635 0.068733186 -0.12183245 -0.0020729909 0.19210973 0.014931303
-0.17691237 -0.11657272 -0.013567544 -0.06331287 0.09320949 0.03889225 -0.08332472 0.20643575

lstm_layers.0.weight_hh_l0_reverse f4 [296, 74]
00000000: 02f8 99bd a137 2dbe ce81 09be bb9d c7bd
00000010: 775a d3bd 3390 68bc 5747 103e 8ba3 51be
00000020: 96aa 04be 6569 3d3d 2cb7 4fbe f688 973a
00000030: 35ce b83d 3c24 42be 7d3e fd3d 68d4 f13a
00000040: 3be9 273e c552 d33b 892c 7e3d 78d4 77be
00000050: 18df 9dbd 3620 c3bd 36c9 74bd f956 c3bd
00000060: c345 07bd 17a0 e9bd 984b 833d bc3a cd3e
00000070: bba4 6a3b 6b1c bd3c e948 5b3e 76a3 283e
00000080: 0697 d53d 6f5a c73c 29e0 45be d1e6 bfbc
00000090: 15cf 9cbd 25a3 d83d 00ac 443e bbf8 fa3c
000000a0: 1586 e83d 46cf c6bd fd36 443e 4306 513d
000000b0: 9f2f 553e 3b37 953d cbda 763d 4ddf d5bd
000000c0: 5983 243e 11d4 b43c e89b 2bbd 74e4 c03d
000000d0: 770c c33e 33d4 883e 4966 5fbd 45c1 a83e
000000e0: d8d0 4f3d 0b26 913d ae09 2abe 5e8e c33e
000000f0: 55da e73b bd8c 01be 453c efbd 79f5 1abe
00000100: 0765 1b3e c4e8 783e 04bd ab3d f47d 543d
00000110: c910 4f3e 6f1a 14be c967 92bd dcb7 513e
00000120: 19cf c53d f9b0 bf3c 4506 12be 0001 c0bd
00000130: 6ec7 df3c 1352 173e 4c50 8fbd 43a2 b2bc
00000140: 1d84 4f3d 0719 9abd 4cb5 59bd 9fa8 15bd
00000150: 99b8 bcbd 82d7 86be d31a f43c 3248 72bd
00000160: a7d3 7cbe c8a0 e03d 59cd 0abe f84c e2bd
00000170: e913 aebb b431 1a3e 2c68 dfbd 04f4 50bd
00000180: d889 01be a74c e33c f840 943d d6ba 793d
00000190: a916 d23d e135 13bb 3311 aebc e91b 5ebe
000001a0: 97bb 14bd 3598 073c 5166 2a3c 272b ebbd
000001b0: b133 ff3b 0936 7d3d 5b07 113e c4e6 b23d
000001c0: cc02 db3b 1d39 943d d7b6 af3b 05b7 0f3d
000001d0: a3ba 523d eefd a73d b272 3d3d b8ae df3d
000001e0: e361 e4bc bf7e 083e 5e3c 003d 04ac 82bd
000001f0: a913 e53d 303a bc3c 4a55 24bd 27b2 f93c
00000200: d8ed fa3c 1b14 0d3d 3216 39bd 51db 1abd
00000210: 8a1b 23bd 2554 f03d d0c5 b13d c085 833d
00000220: ecf3 f73c cfff 423d 815a 263d a324 f43d
00000230: 5702 073d 1a97 5bbc 2729 34bd b80f 86bd
00000240: 97e6 e73d 9b90 423c 64ce 91bd a938 1f3e
00000250: 6493 84bd 9088 eabc 85a4 e9bd 85bf 6dbd
00000260: f0a5 583d 592b ac3d 0a2a c43d 27f9 7bbc
00000270: 582a 75bd bab5 c33d 865c 9f3d e45c e53d
00000280: 0fc1 89bd cba3 23bc ad24 b83d b1ba b1bd
00000290: e201 903a e0ac 43bd 856b bc3d 4aad ca3d
000002a0: 726f 1e3d f438 a83d 4b5c 85bd 9388 ba3c
000002b0: b802 fbbc f4ea 3e3d 10a5 67bd e8eb 78bd
000002c0: a919 db3d 4365 f03d cc0a d03c 1cec 34bd
000002d0: 81a6 f63c 453a cd3b 1970 14be cd8f dd3d
000002e0: e349 21bd 14a3 083d 8f85 05be 8cce 1fbe
000002f0: ca01 88bd 860d ffbc 6097 fdbd f131 293d
00000300: 17b0 703d b68e babd 87c4 b1bd fe2c b23b
00000310: c316 7d3d 1275 70bd 02e8 e7bd 957a 05bd
00000320: ea9f fd3c 82bd 21be 05b2 adbd eb07 143d
00000330: ca17 febc 6e15 503d 7c22 11bd 68eb 2e3d
00000340: 2192 053d daba 943c d917 5f3b c42a 983d
00000350: ac06 babd cfda b5bd 27bb ae3d 99ae abba
00000360: 65bf 7cbd 247a b0bd 4aee bd3d d57c 4ebc
00000370: 4482 01bd 334d b3bd ee66 04be 0ca2 b6bd
00000380: 0fde 60bc 3ba2 e53d 1b26 343d 7ed7 0e3d
00000390: 5f04 8f3d b687 bd3d cae6 6fbb ce38 e8bd
000003a0: 633b 15be 3ff5 233e 65ac 1fbd 9f31 893c
000003b0: df9d aebd 7a81 293e 090f 47bd 537c ff3d
000003c0: 39b5 113d 8a01 473d 4daa 8b3c 900e b53d
000003d0: 1c2e f2bc 2058 643d 7e51 ae3c 55d3 a8bd
000003e0: 84e3 00be 1ffb b13d 3c41 423e 8dd2 033d
000003f0: 4486 a4bb 04cb 443e e199 93bd 4f49 353c
-0.07518007 -0.16915752 -0.13428423 -0.097468816 -0.10319989 -0.014194536 0.14089714 -0.20472543
-0.12955698 0.04624309 -0.20284718 0.0011561203 0.09023706 -0.18959135 0.12365434 0.0018450143
0.16397564 0.006449076 0.06205419 -0.24202144 -0.077085674 -0.09527628 -0.059762202 -0.09538073
-0.033025514 -0.11407488 0.06410903 0.40083873 0.0035803753 0.02308484 0.21414532 0.16468605
0.10429196 0.024335114 -0.19323792 -0.023425492 -0.07656685 0.10577992 0.19206238 0.030636182
0.11353699 -0.09707503 0.19161601 0.051031362 0.20818947 0.07285925 0.06026725 -0.10442982
0.1606573 0.022073777 -0.04189673 0.09418574 0.38095447 0.26724395 -0.054540906 0.32959953
0.05073628 0.07087334 -0.16605255 0.38194555 0.0070755878 -0.12651344 -0.116814174 -0.15132703
0.15175258 0.24307543 0.08385661 0.05187793 0.20221247 -0.14463209 -0.07148702 0.20480293
0.09658641 0.023399817 -0.14260204 -0.09375191 0.027316775 0.14777403 -0.06997737 -0.021805888
0.050663102 -0.07524305 -0.053151414 -0.036537763 -0.09214897 -0.26336294 0.029797947 -0.059150882
-0.24690114 0.109681666 -0.13554896 -0.11049837 -0.005312432 0.15058023 -0.10908541 -0.05101396
-0.1265024 0.027746512 0.07238954 0.060969196 0.10258228 -0.0022462534 -0.021248436 -0.21690334
-0.036311712 0.008276035 0.010400371 -0.1148284 0.0077881445 0.06181911 0.14162962 0.08735421
0.006683683 0.07237456 0.0053623724 0.03508665 0.051447522 0.0820273 0.04625196 0.10921997
-0.027878707 0.133296 0.03130757 -0.063804656 0.111853905 0.022976965 -0.0401204 0.030480457
0.03063099 0.034443002 -0.045187183 -0.037806813 -0.039821185 0.11734799 0.08680308 0.06421995
0.030267678 0.04760724 0.040613655 0.119210504 0.032961216 -0.013402725 -0.04398456 -0.06545967
0.113232784 0.011875297 -0.07119444 0.15548958 -0.06473425 -0.028629571 -0.11408333 -0.058043975
0.052892625 0.084067054 0.09578331 -0.015379227 -0.059854835 0.09556146 0.07781319 0.11199358
-0.06726276 -0.009987782 0.0899137 -0.08678187 0.0010986889 -0.04777229 0.09200195 0.098963335
0.0386805 0.08213988 -0.06511744 0.022770202 -0.030640945 0.046610788 -0.0565539 -0.060771853
0.10698254 0.11738064 0.025395773 -0.044170484 0.030108692 0.00626305 -0.14495887 0.108184434
-0.039377104 0.03335865 -0.1303923 -0.15606135 -0.06640966 -0.031134378 -0.12382388 0.041307393
0.058761682 -0.09109251 -0.08680063 0.0054374924 0.061789285 -0.058705397 -0.11323549 -0.032587606
0.030960042 -0.15794948 -0.0848122 0.036140364 -0.031017203 0.050801687 -0.035433277 0.04270497
0.032610063 0.018155504 0.0034041314 0.07430032 -0.09083304 -0.08879625 0.0853179 -0.0013098299
-0.061705966 -0.086170465 0.09273966 -0.012603004 -0.03161837 -0.08754959 -0.1292989 -0.08917627
-0.013724818 0.11212584 0.043981653 0.034873478 0.069832556 0.092544004 -0.0036606067 -0.1133896
-0.14573435 0.16011523 -0.038982768 0.016747294 -0.08526205 0.16553298 -0.048598323 0.12474885
0.035573218 0.048585452 0.01704898 0.08840668 -0.029563002 0.055748105 0.021279093 -0.082434334
-0.1258679 0.08690476 0.18970197 0.03218322 -0.0050208885 0.1921807 -0.072070844 0.011064841

lstm_layers.0.bias_ih_l0_reverse f4 [296]
00000000: 2649 2abd 31e4 0e3c b122 413d dfee 41be
00000010: a3a7 b4bd dc50 8c3c 92e7 103e 6b58 783d
00000020: 503d 5b3c 6740 b83d 24b9 193d 1adb b43d
00000030: ee47 27bd cbfa 5abd 8ebb ca3d 2a9a 71bc
00000040: ee7b 0c3e e4db e1bc 9dbb 853d 3352 a13d
00000050: 5304 263e 3e9c 2bbd cc43 063e d0c2 263e
00000060: 99da 14bd 6d3d c0bb e954 44bb ec9e 183e
00000070: 44b5 9ebc 6c6e c33d 1b8b a63d a6ef a33c
00000080: 0d46 123e 075b cd3d 47fc fa3c 4f10 d83c
00000090: d6df 9e3d 17f5 7b3d 88e5 493c 33b3 ddbc
000000a0: a9a1 c83c 8c91 69bd 196b 44bd e6ee 923c
000000b0: 4fa3 df3c 44f4 c4bc 6d9e 203d e276 d63c
000000c0: dc4f d83c 75e5 bf3c 1bbb 853d c75c 193e
000000d0: d656 8e3d c1a4 473c 38a4 96bd 206e 103e
000000e0: 97eb 843c 51a8 ccbc 39c0 403e d39a 1fbc
000000f0: cff6 b33d 683e 32bd bb8d a1bc 1dcc bc3d
00000100: a48d 8b3d 0f1a 683c ed86 053c 8ba0 2d3c
00000110: 94b1 713d faf7 a83d fb88 8a3d 3557 d83d
00000120: 8057 953b 331b 33bd 5aab 8f3b 2f2b 08bd
00000130: 5a13 04be 7b2c fe3c f55e e0bd ab1f c53d
00000140: 84f9 01be c387 823d 956e 913d 6833 0c3d
00000150: d38d a73d 14a1 573d 6c6f 103d 28e8 c93d
00000160: 0c57 473a 7ebd c8bb 6e74 8fbc f982 553c
00000170: 22a5 013e 1078 153d 2c46 4f3d a39f c5bc
00000180: fa77 c43c a556 073e 6e0d 86bc 79ab e73d
00000190: 289e d73d 14b5 743d 2f32 b33d 1c44 273c
000001a0: 3414 973c 72bc be3d 4176 603d 991e e5ba
000001b0: ba58 033e 3c41 ed3d de62 c83c 411e b6bc
000001c0: 5292 a93d a03a b43c 61cc 8f3d ed88 37bd
000001d0: 9344 c8bc 4d14 8ebc c54b 663e a236 8dbc
000001e0: 09b3 f43c 1d1d 8d3c 4bca 3dbd 59f3 84bd
000001f0: 0045 da3d d4b1 28bc bcd6 36bb 1d46 223e
00000200: d20f 7cbc 34f2 8d3d 4082 bebc 64a0 c33c
00000210: 70e0 d53d d27d 1d3e 648d 02bc f3b9 9dbd
00000220: bd97 9ebd 91ce 623d 275d a73c 0147 bc3d
00000230: 09cd 4e3d 2d15 04bd ef4a 5a3e 251f 363e
00000240: 290a 203c 6dff 3dbb 2012 363e 817e cf3d
00000250: 7049 2bbd 48ef 67bc 3bdd 1a3c 9c81 5bbc
00000260: 9055 50bd 18c1 473d 347b 693d a63c 36bd
00000270: 1144 103d c2fd 183d 2a53 a73d e737 dabd
00000280: 1441 9ebd 6c35 27be e3f2 383d bc43 413d
00000290: 5922 a3ba b614 f9bd f534 213e fbc6 d7bd
000002a0: 830c 32bc 7872 fdbd 6162 b3bd c032 943d
000002b0: 4e60 c33d 7fc4 b53d 39e3 413c e150 103e
000002c0: b436 9e3c 8a3a 05be 5dba 43bd 312b 7a3d
000002d0: 15f3 31bd 11a0 76ba 501b 4fbd 4ed9 d5bd
000002e0: 8416 d5bc da24 803d 8060 953d 4f7f 8e3b
000002f0: 5fb7 5d3d 2063 c4bd 6b27 503d 3bf0 ab3d
00000300: b05b 123e e8ae 823d 14c1 663d 71ad be3d
00000310: 49ef 83bb 7eaf 4abc c54e a4bd 9d63 f4bd
00000320: 5426 653d bd1a 683c feed 1fbd f60d db3d
00000330: 6ba8 a2bd 08b4 85bd b732 14bd aeac 4c3d
00000340: 0885 b23d 5a6b 953d 864b 183c f12e 2e3b
00000350: 8695 183c ceaa e13c ac17 583d eb48 773d
00000360: 89df e2bd 72a6 da3d 6678 a83d c879 83bd
00000370: 0749 d3bd eeb6 c73d 566f cbbd 8de2 aabd
00000380: 4e5a f2bc 414f 65bd e95a 7fbd 543b 34bd
00000390: e102 903d 6930 2cb9 0d25 3cbc 84ef 273d
000003a0: b3e4 263d ecbf 103e 1d09 6a3d 4262 b1bc
000003b0: 83b8 943c 9bb1 42bd 5046 da3d 4880 913d
000003c0: a523 5cbd b05d 08bd f38b 4a3c 8474 063c
000003d0: 2e0c 23bd 7627 183e 08d8 c8bd 6d1e 043d
000003e0: ba58 c23d bbe8 cd3d 6b27 123c 1cbc 143e
000003f0: ee9f dabd 4898 e73d 9026 6a3b a42a 313e
-0.041573666 0.008721397 0.047152225 -0.18938778 -0.08821037 0.0171284 0.14150837 0.060631197
0.013381317 0.08996659 0.03753008 0.08830853 -0.040840082 -0.05346183 0.098990545 -0.014746228
0.1371915 -0.027570672 0.06529925 0.078770064 0.16212587 -0.04189705 0.131118 0.16285253
-0.036341283 -0.0058666975 -0.0029957837 0.14904374 -0.019373544 0.09542546 0.08132001 0.020011734
0.14284535 0.10027128 0.030637873 0.026374964 0.07757537 0.061513033 0.012322791 -0.027062988
0.024491148 -0.05702357 -0.0479537 0.017936181 0.027299551 -0.024042256 0.039213587 0.026179735
0.026405267 0.023424843 0.06529828 0.14976798 0.069501564 0.0121852765 -0.07355541 0.1410451
0.01622562 -0.024982603 0.18823327 -0.009741503 0.087873094 -0.043516546 -0.019720903 0.09218619
0.06814125 0.014166369 0.008149845 0.010597358 0.059007242 0.08250423 0.06764408 0.105635084
0.00455755 -0.04372711 0.0043844404 -0.033244308 -0.12898007 0.03102707 -0.109556116 0.09625181
-0.12692839 0.06373551 0.0710117 0.034228712 0.08181348 0.05264385 0.03526251 0.098587334
0.00076042186 -0.006126105 -0.017511573 0.013031715 0.1266065 0.036491454 0.05060403 -0.024123972
0.02398299 0.13216646 -0.016363826 0.11312003 0.10528213 0.059743002 0.08749806 0.01020911
0.01844225 0.09313287 0.054800276 -0.0017480432 0.12826815 0.11584708 0.024461206 -0.022231223
0.082798615 0.02200061 0.07021404 -0.044808317 -0.024446761 -0.017343665 0.22489841 -0.017237965
0.029870527 0.017225796 -0.0463355 -0.064917274 0.10657692 -0.010296304 -0.0027898988 0.15847059
-0.015384631 0.06930962 -0.023255467 0.023880191 0.10443199 0.15380028 -0.00796828 -0.077014826
-0.077437855 0.05537278 0.02043016 0.091932304 0.050488506 -0.032246757 0.21317647 0.17785318
0.009768047 -0.0028991357 0.17780352 0.101315506 -0.041818082 -0.01415617 0.0094521595 -0.0133976005
-0.05086285 0.048768133 0.05700226 -0.044491433 0.035221163 0.037351377 0.08170159 -0.10655194
-0.077272564 -0.16328973 0.04515351 0.047183737 -0.001244615 -0.121621534 0.15742858 -0.105359994
-0.010867241 -0.12375349 -0.08758999 0.07236242 0.09539853 0.08875369 0.011833959 0.14093353
0.019313194 -0.13010612 -0.04778515 0.061076347 -0.04344471 -0.0009408007 -0.050563157 -0.10441838
-0.026011713 0.06257029 0.072937965 0.0043486725 0.054129954 -0.09589219 0.050818842 0.0839543
0.14292789 0.06381017 0.056336477 0.09310425 -0.0040263277 -0.012370942 -0.080228366 -0.11933062
0.055944756 0.014166531 -0.039045326 0.10696022 -0.079422794 -0.06528479 -0.036181178 0.049969368
0.0871678 0.07295866 0.00929535 0.0026578272 0.009312993 0.027547266 0.05275695 0.060372274
-0.11077792 0.10676278 0.08226089 -0.06419712 -0.10316663 0.09751688 -0.09933345 -0.083439924
-0.029584076 -0.055983786 -0.062342558 -0.044001892 0.07031799 -0.00016421232 -0.011483443 0.040999904
0.04074545 0.14135712 0.057137597 -0.021653298 0.018154388 -0.04753266 0.10657942 0.07104546
-0.05374493 -0.033292472 0.012362468 0.00820649 -0.039806537 0.14858803 -0.0980683 0.03225558
0.094895795 0.100541554 0.008920531 0.14524883 -0.106750354 0.11308342 0.0035728551 0.17301422
