foundation_models/Ensemble_model29_DeepHit_ANN_Both_20250807_080119.pt (torch, 230334 bytes, 56 tensors)

conv1.weight f4 [32, 1, 3]
0.06280133 0.37881142 0.34484565 -0.36410657 0.17488977 -0.7208187 0.18760607 0.16322938
0.16362898 -0.17209037 -0.06956932 -0.65505797 -0.48637652 -0.54494697 0.1744361 0.101473
-0.24713416 0.31060424 -0.21249871 0.61085486 0.09470561 0.18237771 -0.8609192 0.09335685
-0.39961994 -0.34816504 -0.48409057 0.2734253 -0.58021694 -0.5436266 -0.37547392 -0.8513257
0.18614456 -0.73902017 0.104779 -1.0723451 -0.7058562 -0.042945415 -0.39851347 -0.13599479
-0.047193073 -0.4927849 -0.71309435 -0.202053 -0.47958702 -0.5614571 0.60038143 -0.26313376
0.2686075 -0.079292834 0.23965463 -0.007069378 -0.004620848 -0.014683327 0.027541226 -0.70949143
0.18168144 -0.23312564 -0.28786334 0.1435205 -0.22336784 -0.4084424 -0.1343614 0.16098553
0.1792538 -0.2947186 -0.012499199 -0.0054980605 -0.005376795 -0.4701994 0.10721856 0.09275242
-0.7841036 -0.42702696 -0.15033123 -0.07833635 0.36314446 -0.35964936 -0.6238539 0.47172102
0.384157 -0.167437 -0.16498823 0.33544147 0.16209716 -0.51409596 -0.0067792498 -0.46449667
-0.27913272 -0.7637307 0.27332073 -0.8836629 -0.03390144 -0.41242 0.323619 -0.103329524
00000000: fc9d 803d 92f3 c13e 9c8f b03e 2d6c babe
00000010: 4e16 333e 9387 38bf ce1b 403e 9a25 273e
00000020: 5b8e 273e 7538 30be 5c7a 8ebd e1b1 27bf
00000030: 5806 f9be a581 0bbf 619f 323e 14d1 cf3d
00000040: bd10 7dbe 8507 9f3e 4399 59be fc60 1c3f
00000050: 04f5 c13d 39c1 3a3e 3365 5cbf e031 bf3d
00000060: fc9a ccbe b042 b2be b8da f7be 67fe 8b3e
00000070: 1989 14bf 1d2b 0bbf 1e3e c0be 7bf0 59bf
00000080: ae9c 3e3e 6d30 3dbf 5f96 d63d 9b42 89bf
00000090: feb2 34bf 88e7 2fbd f509 ccbe 3842 0bbe
000000a0: 864d 41bd 4d4e fcbe 5a8d 36bf fbe6 4ebe
000000b0: 6e8c f5be a7bb 0fbf 99b2 193f 78b9 86be
000000c0: ec86 893e 4864 a2bd 0668 753e 3ea6 e7bb
000000d0: 7c6a 97bb 5692 70bc 239e e13c 3ba1 35bf
000000e0: b30a 3a3e 7db8 6ebe d362 93be 0af7 123e
000000f0: 8aba 64be 5d1f d1be 0996 09be 64d9 243e
00000100: 4f8e 373e 5be5 96be 71c9 4cbc 1329 b4bb
00000110: d32f b0bb fabd f0be 6895 db3d fbf4 bd3d
00000120: 03bb 48bf 47a3 dabe 6ef0 19be cf6e a0bd
00000130: 12ee b93e f623 b8be e4b4 1fbf 6b85 f13e
00000140: 3ab0 c43e 9b74 2bbe adf2 28be fcbe ab3e
00000150: ccfc 253e cb9b 03bf 7824 debb 82d2 edbe
00000160: 7cea 8ebe db83 43bf b2f0 8b3e bb37 62bf
00000170: 3ddc 0abd b728 d3be 64b1 a53e 6e9e d3bd

conv1.bias f4 [32]
0.10598287 -0.44450033 -0.15540165 0.8515806 0.14775696 0.4324932 -0.10621459 -0.5715538
-0.56574667 -0.679976 -0.09157936 -0.053106327 0.46568295 0.71188074 0.06122231 -0.09344437
-0.5597663 -0.010828942 -0.34585497 0.14622849 0.710982 -0.7330747 0.39630368 -0.010680066
-0.351202 0.24775317 0.17579305 0.2515386 -0.4464766 0.58822054 0.43827638 -0.34698012
00000000: 8c0d d93d 8c95 e3be 9c21 1fbe 3001 5a3f
00000010: 9a4d 173e c06f dd3e 0987 d9bd 5a51 12bf
00000020: c6d4 10bf e812 2ebf f68d bbbd 0586 59bd
00000030: ff6d ee3e d13d 363f 3fc4 7a3d c35f bfbd
00000040: d84c 0fbf e06b 31bc e713 b1be ecbc 153e
00000050: eb02 363f c9aa 3bbf 51e8 ca3e 72fb 2ebc
00000060: c0d0 b3be 02b3 7d3e 1803 343e abc9 803e
00000070: 9598 e4be 9f95 163f c365 e03e 61a7 b1be

conv2.weight f4 [64, 32, 3]
-0.056699645 -0.055149514 -0.12564978 -0.041709714 0.00012863435 0.05022358 -0.08236983 0.04055736
-0.036351703 -0.09037612 -0.0021070207 0.028058853 -0.027718112 0.027707033 -0.01101582 -0.003863121
-0.1143931 0.012428798 0.018710183 -0.041003015 0.074121274 0.061132286 0.04833266 -0.01327214
0.017351303 0.09785399 0.0042977696 -0.08365815 -0.05635675 -0.08007437 -0.053089052 -0.018149955
0.08766988 0.09924513 -0.08551881 0.061819658 -0.012320125 -0.03974457 0.021145582 -0.07819386
-0.009211158 -0.026404774 0.02820999 -0.067107745 -0.05539901 0.07373026 0.038850054 0.002272082
-0.040984545 -0.011410567 -0.106046826 0.09499773 0.07130105 -0.08347833 0.07315372 -0.091069676
0.031814665 0.05233048 -0.065452345 -0.043346327 0.047784567 -0.059933495 0.06837514 0.015297792
-0.05670831 -0.03843064 -0.0525036 0.082135364 0.063405104 0.08806346 0.02660268 0.073626205
0.060380526 -0.04980203 0.06649433 -0.050389413 0.019532159 0.10164282 0.025015272 -0.04302884
0.028365774 -0.054568015 0.0033327418 -0.013540593 0.06942731 -0.030140538 0.0746037 0.071443155
0.046322845 0.03504312 -0.035193037 -0.026360115 -0.036583744 0.021075064 0.08333857 -0.001659208
0.15540211 -0.056153692 0.14681154 0.04218257 0.072846375 0.2355952 0.08414305 -0.024847483
5.1303905e-05 0.4137616 0.0061924057 0.62598896 0.037477754 -0.3471578 0.0034670632 0.04709032
-0.103278056 0.18838806 0.21614999 0.0966391 0.083813995 0.63292146 -0.48130944 -0.1708711
-0.054760806 -0.054490227 0.11305689 0.3884648 0.078972325 -0.090814464 -0.14199005 -0.3897516
-0.48083094 -0.26487243 0.35896003 0.46632957 0.093858875 -0.100324616 -0.061160672 0.20964234
0.04575863 0.60500014 -0.0025330263 0.17566817 -0.6566759 -0.044434424 -0.1586128 -0.09014494
0.13095249 -0.12633526 0.22081636 -0.0004081383 0.004733542 -0.00020127735 -0.07470593 -0.121642634
-0.0012920977 0.011239409 0.076368354 -0.003732993 0.09089709 -0.102861114 -0.25238457 0.21866035
-0.060339253 -0.4025977 -0.06672929 -0.10431956 -0.021771194 0.059981372 0.01009891 -0.07713351
-0.36797664 0.2021583 0.41130713 -0.045284856 0.3028904 0.21872973 0.11125454 0.18406196
0.0066043637 0.038660888 -0.18191281 -0.45278746 0.31771278 -0.084811926 -0.112408936 -0.0989685
-0.12395539 0.4741742 0.28244308 -0.0071717673 -0.0720317 -0.098036915 0.018339675 0.40062633
-0.1757744 0.21161324 0.29544184 0.039183144 0.52845234 0.006609201 -0.020127967 0.21837635
0.05948824 0.2295711 -0.065720215 0.006659626 0.16840708 -0.7341159 0.21200955 0.08944352
0.1876637 0.0035697815 -0.07032349 0.15259753 -0.022714548 0.4797829 -0.51868767 0.2785177
-0.048084326 0.042311672 0.058279607 -0.0073994193 -0.16960408 0.32433218 -0.23350972 -0.13114637
-0.86241305 0.48310238 -0.46344224 0.44716015 0.3221699 -0.11679676 0.37076727 -0.2245001
-0.042894606 0.13183159 0.1817514 -0.31692463 0.8313959 0.057425663 -0.03685671 0.48482245
-0.101501256 0.17791788 0.07315173 0.003279282 0.022882268 -0.016363375 -0.19068502 0.4518577
-1.0199621 0.1325977 0.049423534 0.057096943 0.38085616 -0.17618524 -0.037096594 -0.0276108
00000000: e33d 68bd 75e4 61bd 56aa 00be ced7 2abd
00000010: 05e2 0639 3eb7 4d3d 83b1 a8bd 791f 263d
00000020: 86e5 14bd 1d17 b9bd f115 0abb aedb e53c
00000030: 1811 e3bc dcf9 e23c b37b 34bc 6a2c 7dbb
00000040: ee46 eabd 28a2 4b3c 1946 993c c7f2 27bd
00000050: e5cc 973d d965 7a3d 78f8 453d 6473 59bc
00000060: 5224 8e3c ac67 c83d 4ed4 8c3b f754 abbd
00000070: 56d6 66bd 08fe a3bd e873 59bd 37af 94bc
00000080: 448c b33d 0841 cb3d 7c24 afbd 9c36 7d3d
00000090: 59da 49bc 34cb 22bd 8039 ad3c 1a24 a0bd
000000a0: 66ea 16bc d34e d8bc a318 e73c c96f 89bd
000000b0: 13ea 62bd e4ff 963d 3c21 1f3d 36e7 143b
000000c0: 69df 27bd 63f3 3abc 142f d9bd 2b8e c23d
000000d0: 4906 923d b0f6 aabd 9ed1 953d bd82 babd
000000e0: 1850 023d 7c58 563d e10b 86bd eb8b 31bd
000000f0: c0b9 433d d37c 75bd 4408 8c3d 97a3 7a3c
00000100: f946 68bd 7269 1dbd 040e 57bd 9636 a83d
00000110: 89da 813d 9e5a b43d dded d93c 56c9 963d
00000120: 9251 773d 37fd 4bbd 2e2e 883d 2165 4ebd
00000130: e801 a03c 1c2a d03d d4ec cc3c 023f 30bd
00000140: 575f e83c b682 5fbd 216a 5a3b 5dd9 5dbc
00000150: e82f 8e3d 4ae9 f6bc d3c9 983d ca50 923d
00000160: 06bd 3d3d 6089 0f3d 9326 10bd 2bf1 d7bc
00000170: d6d8 15bd 9da5 ac3c 6aad aa3d c879 d9ba
00000180: bb21 1f3e 6a01 66bd c455 163e a1c7 2c3d
00000190: 7b30 953d de3f 713e 3153 ac3d f38c cbbc
000001a0: 262f 5738 8fd8 d33e aae9 ca3b d040 203f
000001b0: 4682 193d abbe b1be ab37 633b c8e1 403d
000001c0: 7283 d3bd cde8 403e 6c56 5d3e b8ea c53d
000001d0: aca6 ab3d 2407 223f 316e f6be d5f8 2ebe
000001e0: de4c 60bd 2531 5fbd 5f8a e73d dce4 c63e
000001f0: 3ebc a13d effc b9bd d765 11be 868d c7be
00000200: 792f f6be 5c9d 87be 9cc9 b73e c0c2 ee3e
00000210: 1539 c03d fe76 cdbd 9d83 7abd 7bac 563e
00000220: 676d 3b3d 4ae1 1a3f 2101 26bb 5be2 333e
00000230: e91b 28bf df00 36bd 656b 22be e99d b8bd
00000240: 6918 063e 085e 01be af1d 623e 65fb d5b9
00000250: d41b 9b3b fa0d 53b9 6cff 98bd c61f f9bd
00000260: 9b5b a9ba 8025 383c 0367 9c3d 3ba5 74bb
00000270: 4128 ba3d d9a8 d2bd 8d38 81be 80e8 5f3e
00000280: 4b26 77bd 4921 cebe 5ea9 88bd 7ea5 d5bd
00000290: 8159 b2bc 07af 753d e675 253c 2cf8 9dbd
000002a0: 6f67 bcbe 9602 4f3e d996 d23e 9d7c 39bd
000002b0: 7314 9b3e b0fa 5f3e 6cd9 e33d bd7a 3c3e
000002c0: 6b69 d83b e15a 1e3d 5a47 3abe c2d3 e7be
000002d0: 40ab a23e e0b1 adbd a836 e6bd ffaf cabd
000002e0: 53dc fdbd f6c6 f23e 619c 903e 2501 ebbb
000002f0: 5b85 93bd 94c7 c8bd 163d 963c e51e cd3e
00000300: 34fe 33be 24b1 583e 2744 973e 817e 203d
00000310: a748 073f ff91 d83b 68e3 a4bc 0d9e 5f3e
00000320: f1a9 733d b014 6b3e 5298 86bd fe38 da3b
00000330: e872 2c3e 05ef 3bbf 0819 593e 2a2e b73d
00000340: ea2a 403e fff2 693b c305 90bd 8742 1c3e
00000350: dc13 babc 1ba6 f53e b7c8 04bf df99 8e3e
00000360: 12f4 44bd 014f 2d3d 99b6 6e3d d476 f2bb
00000370: b1ac 2dbe de0e a63e 2c1d 6fbe 3c4b 06be
00000380: 1ac7 5cbf 3259 f73e 4d48 edbe 2df2 e43e
00000390: 74f3 a43e 2433 efbd 35d5 bd3e 5be3 65be
000003a0: 41b2 2fbd dcfe 063e 0a1d 3a3e f243 a2be
000003b0: 5dd6 543f 2c37 6b3d 10f7 16bd a63a f83e
000003c0: e4df cfbd 1b30 363e 93d0 953d 39e9 563b
000003d0: 9873 bb3c 7c0c 86bc ef42 43be e459 e73e
000003e0: 1e8e 82bf b1c7 073e 5570 4a3d 7cde 693d
000003f0: 94ff c23e e769 34be 99f2 17bd 0b30 e2bc

conv2.bias f4 [64]
0.071098804 -0.13978852 -0.5405998 0.008023566 0.034488026 0.00970448 -0.035938714 0.024377868
-0.403826 -0.057616085 0.011278431 -0.041097555 0.053488586 0.19638573 -0.01815279 -0.7958889
-0.1020941 -0.15344958 0.057289213 0.057984058 -0.04546247 -0.21009846 0.013840945 -0.07392614
-0.23802666 -0.09201173 0.06556665 0.12472632 -0.0007830493 -1.1401204 0.0017450837 0.3211577
0.09370534 -0.004989354 0.107972555 0.0265484 -0.10442086 -0.4308913 -0.081654266 -0.07657128
-0.029180648 -0.02367632 -0.031429686 -0.060474932 -0.08068532 -0.21137163 -0.07734572 -0.17247507
-0.5399325 -0.12165374 -0.00639152 -0.49516574 0.0461993 -0.061942916 -0.47403833 0.15851715
0.0819224 -0.08574286 -0.5477446 -0.076598085 0.07359522 0.05147999 0.068756945 -1.1705416
00000000: 409c 913d b924 0fbe c064 0abf 4675 033c
00000010: 5143 0d3d 8aff 1e3c 7934 13bd 18b4 c73c
00000020: 48c2 cebe d8fe 6bbd 2bc9 383c e955 28bd
00000030: d916 5b3d 5719 493e 29b5 94bc 60bf 4bbf
00000040: b616 d1bd e321 1dbe 18a8 6a3d b180 6d3d
00000050: db36 3abd 0d24 57be 22c5 623c 9766 97bd
00000060: 43bd 73be a570 bcbd cf47 863d 8370 ff3d
00000070: 8d45 4dba 77ef 91bf 4bbb e43a c86e a43e
00000080: 96e8 bf3d bc7d a3bb b720 dd3d 087c d93c
00000090: 9bda d5bd c99d dcbe 5a3a a7bd 67d1 9cbd
000000a0: 410c efbc d8f4 c1bc 6abc 00bd 90b4 77bd
000000b0: 583e a5bd ce71 58be 6f67 9ebd 4e9d 30be
000000c0: 0439 0abf 9925 f9bd f56f d1bb 5d86 fdbe
000000d0: 7a3b 3d3d dbb7 7dbd 27b5 f2be 5252 223e
000000e0: eec6 a73d f499 afbd fd38 0cbf 75df 9cbd
000000f0: 17b9 963d afdc 523d 71d0 8c3d 4fd4 95bf

cause_networks.0.0.weight f4 [77, 128]
0.057153992 0.030523654 0.16825895 -0.197011 -0.0026392716 -0.010429648 0.042193163 0.120373495
0.084102854 0.072441846 -0.035273485 -0.059327807 -0.059676036 -0.0934615 -0.027471168 0.01810732
0.03599446 -0.0060129627 -0.067797996 0.043904435 -9.241112e-05 -0.021748716 -0.07091494 -0.07222815
-0.055226896 0.2610567 -0.36938086 0.25481457 0.060795598 -0.01595871 0.17779358 -0.24055815
-0.09578017 -0.06488777 -0.07206928 -0.31109983 -0.014772199 -0.0120441 0.11498802 -0.023443557
0.030995304 0.040402867 0.06211063 -0.2912773 -0.10439159 0.09831179 -0.011363349 0.06691817
-0.0016540767 -0.033190962 -0.0075117596 0.035905227 -0.017115971 0.04175233 -0.0832634 -0.0056027644
0.07374955 -0.16086188 -0.1201785 0.21559538 0.011513149 0.07654498 0.11499785 0.05632929
-0.06134516 0.09323165 0.020465268 -0.08344976 -0.03153217 0.023331467 0.06703891 0.01679269
0.035836168 -0.046832383 0.17821361 0.19729745 0.034171283 -0.20007798 -0.021350369 -0.10909676
0.030123906 -0.0014046917 0.05128325 0.07123913 0.09031339 0.050345268 -0.075758696 0.058732666
0.023763247 0.08429178 0.13537005 0.30889705 0.08855706 -0.048418295 0.054579027 0.12593772
-0.07584991 0.7262158 0.04343343 0.035894066 0.3948648 -0.040351413 -0.41191658 -0.1050421
0.049036205 0.051075056 -0.053880792 0.20438479 0.05335005 -0.016147424 -0.07700695 -0.22583668
-0.012797596 -0.07354459 0.029070085 0.076232895 -0.021468014 -0.4103072 -0.031462885 -0.060866743
-0.009216089 0.035835735 -0.006027164 -0.037150566 0.03443744 -0.047672175 0.124917656 -0.20611557
-0.005410656 0.07131699 -0.26368374 -0.46666792 0.04130173 0.026458004 0.044327993 0.020462224
-0.05714047 0.05423899 0.04731191 -0.009056666 0.0020673953 -0.23835732 -0.040527545 0.0028812217
-0.16000295 0.031768683 -0.081184134 -0.078831814 0.032151774 -0.043961886 -0.0039316216 -0.016687982
-0.09508433 0.20380867 0.04596415 -0.24732795 0.09642377 -0.04647147 -0.3053701 0.33588287
-0.049425174 0.5637705 -0.19293809 0.15670753 -0.057214353 -0.03520526 0.025511721 0.030189423
-0.25724214 0.08779712 0.18299735 -0.12017804 0.044936217 -0.060982585 0.017150164 0.070547774
-0.05031486 -0.022486407 0.026409572 0.06414663 0.08592836 0.05174948 -0.01633899 0.06235186
-0.19009328 0.011336863 -0.24718645 0.094970725 0.046248786 0.0011902887 -0.054654375 0.017553004
0.018620482 -0.09020328 -0.010183218 -0.041965153 0.005613297 0.06280962 -0.11066951 -0.019464575
-0.02834305 0.03027435 -0.16417016 -0.038308434 -0.050811034 0.18119225 -0.028566938 -0.034955505
-0.0073737996 0.08405883 -0.07137443 -0.073308654 0.045448333 -0.07058307 0.039071113 -0.08803982
0.04034625 0.059262175 -0.25917563 0.06716979 0.08586569 -0.0064765904 0.009184087 -0.022687685
0.058178417 -0.259328 -0.11164661 0.031360667 -0.033297148 -0.095320374 0.1389321 -0.22614925
-0.091501184 0.052390534 -0.26649243 -0.27022582 0.041220177 0.36368152 0.09066557 -0.00013819465
-0.06239078 0.003651645 -0.011557668 -0.031251732 0.2606174 -0.03350298 0.07537063 0.033474136
-0.024260288 -0.042958304 -0.0016785875 -0.052685972 0.005926869 0.0720454 -0.28616807 -0.12159833
00000000: 4e1a 6a3d be0c fa3c 134c 2c3e 40bd 49be
00000010: a1f7 2cbb 1de1 2abc bdd2 2c3d 6186 f63d
00000020: 1e3e ac3d 645c 943d ee7a 10bd b701 73bd
00000030: dc6e 74bd be68 bfbd 370b e1bc cd55 943c
00000040: ed6e 133d 6308 c5bb add9 8abd 23d5 333d
00000050: d8cc c1b8 5d2a b2bc da3b 91bd 5aec 93bd
00000060: 9935 62bd 39a9 853e 7d1f bdbe 0e77 823e
00000070: ce04 793d d7bb 82bc 850f 363e e054 76be
00000080: 6528 c4bd e1e3 84bd 0f99 93bd 7a48 9fbe
00000090: 1807 72bc 9e54 45bc d77e eb3d b40c c0bc
000000a0: dde9 fd3c 7a7d 253d b767 7e3d 4c22 95be
000000b0: 42cb d5bd b157 c93d 572d 3abc 650c 893d
000000c0: 9bcd d8ba 3ff3 07bd 3525 f6bb 5c11 133d
000000d0: cb36 8cbc 7e04 2b3d 0086 aabd 6597 b7bb
000000e0: 010a 973d fab8 24be 2520 f6bd 09c5 5c3e
000000f0: a6a1 3c3c 9dc3 9c3d fe83 eb3d 8bb9 663d
00000100: 1045 7bbd 3cf0 be3d c7a6 a73c b5e7 aabd
00000110: e027 01bd a221 bf3c b24b 893d d390 893c
00000120: f2c8 123d 50d3 3fbd a17d 363e 5808 4a3e
00000130: 30f7 0b3d 3ee1 4cbe f8e6 aebc 1f6e dfbd
00000140: 69c6 f63c a21d b8ba 630e 523d d2e5 913d
00000150: 3af6 b83d d736 4e3d 6027 9bbd aa91 703d
00000160: 24ab c23c 2ba1 ac3d 729e 0a3e c127 9e3e
00000170: 675d b53d 4352 46bd 428e 5f3d d1f5 003e
00000180: 3357 9bbd 47e9 393f 41e7 313d a805 133d
00000190: b82b ca3e 8647 25bd bbe6 d2be 5020 d7bd
000001a0: 30da 483d 1434 513d 1bb2 5cbd 3f4a 513e
000001b0: 9585 5a3d 9a47 84bc d2b5 9dbd bb41 67be
000001c0: 02ad 51bc 8c9e 96bd 6324 ee3c fe1f 9c3d
000001d0: b0dd afbc c913 d2be 3adf 00bd 684f 79bd
000001e0: 14ff 16bc 7ec8 123d 847f c5bb 312b 18bd
000001f0: 460e 0d3d e643 43bd d4d4 ff3d f60f 53be
00000200: df4b b1bb a40e 923d 8e01 87be 19ef eebe
00000210: 012c 293d 75be d83c 4591 353d 65a0 a73c
00000220: 200c 6abd b429 5e3d 22ca 413d 6962 14bc
00000230: 237d 073b f113 74be 3600 26bd e1d2 3c3b
00000240: d0d7 23be e11f 023d de43 a6bd 9372 a1bd
00000250: 94b1 033d 6111 34bd d5d4 80bb 3cb5 88bc
00000260: 93bb c2bd 38b3 503e e844 3c3d 8a43 7dbe
00000270: d379 c53d de58 3ebd 7859 9cbe d7f8 ab3e
00000280: 0d72 4abd 4353 103f 9091 45be f077 203e
00000290: 9959 6abd 6433 10bd f5fd d03c cf4f f73c
000002a0: 3eb5 83be face b33d a863 3b3e e71f f6bd
000002b0: 0a0f 383d e0c8 79bd 807e 8c3c 5a7b 903d
000002c0: f416 4ebd 6a35 b8bc e358 d83c 4f5f 833d
000002d0: 35fb af3d 43f7 533d 58d9 85bc aa64 7f3d
000002e0: d0a7 42be 40be 393c 721e 7dbe 0380 c23d
000002f0: 5e6f 3d3d 7603 9c3a 44dd 5fbd 51cb 8f3c
00000300: fb89 983c 7fbc b8bd 83d7 26bc a7e3 2bbd
00000310: c0ef b73b 54a2 803d b2a6 e2bd 2c74 9fbc
00000320: af2f e8bc ea01 f83c 391c 28be 4ee9 1cbd
00000330: 3b1f 50bd 768a 393e 3605 eabc 812d 0fbd
00000340: ea9f f1bb 0927 ac3d c22c 92bd d922 96bd
00000350: 0828 3a3d db8d 90bd 0809 203d 394e b4bd
00000360: 1c42 253d e5bc 723d abb2 84be 5190 893d
00000370: 5ada af3d 9439 d4bb da78 163c 86db b9bc
00000380: 7e4c 6e3d a4c6 84be faa6 e4bd 0b74 003d
00000390: 9762 08bd 5437 c3bd 3744 0e3e ab93 67be
000003a0: f964 bbbd 7597 563d b271 88be 0a5b 8abe
000003b0: 7dd6 283d 7734 ba3e dfae b93d 58e8 10b9
000003c0: 798d 7fbd 7050 6f3b 605c 3dbc d101 00bd
000003d0: a56f 853e 6c3a 09bd eb5b 9a3d 2d1c 093d
000003e0: 83bd c6bc 0cf5 2fbd 0d04 dcba 3fcd 57bd
000003f0: 2e36 c23b 8a8c 933d 9f84 92be 8c08 f9bd

cause_networks.0.0.bias f4 [77]
0.23029917 0.13130093 0.13198546 0.06003675 -0.001514329 0.017598901 0.26727718 0.4884635
0.32403916 0.087162666 -0.26528066 -0.11246686 0.17863347 0.42375952 -0.11828611 0.09674348
0.10658748 0.06151951 0.16492839 -0.366511 0.3555474 0.12199121 0.1328622 0.12944032
-0.15550268 0.38848317 0.29808944 0.037185334 0.037264116 -0.17454274 0.25464466 0.30242902
0.101846345 0.11239279 0.017782029 0.010907527 -0.3070172 0.20100094 -0.052213106 -0.24074815
0.43382627 0.12641758 0.014980407 0.17911978 0.113703206 0.021811508 -0.038220055 -0.10451474
-0.008004494 -0.033588514 -0.20912752 -0.26974276 0.08001773 0.0782802 -0.10263514 -0.039641812
0.06972899 0.16533372 0.04027427 0.105148524 -0.12840271 0.2645282 0.046159506 -0.057549775
0.14105256 -0.012028934 -0.005254837 -0.043924443 -0.16611925 -0.6310638 -0.07719111 0.10986034
0.058273494 0.13785355 -0.023377353 0.18506724 -0.13802643
00000000: 8cd3 6b3e c073 063e 3227 073e 18e9 753d
00000010: 737c c6ba 922b 903c 8ed8 883e e317 fa3e
00000020: 76e8 a53e 5782 b23d ded2 87be 0655 e6bd
00000030: b1eb 363e 02f7 d83e fd3f f2bd 7221 c63d
00000040: 894a da3d e2fb 7b3d fde2 283e 54a7 bbbe
00000050: 4f0a b63e 87d6 f93d 070d 083e 018c 043e
00000060: 183c 1fbe 44e7 c63e 2e9f 983e a64f 183d
00000070: 42a2 183d 55bb 32be c960 823e fad7 9a3e
00000080: d194 d03d 312e e63d 9eab 913c 7cb5 323c
00000090: 5c31 9dbe 31d3 4d3e 69dd 55bd af86 76be
000000a0: 7a1e de3e 9c73 013e 6270 753c 2d6b 373e
000000b0: 3add e83d 0cae b23c a28c 1cbd d30b d6bd
000000c0: 4825 03bc 1c94 09bd 8625 56be b91b 8abe
000000d0: 56e0 a33d 5f51 a03d 5f32 d2bd 745f 22bd
000000e0: 13ce 8e3d 3e4d 293e a2f6 243d 1c58 d73d
000000f0: 007c 03be 3d70 873e c011 3d3d 50b9 6bbd
00000100: 1570 103e 0215 45bc c530 acbb 1eea 33bd
00000110: 2a1b 2abe 668d 21bf 5f16 9ebd 75fe e03d
00000120: 30b0 6e3d 7b29 0d3e dd81 bfbc 4482 3d3e
00000130: cd56 0dbe

cause_networks.0.1.weight f4 [77]
0.78927356 1.0392941 0.8866525 0.89458823 0.8433488 0.83078 0.90278417 0.9219593
0.91236717 1.1084473 0.86194247 0.6571109 1.1103457 1.0229282 1.1949089 1.0792178
0.938664 0.9304443 1.1188115 1.00357 1.0729666 0.84878725 0.9489488 0.8259994
0.81438726 0.84806633 1.1579251 0.66697603 0.89326394 0.9038261 0.87984395 0.9257988
0.9640279 0.8396746 0.8597981 0.84394634 0.9826957 0.9993539 0.9824664 0.97082794
1.0897793 1.0149432 1.036036 0.95946807 1.3700131 0.7977482 0.75484717 0.95322263
0.55339736 1.106893 0.71335375 0.9201458 0.910521 0.9248503 0.9806566 1.0020926
0.8338319 0.9215755 1.1767642 1.1236771 1.0603284 0.90361595 0.7321448 0.9481876
0.8971604 0.88984126 0.915699 1.2451435 0.78813714 0.9098066 0.815051 0.8693598
1.1459614 1.1392951 0.88612354 0.95477206 0.91906595
00000000: d50d 4a3f 9707 853f a9fb 623f bc03 653f
00000010: b5e5 573f 00ae 543f dd1c 673f 8605 6c3f
00000020: e590 693f 9ae1 8d3f 43a8 5c3f 6c38 283f
00000030: cf1f 8e3f 50ef 823f c6f2 983f cf23 8a3f
00000040: 494c 703f 9931 6e3f 3735 8f3f fb74 803f
00000050: f856 893f 1f4a 593f 4fee 723f b274 533f
00000060: af7b 503f e01a 593f e436 943f f1be 2a3f
00000070: f2ac 643f 2661 673f 743d 613f 2601 6d3f
00000080: 88ca 763f eaf4 563f ba1b 5c3f de0c 583f
00000090: f291 7b3f a8d5 7f3f eb82 7b3f 2e88 783f
000000a0: e37d 8b3f a9e9 813f d49c 843f b39f 753f
000000b0: 975c af3f 3a39 4c3f aa3d 413f 6606 743f
000000c0: 73ab 0d3f abae 8d3f 5a9e 363f ad8e 6b3f
000000d0: e717 693f fdc2 6c3f 500c 7b3f 9244 803f
000000e0: 0276 553f 5fec 6b3f 36a0 963f a7d4 8f3f
000000f0: d7b8 873f 6053 673f d76d 3b3f 6cbc 723f
00000100: 4eac 653f a3cc 633f 406b 6a3f dd60 9f3f
00000110: 5bc3 493f 16e9 683f 2fa7 503f 5d8e 5e3f
00000120: ddae 923f 6cd4 913f fed8 623f f16b 743f
00000130: e847 6b3f

cause_networks.0.1.bias f4 [77]
-0.5375872 -0.1659951 -0.5076464 -0.12541512 -0.21343799 -0.5566814 -0.5308952 -0.44900778
-0.64277625 -0.5030743 -0.461408 -0.31302416 -0.39282995 -0.54783726 -0.32129118 -0.44193003
-0.5136915 -0.38014027 -0.22801374 -0.2356109 -0.6939863 -0.3534552 -0.35440546 -0.4224166
-0.36805707 -0.57030034 -0.44040778 -0.14716834 -0.39746484 -0.40054777 -0.39659947 -0.31130838
-0.32287937 -0.1482194 -0.3519379 -0.3556145 -0.49747196 -0.5332621 -0.5239877 -0.5142676
-0.5684636 -0.41705677 -0.33810714 -0.54025173 -0.48877868 -0.23894764 -0.29175907 -0.25413927
-0.16170168 -0.5901563 -0.51581347 -0.25614297 -0.42128938 -0.41513342 -0.2456731 -0.3995202
-0.65401876 -0.33777618 -0.4830097 -0.42887092 -0.421338 -0.27266186 -0.34109172 -0.42550275
-0.52287453 -0.36213133 -0.35007808 -0.12649816 -0.33257863 -0.41082954 -0.43691847 -0.34184176
-0.35717124 -0.30633152 -0.5695006 -0.52900773 -0.37667674
00000000: 519f 09bf 9ffa 29be 1df5 01bf d26c 00be
00000010: 7d8f 5abe ac82 0ebf bfe8 07bf 59e4 e5be
00000020: fc8c 24bf 7ac9 00bf ab3d ecbe b444 a0be
00000030: 0221 c9be 103f 0cbf 4780 a4be a744 e2be
00000040: 4981 03bf bfa1 c2be 6f7c 69be fc43 71be
00000050: 16a9 31bf 14f8 b4be a274 b5be fd46 d8be
00000060: fa71 bcbe 34ff 11bf 217d e1be 4cb3 16be
00000070: 8380 cbbe 9914 cdbe 160f cbbe d063 9fbe
00000080: 7250 a5be d4c6 17be 3431 b4be 1b13 b6be
00000090: a5b4 febe dd83 08bf 0f24 06bf 0ba7 03bf
000000a0: d586 11bf 7788 d5be 611c adbe f04d 0abf
000000b0: 3341 fabe b1ae 74be 7261 95be 8b1e 82be
000000c0: 2095 25be 7c14 17bf 5a0c 04bf 2c25 83be
000000d0: 3eb3 d7be 5e8c d4be bb91 7bbe e98d ccbe
000000e0: c66d 27bf 00f1 acbe 0c4d f7be f894 dbbe
000000f0: 9db9 d7be 569a 8bbe 93a3 aebe 7fdb d9be
00000100: 1bdb 05bf 4769 b9be 6f3d b3be bc88 01be
00000110: bf47 aabe 4058 d2be c7b3 dfbe e205 afbe
00000120: 26df b6be 7cd7 9cbe cbca 11bf 0d6d 07bf
00000130: c6db c0be

cause_networks.0.1.running_mean f4 [77]
0.36553103 -2.507241 -0.14969128 0.90726227 1.1850017 1.5193621 -0.56911 -2.9321506
-0.47115383 -0.6503185 2.439305 1.3484668 -1.2812337 -2.791036 -2.5209262 -1.6803337
-0.16607377 -0.021000596 -1.0687531 1.2290146 -0.7001725 -0.37865886 -1.1980674 -0.075594924
0.36597723 -2.2796628 -1.0787784 -0.87562543 3.9242036 2.1618323 -2.429469 -0.9042966
-3.128826 -0.3010809 3.46066 0.08457078 3.9620934 0.15228085 -0.77335626 1.8323642
-3.4365487 -1.6473777 -1.434718 1.6055663 -1.2167178 -0.38528135 1.2495681 0.21707074
1.7047755 -2.743527 1.3281982 4.0665364 0.39255622 -0.66735685 -0.27031103 -1.0112796
2.1133807 -1.2567934 -0.24535997 -4.8708873 1.6927503 1.2662302 1.3300531 1.9730856
-2.6211538 -0.05558473 0.47177687 0.9307078 1.1578149 2.1564472 2.324695 3.1196458
2.006567 -0.6093891 -0.05044037 -1.612642 3.681245
00000000: e226 bb3e a376 20c0 ac48 19be 5742 683f
00000010: 23ae 973f 757a c23f 31b1 11bf 5ba8 3bc0
00000020: 133b f1be 467b 26bf 931d 1c40 8f9a ac3f
00000030: 77ff a3bf 55a0 32c0 db56 21c0 2d15 d7bf
00000040: 3e0f 2abe 7109 acbc e7cc 88bf 5a50 9d3f
00000050: 813e 33bf 93df c1be 465a 99bf 83d1 9abd
00000060: 5e61 bb3e ffe5 11c0 6915 8abf fd28 60bf
00000070: 2726 7b40 765b 0a40 6c7c 1bc0 fb7f 67bf
00000080: af3e 48c0 4727 9abe 747b 5d40 7233 ad3d
00000090: f092 7d40 83ef 1b3e adfa 45bf e98a ea3f
000000a0: 6af0 5bc0 46dd d2bf d7a4 b7bf 3283 cd3f
000000b0: 69bd 9bbf 9943 c5be d9f1 9f3f cb47 5e3e
000000c0: 1536 da3f f295 2fc0 6602 aa3f 1121 8240
000000d0: 21fd c83e e6d7 2abf 3566 8abe 9c71 81bf
000000e0: a141 0740 9bde a0bf a53f 7bbe 4fde 9bc0
000000f0: 0bac d83f d513 a23f 2e3f aa3f 128e fc3f
00000100: fcc0 27c0 d0ac 63bd bd8c f13e de42 6e3f
00000110: 4733 943f 3b03 0a40 cec7 1440 47a8 4740
00000120: 986b 0040 ed00 1cbf 909a 4ebd 0e6b cebf
00000130: 8599 6b40

cause_networks.0.1.running_var f4 [77]
0.10018988 0.120653406 0.055140056 0.08779683 0.09278622 0.11227626 0.103448704 0.09647751
0.066915765 0.08785034 0.13358617 0.08913193 0.11852721 0.085165456 0.09475553 0.10119414
0.09260282 0.07852303 0.07588604 0.10114278 0.09340448 0.050443675 0.12523861 0.078646235
0.053503286 0.117446 0.11227973 0.110220216 0.060123086 0.06234712 0.060530003 0.06794118
0.097507656 0.06069086 0.12467089 0.05352934 0.07858407 0.09728558 0.06756622 0.06401234
0.13237669 0.11821954 0.096845716 0.0757673 0.16455424 0.053163126 0.11451097 0.10065221
0.09540453 0.10315973 0.076518655 0.0545227 0.06641777 0.09039757 0.054738253 0.15408447
0.07624502 0.09596955 0.18912046 0.10610823 0.066275455 0.09073518 0.11039211 0.13176228
0.09042963 0.09892803 0.09268269 0.17478856 0.04606906 0.08095357 0.073658034 0.06925973
0.099167675 0.1265028 0.111590646 0.087665476 0.09346448
00000000: 5a30 cd3d 2219 f73d 8ada 613d d3ce b33d
00000010: b406 be3d 19f1 e53d eadc d33d 0096 c53d
00000020: 220b 893d e1ea b33d d0ca 083e cd8a b63d
00000030: 65be f23d 3a6b ae3d 300f c23d e03e cf3d
00000040: 8ca6 bd3d afd0 a03d 246a 9b3d f223 cf3d
00000050: d94a bf3d 079e 4e3d 8d3e 003e 4711 a13d
00000060: 4326 5b3d 8787 f03d eaf2 e53d 23bb e13d
00000070: a043 763d b25f 7f3d 4fee 773d bf24 8b3d
00000080: 18b2 c73d fb96 783d 7453 ff3d 9541 5b3d
00000090: aff0 a03d aa3d c73d 2960 8a3d e718 833d
000000a0: c18d 073e 161d f23d 0c57 c63d e32b 9b3d
000000b0: e880 283e 94c1 593d ba84 ea3d bf22 ce3d
000000c0: 7363 c33d 6945 d33d d0b5 9c3d 3253 5f3d
000000d0: 0a06 883d 5c22 b93d 3835 603d 52c8 1d3e
000000e0: 5926 9c3d af8b c43d cba8 413e 464f d93d
000000f0: 6dbb 873d 5ed3 b93d 4215 e23d b1ec 063e
00000100: 2b33 b93d c79a ca3d 6cd0 bd3d c6fb 323e
00000110: e9b2 3c3d fcca a53d 06da 963d 0cd8 8d3d
00000120: 6c18 cb3d f389 013e a389 e43d f589 b33d
00000130: 4e6a bf3d

cause_networks.0.4.weight f4 [127, 77]
-0.009256886 0.16344662 -0.045095116 0.45581618 0.32296938 -0.15793246 -0.058887485 -0.06646962
-0.018699273 0.26604977 -0.020395715 0.056003697 0.09525276 0.2967618 -0.46849754 -0.17375864
-0.04939658 0.27704668 0.1140179 0.037010204 -0.24503599 0.01689094 0.19675346 0.11079598
0.22108348 -0.17132321 -0.19432311 0.012522163 -0.2502057 0.016941898 -0.09893306 -0.49891827
-0.07580931 0.20607573 -0.017465508 0.07483076 0.26079854 0.3836924 -0.017000873 -0.0006516462
0.1769833 -0.043203432 -0.3252091 0.0027769764 0.1412375 0.062065993 0.2473685 0.07713237
-0.14676337 -0.22922133 0.09900871 -0.3891107 -0.1554969 0.05029638 -0.24152303 0.03438868
-0.033384558 -0.011918936 -0.14989094 -0.19963466 -0.11895237 0.17112103 -0.033177286 0.29616705
-0.66415054 0.3222333 0.23433383 0.13269195 0.13114063 0.37311873 -0.17745993 -0.031490777
0.09709116 0.078349955 -0.034935523 0.17799397 -0.23289953 0.10165675 -0.11183702 0.122418
-0.01711261 0.10966815 0.27598244 -0.35113248 -0.47460085 0.2350781 0.002764157 -0.22747739
0.026969286 0.0052342177 0.7025955 0.016149078 0.52392477 0.01774096 0.22845002 0.023851018
-0.5185 -0.022614952 -0.31244078 -0.4151361 -0.092224084 0.22866516 -0.112885766 -0.0014750448
-0.039270904 0.11622965 -0.044420943 0.09933416 0.12481315 -0.11779108 -0.017977934 0.03413467
0.14774768 -0.056582097 -0.14100806 0.041857205 0.19822721 -0.09543626 -0.14861558 -0.07543394
0.031541023 0.025158238 0.081307925 0.122566074 0.05170151 0.24873194 0.27870038 0.08626688
0.0038126963 0.025396856 -0.11340999 0.11218082 -0.30752543 -0.2072177 -0.04623954 -0.18477389
-0.3693582 -0.026365044 0.18190715 0.08211247 -0.21766849 -0.8017822 0.10660838 0.018406177
0.27592862 0.071906425 -0.16992956 0.10156548 0.0028032276 0.2455782 -0.078288436 0.11988928
0.15201081 -0.59550285 -0.1158486 0.09312592 -0.13263506 0.08215311 -0.020365726 -0.26205814
-0.032907926 0.18421298 -0.10228905 -0.18136114 -0.13702764 -0.43978974 0.17817347 0.22196434
0.18438776 0.30947837 -0.53174454 -0.105637364 -0.15434285 0.32612333 0.01605819 -0.13035001
0.03745796 -0.10157079 0.22202271 -0.8150743 0.07374745 0.17512175 0.033876244 -0.10600084
0.1589508 0.15378739 0.34267157 0.025391258 0.09261954 -0.3884776 0.100325905 -0.0030401805
0.19280177 0.015667295 0.03946079 0.07827949 0.18450624 0.20239216 0.13232374 -0.3184361
-0.08223219 -0.2289527 -0.08054139 0.29312152 0.31126425 -0.24982709 0.30880708 0.055860486
0.5442717 0.08543116 0.20886531 -0.008701912 0.06570739 -0.19063811 0.50704104 0.14129841
-0.32885766 0.093405776 0.30027363 0.022488067 0.14325577 0.08664185 -0.06767166 0.06059309
0.06282279 0.31079763 -0.018838365 0.04290123 0.33800045 0.29212594 -0.15173535 0.04314517
0.16289099 0.06412892 -0.31167254 -0.38613304 0.33638197 0.18459909 -0.020434257 0.08804652
0.19235423 0.1198126 -0.016039873 0.10628963 -0.13002592 0.19485286 -0.08251205 -0.2316412
0.2573351 0.30399245 0.029039158 0.25473633 -0.28809756 -0.27287892 0.3076463 0.075014524
00000000: 32aa 17bc 8d5e 273e a8b5 38bd bd60 e93e
00000010: 3e5c a53e 0cb9 21be 0134 71bd 3921 88bd
00000020: 382f 99bc ad37 883e ea14 a7bc 2264 653d
00000030: e113 c33d 2af1 973e e9de efbe c9ed 31be
00000040: 1154 4abd 10d9 8d3e 3782 e93d 0398 173d
00000050: b7ea 7abe de5e 8a3c bd79 493e 01e9 e23d
00000060: b563 623e 5a6f 2fbe a3fc 46be c229 4d3c
00000070: f61a 80be bcc9 8a3c 6b9d cabd 3772 ffbe
00000080: e941 9bbd 8405 533e d313 8fbc df40 993d
00000090: 6387 853e 5573 c43e 6a45 8bbc 3cd3 2aba
000000a0: 1c3b 353e 15f6 30bd cf81 a6be effd 353b
000000b0: 90a0 103e e938 7e3d 2b4e 7d3e 93f7 9d3d
000000c0: 2349 16be ffb8 6abe 14c5 ca3d 8539 c7be
000000d0: 943a 1fbe 9403 4e3d d051 77be 25db 0c3d
000000e0: 3fbe 08bd a447 43bc 037d 19be 076d 4cbe
000000f0: 4d9d f3bd 5a3a 2f3e e8e4 07bd 35a3 973e
00000100: c505 2abf c3fb a43e 35f5 6f3e 66e0 073e
00000110: bb49 063e 6b09 bf3e 0eb8 35be 79fc 00bd
00000120: bbd7 c63d f175 a03d 8d18 0fbd 0d44 363e
00000130: 377d 6ebe 6a31 d03d cf0a e5bd 4ab6 fa3d
00000140: bf2f 8cbc b299 e03d 924d 8d3e a3c7 b3be
00000150: e2fe f2be 50b8 703e dc26 353b d5ef 68be
00000160: b1ee dc3c cd83 ab3b 4cdd 333f 124b 843c
00000170: ef1f 063f 7d55 913c cdee 693e 3663 c33c
00000180: 6abc 04bf fe42 b9bc 3df8 9fbe b88c d4be
00000190: fbdf bcbd 3327 6a3e a730 e7bd 4a56 c1ba
000001a0: 87da 20bd d009 ee3d bcf2 35bd b56f cb3d
000001b0: 099e ff3d 733c f1bd 7646 93bc ccd0 0b3d
000001c0: 2b4b 173e a1c2 67bd 6b64 10be 7672 2b3d
000001d0: 13fc 4a3e 1674 c3bd af2e 18be 1c7d 9abd
000001e0: 2931 013d a618 ce3c c584 a63d ec03 fb3d
000001f0: f6c4 533d 96b3 7e3e d1b1 8e3e b1ac b03d
00000200: 6ede 793b 110d d03c 7f43 e8bd 0fbf e53d
00000210: f973 9dbe e030 54be ac65 3dbd 5e35 3dbe
00000220: 851c bdbe 81fb d7bc de45 3a3e 952a a83d
00000230: 7de4 5ebe 9941 4dbf 7f55 da3d 8dc8 963c
00000240: 8446 8d3e ad43 933d 0402 2ebe 9001 d03d
00000250: 5bb6 373b da78 7b3e b055 a0bd 8388 f53d
00000260: b9a8 1b3e e072 18bf 0842 edbd cdb8 be3d
00000270: 7cd1 07be e43f a83d 06d6 a6bc 7c2c 86be
00000280: 76ca 06bd 54a2 3c3e ec7c d1bd bcb6 39be
00000290: f950 0cbe 1f2c e1be 1b73 363e 9f4a 633e
000002a0: 25d0 3c3e f373 9e3e 6920 08bf 6758 d8bd
000002b0: 0d0c 1ebe a3f9 a63e 778c 833c 797a 05be
000002c0: 856d 193d 5904 d0bd ec59 633e b6a8 50bf
000002d0: e708 973d 1e53 333e d1c1 0a3d f816 d9bd
000002e0: 00c4 223e 717a 1d3e a672 af3e 5401 d03c
000002f0: 50af bd3d 89e6 c6be ab77 cd3d c43d 47bb
00000300: d46d 453e b358 803c a3a1 213d ff50 a03d
00000310: 34ef 3c3e e43f 4f3e e07f 073e 0e0a a3be
00000320: 5a69 a8bd 9472 6abe e2f2 a4bd 0614 963e
00000330: 075e 9f3e acd2 7fbe f61b 9e3e f7cd 643d
00000340: 6455 0b3f 88f6 ae3d cae0 553e 7792 0ebc
00000350: 9991 863d a336 43be 71cd 013f 88b0 103e
00000360: 0860 a8be 874b bf3d 77bd 993e e538 b83c
00000370: a4b1 123e 4871 b13d 7097 8abd 7630 783d
00000380: 3ca9 803d de20 9f3e ea52 9abc 33b9 2f3d
00000390: 650e ad3e 8891 953e 8360 1bbe fdb8 303d
000003a0: e5cc 263e 0656 833d 8b93 9fbe 3bb3 c5be
000003b0: 423a ac3e 8b07 3d3e be65 a7bc bc51 b43d
000003c0: 82f8 443e 4f60 f53d 0d66 83bc 61ae d93d
000003d0: 8425 05be 8287 473e 14fc a8bd 5a33 6dbe
000003e0: 6dc1 833e e6a4 9b3e 87e3 ed3c cd6c 823e
000003f0: 8681 93be c9b6 8bbe d183 9d3e 37a1 993d

cause_networks.0.4.bias f4 [127]
0.027647143 0.076662034 -0.056434788 -0.066048354 -0.054835588 -0.005178528 -0.1041958 -0.05190661
0.036683332 0.06988 0.06773744 -0.0026370964 -0.022282464 0.09947841 0.11333969 0.057512514
-0.07973381 0.11176386 -0.084846824 0.076522835 0.11568796 -0.00901105 0.060691703 0.017223986
-0.012730643 0.006413421 -0.02974619 0.0011621919 -0.020950701 -0.07777491 -0.037297945 -0.052993815
-0.12291529 0.075858146 0.013703616 0.00057430536 0.019421458 0.11215685 -0.08173356 0.0003376257
0.03623185 0.017780773 -0.06923484 -0.060682785 0.031810448 -0.0777702 0.027523533 -0.005634728
-0.032330535 0.0030976338 -0.015210222 -0.06461855 -0.03451286 -0.015853561 -0.015230949 0.028627109
-0.05999918 -0.096079335 -0.03539683 -0.10497319 0.07665761 -0.01934783 0.10993774 -0.026275637
0.044558372 -0.0402106 -0.01901835 0.04827538 0.029527234 0.06795154 0.01027567 -0.06311915
0.046269547 -0.058023755 0.10470198 -0.103304185 0.10210429 -0.11323014 -0.021323174 -0.10128938
0.04033279 -0.019076915 0.018490609 0.08990936 -0.086366326 -0.017464122 0.059251506 -0.059572153
-0.0014707341 0.02051546 0.0022154683 0.08912488 -0.08307591 0.08298149 0.03955329 -0.10207381
-0.045791764 0.1389514 0.038540553 -0.032875016 0.03264791 -0.00902127 -0.027093291 0.008580852
0.06969681 -0.016851641 0.04840892 0.10065441 -0.033593997 -0.0830355 0.05850786 0.075685345
0.062097967 -0.0932683 -0.039128654 0.10459038 -0.057845928 0.07715926 -0.05279949 -0.10997199
-0.037205398 0.062896796 -0.113145575 0.05716338 -0.07483982 -0.0478506 0.02051347
00000000: 437c e23c fc00 9d3d 2a28 67bd 5c44 87bd
00000010: 489b 60bd a4b0 a9bb 9c64 d5bd 079c 54bd
00000020: 4341 163d 3f1d 8f3d edb9 8a3d 23d3 2cbb
00000030: b789 b6bc 56bb cb3d a41e e83d 3e92 6b3d
00000040: 7b4b a3bd 73e4 e43d 2cc4 adbd 01b8 9c3d
00000050: cfed ec3d 15a3 13bc dd97 783d 5119 8d3c
00000060: 3094 50bc ad27 d23b 48ae f3bc b054 983a
00000070: cea0 abbc 7448 9fbd bbc5 18bd 0b10 59bd
00000080: 03bb fbbd 845b 9b3d 2285 603c fb8c 163a
00000090: c019 9f3c 7eb2 e53d ed63 a7bd 5b03 b139
000000a0: d967 143d fca8 913c ffca 8dbd 838e 78bd
000000b0: ac4b 023d fc45 9fbd 0879 e13c 86a3 b8bb
000000c0: 066d 04bd ac01 4b3b 4c34 79bc bb56 84bd
000000d0: 5b5d 0dbd 54df 81bc 3b8b 79bc 6683 ea3c
000000e0: b3c1 75bd 3ec5 c4bd 44fc 10bd 2ffc d6bd
000000f0: aafe 9c3d 577f 9ebc 0a27 e13d 0140 d7bc
00000100: d782 363d dfb3 24bd 5fcc 9bbc 68bc 453d
00000110: 19e3 f13c 2d2a 8b3d 495b 283c 9d44 81bd
00000120: 2385 3d3d 51aa 6dbd fe6d d63d 2591 d3bd
00000130: 0e1c d13d 34e5 e7bd f0ad aebc ce70 cfbd
00000140: ff33 253d 3147 9cbc 9e79 973c 6622 b83d
00000150: d4e0 b0bd eb10 8fbc b5b1 723d ee01 74bd
00000160: a6c5 c0ba 0a10 a83c 6431 113b 1b87 b63d
00000170: b423 aabd 33f2 a93d a102 223d 130c d1bd
00000180: 2590 3bbd 4749 0e3e b3dc 1d3d f4a7 06bd
00000190: d1b9 053d f3cd 13bc c0f2 ddbc b496 0c3c
000001a0: 33bd 8e3d 740c 8abc 6f48 463d e623 ce3d
000001b0: dc99 09bd 840e aabd f0a5 6f3d eb00 9b3d
000001c0: 705a 7e3d 7303 bfbd 5e45 20bd 7b33 d63d
000001d0: daef 6cbd ad05 9e3d 4744 58bd ff38 e1bd
000001e0: b064 18bd 09d0 803d deb8 e7bd 2624 6a3d
000001f0: 9f45 99bd fefe 43bd dd0b a83c

cause_networks.0.5.weight f4 [127]
0.799555 0.7577297 0.98616666 0.8700048 1.0022877 0.9538299 0.95187235 0.798509
0.89852685 0.84701824 0.92501664 0.8974067 1.0380493 0.9600553 0.9783422 1.0527512
0.88275826 0.942808 0.7544292 0.8780763 0.9697364 0.8437541 0.84076405 1.0048373
0.9067526 0.90729296 0.7499012 0.88253456 0.9761199 0.8199859 0.81429034 0.83871335
0.8708361 0.99905086 0.79412526 1.0099757 0.90225977 0.872725 0.9260029 0.96281093
0.8479045 0.78482187 0.90288657 1.024332 0.92682505 0.90799063 0.930887 0.92683405
0.90115076 0.93080103 1.0377539 1.0055416 0.874466 0.856662 1.0617404 0.83866656
0.878246 0.9510418 0.85326934 0.9344379 0.976051 0.8668667 0.8230348 0.8095086
1.0045547 0.86151296 0.9124619 0.96994346 0.90190375 1.0198596 0.9055951 0.98186064
0.77753836 0.8357791 0.87279767 1.1226362 0.81295526 0.9593026 0.91277885 0.93052924
0.89230955 0.8039152 0.80031735 0.9061568 1.0044384 0.91579294 0.89458656 1.0513058
0.957953 0.93432343 0.9040667 1.0648742 1.0387441 0.95303667 0.9587682 0.91879183
0.88795984 1.0651684 0.98644537 0.9034771 0.8415288 0.7863085 0.8662216 0.93685293
0.9375755 0.94168025 0.90259767 1.0232543 1.0036777 0.9420037 0.89319164 0.7842295
1.0275484 0.98565555 0.8719155 0.8653215 0.9721738 0.90613216 0.90251917 0.9127868
0.9130905 1.0102587 0.94487673 0.88573956 0.8088766 0.9750921 0.95833516
00000000: a3af 4c3f 93fa 413f 6b75 7c3f a2b8 5e3f
00000010: f74a 803f 322e 743f e8ad 733f 166b 4c3f
00000020: db05 663f 30d6 583f e4cd 6c3f 72bc 653f
00000030: cdde 843f 2fc6 753f a274 7a3f 8dc0 863f
00000040: 72fc 613f dd5b 713f 4622 413f 9cc9 603f
00000050: a540 783f 4500 583f 503c 573f 829e 803f
00000060: f020 683f 5a44 683f 86f9 3f3f c9ed 613f
00000070: fee2 793f 99ea 513f 5575 503f ebb5 563f
00000080: 1def 5e3f ccc1 7f3f cb4b 4b3f e246 813f
00000090: 7ffa 663f e86a 5f3f 870e 6d3f c77a 763f
000000a0: 4510 593f 16ea 483f 9323 673f 501d 833f
000000b0: 6844 6d3f 1372 683f 9c4e 6e3f ff44 6d3f
000000c0: d1b1 663f fa48 6e3f 1fd5 843f 96b5 803f
000000d0: 01dd 5f3f 334e 5b3f 1ce7 873f dab2 563f
000000e0: bbd4 603f 7a77 733f dc6f 5a3f 5237 6f3f
000000f0: 7ade 793f faea 5d3f 69b2 523f f53b 4f3f
00000100: 4095 803f 1d8c 5c3f 1a97 693f 374e 783f
00000110: 2ae3 663f c28a 823f 15d5 673f 385b 7b3f
00000120: c10c 473f 9ef5 553f ab6f 5f3f 8bb2 8f3f
00000130: d61d 503f db94 753f e0ab 693f 2a37 6e3f
00000140: 666e 643f 63cd 4d3f 99e1 4c3f e4f9 673f
00000150: 7091 803f 6871 6a3f a003 653f 3091 863f
00000160: 683c 753f d22f 6f3f ea70 673f cc4d 883f
00000170: 91f5 843f 36fa 733f d571 753f f135 6b3f
00000180: 5651 633f 7057 883f af87 7c3f 464a 673f
00000190: 6e6e 573f 844b 493f b3c0 5d3f 98d5 6f3f
000001a0: f304 703f f511 713f a410 673f fff9 823f
000001b0: 8378 803f 2827 713f 35a8 643f 44c3 483f
000001c0: b586 833f ec53 7c3f db35 5f3f b685 5d3f
000001d0: 62e0 783f 47f8 673f 7f0b 673f 65ac 693f
000001e0: 4dc0 693f 2850 813f 71e3 713f d4bf 623f
000001f0: 8912 4f3f a39f 793f 7455 753f

cause_networks.0.5.bias f4 [127]
-0.40178278 -0.3276054 -0.5249419 -0.4275803 -0.5154583 -0.25216118 -0.2718659 -0.4401115
-0.24391027 -0.34512433 -0.5154686 -0.3916637 -0.9161237 -0.13862158 -0.6784802 -0.26938212
-0.605138 -0.6149218 -0.5090101 -0.17260396 -0.4745833 -0.4258125 -0.6552911 -0.96889573
-0.38048965 -0.37744167 -0.37262794 -0.76653224 -0.33080745 -0.50531465 -0.528858 -0.22186318
-0.6956599 -0.29927567 -0.53001696 -0.2891597 -0.388604 -0.6093192 -0.3295895 -0.5288252
-0.42890972 -0.42254376 -0.29614627 -0.169372 -0.45039698 -0.44658887 -0.4932949 -0.4199974
-0.41357833 -0.5001702 -0.5320772 -0.3769423 -0.40619466 -0.31072906 -0.4646406 -0.31365836
-0.5183033 -0.47074714 -0.6894865 -0.355727 -0.1887516 -0.42197698 -0.6006321 -0.32932982
-0.3920555 -0.35041082 -0.40616474 -0.56373525 -0.35134602 -0.2586957 -0.4293009 -0.6312756
-0.29067883 -0.078967325 -0.43605804 -0.36367327 -0.4617647 -0.34316975 -0.30670866 -0.50689024
-0.19770792 -0.55257684 -0.60118926 -0.5181929 -0.22686458 -0.31037718 -0.15320762 -0.58265823
-0.52580917 -0.4097309 -0.50080425 -0.4656272 -0.26694384 -0.43705055 -0.29759803 -0.41771567
-0.5312853 -0.35161275 -0.28185868 -0.3371454 -0.42274964 -0.48304242 -0.47571674 -0.6400609
-0.52675074 -0.5412241 -0.49495348 -0.40154353 -0.4658005 -0.100812785 -0.5959704 -0.656777
-0.5743657 -0.47539186 -0.75571257 -0.6055015 -0.44523385 -0.53250146 -0.39057115 -0.49059784
-0.42053002 -0.2585048 -0.70557404 -0.34335166 -0.6136876 -0.4425138 -0.3564797
00000000: 79b6 cdbe e5bb a7be 9862 06bf ceeb dabe
00000010: 13f5 03bf 451b 81be 0232 8bbe 4b56 e1be
00000020: 9dc3 79be 23b4 b0be c0f5 03bf 2588 c8be
00000030: 1587 6abf d1f2 0dbe e1b0 2dbf 74ec 89be
00000040: 53ea 1abf 846b 1dbf 7c4e 02bf 18bf 30be
00000050: 95fc f2be 1904 dabe 28c1 27bf 8d09 78bf
00000060: 8acf c2be 0940 c1be 17c9 bebe 753b 44bf
00000070: 985f a9be 4d5c 01bf 3d63 07bf 1a30 63be
00000080: c416 32bf a93a 99be 31af 07bf bd0c 94be
00000090: 1af7 c6be 58fc 1bbf f4bf a8be 1761 07bf
000000a0: 0e9a dbbe a857 d8be 7ca0 97be db6f 2dbe
000000b0: 6f9a e6be 4ca7 e4be 2691 fcbe e609 d7be
000000c0: 8ac0 d3be 270b 00bf 3636 08bf 95fe c0be
000000d0: bff8 cfbe e117 9fbe 5fe5 edbe d497 a0be
000000e0: 86af 04bf c505 f1be 3082 30bf d921 b6be
000000f0: 1948 41be 5e0d d8be 06c3 19bf eb9d a8be
00000100: 80bb c8be 0c69 b3be d3f4 cfbe f450 10bf
00000110: a0e3 b3be c373 84be 54cd dbbe 479b 21bf
00000120: dbd3 94be 9fb9 a1bd 0043 dfbe 6233 babe
00000130: 6c6c ecbe f2b3 afbe eb08 9dbe 8fc3 01bf
00000140: f273 4abe ad75 0dbf 8ae7 19bf 4aa8 04bf
00000150: 304f 68be c2e9 9ebe 75e2 1cbe 1729 15bf
00000160: 6e9b 06bf 40c8 d1be b534 00bf b066 eebe
00000170: ddac 88be 17c5 dfbe c55e 98be d4de d5be
00000180: 5002 08bf 9606 b4be c84f 90be 529e acbe
00000190: a472 d8be 5651 f7be 2591 f3be 08db 23bf
000001a0: 23d9 06bf aa8d 0abf 8b6a fdbe 1d97 cdbe
000001b0: 677d eebe ef76 cebd 8491 18bf 8a22 28bf
000001c0: a109 13bf 9066 f3be 6176 41bf 2502 1bbf
000001d0: b1f5 e3be 0452 08bf f1f8 c7be a42f fbbe
000001e0: b64f d7be be5a 84be 80a0 34bf cacb afbe
000001f0: a11a 1dbf 2b91 e2be 8284 b6be

cause_networks.0.5.running_mean f4 [127]
0.30571663 0.01751845 0.6263116 -0.21311267 0.03417392 -0.024640385 -0.5927994 -0.017578304
0.99231607 0.40355334 -0.42659542 -0.8142995 1.0357828 0.34753498 0.18049376 0.6082016
0.529936 -0.3486316 -0.82824814 -0.0076634954 0.5912871 0.14407317 0.7514535 0.7904208
0.64273983 -0.24708942 0.050228905 -0.39126563 -0.5031487 -0.7939758 -0.027804162 -0.5727548
0.618215 -0.26182616 -0.030153606 -0.351485 0.039456796 -0.37544256 -0.105671026 -0.4281272
-0.8776402 -1.1998492 0.35837856 -0.1255866 -0.68528384 -0.09940882 -0.5385297 -0.6487504
0.04854053 -0.32373497 1.2894785 -0.43852624 -0.57316506 -0.42166233 -1.05039 -0.0034683575
-0.97542495 -0.42516312 -0.31362557 -0.9150949 -0.061179057 -0.12855756 -0.5005927 -0.42968124
0.00037866543 -0.25562093 -0.04361372 0.3992956 -0.7328287 -0.49152753 -0.2720961 0.65346503
-0.20203337 -0.069428734 -0.08421434 0.4920009 -0.84532404 -0.43302092 -0.5942335 -0.53475964
-0.696979 -0.5004447 -0.63236845 -0.5906041 -0.27128658 -0.32578868 -0.08814674 0.70929366
-0.8861163 -0.33857715 -0.8463199 0.20289838 -0.7027652 -0.032063078 -0.5339438 0.24870676
0.19693647 0.35656217 -0.13244419 -0.8418514 -0.22111635 -0.046336975 -0.6401269 -0.15609339
-0.47387442 -0.47297916 -0.548349 0.043563392 -0.6467217 -0.90088415 -0.34173408 -0.14602529
0.06528044 0.120854184 1.397462 -0.18963465 -0.28743514 -0.43220827 -0.75194013 -0.62339485
-0.597153 -0.5941676 0.2344301 -0.13148399 -1.4821005 0.34221542 0.06971116
00000000: e486 9c3e da82 8f3c f555 203f 353a 5abe
00000010: f4f9 0b3d a2da c9bc b4c1 17bf 6000 90bc
00000020: 6d08 7e3f 8b9e ce3e b76a dabe ef75 50bf
00000030: 8894 843f 1bf0 b13e 5bd3 383e 1ab3 1b3f
00000040: e3a9 073f d77f b2be 1208 54bf 0f1e fbbb
00000050: 975e 173f eb87 133e 425f 403f 0459 4a3f
00000060: 998a 243f 0205 7dbe d3bc 4d3d f853 c8be
00000070: 5ace 00bf ff41 4bbf 8ec5 e3bc 0fa0 12bf
00000080: 5743 1e3f 140e 86be b204 f7bc d8f5 b3be
00000090: 739d 213d 023a c0be 0d6a d8bd 7d33 dbbe
000000a0: 07ad 60bf a994 99bf 657d b73e c699 00be
000000b0: c36e 2fbf da96 cbbd 15dd 09bf 8214 26bf
000000c0: 6fd2 463d 97c0 a5be a20d a53f 8386 e0be
000000d0: f2ba 12bf 20e4 d7be 2e73 86bf 624d 63bb
000000e0: 73b5 79bf fbae d9be 8893 a0be a943 6abf
000000f0: e496 7abd 98a4 03be d826 00bf 2eff dbbe
00000100: 9d87 c639 bfe0 82be 4da4 32bd 7970 cc3e
00000110: a99a 3bbf 7fa9 fbbe 2e50 8bbe 7c49 273f
00000120: d6e1 4ebe a730 8ebd 9178 acbd 8be7 fb3e
00000130: 2867 58bf ebb4 ddbe b01f 18bf 02e6 08bf
00000140: 376d 32bf 251d 00bf e6e2 21bf d531 17bf
00000150: 13e6 8abe c6cd a6be 4786 b4bd 4594 353f
00000160: 85d8 62bf fc59 adbe 6ca8 58bf 98c4 4f3e
00000170: 6ce8 33bf 9354 03bd 8ab0 08bf fcac 7e3e
00000180: b7a9 493e 518f b63e 739f 07be 9383 57bf
00000190: 536c 62be d7cb 3dbd 5bdf 23bf f2d6 1fbe
000001a0: ab9f f2be 532a f2be 9a60 0cbf 876f 323d
000001b0: 8e8f 25bf 58a0 66bf c5f7 aebe a787 15be
000001c0: c0b1 853d 6682 f73d 09e0 b23f 962f 42be
000001d0: b32a 93be 674a ddbe 267f 40bf ce96 1fbf
000001e0: 05df 18bf 5e1b 18bf 720e 703e bda3 06be
000001f0: 78b5 bdbf dc36 af3e bac4 8e3d

cause_networks.0.5.running_var f4 [127]
0.47273463 0.46173248 0.9651884 0.52521014 1.1604756 0.99249005 0.86990416 0.5486127
0.64164954 0.74897265 1.05311 1.5362017 0.45975104 0.7149341 0.66105324 0.90030867
0.5656844 0.9232659 0.92079467 0.897134 1.1468252 0.46203643 0.8548253 0.7146913
1.1482592 0.49254245 0.4904857 1.6719075 1.0611775 1.0739415 0.9278529 0.82343835
0.68778825 1.0496234 0.48178124 0.9866564 0.61456585 0.8903632 0.8208567 1.0959953
1.0274875 1.0643554 0.7484378 0.99948114 0.8958167 0.73364985 0.8746121 0.8197053
0.745445 0.8876317 0.70689404 0.90519863 0.6526564 0.6290575 4.005537 0.5965461
1.1602775 1.405363 0.5868252 2.7813458 0.627237 0.76615334 0.54244524 0.50614744
0.97132665 0.7321621 0.725368 0.8466565 1.038598 1.3509979 0.73122644 0.6562917
0.65755236 1.0943484 0.5875677 0.8939483 1.3543255 0.67152196 0.7097716 0.9499877
0.9275514 0.67564327 1.0156002 0.87388426 0.9086554 0.6879894 1.0848931 0.58053297
1.0318323 0.5604954 1.0615829 2.7590022 1.2733641 1.1096308 0.81538695 0.93446904
0.8910825 1.2702576 0.717746 0.95479435 0.5044822 0.7427036 0.9648966 0.6147823
1.1111295 0.67418206 0.5951413 1.0405072 1.1254632 0.7844552 1.2542139 0.4161695
0.96774834 0.6032078 0.6989795 0.8156558 1.093549 0.63487434 0.93675953 1.1937639
0.5878478 0.6465992 0.7725858 0.94149333 1.597152 1.6214856 0.7675374
00000000: 460a f23e 3368 ec3e 9616 773f 2c74 063f
00000010: 778a 943f d413 7e3f 0ab2 5e3f e271 0c3f
00000020: 2543 243f acbc 3f3f 4fcc 863f 42a2 c43f
00000030: 7d64 eb3e ec05 373f c93a 293f a17a 663f
00000040: b1d0 103f 275b 6c3f 33b9 6b3f 93aa 653f
00000050: 2bcb 923f 0a90 ec3e d5d5 5a3f 02f6 363f
00000060: 28fa 923f 862e fc3e f120 fb3e 1101 d63f
00000070: aad4 873f ea76 893f c587 6d3f dbcc 523f
00000080: e412 303f 0f5a 863f 08ac f63e 8495 7c3f
00000090: 3054 1d3f d8ee 633f aa23 523f 9349 8c3f
000000a0: b684 833f cc3c 883f 9f99 3f3f ffdd 7f3f
000000b0: 3e54 653f 7ad0 3b3f 94e6 5f3f 35d8 513f
000000c0: 7cd5 3e3f d53b 633f 02f7 343f 19bb 673f
000000d0: 7d14 273f ea09 213f 5c2d 8040 3fb7 183f
000000e0: f983 943f efe2 b33f 2d3a 163f 9201 3240
000000f0: 9b92 203f a022 443f b1dd 0a3f e192 013f
00000100: dda8 783f fa6e 3b3f b8b1 393f 7bbe 583f
00000110: c7f0 843f 80ed ac3f a831 3b3f bc02 283f
00000120: 5a55 283f 9c13 8c3f d66a 163f ccd9 643f
00000130: 8a5a ad3f dde8 2b3f 97b3 353f 6532 733f
00000140: 0274 6d3f f5f6 2c3f 30ff 813f e1b6 5f3f
00000150: a49d 683f 1320 303f c7dd 8a3f cf9d 143f
00000160: 1513 843f a07c 0f3f f3e1 873f 7e93 3040
00000170: 98fd a23f 6208 8e3f 33bd 503f 5d39 6f3f
00000180: fc1d 643f cd97 a23f 34be 373f 676d 743f
00000190: bf25 013f d321 3e3f 7703 773f 5f62 1d3f
000001a0: 7e39 8e3f 3297 2c3f 2e5b 183f 572f 853f
000001b0: 2e0f 903f 0ed2 483f 158a a03f 2b14 d53e
000001c0: 5bbe 773f d46b 1a3f 52f0 323f d2ce 503f
000001d0: 6af9 8b3f 2087 223f 79cf 6f3f 41cd 983f
000001e0: 327d 163f 8687 253f 2fc8 453f b505 713f
000001f0: 7a6f cc3f d78c cf3f 557d 443f
