foundation_models/Ensemble_model33_DeepHit_LSTM_Both_20250807_171238.pt (torch, 819549 bytes, 16 tensors)

lstm_layers.0.weight_ih_l0 f4 [396, 11]
0	0xbdbf56cb	-0.09342726
1	0x3def33fb	0.11679836
2	0xbd4bbe6c	-0.049742147
3	0x3ec7e618	0.39042735
4	0x3c0b5909	0.008505114
5	0x3e2c2d42	0.1681414
6	0x3d9c3001	0.076263435
7	0x3dfa2d5e	0.12215684
8	0x3de89ecb	0.11358412
9	0x3d4f8fb1	0.050674144
10	0xbe07b3ea	-0.13252226
11	0x3d6d0410	0.057865202
12	0xbd07739d	-0.03306924
13	0x3d971629	0.073772736
14	0xbdebeafa	-0.115194276
15	0xbda032d9	-0.078221984
16	0xbdd0ad87	-0.10189348
17	0x3d6717cf	0.05641919
18	0xbd977b03	-0.073965095
19	0x3ce34a30	0.027745336
20	0xbe0f3333	-0.13984375
21	0xbda7a549	-0.081858225
22	0xbcd3f80b	-0.025875112
23	0xbd8734d5	-0.06601874
24	0xbe3336b5	-0.17501338
25	0x3ebde028	0.3708508
26	0x3d8c5b0b	0.068533026
27	0xbd64ff54	-0.055907562
28	0xbe69271d	-0.22768827
29	0xbe3e4bd4	-0.18583614
30	0x3b9b9044	0.0047474224
31	0xbc50fc7d	-0.01275551
32	0xbea06d91	-0.31333593
33	0x3d479515	0.04872616
34	0xbe0a3c50	-0.1349957
35	0xbe7263fc	-0.23670954
36	0x3dc02263	0.09381559
37	0xbd94495e	-0.07240556
38	0xbe63cd69	-0.22246327
39	0x3bd33096	0.006445001
40	0x3b1c9346	0.0023891493
41	0xbd49d2cb	-0.049273293
42	0xbd3c4f90	-0.045974314
43	0x3d44f203	0.048082363
44	0x3e7efd76	0.24901375
45	0x3df9709a	0.1217968
46	0xbd1a3b68	-0.03765431
47	0x3e8345a8	0.2563908
48	0x3cfc4dbf	0.030798791
49	0x3ce074ea	0.027399499
50	0x3e0c7d86	0.13719758
51	0x3e120ef5	0.14263518
52	0x3e4d97e4	0.20077473
53	0x3b838cdd	0.004014595
54	0x3d01284a	0.031532563
55	0x3d938b76	0.072043344
56	0xbdd5fec1	-0.10448981
57	0xbe9427b4	-0.2893654
58	0xbde86b90	-0.11348641
59	0x3c95cf3f	0.0182873
60	0xbd17ad3c	-0.037030444
61	0xbda897a6	-0.0823205
62	0xbd2592b5	-0.040423114
63	0x3ce94c1c	0.028478675
64	0xbdb0b390	-0.08627999
65	0xbe33ba03	-0.17551427
66	0x3dbd6070	0.092469096
67	0x3e1ffaaf	0.15622972
68	0xbde86e77	-0.113491945
69	0xbedaaef8	-0.42711616
70	0x3d3e7794	0.046500757
71	0x3d2c44bc	0.042057738
72	0x3c6c8e72	0.0144382585
73	0x3dfb5f9c	0.122740954
74	0x3e7bdf5d	0.24596925
75	0xbd5f82af	-0.05456799
76	0x3ec03eb9	0.37547854
77	0x3c86f9df	0.01647657
78	0x3cf4c81e	0.02988058
79	0x3e2785ac	0.16359586
80	0x3ef95a75	0.48701826
81	0x3ce67575	0.02813218
82	0x3d71b4d1	0.05901033
83	0x3d289658	0.041159004
84	0x3cc565c6	0.02409638
85	0xbc41dd06	-0.011832481
86	0xbe692474	-0.22767812
87	0x3d28e80d	0.041236926
88	0x3cd683cb	0.02618589
89	0x3cf84459	0.030306028
90	0xbedbca97	-0.42928
91	0xbeeb9263	-0.46010122
92	0xbe613709	-0.2199365
93	0xbe43969d	-0.19100423
94	0xbd3ac56a	-0.045598425
95	0xbd1d4bfe	-0.03840255
96	0xbce00622	-0.027346674
97	0xbea5e7d8	-0.32403445
98	0xbcfbaa69	-0.030720906
99	0xbd7bf7f6	-0.06151577
100	0x3d91b5a6	0.07114725
101	0x3e46c1fe	0.1940994
102	0x3dc9b91d	0.09849761
103	0xbc8401e2	-0.016114179
104	0xbd6483cc	-0.055789754
105	0xba7f0315	-0.0009727937
106	0xbdabc74d	-0.08387623
107	0xbd3c3caa	-0.04595629
108	0xbc10ac70	-0.008830175
109	0x3e04a06e	0.12951824
110	0x3d76f2f8	0.060290307
111	0xbcf44a6f	-0.029820649
112	0xbde3a2ae	-0.11115013
113	0x3e38a18a	0.18030372
114	0xbd35e650	-0.044409096
115	0xbdb4e241	-0.08832217
116	0xbe028ca7	-0.12748967
117	0xbdd89c36	-0.1057667
118	0x3d08a813	0.033363413
119	0xbdc0a480	-0.09406376
120	0x3d055960	0.032555938
121	0xbcea4136	-0.028595548
122	0x3d394f80	0.045241833
123	0x3defe747	0.117140345
124	0xbec971d9	-0.3934467
125	0x3dbdf1e4	0.092746526
126	0x3e244cc0	0.16044903
127	0x3de21c58	0.110405624
128	0x3d71ff2d	0.059081245
129	0x3d90e0e7	0.07074147
130	0x3d8887ab	0.066665016
131	0xbf4d89cc	-0.80288386
132	0xbdb409af	-0.087909095
133	0xbd2fa5d8	-0.04288277
134	0x3dfb71c9	0.12277562
135	0x3ce471c4	0.027886279
136	0xbca57ced	-0.02020117
137	0x3dbd9f22	0.09258868
138	0x3d2531ce	0.0403307
139	0xbd5a1a7b	-0.05324791
140	0x3d0d727d	0.034533013
141	0xbd250b17	-0.04029378
142	0x3e01d5c2	0.12679198
143	0xbce1e7c5	-0.027576337
144	0xba632dab	-0.0008666168
145	0xbc875b47	-0.016523017
146	0xbf5705cf	-0.8399324
147	0xbd8ff353	-0.07028832
148	0x3c31c95a	0.010851229
149	0x3d92b97e	0.07164286
150	0xbe004bbf	-0.12528895
151	0x3c2dd8ac	0.010610741
152	0xbcbdf4c7	-0.023188008
153	0xbde05149	-0.10953004
154	0xbcc0fa7d	-0.023556942
155	0xbe83aeee	-0.25719398
156	0xbebaa156	-0.36451215
157	0x3e5724d1	0.21010138
158	0xbe790718	-0.24319112
159	0xbe60d883	-0.21957593
160	0xbe470c92	-0.19438389
161	0xbe569f5f	-0.20959233
162	0xbd902daa	-0.0703996
163	0x3ccfae98	0.025351807
164	0xbee7ebcf	-0.45297095
165	0x3d24e37f	0.04025602
166	0x3d437fe7	0.0477294
167	0x3d230196	0.039796434
168	0x3f402e4f	0.7507066
169	0x3d8bb061	0.06820751
170	0xbbcd0556	-0.0062567396
171	0xbdf29c2d	-0.118461944
172	0x3d8514cf	0.064981095
173	0xbc832387	-0.016008152
174	0xbda905ca	-0.08253057
175	0x3d7ba053	0.061432194
176	0xbde431fc	-0.11142346
177	0x3c452c9e	0.012034563
178	0xbe24a1a3	-0.16077285
179	0xbd61b0a0	-0.055100083
180	0xbd79d142	-0.06099058
181	0x3b824980	0.003976047
182	0x3d7aa626	0.061193608
183	0x3e006aa0	0.12540674
184	0xbd383c62	-0.04497946
185	0x3b10dfa5	0.0022105959
186	0xbd384e56	-0.044996582
187	0xbdec1495	-0.11527363
188	0x3e04e01c	0.12976116
189	0xbb332e70	-0.0027340911
190	0x3dfe5cf7	0.124200754
191	0xbdcde920	-0.10054231
192	0x3d0866a4	0.03330101
193	0x3d95da4a	0.07317026
194	0x3c8adb6a	0.016950328
195	0xbd6e7e65	-0.058226008
196	0x3cb223d7	0.021745605
197	0x3e136f87	0.14398013
198	0xbc5a1426	-0.013310468
199	0xbe239ec8	-0.15978539
200	0xbd0ff1fe	-0.03514289
201	0x3cc5a98a	0.024128694
202	0x3ab1f78d	0.0013577804
203	0xbde9082a	-0.1137851
204	0xbe284a4a	-0.16434589
205	0xbd909f36	-0.07061617
206	0xbbd45977	-0.0064803916
207	0xbe247b1d	-0.16062589
208	0xbedd1635	-0.43181005
209	0xbe0dc28b	-0.13843744
210	0xbd5a1add	-0.053248275
211	0xbe17fc3d	-0.14842315
212	0xbdea9898	-0.11454886
213	0xbd1f0cec	-0.038830683
214	0x3ceb4c58	0.028722927
215	0xbd8b3743	-0.0679765
216	0xbdac2b45	-0.084066905
217	0xbd0aca32	-0.033884235
218	0xbdae71ef	-0.08517825
219	0xbe178cf3	-0.14799862
220	0xbdae975a	-0.08524962
221	0x3cddc409	0.027071016
222	0xbe213126	-0.15741405
223	0x3d9aa896	0.075516865
224	0x3e214f7a	0.15752974
225	0x3c35e900	0.011102915
226	0xbe2a61a8	-0.16638815
227	0xbabc715e	-0.0014377048
228	0xbd80e6aa	-0.06293996
229	0xbc68bebe	-0.014205633
230	0xbe08689a	-0.13321152
231	0x3d118b65	0.035533328
232	0xbe238718	-0.15969503
233	0xbc9c3514	-0.019068278
234	0xbe11826c	-0.14209908
235	0xbdd15c3f	-0.10222673
236	0xbc836b03	-0.016042238
237	0xbcb3cbe9	-0.021947818
238	0xbd0617fb	-0.032737713
239	0x3d690132	0.056885906
240	0xbe2d87e0	-0.16946363
241	0xbe015813	-0.12631254
242	0x3d404e20	0.046949506
243	0xbc0f4e62	-0.008746715
244	0xbdcb6cf9	-0.09932894
245	0x3f4f1e22	0.80905354
246	0xbe471480	-0.19441414
247	0xbca987f2	-0.020694707
248	0xbdd9ab86	-0.106284186
249	0xbdac6433	-0.08417549
250	0xbd34a0d5	-0.044098694
251	0xbd1e4d61	-0.038648013
252	0x3d8d9612	0.06913389
253	0xbd69a4af	-0.05704182
254	0xbb7ba09e	-0.0038395296
255	0xbda2162a	-0.07914384

lstm_layers.0.weight_hh_l0 f4 [396, 99]
0	0xbb11b71f	-0.0022234393
1	0xbd92604f	-0.07147276
2	0xbeab17f0	-0.334167
3	0xbdd296cc	-0.102826685
4	0x3cb89d30	0.02253589
5	0x3c01a3b1	0.007912562
6	0x3e9121dc	0.28346145
7	0xbca7f674	-0.02050326
8	0xbd20958f	-0.03920513
9	0x3dad445f	0.084603064
10	0xbd269e5f	-0.04067838
11	0xbe22cd17	-0.15898548
12	0x3d24df07	0.040251758
13	0xbe0a5750	-0.1350987
14	0x3e169c4d	0.14708062
15	0xbe1668c4	-0.14688402
16	0xbe5f7de4	-0.21825367
17	0xbe1d2259	-0.15345134
18	0xbd5fd52a	-0.05464665
19	0xbdd9cc14	-0.10634628
20	0x3de042ef	0.109502666
21	0xbd3749fd	-0.044748295
22	0xbd3f077d	-0.046638
23	0x3d76e758	0.06027922
24	0x3e22c35b	0.15894835
25	0xbc671bbf	-0.014105736
26	0x3d062125	0.032746453
27	0xbd372464	-0.04471244
28	0xbb6032d0	-0.0034209974
29	0x3db74332	0.08948363
30	0xbe35e9dd	-0.17764993
31	0x3d2c48d0	0.042061627
32	0xbd150d24	-0.036389485
33	0x3df81b9a	0.121146396
34	0xbd9d91e6	-0.076938435
35	0xbdf0b670	-0.11753547
36	0x3d8461b3	0.06463947
37	0x3d5f1547	0.05446365
38	0xbdf2d406	-0.118568465
39	0xbcaeeaac	-0.021352135
40	0xbd1d2190	-0.038362086
41	0x3e090722	0.13381627
42	0xbd60bc81	-0.05486727
43	0xbdd1ec3a	-0.10250135
44	0xbd1947c2	-0.03742195
45	0x3ca7dec3	0.020491963
46	0x3e40a0bb	0.18811314
47	0x3c87631e	0.016526755
48	0x3ddc1c92	0.10747637
49	0x3c84bf72	0.01620457
50	0xb9b9fd45	-0.0003547465
51	0x3e101842	0.14071754
52	0x3dbd67fa	0.092483476
53	0x3db572c1	0.08859778
54	0x3e165e97	0.1468452
55	0xbe46d6e4	-0.19417912
56	0xbcd0f322	-0.02550656
57	0x3c515010	0.012775436
58	0xbccc82ba	-0.024964679
59	0x3cc5871f	0.024112282
60	0xbc3d52ee	-0.0115554165
61	0x3e014ce0	0.12626982
62	0x3d025eda	0.03182874
63	0xbd9c8279	-0.07642073
64	0x3cb747b0	0.02237305
65	0x3c17e189	0.00927008
66	0xbd1d3c3d	-0.038387526
67	0xbd455f00	-0.048186302
68	0x3e1835a7	0.14864217
69	0xbd8f5d51	-0.070002206
70	0xbd864e1a	-0.065578654
71	0xbd83edd7	-0.06441849
72	0xbc5b91de	-0.013401477
73	0x3db1454f	0.08655798
74	0x3dc28287	0.09497552
75	0xbe361381	-0.17780878
76	0x3dba578f	0.09098732
77	0xbdac7d13	-0.084222935
78	0x3daf6b15	0.08565346
79	0x3db49f0e	0.088194
80	0xbd006c3d	-0.031353224
81	0xbdd403ed	-0.10352311
82	0x3dd63513	0.10459342
83	0x3d786fe7	0.060653593
84	0xbe0d06c5	-0.13772114
85	0xbda9f64c	-0.082989305
86	0xbd6d7353	-0.05797131
87	0xbdc423c5	-0.09577135
88	0x3d474a16	0.04865464
89	0x3bcb2774	0.0061997715
90	0xbd99f46c	-0.07517323
91	0x3e41d87c	0.18930238
92	0x3d8e4cf3	0.06948271
93	0xbcc9506a	-0.024574477
94	0xbc08b0f1	-0.008342967
95	0x3d2372ee	0.039904527
96	0x3d280b5d	0.041026462
97	0xbd511725	-0.051047463
98	0x3dcd0483	0.10010626
99	0x3bcfc35b	0.006340427
100	0x3d91e65d	0.071240164
101	0xbd18acac	-0.037274048
102	0x3a85c813	0.0010206721
103	0xbc0fef2f	-0.008785053
104	0x3bf243b3	0.0073933243
105	0x3e2b9d05	0.16759117
106	0xbe0a7feb	-0.1352536
107	0xbcd522fa	-0.026017655
108	0xbd72d5b7	-0.059285846
109	0x3d32372e	0.043509655
110	0x3dca6547	0.09882598
111	0x3d5d914a	0.054093637
112	0x3d9c92fd	0.07645223
113	0x3d99a913	0.075029515
114	0xbca89e59	-0.020583319
115	0x3cb0cf8f	0.021583347
116	0xbca688dd	-0.020328933
117	0xbdc995fa	-0.09843059
118	0xbceed75f	-0.029155431
119	0x3bb804ce	0.005615807
120	0x3b74830f	0.0037309562
121	0x3c94c7ad	0.01816162
122	0xbc79391c	-0.01521137
123	0xbddb9761	-0.107222326
124	0xbcf00715	-0.029300252
125	0x3d2259a7	0.03963628
126	0xbd3a6162	-0.045503028
127	0x3d36c4ce	0.04462128
128	0xbc434465	-0.011918162
129	0x3db0102c	0.085968345
130	0x3dd0807f	0.10180759
131	0xbd6d5ba0	-0.05794871
132	0x3d5dedb6	0.054181777
133	0xbda4bb32	-0.08043517
134	0x3d3a2542	0.045445688
135	0x3d9d67bc	0.076858014
136	0xbda3cc62	-0.07997967
137	0xbd748bf2	-0.059703775
138	0xbd7ecc63	-0.062206637
139	0x3de3d4d3	0.111245774
140	0x3d3b77aa	0.045768417
141	0x3d488199	0.04895172
142	0x3cc55410	0.024087936
143	0x3d84f0f4	0.06491271
144	0xbdaad5c1	-0.083415516
145	0x3e20246c	0.15638894
146	0x3d92ef6e	0.07174574
147	0xbdad75f0	-0.084697604
148	0xbc6dd878	-0.014516942
149	0x3ded678c	0.115920156
150	0xbc8c3e10	-0.017119437
151	0x3db5c419	0.08875293
152	0x3d0d7ff1	0.034545843
153	0x3df6c2dc	0.12048885
154	0x3d9e641e	0.077339396
155	0xbd00d859	-0.031456325
156	0xbb9018b2	-0.004397475
157	0xbcb34156	-0.02188174
158	0x3cb6799f	0.02227479
159	0x3cefaed1	0.029258164
160	0xbda3fd60	-0.08007312
161	0x3dfc48aa	0.12318547
162	0xbde78217	-0.113041095
163	0xbd6a6cac	-0.057232544
164	0xbb6cdc08	-0.003614189
165	0x3c0eece9	0.008723476
166	0x3d861d6a	0.06548579
167	0x3d7e676d	0.062110353
168	0x3dffeaef	0.12495982
169	0x3cdd31de	0.027001318
170	0x3d6d8d29	0.05799595
171	0xbcd9e8b1	-0.026600214
172	0xbd8e2cb2	-0.06942119
173	0x3c4b597b	0.0124114705
174	0x3dd9c8b7	0.106339864
175	0xbd3f7301	-0.046740536
176	0xbdd38a81	-0.10329152
177	0x3d51dae2	0.051234134
178	0xbc83feec	-0.016112767
179	0xbce3aeb7	-0.027793271
180	0xbdfeb3ad	-0.12436614
181	0xbdd190ad	-0.10232673
182	0x3ce259be	0.027630683
183	0xbb955dcc	-0.0045583006
184	0x3d05aaef	0.032633718
185	0x3c87def4	0.016585805
186	0xbca6360f	-0.020289449
187	0x3dc52ad8	0.096273124
188	0x3c80f2cd	0.015740776
189	0x3d2bb96f	0.04192489
190	0x3da53367	0.08066445
191	0x3dd992af	0.10623681
192	0x3d0cf87c	0.03441666
193	0xbd61d9df	-0.05513942
194	0xbd6e8295	-0.05823
195	0xbd74d0ff	-0.059769627
196	0xbd9b0745	-0.07569746
197	0x3d99383a	0.074814275
198	0xbd3fd6d4	-0.046835735
199	0xbc4b60ef	-0.0124132475
200	0xbd9865db	-0.074413024
201	0xbe7978f5	-0.24362548
202	0xbd86e448	-0.0658651
203	0x3d5e9fc2	0.054351576
204	0x3cf1bdbf	0.029509423
205	0xbe2c78d7	-0.16842972
206	0x3d1c30c3	0.03813244
207	0x3dfbd529	0.122965164
208	0x3d13dba2	0.03609813
209	0xbddb3086	-0.107026145
210	0xbe74c191	-0.23901965
211	0x3dd1f7e4	0.102523595
212	0x3e2c159d	0.1680512
213	0x3dab392e	0.083605155
214	0xbdda183d	-0.10649154
215	0xbddeb65e	-0.108746275
216	0x3c6b3b1d	0.014357355
217	0xbe089a92	-0.13340214
218	0x3e51c4b6	0.20485196
219	0xbd498912	-0.049202986
220	0xbea03bd8	-0.31295657
221	0xbcff3648	-0.031153813
222	0xbcd7d415	-0.026346246
223	0xbe179e1b	-0.14806406
224	0x3e0a910b	0.13531892
225	0xbddce522	-0.10785891
226	0x3d33490a	0.043770827
227	0x3cd6a6a5	0.02620251
228	0x3dff9fd8	0.1248166
229	0x3cf9343b	0.030420413
230	0xbc99a4b5	-0.018755296
231	0xbd8882f7	-0.066656046
232	0xbdd65029	-0.10464508
233	0x3c97896f	0.01849815
234	0x3d1c48e0	0.038155437
235	0xbd777486	-0.06041386
236	0xbd4a4876	-0.04938551
237	0x3dde628d	0.10858641
238	0xbe0bbf75	-0.13647254
239	0x3c465779	0.012105816
240	0x3c8cfb37	0.017209632
241	0xbd2bbfd8	-0.041931003
242	0x3d8aab76	0.06770985
243	0x3d7eb2e2	0.062182315
244	0x3e69a900	0.22818375
245	0xbdb5e1e0	-0.08880973
246	0x3d254e83	0.040358078
247	0xbd925fdf	-0.07147192
248	0xbc94ca24	-0.018162794
249	0xbc518b96	-0.012789628
250	0x3dfc9f49	0.12335069
251	0x3da014fc	0.078165025
252	0xbd4ea991	-0.05045468
253	0x3ddca744	0.10774091
254	0x3d4cdc1d	0.050014604
255	0x3ccb73b6	0.024835449

lstm_layers.0.bias_ih_l0 f4 [396]
0	0x3dd18252	0.10229935
1	0xbdbc68d4	-0.09199682
2	0x3dd05a37	0.10173457
3	0x3b42e204	0.0029736767
4	0x3e08bdc5	0.13353641
5	0xbd3a1d60	-0.04543817
6	0xbd86a4c7	-0.065743975
7	0xbdde68ce	-0.10859834
8	0xbe0126c0	-0.12612438
9	0x3bfd27e4	0.0077257026
10	0xbdec4edb	-0.11538478
11	0x3e248704	0.1606713
12	0x3b8cbcb2	0.004294955
13	0xbb899bcd	-0.004199481
14	0x3e595164	0.21222454
15	0xbdd4d0c9	-0.10391385
16	0x3da33f39	0.07971043
17	0xbd64c9ab	-0.055856388
18	0xbd3105f1	-0.043218557
19	0xbd0ae8dc	-0.03391348
20	0x3c6454df	0.0139362505
21	0xbcc6864b	-0.024233958
22	0xbe3e5979	-0.18588819
23	0xbe36c212	-0.1784747
24	0xbe1caee9	-0.15301098
25	0x3d2ab27f	0.041674133
26	0x3d88efe3	0.0668638
27	0x3d37ed9a	0.04490433
28	0x3d84316e	0.064547405
29	0x3d405e58	0.046964973
30	0x3d046154	0.03231938
31	0xbd1321fa	-0.035921074
32	0x3c38f43e	0.011288701
33	0x3d1f521d	0.03889667
34	0x3e04d25e	0.12970874
35	0xbdfa8146	-0.12231688
36	0x3e1747df	0.1477351
37	0x3c627c69	0.013823607
38	0xbb786e7b	-0.0037907648
39	0xbd929d36	-0.07158892
40	0x3ddee2b6	0.108830854
41	0xbd8cd595	-0.06876675
42	0xbc9068bd	-0.017628068
43	0x3e01cda7	0.12676106
44	0xbd2f90f4	-0.042862847
45	0x3d962bfd	0.07332609
46	0x3dc2d6e1	0.09513641
47	0xbd6eec52	-0.05833084
48	0xb9d5999d	-0.00040740977
49	0xbd4a3235	-0.049364287
50	0x3adea3ec	0.0016986108
51	0x3dcb27f3	0.09919729
52	0xbd94ff04	-0.07275203
53	0xbdfc6477	-0.1232385
54	0xbe1b0de2	-0.15142015
55	0x3e60a641	0.21938421
56	0xbdc719cc	-0.09721717
57	0xbe45f354	-0.19331104
58	0xbdb07275	-0.08615581
59	0xbd827a86	-0.06371026
60	0xbde65036	-0.11245768
61	0xbd78efb8	-0.06077549
62	0x3dc68006	0.09692387
63	0x3db66712	0.08906378
64	0xbcce9933	-0.025219535
65	0xbda96fcf	-0.08273279
66	0x3b7e479a	0.0038800002
67	0xbd050bbd	-0.032481898
68	0xbdf53be8	-0.11974317
69	0xbde66760	-0.11250186
70	0xbc16f617	-0.009213946
71	0xbd415c7f	-0.04720735
72	0xbd0f625c	-0.035005912
73	0xbbff7929	-0.007796426
74	0x3e129dfa	0.14318076
75	0xbd9b598f	-0.07585441
76	0x3da1a4fc	0.078927964
77	0xbd1e3528	-0.038624913
78	0x3c06dfc1	0.008232058
79	0x3dc06659	0.09394521
80	0xbd81bfd4	-0.063354164
81	0xbd66a8f7	-0.05631348
82	0xbc3d71d5	-0.011562784
83	0xbc8bcb2f	-0.017064659
84	0xbde4204c	-0.11138973
85	0x3df4d93f	0.11955499
86	0xbe2dd407	-0.16975413
87	0x3e045d74	0.12926275
88	0xbd622bc4	-0.05521752
89	0xbda1a74b	-0.07893237
90	0xbd309f8d	-0.04312091
91	0x3d626066	0.055267714
92	0xbd0599d6	-0.032617413
93	0xbd39ccfe	-0.04536151
94	0x3daa6f69	0.08322031
95	0xbd9d0349	-0.07666642
96	0xbd87ef53	-0.06637444
97	0xbe1915c2	-0.14949706
98	0x3cf4b000	0.02986908
99	0x3bed3dc7	0.0072400304
100	0xbdd59ca4	-0.104302675
101	0x3c84ba45	0.016202101
102	0x3d4f32ca	0.050585546
103	0xbe4b70c3	-0.19867234
104	0xbc98e788	-0.01866509
105	0xbd4c8a64	-0.049936667
106	0xbddb7801	-0.10716248
107	0x3d2bbc54	0.04192765
108	0x3ce329f1	0.02772996
109	0xbdccaaf7	-0.099935465
110	0xbe1e1b3e	-0.1544008
111	0xbe250111	-0.16113688
112	0xbdf787cf	-0.1208645
113	0xbdb15dc5	-0.08660463
114	0xbe8310a5	-0.25598636
115	0x3c81aa40	0.015828252
116	0xbbfee2c9	-0.0077784997
117	0xbdc91289	-0.098179884
118	0xbe1ed38c	-0.15510386
119	0x3dbbfd35	0.09179155
120	0xbe15cd5e	-0.14629123
121	0xbe51ac08	-0.20475781
122	0xbdea3d90	-0.11437523
123	0xbed4272f	-0.41436145
124	0xbdc8dbc3	-0.09807541
125	0x3d29b293	0.041430067
126	0x3d992c3f	0.074791424
127	0xbdcfc039	-0.101440854
128	0x3cce948a	0.025217313
129	0xbd9e2b1b	-0.077230655
130	0xba9e277b	-0.001206621
131	0xbdff72a9	-0.124730416
132	0x3d2fb482	0.042896755
133	0xbcdc6a55	-0.026906172
134	0xbdf21dad	-0.118220665
135	0x3d895b17	0.06706827
136	0xbde3579a	-0.11100693
137	0xbb60dead	-0.0034312413
138	0xbdefe7de	-0.11714147
139	0xbdefeb7c	-0.11714837
140	0x3de7d24d	0.113194086
141	0xbb434e84	-0.0029801438
142	0xbcd869e7	-0.026417686
143	0xbdb5472a	-0.08851464
144	0x3d5a3909	0.05327705
145	0x3dcabac9	0.09898908
146	0xbe960121	-0.29297736
147	0xbdfbfb3e	-0.1230378
148	0xbe1a3eb0	-0.15062976
149	0xbe825b81	-0.25460437
150	0x3db6cbf0	0.08925617
151	0x3b086903	0.0020814545
152	0xbd2937c6	-0.041312955
153	0xbd397d1b	-0.045285325
154	0xbd40c0c8	-0.04705885
155	0xbdc612f1	-0.096715815
156	0xbe003de4	-0.1252361
157	0xbd20599c	-0.03914796
158	0xbe81b945	-0.25336662
159	0xbe0d3cd0	-0.1379273
160	0x3c0acda9	0.008471885
161	0x3aa2e015	0.0012426401
162	0x3dae4eef	0.08511149
163	0xbaf6028b	-0.0018769068
164	0x3d67218f	0.05642849
165	0xbdeb370d	-0.114851095
166	0xbc8b2fca	-0.016990561
167	0xbdf5ac7b	-0.11995789
168	0xbe4669ae	-0.19376251
169	0xbe0c8507	-0.13722621
170	0xbbc6302d	-0.0060482235
171	0xbe1fc539	-0.15602578
172	0xbdcea653	-0.100903176
173	0xbc87a6f8	-0.01655911
174	0xbe0afef9	-0.13573827
175	0xbde7123d	-0.112827756
176	0x3d137a7e	0.03600549
177	0xbd9090aa	-0.070588425
178	0xbd5b121f	-0.05348408
179	0x3bb571f7	0.0055372673
180	0xbe400464	-0.18751675
181	0xbe66f5de	-0.22554728
182	0xbc663552	-0.0140507985
183	0xbc4b9d8f	-0.012427702
184	0x3c8f502e	0.017494287
185	0xbe264600	-0.1623764
186	0xbd830e6b	-0.063992344
187	0xbc2fd7a1	-0.010732562
188	0xbdf7282d	-0.1206821
189	0x3d70bdb6	0.058774672
190	0xbdb03eec	-0.086057514
191	0x3a937dbc	0.0011252682
192	0xbca70a4f	-0.020390658
193	0x3d9a96bc	0.075482816
194	0xbc4b2c78	-0.012400739
195	0xbd902196	-0.07037656
196	0xbd2bb2a3	-0.041918408
197	0xbd6eac23	-0.05826963
198	0xbd6342e1	-0.055483703
199	0xbd02cb16	-0.03193196
200	0x3e23464c	0.15944785
201	0x3dc71df2	0.097225085
202	0x3db44d60	0.088038206
203	0xbc60361b	-0.013684775
204	0x3c241912	0.010015743
205	0x3dbd18ef	0.09233271
206	0x3d43930c	0.047747657
207	0xbde2bb8a	-0.110709265
208	0x3ca920c7	0.020645512
209	0xbd8dbe86	-0.06921105
210	0x3da22db9	0.07918877
211	0x3cda2154	0.02662722
212	0xbe6f734d	-0.23383828
213	0xbdceb905	-0.100938834
214	0xbe2003ea	-0.15626493
215	0xbe0ca110	-0.13733315
216	0x3cc5cf8b	0.024146816
217	0xbda1a9a8	-0.078936875
218	0xbe2d02c5	-0.16895588
219	0x3d566711	0.052344386
220	0x3e0d5f08	0.13805783
221	0x3deb991c	0.11503813
222	0x3d17001b	0.036865335
223	0x3ddc3629	0.10752518
224	0xbdfd227e	-0.123600945
225	0x3cdb9ba7	0.02680762
226	0xbe14a756	-0.14516959
227	0xbdc5672f	-0.09638821
228	0xbcd8edeb	-0.026480636
229	0xbc367247	-0.011135644
230	0x3d44b1c4	0.048021093
231	0xbbcebbab	-0.006308993
232	0x3abf3b1e	0.0014589762
233	0xbd8c4887	-0.06849771
234	0x3dde4c4f	0.108543985
235	0xbe103ade	-0.14084956
236	0xbcacbc68	-0.021085933
237	0x3de18a22	0.11012675
238	0xbdcec391	-0.10095895
239	0x3dec1cbd	0.11528919
240	0x3cfd3f23	0.030913895
241	0xbcf56aa5	-0.029958079
242	0xbcb53825	-0.022121498
243	0xbd052b34	-0.032511905
244	0xbd900e75	-0.070340075
245	0xbc079d4d	-0.0082772495
246	0xbc626aad	-0.013819379
247	0x3d0d7025	0.034530777
248	0xbc6648a5	-0.014055406
249	0x3d8fb88a	0.0701762
250	0xbc33536e	-0.010945184
251	0x3dd99b0c	0.10625276
252	0x3e050a0f	0.12992118
253	0xbdc29ef9	-0.09502978
254	0xbd3430e6	-0.043991946
255	0x3cc04394	0.023469724

lstm_layers.0.bias_hh_l0 f4 [396]
0	0x3d510a27	0.051035073
1	0xbd52e975	-0.051492173
2	0x3df91faf	0.12164246
3	0x3d0feb4b	0.035136502
4	0x3e552cf3	0.20817928
5	0xbe1eb06c	-0.15496987
6	0x3a3e3aa1	0.0007256661
7	0xbddcf1f3	-0.10788336
8	0x3d31641c	0.043308362
9	0x3e0d214d	0.13782234
10	0xbda93910	-0.08262837
11	0x3d1ba873	0.038002443
12	0x3c64c761	0.013963551
13	0xbe05ca5a	-0.13065472
14	0x3e370ad2	0.17875221
15	0xbe00d555	-0.1258138
16	0x3c03c7a6	0.008043205
17	0xbc7eb1eb	-0.015545349
18	0xbe08ea11	-0.13370539
19	0xbd8ccdab	-0.068751656
20	0x3d16adbf	0.03678679
21	0x3c2b03f3	0.010437953
22	0xbd46a2b1	-0.048495
23	0xbe14acd0	-0.14519048
24	0xbd9dd286	-0.0770617
25	0x3d813e1b	0.06310674
26	0xbd28c0fd	-0.041199673
27	0x3d3d63d9	0.0462378
28	0x3cc89960	0.024487197
29	0x3da3df95	0.08001629
30	0xbd74d39e	-0.059772126
31	0xbd9c6ba8	-0.07637721
32	0xbdb0cfc1	-0.08633376
33	0xbd4e58ec	-0.05037777
34	0x3da2bfa1	0.079467066
35	0xbdca7c31	-0.09886969
36	0x3bba6171	0.0056878855
37	0xbd9491fb	-0.07254406
38	0xbd4764d0	-0.048680127
39	0x3a047a6b	0.0005053642
40	0x3d04fc50	0.032467186
41	0x3db1da93	0.08684268
42	0x3d6229ea	0.055215754
43	0x3c2a37ec	0.010389309
44	0xbe134170	-0.14380431
45	0x3dc6d1d0	0.09707987
46	0xba671e7a	-0.0008816492
47	0xbd8b15c5	-0.067912616
48	0xbca35bcc	-0.019941233
49	0xbd868ee2	-0.065702215
50	0xbdac56cc	-0.08414993
51	0x3c8c657a	0.017138232
52	0xbc361b94	-0.011114974
53	0xbdc030fd	-0.09384344
54	0xbc37da7d	-0.011221525
55	0x3d9e92d2	0.077428475
56	0x3d4afe68	0.049559027
57	0xbdd26a5b	-0.10274192
58	0x3d00f78b	0.031486075
59	0xbe2977cd	-0.16549607
60	0x3b89657d	0.0041930065
61	0xbe084e5a	-0.13311139
62	0x3dd481be	0.10376309
63	0xbd488539	-0.048955176
64	0x3dfc2069	0.12310869
65	0xbdb515e7	-0.08842068
66	0x3d0a7abc	0.033808455
67	0x3ac97dca	0.0015372571
68	0xbdd60928	-0.10450965
69	0xbe1df648	-0.1542598
70	0x3ca3a98a	0.019978303
71	0xbcce0783	-0.025150066
72	0xbdb89008	-0.09011847
73	0xbc356ad9	-0.011072838
74	0x3debfd42	0.115229145
75	0xbcad216a	-0.021134097
76	0x3ccfa77c	0.025348417
77	0x3e0b7efb	0.13622658
78	0xbda27ffb	-0.079345666
79	0xbdac9c53	-0.08428254
80	0xbb7b063f	-0.0038303284
81	0xbe04f121	-0.12982608
82	0xbd81f4f2	-0.06345548
83	0x3ba4fa65	0.005034732
84	0xbdba6f3e	-0.09103249
85	0xbd17ea1a	-0.03708849
86	0xbe327b32	-0.17429808
87	0x3dbd996e	0.0925778
88	0xbc100bc4	-0.008791868
89	0xbdb9a764	-0.0906513
90	0x3d01eaec	0.03171818
91	0x3d27bcad	0.04095142
92	0x3d8a7356	0.0676028
93	0xbdf17fde	-0.11791967
94	0xbd12c5af	-0.035833057
95	0xbd0d53fd	-0.034503926
96	0xbc7af4f1	-0.015317188
97	0x3bb35b0b	0.0054734997
98	0xbdb51bd5	-0.08843199
99	0xbdedf49a	-0.1161892
100	0xbcdf0a60	-0.027226627
101	0xbdee4e61	-0.11636043
102	0x3da19ad6	0.07890861
103	0xbdda2a7f	-0.10652637
104	0xbe052996	-0.13004145
105	0xbd29735c	-0.04136978
106	0xbe084ad9	-0.13309802
107	0x3db6c47b	0.089241944
108	0x3d84d9f3	0.06486883
109	0xbdb94c1f	-0.09047722
110	0xbd2145aa	-0.039373077
111	0xbd5d6c75	-0.05405851
112	0xbdf6d04b	-0.120514475
113	0xbe1bbbd2	-0.15208367
114	0xbe681cb1	-0.22667195
115	0xbd5c8bed	-0.05384438
116	0xbe0ebf2d	-0.13940115
117	0xbd011645	-0.03151538
118	0xbca0f47c	-0.01964783
119	0x3d553a5c	0.05205761
120	0xbd883250	-0.06650221
121	0xbe6a5467	-0.2288376
122	0xbe0025a9	-0.12514366
123	0xbeb1e2ec	-0.3474344
124	0xbd8f1fff	-0.06988525
125	0x3c0e861a	0.0086989645
126	0x3d3a39df	0.045465346
127	0xbc157fd6	-0.009124717
128	0x3da55bfa	0.08074184
129	0x3d8682a7	0.06567889
130	0xbba04d86	-0.004892054
131	0xbdef0cb0	-0.11672342
132	0x3e1ac565	0.15114363
133	0xbe0396b1	-0.12850453
134	0xbdc3a00f	-0.09552013
135	0x3dea9972	0.114550486
136	0xbce2dd7c	-0.027693503
137	0x3cf7ddbb	0.030257097
138	0xbdc1e8e8	-0.094682515
139	0xbe0bbe39	-0.13646783
140	0x3d3d1b29	0.04616848
141	0xbd17938e	-0.037005953
142	0xbd8a4823	-0.0675204
143	0xbdb88ed7	-0.090116195
144	0x3d46e7d1	0.04856092
145	0xbd2c76f5	-0.042105634
146	0xbe80f926	-0.25190085
147	0xbe296ffd	-0.16546626
148	0xbe2c958b	-0.16853921
149	0xbe174c9e	-0.14775321
150	0x3d1b7e17	0.037962046
151	0xbdcec30e	-0.100957975
152	0xbd5b70b3	-0.053574275
153	0xbcc73037	-0.024314983
154	0x3d62427d	0.05523919
155	0x3cb7434e	0.02237096
156	0xbe24f763	-0.16109996
157	0xbd945263	-0.072422765
158	0xbe6a5607	-0.2288438
159	0xbe502364	-0.20326
160	0xbd987784	-0.07444671
161	0xbd96cb63	-0.07363012
162	0x3e6b29c4	0.22965151
163	0xbcdf7462	-0.027277175
164	0x3d2e0a84	0.042490497
165	0xbd6be38e	-0.05759006
166	0xbdfe539d	-0.12418292
167	0xbd817e5e	-0.06322931
168	0xbe24e102	-0.16101459
169	0xbdc6bb79	-0.09703726
170	0xbe26da97	-0.16294323
171	0xbe63c7ee	-0.22244236
172	0x3d1f1018	0.038833708
173	0xbd71f383	-0.05907012
174	0x3a6d09f1	0.0009042314
175	0xbda53c45	-0.08068136
176	0xbd528951	-0.051400486
177	0xbe3e0ecd	-0.18560334
178	0x3cb84128	0.022492006
179	0xbe119836	-0.1421822
180	0xbe59d73a	-0.21273509
181	0xbe5dd760	-0.2166419
182	0x3d38d068	0.045120627
183	0x3c3fce94	0.011706967
184	0x3e1872a9	0.1488749
185	0xbd69a6ed	-0.05704396
186	0xbd32a90b	-0.043618243
187	0x3c902ff6	0.017600995
188	0xbcf3b24d	-0.029748106
189	0xbd587dad	-0.05285423
190	0xbe2988be	-0.16556069
191	0xbdad4db5	-0.08462087
192	0xbd833c65	-0.06408004
193	0x3c5dc336	0.013535311
194	0x3d8cc378	0.0687322
195	0xbe0bdb97	-0.13657986
196	0xbe165ef4	-0.14684659
197	0xbd97c61f	-0.074108355
198	0x3d2e68bb	0.042580348
199	0x3dcc5bf9	0.0997848
200	0x3d09fe33	0.03368969
201	0x3de4b472	0.1116723
202	0x3e106350	0.14100385
203	0xbd93d065	-0.072174825
204	0x3d382d6c	0.044965193
205	0x3dcc8532	0.099863425
206	0x3dc818ca	0.09770353
207	0xbd7d3ac1	-0.06182361
208	0xbdbe4415	-0.09290329
209	0xbda9b3ce	-0.08286248
210	0x3e1a4e31	0.1506889
211	0xbc28e490	-0.0103084
212	0xbea50072	-0.32226902
213	0xbda715c0	-0.08158445
214	0xbe22be29	-0.15892853
215	0xbd145e48	-0.036222726
216	0x3d0e9d70	0.034818113
217	0xbd2dd868	-0.04244271
218	0xbe1067c9	-0.14102091
219	0x3de2e3c1	0.11078597
220	0xbc91b874	-0.01778815
221	0x3cc05a55	0.023480574
222	0x3e576b93	0.2103713
223	0x3e18192a	0.1485335
224	0xbd6e8933	-0.058236312
225	0x3dd8ed1a	0.105920985
226	0xbdc25cbb	-0.09490343
227	0x3d38fd07	0.04516318
228	0xbdf4c5be	-0.11951779
229	0xbd077140	-0.033066988
230	0x3d8fef36	0.07028048
231	0x3e0070dc	0.12543052
232	0x3d760f4e	0.06007319
233	0xbd640adb	-0.055674415
234	0x3dea46ee	0.1143931
235	0xbd378f86	-0.04481461
236	0x3cd8ae4f	0.026450304
237	0x3dcc5614	0.099773556
238	0xbb92a912	-0.004475721
239	0x3dc4d596	0.09611051
240	0x3d8e0db8	0.069362104
241	0xbc9f4e1f	-0.01944643
242	0xbd1b5bc9	-0.03792933
243	0x3d7b8cd3	0.061413597
244	0xbdbcd72f	-0.092207305
245	0xbd00660a	-0.031347312
246	0x3d36a688	0.04459241
247	0x3d3020bd	0.04299997
248	0xbd482e65	-0.04887237
249	0xbc3bf5cc	-0.011472177
250	0xbd906043	-0.070496105
251	0xbb07d59f	-0.0020726693
252	0x3d958fcb	0.07302817
253	0xbdf474ac	-0.11936316
254	0xbd99b178	-0.075045526
255	0xbc5a57bd	-0.0133265825

lstm_layers.1.weight_ih_l0 f4 [396, 99]
0	0x3d81616d	0.063174106
1	0x3cc03f2d	0.023467625
2	0x3b9bd68d	0.004755801
3	0x3de71dd2	0.11284985
4	0xbe4fe687	-0.20302783
5	0x3a6cec44	0.0009037892
6	0xbe0e3d64	-0.13890606
7	0x3c4615b8	0.012090139
8	0x3d474228	0.048647076
9	0x3ddb27fe	0.10700987
10	0xbb084a4b	-0.0020796235
11	0xbe28eb09	-0.16495909
12	0x3d057260	0.03257978
13	0xbca16ee9	-0.019706206
14	0xbeef4f61	-0.4674025
15	0x3de699dd	0.11259816
16	0xbd1c21aa	-0.038118042
17	0xbdbd9e11	-0.092586644
18	0x3d254f04	0.04035856
19	0x3d90558e	0.07047568
20	0x3dd40baf	0.10353791
21	0x3d940ecd	0.072293855
22	0x3e2026ef	0.15639852
23	0x3cd93bbe	0.026517745
24	0xbe21e923	-0.15811591
25	0xbda9ce85	-0.082913436
26	0xbcc512b5	-0.024056772
27	0x3de541a9	0.11194164
28	0x3d5c12a8	0.05372873
29	0xbd9dace2	-0.076989904
30	0xbc725133	-0.014789867
31	0xbd274bce	-0.040843777
32	0x3c8fda35	0.017560104
33	0x3d823c8e	0.06359206
34	0x3d814a4b	0.063129984
35	0xbd2b7c2f	-0.041866478
36	0x3e76963c	0.24080747
37	0xbd288813	-0.041145395
38	0xbc812d60	-0.015768707
39	0x3b9a44f9	0.004707929
40	0xbe7081fb	-0.23487084
41	0x3d19bdb6	0.037534438
42	0x3dedac07	0.11605077
43	0x3dd45ac7	0.10368877
44	0xbe059bee	-0.13047764
45	0x3e524d2d	0.20537253
46	0xbba8116a	-0.005129029
47	0xbe26b71a	-0.16280785
48	0xbe57c822	-0.21072438
49	0xbda4eeca	-0.08053358
50	0x3e2004c9	0.15626825
51	0xbcf7b59d	-0.030237967
52	0xbe1d9605	-0.15389259
53	0x3d80d841	0.06291247
54	0xbcb6a2fb	-0.022294512
55	0x3e2aa31c	0.16663784
56	0xbdec7311	-0.11545385
57	0x3d953a10	0.07286465
58	0x3d7285d5	0.059209663
59	0xbd1e63f8	-0.038669556
60	0xbdabf48d	-0.08396254
61	0xbd9f0a51	-0.077656396
62	0xbb0c96f6	-0.0021452284
63	0xbd94d124	-0.07266453
64	0x39754fa5	0.0002339469
65	0x3d897f8c	0.06713781
66	0x3d86ceef	0.06582438
67	0xbe0b2f15	-0.13592179
68	0x3d0317a9	0.032004986
69	0xbca5f08a	-0.0202563
70	0xbd2f30d3	-0.04277117
71	0xbd30ed3f	-0.043195006
72	0x3cb8fe00	0.022582054
73	0x3e21cfe5	0.15801962
74	0xbdfc0cac	-0.123071045
75	0xbb800ebd	-0.003908007
76	0x3d931384	0.07181457
77	0x3d17d488	0.03706792
78	0x3d3118c4	0.04323651
79	0xbde86241	-0.113468654
80	0xbdb016e7	-0.08598118
81	0x3d84550d	0.06461535
82	0xbdd1f34e	-0.10251485
83	0xbd3416b2	-0.043966956
84	0x3e0ae7b5	0.13564952
85	0x3d8c11f3	0.06839361
86	0xbe090103	-0.13379292
87	0xbd1cdf3f	-0.03829884
88	0x3d2e53b5	0.042560298
89	0x3c221a63	0.009893986
90	0x3d6021c2	0.054719694
91	0x3cc4a3d0	0.024003893
92	0xbced53bd	-0.028970594
93	0x3d75af1f	0.05998146
94	0x3df0c7f1	0.11756886
95	0xbd31437f	-0.04327726
96	0xbe06646e	-0.13124248
97	0x3b501294	0.0031749355
98	0x3d41e721	0.047339562
99	0x3d4af78b	0.04955248
100	0x3dfde7fa	0.12397762
101	0x3d13eb16	0.036112867
102	0x3d35493b	0.04425929
103	0x3e437ff1	0.19091775
104	0x3ca5a6cc	0.020221137
105	0x3bccd369	0.006250788
106	0xbdb1dc68	-0.08684617
107	0xbdf63a21	-0.12022806
108	0xbccfc225	-0.02536113
109	0xbd824174	-0.063601404
110	0xbd14e064	-0.036346808
111	0xbd1fbe92	-0.0390001
112	0x3d3c300e	0.045944266
113	0xbe92139d	-0.2853059
114	0xbc6cdb5b	-0.014456595
115	0xbc727fc1	-0.014800967
116	0xbd8b08c4	-0.06788781
117	0x3e13c99f	0.14432381
118	0x3b64eb31	0.0034930224
119	0x3d84e786	0.06489472
120	0xbcb86abc	-0.022511832
121	0x3ba344b9	0.0049825576
122	0xbc6bc94e	-0.0143912565
123	0xbcae7e77	-0.021300538
124	0x3de46aa7	0.11153155
125	0x3e01cfb1	0.12676884
126	0x3d5c5455	0.053791363
127	0xbd8edabb	-0.06975313
128	0xbe908325	-0.28225055
129	0x3b367cd0	0.002784539
130	0xbe0d04ec	-0.13771409
131	0x3d063ec4	0.0327747
132	0xbe0486d0	-0.12942052
133	0x3d4fdcf1	0.050747816
134	0xbc5bf40d	-0.013424885
135	0x3da78960	0.08180499
136	0xbd87da04	-0.0663338
137	0x3e00c8ef	0.1257665
138	0xbd63c356	-0.05560621
139	0xbd1a228d	-0.037630606
140	0x3c8e929f	0.017403899
141	0x3d85af08	0.06527525
142	0x3e6c7fdd	0.23095651
143	0xbe58f009	-0.21185316
144	0xbc276051	-0.010215835
145	0x3dfc6ae6	0.12325077
146	0xbd82e63e	-0.063915715
147	0x3c2f373b	0.01069432
148	0xbe07e10c	-0.13269442
149	0x3d53187f	0.051537033
150	0x3d030989	0.031991515
151	0xbdb80fcb	-0.08987387
152	0x3d26ddff	0.040739056
153	0xbdf26cbb	-0.11837145
154	0xbd72232a	-0.059115566
155	0x3e06b100	0.13153458
156	0x3d609e48	0.05483845
157	0x3e228fae	0.15875122
158	0xbce385d8	-0.027773783
159	0x3d69d8ad	0.057091404
160	0x3bce0acc	0.006287908
161	0xbcc1b481	-0.023645641
162	0xbc817a04	-0.015805252
163	0xba39de5d	-0.00070903247
164	0x3c52a600	0.01285696
165	0x3de0cf49	0.109770365
166	0xbdeee5ac	-0.116649
167	0xbdb82a91	-0.08992494
168	0xbca5902f	-0.020210354
169	0x3c55fd0d	0.01306082
170	0x3cf3334a	0.029687542
171	0x3d885ba6	0.066581056
172	0xbce18dec	-0.027533494
173	0x3e33984e	0.17538568
174	0xbd573dad	-0.052549053
175	0x3ebd3e84	0.36961758
176	0x3e37424c	0.17896384
177	0xbc5bba90	-0.013411179
178	0xbdce9a5b	-0.10088035
179	0x3e0385c1	0.12843992
180	0x3d88f085	0.066865005
181	0x3c2c245c	0.010506716
182	0xbd8d7399	-0.06906814
183	0x3ce1300a	0.027488727
184	0x3d7cc0a9	0.061707173
185	0x3d600aae	0.054697685
186	0xbcb0fabc	-0.021603934
187	0x3c3ca099	0.011512899
188	0x3da5bb60	0.080923796
189	0x3e91562d	0.2838606
190	0xbcdcd325	-0.02695615
191	0xbe1f40be	-0.15552041
192	0x3d1c4273	0.03814931
193	0x3cf5f5dc	0.030024461
194	0xbe1ee38b	-0.15516488
195	0xbcbe333c	-0.02321779
196	0xbd85dc4e	-0.065361604
197	0x3e2127a9	0.15737785
198	0xbdab6ef0	-0.08370769
199	0x3e04a967	0.12955247
200	0xbe2de5a2	-0.16982129
201	0x3b5dd6e1	0.0033850002
202	0xbb85db3b	-0.004084972
203	0x3dc12ca0	0.0943234
204	0x3d7cb0f6	0.0616922
205	0x3d449e0a	0.04800228
206	0x3d642e3b	0.05570815
207	0x3dac6f20	0.08419633
208	0x3d4becbb	0.04978631
209	0xbedeffd9	-0.4355457
210	0x3d7a76e6	0.061148547
211	0x3db260c3	0.08709862
212	0xbdbe5984	-0.092944175
213	0x3df7f5db	0.1210744
214	0x3d857ca4	0.06517914
215	0xbd8f5201	-0.06998063
216	0x3e319214	0.1734088
217	0xbcc194e6	-0.02363057
218	0x3e27ae29	0.1637503
219	0x3da13a4d	0.07872448
220	0x3c58a27c	0.013222333
221	0x3e256ba0	0.16154337
222	0xbd1136f2	-0.03545279
223	0x3cc099cd	0.023510838
224	0x3df807b1	0.12110842
225	0x3dbc494a	0.09193666
226	0xbc930266	-0.01794548
227	0xbdbc4df2	-0.091945544
228	0xbdec1099	-0.11526603
229	0x3cbb22c2	0.022843722
230	0x3d6cd83b	0.0578234
231	0xbdcecdd9	-0.10097856
232	0x3e11e9cf	0.14249347
233	0x3be7cf14	0.007074246
234	0x3e8fd577	0.28092548
235	0x3d0c52d5	0.034258682
236	0x3d3fac0e	0.046794944
237	0x3d828e37	0.063747816
238	0xbecfe5fb	-0.4060515
239	0xbb9b4509	-0.0047384542
240	0xbc86ed8d	-0.016470695
241	0xbde68826	-0.11256437
242	0xbd81d510	-0.063394666
243	0x3e4e4acc	0.2014572
244	0x3d93f0d5	0.072236694
245	0x3d6d44f4	0.057927087
246	0xbdd9cf48	-0.10635239
247	0x3be7f61d	0.0070788995
248	0xbd47029b	-0.04858647
249	0x3c7efa19	0.015562558
250	0x3ded1837	0.11576884
251	0x3cceea50	0.025258213
252	0xbd82ec65	-0.06392745
253	0xbe5eff3c	-0.21777052
254	0xbe073d78	-0.13207042
255	0xbda2c37e	-0.079474434

lstm_layers.1.weight_hh_l0 f4 [396, 99]
0	0xbccf7cbb	-0.02532803
1	0xbdd6144e	-0.104530916
2	0xbd371ff4	-0.044708207
3	0x3dd4bb37	0.10387271
4	0xbcf76dc4	-0.030203708
5	0xbda0fb49	-0.07860429
6	0xbd94860c	-0.0725213
7	0xbe126ecb	-0.14300077
8	0xbd37405c	-0.044739112
9	0x3d254c06	0.040355705
10	0xbe13c899	-0.1443199
11	0x3c917cc6	0.017759692
12	0xbe03db92	-0.12876728
13	0x3d9e39a4	0.07725838
14	0x3de2820f	0.11059963
15	0x3e3e1b4d	0.18565102
16	0xbcaa0704	-0.020755298
17	0xbd0dfa74	-0.03466268
18	0xbd2bc317	-0.0419341
19	0x3bdcb493	0.0067353933
20	0x3e346c34	0.17619401
21	0xbd455209	-0.048173938
22	0xbcb68942	-0.022282247
23	0xbd469c7a	-0.04848907
24	0xbd98b74e	-0.074568376
25	0xbe3f316b	-0.18671195
26	0xbd1acf00	-0.037795067
27	0x3d088f32	0.033339687
28	0x3e0078e3	0.12546115
29	0x3da0842b	0.07837709
30	0xbcfa16be	-0.030528422
31	0x3e28dfbd	0.164916
32	0x3e1dd1ce	0.15412065
33	0xbdef6cff	-0.11690711
34	0x3dfc36ae	0.12315117
35	0xbd3db0d9	-0.046311233
36	0xbdc89dbe	-0.09795712
37	0x3d83e612	0.06440367
38	0x3cacaa6c	0.021077357
39	0x3d85c7ed	0.065322734
40	0xbe6ba5d0	-0.23012471
41	0x3e321d13	0.17393903
42	0x3dabddfd	0.0839195
43	0xbe347569	-0.17622913
44	0xbe0ab748	-0.13546479
45	0xbcd7de36	-0.026351076
46	0x3cd8d917	0.026470704
47	0xbd99f42c	-0.07517275
48	0x3d42340b	0.047412913
49	0xbe1a8d5c	-0.15092987
50	0x3ddfbfcb	0.109252535
51	0x3c890810	0.016727477
52	0x3cc836fe	0.024440285
53	0xbdd5bba9	-0.10436184
54	0xbe226f91	-0.15862872
55	0x3d303d64	0.043027297
56	0xbb365556	-0.002782186
57	0x3d60c44e	0.05487471
58	0xbe758cdb	-0.23979513
59	0xbc5da129	-0.013527193
60	0x3c0175fc	0.007901665
61	0xbd5827d7	-0.05277237
62	0x3d4eda7d	0.050501335
63	0xbe83b512	-0.25724083
64	0xbc9c560d	-0.019084001
65	0xbda5af01	-0.0809002
66	0xbdf30df9	-0.118678994
67	0xbdbf596a	-0.09343226
68	0x3d47c48a	0.04877142
69	0xb945ce05	-0.00018864132
70	0x3c8a5f9a	0.01689129
71	0x3bf4bc19	0.007468712
72	0x3cdd9939	0.027050601
73	0xbd6853c5	-0.056720514
74	0x3be27cbf	0.0069118435
75	0xbe2fa064	-0.17151028
76	0xbcbdba44	-0.023160107
77	0xbd0439b1	-0.03228158
78	0xbe41648a	-0.18886009
79	0x3d52e807	0.05149081
80	0xbd20b29a	-0.039232828
81	0xbd9e741c	-0.0773699
82	0x3c18bb87	0.009322054
83	0x3d28cd37	0.041211333
84	0xbdacf1ee	-0.08444582
85	0x3d90addd	0.07064412
86	0x3e518578	0.2046107
87	0xbc872834	-0.016498663
88	0x3d82d1aa	0.063876465
89	0x3c7651a1	0.01503411
90	0x3e1dd665	0.15413816
91	0x3d474315	0.04864796
92	0x3c99396a	0.018704135
93	0xbb8c3501	-0.0042787795
94	0x3d9e8ea1	0.07742048
95	0xbe0147ca	-0.12625042
96	0x3e314bf0	0.17314124
97	0xbda2b9d9	-0.07945604
98	0xbd13a8e6	-0.036049746
99	0xbd206a4f	-0.039163884
100	0x39eb8bfb	0.00044926986
101	0x3d56413e	0.052308314
102	0x3d771d79	0.06033084
103	0xbd3d0792	-0.046149798
104	0xbde934a6	-0.11386995
105	0xbda26853	-0.079300545
106	0xbd20b49a	-0.039234735
107	0x3d9c3f38	0.076292455
108	0xbe0a5e8b	-0.13512628
109	0xbdab0620	-0.083507776
110	0x3da8f493	0.08249774
111	0xbcc42bb5	-0.023946622
112	0xbd8facd0	-0.07015383
113	0xbd52ee83	-0.051496994
114	0x3e231e46	0.15929517
115	0x3cfb7e6d	0.030699933
116	0xbd88ef0f	-0.06686222
117	0xbdfec327	-0.12439566
118	0xbce63437	-0.02810107
119	0x3e036a48	0.12833512
120	0xba13e408	-0.0005641584
121	0x3d11ecb4	0.03562613
122	0x3db865c6	0.09003787
123	0xbd56d062	-0.052444823
124	0xbdc9ee2a	-0.09859879
125	0xbb51b67a	-0.0031999634
126	0x3d168ef1	0.036757413
127	0x3d329ab4	0.043604568
128	0x3d17ef2c	0.037093326
129	0xbce7ee0d	-0.028311754
130	0xbbb00a97	-0.005372356
131	0xbe0bfc46	-0.13670453
132	0x3ce5273a	0.027972806
133	0x3da14c36	0.07875864
134	0x3af77d36	0.001888192
135	0xbd9385e6	-0.072032735
136	0xbe2ef6d5	-0.17086346
137	0x3dad0ae8	0.08449346
138	0x3d77f1d1	0.06053335
139	0xbe30a0c2	-0.17248824
140	0x3d7465c1	0.059667353
141	0xbd2a3e0d	-0.041563082
142	0xbe35c216	-0.17749819
143	0xbd7a140d	-0.06105428
144	0xbd0a2613	-0.033727717
145	0xbd6f64ec	-0.058445856
146	0x3d45bef6	0.048277818
147	0xbd544dd9	-0.051832054
148	0xbde86bd3	-0.11348691
149	0x3d5799be	0.052636854
150	0xbc0b9951	-0.00852044
151	0x3e38b9ed	0.18039675
152	0x3d6f8519	0.05847654
153	0x3e2b84db	0.16749899
154	0x3c98605b	0.018600633
155	0xbb4eb988	-0.003154369
156	0xbd563107	-0.05229285
157	0xbd0973e8	-0.033557802
158	0xbd7f78f9	-0.062371228
159	0xbd5f5d5a	-0.054532386
160	0xbd3c492c	-0.04596822
161	0xbbfc59d0	-0.007701136
162	0xbe17a42d	-0.14808722
163	0x3dd6e33f	0.104925625
164	0xbe2b20dc	-0.16711754
165	0xbde25e5e	-0.11053155
166	0xbd929385	-0.07157043
167	0xbd886ba4	-0.06661156
168	0x3ddda737	0.10822909
169	0xbb93c66b	-0.0045097372
170	0x3c7be31f	0.015373974
171	0xbe059e55	-0.1304868
172	0x3ce43bfb	0.027860632
173	0x3db2932a	0.087194756
174	0xbd317376	-0.043323003
175	0x3d4f9e01	0.050687794
176	0xbccc32cf	-0.024926571
177	0x3da5e89e	0.08101009
178	0x3cee1696	0.029063504
179	0xbe10bb7b	-0.14134018
180	0xbc80b691	-0.015712054
181	0x3da41591	0.08011926
182	0xbbd409f9	-0.0064709154
183	0x3ded4ee6	0.11587314
184	0x3db8a07d	0.09014986
185	0x3d2e1001	0.04249573
186	0xbc0a15b7	-0.008428029
187	0x3d17d49c	0.037067994
188	0xbc3a02d1	-0.011353211
189	0xbdfbeee8	-0.12301427
190	0x3dd31db4	0.103084
191	0x3cdb805a	0.026794601
192	0xbcfc5f83	-0.030807262
193	0xbe6fe0eb	-0.23425643
194	0x3c2d526d	0.010578734
195	0x3e01c647	0.12673293
196	0xbe021c96	-0.12706217
197	0xbcf48e47	-0.029853
198	0x3d41fc75	0.047359902
199	0x3d7f6a28	0.062357098
200	0xbccfb501	-0.025354864
201	0xbc891d9a	-0.016737748
202	0xbd58dfe9	-0.052947912
203	0x3d34c3ab	0.044131916
204	0xbd810f08	-0.06301695
205	0xbd92ed69	-0.07174189
206	0x3da4f380	0.080542564
207	0x3de83bf8	0.11339563
208	0xbca803fc	-0.020509712
209	0xbc987f13	-0.018615281
210	0x3d195631	0.037435714
211	0x3d6e43f8	0.05817029
212	0x3d513e7a	0.051084973
213	0x3e1ce4e3	0.15321688
214	0xbe294de7	-0.16533624
215	0xbcbdc3bb	-0.02316462
216	0x3dff1d66	0.12456779
217	0xbd7aa541	-0.061192755
218	0x3dbe71e6	0.09299068
219	0x3c4db229	0.012554684
220	0x3db24584	0.08704665
221	0xbd85049f	-0.06495022
222	0x3c906c72	0.017629836
223	0xbd27db5c	-0.04098068
224	0xbda2c790	-0.0794822
225	0x3d935ad5	0.07195059
226	0x3e42bb4e	0.19016764
227	0x3cc5022b	0.024048885
228	0xbc52e869	-0.012872794
229	0x3ddf0c9a	0.108910754
230	0x3e27278e	0.16323683
231	0xbe008592	-0.12550953
232	0x3bf5b766	0.0074986694
233	0x3dca3a47	0.09874397
234	0x3db8d2b7	0.09024566
235	0x3e48f933	0.19626312
236	0xbe41b2f3	-0.1891592
237	0xbdcf9850	-0.10136473
238	0xbd46ec5f	-0.048565265
239	0x3e04d6cf	0.12972568
240	0x3bddd1bc	0.006769387
241	0xbd741b3c	-0.059596285
242	0xbdbf0854	-0.0932776
243	0xbc088014	-0.008331317
244	0xbe1fef18	-0.15618551
245	0xbde3e1db	-0.11127063
246	0x3d165c6e	0.03670924
247	0xbda46d7a	-0.080286935
248	0x3daa5e8f	0.08318817
249	0xbde6c963	-0.1126888
250	0x3d1c552d	0.038167167
251	0xbd4bf1ac	-0.049791023
252	0xbdc3eb0a	-0.095663145
253	0x3b91b197	0.004446219
254	0x3c456315	0.012047549
255	0x3de48c54	0.11159578

lstm_layers.1.bias_ih_l0 f4 [396]
0	0x3e00d58c	0.12581462
1	0x3d611009	0.054946933
2	0x3e1c6a92	0.15275028
3	0xbd9630ed	-0.073335506
4	0x3dae97bb	0.08525034
5	0xbd613310	-0.054980338
6	0xbe8d219c	-0.27564704
7	0x3c5f7b73	0.013640272
8	0x3d94865c	0.072521895
9	0xbcd91e93	-0.026503837
10	0x3dad2662	0.084545866
11	0xbdeb93c1	-0.11502791
12	0xbd672b7e	-0.05643796
13	0xbe29919e	-0.16559455
14	0xbe138021	-0.14404346
15	0x3d8d99bb	0.069140874
16	0x3df93649	0.12168557
17	0xbd6db781	-0.05803633
18	0x3cf9bc3a	0.030485261
19	0xbcf73911	-0.030178579
20	0xbdbaba0e	-0.09117518
21	0xbd87830a	-0.066167906
22	0xbde70a23	-0.1128123
23	0xbdec3491	-0.11533464
24	0x3ca94401	0.02066231
25	0xbcf063cd	-0.029344464
26	0xbe0fef80	-0.14056206
27	0xbe1868a9	-0.14883675
28	0x3c5b0c73	0.013369667
29	0xbd3bda05	-0.045862217
30	0xbd60cc05	-0.05488207
31	0xbd8c8135	-0.06860582
32	0xbd957458	-0.072975814
33	0xbe0662d3	-0.13123636
34	0x3d0a3e69	0.033750925
35	0xbd3ac119	-0.04559431
36	0xbdbd9ed3	-0.09258809
37	0xbdd311b4	-0.10306111
38	0xbc5056cb	-0.012716006
39	0xbdad4f49	-0.08462388
40	0x3df627c1	0.12019301
41	0xbd51f6a3	-0.0512606
42	0x3c4337fe	0.011915205
43	0xbde612fe	-0.11234091
44	0xbc324de1	-0.010882826
45	0xbe82dd29	-0.25559357
46	0xbe125596	-0.14290461
47	0x3d87736f	0.06613814
48	0xbd737765	-0.059440035
49	0xbdab2646	-0.083569095
50	0xbdd31804	-0.10307315
51	0x3d6beb74	0.057597592
52	0xbbc28ac1	-0.005936951
53	0x3d5f170b	0.054465335
54	0x3d2cd394	0.042193964
55	0xbdebc1c5	-0.11511568
56	0x3d402b97	0.04691657
57	0xbe253a44	-0.16135508
58	0xbdd25dfe	-0.10271834
59	0xbd421898	-0.047386736
60	0xbd6d99b7	-0.058007922
61	0xbdbfc518	-0.093637645
62	0xbddc7df6	-0.10766213
63	0x3e372004	0.17883307
64	0xbdc76722	-0.09736468
65	0x3d8d7c9c	0.06908533
66	0x3dee1f02	0.11627008
67	0xbdd57818	-0.10423297
68	0x3e094745	0.13406093
69	0xbd2bc080	-0.04193163
70	0xbd9108bc	-0.07081744
71	0x3c32b89a	0.01090827
72	0x3bf5cc6f	0.007501177
73	0xbe1b047b	-0.15138428
74	0xbc34a97d	-0.011026737
75	0x3d5a84fa	0.053349473
76	0x3dbb3ea4	0.09142807
77	0xbcb8a34a	-0.0225388
78	0xbd42adb7	-0.04752895
79	0x3e30a33e	0.17249772
80	0xbdb28f28	-0.08718711
81	0x3d85168a	0.064984396
82	0xbdc888dd	-0.097917296
83	0xbd9df8a4	-0.0771344
84	0x3cf6cc88	0.030126825
85	0xbe1799a6	-0.14804706
86	0xbd2abe54	-0.041685417
87	0xbcbc2cfb	-0.022970667
88	0x3c22c14c	0.009933781
89	0x3de4acd3	0.11165776
90	0x3d496b4c	0.049174592
91	0x3e02d2f1	0.1277578
92	0x3e0d2559	0.13783778
93	0xbe0e2a2a	-0.13883272
94	0x3d3ba122	0.045807965
95	0xbdd8d6f7	-0.10587876
96	0x3d8d4c3c	0.06899306
97	0x3db453ca	0.08805044
98	0xbdb26f5c	-0.08712646
99	0x3c5f8691	0.013642923
100	0xbca010be	-0.019539233
101	0xbdf70938	-0.12062305
102	0xbd5baec2	-0.05363346
103	0x3c09489c	0.008379128
104	0xbdba75b9	-0.09104485
105	0xbe918455	-0.28421274
106	0x3d967db2	0.07348193
107	0xbd6494eb	-0.05580608
108	0xbd23d98c	-0.04000239
109	0xbe617247	-0.2201625
110	0x3d53e8b8	0.05173561
111	0xbdf3bb90	-0.11901009
112	0xbe203c5c	-0.15648025
113	0xbe03376d	-0.12814112
114	0xbe813f6b	-0.25243697
115	0x3bd8548c	0.0066018756
116	0xbe232b9e	-0.15934607
117	0xbe562fab	-0.20916621
118	0xbdbd2ce2	-0.09237076
119	0xbd20eaa4	-0.03928627
120	0xbe064887	-0.13113604
121	0xbe27b9a3	-0.16379409
122	0xbdd41ea8	-0.1035741
123	0xbe4fea70	-0.20304275
124	0xbe8725f9	-0.26396158
125	0xbde809cc	-0.113299936
126	0xbd072480	-0.032993793
127	0xbd6b568b	-0.05745558
128	0xbda603ab	-0.08106168
129	0xbe559eeb	-0.20861404
130	0x3d40e513	0.047093462
131	0x3d9127a6	0.070876405
132	0xbde3f9c2	-0.11131622
133	0xbddfea9e	-0.109334216
134	0xbdf78be4	-0.12087229
135	0xbd2a3164	-0.04155101
136	0xbd902b92	-0.070395604
137	0xbd5860cb	-0.052826684
138	0xbde94249	-0.11389596
139	0xbe14836b	-0.14503257
140	0xbd67c233	-0.056581687
141	0xbdf3e677	-0.11909192
142	0xbd83d931	-0.0643791
143	0xbd900792	-0.07032694
144	0xbe43c274	-0.19117147
145	0xbd2041c3	-0.039125215
146	0xbd49a1e6	-0.049226664
147	0x3c5b54d3	0.013386923
148	0xbdbbb15b	-0.09164687
149	0xbb9e33e4	-0.004827963
150	0xbc097a24	-0.008390937
151	0xbdc100ea	-0.094240025
152	0xbcfca5b6	-0.030840736
153	0x3d512526	0.051060818
154	0xbdda9cb6	-0.106744215
155	0xbcf3c5e9	-0.029757457
156	0xbdbade14	-0.09124389
157	0xbd80a662	-0.06281735
158	0xbda81d2e	-0.082086906
159	0xbd8997bb	-0.067183934
160	0xbdc5a871	-0.09651268
161	0xbd9ed73c	-0.077558964
162	0xbd20a136	-0.039216243
163	0x3c430a9c	0.011904385
164	0xbe218739	-0.1577424
165	0xbe316881	-0.17325021
166	0xbd921896	-0.07133596
167	0xbe88c259	-0.26710775
168	0xbcc6af9d	-0.02425366
169	0xbdc38efd	-0.09548757
170	0xbeb99fc5	-0.36254707
171	0xbdf27bc3	-0.11840012
172	0xbdf443f0	-0.119270205
173	0xbc5a4df1	-0.013324247
174	0xbd25669d	-0.040381063
175	0xbdaf47ba	-0.08558603
176	0xbe24fc11	-0.1611178
177	0xbd762215	-0.060091097
178	0xbd491a71	-0.049097482
179	0xbd91f1d3	-0.071262024
180	0xbdaa2d3c	-0.08309409
181	0xbe07a745	-0.13247402
182	0x3d279bf2	0.040920205
183	0xbda2abf0	-0.07942951
184	0xbe647b3a	-0.22312632
185	0xbd146e52	-0.036238022
186	0xbcc344c0	-0.023836493
187	0xbcf872c5	-0.030328164
188	0x3ce84de8	0.028357461
189	0x3e07746f	0.1322801
190	0x3ccf9ca8	0.025343254
191	0xbea0d4d7	-0.31412384
192	0xbe64aeff	-0.2233238
193	0xbe6748ef	-0.22586416
194	0xbd68cf34	-0.05683823
195	0xbcccaab7	-0.024983747
196	0x3d048cc9	0.032360826
197	0xbe219cc5	-0.15782459
198	0x3c9ef0d1	0.01940194
199	0x3d1f9643	0.03896166
200	0x3d1f4c9b	0.038891416
201	0x3d4e4be3	0.05036534
202	0xbd0c3fa1	-0.03424037
203	0xbdb80fa0	-0.08987355
204	0x3daf23e5	0.08551768
205	0x3d83ed8b	0.06441792
206	0x3d7c02ba	0.061526038
207	0x3d1d749f	0.038441297
208	0xbdba4cc4	-0.09096673
209	0x3cc8c06e	0.02450582
210	0xbdad84d8	-0.084726036
211	0xbd7f75e5	-0.062368292
212	0x3d93cf1a	0.07217236
213	0x3d108e8e	0.0352922
214	0x3dac2503	0.08405497
215	0x3d72fae3	0.059321295
216	0xbdbc9148	-0.09207398
217	0xbd62cf8d	-0.055373717
218	0xbdc5ded0	-0.09661639
219	0xbdad5a68	-0.08464509
220	0xbdd3860e	-0.10328303
221	0x3d94a826	0.07258634
222	0x3d2bea58	0.041971534
223	0x3d6cc68c	0.057806537
224	0x3dc6c3a2	0.09705283
225	0x3d88676d	0.06660352
226	0xbda4296a	-0.080157116
227	0x3bbe270c	0.0058029946
228	0xbbd3cac0	-0.0064633787
229	0x3c2b093c	0.010439213
230	0xbd7eff7a	-0.06225536
231	0xbd567fb5	-0.052367885
232	0x3cd5b510	0.026087314
233	0xbdb10f65	-0.086455144
234	0x3bd20dd7	0.0064103412
235	0xbddbdc0d	-0.10735331
236	0x3d79e87f	0.06101274
237	0xbcbd4d5e	-0.02310818
238	0xbd2fabe5	-0.04288854
239	0xbcab97ae	-0.02094635
240	0x3d5e8bec	0.05433266
241	0x3d862bbc	0.065513104
242	0xbd84616f	-0.064638965
243	0x3add871d	0.0016901229
244	0x3cbdb889	0.023159282
245	0xbd10b1a0	-0.035325646
246	0x3d2e1f5c	0.042510375
247	0xbcc6d930	-0.024273485
248	0xba4fcd04	-0.0007926973
249	0x3daecd81	0.085352905
250	0xbca6fbc5	-0.020383725
251	0x3d6de76f	0.05808204
252	0x3d5ff41d	0.054676164
253	0xbbfe28a6	-0.0077563105
254	0x3d48b201	0.048997883
255	0xbdb18317	-0.086675815
