foundation_models/Ensemble_model18_DeepSurv_LSTM_Event_1_20250805_001815.pt (torch, 362504 bytes, 9 tensors)

lstm_layers.0.weight_ih_l0 f4 [336, 11]
000000 91 43 51 3d 78 47 9e 3d db 67 bd 3d 51 d0 86 3e
       0.051089827 0.07728475 0.092483245 0.26330808
000010 20 f7 41 3e 84 80 81 3d 03 91 4e bc 41 22 bf 3d
       0.18941927 0.063233405 -0.012607816 0.09332705
000020 36 eb a7 bd a8 f9 74 3d 7c 69 3c 3b 3e f9 92 bd
       -0.0819916 0.059808403 0.0028749397 -0.071764454
000030 59 dd ae 3d 54 31 0a bd 83 e3 33 3d 9d 43 11 be
       0.085383125 -0.03373845 0.043918144 -0.14185949
000040 ff 74 3d bd 9f 21 90 bd 4a d8 22 3d 17 6f 40 bd
       -0.046254154 -0.07037663 0.03975705 -0.046980944
000050 92 3c bf 3d 98 e1 eb bd 6e f2 99 3c 2f 68 89 bc
       0.09337725 -0.11517638 0.018792357 -0.016773311
000060 b7 1a 42 bd b2 0a 9a 3b 73 43 41 bd 45 de 0d 3d
       -0.04738876 0.004700982 -0.047183465 0.0346358
000070 7b c4 37 bc b9 c5 90 bc 92 fa 42 3d 35 7a 96 bc
       -0.011216278 -0.017672407 0.047602244 -0.01836882
000080 e7 85 3a 3c 3e f7 27 3d 13 77 1f 3e 5d 1b 8d 3d
       0.011384464 0.041007273 0.15572767 0.06889985
000090 9a 19 c3 3e 00 dc 2a 3e ce 84 20 3e 91 e0 b2 3d
       0.3810547 0.16685486 0.15675661 0.08734239
0000a0 38 dd 17 3d b9 26 c7 bc e5 97 ad 3d 47 38 38 3d
       0.037076205 -0.024310457 0.08476237 0.044975545
0000b0 a1 a8 6c 3d ba 68 e6 bd 71 23 13 be e4 1b 25 3d
       0.057778005 -0.11250444 -0.14368989 0.0403098
0000c0 f0 cd 82 bd 27 84 c9 bd 34 1d b2 bd 90 9d 11 bd
       -0.06386936 -0.09839659 -0.08696976 -0.035550654
0000d0 37 da 18 bd ab fc 24 3c 75 20 bb bd b2 ba 1c 3d
       -0.03731748 0.010070006 -0.0913705 0.038263984
0000e0 ca a8 c5 ba fd 35 14 bd ee 4c c6 bc 73 5b 3c be
       -0.001508021 -0.0361843 -0.024206605 -0.1839426
0000f0 cb b1 b0 bd 68 53 f5 bd a2 51 0e be 1f 36 aa bd
       -0.08627661 -0.11978799 -0.13898328 -0.08311104
000100 48 46 70 3d 15 e0 dc bd fd 59 02 3e b3 7a d2 bd
       0.058660775 -0.10784928 0.1272964 -0.10277309
000110 6a 67 1e be 98 ee 10 3d 54 0d 48 be e8 72 a5 bc
       -0.15469137 0.03538379 -0.19536334 -0.020196393
000120 bc 5d 27 3d c5 5f b4 bd 67 66 84 bd 5a 12 3e 3d
       0.040860876 -0.08807329 -0.06464844 0.04640422
000130 72 be 2d bd e3 af 73 bd 3a 8e 6d bd f9 d3 23 3d
       -0.04241795 -0.05949391 -0.057996966 0.039997075
000140 c4 62 e6 bc 32 87 11 bd 8c f4 04 be 6d d6 07 bd
       -0.028123267 -0.035529323 -0.12983912 -0.033163477
000150 83 ab 82 3d 0c ca 95 bd 9b cf ae bd 14 d5 f9 3d
       0.063803695 -0.07313928 -0.08535691 0.121988446
000160 c5 eb 85 3d 2f b3 df bb 86 28 90 3d 05 24 a2 bd
       0.0653911 -0.0068267803 0.07038979 -0.079170264
000170 69 c1 8f 3a f6 85 a2 3d 38 7c 90 3d 2c 19 e2 3d
       0.0010967675 0.07935707 0.07054943 0.110399574
000180 82 0c 95 3d dc 8b b3 3d bd 87 29 bd 65 8c 07 3e
       0.07277776 0.087669104 -0.041389216 0.1323715
000190 e5 63 97 3d 22 16 82 bd 1b 19 55 be f4 dd b9 3d
       0.073921 -0.06351878 -0.20810358 0.09075537
0001a0 b9 a5 d3 bc d4 33 c6 3c 45 2e 03 3d b0 a2 9b 3d
       -0.025835859 0.024194635 0.032026548 0.075993896
0001b0 e9 b6 7b 3d 41 b1 8c 3d a8 ce 2d bd 87 16 df 3d
       0.061453734 0.06869746 -0.04243341 0.108929686
0001c0 85 2f 83 bd d8 94 be 3d b4 38 58 bd fe 08 ae bd
       -0.06405548 0.093057334 -0.05278845 -0.08497809
0001d0 9e 86 6a bd d3 d0 5c ba 15 f7 21 bc 6b 53 1a bd
       -0.057257287 -0.0008423451 -0.009885569 -0.03767721
0001e0 ee 6a 19 bd c1 33 34 3d ce 03 31 bd 79 68 c5 bc
       -0.03745549 0.04399467 -0.04321652 -0.024097668
0001f0 ec 1a 92 bd 35 5f ce 3d 85 61 f2 bc 77 c8 ef 3d
       -0.07134041 0.10076753 -0.029587517 0.117081575
000200 f6 9e 78 3d a2 60 12 bc 9c 30 38 3d 3d 2c 0a bd
       0.060698472 -0.008934172 0.044968233 -0.033733595
000210 1c c6 bc bd f6 2c f3 3d d6 28 13 3d 89 6a e1 3e
       -0.09217474 0.1187381 0.035927616 0.44026592
000220 75 f7 8e 3e a8 ff a6 3d 89 86 1c bc a7 55 22 bd
       0.2792317 0.08154231 -0.00955356 -0.039632466
000230 8a ae df 3d be 4b 4a ba e8 ad 1e be aa 5e 1e 3c
       0.109219626 -0.0007716975 -0.15496027 0.009666124
000240 af ff 0d be e1 71 22 be 13 2b 96 bb ff 33 5f bd
       -0.13867067 -0.15863754 -0.0045827716 -0.054492947
000250 f0 51 35 be f8 50 47 3d 74 56 e2 3c 99 50 36 3d
       -0.17707038 0.048661202 0.027629115 0.044510458
000260 89 a0 2a be c8 48 6f 3c 0e 6d 74 3d 4e c9 b1 3d
       -0.16662802 0.014604755 0.059674315 0.08680974
000270 bc 70 13 be b1 ed 25 bd 3d 47 43 3d ad 94 c2 bb
       -0.14398474 -0.040509883 0.04767536 -0.0059381337
000280 55 9e 81 bd 25 fe 97 3d 5f ca 97 bc 6b e2 b2 3c
       -0.063290276 0.07421521 -0.018529115 0.02183648
000290 4e f7 cc bc 71 54 cb 3d ba 8f df bd 04 bc c3 bd
       -0.025020268 0.09928215 -0.109160855 -0.095573455
0002a0 cc 5a 21 bd 30 d9 fa bc 5d 5a 91 3b 40 cc 93 3d
       -0.03939323 -0.030621141 0.004435821 0.07216692
0002b0 90 c0 8a 3b b6 08 c2 3d e0 2b 20 bd c3 1a 9d bd
       0.004234381 0.09474318 -0.039104342 -0.0767112
0002c0 57 95 97 3d 47 5b 91 3d ba 30 c5 bd 36 a3 8f 3d
       0.07401531 0.07097488 -0.096284345 0.07013552
0002d0 74 07 83 be 00 b2 86 bc af 6f 1f be 46 96 7e 3d
       -0.25591624 -0.016442299 -0.15569948 0.06215503
0002e0 6b 75 b4 bd 64 36 83 bd a3 b8 e1 3c 7e ed 29 3d
       -0.08811458 -0.064068586 0.027553862 0.041486256
0002f0 41 07 f6 3d 27 e3 c5 3a 66 10 bc 3e 0d 1e af 3c
       0.12013102 0.0015097604 0.3673126 0.021376634
000300 cc 5c 9b 3d 85 30 08 3e 85 ce 05 3e fd e6 5e 3e
       0.07586059 0.13299759 0.13067062 0.21767803
000310 8f b7 21 3e ba 6d eb bc 0c 3e 86 3d 6b b2 0f 3d
       0.15792678 -0.028738845 0.06554803 0.035082262
000320 db a2 d2 3d cc 1e 1f 3e ae ab 11 3e 88 4b 93 3d
       0.102849685 0.15539092 0.14225647 0.07192141
000330 48 53 ae bd a0 75 02 3e 8e 49 c4 3d ab 75 06 3d
       -0.085119784 0.12740183 0.09584342 0.03282706
000340 e7 8f 26 bd 4e da 89 3d 84 f0 e3 3d 63 a7 7d bd
       -0.04066458 0.067310914 0.11129859 -0.06192721
000350 1f a2 43 3e 16 16 2c be 7e 7d 68 3c 5b c2 81 bd
       0.19104813 -0.168053 0.014190076 -0.063358985
000360 a5 97 d4 bd 2d 2f 99 3b 71 36 ac bd 7b 5a 9d be
       -0.103804864 0.0046748132 -0.084088214 -0.30733094
000370 0d 2a ac 3d c2 d8 14 bb 67 33 15 be 8e 68 b7 3c
       0.08406458 -0.0022712206 -0.1457039 0.022388723
000380 45 b7 5e be f0 bd c4 bd 57 4a 3a bd 37 03 93 3d
       -0.217496 -0.0960654 -0.045481052 0.071783476
000390 c3 fc 85 3d 5e 6f 3e 3d e0 cb 64 bd b0 1f ae 3c
       0.06542351 0.046492927 -0.055858493 0.021255344
0003a0 9f 78 6e 3d 9a 53 6d bd 6d df 61 3e 91 5f a2 3d
       0.058220502 -0.057941057 0.22057886 0.07928384
0003b0 76 b3 62 3d ce 65 e1 3d 10 cf d6 3d 6b fe 86 bc
       0.05534693 0.11005746 0.10488713 -0.016478738
0003c0 29 cf 82 3d 70 62 b3 bd cb fb b4 3d 39 90 fe 3d
       0.06387169 -0.0875901 0.08837088 0.12429852
0003d0 b7 9b 20 bd 07 e3 b6 3e f6 78 08 3e 0e a5 72 3d
       -0.039211 0.35720083 0.13327393 0.05923944
0003e0 5e ed db 3d de 31 70 3d 33 ae 3b 3b e7 de e7 3d
       0.107386336 0.058641307 0.0028637766 0.11321812
0003f0 1e 0a 83 3d 17 52 3c bd 72 d6 ec 3b e6 07 db bd
       0.06398414 -0.045976724 0.0072277123 -0.10694866

lstm_layers.0.weight_hh_l0 f4 [336, 84]
000000 45 ec 50 3d 71 cd 85 bc 3a f5 ec bd 58 0f b9 bd
       0.051006574 -0.016333314 -0.11570211 -0.0903613
000010 82 c2 f6 3d 6e b3 b2 bd cd 2e 3d 3d 3e 61 2c bd
       0.12048818 -0.0872563 0.04618721 -0.042084925
000020 de 2f f3 3c 76 6f 6e bd 82 29 9b bd 62 c9 49 3c
       0.02968591 -0.058211766 -0.07576276 0.01231608
000030 b9 57 77 bd 85 5e 8d 3d ad 8c 3d 3d d7 9c 03 3c
       -0.060386393 0.06902794 0.046276737 0.008032999
000040 35 39 6f bd 92 57 e6 3b be 41 25 3d 2b 36 f5 3d
       -0.058404166 0.007029482 0.0403459 0.11973222
000050 40 0b f8 3d 3d 85 6c bd 13 55 7b 3d db d2 cd b9
       0.12111521 -0.057744253 0.06136043 -0.00039257747
000060 f9 69 d1 3c 18 2f d5 3d a7 80 68 bd 56 26 50 3d
       0.025563227 0.10409373 -0.056763317 0.05081781
000070 d6 db 36 3d c8 11 c4 bd 27 3b 3c 3c 24 72 94 bd
       0.044643246 -0.09573704 0.011488712 -0.07248333
000080 5e 01 da bc 41 ce 97 3d 43 4a 5a be 47 82 24 bd
       -0.02661198 0.07412387 -0.21317391 -0.040163305
000090 2f a4 98 3d 60 9f c7 bb 11 d9 e4 bd bb 4e 8b bd
       0.074531905 -0.006091997 -0.11174215 -0.06802126
0000a0 17 1b b8 3d 76 80 3a be a6 98 f5 bc 16 62 11 be
       0.08989542 -0.18213066 -0.029980015 -0.14197573
0000b0 ea 87 05 bd 7e 39 21 be 43 c2 97 3d bf 1a 93 3d
       -0.03260032 -0.15744588 0.07410099 0.07182836
0000c0 4d 86 05 be 74 90 9e bd ae 7e 6c bd c2 a8 a7 3a
       -0.13039513 -0.07742396 -0.057738 0.0012791383
0000d0 3e 56 1b 3e de 04 47 bd 48 4d 3e 3d 9e 74 99 3d
       0.15169618 -0.048588626 0.04646042 0.07492946
0000e0 3b b6 ae 3b 0e c4 c1 bd 49 d0 c7 bd b9 27 b0 bd
       0.005331782 -0.094612226 -0.09756524 -0.086013265
0000f0 7f f0 b8 bd 44 6f 6a bd 2f 33 bd bc 3e 15 6d 3d
       -0.09030246 -0.057235017 -0.023095695 0.057881586
000100 08 f6 31 bd 88 6e d1 bc b7 a3 85 3d 7e 9d 9f ba
       -0.043447524 -0.0255654 0.06525367 -0.0012177674
000110 79 d3 bd bd ed 28 72 bd cb b2 af 3d ec c5 93 bd
       -0.09268851 -0.05912106 0.08579024 -0.07215485
000120 d0 9c 29 bd 1d 2c 9a 3c 4a 88 cf bd 24 a5 84 37
       -0.041409314 0.018819863 -0.10133417 1.5812526e-05
000130 ae 2e 81 3d e3 98 ba bd df 5e 97 3d 42 fa f3 bd
       0.063077316 -0.09111192 0.07391142 -0.11912967
000140 42 95 84 bd 5d 99 9c 3c 43 1c e8 bd e5 79 24 bd
       -0.06473781 0.019116098 -0.113335155 -0.04015531
000150 67 ef c7 bb 8a fc ac 3d 98 7f a4 3b 09 64 f3 bd
       -0.006101537 0.084466055 0.005020093 -0.118843146
000160 c3 60 2d 3e c6 3b 70 bd 12 80 74 bc b7 72 17 bd
       0.16931443 -0.058650754 -0.0149231125 -0.036974635
000170 20 58 cb 3d 46 cf c1 bd 1a 9b 76 bd 19 cd 79 3c
       0.09928918 -0.094633624 -0.06020651 0.015246653
000180 76 a8 10 bd 1f 66 3d 3d 12 04 05 3e 45 7e 06 3d
       -0.035316907 0.04623997 0.12989834 0.032835264
000190 d8 ac 66 3d ba 6e aa bc 2c a0 0c bc 83 57 a7 bd
       0.05631718 -0.020804752 -0.00858311 -0.081709884
0001a0 35 0c e6 bc 67 f9 af 3d 4b 52 9c bd c0 bb f1 bc
       -0.028081993 0.085924916 -0.07632884 -0.029508471
0001b0 c0 f2 ab bd 73 c0 3e be d6 7f 9c bd 6c 3d 5a bd
       -0.0839591 -0.18628101 -0.0764157 -0.053281233
0001c0 b2 74 5a 3d 45 6b 5c 3b 6a 52 94 3d 01 35 da bd
       0.053333946 0.0033633274 0.07242282 -0.10654641
0001d0 eb 09 fa 3d 6c 3d 4e 3e 7e 6f c0 bd dc ce b2 3d
       0.12208923 0.20140618 -0.093962654 0.087308615
0001e0 08 1c 04 be 1d 5f f6 bd 0a d4 c7 3d 4f 30 ae 3d
       -0.12901318 -0.1202986 0.0975724 0.08505308
0001f0 0a f2 dc 3d cc 6e a5 3d 46 5a e5 bc b6 79 cd bb
       0.10788353 0.080777735 -0.027997147 -0.0062706126
000200 da 06 80 3d 49 55 6c bd 19 85 91 bd cd ee 08 3c
       0.06251307 -0.05769852 -0.071054645 0.008357716
000210 84 ed a0 bd 3a 30 04 3b f0 1b 9a 3d 3d 36 7e bd
       -0.078578025 0.0020170347 0.0752486 -0.062063444
000220 44 6d f9 bd 0a 53 b4 3c 8e 58 e1 3c 40 48 1d be
       -0.12179044 0.022012252 0.027508046 -0.15359592
000230 1f 9f 11 3d af 50 59 bd 0b 85 86 3d 34 c5 17 3d
       0.03555214 -0.05305546 0.06568345 0.037053302
000240 db d3 0c be 49 85 1c 3d 97 dd 04 be 43 f1 ff 3c
       -0.13752691 0.038213048 -0.12975155 0.031242972
000250 5a d3 ce 3d 02 8d 09 3e 6a 18 80 3d 97 e4 11 ba
       0.10098906 0.13432696 0.062546566 -0.00055653736
000260 8d 82 cf 3d 85 07 40 bc 4c f1 30 3d 20 3f 29 be
       0.101323225 -0.011720543 0.04319887 -0.16527987
000270 9f 96 ed 3d 58 ec 04 bd b2 21 06 3d 2c 6a b6 bd
       0.11600994 -0.032451957 0.032746978 -0.089069694
000280 96 0d af bd a7 18 f2 3d 33 18 77 3d db 81 85 bc
       -0.08547513 0.11821108 0.060325813 -0.016297271
000290 af c6 20 be 72 44 34 3e be f4 67 bd e2 90 ed 3c
       -0.15700792 0.17604235 -0.05662989 0.02899975
0002a0 20 60 98 bd df 93 f7 3d ad 57 06 bd a0 1f ad bc
       -0.074402094 0.12088751 -0.032798458 -0.021133244
0002b0 0a 39 8b bd ae a5 44 3d 94 f2 0d bc 78 0b e6 3c
       -0.06797989 0.048009567 -0.008663792 0.02808164
0002c0 dc fa 46 3d a1 07 60 3d 8e 9d b0 3d ca 26 aa 3c
       0.048579082 0.054694775 0.08623801 0.02077045
0002d0 8e e3 1e bc 04 ab bd 3d d0 c3 99 3d eb 06 10 3e
       -0.009697808 0.09261134 0.075080514 0.14065139
0002e0 37 7f c9 bd d1 be 2a 3e 16 e7 fb 3d 64 3c 14 be
       -0.098387174 0.16674353 0.122999355 -0.14476162
0002f0 78 eb e5 3c a7 b2 03 be 6c 64 1f 3e 4c ff 14 3e
       0.028066382 -0.12861119 0.15565652 0.14550513
000300 c6 32 0d 3e a1 56 ef 3d 7a 48 52 3d 73 a6 82 bd
       0.137889 0.11686445 0.05133865 -0.06379404
000310 ce ab 7d 3d fc 89 3f 3d 27 c2 18 3d 0a f8 82 3d
       0.061931424 0.04676245 0.037294533 0.06394966
000320 31 35 c3 bd 34 c1 67 3b 3e 7b 6f bd 1f 5f 10 3d
       -0.0953163 0.003536296 -0.058467142 0.035246965
000330 8a 2f 45 3d b2 04 b9 bc d2 1b fb 3b ed cc c0 3c
       0.04814104 -0.022585247 0.0076632285 0.023535216
000340 ae bd c6 bc fa db fa bd 4c f8 b8 3d e1 77 7e be
       -0.024260368 -0.122489884 0.09031734 -0.24850418
000350 75 07 69 bd 22 73 48 3d 16 22 44 3d bb 55 15 3a
       -0.056891877 0.048937924 0.04788407 0.0005696674
000360 b7 f9 0c bd 67 a4 48 3c e1 50 53 bc 12 85 42 3e
       -0.034417834 0.012246228 -0.012897701 0.18996075
000370 d0 3c 14 bc 15 77 be bd f2 43 39 be 21 c6 92 3d
       -0.009047702 -0.09300057 -0.18092325 0.07166696
000380 81 08 0b bc 7e 3f bc bd 78 0f a2 bd ad d8 be bd
       -0.008485914 -0.09191798 -0.07913107 -0.093186714
000390 f4 07 e4 bc 20 5c c7 bd 97 a3 c2 3a c7 cc a1 bb
       -0.027835824 -0.09734368 0.0014849779 -0.0049377414
0003a0 54 fe 13 3d 07 38 03 bd ac ea 03 3e 7a 25 bb bd
       0.036131218 -0.032035854 0.12882489 -0.091380075
0003b0 44 7d 47 bd 91 49 24 3d 78 87 d1 3d 54 f1 8b bd
       -0.048703447 0.04010922 0.10230917 -0.06833139
0003c0 11 eb f5 3d 10 a8 ba bd d5 37 c7 3c 15 5b 44 3d
       0.12007726 -0.09114087 0.024318615 0.047938425
0003d0 03 2d 3b bc a6 58 f6 bd cd 53 81 3d 9b 25 e5 3d
       -0.011424306 -0.12028627 0.06314812 0.11188813
0003e0 b5 01 59 bd 15 ef 4e bd c5 1c 8b 3c 63 79 c4 3d
       -0.052980144 -0.050520975 0.016981492 0.09593465
0003f0 9d d8 2f 3e b1 ac d0 3d 2c b5 89 bd a7 6d c9 bd
       0.17172475 0.10189188 -0.06724009 -0.09835368

lstm_layers.0.bias_ih_l0 f4 [336]
000000 33 0c f8 bc f3 1f a4 bd 87 fd 5b 3c ca db 54 bd
       -0.030279255 -0.08013906 0.013427145 -0.05196742
000010 6d f9 95 bc a8 90 ae bc 2c 4f 57 bd 5e f5 9b 3d
       -0.018307412 -0.021309212 -0.05256574 0.076151595
000020 b8 fb 19 bc 0c 4b c0 3c c4 b2 05 be e0 3e 0f 3d
       -0.009398393 0.023473285 -0.13056475 0.03497207
000030 1f b5 af 3b cc 46 91 3d f2 bd 00 bc d2 0d a0 bb
       0.0053621675 0.070935816 -0.0078577865 -0.00488446
000040 98 93 69 bd 29 d8 b2 3d 6b 91 8a 3c 4f 92 08 bd
       -0.057025522 0.087326355 0.016915044 -0.033342656
000050 3e 98 f1 bd f3 5b 10 bc 6f 6c 95 bd ae c9 5f 3d
       -0.11796616 -0.008810985 -0.07296073 0.054635696
000060 9a c8 f3 3c 8c db 0e bd 92 27 22 bc 9a 67 d0 ba
       0.02975874 -0.034877345 -0.00989713 -0.0015900016
000070 2c c7 ac bd 78 b6 cb 3d db 3a ed 3d c6 5d 31 3d
       -0.084364265 0.099469125 0.115834914 0.04330232
000080 73 db 84 bd 0f 8a 0d 3e 01 b4 a7 3d 74 59 b8 bd
       -0.06487169 0.13822196 0.0818863 -0.09001437
000090 db 7d 89 bd 1c 0e ab bd f1 32 25 bc 12 8f 54 3c
       -0.06713458 -0.083523005 -0.010082946 0.012973564
0000a0 b4 44 8d 3c c6 8c b0 bd 24 4b 55 3d 53 30 e4 bd
       0.017244674 -0.086206004 0.052073613 -0.111420296
0000b0 94 2d 1e bd 33 fc 43 bd 27 d2 73 bd 62 a8 96 bd
       -0.038617685 -0.047847938 -0.05952659 -0.07356335
0000c0 87 b0 c7 3d 40 5f df 3d ab ab 1b be 2f dd 69 3d
       0.09750467 0.10906839 -0.15202205 0.057095703
0000d0 ee 23 cf 3c 4f 70 e4 3d d0 68 26 3b b0 80 06 3b
       0.025285687 0.11154234 0.0025392063 0.002052348
0000e0 d0 f1 87 3d 10 80 88 3c 19 06 0b 3e 09 7f 86 3d
       0.06637919 0.016662627 0.13576545 0.06567199
0000f0 92 71 7a 3d 6a c4 a0 bd c9 95 0d 3e 67 6f 7a bd
       0.061143465 -0.07849963 0.1382667 -0.061141398
000100 a2 27 78 bd 4a 28 73 bd ea 78 0e 3d 3c 0c 87 ba
       -0.06058467 -0.059364595 0.03478328 -0.0010303329
000110 d3 90 fa 3d 9e 94 3f bd 98 e4 89 bd 63 f9 d2 3d
       0.12234654 -0.04677259 -0.06733054 0.10301473
000120 a8 44 11 3e 5c 39 93 bc 3d 8f 2d 3d 49 cb 7a bd
       0.14186347 -0.017971687 0.04237293 -0.061229024
000130 85 32 46 bc 75 70 89 3c 89 60 9a bd 35 09 2d 3e
       -0.012097006 0.016777257 -0.07537944 0.16898043
000140 7b 45 3d bd ae e6 8b 3d 37 d4 1a 3e f5 0d a2 3d
       -0.04620884 0.06831108 0.15120016 0.07912818
000150 80 bd 8b 3d c2 cd c2 bd c0 7c dd bd 7d 30 1f bd
       0.06823254 -0.095119014 -0.1081481 -0.0388646
000160 21 75 93 3d 29 27 de 3a 75 2f 01 3d f6 a3 b8 3d
       0.07200075 0.0016948926 0.0315394 0.09015648
000170 29 a6 00 be 4c 0c 85 bd 45 ba 08 3c c6 d0 fa bb
       -0.12563385 -0.06496486 0.008345191 -0.0076542823
000180 43 7a b1 3c 8d 50 af 3c b1 cf 42 be 6c 33 79 3d
       0.021664744 0.021400714 -0.1902454 0.060840055
000190 f9 2e 85 3c 43 98 c3 bd b1 aa bb bd ad 74 24 bd
       0.01625775 -0.09550526 -0.09163416 -0.040150333
0001a0 45 f0 01 3d 98 83 8d bd 14 e6 14 3c 70 c0 1a be
       0.03172328 -0.06909865 0.009088058 -0.15112472
0001b0 96 99 7d bd d2 5c 83 bd 0a 7d 35 bd e3 c9 5d bd
       -0.06191405 -0.064141884 -0.0443087 -0.054147612
0001c0 d0 db e0 bd be d4 09 3d 9e 31 28 3d 57 d8 60 3c
       -0.10979426 0.033650152 0.041062944 0.013723454
0001d0 22 40 09 bc 8b e0 63 3e f4 55 e3 3d 37 13 44 bd
       -0.008377107 0.22253625 0.11100379 -0.047869887
0001e0 a2 c3 2b be c1 aa 42 bd bf 23 8e 3d b3 76 8b bc
       -0.16773847 -0.047526125 0.06940412 -0.017024374
0001f0 11 61 11 3b 88 b7 ef 3d a3 5b a5 3d fd 82 14 bc
       0.00221831 0.11704928 0.08074119 -0.009064433
000200 35 15 95 3c df e0 17 3d 7d 07 54 bd 7b 15 7c bd
       0.018198589 0.03707969 -0.051764954 -0.061543923
000210 33 7e fa bb bc 5e 27 3c d8 79 89 bd 2e bf 7b 3d
       -0.0076444387 0.0102154575 -0.06712693 0.06146162
000220 7e 3b a4 3b 7d 18 1c be af 36 3f 3d a4 ba b2 3d
       0.005011975 -0.15243717 0.04668301 0.08727005
000230 de c1 07 bd 32 76 f6 3c 91 cd 83 3d 4d 56 ed bd
       -0.03314387 0.030085657 0.06435693 -0.11588726
000240 d5 75 67 bd 21 77 48 3c 8f a0 0d 3d 79 c1 cd bd
       -0.056508858 0.012235434 0.03457695 -0.100466676
000250 d1 57 03 bd 65 79 b9 bd 8c e6 b6 bd 0b 64 2c bd
       -0.03206617 -0.09056357 -0.08930692 -0.042087596
000260 67 b5 35 bd 61 24 fd bc 92 e5 8a bb 06 01 d3 3b
       -0.044362452 -0.030901136 -0.0042387927 0.006439331
000270 09 bc 28 3d 1a 6a c3 3a 1c 0d 46 bc 84 1b 33 bd
       0.04119495 0.001490894 -0.012088086 -0.043727413
000280 ed 2c 43 3d 82 5b 0f 3d 19 68 e4 3c 27 f5 66 bd
       0.047650266 0.034999378 0.027881669 -0.05638614
000290 84 4b d8 3d 35 76 0e 3d 7f 4a 60 3e 38 16 3a bd
       0.105612785 0.0347807 0.21903418 -0.045431346
0002a0 68 69 e3 3c 02 95 57 bd dd 57 79 3d 90 a2 e1 3c
       0.027760223 -0.05263234 0.06087481 0.027543336
0002b0 06 fb 9c 3d 52 86 c2 3b b5 74 a3 3d 01 b7 92 bd
       0.076650664 0.0059364224 0.079812445 -0.071638115
0002c0 4f b6 bc 3d ac d9 bc bc 75 d8 ed 3b 89 e6 ed 3c
       0.0921446 -0.023053013 0.0072584697 0.029040592
0002d0 4c 26 8b 3d 74 35 56 3d b9 e4 ae 3c aa 71 f6 bd
       0.06794414 0.05229707 0.021349298 -0.120333984
0002e0 aa 61 81 bd 5e fe 13 bd 4c b4 f3 3d 85 43 27 3d
       -0.06317456 -0.036131255 0.11899623 0.040835876
0002f0 1b 41 bc bd b8 8b 63 bd 4c ac 10 3e 3e 6a ff 3c
       -0.091921054 -0.055553168 0.14128226 0.03117859
000300 1d 58 fe 3d 1e 82 26 3d 16 7c e9 3c 06 75 ac 3b
       0.1241915 0.040651433 0.028501552 0.0052629737
000310 1e 48 ff bd 6c 32 5a bd e0 8c 9f 3c d2 f3 57 bd
       -0.12464927 -0.053270742 0.019476354 -0.05272276
000320 a7 8f c5 bd 91 4f 85 3d 52 b8 01 bd a5 29 83 bd
       -0.0964654 0.06509317 -0.031669922 -0.064044274
000330 1a da f6 3d 63 24 be bc 6f cd f3 3c 30 53 d9 3b
       0.12053318 -0.02321071 0.029761044 0.006632231
000340 c5 3d a5 3c de 80 e3 bc 9c 5a a5 bd 2d db 52 bc
       0.020171056 -0.02777141 -0.08073923 -0.012869638
000350 56 12 1a be 57 d3 16 bd 8d 86 49 bd f9 5f 5c 3d
       -0.15046057 -0.036822643 -0.049200583 0.053802464
000360 9e b3 f7 bd b8 7e 3e be ee 92 13 3d 38 64 05 3e
       -0.12094806 -0.18603027 0.036028795 0.13026512
000370 23 56 f8 3d ee e2 de bd d4 2e c7 3d f6 a1 ab bd
       0.12125804 -0.10883127 0.09725729 -0.08380501
000380 17 ff 93 bd 99 0e e0 bd 58 2b d0 3d b7 9b 01 be
       -0.07226389 -0.10940284 0.10164517 -0.12657057
000390 1f 55 92 3d 03 05 71 3d d4 25 d7 3d ce a0 2b be
       0.07145142 0.05884267 0.10505262 -0.16760561
0003a0 6e 2a ee 3d f9 f9 10 3d 4c 5f 3b 3d 38 bb 60 3d
       0.116291866 0.035394643 0.04574518 0.054866046
0003b0 a8 a3 5c 3d a2 04 39 bd d8 67 f5 bd 75 30 ee bd
       0.053867012 -0.045170434 -0.11982697 -0.11630336
0003c0 3b d5 1d 3d 53 2b b2 bd 4b 6c fb 3c ae eb 8d bc
       0.03853343 -0.0869967 0.030691287 -0.017324295
0003d0 11 71 0e be 32 1b 92 bd 97 71 0c be cd 78 d1 bd
       -0.13910319 -0.07134093 -0.13715206 -0.10228119
0003e0 7f 88 24 be fc 04 a5 bc 66 2e 96 3d 97 8d fc bd
       -0.16067694 -0.020143978 0.073330685 -0.123316936
0003f0 af 85 87 3d ff 52 ed bc 7a a7 c7 bd ca 2c 1d 3e
       0.06617295 -0.02897024 -0.097487405 0.15349117

lstm_layers.0.bias_hh_l0 f4 [336]
000000 40 22 2a bd c8 e2 ce 39 c0 ab ab 3d f4 c4 2f 3d
       -0.04153657 0.00039460347 0.08382368 0.04291244
000010 22 b9 d2 3d 0a 02 0f be ee e2 a1 3d 2a a0 69 bd
       0.102892175 -0.13965622 0.079046115 -0.05703751
000020 5f 0d 01 3d 8e 95 ca 3c b7 87 ec bd 41 55 f3 3d
       0.031506892 0.024729516 -0.11549323 0.11881495
000030 32 55 9e bd 6d 24 a2 3c 68 ed 37 b9 cf ef 6d 3d
       -0.077310935 0.01979276 -0.0001754068 0.058090027
000040 11 66 94 3d 22 9b 2b 3e 7a 03 d0 3c cc 7a e0 3c
       0.0724603 0.16758397 0.025392283 0.027402304
000050 94 52 ee bd b5 d2 62 bd 21 46 f8 3c c2 fd 67 3c
       -0.11636844 -0.055376727 0.030306878 0.014159622
000060 74 69 8b bd 3d f4 32 bc af dc 3c 3d 89 c5 72 bd
       -0.06807223 -0.010922489 0.046108898 -0.059270415
000070 b1 b9 d5 bd 60 03 19 3d 29 5e 1d bd fd 47 13 3d
       -0.104358084 0.037356734 -0.038419876 0.035957325
000080 db 0d b5 3c 6f 3d 2c 3e 08 ac b1 3d 67 a4 a8 bd
       0.022101333 0.1682031 0.086753905 -0.08234482
000090 ba 14 96 3d d0 18 10 3c 78 9f 08 bc d5 a1 53 bd
       0.07328172 0.008794978 -0.008338802 -0.051668007
0000a0 62 1d 0f 3c a9 a9 05 bd 12 3d 02 be 03 df 73 3a
       0.008735033 -0.032632504 -0.12718609 0.00093029457
0000b0 bc 98 1c bc 89 a6 de 3c 93 1d 53 3d 9a ce 9f 3d
       -0.009557899 0.02717902 0.051541876 0.07803078
0000c0 0b 70 0e 3d ac 39 4f 3d 6b fd 06 be 3a 69 42 3d
       0.03477482 0.05059211 -0.13182609 0.047463633
0000d0 82 89 63 bd 1e 57 ed 3d 65 d2 f5 3d 14 23 a4 3c
       -0.05555106 0.11588882 0.1200302 0.020036258
0000e0 39 b7 96 3d 7f d4 88 3d 5f 52 cb 3b 0f 82 3f 3d
       0.07359166 0.066811554 0.0062048878 0.046754893
0000f0 6c bc ab 3d 5e 47 e0 3d 54 f4 71 bd 56 ad 43 bd
       0.08385548 0.10951112 -0.0590709 -0.047772728
000100 01 42 1b bd 03 3d b0 3c c5 58 41 3d e5 5c a5 3d
       -0.037904743 0.021513468 0.047203798 0.08074359
000110 0f 81 9d 3d dc 36 0a bd 05 c1 34 3d 3a 5a cb 3d
       0.076906316 -0.033743724 0.04412939 0.09929319
000120 59 1d d5 3d 65 dc a3 bd 3e 7a 77 3d 4c 31 cf bd
       0.10405988 -0.08001021 0.060419314 -0.101168245
000130 ec b5 0c be 49 14 76 bc b0 ce 07 be 53 ce b5 3d
       -0.13741273 -0.015019485 -0.13262439 0.08877244
000140 35 50 37 3d 54 0f 2d 3e df be ac 3d 11 8d 8c 3d
       0.044754226 0.16900378 0.08434843 0.06862844
000150 f8 0e ce bb c6 cc 42 be b2 f6 a1 3c f3 9d e2 bd
       -0.0062884055 -0.19023427 0.019770954 -0.11065283
000160 8e 00 4b bd 81 be 97 3d b1 95 9d 3d 7f 73 ea 3c
       -0.049561076 0.074093826 0.07694567 0.028619526
000170 b9 91 94 bd 7d c9 99 bd d3 39 29 be 9a 63 ac bd
       -0.07254357 -0.07509134 -0.16525964 -0.08417435
000180 0c 56 04 be a5 02 95 3b 53 8f fd ba a6 31 91 3d
       -0.1292345 0.0045474344 -0.0019345082 0.07089548
000190 e7 cd c2 bd 6f 46 d0 bd 1d fe be 3d b4 95 8b 3d
       -0.09511929 -0.10169684 0.09325812 0.06815663
0001a0 9c e3 00 be 84 3b 97 3c a1 58 da bd d6 92 aa 3c
       -0.12586826 0.018460996 -0.10661436 0.02082197
0001b0 99 f1 46 bd 78 16 18 be 82 63 d0 bd 7a fe ea 3c
       -0.04857025 -0.14852321 -0.101752296 0.028685797
0001c0 af 3d 8c 3c 4f 89 00 3e f0 6b f1 bc dd 9a 63 3d
       0.017119257 0.12552379 -0.029470414 0.05556761
0001d0 5a 48 be 3d 0f 0d 83 3e eb 62 d3 3d 3f 7b 44 bc
       0.09291144 0.255959 0.103216015 -0.011992275
0001e0 6c 6b d7 bd 7f 61 c5 bc e1 2c ed 3d 52 05 14 ba
       -0.10518536 -0.024094341 0.115808256 -0.0005646545
0001f0 f9 cb a3 bd 69 ee f9 3d df 66 34 bd 3a 98 ae 3c
       -0.07997889 0.12203676 -0.044043418 0.021312822
000200 3c cd 4a 3d 01 5f 11 bd 54 6e fd bd 6c 7f 1e bd
       0.049512133 -0.035490993 -0.12374559 -0.038695738
000210 f6 2a 59 bc d6 cd aa 3d 47 e4 d8 bd b6 0e cf 3c
       -0.013254872 0.08340041 -0.105904154 0.02527557
000220 46 c7 92 3a e0 0b b6 bd 0c f8 9a 3d 44 6f a8 3d
       0.0011198304 -0.08888984 0.075668424 0.08224347
000230 9a 8b 89 bd 98 c6 fc bd 10 f4 e0 3c 4e 50 8f 3d
       -0.0671608 -0.12342566 0.027460128 0.06997739
000240 c2 e1 90 bd 25 46 30 bd 29 f7 3f bd 09 17 4c bd
       -0.0707431 -0.043035645 -0.04686657 -0.049826656
000250 8e f6 97 3d ca 09 14 be c4 1f 85 bd 19 eb 0e bd
       0.074200734 -0.14456859 -0.065001994 -0.034892175
000260 57 4d ad 3d c4 30 47 3c f4 f2 77 3d 77 ed f9 3d
       0.08462017 0.012157623 0.060534433 0.12203496
000270 6b 7a de bc 81 4c d6 bd d4 4a 90 3d 71 3b 3c 3d
       -0.027157983 -0.10463811 0.07045522 0.045955125
000280 14 bb 6f bd 14 a5 32 bd 16 56 1f be 80 23 ce bd
       -0.05852802 -0.043614462 -0.15560183 -0.10065365
000290 aa 88 5c 3d c8 38 0a bd 50 80 d2 3d 38 ca a3 bd
       0.05384127 -0.033745557 0.1027838 -0.079975545
0002a0 f9 87 9a bc d6 6c b3 3d f9 76 d5 3c 9d 05 f2 3d
       -0.018863665 0.08760993 0.026057707 0.11817477
0002b0 bf dd 81 3d 48 7f 5c 3d 5e 55 81 3d c9 9e f0 3d
       0.06341123 0.053832322 0.063151106 0.11749036
0002c0 80 36 68 bd 2b 97 cc 3d 6d d7 e2 bb a3 cb 3c 3d
       -0.0566926 0.099897705 -0.0069226534 0.04609264
0002d0 a3 20 c7 3d 8f 66 4d 3d 38 19 71 3b 18 8a 98 3c
       0.09723022 0.050146636 0.0036788713 0.018620536
0002e0 22 2c 10 bd 48 fa 90 3d c1 37 ae 3d 1f d3 46 3e
       -0.03519834 0.07078987 0.08506728 0.19416474
0002f0 ed a0 c4 3d 01 a1 95 3c 48 d8 2f bd 0a aa 99 3d
       0.09601007 0.01826525 -0.04293087 0.075031355
000300 26 eb 06 3e 57 09 c2 3c 96 e4 98 3d b5 d5 90 bd
       0.1317564 0.023686094 0.07465474 -0.070720114
000310 bc 7b e1 bb a9 9e 7d bd 23 fe f9 3c 59 c3 0f 3c
       -0.0068812054 -0.06191889 0.03051669 0.008774602
000320 2b 99 17 bd 2a c4 1f 3e ee 21 45 be 36 7d 18 be
       -0.037011307 0.15602174 -0.19251224 -0.14891514
000330 ce f0 bd 3d 8e 7f 7e bd 38 9d 29 3d 21 22 8b bd
       0.092744455 -0.062133364 0.0414097 -0.06793619
000340 8c c4 2e bc f3 22 fe 3c 48 72 07 bb 35 7c ce 3c
       -0.010666978 0.031022524 -0.0020667482 0.02520571
000350 0d 0a 10 be 96 46 69 bd 03 55 13 3d 20 b1 7b bd
       -0.14066334 -0.05695208 0.035969745 -0.061448216
000360 68 d7 0c be 09 a7 2f be 5a db 17 be c5 62 f2 3d
       -0.13754046 -0.17153563 -0.1482977 0.11835245
000370 c8 3c d2 3d 16 91 2a 3d 28 7c 73 bd a4 39 ed bc
       0.10265499 0.04164227 -0.059444577 -0.02895815
000380 30 6d 81 bd bf 82 f3 bd 1e 90 2e bd 30 9e 17 be
       -0.06319654 -0.11890172 -0.04261791 -0.14806437
000390 1c eb b4 3d 67 33 54 3d d3 39 54 3d 82 b7 f9 bd
       0.08833906 0.051806834 0.051812958 -0.121932045
0003a0 d3 92 52 3d 33 5e bc bc ce ba 34 3d 67 95 0b 3e
       0.051409554 -0.022994136 0.044123463 0.13631211
0003b0 b7 72 09 3d 22 b0 97 bd 70 70 f4 b9 52 c7 1b be
       0.033556666 -0.074066415 -0.0004662308 -0.15212753
0003c0 75 0d 04 3d b8 81 7e bd 7a 32 ec bd 63 7d 0d be
       0.032239396 -0.06213543 -0.11533065 -0.13817362
0003d0 ff 67 a5 bd a2 c7 5b bd b6 38 ef bc 2f 8b c7 bd
       -0.08076476 -0.05365718 -0.029201847 -0.09743344
0003e0 40 87 8d bc c7 5a 3e be c0 65 04 be ed ff 4d bd
       -0.017276406 -0.18589316 -0.1292944 -0.050292898
0003f0 97 9f 45 bd 02 90 9f 3d 17 89 8d 3c 7f 58 e7 3d
       -0.0482479 0.07791139 0.017277284 0.11296176

lstm_layers.1.weight_ih_l0 f4 [336, 84]
000000 d8 d9 fc 3d 53 4a d2 bd 4d 9e 86 bd 0a 61 75 be
       0.12346238 -0.102680825 -0.06573162 -0.23962799
000010 64 1b c1 bd 41 4c f6 bd de 93 bb bc df 53 53 3e
       -0.094290525 -0.12026263 -0.022897657 0.20637463
000020 9d 13 17 3e 3b 27 89 bd f4 01 73 3e 99 11 0c be
       0.14753576 -0.06696936 0.23731214 -0.13678588
000030 e8 e9 0b be 07 8f f7 3d b8 12 63 3d ff 28 15 bd
       -0.13663447 0.12087827 0.055437773 -0.03641605
000040 a9 4b 85 bc 61 a1 fd 3b 4a 5e 3e be 52 57 90 3d
       -0.01627143 0.007740185 -0.18590656 0.07047905
000050 57 71 18 be 07 a1 3e 3e 3b 8d 03 be 55 97 33 be
       -0.14886986 0.18616115 -0.12846844 -0.17538197
000060 20 d3 ea 3d 82 e1 40 be e8 22 8d be b8 e4 8f bc
       0.1146605 -0.18836024 -0.27565694 -0.017565116
000070 2d ee 55 3e 5f 54 0e bc e1 59 02 be fd 0e ba bd
       0.20891638 -0.008687108 -0.12729599 -0.0908489
000080 0a 0f 9b 3d aa ff 99 3d cf e3 c4 bd 3c 10 e1 3d
       0.07571228 0.07519467 -0.096137635 0.109894246
000090 69 62 45 be dd bc 4e 3d b9 c7 9d 3c 80 96 95 3d
       -0.19275822 0.050473083 0.019260274 0.07304096
0000a0 ac 31 1d 3e b5 2b 42 3e 2e ef e4 3c 29 6f 61 bd
       0.1535098 0.18961985 0.027946081 -0.05503765
0000b0 e0 dd e7 bd fd df 8c be 6f a7 95 3d ab b9 03 3e
       -0.11321616 -0.2751464 0.07307326 0.12863795
0000c0 46 3b b9 3c 7c 93 bd 3e 18 7a 01 3d 43 5b e6 bd
       0.022611272 0.37026584 0.03161058 -0.112478755
0000d0 2c 75 18 be 46 a6 81 3e c1 00 ff bd 5e e6 3c 3c
       -0.14888448 0.2532217 -0.12451316 0.011529533
0000e0 15 58 46 3e 57 fe 19 3e 95 05 8b bd 2a 94 14 3e
       0.19369538 0.15038429 -0.06788174 0.14509645
0000f0 75 aa 87 3d a0 5e 6f 3d 18 17 f2 3d 17 43 fa 3d
       0.06624309 0.05843985 0.11820811 0.122198276
000100 43 59 90 3c 21 68 a6 3d 4f a8 10 bb 6a 20 a6 bd
       0.017620688 0.0812533 -0.0022072976 -0.08111651
000110 73 af a6 3d eb ab 49 3d 4e 98 af bc d9 4d b7 3d
       0.08138933 0.04923622 -0.02143493 0.08950395
000120 31 ed eb 3d 8e ea 8f 3e c8 91 61 bd 91 ec bb 3e
       0.1151985 0.2810864 -0.05507067 0.36703923
000130 ae 23 df 3d 36 08 a8 bd 76 4a ad 3d 0d db 42 3b
       0.10895477 -0.08204691 0.08461468 0.0029732615
000140 c3 e7 a0 3b 6d 41 75 3e 51 2e d5 bc 11 8b 3e bd
       0.0049104406 0.23950739 -0.026023062 -0.046519343
000150 8a 3d ea 3d 44 06 87 be 1d f9 bb bc 77 40 56 be
       0.11437519 -0.26371968 -0.022945935 -0.20923029
000160 07 af 66 3d 5a 40 e3 b8 14 e8 fa bd 59 9a 15 3e
       0.056319263 -0.0001083619 -0.12251297 0.1460966
000170 96 3a 1e 3e bf bc cc 3d 91 a0 09 3e e5 d0 3f bd
       0.15452036 0.09996938 0.13440157 -0.046830077
000180 b9 e0 2e be 5e 19 1d 3b 75 b3 9a 3c e4 7e bc bd
       -0.17077912 0.002397142 0.0188844 -0.0920389
000190 3d a5 ef 3c c4 ec 33 be 2d cc 13 bd 9e 60 5c 3c
       0.029253596 -0.17570788 -0.03608339 0.01345077
0001a0 99 cc 80 be 8b f1 32 3e 9c b1 62 be f8 0d 09 bd
       -0.25156096 0.17474954 -0.22138065 -0.033460587
0001b0 3d 75 cb b9 d8 5c 3b be 86 fe 95 be fb 2a d1 bd
       -0.00038806527 -0.18297136 -0.29295748 -0.10213276
0001c0 0d e9 72 3e af e1 94 bc 1b 32 21 bd 1f e1 0d be
       0.23721714 -0.01817402 -0.039354425 -0.13855408
0001d0 f1 01 64 3e ac c6 87 3e 6b 45 22 3d 35 bf 5c 3e
       0.22266366 0.26518762 0.039616983 0.21557315
0001e0 55 d1 4a be bf 44 b1 bd 5b d7 97 3d 55 48 5f 3d
       -0.19806416 -0.086556904 0.07414123 0.05451234
0001f0 91 75 29 3e fd 09 58 3e 3b 97 c0 bd 2d 45 ca 3c
       0.16548754 0.2109756 -0.09403845 0.024691189
000200 bb bf 9b 3d cd 36 a7 be 1e 7b e4 3d 68 c9 0d bc
       0.07604929 -0.32658997 0.11156295 -0.008653976
000210 15 36 af 3b 83 06 b8 3e c9 16 38 3e bc d3 86 be
       0.0053470233 0.35942468 0.17977442 -0.26333416
000220 3a 1e 66 bd 92 2b 7e 3e dd a1 28 3d 22 c4 8a bc
       -0.05618117 0.24821308 0.04116999 -0.016939227
000230 29 c2 80 3e 8c 58 5d 3d 83 6e 91 be ae c9 28 3e
       0.25148132 0.054039523 -0.28404626 0.16483185
000240 23 76 aa bd 88 d6 0c 3e 17 5e 14 3e 47 49 28 3d
       -0.08323314 0.13753712 0.14489017 0.041085508
000250 cd ec ca bd d3 3a 11 3e 10 b2 a6 3d 35 88 9f bd
       -0.099084474 0.14182596 0.081394315 -0.07789651
000260 f3 54 a8 bd 24 f2 93 3d 20 f4 1c be c0 95 1e bd
       -0.08219328 0.07223919 -0.15327501 -0.03871703
000270 97 27 37 3e 28 03 6a 3e 4c 71 33 be e1 9d 97 3e
       0.17886196 0.22852767 -0.17523688 0.2961264
000280 ea 6a 7e 3d 5b bb ac 3d 54 48 e2 3d 09 18 51 be
       0.06211368 0.08434173 0.11048952 -0.20419325
000290 00 6f d1 3d 6d 02 86 3e d3 c8 e6 bd 3f 61 48 3d
       0.1022625 0.26173726 -0.11268773 0.048920866
0002a0 69 58 65 3e e2 5b 4b be 7e c5 9c bd 8b bc be bd
       0.22397007 -0.1985927 -0.07654856 -0.093133055
0002b0 ca 38 b8 bd be 79 92 bd 80 0c 9d bd 18 1e 4a 3d
       -0.08995207 -0.07152127 -0.076684 0.049345106
0002c0 e8 34 1e 3c 3a 5c 17 bd 67 cf c8 3c 2d 83 da bd
       0.0096561685 -0.03695319 0.02451296 -0.10669551
0002d0 78 25 8c bd d0 89 48 3d f1 20 bf 3d e6 2d 01 3d
       -0.06843084 0.048959553 0.09332455 0.031537913
0002e0 49 2f ef 3d 2b 1b 7e be 41 ec 04 be b1 d6 9c bc
       0.11678941 -0.24815051 -0.12980749 -0.019145342
0002f0 54 e9 0a be a0 c3 fc 3d a4 eb 96 bd ca 58 59 3d
       -0.1356557 0.12342 -0.07369164 0.05306319
000300 82 89 64 3c 00 75 89 be b1 51 60 be 86 21 84 3d
       0.0139488 -0.26847076 -0.21906163 0.064517066
000310 af 1f ea 3d 89 d7 ac 3d 81 84 fa bc f6 eb 88 3d
       0.114318244 0.084395476 -0.03058076 0.06685631
000320 54 da 3f 3e 9a a2 12 3e b3 95 3f bd e8 bc 8c 3e
       0.1873563 0.1431984 -0.046773624 0.27487874
000330 17 ad ed bc 51 64 37 3d a2 6e 1c 3d a4 f0 8f 3c
       -0.0290132 0.044773404 0.038191445 0.017570801
000340 5f 9a dc 3d 88 e6 ad ba e7 14 eb bc 53 c3 13 3e
       0.107716314 -0.0013267556 -0.02869649 0.14429979
000350 6d 05 e6 3d b0 01 85 be 03 44 a5 3c 61 c0 2c bc
       0.11231504 -0.2597785 0.020174032 -0.010543914
000360 7f 06 bc 3d 08 6e 91 3e a5 ea 35 bc 04 46 4e be
       0.091809265 0.2840426 -0.011103307 -0.20143896
000370 59 c8 f3 bd 74 93 95 3e f0 10 bd 3c cb e0 30 3d
       -0.11903448 0.2921406 0.023079365 0.04318313
000380 61 77 54 3e 76 e2 93 3d 3d 73 8e be 33 9b 89 3b
       0.20748664 0.07220928 -0.27822295 0.0041994094
000390 67 1f 23 be 2e ab 55 3d 52 bc b7 3d 9c a5 1c 3e
       -0.15929948 0.052165203 0.08971466 0.1529755
0003a0 9b 50 ed bc 91 5e 5a 3e 70 0c bb 3d 54 f7 b6 3c
       -0.0289691 0.21325137 0.09133232 0.022334732
0003b0 be 29 f7 3c 84 c7 ad bd 42 33 c5 bd 37 15 4d 3d
       0.030171271 -0.0848532 -0.09628917 0.05006906
0003c0 28 03 04 3d 52 6a ba 3d c9 5a 13 be ed e1 17 3e
       0.032229573 0.0910231 -0.143901 0.14832278
0003d0 81 c6 1e 3e d7 ab cd bc 4a ef eb bb c5 2a dc bd
       0.1550541 -0.025106354 -0.0072001563 -0.10750345
0003e0 fc 7f bf 3d 02 99 0d 3e e2 25 97 bc 5b 31 e4 bd
       0.09350583 0.13827899 -0.018450681 -0.11142226
0003f0 21 f9 05 3e f7 af 46 be c8 07 82 3d 33 4e 94 be
       0.13083316 -0.19403063 0.063491404 -0.2896591

lstm_layers.1.weight_hh_l0 f4 [336, 84]
000000 71 b1 cc bd a3 9f 39 bd f0 c3 09 3e 9c f5 00 3e
       -0.09994782 -0.045318257 0.1345365 0.12593693
000010 e6 bc 21 be 95 a3 ed 3d bf 1b 6f 3d de 74 62 be
       -0.15794715 0.116034664 0.05837607 -0.22114894
000020 36 21 3c bd 77 9a 9a bd 57 2d 89 be 0a ca f5 3d
       -0.04593011 -0.07548993 -0.26792404 0.120014265
000030 f3 a3 7a be 9c cc 18 be c7 70 26 3e a2 77 ef bd
       -0.24476604 -0.14921802 0.16253959 -0.1169274
000040 3d 62 44 be af 3b 63 be bd dc 2c 3d 91 5d 65 be
       -0.191781 -0.22190736 0.0422027 -0.22398974
000050 af da f0 bd 92 2b 2d 3d a1 9a 4d bd 41 d0 1a be
       -0.117604606 0.04227788 -0.050196294 -0.15118505
000060 90 fb a0 bc d2 5b 11 3e 7f 3b 1c be 7a b2 e9 bd
       -0.019651204 0.14195183 -0.15257071 -0.11410995
000070 a7 e5 f2 3d 10 b1 f1 bd 96 30 92 be fb 39 33 bc
       0.11860209 -0.1180135 -0.28552693 -0.010939117
000080 48 da e7 3d 26 8e 82 bd 73 6a c9 bd 2e 83 15 3d
       0.11320931 -0.06374769 -0.09834757 0.036502056
000090 db 7a e0 bd 08 69 04 3e 6f d6 3e be f1 30 3f 3c
       -0.10960933 0.12930691 -0.18636487 0.011669383
0000a0 46 65 b4 bc ba e8 1d bc e0 a4 d0 3c 08 05 bb bc
       -0.022020947 -0.009638006 0.025469244 -0.022829548
0000b0 40 e6 20 be 77 05 1e 3e 1e 30 9a bc d0 0e 23 3c
       -0.15712833 0.15431772 -0.018821772 0.009952262
0000c0 71 5b 27 bd 62 d5 8b 3e 5d fd 83 bc 11 98 0b 3e
       -0.04085869 0.27311236 -0.016112024 0.13632227
0000d0 d5 6c fe 3d ea f0 ea 3d 5f a9 05 3e 46 e1 ce bd
       0.12423102 0.11471732 0.13052891 -0.10101561
0000e0 bf d8 9f bc ca 48 2e 3c 5b 0c 28 be 21 21 27 3e
       -0.019512532 0.010637471 -0.16410963 0.16321231
0000f0 7b 6d a3 3c 17 6d e0 bb e4 fe 91 be 54 96 b1 be
       0.019949665 -0.006848942 -0.2851478 -0.34685004
000100 d3 68 12 3c b3 32 92 3d 95 72 d6 bd 73 d5 47 3d
       0.008936125 0.07138576 -0.104710735 0.048787545
000110 75 15 27 be 0f 96 88 3d e3 23 c7 bd e1 54 06 3e
       -0.16316779 0.066692464 -0.09723642 0.13118316
000120 e1 b8 65 bd 42 de 2b 3e a7 fd 19 3e 17 07 92 bd
       -0.056084517 0.16784003 0.15038167 -0.071302585
000130 d9 ff 05 3e bb 11 23 bd e8 70 3e 3b 5c df 84 3d
       0.1308588 -0.03981183 0.0029058997 0.06487915
000140 14 95 13 be 5a 8e 24 3d c1 18 83 bd 27 ed 46 3d
       -0.14412338 0.04017482 -0.06401206 0.04856601
000150 d7 b3 a7 bd fa 1e 7d bd 09 e0 3e 3d e1 15 04 3e
       -0.081885986 -0.06179712 0.046600375 0.12898971
000160 a5 8a ae bd 31 1e a1 bb f3 4a ca 3d dc 42 7b bd
       -0.08522538 -0.004916929 0.09877577 -0.06134306
000170 3a a4 c8 bd 4a 0d 6b be d2 a0 aa be b6 65 cd 3c
       -0.09796949 -0.22954288 -0.3332582 0.025072914
000180 92 bd 90 be 8a 8f d5 bd 64 87 94 ba c0 fa bc bd
       -0.2826963 -0.104277685 -0.0011331853 -0.09227514
000190 02 37 f7 bd 2d 6b a5 be 2c 74 92 bd c2 b1 85 be
       -0.12071039 -0.3230833 -0.07151064 -0.2611218
0001a0 eb ab 1a be d3 c2 08 3e 3b a6 b2 bd a0 ef f8 bd
       -0.15104644 0.1335557 -0.08723112 -0.1215508
0001b0 2a 5e a3 bd 57 26 94 bc 0f 7a 45 bd 34 8b 86 3d
       -0.07976945 -0.018084688 -0.048212107 0.0656952
0001c0 6d d6 85 3e 79 33 09 be be 93 91 be 7e d9 7f b9
       0.26140156 -0.13398542 -0.2843303 -0.00024399717
0001d0 c3 78 e6 3d 47 e3 da 3d 48 3a 53 be 53 b6 d0 bc
       0.11253502 0.10687881 -0.20627701 -0.025477564
0001e0 d1 30 8d bd e4 91 ab 3d d4 1c cd bd 92 32 d0 3d
       -0.068940766 0.08377436 -0.10015264 0.101658955
0001f0 cc 2f 8c 3d a9 66 03 bb 42 4a d1 bb fe 6f 9e 3d
       0.06845054 -0.0020050204 -0.006387026 0.077362046
000200 03 3d b5 bd 13 5d f2 3d e5 df ab bd 27 14 3a bd
       -0.08849528 0.11834159 -0.08392314 -0.045429375
000210 1b 36 49 3c 17 32 97 3e f5 d2 9f 3d 2c ef d1 3d
       0.012280966 0.29530403 0.07803909 0.102506965
000220 50 94 06 3e bc 16 16 3e 58 e6 47 bc c4 c2 46 3c
       0.13142514 0.1465711 -0.012200914 0.012131397
000230 cb e0 4d 3d 55 0b d5 bc d7 98 16 be aa 52 02 3e
       0.050263207 -0.02600638 -0.14706741 0.12726846
000240 09 11 a0 3d 2a 4a 0d be f6 8c 88 be be c0 1b be
       0.07815749 -0.13797823 -0.26670045 -0.15210244
000250 2a f4 b1 3d a8 4e c6 3d c4 0a 8a 3c 08 b6 c8 bd
       0.08689149 0.09682971 0.016850837 -0.09800345
000260 db b4 16 be 88 fe d6 3d 6f 31 3a bc d7 28 d3 3c
       -0.14717428 0.10497767 -0.011364325 0.02577631
000270 67 7d 94 3d d7 cf 01 bd 94 52 e8 3d 5d 5d ea bd
       0.07250481 -0.031692352 0.113438755 -0.11443589
000280 93 f4 95 3c c8 85 38 be fd 1b 3c bd dd ba 3f 3e
       0.018305099 -0.18019783 -0.04592513 0.18723626
000290 5d b9 ec bd 62 fe c0 bd 77 03 e1 3d 37 e8 00 3e
       -0.11558793 -0.0942352 0.10986989 0.12588583
0002a0 25 58 da 3c d3 3c cc bd 85 a0 f7 3b d7 f5 70 3d
       0.026653359 -0.09972539 0.007556977 0.0588282
0002b0 bf ee 37 3d 5d 02 a8 bd f9 73 b5 3c 9c 06 ca bd
       0.04490542 -0.08203576 0.022150027 -0.09864542
0002c0 33 b1 1f be 89 8f d4 bd 3c 57 fc bd 35 19 a3 3c
       -0.1559494 -0.1037894 -0.12321326 0.01990948
0002d0 c8 67 86 be de e6 1f 3d 58 1f cf 3d 78 54 fd bc
       -0.26251054 0.03903853 0.101134 -0.030924067
0002e0 d0 61 8a be 55 ce 00 be 35 a4 b8 bd 72 3c 97 be
       -0.2702775 -0.1257871 -0.09015695 -0.29538304
0002f0 ec 3d 9b bd 20 69 8a 3d cc 51 2c 3c a3 40 d6 bd
       -0.0758017 0.06758332 0.010517549 -0.10461547
000300 bd bc 88 bd 5b bc 9b bb 9d 07 db 3d e7 5f 1a be
       -0.06676624 -0.0047526783 0.106948115 -0.15075646
000310 03 97 ff 3d 8a 93 5c 3d ec 96 48 be aa f3 e0 3c
       0.12479975 0.05385164 -0.19588822 0.027459938
000320 0e 52 95 3d ea 87 1d bd a7 f7 ba 3c 26 97 cc bd
       0.07291041 -0.038459696 0.022823168 -0.09989767
000330 31 49 1a bd 9a 57 9d 3d 5c 70 69 bd bb c6 e1 3d
       -0.037667457 0.07682724 -0.05699192 0.11024233
000340 3d 13 0a 3b ed 13 39 bd a6 b5 84 3d af 66 34 bd
       0.0021068596 -0.04518502 0.06479959 -0.04404324
000350 71 df d0 bc 56 01 0a bd a7 fc 4c bd 7d 69 56 bd
       -0.02549717 -0.03369268 -0.050045636 -0.052346695
000360 f0 6c cd 3d 0f dc c1 3d 06 fb 33 3d 83 47 30 bc
       0.10030544 0.09465801 0.043940566 -0.010759237
000370 39 92 8b 3d 7c da 10 3d 91 1e 1b bd 3d c2 24 3b
       0.06814999 0.035364613 -0.037870947 0.002514019
000380 06 6b 2f bd 1f 97 ba 3d 26 45 a0 3d a0 40 86 3e
       -0.042826675 0.09110855 0.07825689 0.2622118
000390 32 ed 32 3d 5c bd ee bd d2 9e 56 be 90 f7 61 be
       0.04368324 -0.11657211 -0.20959023 -0.22067094
0003a0 3e 9c f1 3d 51 c9 24 3d a1 b7 7c bb f4 2b 8d bd
       0.11797379 0.040231053 -0.00385616 -0.06893149
0003b0 f3 e9 1b be 9c f1 e7 bc 89 c9 8e 3d 07 77 c6 3d
       -0.15225963 -0.02831345 0.069720335 0.096906714
0003c0 cb a1 97 bd 2d 9c d1 bd 84 af d8 3d 1a e0 4a bd
       -0.074039064 -0.10234866 0.10580352 -0.049530126
0003d0 0a c5 be 3d 22 28 4e bd 99 f8 be bd 5f fa 0f 3e
       0.09314926 -0.050331242 -0.0932476 0.14060353
0003e0 bc 41 a4 bd 4e 82 e0 3d 54 b2 83 3d 3f 26 9a bc
       -0.0802035 0.10962354 0.06430498 -0.018817065
0003f0 fc bb cc bd 8c 8e 40 bb d5 90 da 3d 65 d4 93 3d
       -0.09996793 -0.002938184 0.10672156 0.072182454

lstm_layers.1.bias_ih_l0 f4 [336]
000000 de f8 bb 3d a8 d1 2c 3d 80 4a 78 3d 1b 77 87 3d
       0.09178327 0.04219213 0.060617924 0.066145144
000010 0c ba d8 3d 9e 35 df 3d f8 79 ab 3d 33 76 2a bd
       0.105823606 0.108988985 0.08372873 -0.04161663
000020 61 4e 39 bc 80 67 be 3d 16 f9 4b 3e 30 de b7 bb
       -0.011310191 0.09297085 0.19919237 -0.0056112036
000030 72 a4 dd 3c 2d bd 82 3d 00 16 b3 3d fe c2 b6 bc
       0.027055953 0.06383739 0.087444305 -0.022309776
000040 82 cd 68 bd 2a 9a ea 3c 9e 21 07 3d 75 82 ef 3c
       -0.056836613 0.028637964 0.032991044 0.029237011
000050 1d 2d d1 bc 54 9f 42 bd fe e9 05 bd eb da 84 3d
       -0.025534207 -0.04751523 -0.032693855 0.06487068
000060 d9 c4 0b 3e 0b 5c aa 3d 94 a6 ab 3b f1 12 82 bd
       0.1364931 0.08318337 0.0052383635 -0.06351269
000070 e8 0d ca 3c ff cd a7 3d b8 db a7 3d 5a 5b 75 3c
       0.024664834 0.081935875 0.08196205 0.014975393
000080 96 7f 8a 3c e7 06 01 3e c0 56 bb 3d 6b aa f4 3d
       0.01690654 0.1260029 0.091474056 0.11946567
000090 41 06 84 bd d6 5a c5 3d 74 06 eb 3d 5b 38 fa 37
       -0.06446505 0.09636466 0.1147584 2.9828565e-05
0000a0 18 63 1c 3e 2b d6 d3 3d 38 e4 9b bd 2f 01 80 bd
       0.15272176 0.10343584 -0.07611889 -0.06250226
0000b0 70 a0 b8 b8 e3 e5 2e bd 06 1f 0e 3e a2 a6 ba ba
       -8.8036875e-05 -0.042699706 0.13879022 -0.0014240334
0000c0 52 52 e6 3d 33 e7 45 3c 53 1c 27 3e 0a 76 31 bd
       0.1124617 0.012079048 0.16319399 -0.04332546
0000d0 e6 a9 e7 3a 58 79 02 bc a7 42 3b 3d da ec 02 bd
       0.0017674535 -0.007963501 0.04571786 -0.03196416
0000e0 41 15 57 3c 56 b4 b3 3d 24 3f 8f 3c c9 76 db bb
       0.013127626 0.08774631 0.017486162 -0.00669751
0000f0 66 7c aa 3d cb 4c b9 3d 0e 17 66 3d 4e ca 98 bd
       0.08324508 0.0904785 0.05617433 -0.074604616
000100 94 72 ca 3d 98 35 cc 3c ca 60 2d bd aa 9d a1 b9
       0.09885135 0.0249279 -0.042328633 -0.00030825782
000110 4a 3e a2 3c 8e ba f9 3d 3a ea 7a 3d 09 80 2b bb
       0.019805092 0.121937856 0.061258532 -0.0026168844
000120 ef 3a 00 bd 97 c8 44 3d 3b 49 56 3d 6c 8f 53 3d
       -0.031306203 0.04804286 0.05231593 0.05165045
000130 22 0c b3 3d a2 07 88 3d ea e1 97 3c dd 73 db 3b
       0.087425485 0.06642081 0.018540341 0.0066971616
000140 15 15 2e 3e 8b 96 3d bd 1c ea b5 3d 61 8f 82 bc
       0.1700023 -0.046286147 0.088825434 -0.015937509
000150 28 57 31 3d 60 70 e4 3d 88 c5 d8 bd ba 46 85 3d
       0.04329601 0.11154246 -0.10584551 0.06507631
000160 1f 9c 37 bd 68 ce 80 bc 1a 21 bd bd 4e 6d 9c 3d
       -0.044826623 -0.015723422 -0.09234829 0.07638036
000170 2c 11 97 3d 68 76 1c 3e 1a a4 40 3e 11 43 b9 3c
       0.07376322 0.15279543 0.188126 0.022614988
000180 db 9e e5 3d 58 b8 5f bd 79 d1 8d bd 6c ba b3 3d
       0.1121194 -0.054619163 -0.06924719 0.087757915
000190 7a 37 87 3d 61 79 93 3d 09 74 0a be cf 15 8d 3d
       0.06602378 0.072008856 -0.13520826 0.06888925
0001a0 7b ce dc bd 97 c3 b7 3c cb 32 ef bc 88 a1 a7 3d
       -0.107815705 0.022432132 -0.029199025 0.081851065
0001b0 bf 2b e6 bc d0 a9 3f bb 7d 7e d2 bc d1 56 8b bd
       -0.028097032 -0.0029245503 -0.02569508 -0.06803668
0001c0 1b 3d cd 3d bd a2 3e bc 8c ae 6c 3e bc 22 ba bc
       0.100214206 -0.0116354795 0.2311346 -0.02272164
0001d0 8f 7b 1c 3d 7d 16 c1 bb 88 99 90 bd 1b f6 f4 bd
       0.038203772 -0.0058925734 -0.07060534 -0.119610034
0001e0 71 0c 81 bd 45 03 de bd 7a 35 b7 3d 65 4c 19 be
       -0.06301201 -0.10840467 0.08945747 -0.14970548
0001f0 87 06 a7 bd a1 94 c8 bc b9 0c 80 bd 5c 67 23 bd
       -0.08155542 -0.024484934 -0.06252427 -0.039893493
000200 cf e0 40 3d 55 17 26 be 50 5b 99 bd f6 d1 16 3d
       0.047089394 -0.16219838 -0.074881196 0.036821328
000210 de 40 c5 bd c0 92 0c 3e 31 f6 c6 3c 31 05 77 bd
       -0.09631513 0.13727856 0.024287315 -0.060307685
000220 85 fd 07 bd 56 07 3b 3d da 88 87 bd 47 27 e3 3d
       -0.03320076 0.045661293 -0.06617899 0.11091476
000230 e5 f4 37 bd 9d aa 60 3d 11 78 f3 3d 3c fe 8d bc
       -0.044911284 0.05485021 0.11888135 -0.017333142
000240 97 5e cd 3c 2a dc cd bd 75 70 c2 bd f7 fa bb bd
       0.025069518 -0.100517586 -0.09494106 -0.09178727
000250 eb 95 76 bd 5d 2a 0b be 6b e2 d1 3c 7a 78 1f 3d
       -0.060201567 -0.13590379 0.02562066 0.038933255
000260 c0 cf d2 bd 62 1c b1 3d 9d 0c ce bd 2b dc a0 3d
       -0.102935314 0.08647992 -0.100609995 0.07854494
000270 d8 5d ae bc 40 e0 ce bd 62 3c 83 bd b3 ad d9 3d
       -0.021284983 -0.10101366 -0.064080015 0.106288336
000280 a4 db 9a bc ac 19 c0 bd cc a5 78 bd 3e aa a9 bc
       -0.018903561 -0.093798965 -0.06070499 -0.02071106
000290 30 62 bf bd b8 2a 2b bc 15 fd 5f bc d8 79 89 bd
       -0.093449 -0.010447197 -0.013671179 -0.06712693
0002a0 fd 98 8d bc 42 8a e6 bd 73 77 a2 3c f6 64 32 bd
       -0.017284865 -0.11256839 0.019832348 -0.043553315
0002b0 a4 74 b8 bd 46 0b 62 bd 80 66 9f bd 1d 4b be bd
       -0.090066224 -0.055186532 -0.07783222 -0.092916705
0002c0 1b 8e 9a bd 0d 20 03 3d 4c 07 ad 3c 08 86 b8 3d
       -0.07546636 0.032012988 0.021121643 0.090099394
0002d0 71 e8 eb bd 76 d9 71 bd 46 d9 d8 3d 23 38 39 bd
       -0.11518944 -0.059045278 0.105883166 -0.04521955
0002e0 08 f3 06 3e 12 f0 88 bd e3 ab 50 bd 7d 5f b6 bd
       0.13178647 -0.06686415 -0.050945174 -0.08904932
0002f0 15 2b c6 3d 55 ee 4e 3c e2 8f 40 bd 74 a8 c0 bd
       0.09676186 0.012630065 -0.047012217 -0.0940713
000300 03 7f 9e 3d 91 e6 e3 bd 61 2e 64 3d 6f 80 1b bd
       0.07739069 -0.111279614 0.055708293 -0.03796428
000310 cc 13 0b 3e f0 e1 4a 3d d8 92 f1 bc fe 6d 4f bd
       0.1358177 0.049531877 -0.029488966 -0.050642006
000320 07 68 ab bd cf 98 8f 3d 7f 78 4a 3d c9 41 66 3c
       -0.08369451 0.07011568 0.04943132 0.01405377
000330 9b 1e 0d 3e 72 9d cb 3c 54 70 08 be 7e c6 ee 3d
       0.13781206 0.02485535 -0.133241 0.11658953
000340 c1 31 3f 3d e0 58 bb 3d e5 f5 b3 bd ab a8 51 3d
       0.04667831 0.09147811 -0.08787135 0.051186245
000350 57 89 d0 3d 9c 98 90 bd 9a d3 61 3d b2 dc 52 bd
       0.101824455 -0.07060358 0.05513344 -0.051480003
000360 de c9 cf bc 7b c5 09 3e 20 e3 71 bc b5 35 4d bd
       -0.025364812 0.13454239 -0.0147636235 -0.050100047
000370 17 48 e2 bc e4 c2 ec bc a7 b8 af bd 5d 06 03 3e
       -0.027622266 -0.028901525 -0.085801415 0.12795396
000380 ff 57 d5 3d 13 c3 27 3d 66 82 09 be 71 10 eb 3d
       0.104171745 0.04095752 -0.1342865 0.11477745
000390 31 6b a8 3d b4 a5 a8 3d 50 0d f9 bd 1a cb a3 bc
       0.0822357 0.0823473 -0.12160742 -0.019994307
0003a0 3c ea d6 3d cb 24 d9 bc fa 5b 5b bd a9 2e 5b 3d
       0.104938954 -0.026506802 -0.053554513 0.053511295
0003b0 97 3a 90 3d a5 51 f5 3c 0c 4d 5c bc fd 61 86 3d
       0.07042425 0.029946158 -0.013446104 0.065616585
0003c0 2d ae 1f 3d 38 b8 79 bd 46 48 08 3e 3e d5 89 3c
       0.038984466 -0.0609667 0.1330882 0.016825315
0003d0 e9 2e 4c 3d 31 1b f0 3d 78 62 66 bc ef 8f 9f bd
       0.049849425 0.11723936 -0.014061563 -0.07791125
0003e0 38 7b 80 39 13 e2 14 ba 03 ad 55 bd b4 c4 de bc
       0.00024505868 -0.00056794396 -0.05216695 -0.027193405
0003f0 c7 a7 69 3d 5e e4 c1 3b da 39 84 3d f5 63 c0 3d
       0.05704477 0.005917116 0.06456347 0.09394065
