foundation_models/Ensemble_model28_DeepHit_ANN_Both_20250806_234621.pt (torch, 100090 bytes, 32 tensors)

conv1.weight f4 [32, 1, 3]
0	0xbf0ea366	-0.55718076
1	0xbebeb691	-0.37248662
2	0xbf0597dd	-0.5218485
3	0x3da78623	0.081798814
4	0x3e5290b1	0.20563008
5	0xbe458165	-0.19287641
6	0xbeb06458	-0.34451556
7	0x3f004277	0.5010142
8	0x3e26ed69	0.16301502
9	0x3ecb6364	0.39724267
10	0x3bd98ff4	0.006639475
11	0x3ee37ec7	0.4443266
12	0xbea55972	-0.32294804
13	0x3e2615c5	0.16219242
14	0xbe4c99cf	-0.19980548
15	0xbe8e1d65	-0.277568
16	0x3d4a92e8	0.049456507
17	0xbec25bc4	-0.37960637
18	0xbc8a1dbb	-0.01685988
19	0xbe8ad028	-0.27111936
20	0xbafbe5b4	-0.0019218237
21	0xbe1dc414	-0.15406829
22	0x3e25d85a	0.16195813
23	0xbe887575	-0.26652113
24	0x3f0fdb90	0.561944
25	0x3f0693bc	0.52569175
26	0xbd0ea516	-0.034825407
27	0xbeeeea8e	-0.46663326
28	0x3cbf06de	0.023318704
29	0xbefa2a96	-0.48860615
30	0x3e2aa0e8	0.16662943
31	0x3e78f255	0.24311192
32	0xbe813d36	-0.25242013
33	0xbe85fa20	-0.26167393
34	0xbec29dcf	-0.38011023
35	0x3f0db4ab	0.553538
36	0x3e704b86	0.2346631
37	0x3d75071e	0.05982124
38	0xbed36023	-0.41284284
39	0x3e52565b	0.20540754
40	0xbdd5f364	-0.10446814
41	0x3d24d527	0.04024234
42	0xbdf6e494	-0.120553166
43	0xbf064293	-0.52445334
44	0xbf0f195e	-0.5589808
45	0x3e252d23	0.161305
46	0x3e95fa40	0.29292488
47	0x3d4be8db	0.049782615
48	0xbdce672f	-0.100782745
49	0xbecf9ceb	-0.40549406
50	0x3ec2a041	0.3801289
51	0xbbb6be9d	-0.005576922
52	0xbeefba40	-0.46821785
53	0xbeb4ba0c	-0.35298193
54	0xbe3c8176	-0.1840876
55	0xbf02ae74	-0.51047444
56	0xbdc66c1e	-0.096885905
57	0xbe8c227d	-0.27370062
58	0x3d7f3818	0.062309355
59	0x3e9aa104	0.3020097
60	0xbef86211	-0.4851232
61	0xbc6a8558	-0.014314018
62	0xbe91963f	-0.2843494
63	0x3ea1b9f5	0.31587186
64	0x3e63e42c	0.2225501
65	0x3e8dd259	0.27699545
66	0xbee108f4	-0.43952143
67	0x3e2f3dd4	0.1711343
68	0xbf0379f8	-0.51357985
69	0x3dfd0476	0.123543665
70	0x3e9f1d53	0.3107706
71	0xbef0d753	-0.4703928
72	0x3ea65b33	0.32491454
73	0xbe637117	-0.22211109
74	0x3ef3567b	0.47526917
75	0x3eb330ac	0.3499807
76	0xbd889a8c	-0.066701025
77	0x3e2ac812	0.16677883
78	0xbedfa155	-0.43677774
79	0x3f0555ce	0.5208405
80	0xbecb82e1	-0.3974829
81	0xbeaa52ac	-0.332662
82	0x3e21bf0b	0.15795533
83	0x3e44c60d	0.19216175
84	0x3ef2c28e	0.47414058
85	0x3d0abd81	0.03387213
86	0x3eac6ebc	0.33678234
87	0xbe90d1fa	-0.282852
88	0x3cfc1952	0.030773792
89	0xbf251744	-0.64488626
90	0x3eab5e4a	0.33470374
91	0xbe74bd7e	-0.2390041
92	0xbef0df63	-0.4704543
93	0xbd99fb03	-0.0751858
94	0xbdb46dbc	-0.08809993
95	0xbe8492c1	-0.25893214

conv1.bias f4 [32]
0	0x3f025b69	0.5092073
1	0x3f0067dc	0.50158477
2	0x3dca5d65	0.09881095
3	0xbd8da2dc	-0.069158286
4	0x3e3a53bb	0.18196003
5	0xbef431b6	-0.47694176
6	0xbe0a1d3c	-0.13487715
7	0x3eb67581	0.35636523
8	0xbe815db6	-0.25266808
9	0x3f11e670	0.56992245
10	0xbef0ad13	-0.47007045
11	0x3efcc1b0	0.49366522
12	0xbc96d350	-0.018411309
13	0xbe40a21f	-0.18811844
14	0xbeb3db6d	-0.35128346
15	0x3e9f1136	0.31067818
16	0x3a926fb2	0.0011172204
17	0x3ef85449	0.48501804
18	0x3eed994e	0.46406025
19	0x3f05bc9f	0.5224094
20	0xbe80cd70	-0.25156736
21	0xbf0118a7	-0.5042824
22	0xbe936b7f	-0.2879295
23	0x3f0c9a25	0.54922706
24	0x3eb5fb81	0.35543445
25	0x3ec7bb6f	0.39010188
26	0x3e5ed1be	0.21759698
27	0xbe3178c2	-0.17331222
28	0xbeb72780	-0.35772324
29	0x3f1aecd3	0.60517615
30	0x3ed7979d	0.4210786
31	0xbe157ed9	-0.1459917

conv2.weight f4 [64, 32, 3]
0	0xbd3e62af	-0.04648083
1	0xbda885ac	-0.08228621
2	0x3c8c19a5	0.017102072
3	0xbce07048	-0.02739729
4	0x3d971e71	0.07378853
5	0xbd7fb20a	-0.06242565
6	0x3db952eb	0.090490185
7	0xbde4fb6b	-0.11180767
8	0xbc9cfc49	-0.019163268
9	0x3d518438	0.051151484
10	0x3c164ccb	0.009173582
11	0x3d74ff09	0.059813533
12	0xbd109397	-0.035297003
13	0xbcafa755	-0.021442095
14	0x3d0b0c3c	0.033947214
15	0x3923dc54	0.0001562697
16	0x3d9f581a	0.07780476
17	0x3dc24663	0.094860815
18	0x3cd6caaa	0.026219685
19	0x3d7e2222	0.06204427
20	0xbd4c214a	-0.049836434
21	0x3db83bf4	0.0899581
22	0x3dcb5425	0.09928159
23	0xbc9be7a5	-0.019031355
24	0xbc208242	-0.009796681
25	0xbd9de622	-0.0770991
26	0x3cf26e5e	0.029593643
27	0xbda29000	-0.07937622
28	0x3c92e867	0.017933084
29	0xbbfccb3a	-0.007714656
30	0x3d4bcbbf	0.049754854
31	0x3d8b0970	0.067889094
32	0xbcdd5ddf	-0.0270223
33	0xbc8db434	-0.017297842
34	0x3d0db87e	0.034599774
35	0xbc9ee0fb	-0.019394388
36	0xbce6ce0e	-0.028174426
37	0xbc01d6e0	-0.007924765
38	0x3cf2abe9	0.029622989
39	0xbdd714a3	-0.10501983
40	0x3d6b44f9	0.057438824
41	0x3ceff047	0.029289378
42	0x3d76b25a	0.060228683
43	0xbcfa5c26	-0.030561518
44	0x3da03f94	0.078246266
45	0xbd0e74ef	-0.034779485
46	0x3dbd5865	0.092453755
47	0x3d91628e	0.07098876
48	0xba405d98	-0.00073381653
49	0xbd6aa9ca	-0.05729083
50	0x3dae2510	0.08503163
51	0xbd0c1b9e	-0.034206025
52	0x3d96b7db	0.073592864
53	0xbcfb85c9	-0.030703442
54	0x3dbd5f0a	0.09246643
55	0x3da08b74	0.078390986
56	0xbd468ed4	-0.048476055
57	0xbd00b585	-0.03142311
58	0x3d6cc3c0	0.05780387
59	0x3d659b2c	0.056056187
60	0x3d561061	0.052261714
61	0xbd277252	-0.04088051
62	0x3db7809a	0.08960076
63	0x3d6a914d	0.057267476
64	0xbc78b51a	-0.015179897
65	0x3c0240de	0.007950036
66	0x3d8835b6	0.066508695
67	0x3b570fcc	0.0032815812
68	0x3c8773b1	0.016534658
69	0x3cb458bb	0.022014966
70	0xbdcd3830	-0.100204825
71	0x3d6a057e	0.057134144
72	0xbd472fbd	-0.04862951
73	0x3cada6db	0.021197727
74	0x3d77c0df	0.06048667
75	0xbd9e410a	-0.07727249
76	0xbbcafdf1	-0.006194823
77	0xbccee1f0	-0.02525422
78	0x3d9d2ddb	0.07674762
79	0x3dc0e55f	0.09418749
80	0x3cda03f8	0.02661322
81	0x3d824297	0.06360357
82	0xbddb1bbd	-0.1069865
83	0x3c333982	0.010939004
84	0xbd8fad5b	-0.07015487
85	0xbb70761f	-0.00366915
86	0xbd72305c	-0.05912815
87	0xbdb1aa8d	-0.08675108
88	0xbdb240f2	-0.087037936
89	0xbc934769	-0.017978387
90	0xbcd917ce	-0.026500609
91	0xbd9204e1	-0.07129837
92	0xbe05448f	-0.13014434
93	0x3d1e4613	0.038641047
94	0xbcf451f0	-0.029824227
95	0x3dc5e6aa	0.09663136
96	0x3d8d2f71	0.06893814
97	0x3df93cfa	0.121698335
98	0xbbaa394d	-0.005194819
99	0xbd13087f	-0.035896774
100	0x3d5a7161	0.053330783
101	0x3da94417	0.0826494
102	0xbd457842	-0.04821039
103	0x3d13012e	0.035889797
104	0xbd10b9ed	-0.035333563
105	0xbd7321c4	-0.059358373
106	0x3d364916	0.044503294
107	0xbd15317a	-0.036424138
108	0x3d49fbc5	0.04931237
109	0x3cfe599c	0.031048588
110	0x3c97e2bd	0.018540734
111	0x3ce42228	0.027848318
112	0x3d9a3faa	0.07531674
113	0x3db8826e	0.090092525
114	0xbcbd8096	-0.023132604
115	0xbd521564	-0.05128993
116	0x3cb336a3	0.021876639
117	0x3db00b63	0.08595922
118	0xbd89081b	-0.06690999
119	0x3c157a0b	0.009123336
120	0x3c347327	0.011013783
121	0x3c2881f5	0.01028489
122	0x3d4644b2	0.048405357
123	0xbd01b732	-0.03166885
124	0xbd8c63fe	-0.068550095
125	0x3e16d29f	0.14728783
126	0xbdd66b9f	-0.10469746
127	0xbdb739d3	-0.08946576
128	0x3d9f53c4	0.07779649
129	0x3d957002	0.072967544
130	0xbcb9f6e8	-0.022700742
131	0x3d87f1e3	0.06637933
132	0xbdb8de05	-0.09026722
133	0xbd20d3ea	-0.039264597
134	0x3d11a2ac	0.035555527
135	0xbcfe2003	-0.031021124
136	0x3d06095a	0.032723762
137	0x3d1fb6df	0.03899276
138	0x3da60a9c	0.08107492
139	0xbdb727ec	-0.08943161
140	0xbde51a37	-0.11186641
141	0xbcb5d2b5	-0.0221952
142	0xbd2c332f	-0.042041
143	0x3d3bde6a	0.045866407
144	0x3d1ca26b	0.03824083
145	0xbd0adc53	-0.033901524
146	0x3d01b28d	0.03166442
147	0x3d86e264	0.06586149
148	0x3c510c5f	0.012759297
149	0x3c24c67d	0.010057089
150	0xbd8d11af	-0.068881385
151	0xbd5558be	-0.052086584
152	0xbd82e569	-0.06391413
153	0xbd5a06f8	-0.053229302
154	0x3d709b6e	0.05874198
155	0xbc6dd07f	-0.014515041
156	0x3d34cc35	0.04414006
157	0x3da39191	0.07986749
158	0x3dc91d36	0.09820025
159	0xbcbba09e	-0.022903737
160	0xbdc2d648	-0.09513527
161	0x3d9d3562	0.076761976
162	0xbd4885e6	-0.04895582
163	0x3df14666	0.117810056
164	0xbd8b62d1	-0.06805957
165	0xbd99b42c	-0.07505068
166	0x3d6cffb7	0.057861056
167	0x3c53a139	0.012916856
168	0x3d70e9f2	0.058816858
169	0xbd245c6b	-0.0401272
170	0xbdccfdd7	-0.100093536
171	0xbda76c12	-0.0817491
172	0x3d4a9c00	0.04946518
173	0x3da761d5	0.08172957
174	0x3d6bb4fb	0.057545643
175	0x3d9e2f28	0.07723838
176	0x3d8d5d89	0.06902606
177	0x3c8d15ad	0.01722225
178	0xbd29e5d5	-0.04147895
179	0x3d5093a1	0.05092204
180	0x3af9a7cf	0.0019047203
181	0x3d4a1026	0.049331807
182	0x3da5920f	0.08084499
183	0x3d52ef77	0.051497903
184	0xbc4c9ab0	-0.012488052
185	0xbd9e5958	-0.07731885
186	0x3d0c7476	0.034290753
187	0x3dd130a9	0.10214359
188	0xbd9df4c2	-0.077126995
189	0xbdb0a87d	-0.086258866
190	0xbd4d6267	-0.050142672
191	0x3d8460f3	0.06463804
192	0xbc92e384	-0.017930754
193	0x3dae3b84	0.085074455
194	0x3d9376f8	0.07200426
195	0xbd31d6ec	-0.043417856
196	0x3d978df8	0.07400125
197	0xbd47e0fb	-0.048798542
198	0x3d70ff1a	0.058837034
199	0xbbe41ba1	-0.0069613014
200	0xbdab8abf	-0.08376073
201	0xbc2abec3	-0.010421458
202	0x3d436d36	0.047711574
203	0xbd02924f	-0.031877812
204	0x3d8ad046	0.06778006
205	0xbd7a235f	-0.06106889
206	0xbce30653	-0.027712977
207	0xbb2f24de	-0.0026724855
208	0xbd94ea34	-0.07271233
209	0x3c68edd6	0.014216861
210	0x3cec16a9	0.028819399
211	0xbce4b603	-0.027918821
212	0xbd896021	-0.06707788
213	0xbd77792b	-0.06041829
214	0xbbdcbf3d	-0.0067366646
215	0x3dcec9c5	0.10097078
216	0x3d8ec516	0.06971185
217	0xbb5f1271	-0.0034038092
218	0xbd86381f	-0.06553673
219	0xbc5e997c	-0.013586398
220	0x3ca24526	0.019808363
221	0xbdda148f	-0.106484525
222	0xbd7c9c11	-0.061672274
223	0xbd471952	-0.04860813
224	0xbd055cf2	-0.032559343
225	0xbd0db5de	-0.03459727
226	0x3dcf2cfb	0.10116001
227	0x3c8f37ee	0.017482724
228	0xbd679872	-0.056541868
229	0x3bfc5911	0.007701047
230	0xbdd60769	-0.10450632
231	0xbc1bc584	-0.009507541
232	0xbd66e5b5	-0.05637141
233	0x3c6557a9	0.013997951
234	0x3d814e30	0.06313741
235	0x3b2ed944	0.0026679793
236	0x3cdde724	0.027087756
237	0x3d0d7af3	0.03454108
238	0x3d4f120e	0.050554328
239	0x3dbf4725	0.093397416
240	0xbd06b464	-0.032886878
241	0xbdd649dc	-0.10463306
242	0xbdabeb3f	-0.08394479
243	0xba80baa6	-0.000982125
244	0xbd3c7a65	-0.046015162
245	0xbd6caeff	-0.057784077
246	0x3dad580d	0.0846406
247	0xbb2047aa	-0.0024456778
248	0x3dcde73e	0.100538716
249	0x3dbc81b1	0.09204424
250	0xbc54992f	-0.012975975
251	0xbe0d18ae	-0.13778946
252	0x3dd55589	0.10416705
253	0x3cb8b8f5	0.022549132
254	0xbd9da13b	-0.07696768
255	0x3c95a3bb	0.01826655

conv2.bias f4 [64]
0	0x3d2e30f0	0.04252714
1	0xbdab29d6	-0.08357589
2	0x3d8b1ca3	0.067925714
3	0x3d853cdc	0.06505749
4	0x3d1c95dd	0.03822886
5	0x3dde90e2	0.10867478
6	0xbca653a8	-0.020303562
7	0x3d33da5e	0.043909423
8	0x3bc0e39b	0.0058865077
9	0xbd27c7d1	-0.040962044
10	0x3d46c11a	0.048524
11	0xbd58280b	-0.052772563
12	0xbda57cc8	-0.08080441
13	0x3d566821	0.0523454
14	0xbb6b1311	-0.0035869519
15	0xbdd0e0c6	-0.10199122
16	0xbd2f51b0	-0.042802513
17	0xbb85d43b	-0.0040841377
18	0xbd99e0c1	-0.075135715
19	0xbd6fcd84	-0.058545604
20	0x3d9844e6	0.07435016
21	0xba95dca8	-0.0011433559
22	0xbce9df6c	-0.028548919
23	0x3d482e43	0.048872244
24	0xbd756881	-0.059914116
25	0x3d88415a	0.0665309
26	0xbd123413	-0.035694193
27	0x3d9f05d5	0.07764784
28	0xbd92d03d	-0.071686246
29	0xbd0b477a	-0.034003712
30	0x3d901b1f	0.07036423
31	0xbd3a865f	-0.045538303
32	0xbd9c2ee3	-0.076261304
33	0xbdd215c1	-0.102580555
34	0xbd594647	-0.053045537
35	0xbcecc063	-0.02890033
36	0xbd9185cf	-0.071056
37	0x3d750323	0.059817445
38	0xbcbfca78	-0.023411974
39	0x3dce57ed	0.10075364
40	0xbd56b815	-0.052421648
41	0x3e14144e	0.1446087
42	0xbc981e1d	-0.018569047
43	0x3de65ff1	0.11248768
44	0x3d7edad5	0.062220413
45	0xbbf37105	-0.0074292445
46	0x3dc9720a	0.09836204
47	0x3dc0d750	0.094160676
48	0xbdd83709	-0.10557372
49	0x3cba3d8b	0.022734424
50	0xbd853082	-0.06503393
51	0xbda35146	-0.07974486
52	0x3d873f37	0.06603854
53	0x3d18b982	0.03728629
54	0xbd354f9d	-0.04426538
55	0xbd005623	-0.031332146
56	0x3dafcd7e	0.085841164
57	0x3db7bd17	0.08971613
58	0xbcb2e8c1	-0.021839501
59	0xbc855941	-0.016277911
60	0xbdf07c23	-0.11742427
61	0xbdabeb86	-0.08394532
62	0x3d8da405	0.0691605
63	0xbd6ca2e7	-0.057772543

cause_networks.0.0.weight f4 [46, 128]
0	0x3d266083	0.040619384
1	0xbad8b289	-0.00165327
2	0xbdb5c1c9	-0.08874852
3	0x3d1cc056	0.038269363
4	0xbdaae0e4	-0.08343676
5	0xbc9520f7	-0.018204195
6	0x3ccde3c9	0.02513303
7	0x3d444873	0.047920655
8	0x3daeef72	0.08541764
9	0x3d318dd7	0.04334816
10	0xbaf1f679	-0.0018460295
11	0x3d069276	0.03285452
12	0xbcbbc979	-0.022923218
13	0x3bd181f4	0.0063936654
14	0x3d581670	0.052755773
15	0xbc66ca20	-0.014086276
16	0xbd683291	-0.05668885
17	0xbca81171	-0.02051613
18	0xbdc48a10	-0.09596646
19	0xbd60dc68	-0.054897696
20	0xbc802c8b	-0.01564624
21	0xbc8bce20	-0.017066061
22	0xbdabcee0	-0.08389068
23	0x3d837b98	0.06420058
24	0xbd1074f4	-0.035267785
25	0x3cf087aa	0.029361565
26	0xbdd851dc	-0.105624884
27	0x3c661cab	0.014044921
28	0x3c996d53	0.018728888
29	0xbd6c5842	-0.057701357
30	0x3d71beac	0.05901973
31	0xbc9b8a4f	-0.01898685
32	0x3d9302b6	0.071782514
33	0xbc1207b1	-0.008912967
34	0xbd127711	-0.03575808
35	0x3d8bc7da	0.06825228
36	0xbda27988	-0.079333365
37	0xbd43b511	-0.0477801
38	0xbd29770e	-0.041373305
39	0x3da3f213	0.08005156
40	0x3d3dc429	0.04632965
41	0x3cea3357	0.028588934
42	0xbd818f7f	-0.06326198
43	0xbd44c101	-0.048035625
44	0xbd9fb901	-0.077989586
45	0x3cdf6b9c	0.027272992
46	0xbd7fd3c7	-0.062457826
47	0x3d836928	0.06416541
48	0x3d190568	0.03735867
49	0xbc47fb37	-0.01220589
50	0x3ca3c938	0.01999341
51	0x3c89f441	0.016840102
52	0x3d5c379e	0.05376398
53	0x3cb9b1c8	0.02266778
54	0xbdb419ab	-0.08793958
55	0x3d84c2e3	0.06482484
56	0xbb006226	-0.001958975
57	0xbd2ff2d4	-0.04295619
58	0x3d8b3c93	0.06798663
59	0xbc4c551b	-0.012471463
60	0x3d83c543	0.06434109
61	0xbc80ca12	-0.015721355
62	0xbd6d02e8	-0.0578641
63	0x3d9e0096	0.077149555
64	0xbcb0277e	-0.021503206
65	0xbdabe5cd	-0.083934404
66	0x3c8aa450	0.016924053
67	0xbc5537ba	-0.0130137745
68	0x3d83d6a2	0.06437422
69	0x3d0d8da6	0.034558915
70	0x3d6a7ebd	0.057249773
71	0x3d70cf28	0.05879131
72	0xbd70a29f	-0.058748838
73	0x3d464717	0.04840764
74	0x3d9091bd	0.07059047
75	0x3d0bcc0a	0.034130134
76	0x3d41ef4e	0.04734736
77	0x3d1ed191	0.038774077
78	0x3db49c53	0.08818879
79	0x3d7779af	0.06041878
80	0x3d7658ad	0.06014316
81	0xbd77d16a	-0.060502447
82	0xbd55ed0e	-0.052228026
83	0x3d8fc7e5	0.07020549
84	0x3d6ad65b	0.05733333
85	0x3c113bd6	0.008864364
86	0x3dac5ca5	0.08416108
87	0xbdd44080	-0.10363865
88	0xbca90952	-0.020634327
89	0x3cb6e87b	0.022327652
90	0x3da3dadd	0.08000729
91	0xbc715c69	-0.014731505
92	0xbe2511c9	-0.16120066
93	0x3d0ba3e0	0.03409183
94	0xbdac5526	-0.08414678
95	0x3cf658e8	0.03007169
96	0x3d83eed0	0.06442034
97	0x3d511ffe	0.0510559
98	0x3c98ed0e	0.018667724
99	0xbd5d3a13	-0.054010462
100	0xbb917ee1	-0.004440174
101	0x3d2b0b52	0.041758843
102	0xbada06c4	-0.0016634096
103	0xbba536d7	-0.005041938
104	0xbd86fad0	-0.065908074
105	0x3bc38026	0.005966204
106	0xbc9638fc	-0.01833772
107	0xbd84c4ea	-0.06482871
108	0xbd6fdef4	-0.058562234
109	0x3da50cc4	0.080590755
110	0xbda6793b	-0.081285916
111	0xbe024d6a	-0.12724844
112	0x3d9c6d90	0.07638085
113	0xbd1cec6a	-0.0383114
114	0x3ce9618f	0.028488902
115	0xbc5fa20c	-0.013649475
116	0x3d0cf179	0.034409974
117	0xbd0486bf	-0.032355066
118	0xbce043ab	-0.027376017
119	0xbcb78a9e	-0.022404965
120	0x3d00ab40	0.031413317
121	0xbcb77593	-0.022394931
122	0x3ca13bc2	0.019681815
123	0xbc99ca95	-0.018773356
124	0xbd92a5d1	-0.07160533
125	0xbd6247f1	-0.05524439
126	0x3d1eb238	0.03874418
127	0xbd1d7a7a	-0.03844688
128	0xbcc4f524	-0.024042673
129	0xbd903383	-0.07041075
130	0x3bc80361	0.0061039184
131	0xbc712651	-0.014718608
132	0xbd849101	-0.0647297
133	0xbcbd2c5f	-0.023092447
134	0x3d47f988	0.048821956
135	0xbcb97852	-0.022640381
136	0xbd8e4fd2	-0.06948818
137	0x3d98dc2b	0.07463869
138	0xbcfee4da	-0.031114984
139	0xbda5996b	-0.08085903
140	0x3d904163	0.070437215
141	0x3da5a0dd	0.08087323
142	0xbc8dc9e3	-0.017308181
143	0xbd7594a1	-0.059956197
144	0x3d05390d	0.03252511
145	0xbd066926	-0.03281512
146	0x3cf33dfb	0.02969264
147	0x3cba4f84	0.022742994
148	0x3c6e5bb8	0.014548235
149	0xbd3b293b	-0.045693617
150	0xbdaf0dd6	-0.08547561
151	0x3da4910c	0.08035478
152	0xbd99d0c1	-0.0751052
153	0x3d113b65	0.035457034
154	0xbd8d224b	-0.068913065
155	0xbce259a8	-0.027630642
156	0x3d0874aa	0.033314385
157	0xbdb35951	-0.0875727
158	0xbab89d3b	-0.0014084944
159	0x3b5ffac2	0.0034176563
160	0x3d6c817d	0.057740677
161	0xbba9252d	-0.0051619024
162	0xbd013921	-0.031548623
163	0x3d7c88ff	0.061654087
164	0x3da0d9db	0.07854053
165	0x3d005202	0.03132821
166	0xbd960cd6	-0.07326667
167	0x3d22282a	0.039589085
168	0xbd7f203f	-0.06228661
169	0x3d08f904	0.033440605
170	0xbd484d7e	-0.048902027
171	0x3acb9eae	0.0015534961
172	0xbd267ed1	-0.040648285
173	0x3d02f874	0.031975225
174	0xbd1cc120	-0.038270116
175	0xbd997cdd	-0.07494519
176	0x3cefeeb2	0.029288623
177	0x3d90e4ec	0.070749134
178	0x3c8b6f16	0.017020743
179	0xbd940570	-0.072275996
180	0x3c4a87b6	0.012361458
181	0x3da33c5c	0.07970497
182	0x3c95c34e	0.018281605
183	0xbd880771	-0.06642044
184	0xbdb2be65	-0.08727721
185	0x3cc52729	0.024066525
186	0xbd8503fa	-0.06494899
187	0xbc835a76	-0.016034346
188	0x3d3e628f	0.04648071
189	0xbda2c900	-0.07948494
190	0x3c0c65b2	0.008569168
191	0xbd9a3056	-0.075287506
192	0xbd8f8aa5	-0.07008866
193	0x3d561291	0.0522638
194	0xbb82b710	-0.003989108
195	0x3db993dd	0.09061406
196	0x3cb5d225	0.022194931
197	0xbd2b537a	-0.041827656
198	0x3d61b1af	0.055101093
199	0xbc5d1701	-0.013494254
200	0xbd9c3268	-0.07626802
201	0xbda840f1	-0.082155116
202	0xbd93ee78	-0.07223219
203	0x3da8160e	0.082073316
204	0xbcc0bd5c	-0.023527794
205	0xbd0c0527	-0.0341846
206	0x3d8f2ae4	0.069906026
207	0xbd509c48	-0.05093029
208	0x3cfb6557	0.030687971
209	0xbb328e6a	-0.002724553
210	0x3b82ceed	0.0039919526
211	0xbe1aff23	-0.1513639
212	0xbda147d3	-0.078750275
213	0xbcf1eab6	-0.029530864
214	0xbd93a25f	-0.07208704
215	0xbb26cd12	-0.0025451821
216	0xbd25dfa9	-0.040496502
217	0x3d797af4	0.060908273
218	0xbd405dc4	-0.046964422
219	0x3d8dd3bd	0.069251515
220	0x3c7ad487	0.0153094595
221	0x3c8940f5	0.016754607
222	0x3da1a1df	0.078922026
223	0x3d5943e7	0.053043272
224	0x3c9c7fe1	0.019103946
225	0xbd183799	-0.037162397
226	0xbd625709	-0.055258784
227	0xbd80220f	-0.06256496
228	0xbd803220	-0.062595606
229	0xbdb9a1b4	-0.090640455
230	0x3c7681be	0.015045581
231	0x3c35eae9	0.01110337
232	0x3d6be1e8	0.057588488
233	0x3cb6f7a1	0.022334876
234	0xbca0cb31	-0.01962814
235	0xbd726552	-0.059178658
236	0x3c582326	0.013191974
237	0x3c6683ba	0.014069492
238	0xbd68ec39	-0.056865904
239	0x3de17d31	0.110102065
240	0xbd88e2e2	-0.066838995
241	0xbd753a69	-0.059870157
242	0x3d05e116	0.03268536
243	0xbd529728	-0.051413685
244	0x3cc94252	0.024567757
245	0x3db1458b	0.086558424
246	0x3c307885	0.010770922
247	0x3c7daaaa	0.015482584
248	0xbd9342b9	-0.07190461
249	0xbd073176	-0.033006154
250	0x3d84413f	0.06457757
251	0x3d618411	0.05505759
252	0x3d38948b	0.045063537
253	0xbb91fa81	-0.004454911
254	0xbd770a10	-0.06031233
255	0xbd5d224b	-0.053987782

cause_networks.0.0.bias f4 [46]
0	0xbcf0424a	-0.029328484
1	0x3d04c370	0.032412946
2	0x3beb7b64	0.00718634
3	0x3d82ce0a	0.06386955
4	0xbd925d7d	-0.07146738
5	0x3d3750c8	0.044754773
6	0x3cfb74a1	0.030695261
7	0xbd4bfaa6	-0.049799584
8	0xbd150e5c	-0.036390647
9	0xbc3e6547	-0.011620826
10	0x3d6d94b3	0.05800314
11	0xbd7391ca	-0.059465207
12	0x3d4fc677	0.05072638
13	0xbd590d71	-0.052991334
14	0x3d8b5f32	0.068052664
15	0x3bc151c3	0.0058996393
16	0x3cb0d21e	0.021584567
17	0xbd1a0c80	-0.037609577
18	0xbd7a8dd5	-0.061170418
19	0x3d2641a0	0.04058993
20	0xbd1959ba	-0.037439086
21	0x3d367e15	0.044553835
22	0xbd2d34d5	-0.042286713
23	0x3bf00b77	0.0073255855
24	0x3d82a22e	0.063785896
25	0x3dbcf9e6	0.09227352
26	0x3d1e5696	0.038656794
27	0xbbb1de58	-0.005428117
28	0x3d42ae96	0.04752978
29	0xbcfafe1e	-0.03063875
30	0x3d095dbe	0.033536665
31	0x3d0992db	0.033587318
32	0xbd7fbabb	-0.06243394
33	0xbd7dd869	-0.061973963
34	0x3d0a0793	0.03369863
35	0xbc04ef67	-0.008113719
36	0xbcf79965	-0.030224511
37	0xbc8fef67	-0.01757021
38	0xba3a9648	-0.00071177306
39	0x3d4d32c7	0.050097253
40	0x3cb782b8	0.022401199
41	0x3ccb284a	0.024799485
42	0x3d6a0a82	0.057138927
43	0xbd8a952c	-0.067667335
44	0xbbd44f60	-0.006479189
45	0x3d594bd8	0.053050846

cause_networks.0.1.weight f4 [46]
0	0x3f6a87cf	0.9161348
1	0x3f786156	0.9702352
2	0x3f83f9ac	1.0310569
3	0x3f812e5d	1.0092274
4	0x3f72eccc	0.94892573
5	0x3f7a26a2	0.977152
6	0x3f6e114e	0.92995155
7	0x3f726a9d	0.9469393
8	0x3f853f88	1.0410013
9	0x3f870241	1.0547563
10	0x3f78a9ba	0.9713398
11	0x3f7d63b3	0.98980254
12	0x3f82a4f1	1.0206586
13	0x3f7b5cfe	0.9818877
14	0x3f815401	1.0103761
15	0x3f81ccb2	1.0140593
16	0x3f836dd6	1.0267894
17	0x3f7853cd	0.9700287
18	0x3f79794b	0.97450703
19	0x3f7f8d54	0.99825025
20	0x3f6ecc08	0.93280077
21	0x3f7dd71f	0.99156374
22	0x3f75b8d2	0.9598514
23	0x3f75eed8	0.9606757
24	0x3f8560e0	1.0420189
25	0x3f80623d	1.002998
26	0x3f7c61b2	0.9858657
27	0x3f822287	1.0166787
28	0x3f8071d3	1.0034736
29	0x3f7652f5	0.9622033
30	0x3f7fdbae	0.9994458
31	0x3f8059f5	1.0027453
32	0x3f837a34	1.0271668
33	0x3f7d3672	0.989112
34	0x3f8293a0	1.0201302
35	0x3f807a3c	1.0037303
36	0x3f6a3fbb	0.91503495
37	0x3f86e016	1.0537136
38	0x3f824a90	1.0179005
39	0x3f7fcc91	0.9992152
40	0x3f879b24	1.059422
41	0x3f839559	1.0279952
42	0x3f69e914	0.91371274
43	0x3f7b95bc	0.9827535
44	0x3f82e763	1.0226864
45	0x3f7c0b06	0.9845432

cause_networks.0.1.bias f4 [46]
0	0xbdd91e43	-0.10601475
1	0xbe230cec	-0.15922898
2	0xbd722075	-0.059112985
3	0xbdb63ed2	-0.08898701
4	0xbe369cb0	-0.17833209
5	0xbd83217e	-0.064028725
6	0xbde85e76	-0.11346142
7	0xbd7b4ae0	-0.061350703
8	0xbde6e4b1	-0.11274088
9	0xbcf0a894	-0.02937726
10	0xbe218791	-0.1577437
11	0xbe8097a7	-0.25115702
12	0xbe0a9b92	-0.13535908
13	0xbde62bd1	-0.11238826
14	0xbe165034	-0.14679033
15	0xbd988bce	-0.07448541
16	0xbc849ea7	-0.016188933
17	0xbd91cbc3	-0.071189426
18	0xbde2f22c	-0.11081347
19	0xbe5b46fb	-0.21413796
20	0xbe116124	-0.14197212
21	0xbdcd3e41	-0.100216396
22	0xbd935cb8	-0.07195419
23	0xbd4b1be2	-0.049587138
24	0xbdd2bb1b	-0.10289594
25	0xbdf84664	-0.12122801
26	0xbddefbf8	-0.10887903
27	0xbdc8f30a	-0.09811981
28	0xbae9f12b	-0.0017848363
29	0xbdfd8e85	-0.12380699
30	0xbd9fa202	-0.077945724
31	0xbdd84a16	-0.10561006
32	0xbda0fe0b	-0.07860955
33	0xbdd3c45b	-0.10340186
34	0xbdba8522	-0.09107424
35	0xbd9fc241	-0.07800723
36	0xbe0bb9f2	-0.13645151
37	0xbd85dba5	-0.065360345
38	0xbe2ed5cb	-0.17073743
39	0xbddacfa7	-0.10684138
40	0xbdab89b3	-0.083758734
41	0xbd68be86	-0.056822322
42	0xbdbe3a74	-0.09288493
43	0xbdd013f2	-0.10160054
44	0xbe19d9de	-0.15024516
45	0xbd7b5439	-0.061359618

cause_networks.0.1.running_mean f4 [46]
0	0xbe4f434a	-0.20240512
1	0xbe8c82dc	-0.27443588
2	0x3dc69ac8	0.09697491
3	0x3eca67cc	0.39532316
4	0xbe4b8577	-0.19875132
5	0xbe1d0258	-0.15332925
6	0x3e933975	0.28754774
7	0xbd107744	-0.03526999
8	0xbb2be22f	-0.0026227345
9	0xbeb8ca1b	-0.36091694
10	0x3eb3bb0c	0.35103643
11	0xbe0fa664	-0.14028317
12	0xbd9f204d	-0.07769833
13	0x3ea5eb36	0.32406014
14	0xbdb774e7	-0.08957844
15	0x3e9343a4	0.28762543
16	0xbe6b21f1	-0.22962166
17	0x3e8772c5	0.2645475
18	0xbb4ccbb8	-0.0031249356
19	0xbe0f4e81	-0.1399479
20	0x3f02e793	0.51134604
21	0x3e840385	0.25783935
22	0x3e5a8e5f	0.21343373
23	0x3e8f966e	0.28044456
24	0xbcb238c2	-0.02175558
25	0x3dc06b03	0.09395411
26	0xbe800ea7	-0.2501118
27	0xbea23d19	-0.3168724
28	0xba0ab709	-0.00052915566
29	0x3e1b2ba4	0.15153366
30	0xbe8c8dac	-0.27451837
31	0xbe3fc6c5	-0.18728168
32	0xbe485583	-0.1956387
33	0xbec17755	-0.37786356
34	0xbe845b4b	-0.258509
35	0x3e94c534	0.29056704
36	0xbd91a49b	-0.07111474
37	0x3e47accf	0.19499515
38	0xbecb080f	-0.39654586
39	0xbe36b963	-0.17844157
40	0x3c784555	0.015153249
41	0x3b9e8389	0.0048374576
42	0x3e8e8023	0.27832136
43	0xbd91f91f	-0.07127594
44	0xbd83e6f3	-0.064405344
45	0x3e1d8030	0.15380931

cause_networks.0.1.running_var f4 [46]
0	0x3a247ea9	0.00062749773
1	0x3a3f7e9a	0.0007304937
2	0x3a9a3fe3	0.0011768307
3	0x3b3871c2	0.0028143977
4	0x3ac85d3a	0.0015286573
5	0x3ac14857	0.001474629
6	0x3ab161fa	0.0013533228
7	0x3a8f7090	0.001094358
8	0x39d5b5cd	0.00040761978
9	0x3a3ee30f	0.0007281759
10	0x3aad228f	0.0013209152
11	0x3a899966	0.0010497987
12	0x3a912896	0.0011074718
13	0x3a84a06c	0.001011861
14	0x3a39f18d	0.0007093184
15	0x3b267230	0.002539765
16	0x3a9752ca	0.0011545059
17	0x3a873ae2	0.0010317231
18	0x3a9378c7	0.0011251204
19	0x3a1e77fe	0.0006045102
20	0x3b9aca00	0.0047237873
21	0x3a848c63	0.0010112639
22	0x3a4898b4	0.0007652149
23	0x3b78a219	0.0037938415
24	0x3a329ddd	0.00068136846
25	0x3a5d5411	0.0008443008
26	0x3b37dd9b	0.002805567
27	0x3aa294d0	0.0012403969
28	0x3a2b6fe3	0.0006539805
29	0x3adefaf3	0.0017012045
30	0x3a10a2a6	0.00055174006
31	0x3a1f2020	0.00060701557
32	0x3aa4f161	0.0012584144
33	0x3a4cad33	0.0007807791
34	0x3b0bee18	0.0021351632
35	0x3a926579	0.0011169157
36	0x3a477fec	0.00076103094
37	0x3a9e0c8c	0.0012058183
38	0x3ab706c5	0.001396381
39	0x3aa66103	0.0012693707
40	0x3a0bc13c	0.00053312234
41	0x3a37dd3f	0.0007013864
42	0x3b21b49c	0.0024674302
43	0x3a8acb7d	0.0010589209
44	0x3a106a86	0.00055090373
45	0x3a63cc73	0.0008689828

cause_networks.0.4.weight f4 [25, 46]
0	0x3d1adea1	0.03780997
1	0x3c9a103f	0.018806575
2	0xbd414263	-0.047182452
3	0xbdc92dba	-0.09823175
4	0xbd3e6947	-0.04648712
5	0xbe3691f5	-0.17829116
6	0xbddc40c5	-0.10754541
7	0x3d1c6434	0.0381815
8	0x3d844030	0.06457555
9	0xbdd146b3	-0.10218563
10	0x3e1d221e	0.15345046
11	0xbe39ac39	-0.18132104
12	0xbe34ecde	-0.17668483
13	0xbb3c6721	-0.0028747993
14	0x3de98393	0.11402049
15	0xbe11f7ab	-0.14254634
16	0xbe458b89	-0.1929151
17	0xbd0e6c0f	-0.03477102
18	0x3d0ee366	0.034884833
19	0xbdc772ac	-0.09738669
20	0x3d1913ed	0.03737252
21	0xbe0f017c	-0.1396541
22	0x3d5c18d6	0.053734623
23	0xbda2e29c	-0.079533786
24	0xbc0f36b4	-0.00874107
25	0xbca31234	-0.01990614
26	0xbe06661d	-0.1312489
27	0xbdd1027b	-0.10205551
28	0xbd736636	-0.059423648
29	0x3c6acc0a	0.014330873
30	0xbca2bde7	-0.019865943
31	0xbde6d265	-0.11270598
32	0xbd15452f	-0.03644293
33	0x3cce69c1	0.025196912
34	0xbda3eecf	-0.080045335
35	0xbd51f0fd	-0.051255215
36	0x3de7e114	0.11322227
37	0x3e05b3f4	0.13056928
38	0xbe315ef3	-0.17321377
39	0x3d3ed022	0.04658521
40	0xbd1430fc	-0.036179528
41	0xbd3f734e	-0.046740822
42	0x3dbee789	0.093215056
43	0x3db2afe0	0.08724952
44	0xbd6cc663	-0.057806384
45	0xbe1174cf	-0.14204715
46	0x3cf4641a	0.029832888
47	0x3df9b4f7	0.121927194
48	0x3c373bad	0.011183661
49	0x3c6abf7e	0.014327882
50	0xbd35a754	-0.04434903
51	0xbd9ae838	-0.075638235
52	0xbd4ea0d3	-0.050446343
53	0xbe0d0e83	-0.13775067
54	0xbd7c7efe	-0.061644547
55	0xbc120d33	-0.00891428
56	0x3e015245	0.1262904
57	0xbd7ec442	-0.062198885
58	0xbc17ce90	-0.009265557
59	0x3cd3a1e8	0.025834039
60	0x3dda8dbc	0.10671565
61	0x3d9d1a26	0.07671003
62	0x3c6f8fd0	0.01462169
63	0x3dd981ed	0.106204845
64	0xbd4b7844	-0.04967524
65	0xbde16a83	-0.110066436
66	0x3dd7f05c	0.10543892
67	0x3d9e59a5	0.07731942
68	0x3d88b620	0.066753626
69	0x3c788273	0.01516782
70	0x3e27eecb	0.16399686
71	0xbc6cfd7c	-0.014464732
72	0x3ca36c18	0.019949004
73	0x3d2a875e	0.041633002
74	0xbc472058	-0.012153707
75	0x3d8bf994	0.068347126
76	0x3d0576ff	0.032584187
77	0x3d04e3cb	0.032443803
78	0xbdcff549	-0.10154206
79	0x3cf5dcbf	0.030012487
80	0xbde1f953	-0.11033883
81	0xbd12dcf6	-0.035855256
82	0x3d13c805	0.036079425
83	0xbe012f88	-0.12615788
84	0xbd942bb1	-0.07234896
85	0xbe3b7cd0	-0.18309331
86	0xbd9c9822	-0.076462045
87	0xbe1f1c5f	-0.15538166
88	0x3ca05a6b	0.019574365
89	0xbda68d01	-0.08132363
90	0xbda221e9	-0.07916624
91	0x3de5b1f0	0.112155795
92	0x3d210379	0.039309952
93	0xbd98456e	-0.07435118
94	0xbe204fc0	-0.15655422
95	0x3d92418c	0.07141408
96	0x3d4e9d7c	0.050443158
97	0x3dcda7bf	0.10041761
98	0x3ccbfc15	0.024900476
99	0x3cedbf7e	0.029021975
100	0x3de6c19a	0.11267395
101	0xbd9aab73	-0.075522326
102	0x3dbc815d	0.092043616
103	0x3d6e546e	0.058185987
104	0x3d04fde1	0.03246868
105	0x3d92fad9	0.07176752
106	0xbcd7e25f	-0.02635306
107	0x3d26e686	0.040747188
108	0x3d0dc1a7	0.03460851
109	0xbd86d26d	-0.06583104
110	0xbd39c734	-0.04535599
111	0xbdd9d08a	-0.10635479
112	0xbbf25c30	-0.0073962435
113	0x3de7dabb	0.113210164
114	0x3e0ca40b	0.13734452
115	0x3ddee64a	0.10883768
116	0x3dd9c6c9	0.106336184
117	0x3d065bb2	0.03280229
118	0xb9d26dab	-0.0004013603
119	0xbcccee8d	-0.025016094
120	0xbd6fd4a8	-0.058552414
121	0x3da16e23	0.07882335
122	0xbd97c8d1	-0.074113496
123	0xbdf5bc1d	-0.119987704
124	0xbd2c37af	-0.04204529
125	0x3dd78870	0.1052407
126	0xbe2fd771	-0.17172028
127	0xbc04a9a7	-0.008097089
128	0xbc9a1ea2	-0.018813435
129	0xbe1319ad	-0.14365263
130	0x3d158460	0.036503196
131	0xbde979cb	-0.11400183
132	0xbd78af91	-0.06071431
133	0xbc9e1b38	-0.019300088
134	0x3cf108a2	0.029423062
135	0xbdded4eb	-0.10880455
136	0x3cd0060b	0.025393507
137	0x3e06e596	0.13173518
138	0xbd30d851	-0.043175045
139	0xbd69a5a0	-0.057042718
140	0xbde0219a	-0.10943909
141	0xbc8fd3a2	-0.01755697
142	0xbcf69369	-0.030099588
143	0x3d9eb515	0.077493824
144	0x3dd7ac6c	0.10530934
145	0x3c2ad778	0.010427348
146	0x3debd969	0.11516077
147	0xbdd488fe	-0.10377692
148	0xbd9ee9f9	-0.077594705
149	0x3c9d0a0d	0.019169832
150	0xbdb20cb6	-0.08693831
151	0xbbc6e2a1	-0.0060694967
152	0x3da49a87	0.08037286
153	0xbc5fac8a	-0.013651976
154	0x3d6fe4b4	0.058567718
155	0x3ba7e568	0.005123783
156	0xbe2ba007	-0.16760264
157	0xbd27dbae	-0.040980987
158	0x3d0c507d	0.034256447
159	0x3d6eb468	0.058277518
160	0xbd4734c5	-0.04863431
161	0x3dd08655	0.10181872
162	0xbb68915e	-0.0035487036
163	0x3e000b72	0.12504366
164	0xbc6391c4	-0.013889734
165	0x3d3237b7	0.043510165
166	0x3d47dd0b	0.048794787
167	0xbca003a0	-0.019532979
168	0xbdbfbfc1	-0.09362746
169	0x3db968cc	0.090531915
170	0xbd546fc9	-0.05186442
171	0xbde24d51	-0.11049903
172	0xbcc87056	-0.024467628
173	0x3de70d6a	0.112818554
174	0xbd30a72a	-0.04312817
175	0xbe2b04b9	-0.1670102
176	0xbe027daf	-0.12743257
177	0xbdff7761	-0.124739416
178	0x3dd16764	0.10224798
179	0xbd4764d0	-0.048680127
180	0x3d734edb	0.059401374
181	0xbe3234de	-0.1740298
182	0x3e30bcff	0.17259596
183	0x3dfa92c3	0.12235024
184	0xbdc1fdf8	-0.09472269
185	0x3de33999	0.1109497
186	0x3d63a76d	0.05557959
187	0x3d9ed2ae	0.07755028
188	0xbe243169	-0.16034473
189	0xbcdfe06a	-0.027328689
190	0x3c4f0bdf	0.012637108
191	0x3cc190df	0.02362865
192	0x3c7f7d46	0.015593832
193	0x3de8c07f	0.11364841
194	0x3e28fa13	0.16501646
195	0x3d13fc38	0.036129206
196	0xbcdd3c6f	-0.027006356
197	0x3decc5a1	0.11561132
198	0x3dd4c2b0	0.10388696
199	0x378308e2	1.5620553e-05
200	0xbcf07aab	-0.029355368
201	0x3e1f54b4	0.15559655
202	0xbd0a57e3	-0.03377522
203	0x3d78ee7d	0.060774315
204	0xbdbe5fce	-0.09295617
205	0xbcd7005b	-0.026245287
206	0xbde5b14a	-0.11215456
207	0x3cb49b60	0.022046745
208	0xbd814486	-0.06311898
209	0x3dd5e846	0.10444693
210	0xbe251b4a	-0.16123691
211	0xbdc73301	-0.09726525
212	0xbe15696c	-0.14590997
213	0x3e09a71a	0.1344265
214	0xbcd46378	-0.025926337
215	0x3da3a946	0.07991271
216	0x3d157b8e	0.036494784
217	0x3dddfd80	0.10839367
218	0x3ba96700	0.0051697493
219	0x3e0e1b86	0.13877687
220	0xbd68de65	-0.056852717
221	0x3d02c61b	0.03192721
222	0xbe2ad7fd	-0.16683955
223	0xbc3d92bc	-0.011570629
224	0x3e024ac7	0.12723838
225	0xbcebdc26	-0.028791498
226	0xbd123d94	-0.035703257
227	0x3d84951f	0.06473755
228	0x3d6da6fd	0.05802058
229	0xbd5bd9ac	-0.053674385
230	0x3e159ded	0.14611025
231	0xbd86f2e4	-0.065892965
232	0x3d2d3969	0.04229108
233	0x3ba68d1a	0.0050827386
234	0x3c1b35e4	0.009473298
235	0x3db90bb9	0.09035439
236	0xbca277e6	-0.019832563
237	0xbb97719c	-0.0046216976
238	0xbcac9b5e	-0.021070179
239	0xbddcaedf	-0.107755415
240	0x3dbf0282	0.0932665
241	0x3e222fd9	0.15838565
242	0x3dd64464	0.10462263
243	0xbc8b3017	-0.016990704
244	0x3ca0055c	0.019533806
245	0xbc9797d2	-0.01850501
246	0xbd737101	-0.05943394
247	0xbb44e554	-0.0030043917
248	0x3dc1c6a5	0.094617166
249	0x3e1d7952	0.15378311
250	0xbda1d0ae	-0.079011306
251	0x3d426955	0.047463734
252	0xbd7de9b2	-0.061990447
253	0xbe1896e2	-0.14901307
254	0xbd8c9202	-0.06863786
255	0xbd33416d	-0.043763567

cause_networks.0.4.bias f4 [25]
0	0xbdc4a44a	-0.09601648
1	0x3e0d60f9	0.13806523
2	0x3d9b4486	0.07581429
3	0x3db7e632	0.08979453
4	0x3bf6eeb3	0.0075357794
5	0x3de10260	0.10986781
6	0x3c8abb38	0.016934976
7	0xbca2f897	-0.019893927
8	0xbe001790	-0.12508988
9	0x3d80a357	0.062811546
10	0x3b705358	0.003667077
11	0xbd9fc295	-0.078007855
12	0x3d150b99	0.036388014
13	0xbda0d5e1	-0.07853294
14	0x3d65e6dd	0.05612837
15	0xbd8bd450	-0.06827605
16	0xbd6be13b	-0.057587843
17	0xbdf8c5df	-0.12147116
18	0xbd4f00ad	-0.050537754
19	0x3d9fc3bb	0.078010045
20	0xbd6cca4a	-0.057810105
21	0x3e0506e7	0.12990914
22	0x3ccb2b76	0.024800997
23	0x3d409ca6	0.04702439
24	0x3cf531a7	0.029930903

cause_networks.0.5.weight f4 [25]
0	0x3f9890d9	1.1919204
1	0x3f8e774e	1.1130159
2	0x3f9273cc	1.1441588
3	0x3f902e8e	1.1264207
4	0x3f9ba942	1.2161028
5	0x3f817c86	1.0116127
6	0x3fa399af	1.2781276
7	0x3f90e612	1.1320212
8	0x3f7f8b65	0.99822074
9	0x3f9139c8	1.1345758
10	0x3f9b9fab	1.2158102
11	0x3f8d5f91	1.104479
12	0x3f8669fc	1.0501094
13	0x3f8e34dd	1.1109883
14	0x3fa17023	1.2612346
15	0x3f8ff349	1.124612
16	0x3f941796	1.1569698
17	0x3f909979	1.1296836
18	0x3f9d169b	1.2272524
19	0x3f9bf663	1.2184566
20	0x3f92106f	1.1411265
21	0x3f872bda	1.0560257
22	0x3f99f7fa	1.2028801
23	0x3f91c613	1.1388572
24	0x3f802060	1.000988

cause_networks.0.5.bias f4 [25]
0	0x3e6ca9ec	0.23111695
1	0x3e316a32	0.17325667
2	0x3e35840c	0.17726153
3	0x3e65c557	0.2243856
4	0x3eaac1f4	0.333511
5	0xbe0d0b4d	-0.13773842
6	0x3e5b50a6	0.21417484
7	0x3e6ad0dd	0.22931238
8	0xbe1ceb4a	-0.1532413
9	0x3e349146	0.17633542
10	0x3e769e13	0.24083738
11	0xbdb91c15	-0.09038559
12	0xbdcfe85b	-0.1015174
13	0x3e0f023c	0.13965696
14	0x3e96b35f	0.29433724
15	0x3e45d350	0.1931889
16	0x3e549d01	0.20763017
17	0x3e59f22a	0.21283785
18	0x3d97270c	0.073804945
19	0x3e9fcf3f	0.31212804
20	0x3e4ae491	0.19813754
21	0xbdb532dc	-0.08847591
22	0x3e73013f	0.23730944
23	0x3e44ac51	0.19206358
24	0xbe013a17	-0.12619816

cause_networks.0.5.running_mean f4 [25]
0	0xbf35712b	-0.70875806
1	0x3d259e42	0.04043413
2	0x3deb0ebb	0.11477419
3	0xbc4eb895	-0.01261725
4	0x3e44e8a1	0.19229366
5	0x3e90af92	0.2825895
6	0x3e40080f	0.18753074
7	0xbe823768	-0.25432897
8	0x3f030830	0.5118437
9	0x3da73c4a	0.08165796
10	0x3e326036	0.17419514
11	0x3f5f2eb4	0.8718064
12	0xbe897c19	-0.26852491
13	0xbf70bc57	-0.94037384
14	0xbc72190a	-0.014776478
15	0xbf36f1a4	-0.71462464
16	0x3d9c5ee6	0.07635288
17	0xbe9a727d	-0.30165473
18	0x3edae037	0.42749187
19	0xbe16771d	-0.14693876
20	0x3cca8b84	0.02472473
21	0x3f4e82fc	0.80668616
22	0x3e3cd6f1	0.18441369
23	0x3e1b2a96	0.15152964
24	0x3f3c0944	0.7345164

cause_networks.0.5.running_var f4 [25]
0	0x3f069b2f	0.5258054
1	0x3f52d315	0.82353336
2	0x3f3b310d	0.7312172
3	0x3f4dd271	0.80399233
4	0x3f01849f	0.5059299
5	0x3edd1f77	0.43188068
6	0x3f01d1e8	0.50710917
7	0x3f3fc6c9	0.749127
8	0x3f248d82	0.64278424
9	0x3f5a4276	0.8525766
10	0x3f867d21	1.0506936
11	0x3f132f39	0.5749393
12	0x3ec49a5c	0.38399017
13	0x3f0147b9	0.50500065
14	0x3edf180a	0.43573028
15	0x3ecd9efe	0.40160364
16	0x3f578758	0.84190893
17	0x3f79f908	0.97645617
18	0x3eb46880	0.35235977
19	0x3f6cb173	0.92458266
20	0x3f23617e	0.63820636
21	0x3ec96d6d	0.39341298
22	0x3f2d4e00	0.67697144
23	0x3f839211	1.0278951
24	0x3f0fb8ed	0.5614155

cause_networks.0.8.weight f4 [5, 25]
0	0x3e1663f8	0.14686573
1	0x3e894f9d	0.26818553
2	0x3e7bc204	0.2458573
3	0x3e60e14f	0.21960948
4	0x3e0ede21	0.13951923
5	0xbe59cbb9	-0.2126912
6	0x3d629bb3	0.055324268
7	0x3e51de77	0.2049502
8	0xbe7e574c	-0.24837989
9	0x3e897ab8	0.2685144
10	0x3e89ef42	0.26940352
11	0xbdc533e6	-0.096290395
12	0xbd05b619	-0.032644365
13	0x3df43552	0.119242325
14	0x3df2567d	0.118329026
15	0x3df13961	0.11778522
16	0x3e6d8237	0.23194204
17	0x3e9b37b8	0.30315948
18	0xbcefaaf3	-0.02925632
19	0x3e3c91a5	0.18414934
20	0x3e7fb387	0.24970828
21	0xbe1f462f	-0.15554117
22	0x3e4d0711	0.20022227
23	0x3e91cb44	0.28475392
24	0xbdafd175	-0.08584873
25	0x3e151d31	0.14561917
26	0x3dbc61f1	0.09198368
27	0x3bdbe971	0.006711178
28	0x3e290e10	0.1650927
29	0xbeee0160	-0.46485424
30	0x3d658a48	0.05604008
31	0xbeea0ddc	-0.457137
32	0x3e4a0a41	0.19730474
33	0xbe5bf7ed	-0.21481295
34	0xbe9ff520	-0.31241703
35	0xbe91a013	-0.2844244
36	0xbe8a6379	-0.27029017
37	0x3e289d9b	0.16466372
38	0x3e2fe331	0.1717651
39	0x3d3956a8	0.045248657
40	0x3e427ffb	0.18994133
41	0xbe82721e	-0.2547769
42	0x3e22447d	0.15846439
43	0xbe62b738	-0.22140205
44	0x3e06608d	0.13122769
45	0xbe2653e3	-0.16242938
46	0xbe863c50	-0.2621789
47	0xbebb9a1b	-0.3664101
48	0xbe5d10e2	-0.21588472
49	0xbe312ccd	-0.17302246
50	0x3e2d47db	0.16921942
51	0xbe2fdf64	-0.1717506
52	0xbea7ad63	-0.3274947
53	0xbe17a9de	-0.14810893
54	0xbebde68a	-0.3708995
55	0x3d9df1f0	0.077121615
56	0xbe9b9567	-0.30387422
57	0x3d41468b	0.047186416
58	0x3bc535ab	0.0060183606
59	0xbebf3649	-0.37346104
60	0xbe31780a	-0.17330948
61	0xbe283d45	-0.16429622
62	0x3e0526ae	0.13003036
63	0x3e1b2f0c	0.15154666
64	0xbe57bdda	-0.21068516
65	0x3dbacece	0.09121476
66	0xbeb0ee4c	-0.34556806
67	0x3d3c5f1e	0.04598915
68	0xbe312c0d	-0.1730196
69	0xbc6fd9d1	-0.014639334
70	0xbe8f7186	-0.280163
71	0xbe4f0509	-0.20216765
72	0xbe064fed	-0.13116427
73	0xbec1d1e1	-0.37855437
74	0xbe543726	-0.20724162
75	0x3e81a89e	0.25323957
76	0xbebf1747	-0.37322447
77	0xbeaae711	-0.33379415
78	0xbeba4b24	-0.36385453
79	0xbe2180e3	-0.15771823
80	0x3dc40fd9	0.09573335
81	0xbe579f7f	-0.21056937
82	0xbe59ecec	-0.21281785
83	0xbc070c31	-0.008242653
84	0xbe57cbd6	-0.21073851
85	0xbde2f569	-0.110819645
86	0xbe2f11fd	-0.17096706
87	0x3e12781e	0.14303634
88	0x3e2b8e50	0.16753507
89	0xbedc7bc3	-0.43063173
90	0xbc7c7318	-0.0154083
91	0xbeb53590	-0.35392427
92	0x3db98d9c	0.09060213
93	0xbe9190b2	-0.28430706
94	0xbe296075	-0.16540702
95	0xbea8ad2d	-0.32944623
96	0xbd2ffad4	-0.042963818
97	0x3cf9dbcc	0.030500315
98	0xbeacac1e	-0.33725065
99	0xbd3fbfd5	-0.046813805
100	0x3e788867	0.24270783
101	0xbe3134eb	-0.17305343
102	0xbe5c2cef	-0.21501516
103	0xbf087a74	-0.5331185
104	0xbde71d4c	-0.11284885
105	0x3dfe062c	0.12403521
106	0xbdc6e1fc	-0.09711072
107	0xbef965f7	-0.48710606
108	0xbe2e7f44	-0.17040735
109	0xbec76439	-0.3894365
110	0xbea7de17	-0.3278663
111	0xbde94be9	-0.11391432
112	0x3d59ae87	0.053144958
113	0x3e035335	0.1282471
114	0xbf0b1cb6	-0.54340684
115	0xbe4e1eb8	-0.20128906
116	0xbeb99552	-0.36246735
117	0xbd85d054	-0.06533876
118	0xbebe4e8c	-0.37169302
119	0xbe8c8a68	-0.27449346
120	0xbe496530	-0.19667506
121	0xbd67e42d	-0.05661409
122	0x3e07ab47	0.13248931
123	0xbe40c490	-0.18824983
124	0xbca5b2a3	-0.020226782

cause_networks.0.8.bias f4 [5]
0	0x3f215fc1	0.63036734
1	0x3d9d31e4	0.076755315
2	0x3dd7e675	0.10542003
3	0xbe4638ab	-0.19357555
4	0xbe9d9f8e	-0.30785793

cause_networks.1.0.weight f4 [46, 128]
0	0xbda1d9f6	-0.07902901
1	0xbd937307	-0.07199674
2	0xbc27d809	-0.010244378
3	0xbd297bdf	-0.0413779
4	0xbd996958	-0.07490796
5	0xbe4e8fb3	-0.20172004
6	0xbd582b9b	-0.05277596
7	0xbe064c06	-0.13114938
8	0x3c71464e	0.014726235
9	0xbdb03768	-0.08604318
10	0x3c985d9f	0.01859933
11	0xbd59c804	-0.053169265
12	0x3c9b0ba6	0.018926453
13	0xbb93f0bb	-0.0045147813
14	0xbd0e46e3	-0.03473557
15	0xbc8c3f11	-0.017119916
16	0xbcb2e1bf	-0.02183616
17	0x3cace194	0.021103658
18	0xbd183209	-0.037157092
19	0x3c564d2a	0.013079921
20	0xbcf41e64	-0.029799648
21	0xbe368345	-0.17823513
22	0x3d88090b	0.0664235
23	0xbdaeb321	-0.0853026
24	0x3bfb466e	0.007668308
25	0x3d77626d	0.0603966
26	0xbd6741ac	-0.056459114
27	0xbcd67e60	-0.026183307
28	0xbcbfa72f	-0.023395149
29	0xbd4844c3	-0.0488937
30	0x3d974aa4	0.073872834
31	0xbd864c9c	-0.06557581
32	0x3d73bc6e	0.059505872
33	0x3c8a5b22	0.016889159
34	0x3d5e615b	0.054292064
35	0xbce1d8c8	-0.02756919
36	0xbd2eb06d	-0.04264872
37	0xbb0110cb	-0.0019693847
38	0xbd73c09e	-0.059509866
39	0xbd073eb9	-0.0330188
40	0x3c88850b	0.016665002
41	0x3d298787	0.041389015
42	0xbbbb4a6f	-0.0057156603
43	0xbccbc3c3	-0.02487362
44	0xbd244eb9	-0.04011414
45	0x3da6a7e5	0.08137492
46	0xbdb49e98	-0.08819312
47	0x3d0a1863	0.033714663
48	0xbcec35e1	-0.028834285
49	0x3d1ea9c9	0.03873614
50	0xbdaa3e50	-0.083126664
51	0x3d090cd7	0.03345951
52	0xbd85b952	-0.06529488
53	0xbd921520	-0.071329355
54	0xbcd02758	-0.025409386
55	0xbafe12d0	-0.0019384269
56	0x3d3f56b2	0.04671354
57	0xbd89a5e5	-0.06721095
58	0x3d13d0c9	0.036087785
59	0xbd5e86ad	-0.054327656
60	0xbb3ee2e9	-0.0029126948
61	0xbc867847	-0.016414775
62	0x3cc8a30c	0.02449181
63	0x3d6d4c0d	0.057933856
64	0xbd49d1bd	-0.049272288
65	0xba32f573	-0.0006826736
66	0xbd50d24a	-0.050981797
67	0xbd530129	-0.05151478
68	0x3d89732a	0.06711419
69	0xbd5f5fc7	-0.0545347
70	0xbd454140	-0.04815793
71	0x3dc21652	0.094769135
72	0x3d701f61	0.058623675
73	0xbd0fcd98	-0.03510818
74	0x3d8cbb30	0.06871641
75	0x3cc04a3c	0.023472898
76	0xbd80003f	-0.06250047
77	0x3d93faeb	0.07225593
78	0xbcbafd02	-0.022825722
79	0xbce6fab3	-0.028195715
80	0x3cc538de	0.024074968
81	0xbd41a80b	-0.0472794
82	0xbd899bde	-0.067191824
83	0xbdd812ed	-0.10550485
84	0xbd8ddfd5	-0.06927458
85	0xbd5c1499	-0.05373058
86	0x3d72f79a	0.059318163
87	0x3cf13aa7	0.029446913
88	0xbdc4d556	-0.09611003
89	0xbdbb2ebd	-0.09139774
90	0x3d34f17a	0.044175602
91	0x3c85fdfc	0.01635646
92	0xbd2a3e74	-0.041563466
93	0xbb1ae49e	-0.0023634802
94	0x3d20bc6f	0.039242204
95	0x3d965319	0.07340068
96	0x3dc3d73a	0.095625356
97	0xbcf4b17e	-0.029869791
98	0x3d46be8b	0.04852156
99	0x3d9386b8	0.0720343
100	0x3d413d5a	0.04717765
101	0xbd49b733	-0.049246978
102	0x3d30da91	0.04317719
103	0x3d2ddb62	0.042445548
104	0xbc07a095	-0.008278032
105	0xbd23e2c3	-0.04001118
106	0xbd84632a	-0.064642265
107	0x3c5b8cb0	0.013400242
108	0xbda345df	-0.07972311
109	0xbb438d91	-0.0029839019
110	0xbc807636	-0.015681367
111	0xba8ddd68	-0.001082343
112	0x3d3957ac	0.045249626
113	0xbd3582a0	-0.044314027
114	0xba9a702e	-0.00117827
115	0xbc8ac502	-0.016939644
116	0xbd5855f6	-0.052816354
117	0x3d7e1156	0.06202825
118	0x3dbf24af	0.09333169
119	0xbceb72cd	-0.028741265
120	0x3c731e38	0.014838748
121	0x3d9d0b91	0.07668222
122	0xbb94f56a	-0.004545857
123	0x3df1e70c	0.11811647
124	0xbd880643	-0.06641819
125	0x3d1af67b	0.03783272
126	0x3da2eaff	0.07954978
127	0x3c45af2d	0.012065691
128	0xbc598236	-0.013275674
129	0xbc8e8335	-0.017396549
130	0x3ccabbda	0.024747778
131	0x3c909bfb	0.017652502
132	0xbda0211b	-0.07818814
133	0x3c8902e0	0.016725004
134	0xbd40fd59	-0.04711661
135	0xbd714e11	-0.05891234
136	0x3827d977	4.0018433e-05
137	0x3d08125b	0.03322063
138	0x3a3ab8cb	0.0007122873
139	0x3d43f28f	0.047838744
140	0xbd010936	-0.031502925
141	0xbdb105a6	-0.086436555
142	0x3d6b0e51	0.0573867
143	0x3da038ff	0.07823371
144	0x3bb3fe06	0.0054929284
145	0xbd5ae657	-0.053442325
146	0xbb9f9567	-0.004870105
147	0x3d754da7	0.05988851
148	0x3ccd0fcf	0.025031952
149	0x3cb97b84	0.022641905
150	0xbd55b274	-0.05217214
151	0xbd056f0c	-0.032576606
152	0x3be792b8	0.007067051
153	0xbdfc10fc	-0.12307927
154	0x3d46f68f	0.04857498
155	0xbd913e35	-0.07091943
156	0xbce1c6da	-0.02756064
157	0xbced387a	-0.028957594
158	0x3c2f6951	0.010706262
159	0x3d88683b	0.066605054
160	0x3d9873c4	0.074439555
161	0xbd5fd8cd	-0.054650117
162	0xbd456ad3	-0.04819758
163	0xbd859e7b	-0.065243684
164	0x3c77219a	0.015083695
165	0xbccde31a	-0.025132705
166	0xbc89943f	-0.016794322
167	0xbd736a7a	-0.059427716
168	0x3dac0362	0.08399083
169	0x3caf4384	0.021394499
170	0xbcb12dfb	-0.02162837
171	0xbc58642c	-0.013207477
172	0x3c314766	0.010820245
173	0xbdaf7de0	-0.085689306
174	0xbb81ee7b	-0.0039651967
175	0xbb87168f	-0.0041225622
176	0xbd650a96	-0.0559183
177	0xbd673de9	-0.056455527
178	0xbd6631fb	-0.05620001
179	0xbd8b18c0	-0.0679183
180	0xbcdc457d	-0.026888603
181	0x3d6f2a44	0.058389917
182	0x3c99a21c	0.018754058
183	0xbcb43652	-0.021998558
184	0xbcf83810	-0.03030017
185	0xbc98a881	-0.018635036
186	0xbd6d34ba	-0.057911612
187	0x3dac17bb	0.08402964
188	0xbcb6b668	-0.022303775
189	0xbd45d962	-0.048303016
190	0x3d6193c7	0.055072572
191	0x3d470f46	0.04859855
192	0xbdab6fdd	-0.083709456
193	0xbc278984	-0.010225657
194	0xbcc3c5d3	-0.02389804
195	0x3d4ad195	0.04951628
196	0xbd192845	-0.03739192
197	0xbda78cc1	-0.081811436
198	0x3d2a04e2	0.041508563
199	0xbd240418	-0.040042967
200	0x3bf000b2	0.0073243016
201	0x3d2cd2ef	0.04219335
202	0x3dbb9df7	0.09160989
203	0x3dae543c	0.0851216
204	0xbda86e7d	-0.08224199
205	0x3bda6c6a	0.006665756
206	0xbd896074	-0.0670785
207	0x3ce6133b	0.028085342
208	0x3d991f8c	0.0747672
209	0x3d16e1cb	0.036836427
210	0x3c769101	0.01504922
211	0xbd7efbda	-0.062251903
212	0x3d89880b	0.06715401
213	0xbd53eb34	-0.05173798
214	0x3c9a3e1e	0.018828448
215	0xbd90be3a	-0.07067533
216	0x3d3e9447	0.046528127
217	0x3cadf3fe	0.021234509
218	0x3d86fd04	0.06591228
219	0xbc190005	-0.009338384
220	0xbda0d150	-0.07852423
221	0xbc88057d	-0.01660418
222	0xbd9023b0	-0.07038057
223	0x38fba441	0.00011999207
224	0xbd4ef195	-0.05052336
225	0xbc0c2ec0	-0.008556068
226	0xbc8f8df2	-0.01752374
227	0x3d43f3b5	0.04783984
228	0xbdc2c196	-0.0950958
229	0xbd1ffba8	-0.039058357
230	0xbd951cf2	-0.072809115
231	0x3d9c1c1a	0.076225474
232	0x3c5eb833	0.013593721
233	0xbd3e2bd6	-0.046428524
234	0x3d8b7d7a	0.06811042
235	0xbdb024e2	-0.08600785
236	0x3d3faad6	0.04679378
237	0xbd142297	-0.0361658
238	0x3db7785f	0.08958506
239	0x3c15ddfe	0.009147165
240	0x3d4b6d00	0.049664497
241	0xbc9a96f4	-0.018870808
242	0x3d3edecf	0.046599206
243	0x3d0e1d30	0.034695804
244	0xbd14dfca	-0.036346234
245	0x3d28deb3	0.041228008
246	0x3da1e4c5	0.079049625
247	0x3d849712	0.06474127
248	0x3d248d5d	0.040173877
249	0x398307ca	0.0002499207
250	0x3d5efb1f	0.054438706
251	0x3cbfc781	0.02341056
252	0xbd080c54	-0.033214882
253	0xbda044d1	-0.07825626
254	0xbc8b213a	-0.016983617
255	0x3c6102c5	0.01373357

cause_networks.1.0.bias f4 [46]
0	0x3d915361	0.070959814
1	0xbd54a38d	-0.051913787
2	0xbd9ca532	-0.07648696
3	0xbdbfd5d5	-0.09366957
4	0xbd28a1de	-0.041169994
5	0x3cd4cf6f	0.025977818
6	0x3ccceea1	0.02501613
7	0xbc590016	-0.013244649
8	0x3d2d532e	0.042315654
9	0x3d397664	0.04527892
10	0x3cad38d7	0.021145267
11	0xbd4f7e94	-0.050657824
12	0xbc30d3a1	-0.010792644
13	0xbd2dca1e	-0.042429082
14	0x3ce621f3	0.02809236
15	0xbd800a69	-0.062519856
16	0x3d01d0e6	0.03169336
17	0x3bcba4cc	0.0062147137
18	0xbd834519	-0.06409664
19	0xbd73090b	-0.059334796
20	0x3d542546	0.05179336
21	0x3bb9b80b	0.0056676916
22	0xbd35d47c	-0.044392094
23	0x3dd05f53	0.10174432
24	0xbd059dab	-0.032621067
25	0x3d3cf98e	0.04613643
26	0xbcec1c31	-0.028822036
27	0x3caa6f8b	0.020805141
28	0x3ae48b18	0.0017436473
29	0xbdb7ace6	-0.08968525
30	0x3c698f57	0.014255366
31	0x3c26fa90	0.010191575
32	0x3d9cbf63	0.076536916
33	0x3cdf304d	0.027244711
34	0xbda44afe	-0.08022116
35	0xbd79f947	-0.061028745
36	0x3d9a6bc7	0.07540088
37	0xbce9d526	-0.02854402
38	0x3cca2f92	0.024680886
39	0xbd5c42a1	-0.05377448
40	0xbd16bdd5	-0.03680213
41	0xbd33818a	-0.04382471
42	0xbda05b43	-0.07829907
43	0x3bf3dde1	0.0074422215
44	0xbc8a9f7e	-0.016921755
45	0xbd01b79d	-0.031669248

cause_networks.1.1.weight f4 [46]
0	0x3f855dc9	1.0419246
1	0x3f6bf4ee	0.9217061
2	0x3f881c24	1.0633588
3	0x3f7e3f5a	0.99315417
4	0x3f7acbd8	0.9796729
5	0x3f68ac52	0.9088794
6	0x3f75d210	0.96023655
7	0x3f7e02d2	0.99223053
8	0x3f817c52	1.0116065
9	0x3f8d2193	1.1025871
10	0x3f78f5e0	0.97250175
11	0x3f773edd	0.96580297
12	0x3f6d1a68	0.9261842
13	0x3f7c9817	0.9866957
14	0x3f75dc3c	0.96039176
15	0x3f7797ab	0.967158
16	0x3f79371c	0.97349715
17	0x3f6fdcbf	0.93696207
18	0x3f7556e2	0.958357
19	0x3f734848	0.9503217
20	0x3f7ce3eb	0.98785275
21	0x3f7fcd31	0.9992247
22	0x3f81a53f	1.0128554
23	0x3f6a3a2f	0.9149503
24	0x3f761e1f	0.9613971
25	0x3f83dc76	1.0301654
26	0x3f6e9663	0.9319822
27	0x3f88f23c	1.0698924
28	0x3f8447bc	1.0334392
29	0x3f872729	1.0558826
30	0x3f78f6b4	0.9725144
31	0x3f83e8b8	1.0305395
32	0x3f7d565a	0.9895989
33	0x3f863b1f	1.0486792
34	0x3f8ab7b5	1.0837313
35	0x3f878e51	1.0590307
36	0x3f8033f7	1.0015858
37	0x3f80c5f2	1.0060408
38	0x3f77592d	0.96620446
39	0x3f8342d6	1.0254772
40	0x3f881ef1	1.0634443
41	0x3f6ce048	0.92529726
42	0x3f8581e4	1.0430264
43	0x3f71ce1e	0.94455135
44	0x3f84b1b0	1.0366726
45	0x3f778f48	0.96703005

cause_networks.1.1.bias f4 [46]
0	0xbd1cba10	-0.03826338
1	0xbd883ff5	-0.06652824
2	0xbd19b9c7	-0.037530687
3	0xbc7ff4fd	-0.015622375
4	0xbc013651	-0.007886485
5	0xbe49e53f	-0.19716357
6	0xbcb38eec	-0.021918736
7	0xbe789b49	-0.24277987
8	0xbda0dc9b	-0.07854577
9	0xbe0a1cec	-0.13487595
10	0xbd9aade2	-0.07552697
11	0xbd6f88ec	-0.05848019
12	0xbe214822	-0.15750173
13	0xbe502b33	-0.20328979
14	0xbd87416e	-0.066042766
15	0xbd88fce1	-0.06688858
16	0xbc9d4332	-0.01919708
17	0xbe30b9d4	-0.17258388
18	0xbd67caad	-0.05658977
19	0xbe2f90cb	-0.17145078
20	0xbd85ef79	-0.065398164
21	0xbe2d52a1	-0.16926052
22	0xbd2cb8bd	-0.042168368
23	0xbe44b375	-0.19209082
24	0xbe4456ad	-0.19173689
25	0xbd167aa6	-0.03673806
26	0xbe2bbfe9	-0.16772427
27	0xbcc8bda7	-0.024504496
28	0xbe327cc1	-0.17430402
29	0xbe59af1d	-0.21258207
30	0xbdef85e6	-0.11695461
31	0xbdbd99a7	-0.092578225
32	0x3d13e67f	0.03610849
33	0xbd08374f	-0.03325587
34	0xbb77490d	-0.003773275
35	0x3c84ef77	0.016227467
36	0xbc167ef5	-0.009185542
37	0xbded6d10	-0.11593068
38	0xbe23b8be	-0.15988442
39	0xbd985fc1	-0.074401386
40	0x3d05b680	0.03264475
41	0xbe0aae56	-0.13543066
42	0xbce2334a	-0.027612347
43	0xbe2b3c23	-0.16722159
44	0x3ce36c5b	0.027761629
45	0xbd826c84	-0.06368354

cause_networks.1.1.running_mean f4 [46]
0	0xbec09784	-0.37615597
1	0xbe1da6df	-0.15395688
2	0xbe5a25c0	-0.21303463
3	0xbce85a9d	-0.02836352
4	0x3eaa448c	0.33255422
5	0x3c8d826f	0.01727411
6	0x3dddf4b0	0.10837686
7	0x3e92639f	0.2859163
8	0x3e787e69	0.24266972
9	0x3e5f6b15	0.21818192
10	0xbed454c9	-0.41470936
11	0xbc3de54a	-0.011590311
12	0xbebc5c7a	-0.36789304
13	0x3e116239	0.14197625
14	0x3e17a7b3	0.14810066
15	0x3dd3f866	0.103501126
16	0x3e39289b	0.18081896
17	0x3cdab48e	0.026697423
18	0x3da74917	0.08168238
19	0xbe16174a	-0.14657322
20	0x3efb730c	0.4911121
21	0xbdf03031	-0.11727942
22	0x3e1dfe60	0.15429068
23	0x3deeaef5	0.11654464
24	0x3e53325d	0.20624681
25	0x3ed778b1	0.42084268
26	0xbea9f714	-0.33196318
27	0x3e9b9ffb	0.30395493
28	0x3e609f37	0.21935736
29	0x3d98e37d	0.07465265
30	0x3e8a685e	0.2703275
31	0x3e06f9f7	0.13181292
32	0x3e9e438e	0.30910915
33	0x3da1b26f	0.07895362
34	0xbec45d72	-0.38352543
35	0xbebc22cf	-0.36745307
36	0x3e736e66	0.23772582
37	0x3e0dae33	0.13835983
38	0xbeeafcd2	-0.45896012
39	0x3e0c5dd0	0.13707662
40	0x3cbe56b8	0.02323471
41	0x3db3df85	0.08782867
42	0x3ec66708	0.38750482
43	0x3e6b5895	0.2298301
44	0x3d943991	0.072375424
45	0x3e2e1714	0.17000991
