foundation_models/Ensemble_model5_DeepSurv_ANN_Event_1_20250804_161902.pt (torch, 76624 bytes, 19 tensors)

model.0.weight f4 [117, 11]
0.11624576 -0.21069108 -0.6849493 -0.5777692 0.24673805 0.551838 0.638976 -0.008770105
-0.188043 0.2019102 0.08884793 0.16239543 0.038113926 -0.09342018 -0.08322622 -0.9418024
0.6125374 0.011557048 -0.032370735 0.6000742 0.112617485 -0.7922881 0.030111741 0.069523156
0.75079346 0.006657451 0.75365216 0.71161634 0.13499887 -0.4510349 0.060096554 0.081790514
-0.02408714 0.12839693 -0.17458948 0.6843723 0.124673694 0.31187728 1.5029101 -0.4448057
-0.052424647 0.17006335 0.097028896 -0.10996004 0.038699828 0.19627374 -0.041461714 -0.49377117
0.007901648 -1.0629215 -0.19429092 -0.1355165 0.06668431 0.062480666 -0.5405169 0.10107602
-0.03228137 -0.06546387 -0.29257563 1.392508 -0.47492275 -0.09757897 0.17299324 -0.38775796
0.026143776 0.035197735 0.011806831 0.18316661 -0.09165371 0.1415749 1.1989089 0.615727
-0.36341026 -0.0106182005 -0.2018824 -0.07355135 -0.20450675 0.023661515 -0.029565673 0.14951672
-0.1245834 0.68008834 -0.23636933 1.2269111 -0.079921074 0.16607769 0.11269901 -0.28375193
0.11150352 -0.09572224 0.8758512 -0.09121616 0.9575274 -0.30398777 -0.07719753 0.0887154
-0.34043464 0.015610178 0.23735459 -0.19167674 0.17676875 -1.4097064 -0.14192744 -0.25231084
0.48279092 0.026851997 0.09719519 0.045408905 -0.061740585 0.5205799 -0.051290486 0.18621787
1.1332701 -0.36706522 0.19006757 -0.4113894 0.6658249 -0.02294827 -0.17371193 0.019459594
-0.37422466 -0.22920243 0.21069445 -0.09571686 -0.027119992 0.90327215 -0.07576511 0.58883095
0.04154982 0.0774765 -0.28794894 0.33986458 0.14778614 0.112621635 1.1638337 0.20398106
-0.1866914 -0.2595952 -0.41502365 0.090977214 -0.29124293 0.18212728 -0.5270364 0.10174718
0.020931412 -0.47133192 -0.1438614 -0.54184395 -1.5219339 0.2866474 0.033952076 0.14893542
-0.08422514 0.33831674 -0.026956784 0.112183295 -0.14357679 -0.6040226 0.00014821214 0.6898469
-0.20174985 0.16870135 -0.18834276 0.4226611 0.4209932 0.0042664474 0.28668997 0.5894415
-0.05416767 -0.33396384 -0.254896 0.34993237 -0.59668255 -0.061364833 -0.042945925 -0.33667138
-0.20776308 -0.04328835 0.32478985 -0.35704753 0.39753664 0.5477669 0.38640752 -0.6118575
0.51938707 -0.031461935 -0.08763162 -0.2710871 0.08519183 0.50928676 -0.025839854 -0.33157924
0.6337904 0.1977338 -0.21495733 -0.20849867 0.28135702 -0.67028725 0.10821331 -0.22312482
-0.10873268 0.49269596 -0.7728059 -0.12822457 -0.40276957 -0.0423672 0.0756316 -0.06475984
0.30991578 0.1868297 -0.27849197 -0.023411324 -0.0914652 -0.36087337 -1.3245071 -0.46293876
-0.13828528 0.030197522 0.09073785 0.16007668 -0.060041443 -0.008137602 -0.6888748 0.20038399
-0.8015336 -0.31382614 0.22787854 0.11760007 0.34414074 0.41232765 0.48171264 -0.1268123
0.5597267 -0.28581092 -0.64662945 0.14369446 0.024088606 0.32863712 0.14998032 0.099857606
0.14611858 0.068608165 -0.005873025 -0.4184982 -0.048458386 -0.56329846 -0.4218808 -0.49160042
0.28598374 0.063433655 -0.053466488 0.33384222 0.19157617 -0.040312953 -0.018397715 -0.8450933
00000000: 4212 ee3d 67bf 57be d658 2fbf afe8 13bf
00000010: e6a8 7c3e 4145 0d3f ee93 233f 7db0 0fbc
00000020: 588e 40be 8cc1 4e3e e7f5 b53d fd4a 263e
00000030: 591d 1c3d 1453 bfbd 8272 aabd f619 71bf
00000040: 40cf 1c3f c659 3d3c 2d97 04bd 769e 193f
00000050: ffa3 e63d 65d3 4abf e6ac f63c 2862 8e3d
00000060: 0034 403f bf26 da3b 59ef 403f 7d2c 363f
00000070: 253d 0a3e 0cee e6be ce27 763d c981 a73d
00000080: 6552 c5bc 7c7a 033e 96c7 32be 0633 2f3f
00000090: ec54 ff3d 61ae 9f3e 5c5f c03f 93bd e3be
000000a0: 3abb 56bd 1625 2e3e 16b7 c63d bb32 e1bd
000000b0: b683 1e3d fcfb 483e c2d3 29bd 93cf fcbe
000000c0: ea75 013c d00d 88bf 33f4 46be d6c4 0abe
000000d0: c991 883d baeb 7f3d 515f 0abf f200 cf3d
000000e0: 7839 04bd ec11 86bd 79cc 95be b43d b23f
000000f0: 1329 f3be 7cd7 c7bd 2425 313e 3688 c6be
00000100: 792b d63c 802b 103d 7071 413c 0790 3b3e
00000110: f1b4 bbbd 03f9 103e d975 993f 49a0 1d3f
00000120: e910 babe f6f7 2dbc 43ba 4ebe 17a2 96bd
00000130: 386a 51be cbd5 c13c b633 f2bc e91a 193e
00000140: 9525 ffbd 451a 2e3f cd0a 72be 6c0b 9d3f
00000150: a9ad a3bd 4510 2a3e bdce e63d ef47 91be
00000160: f55b e43d 060a c4bd c937 603f 8acf babd
00000170: 8420 753f 49a4 9bbe bd19 9ebd 6bb0 b53d
00000180: 734d aebe d5c1 7f3c 150d 733e e846 44be
00000190: de02 353e 4271 b4bf 6d55 11be e32e 81be
000001a0: 5f30 f73e b8f8 db3c 460e c73d b0fe 393d
000001b0: b2e3 7cbd b944 053f f915 52bd e6af 3e3e
000001c0: ff0e 913f f9ef bbbe 13a1 423e a2a1 d2be
000001d0: 8073 2a3f 03fe bbbc 8ae1 31be ba69 9f3c
000001e0: 609a bfbe 0bb4 6abe 49c0 573e 3307 c4bd
000001f0: bf2a debc d83c 673f bd2a 9bbd a0bd 163f
00000200: 2530 2a3d 00ac 9e3d 0b6e 93be bb02 ae3e
00000210: 4055 173e 2ca6 e63d 81f8 943f 69e0 503e
00000220: 082c 3fbe a9e9 84be fb7d d4be 4352 ba3d
00000230: cb1d 95be 937f 3a3e dceb 06bf d360 d03d
00000240: 5a78 ab3c 6b52 f1be 6750 13be 49b6 0abf
00000250: bbce c2bf 73c3 923e 5511 0b3d 8782 183e
00000260: 3b7e acbd da37 ad3e 79d4 dcbc 5bc0 e53d
00000270: cb05 13be 3aa1 1abf 6569 1b39 ce99 303f
00000280: 8397 4ebe 0cc0 2c3e eddc 40be 0967 d83e
00000290: 6c8c d73e 8ecd 8b3b 07c9 923e a3e5 163f
000002a0: ebde 5dbd 4ffd aabe ba81 82be 562a b33e
000002b0: 30c0 18bf b159 7bbd 11e8 2fbd 3160 acbe
000002c0: d8bf 54be 204f 31bd db4a a63e efce b6be
000002d0: ec89 cb3e 743a 0c3f 35d7 c53e b1a2 1cbf
000002e0: 8df6 043f 3bde 00bd 3578 b3bd eecb 8abe
000002f0: 0e79 ae3d 9e60 023f 1aae d3bc c1c4 a9be
00000300: 1640 223f bb7a 4a3e c61d 5cbe ad80 55be
00000310: 070e 903e f297 2bbf f19e dd3d d57a 64be
00000320: 3daf debd a542 fc3e 9cd6 45bf 4d4d 03be
00000330: d037 cebe 3b89 2dbd bee4 9a3d cfa0 84bd
00000340: 48ad 9e3e 4950 3f3e 8096 8ebe 1bc9 bfbc
00000350: 1b52 bbbd 65c4 b8be 7389 a9bf 4f06 edbe
00000360: a89a 0dbe cb60 f73c c4d4 b93d 24eb 233e
00000370: 04ee 75bd 9453 05bc 195a 30bf 7631 4d3e
00000380: 4e31 4dbf d2ad a0be fe58 693e 4ed8 f03d
00000390: 3733 b03e 9c1c d33e 0aa3 f63e 15db 01be
000003a0: 404a 0f3f cf55 92be 8289 25bf a424 133e
000003b0: 7855 c53c 2043 a83e 7194 193e 2582 cc3d
000003c0: 1ca0 153e 7082 8c3d 8172 c0bb 6545 d6be
000003d0: 4d7c 46bd 5434 10bf c300 d8be 0db3 fbbe
000003e0: 766c 923e 81e9 813d adff 5abd 5eed aa3e
000003f0: 8b2c 443e 321f 25bd ceb6 96bc 0958 58bf

model.0.bias f4 [117]
-0.34619105 -0.07847975 0.0212694 0.1853373 0.20110916 -0.20223358 -0.18484479 -0.23360623
-0.19255464 0.045880426 -0.028753951 -0.48563713 0.0050899484 0.11883011 0.0019005965 0.06835692
-0.32895893 -0.099182464 0.69726974 0.5229501 -0.25397602 0.06497684 0.25349236 0.054384388
-0.027280884 0.30126482 -0.052608073 -0.25583118 0.14433683 -0.46916837 0.15547083 0.042292777
0.0072231833 0.24461809 -0.29414332 -0.50055075 0.30510995 0.45609504 0.5961214 0.067244634
0.03460368 -0.07033059 0.006520098 0.1981811 0.6665853 0.5978855 -0.051371563 0.39724785
0.09829821 0.23112988 -0.049142618 -0.6795763 0.12533231 -0.37223303 -0.020014105 -0.24860586
0.5439269 0.14772643 0.1272501 0.027008016 0.12932412 0.43310168 -0.30101946 -0.241286
-0.3609829 0.13771586 -0.41991344 -0.1968547 0.12583067 -0.015055636 -0.27567628 0.37568918
0.17436737 -0.42860362 0.13285173 -0.19477214 -0.38295034 -0.6326469 -0.20625621 0.19669926
-0.011628505 -0.46340135 0.36455142 -0.22920947 0.55963856 0.1877937 -0.8545841 0.007044319
0.3602067 0.70769966 0.0041662175 -0.5673188 -0.38539115 0.2879077 -0.30911115 0.81141394
0.2195129 0.2715332 0.25188103 0.13908686 0.15828252 0.13276172 -0.1677016 0.086566925
-0.31635535 0.08676138 -0.08706423 0.013157961 -0.12256767 -0.38939327 0.055433873 0.32948866
-0.17076445 0.05464096 -0.2397784 -0.40089604 -0.07478465
00000000: f43f b1be feb9 a0bd 2a3d ae3c 10c9 3d3e
00000010: 8fef 4d3e 5216 4fbe f447 3dbe 7936 6fbe
00000020: 0b2d 45be 1ded 3b3d 688d ebbc 6ea5 f8be
00000030: 95c9 a63b 335d f33d 701d f93a b6fe 8b3d
00000040: 4e6d a8be 2d20 cbbd 4580 323f 0fe0 053f
00000050: 2509 82be 9412 853d c0c9 813e 2ac2 5e3d
00000060: 297c dfbc 623f 9a3e 907b 57bd 4efc 82be
00000070: 09cd 133e d636 f0be bf33 1f3e 313b 2d3d
00000080: 74b0 ec3b 2a7d 7a3e f499 96be 1824 00bf
00000090: 5f37 9c3e 4a85 e93e 699b 183f 8eb7 893d
000000a0: 97bc 0d3d 7c09 90bd 8ca6 d53b fcef 4a3e
000000b0: 56a5 2a3f 060f 193f fd6a 52bd 1264 cb3e
000000c0: 9250 c93d 50ad 6c3e c549 49bd b6f8 2dbf
000000d0: 1d57 003e 5495 bebe 9ff4 a3bc 8992 7ebe
000000e0: cb3e 0b3f 9945 173e da4d 023e ea3f dd3c
000000f0: 8b6d 043e 81bf dd3e 391f 9abe ad13 77be
00000100: c0d2 b8be 6305 0d3e e5fe d6be 4794 49be
00000110: c1d9 003e eaab 76bc 7125 8dbe 555a c03e
00000120: 5c8d 323e ef71 dbbe 490a 083e 5972 47be
00000130: 1112 c4be 26f5 21bf d434 53be 886b 493e
00000140: 7c85 3ebc f142 edbe 7ca6 ba3e e3b5 6abe
00000150: 7944 0f3f fe4c 403e 06c6 5abf 08d4 e63b
00000160: 036d b83e ce2b 353f c484 883b ce3b 11bf
00000170: fd51 c5be a368 933e d143 9ebe d3b8 4f3f
00000180: fdc7 603e 6606 8b3e 8df6 803e c96c 0e3e
00000190: d014 223e b0f2 073e f8b9 2bbe 004a b13d
000001a0: 54f9 a1be f3af b13d bb4e b2bd 7d94 573c
000001b0: c204 fbbd 8e5e c7be a10e 633d bdb2 a83e
000001c0: e0dc 2ebe 33cf 5f3d 7888 75be 3f42 cdbe
000001d0: b228 99bd

model.1.weight f4 [117]
0.8392653 0.86143094 1.162454 1.0660908 0.76558864 1.1598302 1.0457598 0.9515852
1.3283646 0.7708033 0.8628767 0.9937048 0.88626045 0.74831843 0.8078478 0.9592612
1.1768193 0.95104 0.7492007 0.84136176 0.9936099 0.8047163 0.90466505 0.8954253
0.69634044 1.1344501 1.1493526 0.98284286 0.8736931 0.8373968 0.86508983 0.8887429
1.1360834 0.9679646 0.8232998 0.8598549 0.68161863 1.1424466 0.7780032 0.7614102
1.1160972 0.71455115 0.8009339 0.79868394 0.83294845 0.97257805 1.1562235 0.79513305
0.92000854 1.1709535 1.0362285 1.1107326 0.7332461 0.9467613 0.98690075 1.1142292
1.0572139 0.8345286 0.54062355 0.8763752 0.8757153 0.8843957 0.82652736 0.73360926
1.0822808 0.8777658 0.9783388 0.6791571 0.8144887 0.7782497 0.85472304 0.8270951
0.5775562 0.7867838 0.77135265 0.7836229 0.76714647 0.995612 0.9010617 0.89090157
0.71684927 0.74326295 1.0908026 0.89965445 0.5871441 1.0925456 0.99277484 1.3306808
1.3201913 0.75662255 0.6059798 0.7657561 0.6854498 0.8572821 0.8971444 1.2042097
0.9245915 0.9908435 0.8730645 0.5753085 0.99838287 0.9067081 0.9408364 0.6627746
0.79998004 0.90958154 1.1302141 1.1104687 0.72194284 1.1788118 1.1413081 1.1303674
0.9421392 0.8157612 0.8470465 1.1242584 1.2707981
00000000: 17da 563f bd86 5c3f 4bcb 943f aa75 883f
00000010: 9efd 433f 5175 943f 75db 853f 169b 733f
00000020: da07 aa3f 5d53 453f 7de5 5c3f 7063 7e3f
00000030: f7e1 623f cc91 3f3f 1dcf 4e3f 2492 753f
00000040: 04a2 963f 5c77 733f 9ecb 3f3f 7c63 573f
00000050: 385d 7e3f e301 4e3f 2198 673f 983a 653f
00000060: 5e43 323f a935 913f fc1d 933f 979b 7b3f
00000070: 5aaa 5f3f a35f 563f 8776 5d3f a884 633f
00000080: 2e6b 913f 87cc 773f c7c3 523f 731f 5c3f
00000090: 8f7e 2e3f b13b 923f 382b 473f c7eb 423f
000000a0: 46dc 8e3f d3ec 363f 010a 4d3f 8d76 4c3f
000000b0: 1c3c 553f e0fa 783f 22ff 933f d78d 4b3f
000000c0: ae85 6b3f cee1 953f 23a3 843f 7c2c 8e3f
000000d0: 04b6 3b3f f35e 723f 87a5 7c3f 109f 8e3f
000000e0: c952 873f aba3 553f 4e66 0a3f 205a 603f
000000f0: e12e 603f c267 623f 4c97 533f d1cd 3b3f
00000100: 2d88 8a3f 42b5 603f 6974 7a3f 3ddd 2d3f
00000110: 5582 503f 5f3b 473f 21cf 5a3f 81bc 533f
00000120: b9da 133f aa6a 493f 5e77 453f 839b 483f
00000130: b663 443f 6ee0 7e3f fbab 663f 2012 643f
00000140: 6f83 373f 7b46 3e3f 6b9f 8b3f c14f 663f
00000150: 134f 163f 89d8 8b3f 7e26 7e3f c053 aa3f
00000160: 07fc a83f 04b2 413f 7e21 1b3f 9708 443f
00000170: a379 2f3f d776 5b3f 41ab 653f 8b23 9a3f
00000180: 07b2 6c3f eba7 7d3f 2881 5f3f 6b47 133f
00000190: 0596 7f3f 061e 683f a8da 703f 99ab 293f
000001a0: 7ecb 4c3f 56da 683f dbaa 903f d723 8e3f
000001b0: 3fd1 383f 4ee3 963f 6216 923f e1af 903f
000001c0: 0930 713f bad5 503f 0ad8 583f b3e7 8f3f
000001d0: 83a9 a23f

model.1.bias f4 [117]
-0.29448998 -0.42411608 -0.4268614 -0.25823182 -0.4515058 -0.1449752 -0.19230701 -0.10439897
-0.60423684 -0.23538516 -0.32870322 -0.63192797 -0.51773334 -0.5015212 -0.40229714 -0.526346
-0.67657083 -0.636452 -0.5877352 -0.5531216 -0.743795 -0.1953395 -0.5433015 -0.5561169
-0.025975347 -0.389155 -0.6834125 -0.42701283 -0.15184355 -0.45435184 -0.6694748 -0.776684
-0.2202146 -0.65331227 -0.1352 -0.8947647 -0.023928609 -0.7554812 -0.5260313 -0.23835212
-0.54359686 -0.30344754 -0.5165861 -0.41585666 -0.28529152 -0.66706824 -0.66291356 -0.2790277
-0.6368475 -0.8218789 -0.27765006 -0.69974196 -0.37183335 -0.71315426 -0.53386974 -0.40356997
-0.67872375 -0.23276141 0.009057355 -0.51327795 -0.14246318 -0.25681975 -0.44653377 0.028788421
-0.5137116 -0.021308085 -0.13404216 -0.3242819 -0.4849397 -0.04227686 -0.1214052 -0.43037137
0.08365402 -0.26624426 -0.31803846 -0.18512018 -0.17459679 -0.7376544 -0.6047654 -0.47841987
-0.3001892 -0.4212082 -0.48934954 -0.18096013 -0.22586341 -0.6397905 -0.75258964 -0.9384876
-0.61758155 -0.32705474 -0.08896764 -0.098449245 -0.2207197 -0.64507926 -0.48069155 -0.59129465
-0.55325335 -0.59556025 -0.6222669 -0.042828213 -0.33643985 -0.8314362 -0.49132085 -0.3373418
-0.25841054 -0.77316415 -0.19332959 -0.32596093 -0.4870534 -0.7727233 -0.18182714 -0.8327849
-0.11931963 -0.64306396 -0.4596339 -0.55188495 -0.35654438
00000000: 64c7 96be be25 d9be 948d dabe f636 84be
00000010: c52b e7be 6174 14be 21ec 44be 21cf d5bd
00000020: 44af 1abf cf08 71be ca4b a8be 08c6 21bf
00000030: 2c8a 04bf b263 00bf e4f9 cdbe 9dbe 06bf
00000040: bf33 2dbf 85ee 22bf d075 16bf 6199 0dbf
00000050: 5969 3ebf 1407 48be cf15 0bbf ad5d 0ebf
00000060: 40ca d4bc 533f c7be 1ff4 2ebf 6da1 dabe
00000070: e07c 1bbe cea0 e8be b362 2bbf c3d4 46bf
00000080: f07f 61be 793f 27bf de71 0abe 4d0f 65bf
00000090: ee05 c4bc 3767 41bf fda9 06bf 9412 74be
000000a0: 2a29 0bbf 7a5d 9bbe fd3e 04bf 2aeb d4be
000000b0: bb11 92be fcc4 2abf b4b4 29bf b8dc 8ebe
000000c0: 7008 23bf a866 52bf 2628 8ebe 4a22 33bf
000000d0: f160 bebe 4791 36bf b0ab 08bf b9a0 cebe
000000e0: d7c0 2dbf 0259 6ebe 4d65 143c 2f66 03bf
000000f0: dee1 11be e17d 83be 13a0 e4be b2d5 eb3c
00000100: 9a82 03bf 4b8e aebc 5942 09be 4708 a6be
00000110: 044a f8be 802a 2dbd 4aa3 f8bd a359 dcbe
00000120: cd52 ab3d 2b51 88be f0d5 a2be 2590 3dbe
00000130: 80c9 32be ebd6 3cbf e8d1 1abf 73f3 f4be
00000140: 66b2 99be 9aa8 d7be 068c fabe 9d4d 39be
00000150: bd48 67be 4fc9 23bf b7a9 40bf b940 70bf
00000160: d319 1ebf b873 a7be ab34 b6bd c29f c9bd
00000170: 5804 62be ea23 25bf 341d f6be 165f 17bf
00000180: 03a2 0dbf a376 18bf e24c 1fbf a36c 2fbd
00000190: d841 acbe 01d9 54bf 688e fbbe 10b8 acbe
000001a0: 634e 84be 16ee 45bf 31f8 45be 5ae4 a6be
000001b0: 105f f9be 32d1 45bf e530 3abe 6431 55bf
000001c0: da5d f4bd d79f 24bf 2255 ebbe 5548 0dbf
000001d0: fc8c b6be

model.1.running_mean f4 [117]
0.81090844 0.19887452 -0.27412868 -1.2061245 -0.76863635 0.34048185 0.02619128 4.1200223
0.04712372 1.0810453 3.3442695 3.292633 -0.31332448 0.5001503 1.0978183 -0.4524316
-1.4559267 -0.10664684 -2.4388154 -3.9351606 1.0131174 5.0399756 -0.9701321 4.055558
-0.87628543 -4.021804 4.0981174 4.2554617 1.3854179 2.0479362 -0.5521949 -0.29125556
-0.22847249 -6.2433205 -1.3002111 2.9228783 1.1707014 -1.4482523 1.7922266 3.0024552
1.953855 3.612395 -1.8388823 -1.1141349 -0.38153744 -0.47689417 -3.8079073 -0.3178727
-4.0222282 0.97564703 1.1913183 1.2870144 0.37663332 4.2915144 -1.2686288 2.1937158
2.1334727 1.6561339 0.6798207 -3.505432 -4.1453133 -2.3483062 2.0461252 -0.95384556
-6.939993 0.069167644 0.62443715 -3.541964 -1.8305434 -3.2370431 2.0443337 -2.4861214
3.7182097 1.6050647 1.1040709 0.091473825 3.9971156 4.318355 3.1244216 3.8613594
-1.5519998 -3.6624677 3.291682 2.5284436 -4.3505964 -1.8113518 6.582867 -8.320145
-2.4305925 -0.49437717 -6.743041 4.800214 2.1294496 -1.3179183 1.7264544 -0.8821538
1.310541 -0.019965751 -0.91865146 1.441473 0.7667492 -0.78620017 2.635612 1.8729308
1.1533145 -3.030064 1.8349771 1.6401352 1.1658714 5.1219964 -2.7560554 -1.9749026
-1.3437544 -2.8334193 1.8745048 1.2005261 -4.3677197
00000000: b297 4f3f c3a5 4b3e 985a 8cbe 4a62 9abf
00000010: 5ac5 44bf a353 ae3e 188f d63c 39d7 8340
00000020: cd04 413d b15f 8a3f 8308 5640 80ba 5240
00000030: 116c a0be da09 003f 4f85 8c3f 1da5 e7be
00000040: ce5b babf a969 dabd 8d15 1cc0 acd9 7bc0
00000050: d5ad 813f 7b47 a140 945a 78bf 22c7 8140
00000060: 3e54 60bf 9eb2 80c0 c723 8340 be2c 8840
00000070: 6055 b13f 6311 0340 a55c 0dbf 731f 95be
00000080: b1f4 69be 48c9 c7c0 516d a6bf 7010 3b40
00000090: 8bd9 953f 5560 b9bf ae67 e53f 3a28 4040
000000a0: ec17 fa3f 7b31 6740 7f60 ebbf f99b 8ebf
000000b0: e058 c3be 792b f4be c1b4 73c0 36c0 a2be
000000c0: 18b6 80c0 01c4 793f 1e7d 983f e3bc a43f
000000d0: 15d6 c03e 1654 8940 6e62 a2bf d765 0c40
000000e0: d18a 0840 32fc d33f bb08 2e3f ff58 60c0
000000f0: 68a6 84c0 a64a 16c0 b7f3 0240 392f 74bf
00000100: 6c14 dec0 c4a7 8d3d 1ddb 1f3f 8aaf 62c0
00000110: 3f4f eabf b72b 4fc0 5dd6 0240 9d1c 1fc0
00000120: 26f7 6d40 c372 cd3f 3252 8d3f a156 bb3d
00000130: bed0 7f40 f72f 8a40 86f6 4740 8320 7740
00000140: eea7 c6bf df65 6ac0 ebaa 5240 05d2 2140
00000150: 1638 8bc0 60da e7bf d9a6 d240 501f 05c1
00000160: d48e 1bc0 011f fdbe fec6 d7c0 5a9b 9940
00000170: e748 0840 8cb1 a8bf 75fc dc3f d5d4 61bf
00000180: cfbf a73f 378f a3bc be2c 6bbf 3082 b83f
00000190: ad49 443f 6a44 49bf dead 2840 32bc ef3f
000001a0: cf9f 933f 92ec 41c0 88e0 ea3f f3ef d13f
000001b0: 463b 953f 65e7 a340 3663 30c0 9cc9 fcbf
000001c0: 2500 acbf be56 35c0 c6ef ef3f d7aa 993f
000001d0: 5cc4 8bc0

model.1.running_var f4 [117]
0.10861498 0.068125755 0.12364415 0.06774141 0.03451103 0.056358613 0.050177563 0.082739525
0.05484935 0.103356406 0.04008458 0.061376624 0.06310766 0.036863156 0.08593912 0.0968353
0.26812333 0.06783856 0.031122154 0.06314272 0.09029369 0.15468246 0.17589727 0.045620613
0.10845831 0.12452799 0.048684936 0.053527016 0.1462893 0.051003624 0.060837425 0.040622756
0.06123983 0.16725774 0.06869271 0.071703896 0.06984005 0.07185488 0.08249985 0.10593575
0.12339826 0.21404807 0.031786177 0.061348915 0.03061186 0.038793433 0.08251118 0.08893183
0.17900218 0.10769377 0.11926675 0.09319869 0.10070417 0.339665 0.14071487 0.0714722
0.115882784 0.04452526 0.1161892 0.097405076 0.14838523 0.27993962 0.14043331 0.10949207
0.43023938 0.074194655 0.0802056 0.06307325 0.041469958 0.19327873 0.045414414 0.0650317
0.110138334 0.050942335 0.07414699 0.058632642 0.3231362 0.05109172 0.18148375 0.11665725
0.040353954 0.07790169 0.11550274 0.04997177 0.037704192 0.05045732 0.6807586 0.5813689
0.13470262 0.056278016 0.18670225 0.067096725 0.27995434 0.03271242 0.06276934 0.042597193
0.048096925 0.104760006 0.03597124 0.29331744 0.08215125 0.053005397 0.31608355 0.055928297
0.15232323 0.042601604 0.0912635 0.049995292 0.07495492 0.10174627 0.07819014 0.101172656
0.083921105 0.051024947 0.056955807 0.08206316 0.08388162
00000000: 8871 de3d 8485 8b3d 2539 fd3d 02bc 8a3d
00000010: 705b 0d3d 4ad8 663d fd86 4d3d 5773 a93d
00000020: b6a9 603d 86ac d33d bb2f 243d 0e66 7b3d
00000030: 973e 813d d2fd 163d d900 b03d 9651 c63d
00000040: 7647 893e f1ee 8a3d e3f3 fe3c f850 813d
00000050: e6eb b83d 1465 1e3e 6a1e 343e aedc 3a3d
00000060: 641f de3d 8808 ff3d db69 473d 253f 5b3d
00000070: ddcc 153e 2de9 503d aa30 793d 0c64 263d
00000080: 9ed6 7a3d 9d45 2b3e c3ae 8c3d 7ed9 923d
00000090: 4d08 8f3d a728 933d aef5 a83d d8f4 d83d
000000a0: 3ab8 fc3d 6b2f 5b3e 3932 023d 0049 7b3d
000000b0: b9c5 fa3c dde5 1e3d 9ffb a83d e421 b63d
000000c0: 594c 373e 8d8e dc3d 2042 f43d f4de be3d
000000d0: fd3d ce3d 92e8 ad3e 8f17 103e 0460 923d
000000e0: f453 ed3d 1e60 363d 9af4 ed3d 507c c73d
000000f0: 4cf2 173e 3f54 8f3e c0cd 0f3e 613d e03d
00000100: 5648 dc3e 5ef3 973d d542 a43d 8c2c 813d
00000110: 67dc 293d dcea 453e 7704 3a3d 572f 853d
00000120: 3590 e13d e9a8 503d 61da 973d c828 703d
00000130: 1c72 a53e 8d45 513d e0d6 393e ffe9 ee3d
00000140: 304a 253d ec8a 9f3d b38c ec3d 33af 4c3d
00000150: b66f 1a3d 56ac 4e3d 3246 2e3f 98d4 143f
00000160: 7cef 093e c783 663d e02e 3f3e 026a 893d
00000170: 2d56 8f3e 75fd 053d 368d 803d 657a 2e3d
00000180: 4801 453d 6a8c d63d 9456 133d b42d 963e
00000190: ea3e a83d 301c 593d b4d5 a13e 1215 653d
000001a0: 9ffa 1b3e 057f 2e3d 5ce8 ba3d ddc7 4c3d
000001b0: f781 993d 5960 d03d 2722 a03d 9c33 cf3d
000001c0: d4de ab3d 89ff 503d 7e4a 693d bb10 a83d
000001d0: 20ca ab3d

model.4.weight f4 [90, 117]
-0.06194802 -0.08770365 0.2393491 -0.4797972 0.19670044 -0.03922346 0.13860679 0.04159062
-0.11657027 0.00589919 -0.1777416 -0.04828557 0.21830079 0.013664905 -0.20042327 -0.15787305
-0.19607311 0.26434755 -0.18202902 -0.07751104 -0.13850635 -0.028194591 -0.49141607 -0.71946704
0.073739514 0.3379803 -0.24535935 0.095497236 -0.42562306 0.24323891 0.40605617 -0.14681418
-0.5754274 -0.03075389 0.2711201 0.057864636 -0.076259136 -0.3202876 -0.15411209 0.029449424
0.038074404 0.0052245897 0.025275674 -0.31817505 0.26067224 -0.21608874 -0.25688726 -0.037058815
-0.24499172 -0.13824299 -0.018509349 0.11784993 -0.020318976 0.028824406 -0.02566086 0.20053078
-1.4520149 -0.08764794 0.25230476 -0.24415593 -0.69260037 -0.15720308 -0.01242281 0.03403841
-0.024912542 -0.033131592 -0.5212054 0.19332485 -1.2020363 -0.27360058 -0.27073857 -0.41792652
-0.30040494 0.1621873 0.17228734 -0.14862494 0.2892422 0.39499032 -0.06492111 -0.48857102
0.04864177 0.1315786 0.028219027 0.17185897 0.059855066 0.106830254 -0.07863067 -0.07242369
-0.11357167 -0.16303782 -0.11773664 0.13135295 0.070169285 0.025258606 0.02920527 0.4190673
0.12133972 -0.3077042 0.21144323 0.0908971 -0.11150964 0.41052434 0.036222983 0.27540988
-0.098162286 0.16314697 0.058502212 -0.02162463 0.15446204 -0.44409698 -0.025644718 -0.5628203
0.13898592 0.2257962 0.4862452 -0.59802014 0.3325927 -0.3232954 0.32699898 -0.20824629
-0.29801336 0.1368962 -0.06642738 -0.14370435 -0.06618033 0.34486523 0.14108618 0.31239438
0.23149267 0.110112794 0.052999422 0.027188133 -0.08724626 -1.1167582 -0.21222737 -0.15103975
-0.2256456 0.36620143 -0.13388458 -1.653635 -0.37779397 -0.03763489 0.061033115 -0.21508826
0.21894062 0.2461229 -0.50159264 -0.13967371 -0.6557975 -0.027983768 0.38661274 0.02423602
-0.44011712 0.048344944 -0.30033007 -0.5331854 -0.13621114 0.021209389 0.103152975 -0.56735027
0.17669202 -0.21132502 0.60703945 -0.22000466 -0.10801412 0.3487722 -0.058243543 -0.002686726
-0.15036064 0.044028003 -0.0582205 0.32237625 -0.059246425 0.062293764 0.37294203 -0.19611643
-0.07872579 -0.26681912 -0.66677475 -0.07258442 -0.23501639 0.34202906 -0.17494045 -0.586607
-0.10261466 -0.121433504 -0.035128444 -0.04672985 -0.27410367 0.016878175 0.39482597 0.104242936
-0.008737248 0.14740999 0.06632617 -0.03309997 -0.20780873 0.12464237 -0.12383632 0.032383714
0.13924065 0.019430485 -0.16992138 0.008708507 -0.41070473 -0.037439495 -0.044115458 -0.026152208
0.32291135 -0.10411945 -0.090615705 0.15221307 0.1647592 0.4731702 0.18582429 0.12687074
0.012509143 -0.0031323908 0.31074673 0.01926682 0.3341103 -0.018943865 0.07582368 -0.09644179
0.15305157 -0.5232614 -0.41762352 -0.41883585 -0.35375163 0.08578471 0.3114192 -0.14196561
-0.8158991 -0.14856464 -0.23830864 0.14252476 0.5398978 -0.015132616 0.017294168 -0.022015894
0.047179766 0.28290963 0.35989234 0.16518594 0.53770447 -1.0435332 0.14859632 -0.38450173
0.17284504 0.22227131 0.0714788 0.1308808 -0.30538863 0.0006106082 -0.047012027 0.119937904
00000000: 35bd 7dbd f99d b3bd ee17 753e fba7 f5be
00000010: d76b 493e c7a8 20bd f0ee 0d3e ed5a 2a3d
00000020: 65bc eebd fe4d c13b e501 36be 17c7 45bd
00000030: 3e8a 5f3e c4e2 5f3c c23b 4dbe 79a9 21be
00000040: 64c7 48be 9058 873e d165 3abe 1cbe 9ebd
00000050: 9cd4 0dbe 58f8 e6bc e39a fbbe fe2e 38bf
00000060: be04 973d c10b ad3e 7b3f 7bbe 0e94 c33d
00000070: 44eb d9be 9f13 793e 98e6 cf3e 7556 16be
00000080: 364f 13bf 95ef fbbc 41d0 8a3e 7803 6d3d
00000090: c02d 9cbd bcfc a3be 8fcf 1dbe eb3f f13c
000000a0: e8f3 1b3d 0933 ab3b ee0e cf3c d7e7 a2be
000000b0: d576 853e 5e46 5dbe ba86 83be fcca 17bd
000000c0: 1cdf 7abe 928f 0dbe eba0 97bc 4e5b f13d
000000d0: fb73 a6bc 2921 ec3c b936 d2bc f157 4d3e
000000e0: a0db b9bf c380 b3bd 172e 813e 0304 7abe
000000f0: 424e 31bf d8f9 20be 0b89 4bbc dc6b 0b3d
00000100: 6315 ccbc feb4 07bd b86d 05bf f3f6 453e
00000110: 53dc 99bf 6015 8cbe 3f9e 8abe 77fa d5be
00000120: adce 99be 6d14 263e 186c 303e 2331 18be
00000130: 8e17 943e 2c3c ca3e 5cf5 84bd fb25 fabe
00000140: 983c 473d 8abc 063e 972b e73c ccfb 2f3e
00000150: 962a 753d d2c9 da3d 1e09 a1bd df52 94bd
00000160: 4498 e8bd 63f3 26be e81f f1bd 6381 063e
00000170: eab4 8f3d 23eb ce3c e43f ef3c fd8f d63e
00000180: f680 f83d 688b 9dbe 9384 583e 4228 ba3d
00000190: 2b5f e4bd 3f30 d23e 8d5e 143d 8602 8d3e
000001a0: 4f09 c9bd 0010 273e 04a0 6f3d 2326 b1bc
000001b0: 4c2b 1e3e ae60 e3be df14 d2bc fe14 10bf
000001c0: 5352 0e3e 1e37 673e 21f5 f83e d917 19bf
000001d0: 9749 aa3e fa86 a5be 696c a73e 843e 55be
000001e0: 3595 98be 842e 0c3e 140b 88bd 3c27 13be
000001f0: 8e89 87bd 2d92 b03e e578 103e 28f2 9f3e
00000200: 6a0c 6d3e d182 e13d ec15 593d a6b9 de3c
00000210: 2bae b2bd eff1 8ebf 2252 59be 2aaa 1abe
00000220: a40f 67be c17e bb3e 0a19 09be 50aa d3bf
00000230: 366e c1be 0b27 1abd dcfd 793d 1940 5cbe
00000240: f831 603e a407 7c3e 6068 00bf a006 0fbe
00000250: 58e2 27bf 373e e5bc 1bf2 c53e 9e8a c63c
00000260: 0857 e1be 5905 463d ddc4 99be d77e 08bf
00000270: ef7a 0bbe 50bf ad3c de41 d33d de3d 11bf
00000280: c1ee 343e 9665 58be f066 1b3f e748 61be
00000290: 8236 ddbd 4592 b23e c890 6ebd c813 30bb
000002a0: 24f8 19be b556 343d 9e78 6ebd 800e a53e
000002b0: 61ac 72bd bf27 7f3d 42f2 be3e bfd2 48be
000002c0: fd3a a1bd 849c 88be c0b1 2abf 24a7 94bd
000002d0: 23a8 70be 6f1e af3e 9723 33be e02b 16bf
000002e0: a327 d2bd 21b2 f8bd d8e2 0fbd cd67 3fbd
000002f0: 5157 8cbe 1944 8a3c a126 ca3e 527d d53d
00000300: ad26 0fbc a5f2 163e 04d6 873d d693 07bd
00000310: d0cb 54be 8044 ff3d e69d fdbd c9a4 043d
00000320: 1a95 0e3e ae2c 9f3c dfff 2dbe 20ae 0e3c
00000330: e447 d2be 285a 19bd 69b2 34bd 283d d6bc
00000340: a354 a53e 943c d5bd ba94 b9bd bedd 1b3e
00000350: a3b6 283e 5d43 f23e b948 3e3e 67ea 013e
00000360: 26f3 4c3c cc48 4dbb 321a 9f3e 73d5 9d3c
00000370: 8110 ab3e 2a30 9bbc 7249 9b3d 4683 c5bd
00000380: 8db9 1c3e 76f4 05bf c0d2 d5be a771 d6be
00000390: ef1e b5be e5af af3d 5672 9f3e 6f5f 11be
000003a0: c3de 50bf 5421 18be 2e07 74be 03f2 113e
000003b0: be36 0a3f cbee 77bc 80ac 8d3c ad5a b4bc
000003c0: 923f 413d 88d9 903e cf43 b83e 8126 293e
000003d0: 00a7 093f 7f92 85bf a229 183e 69dd c4be
000003e0: 4afe 303e 179b 633e 7a63 923d 9e05 063e
000003f0: e65b 9cbe 3911 203a af8f 40bd 01a2 f53d

model.4.bias f4 [90]
0.0065292674 0.028289987 0.013424724 0.039937135 -0.047959335 0.057056297 0.012755353 -0.047563095
0.06786593 -0.054668512 0.04369062 0.0063836724 0.04678678 0.00542117 -0.034070615 -0.066581294
-0.062247146 -0.08453628 0.22546095 -0.077772304 -0.017313814 -0.06963837 0.008937131 -0.083987236
0.0555895 -0.031822108 -0.020379484 -0.045176476 -0.10247018 -0.06522955 0.04599809 0.0011572883
0.0046258606 0.12314339 -0.07631001 0.08413051 -0.03479603 0.08875013 -0.028225653 0.06251022
-0.057640973 -0.021933243 -0.039071202 -0.1163328 0.09248237 -0.050873876 0.025786942 0.00770375
-0.084827915 0.14920089 0.036839228 0.112332605 0.056831528 -0.09731706 -0.08958742 -0.010836133
0.11533024 0.077368364 -0.015464211 -0.036663596 0.054630645 -0.019584984 -0.020740673 -0.054997075
0.08594438 -0.0032469484 0.019363035 0.0344364 0.079382606 -0.072651215 -0.04949577 0.07665177
0.018423473 -0.06190178 -0.05078977 0.025152069 0.05122907 0.1158333 0.016717678 0.04299477
0.03273619 -0.06487287 0.11360918 0.057174113 0.13734451 0.057283163 0.115725465 -0.07432178
0.06546899 0.01973228
00000000: 77f3 d53b 67c0 e73c 60f3 5b3c 1f95 233d
00000010: 0271 44bd ddb3 693d d4fb 503c 85d1 42bd
00000020: 4bfd 8a3d 17ec 5fbd f0f4 323d 202e d13b
00000030: 7fa3 3f3d 12a4 b13b a18d 0bbd c65b 88bd
00000040: ddf6 7ebd 5b21 adbd 3cdf 663e 1647 9fbd
00000050: b3d5 8dbc 909e 8ebd 0b6d 123c 8001 acbd
00000060: d1b1 633d e657 02bd e0f2 a6bc f80a 39bd
00000070: e3db d1bd 1297 85bd 7e68 3c3d 27b0 973a
00000080: 8894 973b 9a32 fc3d 6c48 9cbd 9e4c ac3d
00000090: 4886 0ebd a1c2 b53d 7c39 e7bc 5c05 803d
000000a0: f118 6cbd 58ad b3bc 2009 20bd e43f eebd
000000b0: 6667 bd3d 2061 50bd 233f d33c bd6f fc3b
000000c0: 42ba adbd 1ec8 183e bbe4 163d a30e e63d
000000d0: 2dc8 683d 2b4e c7bd 9c79 b7bd 098a 31bc
000000e0: 4332 ec3d 4e73 9e3d 9a5d 7dbc 912c 16bd
000000f0: 62c4 5f3d b070 a0bc 58e8 a9bc 9d44 61bd
00000100: 9b03 b03d c1ca 54bb 3a9f 9e3c 2f0d 0d3d
00000110: 5993 a23d 29ca 94bd 14bc 4abd 9afb 9c3d
00000120: d3ec 963c b98c 7dbd ef08 50bd b60b ce3c
00000130: 93d5 513d 023a ed3d 83f3 883c 491b 303d
00000140: 6216 063d 11dc 84bd eeab e83d 672f 6a3d
00000150: 0aa4 0c3e c0a1 6a3d 7901 ed3d 0436 98bd
00000160: 9b14 863d 97a5 a13c

model.5.weight f4 [90]
0.69639194 0.82068324 0.85611886 0.99200547 0.67120147 0.8169031 0.80030626 0.8154536
0.72692454 1.0204983 0.9183056 0.91837794 0.6733375 0.9952367 0.74931353 0.70590836
0.90248466 0.8687027 0.83619064 0.88874626 0.89407617 0.8337971 1.0150243 1.0370255
1.1212225 0.70977676 1.0562286 0.9352232 0.96430326 0.82471263 0.98862815 0.803709
0.88932365 0.8868942 1.0199515 0.78983086 0.8189604 0.914976 0.9650406 0.86191356
0.89333326 0.88223493 0.98529214 0.8673914 1.1550441 0.9520341 1.0440384 1.0153521
1.0313091 0.83317316 0.7029762 0.9316287 0.8239487 0.74849355 1.0217241 0.6691967
0.9814495 0.7266287 0.84629536 0.8360483 0.7680273 1.1714697 0.7061474 0.93794316
1.1074455 0.9229256 0.87884814 0.6977799 0.8624912 1.1049325 1.0073588 1.041095
0.9265052 0.71328694 0.66073316 0.64776707 1.006381 0.9754096 0.87119484 1.0412128
0.97275317 0.92429584 0.92543876 0.9225459 0.84360015 1.1344929 0.8121143 0.9712249
0.76724726 0.74393874
00000000: be46 323f 4c18 523f 9b2a 5b3f 12f4 7d3f
00000010: dcd3 2b3f 9020 513f dfe0 4c3f 91c1 503f
00000020: ba17 3a3f b09f 823f 1316 6b3f d11a 6b3f
00000030: d95f 2c3f d5c7 7e3f 03d3 3f3f 69b6 343f
00000040: 3c09 673f 4d63 5e3f 9710 563f e084 633f
00000050: 2de2 643f ba73 553f 51ec 813f 40bd 843f
00000060: 3884 8f3f eeb3 353f 8032 873f ca6a 6f3f
00000070: 94dc 763f 5e20 533f bc16 7d3f dfbf 4d3f
00000080: b7aa 633f 800b 633f c58d 823f 5b32 4a3f
00000090: 64a7 513f de3b 6a3f e70c 773f 5ea6 5c3f
000000a0: 7db1 643f 26da 613f 1b3c 7c3f 5d0d 5e3f
000000b0: 7cd8 933f 82b8 733f 0da3 853f 0ff7 813f
000000c0: f001 843f d64a 553f 40f6 333f 387f 6e3f
000000d0: 4dee 523f 469d 3f3f dbc7 823f 7a50 2b3f
000000e0: 4640 7b3f 5704 3a3f d0a6 583f 4307 563f
000000f0: 709d 443f b8f2 953f 13c6 343f 0b1d 703f
00000100: c6c0 8d3f da44 6c3f 31fc 603f b4a1 323f
00000110: 39cc 5c3f 6e6e 8d3f 22f1 803f 9a42 853f
00000120: 722f 6d3f f999 363f cf25 293f 10d4 253f
00000130: 18d1 803f 72b4 793f a006 5f3f 7646 853f
00000140: 5a06 793f a79e 6c3f 8ee9 6c3f f82b 6c3f
00000150: 2ef6 573f 1037 913f b9e6 4f3f 32a2 783f
00000160: 516a 443f c572 3e3f

model.5.bias f4 [90]
-0.3177833 -0.54702055 -0.24437381 -0.6489722 -0.3732994 -0.55336535 -0.51650405 -0.3351118
-0.34542558 -0.4919098 -0.5578981 -0.2726721 -0.21959233 -0.6355254 -0.3443128 -0.5058869
-0.58417374 -0.5273571 -0.7337603 -0.72046906 -0.81050533 -0.5303018 -0.5043309 -0.4941558
-0.6556838 -0.63570106 -0.7242376 -0.4057495 -0.5407417 -0.6308096 -0.70700157 -0.31410503
-0.5369328 -0.3654987 -0.322347 -0.4964402 -0.623644 -0.601995 -0.27487513 -0.89464736
-1.1179407 -0.53189737 -0.39799002 -0.633543 -0.61176026 -0.6884903 -0.5888408 -0.24540122
-0.6777083 -0.7011471 -0.48891485 -0.44297487 -0.48232034 -0.38068005 -0.36511245 -0.4413764
-0.37324432 -0.38512325 -0.5040105 -0.5199731 -0.5335508 -0.4798756 -0.3950254 -0.38787675
-0.57689136 -0.15057576 -0.32665402 -0.29923666 -0.24344648 -0.6230814 -0.5921529 -0.6420414
-0.29628402 -0.39465353 -0.26639012 -0.15741451 -0.4515064 -0.61074555 -0.6171217 -0.48694655
-0.58532023 -0.3234084 -0.7447178 -0.92149043 -0.6109737 -0.51618123 -0.53925353 -0.6288373
0.04343266 -0.51354545
00000000: 7eb4 a2be 8a09 0cbf 213d 7abe 0b23 26bf
00000010: 1921 bfbe 5aa9 0dbf 9c39 04bf c693 abbe
00000020: 9fdb b0be 9adb fbbe 69d2 0ebf ad9b 8bbe
00000030: d0dc 60be cbb1 22bf c449 b0be ce81 01bf
00000040: 698c 15bf e000 07bf b7d7 3bbf a970 38bf
00000050: 477d 4fbf dcc1 07bf d41b 01bf fd01 fdbe
00000060: e5da 27bf 4ebd 22bf a367 39bf 66be cfbe
00000070: 0c6e 0abf bd7c 21bf 0efe 34bf 60d2 a0be
00000080: 6e74 09bf a522 bbbe aa0a a5be 692d febe
00000090: 22a7 1fbf 581c 1abf 6fbc 8cbe 9c07 65bf
000000a0: ae18 8fbf 6d2a 08bf 59c5 cbbe e02f 22bf
000000b0: 529c 1cbf e640 30bf 45be 16bf 754a 7bbe
000000c0: 4b7e 2dbf 607e 33bf 0c53 fabe 9acd e2be
000000d0: b1f2 f6be 7fe8 c2be 05f0 babe 16fc e1be
000000e0: e119 bfbe e02e c5be d506 01bf f51c 05bf
000000f0: c996 08bf 41b2 f5be c540 cabe c897 c6be
00000100: 27af 13bf 8830 1abe 323f a7be 8c35 99be
00000110: 094a 79be 4382 1fbf 5597 17bf d35c 24bf
00000120: 8ab2 97be 0710 cabe 4964 88be 4531 21be
00000130: d92b e7be d259 1cbf b0fb 1dbf 0f51 f9be
00000140: 8cd7 15bf c995 a5be d3a5 3ebf cce6 6bbf
00000150: c668 1cbf 7424 04bf 850c 0abf 7bfb 20bf
00000160: 72e6 313d b777 03bf

model.5.running_mean f4 [90]
-1.2678031 -1.2980859 -1.2120628 -0.9077564 -0.7785338 -0.63815486 -1.50095 -0.98415804
0.1868862 -1.0677961 -2.215267 -0.59460276 -0.030702407 -2.0224473 -1.4313177 -0.685998
-0.5142493 -0.86871016 -1.5593346 -0.90792805 0.15752889 -1.6043055 0.086109236 -2.2548614
0.012646348 -0.537602 0.5176599 -0.84534645 1.0955652 2.5285754 -2.2385833 -1.4250146
-1.3341885 -1.4283437 -1.4855727 -1.0754681 0.68884736 -1.6955123 -2.1662366 -0.9233821
1.0281341 -0.9987491 -1.5556829 -0.23240179 -0.7645348 -1.0997783 -1.3714007 -1.9159846
-2.0103412 -0.71021354 -0.63522124 -0.35661143 -0.11824012 -1.0493463 0.043531895 -0.7682873
-1.1775173 -0.48438996 -1.2131927 -0.88349134 -1.3798891 -0.7105141 -1.3830636 -1.673546
-1.725767 -1.9774141 -1.5384668 -0.7010173 -2.6816194 -1.7216567 0.00056063983 0.26331344
-1.0140471 -0.78758353 0.45804515 -1.0082021 -1.7613575 -1.4860902 -3.4721537 -2.3734772
-0.058866467 -1.3915052 -1.4156318 -0.90837866 -1.1954664 -0.38495913 -1.529744 0.08382836
-1.3483654 -0.4367477
00000000: 5f47 a2bf ae27 a6bf e024 9bbf b962 68bf
00000010: fe4d 47bf 1e5e 23bf 211f c0bf c8f1 7bbf
00000020: 195f 3f3e 8bad 88bf efc6 0dc0 e337 18bf
00000030: 9d83 fbbc c76f 01c0 6b35 b7bf 919d 2fbf
00000040: d8a5 03bf ca63 5ebf 4798 c7bf f96d 68bf
00000050: 414f 213e e259 cdbf 0a5a b03d a64f 10c0
00000060: a132 4f3c 49a0 09bf 5c85 043f a068 58bf
00000070: 7b3b 8c3f 2ed4 2140 f344 0fc0 e166 b6bf
00000080: b0c6 aabf f7d3 b6bf 3f27 bebf f0a8 89bf
00000090: 4d58 303f 8c06 d9bf 9fa3 0ac0 c562 6cbf
000000a0: e699 833f 05ae 7fbf 9e20 c7bf bcfa 6dbe
000000b0: 8db8 43bf 89c5 8cbf 0f8a afbf fc3e f5bf
000000c0: 6ea9 00c0 8ed0 35bf dc9d 22bf c695 b6be
000000d0: e027 f2bd fb50 86bf 804e 323d 7aae 44bf
000000e0: e3b8 96bf f601 f8be e649 9bbf 7d2c 62bf
000000f0: 35a0 b0bf 41e4 35bf 3a08 b1bf c136 d6bf
00000100: efe5 dcbf e81b fdbf 7bec c4bf df75 33bf
00000110: a79f 2bc0 3f5f dcbf e7f7 123a 05d1 863e
00000120: 4ccc 81bf 139f 49bf e584 ea3e c40c 81bf
00000130: 2a74 e1bf 3438 bebf c437 5ec0 0de7 17c0
00000140: f71d 71bd d81c b2bf 6c33 b5bf 818b 68bf
00000150: 0b05 99bf 5d19 c5be a7ce c3bf 34ae ab3d
00000160: 3d97 acbf 659d dfbe

model.5.running_var f4 [90]
3.0853248 2.380347 4.021438 3.1759884 1.4630718 1.851245 4.1557226 2.091907
2.112374 2.5655448 3.8628838 2.262771 2.7895024 2.0410922 2.9613118 1.3250471
2.485547 4.078936 1.3065113 2.7281773 1.64985 2.1348248 3.4083364 6.3885584
1.9175035 1.5931704 1.8940896 2.8186898 2.4061952 2.985389 2.796638 2.858468
1.1246225 3.0926895 5.1774 3.2764442 1.3008572 2.7617285 3.9096296 1.7415638
1.3844284 2.5047262 4.531179 2.1358562 2.7586045 4.0162477 3.360334 4.691164
4.8978553 2.1578205 1.6541593 3.0199883 2.6452298 2.2258048 3.1182923 1.717139
2.7231464 2.1077528 3.0076995 2.282994 2.9139383 5.331836 1.8706948 2.7248652
2.3368866 3.8516898 2.6964288 4.420749 3.0944934 3.0368261 2.80858 2.088333
3.3834822 1.6412224 2.3020964 3.8503258 2.7130177 3.082997 7.8001776 6.0290756
2.4557652 2.9351823 1.6817025 1.7855923 1.8373034 5.88693 1.9080316 2.6337104
4.225551 1.9807887
00000000: f675 4540 9b57 1840 9faf 8040 6543 4b40
00000010: f045 bb3f 99f5 ec3f aefb 8440 cee1 0540
00000020: 2331 0740 e331 2440 7d39 7740 3dd1 1040
00000030: 3587 3240 41a1 0240 2286 3d40 259b a93f
00000040: 3413 1f40 a586 8240 c33b a73f 759a 2e40
00000050: 492e d33f f8a0 0840 2f22 5a40 126f cc40
00000060: c170 f53f 02ed cb3f 8771 f23f 6a65 3440
00000070: 1aff 1940 9d10 3f40 1efc 3240 24f1 3640
00000080: a1f3 8f3f a0ee 4540 43ad a540 43b1 5140
00000090: 7d82 a63f 29c0 3040 5f37 7a40 90eb de3f
000000a0: f334 b13f 6f4d 2040 6bff 9040 deb1 0840
000000b0: fa8c 3040 1a85 8040 b60f 5740 041e 9640
000000c0: 3bbb 9c40 bb19 0a40 7ebb d33f 7d47 4140
000000d0: 724b 2940 9673 0e40 1a92 4740 36cb db3f
000000e0: 0848 2e40 6ce5 0640 267e 4040 931c 1240
000000f0: f77d 3a40 679e aa40 ed72 ef3f 3164 2e40
00000100: 8d8f 1540 1682 7640 4a92 2c40 c776 8d40
00000110: 2e0c 4640 5c5b 4240 c6bf 3340 3fa7 0540
00000120: f98a 5840 9313 d23f 8c55 1340 bd6b 7640
00000130: 15a2 2d40 d34f 4540 0e9b f940 30ee c040
00000140: 422b 1d40 07da 3b40 0742 d73f 4a8e e43f
00000150: c22c eb3f bb61 bc40 613a f43f b68e 2840
00000160: b737 8740 7c8a fd3f

model.8.weight f4 [41, 90]
-0.15345314 0.20206863 -0.40857694 -0.18763475 -0.06619397 -0.13077936 0.04637993 -0.187967
-0.029620819 -0.13354501 -0.41849273 -0.22318844 -0.072651654 -0.13044491 0.16656843 -0.029163443
-0.19781666 0.112412825 0.065673225 -0.2480509 -0.03732228 0.46097806 0.14840955 -0.39844954
0.3189621 -0.34289953 0.09062828 -0.6425818 -0.11842148 0.02620047 0.26287633 -0.080685176
0.18655792 0.08806809 -0.1605805 0.038295712 0.20708138 0.4566903 -1.0047227 0.0018352591
-0.10058895 0.20050177 0.16117504 0.028452978 -0.4919246 -1.025032 -0.09191774 -0.5197312
-1.0100933 -0.062426183 0.19600748 -0.3356662 0.19636737 0.10021112 0.563197 -0.044773117
-0.4071542 -0.05615192 0.07686593 -0.1122694 0.09470614 0.13694347 0.0051769586 -0.54763275
-1.083264 0.1582979 -0.36633062 -0.12528142 0.13915223 0.4518068 -0.18461315 -0.19040807
0.12041668 -0.06419271 -0.059001826 0.105985686 -0.43158162 -0.7201384 -0.88532877 -0.6326461
0.11731097 -0.6771602 -0.14006291 -0.8702521 -0.033168554 0.16067961 -0.023873694 -0.44982556
0.07314618 -0.005673134 0.3965298 0.09538668 0.103639245 -0.17014681 0.111689754 -0.19559112
0.029876605 -0.10076558 -0.21326074 0.23995025 0.011723798 -0.16354026 -0.37336004 0.074081674
-0.1331723 0.4479946 -0.016646896 0.16404377 -0.46544668 -0.6478521 0.07451162 0.10618442
0.16264081 0.031990685 0.12400627 -0.2554951 -0.061462574 0.013883493 0.13085324 -0.47320572
0.47764105 -0.00087704684 -0.115965374 -0.01818832 0.12085509 -0.45741236 -0.88423616 -0.156536
0.0054234713 -0.06976088 -0.5542425 0.2729977 -0.0019114552 -0.119967185 -0.42957726 -0.33875793
-0.27593073 0.17844696 0.5183986 -0.98611933 -0.618976 -0.2000382 0.28732896 -0.24495173
0.34552228 -0.5924242 -0.013540503 0.02699611 0.4297304 -0.77649933 -0.21352482 0.3361686
-0.056389086 0.09310227 0.07467724 -0.3346771 -0.047022697 -0.28087974 -0.1072572 -0.07783464
0.1266276 -0.16044502 0.3617398 -0.39849797 -0.21056066 0.06753005 0.27410653 0.112444796
-0.054479674 0.11245704 0.31720972 -0.0035688789 0.33281714 -0.33029002 -0.32315418 0.33344504
0.079757236 -0.6009927 0.07129342 -0.12658672 0.08922969 -0.09746138 0.12300234 -0.9051262
-0.17812647 0.40153196 0.059796717 -0.08050859 -0.050416257 -0.29677725 0.011735705 -0.0086126225
0.08218758 0.05746491 0.065792695 -0.061872102 -0.03597992 -0.1043284 0.32204336 0.1683082
0.08203117 0.33147654 -0.12830085 0.019118479 -0.12504022 0.08556535 0.24303457 -1.3182068
-0.1342004 0.02463375 -0.42229816 0.13914129 -0.06250337 0.11574487 -0.13982062 0.046872124
-0.10436132 0.3864451 -0.17528786 -0.23914617 -0.86945254 -0.5004612 -0.34285036 -0.12283883
0.211985 -0.52883875 -0.7280313 -0.040488627 -0.24863368 -0.27387807 0.055770315 -0.11160476
0.4137002 0.20579968 0.3810639 0.11912757 -0.19626412 -0.16052413 -0.015285074 0.10793944
0.1892945 -1.5254332 0.0033349728 0.21987325 -0.46026665 0.023023577 0.107723825 0.0448964
0.396746 0.589544 -0.054423794 0.20748389 -0.5559332 0.015506309 -0.02452261 0.027304286
00000000: d222 1dbe 14eb 4e3e ff30 d1be 5323 40be
00000010: b490 87bd 06eb 05be e2f8 3d3d 6c7a 40be
00000020: 5ca7 f2bc 06c0 08be ae44 d6be 838b 64be
00000030: 64ca 94bd 5a93 05be ea90 2a3e 2ce8 eebc
00000040: 7390 4abe b238 e63d af7f 863d 0e01 7ebe
00000050: 3fdf 18bd 5105 ec3e acf8 173e 9401 ccbe
00000060: 004f a33e 8790 afbe 529b b93d 3e80 24bf
00000070: f686 f2bd 5ea2 d63c ba97 863e 453e a5bd
00000080: 0a09 3f3e 0b5d b43d 376f 24be f7db 1c3d
00000090: 240d 543e 50d3 e93e c19a 80bf 148d f03a
000000a0: 9401 cebd 5650 4d3e 120b 253e 3816 e93c
000000b0: 8bdd fbbe 4034 83bf 5e3f bcbd 1b0d 05bf
000000c0: bd4a 81bf 99b2 7fbd 2fb6 483e 71dc abbe
000000d0: 8714 493e 7d3b cd3d ae2d 103f 0464 37bd
000000e0: 8476 d0be 8eff 65bd e26b 9d3d 80ed e5bd
000000f0: 4bf5 c13d e93a 0c3e 7aa3 a93b a931 0cbf
00000100: 65a8 8abf d818 223e b08f bbbe c649 00be
00000110: ec7d 0e3e 3953 e73e 3b0b 3dbe 55fa 42be
00000120: 059d f63d 7877 83bd e6ab 71bd 060f d93d
00000130: 44f8 dcbe fd5a 38bf e8a4 62bf 18f5 21bf
00000140: bc40 f03d 5f5a 2dbf a76c 0fbe d7c8 5ebf
00000150: c0db 07bd 3289 243e c492 c3bc 894f e6be
00000160: aacd 953d b2e5 b9bb f405 cb3e 175a c33d
00000170: d040 d43d f73a 2ebe 99bd e43d 0a49 48be
00000180: c8bf f43c 2f5e cebd 0661 5abe 85b5 753e
00000190: 2c15 403c 1977 27be 0c29 bfbe 22b8 973d
000001a0: 525e 08be 8c5f e53e 125f 88bc 17fb 273e
000001b0: 074f eebe a3d9 25bf 8c99 983d 3877 d93d
000001c0: 508b 263e aa08 033d 00f7 fd3d 41d0 82be
000001d0: 2ec0 7bbd 9777 633c 64fe 053e 0548 f2be
000001e0: 5e8d f43e 9ee9 65ba 417f edbd acff 94bc
000001f0: e082 f73d f431 eabe 4d5d 62bf f94a 20be
00000200: 60b7 b13b cbde 8ebd d6e2 0dbf 5bc6 8b3e
00000210: cb89 faba 5bb1 f5bd 8df1 dbbe ae71 adbe
00000220: cb46 8dbe cdba 363e c5b5 043f 5172 7cbf
00000230: 3675 1ebf d0d6 4cbe c81c 933e a0d4 7abe
00000240: 4ce8 b03e 1da9 17bf fcd8 5dbc f226 dd3c
00000250: 9f05 dc3e a9c8 46bf 40a6 5abe 4a1e ac3e
00000260: 3ef8 66bd 67ac be3d 61f0 983d cc5a abbe
00000270: df9a 40bd 78cf 8fbe aaa9 dbbd c567 9fbd
00000280: aaaa 013e b34b 24be f635 b93e ed07 ccbe
00000290: 379d 57be 324d 8a3d b157 8c3e 7549 e63d
000002a0: 1426 5fbd e04f e63d 5069 a23e dae3 69bb
000002b0: 0267 aa3e c61b a9be 7774 a5be 4fb9 aa3e
000002c0: c357 a33d a8da 19bf 4902 923d f39f 01be
000002d0: 0ebe b63d d599 c7bd a7e8 fb3d 5ab6 67bf
000002e0: c966 36be 9995 cd3e 67ed 743d b0e1 a4bd
000002f0: 4781 4ebd 30f3 97be 1d47 403c f51b 0dbc
00000300: f651 a83d 5360 6b3d 52be 863d 9a6d 7dbd
00000310: ae5f 13bd 21aa d5bd dee2 a43e fc58 2c3e
00000320: f5ff a73d 4bb7 a93e 4c61 03be 5b9e 9c3c
00000330: 8b0a 00be e33c af3d 0ede 783e 00bb a8bf
00000340: d46b 09be b8cc c93c 7737 d8be 0e7b 0e3e
00000350: c401 80bd a50b ed3d 232d 0fbe fcfc 3f3d
00000360: 63bb d5bd 22dc c53e a97e 33be bce2 74be
00000370: 7194 5ebf 3a1e 00bf 158a afbe ed92 fbbd
00000380: 9912 593e fa61 07bf 4260 3abf 67d7 25bd
00000390: d499 7ebe bf39 8cbe 6a6f 643d 0991 e4bd
000003a0: 83d0 d33e 27bd 523e cf1a c33e 28f9 f33d
000003b0: 76f9 48be 7060 24be 3f6e 7abc 5a0f dd3d
000003c0: 6bd6 413e 6541 c3bf 8f8f 5a3b 7426 613e
000003d0: 12a8 ebbe f19b bc3c 4f9e dc3d 4ae5 373d
000003e0: 4b22 cb3e 5bec 163f 7ceb 5ebd a876 543e
000003f0: a351 0ebf 2d0e 7e3c a4e3 c8bc 3dad df3c

model.8.bias f4 [41]
-0.013609689 -0.14845577 -0.044723537 0.052915737 0.08104221 -0.028012898 0.08003589 -0.26384684
-0.020575257 -0.13123482 0.031083414 0.10228778 -0.026279574 0.04280788 0.05989799 0.03914532
-0.050938163 -0.03222878 -0.023052 -0.049343046 -0.14358221 0.026059896 -0.051320225 -0.0082931025
-0.0088913515 0.04908029 0.057493895 0.09800818 0.14002539 0.014185243 0.044546977 0.00090956036
0.010730412 -0.052872714 0.08866417 0.18098019 -0.021534305 -0.027775215 -0.022803582 0.15407942
0.23317637
00000000: 2cfb 5ebc ca04 18be 0730 37bd 2cbe 583d
00000010: 75f9 a53d 4e7b e5bc dbe9 a33d ef16 87be
00000020: 718d a8bc 6c62 06be a5a2 fe3c 417c d13d
00000030: 4348 d7bc 5157 2f3d 9857 753d d856 203d
00000040: 89a4 50bd 5302 04bd 8cd7 bcbc ef1b 4abd
00000050: 3707 13be 907b d53c 2835 52bd cbdf 07bc
00000060: 08ad 11bc 6a08 493d b87e 6b3d 83b8 c83d
00000070: d162 0f3e 3969 683c e476 363d 906f 6e3a
00000080: 9cce 2f3c 0f91 58bd 8f95 b53d df52 393e
00000090: b668 b0bc d988 e3bc 94ce babc ffc6 1d3e
000000a0: c9c5 6e3e

model.9.weight f4 [41]
1.001309 1.1547331 1.0245309 1.3480737 1.1391274 1.1520842 1.176089 1.2970064
1.3239257 0.9440784 0.9519293 0.92637134 1.2401379 0.9496072 0.98272717 1.1308376
1.2395324 1.0312295 1.1643592 1.1489979 1.1086445 0.9792447 1.3074682 1.2720315
0.91649145 1.3057843 0.9962106 1.0386435 1.2184155 0.9429353 1.1873332 1.2339025
0.9847954 1.3047953 0.93158287 1.1674203 0.9865585 0.975186 0.978778 1.2062429
1.0267316
00000000: e52a 803f 4bce 933f d423 833f ae8d ac3f
00000010: edce 913f 7f77 933f 168a 963f 4e04 a63f
00000020: 6676 a93f 1faf 713f a3b1 733f ac26 6d3f
00000030: d7bc 9e3f 7519 733f 0294 7b3f 49bf 903f
00000040: ffa8 9e3f 54ff 833f b909 953f 5d12 933f
00000050: 10e8 8d3f c8af 7a3f 1e5b a73f eed1 a23f
00000060: 2f9f 6a3f f123 a73f a807 7f3f 45f2 843f
00000070: 0af5 9b3f 3564 713f 89fa 973f 84f0 9d3f
00000080: 8d1b 7c3f 8803 a73f 377c 6e3f 076e 953f
00000090: 198f 7c3f caa5 793f 3291 7a3f 2b66 9a3f
000000a0: f16b 833f

model.9.bias f4 [41]
-0.5363626 -0.07683153 -0.629287 -0.40477794 -0.6388305 -0.71694344 -0.5060016 -0.18620068
-0.7228595 -0.84520954 -0.47303924 -0.821112 -0.33903176 -0.551751 -0.3643217 -0.76512504
-0.28934717 -0.4537571 -0.82270664 -0.48995182 -0.89773905 -0.6700322 -0.66299933 -0.21178858
-0.8612301 -0.22966374 -0.5566769 -0.9333839 -0.74145794 -0.87308335 -0.6136902 -0.30759794
-0.7288138 -0.084040664 -0.6624981 -0.8799883 -0.647281 -0.4280133 -0.4938309 -0.8299192
-0.6104483
00000000: 0f4f 09bf d959 9dbd f418 21bf 0e3f cfbe
00000010: 658a 23bf 9b89 37bf 5289 01bf 64ab 3ebe
00000020: 520d 39bf a75f 58bf 3332 f2be 6534 52bf
00000030: 9295 adbe 8e3f 0dbf 6088 babe 3cdf 43bf
00000040: 5025 94be da52 e8be e79c 52bf f7da fabe
00000050: 3ad2 65bf 3b87 2bbf 53ba 29bf 1bdf 58be
00000060: 9379 5cbf f92c 6bbe 6182 0ebf 3ff2 6ebf
00000070: 30d0 3dbf 6482 5fbf cd1a 1dbf 7a7d 9dbe
00000080: 8b93 3abf 831d acbd 7a99 29bf ea46 61bf
00000090: 35b4 25bf 8f24 dbbe 67d7 fcbe 9675 54bf
000000a0: 5746 1cbf

model.9.running_mean f4 [41]
-1.4519409 -0.53386706 -0.8503634 -0.7382992 -0.27597773 -0.8591974 -0.51024354 -0.5072628
-0.8352611 -1.5319009 -1.2855046 -2.033379 -0.67702246 -1.2114435 -0.7285251 -0.46256834
-0.44470662 -1.4462037 -1.0021722 -0.43001902 -0.5937694 -0.92614454 -0.5194553 0.047470976
-1.3583845 -0.81795365 -0.33526686 -0.8776907 -0.28838202 -1.3828131 -0.65282834 -0.45528933
-0.2630371 -0.46650922 -1.4655484 -0.9457988 -1.3983383 -1.1377871 -0.5277963 -0.97294146
-1.2686594
00000000: 33d9 b9bf 83ab 08bf 6ab1 59bf 2d01 3dbf
00000010: f44c 8dbe 5cf4 5bbf 529f 02bf fadb 01bf
00000020: acd3 55bf 5415 c4bf 6a8b a4bf e222 02c0
00000030: 5851 2dbf 9510 9bbf 9f80 3abf c2d5 ecbe
00000040: 96b0 e3be 341d b9bf 2e47 80bf 742b dcbe
00000050: 4501 18bf cf17 6dbf 06fb 04bf ed70 423d
00000060: 8bdf adbf 6965 51bf 19a8 abbe 56b0 60bf
00000070: cfa6 93be 0500 b1bf c21f 27bf af1b e9be
00000080: ccac 86be 4cda eebe 1797 bbbf df1f 72bf
00000090: c0fc b2bf 02a3 91bf a91d 07bf b112 79bf
000000a0: 6e63 a2bf

model.9.running_var f4 [41]
1.3580699 0.90988195 1.193942 0.8795059 0.78380805 0.73934555 0.65146154 1.2513958
0.83520234 1.6991789 1.4709122 2.1881309 0.9175153 1.2482159 0.8664772 0.7226641
1.0806948 1.3885971 1.1899074 0.7109219 0.40633067 0.48243016 1.1776184 0.85343397
1.615098 1.270917 0.75265145 1.0186003 0.8981705 1.3564876 0.54333425 1.0751303
0.52823037 1.0330745 1.6865836 0.83589154 1.6095822 1.3961347 0.98538536 0.7908198
1.9110334
00000000: 3cd5 ad3f 06ee 683f 17d3 983f 4c27 613f
00000010: a5a7 483f c045 3d3f 2fc6 263f bd2d a03f
00000020: d2cf 553f b27e d93f da46 bc3f 560a 0c40
00000030: 48e2 6a3f 8ac5 9f3f 73d1 5d3f 8400 393f
00000040: 3554 8a3f 8dbd b13f e34e 983f fafe 353f
00000050: 930a d03e 1601 f73e 33bc 963f a67a 5a3f
00000060: 88bb ce3f 69ad a23f c4ad 403f 7f61 823f
00000070: 80ee 653f 63a1 ad3f f417 0b3f df9d 893f
00000080: 1b3a 073f c93b 843f f9e1 d73f fdfc 553f
00000090: ca06 ce3f 8bb4 b23f 3742 7c3f 2b73 4a3f
000000a0: be9c f43f

model.12.weight f4 [1, 41]
0.23946755 -0.317952 0.43827295 -0.43579078 -0.51461184 -0.58107376 -0.47062713 -0.43966705
-0.737419 0.6164885 0.23707262 0.47410452 -0.46222842 0.28669488 0.2550802 -0.6957577
-0.36283922 0.23770216 -0.70282674 -0.417117 -0.66911715 0.468683 -0.6983963 -0.36595875
0.7141437 -0.36719555 0.34497952 0.68516284 -0.61152613 0.59681684 -0.43696675 -0.3468594
0.48853832 -0.39786083 0.3103796 -1.0571676 0.35799074 0.2850519 0.2675229 -0.7858656
0.46543252
00000000: fb36 753e 9bca a2be 5065 e03e f81f dfbe
00000010: 9abd 03bf 40c1 14bf 0af6 f0be 0a1c e1be
00000020: 7ec7 3cbf 31d2 1d3f 2ac3 723e d4bd f23e
00000030: 34a9 ecbe acc9 923e df99 823e 2d1d 32bf
00000040: 10c6 b9be 3268 733e 74ec 33bf 5c90 d5be
00000050: 434b 2bbf 38f7 ef3e 1aca 32bf f25e bbbe
00000060: 1fd2 363f 0e01 bcbe 28a1 b03e d566 2f3f
00000070: fa8c 1cbf fdc8 183f 1bba dfbe 8e97 b1be
00000080: b221 fa3e 6ab4 cbbe 13ea 9e3e 4551 87bf
00000090: 904a b73e 53f2 913e c3f8 883e 7d2e 49bf
000000a0: 2c4d ee3e
