foundation_models/Ensemble_model8_DeepSurv_ANN_Event_2_20250804_180641.pt (torch, 57206 bytes, 25 tensors)

model.0.weight f4 [89, 11]
000000 29 03 c9 3d 30 9d 1f be 19 b0 0b 3f d6 4d 19 bb
       0.09815056 -0.15587306 0.5456558 -0.002339234
000010 be bc 20 3f 2c 08 8d be 2f 3a 6f 3e 85 b3 7c 3e
       0.62788 -0.27545297 0.23362039 0.24677856
000020 4f e9 31 3d 53 03 8e 3d 90 d2 70 be db 60 fc bd
       0.04343539 0.06934228 -0.23517823 -0.12323161
000030 94 fc 54 be d2 48 ad 3e 66 7b a6 3d 48 1d 50 be
       -0.20799476 0.3384462 0.08129005 -0.2032367
000040 65 1a 63 3e cb ee 88 be 11 19 c0 be 70 7a c1 bd
       0.22178037 -0.26744685 -0.37519124 -0.09447181
000050 2c 05 10 bd 56 25 df bd 32 a0 cb 3d 03 dc b8 bd
       -0.035161182 -0.10895793 0.09942664 -0.09026339
000060 4a 1d 0f bf a2 70 8e bd 5c df 40 3d ab 88 d9 3e
       -0.55904067 -0.06955077 0.047088012 0.42487082
000070 4d 70 bb 3e ff 98 dc 3d 88 ef 29 bd aa 92 73 bd
       0.36609116 0.10771369 -0.0414882 -0.05946604
000080 62 36 bf 3d dd 04 b7 bb af 5e 17 3e 5d 0f 0a 3f
       0.093365446 -0.0055852965 0.14782213 0.5392969
000090 82 cb 17 3d 4c 83 cb be d8 7b 98 3e 64 b1 4e be
       0.037059315 -0.3974861 0.29781985 -0.20184857
0000a0 29 ac 59 bd 1c 4f cf 3e 1a aa 4b bc e7 a8 64 be
       -0.0531427 0.40490043 -0.012430692 -0.22330056
0000b0 26 26 ee bd 9b 50 3f 3e b6 11 f0 be 81 85 85 be
       -0.1162837 0.18683092 -0.46888512 -0.26078418
0000c0 07 a8 d2 bd c0 e9 1d 3f 36 91 c8 3e 26 4d 5b bd
       -0.10285955 0.616848 0.39173287 -0.05354037
0000d0 c9 6c bd bc 12 b3 37 3e aa d6 88 3e de 98 7e bd
       -0.023123162 0.17939404 0.26726276 -0.062157504
0000e0 27 6d ef 3a 81 b0 d3 be 0b e7 3c 3e 6e 1c 32 3e
       0.0018266783 -0.413456 0.18447511 0.17393658
0000f0 24 b0 44 bf 83 c1 0c 3e 8b 63 38 be 4b 85 e5 bd
       -0.7683127 0.13745694 -0.18006723 -0.11207064
000100 e9 f0 9b 3d 9c cb 19 3e 97 a9 be bc 47 88 00 3e
       0.07614309 0.15019077 -0.023274226 0.12551986
000110 c9 1b a2 be 5c a1 1e 3e 26 5b 58 be 6e c4 70 be
       -0.31661823 0.15491241 -0.2112852 -0.23512432
000120 0c 82 e2 3e a8 32 2d 3e 24 44 4b be e0 ec 3f bd
       0.44239843 0.16913855 -0.19850212 -0.04685676
000130 ea bf bf 3e f1 5e 2f bd 6d 7b 36 3e d4 35 83 bd
       0.37451106 -0.042815153 0.1782052 -0.06406751
000140 a0 18 c9 be db ef c8 bd ce b4 cb bd 3f 8a 03 3e
       -0.392766 -0.09811374 -0.09946595 0.12845705
000150 13 78 1b 3c 18 8d a1 3d c5 22 f9 3d 24 57 52 be
       0.009489077 0.078882396 0.12164835 -0.20541054
000160 1b fd 04 be 4c 57 a3 3d 43 1e db 3d 1f ab 4d be
       -0.12987177 0.07975635 0.10699131 -0.20084809
000170 c2 04 a9 bd 06 1e 0e 3e 19 79 96 3e 89 cc c8 be
       -0.082528606 0.1387864 0.29389265 -0.39218548
000180 28 79 98 3d 1c 3f b0 bd 83 c2 42 be b8 bc c5 bc
       0.07444984 -0.08605787 -0.19019513 -0.02413784
000190 4d 84 f9 3b 3e e0 9a 3e c9 f2 0c be f4 0a 0c 3f
       0.0076146484 0.30249208 -0.1376449 0.54704213
0001a0 d8 84 6c bb 64 b4 b0 3d 93 2b 0f bd 4d 14 4e bd
       -0.0036089923 0.08628157 -0.034953665 -0.05031233
0001b0 40 1e 80 3d 3b e4 cb bc bc cc dc bc 3a a1 2e 3e
       0.0625577 -0.024889102 -0.026953094 0.1705369
0001c0 65 04 94 3b fe 79 9e bd ed e9 4b bc 24 81 da be
       0.0045171254 -0.07738112 -0.012445909 -0.4267665
0001d0 92 37 77 3e d8 f1 04 be 06 a6 a2 3e 6e 68 1d be
       0.24142292 -0.12982881 0.3176729 -0.15371868
0001e0 6e 9a f3 be 11 d5 a9 3d b8 fe ab be 82 60 17 be
       -0.47578758 0.08292592 -0.33592772 -0.14782909
0001f0 5c 39 51 3c 2f c7 b3 3d dc 00 c4 3e f6 7c 9b 3d
       0.012770023 0.08778226 0.38281906 0.07592194
000200 8d 3a c7 bd 17 dc 20 3d 52 7a 0f be 3d b0 3c be
       -0.097279646 0.039272394 -0.14011505 -0.18426605
000210 c1 5d 07 3b f1 5f 2f 3c 9d 2c 96 bd a7 9a 93 bc
       0.0020655247 0.010704027 -0.07332728 -0.01801808
000220 96 23 9a bd 7e af 46 3f aa 21 e5 bd aa 1a 8a bc
       -0.07526319 0.7761153 -0.111880615 -0.016858418
000230 29 45 b6 bb 0f 08 78 ba a3 94 2d 3d 9b 5c 8f 3d
       -0.0055624438 -0.000946165 0.04237808 0.07000085
000240 65 a5 1d 3e 29 db 43 be cf 8b 2a 3e a1 bf b1 3e
       0.15395124 -0.19126572 0.16654895 0.34716514
000250 cf 4b 8f 3c d9 c8 67 3c b9 9f 0a be 88 d6 ea bc
       0.017492203 0.014147007 -0.13537492 -0.02866675
000260 48 65 ba bd 60 93 a3 be 3f 1b ab 3d d5 46 62 bd
       -0.09101349 -0.31948376 0.08354806 -0.055243332
000270 79 8c 8b 3e ac 5a 5d 3d 9a c9 a2 3d c5 dc 4d 3f
       0.2725561 0.05404155 0.07948609 0.8041499
000280 14 50 c7 3d 92 f6 d6 bd 1a e2 67 be 47 5d 95 3d
       0.097320706 -0.10496248 -0.22644845 0.07293182
000290 31 26 bd 3d ea b8 5b 3e 1f 25 4a 3e e8 ef c8 3e
       0.092358 0.21457258 0.19740723 0.39245534
0002a0 c0 95 ad 3e a2 af ab bd 7e f1 e3 3e 74 93 3f be
       0.33903313 -0.08383109 0.4452018 -0.18708593
0002b0 4d 7f 59 be 3b 1f 94 be f7 97 b7 3d 42 50 51 be
       -0.21239968 -0.28930077 0.08964532 -0.20440772
0002c0 cd 44 49 3e 66 51 2b be c1 b5 cc 3e 9f d9 af 3d
       0.19655152 -0.1673027 0.39982417 0.0858643
0002d0 fb f2 f8 3e 0c 58 d5 be c0 cf 8d 3e de 2d a3 3d
       0.4862288 -0.41668737 0.27697563 0.07967733
0002e0 ff c3 50 be d3 71 3b 3e a7 d6 7e 3e 2c 99 5e bd
       -0.20387267 0.18305139 0.24886571 -0.054345295
0002f0 ac a9 58 be 9f 10 ee 3e 28 96 6b 3e 1d 54 3e bd
       -0.21158475 0.46497056 0.23006499 -0.046466935
000300 d9 2d b4 bd f9 a7 86 3e 16 a9 30 bd b0 02 9a bd
       -0.08797807 0.26300028 -0.043130003 -0.07520044
000310 6a 02 03 be ad d5 c9 3e 5d 1f 41 bd 99 e5 3e 3d
       -0.1279389 0.39420834 -0.04714905 0.04660568
000320 f3 ce f6 be e1 13 5a 3c e8 60 07 3f ec c9 0b be
       -0.48204765 0.013310404 0.5288224 -0.13651246
000330 c1 21 73 be ac aa 9b bb 30 e5 9c bd 5c 2e d1 3d
       -0.23743345 -0.0047505703 -0.076609015 0.102139205
000340 be 76 30 3c 4e 3a cc bd 89 08 83 be cf e8 07 3e
       0.010770498 -0.09972058 -0.2559245 0.13272403
000350 dd e9 3f 3e d8 67 79 bd b3 01 86 bf cc 8d cd be
       0.18741556 -0.06089005 -1.0469269 -0.40147245
000360 10 7c b7 bd 70 c7 00 3d 13 7a ba bd b5 79 39 3c
       -0.0895921 0.0314402 -0.09105315 0.011320521
000370 0e 65 95 bd 0b be 82 3e 6d fb 11 bf 08 88 54 3e
       -0.07294665 0.25535616 -0.5702427 0.20755017
000380 d3 e4 2b 3e af 56 03 3f 17 b6 9b 3d 31 09 3d 3d
       0.16786508 0.51304144 0.0760309 0.046151344
000390 49 34 82 bd 8f 08 86 be a0 68 17 3e 0e 09 d9 bd
       -0.06357629 -0.26178405 0.14786005 -0.1059743
0003a0 72 f9 91 be 99 ca c9 be de a9 b5 3e 16 db ed 3d
       -0.28510624 -0.39412382 0.3548116 0.11614053
0003b0 40 d0 36 3e 37 1f 5e 3e 31 22 c6 be 5e b7 11 3e
       0.17852879 0.21691595 -0.3869796 0.14230105
0003c0 89 f0 8e be 57 c5 81 3e 1a 7e bf bd 31 30 6f 3e
       -0.2791789 0.2534587 -0.09350224 0.23358227
0003d0 9a e2 3d 3e de af 05 39 1d 31 7f 3d 12 50 4b 3e
       0.18543473 0.00012749384 0.062302697 0.19854763
0003e0 9b e1 9f be fd 6a b3 be 0b 54 95 bc 17 83 26 3c
       -0.3122681 -0.35042563 -0.018228551 0.01016309
0003f0 8a 24 d4 bd 19 40 1c 3e a3 17 77 be b6 e6 0c bf
       -0.10358532 0.15258826 -0.2413011 -0.55039537

model.0.bias f4 [89]
000000 b4 9b 49 be 1f 29 d2 3d b2 66 46 be 1a 4c aa 3d
       -0.19688302 0.102617495 -0.19375113 0.083152965
000010 5a 70 6a 3e 7e ff 50 3d 1f 00 7e be 90 07 8e bd
       0.22894421 0.051024906 -0.24804734 -0.06935036
000020 2d c9 55 bd 49 4d cd 3d b2 6b 86 be e6 5a c9 bd
       -0.05219381 0.100245066 -0.2625404 -0.098317906
000030 2b a6 d0 3d 70 3c da bd 45 78 06 be 50 84 56 b9
       0.10187944 -0.10656059 -0.13131817 -0.0002045792
000040 99 a7 68 3e b7 5f c0 bd 44 ee 35 bd 27 66 c5 3d
       0.22720183 -0.09393256 -0.04441668 0.09638625
000050 df e7 36 bd bf 59 22 be 6d 5a 36 3e e3 eb 30 3d
       -0.044654723 -0.15854548 0.17807932 0.04319371
000060 ae 13 15 bc 0f ee d7 bb 17 54 a7 3e 84 cd 87 3e
       -0.00909893 -0.006589658 0.32681343 0.26523983
000070 ff c0 39 bd c6 12 a3 bd 45 0e e8 bd ec 0a ff bd
       -0.04535007 -0.07962565 -0.11330847 -0.12453255
000080 8b b8 9b 3e 0b a6 51 3e d2 9b 1a 3d 2e f8 70 be
       0.30414233 0.20473497 0.037746258 -0.23532173
000090 fb b5 e1 3d 80 64 ba 3d 49 96 c3 bd 45 84 9c 3e
       0.11021038 0.091012 -0.09550149 0.30569664
0000a0 b1 8a c7 b9 6b cd a6 3e ae 17 82 bd 23 e8 84 3d
       -0.0003805957 0.32578596 -0.06352173 0.06489589
0000b0 a6 10 0f be 48 80 55 be 1c 3c 8b bd 0b c6 6e be
       -0.13971195 -0.20849717 -0.06798574 -0.23317735
0000c0 fc 9e 7e bd cd 2e 96 bd e0 51 a0 bd 45 dd cb bd
       -0.062163338 -0.07333145 -0.078281164 -0.09954313
0000d0 ed 07 62 3e c6 93 33 3e a8 5e 03 3e 80 03 9a be
       0.22073336 0.1753684 0.12829077 -0.30080795
0000e0 d7 be 06 3e 24 0f ba bd c6 43 81 3e 2a b0 47 3e
       0.13158737 -0.09084919 0.2524702 0.19500795
0000f0 a5 87 28 be c7 77 26 3d 11 5a 92 bd 28 53 8f 3e
       -0.16457994 0.040641572 -0.07146085 0.2799313
000100 c1 61 31 be d5 6d db be 7d b1 d0 3d 69 a9 86 3e
       -0.17322446 -0.42857233 0.10190103 0.26301125
000110 d1 f6 a8 be 82 8b 21 be 39 ee fa bc a3 da 10 3e
       -0.33000806 -0.15775874 -0.030631172 0.14145903
000120 bb 61 20 be 49 96 0f be 41 a2 46 3d 41 b1 49 3d
       -0.15662281 -0.14022173 0.04849458 0.049241308
000130 ef 5c 1e 3e e7 59 54 be 1d 9c 9d bd c0 b9 5f be
       0.15465139 -0.2073742 -0.07695792 -0.21848202
000140 c3 23 82 bc 18 d3 e4 3d 8d 18 09 be ce e8 6c be
       -0.015886193 0.111730754 -0.13388272 -0.23135683
000150 18 f3 04 be eb 8b 6d be 72 6c fd bd 77 5b a7 3e
       -0.12983358 -0.23197906 -0.123742 0.3268697
000160 43 3b 9f bd
       -0.07774975

model.1.weight f4 [89]
000000 60 17 66 3f 91 cd 76 3f 90 31 7b 3f 18 89 85 3f
       0.8987942 0.9640742 0.981225 1.0432463
000010 40 bd 7f 3f 06 4e 4d 3f 4f c8 79 3f 94 a5 51 3f
       0.9989815 0.8019718 0.9757127 0.8189328
000020 a6 db 75 3f 26 27 8c 3f 27 b1 67 3f 4a 2c 78 3f
       0.9603828 1.0949447 0.9050469 0.9694258
000030 e6 a2 87 3f 1d ae 77 3f db 83 78 3f 66 46 74 3f
       1.0596588 0.9675005 0.97076195 0.9541992
000040 a2 19 66 3f 97 5e 6e 3f 36 75 7d 3f c8 e4 48 3f
       0.8988286 0.9311308 0.99006975 0.7847409
000050 23 61 64 3f 86 61 4a 3f a4 7c 8c 3f 10 57 62 3f
       0.8921072 0.7905506 1.0975537 0.88414097
000060 3c 83 71 3f 3c 6a 68 3f d2 b2 53 3f 14 d7 80 3f
       0.9434087 0.907871 0.82694733 1.0065637
000070 22 46 6a 3f 9f 73 68 3f a5 d7 7a 3f 81 22 63 3f
       0.91513264 0.90801424 0.979853 0.88724524
000080 2c 74 78 3f a8 58 60 3f 1f 3c 66 3f 8d e1 76 3f
       0.97052264 0.8763528 0.8993549 0.96437913
000090 78 51 8a 3f fd 81 80 3f d2 79 6c 3f 55 9f 7f 3f
       1.0806112 1.0039669 0.92373383 0.99852496
0000a0 05 77 83 3f f1 48 56 3f 9c c3 7e 3f ef 24 71 3f
       1.0270697 0.8370505 0.99517226 0.9419698
0000b0 db 77 6c 3f dd 9f 73 3f 65 06 31 3f c9 17 88 3f
       0.92370385 0.95165807 0.6915038 1.0632259
0000c0 1c 1d 67 3f 14 66 6f 3f be 74 6d 3f ff 73 76 3f
       0.9027879 0.93515134 0.9275626 0.96270746
0000d0 c3 19 75 3f 6f e1 7d 3f c0 f0 65 3f 6b a7 69 3f
       0.95742434 0.9917211 0.8982048 0.91271085
0000e0 04 84 7d 3f 0e 33 79 3f f0 d3 69 3f 47 9a 85 3f
       0.99029565 0.9734353 0.91339016 1.0437707
0000f0 aa 73 5f 3f c9 98 6b 3f 2e 50 69 3f 8a 68 78 3f
       0.87285864 0.92030007 0.9113797 0.97034514
000100 24 b2 3e 3f be 81 8d 3f e7 c6 68 3f 41 6d 74 3f
       0.7449057 1.1055219 0.909285 0.9547921
000110 cf 08 7d 3f 96 fa 7a 3f 77 ec 5a 3f 84 b0 63 3f
       0.98841566 0.98038614 0.85517067 0.88941216
000120 7c 2c 3d 3f e1 dc 67 3f 85 83 65 3f 58 ae 59 3f
       0.73896 0.9057141 0.8965381 0.8503165
000130 9a bb 7b 3f cc e7 87 3f c8 b6 7a 3f 7f 7d 65 3f
       0.9833313 1.0617614 0.9793515 0.89644617
000140 ec fd 58 3f 70 0e 62 3f 6f b4 72 3f 57 5f 7b 3f
       0.84762454 0.8830328 0.9480657 0.9819235
000150 1c 5b 71 3f bb 71 80 3f 5d 5c 88 3f 8a 4e 74 3f
       0.94279647 1.0034708 1.0653187 0.9543234
000160 51 96 91 3f
       1.1373998

model.1.bias f4 [89]
000000 d0 e1 8e be a7 eb b1 be c2 e7 3e be dc 92 00 bf
       -0.27906656 -0.347501 -0.18643096 -0.5022409
000010 d2 06 e0 be 80 c8 1e be 44 5d b0 be 87 a8 81 be
       -0.43755203 -0.15506172 -0.34446156 -0.2532389
000020 99 23 80 be 24 d8 03 be c3 b8 c2 be 4d eb 8a be
       -0.2502716 -0.1287542 -0.38031587 -0.27132645
000030 40 c6 ca be 82 ff a8 be d6 93 26 be 2a f4 dd be
       -0.39604378 -0.33007437 -0.16267332 -0.43350345
000040 a6 e0 12 be 57 a7 3c be 55 b0 ba be 79 82 69 be
       -0.14343509 -0.1842321 -0.36462656 -0.22803678
000050 fd 22 5f be 67 71 ba be ef 60 12 be 7c 1e af be
       -0.2179069 -0.36414644 -0.1429479 -0.34202945
000060 ad 8b b5 be f3 7a 66 be 07 83 e8 bd e8 9d eb be
       -0.35458127 -0.22507839 -0.113531165 -0.4601891
000070 3b 9c b9 be 27 47 4d bd 4a 36 bb be 6a 18 88 be
       -0.36252007 -0.050116684 -0.36564857 -0.26581126
000080 f6 a4 e1 be 85 f9 2c be 48 1c d4 be 34 d4 d9 be
       -0.44071168 -0.16892059 -0.41427827 -0.4254471
000090 36 ce db be 11 b5 fc be 69 84 a1 be 31 5f bb be
       -0.42930764 -0.49356893 -0.31546333 -0.36596063
0000a0 51 95 fe be 30 e3 4f be ec b0 06 bf 64 4f b1 be
       -0.49723294 -0.20301509 -0.5261371 -0.34630883
0000b0 c0 7d 7b be d4 ae 6b be 5a 97 2b be d5 1e b0 be
       -0.24559689 -0.2301591 -0.16756955 -0.34398523
0000c0 c4 39 87 be 80 44 70 be 77 a1 d6 be e0 6b 05 bf
       -0.2641126 -0.2346363 -0.41920063 -0.5211773
0000d0 f4 72 a7 be 0a 8e b1 be fb 61 3c be 66 41 a5 be
       -0.3270489 -0.3467868 -0.18396752 -0.32276458
0000e0 31 25 e7 be a6 90 fd be 11 6f 98 be 18 77 b8 be
       -0.45145562 -0.4952442 -0.29772237 -0.3602836
0000f0 08 43 7e be de 93 90 be 30 97 56 be 2b 31 29 be
       -0.24830258 -0.28237814 -0.20956111 -0.16522662
000100 c2 0e 1f be 2d 14 79 be 2d d5 96 be 6d ec 9c be
       -0.15532973 -0.24324103 -0.29459515 -0.3064913
000110 df ad 5a be 83 a2 a1 be 71 d7 af be 26 14 4b be
       -0.21355389 -0.315693 -0.34344056 -0.19831905
000120 33 55 91 be aa 47 83 be de f0 55 be 2e 50 41 be
       -0.28385314 -0.25640613 -0.20892665 -0.18878242
000130 71 19 cd be 7a 56 93 be eb b5 ac be bf 8b c2 be
       -0.40058473 -0.28776914 -0.33732542 -0.37997243
000140 9b 25 cf be c8 7c 82 be e7 2f e0 be 14 80 03 bf
       -0.40458378 -0.25485826 -0.43786547 -0.51367307
000150 b4 fd 93 be a3 71 dc be 9e 5b bf be 17 f2 a4 be
       -0.28904498 -0.43055448 -0.37374586 -0.3221595
000160 c0 a2 9b be
       -0.30397606

model.1.running_mean f4 [89]
000000 9a 7b db 3f e7 f4 75 c0 dd 81 96 3f 3e 32 91 3e
       1.7147095 -3.8430727 1.1758381 0.28358644
000010 a6 0f 1a 40 81 c4 4d bf a6 83 14 40 10 c4 9d 3f
       2.407205 -0.80377966 2.3205352 1.2325459
000020 3c a1 19 bf a0 2d 3b 3f 1e 47 2a 3f 75 dd f0 bf
       -0.6001165 0.73116493 0.66514766 -1.8817583
000030 a2 d2 61 bd df 0b 1d 3d d8 6b 07 be 3f 01 10 bf
       -0.055132516 0.0383414 -0.13224733 -0.562519
000040 47 7d 9c 3f 22 e1 96 be c3 14 30 bf 76 4e 66 c0
       1.2225732 -0.29468638 -0.6878168 -3.5985389
000050 17 0b ca 3f f8 d5 2e c0 4b 5a b4 bf e6 2a d1 be
       1.5784634 -2.7318096 -1.4090055 -0.4085304
000060 d6 1c da 3f cb 48 b5 be 2a 0d f1 bf a2 6f ea bf
       1.704005 -0.354071 -1.8832142 -1.8315318
000070 35 fc dc be bf e9 39 bf f1 fe 71 bf 14 57 86 3e
       -0.4316117 -0.72622293 -0.94529635 0.2623831
000080 d6 43 bf 3f 1c 52 88 3e a0 65 3f c0 a2 1b ae 3f
       1.4942577 0.26625144 -2.9905777 1.3602183
000090 d3 9f 83 bf 21 5d 17 40 b1 b1 48 3e cb 3e d7 bf
       -1.028315 2.3650591 0.19599034 -1.6816038
0000a0 5a f4 5c bf 72 ed f5 be 48 f8 0c 3f 93 c0 9a bf
       -0.8631035 -0.4803272 0.5506635 -1.2090019
0000b0 db 38 09 bf 02 a6 54 3f 8c 7a 16 3f cc d4 ed bf
       -0.5360238 0.8306581 0.5878074 -1.8580565
0000c0 f5 19 01 c0 c4 b8 51 bf 3d b4 ed bf 93 6c 01 c0
       -2.0172093 -0.81922555 -1.8570629 -2.0222518
0000d0 f8 d3 9d bf c0 44 c1 bf 4c ed 97 3f 05 ec 01 3f
       -1.2330313 -1.5099106 1.1869292 0.5075076
0000e0 0e 2a c6 3f c2 f2 d4 bf 3b bb c6 3f 57 bd 17 c0
       1.5481584 -1.6636584 1.5525888 -2.3709314
0000f0 6c 59 7c 3f 22 6f 6a be ab 94 69 bf e9 58 2d 3f
       0.98573947 -0.22893956 -0.91242474 0.6771379
000100 7a ea d2 3f 26 47 6c c0 ac f5 49 bf 0d 51 b6 3f
       1.6477807 -3.6918426 -0.7889049 1.4243485
000110 ab b7 6d be c5 c3 a6 3e 4b c0 b1 be d4 69 85 bf
       -0.23214595 0.32571235 -0.3471702 -1.0422921
000120 60 6c 40 bf fe e0 a1 be e4 24 95 be 69 78 b8 bf
       -0.7516537 -0.31616968 -0.29129708 -1.4411746
000130 1e db 3c 40 57 1e af 3c 5e 19 08 40 59 ac 63 bf
       2.9508739 0.021376772 2.1265483 -0.88934857
000140 b5 95 9d be b9 c6 1a 3f 13 c9 95 bf 6c 10 64 3f
       -0.3077828 0.60459477 -1.1701988 0.8908756
000150 a2 44 82 bf d2 e5 0e 3f 0a 94 9a 3f 9d b2 fb bf
       -1.0177195 0.5581943 1.2076428 -1.9663883
000160 e6 f9 38 bf
       -0.72256315

model.1.running_var f4 [89]
000000 12 fc a8 3c ab c5 6e 3d 9f 9a d1 3b 40 7a 48 3c
       0.020628009 0.05829398 0.006396606 0.012236178
000010 47 67 bd 3c 6d a1 73 3c 4d 52 fe 3c 0c 51 56 3c
       0.023120536 0.01487003 0.031045103 0.0130808465
000020 5e c7 18 3d 38 0e 22 3c 17 ab ba 3c 6b a5 45 3d
       0.037299506 0.009891085 0.02278666 0.048253458
000030 d7 48 2d 3b 04 5f 7d 3c c3 0e 8a 3c 5a 6a 0d 3d
       0.002644112 0.015464548 0.016852742 0.034525253
000040 71 6c 01 3d de b0 04 3d de 9b 84 3c b6 18 d6 3c
       0.03159756 0.032395236 0.016187605 0.02613483
000050 08 cc 41 3d 54 63 c1 3d e8 d9 57 3c b7 df a0 3c
       0.04731372 0.094427735 0.0131745115 0.019637926
000060 a9 11 ba 3c 0e 3a 0a 3d 9b df 46 3c 48 b1 83 3d
       0.0227135 0.03374677 0.012138273 0.06430298
000070 23 1e 9b 3c 40 dc 4b 3c df 42 a0 3c 9a a4 96 3c
       0.018935269 0.012442648 0.019563137 0.018389035
000080 08 9f b3 3c 60 6d 19 3d 10 b4 d9 3c 7e d8 54 3c
       0.021926418 0.037457824 0.026575118 0.012991069
000090 a5 48 31 3c b5 12 50 3c 3d 99 ea 3c ff e2 35 3c
       0.010820542 0.012699773 0.028637523 0.011101483
0000a0 dc a2 19 3c 89 48 ce 3c e3 46 d1 3c e4 39 d5 3c
       0.009377208 0.025181072 0.025546497 0.026028581
0000b0 0b 06 b1 3c a4 39 3b 3c 6a 8e 5d 3c 60 e4 0f 3d
       0.021609327 0.011427317 0.013522724 0.035129905
0000c0 d2 8e 11 3d 3f d8 ee 3c db 4a 2e 3c 97 49 a0 3c
       0.035536595 0.029155849 0.010637964 0.01956634
0000d0 5c 8b 02 3d b0 48 bf 3c 06 fe 4d 3d 01 dd ab 3c
       0.031871185 0.02335009 0.050291084 0.020979406
0000e0 29 26 a6 3c 85 2f 53 3c c8 a2 dd 3b 60 35 c0 3d
       0.020281868 0.0128897475 0.00676379 0.093851805
0000f0 f5 c6 0a 3d a3 b0 27 3c fb cc 5a 3c bf bd 0f 3c
       0.033881146 0.010234985 0.013354535 0.008773266
000100 79 08 6b 3d be b5 c8 3c 6d f6 0f 3d 1f 81 89 3c
       0.057381127 0.024500724 0.03514712 0.016785203
000110 d1 00 c6 3c 81 13 d0 3c 7f 70 51 3c 25 f2 01 3d
       0.024170311 0.025399925 0.012783169 0.031725068
000120 ad d8 55 3c b0 94 29 3c 1a 6a e2 3c ab ba 9e 3c
       0.013052148 0.010350391 0.027638484 0.01937612
000130 cf d8 6b 3c 25 4e fd 3b 69 e1 4b 3c e1 0d e6 3c
       0.014394953 0.007730263 0.012443879 0.02808279
000140 a3 55 e0 3c f2 7e e8 3c ab 5b 92 3c dd 9a 49 3c
       0.027384585 0.028380845 0.017865976 0.012304989
000150 15 4a 1d 3c 8f 51 9c 3c c0 11 73 3c 6e 7f 13 3c
       0.009600182 0.019081859 0.014835775 0.00900255
000160 9d 55 b5 3c
       0.02213555

model.4.weight f4 [72, 89]
000000 01 ae 7a bd 8e 87 06 be 86 21 30 3e 0e 4a 20 bd
       -0.0612011 -0.13137648 0.17200288 -0.039133124
000010 3e ad a0 bd 8b fa d0 bb 6a de a7 bd e2 51 e1 bd
       -0.07845543 -0.0063775233 -0.08196719 -0.11001946
000020 fc 88 1d 3e 28 c4 60 bd 9d a7 bc bd 30 3e 84 bb
       0.15384287 -0.05487457 -0.09211657 -0.0040357336
000030 12 af 3a be 50 67 d0 bb 0b 08 05 3e bf ab 15 bd
       -0.18230847 -0.006359972 0.1299135 -0.036540743
000040 6b 5a 39 3d e4 18 14 bd b8 91 2d bd 55 fd a1 bd
       0.045252245 -0.03615655 -0.042375296 -0.079096474
000050 b0 76 47 bc 48 b9 ce 3d e4 60 19 3e 1b f9 83 bd
       -0.012174293 0.10093933 0.14978367 -0.064439975
000060 ea ed d6 3d c9 a7 a7 3a d5 44 31 be a4 ac d6 3d
       0.10494597 0.0012791093 -0.17311414 0.10482147
000070 0f 7e 72 bd 84 eb d3 bd 7c e6 21 3c ee 76 08 be
       -0.05920225 -0.103476554 0.009881612 -0.13326618
000080 83 22 1c bc 0a 08 e0 bc 60 fb ce bd 09 79 48 bd
       -0.009529713 -0.027347583 -0.1010654 -0.048943553
000090 27 79 12 bd 01 3a 10 be 03 cf 6a bc 76 48 d6 bd
       -0.03576007 -0.14084627 -0.014331582 -0.104630396
0000a0 5f 2d 39 3e bc 53 aa bd 4c 06 01 3d 4b 9f f8 bd
       0.18083714 -0.08316752 0.031500146 -0.12139758
0000b0 0e d0 8a be 61 23 88 bd 0c b4 aa bc ba f0 d6 bd
       -0.27111858 -0.06647373 -0.020837806 -0.10495134
0000c0 d4 e3 39 be 26 bb f0 bc d0 70 8d bd b8 77 42 3d
       -0.18153316 -0.029386114 -0.06906283 0.047477454
0000d0 95 89 dd 3c 5c 26 47 be b4 41 36 3d 6f a0 76 bd
       0.027043143 -0.19448227 0.044496253 -0.060211595
0000e0 d5 4d 42 3c 59 19 5a 3d 88 6d 05 bd e5 e5 38 3d
       0.011859377 0.05324683 -0.03257516 0.04514112
0000f0 e1 e9 07 3e 6e 1b 1c be 90 3b c6 be 94 0f 0b bd
       0.13272811 -0.15244839 -0.38717318 -0.033950403
000100 f8 c3 63 bc c7 0e 75 3b 3e 5b 30 3d 3d 31 5f 3d
       -0.013901703 0.0037392841 0.043055765 0.054490317
000110 a5 4b a3 3d 09 f5 b4 3d df c3 83 3d 2e 6f 5d 3e
       0.079734124 0.08835799 0.06433844 0.21624443
000120 35 30 00 be 21 29 8f 3d b4 de 3d bd c9 67 24 be
       -0.1251839 0.069902666 -0.046354964 -0.16055216
000130 23 b2 87 bd 23 34 8a bd c4 5c 40 bd a2 7c 12 3d
       -0.06625774 -0.067482255 -0.04696347 0.03576339
000140 09 85 28 3e 93 22 44 3d 39 55 f7 3d 44 39 68 3c
       0.16456999 0.047884535 0.12076802 0.014173809
000150 ef 06 9c be 06 38 aa bd 4e 72 c3 3c ad cc 01 be
       -0.3047404 -0.08311467 0.023858216 -0.12675734
000160 65 bc 26 3c 97 2a 70 3d 25 67 e4 bd 60 18 9e 3d
       0.010176753 0.058634367 -0.11152486 0.07719493
000170 d7 95 3c be 04 2b ce 3d fd 1b 81 bc dc 36 06 3e
       -0.18416534 0.10066798 -0.015760416 0.13106865
000180 b6 cd 81 b9 ca f5 81 3b 17 61 15 bd 84 72 d8 bd
       -0.00024758064 0.003966068 -0.036469545 -0.10568717
000190 86 2e 5e bc a5 7d 7b 3d 86 a1 a9 bc 66 6c eb bc
       -0.013560897 0.06139912 -0.020706903 -0.028738212
0001a0 d3 ed 13 be a1 0f f7 3d 63 ee be bd 49 dc 3e 3c
       -0.14446191 0.12063528 -0.093228124 0.0116492
0001b0 7e c7 c6 bc 98 66 d7 3d 8a 02 5b bd f2 47 03 3d
       -0.024265047 0.10517615 -0.05346922 0.032051034
0001c0 90 3e 0e bc c9 ce 57 bc 6a a4 3c be fc 28 06 3e
       -0.008681908 -0.01317186 -0.18422094 0.13101572
0001d0 63 12 1d bd 88 1c 7d bc 42 54 2b 3d 6e e2 81 bd
       -0.038347613 -0.015448697 0.0418284 -0.06342016
0001e0 85 f0 dc bb 60 29 74 3e 39 da e6 bd ed 33 6b 3d
       -0.0067425393 0.23843908 -0.112720914 0.057422567
0001f0 05 15 55 be 48 1d ca 3d 27 f5 cd bc 6e 61 99 bd
       -0.208088 0.09868866 -0.025141312 -0.07489286
000200 b7 6c 21 3e 78 fa 1e be 1e 86 62 3c ec 7f 26 bb
       0.15764128 -0.15525234 0.013825921 -0.0025405837
000210 58 a1 22 bd 29 40 e1 3c e2 82 a5 3d 50 4f fe bd
       -0.03970465 0.027496414 0.080816045 -0.124174714
000220 86 57 1b 3e 20 22 8e be 87 20 5a 3d f5 38 c5 bb
       0.15170106 -0.2776041 0.053253677 -0.0060187527
000230 4d 73 e7 be 74 2e 7c bd 1e 3a 0b 3d d7 a2 a3 bd
       -0.45205155 -0.06156774 0.03399097 -0.079900436
000240 f5 1e f1 3b 60 7e 0d 3d b3 d4 84 3d 16 33 27 be
       0.0073584267 0.03454435 0.06485882 -0.16328081
000250 73 e8 e4 bd dc fb f3 bb 5f 59 3e bd b3 f2 b9 bd
       -0.11177149 -0.0074457955 -0.04647195 -0.09079494
000260 dc ac b6 3d 39 18 45 be fa ca 18 bc 7c 87 88 bd
       0.08919689 -0.19247521 -0.009325737 -0.066664666
000270 5b b3 6e 3d a4 f0 de bd 92 bb 18 3e 69 ad cd bc
       0.058276515 -0.10885742 0.14915302 -0.025107102
000280 15 a3 01 3e f9 f9 35 be ce 69 0d be ff b8 58 be
       0.12659867 -0.17771138 -0.13809893 -0.2116432
000290 12 7e a8 3d 36 42 b8 3c 2e 8b fd 3c 07 87 09 bd
       0.08227171 0.02249251 0.030950155 -0.033576038
0002a0 37 4b 8c bd 17 58 2e be 6c 3c 30 bd 49 f2 1f bd
       -0.068502836 -0.17025791 -0.043026373 -0.03904942
0002b0 00 56 d0 3d 6d 34 d3 bd ae 3d 9b bc e7 a9 2c be
       0.10172653 -0.10312734 -0.01895031 -0.16861688
0002c0 eb b2 7b bd 1f 07 26 3e d8 24 f1 3c bb b7 e6 3d
       -0.061449926 0.16213654 0.029436514 0.112655126
0002d0 f6 64 b2 3d 63 3e 78 bc 4a 96 2b bd 9e c2 66 bb
       0.08710663 -0.015151593 -0.041891374 -0.0035211216
0002e0 e0 b0 81 3d 11 d3 ec 3d 0a 2c 06 3e 1b 7a b4 3d
       0.06332564 0.11563695 0.13102737 0.08812352
0002f0 e0 f3 3a be 9b 40 03 3e f3 07 76 be 0f c8 37 3a
       -0.18257093 0.12817614 -0.2402647 0.0007010707
000300 2a cf f2 3d b7 32 47 bd 28 4c 90 3d e8 09 9d bd
       0.1185592 -0.04863235 0.07045776 -0.07667905
000310 68 97 36 3e 6f f8 8d 3c 94 ac 9e 3c 60 a9 e2 bc
       0.17831194 0.017330376 0.019369401 -0.027668655
000320 8a 8a 54 3e 46 60 04 3d 14 25 13 be 8e 67 05 3e
       0.20755973 0.032318376 -0.14369613 0.13027784
000330 84 32 37 3d f2 84 dc bb 30 f3 b3 3d e3 43 c1 bc
       0.04472591 -0.0067297155 0.08786619 -0.023591941
000340 95 3a 14 3d c7 9f 8f 3d 82 07 4d be de 94 d0 3d
       0.03618868 0.07012897 -0.20022395 0.10184644
000350 8b b3 e2 bc 12 df c9 bd ed 66 74 3e 70 6a 8c bb
       -0.027673503 -0.098570004 0.23867388 -0.0042851493
000360 9a 4d ea 3c 97 80 8e bd ab 12 9f 3b 35 b3 ae 3d
       0.028601456 -0.0695812 0.0048545203 0.08530275
000370 32 a3 56 3d 69 0d 67 3e 5a 83 ac bd 47 4e 88 bd
       0.05240173 0.2256371 -0.08423491 -0.06655555
000380 fa a6 e7 bd 10 36 2a 3d d3 c6 2b 3d 83 30 e3 bc
       -0.11311145 0.041555464 0.04193766 -0.027733093
000390 ed 90 eb bc aa 35 6b bb c1 e8 53 bd 5a 9d 2b bd
       -0.02875563 -0.003589014 -0.051735643 -0.04189811
0003a0 3b b0 b2 3d b6 ee a8 bd 26 0f 83 3d 96 d3 c0 3d
       0.087250195 -0.082486555 0.06399374 0.09415357
0003b0 d5 04 7a 3b a3 22 43 3e 37 f1 bc bd ab cb dd 3b
       0.0038149853 0.19056182 -0.092256956 0.006768664
0003c0 8f df 68 be 05 e2 ee 3d 1a e7 7d 3d b7 db da 3b
       -0.22741531 0.116642036 0.061987974 0.006679024
0003d0 97 2c 51 3d 6c f6 ac bc 4b 78 8e bc e4 10 ac bb
       0.051067915 -0.021113597 -0.017391345 -0.005251037
0003e0 c4 c8 32 3d 76 b6 ec 3b bf 3d bc 3d 28 0b e9 3c
       0.043648496 0.0072238995 0.09191465 0.028447703
0003f0 37 8e 37 3d 0c 3e 84 bd 55 4b c7 3d 78 ca 69 3e
       0.04481336 -0.06457147 0.09731165 0.22831142

model.4.bias f4 [72]
000000 a6 29 82 bc 1c 58 fe 3b b6 90 8f bd 58 1e bf bd
       -0.015889 0.0077619683 -0.07010023 -0.093319595
000010 96 ff 7a 3d 9b ce 3b bc a7 d0 10 3c d4 64 67 3c
       0.061278902 -0.011462833 0.008838809 0.01412316
000020 91 78 f2 bd 06 e7 ca bd 87 a2 87 3d 00 2a f8 3b
       -0.118394025 -0.099073455 0.066227965 0.007573366
000030 11 b6 69 3d 06 a9 3f 3d cb 99 7d bd d2 ed e5 bd
       0.057058398 0.046792053 -0.061914247 -0.11227001
000040 f0 67 a3 bd 00 30 a5 3d 6c 86 90 3d 6f 98 05 3d
       -0.07978809 0.08065796 0.07056889 0.032616075
000050 e9 a9 2f 3d 8e 14 56 3d f5 a7 f2 3d 44 be 2a bd
       0.04288665 0.052265696 0.118484415 -0.041685358
000060 9a f2 5d bd a1 66 c1 3d de b5 19 bd 51 e7 01 bd
       -0.05418644 0.09443403 -0.037526958 -0.03171474
000070 b8 93 52 3d 7d df c7 3d 18 f0 ee bd 99 38 be bd
       0.051410407 0.09759424 -0.11666888 -0.09288139
000080 77 20 b9 bd 94 fd 50 3c 4b ee 9f 3c c4 7e a8 3d
       -0.09039395 0.01275577 0.019522807 0.082273036
000090 99 19 92 3d 32 2e 29 3d 28 e9 e7 3d 22 b6 27 3c
       0.071337886 0.04130382 0.11323768 0.010236295
0000a0 a9 ef af 3d ed ab 5f bd bf 16 b6 3d 75 c8 9e bc
       0.085906334 -0.05460732 0.08891057 -0.019382695
0000b0 59 b5 37 3d 0e 28 34 bd 8b e2 51 bd be 38 11 3e
       0.04485068 -0.04398351 -0.05124144 0.14181802
0000c0 6b 10 09 bb d4 37 27 3d 52 ac e9 3b af 0a dd bb
       -0.0020914327 0.040824726 0.007131138 -0.0067456583
0000d0 1e 15 be bd 09 c5 ac bd b0 7e d1 3c 97 63 3e 3d
       -0.092813715 -0.08436019 0.025573105 0.046481695
0000e0 9c 6b 61 bc dd f3 25 bc 9c 6f 87 bd 8e 89 c9 bd
       -0.013758566 -0.010128942 -0.06613085 -0.098406896
0000f0 28 30 70 bd c0 7e 7b bd a5 f1 46 3d ad 42 f1 3c
       -0.058639675 -0.061400175 0.048570294 0.029450739
000100 1f 54 29 3d d5 c1 d6 3d 3d 8a c7 3d 58 3e 86 bd
       0.04133999 0.10486189 0.09743164 -0.0655486
000110 7e 3b 6c bd 31 16 26 bd 3a fc 97 bb 70 30 94 bd
       -0.057673924 -0.040548507 -0.004638222 -0.07235801

model.5.weight f4 [72]
000000 86 0b 71 3f 5d 8c 7d 3f e0 aa 69 3f b1 c3 77 3f
       0.9415821 0.990423 0.9127636 0.96782976
000010 ad 95 61 3f 71 03 7a 3f 75 fe 6a 3f 1b 02 76 3f
       0.8811901 0.976615 0.9179452 0.9609696
000020 2d 48 5f 3f b7 49 63 3f c3 43 5c 3f f6 c7 79 3f
       0.87219507 0.88784355 0.86040896 0.9757074
000030 1c 85 64 3f c8 2b 82 3f 31 01 68 3f 35 57 72 3f
       0.8926561 1.0169611 0.9062682 0.9466432
000040 eb 2f 62 3f 94 7b 69 3f 2b 4e 67 3f 50 fc 69 3f
       0.88354367 0.9120419 0.9035365 0.91400623
000050 ba c3 62 3f 16 f6 82 3f 86 cc 69 3f 2b 33 77 3f
       0.88579905 1.023135 0.91327703 0.9656245
000060 ae 97 69 3f a7 5d 62 3f df 00 69 3f 8d 71 75 3f
       0.9124707 0.8842415 0.91016954 0.9587639
000070 0b d7 6f 3f 04 d7 68 3f 03 a1 52 3f e4 8d 6b 3f
       0.93687505 0.9095309 0.82276934 0.9201338
000080 59 fe 6d 3f 7f 20 68 3f 53 98 64 3f 55 0d 76 3f
       0.9296623 0.90674585 0.8929493 0.96114093
000090 3a b1 65 3f d1 69 81 3f f2 94 6f 3f 5e 9d 65 3f
       0.8972355 1.0110418 0.9358665 0.8969325
0000a0 5d 65 5f 3f 40 76 54 3f dd 6a 84 3f cc db 65 3f
       0.87264043 0.82992935 1.0345112 0.8978851
0000b0 6d 73 75 3f 4d 2c 71 3f 30 41 78 3f 5d cb 73 3f
       0.9587925 0.9420822 0.9697447 0.9523218
0000c0 ae 1b 6c 3f e4 f3 89 3f 70 91 86 3f 0a ff 70 3f
       0.92229736 1.0777555 1.0513134 0.9413916
0000d0 ea 9c 6b 3f 85 d4 7b 3f 9d 94 6f 3f 41 af 72 3f
       0.92036307 0.98371154 0.9358614 0.94798666
0000e0 91 d0 7a 3f dd 7c 5a 3f 6b b3 78 3f 5d 24 7a 3f
       0.979745 0.85346776 0.9714877 0.97711736
0000f0 db 00 73 3f ba 37 7f 3f b6 9f 67 3f e4 7b 56 3f
       0.9492318 0.99694407 0.90478075 0.8378279
000100 e2 76 77 3f c8 4d 6a 3f 5b fd 65 3f 02 06 6e 3f
       0.96665776 0.91524935 0.89839715 0.9297792
000110 52 9c 70 3f 39 86 63 3f 68 31 71 3f 55 d2 55 3f
       0.93988526 0.8887668 0.9421601 0.83524066

model.5.bias f4 [72]
000000 67 11 a0 be 2f 04 ce be ce 08 b9 be 7f 4e f1 be
       -0.31263277 -0.40237567 -0.3613953 -0.471302
000010 34 ac d4 be 78 4a cd be f8 d5 f8 be 33 41 e0 be
       -0.4153763 -0.40095878 -0.48600745 -0.43799743
000020 0a 2d ba be 48 79 e0 be fe fe 8f be df 6a e5 be
       -0.36362487 -0.4384253 -0.2812423 -0.448081
000030 5a 29 8b be 1c 83 8d be 9a 8e 95 be 30 5d 15 bf
       -0.27179986 -0.2763909 -0.2921036 -0.5834532
000040 78 80 7a bd 45 49 a8 be 72 d6 b1 be 7c f3 b8 be
       -0.061157674 -0.328684 -0.3473392 -0.36123264
000050 6f f7 4f be 92 c2 b7 be ac 6f 9d be 45 1e f5 be
       -0.20309232 -0.35890633 -0.3074926 -0.47874656
000060 95 66 f8 be 60 0c 9e be 43 21 a5 be 5a 19 ae be
       -0.48515764 -0.30868816 -0.3225194 -0.34003717
000070 a9 c5 00 bf 6d e0 b8 be c8 fe b9 be 5c 9a dc be
       -0.50301605 -0.36108723 -0.36327195 -0.43086517
000080 4d b7 f5 bd 8b 9f b5 be 32 ee e3 be bd db 0b bf
       -0.119978525 -0.35473284 -0.44517666 -0.5463217
000090 10 0a d1 be 54 6f f2 be 38 b2 aa be fe f1 ad be
       -0.4082799 -0.47350562 -0.33339095 -0.33973688
0000a0 c6 2d 49 be a5 4c 7d be 5d 76 8d be 9b 80 c8 be
       -0.19646367 -0.24736269 -0.27629367 -0.39160618
0000b0 e9 11 b9 be b0 ae e7 be 67 19 b3 be 1a 78 c0 be
       -0.36146477 -0.45250463 -0.34980318 -0.3759163
0000c0 42 3c ca be 89 27 9a be 0c 75 c8 be 3e 15 90 be
       -0.39499098 -0.30108288 -0.391518 -0.28141207
0000d0 2e 30 a5 be fd a8 83 be e9 c9 e5 be 21 8f c9 be
       -0.3226332 -0.25714865 -0.44880608 -0.3936701
0000e0 c7 93 bc be c6 48 c4 be a8 63 bb be 5f 9c b1 be
       -0.36831495 -0.38336772 -0.3659947 -0.34689614
0000f0 a7 60 ea be 8c 49 bb be 87 b6 c8 be bf 94 a5 be
       -0.45776865 -0.3657955 -0.39201757 -0.32340047
000100 a2 1a 6a be 5f 15 f9 be de 74 d3 be 28 02 d8 be
       -0.22861722 -0.48649117 -0.413001 -0.42189145
000110 6f 46 fa be f3 3f 95 be af 9e aa be 5f 5f be be
       -0.48881862 -0.29150352 -0.3332419 -0.37182137

model.5.running_mean f4 [72]
000000 b3 8b 11 bf d5 0d c3 be b0 b0 9c 3e 16 50 ad be
       -0.5685379 -0.3809649 0.30603552 -0.33850163
000010 00 c1 be be 22 ba be be 5e 56 a9 be 4a a4 b1 3e
       -0.37256622 -0.37251383 -0.33073705 0.34695655
000020 93 c9 cc be 34 ef b4 bd 6a 76 3b 3e 80 fe 60 3f
       -0.3999754 -0.08834687 0.1830689 0.87888336
000030 e1 d0 35 be 78 dd 43 be b3 ae 0e bf 74 4d 54 be
       -0.17755462 -0.19127452 -0.5573532 -0.20732671
000040 35 af a3 be 86 d2 1a 3d 71 62 6b be 1a 5f 0d bf
       -0.3196961 0.037798427 -0.22986771 -0.5522324
000050 d8 d4 72 be d6 c4 0b be a5 84 2a be 58 9a 6a be
       -0.23714006 -0.13649306 -0.16652162 -0.2291044
000060 df 03 a8 be 3f 68 b0 be 05 2d 2a 3d a0 9d db bd
       -0.32815453 -0.34454533 0.04154684 -0.10723424
000070 21 9b a0 bd 9b 4f 91 3d df ba 43 3e 0a 58 fe be
       -0.078420885 0.07095262 0.19114254 -0.49676543
000080 12 14 3e bf 8e cb dd be ed f5 3b 3e ee 82 8a 3d
       -0.74249375 -0.43319362 0.18355532 0.06763254
000090 c7 2e 68 be db 67 c7 bc b3 01 cf bd c8 22 7e be
       -0.22674094 -0.024341514 -0.10107746 -0.24817955
0000a0 52 d6 58 be e5 84 10 bd 4a f4 74 be cd 84 4d be
       -0.21175507 -0.035282988 -0.23921314 -0.2007019
0000b0 a0 c1 32 be 9f 5c 96 3d 5f 7d e5 be 1e 22 4f 3e
       -0.17456675 0.07341885 -0.44822213 0.20227858
0000c0 30 44 00 bf 3f b8 37 bf c7 c8 8e bd af 3a 18 be
       -0.50104046 -0.7176551 -0.06971889 -0.14866136
0000d0 52 00 05 bf 33 b3 0f be 85 39 47 be ee 5a 9e be
       -0.51953614 -0.14033203 -0.19455536 -0.3092875
0000e0 4b e3 e5 bd 5f a1 ba be 00 d8 f7 be 74 4b 9f be
       -0.11224993 -0.3645124 -0.48406982 -0.31112254
0000f0 90 f9 d3 be a0 38 c0 b9 ae 3f 12 3e 52 24 42 3c
       -0.4140134 -0.00036663283 0.14282104 0.01184948
000100 40 be e0 bd 83 7c f3 bd 06 38 a5 bd a8 2b f8 be
       -0.10973787 -0.11888983 -0.08067326 -0.48470807
000110 b6 33 a3 3d 2d bf 0e 3f bc 17 b5 be 0f 35 06 bd
       0.079688475 0.5576046 -0.3536967 -0.032765444

model.5.running_var f4 [72]
000000 c4 ca ad 3e 2c f6 d3 3e e3 96 42 3e 10 3d 85 3e
       0.3394376 0.41398752 0.19002871 0.2602315
000010 b4 df 7b 3e 74 91 97 3e fd c5 5c 3e e3 f0 78 3e
       0.24597055 0.2960316 0.21559902 0.24310641
000020 b0 25 5d 3e 74 b7 90 3e 03 1b 8b 3e a0 bb 7b 3e
       0.21596408 0.28264964 0.27169046 0.24583292
000030 c8 b6 6e 3e 35 3c a0 3e a6 16 a7 3e 2a 2c 5e 3e
       0.23311913 0.31295934 0.32634467 0.21696535
000040 6d 26 72 3e be d6 7f 3e 4f e8 b0 3e 0a 2a c2 3e
       0.23647471 0.24984261 0.34552237 0.37922698
000050 eb 15 5f 3e c6 21 c8 3e 8a 8c 4b 3e 14 17 af 3e
       0.21785705 0.39088267 0.1987783 0.34197295
000060 66 44 99 3e 37 81 9d 3e 38 15 70 3e 36 32 9c 3e
       0.29934996 0.30762646 0.23445594 0.30507058
000070 2b 84 5e 3e 92 68 8e 3e 2e 20 8c 3e 7c 8c 2a 3e
       0.21730106 0.27814156 0.273683 0.16655153
000080 12 f3 a1 3e ad d1 b2 3e 42 6f 89 3e b2 ac 98 3e
       0.3163076 0.34925595 0.26842695 0.29819256
000090 69 90 62 3e ba b4 8d 3e 6b 17 6a 3e c2 10 55 3e
       0.221254 0.27676946 0.22860496 0.20807174
0000a0 07 d3 8e 3e 09 4b 9e 3e 99 73 04 3f 8d 8c 88 3e
       0.27895376 0.30916622 0.5173889 0.26669732
0000b0 f7 c0 c1 3e e3 d1 88 3e 11 24 be 3e 82 32 93 3e
       0.37842533 0.2672263 0.3713689 0.28749472
0000c0 b2 80 e2 3e f1 7f 03 3f df 8f dd 3e 7d dc b0 3e
       0.44238812 0.513671 0.43273827 0.3454322
0000d0 ad 04 a2 3e 63 bb 93 3e b0 89 c0 3e 1a 3e ac 3e
       0.31644192 0.28853902 0.37605047 0.3364113
0000e0 19 2a b5 3e cb 3a c3 3e 41 f2 a0 3e f4 62 b8 3e
       0.3538368 0.38130793 0.31434825 0.36012995
0000f0 23 c1 88 3e 4e bd 18 3e 82 fe 19 3e 80 98 66 3e
       0.26709852 0.14915964 0.15038493 0.22519112
000100 ed 0b a2 3e 7d 70 2a 3e 24 5f 91 3e a1 80 9d 3e
       0.31649724 0.16644473 0.283929 0.307622
000110 58 29 87 3e d3 68 a0 3e b1 3f c5 3e 8b e4 1d 3e
       0.2639873 0.31329975 0.38525155 0.15419213

model.8.weight f4 [34, 72]
000000 c8 85 17 3d 0a 47 37 bd 7f 37 f2 3a 5a 44 3a 3e
       0.036992818 -0.044745483 0.0018479674 0.18190137
000010 71 31 8d bd d3 b8 08 bc ca f1 1e 3d 36 a0 23 3d
       -0.06894196 -0.008344847 0.038804807 0.03994771
000020 61 a1 76 bc bc 4d d8 bc d1 03 4b bc af 14 c5 bd
       -0.015053124 -0.026404254 -0.012391047 -0.09623086
000030 af b8 98 3d 5d 4d 09 bd 0e cf ab 3b c9 c2 0a 3e
       0.074571006 -0.033521045 0.0052431887 0.13550867
000040 67 fe d2 3d 5c 26 6f 3d 86 32 a8 3d cc c5 1d be
       0.1030243 0.05838619 0.082127616 -0.15407485
000050 49 9f 29 be 6d b5 1f bd 32 fe 2c 3e f5 34 af bd
       -0.16564669 -0.03899138 0.16893843 -0.085550226
000060 e2 34 cb bd e2 27 09 be 1d 71 7a be 31 71 4f be
       -0.09922196 -0.1339412 -0.24457212 -0.20258023
000070 fa f0 32 be 49 a2 11 bd 0d 89 4f bd f1 2a d7 bc
       -0.17474738 -0.035555158 -0.05066781 -0.026265593
000080 75 bb 05 3e 8e d5 c4 3d a7 54 07 be 53 0a 40 3e
       0.1305979 0.09611045 -0.13215886 0.18753938
000090 ed 72 91 be a3 4c 27 3d 44 3b c0 bc 10 48 a6 bd
       -0.28407994 0.04084457 -0.02346576 -0.081192136
0000a0 f7 eb e8 3d bb d9 5e 3d 5a 6c a1 3d b7 f5 90 bc
       0.11373132 0.054406863 0.078819945 -0.017695291
0000b0 8b 77 06 3e fc 3d d5 be 56 b8 77 bc 84 0e e2 3d
       0.1313154 -0.41648853 -0.015119633 0.11037925
0000c0 46 21 95 3c cf 89 75 3d ad 26 1b bd 93 f8 b1 bd
       0.018204343 0.059945878 -0.03787868 -0.0868999
0000d0 83 eb 0b 3c 62 cd 28 3b 7a 53 b4 bd 51 70 8e 3d
       0.008540037 0.0025757183 -0.088049844 0.069550164
0000e0 b7 67 ba bd 4f f0 d7 bd d8 9a a0 3d a4 2e 2c be
       -0.09101813 -0.10543882 0.07842034 -0.16814667
0000f0 2b b9 57 3d ae 67 ca 3d 07 d6 9b bb 6e 9a fe 3c
       0.052666824 0.098830566 -0.0047557387 0.031079497
000100 9d d6 01 3e 5d ad 1b bd 8a 89 1c bd e0 02 27 be
       0.12679525 -0.03800713 -0.038217105 -0.1630969
000110 7a 6e 86 be b0 18 6e bb 2f ec 87 3d 01 1d 16 be
       -0.26256162 -0.0036330633 0.06636845 -0.14659502
000120 c3 a7 27 3d 3d 97 2d bd 3d a3 90 3c 0b 93 b6 3d
       0.040931474 -0.04238056 0.017655963 0.08914765
000130 6f 48 10 3e 36 b7 89 bb 26 ca e4 3d 77 e4 9e bd
       0.14090131 -0.0042027486 0.11171369 -0.0775842
000140 4c 66 b2 3d f9 5b 25 3e 94 60 c2 bd a0 96 1c be
       0.08710918 0.16148366 -0.09491077 -0.15291834
000150 d6 2a 28 3d 6f 79 92 bd 2e 3b 2b bd be 2b 4e be
       0.041056477 -0.07152068 -0.041804485 -0.20133874
000160 50 58 f4 bc bc 70 a5 3d 1d cf cb 3c 3a 9f e0 bc
       -0.029827267 0.08078143 0.024879033 -0.027419675
000170 f1 84 52 3d a6 b5 07 3e 33 f0 41 3d a9 48 53 bd
       0.051396314 0.13252887 0.047348212 -0.051582966
000180 36 c0 d7 bc 14 74 80 bd a9 50 30 bc d1 94 b5 bd
       -0.02633677 -0.0627214 -0.010761418 -0.08866275
000190 55 d3 ad 3c 2b d5 32 3d 1a ad a7 bc a4 f4 74 3d
       0.021218935 0.043660324 -0.020468283 0.05980362
0001a0 b6 d6 12 ba 10 0e 4a bd c6 fd 06 3e d7 69 08 3e
       -0.00056014524 -0.049329817 0.13182744 0.13321625
0001b0 32 b4 34 3e 3d e1 60 bc fe 55 61 3d 83 ea e1 3d
       0.17646864 -0.013725576 0.05501365 0.11031058
0001c0 2d b1 03 be 7d f1 9d be d6 e5 02 bd ae 51 22 3c
       -0.12860556 -0.30848303 -0.03195747 0.009907169
0001d0 ed 19 03 bb 40 3c 80 bc 52 a4 00 be 21 e4 a3 3d
       -0.0020004467 -0.01565373 -0.12562683 0.080024965
0001e0 2a 38 9c 3d 4b f0 c9 bc a8 21 99 3d c5 46 1e bc
       0.076279 -0.024650713 0.074771225 -0.009660427
0001f0 93 2c 8a bd 93 1d 49 3e 31 af 7b 3d e8 e5 98 3d
       -0.06746783 0.19640188 0.061446372 0.07465726
000200 05 e5 76 be f1 7d 7e bb 6f 2e 1a 3c 0c 1d 07 bf
       -0.24110802 -0.003883239 0.009410485 -0.52778697
000210 1e e6 b1 bc 7f 74 21 bd 2b 9e 5f 3d 6a f2 48 bd
       -0.021716174 -0.03941774 0.0545942 -0.04905931
000220 c4 23 7b be 45 42 99 3d 14 90 2a 3d 01 a2 bd 3d
       -0.24525362 0.07483343 0.04164131 0.092594154
000230 27 63 11 be 9d a9 ed bc 4e a7 37 bd 24 c5 48 be
       -0.1419798 -0.029011542 -0.04483729 -0.19606453
000240 21 d0 65 bd 5d e2 c0 bd 58 bf 75 3d 08 c5 1a 3d
       -0.05610669 -0.09418175 0.059996933 0.03778556
000250 55 4e ca bd 75 0d ea 3d 78 9b 4b bd b0 8d 4e 3d
       -0.09878222 0.11428348 -0.049708813 0.050428092
000260 d9 0f e4 bc 2b bd 59 bd e7 9f 07 bd 22 ab 3e 3d
       -0.027839588 -0.05315892 -0.03311148 0.046549924
000270 41 b1 40 3d 29 36 4b 3c de c5 92 3d e9 ee 2e 3e
       0.047044042 0.0124030495 0.071666464 0.17083324
000280 a4 50 1d be 09 61 96 bd d9 1f 4a 3d df 9a 86 be
       -0.15362793 -0.07342727 0.04934678 -0.26290032
000290 75 0b 8a bd 95 68 2a 3d 90 3a 52 bd 09 3f 24 bc
       -0.067404665 0.041603643 -0.05132538 -0.010024794
0002a0 af 13 41 3d 1d c6 ee be bc a4 83 3d 4b cb ec bd
       0.047137912 -0.46635523 0.06427905 -0.115622126
0002b0 f3 48 ab 3d d0 23 9d bd ff 1f a4 be 8a 50 08 3e
       0.08363523 -0.07672846 -0.3205566 0.13311973
0002c0 92 3d af 3d 71 aa c7 3c ae 21 60 3b 67 f5 86 be
       0.085566655 0.024373265 0.0034199762 -0.26359102
0002d0 d2 bb e9 bc e9 82 b9 3d 45 c4 a8 3b 4c 8c 07 3d
       -0.028531943 0.09058172 0.0051503503 0.033092782
0002e0 bf d1 55 3e e2 3a 80 bd 8f 66 50 3d 4b 7b a1 bc
       0.20880793 -0.06261231 0.050879057 -0.019712111
0002f0 ab 0a 7f 3d 26 4c ef bc 35 7c 78 3d 90 c9 dd 3d
       0.062266033 -0.029211115 0.060665328 0.108294606
000300 79 df 23 be 57 77 06 3e 43 c5 0d 3e 24 9a 81 3d
       -0.16003217 0.13131462 0.1384478 0.06328228
000310 58 88 79 bd 14 94 d8 3d 3c a9 94 bc 9a e5 24 3d
       -0.060921043 0.10575119 -0.018147103 0.040258028
000320 83 36 30 bc 8a 0c c9 bc 37 cf ef 3d 9f db 3e be
       -0.010755184 -0.024542112 0.11709445 -0.18638466
000330 aa f0 85 be d9 1f 91 3b 5e a4 94 bd 33 5c 4f be
       -0.26160175 0.0044288454 -0.07257913 -0.20250015
000340 24 49 7b 3c 3c 19 8c 3c de cf ea 3c e2 4b bf bd
       0.015337262 0.017101876 0.028663572 -0.093406454
000350 52 00 42 bd 1e ed 40 3d cc 2e 89 bc 13 a8 8a bd
       -0.047363587 0.047101133 -0.016745947 -0.06770339
000360 a3 32 3a be b1 78 00 bd bb ff ed 3d 40 76 0f 3e
       -0.18183379 -0.0313651 0.11621042 0.14009953
000370 8e 2d e1 3c fa e9 19 3e 1f 1f 94 be 11 79 96 3d
       0.027487542 0.15030661 -0.28929994 0.0734731
000380 42 41 86 bd 8b ed da bd 1f ee 42 bd e8 8f 99 bc
       -0.06555416 -0.10689839 -0.04759037 -0.018745378
000390 61 a1 b3 bc b9 d0 dc bc a3 9c 42 be a3 1d 5a 3d
       -0.021927537 -0.026954995 -0.19005065 0.05325092
0003a0 15 61 55 bd e7 cc d3 3d d7 99 e9 3d d7 38 58 3e
       -0.052094538 0.103418164 0.11406296 0.21115433
0003b0 3d 1b 11 bd 3b 96 39 be 9c c4 6a bd fa d8 0c 3e
       -0.035426367 -0.18123715 -0.057316408 0.13754645
0003c0 1f 64 a8 bd 23 fb 92 bd 05 4f 14 3e 6d 1b 09 be
       -0.082222216 -0.07176807 0.14483269 -0.13389368
0003d0 1a b1 93 bc c2 d3 96 3d 12 c2 1e bd 42 91 9e bd
       -0.018028785 0.07364608 -0.0387593 -0.077425495
0003e0 31 06 8b be 73 9e 98 be 23 0e a9 3b 86 7c 7b be
       -0.2715316 -0.29808387 0.005159156 -0.2455922
0003f0 39 13 d2 bc b8 b3 47 be db b0 e7 3d d8 f2 06 be
       -0.025643932 -0.19502151 0.113130294 -0.13178575

model.8.bias f4 [34]
000000 34 9f ef bd d2 f7 a9 3c db 87 92 3d 1c f7 8e 3d
       -0.117002875 0.020748053 0.071548186 0.06980726
000010 48 d4 e7 3c 68 40 1e 3c c9 ed 9b 3d 71 d6 8d bd
       0.028299466 0.00965891 0.07613713 -0.06925667
000020 71 da c5 bd b4 85 38 bd 93 b6 03 be 4c b0 6e bc
       -0.09660805 -0.045049384 -0.12862615 -0.0145684
000030 28 66 da 3d ac bf 24 3d 1b 82 3f 3c e6 92 8b bd
       0.10664016 0.040221855 0.011688734 -0.06815128
000040 70 95 ff bd bf 27 97 3d 4c b0 18 bb d7 df 1c 3d
       -0.12479675 0.07380628 -0.002329844 0.038299408
000050 60 f0 e1 bd 1b 2f 93 bd 11 02 bb ba 13 f4 5f 3d
       -0.11032176 -0.07186719 -0.0014267584 0.054676127
000060 51 28 91 3d 9b 3e c5 3c 00 98 e4 3c 88 45 85 bd
       0.07087768 0.024077704 0.02790451 -0.06507403
000070 d8 3b 58 3c 92 a9 a6 bd f6 c0 cb 3d a9 8e c0 3d
       0.013197862 -0.08137812 0.09948914 0.0940221
000080 a7 01 a3 3d bd 20 9d 3d
       0.079592995 0.0767226

model.9.weight f4 [34]
000000 b4 c8 7d 3f 0d 14 5f 3f 3d d5 6b 3f 59 59 5f 3f
       0.99134374 0.8713997 0.9212225 0.8724571
000010 fe ba 6e 3f ce bf 66 3f 80 cd 5e 3f 3f b7 6d 3f
       0.9325408 0.9013642 0.8703232 0.92857736
000020 ec 9a 53 3f 45 61 5a 3f 9a 49 6c 3f ea a6 4e 3f
       0.8265827 0.8530467 0.9229981 0.8072344
000030 61 c9 64 3f 94 22 88 3f c3 a5 83 3f f6 e2 59 3f
       0.8936978 1.0635552 1.0284961 0.8511194
000040 3f 2f 76 3f 20 5a 5f 3f 28 8c 72 3f c4 6c 75 3f
       0.9616584 0.87246895 0.9474511 0.9586909
000050 36 3f 6d 3f 19 b2 70 3f a4 63 5e 3f d7 60 6a 3f
       0.9267458 0.94021755 0.8687079 0.91554016
000060 f7 6f 76 3f bb a2 5c 3f 17 80 57 3f e8 ca 4c 3f
       0.96264595 0.86185807 0.84179825 0.7999711
000070 ed 40 82 3f 8c 03 6d 3f 98 71 4f 3f d7 8b 72 3f
       1.0176064 0.9258354 0.81032705 0.9474463
000080 ab b8 66 3f 03 4b 77 3f
       0.9012553 0.96598834

model.9.bias f4 [34]
000000 46 e3 c0 be ab 6e 1b bf e7 82 0e bf 55 63 dd be
       -0.37673396 -0.6071574 -0.5566849 -0.43239847
000010 38 87 03 bf 42 c0 0d bf 98 59 da be 81 05 d9 be
       -0.513782 -0.5537149 -0.4264648 -0.42387012
000020 7d 02 6c be ea 46 bc be 8e 6b 09 bf 7b f2 30 be
       -0.23047824 -0.36772853 -0.5367974 -0.17279999
000030 7e 5e f6 be 86 d8 88 be 85 51 b1 be ad 81 7a be
       -0.48118967 -0.26727694 -0.34632507 -0.2446353
000040 54 b0 c6 be 04 6d 0e bf 23 f1 c2 be ba d3 f7 be
       -0.38806403 -0.55635095 -0.38074598 -0.48403722
000050 ce 83 d7 be fd a8 b3 be 97 91 b8 be 22 ea 84 be
       -0.42092746 -0.35089865 -0.36048576 -0.2595988
000060 7e 19 56 be 63 38 d8 be 3b 7f b0 be d1 23 f2 be
       -0.20908162 -0.4223052 -0.3447207 -0.4729295
000070 5d 4e 0e bf 91 37 c5 be 93 fe 13 bf e5 49 d4 be
       -0.5558832 -0.38518956 -0.57810324 -0.41462627
000080 dc 82 dd be 1b bc c4 be
       -0.432639 -0.38424763

model.9.running_mean f4 [34]
000000 60 1c a5 be ac 64 1d be a7 bc a2 bd 5f 93 45 be
       -0.3224821 -0.15370435 -0.07946139 -0.19294499
000010 a3 fa bd bd 1f 4c 8e be ff 5f de bd 7a e1 ae be
       -0.09276321 -0.2779245 -0.108581536 -0.341564
000020 24 a8 e5 bd ea ad b3 bd 64 b9 f1 be ee a4 98 3e
       -0.11213711 -0.08773406 -0.47211754 0.2981333
000030 94 99 b1 3c 83 17 8a be f7 55 d2 be fc 55 8e 3b
       0.021679677 -0.26971063 -0.4108121 0.004343746
000040 90 1c c7 be 41 1d 9c be 24 30 bd 3e 99 e8 e6 bd
       -0.3888898 -0.3049107 0.3695079 -0.11274833
000050 40 a0 e2 bd d5 f8 06 bf 80 2f 83 bd 4b c0 94 be
       -0.110657215 -0.5272344 -0.06405544 -0.29052958
000060 4e 1a e3 bd 0b c3 8c be 05 e6 04 be 21 cc d8 be
       -0.110890016 -0.27492556 -0.1297837 -0.42343238
000070 4b e8 91 be a5 dd c4 3d bc 0f 42 be 6b 2b 00 bf
       -0.28497538 0.09612588 -0.18951315 -0.5006625
000080 a4 fe 94 bd 0c bc 58 be
       -0.07275131 -0.21165484

model.9.running_var f4 [34]
000000 ee 72 24 3e 3c a6 07 3e 34 80 1c 3e ae d7 20 3e
       0.16059467 0.13247007 0.1528328 0.15707275
000010 63 47 e5 3d 1f 2d 38 3e fa 13 1c 3e 8f ca 23 3e
       0.111952566 0.17985962 0.15241995 0.15995239
000020 aa 8f 9d 3d 48 34 0c 3e d5 db 25 3e 55 3c a7 3d
       0.07693417 0.13691819 0.1619714 0.08165804
000030 29 3f dd 3d 47 79 27 3e d6 6d 28 3e db f5 2b 3e
       0.108030625 0.16354857 0.16448149 0.16793005
000040 7d 90 fd 3d 4b 1d 33 3e b7 1a aa 3d f4 10 07 3e
       0.123810746 0.17491643 0.08305877 0.13190061
000050 68 1d f8 3d c6 5a 49 3e d5 1a 02 3e af 5a 24 3e
       0.12114984 0.19663534 0.12705548 0.16050218
000060 f0 cf 0f 3e 45 21 1f 3e fd b6 d9 3d 55 93 f9 3d
       0.14044166 0.15540035 0.10630605 0.121863045
000070 e1 dd 04 3e 95 96 f1 3d 41 80 e8 3d 9f 6a e5 3d
       0.12975265 0.11796299 0.113525875 0.11201977
000080 9a 7c 3c 3e 17 90 19 3e
       0.18406907 0.14996372
