foundation_models/Ensemble_model26_DeepHit_ANN_Both_20250806_165214.pt (torch, 266140 bytes, 44 tensors)

conv1.weight f4 [32, 1, 3]
000000 bc ac d4 be fa 19 79 bf b0 68 2a 3f d6 0f 4a 3e
       -0.41538036 -0.9730526 0.6656599 0.19732603
000010 c8 18 b4 bf d3 55 8a 3e 39 d9 f2 3e 6e 25 ad bf
       -1.4070063 0.27018604 0.47431353 -1.3527048
000020 82 e4 74 3e 5b bb 0e 39 84 94 26 bb ea 0a 9e bc
       0.23915294 0.0001361197 -0.0025418112 -0.019292314
000030 70 50 a0 bf 13 66 c6 bf fb b9 35 bf d1 12 c4 3e
       -1.2524548 -1.54999 -0.7098691 0.38295606
000040 50 ad 0d 3d 48 83 bd 3e 26 ee 3a 3e 96 3c 91 bd
       0.03458911 0.37014222 0.18254909 -0.07091634
000050 55 72 2b 3e e6 cd f1 3e 83 87 d4 bc e9 fd e8 3e
       0.16742833 0.472274 -0.025943523 0.45506218
000060 61 c2 70 3f 35 fc 45 be bd 37 e9 bd 6e 1a ec 3c
       0.940466 -0.1933449 -0.11387584 0.028821196
000070 fe bc 86 bb e7 52 18 ba ab a2 88 bc 48 7a a8 bc
       -0.004111885 -0.0005810693 -0.016679129 -0.02056612
000080 02 13 b0 bc 82 d2 83 bc 2d 32 9a bc 04 d0 5d bd
       -0.021493439 -0.016091589 -0.018822754 -0.054153457
000090 cc 9e 6b bd e0 09 2f bd 1b ab 35 bd b3 41 f7 3d
       -0.057524487 -0.042734027 -0.044352632 0.12073078
0000a0 af 47 9e bf f0 b1 b5 be fb f6 86 be 3b 2d bc be
       -1.2365626 -0.35487318 -0.26360306 -0.36753258
0000b0 e5 bc 05 c0 cf 23 66 bf e3 6c 56 3f 4b 8a fa 3e
       -2.0896542 -0.8989839 0.837599 0.48933634
0000c0 e2 d7 81 be 5f a0 42 be 73 8d fd bd 16 9c 01 3f
       -0.25360018 -0.19006489 -0.12380495 0.50628793
0000d0 fe 3d b0 bf 00 24 f6 be fb 66 9a 3e 14 64 ad 3e
       -1.3768919 -0.4807434 0.30156693 0.33865416
0000e0 74 ca 0f bf de 05 2a 3c 46 a4 32 3d b4 32 67 bc
       -0.56168294 0.010377375 0.043613695 -0.01411121
0000f0 f8 42 d1 bf a6 b8 b8 3d 04 8d 14 c0 92 c4 44 bd
       -1.6348562 0.09019594 -2.321107 -0.048039027
000100 30 88 20 3f 8d 8a de 3e 97 1e 49 bc c3 9e 36 be
       0.62707806 0.4346508 -0.01227536 -0.17834
000110 5d 6e 29 be 60 ab 93 3e 30 b7 89 3e 1d 79 ac bf
       -0.16546007 0.28841686 0.26897573 -1.3474461
000120 33 9c 2c bd ca 87 04 bc 16 66 98 bd 72 f7 e6 bd
       -0.04214115 -0.008089015 -0.07441346 -0.11277665
000130 9c 0a e2 bf 62 d5 e0 bf cc ca c0 3e 1c 86 9d be
       -1.7659488 -1.7565119 0.37654722 -0.3076638
000140 ff 4f bd bd a1 83 a9 bd 38 1f dd 3e b3 b0 e2 bf
       -0.09243774 -0.08277059 0.4318788 -1.7710174
000150 aa e5 1d bf 85 8d a1 bd ca 56 21 3f af 3f 1f bf
       -0.61678565 -0.07888321 0.63023055 -0.6220655
000160 3a 4b d8 be 8a 15 19 3f 51 52 f6 be a0 b2 29 3e
       -0.42244893 0.5979849 -0.48109677 0.16572046
000170 12 46 98 bf 11 45 0c c0 4e b9 c6 3e bf a7 a0 bf
       -1.1896384 -2.1917155 0.3881325 -1.2551192

conv1.bias f4 [32]
000000 d1 d2 9e 3e c8 67 c0 bf 81 a2 14 bf d1 0b 30 bd
       0.31020215 -1.5031672 -0.5806046 -0.04298002
000010 d0 2e 29 bd d2 46 9a be a2 48 9b be b9 66 73 3c
       -0.04130441 -0.30132157 -0.30328852 0.014856034
000020 e3 4b 81 3e 31 fc 6b be 96 51 04 bd 2a 88 51 bd
       0.2525321 -0.23045422 -0.03230437 -0.051155247
000030 37 54 04 be a2 97 4c 3f 0f 03 8f 3f 1e 4e ef 3d
       -0.1292275 0.79918873 1.1172808 0.116848215
000040 73 9f ed be 81 94 6f bf 4d f1 b3 bf 50 53 c2 be
       -0.46410713 -0.93585974 -1.4058014 -0.37954187
000050 5f a1 45 3f ec 41 89 be a7 34 c6 be 14 8f 60 bf
       0.7719936 -0.26808107 -0.38712046 -0.8771832
000060 fa ed 78 bd 51 7a ee 3e 6d da f6 bf d6 14 4e 3f
       -0.060773827 0.46577695 -1.9285408 0.80500543
000070 46 8f f5 3e 76 60 b6 bf 41 87 1e 40 89 ce 99 bf
       0.4796087 -1.4248188 2.4770052 -1.2016155

conv2.weight f4 [64, 32, 3]
000000 cd 24 37 3d bf 6f 4b bd a5 69 d4 bf 33 94 8c bf
       0.04471283 -0.049667116 -1.659474 -1.0982727
000010 1e b5 cb bd c4 10 87 bd 73 dd f4 3c f3 6e 91 bb
       -0.09946655 -0.06594995 0.029890751 -0.004438275
000020 45 9a 31 3f 1e c9 28 3e 1b ac cc 3e 95 3d 56 3d
       0.6937602 0.1648297 0.39975056 0.052304823
000030 59 6d 4e 3f a5 95 36 3f 0d 69 99 bd bd f1 39 bd
       0.806356 0.7132209 -0.0749074 -0.045396555
000040 1d 86 3a 3f 99 11 05 3f 85 77 c2 3d 65 c3 2a 3f
       0.7286089 0.51979977 0.09495453 0.667044
000050 03 b9 fb 3e aa 50 59 3c af db 15 3f b1 21 20 3f
       0.4916459 0.013263861 0.58538336 0.6255141
000060 fa 38 ce 3c 18 2c a0 3e 43 e2 95 bd bd 86 8c 3d
       0.025173653 0.3128364 -0.073185466 0.06861637
000070 3d 95 48 3e e9 16 d6 3d d9 e4 20 bd a0 a0 ae 3b
       0.1958818 0.104535885 -0.039280746 0.0053292066
000080 cb fa 25 3d fa 35 96 3c 3e 89 90 bc e0 07 e2 bd
       0.040522378 0.018336285 -0.017643567 -0.11036658
000090 52 08 8b 3d 24 ab e6 3e 20 3e 01 3f dc 68 c9 3e
       0.06788696 0.45052445 0.5048542 0.39337814
0000a0 ce 58 c1 bd 61 6f 59 bf 8a 0d 71 3e de 73 49 bf
       -0.09440766 -0.84935576 0.23540321 -0.78692424
0000b0 a7 ba 56 be 1b 34 1a be 41 fc 16 c0 86 f1 0e 3f
       -0.2096964 -0.15058939 -2.3591464 0.55837286
0000c0 93 de 07 bd ad db 37 be 13 30 3f 3e 0c 9f e2 3d
       -0.033171248 -0.17954893 0.18670683 0.11065492
0000d0 f0 27 98 be 0b 84 dc 3d 39 a8 1a 3e ad e3 06 bf
       -0.2971797 0.10767373 0.15103234 -0.52691156
0000e0 95 8a f6 3e e7 ee 30 be cd 68 d1 bd 74 d4 50 3e
       0.48152605 -0.17278634 -0.10225067 0.20393544
0000f0 99 85 90 3f 94 3c 0e bf 30 8c ea 3f d5 7b 08 bf
       1.1290771 -0.55561185 1.8324032 -0.5331395
000100 96 e8 fd bf 18 f1 f8 3e 61 13 a3 3d d0 bc 0c 3e
       -1.9836605 0.4862144 0.079626806 0.13743901
000110 f1 18 8b bd 05 b2 0c be 89 35 36 bf ba 63 49 3e
       -0.067918666 -0.13739784 -0.7117544 0.19666949
000120 41 e0 71 3d d7 a0 5a 3c 94 fd 2e 3d 2a d7 ee 3e
       0.059051756 0.013344011 0.0427223 0.46648532
000130 f7 57 02 40 cf 90 70 3f a2 36 a8 3e fa d0 9a bf
       2.036619 0.9397096 0.32854182 -1.2095025
000140 4d dc cc 3d 74 d6 e7 bd b8 34 06 bf 60 90 b6 3e
       0.100029565 -0.113202006 -0.5242419 0.35657024
000150 e7 b4 5f 3e 01 6a 9f be 71 50 e7 3e 3c ba fb bd
       0.21846353 -0.31135562 0.4517856 -0.12291381
000160 66 3e 4b be 64 81 4f bf cc fa e2 be 29 cf bb 3e
       -0.19848022 -0.8105681 -0.44331968 0.36681488
000170 f7 ce 05 3d 6c e4 b5 3f c3 13 31 be a9 e4 90 3f
       0.03266808 1.4210334 -0.17292695 1.1319782
000180 cd 7e 77 3c b9 dc 94 3d 4d 71 bb ba 39 6b c0 3d
       0.015105915 0.07268662 -0.0014300734 0.09395451
000190 62 96 99 bd c2 af 61 be ac be cd 3d f5 d9 9a bd
       -0.07499386 -0.22039703 0.100461334 -0.07561103
0001a0 60 0d 0e bd 23 93 35 bd a8 dc d2 3b 3d 6b cd bd
       -0.034680724 -0.044329774 0.0064349957 -0.1003022
0001b0 c2 c4 b6 3d 16 84 80 bd 83 db a9 bd 1a 9e ee bd
       0.08924247 -0.062751934 -0.08293822 -0.11651249
0001c0 75 00 14 bc b4 87 24 bd a6 45 76 bc 89 18 20 3d
       -0.009033312 -0.04016848 -0.015031254 0.0390859
0001d0 58 82 12 be 06 be 24 be 8b 3a c0 3c 57 2a 81 bc
       -0.14307535 -0.16088113 0.023465415 -0.01576726
0001e0 d6 6c 95 bd f5 c1 ad bd a3 88 cf bc 91 a2 40 bd
       -0.072961494 -0.0848426 -0.025333708 -0.047030035
0001f0 ac a3 ad 3c 2a ca c5 bd 2f 05 75 3d d8 2e 17 bd
       0.021196209 -0.096577 0.059819397 -0.036909908
000200 4e 9e 61 3d d6 22 00 be 7e 9d f4 bd 10 1c d5 bd
       0.05508261 -0.12513289 -0.11944102 -0.10405743
000210 b0 66 69 bd a4 88 ca bc e3 9d 38 3d 40 e9 a3 3d
       -0.056982696 -0.024723358 0.045072448 0.08003473
000220 ca 43 44 3c 7e 29 81 3c b2 cf cc 3c c4 f7 8f 3c
       0.011979053 0.015766855 0.02500138 0.017574199
000230 0d d2 50 3d 88 0f ce bd 34 73 e3 bd 98 12 c2 3c
       0.05098157 -0.10061556 -0.111059576 0.023690507
000240 46 16 c3 3d 45 96 0c bd 8f 1d 62 bd d9 af 27 3b
       0.09525733 -0.034322996 -0.05520397 0.002558699
000250 b1 e5 bb bd be 96 24 bd d4 ce d2 bd fd 7e 80 bc
       -0.091746695 -0.04018282 -0.102933556 -0.015685553
000260 45 5d 8a 3d 82 f5 09 be e9 5f 83 3c bb 27 9e bd
       0.06756071 -0.1347256 0.016036944 -0.07722422
000270 81 5a 88 bd e3 80 ae bc 72 c4 31 bc 8d 18 17 be
       -0.06657887 -0.021301692 -0.010850059 -0.14755459
000280 71 9f c4 3b 2c 7c 01 3d 55 72 9f bd 02 ea 65 bd
       0.006000452 0.03161256 -0.07785479 -0.05613137
000290 81 b2 a3 bc 07 cd c3 bd 35 bb 01 be e2 00 76 3d
       -0.019982578 -0.0956059 -0.1266907 0.060059436
0002a0 23 f7 ea bc 60 df 37 bd 1a 4b 13 be 39 49 b9 bc
       -0.028682297 -0.04489076 -0.14384118 -0.022617923
0002b0 17 cf 92 bd fb c6 3b be 5b ac b8 3c d0 88 af bc
       -0.071684055 -0.18337624 0.022543123 -0.021427542
0002c0 0b 23 fb bd f0 62 b5 3d 95 2b 4b bd 9b 2f a1 bd
       -0.12262543 0.088567615 -0.04960211 -0.07870408
0002d0 62 2b 37 3b c7 dd b6 3b 3c a7 eb bd 59 95 2d 3d
       0.0027949442 0.005580637 -0.11506507 0.042378757
0002e0 a0 b1 82 3d 12 01 89 3d 1d 2b a7 3d e8 db 15 bd
       0.063815355 0.06689657 0.0816252 -0.036586672
0002f0 d1 f4 82 3d 9f a3 b9 3c 8c 51 32 be 69 22 8c 3a
       0.06394351 0.022661028 -0.1741392 0.0010691407
000300 5a ae e2 3e f8 fe 0a be af c8 2a 40 24 2c e5 be
       0.44273645 -0.13573825 2.6684988 -0.4476024
000310 bb 7b f2 bd 89 0e 90 bf e9 5a 6a bf f1 fd c6 3e
       -0.11840006 -1.1254436 -0.9154497 0.38865617
000320 e5 9c 93 bf b9 b1 bf 3d 01 2e ac bd bf 88 0b 3f
       -1.1532255 0.0936007 -0.08407212 0.5450553
000330 5b 7b 6c 3e 54 a7 6f bf ef 8b 7c 3f e9 b9 3a be
       0.23093931 -0.936147 0.9865102 -0.18234982
000340 b2 cc 20 be c5 56 8e 3e bd 3c 4b bd b6 ab 80 be
       -0.15703085 0.27800575 -0.04961847 -0.25131005
000350 da d1 3b 3f 9c 7d f6 bd 24 a3 12 be 1a c0 16 3f
       0.73367083 -0.12035677 -0.14320046 0.58886874
000360 eb a3 bc bc 3c b6 37 3e 25 71 d4 be 01 0d 07 3e
       -0.02302738 0.1794061 -0.41492572 0.13188554
000370 5d e3 73 bd a5 93 ac 3e 84 5b 7b bd 30 91 da 3a
       -0.059543002 0.33706394 -0.061366573 0.0016675349
000380 f4 2c 85 3d 40 b5 37 3d 5b db 0a 3b 35 53 1d be
       0.06502715 0.044850588 0.0021187875 -0.15363772
000390 ce 30 38 3e 8f 7e 7e 3c 4d 27 c5 3e cb c3 a2 bf
       0.17987368 0.015533104 0.38506547 -1.2716001
0003a0 5b 65 6e 3e 1f 20 5c bf 91 0d a8 bf 82 aa 3c 3e
       0.23280852 -0.8598651 -1.312914 0.18424419
0003b0 58 d3 99 3f e1 da 4a 3d 82 ac 20 3f 30 8b fd be
       1.2017622 0.049525145 0.62763226 -0.49520254
0003c0 29 ac 16 be cd 84 bc bd 30 ca d3 3e 97 3e c5 3e
       -0.14714111 -0.09205017 0.41365194 0.38524315
0003d0 a7 e3 80 3e 70 f6 87 3d 99 d2 6d bc 60 a7 d2 be
       0.25173685 0.06638801 -0.014515542 -0.41143322
0003e0 02 96 92 be f2 f0 96 bd 58 01 20 be 86 31 40 bf
       -0.28630072 -0.073701754 -0.15625513 -0.75075567
0003f0 1a b3 54 3d 72 96 4f 3f b0 fa 93 bf 72 c1 d4 bd
       0.051928617 0.81088936 -1.1560879 -0.10388459

conv2.bias f4 [64]
000000 df 68 c3 bf 9c ba 5c bd 05 b7 3a c0 ab 28 57 bf
       -1.5266379 -0.053888902 -2.9174206 -0.8404643
000010 c6 ab 54 3d 4f 00 8d bf 84 cf 49 be 03 d6 b8 bf
       0.05192163 -1.1015719 -0.19708067 -1.4440311
000020 3e 66 af bd c5 fd 91 bc fc 77 7e 3d 77 b9 b3 3b
       -0.08564423 -0.017821202 0.062126145 0.0054847556
000030 91 05 22 bd 7c 14 89 3e ae 7f 8e bf 44 08 a4 be
       -0.03955609 0.2677344 -1.1132715 -0.32037556
000040 2c 3c 43 3d c5 f5 a2 bd c7 fd 72 3c 0c db 14 3d
       0.047664806 -0.07957033 0.014831013 0.036341712
000050 cf 89 09 3e 8c 0f 60 bc 8e ce 25 bc d9 ae 94 bc
       0.13431476 -0.013675582 -0.010120047 -0.01814978
000060 7f 46 82 be 24 44 73 bd 7e fb ed bd 88 0b b2 3d
       -0.2544441 -0.059391156 -0.11620234 0.08693606
000070 a2 31 bd bd 27 8c 9a 3c a2 1c f7 bf f9 00 26 3d
       -0.09237982 0.018865658 -1.9305613 0.04052827
000080 21 22 d7 be 7a 2a cc bd ac 96 17 c0 af 14 b2 3f
       -0.42018226 -0.09969039 -2.3685713 1.3912562
000090 fc c9 61 ba 93 f7 ae bd 83 b4 aa 3c 29 66 90 bd
       -0.0008613167 -0.08543315 0.020838028 -0.070507355
0000a0 7e 82 67 3f 10 4e 76 3d 20 c2 ce bd 35 1b 26 bd
       0.9043349 0.06013304 -0.1009562 -0.04055329
0000b0 06 de 46 be b3 e9 18 c0 6c 63 98 bd a1 54 4a 3c
       -0.19420633 -2.3892639 -0.07440838 0.012349279
0000c0 7a 19 46 3d fd 97 ec be 9a cc 51 bd 53 50 fd bd
       0.04836414 -0.46209708 -0.051220514 -0.12368836
0000d0 a5 75 eb 3d d6 0c 44 3e cf 17 5a 3d b8 c3 c6 be
       0.11497048 0.19145522 0.053245362 -0.38821197
0000e0 51 c9 aa bd c0 7c 7d bd 0e 70 24 bf 0e 84 76 3c
       -0.08339179 -0.06188655 -0.6423348 0.015046133
0000f0 c0 30 75 bf 8e e9 02 3b 39 35 41 c0 82 98 9e be
       -0.9577751 0.0019975635 -3.0188735 -0.3097573

cause_networks.0.0.weight f4 [100, 128]
000000 48 fd 27 be 91 ca 84 be 18 21 c2 bc f9 a3 6f bd
       -0.16405213 -0.25935796 -0.023697421 -0.058505986
000010 53 73 8f 3f 1b f1 62 bd 2d 26 1a be ae 11 8b be
       1.1207069 -0.055405717 -0.15053625 -0.27161926
000020 f5 1b eb 3c 29 fd 94 bd 52 4b 26 be 51 b1 00 bc
       0.028699854 -0.07274849 -0.1623967 -0.0078547755
000030 10 ad a7 3e 49 4a 95 bd 7f c3 8f 3e 9b 19 dd 3f
       0.32749224 -0.072895594 0.2807884 1.7273439
000040 5d 56 05 bd 9e fa 1d 3d 6e 25 f5 bd 3f 19 f5 3d
       -0.032553066 0.038569085 -0.1197003 0.11967706
000050 f5 b4 a1 39 8f c7 36 bd 58 9b ef 3d 3e 05 c5 be
       0.00030843136 -0.044623908 0.11699551 -0.38480562
000060 ea 30 85 3d 29 d1 22 bd 8c 5b 1d be f3 f6 25 3e
       0.0650347 -0.039750252 -0.15366954 0.16207485
000070 4e dc 89 3e 67 29 97 3e 12 d2 5a bf 79 14 61 3d
       0.26925892 0.29523775 -0.8547679 0.054951165
000080 af b9 4d 3d 6a 67 d4 3c 14 8a 8e bd 05 73 02 3d
       0.05022591 0.025928218 -0.0695993 0.031847972
000090 0e b2 a8 3d 76 84 83 3c ab d7 06 bd 21 ca 90 bb
       0.08237086 0.016054373 -0.03292052 -0.004418627
0000a0 c5 f2 6b bd 1b 8a f0 bd 35 b4 8f 3d d2 a8 c9 3d
       -0.05760457 -0.117450915 0.07016794 0.09846653
0000b0 b1 c5 23 3d 60 8c 52 3d 06 d6 89 bc 83 39 af 3d
       0.039983455 0.051403403 -0.016825687 0.08555891
0000c0 16 76 99 3e b2 f6 ac bc f9 06 b1 3c 31 2c ed bd
       0.29972905 -0.021113727 0.02160977 -0.115806945
0000d0 1b b7 0d bd ec f8 4a 3d f0 d9 f4 3c ab 51 93 bb
       -0.03459845 0.049553797 0.029889077 -0.0044958196
0000e0 b3 f9 b7 3d da 9b 62 bd b3 44 2f 3e 22 db d8 3e
       0.08983173 -0.055324413 0.1711605 0.42354685
0000f0 9a b1 68 be 39 c1 4f 3c 9e 0c 51 bd ee 16 01 bd
       -0.22724 0.012680345 -0.051037423 -0.031516008
000100 e0 2d 9a 3e 03 22 6d 3f f6 c2 50 3c 34 a6 17 bd
       0.30113125 0.9263002 0.012741795 -0.037023738
000110 ae cf 16 bf 03 c3 bb 3e 0a 6e bf bd a7 c0 2b 3f
       -0.58910644 0.3667222 -0.0934716 0.6709084
000120 fb 26 0d be 0b 99 04 be f3 fd 91 3d 41 2b d2 bc
       -0.13784401 -0.12949006 0.07128515 -0.02565539
000130 6e d9 9f bd df 13 9c 3c 1a 10 56 3c f2 d9 a1 bd
       -0.07805143 0.019052444 0.013065362 -0.07902898
000140 bd 22 a2 bf 8f f9 f6 bd f8 83 c5 3d e9 eb 8d 3d
       -1.2666851 -0.12059318 0.09644312 0.06929762
000150 69 ae 00 bd 28 b2 52 be 86 9d 6b bd 9e e5 44 bd
       -0.03141633 -0.20575774 -0.057523273 -0.048070543
000160 96 fa ce 3d 07 ac 1f 3d 8a 1e 0a bf 14 6a 87 3f
       0.10106389 0.038982417 -0.5395285 1.0579247
000170 bd 07 89 bd b3 b5 3c bd f9 ab 18 3c 7a 2b a9 3d
       -0.06690929 -0.04607172 0.009318345 0.082602456
000180 0c 92 98 3d 60 3f 47 bd a9 cf 86 be 41 74 88 3e
       0.07449731 -0.048644423 -0.26330307 0.26651195
000190 63 b7 6c bf df 6d 0b bd c2 30 57 3d 28 6a ed 3a
       -0.92467326 -0.034040328 0.052536733 0.0018113302
0001a0 df 26 8b bd a4 09 41 3e 44 95 73 3e fc 31 e3 be
       -0.067945234 0.18851334 0.23787409 -0.44374073
0001b0 5a cf f2 3b e1 73 b9 3c 87 70 8c bf 27 ae 2a 3f
       0.007409972 0.022638263 -1.0971841 0.66671985
0001c0 68 99 73 3d 48 28 5c 3d d5 39 95 3d fd 7b a6 3d
       0.05947247 0.053749353 0.07286421 0.08129118
0001d0 87 8d 7e 3e ae 4b fa 3d 69 89 78 bd 9f 98 aa 3d
       0.24858676 0.12221466 -0.06067792 0.083298914
0001e0 69 1e d5 3d 1b 57 c2 be a2 c7 d0 bb d0 2d 1d 3e
       0.10406191 -0.3795708 -0.0063714543 0.15349507
0001f0 1e 52 c9 3e b8 cf 83 be e7 71 e4 3e 65 06 21 3d
       0.39320463 -0.25744414 0.4461815 0.03931274
000200 56 a9 e6 3e c9 c5 2d 3d de c8 10 3c 20 c4 be 3c
       0.45051068 0.04242495 0.008836953 0.023286879
000210 01 06 12 be 1f 88 43 bf 79 0d 69 be 3f e7 8b 3e
       -0.14260103 -0.7637958 -0.22759046 0.27324864
000220 b5 a6 a7 3c 04 85 5a 3d 45 68 77 bd 4d 4e 41 3f
       0.020465234 0.05334951 -0.060402174 0.755101
000230 6b f5 3f be 82 4a 99 3d 1d f0 13 bf d6 0f f5 be
       -0.18745963 0.07484914 -0.5778826 -0.47863644
000240 e1 35 a8 3d d6 7e 82 bd 7d ca 5e 3d 1b 06 77 bd
       0.082134016 -0.06371848 0.054392327 -0.060308557
000250 85 59 8a bd a8 71 18 bd 4a 0b fe 3e df f6 bc bd
       -0.06755356 -0.037217766 0.49617988 -0.092267744
000260 0e 40 0f bd 90 fd 53 bb 25 95 ab 3d 24 79 ad 3d
       -0.034973197 -0.003234718 0.083780564 0.08470371
000270 8a b7 30 3f ed 5f 52 be a3 2a e6 3d 8b 63 45 3e
       0.6903006 -0.20544405 0.11238601 0.19276254
000280 8a 0a fc 3c 49 18 4a 3e e2 c6 c2 3d 3d 26 23 bd
       0.030766744 0.19735827 0.0951059 -0.03983139
000290 4d b1 84 3d a0 7f 68 bd be 03 4b 3d 58 a0 04 bd
       0.0647913 -0.056762338 0.049564116 -0.03237948
0002a0 6f 6e 9a 3c 99 76 87 3b a4 b9 15 3d 16 14 92 bc
       0.018851487 0.004134011 0.036553994 -0.017831843
0002b0 22 3d ed bb f5 6e 9a 3b bc a7 07 bd e6 16 b8 bd
       -0.0072399536 0.004712934 -0.03311895 -0.089887425
0002c0 b0 b6 b7 3d 13 35 7d bf 2d c7 b1 bd 0d 5a 0c be
       0.08970392 -0.9890911 -0.08680568 -0.13706227
0002d0 18 36 bd 3d 67 b7 09 bd 5f 44 6c bd c6 a9 9e 3d
       0.09238833 -0.03362217 -0.05768239 0.077472255
0002e0 da ed 93 bb a0 bc 92 bb 20 ab e4 bd ba ef f9 3d
       -0.004514438 -0.0044780523 -0.11165452 0.12203927
0002f0 3a 4b a9 3e 97 a0 53 3e bb fd 95 bd 18 57 2d 3d
       0.33065206 0.20666729 -0.07323786 0.042319387
000300 57 58 1b c0 c4 01 9b be 45 5b b2 3c f6 b1 77 bd
       -2.4272668 -0.30274785 0.021772036 -0.06047245
000310 4b 73 13 bd 50 1d 3d 3e b3 3e f8 be a6 ab c4 bf
       -0.035998624 0.18468213 -0.48485336 -1.5364883
000320 f9 d7 d1 3d 60 02 c2 bc e7 1e 31 3c 18 fc c4 3d
       0.10246272 -0.023682773 0.01081059 0.096183956
000330 e5 70 40 3d 51 d0 c1 3c 54 ae a1 bc 88 42 5e 3d
       0.046982665 0.023658903 -0.019736446 0.054262668
000340 ea 1e a9 3e 5d 20 33 bf d9 2d a1 bd 77 cf 9d 3d
       0.33031398 -0.6997126 -0.07870073 0.077055864
000350 4a 0f 99 3b ad be 09 3e a5 d2 21 bd 34 b7 67 bd
       0.004671012 0.13451643 -0.039507527 -0.0565712
000360 ba 1a 0d be 6e 10 83 be a0 06 9a 3d c7 d2 29 bf
       -0.13779727 -0.25598472 0.07520795 -0.66337246
000370 fb 64 5b 3d 47 3f 7c bd 24 4f 8d bc bd e9 b9 3c
       0.0535631 -0.061583783 -0.017249651 0.022694463
000380 79 c0 4b bd 98 03 85 3d 02 97 be 3d ea 5a bd bd
       -0.049744103 0.06494826 0.09306146 -0.09245856
000390 6f 1c 82 3f c7 f0 24 bf d1 ab 58 bd d5 1f 11 bd
       1.0164927 -0.644299 -0.052898232 -0.035430748
0003a0 09 bc 62 bd 5e 51 80 3c 84 81 16 bf 7b 1f 0c 3f
       -0.055355106 0.015663799 -0.58791375 0.54735535
0003b0 d7 96 62 3d 00 af 4d bd 32 38 87 bd 78 5a 1d 3f
       0.055319633 -0.05021572 -0.06602515 0.6146617
0003c0 07 c8 eb 3b 9b 1b bd 3c 38 fd 91 3d f0 ba 9a bc
       0.007195476 0.023084452 0.07128376 -0.018887967
0003d0 e4 06 0c 3f 46 f5 fd 3d fd 80 ab 3d 36 34 e8 3c
       0.54698014 0.12400298 0.08374212 0.028345209
0003e0 36 22 0f 3e 4f 29 78 3f e9 94 15 3d d1 cf 9b bd
       0.13977894 0.9693803 0.036518965 -0.07607997
0003f0 cb 20 ed 3e ab 0e 90 3e 3c 5e 54 bc 0b 0f b4 bd
       0.46314082 0.2813619 -0.01296192 -0.08791932

cause_networks.0.0.bias f4 [100]
000000 00 e3 25 3d 6b 73 12 3e f7 4d 16 bd ec 4e 49 3e
       0.040499687 0.14301841 -0.036695447 0.19659013
000010 53 e4 de 3d 81 ce 4d bd 0a 9a 53 3e 25 db 27 3d
       0.10883393 -0.050245766 0.2066423 0.040980477
000020 3a ee 95 bd b6 71 27 be 14 06 e2 bd 6f 89 6a be
       -0.07320829 -0.16351971 -0.110363156 -0.2290399
000030 8d 74 61 bd 3f a5 d7 ba 97 08 aa bd 51 b5 97 3d
       -0.055042792 -0.0016452445 -0.0830242 0.0740763
000040 36 bc a0 bb 63 3f 9f bd e4 5e 19 3e bc 33 5b 3d
       -0.004905249 -0.07775762 0.14977604 0.053516135
000050 29 74 11 be 20 ff c8 3c b4 f2 b6 bb 93 df f2 3d
       -0.14204468 0.024535716 -0.0055831317 0.1185905
000060 40 39 56 3e 50 5d c2 3d dd 05 10 3e 85 92 01 be
       0.20920277 0.09490454 0.14064737 -0.12653549
000070 d5 e9 2a be af 65 e9 bc a1 e9 9e 3d b2 ed c5 bd
       -0.16690762 -0.02849087 0.07759405 -0.096644774
000080 00 35 76 3e e3 cd 5c be b3 2e 46 3d 91 55 c2 bb
       0.24043655 -0.21562915 0.04838438 -0.0059306105
000090 43 65 8a 3d 8b cf 4c 3d 23 67 b3 3d fa 7a 28 3d
       0.067575954 0.050002616 0.08759906 0.041132905
0000a0 3e d9 3a 3c 66 93 0e 3d 7e dd 44 be a3 b9 ba 3e
       0.011404334 0.03480854 -0.19225118 0.36469755
0000b0 9f c9 af be a9 6f 8d bc e1 77 57 3b 93 fd 11 be
       -0.34333512 -0.017265158 0.003287785 -0.14256887
0000c0 60 ff 27 bd e4 4f 5f bd 15 9e 60 3d 26 93 be 3c
       -0.04101503 -0.05451955 0.05483826 0.023263525
0000d0 5b eb 23 3c 2b dc 72 bb 69 88 be bd 59 9a c5 3d
       0.010004844 -0.00370575 -0.09303362 0.0964858
0000e0 48 4c 54 bd ea 36 1f be 57 84 b7 bc f7 8e 84 3d
       -0.05183056 -0.15548292 -0.022401972 0.06472581
0000f0 35 98 11 bd 7c 23 07 be f4 a1 46 bc ac 2f d3 bd
       -0.035545547 -0.1319713 -0.012123574 -0.10311827
000100 b6 3b 9c bd 03 93 a1 bd 2a dd 77 bc dd 42 8a bd
       -0.076285765 -0.078893684 -0.015128413 -0.067510344
000110 e2 a5 15 bd 5b 34 64 3e 23 af c4 3e 2d af b0 bd
       -0.03653515 0.22285597 0.3841487 -0.08627162
000120 28 c3 ec 3e fb 64 91 be 72 6f 42 bd 93 e1 fc 3d
       0.46242642 -0.28397354 -0.047469564 0.12347712
000130 c4 35 7c be 3d 3c cb bd 18 30 15 3b 61 10 84 3e
       -0.24629885 -0.09923599 0.0022764262 0.25793746
000140 16 f4 c8 bd ff f4 c7 bd 73 e5 62 3d be 6e 9a 3b
       -0.09812181 -0.09763526 0.0553946 0.0047129085
000150 02 04 5d 3d 0c e3 56 3e 5f b9 9c bd c5 f8 b5 bd
       0.0539589 0.20985049 -0.07652544 -0.0888534
000160 c1 ba 29 3e 0d 81 ec 3d de 0a 01 bd 26 5d 55 bd
       0.16575147 0.11548052 -0.031504504 -0.052090786
000170 9e 06 2a 3e 4f 2f ac bd 4d 2e 7c 3e 01 6d df bd
       0.16604087 -0.08407461 0.24627037 -0.10909463
000180 46 54 58 3c 65 d7 2f be a3 2c ae bc 60 3e 27 bd
       0.013203686 -0.1717201 -0.021261519 -0.04083097

cause_networks.0.1.weight f4 [100]
000000 b8 d9 84 3f 14 a5 6b 3f ad d7 81 3f 5c 28 7e 3f
       1.0378942 0.92048764 1.0143944 0.99280334
000010 b4 ee d7 3f 2f 8c 92 3f fe 5a a1 3f 1e b9 9d 3f
       1.6869721 1.1449031 1.2605894 1.2322118
000020 8f a1 95 3f 37 7e a3 3f 6b 93 9a 3f c6 4f 6f 3f
       1.1689929 1.2772893 1.2076238 0.934811
000030 f4 19 86 3f d2 bb 5a 3f 2f 3a 61 3f c2 31 95 3f
       1.047667 0.8544284 0.87979406 1.165581
000040 51 fb a1 3f 2b 83 53 3f ea 1a 7f 3f 14 c8 94 3f
       1.2654821 0.8262202 0.9965044 1.1623559
000050 de 1c 5e 3f 6a b5 88 3f d0 61 72 3f 41 6a 92 3f
       0.867628 1.0680363 0.946805 1.1438676
000060 40 29 8a 3f b8 f3 6f 3f ff 0b 66 3f c1 02 81 3f
       1.0793839 0.9373126 0.89862055 1.0078965
000070 b7 e9 80 3f 60 67 99 3f e6 d2 97 3f 4a 7a b0 3f
       1.0071324 1.1984673 1.1861236 1.378732
000080 ea 85 76 3f e3 c1 87 3f 2c b6 b1 3f 6e 0c 9f 3f
       0.96298087 1.0606045 1.388372 1.2425668
000090 55 2f a0 3f e8 14 82 3f 0e c6 5c 3f c7 68 61 3f
       1.2514445 1.016263 0.8623971 0.880505
0000a0 70 21 7e 3f 1d 42 90 3f da 1a b3 3f c6 0b ab 3f
       0.9926977 1.1270176 1.399257 1.3362968
0000b0 38 42 64 3f 59 bf de 3f 0e 56 9f 3f c1 9f 5c 3f
       0.8916354 1.7402145 1.2448137 0.86181265
0000c0 d3 6b 83 3f fe 30 7c 3f 53 cd aa 3f b6 b6 be 3f
       1.026728 0.98512256 1.334391 1.4899509
0000d0 84 37 b9 3f e4 42 4c 3f d4 16 9e 3f c5 98 a1 3f
       1.4470067 0.79789567 1.2350717 1.2624747
0000e0 8f b0 5c 3f 58 fd 45 3f 8d 6e 79 3f 99 ea 6f 3f
       0.8620691 0.77339697 0.9743431 0.9371734
0000f0 31 b9 61 3f e7 0c 82 3f d2 af 84 3f 09 8c 5c 3f
       0.88173205 1.0160187 1.0366156 0.86151177
000100 f4 60 8f 3f 06 13 80 3f eb 3b a8 3f 5d 04 70 3f
       1.1201463 1.0005805 1.3143286 0.9375666
000110 02 ce 78 3f 44 62 96 3f 21 38 77 3f 84 a8 89 3f
       0.9718934 1.1748738 0.9657002 1.0754552
000120 2b 69 c3 3f 73 b8 5d 3f 37 c1 78 3f df 80 77 3f
       1.526647 0.8660957 0.9716982 0.96681017
000130 48 68 9d 3f 31 aa d2 3f 1a 11 78 3f e5 77 4c 3f
       1.2297449 1.6458188 0.96901095 0.79870445
000140 be 95 8f 3f 49 bd 9d 3f 3f 68 3e 3f 16 e9 8e 3f
       1.1217573 1.232339 0.74377817 1.1164882
000150 3d 12 9d 3f 35 45 69 3f ad d1 63 3f 1d c3 9e 3f
       1.2271191 0.91121227 0.88991815 1.2403294
000160 a0 00 6e 3f 30 42 a3 3f 82 b7 81 3f c1 9a 85 3f
       0.92969704 1.2754574 1.0134127 1.0437852
000170 fa 59 9a 3f db df 8e 3f b3 35 85 3f ad e5 aa 3f
       1.2058709 1.1162065 1.0407013 1.3351341
000180 7f 2b 8c 3f 34 e4 93 3f 11 cc 5d 3f e3 d4 88 3f
       1.0950774 1.1554017 0.86639506 1.0689968

cause_networks.0.1.bias f4 [100]
000000 ae cb 0b bf 30 56 23 bf 20 e9 1e bf b7 0a fe bd
       -0.54607666 -0.63803387 -0.6207447 -0.124043874
000010 98 5b 55 bf b2 e3 2b bf 70 d9 9d bf b5 c4 7e be
       -0.83342886 -0.6714431 -1.2331982 -0.24879725
000020 a7 77 ec be dd 0f 5a bf 5f 4e f3 be 76 24 29 bf
       -0.46185037 -0.85180455 -0.4752073 -0.6607126
000030 70 90 0a bf d8 54 e8 be a0 8b 43 bf 3b fc 27 bf
       -0.54126644 -0.4537723 -0.76384926 -0.6561925
000040 8d 4e be be ce 69 a0 3d fa 30 45 bf 34 04 3f be
       -0.37169304 0.07832681 -0.7702786 -0.18653947
000050 da ac 81 bf cf 83 ed be bb d9 e3 be ec 64 9f be
       -1.0130875 -0.46389624 -0.44502053 -0.31131685
000060 45 b0 18 bf 42 cd bc be 88 c6 a6 be 69 eb 2d bf
       -0.59643966 -0.3687535 -0.32573342 -0.6793733
000070 2a e3 fa be 7f 42 01 bf 3c d5 b4 be db 9e a2 be
       -0.49001437 -0.5049209 -0.35318935 -0.31761822
000080 33 8a 14 bf 85 c2 69 bf 3a 8b aa bf d3 55 e5 be
       -0.58023375 -0.9131244 -1.3323739 -0.4479204
000090 23 de 83 bf e9 ac 88 bf c4 2c e1 be 70 1d d1 be
       -1.0302166 -1.0677768 -0.43979466 -0.40842772
0000a0 99 5e d4 3d 34 a8 ba be 70 89 bc be d9 83 38 bf
       0.103696056 -0.36456454 -0.36823606 -0.72076184
0000b0 c8 36 32 bf 3b 08 0f bf 43 35 12 be e3 02 9b be
       -0.6961484 -0.55871934 -0.1427813 -0.3027564
0000c0 5b ad 30 bf b5 8f 6b bf 22 68 1d bf a1 a3 a8 be
       -0.6901452 -0.92016155 -0.6148702 -0.3293734
0000d0 b0 4a ec be 21 a0 1d be 10 0a 37 bf f4 82 78 be
       -0.46150732 -0.15393116 -0.7149973 -0.24268705
0000e0 b7 85 5e bf 92 bc dc be c8 a9 e6 be 34 a7 3e bf
       -0.8692278 -0.43112618 -0.45051408 -0.7447388
0000f0 fe ee 91 be e5 24 3e bf 19 7d 23 bf ca 02 11 bf
       -0.2850265 -0.74275047 -0.6386276 -0.5664488
000100 a0 ef d1 be a2 9c 9c be a6 fd 70 bf a3 67 6f bf
       -0.41003132 -0.3058825 -0.94137037 -0.9351751
000110 c7 89 3c bf b6 5d 13 c0 fb 4f d6 be c1 2d 08 bf
       -0.7364773 -2.3025947 -0.41857895 -0.53194815
000120 ff b9 92 bf 45 33 42 bf 7d 69 58 bf ad 30 05 bf
       -1.1463012 -0.7585948 -0.8453596 -0.520274
000130 93 a0 18 bf ae a0 03 bf f2 f8 0b bf 24 88 8e be
       -0.59620017 -0.5141705 -0.54676735 -0.27838242
000140 52 dc 36 bf ed 1e 43 bf 6c b8 57 be b0 37 31 bf
       -0.7142993 -0.76219064 -0.21066445 -0.692256
000150 33 72 35 bf 1b 67 35 bf ec 80 20 bf f6 c6 ce be
       -0.7087738 -0.7086045 -0.6269672 -0.4038617
000160 51 47 ff be 72 8a 03 bf 95 5b 09 bf 6d 33 3a bf
       -0.49859098 -0.51383126 -0.5365537 -0.7273472
000170 cc 49 8b bf d5 9b 36 bf 11 54 1c bf ed 9a 2e bf
       -1.0881896 -0.7133153 -0.61065775 -0.6820515
000180 de 33 e1 bd bc 4c 19 bf f1 e1 19 bf 8b b2 d3 be
       -0.10996221 -0.5988271 -0.60110384 -0.41347155

cause_networks.0.1.running_mean f4 [100]
000000 43 ba 35 41 86 1c 4c c0 b8 14 86 c1 18 fe f3 c1
       11.357974 -3.189241 -16.760117 -30.49907
000010 b7 16 1a c2 19 e4 20 42 ed 54 92 c1 13 37 60 c1
       -38.522182 40.22275 -18.291468 -14.013446
000020 ec a5 c2 c1 e5 2c 2a 42 c3 00 10 42 79 8d 18 41
       -24.331017 42.543842 36.000744 9.534539
000030 80 a9 b3 40 c9 75 61 c1 6f 05 98 41 d8 24 a2 c1
       5.614441 -14.091256 19.002653 -20.26799
000040 15 d0 1b c2 d9 48 62 40 ee 54 af c1 e3 7a c6 41
       -38.953205 3.5356963 -21.91647 24.810003
000050 d8 83 54 41 7b 3e b3 40 7f ae 97 bf 1a 9e 41 c2
       13.282188 5.601377 -1.1850127 -48.404396
000060 fe 99 56 c1 86 c8 a9 c0 c6 bc 63 c1 39 c5 55 41
       -13.412596 -5.305728 -14.233587 13.36065
000070 db 0c a2 41 74 84 94 bf 67 d7 41 c0 85 0f f9 c0
       20.256277 -1.1602921 -3.028772 -7.7831445
000080 ae 38 05 c1 8f 11 57 41 8f 2a 57 c2 27 49 ad c0
       -8.326338 13.441787 -53.79156 -5.4151797
000090 99 a6 a6 c1 6f 35 d0 c0 e9 2e 9a 40 79 bb a5 40
       -20.831347 -6.5065227 4.8182263 5.179135
0000a0 16 22 ea 3f df cf 12 42 15 e7 82 c1 0d af df c1
       1.8291652 36.703 -16.362833 -27.960474
0000b0 c8 cb 10 42 88 38 e0 c0 3e f0 93 c1 aa 3b 25 42
       36.199005 -7.006901 -18.492306 41.308266
0000c0 64 ce 44 41 e5 71 f3 41 ae f2 d5 40 b8 61 05 c1
       12.300388 30.430613 6.685874 -8.336357
0000d0 7e 88 00 3f 26 38 06 c1 03 65 4b c2 3f a4 0b c1
       0.5020827 -8.388708 -50.848644 -8.727599
0000e0 e4 8f e3 bf 5b 95 1b 42 2c ad b0 41 64 0f 31 41
       -1.7778287 38.895855 22.084557 11.066257
0000f0 31 e0 91 41 b4 d7 18 41 7c 05 6b 40 5e 99 cd 41
       18.234468 9.552662 3.6722097 25.699886
000100 60 e7 36 41 a4 3e 2e 41 29 e0 ed c1 18 97 83 40
       11.431488 10.890293 -29.734453 4.112194
000110 ae 2f 4c 41 f7 01 eb 40 ea 5d 31 c2 cc 9d f2 40
       12.761641 7.34399 -44.341713 7.5817623
000120 1c 23 25 c2 88 cc e6 41 92 7b 48 41 53 ac 1e c1
       -41.284286 28.849869 12.530169 -9.917071
000130 40 fb 29 42 93 53 9e c1 f2 5e ee 41 81 30 0f c2
       42.49536 -19.790808 29.79636 -35.797367
000140 43 c5 43 41 d8 aa 50 41 ea 7f cb 40 f7 7b 09 c2
       12.23566 13.04171 6.3593645 -34.37106
000150 d7 5e 2b 3f 11 22 c7 3f 4d cb 52 41 5f 60 83 40
       0.6694159 1.5557271 13.174634 4.105514
000160 d7 6c 84 c1 9b 06 55 c1 77 04 40 c1 8a 06 b9 41
       -16.553144 -13.314113 -12.00109 23.128193
000170 21 81 36 c1 d9 da c2 41 2b 10 9b c1 2d 84 29 42
       -11.406526 24.35686 -19.382895 42.379078
000180 35 fb 2b 41 fc 8f 9d 41 2c a9 81 41 e7 2a 5f c1
       10.74883 19.695305 16.207603 -13.947974

cause_networks.0.1.running_var f4 [100]
000000 bc e2 02 41 7c ec fb 40 0b 53 15 41 0b 19 52 41
       8.180355 7.8726177 9.332774 13.131114
000010 a3 08 4e 41 80 6f 0d 41 9b 97 54 41 f2 fe 82 41
       12.877109 8.839722 13.287013 16.374485
000020 c2 cc 43 41 ec a6 71 41 28 10 1d 41 81 26 c2 40
       12.23749 15.103252 9.816444 6.0672
000030 33 5a 2b 41 8e 6b 05 41 bc e8 27 41 f3 4c 18 41
       10.709521 8.338758 10.49432 9.518786
000040 0a 9b 53 41 1e 9b 30 41 c9 2c 1a 41 47 ed 18 41
       13.225351 11.03787 9.635934 9.557929
000050 16 df 43 41 70 eb 07 41 a3 98 1f 41 e0 8d 27 41
       12.241964 8.49498 9.974765 10.472137
000060 ec 91 0f 41 a2 e9 b7 40 e5 45 46 41 7a e2 31 41
       8.973125 5.7472696 12.392064 11.117792
000070 77 c7 62 41 03 aa 49 41 10 68 4f 41 47 8f 43 41
       14.173697 12.604007 12.962906 12.22248
000080 d6 b9 16 41 ca 3b 14 41 35 a9 6f 41 42 c5 56 41
       9.42037 9.264597 14.97881 13.423159
000090 95 bc 0f 41 ab ea 3a 41 8b a2 32 41 24 48 00 41
       8.983541 11.682292 11.164683 8.017612
0000a0 82 78 a1 41 5b aa 2f 41 36 f2 26 41 fa 5e 1d 41
       20.183842 10.979091 10.434134 9.835688
0000b0 29 12 e5 40 a4 c8 81 41 39 89 84 41 cd 3c 38 41
       7.158467 16.22297 16.567003 11.514844
0000c0 d5 0a 1b 41 98 83 64 41 1d e8 3d 41 c6 ef 1c 41
       9.690145 14.282127 11.869168 9.808538
0000d0 ba 6f 48 41 fa d3 58 41 e7 8c 14 41 05 9c 8f 41
       12.527277 13.551752 9.2844 17.951181
0000e0 97 cc 7e 41 bb b9 39 41 65 2c 0b 41 6c 9d 0f 41
       15.924949 11.607844 8.6983385 8.975933
0000f0 df b5 11 41 58 50 02 41 16 94 31 41 77 3c 03 41
       9.106902 8.144615 11.098654 8.202262
000100 7d 5e 1c 41 05 9d 10 41 cb 18 aa 41 d3 36 0b 41
       9.773068 9.038335 21.262106 8.700885
000110 e5 49 27 41 bd 0b a3 41 30 82 3a 41 9a 12 0e 41
       10.455541 20.380732 11.656784 8.879541
000120 68 c8 2a 41 12 f4 3f 41 bc cb db 40 1b 47 53 41
       10.673927 11.9970875 6.86862 13.20486
000130 16 8c 3d 41 f8 44 7f 41 87 24 86 41 55 b4 2a 41
       11.846701 15.954338 16.767836 10.669026
000140 41 56 56 41 6d 72 02 41 58 8e c6 40 05 af 2d 41
       13.396058 8.152936 6.204876 10.855229
000150 9f 67 97 41 4a 30 f1 40 6f d5 0e 41 05 6a 51 41
       18.925596 7.5371447 8.927108 13.088384
000160 54 78 49 41 51 0a ad 41 0b 32 39 41 fa 80 57 41
       12.591877 21.630037 11.5747175 13.468988
000170 58 cd 2a 41 ba 44 19 41 49 ef 35 41 37 10 40 41
       10.675133 9.579279 11.370919 12.003959
000180 64 fc 65 41 e1 4c 0e 41 57 32 29 41 b0 79 2e 41
       14.374119 8.893769 10.57479 10.904709

cause_networks.0.4.weight f4 [118, 100]
000000 1f 42 42 bf 99 86 e4 3e 66 1c b0 be e7 54 2a 3f
       -0.7588214 0.4463394 -0.34396666 0.665358
000010 74 c5 8b 3f e2 f9 7f 3d 92 f1 0d bf 8e e3 25 bf
       1.0919633 0.062494166 -0.5544673 -0.64800346
000020 1d 49 46 3f 1f b4 e3 3d 8e 31 02 c0 68 19 37 be
       0.7745531 0.1111834 -2.0342746 -0.17880785
000030 1d e4 50 bd 43 8f 89 3f 74 19 11 bf ce c4 2f be
       -0.050998796 1.0746845 -0.56679463 -0.17164919
000040 5e 4e 31 3f 26 bc 03 3f 04 1c 1a bf b4 d8 f0 be
       0.69260204 0.51458967 -0.60199 -0.4704033
000050 60 f4 d3 bf 7d 39 b7 3d 53 4f 6c 3f e5 b9 cc 3e
       -1.6558952 0.08946512 0.9230854 0.39985576
000060 d6 49 ec 3e 86 fe 39 3f 22 87 b2 bf 73 ff 84 3d
       0.46150082 0.72653997 -1.3947489 0.064940356
000070 3c ff 09 3e 6e 40 e8 bd 99 b2 06 bc 3d 5d 05 3f
       0.1347627 -0.11340414 -0.008221292 0.52095395
000080 23 5c 6c be b1 3b 0c bf c6 ae 65 bf 69 30 50 3f
       -0.23082022 -0.5477858 -0.8971981 0.8132387
000090 f9 d2 b9 be 54 a3 07 3f 86 7f 35 3f 73 b7 aa be
       -0.36293772 0.52983594 0.7089771 -0.33343086
0000a0 cd 82 c8 be 04 2d 6e be c1 d0 f1 3b 1e 58 68 bf
       -0.39162293 -0.2325936 0.0073796217 -0.90759456
0000b0 42 7a ae bf 81 c4 4c bc 3c c2 fb bd 5d b9 e6 be
       -1.363106 -0.012498022 -0.12292907 -0.45063296
0000c0 7e 48 37 bf da 48 a5 3e 84 21 0e 3f 08 b7 a1 3e
       -0.7159499 0.32282144 0.5551989 0.31584954
0000d0 26 ca c8 3e 90 58 01 bf 23 de 84 3d 15 51 93 be
       0.39216727 -0.5052576 0.06487682 -0.28772798
0000e0 9d 83 cf bf 8a 6a 7f bf 14 e3 97 3f 96 1c 1a bc
       -1.621204 -0.9977194 1.1866174 -0.0094062295
0000f0 fb 9a 16 bd ab 7f 43 be 8d 9a a6 bd f3 79 95 3f
       -0.036768895 -0.1909167 -0.08134947 1.1677841
000100 4a ec ae be 9c 78 64 3d a5 67 35 be a4 67 48 3e
       -0.3416465 0.055779085 -0.17715319 0.19570786
000110 d0 3c 25 bf 2d 3e 15 40 5e 6f 14 3c 9b 0b 18 be
       -0.6454592 2.33192 0.009059755 -0.14848177
000120 bd d9 bd 3e d2 61 c9 be 1e d0 83 3f e8 e5 f9 3e
       0.37080184 -0.39332443 1.0297887 0.48808217
000130 f0 af ce 3c d6 c9 a2 3e be c0 e3 3e 5e 45 be 3e
       0.025230378 0.31794614 0.44482988 0.37162298
000140 c1 e0 e7 be 1a f9 6b bf f4 7e 2d bf f3 2b 4b 3f
       -0.4528866 -0.92176974 -0.6777184 0.79363936
000150 1a 5d a1 bd 78 56 96 3e 20 f5 fa be 7c d4 bc be
       -0.07879086 0.29362845 -0.4901514 -0.36880863
000160 6a 40 04 3e d9 79 e0 bd 25 0f 0a bf 10 a4 9a be
       0.12915197 -0.109607406 -0.5392936 -0.30203295
000170 96 5e 9c 3d ed c4 5e 3f 29 42 67 3f fb 2e 8c 3e
       0.07635228 0.87019235 0.9033533 0.27379593
000180 9d 9d 85 3f 9f 50 21 bf c5 30 20 bf b6 08 9d bd
       1.0438725 -0.63013643 -0.62574416 -0.07667677
000190 64 8a 8a 3e c4 bf 1a bf 5f 0d bf 3e 00 a6 b6 3e
       0.2705871 -0.6044886 0.3731489 0.35673523
0001a0 81 65 cf 3f a8 a8 95 3e 80 bf f9 be 77 37 06 3f
       1.6202852 0.29230237 -0.48778915 0.5242838
0001b0 42 34 c4 3e b6 e4 a7 3e 6e 34 2c bf e5 ce 49 bb
       0.3832112 0.3279168 -0.672675 -0.0030793485
0001c0 49 d0 2f 3f 65 b9 28 bf 74 5b 7d 3d d4 4d 57 bf
       0.6867719 -0.6590789 0.061854795 -0.8410313
0001d0 23 53 94 3e 0e f5 ed bf e9 b5 3f 3d e3 76 7c be
       0.28969678 -1.859041 0.046804342 -0.24654727
0001e0 84 f4 53 3e 08 fb c3 3e 22 db 02 3e ac 3e 6a bf
       0.20698744 0.3827746 0.12778905 -0.9150188
0001f0 12 2f 54 bd 4f 92 a4 3d 8b 5c 05 bf da 27 93 3c
       -0.051802702 0.08035719 -0.52094334 0.017963339
000200 a5 43 50 bd 2b c3 60 be b7 fa 96 3f c3 77 ef be
       -0.05084576 -0.2194945 1.1795262 -0.46771058
000210 7e 3b d7 3e 7b d9 d5 3e e3 36 75 3c 4d f8 d9 be
       0.42037576 0.41767487 0.014966699 -0.4257225
000220 1b 40 00 3f c6 70 ac bd 7d 49 c4 3e 8f 13 6f 3d
       0.5009782 -0.08419947 0.38337317 0.058368262
000230 2b ff bd 3d 1a e3 03 3f 2d a1 88 3e 83 9d 36 bf
       0.09277185 0.51518404 0.26685467 -0.71334094
000240 20 5c c1 3e ed 62 0f 3f 0c 2d b8 3e dd f3 16 3e
       0.37765598 0.56010324 0.35971868 0.14741464
000250 e6 0a 09 bf c7 47 0e be 68 9d c6 bf d1 84 8e bb
       -0.53532255 -0.13894568 -1.5516787 -0.004349329
000260 1f c4 64 3f ff 45 7c be 42 7b 25 bf eb c4 a1 3f
       0.8936176 -0.24636076 -0.646412 1.263822
000270 b9 ae 2e 3d 76 06 be bd 81 9c 44 bf ea 39 42 3f
       0.042647097 -0.09278576 -0.76801306 0.7586962
000280 eb d9 0c 3e 51 38 f8 be 03 df 03 3f 81 28 ef 3e
       0.13755004 -0.48480466 0.51512164 0.4671059
000290 c7 c7 00 bf 94 a3 db bf db 8f 88 3e 1c 01 70 3f
       -0.50304836 -1.7159295 0.26672253 0.9375169
0002a0 4d 98 11 bf d8 05 59 3f 45 d6 a7 bf 26 6f 9a bf
       -0.5687302 0.8477454 -1.3112265 -1.206517
0002b0 61 aa 4d 3f e0 2c e9 be 2b 86 85 3f c0 a7 39 be
       0.803381 -0.4554205 1.043157 -0.18130398
0002c0 a1 4d 1d c0 b1 4d a4 be e7 0e 39 be d7 d7 55 3e
       -2.457863 -0.32090524 -0.18072091 0.20883118
0002d0 68 e7 f0 bc 50 ca 83 be 35 5b d5 bf 38 01 19 be
       -0.029407218 -0.2574029 -1.6668459 -0.14941871
0002e0 cf 25 0e bf b4 6b ca bd 14 f2 81 be 5e 80 74 be
       -0.5552644 -0.09883824 -0.25380003 -0.23877093
0002f0 63 d4 29 be 6b 8c 55 bf cf 3a 03 3f a4 6d 6a be
       -0.16584925 -0.83417386 0.5126161 -0.22893387
000300 d1 4b 60 3e 2f 75 3f 3f 01 fc 4d bf 47 79 7d 3e
       0.21903922 0.7478818 -0.8046265 0.24753295
000310 c6 d4 c0 be a0 e1 d9 be 09 57 c0 3e d0 74 39 bf
       -0.37662333 -0.4255495 0.37566403 -0.72443867
000320 bd 23 2f 3f 66 01 8a bf a5 b5 30 3f 88 aa d0 3e
       0.6841391 -1.0781677 0.6902717 0.40755105
000330 0a 4b c4 3e 60 8f 27 3f 1c f3 4c 3d 3a fa 5f 3f
       0.383385 0.6545315 0.050036535 0.8749119
000340 fe 09 98 3d 38 2b bb be b8 ef 50 3f b8 88 5b bf
       0.07423781 -0.3655641 0.8161578 -0.8575549
000350 de 24 63 3f 3d 14 29 3d 54 7b a3 be 73 99 92 3e
       0.8872813 0.041279066 -0.3193003 0.28632697
000360 c4 22 be 3e a9 ed 9a bd e8 12 19 bf 95 56 21 3f
       0.371359 -0.07564861 -0.59794474 0.6302274
000370 e6 3e 56 3f 89 96 35 3f 4e 8f 7a 3d c5 fb 06 3f
       0.83689725 0.70932823 0.061171822 0.5272792
000380 8a cb 60 bf 9e 26 7b 3c 7b b8 9e 3d 45 3a 5e 3e
       -0.87810576 0.015329031 0.077500306 0.21701916
000390 31 76 81 be d8 16 37 3e e5 bb 36 3f e5 49 96 3f
       -0.25285485 0.17879808 0.71380454 1.1741301
0003a0 1c 83 5f 3e 1d 18 47 bf 1f 55 8a bf b5 f4 a0 3f
       0.21827358 -0.7777117 -1.0807227 1.2574679
0003b0 37 17 01 bf 09 0a 08 be a4 95 06 bf f0 13 79 bf
       -0.5042605 -0.13285078 -0.52572083 -0.9729605
0003c0 cf a0 9d 3f 94 8d af bd b2 7c 29 3f 90 c2 24 3e
       1.23147 -0.08571926 0.66205895 0.16089845
0003d0 a9 60 f4 3f 14 33 93 3f ad 91 9b 3f 7f f9 b9 bd
       1.9091998 1.1499963 1.2153832 -0.09080791
0003e0 a8 8f 84 be 39 62 46 bf 8f 01 bb bc 14 af 49 3f
       -0.2589085 -0.77493626 -0.022827892 0.78782773
0003f0 c6 ca 3f 3f 77 73 de be a2 55 07 3e 7e 45 c1 3e
       0.7491878 -0.43447468 0.1321626 0.3774833

cause_networks.0.4.bias f4 [118]
000000 15 00 6f bd 45 c2 25 bd 71 10 ac 3d 0f ee 12 bc
       -0.058349688 -0.040468473 0.084015734 -0.00896789
000010 ec aa 5b bd 01 08 cf 3d cf 94 0a 3d 69 9a bf bd
       -0.0536298 0.101089485 0.03383332 -0.09355623
000020 c6 11 55 bd b3 fd 86 3b cf 51 df 3c 50 d4 67 bd
       -0.052018903 0.004119599 0.027260689 -0.05659896
000030 ce 8b 14 3d 0b 9f 76 3b 1b 7c 6d bd 0c 76 48 3c
       0.03626614 0.0037631418 -0.057979684 0.012235176
000040 cb 7c 74 bb a9 be 82 bd 37 9d 08 bd f2 36 66 3c
       -0.0037305828 -0.06384022 -0.033353057 0.014051186
000050 21 2e 0a bd 6d 10 34 3d 97 b1 a3 3c 7c b4 cf 3d
       -0.0337354 0.043960977 0.019982142 0.101418465
000060 4c 5b be 3d bc c7 5b bd 26 8d 4e bd d3 4f d0 3d
       0.09294757 -0.05365728 -0.05042758 0.10171475
000070 c5 bb bb bd c0 5c 70 3b 1d 2e c9 3c 0a fc 5c bd
       -0.091666736 0.0036676377 0.024558121 -0.0539513
000080 ae d2 d5 bd ad 16 9f bc ed d7 be bd 28 ab 92 3d
       -0.104405746 -0.019419992 -0.09318528 0.07161552
000090 1a 54 3c 3c 38 8b 8b 3d 4a 0f a8 bd 69 5b e0 bd
       0.011494661 0.06813663 -0.08206041 -0.10954935
0000a0 a9 20 9c bd 3f 29 0b bc af fe 60 bc 0a af f8 bc
       -0.07623417 -0.008493721 -0.013732596 -0.030356903
0000b0 5f ad 5c 3d a1 9c 0d bd 91 48 fa bc dd 49 84 3d
       0.053876277 -0.0345732 -0.03055218 0.06459401
0000c0 52 83 c9 3d 69 8f 64 3d cc 5a 99 3d 4a eb b0 bd
       0.098395005 0.05580083 0.07488021 -0.08638628
0000d0 ef 4d dd ba d5 c6 2a bd b3 dd 0b 3d 7f 74 82 bd
       -0.0016884188 -0.041693527 0.034146976 -0.06369876
0000e0 c4 d0 54 bd 5c 4f 46 3d df 93 e6 bc 52 1c 16 3d
       -0.051956907 0.048415527 -0.028146682 0.036648102
0000f0 62 0f 6d 3c 24 c9 77 bd bf 9f dc bc 72 a2 20 bd
       0.014469 -0.060494557 -0.026931642 -0.03921742
000100 0c 81 1c 3d 94 69 28 3d c6 de 90 3d fb c3 5c bd
       0.038209006 0.041116312 0.07073741 -0.05389784
000110 df 5c 39 3d 40 c8 07 bd 85 bc e7 bb e2 22 c9 3d
       0.045254584 -0.033149958 -0.007072034 0.098211065
000120 d0 7c 21 3d 76 00 2f bd 89 67 9c bd 1f 6e 88 39
       0.03942567 -0.04272505 -0.07636935 0.00026021988
000130 9f 4f b8 3d c0 05 50 bc 7d b3 2f bd 5d e4 a0 3d
       0.089995615 -0.012696683 -0.042895783 0.07856057
000140 94 a3 c8 bc 55 fb 0e 3d a5 53 22 3d 49 10 77 3c
       -0.024492063 0.034907658 0.03963055 0.015079566
000150 a5 b5 96 3c c5 5b a1 3d 9e de 4c 3c b2 8d 74 bd
       0.018397162 0.07878832 0.012504248 -0.059705444
000160 63 ce 73 bd 5b 19 93 bd e1 16 a7 bd 22 00 56 3d
       -0.059522998 -0.071825705 -0.08158661 0.05224622
000170 00 4f 1e bc b6 17 ba bd 0c d6 99 bd ca 1b 58 3d
       -0.00966239 -0.09086554 -0.07511529 0.052760877
000180 c8 49 12 3d 00 05 32 3d 96 13 fc 3c 56 12 dc 3d
       0.035714895 0.0434618 0.030771058 0.10745685
000190 13 18 0c 3d da 25 92 3c 80 e1 82 bd 1e 2b 4e 3c
       0.034202646 0.017840315 -0.06390667 0.012583522
0001a0 a6 dd 96 bd 52 f0 a3 3b b6 37 88 bc 93 ca 28 3c
       -0.07366495 0.0050030136 -0.016628128 0.010302204
0001b0 71 b4 b9 3d 1b 0f c4 bd 49 f4 84 3d c5 ce ca 3c
       0.090676196 -0.09573194 0.06491906 0.024756799
0001c0 17 63 23 3d 7e ae ca 3d eb ed 08 bd b9 19 7c 3d
       0.03988942 0.09896563 -0.03343002 0.06154797
0001d0 68 30 9a 3d a9 ec e1 3d
       0.07528764 0.110314675

cause_networks.0.5.weight f4 [118]
000000 87 e9 87 3f 6d e0 8b 3f a2 78 06 40 fd 21 93 3f
       1.0618142 1.0927864 2.1011128 1.1494747
000010 11 fa a1 3f c9 ff 73 3f d3 fd 81 3f 96 30 86 3f
       1.2654439 0.9531217 1.0155586 1.0483577
000020 d2 f1 81 3f 7e 24 88 3f 98 1e a8 3f 75 da 7d 3f
       1.0151923 1.0636137 1.3134336 0.99161464
000030 e9 59 8a 3f 2b 3d 69 3f 3e fa 99 3f 31 b3 89 3f
       1.0808688 0.9110896 1.2029493 1.075781
000040 f3 65 a9 3f 7c 6b 95 3f a0 5f 98 3f 33 0f 73 3f
       1.3234237 1.1673427 1.1904182 0.9494507
000050 96 79 71 3f 53 86 77 3f 44 4b 53 3f 57 b5 7e 3f
       0.9432615 0.9668934 0.8253672 0.9949545
000060 59 71 87 3f 57 e4 a1 3f 2a 45 9c 3f 5b e1 66 3f
       1.0581466 1.2647809 1.2208607 0.90187615
000070 bd 01 6b 3f 4c 67 54 3f 04 84 b2 3f 21 24 a4 3f
       0.9179953 0.8297012 1.3946538 1.2823526
000080 03 9b 84 3f 01 b0 6a 3f 61 dd 6d 3f 49 aa 83 3f
       1.0359806 0.9167481 0.9291592 1.0286342
000090 23 7c 87 3f a4 40 84 3f fc 6d 88 3f 12 4d 82 3f
       1.0584759 1.0332227 1.0658565 1.017977
0000a0 bf f3 88 3f 91 f1 bf 3f de 1e 6e 3f 95 46 8d 3f
       1.0699385 1.4995595 0.9301585 1.1037165
0000b0 5b f1 7f 3f 3e 2f 8c 3f 6b fa 63 3f 3d ac 92 3f
       0.99977654 1.0951917 0.8905398 1.1458813
0000c0 5f 00 7b 3f f7 05 a3 3f 1e 76 65 3f 2e bd 85 3f
       0.9804744 1.2736195 0.8963336 1.0448358
0000d0 f6 8a 8e 3f d9 de 5f 3f aa 76 b9 3f 4f c1 87 3f
       1.1136158 0.87449414 1.4489338 1.0605868
0000e0 6b b9 96 3f ec 49 85 3f 20 d5 9d 3f c8 30 9c 3f
       1.1775335 1.0413184 1.2330666 1.2202387
0000f0 f9 64 83 3f 45 d9 a4 3f cb 86 6f 3f 10 4e 7c 3f
       1.026519 1.2878805 0.9356505 0.98556614
000100 98 98 76 3f b2 db 93 3f 2e bc 82 3f 1d 3b 9c 3f
       0.9632659 1.1551421 1.0213678 1.220554
000110 49 4b ea 3f c7 50 8d 3f c8 15 53 3f ca cc 98 3f
       1.8304225 1.1040276 0.8245511 1.1937497
000120 86 5b 89 3f ef 90 a3 3f 26 85 b1 3f cf 8e b0 3f
       1.0731056 1.2778605 1.3868759 1.3793582
000130 87 da 93 3f 1a fd a0 3f 29 20 8e 3f 40 1a 6a 3f
       1.1551064 1.257724 1.1103565 0.91446304
000140 b6 18 8d 3f 25 5c 7c 3f 62 97 80 3f 65 d4 6e 3f
       1.1023166 0.985781 1.0046198 0.9329284
000150 ed 39 89 3f 74 40 9a 3f 23 f0 92 3f 68 1e 6f 3f
       1.0720803 1.205092 1.1479534 0.9340577
000160 57 68 86 3f 4b 0d a5 3f 9e b4 7f 3f 78 33 98 3f
       1.0500592 1.2894682 0.99884975 1.1890707
000170 0f 3b 92 3f 09 57 a8 3f 44 2e a1 3f 9d 44 8f 3f
       1.1424273 1.3151561 1.2592244 1.1192814
000180 fa f7 ad 3f 07 9f 8c 3f 6e 78 80 3f 3e 94 8a 3f
       1.3591301 1.0986031 1.0036752 1.082649
000190 95 fc 7d 3f c5 8d 82 3f a1 4f 76 3f ce 60 99 3f
       0.99213535 1.0199515 0.96215254 1.1982667
0001a0 65 ee 93 3f 37 08 82 3f 96 75 94 3f af 72 ad 3f
       1.1557127 1.0158757 1.1598384 1.3550624
0001b0 6a 70 82 3f c3 b0 a2 3f d7 c9 8e 3f f3 3f 87 3f
       1.0190556 1.2710193 1.1155347 1.0566391
0001c0 60 4d 85 3f c8 61 98 3f 1b 69 69 3f f7 78 98 3f
       1.0414238 1.190484 0.91176003 1.1911916
0001d0 ba 4d 7e 3f b4 40 8e 3f
       0.9933735 1.1113496

cause_networks.0.5.bias f4 [118]
000000 f3 31 d3 be 23 98 30 bf 3f 8b 05 bf 70 1a 95 be
       -0.41249046 -0.6898214 -0.521656 -0.29121733
000010 e1 01 18 bf c5 60 0a bf 5c 46 42 bf 3d 30 3a bf
       -0.59377867 -0.5405391 -0.7588861 -0.72729856
000020 de 4d 5a bf f3 33 13 bf b8 7b 8e bf 0d 1e 80 bf
       -0.85275066 -0.57501143 -1.1131506 -1.0009171
000030 ec a8 01 bf c3 12 4f bf 46 ec 4d bf fd 91 60 bf
       -0.5064838 -0.80888003 -0.8043865 -0.8772276
000040 15 88 5c bf 29 c1 15 be 70 28 0c bf f1 2b 9a be
       -0.86145145 -0.14624466 -0.547492 -0.3011165
000050 4d a7 56 bf 91 b9 56 bf fe dd c0 be 48 d3 2e bf
       -0.8384903 -0.838769 -0.37669367 -0.6829114
000060 62 0d 5a bf 77 93 ba bf b6 67 8a bf e3 90 2f bf
       -0.8517667 -1.4576253 -1.08129 -0.68580455
000070 7a 3a 4f bf 8c bf 1c bf d1 5f 17 bf cc 81 02 bf
       -0.80948603 -0.6122978 -0.5913058 -0.50979304
000080 f5 6f d9 be ea e5 0d bf 6d e4 62 bf 8c 4a 2a bf
       -0.4246823 -0.55428946 -0.886298 -0.6652
000090 0d c6 69 bf d5 1f f4 be 1b 3e 53 bf 76 a8 bb be
       -0.91317827 -0.47680536 -0.8251664 -0.36651963
0000a0 a6 5e 1d bf 29 f8 f1 be d9 4f 5d bf 9a 64 0d bf
       -0.6147255 -0.47259644 -0.8644996 -0.5523163
0000b0 3c be 3f bf 2a b1 f9 be de e3 76 bf bf 75 d3 be
       -0.7489965 -0.48767978 -0.9644145 -0.4130077
0000c0 ca 71 3e bf d8 a5 24 bf da 3c 16 bf 6c 41 44 bf
       -0.7439238 -0.6431556 -0.586866 -0.76662326
0000d0 15 b8 68 bf e2 bd 07 bf fa 71 99 bf 4c 91 8b be
       -0.90905887 -0.53024113 -1.1987908 -0.2725929
0000e0 75 0d c2 be 86 b4 27 bf fa 87 cf be bb 16 2d bf
       -0.37900892 -0.6550983 -0.4053343 -0.6761281
0000f0 f5 d4 79 bf 8e f9 73 bf fa 35 4b bf 13 c5 43 bf
       -0.9759057 -0.95302665 -0.79379237 -0.76472586
000100 df 2d 58 bf b0 fd 1a bf 43 bf 40 bf cc e2 c7 be
       -0.84444994 -0.60543346 -0.7529184 -0.3904022
000110 85 2e d4 be 6c c6 27 bf 6c 79 0d bf 66 14 5e bf
       -0.41441742 -0.6553714 -0.552634 -0.86749876
000120 73 e6 5a bf 08 45 3b bf 38 00 07 bf 61 7a 09 bf
       -0.8550789 -0.7315221 -0.5273471 -0.5370236
000130 47 27 0d bf 07 25 36 bf 63 21 e2 be 1e 78 83 bf
       -0.5513806 -0.7115025 -0.44166097 -1.0271032
000140 ec 32 47 bf d6 77 3a bf 5b 1f b2 be 01 25 63 bf
       -0.77812076 -0.72839105 -0.34789547 -0.8872834
000150 32 04 71 bf 79 86 35 bf f4 9e 28 bf 60 cf 49 bf
       -0.94147027 -0.70908314 -0.65867543 -0.78832054
000160 d1 9c 8c be 81 af 2c bf b7 c6 38 bf 50 ea e9 be
       -0.2746339 -0.674553 -0.72178215 -0.4568658
000170 65 b7 13 bf 67 12 31 bf 17 fc 81 bf d8 5e df be
       -0.5770171 -0.69168705 -1.0155057 -0.43627048
000180 25 a4 69 bf 3d 71 83 bf 9c ee 5d bf 8a 97 63 bf
       -0.9126609 -1.0268933 -0.86692214 -0.88903105
000190 0b 81 31 bf 46 27 1e be fd fe c2 be fe b4 23 bf
       -0.6933753 -0.15444669 -0.38085166 -0.6394805
0001a0 9f 83 47 bf 38 4c 40 bf 91 8b 7f bf 0e d7 27 bf
       -0.7793521 -0.751163 -0.99822336 -0.6556252
0001b0 91 ee 1c bf 75 e7 1d bf 73 e1 ac bf 97 ca e2 be
       -0.61301523 -0.616813 -1.3506302 -0.4429519
0001c0 d8 79 3b bf 9a 2e f1 be 78 76 25 bf 20 10 1f bf
       -0.73232794 -0.47105867 -0.64633894 -0.6213398
0001d0 b7 3f cf be 9f 4c fd be
       -0.40478298 -0.4947252
