foundation_models/Ensemble_model13_DeepSurv_LSTM_Event_1_20250804_235851.pt (torch, 215560 bytes, 9 tensors)

lstm_layers.0.weight_ih_l0 f4 [256, 11]
00000000: 9ff9 0cbe 2e78 343c 70dd 07bd 1c8e fc3c
00000010: 4811 003e d0d1 4c3d a409 253d 017a 13bd
00000020: 250c 07bd b151 24bd 8c9c 883e e468 dcbd
00000030: e77c 223d 273c aa3d 2d16 e73e a53a bc3d
00000040: ca3e afbd 436e 66bd 2f47 033e 392f 3d3e
00000050: 62da bf3d 58e1 80bc 558e 4e3d d5c7 dd3d
00000060: 8576 6e3d 36e4 fa3d 278b c3bc bbb1 be3d
00000070: 2083 053e 0c46 463e bc5b 733d fdae bc3b
00000080: ee76 bb3b 7c10 e23c 190b ccbc 65ff edbc
00000090: d6e6 debc 9d50 fc3d c017 0d3e 4768 503d
000000a0: dc95 2c3d f7e2 b53d 371d 353d 31ea b33c
000000b0: 5198 6cbd 38ce fabc 640a 003d 7fb4 2f3e
000000c0: 52b4 9cbc cb0a d43d f58a 683d 479e f33d
000000d0: a87e bcbd f46f 68bc 1406 44bd 9ae1 e6bc
000000e0: 8653 553c c99f c7bc ee5a b33d 1aad babd
000000f0: f7db a9bd 65e5 22bd 9265 913d 9d27 9a3d
00000100: 598c 1e3e 6dca 12bd 995d d73c e077 ad3c
00000110: e842 f03d b221 1ebe 3927 cd3c 6a5a e23d
00000120: 92f2 d0bd 97bc 8bbd f151 803d 972e 7d3d
00000130: 694a 063d f17b 1b3e 68b5 9bba 1a34 bb3d
00000140: 81f9 2e3e 008b 2dbd eb1f 893d e4a6 533d
00000150: e905 393e de8c e83d a4a0 b43d 58bd 213d
00000160: 357e 3d3b d367 303d 9e55 06be e876 d53d
00000170: c780 173e 85f6 05be 98f9 cc3d d04c d1bd
00000180: 2465 a5bc 2802 96bd 1323 e2bd 0c6c a53d
00000190: 5dd7 a9bc 839e 0d3c 77bf 2e3d 198b 733d
000001a0: 9301 78bd bb2f cf3c c496 043e 2f36 b4bc
000001b0: d7a8 663d 8e00 a1bc 0d18 3ebd d8e3 95bc
000001c0: aa1a e53d 27aa a73c 2306 0b3d 06d7 09bd
000001d0: b500 993d fe98 fb3c 11ae 033e 7f4b 8c3d
000001e0: bccf 38bc 69d8 853d aa16 38be 2b08 3abd
000001f0: 4a66 463d b432 ec3c 229b b33c f354 a23d
00000200: 07af dabd 9f74 553c f6ac 31bd f8d0 64bb
00000210: a05b 033e 57d0 433d cabf 6e3c 67ea 10be
00000220: a148 d0bd 0fc8 f93d 4b5d 993d 2b70 a7bd
00000230: 81df bf3d 7c4c 4d3d b7cc 253e bf35 4d3d
00000240: 7034 fdbd b296 18bd f008 5ebc 025a ae3d
00000250: 88e6 e3bd 64ab 4abd b88f 0dbe ac19 c0bd
00000260: 0b9a 0cbe 9eab eebd 544e 073e 5707 153c
00000270: c679 b3bd 4603 583e 1a39 51bd 342a dfbd
00000280: bf6c 753d 2f03 2cbd ecad 0d3e 980a 983a
00000290: b2b3 db3c fb63 2b3d 0c19 043e a7b8 2a3d
000002a0: a384 a23c efda 873d 0cab 96bd e7f6 a33d
000002b0: d134 29bd 89c2 233d 4fca 703d e08c 653d
000002c0: c172 913d c260 153e 9fbd 15bd 5930 d73e
000002d0: ff3a 6e3e ef9d 143e be62 b0bd 5477 a9bc
000002e0: 48cd 0c3c 5f3c a6bc 6faa 0bbe 7908 e93c
000002f0: 44f4 0c3b 75f0 183d 328f 66be 5f59 a53e
00000300: 2add 013e 3201 473d 35da 8f3d 7398 163e
00000310: 54e0 513c 722e bbbd d837 8dbd e2f8 e7bd
00000320: ad95 5fbc ac97 e63d 7606 163d 0982 fabd
00000330: 62e5 c1bc 36f0 03be 17c8 663d 1ef0 abbb
00000340: b0e3 fcbd 3d01 b03c 4ac4 413e 4e4c ba3d
00000350: 0325 1a3e 6186 883d 043b 363d 4a6b 903c
00000360: beb6 363e 86f7 6c3d b0be 0e3e 88f6 1f3d
00000370: 8aa9 773d 3afe 3f3d f0fa b4bd 71f9 0d3e
00000380: ae16 063e 58a1 393d c565 c63d 4fed e2bd
00000390: 598c debd 25b4 09bc aa08 21bd 8620 a4bd
000003a0: a5af 3b3d 2487 30bc b646 eebd 9633 6bbe
000003b0: 0841 36be 9436 653d 324a 13be 9321 bcbc
000003c0: 369e e7bb 7b14 443d cf78 063e 0bb2 333e
000003d0: ee80 553e e8a4 09bd 3033 05bd 5a88 d2bb
000003e0: 1e78 2c3e 5b6f 0a3e 02b7 683e 190c f83d
000003f0: 1579 ea3c e758 fb3c 57cf d0bd 49f5 a53d
-0.13767098 0.011014981 -0.033170164 0.030829482 0.12506592 0.05000478 0.040292397 -0.036005024
-0.032970566 -0.04011697 0.26681936 -0.10762194 0.039669897 0.083122544 0.45134106 0.09190873
-0.08556898 -0.056257498 0.12820123 0.18475045 0.09367825 -0.015732452 0.050428707 0.108291306
0.058218498 0.12250559 -0.023870064 0.09311243 0.13038301 0.19362658 0.059413657 0.005758165
0.0057209646 0.027595751 -0.024907636 -0.029052446 -0.02720968 0.12320063 0.13778591 0.050880697
0.042135105 0.08881181 0.044217315 0.021962257 -0.057762448 -0.03061591 0.03125991 0.17158698
-0.019128952 0.10353621 0.056773145 0.118954234 -0.09203845 -0.014186848 -0.04785736 -0.028183747
0.013020402 -0.024368184 0.08757578 -0.09115048 -0.08293908 -0.03976955 0.07099451 0.07527087
0.15483226 -0.03583758 0.026289748 0.021175325 0.11731511 -0.15442541 0.025043117 0.11052401
-0.102025166 -0.0682308 0.06265629 0.06181201 0.032785807 0.15183999 -0.0011879625 0.09140797
0.17087366 -0.04236889 0.06695541 0.05167283 0.18068661 0.11354993 0.08819702 0.039487213
0.0028914337 0.043067764 -0.13118598 0.1042307 0.14795218 -0.13082321 0.10008544 -0.10219729
-0.02018983 -0.0732463 -0.11041846 0.08077249 -0.020732576 0.008643749 0.042663064 0.059458826
-0.060548376 0.025291314 0.12948138 -0.021998493 0.056313362 -0.019653585 -0.046409655 -0.01829712
0.111867264 0.020466877 0.0339414 -0.033652328 0.07470838 0.0307126 0.1285937 0.06850337
-0.0112799965 0.065354176 -0.17977396 -0.045417946 0.048437394 0.02883277 0.021924559 0.07926359
-0.10677915 0.013028293 -0.04337784 -0.0034914594 0.12827921 0.04780611 0.014572093 -0.14151917
-0.10170103 0.12196361 0.07488497 -0.08175691 0.09368802 0.05012177 0.16191374 0.050100084
-0.12363517 -0.03725309 -0.013551936 0.085132614 -0.11127955 -0.049479857 -0.13824356 -0.093798965
-0.13730638 -0.11653827 0.13213474 0.009095988 -0.08763461 0.21094999 -0.051079847 -0.108967215
0.05991816 -0.041995224 0.13835877 0.0011599837 0.026819084 0.041843396 0.1290018 0.041680004
0.019838637 0.06633555 -0.07356843 0.08006077 -0.041310135 0.039980445 0.058786687 0.056042552
0.07101966 0.14587691 -0.03655779 0.42029074 0.23264693 0.14513372 -0.086125836 -0.020686783
0.008593865 -0.020292459 -0.13639234 0.028446423 0.0021507898 0.037338693 -0.22515562 0.32294747
0.12682024 0.048585124 0.070240416 0.14706592 0.012809832 -0.09139718 -0.06895417 -0.113267675
-0.013646525 0.11259398 0.036627255 -0.122318335 -0.023668949 -0.12884602 0.056343164 -0.00524713
-0.123481154 0.021484965 0.18922535 0.09096585 0.15053181 0.06666256 0.044489875 0.017629284
0.17843148 0.057853244 0.13939929 0.03905347 0.06046442 0.04687331 -0.08836925 0.13864686
0.13094589 0.045319885 0.0968738 -0.11080419 -0.10866613 -0.008404766 -0.039314903 -0.08014016
0.045821805 -0.010774408 -0.11634581 -0.22968897 -0.17798245 0.055960253 -0.14383772 -0.022965228
-0.0070684208 0.047871094 0.13132022 0.17548387 0.20849964 -0.033604532 -0.03251952 -0.006424946
0.16842696 0.13519041 0.22726062 0.121116824 0.02862219 0.03068204 -0.10195797 0.08103425

lstm_layers.0.weight_hh_l0 f4 [256, 64]
00000000: 819e 1fbd 0af3 7abe a0ba 483e 76f5 08be
00000010: 4e77 493e c710 82bd 9cd4 943e 0758 033e
00000020: 28f6 303e afbc 293d 0e9e a13c 93e7 acbd
00000030: 106a fbbc dd17 0e3e 1699 fabd d362 82be
00000040: 80d8 70be 2398 4dbe 5520 083e ce06 b7bd
00000050: 66c0 853d c876 283e 3387 023e 97e5 c0bd
00000060: 7a3d 523e ce13 76bd a70e 883d 78a5 02bd
00000070: 15e7 1ebe 4adc 13be 187e 9b3d 317c 9f3e
00000080: a0cb 88be 3f6f 02be c5e3 973c 9a17 1c3e
00000090: 9427 6a3d be5a 563e 794b dabb edc6 86bd
000000a0: dc02 753e 3e78 513e f919 d0bd ec3b c73d
000000b0: 8461 c03c 6b4b 293e 3fa6 aebd 7f38 9bbc
000000c0: b04a 623d 6ee6 4b3e ee9a 11be d82a 32be
000000d0: 4db0 783d 56c3 eb3c c352 b2bc 9068 a3bd
000000e0: 6321 dd3d 0e49 eabd 3147 1b3e e30c 253d
000000f0: 608b 1dbe ccdd 433e e988 393d df7f b9bd
00000100: 66da 9ebe 0e8e ff3d 1378 a23c bfdc 14be
00000110: 7829 2cbe ac04 e1bd baa4 043e 3e54 483e
00000120: 1675 c8bd 79c0 8c3d 5f52 cd3b 524b 37be
00000130: dc19 033d 2939 413e 2d80 4a3d 34b2 243e
00000140: b50f 123d b7c7 edbd 765f 1f3d d206 70bd
00000150: aa05 aabd 0bb0 793d b232 19bd 65cb 023e
00000160: 87b0 a9bc ecd2 623d 622a ffbd 9c3f 98bd
00000170: 2144 06be 431f 4cbc e861 f13d 716b 72ba
00000180: 535b 90bc ed63 1ebd 6bab b8bd 3357 b2bc
00000190: 9a72 8fbd 3510 873d 6f5a 203d 1eb9 4bbd
000001a0: 370c 603e d00b 023e 73e5 72bb e733 0e3d
000001b0: 394a 843d ed5b 563e 581f a93c 71b4 4e3d
000001c0: d319 99bd 6a9f b53d 39c3 ccbd c9d6 64ba
000001d0: 6e3a 57bd 4cf8 d4bd 4173 f4bc 7025 543d
000001e0: f89a 61bd 9fd8 e3bd 2167 d53d 6d3e 10be
000001f0: abee 033e 6181 0ebe baad 18be 0c81 88bc
00000200: 1048 9b3d 3e70 06be ec51 6b3d 2025 fc3d
00000210: 1eea 06be abb2 983c 8863 5a3b ebba 673d
00000220: a371 87bd f544 b23d b636 b9bb e1e9 44bd
00000230: 2fa9 9a3c 79b5 84bd 8c9d 173d 7ecd 493d
00000240: ae7e 023d 3a65 5b3c 7776 853d 5097 2f3d
00000250: 6cd6 353d 19d8 423d 67c0 8ebd 9543 91bd
00000260: 2f6e 61bd 70d2 87bc 2012 0fbe c078 283e
00000270: e732 16bd 6768 e83b a344 333e 3bd2 7ebd
00000280: 5fcc 5c3d c8c4 4ebd a365 43bc 21cb 5ebd
00000290: f5cd 6dbd e580 f73c b907 9f3d 35d2 bc3d
000002a0: 9f79 6e3d 70cc 113e c392 253d d9a2 253e
000002b0: a504 4bbd bf0e 46bd 2bcc fc3d 3a7f 73bd
000002c0: 7bd1 103e 7436 0ebe bbd1 523c 9975 aa3c
000002d0: 933d 02bd 36de db3c c7af 6b3d 28c2 2a3e
000002e0: 5a71 8ebd 2609 d5bc 3599 67bd d2d0 01be
000002f0: 4a5f 62bc 7e6b d13d f009 1ebe 7d3c 17bc
00000300: 33d6 debd 6fcd 13ba 5268 a93d f84c f63c
00000310: 8edf 263e 7362 d93d 2355 153e bb54 003e
00000320: 9e4a b4bd e427 14bd 3a6b c53d 3f11 b5bc
00000330: 8d42 f9bd 1c47 253e 8371 74bd e578 0b3d
00000340: 4b0e 853d d887 bd3c 1079 9c3c 7bcd b1bd
00000350: fc55 ca3c 432e 173e a674 3fbd 8ed6 64be
00000360: 67c2 923d 7847 eebb a2c5 79bd c211 3d3d
00000370: 03e8 043e 5949 0abe 1c93 1a3d d5ea 8ebd
00000380: d991 cebc 42f1 69bd 06cf 1fbe 07ad d03d
00000390: 9797 84bc 9d97 6dbd 2c4b c33d 52f7 91bb
000003a0: dc1c f43d edbf a33c 5fce 6d3c 2a28 473d
000003b0: 9884 803d 208c 36bd 3a05 723d d085 0f3e
000003c0: 829b 023e 4045 603e 5668 18be b6e0 c23d
000003d0: 2429 b23d c41d 1c3e b27f ae3d 7e9c 373d
000003e0: bfed 4fbc 5395 30be 12ee dabc d8d5 afbd
000003f0: 5ab2 d73d 1a52 e9bc 81d4 813b 931b 9fbd
-0.03896952 -0.24506775 0.19602442 -0.13374886 0.19674417 -0.06350856 0.29068458 0.12826549
0.17281401 0.04143971 0.019728687 -0.08442607 -0.030690223 0.1387629 -0.1223623 -0.25466022
-0.23520088 -0.20077567 0.13293584 -0.08936845 0.06530838 0.16451561 0.12746887 -0.09418791
0.20531264 -0.06007748 0.0664342 -0.031896085 -0.15517838 -0.14439502 0.0759241 0.31149438
-0.26717854 -0.1273775 0.018541226 0.15243378 0.05716665 0.20933053 -0.006661829 -0.06580911
0.23926872 0.20456025 -0.10161204 0.09728226 0.023484 0.16532676 -0.08527803 -0.018947838
0.05524701 0.1991212 -0.14219257 -0.17399156 0.06071501 0.028779667 -0.02176798 -0.07978928
0.10797384 -0.11439715 0.15163876 0.040295493 -0.15385199 0.19127578 0.045296583 -0.090575926
-0.31026 0.12478267 0.019832646 -0.14537333 -0.16812694 -0.10987219 0.12953463 0.19563386
-0.09787957 0.06872649 0.006265923 -0.17899826 0.032007083 0.18869461 0.049438644 0.16083604
0.03565951 -0.11610358 0.038909398 -0.058600254 -0.083018616 0.060958903 -0.037401862 0.12772901
-0.020714058 0.055376932 -0.12459256 -0.074340075 -0.13111927 -0.012458625 0.11786252 -0.00092475774
-0.017621672 -0.038669515 -0.090170704 -0.021770095 -0.070042804 0.06594888 0.039148744 -0.04973709
0.2187966 0.12699819 -0.0037063032 0.034717467 0.06459469 0.20933504 0.020644829 0.05046505
-0.07475629 0.088682964 -0.09998173 -0.0008729515 -0.052545957 -0.10398921 -0.029840114 0.051793516
-0.05507943 -0.111253016 0.10420061 -0.14086314 0.12884013 -0.13916542 -0.14910021 -0.016663097
0.07582104 -0.13128754 0.057451174 0.123117685 -0.13175246 0.018639883 0.0033323485 0.056574743
-0.06613471 0.08704559 -0.005652274 -0.048074607 0.018879501 -0.06479926 0.037015483 0.04926824
0.031859092 0.0133908335 0.06516736 0.042868912 0.04439394 0.047569368 -0.069702916 -0.070929684
-0.05503672 -0.016579837 -0.13971758 0.16452312 -0.036669638 0.007092524 0.17506652 -0.06221221
0.05390584 -0.050480634 -0.011926088 -0.054392938 -0.058057744 0.030212829 0.07765145 0.09219781
0.058221456 0.14238143 0.040423166 0.16175403 -0.049564976 -0.048353907 0.123436294 -0.059447505
0.1414241 -0.1388796 0.012867386 0.020808028 -0.031797003 0.026839357 0.05754068 0.16675627
-0.06955214 -0.026005339 -0.056542594 -0.12677315 -0.013816664 0.10225581 -0.15433478 -0.00923073
-0.10880699 -0.0005638217 0.08271851 0.030065998 0.16296217 0.10614481 0.14583258 0.12532322
-0.088032946 -0.036170855 0.096395925 -0.02210295 -0.12170897 0.16140407 -0.059678566 0.03405084
0.06496867 0.023136064 0.019100696 -0.086817704 0.024699204 0.14763741 -0.046742104 -0.22347471
0.071659856 -0.0072717033 -0.060979493 0.046159513 0.1297913 -0.13504542 0.03773795 -0.069783844
-0.02521603 -0.057114847 -0.15606317 0.10189252 -0.016185565 -0.058005918 0.09535822 -0.0044545317
0.11919567 0.019988978 0.014514535 0.048622288 0.0627529 -0.044567227 0.059087016 0.14015889
0.12754634 0.21901417 -0.14883551 0.095155165 0.08699253 0.1524573 0.0852045 0.044826977
-0.01269096 -0.17244463 -0.026724849 -0.08585709 0.10532065 -0.028481532 0.0039621 -0.07768931

lstm_layers.0.bias_ih_l0 f4 [256]
00000000: 0d2e da3d 7fd2 37bd 2dba 8b3d d7e9 e23d
00000010: 3714 eabd 1952 9a3d 44f6 b1bd 70cd af3d
00000020: 189d 1c3d 3896 c4bd 90e7 62bc d6a2 af3d
00000030: 31d9 b13d a1c1 cbbb 3e58 c53d 6912 50bb
00000040: 24ab 54bd a3a8 f1bb b424 1ebd feaa c73d
00000050: 3404 173e b9e7 81bb 9ccb 903d 9e35 753d
00000060: f5ac c3bd e3a7 81bd 9a4b c53c f62b 953b
00000070: bc93 f6bb b5dc 61bc bd23 4c3d 90be d8bc
00000080: dcd5 1a3c 305f 1abe d9a1 003d 0ac6 e23d
00000090: c295 03be 8598 e03d 08b7 d9bd cfa3 1ebd
000000a0: 8883 39bd e0cd 723c 27f8 ad3a 7e89 d03a
000000b0: e11e 9f3d 25d2 d53d cd33 1dbd 0588 333d
000000c0: 0e59 223d 3b31 2c3e 8b77 31be 7e5a 97bc
000000d0: eaa3 eabc 7034 f03d 52be 003e d040 d1bd
000000e0: 7fa6 253e 133c cdbd 6448 0c3e 423d 7dbc
000000f0: dd18 94bd 470b 9b3d 3e96 f73d d1d5 d93d
00000100: 3edc 003e bb07 8a3b 0fd0 29bd 752f 5fbc
00000110: f510 503d 485e e43d ab09 0c3c a110 91bc
00000120: 39e4 c8bd 3031 43be 4e50 51bd 2770 733d
00000130: 9c7a 19bd b74a 623d bc58 dd3d 0fcc 9b3d
00000140: d109 cdbd d5d7 5fbc 5304 3ebd 6c49 afb9
00000150: 70da 60bd 7b4e e6bd c17c c93c eb48 a53d
00000160: e69c d0bd 2cf2 a7bd 6ebf 56bc 5d91 a5bd
00000170: 4db3 51bd f199 1fbb 15cc 80bd ffff be3d
00000180: 718d 5bbd 4092 25be 86ff 60bd 6b81 90bc
00000190: 0f15 bb3d 8dda 0a3e b77a e03a 334f 553d
000001a0: 5b90 e13d 7f64 4ebd 4ef4 473e 17a6 003d
000001b0: 1180 0dbe 9a65 81bd 935d f8bd c7d1 9bbd
000001c0: 516d 75bd 5fc6 073e b20b f6bd a358 81bd
000001d0: 0236 aa3d 65cc fbbd a19a e1bc 2c22 e3bd
000001e0: e171 083e 3a50 cc3d 58be 383d fa33 22bd
000001f0: fc30 0cbd 6625 673d 4ba6 f83c 0237 d43d
00000200: ada5 a1bd d6f8 17be e484 d0bc 843c 95bd
00000210: c461 003e ba58 5ebd ee40 e73d f962 2cbd
00000220: 62e8 d9bc b04c 0fbe df11 823d d1e9 e9bc
00000230: ffb9 793d 8036 0e3e 0e79 4bbd 41de 02be
00000240: 182f ecbd 7591 81bd 1b86 dc3c 6221 13bd
00000250: 527e 9a3c b50e d93c 276d f43d 86bc 9cbd
00000260: 2d56 39bd 437e 563c a8d1 10bd 73b7 323e
00000270: 99ae 3ebb 5334 c3bb 3591 40bd 538a 003e
00000280: 36d5 ad3c 52a1 b13d 2e9d 0a3d 537d 633c
00000290: af47 183e a9cc 2c3e 9aa0 013c 47fd 09be
000002a0: 645d 173d 1a5e 043d 0ac0 a6bd 07ac 2ebb
000002b0: 1a92 95bd 5218 fcbd 1c9c 34bd 065f 153e
000002c0: 9880 4a3d 86a1 053e eb1b f33d 1a6b acbd
000002d0: 5ad4 d13d 5eb8 debc 4a8e 6a3d 7021 95bd
000002e0: 9084 2f3e bb4b 59bd 11a4 34bc e3be de3c
000002f0: b813 c8bd fb6e 9d3d fbc7 9d3c 68e6 fd3d
00000300: 94c5 833c 9627 263e d74b ec3d c38a bc3d
00000310: 3d75 4abd 80a3 3bbd f7d0 483d 50e9 793d
00000320: 349f b8bd de7e 3bbd 5f57 783d e34e 0f3e
00000330: 10ea b83d 3400 2ebd d40c a83d 5ea9 98bd
00000340: 358d eabd bebb b93d 9e53 a23d 42b3 183e
00000350: f8e7 883d b46b 15be 5162 5dbd fa65 c2bc
00000360: 0b8f 903d 14f2 e6bd 177a 743d 4ffa a03c
00000370: 862b 2f3e f1e6 cfbd d7c0 043d c945 de3c
00000380: cba9 973d b4d5 0abe cbe2 193e 1703 573e
00000390: e304 9bbc 2f07 483e 6920 e2ba 3565 443c
000003a0: bbd8 f43c d39f a33d 2c27 6a3c ba72 af3d
000003b0: 2f27 d33d f81f 893d 6f2b de3c d8e9 ddbc
000003c0: ebe3 d33d c3f2 efbc e272 bf3d cc35 32bd
000003d0: 5bd9 953c 1170 863c f518 8abd 3ef3 163c
000003e0: a87b ef3c 68db d93d eb1c c23b 709d 8e3c
000003f0: a1ee 033d f4c9 983c ecbb 8bbc 6014 d73d
0.10653315 -0.04487848 0.068226196 0.11079758 -0.11429637 0.0753519 -0.086895496 0.08584106
0.038235754 -0.095989645 -0.013849154 0.0857598 0.08684004 -0.0062181507 0.096359715 -0.0031749255
-0.051921025 -0.0073748394 -0.03860922 0.09749411 0.14747697 -0.003964391 0.070700854 0.059865586
-0.09554473 -0.0633085 0.024083901 0.0045523597 -0.0075249355 -0.013785531 0.04983877 -0.026458055
0.009450402 -0.15075374 0.03140435 0.11072929 -0.12850097 0.10966591 -0.106306136 -0.03873044
-0.045291454 0.014819592 0.0013272808 0.0015910116 0.077695616 0.104404725 -0.03837948 0.04383089
0.03963571 0.16815655 -0.17330758 -0.018475767 -0.028642613 0.11728752 0.12572601 -0.1021744
0.16176794 -0.10021224 0.1369949 -0.0154564995 -0.07231305 0.0757051 0.12089203 0.10636485
0.12584016 0.0042123473 -0.041458186 -0.0136221545 0.05079742 0.11150795 0.008547227 -0.017708125
-0.09809155 -0.19061732 -0.051101975 0.05943313 -0.037470445 0.055247035 0.1080794 0.076072805
-0.10011638 -0.013662298 -0.046390843 -0.00033433305 -0.05489582 -0.11245438 0.02459562 0.080705486
-0.10186176 -0.082004875 -0.013107164 -0.080843665 -0.051196385 -0.002435323 -0.062889256 0.09326171
-0.053601686 -0.16169071 -0.054931186 -0.017639836 0.09134876 0.13559933 0.0017126416 0.052077483
0.11013862 -0.05038881 0.19526789 0.031408396 -0.13818385 -0.06318207 -0.12127223 -0.07608371
-0.059918705 0.13259266 -0.120139495 -0.06315734 0.083110824 -0.122948445 -0.027539553 -0.11090502
0.13324691 0.099762395 0.0451034 -0.03960035 -0.034226403 0.05643215 0.030352732 0.103620544
-0.07892928 -0.14841017 -0.025453992 -0.07286933 0.12537295 -0.054283835 0.11291681 -0.042086575
-0.026600067 -0.13994098 0.06351065 -0.028553875 0.060968395 0.13887978 -0.049675994 -0.12780096
-0.1153242 -0.06326572 0.026919415 -0.03592051 0.018859062 0.02649627 0.11934882 -0.076531455
-0.0452482 0.013091627 -0.035356194 0.17452793 -0.0029095768 -0.0059571653 -0.04701348 0.12552767
0.021219831 0.086733475 0.033841304 0.01388486 0.14871095 0.16874947 0.007911826 -0.13475524
0.0369543 0.032316305 -0.08142097 -0.002665283 -0.07303257 -0.12309326 -0.04409419 0.1458703
0.049439043 0.13049898 0.11870559 -0.084188655 0.10245581 -0.027187523 0.057264604 -0.07281768
0.17140412 -0.053050738 -0.011025445 0.027190631 -0.09769386 0.076871835 0.019260397 0.12397462
0.016085424 0.16226038 0.11537903 0.09206154 -0.049428213 -0.045810223 0.04902741 0.06101352
-0.090147406 -0.045775287 0.0606302 0.13994937 0.09029019 -0.042480662 0.08205572 -0.07454179
-0.11452714 0.09069012 0.07926105 0.14912131 0.066848695 -0.14591867 -0.05404884 -0.023730267
0.07058533 -0.112766415 0.059686746 0.019650606 0.17106447 -0.101514705 0.03241047 0.027132886
0.07405432 -0.13558084 0.15027921 0.20997272 -0.018923229 0.1953399 -0.0017252091 0.01198702
0.029888501 0.079894684 0.014291566 0.08566804 0.10310208 0.06695551 0.02712032 -0.027089044
0.10346206 -0.029290562 0.09348084 -0.043508336 0.01829212 0.01641086 -0.067430414 0.009213267
0.029233769 0.106375515 0.0059238574 0.017409056 0.032209996 0.018650986 -0.017057382 0.10501933

lstm_layers.0.bias_hh_l0 f4 [256]
00000000: 7e39 9fbc 7fcb 8a3d 4f67 a73c 27dd cc3d
00000010: 6a0c c43d 4c94 c43b bb2e 87bc 4c51 fc3d
00000020: 6236 99bd 9f9b bdbc 768f dc3d 499e 04bd
00000030: cb86 293d 0e6b c43b 8d6f b73d 0a57 12bd
00000040: f6a0 d63c 2dd2 113e 50f4 d13d b9b1 e7bb
00000050: 9544 523d f812 ea3c b9dd 7e3e add9 e83d
00000060: 8dd4 013e 3223 61bd f4ba 1f3d 8434 bf3c
00000070: 8188 543d 32b5 a73d d5d8 b4bb 313b d2bd
00000080: 4857 353d 010a f93c 03a9 89bd 7ff4 74bd
00000090: e22f 583d a68b 5e3d cca7 bc3d 827f c63d
000000a0: 042a 1d3e 717a cfbd afcf a7ba c799 f43c
000000b0: e16e 25bc bf24 ff3d 76ba 9bbd 4f67 47bd
000000c0: 867b 973d 32f4 2f3e bfe7 c13c f51d b03d
000000d0: a762 533d 394c 433d 4234 8abb a1ae 42bb
000000e0: 7af3 603d bda3 eb3d 3c9c 9e3d b508 babd
000000f0: 9c8e 1cbe 1cf4 4e3d 5dbc 183e f792 b33d
00000100: e9dc ef3d b025 93bc 5f17 883c 9e33 76bd
00000110: 9acb 52bc 3b3f 80bd c054 c3bd 1671 07bc
00000120: 2a6d f0bd 57b1 47bd fa85 403d 14db 073d
00000130: 6f45 aabd d520 413d 0876 c3ba 745c fbbc
00000140: 3920 c13d 1134 0d3c 89ad 7e3c cd87 313d
00000150: ce00 673d b453 b1bd 5312 d53c d2db 6b3c
00000160: ac44 8b3d 89fb 41bd 63bc 6b3d b4c2 a7bc
00000170: 7a3f adbd 7527 d3bd 3e04 6f3b 7639 f4bd
00000180: 16c4 51bd 0ab9 24be d841 cdbd 8682 053d
00000190: 6661 803c b3fa e73c c39f cb3d 0522 1cbd
000001a0: e87e d5bc 459a 0cbd 27d6 6a3c 71bd 8b3d
000001b0: 8f02 38be d1dd 823c 34e2 7d3d 0399 1bbd
000001c0: 508b 02be 712b 033d 81ce 5cbc 460a 75bd
000001d0: 7c74 ab3c 98ae 08bc 5140 bebd 49e0 91bd
000001e0: 264d 9a3d 0a12 c73b a95e 403d 81fe b8bc
000001f0: 99d1 f0bd 9284 85bd e974 113e 2d16 233c
00000200: 6fbe db3d 159d 99bd 5e0b e93d 6e37 04bd
00000210: b16f 61bd ac76 22be df3c 3f3d 7437 843d
00000220: a56c 053c e5cb d1bd 035a ee3c 7ae5 6fbc
00000230: 8562 5fbc b31f 1e3e 9ba0 0a3d 8c26 cdbd
00000240: f265 ffbd 8911 8dbb 75fb 8a3c 586b 12bd
00000250: 95ba 85bd 61e5 43bd 51d0 ce3b c336 82bd
00000260: 4ad3 013e cdfc b7bd ea49 00be 3006 59bd
00000270: 7546 1e3d b2fd 283e f3d2 a7bd 3e9e d03d
00000280: 64c4 263d f47b 9fbd a745 1bbd 064f 663c
00000290: d7e4 583d 13fb 313e f8d4 e0bd 5530 423d
000002a0: 6c07 4b3d 36aa 033d 4d2d 053c 2631 7e3c
000002b0: caa5 63bd bf5a 473d a776 533b eeda 133e
000002c0: 96fa 08bd 3e83 8d3d f3a0 3fba afd8 3cbc
000002d0: f632 33bd a961 4a3d ccc4 ac3d 9de9 943d
000002e0: fc82 3c3e 09c3 47bc 1873 673d dad7 ca3c
000002f0: a4d8 92bd 030d de3d c41d 0d3e 2fd0 74bd
00000300: 0b3c 7b3d 210c 95bb 303e ba3d 063e b9bc
00000310: 9b88 d6bc 009b c23d 55ce 113d c738 92bc
00000320: a093 9fbd a3aa 773d e2fd de3a 6a1c 5dbd
00000330: ddc7 183d 60b1 8a3d 544f 9abd 6176 80bc
00000340: 5624 8d3d 73db a93d d27b b43d 1c5d c23d
00000350: 7534 47bd d2ae ab3d f2d1 483d c8a6 7abd
00000360: 7fef 7a3d 4aa2 9d3d f413 aebc b049 ecbd
00000370: 8992 d9bb 4017 e4bd ee16 e9bd 8f5a 4a3d
00000380: 82e5 71bc a258 af3c 1900 7d3d 0f1f 1f3e
00000390: db1e c63d a726 673d b44e 183e 9b83 9e3d
000003a0: a474 2a3e 1256 783d 48b5 d7bd 9307 fabc
000003b0: 30b0 ae3d ea27 cbbd a10d 0a3c b2c9 e73d
000003c0: 8711 8abd 3c00 bb3c dc93 da3d de7c babd
000003d0: e46d 503c 5021 86bc 20dd 29bd 75f0 56bd
000003e0: ce98 e4bd 8d8d f33b 2b71 7fbc 71f0 81bd
000003f0: cea0 243d 1718 093e 0469 0c3e 0050 4dbc
-0.019436594 0.06777095 0.020435004 0.10003119 0.0957268 0.0059991237 -0.016501775 0.12320194
-0.07481076 -0.023145495 0.107695505 -0.032377515 0.041388314 0.005994207 0.089568235 -0.03572754
0.026199799 0.14240332 0.10251677 -0.0070707467 0.051334936 0.028573498 0.24889268 0.11369643
0.12678738 -0.054965205 0.03899665 0.023340471 0.051887993 0.08188857 -0.0055190125 -0.10265196
0.04427269 0.030400278 -0.067216896 -0.059803482 0.05278004 0.054332398 0.09211692 0.09692289
0.15348059 -0.10130776 -0.0012802983 0.029858483 -0.010097236 0.12458181 -0.07603924 -0.048682507
0.07396607 0.17182997 0.023670075 0.08599464 0.051607754 0.047680113 -0.0042176554 -0.0029706138
0.054919697 0.1150584 0.07744643 -0.09083692 -0.15288776 0.05052577 0.14915605 0.08768266
0.11712057 -0.017962307 0.016612707 -0.06010782 -0.012865925 -0.0626206 -0.09537649 -0.008266708
-0.117395714 -0.04875311 0.04700277 0.033167914 -0.08314025 0.04715045 -0.0014912495 -0.030683734
0.09429974 0.008618371 0.015544304 0.0433424 0.05639725 -0.08658543 0.026009714 0.014395671
0.068002075 -0.047359023 0.057552706 -0.020478584 -0.08459373 -0.1031026 0.0036471034 -0.11925022
-0.051212393 -0.16086212 -0.10022324 0.03259518 0.015671443 0.028317785 0.099425815 -0.03811838
-0.02606149 -0.03432681 0.014333284 0.068232425 -0.17969726 0.01597491 0.061983302 -0.03798772
-0.12748456 0.03202385 -0.013476969 -0.05982425 0.020929568 -0.008342408 -0.09289611 -0.07122857
0.07534246 0.0060751485 0.046965275 -0.022582294 -0.117587276 -0.065194264 0.14204754 0.009954018
0.10729682 -0.07500664 0.11379121 -0.032279424 -0.055038158 -0.15865582 0.04668891 0.06455889
0.008143579 -0.10243968 0.029095655 -0.014642114 -0.013634329 0.1544178 0.03384457 -0.10017118
-0.124706164 -0.004305069 0.016965607 -0.035746902 -0.06529728 -0.047826175 0.0063114543 -0.06358101
0.12678257 -0.08983765 -0.12528196 -0.052984416 0.03864141 0.16503027 -0.08194532 0.10186432
0.040714636 -0.07787314 -0.037908223 0.014056927 0.052952614 0.17380933 -0.109781206 0.047409374
0.049567625 0.032144748 0.008128476 0.015514648 -0.05557803 0.048670527 0.0032266767 0.14438984
-0.033442102 0.06909798 -0.0007310055 -0.011526271 -0.043749772 0.049409542 0.084359735 0.07271121
0.18409342 -0.012192496 0.056506246 0.02476113 -0.07170227 0.108423255 0.13780886 -0.05976885
0.06133656 -0.004548565 0.090938926 -0.022612583 -0.026188185 0.0950222 0.035597164 -0.01784934
-0.07791829 0.060465466 0.0017012919 -0.053982176 0.03729998 0.06772113 -0.07534662 -0.015681447
0.06891696 0.0829381 0.08812679 0.094904155 -0.04863401 0.08382954 0.049028344 -0.06119421
0.061263558 0.0769697 -0.021249749 -0.11537492 -0.006639783 -0.11137247 -0.113813266 0.04940277
-0.014764192 0.021404568 0.06176767 0.15539192 0.09673854 0.056433346 0.14873773 0.077399455
0.16646057 0.060628958 -0.105326235 -0.03052119 0.08529699 -0.099197224 0.008426101 0.11317767
-0.06741624 0.02282726 0.10672733 -0.09105848 0.0127215125 -0.016373307 -0.041470647 -0.05247541
-0.11161958 0.0074326457 -0.015590946 -0.06344689 0.040192418 0.13388096 0.13711935 -0.0125312805

lstm_layers.1.weight_ih_l0 f4 [256, 64]
00000000: ff3e 563e 67c4 ad3d 145a 24be 4641 043d
00000010: c900 163c 6977 043e 3c1b 833d e0ac 1a3e
00000020: f913 de3d 10c5 e3bd 4075 a43d efc8 d23c
00000030: 17b0 37bd 9a3c 02be 32c1 8f3c 9941 fb3c
00000040: d117 a7bc e5d6 653e c906 b23b 1f33 693d
00000050: bba8 323d 8abb 7ebd 3116 293e c608 243d
00000060: 7a1f 0b3d dad5 9f3d 67a5 903d 32d9 d33d
00000070: 1e2f fa3d aa7e 77be 530d 63bc bfc9 7ebd
00000080: e742 9b3d e451 373c 63d1 f8bc 9ab1 033d
00000090: ffcf b5bd 6b7c 1fbe 61ef 84bc 32cb 343c
000000a0: 7944 fc3a dd6f 0c39 0ddd a13c a327 4d3d
000000b0: b270 06be 1d95 963c 22ee 9b3b 17df 88bd
000000c0: 38ca fcbd 8df3 883d c31b a03d c5ed 8c3d
000000d0: 19bd 0b3d 7d4d 6b3b 2ba8 b93d f913 91bd
000000e0: 5497 04be b854 ccbc b9d2 5dbd 953b db3b
000000f0: 5e95 2e3d 0c39 6d3c cf14 bb3d b82c 4fbe
00000100: 8acb 17be 8e7f 163d 3eb2 6e3d b057 43be
00000110: 6758 e23c bfc3 2dbe f6f7 003e 0f71 3fbd
00000120: 52bd 57bd 7c2d 563d 4be4 69bc 5dc0 b0bd
00000130: e43f 243e 6328 463e 4ef0 0cbc bceb eb3d
00000140: b06f 53bd 833e adbe 718d 043e 6ea5 abbd
00000150: f8c1 093d 1909 883d 4edc 0abe 4867 f0bc
00000160: 5eb1 f33d fa1a f4bd 6435 223d fe26 b03c
00000170: 8946 74bd b72d 11be 82a3 0a3e 5f05 273d
00000180: 99b2 24be 95d2 96bc 8b34 febc 3f62 603d
00000190: eb22 c5bd 8956 bb3c a12a 04be 8c90 1abe
000001a0: a35d 323e 0c38 0ebc ac5c 33bc 07ae 95bd
000001b0: d80b fe3c a3bb 1f3e 4819 c5bd c7a9 a2bc
000001c0: 4b61 57bd 9bbf 0b3e 118e 873c 37c8 cd3d
000001d0: 1399 b1bc ffe0 983d b4e6 fdbd a5e0 a33d
000001e0: 370f 313e 92c9 1abc c818 a73d c3e1 313e
000001f0: a065 0fbe d672 4cbe 2fcd 4d3d 4e45 483d
00000200: deff 1d3d 1f59 1c3e dca0 4abd 5029 6e3d
00000210: 7998 edbc d0ff 09ba bb28 0d3e 1a9a 243d
00000220: 2d59 263d 0a11 c43d ab13 b3bc 4f56 cabd
00000230: 00ff d8bd 3e67 943d 6e70 15bd ac73 953b
00000240: 882c 123e 0c6e b9bd 3781 86bd d985 9b3c
00000250: bf3d b2bd dd05 f73a 9e59 423c 4621 aabd
00000260: 0a98 c8bd 32c4 733d 3505 0a3d 12d4 8d3d
00000270: 67cd b9bc adff f2bd d59e 62bd fdac 66bd
00000280: 3d10 0e3e f846 033d 1f31 87bd ca0a fb3d
00000290: bfca 90bd 41c0 c5bd 8128 0d3d 410e 8d3d
000002a0: 90b2 833d 3c9e c43d 17e1 82bd b69c ce3d
000002b0: 1b29 8a3d 3e55 30bc 8299 fc3c 9280 853d
000002c0: 1d8a 80bd 6b9e 13be 9897 1fbe f247 22bd
000002d0: 88be 44bc f4fb 953d 1d9a 21bd 3ec7 383e
000002e0: a2b4 b03c a7f7 22be 6a60 a4bd b422 a2bd
000002f0: 634e 373d a2d7 b7bd 3246 abbd 2709 cabd
00000300: 67b3 34be 5fcd 2b3e 54e9 2dbc 0935 eabd
00000310: 30be c7bd 90a4 88bd 7421 ee3d 8e29 d83c
00000320: 6220 23bd 6433 81bc 10b1 88bd 69ae 57bd
00000330: 859f 953d a812 61bd 46c2 333e e895 463e
00000340: f41a 82bd 6373 5dbe c872 cdbd cfcb 233d
00000350: 7d38 e3bd a562 bbbd cbf4 a93d 048d 1ebd
00000360: 6dd7 50be 22e3 14be b307 8a3c 2c76 ff3c
00000370: a0b2 c2bd ec42 74be f790 323e ba69 b3bd
00000380: ca23 9bbd d719 20bd 6ef7 71bc 0417 8c3d
00000390: 31a6 7a3c 0a69 c6bd 61c8 283e 7070 dd3d
000003a0: 874e 293e 8915 033d 6161 ca3d 11e5 3f3d
000003b0: cf11 d6bd 1560 543e 3b48 a43d 197e 74bd
000003c0: c904 9dbb 8b00 ac3d 04a2 16bd 0a39 5b3e
000003d0: aba8 e23d 894a ac3d 628c b5bd 5efb f43c
000003e0: 9aec b5bc 55a1 c03d 4eed fdbd 7150 6d3c
000003f0: 1b6e 2dbd 76ab 58be 591f f2bd 0163 43bb
0.20922469 0.084847264 -0.16049987 0.032288812 0.009155461 0.12936176 0.06401679 0.15105009
0.10843653 -0.11121571 0.08030176 0.025730578 -0.044845667 -0.1271843 0.017548177 0.030670928
-0.020397099 0.22445257 0.0054329378 0.05693352 0.043617945 -0.06219057 0.16512372 0.04004743
0.033965565 0.07804461 0.07062798 0.10344161 0.12216018 -0.24169412 -0.013858157 -0.06220412
0.0758112 0.011188958 -0.03037328 0.032151796 -0.08877563 -0.15574805 -0.016227426 0.011034774
0.0019246481 0.00013393113 0.019758726 0.05008663 -0.13128927 0.01838165 0.0047586123 -0.06683176
-0.12343258 0.066870786 0.07817795 0.068812884 0.034115884 0.003590434 0.090652786 -0.070838876
-0.12948352 -0.02494274 -0.05415604 0.0066904523 0.042622916 0.014478933 0.09134828 -0.20231903
-0.14823738 0.03674274 0.058275454 -0.19076419 0.027630044 -0.16969202 0.1259459 -0.04673868
-0.052670784 0.05228947 -0.014275621 -0.086304404 0.16039997 0.19351344 -0.008602215 0.11519572
-0.051620185 -0.33836755 0.1294458 -0.083811626 0.03363225 0.0664236 -0.13560602 -0.029346123
0.118990645 -0.11919208 0.0396017 0.021502968 -0.05963758 -0.14177595 0.13538936 0.040776607
-0.16083755 -0.01841096 -0.031030914 0.054781195 -0.09625801 0.022868412 -0.12906887 -0.15094203
0.17418532 -0.008680355 -0.010947388 -0.07308584 0.031011507 0.15598921 -0.09623963 -0.019856347
-0.05258302 0.1364731 0.016547235 0.100479536 -0.021679437 0.074647896 -0.12397519 0.08001832
0.1729096 -0.009447472 0.081590235 0.17371278 -0.1400361 -0.19965681 0.050244506 0.04889422
0.038574092 0.15268372 -0.049469814 0.058144867 -0.029003369 -0.0005264254 0.13785069 0.040186025
0.04061239 0.095735624 -0.021859964 -0.09879743 -0.105955124 0.072462544 -0.036484174 0.0045609083
0.142748 -0.09054193 -0.065676145 0.018984722 -0.087031834 0.0018846352 0.011862187 -0.08307128
-0.09794624 0.05951328 0.033696372 0.06925215 -0.022680951 -0.118651725 -0.055327255 -0.05631732
0.13873382 0.032050103 -0.06601166 0.12257917 -0.07069921 -0.0965581 0.034462456 0.06887484
0.064305425 0.09600493 -0.06390589 0.10088484 0.067461215 -0.010762511 0.030834917 0.065186635
-0.06276343 -0.144159 -0.15585172 -0.039619394 -0.012008317 0.07323447 -0.039453615 0.18044755
0.021570507 -0.15914784 -0.08026202 -0.07916775 0.04475249 -0.089766756 -0.08362998 -0.09865027
-0.17646562 0.16777562 -0.010614712 -0.11435897 -0.09753072 -0.06672013 0.116274744 0.026387002
-0.039825805 -0.015771575 -0.06674397 -0.052656565 0.073058166 -0.054949433 0.17554578 0.19393122
-0.06352797 -0.21626048 -0.100316584 0.03998929 -0.11094759 -0.09149674 0.08298644 -0.0387087
-0.20394678 -0.1453977 0.016849374 0.031184278 -0.09506726 -0.23853654 0.17438112 -0.087604
-0.075751856 -0.039087143 -0.0147684645 0.068403274 0.015298412 -0.09688003 0.16482688 0.108124614
0.16533862 0.03200296 0.09881855 0.046849314 -0.104526155 0.20739777 0.08021589 -0.05969057
-0.00479183 0.08398541 -0.036775604 0.21408477 0.11067327 0.08412654 -0.088646665 0.029905017
-0.022207547 0.09405772 -0.12398778 0.014484511 -0.042341333 -0.21159157 -0.11822385 -0.002981365

lstm_layers.1.weight_hh_l0 f4 [256, 64]
00000000: 9962 8bbb 5b5d 17be 04a2 23be 8843 b43d
00000010: 8efe a3bd 62b5 d3bd 7b5a 093d bd18 bfbc
00000020: da19 ce3c 1a1a 13be 6ee4 31bc f5da 383c
00000030: b2bb 873d 7567 0ebe e1bd c53d 83b1 acba
00000040: 507f 003e 7cb8 6fbd 07f0 143b ccd4 1cbd
00000050: c7b2 453c cdcf 2ebe 70e6 efbc c9bb 18bc
00000060: 9bb6 69bb e467 d03b d369 1dbe 0092 033d
00000070: 44a7 d3bd 34ba 0dbe 40cf c33d f8de 84bc
00000080: aff3 e4bb b2a9 5c3d 8303 4c3e f183 263e
00000090: 167f 69bb 3a43 933c 4436 193e 906d 503b
000000a0: 9104 edbd 7c45 6dbd 7f10 a63c 164d b8bd
000000b0: 91a3 24be 4cbf 4c3d 3a6c 06be 32bb 333e
000000c0: acdf 4b3d 7973 3c3e 6469 92bd 7ad2 2e3d
000000d0: e299 9dbd ed55 00bd a5b9 98bd 2e2b 943d
000000e0: 3bf4 0c3e 276b 943c 0353 213e 063e 9d3c
000000f0: 3095 5fbe 6ea7 d9bd 1ecc 13bd 9379 a7bd
00000100: 24e2 2a3d 3a85 14be f0c8 19bd 6b92 21bd
00000110: 0680 dcbc 1b10 f1bd d9ac a13c 7274 8a3e
00000120: 9748 99bd 1f0d d0bd 1232 db3d e976 69bd
00000130: 348e 3c3d 4469 6b3c 87f2 453e bcb5 31be
00000140: acdd b43d 3667 023d 8b0b 943c 76fa 2b3d
00000150: a551 b13d f184 043d caf9 babd 1133 96bb
00000160: 42ba 3dbc 7e8a d73d 9f0e 71bd 4900 8dbd
00000170: 25ba 88bb 809d 15bd 8a41 333e 12ac 73bd
00000180: 498c 0f3d cc6e 0bbe df50 1ebd f761 0b3e
00000190: 6801 49bd 9c57 923d bce9 b03c 578b cd3d
000001a0: fdfe 23be c2d0 fcbd a256 e03d 005b 243d
000001b0: a46d afbd 39d7 2e3d 36f3 08be ce8f 14bc
000001c0: 199f efbc 3fa9 05be dce7 b2bd 74a8 febd
000001d0: 18ee 9abb e603 77bd b189 41be 3878 183e
000001e0: 1240 86bd b2c0 8abc 45ac e23d c0df 2b3d
000001f0: 6301 02be 93d6 ddbc c615 b7bd b0f1 38bd
00000200: 1e94 3ebd d22a 88bd 3645 8bbd 6657 1b3c
00000210: e987 a33d 0183 2abd 9f73 0ebc c8e2 a13d
00000220: 262e 993d 8a99 0f3e 75b1 4d3d 89be a13d
00000230: dc1e e73c ee51 f23d 38f3 0a3d e58c 883d
00000240: 31d6 1f3d 7d3d 473d 6d04 3abd 4b26 f5bd
00000250: 438f fa3d 9cd7 2d3d 4a84 cebd c9f3 473c
00000260: c08b b8bc a478 123e 4390 983b 33ef 0abe
00000270: 283a ddb8 fc26 a5bd 665d c63d c7fd 89bd
00000280: d1b9 9b3d 515a 10be 257c df3d 5df3 583d
00000290: 3941 c73d b753 5bbd c638 9cbd cb20 c3bd
000002a0: 1222 a03c 6298 ab3c 48a0 02bd 85bc 013e
000002b0: af09 06be 4413 cbbc 0951 0bbe fa5c df3d
000002c0: 2ab5 b03d 2fd9 223d 123b 4ebc 413c 03be
000002d0: 0d48 713c 0f20 7e3d a2e6 16bd e5e7 d4bc
000002e0: 97f7 f5bc 6d7d e13c 088e 003e 7164 c33d
000002f0: 191b 9cbb c838 44bd 8b04 b73d 7223 ec3d
00000300: 344f ae3d 4416 8f3d 2244 ab3d ae1a 5f3d
00000310: ff86 ac3d 9325 7a3c 03ac 493d a2b9 c93c
00000320: 7cce a63d 76cb 51bc 6e88 0f3d df0f 3ebb
00000330: 10e2 6bbd 7f41 9bbd 35b2 cd3d 9597 443d
00000340: 908c 0bbe c76b 99bd d10c 5abd 28fc 09be
00000350: 7a87 94bd 76e0 c9bb 1aa2 c43d 6787 ccbc
00000360: 190e fcbc 7f9f c03d 67d7 b63d eb99 393d
00000370: 20b5 d83d 7e3a a7bd 9f67 a93c 3de4 cfbc
00000380: 2a27 e0bd e21d bebb 2a26 903d bf52 9cbc
00000390: efc0 71bd 4572 2cbc 43c8 403d e244 1fbc
000003a0: 5b14 a53c 5065 d73d 1118 053e 8300 a93d
000003b0: d4c7 8fbc fab4 5cbd e4c6 76bd 5e44 afbd
000003c0: bcf4 05bd 0d1d b1bd 9a0a 0fbd 8079 eebd
000003d0: d1ed f13c 4b87 a0bd e904 a83d 44d8 843d
000003e0: fdf6 2bbc d41b f7ba 9930 28bd eec5 a3bd
000003f0: b066 91bd b11c 443d c7d9 9ebd d204 7a3d
-0.004253697 -0.14781706 -0.15979773 0.08801943 -0.08007537 -0.103373304 0.033533555 -0.023327226
0.025158811 -0.14365426 -0.010857685 0.011282672 0.06627597 -0.13906653 0.09655357 -0.0013175461
0.12548566 -0.058525547 0.0022726075 -0.038288876 0.01206655 -0.17071457 -0.029284686 -0.009322115
-0.003566182 0.006360041 -0.153724 0.03212166 -0.10334638 -0.13840562 0.09561014 -0.016219601
-0.006987057 0.05387277 0.19923215 0.16261269 -0.0035628728 0.017976392 0.14962107 0.0031803586
-0.115731366 -0.057927594 0.020271538 -0.08999078 -0.1607802 0.049987122 -0.13127223 0.17551878
0.049773857 0.18403424 -0.07149008 0.042681195 -0.076953664 -0.031331945 -0.07457284 0.07234798
0.13765042 0.0181175 0.15754323 0.019194614 -0.21834254 -0.10627638 -0.036083333 -0.08177485
0.04171957 -0.14503947 -0.037545145 -0.039446276 -0.026916515 -0.1177065 0.01973574 0.27041966
-0.074845485 -0.10158753 0.107029095 -0.056998167 0.046034053 0.014368359 0.19330798 -0.17354482
0.08831343 0.03183671 0.01807191 0.041986905 0.086581506 0.032353345 -0.09129675 -0.0045837243
-0.011580052 0.10524462 -0.058851834 -0.0688482 -0.004172581 -0.036527157 0.1750547 -0.05949027
0.035045896 -0.13616484 -0.038651343 0.1361159 -0.049073607 0.071456164 0.021595828 0.100363426
-0.16015239 -0.12344505 0.10954024 0.040125847 -0.08565834 0.04268572 -0.13374028 -0.009067489
-0.029250668 -0.13052844 -0.0873563 -0.12434474 -0.00472809 -0.060306452 -0.18900181 0.1488961
-0.06555189 -0.016937587 0.11068014 0.04196143 -0.12695841 -0.027079856 -0.089397 -0.045152366
-0.046527974 -0.06648792 -0.0680031 0.009481287 0.07984907 -0.04162884 -0.008694558 0.07904583
0.07479505 0.14023414 0.050218064 0.0789767 0.028212957 0.11832033 0.033923358 0.066674985
0.03902263 0.048642624 -0.045414377 -0.119701944 0.12234356 0.04244195 -0.10083826 0.012204119
-0.022527575 0.14303833 0.004655869 -0.1356781 -0.00010548934 -0.08064076 0.09685783 -0.06737857
0.07603801 -0.14096953 0.109123506 0.052966464 0.09729237 -0.053546634 -0.07628016 -0.09527739
0.019547496 0.020946685 -0.031891137 0.1266957 -0.13089631 -0.02478946 -0.13605131 0.10906406
0.08628304 0.039757904 -0.012587326 -0.12815954 0.014726651 0.062042292 -0.036841042 -0.025989482
-0.030025287 0.027525628 0.1255418 0.09540642 -0.0047639725 -0.047905713 0.089364134 0.11530198
0.085112005 0.06986669 0.08362605 0.054468803 0.08424186 0.015267747 0.04923631 0.02462465
0.081448525 -0.0128048565 0.03504222 -0.002900116 -0.057588637 -0.07580852 0.10043756 0.047996122
-0.13627839 -0.0749126 -0.05323488 -0.13475096 -0.072524026 -0.006160791 0.09601231 -0.024966909
-0.030768441 0.094054215 0.089278035 0.045312803 0.10581422 -0.081654534 0.020679293 -0.025377387
-0.1094497 -0.005801902 0.07038529 -0.019082425 -0.059021886 -0.010525291 0.047065984 -0.009721013
0.020151308 0.10517371 0.12997462 0.08252051 -0.01755134 -0.05388353 -0.06024827 -0.08557962
-0.0327041 -0.08648119 -0.03492222 -0.11644268 0.029532345 -0.07838305 0.082040615 0.06486562
-0.010495898 -0.0018852898 -0.04106197 -0.079967365 -0.07099664 0.047878925 -0.077563815 0.061039753

lstm_layers.1.bias_ih_l0 f4 [256]
00000000: c569 dabd 24e3 183e 8105 223d ca94 713d
00000010: f1e9 083e 591f 153d 8121 7b3b 6f4f 01bd
00000020: f2f5 ca3d ef19 073e bc27 4c3d d68a df3c
00000030: 3fda bdbd 89b5 35bd 7239 003e 1205 553d
00000040: bf7d b23d 18be fa3b 1d67 073e ea4a 543e
00000050: 863c cfbb 9241 173e f675 1a3e 4770 6b3d
00000060: ecf5 13bd b76b c03d 12c8 2b3b 3061 e13d
00000070: bd95 083e 9746 cf3d 2a9b 52bd 10fc ef3c
00000080: 0bb8 583c 9ab4 c73d bb7d 1f3e 2466 1b3d
00000090: c299 b7bb 4419 343e 6949 ecbb c077 373d
000000a0: 6e7e 0d3e 871e a53d 5280 713d 8bb1 3e3e
000000b0: 3ea0 d5bc f779 d23d 3c46 30bb 6ba6 f6bd
000000c0: 7252 fe3d 193f 1fbc 9dbc 013e a49b 7dbd
000000d0: f010 773d 7b09 023e 8640 2f3e 466b 8e3d
000000e0: 0799 c3bc 7c53 093e 7bfa 06bd 16cf f63d
000000f0: 91ef 513e 40f9 acbc 1dc3 903c 8b5b cdbd
00000100: 9ea2 a33d d71d 80bd 6df6 993d 04aa 92bd
00000110: e5fa 713d 5097 073e cef1 38bd 1554 603d
00000120: cc34 443d ea2a 703d 976b efbd 61ec ee3b
00000130: b1c9 6fbd fbb1 5ebd f8d0 423d 6ccf bcbd
00000140: 8e48 43bb 746c a23c 1bc1 d1bd 8774 6c3d
00000150: 76d2 43bd 1e60 b4bc 09a4 39bd f56c eabd
00000160: 6913 06bd f9aa 37bc 8952 07be dd4f 733d
00000170: 4d29 e13d c5f2 e3bd a48c 4abd b62f b53b
00000180: a9d5 1ebd 2936 d63d f085 013e 3b78 b63d
00000190: 4f93 1a3d ffeb 623d 9481 f93b d9c9 aa3a
000001a0: 7e21 753d dd09 2e3d 53b3 a33d 095f 013e
000001b0: 465e 803d b361 13bc ded5 013d 3f14 c83c
000001c0: a16d 8c3b 65bf 8ebd e16e c83d 4427 d03d
000001d0: b1e2 f83c b641 37bd 980c a5bd 54f0 143d
000001e0: c70c 883d 93da c23d 2222 293e e921 0abd
000001f0: 9a0f 5c3d 5721 22bd 1c29 e33d ce38 83bd
00000200: 2cd8 873d 2c8b 39bd f543 f2bd a92a 733d
00000210: f0f5 663d 3ef1 b93d 5e3b b53d a5bf 19bd
00000220: 1f0a a13c 0e82 79bd e8e9 84bc 6469 5d3d
00000230: df52 23bd 426f 9a3d 3e5a b23c 283d 9abd
00000240: 5295 fa3d e2cc 33bd dd81 dabd d85e 99bd
00000250: 8352 98bd ec69 7abc c6af c8bd f506 2a3c
00000260: 895c efbd fcab 573d 77cf 103c 5592 c63b
00000270: 145a f93d c63e 673c f5c0 1a3e d704 89bd
00000280: 3dbb 61bd 1c1d 8abd 3b9b 9b3d 3076 933d
00000290: 4ca4 80bd 9c71 503c 8c13 aabd 0927 b43d
000002a0: 6f8e f4bd fd52 1f3d 9e1b f5bd ea01 993d
000002b0: 789a 57bd 9059 4fbc cb91 19bd 6b48 8fbd
000002c0: ba40 1e3d ad74 2abd 818e cdbd c13e f0bd
000002d0: d3a5 023d 89d6 e13c 4247 b3bd 8df5 ad3d
000002e0: d068 00be 2940 92bd c820 94b8 fb8b 433d
000002f0: 99ef bc3c 5158 4dbd 4e3b b3bd 752b 2d3e
00000300: 3e36 7e3d 55d5 863d ad54 823d 6f1d 7b3d
00000310: a020 c93c 360a 31bc f319 5a3b 12ab ca3d
00000320: fc81 573e 3a79 f03d 5f28 d9bc c519 96bd
00000330: d002 de3a 200b 98bd 256e 2f3d 4a88 063e
00000340: b507 53bd fe7c 173e be48 08bd 1439 ab3d
00000350: 7513 f53c 7116 f0ba 6a0d 5f3e a7f9 933c
00000360: 1c1a fa3c 8454 863d 808c 9f3c fccd 80ba
00000370: 616c 1c3e 7940 773e 1441 e23d 1cbd e03d
00000380: c902 963c 1c3a cf3d c6f1 a3bc 6ec6 95bd
00000390: 12e9 123e ea3c 623b d4f3 633d 1518 1dbd
000003a0: 4dc4 473d e6e8 203c 71ac 393c 5a9d 513e
000003b0: bf2e bfbc 79db 913d 66c5 e03d 560f 8a3c
000003c0: e6e1 bfbd 2523 b03d b242 eb3d 6962 be3d
000003d0: ea66 7d3d 8de2 333e d2f8 a5bd 679d 243e
000003e0: 6d25 833a 2746 c1bd ae5b 0b3e 6f6b f0bd
000003f0: 7936 ba3c 9597 033e eba5 51bd ce74 00bd
-0.10664705 0.14930397 0.03955603 0.058979787 0.13370492 0.03640685 0.003831953 -0.031569894
0.099101916 0.13193487 0.04984258 0.027287882 -0.09270143 -0.04436258 0.12521914 0.05200679
0.087153904 0.0076520555 0.13222928 0.20731702 -0.0063243536 0.14771107 0.15084061 0.057480123
-0.0361232 0.09395545 0.002621178 0.11004865 0.1333837 0.10120886 -0.051417507 0.029294997
0.013227473 0.09751244 0.15575306 0.037939206 -0.005603046 0.17587763 -0.0072108996 0.044791937
0.1381776 0.08062463 0.058960266 0.18622415 -0.026077386 0.10277169 -0.0026897332 -0.120434605
0.12418069 -0.0097196335 0.12669607 -0.06191601 0.060318887 0.12698929 0.17114457 0.069540545
-0.02387668 0.13410753 -0.03295372 0.12051217 0.20501544 -0.021114945 0.017671162 -0.10027226
0.07990001 -0.062556915 0.07517705 -0.07161334 0.059077162 0.13241315 -0.045152478 0.054767687
0.047901914 0.058634676 -0.11690443 0.007291362 -0.058541957 -0.054368954 0.04756257 -0.0921925
-0.0029797885 0.019827105 -0.1024191 0.057728317 -0.047808133 -0.022018488 -0.04532245 -0.11446563
-0.032733355 -0.011210197 -0.13215078 0.059402335 0.109942056 -0.11130289 -0.04945053 0.005529369
-0.03877798 0.10459549 0.1264875 0.08909651 0.03773814 0.055400845 0.007614324 0.0013030126
0.059846394 0.042489875 0.07993188 0.1263391 0.06267981 -0.008995461 0.0316981 0.024423717
0.0042855297 -0.06970099 0.097867735 0.10163739 0.030381532 -0.0447404 -0.08059043 0.036362007
0.06643062 0.09514346 0.16516927 -0.033723745 0.053725816 -0.039582577 0.11091825 -0.06407319
0.066330284 -0.04529874 -0.11829368 0.059366856 0.056386888 0.090792164 0.08849214 -0.037536282
0.019658146 -0.060915045 -0.016224816 0.054055586 -0.039873954 0.07540752 0.021771546 -0.07531196
0.12235512 -0.043896563 -0.10669301 -0.07488793 -0.07437613 -0.015284043 -0.09799151 0.010377635
-0.116875716 0.05265425 0.008838526 0.0060599246 0.12175384 0.014114087 0.1511267 -0.06690376
-0.055110205 -0.067438334 0.07597967 0.07200277 -0.06281337 0.012722399 -0.083045095 0.08796508
-0.119412296 0.038897503 -0.11968158 0.07471068 -0.052637547 -0.012655631 -0.037492555 -0.069962345
0.038635947 -0.041615177 -0.10036946 -0.11730719 0.031896424 0.027568119 -0.08753826 0.08494101
-0.12539983 -0.07141144 -7.063296e-05 0.047740918 0.023063468 -0.050133053 -0.08751546 0.16911109
0.062063448 0.065836586 0.06363807 0.061307367 0.02455169 -0.010805657 0.0033279627 0.0989591
0.21045679 0.11741872 -0.026508508 -0.07329134 0.0016938094 -0.07423997 0.04282965 0.13137928
-0.051521022 0.14793774 -0.033272497 0.08360496 0.029916504 -0.0018317235 0.21782461 0.01806338
0.030530028 0.06559089 0.019476175 -0.0009827013 0.15275718 0.24145688 0.11047569 0.1097357
0.018311875 0.10118505 -0.020012747 -0.07313238 0.14346722 0.003452117 0.055652454 -0.038353045
0.04877119 0.009821152 0.011332617 0.20470181 -0.02333772 0.07121939 0.10975151 0.016853016
-0.093692586 0.08600453 0.114873305 0.09296114 0.061865725 0.17566891 -0.08104099 0.16075669
0.0010005661 -0.094372086 0.13609192 -0.11739241 0.022731053 0.12850793 -0.051183622 -0.031361394

lstm_layers.1.bias_hh_l0 f4 [256]
00000000: 2363 b6bd 60d5 e93d b02a 1f3e 24b3 71bb
00000010: 1744 aa3c 5852 293e cf33 d23d 43a5 c13d
00000020: 0570 a8bc 0941 933c 6aef e4bb e878 90bd
00000030: 1cdb ffbd 134b b93c df9b 073d d29e 9f3d
00000040: 53a6 083e 4e5c 423e 36a0 6c3d 655a 6a3e
00000050: 2225 4a3d 5356 163e 8b22 3e3e ea75 b43d
00000060: 60a1 b3bc ee1a abbd 0775 5d3d b1a9 9fbc
00000070: 2e42 0e3e 0fae 3b3e fa73 093d 5f8c a5bc
00000080: 818c b1bd 4254 31bc 6f4a 0e3c 5206 8d3d
00000090: 0ac6 183e 463a 203e 7b1a 9a3c 03ee b83d
000000a0: c962 aa3d ac5f 1b3e a114 593e 68ee 873d
000000b0: 943f d0bd e0bb 063d 04c2 653e 84ff 08bc
000000c0: 55e4 113e 42bb 3f3a a989 173e 6fe4 a4bd
000000d0: 1794 8a3c 32ef 023e 87ce f63c 2f3f 503e
000000e0: c6db 9e3d a8be 85bc 4938 193d 6227 bebd
000000f0: 44bc d53d 009a 05bd f8ae 24bd a526 c83d
00000100: b0a3 963d 483f 90ba 5fe2 cd3d 6c47 4a3c
00000110: ec8f c63d 7861 9bbc a39b 6a3d 8c0d d63d
00000120: e596 80ba 00e7 c63d c879 11be b43a 3f3d
00000130: babc 113d 71b4 e6bd e833 8c3c c7f5 823b
00000140: a768 10bc f7ab 473d fb32 a93d 65f6 ecbc
00000150: a358 e6bd af66 2dbc 935f 02be 8a25 753d
00000160: e7da 8d3d 92af c7bd af15 adbd 04a5 92bb
00000170: e1d7 44bc 79fb e4bd 9994 c03d 0c6a 943d
00000180: 3722 6c3d efad c0bd 8ae6 cc3d 9155 973d
00000190: 03c8 813c 845f b13d 13ae 833d 7e31 503d
000001a0: 0618 09bd c331 80bd 13fa b63c e0e3 953d
000001b0: 4efb 863d 1b0e efbc 3b4f 32bd 10fd 97bd
000001c0: 8bc2 a6bc 38a2 243d 936a 81bc 7c45 01be
000001d0: 61aa 5abc 6812 d9bd c975 f2bc 9894 75bd
000001e0: 61bf d5bc d1ad 943d fd51 d8bc a921 6c3d
000001f0: 4202 873d e205 f4bd 0fd7 483d 74dd 9dbd
00000200: b184 d13d 67be 4fbc a067 f53d d76f f83d
00000210: f579 ecbd 742b 533d b56e 013e 375c a43d
00000220: 72bd 553d 54d3 f83c 852a 933d 09d9 cdbb
00000230: faff 8e3d fac1 b43d 3b86 113e ba29 c43d
00000240: 36cf f03d e2ca bc3d 8e9b 0e3e a43b afbd
00000250: c55c ce3d 3312 7fbd cc7a 853c 649b 2c3d
00000260: 7f16 8e3c 8798 cc3d 31c4 523d ff12 2c3d
00000270: c2d4 fa3d 6591 123e 1e7f 183e 1060 873d
00000280: 8324 32bc 995f c5bd d95a ebbd 7993 063d
00000290: 5f31 9d3d 0a47 dfbd c5fb 2abd 5466 be3c
000002a0: 71ae b73d f9e7 b9bc 98ac b4bd 321e a63d
000002b0: 7cb5 583d 427b e6bd dc21 933d 60f2 9dbb
000002c0: 21cc afbc 6173 41bd 4f99 efbd dad4 813d
000002d0: 9fe0 03be 3d2b cf3d ac1a 11be 5039 75bd
000002e0: 5d74 8a3d e9f6 b93d d06d 403d 1305 503c
000002f0: 95a5 203d 2b20 10be e77f 003e 0788 cebc
00000300: 8424 093d e4c0 073e 1d37 f83d 1a71 7fbd
00000310: 2671 4b3b 86f8 093e 9742 eabc 8774 9b3d
00000320: 1b8a 103e 1fc6 bdba 16f6 133e f9d2 c03d
00000330: 532c 25be 2038 723d d293 e83d 36ab da3d
00000340: eaf9 343d 2d5a d93d 0c12 59bd 739f 103e
00000350: df66 8139 e9a3 853d 6139 133e 8547 023d
00000360: 6745 8bbc 38a9 663d 30a5 613d 7c89 f33c
00000370: 42ee 85bd 815b 313e e158 313c ded2 953d
00000380: 86e5 cebd fb0a 683c d548 04bb f468 283d
00000390: 0887 98bc e3a0 2f3e d93e b23d 1e94 87bc
000003a0: 9f9b 73bd 44a5 d03d 340d 883b 1fb2 353e
000003b0: 7515 833a 4d6c 243e 9813 963d cdbc b2bd
000003c0: 01f8 003e d3aa dd3d ba4d 163d 4d7f 913d
000003d0: ea01 733d 7007 183e 6431 a2bd 6227 163e
000003e0: 4bf4 283d e095 70bd 34f5 0a3d 20fc 813d
000003f0: 3d6a 7c3d 7f31 0f3e d225 043e 2700 843d
-0.089056276 0.11417651 0.15543628 -0.0036880458 0.02078442 0.16535318 0.10263788 0.09455349
-0.020561228 0.017975347 -0.006986548 -0.07054311 -0.12492964 0.022618806 0.033107635 0.077939644
0.13344698 0.18980524 0.057769977 0.22886045 0.04935182 0.14681368 0.18567865 0.08811553
-0.021927536 -0.08354746 0.054066684 -0.019490095 0.13892433 0.18328117 0.03355787 -0.020208536
-0.08669377 -0.010823311 0.008684739 0.06885971 0.14919296 0.1564723 0.018811455 0.09029772
0.08319623 0.15173215 0.21199276 0.06637269 -0.101683766 0.032894015 0.22437292 -0.008361701
0.14247258 0.00073139754 0.14798607 -0.08051383 0.016916318 0.12786558 0.030127777 0.20336603
0.07756762 -0.016326264 0.037407193 -0.092848554 0.104362994 -0.03261757 -0.040205926 0.09772996
0.0735544 -0.0011005187 0.100529425 0.01234613 0.0969542 -0.018967375 0.057277333 0.104518026
-0.0009810595 0.097120285 -0.14206612 0.046686843 0.035580374 -0.11264885 0.017114595 0.003996584
-0.008814014 0.048747983 0.08261677 -0.028926084 -0.11247375 -0.010583564 -0.12731771 0.059850253
0.06926518 -0.09750284 -0.084514014 -0.004475238 -0.01201436 -0.11180777 0.09403343 0.07246789
0.057649817 -0.09408175 0.10004909 0.07389367 0.015842443 0.08660796 0.064296864 0.05082845
-0.033470176 -0.06259491 0.022336042 0.07318854 0.06590901 -0.02918153 -0.04353259 -0.07421315
-0.020356437 0.040193766 -0.015797889 -0.12624162 -0.013346286 -0.10599214 -0.02959718 -0.059956163
-0.026092233 0.07259715 -0.026406283 0.05764929 0.065922275 -0.119151846 0.04903322 -0.077082545
0.10230387 -0.012679673 0.119826555 0.12130707 -0.11546699 0.051555112 0.12639888 0.08025401
0.052182622 0.030374207 0.07185844 -0.006281976 0.069824174 0.088260606 0.14211361 0.09578271
0.11758272 0.09218384 0.13926527 -0.085562974 0.10076288 -0.062273216 0.016293906 0.04214038
0.017344711 0.0999003 0.051456634 0.042010304 0.122476116 0.14313276 0.14892241 0.06610119
-0.010872963 -0.096373744 -0.11491937 0.032855485 0.076754324 -0.109022215 -0.041744012 0.023242153
0.08968819 -0.022693621 -0.08821982 0.08111228 0.052907452 -0.11253978 0.071841925 -0.004820153
-0.021459641 -0.047229175 -0.11699163 0.06339426 -0.12878655 0.10115669 -0.14170331 -0.05986911
0.06760476 0.090802975 0.046979725 0.012696522 0.03922041 -0.14074771 0.12548791 -0.025211347
0.03348209 0.13257176 0.12119887 -0.06236372 0.0031042784 0.1347371 -0.028596206 0.07590585
0.14115183 -0.00144786 0.14449343 0.0941524 -0.1613019 0.059135556 0.113563195 0.10677187
0.04418365 0.10612903 -0.052995726 0.14123325 0.00024681442 0.06525404 0.14377357 0.031806488
-0.017000867 0.056313723 0.055089176 0.029728644 -0.06539585 0.17320062 0.010824413 0.0731561
-0.10102372 0.014162774 -0.0020185013 0.041115716 -0.018619075 0.17151217 0.087033935 -0.01655012
-0.059474584 0.10187772 0.0041519646 0.17743729 0.0010000902 0.16056938 0.07327956 -0.08727417
0.12594606 0.10823598 0.03669522 0.07104359 0.059327997 0.14846587 -0.07919577 0.14663461
0.0412486 -0.058736682 0.03392525 0.06346917 0.061624754 0.13983725 0.12905052 0.064453416
