foundation_models/Ensemble_model7_DeepSurv_ANN_Event_2_20250804_172959.pt (torch, 90064 bytes, 19 tensors)

model.0.weight f4 [101, 11]
0	0xbdca00e1	-0.09863449
1	0xbd527844	-0.051384225
2	0x3ea1bf6d	0.3159136
3	0xbe01f09e	-0.12689444
4	0x3f39ab9e	0.7252749
5	0xbee7a900	-0.45246124
6	0x3cf35ec6	0.029708277
7	0x3ca97269	0.020684438
8	0x3e20a4de	0.15687892
9	0x3d2d3910	0.042290747
10	0xbed60f07	-0.4180834
11	0xbdaad9d7	-0.08342331
12	0x3e0aadee	0.13542911
13	0x3e39f3a1	0.18159343
14	0xbea5764e	-0.32316822
15	0xbf2dbbf3	-0.6786491
16	0xbe532077	-0.20617853
17	0x3db75554	0.08951822
18	0x3d02a477	0.031895127
19	0x3de43860	0.11143565
20	0x3e3fbe7d	0.1872501
21	0xbd242580	-0.040074825
22	0xbe12a237	-0.14319693
23	0x3e138d9f	0.14409493
24	0x3f22335b	0.6335961
25	0xbc8db24b	-0.01729693
26	0x3f19807d	0.5996168
27	0x3d6c53c0	0.057697058
28	0xbda5abbb	-0.080893956
29	0x3dcff980	0.1015501
30	0xbeb0a2c5	-0.34499183
31	0xbd1c0b4d	-0.038096715
32	0xbddeccaa	-0.1087888
33	0x3c947017	0.018119855
34	0x3ae72104	0.0017633741
35	0x3f142d52	0.57881653
36	0xbd4095d4	-0.047017887
37	0xbea3d52c	-0.31998575
38	0xbecef314	-0.4041983
39	0xbe3264bd	-0.17421241
40	0x3c678790	0.014131442
41	0x3e138f5f	0.1441016
42	0x3d107666	0.035269164
43	0xbec72e07	-0.38902304
44	0xbdd96919	-0.10615749
45	0xbd18a555	-0.037267048
46	0x3e094336	0.13404545
47	0x3e1ebbdd	0.15501352
48	0xbf20bc28	-0.62787104
49	0x3ede982e	0.4347548
50	0xbe84598e	-0.25849575
51	0xbeb4510f	-0.35218093
52	0x3eb19849	0.34686497
53	0x3de83015	0.11337296
54	0xbd5e9984	-0.054345623
55	0xbc7c73bd	-0.0154084535
56	0x3dd6a5c4	0.10480836
57	0xbced82dc	-0.028993063
58	0x3e4296fc	0.19002908
59	0x3e4a2e87	0.19744311
60	0xbd8a17de	-0.067428336
61	0xbeeee4fa	-0.4665907
62	0xbef88d48	-0.4854529
63	0x3e932d1f	0.28745362
64	0xbcfabf1c	-0.030608706
65	0x3ce1df06	0.027572166
66	0x3e297ed3	0.16552286
67	0xbd09a70f	-0.033606585
68	0x3e703a78	0.23459804
69	0xbd83e4a3	-0.06440093
70	0x3f053415	0.52032596
71	0xbe7cf587	-0.24703036
72	0xbe3a93a1	-0.18220378
73	0x3d035d80	0.03207159
74	0x3dbf4404	0.09339145
75	0x3de3f6a3	0.111310266
76	0xbee24d86	-0.4419977
77	0xbcc94d88	-0.024573103
78	0xbe075d4d	-0.13219185
79	0xbabc57e3	-0.0014369454
80	0xbda8f82b	-0.08250459
81	0xbebffd53	-0.3749796
82	0xbeb3ef97	-0.3514373
83	0xbf0e69c7	-0.55630153
84	0xbded3782	-0.11582853
85	0xbdd7ca49	-0.1053663
86	0x3e8f2ed0	0.27965403
87	0xbe5aef5d	-0.21380372
88	0x3e049b9e	0.12949988
89	0xbcfc48a4	-0.030796356
90	0x3e83d3d7	0.25747558
91	0x3e96b5df	0.29435632
92	0xbe85499a	-0.26032716
93	0xbee31a31	-0.4435592
94	0x3b5d350c	0.0033753542
95	0xbd8aed37	-0.067835264
96	0xbe406b0b	-0.18790834
97	0xbcbc3995	-0.022976676
98	0x3eb1d860	0.34735394
99	0xbd897ba4	-0.06713036
100	0xbc4f5ae8	-0.012655951
101	0x3e89e33c	0.2693118
102	0x3debc5cb	0.115123354
103	0x3dad4f97	0.08462446
104	0xbf284540	-0.6573067
105	0x3f0bd73a	0.54625285
106	0x3d9c3e65	0.07629088
107	0x3e49958c	0.19685954
108	0xbd0967e7	-0.033546355
109	0xbd1e044e	-0.038578324
110	0xbe070914	-0.13187057
111	0x3da9ef03	0.08297541
112	0xbec74259	-0.38917807
113	0x3eabf62a	0.33586246
114	0xbd6731a4	-0.056443825
115	0xbe6b0cf5	-0.22954161
116	0x3ead85f0	0.3389125
117	0xbef902cd	-0.4863495
118	0xbe6fef1e	-0.2343106
119	0xbe3bd9a9	-0.1834475
120	0x3e7755ff	0.24153899
121	0x3d45aa56	0.048258148
122	0xbea35d6f	-0.31907222
123	0x3e0eb9cd	0.13938065
124	0x3d93f1c6	0.07223849
125	0xbf4d0482	-0.80085003
126	0x3c769526	0.015050208
127	0xbe88e235	-0.26735082
128	0x3da94ce0	0.08266616
129	0xbd96d209	-0.0736428
130	0x3c7a95cb	0.0152945025
131	0x3e5e16e9	0.21688427
132	0xbbcaa392	-0.00618405
133	0xbcaf0c1c	-0.021368079
134	0xbd2940f8	-0.041321725
135	0x3d69930f	0.05702501
136	0xbdbe4727	-0.09290915
137	0xbe65a959	-0.22427882
138	0xbcdccf6a	-0.026954371
139	0x3e4a48d6	0.19754347
140	0x3ddbd2d6	0.10733573
141	0x3e5671b0	0.20941806
142	0xbf43e45f	-0.7652034
143	0x3a6f0486	0.00091178005
144	0x3e31ae2b	0.17351596
145	0x3f0f80ba	0.56055796
146	0x3c535b2b	0.012900154
147	0x3d945ea4	0.07244614
148	0x3e83e0d8	0.2575748
149	0xbf11afd4	-0.5690892
150	0x3c2acbc7	0.010424561
151	0xbd38343e	-0.044971697
152	0x3e1cbf8b	0.15307443
153	0xbdf0ea04	-0.11763385
154	0x3c8d6906	0.017261993
155	0xbee5c35a	-0.44875604
156	0x3e154626	0.14577541
157	0x3e33d0f8	0.17560184
158	0xbeec4cc7	-0.46152326
159	0x3e4934eb	0.19649093
160	0x3e4a7452	0.19770935
161	0xbd818d98	-0.06325835
162	0x3ec1493e	0.37751192
163	0xbd5d44c4	-0.054020658
164	0xbe4612f4	-0.19343168
165	0xbe1a2526	-0.15053234
166	0x3e7cc7f2	0.24685648
167	0x3cede32e	0.029038992
168	0xbd070aa0	-0.032969117
169	0xbecea26c	-0.40358293
170	0x3ec13a1e	0.37739652
171	0x3ee35efd	0.44408408
172	0xbea06390	-0.3132596
173	0xbdf91f67	-0.12164193
174	0x3d73e3f1	0.059543554
175	0x3e8367aa	0.25665027
176	0x3e29014c	0.16504401
177	0x3e236f6c	0.15960473
178	0x3d9752a1	0.07388807
179	0x3e8e4a72	0.27791172
180	0x3f83a970	1.0286083
181	0x3ef547df	0.47906396
182	0xbdce7e3e	-0.100826725
183	0x3c758fb9	0.014987879
184	0xbeaf124f	-0.34193656
185	0xbe28aa82	-0.16471294
186	0x3df76c40	0.12081194
187	0x3e6ca3ff	0.23109435
188	0xbe698cf8	-0.22807682
189	0x3f101270	0.56278133
190	0x3d370a9d	0.044687856
191	0x3e66cb20	0.22538424
192	0x3f2d36a0	0.67661476
193	0xbe18c9bd	-0.14920707
194	0x3c8c0a46	0.017094743
195	0xbdd52d5c	-0.10409042
196	0xbd6b2c11	-0.057415072
197	0x3e76889b	0.24075548
198	0xbd7e6287	-0.06210568
199	0xbdd87694	-0.10569492
200	0xbf2f8350	-0.6855974
201	0xbeea9e04	-0.4582368
202	0xbec13417	-0.37735054
203	0xbeb67057	-0.35632583
204	0xbdfb8fe9	-0.12283308
205	0x3e0f5158	0.13995874
206	0xbd50687f	-0.050880905
207	0xbd6cffce	-0.05786114
208	0x3ed07f77	0.40722248
209	0x3d209a23	0.039209496
210	0xbc899b83	-0.016797787
211	0x3e8b6555	0.27225748
212	0xbe4e427e	-0.20142552
213	0x3f263934	0.64931035
214	0xbe95a674	-0.29228556
215	0x3f163619	0.58676296
216	0x3ccf5c07	0.025312437
217	0x3d277885	0.04088642
218	0xbdc12e97	-0.094327144
219	0x3e200b56	0.15629324
220	0x3e96d316	0.2945792
221	0xbd77cd6a	-0.060498632
222	0xbebf60c4	-0.37378514
223	0xbeb9814e	-0.36231464
224	0xbe7c3dd7	-0.24632965
225	0xbf0288ca	-0.50989974
226	0x3d196aeb	0.03745548
227	0x3dbb58bf	0.09147786
228	0x3ea26982	0.3172112
229	0x3c886043	0.016647464
230	0xbe3cea41	-0.18448736
231	0x3c4e200d	0.012580884
232	0x3cef994e	0.029247906
233	0x3e49ee4b	0.19719808
234	0xbdae5fe6	-0.08514385
235	0x3ec0a8f2	0.37628895
236	0x3f0dfbb6	0.55462205
237	0x3f246bf6	0.64227235
238	0x3d2a4ea4	0.041578904
239	0xbe8222be	-0.2541713
240	0xbcf40a77	-0.029790146
241	0xbcb4463b	-0.022006145
242	0x3db70d26	0.08938055
243	0x3e60e3a0	0.21961832
244	0xbf2b798f	-0.6698236
245	0xbea0b9a6	-0.3139164
246	0x3ed58062	0.4169951
247	0x3f225c88	0.6342244
248	0x3e2cb592	0.16866139
249	0x3e1bd225	0.15216883
250	0x3e816ae5	0.25276867
251	0x3e6bcd92	0.23027638
252	0xbd779985	-0.060449142
253	0x3ca30301	0.019898893
254	0x3e05a0aa	0.1304957
255	0x3f362495	0.7114957

model.0.bias f4 [101]
0	0xbe858ea7	-0.26085398
1	0xbde0051b	-0.10938474
2	0xbe5b9a01	-0.21445467
3	0x3e86cf38	0.2632997
4	0xbdc49cd4	-0.09600225
5	0x3e5a4ed1	0.21319129
6	0xbe6ebf56	-0.23315176
7	0x3d6299de	0.05532252
8	0xbe66035b	-0.22462218
9	0xbd94444c	-0.07239589
10	0xbe67dafb	-0.22642128
11	0x3ed392f1	0.41323045
12	0x3e3adf03	0.18249135
13	0xbd81945a	-0.06327124
14	0x3d48cbed	0.049022604
15	0xbe86683c	-0.262514
16	0x3ddd5b57	0.10808437
17	0x3e0c22f8	0.13685215
18	0x3eca70eb	0.39539275
19	0x3e19ae55	0.15007909
20	0xbe594806	-0.21218881
21	0xbe3552ad	-0.1770732
22	0xbcbe3bee	-0.023221936
23	0x3e3ae28c	0.18250483
24	0x3d9d8fbb	0.0769343
25	0x3eb015ed	0.34391728
26	0xbe0af3e8	-0.13569605
27	0xbd2404cb	-0.040043633
28	0x3eb5aa37	0.35481426
29	0xbea25d6d	-0.31711903
30	0x3d4f873f	0.05066609
31	0xbd07c020	-0.03314221
32	0x3dcfc0b4	0.10144177
33	0x3e4bc60e	0.1989977
34	0xbc5bb0e9	-0.013408878
35	0x3db7c380	0.089728355
36	0x3c8ed342	0.01743472
37	0xbcac87ba	-0.021060813
38	0x3e778c56	0.24174628
39	0xbdda9e89	-0.106747694
40	0x3e9e1c92	0.30881172
41	0xbc4307ce	-0.011903716
42	0xbe61721a	-0.22016183
43	0x3dc83968	0.097765744
44	0x3d2422a9	0.040072117
45	0x3e01fafd	0.126934
46	0xbe23ce53	-0.15996675
47	0xbdabd917	-0.08391016
48	0xbec081f4	-0.37599146
49	0x3de1c1c7	0.11023288
50	0xbdf1a6ea	-0.117994145
51	0x3ec24393	0.3794218
52	0xbe446cfc	-0.19182199
53	0xbe12158f	-0.14266036
54	0x3dca031b	0.098638736
55	0x3e527356	0.2055181
56	0x3dac9313	0.0842649
57	0xbd95fed0	-0.07323992
58	0xbe3121d6	-0.17298064
59	0x3e1158c9	0.14194025
60	0xbd4d0fcb	-0.05006389
61	0xbe287f33	-0.16454773
62	0x3d96c484	0.07361701
63	0x3e57858a	0.21047035
64	0x3df05961	0.11735798
65	0xbde5a792	-0.11213602
66	0x3e6639c0	0.22482967
67	0x3df4d127	0.11953955
68	0xbd27d35d	-0.040973056
69	0xbd4a32cd	-0.049364854
70	0xbe5d8ea2	-0.21636441
71	0x3e1f6f2d	0.15569754
72	0xbe97d516	-0.2965476
73	0xbf1683c7	-0.58794826
74	0x3df265d0	0.118358254
75	0x3e216eed	0.15764971
76	0xbe0e21d0	-0.13880086
77	0x3ddf9762	0.10917546
78	0x3dac0c95	0.08400837
79	0x3a0d1590	0.0005381936
80	0xbdd6187a	-0.10453887
81	0x3d1f57fe	0.038902275
82	0x3d04660b	0.03232388
83	0x3e8f7e92	0.28026253
84	0xbdc52954	-0.09627023
85	0xbd11658d	-0.035497237
86	0xbdf660cf	-0.120301835
87	0xbe1c83bc	-0.15284628
88	0x3e4b7102	0.19867328
89	0xbd45f2c8	-0.048327237
90	0xbe683532	-0.22676542
91	0xbe07df18	-0.13268697
92	0x3eb26bb4	0.34847796
93	0xbd03cf26	-0.032179974
94	0x3c8b952b	0.017038902
95	0xbdecf048	-0.115692675
96	0x3d0b4ac0	0.034006834
97	0xbe529fab	-0.20568721
98	0xbe9e2d70	-0.3089404
99	0xbd370fd1	-0.044692818
100	0xbe98b3d8	-0.2982471

model.1.weight f4 [101]
0	0x3f6a41d8	0.9150672
1	0x3f4871ed	0.78298837
2	0x3f65529a	0.89579165
3	0x3f6e27b3	0.93029326
4	0x3f8301cd	1.0234925
5	0x3f80bcca	1.0057614
6	0x3f66e011	0.9018565
7	0x3f4b87e7	0.79504246
8	0x3f5e4c9d	0.8683565
9	0x3f76eb2c	0.96452594
10	0x3f632f68	0.8874421
11	0x3f667f9f	0.90038484
12	0x3f61ea3c	0.8824804
13	0x3f4e3d6c	0.8056247
14	0x3f6e7d30	0.9315977
15	0x3f7b111b	0.98072976
16	0x3f438e22	0.7638875
17	0x3f819d6b	1.0126165
18	0x3f23159c	0.6370485
19	0x3f8a436f	1.0801829
20	0x3f321172	0.6955787
21	0x3f7c53e9	0.98565537
22	0x3f2e8b80	0.6818161
23	0x3f821499	1.0162536
24	0x3f6da9fd	0.92837507
25	0x3f3e6c0f	0.74383634
26	0x3f6b4ba8	0.9191232
27	0x3f6e9926	0.93202436
28	0x3f0cbf39	0.5497928
29	0x3f380218	0.71878195
30	0x3f7e1ef2	0.9926597
31	0x3f7010bc	0.93775535
32	0x3f2ea63a	0.6822239
33	0x3f39a965	0.725241
34	0x3f6068c8	0.87659883
35	0x3f55d16b	0.8352267
36	0x3f7d7d66	0.9901947
37	0x3f4c6474	0.7984078
38	0x3f6ebc9d	0.9325655
39	0x3f994ad0	1.1975956
40	0x3f7c9b0b	0.98674077
41	0x3f6eb0e7	0.9323868
42	0x3f6a520e	0.91531456
43	0x3f82442a	1.0177052
44	0x3f4cc4ad	0.79987603
45	0x3f53d616	0.82748544
46	0x3f3a028d	0.7266014
47	0x3f7e2129	0.9926935
48	0x3f757602	0.9588319
49	0x3f1c72ce	0.6111268
50	0x3f58b01f	0.8464374
51	0x3f8b1ac5	1.0867544
52	0x3f424bd3	0.7589695
53	0x3f7e355a	0.9930016
54	0x3f765ff1	0.96240145
55	0x3f7da79b	0.9908387
56	0x3f518054	0.8183644
57	0x3f8b43b6	1.0880039
58	0x3f50913c	0.8147161
59	0x3f8a3908	1.0798655
60	0x3f885113	1.0649742
61	0x3f49f555	0.7888997
62	0x3f4379ed	0.7635792
63	0x3f4ca987	0.7994618
64	0x3f5a04cc	0.8516357
65	0x3f12ded9	0.5737129
66	0x3f53e0a7	0.8276467
67	0x3f721697	0.9456572
68	0x3f4527af	0.7701368
69	0x3f3c706d	0.7360905
70	0x3f28baa4	0.6590979
71	0x3f87b001	1.0600587
72	0x3f22c478	0.6358104
73	0x3f72ecfd	0.94892865
74	0x3f62fe15	0.8866895
75	0x3f6877a4	0.9080756
76	0x3f7e0985	0.99233276
77	0x3f4616dc	0.7737863
78	0x3f447686	0.7674335
79	0x3f6d590d	0.92714006
80	0x3f6c1064	0.9221251
81	0x3f80b979	1.0056602
82	0x3f5ade4f	0.85495466
83	0x3f717eec	0.9433429
84	0x3f7caebd	0.9870413
85	0x3f5f29ca	0.8717314
86	0x3f3e4632	0.7432586
87	0x3f694196	0.911157
88	0x3f353911	0.707902
89	0x3f5c78fb	0.861221
90	0x3f69b2ac	0.91288257
91	0x3f24d8cd	0.6439331
92	0x3f6843d1	0.9072848
93	0x3f2e8853	0.68176764
94	0x3f458898	0.7716155
95	0x3f854b04	1.0413518
96	0x3f642003	0.89111346
97	0x3f73cbf9	0.9523311
98	0x3f78facc	0.97257686
99	0x3f79c7b7	0.97570366
100	0x3f67e974	0.90590596

model.1.bias f4 [101]
0	0xbec923a8	-0.39285016
1	0xbe927fd1	-0.2861314
2	0xbef203dc	-0.4726857
3	0xbf048b5e	-0.5177516
4	0xbf18faa8	-0.5975747
5	0xbf0f733a	-0.56035197
6	0xbf00861f	-0.5020465
7	0xbf3c0885	-0.734505
8	0xbebc2a03	-0.36750802
9	0xbee4c526	-0.44681662
10	0xbed383d7	-0.41311523
11	0xbf0477b3	-0.51745147
12	0xbedadd92	-0.4274717
13	0xbf005978	-0.5013652
14	0xbf190a82	-0.5978166
15	0xbf051e29	-0.51999146
16	0xbec42fe9	-0.38317803
17	0xbf23c574	-0.63973165
18	0xbe9fb810	-0.31195116
19	0xbf0bee89	-0.5466085
20	0xbf0f3e48	-0.5595441
21	0xbeb65d06	-0.35617846
22	0xbeabe995	-0.33576646
23	0xbf2bc2b6	-0.6709398
24	0xbea698e7	-0.3253853
25	0xbf141bb9	-0.578548
26	0xbf1d7163	-0.6150114
27	0xbf04793c	-0.5174749
28	0xbe4a4134	-0.19751436
29	0xbe72e992	-0.23721913
30	0xbee9044e	-0.45511097
31	0xbee2e6a6	-0.44316596
32	0xbddfe44e	-0.109322175
33	0xbeb952c4	-0.36195958
34	0xbf09d68c	-0.53843
35	0xbec17818	-0.37786937
36	0xbf0fdd02	-0.56196606
37	0xbeacdc96	-0.33762044
38	0xbeffe73b	-0.49981102
39	0xbf1b6510	-0.60701084
40	0xbf206865	-0.62659293
41	0xbf13a464	-0.57672715
42	0xbf0123d4	-0.50445294
43	0xbf13d6b1	-0.5774947
44	0xbea27d77	-0.31736347
45	0xbf0f0ead	-0.5588177
46	0xbee5d1f3	-0.4488674
47	0xbed723be	-0.42019457
48	0xbf239994	-0.63906217
49	0xbe9b431c	-0.30324638
50	0xbefffa01	-0.49995425
51	0xbf059d08	-0.52192736
52	0xbead519a	-0.3385132
53	0xbf1407a6	-0.5782417
54	0xbef87e36	-0.4853379
55	0xbf1a1aac	-0.6019695
56	0xbf062a4a	-0.5240828
57	0xbf1832dd	-0.5945261
58	0xbf0cecdc	-0.5504892
59	0xbf1262b7	-0.57181877
60	0xbf3c3c15	-0.7352918
61	0xbefe296f	-0.49640986
62	0xbee73e24	-0.45164597
63	0xbeed63c3	-0.46365175
64	0xbed81341	-0.4220219
65	0xbe583a4e	-0.21115991
66	0xbefffc10	-0.49996996
67	0xbf27520d	-0.65359575
68	0xbefa0261	-0.4882994
69	0xbeabaaae	-0.33528656
70	0xbddfb853	-0.10923829
71	0xbef3b9fd	-0.47602835
72	0xbe88a408	-0.26687646
73	0xbeda6614	-0.42656004
74	0xbea75420	-0.3268137
75	0xbef11c8e	-0.47092098
76	0xbed968b2	-0.4246269
77	0xbee53203	-0.44764718
78	0xbf026ad9	-0.50944287
79	0xbee3bba0	-0.44479084
80	0xbec506e8	-0.38481832
81	0xbf1f3370	-0.6218786
82	0xbeb64d3c	-0.356058
83	0xbf111b15	-0.5668195
84	0xbf134a68	-0.5753541
85	0xbf2cadd4	-0.6745274
86	0xbef4dfd2	-0.4782701
87	0xbed2dd23	-0.4118434
88	0xbe4c3e09	-0.1994554
89	0xbf2b211e	-0.6684741
90	0xbf089144	-0.5334666
91	0xbe395560	-0.18098974
92	0xbf359878	-0.70935774
93	0xbe3876a7	-0.18014012
94	0xbe88420a	-0.26612884
95	0xbf23e99f	-0.6402835
96	0xbef02ca1	-0.4690905
97	0xbe9c5b6d	-0.30538502
98	0xbeea3726	-0.457452
99	0xbec1d693	-0.3785902
100	0xbf36c02b	-0.71386975

model.1.running_mean f4 [101]
0	0x3dbdafd9	0.09262056
1	0x3f422a2e	0.7584561
2	0x3f6fbd01	0.9364777
3	0xbeb2d381	-0.3492699
4	0xc02ff8e1	-2.7495654
5	0xc040874f	-3.0082586
6	0xbee6c455	-0.45071664
7	0xc06756ca	-3.6146722
8	0xbf7493f7	-0.95538276
9	0x40106c57	2.2566125
10	0xbfd2c7de	-1.6467245
11	0xc008ec4e	-2.139423
12	0x3f49bc19	0.7880264
13	0xbf461c65	-0.77387077
14	0xbfcc7cf2	-1.597563
15	0x3f611554	0.8792317
16	0x3f9cc3cb	1.2247251
17	0xbf2b3b33	-0.66887206
18	0xbf28e660	-0.65976524
19	0x40308d4c	2.758624
20	0xbddc50f4	-0.10757628
21	0x40349842	2.821793
22	0x4044d921	3.0757525
23	0x3e4981f0	0.19678473
24	0x4015be9c	2.3397589
25	0x400e88ca	2.227099
26	0xbeda0020	-0.4257822
27	0x4058cc32	3.387463
28	0xbfe86bb0	-1.8157864
29	0x3f9da08c	1.231462
30	0x3fc79aa1	1.5594064
31	0xbf32257d	-0.6958845
32	0x3fb2b32c	1.3960929
33	0x3f1eca50	0.62027454
34	0x3f955c1c	1.1668735
35	0xbf9a4ee1	-1.2055322
36	0x403c8fcc	2.9462767
37	0x3eff4c53	0.49862918
38	0x3eb407ba	0.35162145
39	0xc06411a9	-3.563578
40	0x3f55af27	0.83470386
41	0xbf79cf72	-0.9758216
42	0xbdd6177a	-0.104536965
43	0xc07687c0	-3.8520355
44	0x3f6bdbd5	0.9213231
45	0xc00465e7	-2.0687196
46	0xc09b4c29	-4.853047
47	0xbfa24bb2	-1.267935
48	0xc0001ca1	-2.0017474
49	0xc00e77d0	-2.2260628
50	0x3fcebe56	1.6151836
51	0xbf5e2323	-0.86772364
52	0x3f1cdb9c	0.612726
53	0xc08d72dc	-4.420271
54	0xc01d7d92	-2.4607892
55	0xbf687f4e	-0.9081925
56	0x3f15cb23	0.5851309
57	0x3e93518a	0.28773147
58	0x3eac6394	0.33669722
59	0x3f3313eb	0.6995227
60	0x3eead0c5	0.45862404
61	0xbf73269b	-0.9498078
62	0xbf629abd	-0.8851736
63	0xbe84a1c4	-0.25904667
64	0x3fa1acef	1.26309
65	0xbff3ca9d	-1.9046208
66	0x3f4cdeb4	0.8002732
67	0x3f321d91	0.69576365
68	0x4012a68c	2.2914152
69	0x3ebf51a7	0.37366983
70	0x40622f41	3.5341341
71	0xbeb2c899	-0.3491867
72	0xbec4b2c1	-0.38417628
73	0x3fe3fbf7	1.7811269
74	0xc00ffbcf	-2.2497442
75	0x3f72e1e9	0.9487596
76	0xc0360f70	-2.8446922
77	0x3f0f3174	0.55934834
78	0xbe899ca9	-0.26877335
79	0xbfa42f22	-1.2826884
80	0x3fa18133	1.2617553
81	0xbdc90b4b	-0.09816607
82	0xbe1afaf1	-0.15134789
83	0x40012799	2.0180418
84	0x3f43b0ba	0.7644154
85	0x3fabcadc	1.3421283
86	0x3d908e0a	0.07058342
87	0xbf017abb	-0.50577897
88	0x3fc9655f	1.5734061
89	0xbfa0f818	-1.2575712
90	0xbead6cbb	-0.33872017
91	0x3fcea4a1	1.6143991
92	0xbca105f7	-0.019656165
93	0xbfedfbc5	-1.8592459
94	0xbefc5de9	-0.49290398
95	0x3ebc3384	0.36758053
96	0xbe8e761e	-0.2782449
97	0xc018dd7a	-2.3885179
98	0xbff00c5e	-1.8753774
99	0xc06b8a1f	-3.6803052
100	0xbfcb539b	-1.5884889

model.1.running_var f4 [101]
0	0x3cb2faf4	0.02184818
1	0x3ca96e5c	0.020682506
2	0x3c57625f	0.013146012
3	0x3c533083	0.012889984
4	0x3cd2bdd0	0.025725275
5	0x3cde04e3	0.02710194
6	0x3cae1524	0.021250315
7	0x3ce65d8e	0.028120782
8	0x3c77be3b	0.015121038
9	0x3c28726e	0.010281188
10	0x3d51aa1a	0.051187612
11	0x3cb97cfd	0.022642607
12	0x3d35c03d	0.044372786
13	0x3c983568	0.018580154
14	0x3d758cc2	0.05994869
15	0x3ce83d7a	0.028349627
16	0x3d01df9c	0.03170739
17	0x3d2d7f8f	0.042357977
18	0x3ccd5f8a	0.02506997
19	0x3cade06f	0.021225182
20	0x3cf56c0b	0.029958745
21	0x3c50b88d	0.012739313
22	0x3d28d2e8	0.04121676
23	0x3c8ceb0c	0.017201923
24	0x3c6b10e4	0.014347289
25	0x3c87e0c0	0.016586661
26	0x3c6a600c	0.014305126
27	0x3d73ff8a	0.059569873
28	0x3c802365	0.015641877
29	0x3d378ecb	0.044813912
30	0x3c5b0f98	0.013370417
31	0x3cea47e1	0.028598728
32	0x3c41e3b2	0.011834072
33	0x3d612285	0.05496456
34	0x3ccf7826	0.025325846
35	0x3ce10c72	0.027471755
36	0x3cd67baa	0.026182014
37	0x3d4b186d	0.04958384
38	0x3d3dcb22	0.0463363
39	0x3dbf0086	0.09326272
40	0x3ce83973	0.028347706
41	0x3d12f9b2	0.03588266
42	0x3d591a64	0.053003684
43	0x3de53d2c	0.11193308
44	0x3c7efa35	0.015562584
45	0x3cc27908	0.023739353
46	0x3d3cf63f	0.046133276
47	0x3cb939c8	0.02261056
48	0x3c8ea982	0.017414812
49	0x3c9ebf1d	0.01937824
50	0x3ce89152	0.028389607
51	0x3ccd5bb2	0.025068138
52	0x3cf47d71	0.029844971
53	0x3d9c26d1	0.07624591
54	0x3d37d985	0.044885177
55	0x3cc27c84	0.023741014
56	0x3c61f978	0.013792388
57	0x3d07ff96	0.03320273
58	0x3bd10ca7	0.006379682
59	0x3ce27d53	0.02764765
60	0x3cc575d4	0.024104036
61	0x3c5f6eba	0.013637239
62	0x3c81e8f8	0.015858158
63	0x3d2c0e67	0.042005923
64	0x3c0991f3	0.008396613
65	0x3c7d7a77	0.015471092
66	0x3d139ab3	0.036036205
67	0x3c9d6bed	0.019216502
68	0x3cb7e076	0.022445899
69	0x3d00fa19	0.03148851
70	0x3d11faec	0.03563969
71	0x3d2516cb	0.04030494
72	0x3d688034	0.05676289
73	0x3c9f3662	0.019435111
74	0x3cb42f7d	0.0219953
75	0x3cb08010	0.02154544
76	0x3dbf75b8	0.09348625
77	0x3d254173	0.04034562
78	0x3c27ed73	0.010249483
79	0x3d805913	0.062669896
80	0x3c8e5e91	0.017379077
81	0x3cae5f1b	0.021285584
82	0x3d080c0f	0.033214625
83	0x3cc097f0	0.02350995
84	0x3d06fb8a	0.03295473
85	0x3c83b25c	0.01607626
86	0x3cd082bd	0.025452966
87	0x3c59112b	0.013248722
88	0x3d5bba72	0.053644605
89	0x3cae833a	0.021302808
90	0x3cb7ec5d	0.022451574
91	0x3c7116ce	0.01471491
92	0x3ca09a16	0.019604724
93	0x3ca15afd	0.019696707
94	0x3cac5717	0.021037621
95	0x3cc3451c	0.023836665
96	0x3c4a50bc	0.01234835
97	0x3d8e1536	0.069376394
98	0x3be830e8	0.007085908
99	0x3d9fd9a1	0.07805181
100	0x3c7a6145	0.01528198

model.4.weight f4 [107, 101]
0	0xbea7ac39	-0.32748583
1	0x3cc4c95b	0.024021795
2	0xbc257771	-0.010099278
3	0xbecdce16	-0.40196294
4	0x3e11e5a6	0.1424776
5	0xbe077bc6	-0.1323081
6	0x3ca8bcdc	0.020597868
7	0xbb39b2eb	-0.0028335403
8	0x3d4e36a2	0.05034507
9	0x3bc61d5a	0.0060459794
10	0xbbe8e499	-0.007107329
11	0x3cbed248	0.02329363
12	0xbf0af1f5	-0.5427545
13	0x3d9c594a	0.07634218
14	0xbc280f4a	-0.010257551
15	0x3da29208	0.079380095
16	0xbd45e9b6	-0.048318587
17	0xbdc21f19	-0.09478588
18	0x3cf067f4	0.029346444
19	0xbe45edcb	-0.19328992
20	0xbd731fa1	-0.059356336
21	0xbdcb0925	-0.099138536
22	0x3d835a62	0.064137235
23	0x3d6c302c	0.057663128
24	0x3e18f1c6	0.14935979
25	0xbdcf3391	-0.101172574
26	0xbf5ff69d	-0.87485677
27	0xbeccbee9	-0.39989403
28	0x3dc114b7	0.09427779
29	0xbd04503f	-0.03230309
30	0xbc0acc28	-0.008471526
31	0x3d83782b	0.064194046
32	0xbd34e285	-0.04416134
33	0xbbaee7bc	-0.0053376835
34	0x3cdfff04	0.02734328
35	0xbe1e7fca	-0.15478435
36	0xbc4e5e3a	-0.012595708
37	0xbd7e65ef	-0.06210893
38	0xbe40f3a8	-0.18842947
39	0xbe83cb37	-0.25740978
40	0xbf166f6f	-0.58763784
41	0x3e594ba7	0.21220265
42	0xbe33a49d	-0.17543264
43	0xbd9eb89c	-0.07750055
44	0xbae5d591	-0.0017534961
45	0xbe38c00d	-0.18042012
46	0xbe8333c6	-0.25625437
47	0xbd94c3da	-0.07263918
48	0xbd31a581	-0.043370727
49	0x3c3a9448	0.011387892
50	0x3dfee101	0.1244526
51	0x3d7e65aa	0.062108673
52	0xbd5f18cf	-0.05446702
53	0x3e23615d	0.1595511
54	0x3e88523f	0.2662525
55	0xbdb075c5	-0.08616213
56	0x3e0483f6	0.12940964
57	0xbde763de	-0.11298345
58	0xbf116066	-0.5678772
59	0x3dbaa9a5	0.091143884
60	0x3d959ba2	0.07305075
61	0xbe56cf67	-0.20977555
62	0x3dbb3850	0.091416
63	0xbe090542	-0.13380912
64	0x3d1cba00	0.03826332
65	0xbc9d99ca	-0.019238371
66	0xbd80f532	-0.06296767
67	0xbe057485	-0.1303273
68	0xbccf5188	-0.025307432
69	0xbea43994	-0.3207518
70	0xbcc873ba	-0.024469245
71	0xbe52c92a	-0.2058455
72	0xbe2d460d	-0.16921254
73	0xbd4bb669	-0.049734507
74	0x3d81e7ff	0.06343078
75	0x3dccc5be	0.09998654
76	0x3d572d14	0.052533224
77	0x3e3b2cb9	0.18278779
78	0x3cf1aa91	0.029500278
79	0xbd588de2	-0.052869685
80	0xbd6c39bc	-0.057672247
81	0xbdba1621	-0.09086252
82	0xbd70891d	-0.05872451
83	0x3e88803a	0.2666033
84	0xbe58ccd7	-0.2117189
85	0x3dfaabd6	0.12239806
86	0x3dc84fbf	0.09780835
87	0xbc4d451c	-0.012528684
88	0xbd816e90	-0.06319916
89	0xbd73da14	-0.059534147
90	0x3e844f54	0.25841773
91	0xbe4da65a	-0.2008299
92	0x3c5f5515	0.013631125
93	0x3bbefc30	0.005828403
94	0xbe8aca0f	-0.27107283
95	0xbdbc96bf	-0.0920844
96	0xbcd026c9	-0.02540912
97	0xbca0c188	-0.019623533
98	0xbe4bef88	-0.19915593
99	0xbe645117	-0.22296558
100	0x3d18d278	0.037310094
101	0x3d00433d	0.031314123
102	0xbe394512	-0.18092754
103	0xbe126f44	-0.14300257
104	0x3d595bff	0.05306625
105	0xbde5f96f	-0.11229216
106	0x3d4fc7c5	0.050727624
107	0x3d1f9ffd	0.038970936
108	0xbdcdd897	-0.10051077
109	0xbd40fb90	-0.04711491
110	0x3dacf943	0.084459804
111	0xbdd531b9	-0.104098745
112	0x3c080b80	0.008303523
113	0xbe557811	-0.20846583
114	0xbd276a3c	-0.040872797
115	0xbe55ae98	-0.20867383
116	0xbe0def55	-0.13860829
117	0xbd552410	-0.052036345
118	0xbe173916	-0.1476787
119	0xbe734e46	-0.23760328
120	0xbecce3cf	-0.40017554
121	0x3e4461c3	0.19177918
122	0xbda8dda5	-0.082454
123	0xbdb1758d	-0.08664999
124	0x3ed7c446	0.42141932
125	0xbe4ce31d	-0.20008512
126	0xbd851ed4	-0.065000206
127	0x3e229e9c	0.15880817
128	0x3dd73d62	0.10509755
129	0x3cfaa446	0.03059591
130	0xbe09337e	-0.13398549
131	0x3d352d4c	0.04423265
132	0x3e589de2	0.21153978
133	0xbdf1c746	-0.118055865
134	0x3dae2573	0.085032366
135	0xbc54ea27	-0.012995279
136	0x3e481014	0.19537383
137	0x3dee782e	0.11644016
138	0x3c14d87d	0.009084818
139	0xbca444a5	-0.020052264
140	0xbe461c24	-0.19346672
141	0xbc88d0c2	-0.016701106
142	0x3b4887d7	0.0030598545
143	0xbe0a765f	-0.13521717
144	0xbe1d8227	-0.1538168
145	0xbd039925	-0.032128472
146	0x3e08602c	0.13317937
147	0x3e06dc68	0.13170016
148	0xbe083bd0	-0.13304067
149	0x3cf24d00	0.029577732
150	0xbe114d6b	-0.14189689
151	0xbc555bc2	-0.013022365
152	0xbdbd71fe	-0.09250258
153	0x3e194982	0.14969447
154	0xbd9053a7	-0.070472054
155	0x3da421eb	0.08014282
156	0x3e8bc691	0.27299932
157	0x3d8e7362	0.06955601
158	0xbdce01a7	-0.10058909
159	0xbdee33b8	-0.11630958
160	0x3d44a8ef	0.04801267
161	0xbecc694f	-0.39924094
162	0x3bfda77d	0.0077409134
163	0xbd754616	-0.059881292
164	0x3d9af168	0.07565576
165	0xbde17f95	-0.110106625
166	0xbd3ad20f	-0.045610484
167	0xbf00ffd7	-0.5039038
168	0xbdaedb45	-0.08537916
169	0xbb23d62a	-0.0024999478
170	0x3c621a18	0.013800167
171	0xbae26257	-0.0017271739
172	0xbdd2be99	-0.1029026
173	0x3cc8ca3d	0.024510497
174	0x3c5f20a3	0.013618621
175	0xbe99896c	-0.29987657
176	0x3e2b953c	0.16756147
177	0xbd2c4c4a	-0.042064942
178	0xbda9af18	-0.082853496
179	0xbeb9b2b4	-0.36269152
180	0xbb0fc4b0	-0.0021937303
181	0xbe827262	-0.25477892
182	0xbd3f498e	-0.046701007
183	0x3d7803cc	0.060550496
184	0xbe37b4a7	-0.17940007
185	0xbdbfd38c	-0.09366521
186	0x3d013c83	0.03155185
187	0xbd967b46	-0.07347731
188	0xbe0d526e	-0.13800976
189	0x3e3ac50a	0.18239227
190	0x3c889aa5	0.016675303
191	0x3dc7cf90	0.09756386
192	0xbd2dd908	-0.042443305
193	0xbb4da67e	-0.0031379755
194	0xbe531fbc	-0.20617574
195	0xbd842440	-0.06452227
196	0x3e44e9e4	0.19229847
197	0xbe1d2d28	-0.15349257
198	0x3dc4acaf	0.09603249
199	0xbeb5f482	-0.35538107
200	0x3dd2ba4f	0.10289442
201	0xbeddb2db	-0.43300518
202	0x3e6bd67c	0.23031038
203	0x3d0831da	0.033250667
204	0xbd8edaef	-0.06975352
205	0xbd624aea	-0.055247225
206	0xbe220e47	-0.15825759
207	0xbecce8b5	-0.4002129
208	0x3e394d6f	0.18095945
209	0xbd79a697	-0.060949888
210	0x3dc60669	0.096691914
211	0x3d7078d0	0.058708966
212	0xbdc42b0c	-0.09578523
213	0xbe44e064	-0.19226223
214	0xbcf51fd5	-0.029922405
215	0xbe0a0880	-0.13479805
216	0x3e2deef7	0.16985689
217	0x3d0be391	0.03415257
218	0x3dab3f7f	0.0836172
219	0x3d332b15	0.043742258
220	0xbd0249a1	-0.0318085
221	0xbe1746c4	-0.14773089
222	0xbd9c28a9	-0.07624943
223	0xbd8a3c1b	-0.067497455
224	0x3de62294	0.11237064
225	0xbc4a3051	-0.012340621
226	0xbd2e4d74	-0.042554334
227	0xbd2bb362	-0.04191912
228	0xbe276e79	-0.16350736
229	0x3b9e27cc	0.0048265215
230	0xbdb1b223	-0.08676555
231	0x3e296d48	0.16545594
232	0x3dbf3087	0.09335428
233	0xbd2b3b40	-0.041804552
234	0xbc2068b5	-0.009790589
235	0xbe647368	-0.22309649
236	0xbe1b327b	-0.15155976
237	0xbb26c049	-0.00254442
238	0x3e4636ca	0.19356838
239	0x3d93a9db	0.07210132
240	0xbb83b6b3	-0.004019582
241	0xbe5add6e	-0.21373531
242	0x3e42497b	0.18973343
243	0xbbe9ef4b	-0.0071391216
244	0xbd91f785	-0.07127289
245	0x3ddf0fb1	0.10891665
246	0xbca027f4	-0.019550301
247	0xbe8b0078	-0.27148795
248	0x3e18a205	0.14905556
249	0xbe44053c	-0.19142622
250	0xbf76412f	-0.9619321
251	0xbca3f442	-0.020013932
252	0xbd2a4b80	-0.04157591
253	0x3d76cde4	0.060254946
254	0x3e04e599	0.1297821
255	0xbd5d776a	-0.05406896

model.4.bias f4 [107]
0	0x3c8b106c	0.016975604
1	0xbdaf31e0	-0.08554435
2	0x3d9291c9	0.071567126
3	0x3bc9723e	0.006147652
4	0xbd804c27	-0.06264525
5	0xbd3f8060	-0.046753287
6	0xbb940499	-0.0045171496
7	0xbce7fa9a	-0.028317738
8	0x3c7c3f18	0.015395902
9	0x3d1efdd4	0.038816288
10	0x3d1222b4	0.035677627
11	0x3dad2812	0.084549084
12	0x3d16e4dd	0.036839355
13	0xbd5b34fe	-0.053517334
14	0xbc581e1e	-0.013190774
15	0xbdb6589f	-0.08903622
16	0x3cf629f6	0.030049305
17	0x3dd6415e	0.104616866
18	0x3db28529	0.087168045
19	0xbd6a2be8	-0.05717078
20	0x3d9bbdbe	0.0760455
21	0xbd6b1fb4	-0.05740328
22	0xbd8410b4	-0.06448498
23	0x3ccce49b	0.025011351
24	0x3d1e36af	0.03862637
25	0xbbb4ba31	-0.00551536
26	0xbb180fb4	-0.002320272
27	0x3c4c5049	0.012470313
28	0x3d94b744	0.07261518
29	0x3bdc13dd	0.006716235
30	0xbda24c03	-0.07924654
31	0x3de2115f	0.110384695
32	0x3d801b75	0.06255237
33	0x3e0528ff	0.1300392
34	0x3d616676	0.055029355
35	0xbd3add21	-0.04562104
36	0xbce86b19	-0.02837138
37	0xbd238058	-0.03991732
38	0x3d3e1d83	0.046414863
39	0x3d2a73e1	0.041614417
40	0x3b470035	0.0030365114
41	0x3d8887d0	0.06666529
42	0xbdb9aa09	-0.09065635
43	0xbcbfb748	-0.023402825
44	0xbd2d625d	-0.042330135
45	0x3dedb033	0.11605873
46	0x3d98141e	0.07425712
47	0x3dbae3f3	0.09125509
48	0xbc4fe1ca	-0.01268811
49	0xbd5cb555	-0.05388387
50	0x3bd6e5ca	0.0065581547
51	0x3e105a0d	0.14096852
52	0x3dd3dfcc	0.1034542
53	0xbda3e7d9	-0.08003206
54	0xbda433aa	-0.08017667
55	0xbd1a19e6	-0.037622355
56	0x3cd3776a	0.025813777
57	0xbcdf5140	-0.027260423
58	0x3dca3a0e	0.09874354
59	0x3d3c2829	0.045936737
60	0x3ca4d74e	0.020122197
61	0xbc143385	-0.009045486
62	0x3d3417ce	0.043968014
63	0xbd90f842	-0.070786014
64	0x3b1e1143	0.0024119176
65	0xbd5827f8	-0.052772492
66	0x3c1bd51a	0.009511257
67	0xbda2efe7	-0.07955914
68	0x3da9f8dc	0.08299419
69	0x3dd1c9d1	0.102435715
70	0xbca369fe	-0.019948002
71	0x3d8be2ea	0.0683039
72	0x3d8ff006	0.07028203
73	0x3aa6ea43	0.001273461
74	0xbd11699a	-0.0355011
75	0x3d76d24d	0.060259152
76	0xbd6c207c	-0.057648167
77	0x3cb5d50c	0.022196315
78	0x3d973dc0	0.07384825
79	0xbdbead53	-0.09310403
80	0xbdd4b2f4	-0.10385695
81	0xbdf478ee	-0.11937128
82	0xbb3635e7	-0.0027803124
83	0xbd9c407f	-0.07629489
84	0x3d608ae5	0.05481996
85	0xbd37dc15	-0.04488762
86	0xbd7d491e	-0.061837308
87	0xbdc17e35	-0.094479
88	0xbdddb888	-0.10826212
89	0xbce7a848	-0.028278485
90	0x3ce7a551	0.028277071
91	0x3d3829d8	0.04496178
92	0xbe02fd86	-0.12792024
93	0x3da21a31	0.07915152
94	0x3d0f59b8	0.03499767
95	0xbd535a99	-0.051600073
96	0xba63fe82	-0.00086972874
97	0xbd6db79d	-0.058036435
98	0xbd2cdbf3	-0.042201947
99	0x3d13f384	0.036120906
100	0xbd779599	-0.0604454
101	0xbd693f8b	-0.056945365
102	0x3d11dc32	0.035610385
103	0xbcd7ed2c	-0.02635821
104	0x3d86b2b9	0.065770574
105	0xbbbecc3a	-0.0058226855
106	0xbcc23338	-0.023706064

model.5.weight f4 [107]
0	0x3f6cf2ef	0.9255819
1	0x3f4bdc32	0.79632866
2	0x3f6e8aff	0.9318084
3	0x3f6a41a0	0.91506386
4	0x3f47280b	0.77795476
5	0x3f6b301e	0.91870296
6	0x3f5a500c	0.8527839
7	0x3f723b4b	0.94621724
8	0x3f52f2d6	0.8240179
9	0x3f60e532	0.87849724
10	0x3f650bde	0.8947123
11	0x3f537ea5	0.8261512
12	0x3f4e2b3c	0.8053472
13	0x3f5dae72	0.8659431
14	0x3f47081b	0.7774674
15	0x3f649b09	0.89299065
16	0x3f66ddea	0.90182364
17	0x3f399885	0.7249835
18	0x3f6a48e8	0.91517496
19	0x3f5baed5	0.8581365
20	0x3f38cc2e	0.72186553
21	0x3f585ccc	0.84516597
22	0x3f5eda0e	0.87051475
23	0x3f65698e	0.8961419
24	0x3f62a8ba	0.88538706
25	0x3f60b674	0.877784
26	0x3f7e6eb4	0.9938767
27	0x3f6cae82	0.9245378
28	0x3f68c29f	0.9092197
29	0x3f59c241	0.8506203
30	0x3f4a3f90	0.7900324
31	0x3f4379ff	0.76358026
32	0x3f4aca91	0.7921534
33	0x3f4ecd72	0.80782235
34	0x3f653d94	0.89547086
35	0x3f5656a0	0.8372593
36	0x3f357a54	0.7088978
37	0x3f54c134	0.83107305
38	0x3f789d6c	0.97115207
39	0x3f76bc2b	0.9638087
40	0x3f5472c4	0.8298762
41	0x3f702a8e	0.93814933
42	0x3f6bca32	0.921054
43	0x3f56d731	0.83922106
44	0x3f443cf3	0.766555
45	0x3f56e73d	0.8394659
46	0x3f68f892	0.9100429
47	0x3f548e77	0.83029884
48	0x3f545f52	0.8295795
49	0x3f447555	0.76741534
50	0x3f7b65f5	0.9820245
51	0x3f5087e7	0.8145737
52	0x3f2d6939	0.6773868
53	0x3f44e6bb	0.76914567
54	0x3f37acde	0.7174815
55	0x3f45fa17	0.7733473
56	0x3f4e237c	0.80522895
57	0x3f7448f1	0.954238
58	0x3f5a0c04	0.85174584
59	0x3f5d1529	0.8636041
60	0x3f87756e	1.0582712
61	0x3f4be8de	0.796522
62	0x3f5dd62a	0.86654913
63	0x3f4ab1e9	0.7917772
64	0x3f538c19	0.8263565
65	0x3f5379e4	0.82607865
66	0x3f5dd2a3	0.8664953
67	0x3f61b7c1	0.8817101
68	0x3f688d48	0.9084058
69	0x3f663354	0.8992207
70	0x3f6aadf4	0.9167168
71	0x3f4b4cfa	0.7941433
72	0x3f3f6ba0	0.747736
73	0x3f72a0d8	0.9477668
74	0x3f67e908	0.9058995
75	0x3f7dba3f	0.99112314
76	0x3f54b3f7	0.83087105
77	0x3f4d9a04	0.80313134
78	0x3f72dd53	0.94868964
79	0x3f5b637e	0.8569869
80	0x3f5851ed	0.8450001
81	0x3f5aa65e	0.85410106
82	0x3f681d5d	0.90669805
83	0x3f72074f	0.945424
84	0x3f6a7319	0.91581875
85	0x3f508a32	0.8146087
86	0x3f435e87	0.7631611
87	0x3f6af284	0.917763
88	0x3f578531	0.8418761
89	0x3f59b6a2	0.850443
90	0x3f4785ab	0.77938336
91	0x3f6395bb	0.88900346
92	0x3f3ff9be	0.7499045
93	0x3f5f1901	0.8714753
94	0x3f4a457e	0.79012287
95	0x3f44225a	0.76614916
96	0x3f70a995	0.9400876
97	0x3f4fdae9	0.81193405
98	0x3f4cce6b	0.8000247
99	0x3f610c78	0.8790965
100	0x3f61a5ef	0.8814382
101	0x3f60fa89	0.87882286
102	0x3f67056b	0.9024264
103	0x3f45dbf9	0.77288777
104	0x3f384f80	0.7199631
105	0x3f5ab122	0.85426533
106	0x3f40e7d0	0.7535372

model.5.bias f4 [107]
0	0xbf27fac6	-0.65617025
1	0xbef32791	-0.47491124
2	0xbeca546d	-0.39517537
3	0xbed7d288	-0.4215281
4	0xbf0617c5	-0.5238002
5	0xbf1db44b	-0.6160323
6	0xbee9aa71	-0.4563785
7	0xbf2f7b7a	-0.68547785
8	0xbee59edc	-0.44847763
9	0xbefee05b	-0.49780545
10	0xbf31e376	-0.694877
11	0xbf28c2fc	-0.6592252
12	0xbf1fbad0	-0.6239443
13	0xbf0fd653	-0.5618641
14	0xbf0af85f	-0.54285234
15	0xbf084d4a	-0.53242934
16	0xbf0f0099	-0.55860287
17	0xbeef82c7	-0.46779463
18	0xbeb43c8e	-0.3520245
19	0xbf1d80b2	-0.615245
20	0xbecec3b8	-0.40383697
21	0xbf267d62	-0.6503507
22	0xbece69a8	-0.40314984
23	0xbefb4214	-0.4907385
24	0xbf161f66	-0.5864166
25	0xbf1694e4	-0.5882094
26	0xbef029a4	-0.4690677
27	0xbf06e684	-0.5269549
28	0xbf256eac	-0.64621997
29	0xbefbc9bb	-0.49177346
30	0xbeec29ee	-0.4612574
31	0xbf1f4a6d	-0.6222294
32	0xbf269916	-0.6507734
33	0xbf333163	-0.69997233
34	0xbed73112	-0.42029625
35	0xbee84823	-0.45367536
36	0xbf01536a	-0.50517905
37	0xbf047fae	-0.51757324
38	0xbf2494ea	-0.64289725
39	0xbf21d1dd	-0.6321085
40	0xbeff808b	-0.49902758
41	0xbf1b29b8	-0.6061053
42	0xbf14856f	-0.58016104
43	0xbf0cf87d	-0.55066663
44	0xbf0e4495	-0.555734
45	0xbf27fd2d	-0.6562069
46	0xbec2874a	-0.37993842
47	0xbf0ea3c5	-0.5571864
48	0xbf1fc90e	-0.6241616
49	0xbf12f66e	-0.5740727
50	0xbef1f49e	-0.4725694
51	0xbf1014c8	-0.5628171
52	0xbeda83d7	-0.4267871
53	0xbf088e79	-0.53342396
54	0xbe9602ba	-0.29298955
55	0xbf0e696a	-0.556296
56	0xbee3e86f	-0.4451327
57	0xbee6d95f	-0.45087716
58	0xbeef4c10	-0.4673772
59	0xbeec39f6	-0.4613797
60	0xbf1187e3	-0.5684797
61	0xbec8dfb7	-0.3923318
62	0xbecc4a97	-0.39900658
63	0xbf380dc9	-0.71896034
64	0xbf116e27	-0.56808704
65	0xbf087941	-0.5331002
66	0xbf17ecd6	-0.5934576
67	0xbf087e30	-0.53317547
68	0xbf137f38	-0.57615995
69	0xbf2241ad	-0.63381463
70	0xbf01d4a7	-0.50715107
71	0xbf1788a5	-0.5919288
72	0xbecc0b7a	-0.39852506
73	0xbef5825c	-0.4795102
74	0xbee27c54	-0.4423548
75	0xbefe20e6	-0.49634475
76	0xbf10fa12	-0.56631577
77	0xbed1fde4	-0.41014016
78	0xbf43133f	-0.7620124
79	0xbf1ed0db	-0.6203744
80	0xbeda7ca2	-0.42673212
81	0xbf0d2404	-0.5513308
82	0xbee9b99b	-0.45649418
83	0xbf1350d7	-0.57545227
84	0xbf09e4f0	-0.53864956
85	0xbf01fd40	-0.50777054
86	0xbf012ede	-0.5046214
87	0xbedafaee	-0.4276957
88	0xbf071f11	-0.5278178
89	0xbee3970c	-0.44451177
90	0xbed819a6	-0.42207068
91	0xbeced592	-0.40397316
92	0xbf020c1e	-0.5079974
93	0xbf387284	-0.72049737
94	0xbf040ffa	-0.5158688
95	0xbf353d2a	-0.70796454
96	0xbf010980	-0.5040512
97	0xbf12f08f	-0.57398313
98	0xbf1a3486	-0.60236394
99	0xbf14700a	-0.5798346
100	0xbecc67bc	-0.39922893
101	0xbf117c2d	-0.568301
102	0xbf05baa1	-0.522379
103	0xbf158ebc	-0.5842092
104	0xbf18f1d0	-0.59743977
105	0xbeff3f1b	-0.49852833
106	0xbf345dad	-0.7045544

model.5.running_mean f4 [107]
0	0xbf5c5115	-0.8606122
1	0xbf42f913	-0.7616131
2	0xbed551d1	-0.41663983
3	0xbe5bbb7f	-0.21458243
4	0xbe3a82c5	-0.18213947
5	0xbf16ad31	-0.5885802
6	0xbf1fb4c7	-0.6238522
7	0x3e6c4d41	0.23076345
8	0xbf04a307	-0.5181126
9	0xbe787587	-0.24263583
10	0xbe8f1597	-0.2794616
11	0xbf0ad1fd	-0.54226667
12	0x3e66d285	0.22541244
13	0xbf193e5b	-0.5986077
14	0xbece17c0	-0.40252495
15	0xbefac1e6	-0.48976058
16	0xbc84f984	-0.01623226
17	0xbef86c14	-0.48519957
18	0xbf27e628	-0.65585566
19	0xbeb2eb99	-0.34945372
20	0xbe00d769	-0.12582172
21	0xbe90b05b	-0.2825955
22	0xbf031f75	-0.51219875
23	0xbe312194	-0.17297965
24	0xbcf90ba6	-0.030401062
25	0xbef3e74e	-0.4763741
26	0xbf04cecf	-0.51878065
27	0xbf39df2c	-0.7260616
28	0xbe5e2c34	-0.2169655
29	0xbf3e14f7	-0.7425074
30	0xbf3f4e3d	-0.7472876
31	0x3ee1a323	0.44069776
32	0xbdd2396b	-0.10264858
33	0xbea93a74	-0.3305241
34	0xbe85973c	-0.26091945
35	0xbf2176ed	-0.6307209
36	0xbf10c0c6	-0.5654415
37	0xbf3bd469	-0.7337099
38	0xbee29a01	-0.4425812
39	0xbf09f443	-0.5388834
40	0xbefe2b1f	-0.49642274
41	0xbf01670f	-0.5054788
42	0xbf15aaa5	-0.5846351
43	0xbf5c9834	-0.86169744
44	0xbf3c7d4f	-0.73628706
45	0xbec9b834	-0.39398348
46	0xbf235688	-0.6380391
47	0x3e761315	0.24030717
48	0xbf47a6d8	-0.7798896
49	0xbe8f386e	-0.2797274
50	0xbe9a8cc5	-0.30185524
51	0xbf0d79e0	-0.5526409
52	0x3e76da40	0.24106693
53	0xbe0a4830	-0.135041
54	0xbe6e6a2d	-0.2328269
55	0xbec5ac4c	-0.38608015
56	0xbdc4906d	-0.095978595
57	0xbf4a3f48	-0.7900281
58	0xbebbcbf3	-0.36679038
59	0xbed3fe65	-0.41405025
60	0xbf2f21f4	-0.68411183
61	0xbe2aa422	-0.16664174
62	0xbeed12be	-0.46303362
63	0xbd9b9273	-0.07596292
64	0x3e1d7ddf	0.15380047
65	0xbeedb76a	-0.46428996
66	0xbedb4bc4	-0.42831242
67	0xbf3ca7f8	-0.736938
68	0xbe81f070	-0.25378752
69	0xbdb88fc9	-0.090118
70	0x3aefe0ac	0.001830121
71	0xbe81d622	-0.25358683
72	0xbf005bf8	-0.50140333
73	0xbf339427	-0.7014794
74	0xbedd1675	-0.43181196
75	0xbf291905	-0.660538
76	0xbf47b73e	-0.7801398
77	0xbe5a448d	-0.21315213
78	0xbf3397f1	-0.7015372
79	0xbeffdc62	-0.49972826
80	0xbf490243	-0.78519076
81	0xbf35b9db	-0.7098672
82	0xbf12fb64	-0.5741484
83	0xbeac9ecf	-0.3371491
84	0xbee754bf	-0.45181844
85	0xbec183b9	-0.3779581
86	0xbec9d8bf	-0.39423177
87	0xbf06038d	-0.5234917
88	0xbc670ff0	-0.014102921
89	0xbf19d885	-0.6009601
90	0x3df48a34	0.11940423
91	0xbecdca2e	-0.40193313
92	0xbf31f30d	-0.6951149
93	0xbf1ee2b2	-0.6206466
94	0xbdf714d1	-0.12064517
95	0xbe6d70e9	-0.23187603
96	0xbf064432	-0.5244781
97	0xbe7ba232	-0.24573591
98	0xbe2777b4	-0.16354257
99	0xbf15ef2b	-0.58568066
100	0xbf29514d	-0.6613968
101	0xbf43c23b	-0.7646825
102	0xbf05ef3d	-0.52318174
103	0xbd490034	-0.04907246
104	0x3dc2ebae	0.095176086
105	0xbf23d36a	-0.6399447
106	0x3f352f13	0.70774955

model.5.running_var f4 [107]
0	0x3f2a6739	0.66563755
1	0x3ed2dc93	0.4118391
2	0x3f1c744a	0.61114943
3	0x3f77b98a	0.96767485
4	0x3eef1179	0.46693018
5	0x3f196f65	0.599356
6	0x3f43fb21	0.7655507
7	0x3efcad09	0.49350765
8	0x3f04ff32	0.519519
9	0x3f3398fa	0.701553
10	0x3f0c0293	0.5469143
11	0x3ef27ec6	0.47362345
12	0x3f07f5e9	0.53109604
13	0x3f285e8f	0.65769285
14	0x3f0902b4	0.5351975
15	0x3f1ac52f	0.6045713
16	0x3ef72095	0.48267046
17	0x3f067003	0.52514666
18	0x3f6274c3	0.88459414
19	0x3f4baaf1	0.7955771
20	0x3ebbc145	0.3667089
21	0x3ee204f5	0.44144407
22	0x3f2581c4	0.6465113
23	0x3f2c7dc8	0.67379427
24	0x3f1a3160	0.6023159
25	0x3f58ebea	0.84734976
26	0x3f3ad994	0.7298825
27	0x3f5e875c	0.8692529
28	0x3ec93202	0.39295965
29	0x3f20a083	0.6274492
30	0x3f1e4a5d	0.6183222
31	0x3ebe9d5b	0.37229428
32	0x3eef2d35	0.46714178
33	0x3f07986a	0.5296694
34	0x3f3f2a9d	0.746744
35	0x3f0cdbd9	0.5502296
36	0x3eb75fe7	0.35815355
37	0x3f287924	0.65809846
38	0x3f649ab0	0.89298534
39	0x3f73c29d	0.9521883
40	0x3f1ecbf5	0.62029964
41	0x3f3b4471	0.7315131
42	0x3f297adf	0.6620311
43	0x3f450521	0.7696095
44	0x3ec8d1a4	0.39222443
45	0x3f1867e2	0.5953351
46	0x3f59634d	0.84917146
47	0x3ec431cd	0.38319245
48	0x3f0700a0	0.5273533
49	0x3f126d9e	0.5719851
50	0x3f6272fa	0.8845669
51	0x3f015dcf	0.50533766
52	0x3ed68454	0.41897833
53	0x3eec088c	0.4610027
54	0x3f22cf1b	0.6359727
55	0x3edfb2d4	0.43691123
56	0x3f0e91df	0.5569133
57	0x3f5d5766	0.86461484
58	0x3f3da3f7	0.74078315
59	0x3ee1a4e5	0.44071117
60	0x3f44930e	0.7678689
61	0x3f0cb4cd	0.5496338
62	0x3f060d47	0.5236401
63	0x3ed1ba7f	0.40962598
64	0x3ee0f662	0.43937975
65	0x3edddef6	0.43334168
66	0x3f0dd914	0.5540936
67	0x3f435372	0.762992
68	0x3f0a6f90	0.5407648
69	0x3f352882	0.70764935
70	0x3ef7e7da	0.48419076
71	0x3ed5224d	0.41627732
72	0x3f73d6ed	0.95249826
73	0x3f5f6d4a	0.87276137
74	0x3f66162e	0.89877594
75	0x3f62f496	0.8865446
76	0x3f4f58a9	0.8099466
77	0x3ee9750a	0.45597106
78	0x3efc0f82	0.49230582
79	0x3f173c40	0.5907631
80	0x3ef15fe5	0.47143474
81	0x3f0512be	0.51981723
82	0x3f21ccb5	0.63202983
83	0x3f20af48	0.6276746
84	0x3f60a4dc	0.87751555
85	0x3f13e98f	0.5777826
86	0x3f09d991	0.53847605
87	0x3f5a3e87	0.8525166
88	0x3f35a101	0.709488
89	0x3f29f600	0.6639099
90	0x3ef6876c	0.48150194
91	0x3f27887a	0.6544262
92	0x3efec985	0.49763122
93	0x3f15ab02	0.5846406
94	0x3ed99ecb	0.42503962
95	0x3f1525e8	0.58260965
96	0x3f284740	0.6573372
97	0x3ef1bbfa	0.47213727
98	0x3ec25a90	0.3795972
99	0x3f12352b	0.5711238
100	0x3f2c1bb8	0.67229795
101	0x3f6797c7	0.9046597
102	0x3f1431bd	0.57888395
103	0x3ef05084	0.4693643
104	0x3ed42f6b	0.41442427
105	0x3f03a5ef	0.5142507
106	0x3ea52aeb	0.32259306

model.8.weight f4 [64, 107]
0	0xbbe02f2b	-0.0068415604
1	0x3c93a084	0.018020876
2	0x3e0c7a2a	0.13718477
3	0x3d24f72c	0.040274784
4	0xbd95e095	-0.07318226
5	0xbc3d24a0	-0.011544377
6	0x3c529115	0.012851973
7	0xbd980c42	-0.07424213
8	0xbdbf7ab6	-0.09349577
9	0xbcbf10a9	-0.023323374
10	0x3de8cbf4	0.11367026
11	0x3d941b5b	0.0723178
12	0xbd06828f	-0.032839354
13	0xbdf7382b	-0.1207126
14	0xbc804e71	-0.015662404
15	0x3d3271a5	0.04356541
16	0x3e51deb2	0.20495108
17	0x3e0800bf	0.13281535
18	0xbdfe4ea5	-0.12417344
19	0xbd267494	-0.04063852
20	0xbd4dfe6f	-0.050291475
21	0x3e03a1fc	0.12854761
22	0x3ddcd385	0.10782532
23	0xbd9bd528	-0.07609016
24	0xbceadf9e	-0.028671082
25	0xbd91ac1f	-0.071129076
26	0x3c38d4cf	0.011281206
27	0x3ddc2944	0.10750058
28	0xbe1c6de2	-0.15276292
29	0x3e27a68e	0.1637213
30	0x3eaba7f5	0.3352658
31	0xbe1d58e1	-0.15365936
32	0x3e5831aa	0.21112695
33	0x3eb9e87b	0.3631018
34	0x3e43cdcb	0.19121473
35	0x3de309f0	0.1108588
36	0x3db0cef0	0.0863322
37	0x3cb75be2	0.02238268
38	0x3dd43a35	0.103626646
39	0xbe052613	-0.13002805
40	0x3e6058bd	0.21908851
41	0xbcd494e3	-0.025949901
42	0x3e79751e	0.24361083
43	0x3dd9a773	0.106276415
44	0xbe02a8d2	-0.12759712
45	0xbdbb2c12	-0.09139265
46	0xbf00f8a8	-0.5037942
47	0xbdd85818	-0.105636775
48	0x3cd0dc50	0.025495678
49	0x3c95a2fd	0.018266195
50	0x3e9d2c32	0.3069778
51	0xbca99bac	-0.020704113
52	0x3db00d71	0.08596314
53	0xbe215661	-0.15755607
54	0x3df84112	0.12121786
55	0x3b85723a	0.0040724548
56	0x3dd503b1	0.10401095
57	0xbd222547	-0.03958633
58	0xbd4c9aec	-0.049952433
59	0xbeecd832	-0.46258694
60	0x3dbcb17a	0.092135385
61	0x3a0c3b9e	0.000534946
62	0xbdeeda39	-0.116627164
63	0x3e437cbe	0.19090554
64	0x3d3e0395	0.046390135
65	0xbde18f86	-0.11013703
66	0x3e254f73	0.16143589
67	0x3e4aa75f	0.1979041
68	0x3eb0aca9	0.3450673
69	0xbd2d941f	-0.042377587
70	0xbe765127	-0.24054395
71	0xbe97901e	-0.2960214
72	0x3d70ebc9	0.058818612
73	0x3d8cd6f8	0.068769395
74	0xbe9748da	-0.2954777
75	0xbe9bfe4a	-0.30467445
76	0xbdaa3bb5	-0.083121695
77	0xbcfef8b2	-0.031124447
78	0xbdb54ce8	-0.08852559
79	0xbe3cbd9e	-0.18431708
80	0xbdfe49db	-0.124164306
81	0xbe5e2c25	-0.21696527
82	0xbe356be1	-0.17716934
83	0x3d9cbb37	0.07652896
84	0xbe31194e	-0.17294809
85	0x3e25b498	0.16182172
86	0xbe0ce26a	-0.13758245
87	0xbdd055fa	-0.10172649
88	0xbd9d01df	-0.076663725
89	0xbd7bb714	-0.061453894
90	0xbe3fb5c4	-0.18721682
91	0x3dde8887	0.10865884
92	0x3df43209	0.11923606
93	0xbe1fc230	-0.1560142
94	0xbdfcad62	-0.12337758
95	0x3d2f10f8	0.042740792
96	0xbb1a44f3	-0.0023539632
97	0x3e05ea20	0.13077593
98	0x3e261615	0.16219361
99	0x3b44f181	0.0030051174
100	0x3da761da	0.081729606
101	0xbc4bd3e4	-0.012440655
102	0x3dab1961	0.0835445
103	0xbc5c287c	-0.013437387
104	0x3daf0aae	0.08546959
105	0xbe948d74	-0.2901417
106	0x3d8a3e4b	0.06750163
107	0xbdb23e7f	-0.087033264
108	0xbd4cacae	-0.049969368
109	0x3dd2edc9	0.1029926
110	0xbdec53d3	-0.11539426
111	0xbecdc048	-0.4018576
112	0x3d81638c	0.06317815
113	0x3db7fd11	0.089838155
114	0x3cc72e90	0.024314195
115	0xbe551bb3	-0.20811348
116	0x3e124956	0.14285788
117	0xbd3aacfa	-0.04557512
118	0x3e03bc43	0.12864785
119	0x3e2d3a60	0.169168
120	0x3c9dc2c8	0.019257918
121	0x3d57482e	0.05255907
122	0xbd981d27	-0.07427435
123	0x3d3dea1c	0.046365842
124	0xbd7968d0	-0.060890973
125	0x3da35a9c	0.07976267
126	0xbe45b270	-0.1930635
127	0x3d4c8bf4	0.049938157
128	0x3dd4f1a1	0.103976496
129	0xbc540e35	-0.01294284
130	0x3c210e13	0.009830016
131	0xbd4d40aa	-0.050110497
132	0x3e090683	0.1338139
133	0xbd473e54	-0.048643425
134	0xbe2859b2	-0.16440466
135	0x3e4429b0	0.19156528
136	0x3d9c369b	0.07627603
137	0x3d28a3f4	0.041171983
138	0x3e1ea1b3	0.15491371
139	0x3e070a2f	0.13187478
140	0x3d6c4e16	0.057691656
141	0x3e6e9fb5	0.23303111
142	0x3d887dd3	0.06664624
143	0x3e433b72	0.19065645
144	0xbeca0848	-0.39459443
145	0xbd3bf59c	-0.04588853
146	0xbde207cd	-0.11036644
147	0x3db537fc	0.08848569
148	0x3db5dee1	0.088804014
149	0x3c8d8927	0.017277313
150	0xbe84e5ec	-0.25956666
151	0x3ced4fb1	0.028968664
152	0xbe0d3fcb	-0.13793866
153	0xbd7b9ff1	-0.06143183
154	0x3deeae53	0.116543435
155	0x3cbfa09b	0.023392012
156	0xbe8cd7ee	-0.2750849
157	0x3c851bc6	0.016248595
158	0x3e5f7742	0.21822837
159	0xbec9f8d2	-0.39447647
160	0x3d8e0953	0.06935372
161	0x3d87b03b	0.0662541
162	0xbe82a66f	-0.25517604
163	0xbe1154dc	-0.14192528
164	0xbd02a380	-0.031894207
165	0xbe1d51cf	-0.15363239
166	0xbd09d0a7	-0.033646252
167	0x3db1f925	0.08690099
168	0x3dd30180	0.103030205
169	0xbe5ef0aa	-0.21771494
170	0x3df5f9fd	0.12010572
171	0x3d6553d4	0.055988148
172	0x3dc649f5	0.09682075
173	0x3dd7392c	0.105089515
174	0xbd1e430a	-0.038638152
175	0x3d913727	0.070905976
176	0x3da7ede1	0.08199669
177	0xbe18f277	-0.14936243
178	0xbd7b2cc8	-0.061322004
179	0xbe074d39	-0.13213052
180	0xbce43b82	-0.027860407
181	0x3d93063f	0.07178926
182	0x3c8e4291	0.017365726
183	0x3cb62fe4	0.022239633
184	0xbe5969e0	-0.21231794
185	0xbe2f6e69	-0.17131962
186	0xbe8b4afd	-0.2720565
187	0x3d60c0b8	0.05487129
188	0x3c869331	0.016427608
189	0xbd030eac	-0.031996414
190	0xbf1a4d35	-0.6027406
191	0x3c99962b	0.018748363
192	0xbd8fafab	-0.07015928
193	0xbd20e029	-0.039276276
194	0xbe2cc5f8	-0.16872394
195	0xbd9b4c2c	-0.07582888
196	0x3d69f3dd	0.05711733
197	0x3d877cba	0.066155866
198	0xbd11ea86	-0.03562405
199	0xbe0bd690	-0.13656068
200	0xbf2fd392	-0.68682206
201	0xbe02c61b	-0.12770884
202	0xbe76f59c	-0.2411713
203	0x3c98e506	0.018663894
204	0x3da04723	0.07826068
205	0x3d73db51	0.05953533
206	0x3bc71f9e	0.006076767
207	0x3db5e788	0.08882052
208	0x3cea511c	0.02860313
209	0xbebc6d47	-0.36802122
210	0x3d9c6c89	0.07637889
211	0xbdb6bacb	-0.08922347
212	0xbcfee294	-0.0311139
213	0xbeb3cd36	-0.351175
214	0x3e2ae11e	0.16687438
215	0x3d45a59e	0.048253648
216	0xbe109160	-0.14117956
217	0xbe9ced99	-0.30650023
218	0xbdc41ef9	-0.0957622
219	0xbdf39bb7	-0.118949346
220	0xbe064b01	-0.13114549
221	0x3d9b22e0	0.07575011
222	0xbd80a0fa	-0.06280704
223	0xbf0c6845	-0.548466
224	0xbd894931	-0.06703413
225	0xbe2d8abd	-0.16947456
226	0x3d0c5dec	0.03426926
227	0xbf013fb7	-0.50487846
228	0xbe848566	-0.25883025
229	0x3e15a20a	0.14612594
230	0xbe0a0d63	-0.13481669
231	0x3e043b93	0.12913351
232	0x3a8f49d5	0.0010932038
233	0xbcf80561	-0.030276002
234	0x3ddd6cc1	0.10811759
235	0xbf173f87	-0.5908131
236	0xbe1f6210	-0.15564752
237	0x3e1c170b	0.15243165
238	0xbda52a21	-0.08064676
239	0x39ff9744	0.00048750092
240	0xbd99ae2a	-0.07503922
241	0x3dc71e39	0.097225614
242	0xbd8dfab1	-0.06932581
243	0x3e55baa1	0.20871975
244	0x3d5bf668	0.05370179
245	0xbdd13ab0	-0.10216272
246	0x3d1a2536	0.037633143
247	0xbe3c59d2	-0.18393639
248	0x3e70c4b0	0.2351253
249	0xbc05d30f	-0.008167996
250	0x3d45ae99	0.048262212
251	0xbc913974	-0.017727591
252	0xbe16bdb8	-0.1472081
253	0xbd3aabda	-0.045574047
254	0x3d1752ca	0.03694419
255	0xbdf1d154	-0.11807504

model.8.bias f4 [64]
0	0xbc3ed12c	-0.01164655
1	0x3cf1b190	0.029503614
2	0xbd24e069	-0.040253077
3	0xbc2ad0f7	-0.010425798
4	0x3cf0f535	0.029413799
5	0x3da03e73	0.07824411
6	0x3db9ab3e	0.09065865
7	0xbd1378eb	-0.03600399
8	0x3d541f98	0.051787943
9	0x3da2d1b2	0.079501525
10	0xbd2b3249	-0.041796003
11	0xbd665465	-0.05623283
12	0x3c56d011	0.01311113
13	0xbcd39829	-0.025829392
14	0xbdaff298	-0.08591193
15	0xbdc1a34b	-0.09454974
16	0xbdf643c8	-0.12024647
17	0xbd764ca9	-0.060131703
18	0xbccac9a5	-0.024754355
19	0xbd9a7766	-0.07542305
20	0x3df11b3f	0.11772775
21	0x3ab958d9	0.0014140859
22	0x3c376dc0	0.0111956
23	0x3d2b5ff6	0.041839562
24	0x3db155ba	0.08658929
25	0xbdbf150b	-0.093301855
26	0xbd51d0c1	-0.051224474
27	0xbd96fe03	-0.07372668
28	0x3d8117b6	0.063033506
29	0x3dee2bfc	0.11629483
30	0x3d3d741e	0.046253316
31	0x3d4cb01b	0.049972635
32	0xbc6ac99e	-0.014330296
33	0x3d47163f	0.0486052
34	0xbdca60dd	-0.098817565
35	0xbd265ec3	-0.040617716
36	0xbcf87f74	-0.030334212
37	0x3d92a2ad	0.07159934
38	0x3db6a209	0.089176245
39	0xbc2afbc3	-0.010436001
40	0xbbda61fe	-0.0066645136
41	0x3d713fca	0.058898725
42	0xbbdd39df	-0.0067512835
43	0xbe087cde	-0.13328883
44	0x3d8940da	0.067018226
45	0xbd8f3c30	-0.06993902
46	0x3cc711ad	0.02430042
47	0xbdfb07ca	-0.12257345
48	0xbe0bcc15	-0.1365207
49	0xbb7939b3	-0.0038028776
50	0x3c2598a0	0.010107189
51	0xbdc920e5	-0.09820727
52	0x3dc5bca2	0.096551195
53	0xbd91a99c	-0.071124285
54	0xbd4a444c	-0.04938154
55	0x3da7ed81	0.08199597
56	0xbbce0af4	-0.006287927
57	0xbce7e5d5	-0.028307835
58	0xbcc7f8ee	-0.024410691
59	0xbce187fe	-0.027530666
60	0xbd53b88a	-0.051689662
61	0x3e0277a8	0.12740958
62	0xbd9315a2	-0.071818605
63	0xbd0a29ad	-0.03373115

model.9.weight f4 [64]
0	0x3f62a44a	0.88531935
1	0x3f7c25e9	0.98495346
2	0x3f79d319	0.97587734
3	0x3f70ad69	0.940146
4	0x3f6836fe	0.9070891
5	0x3f6a78b3	0.9159042
6	0x3f6f309d	0.93433553
7	0x3f6d3f61	0.92674834
8	0x3f694fcc	0.91137385
9	0x3f64cba4	0.8937323
10	0x3f83cc8e	1.02968
11	0x3f763fbe	0.9619101
12	0x3f61c2a0	0.881876
13	0x3f6ef891	0.9334803
14	0x3f56647b	0.8374707
15	0x3f65cf9b	0.89769906
16	0x3f636df2	0.8883964
17	0x3f63b8b8	0.88953733
18	0x3f72669c	0.9468782
19	0x3f682dfa	0.90695155
20	0x3f6caf54	0.9245503
21	0x3f781f84	0.9692309
22	0x3f82fc2a	1.0233204
23	0x3f600a7d	0.87516004
24	0x3f6689a3	0.90053767
25	0x3f60ca48	0.87808657
26	0x3f8b5399	1.0884887
27	0x3f7a3caa	0.97748816
28	0x3f71a739	0.94395787
29	0x3f62d43f	0.8860511
30	0x3f6a49b9	0.9151874
31	0x3f6db49e	0.92853725
32	0x3f7cdcd9	0.98774487
33	0x3f7f953e	0.998371
34	0x3f613042	0.8796426
35	0x3f864ac4	1.0491567
36	0x3f6ba469	0.92047745
37	0x3f70ba76	0.94034517
38	0x3f829267	1.0200928
39	0x3f7365fd	0.95077497
40	0x3f6916f3	0.9105064
41	0x3f783092	0.9694911
42	0x3f5ca7cc	0.8619354
43	0x3f78db8f	0.9721002
44	0x3f8098e4	1.0046659
45	0x3f76f6b8	0.9647021
46	0x3f7e8ef0	0.99436855
47	0x3f7b9400	0.98272705
48	0x3f708d52	0.9396564
49	0x3f5cc8ea	0.8624407
50	0x3f6bd49b	0.92121285
51	0x3f70a63d	0.9400366
52	0x3f59b4bb	0.850414
53	0x3f6e4f02	0.93089306
54	0x3f674554	0.9034016
55	0x3f69aa09	0.9127508
56	0x3f5ebe4b	0.87009114
57	0x3f58df8a	0.84716094
58	0x3f6c3827	0.9227318
59	0x3f643b3b	0.8915288
60	0x3f671912	0.9027263
61	0x3f76f445	0.96466476
62	0x3f6b1a35	0.91836864
63	0x3f68a44a	0.90875685
