foundation_models/Ensemble_model23_DeepSurv_LSTM_Event_2_20250805_005844.pt (torch, 507720 bytes, 9 tensors)

lstm_layers.0.weight_ih_l0 f4 [400, 11]
-0.2841257 -0.08315273 0.12503406 0.11070577 -0.022632 0.0012715003 0.020042945 0.050978906
-0.05680823 0.35301164 0.39040357 -0.09565746 -0.033319004 0.037341293 0.12421595 -0.05621124
0.10897763 -0.104932345 -0.060176097 -0.0867528 0.0029141058 0.13569468 -0.017743466 -0.043826077
-0.20439932 0.037422914 -0.0004961535 0.014836594 -0.07204619 -0.034674525 -0.028993148 -0.01861783
0.0417886 -0.112663195 0.09696872 0.24986863 0.28521279 0.004483618 -0.04884305 0.045907732
0.15072994 0.029810956 -0.07501558 -0.12627064 -0.05402853 0.019383246 0.1710266 0.63738394
0.1253202 0.12620224 0.10690173 0.02334457 0.11182664 -0.13234712 -0.092645146 0.02928501
0.12289737 -0.0058976733 0.19622834 -0.035551704 0.18393953 0.13598262 0.15903835 0.14849138
-0.03621671 -0.08263218 0.123123504 0.1593131 0.10358447 -0.362491 -0.06558936 -0.068710536
0.12203793 0.12151116 0.035976604 -0.20918806 0.07221389 -0.12026407 0.068368435 0.059369408
0.038344298 -0.06224416 -0.007081146 0.023825303 -0.032499153 -0.045112394 -0.12838446 -0.051651027
-0.028711518 0.10342526 0.24694814 -0.04671882 -0.020145964 0.09696144 0.017275458 0.051331457
0.010198405 -0.040132843 0.21875733 0.02946787 0.044205554 0.007914031 0.18537126 0.30047125
0.044317964 0.0013428472 0.0012890291 0.118006326 0.14091688 0.1012002 -0.02845826 0.007671871
-0.27679616 0.104523495 -0.1380912 -0.028936515 -0.024488747 -0.047008842 0.09558972 -0.17108944
-0.03556959 0.15324427 -0.0086338315 -0.13423108 -0.2092797 -0.0898381 0.05142387 0.04856017
0.032421585 0.0943977 -0.13987212 -0.17286883 -0.07921632 -0.06430134 -0.13996714 0.1304871
-0.007682911 0.0736304 -0.10914102 -0.031857707 0.03252049 -0.052691355 0.059763808 0.027632983
-0.08776187 0.03274843 -0.058406048 -0.15559676 0.018307196 -0.01915965 -0.0019190623 -0.0022112199
0.0037503461 0.009134537 -0.002720992 -0.02625644 -0.100940645 0.0028251924 -0.034948 0.1314935
-0.009703215 -0.003273314 -0.10972967 -0.05959325 0.39341834 -0.11533589 -0.15960193 -0.1522078
-0.06836289 0.07871505 0.053163633 -0.040883098 -0.06625005 -0.108261466 0.027083566 -0.098703966
0.04381816 -0.007339855 0.07502918 -0.07515953 -0.12759772 -0.029266361 -0.008687976 0.03247226
-0.055294428 0.06485731 0.048389688 0.020887453 -0.075580746 -0.13866763 0.12342651 -0.056446385
0.05673897 -0.121905275 0.011634096 0.042637937 0.067612275 0.06124497 0.23738414 0.16862181
0.10997696 0.20107296 0.12646495 0.14854874 0.1804488 0.15034685 0.21377337 0.055400025
0.024073394 0.059974637 -0.02158524 -0.006594569 0.28092945 0.0008141682 0.27545017 0.094247885
-0.11303305 0.17693426 -0.07072829 0.075828314 0.07100324 -0.025429258 0.123725556 -0.021823077
-0.31545356 0.055336263 0.0888349 0.038069665 0.04637864 0.10558722 -0.15962268 -0.054095373
0.08977323 -0.0076283696 0.14842848 -0.02300809 0.019667821 -0.022059375 0.060886394 0.14625683
-0.10244864 0.18212801 0.036695823 -0.06890669 0.031410377 -0.018271837 -0.11052067 -0.030903535
0.105095536 0.0006045392 -0.062248316 0.1892237 0.067190446 0.07367946 -0.0831712 -0.10060722
00000000: ec78 91be fa4b aabd ee08 003e b5b9 e23d
00000010: be66 b9bc 78a8 a63a 1a31 a43c 42cf 503d
00000020: bfaf 68bd f1bd b43e fae2 c73e 0fe8 c3bd
00000030: 8279 08bd 2ff3 183d ef64 fe3d c23d 66bd
00000040: aa2f df3d c5e6 d6bd 367b 76bd 74ab b1bd
00000050: 95fa 3e3b 8cf3 0a3e bf5a 91bc f982 33bd
00000060: 0e4e 51be c548 193d 4c10 02ba 3015 733c
00000070: f48c 93bd e006 0ebd 0a83 edbc 6b84 98bc
00000080: 862a 2b3d f6bb e6bd 8997 c63d 90dd 7f3e
00000090: 6907 923e 50eb 923b a60f 48bd bf09 3c3d
000000a0: f358 1a3e 1b36 f43c c5a1 99bd 174d 01be
000000b0: 054d 5dbd 9dc9 9e3c 9921 2f3e 982b 233f
000000c0: f053 003e 293b 013e 4bef da3d 1d3d bf3c
000000d0: 5e05 e53d 0186 07be bdbc bdbd 1ee7 ef3c
000000e0: 9eb1 fb3d 4541 c1bb 15f0 483e aa9e 11bd
000000f0: a55a 3c3e 073f 0b3e f3da 223e 200e 183e
00000100: f957 14bd 0f3b a9bd 2d28 fc3d f922 233e
00000110: 1824 d43d 6c98 b9be b753 86bd 1cb8 8cbd
00000120: 06ef f93d d8da f83d 345c 133d 6535 56be
00000130: e0e4 933d 024d f6bd c004 8c3d 562d 733d
00000140: e90e 1d3d bbf3 7ebd f508 e8bb 482d c33c
00000150: d51d 05bd c6c7 38bd 3777 03be 0790 53bd
00000160: 6b34 ebbc 9fd0 d33d f9df 7c3e 3c5c 3fbd
00000170: 2609 a5bc b893 c63d 4385 8d3c ef40 523d
00000180: 3617 273c 5662 24bd ec01 603e 9a66 f13c
00000190: e210 353d daa9 013c f7d1 3d3e 5ed7 993e
000001a0: c186 353d 7a02 b03a a4f4 a83a 4dad f13d
000001b0: 844c 103e 0d42 cf3d 4c21 e9bc 5264 fb3b
000001c0: 3ab8 8dbe 6a10 d63d c867 0dbe 450c edbc
000001d0: a09c c8bc 588c 40bd 8bc4 c33d 1232 2fbe
000001e0: 6bb1 11bd 11ec 1c3e ea74 0dbc df73 09be
000001f0: 6b4d 56be 0afd b7bd d6a1 523d 07e7 463d
00000200: 7fcc 043d 9553 c13d a33a 0fbe 8704 31be
00000210: 2a3c a2bd 6cb0 83bd 8c53 0fbe 699e 053e
00000220: eec0 fbbb 89cb 963d 5485 dfbd 3a7d 02bd
00000230: 3534 053d e4d2 57bd e5ca 743d 915e e23c
00000240: 7fbc b3bd 3823 063d 2e3b 6fbd c254 1fbe
00000250: f9f8 953c b3f4 9cbc 0c89 fbba 1dea 10bb
00000260: 5ec8 753b 06a9 153c ac52 32bb bf17 d7bc
00000270: f8b9 cebd dd26 393b a225 0fbd 3ba6 063e
00000280: 3cfa 1ebc 1985 56bb f3b9 e0bd 0d18 74bd
00000290: 216e c93e 3935 ecbd b06e 23be 5ddc 1bbe
000002a0: d801 8cbd 5b35 a13d 1cc2 593d 0975 27bd
000002b0: 1bae 87bd 30b8 ddbd 5bde dd3c 4e25 cabd
000002c0: ac7a 333d 2b83 f0bb e6a8 993d 3ded 99bd
000002d0: faa8 02be 02c0 efbc 0358 0ebc a201 053d
000002e0: 697c 62bd e9d3 843d 4434 463d 2a1c ab3c
000002f0: 14ca 9abd e3fe 0dbe 0ac7 fc3d 5334 67bd
00000300: 1f67 683d 79a9 f9bd ef9c 3e3c 1ea5 2e3d
00000310: 4e78 8a3d 01dc 7a3d d414 733e 32ab 2c3e
00000320: 9a3b e13d 12e6 4d3e 0780 013e 291d 183e
00000330: 92c7 383e 86f4 193e 68e7 5a3e 23eb 623d
00000340: 9135 c53c f7a7 753d 87d3 b0bc 4117 d8bb
00000350: fcd5 8f3e e76d 553a ce07 8d3e 0905 c13d
00000360: df7d e7bd 412e 353e fed9 90bd e04b 9b3d
00000370: 266a 913d 0551 d0bc d363 fd3d 4fc6 b2bc
00000380: 2183 a1be 47a8 623d 12ef b53d f0ee 1b3d
00000390: 87f7 3d3d 1d3e d83d 2174 23be 1c93 5dbd
000003a0: 07db b73d 67f7 f9bb a3fd 173e 767b bcbc
000003b0: 691e a13c ddb5 b4bc 0364 793d 5ac4 153e
000003c0: 98d0 d1bd c47f 3a3e 5c4e 163d f31e 8dbd
000003d0: 2ba8 003d d2ae 95bc a958 e2bd 6929 fdbc
000003e0: 543c d73d f079 1e3a 17f8 7ebd dcc3 413e
000003f0: 259b 893d 42e5 963d a955 aabd 280b cebd

lstm_layers.0.weight_hh_l0 f4 [400, 100]
0.031170588 0.15780729 -0.020598765 0.3058058 0.2052689 -0.0658139 -0.27019882 0.15433566
0.26324305 0.16203836 0.4134577 0.103768095 -0.09370174 -0.009460716 -0.15234259 -0.1444257
-0.11325381 -0.028875705 -0.13474429 0.070629515 0.055717245 -0.029611839 0.086969264 0.17793755
-0.1757373 -0.08412912 0.129423 0.017165707 0.14325723 -0.19643115 0.26551196 -0.08515307
-0.43296936 -0.08889062 -0.160426 0.3276701 0.08219139 0.170144 -0.07663324 -0.117318705
-0.12711741 0.28491414 0.25973877 -0.20687369 -0.2002094 0.025300987 0.00083548395 -0.066879936
-0.11436455 0.24156043 0.046016347 0.00886322 -0.07392696 -0.0067955684 0.30474252 -0.063101485
0.16809623 -0.1962059 0.13476846 0.011839744 0.009412227 -0.0063109472 0.022274546 0.08854485
-0.09914004 -0.156935 0.18364817 0.17742439 0.037281815 -0.079087704 -0.12591249 -0.14995696
0.124708615 0.387379 0.17054032 0.109606266 0.03643597 -0.08946826 -0.07026611 -0.09846194
-0.0008853022 0.01890801 -0.16448964 0.1128615 -0.25233436 -0.08024518 -0.032185193 0.08471332
-0.086725 0.20403156 -0.12553956 0.00036801165 -0.13768518 0.13675599 -0.15802889 0.0082972115
0.10894832 0.124564454 -0.27091053 -0.27155283 0.09062909 -0.08299454 0.11887851 0.008938815
0.029021967 0.13700016 0.062284414 -0.07631506 0.031137796 -0.12828286 0.07714849 -0.0069727595
-0.0942919 -0.046197545 -0.07626907 -0.106770195 0.03376396 0.072646715 -0.0020421445 -0.04813493
-0.0035994546 0.046298355 -0.017594488 0.0767038 -0.0069798506 -0.035485808 -0.043919813 0.026020056
-0.024065183 0.08377977 -0.009360269 -0.13913754 -0.032017376 0.06326671 0.07118682 0.059541114
-0.06136598 -0.06456564 -0.16286792 0.06447853 -0.105409205 -0.10266178 -0.023300562 -0.01857056
0.09006127 0.006181926 -0.08554601 0.07484414 0.059152525 -0.08911355 0.039868586 -0.08412275
0.10869527 0.010157046 0.041040972 0.08162645 0.022527063 -0.030230913 -0.021284336 -0.08639672
-0.055396307 0.010623171 0.0842867 0.027567793 -0.10068056 -0.013582297 0.055694245 0.06925205
0.0055615525 0.055971544 0.031550627 0.06521221 0.061831675 0.07519522 -0.05335109 0.08737399
-0.04901007 0.09336001 -0.14519638 -0.07316317 0.07552803 -0.13057989 -0.057775006 -0.017882304
0.0008974341 -0.07984597 0.07148812 0.034551594 0.09141311 0.016351432 0.05480905 0.13397364
-0.034712676 0.042250957 0.04096981 0.17517626 -0.044097375 0.0012625245 -0.07028919 0.104210034
-0.10482603 -0.071293324 0.14397664 0.039985318 0.017507385 -0.02996728 -0.0745474 0.06455623
0.06486932 -0.024231676 0.09564602 0.12084839 0.033206556 -0.017824048 0.100564174 -0.08192228
-0.059723787 -0.020638607 0.03956045 -0.07465094 0.044118453 0.06743508 0.043036435 0.005829213
-0.074460804 -0.068705045 0.07980545 -0.036217645 0.018113121 0.07727392 -0.035146482 -0.078109115
0.05053218 -0.11190038 -0.016482363 0.056631774 0.019764386 0.03981472 -0.014286296 -0.04127654
-0.05799531 -0.031269755 -0.07395273 0.05931224 -0.05114542 0.071178734 -0.10169836 -0.061963066
0.00932473 0.02721299 -0.05249944 -0.05516768 0.053968918 -0.05065363 0.017236685 -0.051784184
00000000: 7659 ff3c 3c98 213e bebe a8bc 9492 9c3e
00000010: 0332 523e 70c9 86bd 8057 8abe 2b0a 1e3e
00000020: cbc7 863e 62ed 253e bab0 d33e 5e84 d43d
00000030: b3e6 bfbd 1e01 1bbc b2ff 1bbe 55e4 13be
00000040: 9df1 e7bd be8c ecbc 68fa 09be 35a6 903d
00000050: c437 643d 8794 f2bc f11c b23d 4335 363e
00000060: 7bf4 33be e34b acbd 7787 043e 199f 8c3c
00000070: 06b2 123e 3f25 49be 2ff1 873e bc64 aebd
00000080: 29ae ddbe 490c b6bd b746 24be 60c4 a73e
00000090: f653 a83d 3b3a 2e3e e3f1 9cbd ca44 f0bd
000000a0: 112b 02be 44e0 913e 7bfc 843e b2d6 53be
000000b0: b103 4dbe 0444 cf3c 6104 5b3a 59f8 88bd
000000c0: f637 eabd 9e5b 773e a37b 3c3d 0a37 113c
000000d0: 0567 97bd 5cad debb 3607 9c3e 5a3b 81bd
000000e0: 6b21 2c3e 33ea 48be be00 0a3e 7cfb 413c
000000f0: be35 1a3c 10cc cebb 1c79 b63c 0157 b53d
00000100: ef09 cbbd 92b3 20be 440e 3c3e bdae 353e
00000110: d1b4 183d bcf8 a1bd 34ef 00be 518e 19be
00000120: 3b67 ff3d 8a56 c63e 1fa2 2e3e 4079 e03d
00000130: e23d 153d 233b b7bd aee7 8fbd 6aa6 c9bd
00000140: a013 68ba f9e4 9a3c f96f 28be ee23 e73d
00000150: f831 81be 9657 a4bd 9fd4 03bd 2d7e ad3d
00000160: e09c b1bd a6ed 503e 718d 00be b0f1 c039
00000170: 58fd 0cbe c309 0c3e 53d2 21be 07f1 073c
00000180: 4c20 df3d a61b ff3d c9b4 8abe f908 8bbe
00000190: bf9b b93d 0bf9 a9bd 9476 f33d 1c74 123c
000001a0: 7abf ed3c c549 0c3e f11d 7f3d 124b 9cbd
000001b0: b114 ff3c 955c 03be 0700 9e3d bf7b e4bb
000001c0: 1d1c c1bd a339 3dbd f532 9cbd 55aa dabd
000001d0: 144c 0a3d cdc7 943d 80d5 05bb 2229 45bd
000001e0: d4e4 6bbb 58a3 3d3d 5122 90bc e216 9d3d
000001f0: 3bb7 e4bb 9159 11bd 43e5 33bd 0328 d53c
00000200: 5924 c5bc ba94 ab3d d05b 19bc 127a 0ebe
00000210: a724 03bd fa91 813d 65ca 913d 62e1 733d
00000220: e55a 7bbd fe3a 84bd d9c6 26be 520d 843d
00000230: c8e0 d7bd 5740 d2bd d2e0 bebc 4921 98bc
00000240: 0b72 b83d c191 ca3b bf32 afbd e247 993d
00000250: eb49 723d 2a81 b6bd 3e4d 233d 8c48 acbd
00000260: a09b de3d bd69 263c 941a 283d c52b a73d
00000270: ad8a b83c d2a6 f7bc 7d5c aebc c3f0 b0bd
00000280: 3de7 62bd cf0c 2e3c 819e ac3d dad5 e13c
00000290: 9c31 cebd 4888 5ebc a61f 643d 05d4 8d3d
000002a0: af3d b63b 6b42 653d 3b3b 013d fb8d 853d
000002b0: 3643 7d3d f4ff 993d ac86 5abd 22f1 b23d
000002c0: c8be 48bd 8833 bf3d 5cae 14be 92d6 95bd
000002d0: 71ae 9a3d bcb6 05be 7ca5 6cbd e97d 92bc
000002e0: c841 6b3a 4986 a3bd 5d68 923d f985 0d3d
000002f0: cc36 bb3d 70f3 853c 747f 603d 6330 093e
00000300: e12e 0ebd 570f 2d3d f6cf 273d 6861 333e
00000310: 739f 34bd 4b7b a53a c7f3 8fbd 126c d53d
00000320: 08af d6bd 3c02 92bd 9d6e 133e a5c7 233d
00000330: a66b 8f3c f17d f5bc 4fac 98bd 0f36 843d
00000340: 35da 843d 8281 c6bc 0fe2 c33d 5c7f f73d
00000350: 9903 083d bd03 92bc 97f4 cd3d dec6 a7bd
00000360: eea0 74bd 4c12 a9bc 230a 223d 98e2 98bd
00000370: 8db5 343d 671b 8a3d f946 303d fc02 bf3b
00000380: e87e 98bd 3bb5 8cbd 0a71 a33d f458 14bd
00000390: f861 943c ca41 9e3d c2f5 0fbd acf7 9fbd
000003a0: d5fa 4e3d 072c e5bd 0506 87bc b8f6 673d
000003b0: ece8 a13c c314 233d 1211 6abc 9711 29bd
000003c0: 7d8c 6dbd b714 00bd 8774 97bd 64f1 723d
000003d0: dc7d 51bd 28c6 913d 3b47 d0bd fccc 7dbd
000003e0: c1c6 183c c7ed de3c a709 57bd 81f7 61bd
000003f0: 830e 5d3d 2e7a 4fbd f333 8d3c a71b 54bd

lstm_layers.0.bias_ih_l0 f4 [400]
0.015006276 0.063672505 -0.07493131 -0.057054807 -0.03903699 -0.013945683 0.12426071 0.030150823
0.13692649 0.12731358 0.10165731 -0.061274417 0.108959354 -0.08513993 -0.058123138 0.05858582
-0.027090076 0.022773148 0.14633933 0.07160624 0.052412752 0.13297081 -0.096229605 0.07005379
-0.021618403 -0.0064460305 -0.014750148 0.05486605 -0.037088543 0.090148054 -0.04201534 0.15345603
0.09361691 0.07686697 -0.10300211 -0.062443633 -0.015334996 -0.11349844 0.13158968 0.033329185
0.05939787 0.108603805 0.118261606 -0.01981676 -0.05116796 -0.041583862 0.0006193325 0.06075388
0.041289013 -0.016168125 -0.0764684 -0.08025205 0.11372056 0.07128619 0.13304889 -0.052445598
-0.11853592 0.07542665 0.05871875 -0.026559632 -0.15288062 0.08969053 -0.042724885 0.073531725
-0.10168088 -0.004838229 0.008012222 0.01844238 0.045620717 0.05622206 0.08186923 0.09665683
-0.011340813 0.030272454 -0.09421619 0.120581426 -0.07028103 0.03957765 0.023427669 0.039813977
0.20080253 -0.089295216 0.05994752 -0.09849683 0.110279925 0.090708435 0.05795706 -0.06632002
-0.002692824 0.0024220205 0.025075058 0.21206027 0.018589469 -0.05515676 -0.007733211 0.06678298
0.0012517316 -0.090042666 -0.008649689 -0.0043982267 0.025120512 0.031715292 0.06305962 0.09695658
0.05789012 -0.12776908 0.061507102 -0.027252708 -0.024004782 -0.15143946 -0.022688746 -0.033199962
0.06953377 -0.050820883 0.03809802 -0.0046824235 -0.08078603 -0.06066034 -0.084537014 0.034777805
-0.044455 0.06591524 -0.023658343 -0.04092427 -0.07384083 -0.09471194 0.010065034 0.029685134
-0.059904385 -0.004309124 -0.011119163 -0.054701965 0.07946725 0.012246147 -0.044314742 -0.10755499
0.08123311 -0.049533587 -0.108234785 -0.012249737 -0.049102895 -0.024353608 -0.06493661 0.041665707
0.006040744 0.018537384 -0.10941393 -0.12105775 -0.0763944 -0.03869152 -0.07512521 -0.19572367
0.049487453 0.025045494 -0.0043802517 0.011310252 -0.01244484 -0.087074354 0.058677163 -0.12212301
-0.07140041 0.022649145 -0.052847784 -0.061052717 0.004803611 -0.13164188 0.069146246 0.01933029
-0.09972325 0.0711179 -0.08881112 -0.02354973 -0.072830066 -0.15062274 -0.028622394 -0.12331736
-0.09265824 0.03983478 -0.03247339 -0.042895302 -0.13636471 0.023748865 0.07962049 -0.08184493
-0.004915726 -0.124022275 -0.03756566 -0.10192053 -0.113566354 -0.10336763 -0.04631932 -0.06805574
-0.0042295335 0.04523808 -0.02780912 0.06670683 -0.09776174 -0.016914135 0.15572998 0.053840525
0.0747113 -0.032336082 -0.05384971 0.044604886 0.10703427 -0.05036212 0.015012012 0.08783957
-0.037599903 0.045242153 0.022297278 0.11143842 0.051269036 0.02930418 0.0039402214 -0.025790371
0.005801793 -0.096050836 -0.03885913 -0.07157996 -0.005914597 0.066518754 -0.029943915 0.02102733
0.018070128 -0.08547997 0.038580928 0.07260608 -0.016970107 0.08425139 -0.041063793 -0.019638106
-0.041116245 -0.014756713 0.0029035588 0.08242268 -0.045019634 0.06730432 -0.027475461 -0.07032629
0.022656929 0.032586306 0.051457264 0.06365825 0.043208666 0.02955483 -0.016989686 -0.01795134
-0.028857457 0.01811957 -0.048164796 0.04572956 -0.07632933 0.06722502 0.02713521 -0.06512589
00000000: e2dc 753c bb66 823d 9675 99bd 4db2 69bd
00000010: 40e5 1fbd 6f7c 64bc 667c fe3d dcfe f63c
00000020: 7536 0c3e 7e5e 023e b531 d03d e2fa 7abd
00000030: 1526 df3d d85d aebd 8712 6ebd aff7 6f3d
00000040: 02ec ddbc c18e ba3c fad9 153e 4ba6 923d
00000050: c1ae 563d 8029 083e 0714 c5bd 5d78 8f3d
00000060: 1419 b1bc 3939 d3bb 9baa 71bc 39bb 603d
00000070: 28ea 17bd 8b9f b83d 4718 2cbd 9423 1d3e
00000080: 39ba bf3d 6e6c 9d3d c5f2 d2bd e5c4 7fbd
00000090: a33f 7bbc df71 e8bd 72bf 063e 2f84 083d
000000a0: 2e4b 733d ac6b de3d 2433 f23d c256 a2bc
000000b0: 7f95 51bd d753 2abd b35a 223a 0fd9 783d
000000c0: ab1e 293d 0473 84bc 779b 9cbd 305b a4bd
000000d0: 53e6 e83d 7efe 913d f83d 083e 32d1 56bd
000000e0: f6c2 f2bd 4a79 9a3d 1283 703d 9693 d9bc
000000f0: bd8c 1cbe abaf b73d 4a00 2fbd cd97 963d
00000100: 113e d0bd 028a 9ebb b245 033c 7914 973c
00000110: cadc 3a3d 1a49 663d 0eab a73d 04f4 c53d
00000120: d1ce 39bc f0fd f73c 6bf4 c0bd 65f3 f63d
00000130: 80ef 8fbd 2d1c 223d 62eb bf3c fb13 233d
00000140: 2e9f 4d3e 69e0 b6bd 888b 753d b5b8 c9bd
00000150: 71da e13d 58c5 b93d 6264 6d3d cad2 87bd
00000160: 177a 30bb c3ba 1e3b 356a cd3c 5426 593e
00000170: f148 983c 0eec 61bd e066 fdbb 84c5 883d
00000180: 2511 a43a 4a68 b8bd 6db7 0dbc 001f 90bb
00000190: 88c9 cd3c e5e7 013d 6725 813d 2c91 c63d
000001a0: 311e 6d3d e6d5 02be dfee 7b3d 1241 dfbc
000001b0: ada5 c4bc f212 1bbe c0dd b9bc affc 07bd
000001c0: b967 8e3d 8f29 50bd ab0c 1c3d 046f 99bb
000001d0: 2573 a5bd fa76 78bd be21 adbd 2c73 0e3d
000001e0: 7216 36bd 92fe 863d 24cf c1bc 35a0 27bd
000001f0: dc39 97bd 55f8 c1bd d0e7 243c 3d2e f33c
00000200: 4d5e 75bd 8d33 8dbb 262d 36bc 2b0f 60bd
00000210: babf a23d 10a4 483c 6083 35bd ca45 dcbd
00000220: 8b5d a63d bbe3 4abd 33aa ddbd 1fb3 48bc
00000230: 1e20 49bd 3881 c7bc 7cfd 84bd a9a9 2a3d
00000240: 6ff1 c53b b6db 973c 6914 e0bd 20ed f7bd
00000250: ab74 9cbd 007b 1ebd 3fdb 99bd c96b 48be
00000260: 5bb3 4a3d 352c cd3c 3788 8fbb a34e 393c
00000270: 71e5 4bbc 0a54 b2bd 7757 703d a11b fabd
00000280: 613a 92bd b38a b93c eb76 58bd 6a12 7abd
00000290: 9c67 9d3b 21cd 06be 8c9c 8d3d 8e5a 9e3c
000002a0: b43b ccbd 43a6 913d 9be2 b5bd 5deb c0bc
000002b0: ee27 95bd d93c 1abe 8379 eabc d08d fcbd
000002c0: 9ac3 bdbd cb29 233d d102 05bd fcb2 2fbd
000002d0: 31a3 0bbe fb8c c23c 1110 a33d 519e a7bd
000002e0: 1914 a1bb 64ff fdbd 73de 19bd b6bb d0bd
000002f0: 7a95 e8bd 68b2 d3bd 54b9 3dbd cf60 8bbd
00000300: e697 8abb 914b 393d f4cf e3bc 979d 883d
00000310: 4f37 c8bd 838f 8abc ae77 1f3e e287 5c3d
00000320: 3d02 993d d772 04bd 8391 5cbd 9db3 363d
00000330: c934 db3d 8348 4ebd f1f4 753c 3ce5 b33d
00000340: 5b02 1abd d64f 393d c8a8 b63c d439 e43d
00000350: 7bff 513d 520f f03c f91c 813b 5446 d3bc
00000360: f81c be3b 4db6 c4bd c02a 1fbd 8498 92bd
00000370: 3ccf c1bb fc3a 883d f14c f5bc 8241 ac3c
00000380: ce07 943c 1f10 afbd 0907 1e3d 7fb2 943d
00000390: e504 8bbc fe8b ac3d 8232 28bd 18e0 a0bc
000003a0: 8269 28bd 24c6 71bc a249 3e3b 39cd a83d
000003b0: 8266 38bd d9d6 893d 3814 e1bc 3b07 90bd
000003c0: 069b b93c 3879 053d dac4 523d 425f 823d
000003d0: 92fb 303d f91c f23c f42d 8bbc b00e 93bc
000003e0: 7966 ecbc 7e6f 943c 7348 45bd eb4e 3b3d
000003f0: 8d52 9cbd 45ad 893d a94a de3c b960 85bd

lstm_layers.0.bias_hh_l0 f4 [400]
0.055504188 -0.048688184 -0.12315846 0.06624223 0.12908684 -0.011476876 0.037199702 -0.021321466
0.09709871 0.11703139 0.09557109 0.04032211 -0.055857047 0.013113125 0.016369779 0.058326297
0.0024190228 0.009227262 0.2689055 0.05767552 0.06830233 0.040063415 -0.070423976 -0.05025488
0.019887233 -0.08185726 -0.10201368 -0.1091229 0.0823821 0.07524058 -0.09194614 0.008219131
-0.004182536 0.014080528 -0.123194546 -0.056857146 0.030356888 -0.03603659 0.046726696 -0.0121569475
-0.022166448 0.18323338 -0.012660687 0.08269482 0.03769011 -0.025542619 -0.030983886 -0.11914072
-0.04158008 0.08043004 -0.030173706 -0.049876627 0.008704397 0.08141091 0.13570184 0.07280767
0.04054512 0.07247009 0.15409067 0.074987434 -0.015648775 0.014639467 0.030669885 -0.0068398137
0.021379048 0.1104217 0.06436496 -0.102828376 -0.075064175 0.04863188 0.06402242 0.019792516
-0.00584373 0.054969776 -0.05925412 0.18919823 -0.06267924 0.118386455 -0.036926184 -0.014186001
0.026614606 0.011258744 0.07248176 0.048316244 0.024584623 -0.025153933 -0.06293492 -0.095990255
-0.023669673 0.021262752 -0.021383043 0.2767401 0.032783754 -0.0061293975 0.0717829 0.07496513
0.01804845 -0.029135032 0.08054072 0.07497504 -0.09297558 -0.0022367018 -0.012237194 0.0415284
0.03349803 -0.030421041 0.003129106 -0.12202727 -0.15170962 -0.112200566 -0.047514632 -0.11617336
-0.025899159 -0.019301647 -0.06583988 0.033625893 0.071871445 0.11651447 -0.01785025 -0.03126811
-0.16933712 0.008092459 -0.09877569 0.033570252 0.0965907 -0.016235104 -0.068828754 0.026570726
0.03541623 -0.031093553 0.08135109 -0.16681638 -0.056738354 -0.023272244 -0.024844406 -0.020620696
-0.0929995 -0.07144108 0.004434635 -0.05425381 -0.13582502 0.004019564 0.03846797 -0.050283983
-0.047036234 -0.062159657 -0.06803879 -0.12508337 -0.061235577 0.031904668 -0.14418243 -0.10447358
0.05301818 -0.07957401 0.10383705 0.060039286 -0.003404789 0.019155843 0.05777408 -0.120694995
-0.0993147 -0.030304678 -0.069432 -0.15979983 0.027365582 -0.038845863 0.05088517 -0.07264548
-0.06965754 0.030431783 -0.0445139 -0.13844517 -0.07449449 0.022964315 0.042408433 -0.06937761
-0.04240185 -0.09094986 -0.070608296 -0.11942388 -0.14290452 -0.025352743 0.05390185 0.0136458585
0.013794809 -0.06874386 -0.055912934 -0.18043923 0.011562025 0.07516741 -0.043692317 -0.038409106
0.051234227 0.015052095 0.10739735 -0.010664526 -0.08965009 0.03196276 0.006737479 0.11110548
0.07508197 0.07198623 -0.039054286 0.06874851 0.08811796 -0.081891745 -0.10024742 0.095883146
0.02901601 0.04848813 -0.02846911 0.034494184 0.075710185 -0.037960127 -0.005438894 -0.07312678
0.01444577 -0.03982328 -0.037696112 0.06676843 -0.13200347 0.021960398 0.08052903 0.054958817
-0.0226523 -0.00019379167 -0.04195286 -0.07750724 0.12046426 -0.027345598 0.0068664253 0.00090164674
0.0148286875 -0.047383346 0.061913557 0.13621424 0.050934073 0.15024233 0.031058813 -0.01329026
-0.061924037 -0.032132626 0.087900385 -0.09983447 -0.037367456 -0.045427375 0.005801992 -0.06653654
0.04933754 0.07530377 -0.070987865 -0.07496753 -0.03484666 -0.015091373 0.103269435 0.08128211
00000000: 5c58 633d 436d 47bd 813a fcbd 02aa 873d
00000010: 572f 043e 8209 3cbc b75e 183d 5baa aebc
00000020: b0db c63d 27ae ef3d c7ba c33d cc28 253d
00000030: 5cca 64bd 6fd8 563c ea19 863c 8ee7 6e3d
00000040: 7888 1e3b f12d 173c fbad 893e 2b3d 6c3d
00000050: 18e2 8b3d 8919 243d 723a 90bd 10d8 4dbd
00000060: 8dea a23c c7a4 a7bd 8cec d0bd d47b dfbd
00000070: f2b7 a83d bc17 9a3d 424e bcbd 89a9 063c
00000080: a80d 89bb 04b2 663c 6c4d fcbd 0ae3 68bd
00000090: 02af f83c 1a9b 13bd 7e64 3f3d ef2d 47bc
000000a0: 6996 b5bc 88a1 3b3e c56e 4fbc e75b a93d
000000b0: f260 1a3d c13e d1bc ebd1 fdbc 0d00 f4bd
000000c0: e04f 2abd 81b8 a43d d92e f7bc 6f4b 4cbd
000000d0: e39c 0e3c c3ba a63d 6cf5 0a3e 301c 953d
000000e0: a412 263d 336b 943d f2c9 1d3e 0393 993d
000000f0: dc31 80bc 60da 6f3c 693f fb3c 8420 e0bb
00000100: 1d23 af3c c624 e23d c7d1 833d af97 d2bd
00000110: 3fbb 99bd 3932 473d 301e 833d ea23 a23c
00000120: c37c bfbb fd27 613d 73b4 72bd 2ebd 413e
00000130: f95d 80bd 9974 f23d e93f 17bd 676c 68bc
00000140: e006 da3c 9876 383c 5171 943d 41e7 453d
00000150: b165 c93c 9f0f cebc 06e4 80bd 8a96 c4bd
00000160: e7e6 c1bc 392f ae3c 7e2b afbc e1b0 8d3e
00000170: 4248 063d 1dd9 c8bb ea02 933d 5187 993d
00000180: 58da 933c 97ac eebc 88f2 a43d 848c 993d
00000190: fb69 bebd a195 12bb 837e 48bc af19 2a3d
000001a0: 3b35 093d 8c35 f9bc b011 4d3b 6fe9 f9bd
000001b0: c459 1bbe 69c9 e5bd b49e 42bd 4cec edbd
000001c0: 792a d4bc 7d1e 9ebc 0fd7 86bd 4ebb 093d
000001d0: 5631 933d 239f ee3d b03a 92bc fd12 00bd
000001e0: b666 2dbe 3c96 043c e94a cabd f680 093d
000001f0: 58d1 c53d 7bff 84bc 17f6 8cbd daaa d93c
00000200: 9c10 113d e8b7 febc 669b a63d ead1 2abe
00000210: 7a66 68bd 6fa5 bebc 7f86 cbbc bcec a8bc
00000220: 8676 bebd b34f 92bd 6a50 913b 3e39 5ebd
00000230: b715 0bbe 8cb6 833b 9790 1d3d 94f6 4dbd
00000240: 11a9 40bd 209b 7ebd ec57 8bbd db15 00be
00000250: 28d2 7abd 78ae 023d 8fa4 13be 3ff6 d5bd
00000260: 9729 593d b3f7 a2bd 85a8 d43d c1eb 753d
00000270: e122 5fbb b7ec 9c3c 84a4 6c3d f02e f7bd
00000280: 8165 cbbd 8441 f8bc 5d32 8ebd 91a2 23be
00000290: c92d e03c d71c 1fbd f86c 503d 27c7 94bd
000002a0: 9da8 8ebd 134c f93c 3554 36bd 92c4 0dbe
000002b0: 9190 98bd a91f bc3c 77b4 2d3d d915 8ebd
000002c0: 90ad 2dbd ec43 babd 159b 90bd 8294 f4bd
000002d0: 9055 12be 8eb0 cfbc 30c8 5c3d e192 5f3c
000002e0: 9f03 623c 95c9 8cbd f604 65bd 10c5 38be
000002f0: a66e 3d3c 5ff1 993d b7f6 32bd de52 1dbd
00000300: fbda 513d 109d 763c 24f3 db3d 44ba 2ebc
00000310: 779a b7bd 62eb 023d 12c6 dc3b 458b e33d
00000320: 93c4 993d 846d 933d 63f7 1fbd 05cc 8c3d
00000330: 3077 b43d dcb6 a7bd 854e cdbd 625e c43d
00000340: fcb2 ed3c 7d9b 463d 0d38 e9bc c649 0d3d
00000350: f10d 9b3d 147c 1bbd c038 b2bb 7ec3 95bd
00000360: f3ad 6c3c bc1d 23bd 3d67 1abd e3bd 883d
00000370: eb2b 07be 4be6 b33c 67ec a43d 7f1c 613d
00000380: 5191 b9bc 8e34 4bb9 c3d6 2bbd 1ebc 9ebd
00000390: f7b5 f63d e003 e0bc c0ff e03b 7d5c 6c3a
000003a0: 06f4 723c 0a15 42bd 1299 7d3d bf7b 0b3e
000003b0: 3fa0 503d 20d9 193e 0d6f fe3c 64bf 59bc
000003c0: 0fa4 7dbd 809d 03bd 1e05 b43d 0476 ccbd
000003d0: 9e0e 19bd 0e12 3abd a31e be3b 4f44 88bd
000003e0: 2916 4a3d dd38 9a3d 1662 91bd 9488 99bd
000003f0: 5fbb 0ebd ce41 77bc ed7e d33d 3c77 a63d

lstm_layers.1.weight_ih_l0 f4 [400, 100]
0.35268554 -0.024255764 -0.08502917 -0.32625324 -0.12263258 -0.0044755978 0.39860183 -0.15143159
-0.35858193 -0.31302077 -0.09982186 0.09496104 0.10411017 0.04542852 -0.0938249 0.10554892
0.12743022 -0.15439403 -0.124297485 -0.078216664 0.21133561 0.29688635 -0.28157273 0.0066496646
0.05291168 0.12672909 -0.08898579 0.039826903 -0.113448955 0.19231965 -0.11795902 0.12119057
0.21548365 0.11182076 0.24021007 -0.23664667 -0.14518331 0.039009575 -0.2614139 0.066332065
0.3552917 -0.42129552 -0.09138983 0.24005221 0.1566785 0.22102709 0.22012433 -0.18503968
0.033794392 -0.14678544 -0.077561736 -0.24293217 0.04081838 0.19867975 -0.13983643 -0.00531731
-0.13073456 0.18711665 -0.12917961 -0.017866006 -0.06685467 -0.009257333 0.14915127 -0.08569439
0.03279435 0.13677648 -0.095336854 0.086762585 -0.12959869 -0.08716345 0.12538005 0.08445406
-0.097180545 -0.34134394 0.096966244 0.19192086 -0.015811147 -0.025316011 0.13617374 -0.20514794
0.083750986 0.087252595 0.08498065 0.24751347 0.022711774 -0.113423035 0.2626887 -0.20617644
0.003649142 0.28676385 0.20263053 0.2432625 0.1266674 -0.19994043 0.070706755 0.2203346
0.09464215 -0.08674237 -0.08813831 0.058769673 0.11767927 -0.00010571022 -0.07249547 -0.02477965
0.1241207 -0.13374838 -0.14175329 -0.025664562 -0.028921278 -0.02855823 0.015465166 0.036069773
-0.07030442 -0.074875414 0.073149234 0.08551414 0.034716357 -0.09586212 0.0003496914 0.09502258
0.065756254 0.04662982 -0.041742086 0.07884997 0.14292642 0.01833462 -0.016201722 -0.02049941
0.0017881774 0.07318132 0.043764584 0.065451615 -0.07130732 0.11090282 0.0918964 -0.00038865398
0.0988583 -0.08188226 0.029625064 -0.04617815 0.11403975 0.10513981 0.07801118 0.020978313
-0.051400278 -0.074345574 0.037442967 -0.15162888 -0.055507522 0.068619326 -0.05618737 -0.055066235
-0.12685499 -0.17019586 -0.02313324 -0.0338415 0.016107079 0.008606305 -0.044866562 0.0058395606
-0.066382155 -0.06942131 -0.028695941 -0.027531492 0.042421483 0.053095363 -0.11264037 0.011516507
0.07557262 -0.051379193 0.077031285 0.09175647 -0.03561275 0.04127157 -0.057924114 0.055969793
0.011923629 -0.00019607943 0.020034878 -0.016315352 -0.08136482 -0.055557914 0.08635769 -0.019931324
0.11889692 0.035998713 0.06939474 -0.07117047 -0.016813157 0.043803155 0.052613497 0.1271368
-0.036903147 -0.06611829 0.105245695 0.044263534 0.09658553 0.009378144 0.08498238 0.020086797
0.57234514 -0.073421605 -0.046561595 -0.2205346 -0.053016726 0.007471211 0.36777356 -0.23108374
-0.20639932 -0.30641708 0.012005298 0.109909676 0.020238545 0.03266892 -0.26529813 0.026497666
0.15774567 -0.034329437 -0.18798451 -0.15775491 0.18702422 0.098765455 -0.13242643 -0.084156536
0.11673924 -0.05032628 -0.089135714 0.021689234 -0.1401453 0.18396795 -0.11744651 0.085469805
0.25502092 -0.030605007 0.26648268 -0.23754576 -0.15902263 -0.02089565 -0.30785814 0.04971744
0.34794348 -0.19496642 -0.16385111 0.3994069 0.02626429 0.09387604 0.13356157 -0.26873484
0.10473487 -0.09074094 -0.04936946 -0.2963196 0.026592784 0.37933233 -0.12743585 0.09070906
00000000: 3393 b43e 06b4 c6bc c623 aebd aa0a a7be
00000010: ca26 fbbd 09a8 92bb 8a15 cc3e e210 1bbe
00000020: 0d98 b7be 4244 a0be 676f ccbd ef7a c23d
00000030: b637 d53d 4113 3a3d 4527 c0bd 082a d83d
00000040: 117d 023e 7819 1ebe ae8f febd 0f30 a0bd
00000050: 5d68 583e 7d01 983e 4d2a 90be 6ee5 d93b
00000060: ebb9 583d 45c5 013e 2f3e b6bd 8921 233d
00000070: ed57 e8bd 71ef 443e 8094 f1bd c332 f83d
00000080: bfa7 5c3e 4802 e53d a1f9 753e 8153 72be
00000090: efaa 14be 81c8 1f3d 0bd8 85be 1bd9 873d
000000a0: cbe8 b53e 0cb4 d7be 972a bbbd 3fd0 753e
000000b0: 5470 203e ed54 623e 4668 613e 0b7b 3dbe
000000c0: fd6b 0a3d ec4e 16be b0d8 9ebd 36c3 78be
000000d0: 2c31 273d b472 4b3e 4831 0fbe d43c aebb
000000e0: 48df 05be 829b 3f3e a947 04be bb5b 92bc
000000f0: 1aeb 88bd 12ac 17bc 1cbb 183e 8a80 afbd
00000100: 5e53 063d 220f 0c3e f83f c3bd 95b0 b13d
00000110: 85b5 04be c082 b2bd a163 003e 40f6 ac3d
00000120: 9806 c7bd a2c4 aebe 3d96 c63d e786 443e
00000130: 6186 81bc 8663 cfbc 2171 0b3e 4d12 52be
00000140: a385 ab3d 7db1 b23d 560a ae3d 2c74 7d3e
00000150: 0b0e ba3c 564a e8bd 227f 863e eb1f 53be
00000160: 7226 6f3b b6d2 923e 617e 4f3e ce19 793e
00000170: 19b5 013e 2fbd 4cbe b4ce 903d 659f 613e
00000180: bed3 c13d fca5 b1bd dc81 b4bd 78b8 703d
00000190: d401 f13d beb0 ddb8 8178 94bd b1fe cabc
000001a0: fe32 fe3d 56f5 08be c627 11be 7d3e d2bc
000001b0: 51ec ecbc f3f2 e9bc 9c61 7d3c e6bd 133d
000001c0: c4fb 8fbd 4858 99bd 44cf 953d 0a22 af3d
000001d0: bd32 0e3d 5c53 c4bd c956 b739 339b c23d
000001e0: 37ab 863d e9fe 3e3d c0f9 2abd 187c a13d
000001f0: 4e5b 123e 7c32 963c 79b9 84bc 61ee a7bc
00000200: 4761 ea3a 17e0 953d 7e42 333d 7f0b 863d
00000210: 9209 92bd 0521 e33d 2e34 bc3d 41c4 cbb9
00000220: 3876 ca3d e3b1 a7bd 43b0 f23c 4d25 3dbd
00000230: ac8d e93d 8a53 d73d 53c4 9f3d b6da ab3c
00000240: 1989 52bd 7e42 98bd cc5d 193d 9a44 1bbe
00000250: db5b 63bd 4a88 8c3d ba24 66bd 228d 61bd
00000260: 46e6 01be d347 2ebe ec81 bdbc 629d 0abd
00000270: fef2 833c 7601 0d3c 00c6 37bd c959 bf3b
00000280: 5ef3 87bd c32c 8ebd c013 ebbc b989 e1bc
00000290: 26c2 2d3d 867a 593d ffaf e6bd bbaf 3c3c
000002a0: d1c5 9a3d fd72 52bd 94c2 9d3d d1ea bb3d
000002b0: adde 11bd 610c 293d d641 6dbd 9540 653d
000002c0: 535b 433c ac9a 4db9 2f20 a43c c6a7 85bc
000002d0: 99a2 a6bd b290 63bd 4ddc b03d 0447 a3bc
000002e0: 3a80 f33d 6373 133d d41e 8e3d d3c1 91bd
000002f0: bfbb 89bc f06a 333d 4081 573d 2630 023e
00000300: c127 17bd 0769 87bd 0e8b d73d ae4d 353d
00000310: a2ce c53d c9a6 193c 3e0b ae3d 118d a43c
00000320: 3685 123f 115e 96bd 5fb7 3ebd d2d3 61be
00000330: 1128 59bd 0fd1 f43b d14c bc3e 37a1 6cbe
00000340: 585a 53be b3e2 9cbe dfb1 443c 5318 e13d
00000350: 4ecb a53c d8cf 053d 28d5 87be a211 d93c
00000360: 1588 213e 069d 0cbd 037f 40be 818a 21be
00000370: 4783 3f3e 8b45 ca3d cb9a 07be 435a acbd
00000380: fc14 ef3d ee22 4ebd c98c b6bd 9fad b13c
00000390: 4082 0fbe 1862 3c3e cc87 f0bd cb0a af3d
000003a0: 1a92 823e 5ab7 fabc 6b70 883e 323f 73be
000003b0: d4d6 22be 5b2d abbc 959f 9dbe 84a4 4b3d
000003c0: a625 b23e 47a5 47be 96c8 27be 107f cc3e
000003d0: 3528 d73c 1542 c03d 5dc4 083e 9d97 89be
000003e0: 3c7f d63d 63d6 b9bd a237 4abd 34b7 97be
000003f0: 1cd9 d93c d937 c23e 8b7e 02be acc5 b93d

lstm_layers.1.weight_hh_l0 f4 [400, 100]
-0.080362104 -0.03796586 0.042578854 0.05154308 -0.02085617 -0.039940994 -0.057087027 0.035280023
-0.064674854 -0.099522874 0.13128847 -0.10970569 -0.05364644 -0.09698556 0.18280758 0.029200355
-0.14277741 0.06398725 -0.109972015 -0.026219953 -0.057942603 -0.14078093 0.034639567 0.07132266
0.064831324 -0.061089583 0.02846909 0.15923582 0.0058301687 -0.098748066 0.022088155 0.13961506
0.020813541 0.037806444 0.07160604 0.15280804 0.12109186 0.0861217 -0.018675903 0.2918924
0.16149488 -0.15925275 -0.06470335 -0.120147705 0.13767405 0.07526682 0.033927504 0.08268567
0.13309877 0.05824982 0.07582239 -0.040311974 0.03338833 -0.12373843 -0.08547226 0.015182267
-0.06960971 0.11983799 -0.10056574 -0.10107416 0.054778323 0.056481246 0.034257367 0.06267086
0.1082816 -0.1699808 0.24520962 0.20142066 0.16255707 0.04268393 0.009235355 -0.06582586
0.19599795 -0.4347468 -0.0037216477 0.11744578 -0.055642907 -0.21574822 -0.019222116 0.06720648
0.061746128 0.014121033 0.010978638 0.03935139 -0.05977519 -0.11553462 0.13779473 -0.011889725
0.08389764 0.022508964 0.049063493 0.07990287 -0.09610375 0.015389606 -0.0574651 -0.106474444
-0.128547 0.1142783 0.084174156 0.035624932 0.0055505545 -0.023669275 0.00960868 -0.02439246
-0.0023156223 0.079089455 -0.100610994 0.04966396 -0.026826426 -0.08465979 0.16752435 0.065514006
-0.06746744 0.024248956 0.04144735 -0.01533822 -0.14139739 0.08442914 0.10302069 0.046022687
0.020216467 -0.0034079857 0.12739563 0.08562834 -0.020522246 0.14301686 -0.044894334 0.12981848
-0.05048464 0.040473152 -0.08072939 0.012291444 -0.101911746 -0.026023638 0.06577812 -0.07812365
0.09011744 -0.040516414 0.04943256 0.15311721 0.15528113 0.035847045 -0.050424222 0.0023937963
0.051378164 0.013441553 0.004787601 -0.124833904 -0.005005526 0.09779783 0.15679032 -0.063461125
-0.020310286 -0.076978154 0.043243714 0.07779658 -0.05907762 0.0034867849 0.041159075 -0.06215804
0.047924396 -0.06295748 0.018912848 0.11199102 0.13743171 -0.047814112 0.052702073 0.08881263
-0.07886051 -0.034405187 -0.11340815 0.040752925 -0.068985455 -0.3111154 0.06503245 0.07829934
-0.12417234 -0.1608554 -0.032120682 0.096836604 -0.03791372 -0.07502374 -0.039765827 -0.070321955
0.10363898 -0.0174759 -0.10284519 0.034821823 0.05723811 0.112561196 0.001190087 0.02665661
-0.06790166 -0.02498396 -0.06514427 -0.08293882 -0.08973085 -0.053637005 0.041533638 0.0674005
-0.18429907 1.2100014e-05 -0.13700834 0.061701726 -0.37215698 0.25912467 -0.17110701 0.007911871
-0.04844847 -0.27861023 0.40147376 -0.13807328 0.009026632 0.0843847 0.09800741 0.08689994
-0.1810444 -0.041112274 0.05481355 0.032473516 -0.12382467 0.0717608 0.060635697 -0.05019788
0.10676301 0.05313367 -0.04287746 0.3237429 0.07046572 -0.14126667 0.27565503 0.061254166
-0.22394615 0.25145316 -0.028808817 0.015976774 0.2749108 -0.14414138 -0.073887244 0.38845617
0.084205605 0.025277408 -0.044439413 -0.13981459 0.3226133 0.026463684 0.2806068 -0.24712463
-0.11007166 0.2643826 0.05146013 -0.1327294 -0.0973242 -0.09002071 0.0129656 0.16874512
00000000: e394 a4bd 1782 1bbd 2a67 2e3d d61e 533d
00000010: 8fda aabc 2b99 23bd 16d4 69bd c981 103d
00000020: 4074 84bd a6d2 cbbd 7c70 063e 60ad e0bd
00000030: 5fbc 5bbd 5ea0 c6bd e931 3b3e 9535 ef3c
00000040: 3e34 12be bf0b 833d 0239 e1bd 3acb d6bc
00000050: 3955 6dbd e028 10be 38e2 0d3d 9d11 923d
00000060: 49c6 843d 1239 7abd 0238 e93c b70e 233e
00000070: 000b bf3b 6d3c cabd 38f2 b43c 40f7 0e3e
00000080: 2981 aa3c eeda 1a3d 30a6 923d b679 1c3e
00000090: 02ff f73d 9360 b03d 35fe 98bc ec72 953e
000000a0: ea5e 253e 2713 23be 3183 84bd 0010 f6bd
000000b0: 6dfa 0c3e 7e25 9a3d 91f7 0a3d 1b57 a93d
000000c0: 0b4b 083e 5d97 6e3d c548 9b3d 2b1e 25bd
000000d0: 34c2 083d 936a fdbd 150c afbd 0bbf 783c
000000e0: 898f 8ebd 9f6d f53d 69f5 cdbd f8ff cebd
000000f0: 3c5f 603d e158 673d 7451 0c3d 9459 803d
00000100: bec2 dd3d 720f 2ebe 3b18 7b3e 3841 4e3e
00000110: 5c75 263e 58d5 2e3d e34f 173c b5cf 86bd
00000120: b0b3 483e 2297 debe e3e6 73bb 6a87 f03d
00000130: d1e9 63bd 1aed 5cbe b377 9dbc 8da3 893d
00000140: 82e9 7c3d e85b 673c bfdf 333c ec2e 213d
00000150: d4d6 74bd 6a9d ecbd 101a 0d3e 1fcd 42bc
00000160: 87d2 ab3d b864 b83c cdf6 483d 1ea4 a33d
00000170: 0bd2 c4bd b024 7c3c 8660 6bbd 460f dabd
00000180: d3a1 03be be0a ea3d 8063 ac3d 73eb 113d
00000190: 6de1 b53b 11e6 c1bc ba6d 1d3c b2d2 c7bc
000001a0: b2c1 17bb a7f9 a13d 230d cebd 706c 4b3d
000001b0: 18c3 dbbc 1d62 adbd 818b 2b3e 352c 863d
000001c0: 5f2c 8abd bfa5 c63c b2c4 293d 284d 7bbc
000001d0: 7aca 10be 2fe9 ac3d 83fc d23d 4982 3c3d
000001e0: 019d a53c 8358 5fbb 0074 023e e95d af3d
000001f0: 451e a8bc 0373 123e 1fe3 37bd 23ef 043e
00000200: fbc8 4ebd 2dc7 253d 7355 a5bd 0e62 493c
00000210: 1bb7 d0bd 862f d5bc aeb6 863d 4bff 9fbd
00000220: 7e8f b83d 8af4 25bd cc79 4a3d c2ca 1c3e
00000230: 0402 1f3e 5ad4 123d a189 4ebd 3de1 1c3b
00000240: e971 523d f639 5c3c 4fe1 9c3b eba8 ffbd
00000250: 6505 a4bb 3b4a c83d a48d 203e e8f7 81bd
00000260: c261 a6bc b9a6 9dbd 5220 313d d053 9f3d
00000270: 60fb 71bd 8b82 643b 6b96 283d 6e99 7ebd
00000280: 5f4c 443d daef 80bd 1eef 9a3c 8c5b e53d
00000290: e6ba 0c3e bbd8 43bd 21de 573d 65e3 b53d
000002a0: 9e81 a1bd 74ec 0cbd 8842 e8bd 8aec 263d
000002b0: 3f48 8dbd 854a 9fbe bc2f 853d 685b a03d
000002c0: 114e febd 47b7 24be fa90 03bd 4552 c63d
000002d0: 6b4b 1bbd 0ca6 99bd 7ee1 22bd f504 90bd
000002e0: ac40 d43d 9e29 8fbc 80a0 d2bd 54a1 0e3d
000002f0: 8272 6a3d 7c86 e63d b1fc 9b3a f75e da3c
00000300: 0710 8bbd 29ab ccbc 5c6a 85bd d4db a9bd
00000310: cfc4 b7bd 7ab2 5bbd 2d1f 2a3d 4609 8a3d
00000320: e5b8 3cbe 2a01 4b37 ea4b 0cbe f3ba 7c3d
00000330: 5c8b bebe fdab 843e ad36 2fbe cba0 013c
00000340: e771 46bd 00a6 8ebe f88d cd3e 1563 0dbe
00000350: 70e4 133c e3d1 ac3d 1cb8 c83d 99f8 b13d
00000360: b463 39be 5865 28bd 2c84 603d f302 053d
00000370: ca97 fdbd 54f7 923d 235d 783d 4b9c 4dbd
00000380: 91a6 da3d b1a2 593d 47a0 2fbd a1c1 a53e
00000390: 5550 903d 36a8 10be a822 8d3e a6e5 7a3d
000003a0: 2452 65be 78be 803e 7800 ecbc b9e1 823c
000003b0: 1cc1 8c3e cc99 13be 3252 97bd bae3 c63e
000003c0: fd73 ac3d 9112 cf3c 1a06 36bd 8e2b 0fbe
000003d0: 922d a53e 5eca d83c b2ab 8f3e 3d0e 7dbe
000003e0: 406d e1bd 285d 873e dbc7 523d 37ea 07be
000003f0: e951 c7bd c75c b8bd ab6d 543c 85cb 2c3e

lstm_layers.1.bias_ih_l0 f4 [400]
0.13249417 -0.028692404 0.11730215 0.03821616 0.17237242 0.063679494 0.0048204116 0.13373564
-0.019028364 0.003029016 0.12605497 0.070937924 0.001332066 -0.040379968 0.058786217 0.068863325
-0.07629284 -0.005920898 0.10591239 -0.11263937 0.16566877 -0.056316245 0.043408062 0.058539845
-0.11042818 -0.05705161 -0.020476718 0.06841385 0.005296631 -0.073876984 0.05815041 -0.020156473
0.22339012 0.046748947 -0.16896221 0.08050143 0.14483653 0.1513343 -0.06050665 0.10490719
-0.056745496 -0.11165761 0.0034230014 -0.05844374 0.08868672 0.0877735 0.1335961 0.22351639
0.11485683 0.081719495 0.010148111 -0.052377988 0.014087523 0.06755225 -0.14074726 0.029389214
-0.0067958995 0.039477296 -0.010036835 -0.07312001 -0.10556106 0.13300209 -0.005048949 0.1413922
-0.033118993 0.010983133 0.13542226 -0.065523095 -0.014091028 0.08808931 0.069927454 0.015709102
0.0409238 0.19033366 0.10945787 0.09458331 0.18325865 0.009503108 -0.00041813616 -0.031005327
-0.003699565 -0.026681585 0.015904324 -0.059195932 -0.08152123 -0.02469781 0.027824232 -0.051286288
-0.07350845 -0.025245452 -0.1306251 -0.066712886 0.05622103 0.014360504 -0.021329928 0.046989612
-0.006731697 0.001639921 0.025905013 -0.0035752673 -0.04525853 -0.052795585 -0.061216544 -0.09664145
0.0028201023 -0.061753407 -0.15123437 -0.18521598 -0.10791312 0.06989823 -0.038582534 -0.02565488
-0.09372752 -0.13664971 -0.04734953 -0.14392172 -0.023125572 0.018898144 -0.11738425 -0.05454458
-0.056246374 -0.17599921 -0.0281086 0.068972394 -0.12435057 -0.1511926 -0.10839966 -0.052688017
-0.026134845 -0.07462636 -0.026159976 -0.09148964 -0.12477791 -0.04525297 -0.0978982 -0.09944012
-0.1158487 -0.0852654 -0.06959565 -0.07449806 -0.088472635 -0.0926869 0.048072323 -0.1263605
0.05028811 -0.12208166 0.019697556 -0.16633381 -0.053528924 -0.0037358822 0.17565216 0.0603987
0.018978996 -0.047244545 -0.06472602 0.055236593 -0.09290022 -0.075193994 -0.031761754 0.020699747
0.02018286 0.06653443 0.06935347 -0.0012141614 -0.06827527 0.028428083 0.0069452818 -0.22778843
-0.056116246 -0.119973786 -0.17029 -0.037801713 -0.07151089 0.24550812 -0.106543094 -0.058522087
-0.104269385 -0.017436082 -0.03311431 -0.15468025 -0.11239812 -0.042645022 -0.021154141 -0.0062364093
-0.08209025 -0.080320366 0.022629486 -0.030173762 0.024130093 -0.075201266 0.010965585 -0.055943333
-0.11106774 -0.033425033 -0.20138854 -0.0768284 -0.041548032 -0.052906282 -0.16205296 -0.041978814
0.0062857266 0.11497929 -0.086333774 0.06671837 -0.06867284 0.049058728 0.03995393 0.06365146
0.04739693 -0.06757856 0.03909361 -0.09359536 -0.009530196 0.025727337 0.045103837 -0.034709964
-0.046705235 -0.047729447 0.0757255 -0.058229 0.0003713812 -0.054341603 0.0046826187 0.014127464
0.066301174 -0.0014769015 0.0064729424 0.04119052 0.022750292 -0.09868807 0.07008679 0.049115248
-0.11913316 -0.012653084 0.08213989 0.07062315 0.015271051 0.039783027 -0.09067555 0.066178225
0.056431234 0.0020453813 0.07551964 0.027612345 0.075896494 -0.05925703 0.060454335 0.0074808584
-0.00021518047 -0.017867036 0.074509 -0.05139633 0.015652325 0.078825824 -0.011918124 0.08052509
00000000: 8dac 073e 550c ebbc 1c3c f03d 8c88 1c3d
00000010: 6582 303e 656a 823d 8bf4 9d3b fff1 083e
00000020: 5fe1 9bbc 7582 463b 8e14 013e e747 913d
00000030: b898 ae3a 7765 25bd d1c9 703d 3708 8d3d
00000040: 6c3f 9cbd 1804 c2bb 98e8 d83d 78af e6bd
00000050: 13a5 293e ddab 66bd a7cc 313d 7ac7 6f3d
00000060: 2b28 e2bd f3ae 69bd cabe a7bc 901c 8c3d
00000070: 5c8f ad3b d14c 97bd 202f 6e3d 301f a5bc
00000080: 61c0 643e d37b 3f3d 6e04 2dbe efdd a43d
00000090: 0750 143e 61f7 1a3e d2d5 77bd 95d9 d63d
000000a0: f76d 68bd bfac e4bd 6f54 603b b462 6fbd
000000b0: 62a1 b53d 98c2 b33d 6bcd 083e 7be1 643e
000000c0: 0f3a eb3d 8d5c a73d 4344 263c 4d8a 56bd
000000d0: 5bcf 663c d658 8a3d 0d20 10be a6c1 f03c
000000e0: 23b0 debb f2b2 213d 8a71 24bc f2bf 95bd
000000f0: 6630 d8bd b331 083e a771 a5bb 1ec9 103e
00000100: c8a7 07bd 99f2 333c 22ac 0a3e f930 86bd
00000110: 0ede 66bc 2b68 b43d 2036 8f3d 60b0 803c
00000120: b79f 273d d4e6 423e 732b e03d e5b4 c13d
00000130: 28a8 3b3e edb2 1b3c 4939 dbb9 e2fe fdbc
00000140: 6774 72bb 5793 dabc c949 823c 6f77 72bd
00000150: 9af4 a6bd 1053 cabc a5ef e33c 9211 52bd
00000160: 998b 96bd 8dcf cebc 96c2 05be c4a0 88bd
00000170: 0648 663d 5248 6b3c 1abc aebc 2e78 403d
00000180: 9195 dcbb 9ef2 d63a c036 d43c 084f 6abb
00000190: 0261 39bd 2f40 58bd 33be 7abd f4eb c5bd
000001a0: 77d1 383b 24f1 7cbd 2fdd 1abe 42a9 3dbe
000001b0: 8e01 ddbd ce26 8f3d b808 1ebd 2f2a d2bc
000001c0: 37f4 bfbd e7ed 0bbe 95f1 41bd 3760 13be
000001d0: d771 bdbc 48d0 9a3c 2767 f0bd 236a 5fbd
000001e0: 9962 66bd 2339 34be 0244 e6bc 6641 8d3d
000001f0: 83ab febd 3cd2 1abe a400 debd 64cf 57bd
00000200: be18 d6bc b4d5 98bd 724d d6bc ec5e bbbd
00000210: 908b ffbd 2e5b 39bd da7e c8bd 43a7 cbbd
00000220: 1542 edbd a09f aebd 2a88 8ebd 7092 98bd
00000230: 2431 b5bd a1d2 bdbd 7ce7 443d a664 01be
00000240: e8fa 4d3d f305 fabd c55c a13c 6953 2abe
00000250: 2541 5bbd b4d5 74bb 29de 333e a164 773d
00000260: d779 9b3c 7f83 41bd 138f 84bd c43f 623d
00000270: 7842 bebd 4fff 99bd 9d18 02bd 8492 a93c
00000280: 8656 a53c 3443 883d 3109 8e3d 7f24 9fba
00000290: e8d3 8bbd 03e2 e83c 3f95 e33b 5f41 69be
000002a0: 26da 65bd d1b4 f5bd 8060 2ebe f8d5 1abd
000002b0: 4d74 92bd 7b66 7b3e 4433 dabd dbb4 6fbd
000002c0: 308b d5bd 1dd6 8ebc dfa2 07bd 8064 1ebe
000002d0: fc30 e6bd 8cac 2ebd 734b adbc cb5a ccbb
000002e0: ef1e a8bd 017f a4bd 7961 b93c f72e f7bc
000002f0: 79ac c53c 1f03 9abd ffa8 333c d624 65bd
00000300: 7c77 e3bd b0e8 08bd cc38 4ebe 3558 9dbd
00000310: 452e 2abd 42b4 58bd 36f1 25be faf1 2bbd
00000320: 7ff8 cd3b 437a eb3d c3cf b0bd a4a3 883d
00000330: 59a4 8cbd cef1 483d bba6 233d b25b 823d
00000340: 4923 423d a166 8abd 9f20 203d edae bfbd
00000350: 8a24 1cbc 23c2 d23c cdbe 383d 092c 0ebd
00000360: fd4d 3fbd f47f 43bd f915 9b3d 8881 6ebd
00000370: f1b5 c239 4d95 5ebd a770 993b e176 673c
00000380: e9c8 873d 9794 c1ba fa1a d43b 64b7 283d
00000390: d25e ba3c f91c cabd aa89 8f3d 122d 493d
000003a0: 16fc f3bd e14e 4fbc f538 a83d dfa2 903d
000003b0: 6e33 7a3c 87f3 223d 1ab4 b9bd 7388 873d
000003c0: 7024 673d ce0b 063b 0baa 9a3d 4933 e23c
000003d0: 9f6f 9b3d 80b7 72bd f79e 773d fd21 f53b
000003e0: 11a2 61b9 e45d 92bc 2d98 983d f584 52bd
000003f0: 4e39 803c 6f6f a13d 3c44 43bc 57ea a43d
