foundation_models/Ensemble_model9_DeepSurv_ANN_Event_1_20250804_203104.pt (torch, 106742 bytes, 25 tensors)

model.0.weight f4 [106, 11]
0.11713739 -0.052042644 0.4366387 0.038051944 -0.47322083 -0.16246513 -0.037575398 0.019963352
-0.0028316556 0.011109007 -0.011732909 0.03382989 -0.23859721 0.032926783 -0.28040555 0.36338317
0.23023966 0.025806079 -0.011419493 0.049849495 -0.11865554 -0.114483394 0.08101691 -0.09881947
-0.19810236 0.044903807 0.26901913 0.46682557 -0.1172002 0.13053335 0.13480808 0.23800805
0.115677424 0.086343706 -0.014481381 0.0095745595 0.08929887 0.3811253 0.5474342 0.060203675
0.07584498 -0.04098074 0.022483889 -0.20696205 0.026071275 -0.21412373 -0.24934256 -0.015239738
-0.101218805 0.25311062 0.00470445 -0.2955628 -0.08427866 0.10283201 -0.20305815 0.040757526
-0.11081322 -0.15446062 0.16212086 0.12834473 0.038768057 0.32617885 0.15409732 -0.058782402
-0.005777666 0.20791665 -0.09619197 0.09607383 -0.13972361 0.038930908 -0.062444113 0.40399396
0.17647561 -0.18536398 0.2484642 -0.06254467 0.30638832 0.058751173 0.15622933 -0.23850565
-0.13301912 -0.511961 0.118113734 0.09955943 0.028388409 0.08253347 0.0060313223 -0.08374899
-0.025260188 -0.09945276 0.40846336 -0.073630534 -0.18713427 0.4241861 -0.10169783 0.19750676
0.02345449 -0.17886813 0.26543114 0.0050714356 0.056673046 -0.14950395 -0.0257279 -0.29019493
-0.2229011 0.19757457 0.14370145 0.19891162 0.01581738 -0.19736782 -0.005183373 0.07772066
0.16223632 0.42629373 -0.06606573 0.61790264 0.26182923 -0.18893841 -0.10242901 0.064697534
-0.058325823 0.04186753 -0.16974242 0.34465373 0.16125259 -0.39932355 0.0694462 0.23000805
-0.062362507 0.092722505 0.016485602 -0.05738013 -0.104910776 -0.15785116 -0.15619408 0.10029174
-0.23226732 0.07197404 -0.2053553 -0.40997788 0.10578231 0.1470696 0.15187757 0.046105202
-0.26147443 0.17392911 -0.120070316 0.13157777 -0.4393852 -0.17446476 0.20317557 0.07365123
0.007922217 -0.12569991 0.12890449 0.17015307 0.015846826 -0.069538094 -0.24308081 -0.42179114
0.18495844 -0.21395695 0.14525689 -0.17471121 -0.15280332 -0.087385565 -0.047983684 0.044751026
0.0385022 0.24183185 -0.606964 -0.20502646 -0.2006528 0.013054081 -0.009983922 -0.14679381
0.120751485 -0.10264845 -0.032342903 0.14093104 -0.021601278 0.43117398 0.39760977 0.017428352
-0.02182307 0.05252331 0.14042746 -0.16898644 -0.014450952 0.22907835 -0.06035564 0.15665616
0.27794755 -0.07286577 0.16852413 0.20901394 0.1476638 0.3557845 -0.05448494 0.054696433
0.3204785 0.0010603361 -0.38660923 -0.22282176 -0.0855976 0.056694537 -0.048184633 -0.060752105
0.19410436 0.018979473 0.12615895 -0.2411411 -0.15659963 -0.08586943 0.23139785 0.029130032
-0.18254155 -0.0369928 -0.062550336 -0.29599282 0.052887883 0.16568285 0.19401953 0.042174123
-0.2629717 -0.24930161 -0.12893137 -0.2543098 0.14386956 0.04266375 0.13223365 0.08617195
0.059935283 -0.16849227 -0.15472415 -0.34537968 -0.11981156 -0.08727819 -0.35338312 0.0925625
0.028553165 0.115221605 0.060107242 -0.18312801 -0.3035751 0.09956957 0.21730152 0.22294798
0.11718503 0.23084769 -0.12608398 -0.0022414061 -0.26077953 -0.1357325 0.06488052 0.12328956
00000000: bae5 ef3d ab2a 55bd 1c8f df3e 5bdc 1b3d
00000010: 004a f2be 425d 26be a9e8 19bd 2f8a a33c
00000020: 4c93 39bb 8d02 363c 633b 40bc 3691 0a3d
00000030: d452 74be 3cde 063d 5191 8fbe 5c0d ba3e
00000040: f2c3 6b3e 4567 d33c d318 3bbc fc2e 4c3d
00000050: ad01 f3bd 4576 eabd 32ec a53d dd61 cabd
00000060: 58db 4abe 0eed 373d e0bc 893e c303 ef3e
00000070: a906 f0bd 89aa 053e 210b 0a3e 62b8 733e
00000080: 49e8 ec3d f8d4 b03d 5043 6dbc 9dde 1c3c
00000090: 53e2 b63d db22 c33e a624 0c3f 2198 763d
000000a0: 9d54 9b3d 6cdb 27bd 2230 b83c dced 53be
000000b0: 6d93 d53c 4043 5bbe a853 7fbe 18b0 79bc
000000c0: ce4b cfbd b797 813e c927 9a3b 0254 97be
000000d0: 4a9a acbd 9799 d23d 7aee 4fbe 5df1 263d
000000e0: 0bf2 e2bd ed2a 1ebe 0303 263e cd6c 033e
000000f0: 41cb 1e3d ea00 a73e b0cb 1d3e d1c5 70bd
00000100: 9352 bdbb 1ae8 543e 4c00 c5bd 5bc2 c43d
00000110: b513 0fbe 0476 1f3d 66c5 7fbd 4cd8 ce3e
00000120: 06b6 343e 0ed0 3dbe 666d 7e3e 6c17 80bd
00000130: eede 9c3e 12a5 703d 95fa 1f3e d33a 74be
00000140: 2a36 08be e00f 03bf 9de5 f13d d0e5 cb3d
00000150: cf8e e83c 4f07 a93d 66a2 c53b 9784 abbd
00000160: 74ee cebc e3ad cbbd 1c22 d13e 9bcb 96bd
00000170: 20a0 3fbe ec2e d93e f446 d0bd 363f 4a3e
00000180: a123 c03c 3529 37be 97e6 873e 492e a63b
00000190: ff21 683d 9017 19be 51c3 d2bc 6e94 94be
000001a0: 3040 64be fd50 4a3e 7926 133e 7daf 4b3e
000001b0: 7393 813c ca1a 4abe 49d9 a9bb 022c 9f3d
000001c0: 4721 263e 2c43 da3e 784d 87bd de2e 1e3f
000001d0: 7b0e 863e 1279 41be 4dc6 d1bd 2480 843d
000001e0: 0fe7 6ebd 4a7d 2b3d f5d0 2dbe 7476 b03e
000001f0: 661f 253e 2374 ccbe cf39 8e3d 3b87 6b3e
00000200: d46f 7fbd 4ce5 bd3d d00c 873c 6d07 6bbd
00000210: 76db d6bd bca3 21be 57f1 1fbe c165 cd3d
00000220: 7cd7 6dbe 2067 933d a948 52be 9fe8 d1be
00000230: 65a4 d83d 6a99 163e cb85 1b3e cfd8 3c3d
00000240: fadf 85be 791a 323e 6de7 f5bd 53bc 063e
00000250: 19f7 e0be e4a6 32be 420d 503e 75d6 963d
00000260: 30cc 013c 7ab7 00be 8aff 033e 9b3c 2e3e
00000270: 34d1 813c fd69 8ebd 2dea 78be 02f5 d7be
00000280: bf65 3d3e 8817 5bbe 39be 143e 7fe7 32be
00000290: 7978 1cbe 34f7 b2bd 8a8a 44bd da4c 373d
000002a0: 7cb4 1d3d c5a2 773e fe61 1bbf 75f2 51be
000002b0: ed77 4dbe c9e0 553c 9b93 23bc 1e51 16be
000002c0: 8e4c f73d 5a39 d2bd fe79 04bd 3a50 103e
000002d0: 2af5 b0bc d6c2 dc3e 8293 cb3e e7c5 8e3c
000002e0: 4bc6 b2bc af22 573d 37cc 0f3e c80a 2dbe
000002f0: b0c3 6cbc 8493 6a3e 7a37 77bd 796a 203e
00000300: 244f 8e3e a63a 95bd 9791 2c3e c007 563e
00000310: 2e35 173e 6329 b63e 9a2b 5fbd 5e09 603d
00000320: c215 a43e fafa 8a3a a5f1 c5be 632b 64be
00000330: cb4d afbd 8838 683d 405d 45bd 33d7 78bd
00000340: 4bc3 463e d77a 9b3c d02f 013e b1ed 76be
00000350: a75b 20be 50dc afbd 8ff3 6c3e 1ba2 ee3c
00000360: 2cec 3abe c385 17bd 641a 80bd 5f8c 97be
00000370: f7a0 583d c4a8 293e 0ead 463e c6be 2c3d
00000380: 3aa4 86be ec48 7fbe 9606 04be e534 82be
00000390: 8b52 133e 2fc0 2e3d 4268 073e eb7a b03d
000003a0: b37e 753d 3d89 2cbe 0270 1ebe 9bd5 b0be
000003b0: c35f f5bd e8be b2bd a2ee b4be 6891 bd3d
000003c0: 54e8 e93c 4ef9 eb3d 0333 763d e985 3bbe
000003d0: 326e 9bbe 21eb cb3d 4a84 5e3e 7a4c 643e
000003e0: b4fe ef3d 5663 6c3e 291c 01be 8ee4 12bb
000003f0: e584 85be 76fd 0abe 14e0 843d 3d7f fc3d

model.0.bias f4 [106]
0.23789704 -0.17555904 -0.19820523 0.13908872 -0.12086295 -0.00987267 -0.042699482 0.018993184
0.15838116 0.13227352 0.0741334 0.19410537 -0.16053863 -0.12135243 0.00823975 0.25076115
-0.101223335 -0.22864892 0.0039773216 -0.2853394 0.3631989 -0.031349838 -0.34492734 0.057921413
-0.040608335 -0.13335177 0.21729119 0.19341183 0.23530318 -0.113768704 0.067461 0.11375802
0.12976252 0.024913037 0.07333579 -0.123927325 -0.12919642 -0.27321085 0.0078013754 -0.13466951
0.2610248 -0.19403584 0.00867009 0.09563817 0.14797164 -0.10425724 -0.05159948 -0.3048408
0.18887526 -0.1777071 0.031932455 0.17364967 -0.21598254 -0.06641234 -0.14940292 0.040751178
-0.15040052 0.19224958 0.123874016 0.0053540966 -0.10091105 0.21718565 -0.23063177 -0.2710533
0.22383209 -0.08820653 -0.11249767 -0.20517223 0.21845286 0.08130467 -0.027043015 0.03080788
-0.19603477 -0.039175104 -0.18557698 -0.1924891 -0.11966749 0.094860084 -0.20988931 0.17379905
0.07948341 -0.07771763 0.17664537 -0.08817177 0.117531165 0.056643724 0.033144504 0.2473591
-0.12270415 -0.018296707 -0.27688146 0.13527176 0.0054142787 0.1718977 -0.013894936 0.1886128
-0.38529217 -0.21617678 -0.28492346 0.11871057 0.037690777 0.38477874 -0.11668096 -0.17690183
0.09992226 -0.04473676
00000000: 489b 733e c0c5 33be 50f6 4abe 466d 0e3e
00000010: ff86 f7bd fbc0 21bc a7e5 2ebd 9897 9b3c
00000020: ac2e 223e b672 073e 41d3 973d 8fc3 463e
00000030: 3d64 24be 9f87 f8bd 0400 073c c463 803e
00000040: 2e4e cfbd f122 6abe 3154 823b 0118 92be
00000050: 35f5 b93e b068 00bd 519a b0be 013f 6d3d
00000060: ed54 26bd 5e8d 08be 9581 5e3e c00d 463e
00000070: 51f3 703e 91ff e8bd fe28 8a3d f7f9 e83d
00000080: 77e0 043e 6d16 cc3c 1331 963d 9ccd fdbd
00000090: 114c 04be 4be2 8bbe aea2 ff3b cee6 09be
000000a0: 0ba5 853e 55b1 46be fe0c 0e3c f2dd c33d
000000b0: e185 173e d284 d5bd fa59 53bd 1814 9cbe
000000c0: 8468 413e daf8 35be 9bcb 023d 38d1 313e
000000d0: 872a 5dbe 3103 88bd 14fd 18be b5ea 263d
000000e0: 9802 1abe 13dd 443e a9b1 fd3d 6b71 af3b
000000f0: 74aa cebd ea65 5e3e bc2a 6cbe 80c7 8abe
00000100: 3d34 653e a0a5 b4bd 2e65 e6bd ab18 52be
00000110: 1bb2 5f3e 1083 a63d 5089 ddbc cf60 fc3c
00000120: 57bd 48be 1376 20bd e407 3ebe dd1b 45be
00000130: 3b14 f5bd 0146 c23d 39ed 56be 61f8 313e
00000140: 33c8 a23d 6c2a 9fbd 86e2 343e 6793 b4bd
00000150: 2eb4 f03d 4003 683d 88c2 073d b44b 7d3e
00000160: 504c fbbd fae2 95bc 68c3 8dbe ae84 0a3e
00000170: 436a b13b f305 303e 96a7 63bc b723 413e
00000180: 0445 c5be 725d 5dbe 7de1 91be 871e f33d
00000190: a561 1a3d b801 c53e 6df6 eebd c125 35be
000001a0: 0ba4 cc3d e53d 37bd

model.1.weight f4 [106]
0.7058073 0.9660536 0.7281299 0.8494805 0.9020847 0.73849237 0.74773496 0.6520681
0.5445733 0.67744356 0.7551905 0.65029997 0.82492656 0.85424274 0.5435392 0.9120371
0.84262085 0.7070341 0.65010667 0.7065182 0.67209774 0.7316071 0.7796067 0.8198876
0.8875493 0.7989444 0.92810285 0.8037118 0.8657621 0.7449248 0.68496525 0.7268233
0.70001227 0.62658834 0.9421917 0.6673818 0.750587 0.6256185 0.79967564 0.7380985
0.7070171 0.7504924 0.6517023 0.6754451 0.6258796 0.715622 0.8927261 0.61687654
0.6780996 0.61058444 0.8036911 0.6303786 0.6303937 0.86867076 0.67263967 0.8669868
0.89835495 0.5732036 0.541936 0.8312605 0.7560559 0.85613674 0.73619205 0.7805047
0.66827834 0.79716206 0.8636647 0.6508459 0.80349624 0.86387604 0.7215641 0.6581231
0.6356776 0.88418156 0.62392354 0.72973746 0.8429629 0.7581028 0.89701664 0.6754423
0.940915 0.6760581 0.80612767 0.7245581 0.880376 0.85113364 0.60573256 0.73003715
0.9343866 0.7112296 0.7342027 0.6708674 0.74275035 0.5658459 0.68960994 0.6743446
0.623056 0.7603579 0.86462605 0.7057979 0.9980905 0.63594276 0.9125159 0.75609165
0.63899314 0.6395625
00000000: caaf 343f 4a4f 773f b966 3a3f 8e77 593f
00000010: 06ef 663f d60d 3d3f 8f6b 3f3f efed 263f
00000020: 2869 0b3f f16c 2d3f 2a54 413f 0f7a 263f
00000030: 632e 533f a7af 5a3f 6325 0b3f 437b 693f
00000040: 00b6 573f 3000 353f 646d 263f 60de 343f
00000050: 990e 2c3f 9a4a 3b3f 4e94 473f 27e4 513f
00000060: 6e36 633f 9f87 4c3f 2698 6d3f 0ec0 4d3f
00000070: 96a2 5d3f 64b3 3e3f e259 2f3f 1711 3a3f
00000080: 0134 333f 1868 203f 7a33 713f 89d9 2a3f
00000090: 7826 403f 8928 203f 8bb7 4c3f 06f4 3c3f
000000a0: 13ff 343f 4520 403f f6d5 263f f8e9 2c3f
000000b0: a539 203f 0133 373f b389 643f 9feb 1d3f
000000c0: ef97 2d3f 434f 1c3f b3be 4d3f 7e60 213f
000000d0: 7b61 213f 3561 5e3f 1d32 2c3f d9f2 5d3f
000000e0: 97fa 653f 79bd 123f 51bc 0a3f 7dcd 543f
000000f0: e18c 413f c72b 5b3f 1577 3c3f 28cf 473f
00000100: 4a14 2b3f d012 4c3f 2119 5d3f d69d 263f
00000110: eeb1 4d3f fb26 5d3f 6db8 383f c17a 283f
00000120: c4bb 223f b959 623f 74b9 1f3f 13d0 3a3f
00000130: 6bcc 573f 0613 423f e2a2 653f c9e9 2c3f
00000140: cedf 703f 2512 2d3f 625e 4e3f a47c 393f
00000150: 5260 613f e5e3 593f 4a11 1b3f b7e3 3a3f
00000160: f633 6f3f 2513 363f b5f4 3b3f f7bd 2b3f
00000170: e324 3e3f 47db 103f 478a 303f d9a1 2c3f
00000180: 9980 1f3f d1a6 423f 2258 5d3f 2caf 343f
00000190: dc82 7f3f 25cd 223f a49a 693f 398f 413f
000001a0: 0e95 233f 5eba 233f

model.1.bias f4 [106]
-0.31423688 -0.19029525 -0.19623333 -0.1406503 -0.24281807 -0.20488721 -0.31260613 -0.0965106
-0.20592666 -0.030443441 -0.08241691 -0.12136787 -0.32044876 -0.18786184 -0.2006434 -0.017110098
-0.14928003 -0.24975824 -0.2493578 -0.22248079 -0.23235506 -0.438552 -0.06703445 -0.15737736
-0.110119216 -0.15163758 -0.26202786 0.07853786 -0.12807019 -0.46915588 -0.30018544 -0.25409067
-0.347167 -0.20846757 -0.025672158 -0.12338954 -0.18553476 -0.12374413 -0.07101201 -0.28925186
-0.028092487 -0.346741 -0.32297838 -0.05641165 -0.22583577 -0.27951118 -0.2399136 -0.16109625
-0.23026448 -0.060088105 -0.439727 -0.32308516 -0.08520761 -0.10314862 0.057246327 -0.19702117
0.043155678 -0.20879164 0.00663956 -0.099103615 -0.183996 0.020376084 -0.27289388 -0.041586775
-0.07939279 -0.07445155 -0.31094882 -0.24915886 -0.08957382 0.0289015 -0.39719257 -0.13846633
-0.041234415 -0.27912173 -0.16322714 -0.03559713 -0.22125113 -0.03182402 -0.14037657 -0.32941303
-0.2056811 -0.16126509 -0.23695002 -0.2447131 0.04674114 -0.23729512 -0.2245224 -0.25584137
-0.20264614 -0.41495213 -0.20478334 -0.33456764 -0.15935926 -0.39976668 -0.24167275 -0.36898527
-0.2158923 -0.19321509 -0.29038846 -0.1347771 -0.118292525 -0.11776833 -0.36630434 -0.12908794
-0.0693651 -0.20185012
00000000: a8e3 a0be c2dc 42be 64f1 48be a206 10be
00000010: 4da5 78be f4cd 51be e90d a0be 59a7 c5bd
00000020: 70de 52be 8664 f9bc 32ca a8bd b88f f8bd
00000030: dc11 a4be db5e 40be 7775 4dbe 7a2a 8cbc
00000040: dddc 18be a0c0 7fbe a757 7fbe 01d2 63be
00000050: 7cee 6dbe e389 e0be 5c49 89bd 8827 21be
00000060: 2f86 e1bd e246 1bbe 8428 86be 75d8 a03d
00000070: d524 03be 3335 f0be e8b1 99be 2c18 82be
00000080: dfbf b1be 8678 55be 6b4e d2bc a8b3 fcbd
00000090: d3fc 3dbe 906d fdbd bf6e 91bd d218 94be
000000a0: 3722 e6bc 0988 b1be 6c5d a5be e70f 67bd
000000b0: 7e41 67be 171c 8fbe e9ab 75be 6af6 24be
000000c0: 74ca 6bbe f21e 76bd e623 e1be 6b6b a5be
000000d0: 5481 aebd 953f d3bd 207b 6a3d ebbf 49be
000000e0: 02c4 303d 7acd 55be ab90 d93b d6f6 cabd
000000f0: 7369 3cbe bfeb a63c bfb8 8bbe e556 2abd
00000100: b098 a2bd 0e7a 98bd af34 9fbe 8023 7fbe
00000110: 7b72 b7bd d7c2 ec3c d35c cbbe 1eca 0dbe
00000120: 6be5 28bd 0be9 8ebe 0425 27be 4cce 11bd
00000130: a88f 62be e759 02bd e0be 0fbe d3a8 a8be
00000140: 119e 52be ad22 25be 07a3 72be 1296 7abe
00000150: a373 3f3d 7efd 72be 33e9 65be a4fd 82be
00000160: 7882 4fbe 9b74 d4be b9b2 51be 734c abbe
00000170: 132f 23be 38ae ccbe 1079 77be a3eb bcbe
00000180: df12 5dbe 2dda 45be ccad 94be 0203 0abe
00000190: 5a43 f2bd 8630 f1bd 3e8c bbbe a12f 04be
000001a0: 4a0f 8ebd ccb1 4ebe

model.1.running_mean f4 [106]
-0.12808427 -1.1522354 0.16501668 1.0995619 -2.8318772 1.4494601 0.4994165 1.0620937
0.5104011 1.6803548 0.79546636 -0.060509846 -3.7560334 -1.0898285 0.20706362 -1.9571908
1.2228062 0.9207887 0.040153347 -0.6913985 -0.45363268 -1.9888558 0.21519496 -1.7585498
0.89412105 -1.5857016 1.5855248 -1.9317539 0.16620226 -1.8903935 -1.4260172 -0.27141216
-0.28851023 -1.2111906 0.77658784 0.894819 -0.78888977 1.5293343 1.9844885 1.1309872
0.69386816 -0.052680615 -0.95383036 -1.1442546 -1.1950762 -0.13726236 -1.3027885 -2.9720356
0.768356 2.151775 -4.3468757 2.7385836 1.4336232 1.8033214 -1.2581286 -0.45044002
-0.58018506 -1.4165511 0.907192 -0.5334292 0.17395757 -1.5114042 -0.80734307 -0.25029615
0.5575786 0.19398521 -1.8604509 -0.54325485 -0.42606223 -1.0347042 -0.94352543 0.36926746
-0.578126 0.2636383 -0.64837027 0.9789447 -0.305466 0.35633498 0.29709312 -1.293739
-1.8882251 0.12436485 -0.14305401 1.2493358 0.9852269 0.041112833 -0.41897896 0.10497661
-0.8750425 1.12679 0.83832955 0.21472552 0.23156707 0.14057632 2.2841973 -2.1507375
1.0460179 -1.2668153 2.4825997 -0.7462648 -1.0920599 -0.6461284 -0.70946705 -1.1900401
2.488414 0.9783002
00000000: 8628 03be 737c 93bf 22fa 283e 72be 8c3f
00000010: 7a3d 35c0 e987 b93f 85b3 ff3e b0f2 873f
00000020: a6a9 023f de15 d73f afa3 4b3f 2cd9 77bd
00000030: da62 70c0 807f 8bbf 7c08 543e 3a85 fabf
00000040: ea84 9c3f cfb8 6b3f d677 243d 7eff 30bf
00000050: 8b42 e8be d492 febf 115c 5c3e 2918 e1bf
00000060: 1ee5 643f 45f8 cabf 7af2 ca3f b643 f7bf
00000070: ed30 2a3e 6af8 f1bf bb87 b6bf 89f6 8abe
00000080: 9db7 93be 4b08 9bbf 76ce 463f dc12 653f
00000090: aef4 49bf 3ac1 c33f b803 fe3f 30c4 903f
000000a0: 58a1 313f a1c7 57bd 3a2e 74bf ef76 92bf
000000b0: 42f8 98bf 818e 0cbe c6c1 a6bf d535 3ec0
000000c0: fbb2 443f aeb6 0940 9b19 8bc0 f444 2f40
000000d0: f780 b73f 3cd3 e63f 5c0a a1bf 13a0 e6be
000000e0: 0287 14bf 8c51 b5bf bc3d 683f d18e 08bf
000000f0: ef21 323e b175 c1bf 09ae 4ebf d126 80be
00000100: 79bd 0e3f 0fa4 463e 4123 eebf c012 0bbf
00000110: d424 dabe 3071 84bf e28a 71bf a010 bd3e
00000120: 1100 14bf 99fb 863e 98fb 25bf 1f9c 7a3f
00000130: 0a66 9cbe 8a71 b63e 971c 983e 3d99 a5bf
00000140: 5cb1 f1bf 00b3 fe3d c07c 12be 3cea 9f3f
00000150: d537 7c3f ee65 283d 6984 d6be fafd d63d
00000160: c902 60bf a83a 903f c49c 563f 02e1 5b3e
00000170: eb1f 6d3e 3df3 0f3e 4a30 1240 afa5 09c0
00000180: eae3 853f 0127 a2bf eae2 1e40 360b 3fbf
00000190: 9ec8 8bbf ac68 25bf a29f 35bf 3c53 98bf
000001a0: 2d42 1f40 e271 7a3f

model.1.running_var f4 [106]
0.012114356 0.06842617 0.02256897 0.008293354 0.06281525 0.006171067 0.013943862 0.028076041
0.019067653 0.018944263 0.017715322 0.024603587 0.06526448 0.027292565 0.030406227 0.017609322
0.011540408 0.02538113 0.010466641 0.010908174 0.018184498 0.026485527 0.015985202 0.017628094
0.017713096 0.02767785 0.025969364 0.022865945 0.0060807243 0.010299383 0.0077131703 0.0060034175
0.004438957 0.021863917 0.012194629 0.012110185 0.023372553 0.015617234 0.010006695 0.021724258
0.011101251 0.053294558 0.013420236 0.009266266 0.012101583 0.03311854 0.026643086 0.062820785
0.024404 0.01765014 0.1099604 0.039861627 0.05012246 0.0049064606 0.050064463 0.016903274
0.0122720385 0.026892167 0.056619056 0.008244711 0.0196715 0.02340915 0.014819447 0.012006399
0.004633631 0.015412874 0.020510834 0.03649535 0.004883186 0.020864623 0.007539351 0.057093915
0.02103349 0.017921563 0.033735897 0.015793558 0.00858224 0.035303734 0.045490805 0.01145133
0.0050480035 0.04896147 0.01624586 0.014568884 0.017019656 0.010559519 0.015540254 0.008267337
0.007128798 0.01193877 0.010079102 0.016740154 0.009349232 0.014360136 0.04634885 0.051627625
0.033769645 0.043092795 0.009447278 0.12100709 0.01643245 0.010376266 0.006260766 0.02572975
0.022029625 0.02372209
00000000: 4b7b 463c 0523 8c3d 90e2 b83c d9e0 073c
00000010: 48a5 803d a936 ca3b cc74 643c baff e53c
00000020: c433 9c3c 0031 9b3c b91f 913c 768d c93c
00000030: 62a9 853d a894 df3c 7b16 f93c 6d41 903c
00000040: fb13 3d3c 16ec cf3c 467c 2b3c 33b8 323c
00000050: a8f7 943c 2df8 d83c 66f3 823c cb68 903c
00000060: 0e1b 913c a9bc e23c b4bd d43c 5d51 bb3c
00000070: d040 c73b bebe 283c c3be fc3b 51b8 c43b
00000080: ac74 913b f51b b33c fbcb 473c cc69 463c
00000090: cc77 bf3c 6ddf 7f3c 1ff3 233c 12f7 b13c
000000a0: 05e2 353c 654b 5a3d 8de0 5b3c 89d1 173c
000000b0: b845 463c 4ea7 073d 9a42 da3c 2fa8 803d
000000c0: e6ea c73c 0797 903c eb32 e13d f245 233d
000000d0: 354d 4d3d 60c6 a03b 6510 4d3d bc78 8a3c
000000e0: a910 493c f64c dc3c 62e9 673d d314 073c
000000f0: 2026 a13c 8cc4 bf3c 44cd 723c 7db6 443c
00000100: b7d5 973b 4786 7c3c 5606 a83c 267c 153d
00000110: 2203 a03b 49ec aa3c a90c f73b 4fdb 693d
00000120: 6d4e ac3c 3ed0 923c a72e 0a3d 7e61 813c
00000130: 869c 0c3c a69a 103d 9154 3a3d 5c9e 3b3c
00000140: b969 a53b d38b 483d 0a16 853c 54b2 6e3c
00000150: ce6c 8b3c d501 2d3c 8d9c 7e3c ba73 073c
00000160: b198 e93b d59a 433c d122 253c a622 893c
00000170: 852d 193c c746 6b3c 4bd8 3d3d 7d77 533d
00000180: 0a52 0a3d 1282 303d c2c8 1a3c 91d2 f73d
00000190: 589d 863c 3701 2a3c 1d27 cd3b 32c7 d23c
000001a0: 7977 b43c d454 c23c

model.4.weight f4 [127, 106]
0.0017697193 -0.20051602 -0.07231122 -0.082493484 0.015343502 0.094981655 0.037541367 0.061511867
-0.042656284 -0.0019276799 -0.10094466 0.022511592 0.013710613 -0.17787904 -0.025534416 -0.046528738
0.14230543 0.10066909 0.12960136 0.07242922 -0.09050538 -0.015423579 0.0180127 -0.058309894
0.02694647 0.15221915 0.06956802 -0.17152344 0.09308089 -0.15874645 -0.08732027 0.05557149
-0.08491864 -0.09581236 0.081752166 -0.02416289 -0.0035919694 0.053267963 -0.058678754 -0.1200469
0.021911032 -0.15016893 -0.026989551 -0.16002515 -0.05105507 -0.10705617 0.030782955 -0.09322505
0.009344794 -0.109380886 -0.02998195 -0.060767457 0.003516224 -0.118051596 0.0015243485 0.0725885
-0.1149028 -0.1273946 0.11580534 -0.18574494 -0.16283464 -0.011543473 0.006106638 0.001481369
0.0972494 0.007848107 0.004205486 -0.0060700765 -0.07807814 -0.03320915 0.007919059 -0.22981304
-0.03778991 -0.00036728597 -0.025999757 -0.04690604 -0.39134166 -0.06346802 0.1398715 -0.0025520618
-0.13791244 -0.026807811 0.03898338 -0.028243847 0.060803406 -0.037819564 0.012714117 0.12585324
-0.12139538 -0.070030384 -0.091168106 -0.026007442 0.10507924 -0.060563095 -0.111842476 0.042262476
-0.16225578 -0.07415828 -0.01617683 -0.0146026965 0.046586737 -0.13160081 0.02258821 -0.12545235
-0.12907144 -0.022029594 -0.092429034 -0.069373876 -0.047152396 -0.009637287 0.0001188176 0.033864047
-0.015071891 -0.06997863 -0.05316146 0.01318298 -0.062484395 0.031317826 0.051911086 0.0916932
0.04628605 0.19769752 0.010799994 0.0057580946 -0.053861234 -0.05611245 -0.0035648623 0.06197182
-0.1348998 0.016398508 0.2145871 -0.029412115 0.0021812231 -0.19726497 0.15927307 0.22608268
0.10146849 -0.1667285 -0.009026265 -0.031016538 0.08186693 -0.043241605 0.08714527 -0.060092557
0.10219898 -0.06169871 0.11837586 -0.046538107 -0.011983436 0.0743808 0.010931601 0.11640387
0.027172932 0.01511849 -0.037566688 -0.18286033 -0.023679927 -0.082031064 -0.1351049 -0.15574299
0.006415552 0.032940492 -0.14136255 -0.022830004 -0.026346259 0.06812622 0.09192136 -0.018427627
0.032454625 0.10143287 -0.024682488 0.022629771 -0.030237874 -0.07967417 -0.09401163 0.11435146
0.10699229 -0.09208073 -0.0940084 0.03265065 0.11021997 0.025422657 -0.12963416 0.05801606
0.055692885 -0.1356276 -0.11437273 -0.051401366 -0.09699679 0.048522275 0.069708355 -0.09271723
0.016765565 -0.05985972 -0.21952035 -0.023927463 0.07439889 0.0014265329 0.056117136 0.023391157
0.048164476 0.04516528 0.057850804 0.032201726 -0.045884024 -0.14829265 -0.02557657 0.044344492
0.16712941 -0.03648042 0.04087543 0.01802256 0.09163924 -0.0062653255 0.044483196 -0.03863697
0.043460242 -0.03371339 -0.10220729 0.032763716 -0.008778706 0.02003633 -0.048243392 0.09366234
0.0725474 -0.13077033 -0.07607512 -0.01883433 -0.03446839 -0.10190741 0.07248258 -0.020621333
-0.28708082 -0.13917758 -0.054291155 -0.035377506 -0.03572674 0.0006117743 0.025475433 -0.22032969
0.12204796 -0.08872533 0.019997094 -0.1187286 -0.004053119 0.041136134 -0.017187832 -0.0049566175
0.029264873 0.0077215526 -0.009058015 -0.0888762 -0.118668154 0.07810516 0.13884404 -0.30057797
00000000: edf5 e73a 1254 4dbe e817 94bd 58f2 a8bd
00000010: 5063 7b3c be85 c23d fac4 193d def3 7b3d
00000020: 5bb8 2ebd 34aa fcba 13bc cebd 3b6a b83c
00000030: 7ba2 603c ec25 36be 8d2d d1bc eb94 3ebd
00000040: 84b8 113e 992b ce3d 38b6 043e c555 943d
00000050: e25a b9bd 2eb3 7cbc 5f8f 933c 5bd6 6ebd
00000060: d8be dc3c 56df 1b3e ae79 8e3d d7a3 2fbe
00000070: 32a1 be3d 6e8e 22be f8d4 b2bd ee9e 633d
00000080: d3e9 adbd 4539 c4bd ae6d a73d 41f1 c5bc
00000090: 3f67 6bbb 822f 5a3d 2259 70bd 26db f5bd
000000a0: c47e b33c e2c5 19be 3119 ddbc a2dd 23be
000000b0: 1f1f 51bd 4440 dbbd 892c fc3c c6ec bebd
000000c0: e81a 193c 1603 e0bd b59c f5bc 4ce7 78bd
000000d0: 7370 663b 09c5 f1bd a6cc c73a 48a9 943d
000000e0: 2952 ebbd bb73 02be 5a2b ed3d ec33 3ebe
000000f0: 20be 26be d620 3dbc 311a c83b 7f2a c23a
00000100: b22a c73d 5995 003c 2cce 893b 7ee7 c6bb
00000110: 6fe7 9fbd 5106 08bd f1be 013c 1c54 6bbe
00000120: 98c9 1abd 4a90 c0b9 71fd d4bc 8c20 40bd
00000130: ef5d c8be 85fb 81bd 793a 0f3e 7e40 27bb
00000140: eb38 0dbe 0e9c dbbc 09ad 1f3d a45f e7bc
00000150: fe0c 793d b0e8 1abd df4e 503c acdf 003e
00000160: 249e f8bd 176c 8fbd 58b6 babd 8f0d d5bc
00000170: c933 d73d 0211 78bd ab0d e5bd 6b1b 2d3d
00000180: 6126 26be 4ce0 97bd 4585 84bc 2640 6fbc
00000190: bcd1 3e3d 5dc2 06be e90a b93c 9576 00be
000001a0: 4e2b 04be 6877 b4bc 6f4b bdbd e413 8ebd
000001b0: df22 41bd b6e5 1dbc b72d f938 07b5 0a3d
000001c0: 18f0 76bc f550 8fbd d5bf 59bd 6dfd 573c
000001d0: a3ef 7fbd 1f47 003d b8a0 543d a5c9 bb3d
000001e0: 7196 3d3d 3871 4a3e 75f2 303c 66ae bc3b
000001f0: 999d 5cbd 2bd6 65bd 77a0 69bb 2ad6 7d3d
00000200: 2c23 0abe 2a56 863c b9bc 5b3e adf1 f0bc
00000210: daf2 0e3b d4ff 49be 7b18 233e 3882 673e
00000220: b6ce cf3d e0ba 2abe e6e2 13bc 6516 febc
00000230: d9a9 a73d 1c1e 31bd 3879 b23d 9d23 76bd
00000240: b34d d13d c9b7 7cbd 0b6f f23d be9e 3ebd
00000250: 2c56 44bc f654 983d 751a 333c 2765 ee3d
00000260: c599 de3c 8bb3 773c 87df 19bd bd3f 3bbe
00000270: 68fc c1bc e7ff a7bd f058 0abe 177b 1fbe
00000280: 8d39 d23b 9cec 063d 58c1 10be fd05 bbbc
00000290: 1cd4 d7bc c285 8b3d 4441 bc3d 89f5 96bc
000002a0: 24ef 043d 09bc cf3d ee32 cabc 1262 b93c
000002b0: 6bb5 f7bc 362c a3bd 2b89 c0bd 1931 ea3d
000002c0: c61e db3d d294 bcbd 7a87 c0bd b0bc 053d
000002d0: 02bb e13d 2d43 d03c d1be 04be 40a2 6d3d
000002e0: 391e 643d f6e1 0abe 403c eabd 3d8a 52bd
000002f0: 41a6 c6bd 4bbf 463d 41c3 8e3d 88e2 bdbd
00000300: f057 893c 772f 75bd f1c9 60be 8703 c4bc
00000310: 725e 983d 80fa ba3a 15db 653d d09e bf3c
00000320: 1d48 453d 3bff 383d f7f4 6c3d f5e5 033d
00000330: e3f0 3bbd 07da 17be f485 d1bc 92a2 353d
00000340: f923 2b3e 7e6c 15bd ff6c 273d 0ca4 933c
00000350: 5bad bb3d 5c4d cdbb 0334 363d cd41 1ebd
00000360: 5e03 323d 0d17 0abd 0e52 d1bd 3f33 063d
00000370: 90d4 0fbc 3b23 a43c dd9a 45bd 0ad2 bf3d
00000380: bb93 943d a8e8 05be 46cd 9bbd 744a 9abc
00000390: ba2e 0dbd d5b4 d0bd bf71 943d 12ee a8bc
000003a0: 42fc 92be 9184 0ebe 6760 5ebd 01e8 10bd
000003b0: 3456 12bd 7a5f 203a dbb1 d03c 1b9e 61be
000003c0: 48f4 f93d a0b5 b5bd f2d0 a33c fb27 f3bd
000003d0: 07d0 84bb 5d7e 283d 7fcd 8cbc 1f6b a2bb
000003e0: e3bc ef3c 1405 fd3b 1268 14bc ba04 b6bd
000003f0: 4a08 f3bd 99f5 9f3d 222d 0e3e 5be5 99be

model.4.bias f4 [127]
-0.040342104 -0.012162831 0.10458648 0.0072295163 -0.022502108 -0.00019152641 0.02578452 0.029382765
0.015773317 0.06535563 0.06148132 -0.026128333 0.11286893 0.013168428 0.05458241 0.023781614
-0.025285201 -0.05317069 0.031060219 0.056050163 0.030810611 -0.06100399 -0.045826193 0.02955461
-0.09424764 0.052369364 -0.04895418 -0.028025733 -0.09063166 0.0055388603 -0.061452713 0.054731183
0.012196927 -0.04756149 -0.035593007 -0.087605976 0.05104303 -0.031252433 0.0039453167 -0.045548223
-0.037887637 -0.09589574 -0.036374845 0.034543127 0.043144852 0.023329074 -0.023026664 -0.0012470307
-0.025932271 0.014668488 0.063978165 -0.037859265 0.04739243 -0.039044924 0.07440189 0.06627771
-0.03483078 -0.096340664 0.06754763 0.04056295 -0.040589254 0.009301745 0.011742113 0.10605379
-0.0428185 -0.014598011 0.011198082 0.096634306 0.0468113 -0.015349439 -0.05447368 -0.023502214
0.04266474 0.07921039 -0.009738298 -0.04614285 -0.010574922 -0.07438198 -0.06535195 -0.056989428
-0.059985764 0.030973855 -0.016634075 0.06276215 0.0653005 0.027671413 0.025272848 0.0052574854
0.025970364 0.019077837 0.026068458 -0.0500774 0.02917104 0.13008472 -0.006121358 -0.075182356
-0.007519175 -0.041972965 0.03743417 0.03759257 0.046026282 -0.0143747255 -0.08290216 0.02690529
-0.020285396 0.06299394 -0.051849954 0.008616533 -0.013374384 -0.0050620427 0.018960156 -0.021083029
-0.032297265 0.046499033 -0.009587308 -0.092609726 -0.06246304 -0.02641601 0.041737773 0.060365736
0.05171698 -0.12479766 -0.07161478 0.002579277 0.03336983 0.012339855 0.05723334
00000000: c33d 25bd 9c46 47bc 7031 d63d 94e5 ec3b
00000010: 5756 b8bc 7bd4 48b9 0f3a d33c 20b4 f03c
00000020: 0b37 813c 2cd9 853d d6d3 7b3d 160b d6bc
00000030: d327 e73d 64c0 573c ce91 5f3d a9d1 c23c
00000040: e922 cfbc 82c9 59bd 0072 fe3c db94 653d
00000050: 8966 fc3c 52df 79bd 3fb4 3bbd 821c f23c
00000060: e804 c1bd 4281 563d 2e84 48bd 3996 e5bc
00000070: 179d b9bd 547f b53b d7b5 7bbd ce2d 603d
00000080: 9fd5 473c d6cf 42bd f9c9 11bd c36a b3bd
00000090: 7f12 513d 8d02 00bd b747 813b c690 3abd
000000a0: 1130 1bbd fc64 c4bd cafd 14bd 187d 0d3d
000000b0: a8b8 303d 9d1c bf3c 6aa2 bcbc 6873 a3ba
000000c0: ea6f d4bc 1954 703c fc06 833d 5112 1bbd
000000d0: 911e 423d 92ed 1fbd 0560 983d 9cbc 873d
000000e0: b8aa 0ebd 414e c5bd 6956 8a3d 5625 263d
000000f0: eb40 26bd 5966 183c fe61 403c bb32 d93d
00000100: 7462 2fbd 7f2c 6fbc 2978 373c 35e8 c53d
00000110: 35bd 3f3d 377c 7bbc cb1f 5fbd b787 c0bc
00000120: 39c1 2e3d 0f39 a23d 628d 1fbc 4900 3dbd
00000130: 7042 2dbc 9455 98bd 3ed7 85bd bf6d 69bd
00000140: a2b3 75bd e2bc fd3c 2f44 88bc 7189 803d
00000150: 45bc 853d 29af e23c 0109 cf3c fc46 ac3b
00000160: cdbf d43c 2049 9c3c 858d d53c f61d 4dbd
00000170: 1bf8 ee3c ee34 053e ac95 c8bb 35f9 99bd
00000180: 6963 f6bb d8eb 2bbd 9254 193d abfa 193d
00000190: 0e86 3c3d f883 6bbc 9cc8 a9bd 7c68 dc3c
000001a0: 8f2d a6bc f802 813d 9e60 54bd 5c2c 0d3c
000001b0: 3b20 5bbc 7edf a5bb 5452 9b3c 51b6 acbc
000001c0: 234a 04bd c575 3e3d 1614 1dbc 2baa bdbd
000001d0: 3fd9 7fbd 6366 d8bc 3af5 2a3d 1042 773d
000001e0: 2fd5 533d ea95 ffbd c5aa 92bd 1609 293b
000001f0: ceae 083d 1a2d 4a3c 826d 6a3d

model.5.weight f4 [127]
0.70736605 0.8187693 0.7201535 0.69704175 0.7442946 0.70844054 0.6387409 0.8495247
0.6751322 0.77383304 0.76636153 0.6946832 0.83245057 0.76816905 0.7506001 0.7745216
0.8973963 0.84080404 0.6581415 0.74920166 0.8317032 0.9745278 0.7007953 0.8734839
0.77001995 0.7003868 0.7250765 0.7358103 0.7265531 0.66950583 0.7248784 0.7629035
0.8670745 0.7200872 0.68294024 0.62677884 0.66499203 0.6657595 0.66784835 0.73122025
0.7977626 0.6637155 0.8022571 0.7768967 0.798174 0.6707246 0.67025733 0.6987881
0.67407733 0.6620103 0.7155881 0.7444809 0.7082458 0.79082555 0.69895005 0.8204753
0.6660976 0.819558 0.83519226 0.71954256 0.74484676 0.6801423 0.73486006 0.75910574
0.68881917 0.75546587 0.6727812 0.7998518 0.83414876 0.8371004 0.6702981 0.6827627
0.6905761 0.92211014 0.7241982 0.7577976 0.7950644 0.802108 0.7522643 0.7736742
0.7926501 0.6640843 0.809981 0.765669 0.79378486 0.803592 0.78111804 0.80689365
0.6799786 0.7976536 0.64920163 0.7659781 0.73260117 0.71193856 0.76542825 0.64931977
0.5419782 0.903335 0.8132423 0.67092913 0.80914277 0.6533949 0.6381907 0.7222575
0.81234014 0.82470274 0.77705294 0.8163203 0.69701034 0.8162465 0.79905385 0.79505455
0.76844555 0.84490556 0.6965528 0.6886556 0.755635 0.6926187 0.6986582 0.7408485
0.79995424 0.74094653 0.7785851 0.651243 0.7050671 0.75191164 0.70262504
00000000: f115 353f dd9a 513f fb5b 383f 5471 323f
00000010: 178a 3e3f 5c5c 353f 8684 233f 737a 593f
00000020: 77d5 2c3f ec19 463f 4530 443f c2d6 313f
00000030: 7b1b 553f baa6 443f 5427 403f 0c47 463f
00000040: c4bb 653f ef3e 573f f67b 283f aecb 3f3f
00000050: 80ea 543f a77a 793f 5267 333f a49c 5f3f
00000060: 0720 453f 8d4c 333f 9d9e 393f 105e 3c3f
00000070: 62ff 393f bc64 2b3f a191 393f a54d 433f
00000080: 98f8 5d3f a257 383f 2cd5 2e3f 9474 203f
00000090: eb3c 2a3f 376f 2a3f 1cf8 2a3f 4031 3b3f
000000a0: 2b3a 4c3f 42e9 293f b960 4d3f b4e2 463f
000000b0: 2255 4c3f 9bb4 2b3f fc95 2b3f c7e3 323f
000000c0: 5590 2c3f 8279 293f c830 373f 4d96 3e3f
000000d0: 994f 353f 8b73 4a3f 64ee 323f ab0a 523f
000000e0: 5f85 2a3f 8ece 513f 29cf 553f f133 383f
000000f0: 47ae 3e3f ce1d 2e3f ca1f 3c3f c154 423f
00000100: 7456 303f 3666 413f 643b 2c3f 16c3 4c3f
00000110: c68a 553f 364c 563f a898 2b3f 89c9 2e3f
00000120: 98c9 303f 690f 6c3f 0e65 393f 06ff 413f
00000130: 5789 4b3f f356 4d3f 6594 403f 830f 463f
00000140: 1eeb 4a3f 6e01 2a3f ea5a 4f3f e202 443f
00000150: 7c35 4b3f 35b8 4d3f 5af7 473f 9590 4e3f
00000160: 1413 2e3f 0733 4c3f 1432 263f 2417 443f
00000170: c08b 3b3f 9b41 363f 1bf3 433f d239 263f
00000180: 15bf 0a3f f640 673f a630 503f 03c2 2b3f
00000190: fb23 4f3f e344 273f 7760 233f dee5 383f
000001a0: 86f5 4f3f b81f 533f f1ec 463f 5efa 503f
000001b0: 456f 323f 88f5 503f cb8e 4c3f b288 4b3f
000001c0: d9b8 443f bb4b 583f 4951 323f bc4b 303f
000001d0: 4c71 413f 764f 313f 44db 323f 3fa8 3d3f
000001e0: cdc9 4c3f acae 3d3f 5a51 473f dcb7 263f
000001f0: 477f 343f 487d 403f 3cdf 333f

model.5.bias f4 [127]
-0.19796652 -0.23000126 -0.37632513 -0.36166996 -0.35841244 -0.28054416 -0.27491242 -0.17066827
-0.25095248 -0.2653967 -0.28419492 -0.35553855 -0.10002879 -0.20303524 -0.34188953 -0.24046151
-0.13541597 -0.16918452 -0.22165349 -0.2763467 -0.22130744 -0.08189403 -0.16517854 -0.09318437
-0.24444084 -0.22519359 -0.06941621 -0.12675203 -0.18524374 -0.26739642 -0.28891253 -0.1056618
-0.1407383 -0.26968426 -0.23929259 -0.2372477 -0.22397998 -0.18779771 -0.29719955 -0.20082358
-0.227959 -0.22209676 -0.106810205 -0.18272026 -0.35429484 -0.24391404 -0.21503861 -0.22309794
-0.31572348 -0.17605743 -0.06706221 -0.29753274 -0.23449586 -0.11443119 -0.23836298 -0.20502068
-0.17078854 -0.15160508 -0.1090369 -0.13846242 -0.26898426 -0.29669663 -0.22829166 -0.21324496
-0.23111473 -0.3138217 -0.35091463 -0.17969991 -0.1747706 -0.107469164 -0.33046418 -0.2310568
-0.111191235 -0.12536177 -0.2785699 -0.2713956 -0.26480895 -0.26137143 -0.22072946 -0.31394622
-0.28554773 -0.28551143 -0.09768619 -0.16048162 -0.16254392 -0.1706893 -0.15177444 -0.1847144
-0.35226545 -0.21983649 -0.19669187 -0.26475817 -0.18092673 -0.23786066 -0.27259406 -0.2773237
-0.22989748 0.06350161 0.033552926 -0.24715146 -0.16644962 -0.2794601 -0.32045966 -0.34412673
-0.07899077 -0.25745094 -0.27307206 -0.22073576 -0.28098607 -0.07655786 0.007815686 -0.27107084
-0.16449898 -0.11568339 -0.21125071 -0.23776253 -0.22374181 -0.24130422 -0.27668154 -0.25797495
-0.24830903 -0.19429654 -0.20262842 -0.29130512 -0.25850618 -0.24282677 -0.26276264
00000000: bcb7 4abe 7385 6bbe b0ad c0be ce2c b9be
00000010: d681 b7be 7ca3 8fbe 52c1 8cbe aac3 2ebe
00000020: d87c 80be 14e2 87be ff81 91be 2609 b6be
00000030: e5db ccbd 78e8 4fbe 250c afbe 8b3b 76be
00000040: 7caa 0abe b53e 2dbe 22f9 62be 517d 8dbe
00000050: 6b9e 62be 0fb8 a7bd 9024 29be 72d7 bebd
00000060: b34e 7abe 2699 66be 162a 8ebd 49cb 01be
00000070: 89b0 3dbe 2fe8 88be 58ec 93be 3765 d8bd
00000080: b31d 10be 0e14 8abe 1e09 75be 10f1 72be
00000090: 025b 65be 0b4e 40be 8a2a 98be b2a4 4dbe
000000a0: 166e 69be 556d 63be 4fbf dabd 051b 3bbe
000000b0: 2266 b5be 9ac4 79be 1533 5cbe c973 64be
000000c0: 82a6 a1be 6648 34be e957 89bd 3656 98be
000000d0: af1f 70be e65a eabd 6d15 74be f1f0 51be
000000e0: 31e3 2ebe 5d3e 1bbe bd4e dfbd 18c9 0dbe
000000f0: 4eb8 89be 9fe8 97be 4ac5 69be e35c 5abe
00000100: 57a9 6cbe 3dad a0be 15ab b3be 4103 38be
00000110: 10f7 32be cb18 dcbd 9a32 a9be 279a 6cbe
00000120: 3bb8 e3bd d65e 00be b7a0 8ebe 5df4 8abe
00000130: 0a95 87be 7ad2 85be e706 62be 8fbd a0be
00000140: 5033 92be 8e2e 92be b20f c8bd 4b55 24be
00000150: ea71 26be 2dc9 2ebe c26a 1bbe c625 3dbe
00000160: 235c b4be d11c 61be 9869 49be 628e 87be
00000170: db44 39be bf91 73be 7391 8bbe 5ffd 8dbe
00000180: 3f6a 6bbe 220d 823d cb6e 093d 4615 7dbe
00000190: c571 2abe 6515 8fbe 4a13 a4be 6131 b0be
000001a0: eac5 a1bd 9cd0 83be 1ad0 8bbe 8e08 62be
000001b0: 68dd 8fbe 5eca 9cbd 5d0d 003c ccc9 8abe
000001c0: 6c72 28be 6aeb ecbd 1b52 58be 0578 73be
000001d0: 931c 65be 7418 77be 34a9 8dbe 4b15 84be
000001e0: b944 7ebe acf5 46be d37d 4fbe f225 95be
000001f0: ec5a 84be 95a7 78be d388 86be

model.5.running_mean f4 [127]
-0.71933883 -0.07227021 -0.3749329 -0.12278435 0.5296962 0.6367415 0.44209963 -0.108884715
0.08893631 0.019790905 0.24218684 0.33038047 0.46063876 -0.6374706 0.011866011 -0.29648826
0.124799736 -0.6364597 0.48908383 0.34727055 -0.106293194 0.2856701 -0.398504 0.1047669
-0.24203551 -0.1297551 -0.35774505 0.65542763 -0.37366003 -0.32167143 -0.20832263 -0.5061027
-0.067065366 0.4390064 0.0085055735 0.1741583 -0.45487097 -0.14619605 0.08738692 -0.13962123
0.3815835 -0.40298033 0.074357115 0.44282594 0.43361875 -0.078155875 -0.25769737 0.6044312
-0.18543752 0.07841386 -0.25205413 0.64915276 -0.478227 0.055313233 -0.35143584 0.30902347
0.1575618 0.4625153 -0.15517512 -0.6212275 0.5474753 0.41335213 0.16847043 -0.122725
-0.32534394 -0.03518479 -0.28652766 -0.38529113 -0.0405033 -0.15109052 0.35212722 0.03231567
-0.22700302 0.16967206 -0.14920108 -0.044531293 -0.09950555 0.82140464 -0.09752214 0.13680446
-0.5083253 0.547107 -0.07260369 -0.35148883 -0.0294398 -0.029978154 -0.82308865 -0.426172
-0.3603165 0.031141706 -0.25476888 -0.30077922 -0.32196125 0.032732837 0.15941715 -0.10913785
-0.2451656 -0.30661666 -0.23154365 -0.20208542 -0.44795224 0.50600743 0.30136055 -0.31040797
-0.16843517 0.39578956 -0.18411922 0.23068388 0.94456977 -0.266311 0.22366185 -0.54593956
-0.26413712 -0.13002785 -0.6728207 -0.6245633 0.38657904 -0.72988397 -0.33790985 0.37321097
0.14769962 -0.21450058 -0.36714083 -0.090390325 -0.1658636 0.02248487 0.08963162
00000000: 9726 38bf 6702 94bd 34f7 bfbe 5c76 fbbd
00000010: 2c9a 073f 7e01 233f e25a e23e f3fe debd
00000020: 3d24 b63d 8920 a23c d4ff 773e a127 a93e
00000030: d8d8 eb3e 4631 23bf a869 423c 4fcd 97be
00000040: 0197 ff3d 06ef 22bf 3269 fa3e 72cd b13e
00000050: 3fb0 d9bd 5a43 923e b708 ccbe 0790 d63d
00000060: 28d8 77be 85de 04be 5c2a b7be 1bca 273f
00000070: 5e50 bfbe 1eb2 a4be 8752 55be f28f 01bf
00000080: 9159 89bd 72c5 e03e f65a 0b3c 8e56 323e
00000090: d9e4 e8be 6bb4 15be eaf7 b23d def8 0ebe
000000a0: ea5e c33e 7053 cebe 8b48 983d 15ba e23e
000000b0: 4703 de3e 3010 a0bd e9f0 83be 01bc 1a3f
000000c0: 55e3 3dbe 7297 a03d 3d0d 81be e02e 263f
000000d0: 2bda f4be 2190 623d 66ef b3be 5338 9e3e
000000e0: e157 213e cece ec3e 3ae6 1ebe c408 1fbf
000000f0: 5727 0c3f e4a2 d33e 8383 2c3e 3f57 fbbd
00000100: 7b93 a6be ed1d 10bd c1b3 92be e144 c5be
00000110: cae6 25bd 79b7 1abe 054a b43e 705d 043d
00000120: 7b73 68be 83be 2d3e 2bc8 18be 7266 36bd
00000130: 91c9 cbbd 9347 523f b0b9 c7bd 7816 0c3e
00000140: 9b21 02bf 340f 0c3f 3eb1 94bd 58f6 b3be
00000150: bc2b f1bc bf94 f5bc f0b5 52bf 3733 dabe
00000160: 677b b8be e41c ff3c 1171 82be bcff 99be
00000170: 1bd8 a4be de12 063d 403e 233e aa83 dfbd
00000180: b10c 7bbe dcfc 9cbe c719 6dbe 7bef 4ebe
00000190: ff59 e5be b489 013f ee4b 9a3e cbed 9ebe
000001a0: 457a 2cbe eea4 ca3e c089 3cbe 6538 6c3e
000001b0: 53cf 713f ea59 88be 9d07 653e b2c2 0bbf
000001c0: fb3c 87be 0526 05be fa3d 2cbf 61e3 1fbf
000001d0: b0ed c53e add9 3abf 8502 adbe 8215 bf3e
000001e0: 923e 173e 0aa6 5bbe e2f9 bbbe 901e b9bd
000001f0: 26d8 29be 3132 b83c c890 b73d

model.5.running_var f4 [127]
0.3328328 0.15558162 0.21805906 0.20781842 0.2025518 0.12203145 0.22138533 0.2184444
0.20679703 0.18143645 0.14267099 0.2710132 0.37574437 0.23740645 0.20242664 0.21104969
0.20435424 0.3495564 0.24303855 0.15643282 0.32364115 0.40660712 0.34195176 0.28189462
0.17530815 0.09734093 0.30885327 0.20695356 0.14424056 0.19439748 0.32167268 0.24564385
0.5079728 0.23986092 0.20124248 0.33583713 0.15060268 0.30095345 0.24150082 0.17480247
0.3819195 0.17830603 0.27925983 0.20262514 0.08866222 0.3231192 0.37109798 0.29101142
0.17133842 0.25467068 0.24374524 0.14948083 0.32210177 0.18666694 0.45684192 0.39428627
0.16811295 0.13895206 0.4427566 0.21302123 0.20176136 0.39875725 0.18326226 0.3364703
0.23357245 0.18417041 0.17371924 0.17500198 0.23153406 0.283885 0.18474324 0.30955544
0.5039854 0.33351168 0.13740377 0.36101806 0.13569203 0.3174041 0.2195805 0.18926746
0.2582882 0.26380116 0.36143664 0.39674062 0.17072165 0.23291413 0.24660705 0.16331582
0.18505736 0.15633996 0.2688663 0.25434306 0.2531777 0.2226866 0.15279204 0.2505039
0.13715267 0.29005727 0.26326978 0.31464952 0.4525319 0.2511829 0.26272884 0.20594765
0.14708792 0.28464803 0.1531862 0.18647707 0.23997861 0.24310958 0.3118962 0.24108441
0.23322882 0.28027955 0.34833968 0.23401581 0.19578162 0.18433425 0.21138805 0.19965312
0.13567926 0.12401382 0.2911681 0.17503235 0.26011088 0.14164428 0.19709547
00000000: 1069 aa3e ca50 1f3e e04a 5f3e 5ace 543e
00000010: bd69 4f3e a0eb f93d d6b2 623e e4af 5f3e
00000020: 9ac2 533e 7aca 393e 5818 123e 3ec2 8a3e
00000030: 9161 c03e ad1a 733e ee48 4f3e 691d 583e
00000040: 3d42 513e 0ef9 b23e 19df 783e ed2f 203e
00000050: 4bb4 a53e cf2e d03e 4d14 af3e 7e54 903e
00000060: fb83 333e ae5a c73d 0422 9e3e a2eb 533e
00000070: ccb3 133e 2210 473e 48b2 a43e 108a 7b3e
00000080: 810a 023f 1a9e 753e 8212 4e3e d8f2 ab3e
00000090: 9737 1a3e 9216 9a3e fe4b 773e 6bff 323e
000000a0: f48a c33e db95 363e 25fb 8e3e f77c 4f3e
000000b0: 8a94 b53d e16f a53e 8e00 be3e 73ff 943e
000000c0: 5773 2f3e 3264 823e 5a98 793e 8111 193e
000000d0: 86ea a43e 9e25 3f3e 2fe7 e93e e4df c93e
000000e0: cd25 2c3e 7349 0e3e feb0 e23e 3d22 5a3e
000000f0: 889a 4e3e e929 cc3e 1aa9 3b3e d645 ac3e
00000100: 9e2d 6f3e 2b97 3c3e 75e3 313e b833 333e
00000110: 4417 6d3e 6059 913e 552d 3d3e 0d7e 9e3e
00000120: 3005 013f 0bc2 aa3e 93b3 0c3e 5cd7 b83e
00000130: daf2 0a3e ca82 a23e b6d9 603e 54cf 413e
00000140: 5a3e 843e f210 873e 390e b93e 9621 cb3e
00000150: a8d1 2e3e 0b81 6e3e 8f86 7c3e 433c 273e
00000160: ad7f 3d3e 9517 203e d8a8 893e 4139 823e
00000170: 82a0 813e f507 643e 8475 1c3e 0c42 803e
00000180: c071 0c3e 6382 943e 4ccb 863e be19 a13e
00000190: 43b2 e73e 0c9b 803e 6584 863e f1e3 523e
000001a0: 379e 163e 63bd 913e d8dc 1c3e d8f3 3e3e
000001b0: f4bc 753e b8f1 783e dcb0 9f3e d5de 763e
000001c0: 89d3 6e3e cd80 8f3e 9459 b23e d7a1 6f3e
000001d0: fa7a 483e 1ec2 3c3e 1c76 583e de71 4c3e
000001e0: 81ef 0a3e f5fa fd3d fc13 953e ae3b 333e
000001f0: 412d 853e 330b 113e 65d3 493e

model.8.weight f4 [48, 127]
0.051936526 0.15282665 -0.05007727 0.0143880835 -0.10381478 0.13776305 0.07058323 0.07953293
-0.0021997401 0.0438147 -0.07938787 0.024748163 -0.033521432 0.06428403 -0.03248609 0.05551438
0.014856281 0.023728743 0.14520581 0.049590804 -0.12624769 -0.119041376 0.014528142 0.012608498
-0.14266247 0.0123777995 0.23204313 -0.029081915 0.071819305 0.03692136 0.06253124 0.011542279
0.047869045 0.0010420956 -0.0052504768 0.012455292 0.101109706 0.09724795 -0.01916639 -0.0020147078
-0.041443374 0.028748412 -0.19142789 0.10340345 0.11843456 -0.112477615 0.1245393 -0.185003
0.042497996 0.0055977 0.1419951 -0.16925494 -0.038759857 -0.031554688 0.05625096 0.11565094
-0.12697177 0.046981476 0.21023321 -0.026481751 -0.08382736 0.03558318 0.10831175 -0.081799924
-0.0035704377 -0.012987559 0.0015302848 -0.28649816 0.06668725 -0.06284387 -0.17797375 0.10372048
-0.008013976 0.06770444 -0.05377746 -0.16562007 -0.0072010546 0.08441483 -0.2136687 0.026218789
0.07904074 -0.13646348 -0.050702818 -0.0054210573 -0.030353265 -0.046130378 0.11827668 0.104891144
0.00418771 0.04959606 0.0049484205 -0.040630687 0.010453683 0.03173338 -0.005531906 -0.12039236
-0.18606028 0.027724817 0.09063715 -0.06646698 -0.037359055 -0.06967793 -0.01662927 -0.17214642
-0.031056572 0.16750571 0.044476427 0.054422025 -0.03681919 -0.079511724 0.10547345 0.0074974494
0.037576836 -0.26915503 0.020612076 -0.02300985 0.05949041 0.031509105 0.06268523 -0.16795489
0.12901476 0.047617383 -0.019748613 -0.0132607035 -0.06587026 -0.04606325 -0.0027383366 0.09502511
0.028747756 0.038801935 0.045040894 -0.049034107 -0.023158781 0.11475667 0.10831353 -0.05377764
-0.01274406 0.05502699 0.083186835 0.011413472 0.048202407 0.018136535 0.011088809 -0.08808403
0.16995159 -0.022055127 0.08695315 0.16040315 -0.05499554 -0.1259491 0.0020103483 -0.010719012
-0.00048519645 0.053126138 -0.15588415 -0.09833404 -0.035351563 -0.0067682737 0.034288622 0.14922889
-0.14509931 0.02809778 0.06104755 -0.065078594 -0.02344999 -0.123345025 -0.24917674 0.058874954
0.042605083 0.021098027 -0.1702487 0.05458044 0.023158018 0.015543211 0.015524917 0.07410697
-0.013366324 0.043720577 -0.20346998 0.015187573 0.04156598 0.046905905 0.12910391 -0.28086492
-0.24524724 0.07746795 -0.053163163 0.089991875 -0.026260093 -0.08445684 -0.0034053365 0.05407147
0.18047796 0.12893926 -0.09266216 -0.06795858 -0.08002756 -0.13501032 0.034653954 0.018843515
0.005142285 0.15521039 -0.042546082 -0.056246825 -0.0650914 -0.116168454 0.107588 -0.018729284
-0.013460121 0.097298265 -0.11266999 0.016474891 0.07821447 -0.109697364 -0.1288486 0.0105411
-0.11647265 0.08543015 -0.10880073 0.017721057 -0.08478312 0.12950197 -0.027510174 -0.015780734
0.07932089 0.08064596 0.0215912 0.044128045 -0.048457205 0.106161885 -0.22386904 -0.10593275
-0.10459745 0.019873766 -0.035401016 -0.06478574 -0.03892155 0.0039073573 0.12221954 0.12528667
-0.06708056 -0.046878375 0.16653818 -0.19466469 0.070258 0.064071536 0.041706704 0.086637475
-0.06936905 0.12118769 0.04101637 -0.1421375 -0.1778637 -0.050789427 0.103585705 -0.038411807
00000000: 65bb 543d 977e 1c3e d31d 4dbd ffbb 6b3c
00000010: d89c d4bd c211 0d3e f18d 903d 29e2 a23d
00000020: 8429 10bb 0b77 333d 1c96 a2bd a9bc ca3c
00000030: c54d 09bd 58a7 833d 2210 05bd 0c63 633d
00000040: c267 733c c862 c23c d5b0 143e ba1f 4b3d
00000050: 1347 01be f7cb f3bd 7207 6e3c e093 4e3c
00000060: 1c16 12be 41cc 4a3c b79c 6d3e 323d eebc
00000070: 0016 933d da3a 173d 6110 803d d41b 3d3c
00000080: 5512 443d ed96 883a 310c acbb 4811 4c3c
00000090: 9b12 cf3d ef29 c73d d502 9dbc 3009 04bb
000000a0: 87c0 29bd ca81 eb3c ac05 44be 30c5 d33d
000000b0: d28d f23d aa5a e6bd 760e ff3d 6d71 3dbe
000000c0: 6112 2e3d e96c b73b 2a67 113e 2b51 2dbe
000000d0: a8c2 1ebd 7d3f 01bd 6867 663d 66da ec3d
000000e0: e304 02be a66f 403d 6047 573e 42f0 d8bc
000000f0: aead abbd abbf 113d 8dd2 dd3d b886 a7bd
00000100: 01fe 69bb c5c9 54bc d693 c83a e3af 92be
00000110: 5393 883d 49b4 80bd c03e 36be 676b d43d
00000120: 0d4d 03bc a0a8 8a3d c145 5cbd 4f98 29be
00000130: d3f6 ebbb afe1 ac3d f8cb 5abe c9c8 d63c
00000140: 1de0 a13d 15bd 0bbe c2ad 4fbd 20a3 b1bb
00000150: 69a7 f8bc 35f3 3cbd 0b3b f23d 2bd1 d63d
00000160: 0f39 893b 3d25 4b3d 5c26 a23b 5d6c 26bd
00000170: ed45 2b3c dcfa 013d fe44 b5bb 4590 f6bd
00000180: 9686 3ebe 281f e33c f89f b93d d71f 88bd
00000190: cf05 19bd 4db3 8ebd 1b3a 88bc 2747 30be
000001a0: 5a6a febc 9e86 2b3e ea2c 363d a1e9 5e3d
000001b0: b8cf 16bd 0bd7 a2bd 7702 d83d 2aad f53b
000001c0: 2bea 193d b0ce 89be a8da a83c 277f bcbc
000001d0: 37ac 733d b10f 013d 1d61 803d 5efc 2bbe
000001e0: 721c 043e 720a 433d d8c7 a1bc 6c43 59bc
000001f0: fde6 86bd d2ac 3cbd aa75 33bb 869c c23d
00000200: 6a80 eb3c c7ee 1e3d cd7c 383d fdd7 48bd
00000210: 7cb7 bdbc 8c05 eb3d 7cd3 dd3d f145 5cbd
00000220: 76cc 50bc fb63 613d dc5d aa3d 92ff 3a3c
00000230: e36f 453d 1293 943c d6ad 353c 6665 b4bd
00000240: ca07 2e3e f4ac b4bc 7e14 b23d b940 243e
00000250: 0143 61bd cdf8 00be 0cc0 033b cb9e 2fbc
00000260: f761 feb9 cb9a 593d 18a0 1fbe 5b63 c9bd
00000270: cdcc 10bd 65c8 ddbb 3a72 0c3d 75cf 183e
00000280: ea94 14be 512d e63c ff0c 7a3d ed47 85bd
00000290: 321a c0bc 519c fcbd 3028 7fbe dd26 713d
000002a0: ab82 2e3d c5d5 ac3c ad55 2ebe bd8f 5f3d
000002b0: e2b5 bd3c f4a8 7e3c 395c 7e3c 65c5 973d
000002c0: 6dfe 5abc 5914 333d 6f5a 50be 4cd5 783c
000002d0: 1741 2a3d 6820 403d d133 043e 87cd 8fbe
000002e0: 1822 7bbe 84a7 9e3d 9ec1 59bd a94d b83d
000002f0: 681f d7bc b5f7 acbd 112c 5fbb 0c7a 5d3d
00000300: 37cf 383e a708 043e a9c5 bdbd de2d 8bbd
00000310: 7de5 a3bd 2540 0abe 4ef1 0d3d b75d 9a3c
00000320: 9d80 a83b 79ef 1e3e cd44 2ebd 1263 66bd
00000330: a44e 85bd bae9 edbd 1957 dc3d 286e 99bc
00000340: d787 5cbc 5044 c73d 86bf e6bd 5af6 863c
00000350: e82e a03d 03a9 e0bd e3f0 03be 94b4 2c3c
00000360: 3689 eebd 01f6 ae3d ebd2 debd c02b 913c
00000370: c6a2 adbd 2a9c 043e 045d e1bc 9946 81bc
00000380: fe72 a23d b629 a53d 07e0 b03c 9cbf 343d
00000390: 107b 46bd 676b d93d ed3d 65be 45f3 d8bd
000003a0: 3037 d6bd 4fce a23c a800 11bd 63ae 84bd
000003b0: 346c 1fbd 4a09 803b 3d4e fa3d 264b 003e
000003c0: 8861 89bd 8a03 40bd fc88 2a3e 2e56 47be
000003d0: 6de3 8f3d f037 833d a6d4 2a3d fd6e b13d
000003e0: 5c11 8ebd 4031 f83d c800 283d 7e8c 11be
000003f0: e721 36be 9308 50bd be24 d43d b355 1dbd

model.8.bias f4 [48]
-0.05315472 -0.08836737 -0.002684798 -0.02513008 -0.062060278 -0.05937984 0.021568542 0.037506968
0.07047463 -0.032742817 0.0435129 0.037331667 0.07678654 0.030271782 0.01841488 -0.060709845
-0.0066789403 0.0036999756 0.066980444 -0.061940305 -0.041762076 0.029739764 0.032547697 0.05563769
0.004948978 0.0071725873 0.025608165 0.01656993 -0.036402836 -0.03687126 0.027204683 0.03614256
-0.119627036 0.023402449 -0.0040699844 0.012723639 -0.010299611 -0.058580935 -0.023300795 0.028814264
-0.05624487 -0.0005029341 0.00054499146 -0.021351425 0.070714 0.015738375 -0.031775266 -0.007930812
00000000: c4b8 59bd f4f9 b4bd 70f3 2fbb 99dd cdbc
00000010: eb32 7ebd 4638 73bd 83b0 b03c e8a0 193d
00000020: 0155 903d 551d 06bd 953a 323d 17e9 183d
00000030: 4342 9d3d 87fc f73c cdda 963c e3aa 78bd
00000040: 03db dabb 4a7b 723b 0b2d 893d 1eb5 7dbd
00000050: b60e 2bbd cea0 f33c bc50 053d 59e4 633d
00000060: 092b a23b 0608 eb3b 37c8 d13c a9bd 873c
00000070: 241b 15bd 5106 17bd 5bdc de3c 390a 143d
00000080: 05ff f4bd 7eb6 bf3c 815d 85bb cf76 503c
00000090: b3bf 28bc 90f2 6fbd 4fe1 bebc e40b ec3c
000000a0: 0561 66bd 56d7 03ba c2dd 0e3a 2fe9 aebc
000000b0: 80d2 903d c4ed 803c c826 02bd 3df0 01bc

model.9.weight f4 [48]
0.6771786 0.7668687 0.6064468 0.63324565 0.7547994 0.81300074 0.7023071 0.7816703
0.59587735 0.76837945 0.7760086 0.8100714 0.6208726 0.67575693 0.8331616 0.90656894
0.7811996 0.8381298 0.6321292 0.82456285 0.6878901 0.83622 0.63150865 0.7927886
0.75040495 0.772637 0.8434561 0.6577566 0.80556476 0.79168373 0.7699744 0.6904745
0.7914788 0.74462986 0.68628186 0.65086263 0.8160232 0.7891573 0.83002317 0.7838199
0.8075074 0.8104809 0.64909685 0.61495614 0.8109256 0.73092043 0.6329491 0.7679747
00000000: 945b 2d3f 8251 443f 1940 1b3f 631c 223f
00000010: 893a 413f d120 503f 66ca 333f 8b1b 483f
00000020: 6b8b 183f 84b4 443f 80a8 463f d760 4f3f
00000030: 82f1 1e3f 68fe 2c3f 144a 553f e714 683f
00000040: b2fc 473f ad8f 563f 38d3 213f 8d16 533f
00000050: 9119 303f 8412 563f 8daa 213f 32f4 4a3f
00000060: 8a1a 403f 8acb 453f bdec 573f bd62 283f
00000070: 7e39 4e3f c9ab 4a3f 0b1d 453f f0c2 303f
00000080: 5b9e 4a3f 10a0 3e3f 2bb0 2f3f ef9e 263f
00000090: e5e6 503f 3606 4a3f 667c 543f 6ca8 483f
000000a0: ceb8 4e3f ad7b 4f3f 362b 263f c46d 1d3f
000000b0: d298 4f3f 9a1d 3b3f f408 223f fd99 443f

model.9.bias f4 [48]
-0.29092312 -0.31055328 -0.37484348 -0.25808248 -0.16520028 -0.30000493 -0.21674202 -0.16456234
-0.26860565 -0.23574197 -0.23203719 -0.2585076 -0.25588763 -0.3123789 -0.22695856 -0.04245535
-0.14295226 -0.20459569 -0.20061262 -0.09209803 -0.24220096 -0.11033905 -0.28656602 -0.14843848
-0.30051547 -0.2085488 -0.19040573 -0.22339763 -0.167179 0.031737745 -0.16439411 -0.21414436
-0.29902664 -0.21146636 -0.19953068 -0.32657224 -0.13152438 -0.19010492 -0.052831355 -0.22465886
0.04517562 -0.077843085 -0.37092918 -0.24592775 -0.10444624 -0.30239445 -0.31786877 -0.34067583
00000000: e0f3 94be d700 9fbe 7ceb bfbe 6323 84be
00000010: 432a 29be 3f9a 99be 9ff1 5dbe 0883 28be
00000020: ae86 89be 5866 71be 289b 6dbe 1c5b 84be
00000030: b403 83be 21f0 9fbe d367 68be a9e5 2dbd
00000040: 1462 12be 8881 51be 656d 4dbe e49d bcbd
00000050: 8703 78be 71f9 e1bd c8b8 92be 4200 18be
00000060: 2add 99be d18d 55be b8f9 42be 59c2 64be
00000070: f930 2bbe 70ff 013d ee56 28be a948 5bbe
00000080: 051a 99be a38a 58be c551 4cbe 7a34 a7be
00000090: 54ae 06be ddaa 42be b165 58bd f90c 66be
000000a0: 120a 393d 326c 9fbd 6eea bdbe 7cd4 7bbe
000000b0: e9e7 d5bd 72d3 9abe b2bf a2be 106d aebe
