foundation_models/Ensemble_model3_DeepSurv_ANN_Event_2_20250804_134156.pt (torch, 67088 bytes, 19 tensors)

model.0.weight f4 [63, 11]
0	0xbcbfa231	-0.023392769
1	0xbd8560b8	-0.06512588
2	0xbe613d23	-0.21995978
3	0xbbfc9d29	-0.0077091646
4	0xbed073fb	-0.40713486
5	0x3e53b4ed	0.20674486
6	0x3dd59c7b	0.10430237
7	0xbe51d3ea	-0.20490995
8	0x3e1b16d5	0.15145428
9	0x3dbfdcd7	0.09368294
10	0x3e16a6ef	0.14712118
11	0xbe36400a	-0.17797866
12	0xbe4c4588	-0.19948399
13	0x3d6ccb99	0.057811353
14	0xbc0be3da	-0.008538211
15	0xbefd28e1	-0.4944525
16	0x3dc4c3f3	0.09607687
17	0x3cb73692	0.022364888
18	0xbe748d95	-0.23882134
19	0xbec4519b	-0.3834351
20	0xbdd9c598	-0.10633391
21	0xbd9a88e0	-0.07545638
22	0xbc7df9b9	-0.015501433
23	0x3bb7e8f4	0.005612487
24	0x3ec5adae	0.3860907
25	0xbb9350b0	-0.0044957027
26	0x3b27f71d	0.0025629469
27	0xbc075ada	-0.008261407
28	0x3ee85d8f	0.4538388
29	0x3e2be745	0.16787441
30	0xbd1e639b	-0.03866921
31	0x3e3f0ff4	0.1865843
32	0xbc9eb307	-0.019372476
33	0x3cc5e9de	0.024159368
34	0xbd94eb71	-0.072714694
35	0xbdb3463d	-0.08753631
36	0xbdcbb70a	-0.09947021
37	0xbea2e8af	-0.31818148
38	0xbeed9b5c	-0.46407592
39	0x3e821c2a	0.25412112
40	0x3d125fa3	0.035735738
41	0xbcd46cb1	-0.025930734
42	0x3e029a55	0.12754185
43	0x3dd90eac	0.105985016
44	0xbdb8140c	-0.08988199
45	0xbe949d1e	-0.2902612
46	0xbe156cb0	-0.14592242
47	0xbde27469	-0.1105736
48	0x3e11eeed	0.14251299
49	0x3e900908	0.2813189
50	0x3d8923e1	0.066962965
51	0x3e3b6f02	0.18304065
52	0xbd917100	-0.07101631
53	0x3e007a00	0.1254654
54	0x3e745754	0.23861438
55	0xbe2cfe92	-0.16893986
56	0x3dd1bdf8	0.10241312
57	0xbe91b5b6	-0.28458947
58	0xbd94b7af	-0.07261597
59	0xbe8d5c71	-0.2760959
60	0xbe6b8947	-0.23001586
61	0x3daa717d	0.083224274
62	0xbe6bcc29	-0.230271
63	0x3df25808	0.11833197
64	0x3bc0c8c2	0.005883307
65	0x3e2464b7	0.16054045
66	0xbda82369	-0.08209879
67	0x3e0ccbe8	0.13749659
68	0xbe9b772e	-0.30364364
69	0xbe478f1b	-0.19488184
70	0xbdd334b0	-0.10312784
71	0xbdd334a8	-0.10312778
72	0x3ea00e96	0.31261128
73	0xbc5ec43d	-0.013596592
74	0x3e109871	0.14120652
75	0x3dc8da30	0.09807241
76	0xbe547f47	-0.20751677
77	0xbbc3d45c	-0.005976243
78	0x3b318560	0.0027087554
79	0xbe68dd80	-0.22740746
80	0x3b200da9	0.0024422205
81	0xbdaa1de4	-0.083064824
82	0x3f54c910	0.831193
83	0xbd8abb0d	-0.06773958
84	0xbdfabe38	-0.122433126
85	0xbb345aa0	-0.0027519837
86	0xbd8fb871	-0.07017601
87	0xbe01a833	-0.12661819
88	0xbcd1feb0	-0.02563414
89	0xbd481d98	-0.048856348
90	0x3e0e04dd	0.13869043
91	0x3dfbe3e0	0.12299323
92	0xbef67f68	-0.48144078
93	0x3e903392	0.28164345
94	0x3d093d10	0.0335055
95	0xbde93e2a	-0.1138881
96	0x3cbaaa45	0.022786269
97	0x3ccd91a9	0.02509387
98	0x3ddc798b	0.1076537
99	0xbdde2b4a	-0.108481005
100	0x3e0e5707	0.13900386
101	0x3e3f217e	0.1866512
102	0x3ebb5900	0.3659134
103	0x3d92fde6	0.071773335
104	0x3f1618ff	0.5863189
105	0xbbb041cf	-0.0053789387
106	0x3d39cafc	0.045359597
107	0x3e9043a2	0.281766
108	0xbde8ce78	-0.11367506
109	0x3dd24d02	0.10268594
110	0x3e37d2c6	0.17951497
111	0xbde24784	-0.11048797
112	0xbe72972a	-0.23690477
113	0xbd846014	-0.06463638
114	0xbd8276c2	-0.063703075
115	0xbf1f170d	-0.6214455
116	0xbe3926e7	-0.18081246
117	0xbe3afbbb	-0.1826009
118	0x3e0e441e	0.13893172
119	0x3e31959a	0.17342225
120	0xbd5165c7	-0.051122453
121	0xbddd5682	-0.10807516
122	0x3e2b8c6f	0.1675279
123	0x3ee7ff38	0.45311904
124	0xbe2a2663	-0.16616206
125	0xbdfa5c23	-0.12224605
126	0x3ef84a72	0.48494297
127	0xbcacced4	-0.021094717
128	0x3cc5799f	0.024105845
129	0x3e6ed27c	0.23322481
130	0x3e19c94d	0.15018196
131	0xbdd4e310	-0.10394871
132	0xbdb7cab6	-0.08974211
133	0xbd856bf4	-0.06514731
134	0xbba3d2a0	-0.0049994737
135	0x3dc43d95	0.09582058
136	0x3d762bc9	0.06010035
137	0x3d04809d	0.032349218
138	0x3f136220	0.575716
139	0x3d8dd17f	0.06924724
140	0xbe760ff4	-0.24029523
141	0xbdc28aa4	-0.094991
142	0x3a8d4b64	0.0010779914
143	0x3dddac2d	0.108238555
144	0xbe33162e	-0.1748893
145	0x3e5435bd	0.20723625
146	0x3deb80fe	0.11499213
147	0x3e93c2e4	0.28859627
148	0xbf0eaa69	-0.55728775
149	0xbcbe7b76	-0.02325223
150	0x3e042325	0.12904032
151	0xbe8d522e	-0.2760176
152	0x3de871f3	0.11349859
153	0xbd7bc25f	-0.061464664
154	0x3d64430d	0.055728007
155	0xbdaa6c73	-0.08321466
156	0x3e6ab713	0.229214
157	0xbb8455de	-0.0040385565
158	0x3efc8d64	0.49326622
159	0x3e127899	0.14303817
160	0x3e20a36c	0.1568734
161	0x3d3b86a1	0.04578269
162	0xbdce261e	-0.10065864
163	0x3e2e4b08	0.1702081
164	0x3dad10c8	0.084504664
165	0xbd59d7ed	-0.05318444
166	0xbd51aabf	-0.051188227
167	0x3ebf28a5	0.37335697
168	0xbcdb8e00	-0.02680111
169	0xbdb0dde2	-0.08636071
170	0xbd7eace7	-0.06217661
171	0xbdff3cf5	-0.124627985
172	0xbec0c92e	-0.37653488
173	0xbb1f70b3	-0.0024328649
174	0xbdff054d	-0.12452183
175	0xbe6037cd	-0.21896286
176	0xbe0cd4a9	-0.13752998
177	0x3dda8207	0.10669332
178	0x3ebb0302	0.36525732
179	0xbe3ec177	-0.18628488
180	0xbec05e30	-0.3757186
181	0xbeb47331	-0.35244134
182	0x3d19acdb	0.037518363
183	0x3d02aa79	0.031900857
184	0x3d5d9479	0.054096673
185	0xbd0e311f	-0.034714814
186	0xbe6bb250	-0.2301724
187	0x3e012802	0.12612918
188	0x3cf9f5ea	0.030512769
189	0x3e30dea6	0.17272434
190	0xbe493e1c	-0.19652599
191	0xba23720c	-0.0006234951
192	0xbd837739	-0.06419224
193	0x3d4a3119	0.04936323
194	0x3e3a78e1	0.18210174
195	0xbd2f207b	-0.042755585
196	0xbd03e08f	-0.032196578
197	0x3ec9d708	0.39421868
198	0x3e285251	0.16437651
199	0x3e047f28	0.12939131
200	0x3d98694b	0.07441958
201	0x3e4190e7	0.18902932
202	0xbe9b6739	-0.3035219
203	0xbe96e360	-0.29470348
204	0x3e2e63e3	0.17030291
205	0x3d968b8f	0.073508374
206	0x3e047201	0.12934114
207	0xbd09759f	-0.033559438
208	0x3eb70bad	0.35751095
209	0x3c3faece	0.0116993915
210	0x3dd631bd	0.104587056
211	0x3d0f7d24	0.035031453
212	0xbe24057f	-0.16017722
213	0xbd471a3c	-0.048609003
214	0xbeeaf66d	-0.45891133
215	0xbe9c5239	-0.3053148
216	0xbe8636c1	-0.2621365
217	0x3df3580f	0.1188203
218	0x3baca9be	0.0052692583
219	0xbe28542b	-0.16438358
220	0x3e282031	0.1641853
221	0xbe6c6248	-0.23084366
222	0xbe05d135	-0.13068087
223	0x3e70e97d	0.23526569
224	0x3e278976	0.16361031
225	0x3edd0637	0.43168804
226	0xbd9c61dc	-0.07635853
227	0x3d2efa70	0.042719305
228	0xbde66f61	-0.112517126
229	0xbcbea954	-0.023274101
230	0x3de51c06	0.11186986
231	0xbde3c528	-0.11121589
232	0x3e7f59c5	0.24936588
233	0x3d75f679	0.060049508
234	0xbd467044	-0.04844691
235	0xbd254cb9	-0.04035637
236	0x3e1a095d	0.15042634
237	0xbe6882a3	-0.22706084
238	0xbe3288cc	-0.17434996
239	0xbd31c8f7	-0.043404546
240	0xbce4f1bb	-0.027947297
241	0xbe8fd126	-0.28089255
242	0x3dba48ed	0.09095941
243	0x3b87dd3f	0.0041462476
244	0xbe2794f8	-0.16365421
245	0xbd14e25a	-0.03634868
246	0xbe3caeeb	-0.18426101
247	0x3f21f3c4	0.6326258
248	0xbddcd3f6	-0.10782616
249	0x3d85e2c8	0.06537396
250	0xbd4dca82	-0.050241955
251	0xbc5d88e3	-0.013521406
252	0xbde02689	-0.1094485
253	0xbd88b4f4	-0.06675139
254	0xbdf73c4e	-0.12072049
255	0x3e648b25	0.22318704

model.0.bias f4 [63]
0	0xbdcd948f	-0.10038101
1	0x3da44fe5	0.08023051
2	0x3e378cbc	0.1792478
3	0xbe54e824	-0.2079168
4	0xbd81b91c	-0.06334135
5	0x3e019641	0.12654974
6	0x3dd26c8a	0.102746084
7	0x3d3170a9	0.04332033
8	0xbecc8e8f	-0.39952514
9	0x3e82baa6	0.25533026
10	0x3e4837d3	0.19552545
11	0xbea43d8c	-0.32078207
12	0x3dc18ffd	0.09451292
13	0xbe3ec4d8	-0.18629777
14	0x3d9a9fe2	0.075500265
15	0xbdb39427	-0.08768492
16	0x3d3c10ab	0.045914333
17	0x3da92590	0.082591176
18	0xbe374ee2	-0.17901185
19	0xbde361a2	-0.11102606
20	0x3e385b1a	0.18003502
21	0xbd8059e1	-0.06267143
22	0x3e2223bf	0.15833949
23	0x3dd2755b	0.1027629
24	0xbcbc9dcd	-0.023024464
25	0xbe2f04b2	-0.17091635
26	0x3d44d895	0.04805811
27	0xbd299e4f	-0.04141074
28	0x3e650a4b	0.22367208
29	0xbdb36ae1	-0.0876062
30	0x3dfc4ecf	0.12319719
31	0x3e31fa74	0.17380697
32	0x3c702682	0.0146576185
33	0xbe012645	-0.12612255
34	0x3e988481	0.29788592
35	0x3e243bb2	0.16038397
36	0xbd155413	-0.036457133
37	0x3dbfa87d	0.093583085
38	0xbe4f6e14	-0.20256835
39	0x3e45b01e	0.19305465
40	0xbd0b42f0	-0.033999383
41	0x3dd7511e	0.10513519
42	0xbe2f2b6d	-0.1710641
43	0x3d6d54e7	0.057942297
44	0x3ddabd80	0.106806755
45	0x3dabd3f4	0.08390036
46	0xbd94de32	-0.07268943
47	0xbd8224e1	-0.0635469
48	0x3eac31e1	0.33631805
49	0x3e38301d	0.17987104
50	0xbe63c807	-0.22244273
51	0xbc80c423	-0.015718525
52	0xbe5269ec	-0.20548218
53	0x3b4ad112	0.003094737
54	0xbe2be383	-0.16786008
55	0xbe2d6f7b	-0.16937058
56	0xbe5bbd21	-0.21458866
57	0xbd7489f9	-0.059701893
58	0xbe594875	-0.21219046
59	0x3e9ee690	0.3103528
60	0xbe1a9f8f	-0.1509993
61	0xbe2c1202	-0.16803744
62	0xbe766067	-0.24060212

model.1.weight f4 [63]
0	0x3f54223d	0.82864743
1	0x3f368257	0.7129263
2	0x3f3d4dba	0.73946726
3	0x3f413b8c	0.75481486
4	0x3f363289	0.7117086
5	0x3f5360d0	0.825696
6	0x3f43be2b	0.7646205
7	0x3f52504f	0.8215379
8	0x3f7309e4	0.94936967
9	0x3f3aa531	0.7290831
10	0x3f211008	0.62915087
11	0x3f37f7d6	0.7186254
12	0x3f15ab91	0.58464915
13	0x3f17911d	0.592058
14	0x3f49842d	0.7871731
15	0x3f63e268	0.89017344
16	0x3f4464f6	0.76716554
17	0x3f3bd816	0.73376596
18	0x3f4fc17e	0.8115462
19	0x3f31f3bf	0.6951255
20	0x3f4aa461	0.7915707
21	0x3f4866af	0.7828168
22	0x3f4041dc	0.75100493
23	0x3f6490bf	0.89283365
24	0x3f24124d	0.64090425
25	0x3f452a72	0.7701789
26	0x3f4abac2	0.7919122
27	0x3f4c7285	0.7986224
28	0x3f239aa5	0.63907844
29	0x3f465bbb	0.7748372
30	0x3f27c71c	0.6553819
31	0x3f31cc06	0.6945194
32	0x3f24c8a0	0.6436863
33	0x3f4868e8	0.78285074
34	0x3f4042b3	0.75101775
35	0x3f3d7549	0.7400709
36	0x3f3e711c	0.7439134
37	0x3f2d8ca0	0.677927
38	0x3f50f31d	0.8162096
39	0x3f1cb8a4	0.6121924
40	0x3f4ba740	0.7955208
41	0x3f25a513	0.6470501
42	0x3f423130	0.75856304
43	0x3f337ad0	0.7010927
44	0x3f3545bb	0.70809525
45	0x3f522681	0.8209
46	0x3f38753b	0.7205388
47	0x3f5d0d33	0.86348265
48	0x3f369aba	0.71329844
49	0x3f279569	0.65462357
50	0x3f2d0d88	0.6759877
51	0x3f31c1d2	0.6943637
52	0x3f62f255	0.8865102
53	0x3f453538	0.7703433
54	0x3f5b89ea	0.85757315
55	0x3f2fa909	0.686173
56	0x3f2f19d2	0.68398774
57	0x3f3b88e5	0.7325576
58	0x3f211042	0.6291543
59	0x3f3413f4	0.70342946
60	0x3f5714be	0.84016025
61	0x3f3d7d2e	0.74019134
62	0x3f41a0e2	0.7563611

model.1.bias f4 [63]
0	0xbda4679c	-0.080275744
1	0xbe4ff839	-0.20309533
2	0xbdf7215a	-0.12066908
3	0xbb07ddbd	-0.0020731532
4	0xbe379f04	-0.17931753
5	0xbd811d43	-0.06304409
6	0xbd6c8038	-0.057739466
7	0xbd614f10	-0.05500704
8	0xbe3a7bec	-0.18211335
9	0x3bcd6c0f	0.006268985
10	0xbc2622cb	-0.010140131
11	0xbe4e4d68	-0.20146716
12	0x3dc3fe8f	0.095700376
13	0xbe32d5a8	-0.17464316
14	0xbe847840	-0.25872993
15	0xbe3ce6bb	-0.18447392
16	0x3da38690	0.0798465
17	0xbdcf0489	-0.10108287
18	0xbdf473bc	-0.11936137
19	0x3d6446ff	0.05573177
20	0xbdf692bf	-0.12039708
21	0xbe0d5cff	-0.13805006
22	0xbe2210a3	-0.15826659
23	0xbe4c6bd2	-0.19963005
24	0xbe62ea89	-0.2215978
25	0xbd779fb8	-0.060455054
26	0xbd8ed23b	-0.06973692
27	0xbdd995ad	-0.106242515
28	0x3cde9fd7	0.027175827
29	0xbce38dc7	-0.027777566
30	0xbdabb160	-0.08383441
31	0xbe082492	-0.132952
32	0xbdc9cbaa	-0.09853299
33	0xbe01f76e	-0.12692043
34	0xbe21a845	-0.15786846
35	0xbd835def	-0.06414401
36	0xbde30bb8	-0.110862195
37	0xbd672f48	-0.056441575
38	0xbe2ff988	-0.17185032
39	0xbdd8fe9d	-0.10595439
40	0xbe0584cf	-0.13038944
41	0xbd2dea4b	-0.042459767
42	0xbe094176	-0.13403878
43	0xbe655acb	-0.22397916
44	0xbd8e76a5	-0.069562234
45	0xbe22ff9b	-0.15917818
46	0xbb110b8d	-0.002213213
47	0xbdbf308c	-0.093354315
48	0xbc5be707	-0.01342178
49	0xbd6ed4bd	-0.05830835
50	0xbe0d7fb3	-0.13818245
51	0xbdd2957b	-0.102824174
52	0xbe789acc	-0.242778
53	0x3d7e11c6	0.06202867
54	0xbd84dcc8	-0.06487423
55	0xbdeadae3	-0.114675306
56	0xbd95848c	-0.07300672
57	0xbd06f87d	-0.03295182
58	0xbd716779	-0.05893657
59	0xbe4d9e6f	-0.20079969
60	0xbdd466c8	-0.103711665
61	0xbe53f64b	-0.20699422
62	0xbd0b2e30	-0.033979595

model.1.running_mean f4 [63]
0	0xbf8a6f49	-1.0815212
1	0xc03408ba	-2.8130326
2	0x403d39ed	2.9566605
3	0x3e37eb8b	0.17960946
4	0xbe537b3c	-0.20652479
5	0xbf089ee4	-0.5336745
6	0x3fd7fd30	1.6874142
7	0xbf2b149d	-0.6682833
8	0xbf8d2ebc	-1.1029887
9	0x3fe3f4a8	1.7809038
10	0xc002c005	-2.04297
11	0x3f93a853	1.1535743
12	0x3ff81b74	1.9383378
13	0xbf1f7006	-0.6228031
14	0x3f7e1d89	0.9926382
15	0xc0301909	-2.751528
16	0x3f0a4753	0.5401508
17	0x3fbf8d29	1.4964954
18	0x3fc23723	1.5173076
19	0xc00ae7ee	-2.1704059
20	0xbf4c5203	-0.7981264
21	0xbf2492d0	-0.6428652
22	0x3e22d797	0.15902553
23	0x3daab866	0.083359525
24	0xbf16b9e6	-0.5887741
25	0x3e949882	0.29022604
26	0xbfc0161f	-1.5006751
27	0xbe8d5e80	-0.2761116
28	0xbd4c04a8	-0.049809128
29	0x3f3e1723	0.74254054
30	0xbf9433ce	-1.157831
31	0x3fc8e2ff	1.5694274
32	0x3eef2b3d	0.46712676
33	0xbfe17094	-1.7612481
34	0xbfd30ab4	-1.6487641
35	0xbd68f835	-0.056877334
36	0x3fdc98e1	1.7234155
37	0xbfb95035	-1.4477602
38	0xc00f2447	-2.2365892
39	0x3f76159a	0.9612671
40	0x3fd077da	1.6286576
41	0x3f1e7519	0.61897427
42	0xbe9bc667	-0.30424806
43	0xbfaf6562	-1.3702815
44	0x3e855afe	0.26045984
45	0x3f57e5b5	0.8433488
46	0x3d8dd57d	0.06925485
47	0xbefe1885	-0.49628082
48	0xbff7732e	-1.9332025
49	0x3f5fff08	0.8749852
50	0x3ef87db5	0.48533407
51	0xbf841bdb	-1.0321001
52	0xbfa6188f	-1.2976245
53	0x3c8468a3	0.016163176
54	0xbf9142dc	-1.1348529
55	0x3e260218	0.16211736
56	0x3eedff64	0.4648391
57	0x3fc06ca8	1.5033159
58	0xc01a0aa8	-2.4069004
59	0x40028ff4	2.0400362
60	0x3d0a355d	0.033742297
61	0xbfb7031a	-1.4297822
62	0xbf30eea9	-0.69114166

model.1.running_var f4 [63]
0	0x3c86588c	0.016399644
1	0x3d6b2af9	0.05741403
2	0x3c7889e6	0.015169596
3	0x3c0473dd	0.008084265
4	0x3d0f93a1	0.0350529
5	0x3c7900dc	0.015197959
6	0x3c389e47	0.011268205
7	0x3bff5875	0.0077925273
8	0x3c0ee49b	0.008721496
9	0x3cc52a6a	0.024068076
10	0x3ccafa5c	0.024777584
11	0x3c5a2695	0.013314863
12	0x3c404f05	0.01173759
13	0x3c4a5991	0.012350456
14	0x3c9b87f6	0.01898573
15	0x3d430974	0.047616437
16	0x3c4fe0d9	0.012687885
17	0x3ca0b282	0.01961637
18	0x3d12da77	0.035852876
19	0x3c2f65bb	0.010705407
20	0x3c759180	0.014988303
21	0x3c73f774	0.01489054
22	0x3bd75748	0.006571684
23	0x3c9e832c	0.019349657
24	0x3ce6788e	0.028133657
25	0x3cb94736	0.022616964
26	0x3cc4511f	0.023964463
27	0x3c56009c	0.013061669
28	0x3ce9782a	0.028499682
29	0x3c36b2f0	0.01115106
30	0x3c7ba3bf	0.015358864
31	0x3c583a92	0.013197558
32	0x3c919171	0.017769547
33	0x3cd74c07	0.02628137
34	0x3c715003	0.014728549
35	0x3ce5e515	0.028063336
36	0x3d011ba5	0.031520505
37	0x3c3cfea4	0.01153532
38	0x3cdefdf0	0.027220696
39	0x3c40c4b7	0.0117656505
40	0x3d1e49cc	0.038644597
41	0x3cd554a2	0.026041333
42	0x3c812d07	0.015768541
43	0x3cc377c3	0.023860818
44	0x3c94aaaf	0.018147795
45	0x3c218fdb	0.009860958
46	0x3cb384d2	0.02191392
47	0x3c9dcc4c	0.019262455
48	0x3c66fdc8	0.014098592
49	0x3ca64ba9	0.02029975
50	0x3cbf1434	0.023325063
51	0x3c8d94af	0.017282812
52	0x3c439020	0.011936218
53	0x3ca0b447	0.019617213
54	0x3cd60eae	0.026130047
55	0x3cbab35e	0.022790607
56	0x3c4bdc05	0.012442593
57	0x3baefc2b	0.0053401194
58	0x3cde4069	0.027130323
59	0x3c5e108e	0.013553752
60	0x3c4fd217	0.012684367
61	0x3c542e45	0.012950485
62	0x3ca16186	0.019699823

model.4.weight f4 [103, 63]
0	0xbdebdbdb	-0.115165435
1	0xbe291b3e	-0.16514298
2	0x3dab54a1	0.08365751
3	0x3db22a77	0.08699506
4	0xbee49862	-0.4464751
5	0xbe0f614a	-0.14001957
6	0x3da9bc2c	0.08287844
7	0x3e217f9c	0.15771335
8	0xbd488754	-0.048957184
9	0xbd1b7ed6	-0.037962757
10	0x3e0a1527	0.13484631
11	0xbe444c28	-0.19169676
12	0x3e5c2496	0.21498331
13	0x3db02b61	0.08602024
14	0x3d402d57	0.04691824
15	0xbdd319ed	-0.10307679
16	0x3e219cff	0.15782546
17	0x3951ac9a	0.00019996092
18	0xbb250c20	-0.002518423
19	0x3dbe49a8	0.092913926
20	0xbe25c923	-0.16190009
21	0x3d5520fd	0.052033413
22	0xbe081368	-0.13288653
23	0x3e302213	0.17200498
24	0xbe39447e	-0.18092534
25	0x3de60a70	0.112324595
26	0x3de66a59	0.11250753
27	0x3d7d331a	0.061816312
28	0x3daa8496	0.0832607
29	0x3de324cb	0.11091002
30	0x3deb4b73	0.11489
31	0x3daff898	0.08592337
32	0xbd1f332e	-0.038867168
33	0x3c310366	0.010804033
34	0xbd8f46d1	-0.06995929
35	0x3c8978be	0.016781207
36	0x3c93b12c	0.018028818
37	0xbdbbcdc0	-0.09170103
38	0x3d13f152	0.036118813
39	0xbd8c2f57	-0.06844967
40	0x3d024a4f	0.031809147
41	0xbdb077ce	-0.08616601
42	0x3b09ebd5	0.0021045108
43	0x3a926803	0.0011169914
44	0x3d902e64	0.07040098
45	0x3e5a431c	0.21314663
46	0x3da1b288	0.0789538
47	0xbe7f1187	-0.2490903
48	0xbb16d237	-0.0023013481
49	0xbe141658	-0.14461648
50	0x3d2ca73f	0.042151686
51	0x3e47a430	0.19496226
52	0x3ca03d98	0.01956062
53	0xbd876d2e	-0.06612621
54	0xbab5a863	-0.0013859387
55	0xbdf98962	-0.12184407
56	0x3db663cd	0.08905754
57	0x3d49e119	0.049286935
58	0xbe12546b	-0.14290015
59	0xbe323db9	-0.17406358
60	0x3c100519	0.008790278
61	0xbdf4f58a	-0.11960895
62	0xbdedaa6d	-0.11604772
63	0xbd816156	-0.063173935
64	0x3b8f8daf	0.0043809037
65	0xbd207b06	-0.039179824
66	0xbcd4e017	-0.02598576
67	0xbd5439c3	-0.0518129
68	0xbe484a9d	-0.19559713
69	0x3dbbdee9	0.09173376
70	0x3d71b8dc	0.059014186
71	0xbd9ec00f	-0.07751476
72	0xbc4b73e3	-0.012417766
73	0xbd40d5e6	-0.04707899
74	0xbde083ed	-0.10962663
75	0x3cc5dfcb	0.024154564
76	0x3cfe7847	0.031063212
77	0x3e15b1e4	0.14618641
78	0x3e05560b	0.13021104
79	0xbd5c7e8d	-0.053831626
80	0xbd24c16a	-0.040223517
81	0xbe991eb4	-0.29906237
82	0x3e3ffc5b	0.1874861
83	0x3e187899	0.14889754
84	0x3b146d24	0.002264806
85	0x3e3fd672	0.18734148
86	0x3df14ffa	0.117828324
87	0xbc99f8da	-0.01879542
88	0x3db45d08	0.08806807
89	0x3d629c5e	0.055324905
90	0x3d53f944	0.05175139
91	0xbdb86857	-0.09004276
92	0xbdc5f2c0	-0.096654415
93	0x3d157526	0.036488675
94	0xbd1cab53	-0.038249325
95	0xbe081cbd	-0.13292213
96	0xbd6f8c0c	-0.05848317
97	0x3dbced1b	0.09224912
98	0xbdb2767e	-0.08714007
99	0xbc465893	-0.012106079
100	0xbd058849	-0.032600675
101	0x3e5c125b	0.21491377
102	0x3d85d463	0.0653465
103	0xbd4b3ecb	-0.04962043
104	0x3df4c155	0.11950938
105	0xbd8e425b	-0.0694625
106	0x3d9f74d0	0.07785952
107	0xbe0b71ee	-0.1361768
108	0x3e18e799	0.14932097
109	0xbd38c0bd	-0.045105685
110	0x3e0cbe59	0.13744487
111	0xbe627b6a	-0.22117391
112	0xbe0c9277	-0.13727747
113	0x3dd7353b	0.105082
114	0x3d90d549	0.07071931
115	0x3cbde012	0.023178134
116	0x3d50d3c0	0.05098319
117	0xbd3639bf	-0.044488665
118	0x3e90f034	0.2830826
119	0xbe206335	-0.15662844
120	0xbe180e6b	-0.1484925
121	0xbc972252	-0.018448982
122	0x3dbbc98a	0.091693
123	0x3e249a30	0.16074443
124	0xbe2561ac	-0.1615054
125	0x3d7efd84	0.06225349
126	0xbcd8ff84	-0.026489027
127	0xbdfd6ce1	-0.12374283
128	0xbc83932d	-0.01606139
129	0xbd1a388f	-0.037651595
130	0x3dcb3edb	0.09924098
131	0x3e54f413	0.20796232
132	0xbd154110	-0.036439
133	0xbcbb7905	-0.022884855
134	0xbd122936	-0.035683833
135	0xbc3695b0	-0.011144087
136	0x3db16d92	0.08663477
137	0xbd7a7f01	-0.061156277
138	0xbdab52ac	-0.08365378
139	0xbb33f9c8	-0.0027462114
140	0xbe53900d	-0.2066042
141	0xbbf8ac6c	-0.0075889137
142	0xbccde23f	-0.025132297
143	0xbe316f37	-0.17327581
144	0x3e706b7e	0.23478505
145	0x3e2197ad	0.15780516
146	0xbe0e1845	-0.13876446
147	0x3cc7c824	0.024387427
148	0x3d930301	0.07178307
149	0xbdd9b06e	-0.106293544
150	0xbbc36a39	-0.0059635905
151	0x3b78a18e	0.003793809
152	0xbca1b015	-0.019737283
153	0x3e09513e	0.13409898
154	0xbdabe602	-0.0839348
155	0x3d74fb11	0.059809748
156	0x3ca99b97	0.020704074
157	0x3db2bb5a	0.08727141
158	0x3d284815	0.041084368
159	0x3dddbb02	0.108266845
160	0x3a8c64cf	0.0010711196
161	0xbd871021	-0.06594873
162	0xbbe45522	-0.0069681564
163	0x3cb34c21	0.021886887
164	0xbd5a30f5	-0.053269345
165	0xbddf0cfe	-0.1089115
166	0xbdb16801	-0.08662415
167	0x3e0bbe92	0.13646916
168	0xbe8bb388	-0.2728541
169	0x3e7c9959	0.24667872
170	0x3da7ad8a	0.08187397
171	0xbdb9ec37	-0.090782575
172	0xbdd33193	-0.1031219
173	0x3b8b6fa8	0.004255254
174	0xbe9faef2	-0.3118816
175	0xbc668e0f	-0.014071955
176	0xbde8d689	-0.11369044
177	0x3ddf13a6	0.108924195
178	0xbd158378	-0.03650233
179	0xbe1d124b	-0.1533901
180	0xbb12ad39	-0.002238108
181	0xbd911dd6	-0.07085769
182	0x3cede6be	0.02904069
183	0xbc76cfcc	-0.015064191
184	0xbd521c15	-0.051296312
185	0xbe212c7c	-0.15739626
186	0xbd926940	-0.07148981
187	0xbde87ab9	-0.113515325
188	0xbd1b2f72	-0.037887044
189	0xbdec6532	-0.11542739
190	0xbe5fe04c	-0.21862906
191	0xbe64a933	-0.2233017
192	0xbd8d40a4	-0.06897095
193	0xbd3e2a3e	-0.046427004
194	0xbd79c468	-0.060978323
195	0x3dce3ead	0.10070548
196	0xbd100698	-0.03516254
197	0x3b339316	0.0027400902
198	0xbdaa5ef0	-0.08318889
199	0x3d97ec2f	0.07418095
200	0xbd1f1b87	-0.03884461
201	0x3db5ef22	0.088835016
202	0xbe4bfd5e	-0.1992087
203	0x3dbd97de	0.09257482
204	0xbe1b387d	-0.15158267
205	0xbdb9a16c	-0.09063992
206	0xbd3b7225	-0.045763154
207	0xbe065cb2	-0.13121298
208	0x3e41347d	0.18867679
209	0x3d7c68b8	0.061623305
210	0x3d6ff3ca	0.058582105
211	0x3d8d616d	0.06903348
212	0x3e344ff8	0.1760863
213	0x3cfea0e0	0.03108257
214	0x3db4f941	0.08836604
215	0x3e0d2b07	0.13785945
216	0x3d3e4388	0.04645112
217	0xbe2af4c0	-0.16694927
218	0x3df264ce	0.11835633
219	0xbe1e1d16	-0.15440783
220	0xbde07ed0	-0.109616876
221	0x3cb157f7	0.02164839
222	0xbd951d9b	-0.072810374
223	0x3db326c8	0.08747631
224	0xbcc1ccc2	-0.023657206
225	0x3df70aec	0.1206263
226	0x3b0828bc	0.0020776233
227	0xbe01ff4b	-0.12695043
228	0x3d1a3ede	0.03765761
229	0x3e163054	0.14666873
230	0x3d1d7416	0.038440786
231	0x3e723ce4	0.2365604
232	0xbd8f2d66	-0.06991081
233	0x3e917fbe	0.28417772
234	0x3c73c3a9	0.014878192
235	0xbe89aaa7	-0.2688801
236	0xbddabe54	-0.106808335
237	0xbdc1e51b	-0.094675265
238	0xbddc402a	-0.10754426
239	0xbd9fa6ac	-0.07795462
240	0xbe6eb07e	-0.23309514
241	0x3ce29753	0.027660048
242	0xbdd7a379	-0.10529227
243	0x3bbed985	0.00582427
244	0xbd4a8b19	-0.04944906
245	0x3d8f3cf1	0.069940455
246	0x3ddfd9b8	0.109301984
247	0xbdcea6fa	-0.10090442
248	0x3d88a287	0.06671625
249	0x3cf7a9b7	0.030232294
250	0x3d2d033f	0.042239424
251	0xbc5a2af4	-0.013315905
252	0xbd64fd30	-0.05590552
253	0x3db7fa9b	0.08983346
254	0xbc7584ae	-0.014985247
255	0x3b0d52ec	0.0021564318

model.4.bias f4 [103]
0	0xbd852a4d	-0.06502209
1	0xbd31ec11	-0.04343802
2	0x3c9fc555	0.019503275
3	0xbd84ff29	-0.064939804
4	0xbda38edc	-0.07986233
5	0x3d52d659	0.05147395
6	0xbd92d279	-0.07169051
7	0xbd01bfed	-0.031677175
8	0xbd7b763d	-0.061392058
9	0x3d917b4d	0.07103596
10	0x3c744a96	0.014910361
11	0xbd0bbc55	-0.034115154
12	0xbd074c69	-0.033031855
13	0xbd07ebf5	-0.03318401
14	0xbcd3618d	-0.025803352
15	0x3d215957	0.03939184
16	0xbd800707	-0.0625134
17	0xbe1e22e6	-0.15443
18	0xbbcc0a42	-0.0062268088
19	0xbd372ac3	-0.044718515
20	0xbd105aa3	-0.035242688
21	0x3d64e6c7	0.05588415
22	0x3d50b349	0.05095223
23	0xbda4075f	-0.080092184
24	0xbe0e0392	-0.1386855
25	0xbd258a3d	-0.040415037
26	0xbd83e212	-0.06439604
27	0xbccd7d1c	-0.02508407
28	0xbd166e03	-0.03672601
29	0x3da976df	0.08274626
30	0xbc9653a0	-0.018350422
31	0x3b220c33	0.002472651
32	0x3e170b9b	0.14750521
33	0xbd05983b	-0.03261588
34	0x3d14dee6	0.036345385
35	0xbc12bf99	-0.008956813
36	0xbd322ddc	-0.043500766
37	0xbdd0716d	-0.10177884
38	0x3dbe3731	0.09287871
39	0x3b3fbf39	0.0029258265
40	0xbd3a325e	-0.04545819
41	0x3d9a2d72	0.07528199
42	0x3c296496	0.010338923
43	0x3d081376	0.033221684
44	0xbdcc41ec	-0.09973511
45	0xbd39bea6	-0.045347832
46	0xbd613c50	-0.05498916
47	0xbb03354f	-0.0020020788
48	0xbd83300d	-0.06405649
49	0xbd46e7a8	-0.04856077
50	0x3d23ab08	0.03995803
51	0x3cce26af	0.02516493
52	0xbd82b4b9	-0.06382126
53	0xbd3caa7a	-0.046061017
54	0xbcea8371	-0.02862713
55	0x3d2e3c34	0.042537883
56	0xbce21aeb	-0.027600726
57	0xbc8b2980	-0.016987562
58	0xbd8f3445	-0.069923915
59	0xbd491530	-0.04909247
60	0xbd7191b6	-0.05897685
61	0xbd673a73	-0.056452226
62	0xbce6c7e5	-0.028171489
63	0xbda920c1	-0.082582004
64	0x3c9bd17d	0.01902079
65	0xbd045ca9	-0.03231493
66	0x3e0e2a9b	0.1388344
67	0x3bbc3a6e	0.00574427
68	0xbd41bc37	-0.047298636
69	0xbd8b1a54	-0.06792131
70	0xbd2c76e6	-0.042105578
71	0x3d111bab	0.035426777
72	0xbda82f61	-0.08212162
73	0xbc7fb696	-0.015607497
74	0x3dac60ab	0.084168755
75	0x3dde6c2d	0.10860477
76	0xbd0631e4	-0.032762423
77	0x3d1f2605	0.038854618
78	0x3d792ab9	0.06083176
79	0x3de4def8	0.111753404
80	0x3c7cfd49	0.015441247
81	0xbc883d77	-0.016630871
82	0xbdb18134	-0.08667222
83	0xbdc44b1d	-0.09584639
84	0x3d03c806	0.03217318
85	0x3df530fa	0.11972232
86	0x3d7aab92	0.06119878
87	0xbd0976ba	-0.033560492
88	0xbdae3685	-0.085064925
89	0x3b80a763	0.003926204
90	0x3de487ae	0.11158691
91	0xbca255a6	-0.019816231
92	0xbd4a04d0	-0.049320996
93	0xbcb578bd	-0.022152299
94	0xbd87484e	-0.06605588
95	0xbd62bdc5	-0.05535676
96	0xbc4ffed8	-0.012695037
97	0xbd6439a2	-0.055719025
98	0x3d0046bf	0.03131747
99	0x3dce64c1	0.10077811
100	0xbd9f7c41	-0.077873714
101	0x3bd4404e	0.0064773923
102	0x3cb84cfc	0.022497647

model.5.weight f4 [103]
0	0x3f298db8	0.6623187
1	0x3f4066f0	0.7515707
2	0x3f2dc989	0.67885643
3	0x3f3bcb86	0.7335743
4	0x3f4f0b81	0.8087693
5	0x3f17c9a4	0.59292054
6	0x3f248efe	0.6428069
7	0x3f435113	0.76295584
8	0x3f35137d	0.7073286
9	0x3f4449c5	0.76675063
10	0x3f34f8a1	0.7069188
11	0x3f41fac3	0.75773257
12	0x3f2cf7f5	0.6756585
13	0x3f36b1a7	0.71364826
14	0x3f23a6c2	0.6392633
15	0x3f59d87c	0.85095954
16	0x3f19c2e0	0.6006298
17	0x3f29bc9d	0.66303426
18	0x3f5b16c8	0.85581636
19	0x3f35c95d	0.7101038
20	0x3f3bbcb2	0.733348
21	0x3f1f8fca	0.6232878
22	0x3f435ec2	0.76316464
23	0x3f69d11e	0.9133471
24	0x3f4fefe6	0.8122543
25	0x3f44bd87	0.76851696
26	0x3f301291	0.6877833
27	0x3f3f3e09	0.74704033
28	0x3f20a925	0.62758094
29	0x3f3be2e4	0.7339308
30	0x3f501486	0.81281316
31	0x3f4da537	0.8033022
32	0x3f3aba71	0.72940737
33	0x3f4e0d5a	0.8048912
34	0x3f4e9d76	0.80709016
35	0x3f36bbe1	0.7138043
36	0x3f2d6b71	0.6774207
37	0x3f1a07a1	0.6016789
38	0x3f5c8c51	0.86151606
39	0x3f32b045	0.69800216
40	0x3f310227	0.6914391
41	0x3f1fe868	0.62464
42	0x3f4bd049	0.7961469
43	0x3f374c45	0.71600753
44	0x3f36f56e	0.71468246
45	0x3f2e8664	0.68173814
46	0x3f3739fc	0.7157285
47	0x3f2fa4bd	0.68610746
48	0x3f470c89	0.777535
49	0x3f46b67e	0.7762221
50	0x3f29739e	0.6619204
51	0x3f1232c7	0.5710873
52	0x3f31d924	0.69471955
53	0x3f3291c4	0.6975367
54	0x3f4722c0	0.777874
55	0x3f2923d2	0.6607028
56	0x3f32df20	0.6987171
57	0x3f357ad8	0.7089057
58	0x3f3062cc	0.6890075
59	0x3f50d486	0.81574285
60	0x3f36f565	0.7146819
61	0x3f4a9a05	0.79141265
62	0x3f32dc1b	0.69867104
63	0x3f57a3e4	0.8423445
64	0x3f2811b8	0.65652037
65	0x3f214287	0.6299214
66	0x3f44e41f	0.76910585
67	0x3f5b908e	0.8576745
68	0x3f452100	0.7700348
69	0x3f4e72b1	0.80643755
70	0x3f37ef87	0.71849865
71	0x3f3f6fb0	0.74779797
72	0x3f378da7	0.7170052
73	0x3f357e48	0.70895815
74	0x3f20d956	0.6283163
75	0x3f492960	0.7857876
76	0x3f613cc3	0.8798334
77	0x3f437004	0.763428
78	0x3f3f6680	0.7476578
79	0x3f2e89c2	0.6817895
80	0x3f5abaa4	0.8544104
81	0x3f5a1bd9	0.8519874
82	0x3f38462f	0.7198209
83	0x3f3f486a	0.7471987
84	0x3f2b0671	0.66806704
85	0x3f12d07b	0.57349366
86	0x3f2ec35c	0.68266845
87	0x3f1c4c7b	0.610542
88	0x3f46dc91	0.7768031
89	0x3f3a5176	0.7278055
90	0x3f2940f2	0.66114724
91	0x3f44d71a	0.7689072
92	0x3f4db9e3	0.80361766
93	0x3f43b53a	0.76448405
94	0x3f3f7aeb	0.7479693
95	0x3f4337f7	0.7625727
96	0x3f34445f	0.70416826
97	0x3f24e90f	0.6441812
98	0x3f5e855a	0.8692223
99	0x3f2274fc	0.63459754
100	0x3f2c4990	0.6729975
101	0x3f331059	0.6994682
102	0x3f1b949e	0.60773647

model.5.bias f4 [103]
0	0xbe29ff08	-0.16601193
1	0xbeab8823	-0.33502302
2	0xbd6bb025	-0.05754103
3	0xbe943eea	-0.2895425
4	0xbea0e11b	-0.31421742
5	0xbe14e4ec	-0.14540452
6	0xbe4bddf0	-0.19908881
7	0xbdc11a5e	-0.09428857
8	0xbe8e225f	-0.27760598
9	0xbe79ea21	-0.2440572
10	0xbe388d83	-0.18022732
11	0xbe823162	-0.254283
12	0xbdec00f6	-0.11523621
13	0xbe5a2ca6	-0.21306095
14	0xbdcb8a20	-0.09938455
15	0xbe8968b5	-0.26837698
16	0xbde28b5c	-0.11061737
17	0xbe2eafc6	-0.1705924
18	0xbec833ef	-0.39102122
19	0xbe0eabd3	-0.13932733
20	0xbe4ad675	-0.19808371
21	0xbe3cf1c6	-0.18451604
22	0xbe67219c	-0.22571415
23	0xbe859870	-0.26092863
24	0xbe8cd3cf	-0.27505347
25	0xbe704a1c	-0.2346577
26	0xbea0e788	-0.31426644
27	0xbe9c92f2	-0.3058086
28	0xbe604805	-0.21902473
29	0xbe1a217a	-0.15051833
30	0xbddd2285	-0.107976
31	0xbe3d5143	-0.1848803
32	0xbe1bb80e	-0.1520693
33	0xbe7f383f	-0.249238
34	0xbda6448c	-0.08118543
35	0xbe064578	-0.13112438
36	0xbe88c3b4	-0.2671181
37	0xbdb7b849	-0.089706965
38	0xbe5e6fc7	-0.21722327
39	0xbea34818	-0.3189094
40	0xbe734bef	-0.23759435
41	0xbe0af4eb	-0.13569991
42	0xbe85cf0f	-0.26134536
43	0xbe9fceed	-0.3121256
44	0xbe42629f	-0.18982933
45	0xbe4af56a	-0.1982018
46	0xbe809559	-0.25113943
47	0xbe40e609	-0.18837751
48	0xbe1e9974	-0.15488225
49	0xbdc0c785	-0.09413055
50	0xbe89e7e1	-0.26934722
51	0xbdc0c106	-0.09411816
52	0xbe8748fd	-0.26422873
53	0xbe85e03f	-0.2614765
54	0xbddf4907	-0.10902601
55	0xbe44d50b	-0.19221894
56	0xbe272bbb	-0.16325276
57	0xbe4decd5	-0.20109876
58	0xbe36dd73	-0.17857914
59	0xbe8fb428	-0.28067136
60	0xbe778d90	-0.24175096
61	0xbe63b9a4	-0.22238785
62	0xbe660a07	-0.22464763
63	0xbe3e2c85	-0.1857167
64	0xbe54889a	-0.20755234
65	0xbe3c896f	-0.18411802
66	0xbe2c62d7	-0.1683458
67	0xbdfdfa62	-0.12401272
68	0xbe31e01a	-0.17370644
69	0xbe553e05	-0.2082444
70	0xbdee21a8	-0.11627513
71	0xbe9228a4	-0.2854663
72	0xbe6bf2c1	-0.23041822
73	0xbe8dd04d	-0.27697983
74	0xbe4af940	-0.19821644
75	0xbe780a01	-0.24222566
76	0xbe5e2bee	-0.21696445
77	0xbe6d11e3	-0.23151354
78	0xbe4cad34	-0.19987947
79	0xbe10bae9	-0.141338
80	0xbdff3aa8	-0.1246236
81	0xbe59526a	-0.21222845
82	0xbd84c6c6	-0.064832255
83	0xbe5b39ee	-0.21408817
84	0xbe334298	-0.17505872
85	0xbe3f9fe6	-0.1871334
86	0xbe963fe9	-0.29345635
87	0xbe02bcf6	-0.12767395
88	0xbdc72522	-0.097238794
89	0xbdde56c6	-0.108563945
90	0xbe88e3da	-0.26736337
91	0xbe924d46	-0.2857458
92	0xbe484fe6	-0.19561729
93	0xbe6420ed	-0.22278185
94	0xbe42df19	-0.19030418
95	0xbde3fed6	-0.111325905
96	0xbe9364ab	-0.2878774
97	0xbe657c60	-0.22410727
98	0xbe2263bc	-0.15858358
99	0xbe664da8	-0.22490561
100	0xbe1efcd3	-0.15526132
101	0xbe8f934b	-0.28042063
102	0xbe81c0bc	-0.25342357

model.5.running_mean f4 [103]
0	0xbcbfb8ef	-0.023403613
1	0xbba83ae7	-0.005133975
2	0xbe8a59be	-0.27021593
3	0xbe5961ef	-0.21228765
4	0xbeaebb80	-0.34127426
5	0x3e63869f	0.22219323
6	0xbe31e9dc	-0.17374367
7	0x3de4c597	0.111705
8	0xbe672fb0	-0.22576785
9	0xbec36726	-0.38164634
10	0xbee3be70	-0.4448123
11	0xbf171bfd	-0.5902708
12	0xbdb1fc53	-0.08690705
13	0x3cbce531	0.023058506
14	0xbde103b3	-0.10987034
15	0xbe81d9fe	-0.25361627
16	0xbdee210a	-0.116273955
17	0xbef616ee	-0.4806437
18	0xbad04fd8	-0.0015892936
19	0xbcde92e2	-0.027169649
20	0x3e83ac88	0.25717568
21	0xbe0c570d	-0.13705082
22	0x3cfc255e	0.030779537
23	0xbe064f48	-0.13116181
24	0xbf1ba2de	-0.6079539
25	0xbf0b88f9	-0.5450588
26	0xbe9cfd6f	-0.30662104
27	0xbede68e4	-0.434394
28	0x3f0bb45c	0.5457208
29	0x3c0e05a0	0.008668333
30	0x3e961214	0.29310668
31	0xbea21124	-0.31653702
32	0xbe5b2a56	-0.21402869
33	0xbeac65a1	-0.33671287
34	0x3eb9b6b9	0.3627222
35	0xbdca670d	-0.098829366
36	0xbeaa2f0f	-0.33239028
37	0xbe892188	-0.26783395
38	0xbdb87eb6	-0.09008543
39	0x3e7e6cdd	0.24846216
40	0xbea6e38b	-0.32595477
41	0xbe155fe3	-0.14587359
42	0x3db36adb	0.087606154
43	0xbdfd87d2	-0.12379421
44	0xbe1b1da4	-0.15148026
45	0xbe7d37f7	-0.2472838
46	0xbd1b2309	-0.03787521
47	0xbdac6f2c	-0.08419642
48	0xbd3dda2f	-0.046350654
49	0xbdc219da	-0.09477587
50	0x3f10addc	0.5651529
51	0xbf0678e0	-0.5252819
52	0xbedde13b	-0.433359
53	0xbcc5403f	-0.024078486
54	0x3e567894	0.20944434
55	0xbede874b	-0.43462595
56	0xbee22770	-0.44170713
57	0xbf3b6043	-0.7319376
58	0x3e4337ed	0.19064303
59	0xbd013f90	-0.03155476
60	0xbe46f76c	-0.19430321
61	0xbec94ff1	-0.39318803
62	0xbef9086f	-0.48639247
63	0xbc774733	-0.015092659
64	0xbe3dcc30	-0.18534923
65	0x3e4ce283	0.20008282
66	0x3ea62966	0.3245346
67	0xbedcb207	-0.43104574
68	0xbec32b64	-0.38119042
69	0xbd44e9ef	-0.04807466
70	0xbf1fe6da	-0.62461627
71	0xbd857992	-0.06517328
72	0xbd8a9da0	-0.06768346
73	0x3dbeca6d	0.093159534
74	0xbc6cf912	-0.01446368
75	0x3f117317	0.5681624
76	0x3e7be31f	0.24598359
77	0xbc122318	-0.0089195
78	0xbb74cb1e	-0.0037352513
79	0xbe864b8f	-0.26229522
80	0xbe75052d	-0.23927756
81	0xbec493d1	-0.38394025
82	0xbedc88c6	-0.430731
83	0xbe4ff64d	-0.203088
84	0x3e84ddc6	0.2595045
85	0x3e9dd765	0.30828395
86	0x3da44c82	0.08022405
87	0x3e6807fe	0.22659299
88	0xbb491a0d	-0.0030685693
89	0x3e28e9ce	0.1649544
90	0x3dece780	0.115675926
91	0xbe3ae550	-0.18251538
92	0xbd316f14	-0.043318823
93	0x3ea48325	0.32131305
94	0x3e05c769	0.1306435
95	0xbec7d0db	-0.39026532
96	0x3eb36207	0.35035726
97	0xbdda6736	-0.10664217
98	0xbd70221b	-0.058626276
99	0xbe066c60	-0.1312728
100	0xbedd43e0	-0.43215847
101	0xbe5cced9	-0.21563281
102	0xbe84eba4	-0.2596103

model.5.running_var f4 [103]
0	0x3e0ae06f	0.13562177
1	0x3e380cfc	0.17973703
2	0x3da43702	0.080183044
3	0x3da09e76	0.07842724
4	0x3df8c417	0.12146776
5	0x3e012f89	0.1261579
6	0x3d3da1eb	0.046296995
7	0x3e27a148	0.16370118
8	0x3df045bd	0.117320515
9	0x3e1c730b	0.1527826
10	0x3e0212a1	0.12702419
11	0x3e016fb2	0.12640265
12	0x3e0f868e	0.14016172
13	0x3ddc026a	0.10742648
14	0x3d3804a5	0.044926304
15	0x3e28096b	0.16409843
16	0x3dbdeef1	0.0927409
17	0x3dcf44bf	0.10120534
18	0x3df10d9b	0.11770173
19	0x3e0e3b2a	0.13889757
20	0x3def8363	0.11694982
21	0x3d9baafa	0.076009706
22	0x3e267d7e	0.16258809
23	0x3e301468	0.17195284
24	0x3e19038f	0.14942764
25	0x3f003410	0.5007944
26	0x3db51f05	0.08843807
27	0x3e155f00	0.14587021
28	0x3dd6de80	0.10491657
29	0x3da723f9	0.08161158
30	0x3db41a53	0.087940834
31	0x3e6cecf2	0.23137262
32	0x3e148c00	0.14506531
33	0x3de1e38d	0.1102973
34	0x3e091d46	0.13390073
35	0x3d8faa02	0.07014848
36	0x3de889dc	0.113544196
37	0x3e5b12de	0.21393916
38	0x3e5e65dc	0.21718544
39	0x3de408fb	0.111345254
40	0x3dbbcd9d	0.09170077
41	0x3e4d843b	0.20069973
42	0x3de871ea	0.113498524
43	0x3db152a6	0.08658342
44	0x3dc6b595	0.09702603
45	0x3e5b4825	0.2141424
46	0x3de2bb21	0.11070848
47	0x3daac324	0.08338001
48	0x3de3f925	0.11131505
49	0x3e04efbe	0.1298208
50	0x3df8f11c	0.12155363
51	0x3d764c9e	0.06013166
52	0x3dba2bcf	0.09090387
53	0x3e5e20fa	0.21692267
54	0x3deaf6bc	0.11472842
55	0x3daa9790	0.083296895
56	0x3dcb3475	0.09922115
57	0x3dcf8ec2	0.10134651
58	0x3e00171d	0.12508817
59	0x3e4968a3	0.19668822
60	0x3df408ed	0.11915765
61	0x3e0487cc	0.12942427
62	0x3e20eaf4	0.15714628
63	0x3e760a26	0.24027309
64	0x3dba2167	0.09088402
65	0x3de09744	0.10966352
66	0x3dfe5db3	0.124202155
67	0x3ea24220	0.31691074
68	0x3e38e8a7	0.180575
69	0x3db8f700	0.090314865
70	0x3dc5a875	0.09651271
71	0x3dea3b15	0.1143705
72	0x3e1012c5	0.1406966
73	0x3dc333cf	0.09531366
74	0x3dc6531f	0.09683823
75	0x3deb013d	0.114748456
76	0x3dffea99	0.12495918
77	0x3e0f6a31	0.14005353
78	0x3da67742	0.081282154
79	0x3db4fc05	0.088371314
80	0x3dec5d58	0.115412414
81	0x3e24f2ef	0.16108297
82	0x3e003c16	0.12522921
83	0x3e0db9bb	0.13840382
84	0x3e0b2b85	0.1359082
85	0x3dbd99fa	0.09257884
86	0x3d9aebe9	0.075645275
87	0x3de143f6	0.10999291
88	0x3de1b264	0.110203534
89	0x3e174614	0.14772826
90	0x3d9efe1e	0.07763313
91	0x3dafbaa0	0.08580518
92	0x3e20c96b	0.15701835
93	0x3e63b6eb	0.22237746
94	0x3e0fb93f	0.1403551
95	0x3e0ddc34	0.13853532
96	0x3e30d5d2	0.17269066
97	0x3e403f7c	0.18774217
98	0x3e19c5df	0.15016888
99	0x3dba2239	0.09088559
100	0x3dce7bb2	0.10082187
101	0x3def15da	0.1167409
102	0x3e13d232	0.14435652

model.8.weight f4 [59, 103]
0	0xbdc4e9cf	-0.09614908
1	0xbe3e8d86	-0.18608674
2	0xbda9460f	-0.08265316
3	0xbe29bfe2	-0.16577104
4	0x389b87be	7.41626e-05
5	0xbc112697	-0.008859298
6	0x3e151d41	0.1456194
7	0xbb60a83f	-0.003427997
8	0xbe3811e2	-0.17975572
9	0xbeac12fc	-0.33608234
10	0x3c8fcc5a	0.017553497
11	0x3d69afef	0.05705255
12	0xbeaac847	-0.33355924
13	0x3e14beb6	0.14525875
14	0x3bfb4e33	0.007669234
15	0xbce98ceb	-0.028509578
16	0x3af969c3	0.0019028712
17	0x3dc1d8e4	0.09465197
18	0x3d2a96ac	0.0416476
19	0x3d61679b	0.055030446
20	0x3d09b9bc	0.033624396
21	0xbc718838	-0.01474195
22	0x3e17d26f	0.14826368
23	0xbd04e635	-0.032446105
24	0x3dace92a	0.0844291
25	0x3e58f10b	0.211857
26	0xbde9daee	-0.11418711
27	0x3d51c48d	0.051212836
28	0x3c1580f5	0.009124984
29	0xbd04d31c	-0.032427892
30	0xbcd8a604	-0.02644635
31	0xbda7d5e6	-0.08195095
32	0x3cbbf190	0.022942334
33	0xbd8b161f	-0.06791329
34	0xbe23dbb1	-0.16001774
35	0x3c6e9044	0.014560763
36	0x3dd04b5c	0.10170624
37	0xbcf914a4	-0.03040535
38	0x3d3eef46	0.046614908
39	0xbe12be7d	-0.14330478
40	0x3d2b674d	0.041846562
41	0xbd8dd559	-0.069254585
42	0xbd932794	-0.07185283
43	0xbe1002cd	-0.14063568
44	0x3daa1e67	0.0830658
45	0xbe54109d	-0.20709462
46	0x3d85fae7	0.065419964
47	0xbd893a2a	-0.06700547
48	0x3c31598f	0.010824575
49	0xbd09fdb5	-0.03368922
50	0x3d817843	0.06321766
51	0xbe3aa7d5	-0.18228085
52	0xbdda9b18	-0.10674113
53	0xbd32e333	-0.043673705
54	0xbe3d0462	-0.18458703
55	0xbd8a5a5f	-0.06755518
56	0x3e216c3b	0.15763943
57	0x3db96def	0.09054171
58	0xbe1b1a4b	-0.15146749
59	0xbbe1577a	-0.006876883
60	0xbe2b4013	-0.16723661
61	0xbd1af9c3	-0.037835848
62	0xbe5d1b8b	-0.21592538
63	0x3e4d2e28	0.20037138
64	0xbdad40b2	-0.08459605
65	0xbd184140	-0.037171602
66	0xbdbf8161	-0.09350849
67	0x3dcf72b8	0.10129303
68	0xbb20ec5c	-0.0024554944
69	0xbdaeab75	-0.085287966
70	0xbd1ce2ed	-0.03830235
71	0x3bd6a6f8	0.006550666
72	0x3d2db221	0.042406205
73	0x3e4d4bca	0.20048442
74	0x3b97477f	0.0046166773
75	0xbd947ceb	-0.07250389
76	0x3e1099ea	0.14121214
77	0x3e6c52ce	0.23078462
78	0xbcd684c8	-0.026186362
79	0x3cf301ab	0.029663881
80	0x3d74b068	0.059738547
81	0x3e3d2214	0.18470031
82	0xbe1e7d0b	-0.15477388
83	0x3da9452e	0.08265148
84	0x3e021492	0.1270316
85	0xbc1824e3	-0.009286138
86	0xbd085781	-0.033286575
87	0xbc27ad2c	-0.0102341585
88	0xbe3ba4a4	-0.18324524
89	0x3e02dd11	0.12779643
90	0x3cd81b15	0.026380101
91	0x3b9c3701	0.004767299
92	0xbde4c4f7	-0.111703806
93	0x3e262782	0.16226009
94	0xbe0735b9	-0.13204087
95	0x3d13cee8	0.036085993
96	0x3c622504	0.0138027705
97	0xbdca7f57	-0.098875694
98	0xbd807c49	-0.062737055
99	0x3d795320	0.06087029
100	0xbdfe3277	-0.12411969
101	0x3d28b7e0	0.041190982
102	0x3c326e3e	0.010890542
103	0x3d4b2a9e	0.04960119
104	0xbd1fbe10	-0.038999617
105	0xbb85171d	-0.004061593
106	0xbe316554	-0.1732381
107	0x3daea84d	0.085281946
108	0x39f59cd1	0.0004684688
109	0x3ccfcd8a	0.025366563
110	0xbe2c20cd	-0.16809388
111	0xbd415947	-0.047204282
112	0xbc875983	-0.016522175
113	0x3e3b57d2	0.1829522
114	0x3e0701ad	0.13184233
115	0xbd834691	-0.06409944
116	0xbdb925b4	-0.090403944
117	0x3ca4709d	0.02007323
118	0xbd960ab5	-0.07326261
119	0x3d57da30	0.052698314
120	0x3b0873c2	0.002082095
121	0x3ce848de	0.028355058
122	0xbd832a41	-0.06404544
123	0xbc8b0e31	-0.01697454
124	0x3c930de5	0.017950961
125	0x3c706cca	0.014674375
126	0xbcbaa9dc	-0.022786073
127	0x3df0a76b	0.117506824
128	0xbe2ebf11	-0.17065074
129	0x3a66b7df	0.00088012026
130	0x3c195ebc	0.009360965
131	0xbcb5038f	-0.022096423
132	0x3dd82b07	0.10555082
133	0xbdba1fb2	-0.09088077
134	0x3ba515b4	0.0050379876
135	0xbd2f76f8	-0.042838067
136	0xbd74319d	-0.059617627
137	0xbafc5b15	-0.0019253219
138	0xbca86f23	-0.020560807
139	0x3d43c603	0.04779626
140	0xbd9d2626	-0.07673292
141	0xbca0174a	-0.019542355
142	0x3c8f42a9	0.01748784
143	0xbd7a6b66	-0.06113758
144	0xbdf61a2a	-0.12016709
145	0x3e26c565	0.16286238
146	0xbd5c6a2e	-0.0538122
147	0x3d2bd7b7	0.04195377
148	0xbda5f68f	-0.08103668
149	0x3c94e4d7	0.018175526
150	0x3d9c3452	0.07627167
151	0x3dbbedf7	0.091762476
152	0x3cc64f4d	0.024207735
153	0xbc6df170	-0.014522895
154	0x3d29d6b6	0.04146453
155	0x3da09a9e	0.07841991
156	0xbef0a61a	-0.47001725
157	0x3d9ae2ed	0.07562814
158	0xbb7ba2a2	-0.0038396497
159	0xbde9d8d8	-0.11418313
160	0xbdae3896	-0.08506887
161	0xbe6a7f85	-0.22900207
162	0x3dd783a7	0.105231576
163	0x3cd74eea	0.026282746
164	0x3db9f339	0.09079594
165	0x3bebe59e	0.0071990034
166	0xbde0a93d	-0.1096978
167	0x3d09c870	0.033638418
168	0x3b4be0c8	0.0031109322
169	0x3e66df9f	0.22546242
170	0x3d4625fc	0.04837607
171	0xbe7d4290	-0.24732423
172	0xbd796018	-0.060882658
173	0x3d1252cb	0.03572349
174	0xbebb5c17	-0.36593696
175	0xbe0e4157	-0.13892113
176	0x3cd1e6bf	0.025622724
177	0x3daa7845	0.08323721
178	0x3db675fe	0.08909224
179	0xbd4b077f	-0.049567696
180	0x3e5c1d58	0.21495569
181	0x3dbf8c20	0.093528986
182	0x3b3f7a95	0.0029217352
183	0xbd87f9a5	-0.06639413
184	0x3c5281a1	0.012848289
185	0xbdf2639d	-0.11835406
186	0xbdaa1e2d	-0.08306537
187	0x3d36957d	0.044576157
188	0xbe5ca538	-0.21547401
189	0xbd1e282a	-0.038612522
190	0x3eafac31	0.3431106
191	0x3cc93114	0.024559535
192	0xbd712bcd	-0.058879662
193	0xbdb7ea70	-0.08980262
194	0x3d96afe7	0.073577695
195	0xbd7c46ee	-0.06159108
196	0xbd549ae4	-0.051905528
197	0xbdd40933	-0.10353317
198	0xbd9895f7	-0.074504785
199	0x3cf2cc1c	0.029638343
200	0xbd35e2eb	-0.04440586
201	0xbd2cf05b	-0.04222141
202	0x3e067bc8	0.13133156
203	0xbb840edb	-0.004030091
204	0x3e77d653	0.24202852
205	0xbdb8eda0	-0.09029698
206	0x3d9f8fc0	0.0779109
207	0xbd3ec5a5	-0.046575207
208	0xbcb71ad3	-0.022351658
209	0x3e7186f7	0.23586641
210	0x3d3e83bd	0.046512354
211	0x3cefd6a4	0.029277153
212	0xbe2105f8	-0.15724933
213	0x3d53e031	0.051727477
214	0x3cd32b1f	0.025777398
215	0xbbbd1adf	-0.0057710255
216	0xbc59286a	-0.013254264
217	0x3ce11eb0	0.027480453
218	0x3c707f3e	0.014678774
219	0xbe09f2f7	-0.1347159
220	0x3d71e558	0.05905661
221	0xbe08218e	-0.1329405
222	0xbe6f1c1f	-0.23350571
223	0xbdd076fe	-0.10178946
224	0x3ccbb141	0.024864795
225	0x3d2b9b57	0.04189619
226	0x3d30bdb3	0.04314966
227	0xbda0223b	-0.07819029
228	0xbe73f922	-0.23825505
229	0x3dd61bcc	0.104545206
230	0xbe14317f	-0.14472006
231	0xbe1a617b	-0.15076248
232	0x3d864e9d	0.06557963
233	0xbcd37238	-0.0258113
234	0x3e2be30e	0.16785833
235	0xbcceb4e1	-0.025232734
236	0x3d9cf873	0.076645754
237	0xbe13be94	-0.14428169
238	0x3dff7d96	0.124751255
239	0x3d19b2ee	0.037524156
240	0x3d5516ec	0.052023813
241	0x3dce1a63	0.100636266
242	0x3d3afea0	0.045652986
243	0xbd06e5c9	-0.032933984
244	0x3cabc1f7	0.020966513
245	0x3e4bf418	0.19917333
246	0xbdef02af	-0.11670434
247	0xbd6a6afe	-0.057230942
248	0x3e47a475	0.19496329
249	0x3cd54395	0.026033202
250	0x3dacdf9b	0.08441087
251	0xbdab0058	-0.08349675
252	0xbe88fba2	-0.2675448
253	0x3ca88da4	0.020575352
254	0xbe88135e	-0.26577276
255	0xbdf1f5d9	-0.1181447

model.8.bias f4 [59]
0	0xbe01421d	-0.12622876
1	0xbde2035b	-0.11035796
2	0xbd891711	-0.06693853
3	0xbc245756	-0.010030588
4	0x3daa9f5a	0.08331175
5	0xbdc073ac	-0.09397063
6	0x3c8fac2d	0.017538154
7	0xbdd12d96	-0.10213773
8	0xbca61613	-0.020274198
9	0x3db7978f	0.089644544
10	0x3d2b5a12	0.041833945
11	0xbdb291e7	-0.08719235
12	0xbd140281	-0.0361352
13	0x3d83a151	0.06427253
14	0x3d3351d5	0.043779213
15	0x3d840761	0.0644672
16	0x3d443bcb	0.047908586
17	0x3d26718e	0.040635638
18	0xbd1bd1e0	-0.03804195
19	0x3d159875	0.036522347
20	0x3d78c353	0.06073315
21	0x3c79cf7d	0.015247223
22	0xbdafab47	-0.085775904
23	0xbdb7ab5d	-0.08968232
24	0xbb85caaa	-0.0040829973
25	0x3dca2fc9	0.098723955
26	0xbd5f0ee5	-0.054457564
27	0x3d3a6cc9	0.0455139
28	0xbc862006	-0.016372692
29	0xbd85af1b	-0.06527539
30	0xbd543fbd	-0.051818598
31	0xbd89a0f8	-0.067201555
32	0x3d8609ef	0.065448634
33	0x3cc6bf10	0.024261028
34	0xbdd9a0fe	-0.1062641
35	0x3d2e1d3e	0.042508356
36	0x3d406e28	0.046980053
37	0x3d893d86	0.06701188
38	0x3b25ce2b	0.0025299888
39	0x3cb2a77d	0.02180838
40	0x3d36ed71	0.044660036
41	0xbd3df712	-0.046378203
42	0x3da5942c	0.08084902
43	0x3d9e8ed8	0.07742089
44	0xbd45de7b	-0.048307877
45	0x3d13f83c	0.036125407
46	0xbcc5306a	-0.024070937
47	0xbd74a9ed	-0.059732366
48	0xbc8ee1ec	-0.017441712
49	0x3d500950	0.05079013
50	0xbd8b1712	-0.0679151
51	0xbd0da161	-0.03457773
52	0xbbe92ed2	-0.007116177
53	0xbc4fb8e9	-0.012678363
54	0x3dab20ec	0.08355889
55	0xbcbae2f8	-0.022813305
56	0x3d65405a	0.055969574
57	0xbca835f9	-0.020533549
58	0x3da6fbce	0.08153497

model.9.weight f4 [59]
0	0x3f8e91e9	1.1138278
1	0x3f88df25	1.0693098
2	0x3f8de92f	1.1086787
3	0x3f88ed10	1.0697346
4	0x3f8402e1	1.0313379
5	0x3f8f7adb	1.1209368
6	0x3f920c04	1.1409917
7	0x3f89de34	1.0770936
8	0x3f819b66	1.0125549
9	0x3f8d7f55	1.1054484
10	0x3f8ad5c9	1.0846492
11	0x3f98ddd8	1.1942701
12	0x3f9765e2	1.1827967
13	0x3f8b2298	1.0869932
14	0x3f8146a5	1.0099684
15	0x3f8a4653	1.0802711
16	0x3f940aaa	1.1565754
17	0x3fa05dcb	1.2528623
18	0x3f8b7044	1.0893636
19	0x3f9432ef	1.1578044
20	0x3f874faf	1.0571193
21	0x3f838f7f	1.0278167
22	0x3f92836d	1.1446358
23	0x3f839757	1.028056
24	0x3f8f46dc	1.11935
25	0x3f8abf5e	1.0839651
26	0x3f914b5b	1.1351122
27	0x3f965d24	1.1747174
28	0x3f8d84e9	1.1056186
29	0x3f8058cb	1.0027097
30	0x3f8b9943	1.0906147
31	0x3f860618	1.047061
32	0x3f91d85e	1.1394155
33	0x3f80e0f5	1.0068651
34	0x3f8b04ce	1.0860841
35	0x3f8f5224	1.1196942
36	0x3f8f59b4	1.119925
37	0x3f880600	1.0626831
38	0x3f792871	0.97327334
39	0x3f8a5506	1.0807197
40	0x3f90266b	1.1261724
41	0x3f84d049	1.0376064
42	0x3f9b036f	1.2110423
43	0x3f8a4091	1.0800954
44	0x3f90b1af	1.1304225
45	0x3f82daae	1.0222986
46	0x3f85d72c	1.045629
47	0x3f8e6fd3	1.1127876
48	0x3f915ce4	1.1356473
49	0x3f8a8235	1.0820986
50	0x3f7a87c0	0.9786339
51	0x3f82b8bd	1.0212628
52	0x3f836298	1.0264463
53	0x3f9528f5	1.1653124
54	0x3f895c5b	1.073131
55	0x3f9a035c	1.2032275
56	0x3f8fb2ac	1.1226401
57	0x3f8c3993	1.095507
58	0x3f820132	1.0156615

model.9.bias f4 [59]
0	0xbeed2b6e	-0.46322197
1	0xbe7eb09f	-0.24872063
2	0xbe851085	-0.25989166
3	0xbd3076d8	-0.04308209
4	0xbe24f270	-0.16108108
5	0xbeabfb5f	-0.33590218
6	0xbe3b8e2f	-0.18315957
7	0xbe3f1c03	-0.1866303
8	0xbe62b408	-0.22138989
9	0xbe0cbd94	-0.13744193
10	0xbe5b9729	-0.21444382
11	0xbe829c5e	-0.25509924
12	0xbe37b070	-0.179384
13	0xbe052385	-0.13001831
14	0xbe46c7b3	-0.19412117
15	0xbdcb8873	-0.09938135
16	0xbe99c811	-0.3003545
17	0xbe9f627b	-0.31129822
18	0xbea8342e	-0.3285231
19	0xbe59b0b8	-0.21258819
20	0xbec48873	-0.38385352
21	0xbeca1145	-0.394663
22	0xbd19bd87	-0.037534263
23	0xbe8d92e7	-0.2765114
24	0xbe5d2749	-0.21597017
25	0xbe41ae33	-0.18914108
26	0xbeaaf86a	-0.3339265
27	0xbe89dc46	-0.26925868
28	0xbeb9c77a	-0.36285
29	0xbd48e8b7	-0.04905006
30	0xbd40c856	-0.047066055
31	0xbe84500d	-0.25842324
32	0xbe871e1c	-0.2639016
33	0xbe4fd546	-0.20296201
34	0xbed0a0dd	-0.4074773
35	0xbe348155	-0.17627461
36	0xbea5f732	-0.32415158
37	0xbe84e0fb	-0.25952896
38	0xbe87618b	-0.26441607
39	0xbefe10bd	-0.49622145
40	0xbe3c38f1	-0.18381096
41	0xbeb73b9b	-0.35787663
42	0xbe8b3bc0	-0.27194023
43	0xbcf01412	-0.029306445
44	0xbcd452ea	-0.025918443
45	0xbe0ba485	-0.13636978
46	0xbe5ab6f6	-0.21358857
47	0xbe782ec1	-0.24236585
48	0xbeac48e8	-0.33649373
49	0xbe610495	-0.21974404
50	0xbe5b45be	-0.21413323
51	0xbe87fcbf	-0.26560017
52	0xbe2a21a9	-0.16614403
53	0xbdae317b	-0.085055314
54	0xbe7e06e8	-0.24807322
55	0xbebc72af	-0.36806247
56	0xbea6ab6d	-0.32552662
57	0xbdf7e527	-0.12104254
58	0xbe10b08d	-0.14129849

model.9.running_mean f4 [59]
0	0xbed471ca	-0.41493064
1	0xbe94d9a1	-0.29072288
2	0x3d0f5356	0.034991585
3	0xbeaa1a26	-0.33223075
4	0x3d9658b0	0.073411345
5	0xbe6a5581	-0.2288418
6	0xbec7be21	-0.39012244
7	0xbde26217	-0.110538654
8	0xbe8dc2f6	-0.27687806
9	0xbe874851	-0.2642236
10	0xbcf32dbe	-0.029684898
11	0x3a8368c9	0.0010025735
12	0xbdf37106	-0.11886792
13	0x3e674d90	0.22588181
14	0x3e1e02d3	0.15430765
15	0x3e804ecf	0.25060126
16	0xbe23a23b	-0.15979855
17	0xbcfc2ea3	-0.030783957
18	0xbe3d5184	-0.18488127
19	0xbe0d3488	-0.1378957
20	0xbd7460d0	-0.05966264
21	0x3d8b2d18	0.0679571
22	0xbebafe8f	-0.36522338
23	0xbeb88b98	-0.36044002
24	0xbe8e6d00	-0.27817535
25	0xbde6e5ff	-0.11274337
26	0xbd8e2bc4	-0.069419414
27	0xbdfa2eed	-0.12215982
28	0xbdb3fa4c	-0.08787975
29	0xbf0a164d	-0.5394028
30	0xbe5971b9	-0.21234788
31	0xbf060ee0	-0.5236645
32	0xbd979509	-0.07401473
33	0xbe5efef6	-0.21776947
34	0xbe80aaf4	-0.25130427
35	0xbeef1583	-0.466961
36	0xbe2dcbf4	-0.16972333
37	0xbe407508	-0.18794644
38	0xbe1e93e1	-0.15486099
39	0x3e0c6c87	0.13713275
40	0x3e40d515	0.18831284
41	0xbeaca53a	-0.33719808
42	0x3e0252f7	0.12726961
43	0x3df8cd56	0.1214854
44	0xbd9e56b1	-0.07731379
45	0x3bd09f46	0.006366643
46	0x3d246a9f	0.040140744
47	0xbead925d	-0.3390073
48	0xbdb55fdb	-0.088561736
49	0x3dee11e7	0.11624508
50	0xbda364d5	-0.079782166
51	0x3dc0f002	0.09420778
52	0xbed0e42f	-0.4079909
53	0xbe1b3a33	-0.1515892
54	0xbd8c25ff	-0.06843185
55	0xbd228f5b	-0.039687496
56	0xbe18422e	-0.14868996
57	0x3d9188b4	0.07106152
58	0xbeaa2e51	-0.33238462

model.9.running_var f4 [59]
0	0x3de17fb4	0.110106856
1	0x3dcd7bb4	0.1003336
2	0x3dd9533e	0.1061158
3	0x3dadd569	0.084879704
4	0x3dfe2af6	0.12410538
5	0x3dab137d	0.083533265
6	0x3da8aa2b	0.08235582
7	0x3dab8047	0.08374076
8	0x3db55586	0.08854203
9	0x3db08c56	0.08620517
10	0x3de520e7	0.11187916
11	0x3e0e1d52	0.13878372
12	0x3d87a1d1	0.06622661
13	0x3dcef580	0.10105419
14	0x3d9cbf8f	0.076537244
15	0x3db1af64	0.08676031
16	0x3dd4618a	0.103701666
17	0x3dc1133c	0.09427497
18	0x3dad086f	0.08448874
19	0x3dfc7b64	0.123282224
20	0x3dd20de5	0.102565564
21	0x3da9f252	0.08298172
22	0x3db360ef	0.08758723
23	0x3e0828a6	0.13296756
24	0x3de5f7a6	0.11228876
25	0x3d94d1e5	0.07266597
26	0x3da0ba3a	0.0784802
27	0x3dae8b98	0.08522719
28	0x3de8f1ce	0.113742456
29	0x3e59efc7	0.21282874
30	0x3e1643ea	0.14674345
31	0x3dc88aa9	0.09792072
32	0x3d96006a	0.07324298
33	0x3d853be9	0.065055676
34	0x3dbd5aa0	0.09245801
35	0x3da6c278	0.08142561
36	0x3dc64377	0.09680837
37	0x3dbcb52b	0.092142425
38	0x3d931eb6	0.07183592
39	0x3dcfb845	0.101425685
40	0x3e09ff5f	0.13476323
41	0x3d9c73cd	0.07639275
42	0x3df5a932	0.11995162
43	0x3db69efe	0.08917044
44	0x3db57992	0.08861078
45	0x3e018b1a	0.1265072
46	0x3daa0f96	0.08303754
47	0x3dc4ddb7	0.09612601
48	0x3da74eee	0.081693515
49	0x3d885408	0.06656653
50	0x3dd2b110	0.10287678
51	0x3da2a51d	0.07941649
52	0x3ddb7a56	0.10716693
53	0x3d98bb7f	0.07457637
54	0x3d99512e	0.07486187
55	0x3daa4aeb	0.08315071
56	0x3d71ea9c	0.05906163
57	0x3da49907	0.08037
58	0x3d8909e4	0.066913396
