foundation_models/Ensemble_model15_DeepSurv_LSTM_Event_2_20250805_000820.pt (torch, 577971 bytes, 13 tensors)

lstm_layers.0.weight_ih_l0 f4 [332, 11]
0	0xbdc80438	-0.0976643
1	0x3db2bb89	0.08727176
2	0x3d5731db	0.05253778
3	0x3e7d0892	0.247103
4	0x3e4babe7	0.19889794
5	0x3d55a89b	0.052162748
6	0xbd434a9d	-0.04767858
7	0xbe1c14d7	-0.15242325
8	0x3d90a5c8	0.0706287
9	0x3c2dad86	0.010600453
10	0x3e9636be	0.2933864
11	0x3beedac1	0.007289261
12	0xbad1331c	-0.0015960666
13	0xbe899615	-0.26872316
14	0x3eb9a7dc	0.3626088
15	0xbe2e8b02	-0.17045215
16	0x3d8bdfd6	0.06829803
17	0x3e152ea0	0.14568567
18	0xbe0aad1e	-0.13542601
19	0xbd88207b	-0.0664682
20	0xbe3ba3c4	-0.1832419
21	0xbe8e313f	-0.27771947
22	0x3e1eccc3	0.15507798
23	0x3cc72193	0.024308002
24	0xbeedadd8	-0.46421695
25	0x3dcc77b1	0.09983767
26	0xbeca4207	-0.395035
27	0xbd97de3e	-0.07415436
28	0xbe50349e	-0.20332572
29	0xbd5ce8df	-0.05393302
30	0xbca8dc81	-0.020612957
31	0x3d662837	0.056190696
32	0xbe4e9e5e	-0.201776
33	0x3d5f2322	0.054476865
34	0x3db437ef	0.08799731
35	0x3e11fbdb	0.14256231
36	0x3f33233c	0.6997564
37	0x3d82c77b	0.06385704
38	0xbe030a6d	-0.12796946
39	0x3d8bc308	0.06824309
40	0x3d73e9d8	0.059549183
41	0xbd821773	-0.06352129
42	0x3da03fb3	0.0782465
43	0xbe1d35ae	-0.15352508
44	0xbd9f7fd8	-0.07788056
45	0x3ceab316	0.028649848
46	0xbea66e23	-0.32505903
47	0x3d3f6190	0.046723902
48	0xbe89b94f	-0.26899192
49	0x3dd58371	0.10425461
50	0x3d9af1c7	0.075656466
51	0x3d224cbb	0.039623957
52	0x3cf28c66	0.029607963
53	0x3bc42147	0.0059854123
54	0x3e3ae4c5	0.18251331
55	0xbe209f62	-0.156858
56	0xbd411f19	-0.047148798
57	0xbe9b3ea5	-0.3032123
58	0xbd343851	-0.04399902
59	0xbdd2632c	-0.10272822
60	0xbe539770	-0.20663238
61	0xbe8d0f14	-0.27550566
62	0xbd4deea9	-0.050276432
63	0xbe46e76c	-0.19424218
64	0xbe1e5197	-0.15460812
65	0xbe1878d8	-0.14889848
66	0xbc47ea2a	-0.012201825
67	0xbc419663	-0.01181564
68	0xbe13af91	-0.14422442
69	0xbd826d80	-0.06368542
70	0x3d236bd9	0.039897773
71	0xbcb411c4	-0.021981128
72	0xbe1bc543	-0.15211968
73	0x3da5fc0c	0.08104715
74	0xbd375372	-0.044757314
75	0x3d2f374e	0.042777352
76	0x3cbedff0	0.023300141
77	0xbe4e2ebb	-0.20135014
78	0xbd2dbdb0	-0.04241723
79	0x3e8e710a	0.27820617
80	0x3eaa7f12	0.33300072
81	0x3dd1d717	0.10246103
82	0x3e69be7e	0.22826573
83	0x3e02fb0c	0.1279108
84	0x3dd1ca9f	0.10243725
85	0x3d55fa7b	0.05224083
86	0xbbd1779f	-0.006392434
87	0xbebf5893	-0.37372264
88	0xbe0ac119	-0.13550223
89	0x3cf0e466	0.029405784
90	0x3dc9fcde	0.09862684
91	0x3f58ab7e	0.84636676
92	0xbec84520	-0.39115238
93	0xbd89e109	-0.06732375
94	0xbd8195cf	-0.06327402
95	0x3dd11e66	0.10210876
96	0xbe19293c	-0.14957136
97	0xbd9a061b	-0.07520696
98	0x3e051abf	0.12998484
99	0xbe2615ca	-0.1621925
100	0xbd55b675	-0.052175958
101	0x3da9739a	0.082740024
102	0xbe55f1c6	-0.2089301
103	0xbe496f29	-0.1967131
104	0xbd1eded9	-0.038786743
105	0xbd9e30b4	-0.07724133
106	0xbd9028b2	-0.07039012
107	0xbe44d706	-0.1922265
108	0xbcd94dea	-0.02652641
109	0xbe2eb6ef	-0.17061971
110	0x3ea5a4f2	0.32352406
111	0x3db45f72	0.08807267
112	0x3d7528c8	0.059853345
113	0x3ecb67ed	0.39727727
114	0xbdc8ccc4	-0.09804681
115	0xbde37be1	-0.111076124
116	0x3d3432d0	0.04399377
117	0x3c494c94	0.012286324
118	0xbce7f4fa	-0.028315056
119	0xbf1e0836	-0.6173128
120	0xbdb998be	-0.090623364
121	0x3d808c2c	0.06276736
122	0xbe0b5fa9	-0.1361071
123	0xbda73cb4	-0.08165875
124	0x3efc7c09	0.4931338
125	0xbec9be1a	-0.39402848
126	0xbe1d973e	-0.15389726
127	0xbc4d108b	-0.012516151
128	0xbdd6fb63	-0.10497167
129	0xbd98a236	-0.07452814
130	0xbc1c2647	-0.00953061
131	0xbe49ccc0	-0.19707012
132	0xbcf912bc	-0.030404441
133	0xbe0deb8c	-0.13859385
134	0xbe8be82c	-0.2732557
135	0x3c8ffd3d	0.017576808
136	0xbe363868	-0.17794955
137	0xbe4d7884	-0.20065504
138	0xbe374dd0	-0.17900777
139	0xbdd21284	-0.10257438
140	0xbd8d0995	-0.06886593
141	0xbdb61ee9	-0.088926144
142	0x3ce27842	0.027645234
143	0xbe19d1a9	-0.15021385
144	0xbe57ab57	-0.21061455
145	0xbe228739	-0.15871896
146	0xbec351e6	-0.3814842
147	0xbe014ed1	-0.12627722
148	0xbe004035	-0.12524493
149	0xbe2d3dd6	-0.1691812
150	0xbdb12f3e	-0.08651589
151	0xbe0edbaa	-0.13950983
152	0xbd94ed09	-0.07271773
153	0xba0b9cf0	-0.0005325815
154	0xbcd71896	-0.02625684
155	0xbe0f4e6c	-0.1399476
156	0xbec46a30	-0.38362265
157	0xbd9dcc99	-0.077050395
158	0xbc786c99	-0.01516261
159	0xbd656e4c	-0.05601339
160	0x3c307eef	0.010772451
161	0x3de1affe	0.11019896
162	0x3be4b337	0.006979372
163	0x3ec5f6ea	0.38664943
164	0x3d74ca62	0.05976332
165	0x3cc108e4	0.02356381
166	0xbe0d5842	-0.13803199
167	0xbed40523	-0.4141017
168	0x3b69ca8b	0.0035673704
169	0xbed018f6	-0.40644044
170	0xbddc4961	-0.107561834
171	0xbe785c55	-0.24253972
172	0xbe5eaf8f	-0.21746658
173	0xbbcee7c0	-0.006314248
174	0xbda7db6a	-0.08196147
175	0x3e100841	0.14065649
176	0x3e172e2f	0.14763711
177	0xbb1bb3c8	-0.002375828
178	0xbcff5b4c	-0.031171463
179	0x3e794179	0.24341382
180	0xbe6653b6	-0.2249287
181	0x3d582190	0.052766383
182	0x3e1aa3b7	0.15101515
183	0xbe300d87	-0.1719266
184	0x3d98677c	0.07441613
185	0x3d5be627	0.053686287
186	0xbebb267b	-0.36552796
187	0xbe70f17b	-0.23529617
188	0xbc2fed50	-0.010737732
189	0xbdb31fae	-0.08746277
190	0xbf17c1f9	-0.59280354
191	0xbdf2ffb4	-0.11865178
192	0xbd9fa879	-0.077958055
193	0xbe5454c1	-0.20735456
194	0x3d3aa1ae	0.045564346
195	0x3d24f5a0	0.04027331
196	0x3cbae535	0.022814373
197	0xbe6d3f1c	-0.23168606
198	0xbe4599e4	-0.19296986
199	0x3d18b091	0.03727776
200	0x3e387dd6	0.18016753
201	0x3e8c3841	0.27386668
202	0xbdecaa77	-0.11555951
203	0x3df25040	0.11831713
204	0x3db8c47c	0.090218514
205	0xbd09f6a2	-0.033682473
206	0xbdb22664	-0.08698729
207	0x3e8dae9d	0.27672282
208	0xbe5218c6	-0.20517263
209	0xbdc0ca29	-0.09413559
210	0x3d7f6f6a	0.062362112
211	0xbe9aafa2	-0.30212122
212	0xbda17140	-0.07882929
213	0xbc7191cb	-0.014744232
214	0xbccda8df	-0.025104938
215	0x3bc5e011	0.0060386737
216	0x3dc3bbb4	0.09557286
217	0x3be9bf84	0.007133426
218	0x3e348be5	0.1763149
219	0xbe0f6f8e	-0.14007398
220	0xbe851acc	-0.25997007
221	0xbd89dd0f	-0.06731617
222	0xbe1e0f52	-0.15435532
223	0x3ed184b6	0.40921563
224	0xbd4490b3	-0.04798956
225	0xbe68f04e	-0.22747919
226	0x3d88abeb	0.06673416
227	0xbe11fbae	-0.14256164
228	0x3b11a5ad	0.0022223995
229	0x3b2ed14a	0.002667504
230	0xbd56a94d	-0.05240755
231	0xbde7964a	-0.11307962
232	0x3d20d18c	0.03926234
233	0xbd1be921	-0.038064126
234	0x3f3e3c51	0.74310786
235	0xbdfe5524	-0.12418583
236	0xbcf98547	-0.03045906
237	0x3dc57db8	0.096431196
238	0x3e1734a9	0.14766182
239	0xbd0e890c	-0.034798667
240	0xbad06545	-0.0015899321
241	0xbda2656e	-0.079295024
242	0xbc9caca5	-0.019125292
243	0xbe52fac0	-0.20603466
244	0xbe1291d5	-0.14313443
245	0x3eb17588	0.34659982
246	0xbd5570a5	-0.05210938
247	0xbd440696	-0.047857843
248	0xbe13e503	-0.1444283
249	0xbe2d92e3	-0.16950564
250	0xbd38c096	-0.04510554
251	0x3d02834b	0.031863492
252	0xbe8e6d81	-0.2781792
253	0x3ee2da38	0.44307113
254	0x3e43f575	0.19136603
255	0x3e9297c1	0.28631404

lstm_layers.0.weight_hh_l0 f4 [332, 83]
0	0x3e7827b9	0.24233903
1	0x3e895c5d	0.2682828
2	0xbdbae6e2	-0.09126069
3	0xbd7ef90b	-0.062249225
4	0x3dfaf803	0.12254336
5	0xbe22f837	-0.15914999
6	0x3d12c69c	0.03583394
7	0xbbb9d88a	-0.0056715654
8	0xbd4cb01f	-0.04997265
9	0xbdd4bb5c	-0.103872985
10	0xbe194987	-0.14969455
11	0x3e8f72da	0.28017312
12	0xbe6d3dc1	-0.23168088
13	0xbd4bee4a	-0.049787797
14	0xbd4033ec	-0.046924517
15	0x3e29afb0	0.16570926
16	0xbdedd01c	-0.11611959
17	0x3e81fec3	0.2538968
18	0xbe68d148	-0.22736084
19	0xbd25945a	-0.040424682
20	0xbd7eb498	-0.062183946
21	0x3bc9e06a	0.0061607854
22	0xbdb962ca	-0.09052046
23	0x3ebb14c4	0.3653928
24	0x3e184806	0.14871225
25	0x3c1f791e	0.009733466
26	0x3d13d01b	0.036087137
27	0xbe338d32	-0.1753433
28	0xbeb921b2	-0.3615852
29	0xbebd5e93	-0.36986217
30	0xbdb238d5	-0.08702246
31	0x3c81a5fc	0.015826218
32	0x3e377b38	0.17918098
33	0x3da47ed4	0.08032003
34	0xbb87f469	-0.004149009
35	0xbe1eff05	-0.1552697
36	0xbd7083de	-0.05871951
37	0x3e0611ef	0.13092779
38	0x3bfeda07	0.0077774557
39	0x3c9c3d10	0.019072086
40	0xbe0084a5	-0.125506
41	0x3e15507e	0.14581487
42	0xbcf1c9a2	-0.029515091
43	0x3e1793af	0.1480243
44	0x3f0b44d8	0.5440192
45	0xbdcdc547	-0.10047393
46	0xbe146b72	-0.14494112
47	0x3e924acf	0.285727
48	0x3e02b0cb	0.12762754
49	0x3dc0d15b	0.094149314
50	0xbe6e06b0	-0.23244739
51	0xbdcc7e93	-0.099850796
52	0xbc1dfe9d	-0.009643224
53	0xbe7624f9	-0.24037541
54	0x3e14b9a4	0.14523941
55	0x3e28d1bf	0.16486262
56	0x3d7363e1	0.059421424
57	0x3eccca42	0.3999806
58	0x3bf33bf7	0.00742292
59	0x3e9652c9	0.29360035
60	0x3bb61604	0.0055568237
61	0x3dad8742	0.08473064
62	0x3d942e5c	0.07235405
63	0xbcb60f00	-0.02222395
64	0x3eb7cc6d	0.35898152
65	0x3db19c7e	0.08672427
66	0xbdaf4b49	-0.085592814
67	0xbd78fa45	-0.06078555
68	0x3e66915b	0.22516386
69	0xbdf7bb6d	-0.120962955
70	0x3da202ed	0.07910714
71	0x3db089db	0.08620044
72	0x3dde8998	0.10866088
73	0x3e8fca6c	0.28084123
74	0xbd354976	-0.04425951
75	0x3e8eb0ee	0.27869362
76	0x3ec4c556	0.38431805
77	0x3e957d1d	0.29197016
78	0x3e867a9c	0.2626542
79	0x3d9434ec	0.072366565
80	0x3e1578d5	0.14596875
81	0xbd86a86d	-0.065750934
82	0xbca846e2	-0.020541612
83	0x3ea28924	0.31745255
84	0xbdc5b8dc	-0.096544
85	0xbe135611	-0.143883
86	0xbdf4b8ce	-0.11949311
87	0xbd4f3412	-0.050586767
88	0x3d8d4e94	0.06899753
89	0x3dc2d859	0.09513921
90	0x3dc7cf69	0.09756357
91	0xbdcab6ac	-0.09898123
92	0x3e2da569	0.1695763
93	0xbcb16b73	-0.021657681
94	0x3d9e7d5e	0.07738756
95	0x3c93047e	0.017946478
96	0xbe320d0e	-0.17387792
97	0xbe0e7bec	-0.1391446
98	0x3e34b069	0.1764542
99	0x3d9a8966	0.07545738
100	0x3e005671	0.12532975
101	0xbcd5cefc	-0.026099674
102	0xbe5f395f	-0.21799229
103	0x3bfb3789	0.0076665324
104	0x3dc4b26e	0.09604345
105	0x3ca5e176	0.02024911
106	0xbd41ce7a	-0.047316052
107	0xbc6a8b37	-0.014315418
108	0xbd4b2d44	-0.049603716
109	0xbe80037d	-0.2500266
110	0x3e48e2f5	0.19617827
111	0x3d598089	0.053101096
112	0xbdcef3d5	-0.10105101
113	0x3b910b64	0.0044264067
114	0x3c8f1491	0.017465862
115	0x3c9e8d68	0.019354537
116	0x3e3e44ac	0.18580884
117	0xbc9a5c72	-0.01884291
118	0xbb98fc50	-0.00466875
119	0xbd90399a	-0.070422366
120	0x3de565ff	0.11201095
121	0xbe49ee71	-0.19719864
122	0xbdd13d47	-0.10216766
123	0xbd120c5f	-0.03565633
124	0x3cbac237	0.022797687
125	0x3e916835	0.28399816
126	0xbcccd9d9	-0.025006222
127	0x3cc9c8e5	0.024631927
128	0x3e329f45	0.17443569
129	0xbd77f5c1	-0.060537104
130	0x3d864b9f	0.06557392
131	0x3d14e2ee	0.03634923
132	0x3e3a1a55	0.18174107
133	0x3ddf9185	0.109164275
134	0x3e1f8252	0.15577057
135	0xbe8929f6	-0.26789826
136	0x3dff28d6	0.12458961
137	0x3e08dac9	0.1336471
138	0x3e1d7d0b	0.15379731
139	0xbdee7752	-0.11643852
140	0x3ea5a7f6	0.32354707
141	0xbdc0950d	-0.09403429
142	0x3e5a9111	0.21344401
143	0x3dafba95	0.085805096
144	0x3d6d0d1f	0.05787384
145	0xbab5e9e5	-0.001387891
146	0xbb42607e	-0.0029659565
147	0x3d089577	0.033345666
148	0x3bf2e337	0.00741234
149	0x3df2821c	0.11841223
150	0x3e5b13df	0.21394299
151	0xbdc5aaf7	-0.096517496
152	0x3e34f865	0.1767288
153	0xbe273c92	-0.163317
154	0x3d783334	0.060595706
155	0xbe2348b1	-0.15945698
156	0xbe00833a	-0.12550059
157	0x3c1802e3	0.009278032
158	0xbe2d9607	-0.16951762
159	0x3d3c5858	0.04598269
160	0x3e325283	0.17414288
161	0x3e0ea606	0.1393052
162	0xbe7c2e07	-0.24626933
163	0x3da44641	0.08021212
164	0xbe3f401c	-0.186768
165	0x3e90a442	0.2825032
166	0xbe040d2c	-0.1289565
167	0xbe356bf4	-0.17716962
168	0xbe859c77	-0.26095936
169	0x3e6198ff	0.2203102
170	0xb9df221a	-0.00042559282
171	0xbdc42753	-0.09577813
172	0x3df2a96d	0.11848722
173	0xbe47e7f6	-0.1952208
174	0xbccffc22	-0.025388781
175	0x3d0bcb91	0.034129683
176	0x3d8cdfd1	0.06878627
177	0xbe1d2005	-0.15344246
178	0xbe069dcb	-0.1314613
179	0xbe33a28b	-0.17542474
180	0xbe9c52be	-0.30531877
181	0x3d95f36c	0.0732182
182	0x3de92e27	0.11385756
183	0x3d3749d6	0.04474815
184	0x3e01c342	0.12672141
185	0xbe66b699	-0.22530593
186	0x3d97558a	0.07389362
187	0x3d7316d3	0.05934794
188	0xbe24452d	-0.16042013
189	0x3d76e951	0.0602811
190	0x3e7e1ecf	0.2481644
191	0xbe0f45c1	-0.13991453
192	0xbdc0314a	-0.09384401
193	0xbd56fb3f	-0.0524857
194	0x3b2595a6	0.00252662
195	0x3debeece	0.11520158
196	0x3ca07f1b	0.019591859
197	0x3d47b928	0.048760563
198	0x3e0da615	0.13832887
199	0x3ddbb202	0.10727312
200	0xbcbad2a4	-0.02280552
201	0xbe9be07d	-0.30444708
202	0x3c051738	0.008123212
203	0x3e18654b	0.1488239
204	0xbdbe79c6	-0.0930057
205	0xbd438fab	-0.047744434
206	0xbe2e43b7	-0.17018019
207	0xbd26c466	-0.040714644
208	0xbd9aff73	-0.07568254
209	0x3dda0ad4	0.106465966
210	0x3dd68da6	0.10476236
211	0xbd97249e	-0.07380031
212	0x3d061742	0.032737024
213	0x3d4bd272	0.049761243
214	0xbe0974ef	-0.13423513
215	0x3d542f29	0.051802788
216	0x3c7cbbc0	0.015425622
217	0x3b8afb77	0.0042414027
218	0x3dc4163c	0.09574553
219	0x3df9ff13	0.12206855
220	0x3e42096f	0.18948911
221	0x3e3a08c9	0.18167414
222	0x3cdc81cf	0.026917366
223	0xbd197fe5	-0.037475485
224	0x3d1ed262	0.038774855
225	0x3d989fea	0.07452376
226	0xbc9f58d4	-0.019451536
227	0x3e53ceef	0.20684408
228	0xbd8003dc	-0.06250736
229	0xbe11e691	-0.1424811
230	0x3d7f9ac6	0.062403463
231	0xbda16108	-0.07879835
232	0xbd86fc59	-0.065911
233	0x3e12d7f3	0.1434019
234	0x3ccae78d	0.024768615
235	0x3df66630	0.120312095
236	0xbd5b630e	-0.053561263
237	0x3eab82ef	0.33498332
238	0xbc9e7323	-0.01934201
239	0xbec3572c	-0.38152444
240	0xbe144c05	-0.14482124
241	0xbd8104b3	-0.062997244
242	0xbe3191e6	-0.17340812
243	0x3df2f3ac	0.11862883
244	0xbe1c6152	-0.152715
245	0xbc322ccc	-0.010874938
246	0xbc421f26	-0.011848247
247	0x3d9c50ad	0.07632575
248	0xbe3446a6	-0.17605075
249	0x3e1ae6f8	0.1512717
250	0x3e3874b5	0.1801327
251	0x3e82b75c	0.25530517
252	0xbc587e5a	-0.013213718
253	0x3e8d0818	0.27545238
254	0xbc30fab4	-0.01080196
255	0xbe392e9c	-0.18084186

lstm_layers.0.bias_ih_l0 f4 [332]
0	0x3dd012e2	0.101598516
1	0x3d910804	0.07081607
2	0xbc5ab540	-0.013348877
3	0xbc05ed42	-0.008174242
4	0xbc88ff97	-0.016723437
5	0xbe066e22	-0.1312795
6	0xbd9dd3ae	-0.0770639
7	0xbdd991f3	-0.10623541
8	0xbe06b4bc	-0.13154882
9	0xbe52e1b5	-0.20593913
10	0x3c8773a2	0.01653463
11	0xbdeefca9	-0.11669285
12	0xbc3054d7	-0.010762415
13	0xbdc686eb	-0.09693702
14	0xbdd3ec85	-0.10347847
15	0xbd54bf54	-0.051940277
16	0xbd8c2757	-0.06843441
17	0x3d084b7c	0.033275113
18	0xbd90c80d	-0.07069407
19	0x3d0ecf44	0.034865633
20	0xbd87a56e	-0.0662335
21	0x3b646b5a	0.0034854026
22	0xbb7a4040	-0.0038185269
23	0x3e2c438f	0.16822647
24	0xbd8537d1	-0.06504787
25	0xbd895969	-0.06706507
26	0xbc3becfb	-0.011470075
27	0xbc900a43	-0.017583018
28	0xbd0fc8ec	-0.035103723
29	0x3a9a20af	0.0011759008
30	0xbe96ebe8	-0.29476857
31	0xbdcf5e51	-0.10125411
32	0xbde2a55c	-0.11066696
33	0xbee8440c	-0.45364416
34	0xbe1efaf2	-0.15525416
35	0x3e04e2a7	0.12977086
36	0xbe44ebba	-0.19230548
37	0x3d1c3dd2	0.038144894
38	0xbe323861	-0.1740432
39	0xbddc8d72	-0.10769166
40	0xbea08dbb	-0.31358132
41	0xbe4c7786	-0.1996747
42	0xbe16a2db	-0.14710562
43	0xbe435255	-0.19074376
44	0x3d404905	0.046944637
45	0xbe0d1e45	-0.13781078
46	0xbe3308bb	-0.17483799
47	0x3e13f267	0.14447938
48	0xbcb3e716	-0.021960776
49	0xbdec75b3	-0.11545887
50	0x3e543af8	0.2072562
51	0x3b866d31	0.004102372
52	0xbd9d2d5f	-0.076746695
53	0x3da249c6	0.079242274
54	0x3db76a1e	0.08955787
55	0xbc3fd8dc	-0.011709418
56	0x3d03d6d2	0.03218729
57	0x3e2cf6f3	0.16891079
58	0xbe32e288	-0.17469227
59	0xbda52c55	-0.08065096
60	0xbe694a0a	-0.2278215
61	0x3c15dfdb	0.00914761
62	0x3cb3d094	0.021950044
63	0xbe3c18e8	-0.18368876
64	0xbd14fddf	-0.036374923
65	0x3c180aea	0.009279946
66	0x3a4b6d8c	0.0007760159
67	0xbc206ab0	-0.009791061
68	0xbe24f051	-0.16107298
69	0x3d996674	0.074902445
70	0x3df99eb7	0.121884756
71	0x3b5b4863	0.0033459894
72	0xbe12b9d3	-0.14328699
73	0x3bc35b00	0.005961776
74	0xbe94cf0e	-0.2906422
75	0x3d968229	0.07349045
76	0x3dd9043b	0.1059651
77	0xbda77976	-0.08177464
78	0x3d141bc3	0.03615929
79	0xbd882cfc	-0.06649205
80	0xbd7ecf9f	-0.06220972
81	0x3e31d99a	0.17368165
82	0x3bae9629	0.005327959
83	0xbd8916af	-0.0669378
84	0xbe479ca2	-0.19493344
85	0x3bb24512	0.0054403627
86	0xbe65f6a9	-0.22457375
87	0xbd98c59c	-0.07459566
88	0xbdea793f	-0.11448907
89	0x3da2c373	0.07947435
90	0xbead3db8	-0.3383615
91	0xbd037f1b	-0.03210364
92	0xbdc933c0	-0.09824324
93	0xbeaf5e9d	-0.34251872
94	0xbe45b610	-0.19307733
95	0xbd938e45	-0.0720487
96	0xbe8d2027	-0.27563593
97	0x3dc85aed	0.09782968
98	0x3ddf8066	0.10913162
99	0xbeb24fdf	-0.34826562
100	0x3e9e0372	0.30862004
101	0xbd94d340	-0.07266855
102	0x3e2a2d48	0.16618836
103	0xbe5ad6fe	-0.21371076
104	0xbd5a0866	-0.053230666
105	0xbdb4a2e4	-0.088201314
106	0xbe222e2a	-0.15837923
107	0x3e29bd56	0.16576132
108	0xbeb0cd50	-0.3453164
109	0x3cded888	0.02720286
110	0xbe0ff88c	-0.14059657
111	0xbe6ddbb7	-0.23228346
112	0xbe9f59d0	-0.3112321
113	0xbdd7e170	-0.10541046
114	0xbe64d512	-0.22346905
115	0x3e6f3f5b	0.23364012
116	0xbed865c3	-0.42265138
117	0xbd40cd27	-0.04707065
118	0x3e821600	0.2540741
119	0xbd7afb7e	-0.061274998
120	0xbe08304f	-0.13299678
121	0xbcf08832	-0.029361818
122	0xbbdb8975	-0.0066997358
123	0xbed996e7	-0.42497942
124	0xbe1e6db6	-0.15471539
125	0x3dfe0ce0	0.124047995
126	0xbd1d68b2	-0.038429923
127	0xbcb84e9e	-0.022498425
128	0x3d7b5889	0.06136373
129	0xbe30fe48	-0.172845
130	0xbe42d819	-0.19027747
131	0xbe9d1c06	-0.30685443
132	0xbe0d78d7	-0.13815628
133	0xbe0b2f0c	-0.13592166
134	0x3d9f3c55	0.07775179
135	0xbdbe9b4b	-0.093069635
136	0xbe60aa95	-0.21940072
137	0x3d4cd140	0.050004244
138	0xbdd315d2	-0.10306896
139	0xbea5e786	-0.324032
140	0x3dd29ad3	0.102834366
141	0xbeb727c5	-0.3577253
142	0x3c28120e	0.010258211
143	0xbde4ed4b	-0.111780725
144	0xbc887f8c	-0.016662382
145	0xbea1312a	-0.31482822
146	0xbe5d0e63	-0.2158752
147	0xbe26ff65	-0.16308363
148	0xbea1fec2	-0.31639677
149	0xbe3b502b	-0.182923
150	0xbc803d8d	-0.01565435
151	0x3d87fc47	0.06639915
152	0xbebc1755	-0.3673655
153	0xbe039220	-0.12848711
154	0x3de6a5c8	0.11262089
155	0xbe671c4b	-0.22569387
156	0x3d7fd23b	0.06245635
157	0x3d594431	0.053043548
158	0xbe8ff93f	-0.28119847
159	0xbee313d0	-0.44351053
160	0xbe4760b0	-0.19470477
161	0xbe57ec6e	-0.21086285
162	0xbe0aab34	-0.13541871
163	0xbe27d3bb	-0.16389363
164	0xbdd3f857	-0.103501014
165	0xbd9bf89c	-0.07615778
166	0x3d6f129f	0.058367368
167	0xbe26b1ee	-0.16278812
168	0x3c951328	0.018197611
169	0xbe00979b	-0.12557833
170	0xbdc251b5	-0.09488241
171	0xbd9641db	-0.0733678
172	0x3cd40cea	0.025885064
173	0x3d6228aa	0.05521456
174	0xbd9d8d93	-0.07693019
175	0x3da988a9	0.08278019
176	0xbd529a83	-0.051416885
177	0xbd52006c	-0.051269934
178	0x3d2a0c32	0.041515537
179	0x3ced4071	0.028961392
180	0x3dbcaba8	0.09212428
181	0xbdd28f20	-0.10281205
182	0x3c18e489	0.009331831
183	0xbc5dd7a3	-0.013540181
184	0xbdd119b3	-0.1020998
185	0x3c24dd70	0.01006256
186	0xbc99da6b	-0.018780908
187	0x3d8e2ff3	0.06942739
188	0x3cfdd171	0.030983659
189	0xbdd94691	-0.106091626
190	0xbb30130f	-0.0026866829
191	0xbc1f2da1	-0.009715469
192	0xbd02c223	-0.031923424
193	0x3d9a3c34	0.07531014
194	0x3c5ce494	0.013482232
195	0x3cad7810	0.021175414
196	0x3d7d11df	0.06178462
197	0xbdd663ad	-0.104682304
198	0x3dc03715	0.09385506
199	0x3baea7f0	0.0053300783
200	0xbcb0e3bc	-0.021592967
201	0x3db69919	0.0891592
202	0x3da7d59b	0.08195039
203	0x3d01b6be	0.031668417
204	0x3e06857e	0.1313686
205	0x3c6b630a	0.0143668745
206	0x3db69ec9	0.089170046
207	0xbe0ea21c	-0.13929027
208	0x3daf5df1	0.0856284
209	0xbda3ac50	-0.079918504
210	0xbe867d9e	-0.26267713
211	0x3e0dc642	0.1384516
212	0xbc90fe5c	-0.017699413
213	0xbdb217bb	-0.086959325
214	0xbd377349	-0.04478768
215	0xbcb01a20	-0.021496832
216	0x3e0a0031	0.13476636
217	0xbcbe36c8	-0.023219481
218	0xbd7d819d	-0.061891187
219	0xbce21ef1	-0.027602645
220	0xbe220628	-0.15822661
221	0xbd3edefd	-0.046599377
222	0x3dd88c7f	0.105736725
223	0xbde71800	-0.112838745
224	0xbd807ab2	-0.06273402
225	0x3e301884	0.17196852
226	0x3d3ad188	0.04560998
227	0xbbfb9960	-0.007678196
228	0xbd7ae139	-0.061249945
229	0xbb48903b	-0.0030603546
230	0x3c9b9cc1	0.018995645
231	0xbdf372b2	-0.11887111
232	0xbbe2c321	-0.006920234
233	0xbde6662b	-0.11249956
234	0x3da72550	0.08161414
235	0x3ddcd796	0.10783307
236	0x3e573049	0.21014513
237	0xbdf4c830	-0.11952245
238	0xbc970b11	-0.018437894
239	0xbe1cc293	-0.15308599
240	0x3ddd8bbb	0.10817667
241	0xbde148fb	-0.11000248
242	0xbd925682	-0.07145406
243	0xbe334773	-0.17507724
244	0x3cc49614	0.023997344
245	0xbc9e2805	-0.019306192
246	0x389fc8fe	7.6191485e-05
247	0xbdb350a4	-0.08755615
248	0x3e170127	0.14746533
249	0x3deb87cb	0.1150051
250	0x3ddcafde	0.107757315
251	0xbccc63b2	-0.024949882
252	0xbe1cf307	-0.15327083
253	0xbb4b1ca1	-0.0030992406
254	0xbe9c6bcd	-0.30550995
255	0x3cebf8aa	0.028805096

lstm_layers.0.bias_hh_l0 f4 [332]
0	0x3e119796	0.14217982
1	0xbb16d12c	-0.002301286
2	0x3e01ee3f	0.1268854
3	0xbd0dfacb	-0.034663003
4	0xbabbb583	-0.0014321062
5	0xbe033e6b	-0.1281678
6	0xbd4b2081	-0.049591545
7	0x3d2a6cef	0.041607793
8	0xbd5f3797	-0.054496374
9	0xbe0f8943	-0.14017205
10	0xbd66ca20	-0.056345105
11	0xbc83eb74	-0.016103484
12	0xbc18fdf6	-0.009337893
13	0xbe242180	-0.16028404
14	0x3caf145a	0.02137201
15	0xbe3a3d7b	-0.18187515
16	0xbc1d427e	-0.0095983725
17	0xbdfb34dc	-0.122659415
18	0xbc59b780	-0.013288379
19	0xbd94884b	-0.07252558
20	0xbde2d1ec	-0.11075196
21	0xbdf64849	-0.12025506
22	0x3d490b2a	0.049082913
23	0x3e3ee247	0.18641005
24	0x3d4ea2ef	0.050448354
25	0xbe45b48d	-0.19307156
26	0x3d4af3b5	0.049548823
27	0xbded38ba	-0.11583085
28	0xbdbcc09b	-0.09216424
29	0x3e008f6f	0.12554716
30	0xbe143f56	-0.14477286
31	0xbe5f3958	-0.21799219
32	0xbd893ce2	-0.067010656
33	0xbebc35a0	-0.36759663
34	0x3c6f0f1f	0.0145910075
35	0x3df1231b	0.11774274
36	0xbc3907e6	-0.011293387
37	0x3d7ee5ba	0.062230803
38	0xbd9000e6	-0.07031421
39	0xbd647e3b	-0.055784445
40	0xbedfcaec	-0.43709505
41	0xbdebce06	-0.11513905
42	0xbd7c0997	-0.061532583
43	0xbd803ddc	-0.06261799
44	0x3d04147d	0.0322461
45	0xbc22f9fe	-0.009947298
46	0xbcfde63a	-0.03099357
47	0x3e2282db	0.1587023
48	0x3e2a9705	0.16659172
49	0x3b939c99	0.004504752
50	0x3e511a5a	0.20420209
51	0x3d14b8c5	0.036309022
52	0xbd1fa0e0	-0.03897178
53	0x3e11bde1	0.1423259
54	0xbbeeec36	-0.007291342
55	0xbd5005e2	-0.05078686
56	0xbd1c6677	-0.038183656
57	0x3c11b081	0.0088921795
58	0xbdda96ad	-0.106732704
59	0xbd596b5c	-0.0530809
60	0xbeb46583	-0.35233697
61	0xbd5b0754	-0.053473786
62	0xbe17bd5e	-0.14818332
63	0xbe8cd0fb	-0.2750319
64	0x3df99d1e	0.12188171
65	0x3cdaf7a0	0.026729405
66	0x3bbadd91	0.0057026823
67	0xbdbaca95	-0.09120671
68	0xbd2a25ae	-0.04153984
69	0xbd223ea0	-0.039610505
70	0x3e3348b1	0.17508198
71	0x3e147fa4	0.14501816
72	0xbd896b39	-0.06709904
73	0xbd83b4b2	-0.06430949
74	0xbe5b5ea8	-0.21422827
75	0x3c97f649	0.018550055
76	0x3dbd25c3	0.09235718
77	0x3cb5d64f	0.022196917
78	0x3e536a11	0.2064593
79	0x3df1923c	0.1179547
80	0xbe1247a9	-0.14285149
81	0x3d4fc510	0.050725043
82	0x3c645a02	0.013937475
83	0xbe819b45	-0.25313774
84	0xbd8649f3	-0.065570734
85	0xbd6ad6ba	-0.057333685
86	0xbe56710c	-0.20941561
87	0xbca5469d	-0.020175273
88	0xbd25d0dd	-0.04048239
89	0x3de8e65d	0.11372063
90	0xbec5d545	-0.38639274
91	0xbc6424be	-0.013924776
92	0xbd83ea48	-0.0644117
93	0xbeb7b0e9	-0.3587716
94	0xbe67c75f	-0.22634648
95	0x3d9c5710	0.07633793
96	0xbe34c4cb	-0.17653196
97	0x3cf65641	0.030070426
98	0x3db3ce35	0.08779565
99	0xbe9877b5	-0.2977883
100	0x3e6d7f61	0.23193122
101	0xbd960bc2	-0.073264614
102	0xbc013c3f	-0.007887899
103	0xbd4fa60a	-0.050695457
104	0x3d8445eb	0.06458648
105	0xbd92233f	-0.07135629
106	0xbd6f29cc	-0.05838947
107	0x3d89d2aa	0.06729634
108	0xbe82cbd1	-0.25546125
109	0x3d723dd5	0.059141
110	0xbd51000a	-0.051025428
111	0xbe6e682d	-0.23281927
112	0xbe8c27c0	-0.27374077
113	0xbe85267e	-0.2600593
114	0xbe56fa10	-0.20993829
115	0x3e3ce087	0.18445025
116	0xbea8729b	-0.32899937
117	0xbe2ad20b	-0.16681688
118	0x3ed6681c	0.41876304
119	0xbe113d73	-0.14183597
120	0xbcfa4737	-0.030551536
121	0xbe4e2122	-0.20129827
122	0xbdee2b07	-0.116293006
123	0xbeb1e5e8	-0.34745717
124	0xbe7cfcca	-0.24705806
125	0x3db96502	0.09052469
126	0xbe3c34fc	-0.18379587
127	0xbe275439	-0.16340722
128	0x3e1c4505	0.15260704
129	0xbe9e1cd2	-0.30881363
130	0xbdb4a88b	-0.088212095
131	0xbe054059	-0.13012828
132	0x3a9638a8	0.0011460977
133	0xbd6a1b62	-0.05715502
134	0xbe0164b1	-0.12636067
135	0xbdd64123	-0.104616426
136	0xbe06231b	-0.13099329
137	0x3cfc088c	0.030765794
138	0xbdd33cea	-0.10314353
139	0xbeaf1728	-0.34197354
140	0xbd7f5b0e	-0.062342696
141	0xbeaaba50	-0.3334527
142	0xbd8376c7	-0.06419139
143	0xbe63607a	-0.22204772
144	0xbc9c62fa	-0.019090164
145	0xbe6efeb4	-0.23339349
146	0xbe71481a	-0.23562661
147	0xbe0b243a	-0.13588038
148	0xbebb856a	-0.36625224
149	0xbe3da2ef	-0.18519185
150	0xbe1ea838	-0.15493858
151	0x3d7bd1b3	0.06147928
152	0xbea62126	-0.32447165
153	0xbd6c99b7	-0.05776378
154	0x3e45069f	0.19240807
155	0xbe0153e0	-0.12629652
156	0x3e0873e9	0.13325466
157	0xbc918d32	-0.017767522
158	0xbe30702d	-0.17230292
159	0xbeda94ec	-0.42691743
160	0xbdddabde	-0.10823797
161	0xbe4e6273	-0.20154743
162	0xbe29d689	-0.16585745
163	0xbe5d3b2a	-0.216046
164	0xbdc23aa3	-0.0948384
165	0xbd81b987	-0.06334215
166	0x3cdc4899	0.026890086
167	0xbbaa8bd2	-0.005204656
168	0x3de05625	0.10953931
169	0xbde8dbd8	-0.11370057
170	0xbdfcdcb0	-0.1234678
171	0xbcc120e0	-0.023575246
172	0xbdf24e98	-0.11831397
173	0x3d7188d1	0.05896837
174	0xbdeaa1b9	-0.114566274
175	0xbdcc6115	-0.099794544
176	0xbbf501b4	-0.0074770097
177	0x3db43a50	0.08800185
178	0x3e051adb	0.12998526
179	0x3dcdfc81	0.10057927
180	0xbcb21159	-0.021736788
181	0xbd0c489d	-0.034248937
182	0xbd1826e3	-0.03714646
183	0x3d9fef2d	0.07809291
184	0x3db9d463	0.09073713
185	0xbd304be2	-0.043041117
186	0xbbde23da	-0.006779176
187	0x3e02f563	0.1278892
188	0xbc9ce6a0	-0.01915294
189	0xbdca4138	-0.09875721
190	0xbd8663a0	-0.06561971
191	0xbd0753f8	-0.033039063
192	0x3dbf1548	0.09330231
193	0xbcd256a5	-0.025676081
194	0x3cce855b	0.025210073
195	0xbd7cdda0	-0.061734796
196	0xbdb9ea1a	-0.090778545
197	0xbd9bd3ba	-0.07608743
198	0x3c3df0ad	0.011593026
199	0xbda33549	-0.07969148
200	0x3d1eb91e	0.03875076
201	0x3d87c3c9	0.0662914
202	0xbd8cf2a8	-0.068822205
203	0xbda6e510	-0.08149159
204	0x3d0dc6e6	0.034613512
205	0xbc8e56e9	-0.017375426
206	0x3c897ab9	0.016782152
207	0x3d923f83	0.0714102
208	0x3d1b0653	0.037847828
209	0x3d10e903	0.035378467
210	0xbe305c36	-0.17222676
211	0x3e4363fb	0.19081108
212	0x3d85eea0	0.06539655
213	0x3c1147f8	0.008867256
214	0xbdc03001	-0.09384156
215	0x3c2573dd	0.010098425
216	0x3e6eef74	0.23333532
217	0x3d7827ff	0.06058502
218	0x3c319318	0.010838293
219	0xbd01f661	-0.031729106
220	0xbd09c29a	-0.033632852
221	0xbd4383ae	-0.047733
222	0x3dbf7ba9	0.09349758
223	0xbd0f1f74	-0.034942105
224	0x3d33d34d	0.043902684
225	0x3d63e016	0.055633627
226	0xbd988fcd	-0.07449303
227	0xbd898b4b	-0.06716021
228	0x3d70da73	0.05880208
229	0x3b944a99	0.0045254943
230	0xbd519499	-0.051167104
231	0xbd4ec0a2	-0.050476678
232	0xbe0c1d94	-0.13683158
233	0xbd845a61	-0.06462551
234	0x3d18f28c	0.037340686
235	0x3e2883c0	0.16456509
236	0x3e51c945	0.20486934
237	0xbdf7003e	-0.12060593
238	0xbd131beb	-0.035915297
239	0xbe1a84d2	-0.1508973
240	0x3caeba02	0.02132893
241	0xbd77f59a	-0.06053696
242	0x3da1ccec	0.07900414
243	0xbcbaf16b	-0.022820195
244	0xbdc4cac9	-0.09608991
245	0xbd41c7d2	-0.047309704
246	0xbc5b90b2	-0.013401197
247	0x3c68708e	0.014186991
248	0x3d9dcb03	0.07704737
249	0x3d9c1853	0.07621827
250	0x3de80737	0.11329501
251	0xbd8498e5	-0.06474475
252	0x3d3ae60a	0.04562954
253	0xbc9bd2a6	-0.019021343
254	0xbdfa9ab2	-0.12236537
255	0xbd2d5625	-0.042318482

lstm_layers.1.weight_ih_l0 f4 [332, 83]
0	0x3e125413	0.14289884
1	0xbd8e2474	-0.06940547
2	0xbd3e2ede	-0.046431415
3	0x3db88f16	0.090116665
4	0x3ec45296	0.38344258
5	0x3d1f3a15	0.03887375
6	0xbe244140	-0.16040516
7	0x3d7c7408	0.061634094
8	0xbd82979f	-0.06376576
9	0x3daeddb2	0.08538379
10	0x3e38993e	0.18027207
11	0x3d053ccd	0.032528687
12	0x3e3cb0b4	0.18426782
13	0x3e3bdbd9	0.18345584
14	0x3e1e22a1	0.15442897
15	0x3d888c03	0.0666733
16	0x3e8ad409	0.27114895
17	0xbd514f96	-0.05110129
18	0xbe214053	-0.15747194
19	0xbd21a963	-0.03946818
20	0xbd08326a	-0.033251204
21	0xbdbad86d	-0.09123311
22	0x3c93eca9	0.018057184
23	0xbee098d5	-0.43866602
24	0xbddaddf0	-0.106868625
25	0x3e290fec	0.1650998
26	0xbe7d7601	-0.24752046
27	0xbdbc6614	-0.09199157
28	0x3d945bad	0.07244048
29	0x3de247f6	0.11048882
30	0xbc606bef	-0.013697608
31	0x3e59db1a	0.21274987
32	0xbd7222d9	-0.059115265
33	0xbe490c35	-0.19633563
34	0xbd2e5419	-0.04256067
35	0x3da78fc0	0.08181715
36	0xbd63e041	-0.055633787
37	0xbe009bf7	-0.12559496
38	0x3dec50aa	0.11538823
39	0x3ec6be4c	0.3881706
40	0x3dc66b64	0.09688452
41	0x3d47cb3e	0.04877781
42	0x3daebb4b	0.08531817
43	0xbd39ff00	-0.045409203
44	0xbeb3cec4	-0.35118687
45	0x3e6a8aac	0.22904462
46	0xbe6de00c	-0.23229998
47	0x3eb039aa	0.34418994
48	0xbca30273	-0.019898629
49	0x3dbc1e79	0.091855
50	0x3ea93fbc	0.33056438
51	0xbe151cca	-0.14561763
52	0xbe39fe88	-0.18163502
53	0xbe46bf92	-0.19409016
54	0xbcf076d9	-0.029353546
55	0x3e0e57b1	0.13900639
56	0xbce9b5b2	-0.028529022
57	0x3ee06563	0.43827352
58	0xbe34340d	-0.17597981
59	0x3e944889	0.2896159
60	0x3c28fdb8	0.0103143975
61	0xbdd4daf3	-0.10393324
62	0x3c4165ff	0.011804103
63	0x3d9163c5	0.07099108
64	0xbdabb9b0	-0.083850265
65	0xbdd92c3b	-0.106041394
66	0xbc8a9619	-0.016917275
67	0xbdd72879	-0.105057664
68	0x3d2340f4	0.039856866
69	0x3e258340	0.16163349
70	0x3ea157e6	0.31512374
71	0xbde55d20	-0.11199403
72	0xbd84d4b5	-0.06485883
73	0xbdcd58ca	-0.10026701
74	0x3db3a230	0.08771169
75	0xbd731495	-0.0593458
76	0x3ebb4813	0.36578426
77	0xbe2e48cb	-0.17019956
78	0x3e4189b0	0.1890018
79	0xbe5125d8	-0.20424592
80	0x3dbebb34	0.0931305
81	0xbedcc7d7	-0.43121216
82	0x3e9474c5	0.28995338
83	0x3e2f1494	0.17097694
84	0xbe4210f5	-0.18951781
85	0x3d5405ea	0.051763453
86	0x3e609d75	0.21935065
87	0xbdf4f015	-0.119598545
88	0xbd32b0b3	-0.043625545
89	0xbdd7ff5b	-0.10546752
90	0x3d9c1976	0.07622044
91	0xbce61012	-0.028083835
92	0x3cc38ce6	0.023870897
93	0x3abda888	0.0014469782
94	0x3dc9b7f1	0.09849537
95	0x3c4ae402	0.012383463
96	0x3d4307e6	0.047614954
97	0x3d8b769c	0.06809732
98	0x3dfa8045	0.12231497
99	0x3e3d292d	0.18472739
100	0xbdc31b64	-0.09526709
101	0xbde3834d	-0.11109028
102	0xbdc93a72	-0.09825601
103	0x3e347eee	0.17626545
104	0xbdd576c4	-0.10423043
105	0xbdce7582	-0.100810066
106	0x3c137705	0.009000544
107	0xbd1d637d	-0.038424958
108	0xbd3df6b3	-0.04637785
109	0xbd46d014	-0.048538283
110	0x3da01349	0.07816178
111	0x3e763240	0.24042606
112	0xbd04755e	-0.032338493
113	0x3bbe1b48	0.005801592
114	0xbdfb4714	-0.122694165
115	0x3a6ce4b9	0.0009036768
116	0xbd81ac0d	-0.06331644
117	0xbd9178f3	-0.07103147
118	0x3d134d9d	0.03596269
119	0x3d152678	0.03641364
120	0x3dc90231	0.09814871
121	0xbd85553e	-0.06510399
122	0x3e19322f	0.1496055
123	0xbdb17ebe	-0.08666752
124	0xbc9374f3	-0.018000102
125	0x3e1d457b	0.15358536
126	0x3d2d8a5c	0.042368278
127	0xbe28c18f	-0.16480087
128	0xbdee2b1d	-0.11629317
129	0x3d442bcb	0.047893327
130	0x3d94efc6	0.07272296
131	0x3d18dc3b	0.037319403
132	0xb934000b	-0.00017166154
133	0x3e917d53	0.28415927
134	0xbd914b6f	-0.07094466
135	0x3d0beb29	0.034159813
136	0xbd5b44cc	-0.053532407
137	0x3da8dcea	0.08245261
138	0x3d17f97d	0.037103165
139	0x3da95537	0.082682066
140	0x3e3eef83	0.18646054
141	0xbe6e98e1	-0.23300506
142	0x3d911393	0.070838116
143	0x3dbad23b	0.091221295
144	0xbd2757b3	-0.04085512
145	0x3df26a43	0.11836674
146	0x3dd9dd61	0.10637928
147	0xbdb24b19	-0.0870573
148	0xbe13d903	-0.14438252
149	0xbda05caa	-0.07830174
150	0xbd7f5ec9	-0.062346254
151	0xbdb0a862	-0.086258665
152	0x3da3c295	0.07996098
153	0x3e14c459	0.14528026
154	0x3b516861	0.0031953084
155	0x3d78935e	0.060687415
156	0xbeeb19ab	-0.4591802
157	0x3dc11337	0.09427493
158	0xbddd4a23	-0.10805156
159	0x3d7c0ff2	0.061538644
160	0xbe0c3613	-0.13692503
161	0x3d1e3ca2	0.038632043
162	0xbddc0f9f	-0.10745167
163	0x3dae6583	0.085154556
164	0xbdb9c26c	-0.09070286
165	0x3e32b578	0.17452037
166	0xbcb74640	-0.022372365
167	0x3eb74cf5	0.358009
168	0x3c7d098b	0.01544417
169	0xbdba87b4	-0.091079146
170	0x3dbd04ff	0.092294686
171	0xbddc53c8	-0.107581675
172	0xbcc03ca8	-0.023466423
173	0x3d10f42d	0.035389114
174	0x3d28b03e	0.041183703
175	0xbd3ffd11	-0.046872202
176	0xbea0ed56	-0.31431073
177	0x3e615f86	0.22009096
178	0x3e04035e	0.1289191
179	0xbd4576a0	-0.048208833
180	0x3e3c4966	0.18387374
181	0xbe0e118f	-0.13873886
182	0x3e8e5a1b	0.2780312
183	0x3d85e094	0.065369755
184	0xbe0d93a5	-0.13825853
185	0x3da0f68f	0.07859527
186	0xbe823df0	-0.2543788
187	0xbd9aa7fe	-0.07551573
188	0x3d21775d	0.039420474
189	0x3eb1b8b1	0.3471122
190	0xbd2a215d	-0.041535724
191	0x3d81c7a4	0.063369066
192	0xbe839de8	-0.2570641
193	0xbdd692cf	-0.1047722
194	0xbca52ce1	-0.020163001
195	0xbe8729b1	-0.26398996
196	0xbd6e5976	-0.058190785
197	0x3e3b1903	0.1827126
198	0xbe675ce3	-0.22594027
199	0xbd203feb	-0.039123457
200	0xbde47cb0	-0.11156595
201	0x3e3eac30	0.18620372
202	0xbe90f312	-0.28310448
203	0xbe0a5d4a	-0.1351215
204	0x3da7865d	0.08179925
205	0x3dafc287	0.08582025
206	0x3cbfe0e9	0.023422675
207	0xbdba76b9	-0.09104676
208	0xbd89fdec	-0.06737885
209	0x3e78c973	0.24295597
210	0x3f253457	0.6453299
211	0x3e1ff7a6	0.15621814
212	0xbe3b3f3f	-0.18285845
213	0x3d52a24d	0.051424313
214	0x3f06cd41	0.5265694
215	0x3ddce479	0.10785765
216	0xbf03ff77	-0.51561683
217	0xbde2bbc5	-0.110709704
218	0xbe29fbe0	-0.16599989
219	0xbe6f13f3	-0.23347454
220	0xbe02536f	-0.1272714
221	0x3de2dc31	0.110771544
222	0xbe27dfcb	-0.16393964
223	0x3e931706	0.28728503
224	0x3e75db11	0.24009348
225	0x3dec496a	0.1153744
226	0xbc6ca080	-0.014442563
227	0xbe247b97	-0.16062771
228	0xbd6309bf	-0.055429216
229	0x3dbbace4	0.09163836
230	0x3e647fb2	0.22314337
231	0x3e80f4c1	0.25186732
232	0xbc20f6ec	-0.009824496
233	0x3cd074c6	0.025446307
234	0xbc1e7026	-0.009670293
235	0xbdf22c33	-0.118248366
236	0xbf140233	-0.57815856
237	0xbe991a06	-0.29902667
238	0x3d94fe87	0.0727511
239	0xbe98328e	-0.2972607
240	0x3d8bd156	0.06827037
241	0x3f355981	0.708397
242	0x3ec43912	0.3832479
243	0xbdbbea1c	-0.09175512
244	0x3ea3369f	0.3187761
245	0x3b94f0bf	0.0045453007
246	0x3dc7461f	0.097301714
247	0xbdcdfc50	-0.100578904
248	0x3d773f96	0.060363375
249	0x3ccccb80	0.02499938
250	0xbda5028a	-0.08057125
251	0x3de8d25b	0.11368247
252	0x3d289252	0.041155167
253	0x3de2ee6a	0.1108063
254	0x3d789c6c	0.06069605
255	0xbdf899d3	-0.12138715

lstm_layers.1.weight_hh_l0 f4 [332, 83]
0	0x3e17231d	0.14759488
1	0xbd83baa6	-0.06432085
2	0xbdd88b35	-0.10573427
3	0xbc252b4e	-0.010081125
4	0xbcffa894	-0.031208314
5	0xbe43d5de	-0.19124553
6	0x3d9c8467	0.07642441
7	0x3ced092a	0.028935034
8	0xbdac1505	-0.08402447
9	0x3bd29408	0.006426338
10	0x3e15b8c6	0.14621267
11	0xbd2a5484	-0.041584507
12	0x3c2db042	0.010601105
13	0xbd3c8426	-0.046024464
14	0x3cfdd1f1	0.030983897
15	0xbd804bcf	-0.06264459
16	0x3e19859a	0.14992371
17	0x3d927f8b	0.07153233
18	0xbd8697bb	-0.06571909
19	0x3d24bc9b	0.04021893
20	0x3e224b6d	0.15849085
21	0x3ca338c7	0.019924534
22	0x3da628ec	0.08113274
23	0xbce3c50a	-0.027803916
24	0x3e236e17	0.15959965
25	0x3e16ee00	0.14739227
26	0xbd469ca2	-0.04848922
27	0x3deca1b4	0.1155428
28	0xbd6cc3d8	-0.05780396
29	0x3db63f7e	0.08898829
30	0xbe1d7dff	-0.15380095
31	0xbdb2181a	-0.08696003
32	0x3d7bdcd8	0.06148991
33	0xbe1de041	-0.15417577
34	0x3de20605	0.110363044
35	0xbcabe38a	-0.020982523
36	0xbcf54e6e	-0.029944625
37	0xbe040d1c	-0.12895626
38	0xbe84f88a	-0.2597087
39	0x3de5428f	0.11194336
40	0x3cd6543b	0.026163211
41	0x3d924c74	0.071434885
42	0xbdd11e59	-0.102108665
43	0xbdd5f3bb	-0.104468785
44	0xbde1e1e8	-0.11029416
45	0x3d2d7d67	0.04235592
46	0x3e207011	0.1566775
47	0xbe326f96	-0.17425379
48	0xbe49913a	-0.19684306
49	0xb9748fdf	-0.0002332325
50	0xbd16aba5	-0.036784787
51	0xbcb895d8	-0.022532389
52	0xbd79f510	-0.061024725
53	0x3d919793	0.071089886
54	0xbe39218d	-0.18079205
55	0xbd8c2480	-0.06842899
56	0x3d6b426e	0.0574364
57	0x3ce0c698	0.027438447
58	0x3d724cf8	0.059155434
59	0xbe3c93ee	-0.18415806
60	0xbd59a59e	-0.05313646
61	0x3d6a2370	0.057162702
62	0x3ddef1b8	0.10885948
63	0x3e86016e	0.26172966
64	0xbd8b9e3c	-0.0681729
65	0xbe2b1b9c	-0.16709751
66	0x3e6fc8af	0.23416398
67	0x3ea74197	0.3266723
68	0x3d962421	0.0733111
69	0xbe2fcf2b	-0.17168872
70	0x3d675f3e	0.056487314
71	0xbe094f07	-0.13409053
72	0x3e0c37a8	0.13693106
73	0xbe9582de	-0.29201406
74	0x3d82af5f	0.06381106
75	0xbd102f5e	-0.035201423
76	0xbcdd6de9	-0.027029948
77	0x3e2924ea	0.16517988
78	0xbe338ef5	-0.17535003
79	0xbda0a6e0	-0.07844329
80	0x3dce1beb	0.10063919
81	0xbda5fd1a	-0.08104916
82	0x3ba9a5ab	0.00517722
83	0x3dad16ec	0.084516376
84	0x3b52e5e7	0.003218049
85	0xbe080849	-0.1328441
86	0xbd88d99c	-0.06682131
87	0xbc8ba358	-0.017045662
88	0x3df7062d	0.12061725
89	0xbdb39a3e	-0.08769654
90	0xbd1c41dc	-0.038148746
91	0xbdc5c72b	-0.09657129
92	0x3e45ebe4	0.19328266
93	0xbc12dacb	-0.008963297
94	0x3d440639	0.047857497
95	0x3df7c5c5	0.120982684
96	0xb92de0f9	-0.00016582375
97	0xbd135628	-0.035970837
98	0xbd4e7470	-0.050404012
99	0x3e3d9770	0.185148
100	0x3cbbb5e9	0.02291389
101	0x3d8a2c06	0.06746678
102	0xbd83d2fa	-0.06436725
103	0x3e3ee5f5	0.18642409
104	0xbda696cf	-0.08134233
105	0x3e0385f3	0.12844066
106	0x3c6f8560	0.014619201
107	0xbdb473b9	-0.08811135
108	0xbdcb3e3a	-0.09923978
109	0xbe7ac899	-0.24490584
110	0xbe04e874	-0.12979299
111	0x3c5f89a3	0.013643655
112	0xbc802dfc	-0.015646927
113	0x3d9ac0ce	0.07556306
114	0xbd0ce538	-0.034398288
115	0x3df26014	0.11834732
116	0x3d1bf6bf	0.038077112
117	0xbcfcbdc3	-0.030852204
118	0x3d2e9b0c	0.042628333
119	0x3c0661d5	0.008202036
120	0xbd1c5cf3	-0.03817458
121	0xbd55d6bd	-0.052206744
122	0xbcb970b7	-0.022636754
123	0xbd754c60	-0.05988729
124	0xbd01959f	-0.03163683
125	0x3c85a194	0.016312398
126	0xbd2460a9	-0.040131245
127	0xbdf4bfe0	-0.1195066
128	0x3d7eb971	0.06218857
129	0x3e6a908a	0.229067
130	0xbdbb081d	-0.09132407
131	0xbe83c2cf	-0.25734565
132	0x3d43b9bb	0.04778455
133	0x3d94d42d	0.07267032
134	0x3d5ca6bb	0.053869944
135	0xbe5a90e3	-0.21344332
136	0xbe693d20	-0.22777224
137	0xbcc0ff46	-0.023559224
138	0xbd44b309	-0.048022304
139	0xbdd4112c	-0.10354838
140	0xbe010b29	-0.12601914
141	0x3daabb36	0.08336489
142	0x3e2f96cc	0.17147368
143	0x3e4e7f42	0.20165733
144	0x3d59d854	0.053184822
145	0xbda770d9	-0.08175821
146	0x3dc8e50e	0.09809314
147	0xbe25a0f0	-0.16174674
148	0xbdffa9c4	-0.12483552
149	0x3d299824	0.04140486
150	0x3d47b3be	0.0487554
151	0xbca794a8	-0.020456627
152	0x3e093257	0.1339811
153	0xbd4eb845	-0.050468702
154	0xbd5c59aa	-0.053796448
155	0xbd04941c	-0.03236781
156	0xbe1e5ac6	-0.15464315
157	0xbe3fed63	-0.187429
158	0x3cb7486d	0.022373402
159	0xbd979654	-0.0740172
160	0x3e391196	0.18073115
161	0xbdefd534	-0.11710587
162	0xbd9da1b6	-0.076968595
163	0xbe1db90c	-0.15402621
164	0xbd9a6813	-0.07539382
165	0xbe088591	-0.13332202
166	0xbea418da	-0.3205021
167	0xbdfe95ae	-0.12430893
168	0xbdb5eaa6	-0.08882646
169	0x3de14350	0.10999167
170	0x3edbe1d3	0.42945728
171	0x3d721bce	0.059108548
172	0x3dc77a53	0.09740128
173	0x3ea8bbe7	0.32955858
174	0xbe62c7b3	-0.22146492
175	0x3ee463b9	0.44607332
176	0x3e311c35	0.17295916
177	0xbe74c836	-0.239045
178	0x3d56c6ad	0.052435566
179	0x3efe5f15	0.49681917
180	0x3e8b314d	0.2718605
181	0xbdd5fb89	-0.10448367
182	0x3ee52e51	0.447619
183	0x3e17f09a	0.14837876
184	0xbe7506c3	-0.2392836
185	0xbed49dc8	-0.41526628
186	0x3efb7a60	0.49116802
187	0x3d277755	0.04088529
188	0x3e170e1f	0.1475148
189	0xbece3333	-0.40273437
190	0x3e30e59e	0.17275092
191	0x3ea8cb7d	0.3296775
192	0xbcbf3e21	-0.023345055
193	0x3eaade76	0.3337285
194	0xbe6fc931	-0.23416592
195	0x3ebc29e5	0.36750713
196	0xba79e410	-0.000953258
197	0x3dd7054c	0.10499057
198	0x3e51e3b4	0.20497018
199	0xbc8456b6	-0.016154628
200	0xbb0fc7ec	-0.002193923
201	0x3ca50430	0.020143598
202	0xbe4794b7	-0.19490324
203	0xbe1566ad	-0.14589949
204	0xbd934be0	-0.071922064
205	0x3d1ce00b	0.0382996
206	0x3e59a88a	0.21255699
207	0x3e478b79	0.19486798
208	0xbe1a27ce	-0.15054247
209	0xbea50223	-0.32228193
210	0x3e9ea76f	0.30987117
211	0x3e65f4c0	0.22456646
212	0x3e9a90fb	0.30188736
213	0x3ce566c8	0.028003111
214	0xbe1e6ec3	-0.1547194
215	0xbe9caa5e	-0.3059873
216	0xbe578eef	-0.21050619
217	0x3e153c71	0.14573838
218	0xbe3b0062	-0.18261865
219	0xbe978295	-0.29591814
220	0xbe8b8c62	-0.2725554
221	0x3e2698b0	0.16269183
222	0x3e95d8f2	0.2926708
223	0x3ed695ef	0.41911265
224	0x3ddfd857	0.109299354
225	0xbda49545	-0.080362834
226	0x3ed0f44d	0.40811387
227	0x3eb7d5b2	0.35905224
228	0x3e110869	0.14163364
229	0x3ddcc057	0.107788734
230	0x3e988c10	0.2979436
231	0xbf09629a	-0.5366608
232	0xbf112d8b	-0.5671012
233	0x3e7303c9	0.23731913
234	0x3e8dfd13	0.27732143
235	0x3dddb001	0.10824586
236	0xbe06e6c0	-0.13173962
237	0xbeddf25e	-0.43348974
238	0xbbd4358a	-0.006476109
239	0x3d4d5a45	0.050134916
240	0x3e3c4e9d	0.18389364
241	0xbeaf765c	-0.3426999
242	0xbed4a4ea	-0.4153207
243	0xbc94294c	-0.018086098
244	0xbde6a116	-0.112611935
245	0x3db98d0b	0.09060105
246	0x3dedfcfe	0.1162052
247	0x3e1ae26c	0.15125436
248	0x3d09d5ad	0.033651043
249	0x3daf036b	0.08545574
250	0xbe3bb3ee	-0.18330356
251	0xbe4f9d10	-0.20274758
252	0x3e49aec1	0.1969557
253	0x3d8edf1b	0.06976148
254	0xbd3c07f7	-0.045906033
255	0xbda9af36	-0.08285372

lstm_layers.1.bias_ih_l0 f4 [332]
0	0xbd99fd2f	-0.07518994
1	0xbe29df71	-0.16589142
2	0xbc90bdfd	-0.017668718
3	0xbe7e7204	-0.24848181
4	0xbdec476b	-0.115370594
5	0xbd28b246	-0.04118564
6	0x3c276375	0.0102165835
7	0xbe24f7d9	-0.16110171
8	0xbe1fce75	-0.15606101
9	0xbddcc367	-0.107794575
10	0xbf100065	-0.562506
11	0xbe92d376	-0.28676957
12	0xbe5228ef	-0.20523427
13	0xbdf853d3	-0.12125363
14	0xbd19cc2e	-0.037548237
15	0xbe2047ff	-0.15652464
16	0x3c5a86ab	0.013337771
17	0xbd9ea6a1	-0.07746626
18	0xbe050c35	-0.12992938
19	0xbe456418	-0.19276464
20	0xbe133e86	-0.1437932
21	0xbe6f7291	-0.23383547
22	0xbe93d536	-0.28873605
23	0xbc6f0831	-0.014589355
24	0xbc4b0bf0	-0.012392983
25	0xbe215dcb	-0.15758435
26	0xbdf6a910	-0.12043965
27	0xbe0a8331	-0.13526608
28	0xbd85c732	-0.06532134
29	0xbe0b87ae	-0.13625976
30	0xbe39bed7	-0.18139206
31	0xbdc75820	-0.097336054
32	0xbe18bccc	-0.1491577
33	0xbd56415e	-0.052308433
34	0xbe4b2636	-0.19838795
35	0xbe034f46	-0.12823209
36	0x3d45ea25	0.048319
37	0xbe3a8296	-0.18213877
38	0xbe5710e6	-0.2100254
39	0xbe87f0fa	-0.26551038
40	0xbe3adafe	-0.18247601
41	0xbe2eeff3	-0.17083721
42	0x3d09ec2e	0.033672504
43	0xbe78c53e	-0.24293992
44	0xbe029abe	-0.12754342
45	0xbe969a37	-0.29414532
46	0xbe4207b0	-0.18948245
47	0xbe66c8da	-0.22537556
48	0xbe458878	-0.1929034
49	0x3e22c0c4	0.15893847
50	0xbe79928a	-0.24372306
51	0x3df076d4	0.11741415
52	0xbe034dcc	-0.12822646
53	0xbda392f3	-0.07987013
54	0xbe6234af	-0.2209041
55	0xbe749923	-0.23886542
56	0xbe010bb6	-0.12602124
57	0xbe56cc10	-0.20976281
58	0xbdeb0601	-0.114757545
59	0xbe61950b	-0.22029512
60	0xbd2fbd34	-0.042905048
61	0xbcedb3b2	-0.02901635
62	0x3dfe6321	0.12421251
63	0x3baea356	0.0053295298
64	0xbd4a7849	-0.04943112
65	0x3cfd0822	0.030887667
66	0xbcb9bb6c	-0.022672378
67	0xbecc473e	-0.39898103
68	0xbe6e421a	-0.23267403
69	0xbe952242	-0.291277
70	0x3bf02371	0.0073284437
71	0xbdb4ea82	-0.08833791
72	0xbd346fe0	-0.044052005
73	0x3d21dbc5	0.03951623
74	0x3bd2add7	0.0064294147
75	0xbe6134ca	-0.21992794
76	0xbda18d66	-0.07888298
77	0xbe0dd6e1	-0.13851501
78	0xbe817d74	-0.25291026
79	0xbe3f4c9a	-0.18681565
80	0xbe7abc1e	-0.24485824
81	0xbe61e6c7	-0.22060691
82	0x3d80de15	0.06292359
83	0xbe824a1d	-0.2544717
84	0xbdc1dedc	-0.09466335
85	0x3df2f4ed	0.11863122
86	0xbed55d83	-0.41672906
87	0xbe742cb4	-0.23845178
88	0xbe21187e	-0.15732
89	0xbeb335ff	-0.35002133
90	0xbe4e3290	-0.20136476
91	0xbe91a8f0	-0.28449202
92	0xbd295002	-0.041336067
93	0xbea14a5c	-0.31502044
94	0xbefc9bc5	-0.49337593
95	0xbe537ae6	-0.20652351
96	0xbe8e98ec	-0.27851045
97	0xbd9d8706	-0.07691769
98	0xbeed4c96	-0.46347493
99	0xbe3bad02	-0.18327716
100	0xbe84a774	-0.25909007
101	0xbe7a8d1f	-0.24467896
102	0xbe435428	-0.19075072
103	0xbec7ee31	-0.39048913
104	0xbe90017a	-0.28126127
105	0xbe4d5076	-0.20050225
106	0xbd3467ea	-0.044044413
107	0xbea87358	-0.329005
108	0xbea82f0c	-0.32848394
109	0x3e624744	0.22097498
110	0xbe2abcce	-0.16673586
111	0xbe2e15ba	-0.17000476
112	0xbdd8f332	-0.10593261
113	0xbe5006e9	-0.20315136
114	0xbdd76a23	-0.10518291
115	0xbe3126c3	-0.17299943
116	0xbe2b27a3	-0.16714339
117	0xbe5396b7	-0.20662962
118	0xbed227d4	-0.4104601
119	0xbe3a684e	-0.18203852
120	0xbe688a2c	-0.22708958
121	0xbec69cdf	-0.38791558
122	0xbedcbd1c	-0.4311303
123	0xbe94b4ae	-0.29044098
124	0xbe3585c6	-0.17726812
125	0xbe97fbb5	-0.29684225
126	0xbed95ddd	-0.42454425
127	0xbe5b76dc	-0.2143206
128	0xbeab0640	-0.33403206
129	0xbeac0eb3	-0.33604965
130	0xbf05d1c0	-0.5227318
131	0xbd2bca46	-0.04194095
132	0xbe399de0	-0.18126631
133	0xbe6b5a92	-0.22983769
134	0xbe56bba7	-0.20970021
135	0xbe5f3731	-0.21798398
136	0xbd02c28c	-0.031923816
137	0xbd173903	-0.036919605
138	0xbe519e30	-0.204705
139	0xbe5d5088	-0.21612751
140	0xbe51e851	-0.20498778
141	0xbf09dd68	-0.53853464
142	0xbeca0257	-0.3945491
143	0xbe92111f	-0.28528687
144	0xbe7aa08f	-0.2447531
145	0xbe198798	-0.14993131
146	0xbe2872ce	-0.16450045
147	0xbe3ef626	-0.18648586
148	0xbe84c0bb	-0.25928292
149	0xbdeb574b	-0.11491259
150	0xbf3b76a1	-0.7322789
151	0xbec8fa97	-0.39253685
152	0xbed07a0b	-0.4071811
153	0xbe725005	-0.23663338
154	0xbdb7cc4e	-0.08974515
155	0xbda68742	-0.08131267
156	0xbe07f8f8	-0.13278568
157	0xbdcb36cd	-0.09922562
158	0xbee93ad3	-0.45552692
159	0xbe5aec8d	-0.213793
160	0xbf29b0f4	-0.66285634
161	0xbed13d78	-0.4086721
162	0xbeba146c	-0.36343706
163	0xbee133bc	-0.43984783
164	0xbe900ab2	-0.2813316
165	0xbde5205e	-0.11187814
166	0xbda71a6e	-0.08159338
167	0x3c8b4b35	0.017003635
168	0x3d5d2adf	0.053995963
169	0xbd29c629	-0.041448746
170	0x3c63f0ce	0.013912393
171	0x3da40c61	0.080101736
172	0x3d6ea2d3	0.05826075
173	0x3c493a3e	0.012281952
174	0xbd0899cd	-0.0333498
175	0x3d31a855	0.043373425
176	0xbda2aefc	-0.07943532
177	0xbc9b9975	-0.018994072
178	0xbc824900	-0.01590395
179	0x3c1e3751	0.009656743
180	0xbd8b07ff	-0.067886345
181	0xbcb19458	-0.021677181
182	0xbca761c5	-0.020432362
183	0x3c22ff12	0.009948509
184	0x3db77131	0.089571364
185	0xbd4b220b	-0.049593013
186	0x3daf6553	0.08564248
187	0x3dd935e3	0.10605981
188	0xbd196bea	-0.03745643
189	0x3daed5ce	0.08536874
190	0xbb86e14e	-0.004116214
191	0xbc9d5414	-0.01920513
192	0xbe051b0a	-0.12998596
193	0x3c8d78a2	0.017269436
194	0x3d921aa2	0.07133986
195	0xbbe19d8b	-0.0068852357
196	0x3c828b59	0.015935587
197	0x3de62419	0.11237354
198	0xbd60302f	-0.05473345
199	0x3c9ee520	0.019396365
200	0xbd4a13ea	-0.049335398
201	0x3e020abc	0.12699407
202	0xbe12cde1	-0.14336349
203	0xbd044d72	-0.03230042
204	0x3b82f5d3	0.0039965897
205	0xbd4e7ec3	-0.05041386
206	0x3d801f23	0.06255939
207	0xbcc066f8	-0.0234866
208	0xbd022adb	-0.03177915
209	0xbe230d32	-0.15923002
210	0x3ca3b5e0	0.019984186
211	0xbd08afa2	-0.03337062
212	0x3d58f171	0.05296463
213	0xbb8c5cb3	-0.0042835115
214	0x3db358dd	0.08757184
215	0xbc827941	-0.015926959
216	0x3d3a0848	0.045418054
217	0x3ce21e1c	0.027602248
218	0x3c8189de	0.01581281
219	0x3d7ab09e	0.06120359
220	0x3d31e98c	0.04343562
221	0x3d20bb11	0.0392409
222	0x3cba715e	0.022759136
223	0x3cfbabd2	0.030721579
224	0xbd541349	-0.051776204
225	0xbe31f67e	-0.17379186
226	0xbc307c40	-0.010771811
227	0xbdc5e5ff	-0.09663009
228	0x3db42713	0.08796515
229	0x3cbc0580	0.022951841
230	0xbb71b3f9	-0.0036880954
231	0x3d68ccd7	0.056835975
232	0x3d281d78	0.04104373
233	0x3d3c8d41	0.046033148
234	0x3ca35a8d	0.019940639
235	0xbcac106d	-0.021003926
236	0x3ce81793	0.028331554
237	0xbc9a1772	-0.018810008
238	0xba6d31d9	-0.00090482604
239	0x3e0576c4	0.13033587
240	0x3d597e25	0.053098816
241	0xbd306b93	-0.04307134
242	0x3b426cbd	0.0029666864
243	0xbd8ea42a	-0.069649056
244	0x3d483f4e	0.048888497
245	0xbc78d3dd	-0.015187231
246	0xbd8f344a	-0.06992395
247	0x3cfb7750	0.030696541
248	0x3c45adf9	0.012065404
249	0xbdcde185	-0.1005278
250	0xbe2fb79a	-0.17159882
251	0x3b2ea50d	0.002664867
252	0xbe77c125	-0.24194773
253	0xbe9c4d4a	-0.30527717
254	0xbe4932e2	-0.19648317
255	0xbd87cb48	-0.0663057
