foundation_models/Ensemble_model27_DeepHit_ANN_Both_20250806_215927.pt (torch, 304446 bytes, 56 tensors)

conv1.weight f4 [32, 1, 3]
000000 22 90 52 3d 1c 56 a4 be 51 e1 10 bf f0 ca f5 bd
       0.051406987 -0.32096946 -0.56593806 -0.12001598
000010 cb 08 33 3e 1d 9d 16 bf 32 74 98 bd 72 69 e1 3c
       0.17483823 -0.58833486 -0.074440375 0.0275161
000020 62 04 5c be c5 90 67 bd e6 1a 25 3e 4b d2 a5 3e
       -0.21486047 -0.056534547 0.16123542 0.32387003
000030 77 00 27 3e 15 d9 25 bf 12 c9 77 bd fe 53 b5 3d
       0.16308771 -0.64784366 -0.06049449 0.08853911
000040 02 ea f0 bc 7c e3 9c bd 82 b4 56 bd 12 3d ec bc
       -0.029408459 -0.07660577 -0.05241824 -0.028837714
000050 a2 58 3d 3e 57 af 0b be 02 24 92 3e 56 cb 30 3c
       0.18490842 -0.13641106 0.28543097 0.010790667
000060 57 f3 44 bd 23 06 2a 3e 7e 91 02 3e 44 b5 4e bd
       -0.04808363 0.16603903 0.12750813 -0.050465837
000070 ce e5 e8 3d 8d f1 a0 3e 55 dc f1 3b c9 09 90 3c
       0.11371957 0.3143429 0.007381002 0.01758279
000080 0f c3 99 bc d6 a7 1d be eb a5 2b 3e 53 3a cb 3d
       -0.018769769 -0.15396056 0.16762511 0.09923234
000090 53 fb 9e bd 23 9c d9 be a9 43 b7 3e 98 e5 b0 3d
       -0.0776278 -0.42501935 0.35793808 0.086375415
0000a0 75 63 29 3e 75 de f2 bc a9 ca c0 be 6f c4 a8 be
       0.16541846 -0.029647091 -0.37654617 -0.32962367
0000b0 38 fa 42 3e 56 42 3f 3e e2 82 cf 3d aa 54 1e 3e
       0.19040763 0.18677649 0.10132386 0.15461984
0000c0 16 04 29 3d 65 87 a9 3d 53 97 b8 bd 22 82 45 3e
       0.041263662 0.082777776 -0.09013238 0.19287923
0000d0 bb 36 e8 bc fe 9e 38 3e 2e f4 01 3e dc ed 79 bc
       -0.02834641 0.180294 0.12690803 -0.015254464
0000e0 af 5e c4 bd 8e 89 c0 3e da 63 8a bd 61 8f 30 3d
       -0.09588372 0.37604946 -0.067573264 0.043105487
0000f0 3d 7a 90 3e ce dc 39 be 7d 00 11 3e d7 ee 65 bd
       0.2821826 -0.18150637 0.14160343 -0.05613598
000100 46 e5 4f 3e 1d 9b 31 3e 95 69 93 be 98 9c a0 bd
       0.20302305 0.17344327 -0.2879149 -0.07842368
000110 32 68 08 3e 69 2b 01 3b d2 cb de 3c a1 1a dd be
       0.13320997 0.0019709712 0.027196798 -0.4318438
000120 4e d1 34 3e 17 b9 20 bf b0 69 79 be e9 8b 20 be
       0.17657968 -0.62782425 -0.24356723 -0.15678371
000130 56 8a 97 3e b1 f3 81 3e 16 3c 0c be 28 eb bc 3d
       0.2959773 0.25381234 -0.13694796 0.0922454
000140 18 bc 88 be 96 5a 2a bb e3 72 02 bc 5a e2 5f bd
       -0.26706004 -0.0025993935 -0.007961961 -0.054659225
000150 03 7d 93 3d cd 07 21 3e 22 5e 5d be 54 f6 53 3d
       0.072015785 0.15725632 -0.2161794 0.05174859
000160 e9 5c bf 3c c4 1a 4a be 55 f1 e0 be c6 38 86 be
       0.023359733 -0.19736773 -0.43934122 -0.2621519
000170 d7 c8 db bd 0d 25 aa 3d 3e 69 fc be b7 cf 88 3e
       -0.107316665 0.08307848 -0.49299043 0.26720974

conv1.bias f4 [32]
000000 af 80 10 be d0 10 dc 3e 87 e0 72 3d 9e 95 89 be
       -0.14111589 0.42981577 0.059296157 -0.2687196
000010 d0 e5 84 3e 82 a7 e2 be ec ea 83 3e eb c7 44 3e
       0.25956583 -0.44268423 0.2576517 0.19216888
000020 31 2e 97 3d 3a 2f 69 be 32 69 28 be 14 8b 98 be
       0.07381857 -0.22771922 -0.16446379 -0.29793608
000030 42 ae 6b 3d 5a 19 cb bd 67 f4 58 be a5 fd b0 be
       0.057539232 -0.09916945 -0.21186982 -0.34568515
000040 34 b6 50 3b fd 92 10 bf de e1 9e bc c8 40 77 be
       0.0031846883 -0.56474286 -0.019394811 -0.24145806
000050 7b a1 17 be f3 1a 79 3d b9 25 29 be eb 6a 5c 3e
       -0.14807694 0.060816716 -0.16518296 0.21525161
000060 bf e4 a8 be 65 80 89 be 78 10 d8 3b 5d 92 cc bb
       -0.3298702 -0.2685577 0.00659376 -0.006243034
000070 3d 64 87 3e 2b f5 2c 3d 8c ef 8d bb c1 2a 45 be
       0.26443663 0.042225998 -0.0043315347 -0.1925459

conv2.weight f4 [64, 32, 3]
000000 f7 60 49 bc ab e9 40 bb dd de 4e bc 2e be de 3c
       -0.012291185 -0.0029436152 -0.012626377 0.027190294
000010 56 08 67 bd 12 9b 02 3d a2 75 97 bb 6d 2e c4 bc
       -0.056404434 0.031886168 -0.004622177 -0.023947919
000020 a2 41 c9 3d 90 ab 0a bd b3 40 f2 bc 09 30 18 bd
       0.098269716 -0.03385502 -0.029571867 -0.037155185
000030 f6 dd 2f be b1 97 d7 bd 3b 98 75 bc 17 7a aa bd
       -0.17174515 -0.1052698 -0.014989908 -0.08324068
000040 84 86 29 bd a8 c8 0d b9 48 56 78 bd 7d d7 73 bd
       -0.04138805 -0.00013521558 -0.06062916 -0.059531678
000050 7f 0f ad 3d 18 69 89 bd 97 8c 55 bd 49 16 2c 3b
       0.08450221 -0.06709498 -0.05213603 0.00262584
000060 32 72 7f ba 01 de 21 bd ce 97 05 bd e1 24 1d bc
       -0.00097444945 -0.03951836 -0.032615475 -0.009591312
000070 fc 4b 5c b8 a9 3f fc 3c 24 bd f9 bd e1 72 f9 3b
       -5.2522853e-05 0.030792074 -0.12194279 0.0076125716
000080 ae be 03 3c ee 14 a6 bd 6a 99 a3 bc cd 68 06 be
       0.008041067 -0.08109461 -0.019970614 -0.13125916
000090 81 06 50 3d e9 94 9a bc 5a 38 a7 3c 2f 3d ef bd
       0.050787453 -0.018869834 0.020412613 -0.11681592
0000a0 ce 74 77 bd 35 f4 2f bc 07 b1 20 3d ee 1d 5c bc
       -0.060414128 -0.010739376 0.039231326 -0.01343487
0000b0 85 05 05 3e d3 9d 77 bd 94 49 3a bc 14 24 7d bd
       0.12990387 -0.060453247 -0.011370081 -0.061801985
0000c0 cf 9a ee bb 1e ca 6f 3c db f0 24 bd 71 06 94 bc
       -0.007281638 0.014635591 -0.04026876 -0.018069478
0000d0 af 1f 80 bd 5b d0 48 bd 1c cb 02 be e5 12 e7 3d
       -0.06256043 -0.04902683 -0.12772793 0.11282901
0000e0 4c 8b 71 bd 7a 72 8f bc fc d7 ef 3c d3 08 2a bd
       -0.058970734 -0.017510641 0.029277794 -0.04151232
0000f0 d9 63 e5 3a 48 13 8a bd 5e 08 c4 bb 3f 33 55 bd
       0.001750107 -0.06741959 -0.0059824428 -0.052050825
000100 ae 7a 12 3c a8 69 30 3d 8c bd ad bc 6f de b2 3a
       0.008940382 0.04306951 -0.021208547 0.0013646613
000110 f9 98 c9 bd 80 41 7b bc 6d 61 5d 3b 32 d6 58 3d
       -0.0984363 -0.015335441 0.0033779994 0.052938648
000120 73 15 23 bd 5b 28 f9 bc 04 15 fa bb ad f6 5a bd
       -0.039815377 -0.03041475 -0.0076319 -0.053457905
000130 4b 7d 9b 3c 48 5d 44 bd 7f 3e ef bc 33 ab 29 3d
       0.018980643 -0.047940522 -0.029204605 0.041423034
000140 ea 14 be 3c d6 e5 19 be c3 0d 71 bd 4b 84 e4 3c
       0.023203332 -0.15029082 -0.058851015 0.027895113
000150 10 be 2e bd 3f 11 62 3c f8 df 24 bd 75 25 0b be
       -0.042661726 0.013798057 -0.040252656 -0.13588507
000160 4b 9c 9f bd 9c 76 c7 bc 7d 51 04 bb e8 d3 4c bd
       -0.077934824 -0.02434855 -0.0020190172 -0.050006777
000170 d3 cd fe bd 1d f8 6d bc 80 22 bc bb c1 97 04 3e
       -0.124416016 -0.014524487 -0.0057414174 0.12948515
000180 77 26 2b 3d 23 30 fe ba e1 f5 b8 3d 78 68 7a 3c
       0.04178473 -0.0019393008 0.09031273 0.015283696
000190 46 95 50 3d 8e 17 f9 3c 7f c0 60 3d 51 6c a0 3d
       0.05092361 0.03040674 0.05487108 0.0783316
0001a0 61 5c 5b bc b7 87 48 bd c6 0e 47 bc 51 36 68 3d
       -0.013388724 -0.048957553 -0.012149518 0.056692425
0001b0 a6 df e5 bc ba b2 00 bd eb eb 96 bd 9e 7a 57 bc
       -0.028060745 -0.031420447 -0.073692165 -0.013151793
0001c0 81 61 5e bc 18 11 8b bb 5e fd c7 3c f8 1f 2d bc
       -0.013573051 -0.004243981 0.024412807 -0.010566704
0001d0 58 b5 f8 bc 5d 13 c2 3c ff 7f 72 bd c1 85 54 3c
       -0.030359909 0.023690874 -0.059204098 0.012971343
0001e0 31 67 03 3c 87 d1 c7 ba ef 20 56 bd d1 42 ae bc
       0.008020208 -0.0015244939 -0.0522775 -0.021272095
0001f0 43 ea 74 bd 93 3b bb 3d e8 fc 12 bd 62 da 20 3d
       -0.059793722 0.09142222 -0.03588572 0.039270766
000200 14 90 d8 bb 2f 6e 4e bd e0 ed 5f 3b 5c ad 4b bd
       -0.0066089723 -0.050398048 0.0034168884 -0.049725875
000210 65 a6 e2 3a 4b e8 b9 bc 78 72 eb bd f7 7b 11 bd
       0.0017292021 -0.022693774 -0.114964426 -0.035518613
000220 d6 ff 2a 3d fe 30 0c be dc 32 97 bc 44 4f 40 bc
       0.04174789 -0.13690564 -0.018456869 -0.011737648
000230 33 d8 05 be 2a 72 43 bc 13 fd 7e 3d a3 d2 2b bd
       -0.13070755 -0.011929074 0.06225307 -0.041948926
000240 22 4c 83 bc 41 e4 3e 3d 5f 3b 53 bd 9c 8d 06 3c
       -0.016027514 0.0466044 -0.051570293 0.008212473
000250 46 d4 a5 bc f0 78 51 3d 53 77 00 be a2 60 53 bd
       -0.020242821 0.051140726 -0.12545519 -0.051605828
000260 c2 d4 e3 bd 35 05 ac 3b 6b fc 5a 3d e1 2f de 3c
       -0.11124565 0.005249644 0.05346338 0.02712244
000270 78 dd 66 3c 2f 71 2c bd c1 d1 a5 bd b1 11 da bd
       0.014090888 -0.042100128 -0.08096648 -0.106479056
000280 b8 83 da 3b 18 e7 63 bc b2 3c 0e bd cd d8 49 3a
       0.006668534 -0.0139100775 -0.034725852 0.00076998473
000290 40 d9 4c bd b5 e3 89 bc 92 e8 48 bd 93 ec 1f bd
       -0.050011873 -0.016832212 -0.04904992 -0.039043974
0002a0 e9 33 59 3c 16 9d 30 bd f4 65 96 bd 0e cc 8d bc
       0.013257005 -0.04311856 -0.07343665 -0.017309215
0002b0 d0 cf 11 bc bd 12 a2 3c c9 3b 01 b8 84 c0 bb bc
       -0.008899644 0.019784326 -3.0811676e-05 -0.022918947
0002c0 d0 39 04 3e c2 4a b1 bd 43 6f 10 3d f6 a2 8a bd
       0.12912679 -0.08656837 0.035262357 -0.067693636
0002d0 ae 20 6b 3c 11 03 20 bd ce 1c a0 3c 6f fa 01 bc
       0.014351053 -0.039065424 0.019544985 -0.007933243
0002e0 6c bc a0 3c b3 60 ba bd 91 29 1f 3e 71 ea 99 3d
       0.019621097 -0.09100475 0.155432 0.07515419
0002f0 27 54 2d bc bd c7 24 bd 03 8d c7 bc f8 8e de bd
       -0.0105791455 -0.040229548 -0.024359232 -0.10867113
000300 61 18 6f bc cd fe 8f 3e d2 8e 1f 3e 28 32 8a bd
       -0.014593215 0.28124085 0.15581825 -0.06747848
000310 de a6 71 3d ff f2 31 3d f0 73 8a 3c 12 65 1e be
       0.058997028 0.04344463 0.016900986 -0.15468243
000320 66 78 e6 be 7f d8 21 3e cb ac 73 3d a9 13 f0 be
       -0.45013732 0.15805243 0.05949096 -0.4689
000330 ec 6c a4 bd 07 af 3c 3d 55 d9 ce 3d e0 ce f4 3c
       -0.08028588 0.046065357 0.101000465 0.029883802
000340 5b e3 a3 3e 09 31 88 3c a9 56 61 3d f5 50 2e be
       0.32009396 0.016624944 0.055014286 -0.1702307
000350 a6 21 52 be 3b d7 b0 bd ab 43 2a bd c9 df 57 bd
       -0.20520648 -0.08634802 -0.04156844 -0.052703653
000360 9a b3 9a 3d 6c 2b 59 bd eb e4 31 be fd 7f 2b 3e
       0.075537875 -0.053019926 -0.17372482 0.16748042
000370 af 2b 5c 3d cf 2c dd be d6 da bf 3d 61 44 77 3c
       0.053752597 -0.4319825 0.093679115 0.015091986
000380 c3 b9 7f bc aa 24 0e 3e e4 fa 89 3d 15 29 54 3e
       -0.015608254 0.13881174 0.06737307 0.20718797
000390 5e 1b 8c 3d 27 70 8c bd 7c 0d a2 be 5a e9 91 3d
       0.068411574 -0.06857329 -0.31650913 0.071245864
0003a0 4f 53 b5 3d 1c 8b 4f bd 5d 6c 6a 3e 4a 30 70 bd
       0.088537805 -0.050669774 0.228929 -0.058639802
0003b0 f3 b7 d3 bd 6d 38 cb 3c 2b a4 58 3d d7 75 bc bd
       -0.1033782 0.02480718 0.052890938 -0.09202164
0003c0 ff b5 a9 bd fd ef 5f 3d 35 8c d5 bc a0 d8 08 3e
       -0.08286666 0.05467223 -0.026067832 0.13363886
0003d0 1f 97 67 3d 99 84 95 bc 5a 5d 85 3e 38 6f ee 3d
       0.056540605 -0.018251704 0.26047784 0.11642307
0003e0 7c 6c d7 3c 91 48 03 be e7 a3 9e 3d 7d 5f 23 bb
       0.026296847 -0.1282065 0.07746106 -0.0024928742
0003f0 f7 33 3d 3d 7d 14 c4 3d 07 2a a0 bd 50 76 cb 3d
       0.046192136 0.0957422 -0.07820516 0.09934676

conv2.bias f4 [64]
000000 98 b8 f3 3d 88 26 a3 bd 74 5d ee bd 63 8d 55 bd
       0.11900443 -0.07966334 -0.116389185 -0.05213679
000010 02 db 69 3d 62 14 eb 3a 3f f4 78 3d 71 ce 95 3c
       0.057093628 0.0017935152 0.060779806 0.018286915
000020 b0 2f 27 bb 08 ee b6 bc e3 f8 20 3e 5f c3 12 bc
       -0.0025510602 -0.022330299 0.15719943 -0.008957713
000030 98 87 36 bd 06 e2 8f bc d3 d7 0c 3c 11 5e a1 ba
       -0.044562906 -0.017563831 0.008596378 -0.0012311359
000040 ca 18 e6 3c fb 1b 4c bd 96 7e fa bd ab f7 0e bd
       0.028087992 -0.04983137 -0.122311756 -0.034904163
000050 ff 0e 11 3d d8 9b 93 bc 51 eb 68 3c fe f7 df 3c
       0.035414692 -0.018018648 0.01421626 0.027339932
000060 b4 46 4c 3e c1 3c 3f be c9 80 42 bd cb a8 3d 3d
       0.19948846 -0.1867552 -0.0474861 0.04630355
000070 68 c2 bf bc 6d 2e d2 bd 42 3b 2b bd 17 0e af bc
       -0.02340813 -0.10262761 -0.04180456 -0.021369023
000080 dc fb f3 3b 00 94 1d ba a5 12 5c 3c e9 19 cc 3c
       0.0074457955 -0.00060111284 0.01343218 0.024914699
000090 9c 40 1a bc 6d 6f 9e 3c 50 8c cc 3b 08 ab 1e 3d
       -0.009414818 0.019340241 0.0062423125 0.038737327
0000a0 0f dd 82 39 af ff 8a be 14 56 cb 3c f9 93 53 3d
       0.00024960234 -0.27148196 0.024821319 0.05165479
0000b0 85 52 df bc 3e ec 4c 3a fb ec 91 3d 56 36 12 be
       -0.027261028 0.0007817185 0.071252786 -0.1427854
0000c0 ed 2c 77 be 7a 53 35 3d 89 d3 7f 3c be e1 b6 3d
       -0.24138232 0.044269063 0.015614399 0.08929776
0000d0 4d 5c ce bc d6 3f 80 bc 01 b4 f4 bb 4a 79 18 be
       -0.025190497 -0.01565544 -0.007467747 -0.14890018
0000e0 18 fc 47 bd 47 69 21 bd 40 e8 e9 bd 97 68 c7 bc
       -0.0488244 -0.03940704 -0.11421251 -0.024341865
0000f0 ec 66 12 bd 49 00 3c be 24 ab 83 bb 7f 68 b6 bb
       -0.035742685 -0.18359484 -0.0040182043 -0.005566656

cause_networks.0.0.weight f4 [103, 128]
000000 6b b9 18 bd b9 4f 4d bd 14 d8 8e 3c 81 db c2 bc
       -0.037286203 -0.050124858 0.017437018 -0.023786308
000010 5e 8f f6 bd b1 1d db 3d b6 de 07 3d d0 83 cd 3c
       -0.12039064 0.106990226 0.033171378 0.025087267
000020 07 ef 12 3b e8 c2 c7 3b 9c fb 05 bd 79 64 77 3b
       0.0022420303 0.0060962327 -0.032710657 0.0037749095
000030 a9 9d 4e 3d 07 26 2c 3d 19 b4 30 bd c9 b9 56 bc
       0.050443325 0.042028453 -0.043140505 -0.013105818
000040 a4 84 01 3d 9d 9a a8 bb 20 49 47 3c 89 41 30 bd
       0.031620637 -0.0051453845 0.01216343 -0.04303125
000050 75 52 0c bd 6d 6a 74 3d 2b 4e 18 3d bf 24 b6 bb
       -0.034258325 0.059671808 0.03718392 -0.0055585797
000060 e8 f3 d0 3b dd e1 e5 3c 55 ce b7 3a a5 cb 84 3d
       0.006376732 0.028061802 0.0014023284 0.064841546
000070 a5 e4 4e 3d 22 be 9f bb 00 6c 2c 3d 25 b5 3e 3c
       0.05051102 -0.0048749605 0.042095184 0.011639868
000080 96 2d 50 bc 04 d8 08 bc 84 f1 eb 3c ab c1 62 bc
       -0.012706181 -0.008352283 0.028801687 -0.013840119
000090 bd eb 60 3d 8b 42 a2 be 82 d7 dd 3c b7 fe c6 3c
       0.054912318 -0.31691393 0.027080301 0.02429138
0000a0 c4 97 ac bc 5e 7a 12 bd 95 f8 28 3d 93 d4 13 3c
       -0.021068461 -0.03576123 0.04125269 0.00902285
0000b0 1a 8d be 3c 41 81 dd bd 3f 31 33 bd 30 d3 89 bc
       0.023260642 -0.10815669 -0.043748137 -0.016824335
0000c0 46 f4 43 bc 99 1b 50 be 00 fb df 3c 50 2d 19 be
       -0.011960095 -0.20323028 0.027341366 -0.14958692
0000d0 b3 6f c0 bc 30 c6 26 bd ed 43 4d bd db 0b 05 3d
       -0.023490762 -0.04071635 -0.050113607 0.03248201
0000e0 a1 84 c7 bc ad 46 0d 3d ab f4 16 bd f3 9a 8e bd
       -0.024355235 0.03449123 -0.036854427 -0.06963148
0000f0 ef ce 87 bb f0 c4 e7 b8 d0 92 17 3d 96 32 e0 3b
       -0.0041445415 -0.00011051621 0.037005246 0.006841968
000100 26 a6 6e 3c f4 3f 8a bc 23 37 37 3d 88 94 04 bd
       0.01456598 -0.016876198 0.044730317 -0.032368213
000110 08 73 11 3d af 02 a4 bd 04 36 e1 3b c9 da 29 bc
       0.035510093 -0.08008324 0.0068728942 -0.010367104
000120 3e 43 26 bd b3 14 dc bc 77 d4 bf 3c 10 52 26 be
       -0.04059147 -0.026865339 0.02341674 -0.16242242
000130 22 08 dc bc 9d 6f bf 3b 88 f5 09 3d 4d b4 03 bd
       -0.026859347 0.0058421628 0.033681422 -0.03215437
000140 66 72 b1 3c 67 7e 49 3b b3 13 89 bb e6 55 ef 3a
       0.021660995 0.0030745508 -0.0041832565 0.0018259853
000150 61 a4 3f 3d cd 05 d6 be 6e 5a 76 3d 26 e3 90 3b
       0.046787623 -0.418013 0.060144834 0.0044216095
000160 b1 74 f4 bc 8e 27 6d 3b 56 ac 02 3d a1 10 84 bd
       -0.029840799 0.0036186907 0.031902634 -0.06448484
000170 77 0d 4d bd 13 bc 01 bd 37 61 d3 3c 5a 06 95 be
       -0.05006167 -0.031673502 0.025803192 -0.29106408
000180 6b c2 ad 3d 81 73 f9 3d 1d 13 1e 3b 2f 04 99 bc
       0.08484348 0.12180234 0.002412028 -0.018678753
000190 1e 9d 3a 3d de be 83 3c 4e 17 67 bd aa 24 de 3d
       0.045559995 0.016082224 -0.05641871 0.10846837
0001a0 e9 d7 99 be 50 60 3e bb 22 16 a8 bb 86 f1 ce 3a
       -0.3004754 -0.0029049106 -0.0051295916 0.0015788532
0001b0 31 81 c0 bc 1f 46 6e 3c 00 00 31 3d 63 b2 0e 3d
       -0.023499103 0.014543085 0.04321289 0.03483809
0001c0 29 82 8d 3b 7b 24 61 3c fc 2b 83 3d 23 86 35 be
       0.004318495 0.013741608 0.06404874 -0.1772695
0001d0 95 4d 86 3c 53 c4 15 3d 6f 20 36 bc 4c 79 08 3c
       0.016394416 0.036564182 -0.011116131 0.008329701
0001e0 f8 65 c5 bc f1 61 b6 3c 8a e0 5e 3d eb cc b4 bd
       -0.024096474 0.022263499 0.054413356 -0.088281475
0001f0 9f e5 b2 3b 7b 3f 2c 3b 99 3d f9 bc 2c 4f 52 3c
       0.005459502 0.0026282954 -0.03042488 0.012836259
000200 90 9e 32 bd 52 ff 8a bd b1 94 7d 3d 90 c9 56 3d
       -0.04360825 -0.0678698 0.06190938 0.05243832
000210 85 e8 10 bf e6 83 f8 3d 5e d6 0c 3d f3 9e b7 bb
       -0.56604797 0.12134533 0.034384124 -0.005603665
000220 43 f6 bb 3c 39 08 60 bd 46 a8 44 bd a7 91 40 3b
       0.022944575 -0.05469534 -0.04801204 0.002938369
000230 c9 a3 ac 3b 06 e2 83 3c 08 d8 2d 3c 54 47 11 bd
       0.005268548 0.016098987 0.010610588 -0.035468414
000240 7d 8c 69 3c a4 c2 2e bc 93 2d e1 bc 82 a8 47 bc
       0.014254686 -0.010666523 -0.027487552 -0.0121861715
000250 36 a2 8d 3b 6d 61 10 3e bf 5e 06 3d 77 80 08 3d
       0.0043223156 0.14099665 0.0328052 0.03332564
000260 e3 ff 68 3c 47 5d 93 bc b2 fb da bb b6 45 81 bd
       0.014221164 -0.017988814 -0.0066828365 -0.063121244
000270 b6 73 a9 bc 3c 9c 95 3c 98 fe 68 3c 2f b6 6f 3c
       -0.020685058 0.018262975 0.014220856 0.014630838
000280 f3 42 e6 3c b9 af cb bb 12 e1 26 3c 52 09 05 3c
       0.028108096 -0.006216016 0.010185497 0.008119898
000290 52 4c 00 3e 49 63 1e bd ee 5c 51 bc b4 51 88 3b
       0.12529114 -0.038668904 -0.012778504 0.0041601304
0002a0 e4 72 83 ba 40 e3 b1 3c cb c5 99 3b b3 a4 91 bd
       -0.0010028747 0.021714807 0.004692768 -0.07111492
0002b0 6f 51 81 bc 76 a4 04 3e a1 18 39 bd bb f5 f4 3c
       -0.0157859 0.12953362 -0.045189504 0.02990233
0002c0 01 c7 ef bd 59 14 82 3d 3c c1 42 3d 8c a6 28 3d
       -0.11707879 0.06351537 0.047547564 0.041174456
0002d0 d3 f1 11 bd cf 4b 23 3a 58 27 40 3d 3d a1 5a 3d
       -0.035631012 0.0006229253 0.04691252 0.053376425
0002e0 48 e2 98 3d 06 5a e7 3c 51 44 f3 3c e1 b4 33 3e
       0.07465035 0.028241169 0.029695662 0.17549469
0002f0 fa a7 32 bd 75 2b 48 3c 1e 94 9b bc b0 38 93 3b
       -0.043617226 0.012217392 -0.018991526 0.0044928417
000300 d2 25 a2 bc e5 4e 1c 3d 35 8a c3 bc 3f 30 24 bd
       -0.019793425 0.038161177 -0.023869613 -0.040085074
000310 cf e6 40 3d f8 41 99 3c 98 cb d5 bd 51 46 93 3d
       0.047095116 0.018708214 -0.10439223 0.07191146
000320 5d 93 be bb c0 7f 34 3d 50 d7 37 3d 7c 4a 83 bd
       -0.005815907 0.044067144 0.044883072 -0.06410691
000330 68 62 8a 3c 5b 18 44 3c a7 75 c8 bc 25 e8 01 3c
       0.016892627 0.011968697 -0.024470164 0.007928883
000340 a7 0d 2a bb 7d 46 9c 3c e3 57 b4 3d e6 74 d1 bd
       -0.002594808 0.01907658 0.088058256 -0.10227375
000350 16 da 48 3d f2 03 23 3d ce 53 a3 bd d0 14 a1 3d
       0.049036108 0.039798684 -0.07974969 0.07865298
000360 8c 93 5b 3c 59 07 0c bd 18 b2 70 3c bf c8 2e 3e
       0.013401877 -0.034186695 0.014690898 0.17068766
000370 81 8f 07 3e 9c 9f 5e bd d8 ae b6 3d 9b 54 3b 3c
       0.13238336 -0.054351434 0.089200675 0.011433746
000380 63 8e b8 3d 1f 3a 5e bc b7 6c 92 bc ab 5a c4 3c
       0.09011533 -0.013563662 -0.017874105 0.023969015
000390 6d 77 07 3d b9 0b 1f 3c e1 29 65 bc 1a 80 0a bd
       0.033072878 0.009707385 -0.0139870355 -0.033813573
0003a0 bd 36 a5 3c 90 34 b6 3d 46 3c 54 38 08 52 0d 3d
       0.020167703 0.08896744 5.0600873e-05 0.03450206
0003b0 1e d4 29 3d f2 45 9e 3c 2c b8 19 3d 3e 5f 14 3d
       0.041462056 0.019320462 0.037529156 0.036223643
0003c0 4b f4 79 3c 07 3e e4 3c b3 b4 cf 3d 07 47 5a 3d
       0.015255998 0.027861608 0.101418875 0.053290393
0003d0 ff 1e f0 3c 44 87 46 be 75 68 9b 3c 6c f7 0b bd
       0.029311655 -0.19387537 0.018970707 -0.034171507
0003e0 c9 fb 01 3d ce ad 79 bc a8 85 6c 3e 7e cd 04 3e
       0.03173426 -0.015239192 0.23097861 0.12969014
0003f0 ab 42 4a bb 48 71 f2 3c b8 69 3d bc e9 cc be bc
       -0.003086249 0.029595032 -0.01156085 -0.023291068

cause_networks.0.0.bias f4 [103]
000000 b2 4a a2 bd 43 84 ec bd 57 e4 99 3d f0 9b fa bb
       -0.07924403 -0.115486644 0.075142555 -0.0076479837
000010 ae 80 99 bd d3 94 11 3d d4 f3 c4 3b 97 bd 97 bd
       -0.07495247 0.03554232 0.006010512 -0.07409208
000020 c0 43 10 bd 47 96 c2 bb 3d 4e f2 bd a5 fb 13 3d
       -0.03522086 -0.0059383246 -0.11831329 0.03612866
000030 90 e4 ba bd 4b 60 a5 3d 99 fc ad 3c 28 b3 c4 bb
       -0.09125626 0.08075007 0.021238612 -0.0060028024
000040 fc 52 b2 3c e7 47 c5 3c 4f ee 3b 3c ac 72 41 3d
       0.021768086 0.024082137 0.011470391 0.0472285
000050 24 78 2b bd 34 a9 89 3d 6c 96 ed bc f1 b1 9b bb
       -0.041862622 0.06721726 -0.02900239 -0.004751437
000060 4c 50 f6 3d a7 ae 2d bd 25 83 3b 3c 8a 3a f2 3d
       0.12027034 -0.04240289 0.0114448415 0.11827572
000070 fd 39 5b bd 9c 37 60 bc 97 86 8f 3d 29 7d 49 bd
       -0.0535221 -0.013685133 0.07008093 -0.049191628
000080 de 7f b8 3c 5a e1 2d 3d bd 8c 97 3c 50 a8 4d 3d
       0.02252191 0.04245124 0.018499726 0.050209343
000090 98 15 f2 bc 13 6a 8c bd 23 68 b2 bd 0b cd b1 3d
       -0.029551312 -0.068561696 -0.08711269 0.08681687
0000a0 b3 dc 9b 3d cb 4a e0 3b a0 35 b7 bd 94 3f df bb
       0.076104544 0.0068448535 -0.08945775 -0.006812999
0000b0 2e 6e 02 3d 6f d7 05 3d b7 24 06 bc b0 1a ed bd
       0.031843357 0.032676157 -0.008187464 -0.11577356
0000c0 4d f4 46 bc 84 8f 10 be 44 5e 83 bb a3 1b 82 3c
       -0.012143207 -0.14117247 -0.00400904 0.015882319
0000d0 48 43 90 3d 99 25 9d bd 5e b7 83 3d ee 89 75 bd
       0.07044083 -0.07673187 0.06431459 -0.059945993
0000e0 82 8d 6c bb 73 3d 9a 3d 00 e9 0b 3d 88 7b 90 3e
       -0.0036095087 0.07531252 0.034157753 0.28219247
0000f0 6f 52 36 3d 3d 24 d3 3d 4e f1 1b bd 72 62 41 bc
       0.04451221 0.10309646 -0.038071923 -0.011803256
000100 7e 27 3a 3e 85 63 19 3d 01 cd 78 3d 99 a2 c9 3d
       0.18179128 0.037448425 0.060742382 0.09845466
000110 bf db 78 bd 8c 48 66 3c 07 04 9c bd 1e c9 70 3d
       -0.06075644 0.014055382 -0.07617956 0.05878555
000120 aa 4a e7 3d f4 aa 4c 3c e3 3b 05 3e 8b 34 01 be
       0.11293538 0.01249193 0.13011126 -0.126177
000130 0a 7b f7 bd ad fc 92 3c 17 18 45 bd 64 57 29 bd
       -0.12084015 0.01794275 -0.048118677 -0.041343108
000140 15 0f e2 3d ba d3 5e bd 5a 4c c3 bc 3b bd 71 3d
       0.11038033 -0.054401137 -0.023840118 0.059018355
000150 5b 60 14 bc 7f 9c bc bc 62 88 fe 3c 6a 84 09 bc
       -0.009056176 -0.023023842 0.031070892 -0.008393386
000160 77 5d 9e bd 12 e9 0a be 5e 58 1a 3e aa 9d e0 bc
       -0.07732671 -0.13565472 0.15072772 -0.02741893
000170 95 3c 96 3d e2 89 b8 3c 43 b3 45 3e df a4 4f 3c
       0.07335774 0.022526685 0.19306664 0.012673586
000180 b1 61 c8 bc 8d bf 88 bd 62 c8 d7 bb 3e f9 58 bd
       -0.024460645 -0.066771604 -0.006585167 -0.05297207
000190 d6 ca 63 bd d1 cb 9c 3d b7 98 33 bb
       -0.05561336 0.076560624 -0.0027404258

cause_networks.0.1.weight f4 [103]
000000 69 96 1c 3f 42 62 ef 3e 66 06 d3 3e cf 50 04 3f
       0.6116701 0.46754652 0.4121582 0.51685804
000010 fd dd 10 3f d9 ab 0a 3f 89 df fb 3e a3 1d 08 3f
       0.5658873 0.5416847 0.4919398 0.5317022
000020 d4 eb 16 3f 1e 83 23 3f bf 60 f7 3e f6 4d c7 3e
       0.58953595 0.63871944 0.48316 0.38926667
000030 37 29 3b 3f 4c 93 06 3f 11 11 df 3e ef b6 dc 3e
       0.73109764 0.5256851 0.43567708 0.43108317
000040 11 01 f3 3e 0f 1a f7 3e fb 5b 24 3f e8 14 21 3f
       0.4746175 0.4826207 0.6420285 0.62922525
000050 f2 37 b3 3e ea f7 d3 3e e1 b5 14 3f 06 51 fa 3e
       0.3500362 0.4140008 0.58090025 0.4888994
000060 e8 3c e5 3e 3f 2a 0a 3f 01 9f dd 3e b4 06 0c 3f
       0.4477303 0.5397071 0.43285373 0.5469773
000070 17 51 1b 3f 62 2c e1 3e 34 02 0b 3f d2 08 0d 3f
       0.6067061 0.43979174 0.54300237 0.55091584
000080 e2 ed da 3e a1 e2 ee 3e c5 71 e0 3e 1a 9c 22 3f
       0.42759615 0.4665728 0.438368 0.6351944
000090 18 c6 c5 3e fe 8b 0b 3f 19 d1 fa 3e 2e 78 09 3f
       0.38627696 0.54510486 0.48987654 0.53699005
0000a0 5e c7 ec 3e 38 89 0d 3f 65 36 16 3f a7 e1 f0 3e
       0.46245855 0.55287504 0.5867675 0.4704716
0000b0 57 e3 b5 3e 01 34 21 3f 0a 03 03 3f cc b3 01 3f
       0.3552501 0.62969977 0.5117651 0.50664973
0000c0 20 ed 1e 3f dd 7f 14 3f e3 e0 0d 3f 6c d5 15 3f
       0.62080574 0.58007604 0.55421275 0.5852878
0000d0 11 ea fb 3e d5 16 32 3f 37 f2 cf 3e eb 6c 14 3f
       0.49202016 0.6956609 0.40614483 0.57978696
0000e0 22 94 41 3f ae b5 da 3e b7 9c 12 3f 60 b1 03 3f
       0.7561666 0.42716736 0.5727038 0.5144253
0000f0 2d f4 e6 3e 26 34 e8 3e 58 9c d2 3e a9 f4 f8 3e
       0.45108166 0.45352286 0.41134906 0.4862416
000100 fd 94 25 3f 4b 44 f8 3e 19 19 d6 3e e5 e9 c0 3e
       0.64680463 0.48489603 0.41816023 0.37678447
000110 98 a2 fa 3e c0 12 0d 3f 91 21 d2 3e 07 0b 2e 3f
       0.48952174 0.55106735 0.41041234 0.67985576
000120 27 00 0a 3f e2 9a 01 3f 67 dd d0 3e cb 05 e5 3e
       0.5390648 0.5062696 0.40793917 0.44730982
000130 51 31 02 3f 21 8b 01 3f 3f f9 0d 3f b9 e7 d4 3e
       0.508565 0.5060292 0.55458444 0.4158304
000140 d6 54 f1 3e d7 f1 21 3f a6 d3 05 3f 3c 2c 29 3f
       0.47135037 0.63259643 0.52276075 0.6608312
000150 5d 0a c9 3e de 04 0d 3f 8f 64 eb 3e d8 bc 22 3f
       0.3926572 0.5508555 0.45975158 0.635694
000160 53 9d 0a 3f 90 98 da 3e a6 23 17 3f ca 03 1a 3f
       0.5414631 0.4269452 0.5903877 0.6016203
000170 aa d8 0f 3f db e2 1c 3f 56 67 1b 3f 3a 53 16 3f
       0.5618998 0.61283654 0.60704553 0.58720744
000180 2e 9a cc 3e b0 cb df 3e 30 b8 f9 3e b0 74 16 3f
       0.3996138 0.4371009 0.48773336 0.587718
000190 46 04 dc 3e ce 7d e8 3e e0 c0 b4 3e
       0.4297201 0.4540848 0.35303402

cause_networks.0.1.bias f4 [103]
000000 ca c7 46 be 0e a7 c9 bc 92 fc 8f bc f0 01 2e be
       -0.19412151 -0.02461579 -0.01757649 -0.16992927
000010 58 b7 0b be 9c 26 7d bd 1e b7 f4 bd c4 40 9a bd
       -0.13644159 -0.0618044 -0.11948989 -0.07531884
000020 df e4 8b bc 84 35 b1 bd ea 94 04 be 6b 99 9c be
       -0.017076908 -0.086527854 -0.12947431 -0.305858
000030 80 ab 86 be 04 35 08 be e3 78 07 be e5 bc 58 be
       -0.2630272 -0.13301474 -0.13229708 -0.21165808
000040 d9 7d 0b be e5 7b 49 be c8 88 0b be 0d d3 01 be
       -0.13622226 -0.19676168 -0.13626397 -0.12678166
000050 08 c0 24 be 7b a9 7c bd a9 5a 5f be dd b5 77 be
       -0.16088879 -0.061685067 -0.21811928 -0.24190469
000060 ae 66 1f be d4 7f ce bd ee 10 f7 bd 14 4b 2d be
       -0.15566513 -0.10082975 -0.12063776 -0.16923171
000070 74 aa 0f bc 48 43 1a be 08 f9 44 be fe d2 9c bd
       -0.008768667 -0.15064728 -0.19235623 -0.07657431
000080 0b 26 46 bd 41 16 44 be 21 54 64 be 79 59 46 be
       -0.048376124 -0.19149114 -0.22297718 -0.19370069
000090 9a 0a 6c be e9 e3 59 be 27 9c 4c be 05 d0 d8 bc
       -0.23050919 -0.21278347 -0.19981442 -0.026466379
0000a0 ed 36 ec bd 7b 4c 55 be 3b 19 05 be 3b 4e 00 be
       -0.11533914 -0.20829956 -0.12997906 -0.12529843
0000b0 1b e0 93 be c2 7d 3f be 2d b5 60 be 2e e1 d9 bd
       -0.28881916 -0.18700317 -0.21944113 -0.10638653
0000c0 24 96 e2 bd 78 a4 2c be 58 96 0a be eb e5 13 be
       -0.11063793 -0.16859615 -0.13533914 -0.14443175
0000d0 83 24 9d be 58 30 2e be c0 aa 0f be 81 f9 89 3b
       -0.3069192 -0.17010629 -0.1402998 0.0042106514
0000e0 08 34 2c be 53 90 3f bd 7e 76 4c bd a2 77 b1 bd
       -0.16816723 -0.046768498 -0.04991769 -0.08665396
0000f0 86 36 d8 bd 2b 89 42 be c1 06 74 be 1a 76 52 3b
       -0.105572745 -0.18997638 -0.23830701 0.003211385
000100 0d b3 73 be 63 66 4f be 01 91 31 be 22 27 e2 bd
       -0.23798771 -0.20253901 -0.17340471 -0.1104262
000110 9f 07 a7 bc 66 a8 bc bd 8a d2 00 be 1c fe 5c be
       -0.020389376 -0.09211807 -0.12580314 -0.2158131
000120 18 6c b1 bd d2 01 24 be 25 0f a6 bd 56 26 ab 3c
       -0.08663195 -0.1601632 -0.08108357 0.020892303
000130 48 e1 4f 3c 85 d3 29 be 8f d1 f5 bd 95 41 b6 3a
       0.012687989 -0.16584595 -0.12002861 0.0013905043
000140 80 45 1d bf 3d f5 cf bd 55 b1 dc bd 50 e0 43 be
       -0.61434174 -0.10154197 -0.10776011 -0.19128537
000150 87 17 86 be 1f 57 48 be 58 e1 30 be 9d 48 2c be
       -0.26189825 -0.19564484 -0.17273462 -0.16824575
000160 6e 69 18 be a8 dc 88 be 9f fb 79 bd 5d e3 01 be
       -0.14883968 -0.26730847 -0.06103098 -0.12684388
000170 04 1c bd bd e5 31 28 be 2e 5a 8a bd 3a f2 2c be
       -0.09233859 -0.16425283 -0.06755482 -0.16889277
000180 2e 17 27 be 4e 73 4d be c2 4c 41 be c3 0f 00 be
       -0.16317436 -0.20063516 -0.18876937 -0.12506013
000190 a5 9b 4d be 8d 9b 8c bd 5c 13 87 be
       -0.20078905 -0.068656065 -0.26381958

cause_networks.0.1.running_mean f4 [103]
000000 6f 79 cc bf e0 42 a4 3f f2 c1 74 bf 39 b3 6c 3f
       -1.5974559 1.2832909 -0.9560844 0.9246097
000010 eb 5c ea 3f de 60 2d be 09 e8 2f 3d ae bb ac bf
       1.8309606 -0.16931483 0.042945895 -1.3494775
000020 36 28 94 be 5b 1e 14 3f f4 71 80 3f c2 d8 4c 3d
       -0.2893693 0.5785882 1.0034776 0.050011404
000030 f3 e5 00 c0 cc 8c ec be 6a 71 0f bf 52 ca 89 bf
       -2.014035 -0.4620117 -0.5603243 -1.0764868
000040 0c df ca bd 85 b6 81 3e e5 47 1a be 10 c8 b5 3f
       -0.09905824 0.25334564 -0.15066488 1.4201679
000050 a4 03 90 3f 02 56 8b 3f 38 03 ea 3e 01 8d df 3f
       1.1251111 1.0885623 0.4570558 1.7464906
000060 58 6e a3 bf 27 00 8f 3e b4 c0 d9 3f 04 8a 7a bc
       -1.2768049 0.27929804 1.7011933 -0.015291695
000070 94 91 20 bf c2 14 5e 3e d4 98 9c 3e 81 28 20 3f
       -0.62722135 0.21687606 0.3058535 0.62561804
000080 13 6e c8 3f c6 25 1a 3f 26 1c 08 3e fa 9e 01 3f
       1.5658592 0.6021389 0.13291988 0.50633204
000090 7d c5 2d bd d7 60 9f bf b9 bc 87 3f f9 d0 80 bf
       -0.042424668 -1.2451428 1.0604469 -1.0063773
0000a0 5e dd 1e be b1 24 8e bf fb e7 30 bf 7b 63 42 3f
       -0.15514132 -1.1104947 -0.69103974 0.75933045
0000b0 be e0 95 3e b9 1a 0c be e4 83 1f 3d 1f 3f dd bf
       0.29273027 -0.13682069 0.03894414 -1.7284888
0000c0 9c 6d ef 3f 27 49 10 bf 97 1b f8 bf 9c 27 b0 3c
       1.8705325 -0.5636162 -1.938342 0.021503262
0000d0 a1 22 b9 3e ba c3 83 be cd 3c d4 3f 02 09 62 3f
       0.36159232 -0.25735265 1.6581055 0.88294995
0000e0 6a 30 41 be 7e 13 e3 bf c2 65 29 3d dd d4 63 bf
       -0.18866125 -1.7740324 0.04135681 -0.8899668
0000f0 c7 8f 03 bb 34 6d 8b 3e 35 ef 8f 3e a2 6f 6a 3d
       -0.0020074712 0.27231753 0.28112188 0.057235368
000100 7a 5a ae be 79 38 2f bf 0a b5 07 3f 37 9e 4a bf
       -0.34053403 -0.68445545 0.5301062 -0.79147667
000110 4d 60 c3 bd 7b 78 df be bc fc 56 be ff 6a cf be
       -0.09539852 -0.43646607 -0.20994848 -0.4051132
000120 d6 d0 6b 3f 98 2a 4a 3f 62 1a 56 bf a2 d7 8b 3f
       0.92115533 0.7897124 -0.83634007 1.0925181
000130 58 c2 01 bf fc fe c6 bf 18 bc 9c 3d ff 48 67 be
       -0.5068717 -1.5546565 0.076530635 -0.2258644
000140 4e 31 5d 3e 13 97 1f c0 59 a3 2a bf c9 86 86 3e
       0.2160084 -2.4935958 -0.666555 0.26274708
000150 56 99 ad 3f d1 dd 40 bf 1f 98 12 be 05 f9 dd bf
       1.356242 -0.75338465 -0.14315842 -1.734162
000160 e3 82 30 bf b7 5c 1f 3f 7f 13 e1 3f cb d7 cf be
       -0.6894972 0.62250847 1.7584075 -0.40594324
000170 c7 6f 3d 3e 64 32 92 be 23 90 67 bf 9e 2f fd be
       0.18499671 -0.2855407 -0.9045431 -0.49450392
000180 16 fb 7c 3f d0 21 ae 3f f2 c3 34 3f 26 95 00 3f
       0.98820627 1.3604069 0.7061149 0.5022758
000190 40 7f bc bb b9 ac ea bf 6c 54 d3 3f
       -0.005752474 -1.8333961 1.6510139

cause_networks.0.1.running_var f4 [103]
000000 ad 8e 33 3c b8 15 32 3c 1a 34 8a 3c 77 c6 53 3c
       0.0109593095 0.010869436 0.016870547 0.012925736
000010 96 d4 47 3c bf d9 09 3c f1 28 95 3c 24 df 19 3c
       0.0121966805 0.008413731 0.018207999 0.00939158
000020 d9 83 eb 3c f4 c2 65 3c e8 86 a2 3c be 9a 90 3c
       0.028749393 0.014023531 0.019839719 0.017651912
000030 d1 07 71 3c 19 ee 3e 3c 20 8b 62 3c 60 31 38 3c
       0.014711336 0.011653447 0.013827115 0.011242241
000040 28 71 66 3c b2 f1 f8 3c 6d 76 72 3c 27 6c 60 3c
       0.0140650645 0.030388687 0.014798743 0.0136976605
000050 d9 83 2b 3d 21 45 fd 3c c8 bc 64 3c 0e 4e 49 3c
       0.041873787 0.030916752 0.013961025 0.012286676
000060 74 64 bc 3c a0 e5 39 3c 9a 73 ae 3c d1 a6 1a 3c
       0.022997119 0.011346251 0.021295357 0.009439186
000070 f4 43 7d 3c 63 77 1b 3c 44 99 5d 3c 1c 6e 85 3c
       0.015458096 0.009488913 0.013525311 0.016287856
000080 5d 51 c0 3c 4c 75 42 3c 78 f8 6d 3c 82 67 2d 3c
       0.023476297 0.011868786 0.014524572 0.01058376
000090 45 05 7c 3c 59 c8 1d 3c 31 cb 16 3c f1 be aa 3c
       0.015382116 0.009630286 0.009203718 0.020843001
0000a0 98 80 0f 3c c5 02 d6 3c e4 10 9e 3c 20 b2 11 3c
       0.0087586865 0.026124367 0.019295163 0.008892566
0000b0 ad 6d 7f 3c c2 89 a5 3c a3 80 c3 3c 39 ab 53 3c
       0.015590114 0.02020729 0.02386505 0.012919241
0000c0 f2 f8 49 3c 1d 06 34 3c 3f ad c9 3c b9 b3 64 3c
       0.01232742 0.010987786 0.024618743 0.013958865
0000d0 ce cf 44 3c 65 39 60 3c cd 63 17 3d 70 1f 66 3c
       0.012012435 0.013685559 0.03696041 0.014045581
0000e0 9e 0e 87 3c b3 e7 7d 3c d4 f8 63 3c ab b8 0c 3c
       0.016486462 0.015497136 0.013914306 0.00858895
0000f0 f3 52 9a 3c 70 34 7f 3c 63 19 eb 3b f1 0a 61 3c
       0.018838381 0.015576467 0.007174657 0.013735519
000100 50 b9 96 3c a9 be 50 3c e9 c4 a7 3c cd 94 f5 3b
       0.01839891 0.012740769 0.020479636 0.007494545
000110 d8 04 ce 3c 9a d7 4e 3c a7 cc 3f 3c 95 bf 80 3c
       0.025148794 0.012624646 0.011706508 0.015716353
000120 1e da 4c 3c 06 62 58 3c 2e f5 26 3c 25 7a 91 3c
       0.012503175 0.013206964 0.010190291 0.017758438
000130 6c 41 50 3c 22 aa 69 3c 1f bb 5c 3c 58 7a 4c 3c
       0.01271091 0.014261754 0.0134723475 0.012480341
000140 52 c1 1f 3d 8a 10 78 3c 59 54 1a 3c 7a 26 35 3c
       0.039002724 0.015140662 0.009419524 0.011056537
000150 2f 8b de 3c 2a 3b 27 3c c8 c7 37 3c 23 b0 92 3c
       0.027165977 0.010206977 0.011217065 0.017906254
000160 18 d2 59 3c da 5f 07 3c 39 87 45 3c 4b e5 6c 3c
       0.013294719 0.008262599 0.012056165 0.014458965
000170 de 6e 28 3c 97 0d 20 3c e9 92 81 3c b2 c3 56 3c
       0.010280339 0.009768865 0.015817123 0.013108181
000180 14 19 88 3c a9 18 19 3c fe 08 6d 3c 82 62 79 3c
       0.01661352 0.009344258 0.014467476 0.01522124
000190 bd 8d 9e 3c c7 82 96 3c 2a 05 70 3d
       0.019354695 0.018372906 0.058598675

cause_networks.0.4.weight f4 [99, 103]
000000 a4 af 6d 3e 83 cf 7c 3d 67 34 5f bc 5f b6 4f 3c
       0.23211533 0.061721336 -0.013623334 0.012677758
000010 e3 5b 37 be 74 b7 73 3d 3a e3 46 3e d4 15 ce 3c
       -0.17906146 0.059501126 0.19422618 0.025156893
000020 0f 88 e8 3d 6e 3e 7e 3d 19 a8 86 3d 01 a0 de 3d
       0.11354076 0.062071256 0.06575031 0.10870362
000030 ce aa c8 3d 51 95 59 3e fb ce d9 3c 61 32 bf bc
       0.097982034 0.21248366 0.026587954 -0.023339452
000040 37 6e 58 3e 75 02 44 3d 64 02 1e 3e 46 91 8c bd
       0.21135794 0.047853906 0.154306 -0.06863646
000050 fe c6 17 3d 5b 7f 6d 3e 69 74 52 3e 81 e6 38 be
       0.037055008 0.23193114 0.2055222 -0.1805668
000060 5c a5 1c 3c 43 23 a7 3d ef fe 0c 3b 97 b8 a7 bc
       0.009560909 0.081610225 0.0021514257 -0.020473761
000070 4e 93 9e 3d 21 e8 e8 bb 4d 67 eb 3c 5f cc 6e 3c
       0.0774294 -0.00710775 0.028735781 0.014575093
000080 6a 46 41 bd 34 ad fb bd f3 6b a3 3a 24 a8 d0 3e
       -0.047186293 -0.12288895 0.0012468084 0.4075328
000090 8b 24 d3 3d 3f e9 77 3c 17 25 eb bc 38 e5 26 3e
       0.103097044 0.015131294 -0.02870421 0.16298378
0000a0 a7 a0 b0 3d 29 16 f3 3a b6 76 1b 3d ce e4 90 bd
       0.08624392 0.0018546033 0.03795501 -0.07074891
0000b0 25 4c 85 bc a2 42 a4 3d 7f e2 74 3e e2 bf 34 3d
       -0.01627166 0.08020522 0.23914526 0.044128306
0000c0 33 c8 3e 3d f1 0d 1a 3d 33 0a b0 3d 5b 5b d6 3d
       0.046577644 0.03761095 0.08595695 0.104666434
0000d0 1e d2 9f bc d7 a4 af bd a2 b6 e7 3d 4f 63 12 be
       -0.019509371 -0.085763626 0.11314131 -0.14295696
0000e0 99 09 81 3e 00 12 c2 bb 17 bb 58 be 41 7d 47 3d
       0.25202635 -0.005922556 -0.21165119 0.048703436
0000f0 61 ac 1a 3d bd 42 98 3d 3f 7b 5d be 27 e0 dc bd
       0.03776205 0.07434604 -0.21629046 -0.10784941
000100 75 1e 8e 3c 5d 84 36 3e de fd d1 3d ab 7b 06 3e
       0.017348507 0.1782393 0.102534994 0.13133113
000110 81 2a bf 3d 92 d1 0a 3d 21 89 b5 bd 01 14 1a bd
       0.09334279 0.033891268 -0.08864046 -0.037616733
000120 40 c2 a6 be b9 fc 82 bd 01 5d 6d 3d f1 a7 82 3c
       -0.32570076 -0.06395859 0.057950024 0.015949221
000130 af 3b 67 bd 21 61 dc 3c e3 c0 d1 bd 9c ff 9d bd
       -0.056453403 0.026901783 -0.10241868 -0.07714769
000140 c6 a7 73 3e 02 37 ff 3d d1 bb 72 bd cf 01 de bd
       0.23794469 0.12461664 -0.059261147 -0.10840189
000150 4f 90 80 bd 7a 29 28 be e9 c7 da 3b ca d4 fa bc
       -0.06277525 -0.16422072 0.006676663 -0.030619044
000160 84 2d 8e 3c c5 95 1f bd 5f 29 a7 bd 6b 6e f9 bd
       0.017355688 -0.03896119 -0.08162188 -0.12179264
000170 3c b6 5a bd 9c bc ab bd b1 8d 92 3c 74 c7 0f be
       -0.05339645 -0.08385584 0.01788983 -0.14040929
000180 2f 71 db 3d 64 ff a2 bd c5 22 13 bd 80 53 12 be
       0.107149474 -0.07958868 -0.03592183 -0.14289665
000190 90 54 41 3e 4b f2 cd bc 0b 4a d8 3d c4 9f 9f be
       0.18879914 -0.025139948 0.105609976 -0.3117658
0001a0 7c c0 99 bd 94 84 8a bd fd a0 47 3e af 80 ce 3c
       -0.075074166 -0.067635685 0.19495006 0.025207845
0001b0 1b b3 ca 3d e7 ba 15 3d f7 f6 ad 3c ec d0 11 3e
       0.09897443 0.036555197 0.021235926 0.14239854
0001c0 dd e9 da 3d 5b 06 d4 3d 0a b7 a4 3d 18 b8 82 be
       0.10689137 0.10352775 0.080427244 -0.25531077
0001d0 3d d0 a5 3d 14 bd f3 3b 90 a3 9c bd 2e f6 a0 3d
       0.08096359 0.0074383114 -0.076483846 0.07859455
0001e0 bd 2d bf 3d f2 f1 6b bd 46 83 8f bd 64 04 54 bc
       0.09334896 -0.057603784 -0.0700746 -0.0129405
0001f0 0e 12 f0 bc a6 18 16 be c2 4f 27 bc 7d fe 7b 3e
       -0.029305484 -0.1465784 -0.010211887 0.24608798
000200 a8 59 5e bd 8c 22 d5 bc 79 a5 93 bc 31 7d 61 3e
       -0.05428472 -0.02601745 -0.01802324 0.22020413
000210 0b 37 b5 bd b7 20 f7 3d ac 8e d2 3b 51 b9 b7 bd
       -0.08848389 0.12066787 0.006425699 -0.08970893
000220 17 63 4c be fc 8c 69 3d 29 f5 a1 3d 09 ba 54 bd
       -0.19959675 0.05701922 0.07908089 -0.05193523
000230 5e 36 a2 bb 4b e1 3e bd 80 34 bf 3d e5 cf 1f 3e
       -0.0049503287 -0.046601575 0.093361855 0.15606649
000240 7e 75 57 3e 55 b1 ba 3d 12 ec 49 be 2e bd 12 3e
       0.21040913 0.09115855 -0.1971896 0.14329979
000250 05 ca a3 3c a9 c2 a3 bd 7e 16 d0 bd 29 01 3e 3a
       0.019993791 -0.07996113 -0.1016054 0.00072480977
000260 8e 75 43 be 8c 5c 84 3d 18 30 5a 3e 06 6b 81 3d
       -0.19087812 0.064629644 0.21307409 0.06319241
000270 77 9f 7b bd 46 7f b4 bc 5a 86 95 bd 48 6d 2b bd
       -0.061431374 -0.022033345 -0.07301016 -0.041852266
000280 3d 67 a7 bc 4b 66 b1 bd d6 0d d3 be 90 11 cd 3d
       -0.02043497 -0.08662089 -0.41221493 0.100131154
000290 8e 59 f1 3c bf 9d 95 3c 6b 05 d2 bc d8 02 8c bd
       0.029461648 0.018263696 -0.02563735 -0.0683648
0002a0 6e 93 1b 3d 43 9b 93 be 25 a4 67 be 1d 35 64 3d
       0.037982397 -0.28829393 -0.2262121 0.055714715
0002b0 8f 71 ed 3d 08 8f 20 3d c5 ba 43 3e 2f 8c b3 bd
       0.11593925 0.039198905 0.19114216 -0.08766972
0002c0 e6 a6 98 bc b3 55 0c be c3 9d 7f 3d 44 31 f4 bd
       -0.01863427 -0.13704567 0.062406313 -0.11923459
0002d0 a1 39 42 be 3c 80 20 bd eb 1e 04 3d 0f d7 19 3d
       -0.18967296 -0.039184794 0.03225605 0.03755861
0002e0 bd e2 89 be 21 f6 b4 bc a2 fe 1b 3d e8 5c 40 be
       -0.269308 -0.02209002 0.038084634 -0.18785441
0002f0 a7 a3 65 be 40 bb 6d bd 73 27 4a 3d 17 29 1a 3d
       -0.2242571 -0.058039904 0.049354028 0.037636843
000300 b4 e0 85 be c3 bf 84 3c 09 40 a8 3d df ff ab 3b
       -0.26147997 0.01620472 0.08215339 0.005249008
000310 7d 10 76 3d 53 12 01 3e 18 f8 d0 bd d1 a5 d3 bd
       0.06007432 0.12604646 -0.1020357 -0.10334361
000320 bb 35 15 be 26 5f a0 3d 2f a3 b9 3d 79 f1 54 3d
       -0.14571278 0.07830648 0.09064328 0.0519881
000330 93 30 8a 3c 6a 50 32 bd 87 50 11 bd 41 97 ed 3b
       0.016868865 -0.04353372 -0.035477187 0.007250697
000340 3b a3 84 bd 42 cc 61 3d c1 ed 8f bd a7 19 12 be
       -0.06476446 0.055126436 -0.0702777 -0.14267598
000350 48 32 e8 3d c1 0c 7a be d0 3f a5 3d bd 14 b7 3c
       0.113377154 -0.24418928 0.08068812 0.022348756
000360 b7 70 2f 3e c5 43 d3 3d d4 4c 73 be 96 2e 59 3d
       0.17132841 0.103156604 -0.23759776 0.053022943
000370 f2 2c b0 bd 8e 42 a4 3c f5 ca 10 3c e1 79 44 3d
       -0.08602323 0.020051267 0.008837451 0.047967795
000380 78 27 99 3e ac 2b 6b 3e 69 a1 42 3d b2 e3 10 3e
       0.29912925 0.22965878 0.047517214 0.14149359
000390 10 0c c7 bc 1e 2d f4 3d e9 34 ea bc c9 0b d5 bd
       -0.024297744 0.11922668 -0.028589683 -0.104026385
0003a0 22 c2 29 3d 86 e2 fd 3d 12 f0 f9 bc 9f ce cc bd
       0.041444905 0.123967215 -0.030509982 -0.10000347
0003b0 93 7c 49 3d df 10 79 3c 1e 0d a2 39 32 15 f9 bd
       0.04919107 0.015201776 0.0003090882 -0.12162246
0003c0 6a 97 81 3d e7 38 a0 3d c0 0c 1e 3b 7e fd cd bd
       0.06327708 0.07823353 0.0024116486 -0.100581154
0003d0 f3 dd 04 be ea 00 be be 44 c3 89 bd e3 13 3c be
       -0.12975292 -0.37110072 -0.06726697 -0.18366961
0003e0 af 44 63 bc b0 e5 38 bd 38 7f cc 3c b5 14 8f be
       -0.013871356 -0.045140922 0.024963006 -0.27945486
0003f0 30 c3 8f 3d 7d 32 e0 3d a9 24 bd bd f2 ea 06 3e
       0.07019651 0.1094713 -0.09235508 0.13175562

cause_networks.0.4.bias f4 [99]
000000 ec 2a 06 bb 79 61 32 bc c4 96 ce 3c c5 87 e6 bb
       -0.002047236 -0.010887497 0.025218375 -0.007035228
000010 32 0f e3 3c b6 b5 a4 3c 2d 3e e7 bc 3e 42 f5 3c
       0.027717207 0.020106178 -0.02822789 0.029938813
000020 2b 2d 36 3d b8 e0 b4 3c d8 23 83 3c eb b0 2a 3d
       0.04447667 0.02207981 0.016008303 0.04167263
000030 8f 95 e0 bc d9 4c f8 3c 1e 2e 2b 3c e2 7d 3f 3d
       -0.027415065 0.030310081 0.010448007 0.04675091
000040 fd d1 95 3c da da 6b 3c 81 61 a1 3c 4c c0 48 bd
       0.018288607 0.01439544 0.019699814 -0.049011514
000050 dc 95 4b 3d 20 4a 41 bd 93 08 4e 3d 49 2a dc bc
       0.049703464 -0.04718983 0.050301146 -0.026875632
000060 97 0c de bc de 5b d1 3a 17 61 cf 3b 5f 9c 95 bb
       -0.027105613 0.0015972813 0.0063287127 -0.00456576
000070 ab 74 7d bc 61 81 cb 3c 1d 6f 55 bc 3d e9 35 3d
       -0.01546971 0.024841966 -0.01302698 0.044411886
000080 a9 26 da 3c ab f3 1c bc 55 c6 14 3c 77 37 87 bb
       0.026629763 -0.009579579 0.009080489 -0.004126485
000090 69 17 97 3c 11 92 a4 3c c0 aa 14 3d 14 e0 31 bc
       0.01844378 0.020089181 0.036295652 -0.010856647
0000a0 ba e3 23 3d 4a 53 09 3c 19 9a 18 bd 43 d7 c5 3c
       0.0400121 0.008381674 -0.037256334 0.024150496
0000b0 14 79 fc 3c 3a d8 13 3d 6d 4b 63 bc 8f 4d b4 3c
       0.030819453 0.03609488 -0.013872963 0.02200964
0000c0 d5 49 c4 3c d4 5e 35 3d bc 53 13 3d e6 83 83 bd
       0.023960987 0.04427989 0.035968527 -0.06421642
0000d0 c4 bc 87 3c 99 7b 3b bd 3e 79 0c 3d 54 ea bb bc
       0.016569503 -0.04577217 0.034295313 -0.022938885
0000e0 b7 dc bc 3c 6b b4 a2 3c 2c fd cd 3c 08 eb 2f 3d
       0.023054464 0.01986142 0.025145136 0.042948753
0000f0 03 41 5e bc 2a 70 c9 3c 44 d2 94 3c ba 37 2b 3d
       -0.013565305 0.024589617 0.018166669 0.041801192
000100 28 99 65 3a 93 53 65 3c 3b 34 10 3c f2 c9 c6 bc
       0.0008758479 0.013996976 0.008801515 -0.024266217
000110 71 ab 33 3d 4c e5 12 bd 83 34 d5 bc 6c 7f f3 bc
       0.04386467 -0.035863206 -0.026026016 -0.029723845
000120 93 76 f2 bc 3c 67 1f bc 51 50 1e 3d 84 f1 16 3c
       -0.029597556 -0.009729203 0.038650814 0.009212855
000130 8b 81 78 bc fc d1 4b 3d 5e 4f 5b 3d 11 27 b0 3c
       -0.015167604 0.049760804 0.053542487 0.021503003
000140 1e 53 8f 3c e0 fb 2d bc 1b 63 c4 bc 8a b6 d8 bc
       0.017495688 -0.010619134 -0.023973038 -0.026454229
000150 42 25 21 bd 76 55 76 bb d8 1a 09 3d fc 85 8e bc
       -0.039342172 -0.003758756 0.033472866 -0.017397873
000160 97 46 dd 3c df 9a ef bc 4b 72 0b 3d 68 0f f4 3c
       0.027011199 -0.029248653 0.034044545 0.029792503
000170 d2 aa dd bc 41 0d 4e 3d 4b dd 17 bd f6 02 1b bd
       -0.027058993 0.05030561 -0.037076276 -0.03784462
000180 43 4d 26 3d 70 d6 cc 3c a6 5a 0b bd
       0.040601026 0.025004596 -0.034021996

cause_networks.0.5.weight f4 [99]
000000 df f1 fd 3e 12 fc 1d 3f 29 e5 ef 3e 61 f9 0f 3f
       0.49598595 0.61712754 0.46854523 0.56239897
000010 1b 8b 0c 3f 95 76 1a 3f 2e 3b 0c 3f 36 66 00 3f
       0.5489976 0.6033719 0.547778 0.5015596
000020 78 73 19 3f dd df 1a 3f f6 46 13 3f ed a9 ef 3e
       0.59941816 0.6049784 0.5753015 0.4680933
000030 1d 73 fb 3e 50 f3 f8 3e 88 d1 0e 3f 3b ea 19 3f
       0.49111262 0.48623133 0.5578847 0.6012303
000040 97 b3 e1 3e 2c 75 0d 3f 95 5b 06 3f ac 29 d8 3e
       0.4408233 0.55256915 0.52483493 0.42219293
000050 c0 15 cc 3e 93 88 02 3f 89 cb f7 3e 0a 99 08 3f
       0.39860344 0.50989646 0.48397473 0.5335852
000060 fc c0 fb 3e c9 76 f4 3e 3c 83 16 3f 83 d5 ee 3e
       0.49170673 0.47746876 0.58794 0.46647272
000070 e2 9f 19 3f 65 aa 18 3f d4 81 0d 3f 73 ff 08 3f
       0.60009587 0.59635 0.55276227 0.53514785
000080 f2 0c 03 3f ed bf ef 3e bc 70 00 3f fb b7 07 3f
       0.5119163 0.46826115 0.5017202 0.53015107
000090 e7 54 db 3e 9e 24 03 3f d2 0a 15 3f 7c 6e 17 3f
       0.42838213 0.5122775 0.58219635 0.5915296
0000a0 32 a6 e3 3e 9d 74 16 3f 83 11 0e 3f ea ea 16 3f
       0.44462734 0.5877169 0.5549547 0.589522
0000b0 ed ce 1c 3f 3c 93 1a 3f 8c 2b f8 3e 2b 62 fe 3e
       0.61253244 0.6038091 0.48470724 0.4968427
0000c0 1c 8d e8 3e 37 d5 e6 3e c1 85 0c 3f ff d1 15 3f
       0.45420158 0.45084545 0.5489159 0.58523554
0000d0 4a 46 0e 3f 73 da 01 3f f2 33 0c 3f 40 7c d2 3e
       0.55576 0.5072395 0.5476676 0.4111042
0000e0 1d 2c f0 3e 1a e7 e1 3e 85 e4 00 3f f4 b1 02 3f
       0.46908656 0.4412163 0.50348693 0.51052785
0000f0 16 b1 0b 3f c2 cb da 3e 7f ad 0c 3f 6d ec 08 3f
       0.54567087 0.4273358 0.54952234 0.5348576
000100 84 43 20 3f 62 93 09 3f 3f 9a 06 3f 51 28 08 3f
       0.6260302 0.53740513 0.5257911 0.5318652
000110 e2 f6 13 3f ba cd 01 3f 41 41 01 3f 34 00 fd 3e
       0.5779859 0.5070454 0.50490195 0.49414217
000120 b4 43 fb 3e 0a de 05 3f 11 9b f8 3e 39 ed f8 3e
       0.4907509 0.5229193 0.48555806 0.48618487
000130 b2 a8 e8 3e f2 c0 21 3f 24 b0 0f 3f de 02 fd 3e
       0.45441204 0.63185036 0.56128144 0.4941625
000140 fe a6 0d 3f 4d 9f 05 3f ec 76 03 3f 84 65 bb 3e
       0.55332935 0.521962 0.51353335 0.36600888
000150 64 6f f6 3e ef e1 fe 3e 25 61 0f 3f 8f 20 08 3f
       0.4813186 0.4978175 0.56007606 0.5317468
000160 ea bd 15 3f d7 17 09 3f 35 af 10 3f b1 36 d0 3e
       0.5849291 0.53552 0.56517345 0.40666726
000170 0b 07 f9 3e 3f 78 1b 3f 67 5b db 3e 3f d9 d7 3e
       0.48638186 0.60730356 0.42843172 0.42157933
000180 5f fa 09 3f 7a 8d 0e 3f b4 e7 da 3e
       0.5389766 0.55684626 0.427549

cause_networks.0.5.bias f4 [99]
000000 38 41 7a be 73 81 79 bd e7 7d 24 be d9 78 20 be
       -0.24438941 -0.060914468 -0.16063653 -0.156711
000010 b5 61 31 be 49 8e b7 be ac 14 b9 bd ae d0 85 be
       -0.17322429 -0.35850742 -0.09037146 -0.26135772
000020 8b 8c eb bd 8f 75 fa bd 78 4c 09 be 67 ba d1 bd
       -0.11501416 -0.12229454 -0.13408077 -0.102406316
000030 c6 92 b6 bd ef 86 2f be 4b 02 5f be ed 5a 65 be
       -0.089147136 -0.17141317 -0.21778218 -0.22397967
000040 81 cd eb bd b7 7e a8 bd 5a 5f 1f be c9 64 11 bd
       -0.11513806 -0.08227294 -0.15563717 -0.035496507
000050 42 38 dd bd 54 7c b8 bd 9d e0 7b be ed 56 52 be
       -0.10801746 -0.09008089 -0.24597402 -0.20540972
000060 94 f5 14 be 83 2c de bd c5 8e e0 bd 16 f0 56 be
       -0.14546806 -0.10848334 -0.10964731 -0.20990023
000070 41 01 82 be d0 c4 b3 bd e1 49 28 be 10 00 02 be
       -0.25391582 -0.087777734 -0.16434433 -0.12695336
000080 99 9c a0 be 74 63 26 be 49 0c 05 be 2d 34 30 be
       -0.31369475 -0.16248876 -0.12992968 -0.17207403
000090 9a a1 8c bd b2 b6 99 be e7 8d 16 be ff c7 08 be
       -0.068667606 -0.30022198 -0.14702569 -0.13357542
0000a0 00 2a 7f bd 96 e7 a2 bd 26 ef 11 be 5c 0c a0 bd
       -0.062295914 -0.07954328 -0.14251384 -0.07814857
0000b0 1e d0 c2 bd c5 de 76 be 5b a1 43 be 09 09 8d be
       -0.095123515 -0.24108417 -0.19104521 -0.27545956
0000c0 fb 14 4b bd 6d 5d 47 be ec 8b 0d be 90 d5 1f be
       -0.049580555 -0.19469233 -0.13822907 -0.15608811
0000d0 db 68 2b be b9 5d ee bd bb a0 34 be 3d ba 63 be
       -0.16739218 -0.1163897 -0.17639439 -0.22239013
0000e0 5e fd 3a be 9d 17 8c be fc 06 3c be 74 66 ab bd
       -0.18260714 -0.27361766 -0.1836204 -0.08369151
0000f0 2d 25 41 be 9a 94 bf bc ed bd 34 be e8 ba ec bd
       -0.18861838 -0.023386288 -0.17650576 -0.11559087
000100 c9 9b e3 bd bd b9 14 bd 99 48 12 be 93 cd 24 be
       -0.11113698 -0.036309946 -0.14285506 -0.16094045
000110 74 7f e6 bd 28 bd 22 be db 8b 25 be f0 21 41 be
       -0.112547785 -0.1589247 -0.16166632 -0.18860602
000120 0c d0 35 be ef 83 31 be 42 39 c1 bd 3e f6 00 be
       -0.17755145 -0.17335485 -0.09434749 -0.12593934
000130 74 49 89 be c5 c1 09 be 16 38 2f be 10 3a 4e be
       -0.26813853 -0.13452823 -0.17111239 -0.20139337
000140 73 bb 27 be 03 95 5f be 77 49 bd bd fc 99 a3 be
       -0.163801 -0.21834187 -0.09242528 -0.31953418
000150 1e b1 97 be f5 b4 98 be e7 78 31 be 0f b2 dc bd
       -0.29627317 -0.2982556 -0.17331277 -0.107761495
000160 63 10 0f bd 0b f1 44 be 1b 22 26 be 50 b3 c6 be
       -0.034927737 -0.19232576 -0.16223948 -0.3880868
000170 07 da 2f be 16 79 8c bd ef 2a b7 bd 71 b9 ab be
       -0.17173015 -0.06859033 -0.08943736 -0.33539918
000180 68 f8 74 bd 91 71 45 be 48 57 80 be
       -0.05980721 -0.19281603 -0.2506659
