foundation_models/Ensemble_model17_DeepSurv_LSTM_Event_1_20250805_001337.pt (torch, 926536 bytes, 17 tensors)

lstm_layers.0.weight_ih_l0 f4 [332, 11]
00000000: 9997 81be 4893 c2bd d8e5 53be d85f ea3d
00000010: 4f39 f5bd d3ac 18be 6bd8 96be 87a9 14be
00000020: b71e 12be da94 9cbd 466b 0abf 7268 b3bd
00000030: 0104 73be 22d3 aebd 5681 463e ab93 d8bd
00000040: 48b6 25be ea21 7ab9 0999 2cbe 5bee 00bd
00000050: 5a96 a3bc a4d5 93be 56b7 f8bd 7b10 a9be
00000060: 8b7b a8be 5394 dc3e dc68 99bf 8324 00bf
00000070: aac7 77be cbf9 3fbe 93ac fbbe b9ed c33d
00000080: 8a82 b4be 8d8d cabe 66b3 383f 10d0 08bf
00000090: db88 1e40 45d9 773f e5b5 5a3d 1a8d 46bf
000000a0: 3bca dabd 5a02 ccbe 3640 c23d 0319 45bf
000000b0: 33d8 5dbe 5015 913c 5a9d b5be 6f3b ba3e
000000c0: 7d36 a53e 663d a8bd b722 5bbe 8f60 45be
000000d0: 3dad 81bd 5f9b d0bd f239 9abe e2d0 c43d
000000e0: 0f39 d5be 67eb 41be e989 953e f855 12bf
000000f0: e425 02bf 9fcb b1be 76fc e8be 2b3f 49bf
00000100: 7bf1 9ebe 491f 66bf fed7 14bf 5ef6 a2be
00000110: 00fe 4dbe 5759 03bf 584d 72bf c630 dfbe
00000120: aded 20be 9bd2 92be 89af abbe baa9 dbbe
00000130: 0628 a83c 9d7b adbe 9f66 13bf 203a 85be
00000140: 37c6 0d3f 647a 8dbf b4cb 32bf f949 89be
00000150: 5fad 08bf 568d 88bf 7b2e d2bd 778c 98bf
00000160: 0c8b a4bc 0d08 dd3e 192b 073d f45c 55bf
00000170: fc2f d23f 87bc 0e3f ac3c 8abe 0d50 afbe
00000180: fa32 883e 16d6 c53e fc3e 25bf 3a47 203e
00000190: f51a cb3c 4815 2bbf 5dc4 963e 764f 8abf
000001a0: 8463 f5be c800 c1be 212d 5fbe 3f2e b23b
000001b0: 51cc 96bc 90ec ff3e d220 36be 86ce ccbe
000001c0: f7bd 923d be27 03be f4bf 6abe 4cf2 4cbe
000001d0: 2e32 943c d9e6 84bd f1a0 47bc 83ff 40be
000001e0: a518 043e d3fd 4ebd bbc4 04bf 83a5 b5be
000001f0: 3a41 b93e 3190 94bf dc03 15bf 3685 d4be
00000200: 01d2 fcbe 1be6 5dbf 4558 64be 0dea 89bf
00000210: 8bc8 90be c0a9 67be 5333 07be 1158 efbe
00000220: d7b4 5cbf 404b b1be dbb1 d73a 50d8 c5bd
00000230: 9a7d 8abd f545 74be e605 273e 8e31 3a3d
00000240: 8516 75be 4f6f 9abd 3535 053e 6850 f4bd
00000250: b428 4fbe f245 03be db57 9fbd 1aea d3bd
00000260: 7ed7 71bd 7346 e1bd e35c 513c c5b7 a73d
00000270: 28e5 273e 111a 263f 9528 083f 8f44 4a3d
00000280: d225 943d 5f28 e73d 550c 523d f023 4fbc
00000290: a660 a4be e3bd 23bc 906c 0c3f 8f00 2ebf
000002a0: 9b49 2840 3ca2 e43e 6540 3ebe 69cb 13bf
000002b0: ec4a c1be 9ec1 bdbe b23c 1f3e c4ce f4be
000002c0: d7eb a3bd d728 063e ade1 44bf 7a83 97bf
000002d0: 4280 f73c f3f3 a6bc 64f6 b0be 398e 72be
000002e0: 3e2c 0b3e 1eb5 6e3e a864 203f 5afc 9fbd
000002f0: 70f2 083d 1a73 06bf 10ce e33d 4ef0 4cbf
00000300: 10bb efbe c61e a6be 3130 6cbe ee54 09be
00000310: c758 c4bd 3507 983e fe38 47be ecf2 2dbe
00000320: 0572 89be 92c5 6a3e 76f0 acbd 038a 5fbe
00000330: 4238 15bd 8e2d 1dbe 73ed 29bd eec5 88bd
00000340: 3991 9fbe 620e 2dbd a7ce 6cbe 7682 91be
00000350: 031a 293e 612d 01bf 3a3b 7cbe f728 babd
00000360: 79ec 1cbe 787d ffbd d6db bbbb 64fc 20be
00000370: 9d7b e4be 1314 f1be 73c8 a3be 4c68 aebe
00000380: b52e a5bf 96fe e6be b4b9 83be 9997 c7be
00000390: d8ef d8be 1dda 9cbe 304c 8c3e b0bf 0fbd
000003a0: c819 b5be 2e6f e1bd 3e9e 883e f042 80be
000003b0: bafd 69be 7daf 47be c1eb 58be d1fc 1cbe
000003c0: edfa 0abf 58c1 43bf 553e da3d afad 9dbd
000003d0: e395 393d 4829 fe3d cd19 0dbf 47f6 a4bd
000003e0: 7498 013e 1504 40bd 5c70 e7be 35ee 04bd
000003f0: 44b4 2fbf 7958 bfbd da1c 55be a0e2 56be
-0.25310972 -0.09500748 -0.20693147 0.11444062 -0.11973821 -0.14909677 -0.2946199 -0.14517795
-0.1426953 -0.07645579 -0.54069936 -0.08760156 -0.23731996 -0.08536364 0.19385275 -0.105750404
-0.16182816 -0.00023854492 -0.16855253 -0.031477313 -0.019969154 -0.28873932 -0.121443436 -0.33020386
-0.32906756 0.43081912 -1.1985126 -0.5005571 -0.2419726 -0.18747632 -0.491551 0.095668264
-0.35255843 -0.3956112 0.7214874 -0.5344248 2.477103 0.968159 0.053396124 -0.77559054
-0.10683104 -0.39845544 0.094849035 -0.7699129 -0.21664505 0.017710358 -0.35471612 0.3637347
0.32268134 -0.08214836 -0.21399961 -0.19275115 -0.06331871 -0.10185885 -0.30122334 0.09610154
-0.41645095 -0.18937455 0.2920678 -0.5716243 -0.50839067 -0.34725663 -0.45505112 -0.7861201
-0.3104361 -0.8989149 -0.5814208 -0.31828588 -0.20116425 -0.51308197 -0.9464927 -0.435919
-0.15715666 -0.28676304 -0.3353236 -0.4290293 0.020526897 -0.33883372 -0.5757846 -0.26020908
0.55380577 -1.1052976 -0.69842076 -0.2681425 -0.53389543 -1.0668132 -0.10262772 -1.1917866
-0.020085834 0.43170205 0.033000086 -0.8334496 1.6420894 0.5575642 -0.26999414 -0.3424076
0.26601392 0.38639897 -0.6454923 0.15652171 0.024793128 -0.6682935 0.29446688 -1.08055
-0.47927487 -0.3769591 -0.21794559 0.005437642 -0.018407973 0.4998517 -0.17785957 -0.40001315
0.07165139 -0.12808129 -0.22924787 -0.20014304 0.018090334 -0.06489343 -0.0121843675 -0.1884747
0.12900026 -0.050535034 -0.51862687 -0.35477838 0.36182576 -1.1606504 -0.58209014 -0.41507882
-0.4937897 -0.8667924 -0.22299297 -1.0774552 -0.28278002 -0.22623348 -0.13203172 -0.46746877
-0.8621344 -0.34627724 0.0016456203 -0.09660399 -0.06762238 -0.23854811 0.16310844 0.045457415
-0.23934372 -0.07540762 0.13008578 -0.11929399 -0.20230371 -0.12819651 -0.07780429 -0.10347386
-0.0590434 -0.10999765 0.012778494 0.08189348 0.1639601 0.64883524 0.53186923 0.04938179
0.07233776 0.11286997 0.051281292 -0.0126428455 -0.32104987 -0.009994003 0.54853153 -0.679696
2.6294925 0.44655025 -0.18579252 -0.57732254 -0.37752473 -0.3706178 0.15550497 -0.47814
-0.08003967 0.13101517 -0.76906854 -1.1836998 0.030212525 -0.020379996 -0.3456298 -0.23687066
0.13591096 0.23311278 0.6265359 -0.07811804 0.03343433 -0.5251938 0.11123288 -0.80054176
-0.46822405 -0.32445353 -0.23065259 -0.13411304 -0.095872454 0.29693 -0.19455335 -0.16987199
-0.26844802 0.2292693 -0.08444302 -0.21829991 -0.036430605 -0.15349409 -0.041486215 -0.06678377
-0.31165484 -0.042250045 -0.23125707 -0.28419846 0.16513829 -0.5045987 -0.24631968 -0.09089845
-0.15324582 -0.12475103 -0.0057329936 -0.1572128 -0.4462556 -0.47085628 -0.31988868 -0.34063947
-1.2904879 -0.4511611 -0.25727618 -0.38982847 -0.42370486 -0.30635157 0.27401876 -0.035094917
-0.35371232 -0.11007534 0.2668323 -0.2505107 -0.22850695 -0.19500537 -0.21183683 -0.15330817
-0.5428913 -0.76466894 0.1065642 -0.07699143 0.04530896 0.124102175 -0.55117494 -0.08054786
0.12655813 -0.046878893 -0.4520291 -0.032453734 -0.6863444 -0.09343047 -0.20811787 -0.20984888

lstm_layers.0.weight_hh_l0 f4 [332, 83]
00000000: 3cac 95be 24e2 2dbc 13a6 723d 0017 9fbd
00000010: 9043 e9bd aa54 90bd fe9a 493e 0d82 7bbb
00000020: 2c36 053e b349 7dbd 0f93 633e 1639 943d
00000030: e65c a9bd 2ef8 743e 71a1 243e 753d 81bd
00000040: e217 a2bd c514 043e 5ba0 9bbd b508 283d
00000050: 6c23 8f3d e436 b0ba 8a38 c2bc 25a2 02bd
00000060: 1a08 46bd 0652 5ebd 0084 2abd 2d16 683b
00000070: 5ccb a03d 2b98 a9bc 2209 6bbd 557e b93d
00000080: eb43 f23d 21bd 383d ddda 1ebe 6036 8dbe
00000090: f935 ca3c ac52 85bc 1d6d fbbd 1989 c73b
000000a0: 20a3 ccbd ca8b f2be f09f 953e 1217 503e
000000b0: 0fbf 303e 1bbd 06be a857 453d 09f5 cd3b
000000c0: f883 cabd afcb a53e 8495 d6bd 4fc1 913d
000000d0: 6bec 32be c12f 3a3d 110d 0fbd 2fbd 203c
000000e0: e243 aabd 4d03 af3d 94d2 373e 6d2c 483c
000000f0: 2729 bbbe 31f2 323e e90f d43b 302b 5cbe
00000100: ce76 a63b f201 493e fa03 abbd 3b36 18be
00000110: 684f 43be f003 893d b8d0 38bd 7d89 8cbe
00000120: 1a02 dabd a3cf 953c 0c84 443d a945 11b9
00000130: 5f8f 9b3d a951 06be 99ef b33d b79a 60bd
00000140: 6588 e53d 4394 b13d 56b8 82bd 2822 063d
00000150: 1a80 34be 34df debd cbe9 2b3d 2d2a cdbd
00000160: 5527 cdbc b73b 3b3e 9ac9 d53e ba3a 983e
00000170: 835f 12bd 8a7b 183e 3576 3b3e 1b2a d2bd
00000180: f06b 133e cf2b 853b 4215 7e3d fdc7 bcbd
00000190: 7c14 bdbd 7792 bc3d 5542 bebd 4bc4 a5bd
000001a0: 6466 a03d e274 a3bd 9e01 653c 47fb 0e3e
000001b0: dd59 10bc 53b7 7d3d 7a93 e7bd b12d b93c
000001c0: 7228 123e 7a01 6fbd 83f5 9e3c bfd9 b4bd
000001d0: 2f54 febd 7dbc cebe 5975 72be b55b 9c3d
000001e0: e9ba 9cbd 0446 40bd 1284 52bd 974d 663d
000001f0: e466 c5be 6698 c03e ec83 fa3e dc15 f23d
00000200: 4278 103d dc44 55bc 0b26 e23d b0f9 af3d
00000210: d18e 38bd fe61 cb3d 9faf 4dbd f255 7fbe
00000220: eb64 bebd 953f 8f3d 79f9 8ebd e68c 77bc
00000230: 1871 713d 1013 403e f3c5 013e fbc5 03be
00000240: 6057 86bd 0953 a7bc cb72 e1bd 9c84 59b9
00000250: c764 4abc 89d3 1e3d 4645 a4bd 0bb4 0cbc
00000260: 04b9 e63d e597 d73d 7fba 83be 7e60 b93d
00000270: 0fbb ba3c c2ba eebd e1f2 c1ba b60e acbd
00000280: b19c d03c 8cc4 d8bd ed47 99be 46a1 733d
00000290: 39d3 5e3d ba59 383c 3120 16be c9fb 6bbe
000002a0: 8f9a c83c 62c0 02be 5a6d 273d 77fb 003c
000002b0: 7d7f 323f a5d3 0e3f e94f d2bc 35cf 963e
000002c0: 04ab 103e c502 54bd 512a 0ebe 4b77 d23e
000002d0: 4973 e13e 2223 7dbe e62a a43e 7dd0 f9bd
000002e0: 3ab2 85bd ba26 023b 64e3 983e 0eff 633e
000002f0: 1784 fc3b e0b9 13bd f232 813e 7a98 e63d
00000300: c823 b23c 1886 92be 2877 c9bd 56d6 7d3e
00000310: de58 0dbd 95a2 693d 11bc f1bd 9b41 a8bd
00000320: c90c 27bf a797 abbe 3247 c5bd d80a f3bb
00000330: 4184 a6bb e7e7 ed3d 0eff 4a3d f38c 2ebf
00000340: 610b f03e b7bd c73e 2aad 5b3e c1aa a1bd
00000350: f75b 103e 6fcf 373e 4c86 c63d fc1b 88bd
00000360: 3337 2d3c d972 efbd d04d 1dbf d2dc cf3c
00000370: 9139 3abe 956a 0cbd 298e d4be 23d0 be3d
00000380: b0fb d93e 2cd4 3b3d 78b8 9ebe 6e0e 9bbd
00000390: cab5 41be d802 4dbe 57b3 8b3e 821b 2ebd
000003a0: 3cdb 823d 82d8 88be 12c9 9fbe 6066 7a3e
000003b0: eed9 77bd 7f8d 18bf ecae 293d a943 803e
000003c0: 4255 283e ae0a 0cbd 8153 a1bd a4bb 33be
000003d0: 1960 863d b774 ffbd 6a4a 033e 1980 d5bd
000003e0: c6fd 9cbc 08cf d23c d516 40bf ea66 e13e
000003f0: e00c f13e 24ef c33d 0c01 72be bace 14bf
-0.29232967 -0.010612998 0.059240412 -0.07768059 -0.1138984 -0.070473984 0.19688031 -0.0038377077
0.13008946 -0.061837863 0.22224067 0.07237451 -0.08269672 0.23922798 0.1607721 -0.0631055
-0.079147115 0.12898548 -0.07598945 0.04102393 0.06989178 -0.0013444093 -0.0237086 -0.031892914
-0.04834757 -0.054277442 -0.04162979 0.0035413608 0.07851288 -0.020702442 -0.057381757 0.09057299
0.118293606 0.045102242 -0.15513177 -0.27580547 0.02468394 -0.016274773 -0.12276671 0.0060893414
-0.09992051 -0.47372276 0.29223585 0.203213 0.17260383 -0.13158076 0.0481793 0.006285314
-0.09888452 0.3238196 -0.104777366 0.07116949 -0.17472999 0.045455698 -0.03492457 0.00981073
-0.08313729 0.085455514 0.17951423 0.012217623 -0.36554834 0.17475201 0.006471623 -0.2150085
0.0050800806 0.19629648 -0.08350368 -0.14864437 -0.1907326 0.06690204 -0.045120925 -0.27448645
-0.10644932 0.018287485 0.047977492 -0.00013854228 0.07595705 -0.13117088 0.08785934 -0.054835048
0.11207656 0.08670857 -0.063828155 0.032747418 -0.17626992 -0.10882416 0.04197101 -0.1001781
-0.025043169 0.18284498 0.41755372 0.29732305 -0.03573562 0.14890876 0.18306811 -0.10261937
0.14396644 0.0040640603 0.06203199 -0.09217832 -0.09232423 0.092076235 -0.092899956 -0.080940805
0.078320295 -0.07981278 0.013977436 0.13963042 -0.008810488 0.06194241 -0.11307426 0.022604795
0.14273241 -0.058351018 0.019404178 -0.08830594 -0.124184005 -0.4037818 -0.23677577 0.07634679
-0.07652838 -0.046941772 -0.051395483 0.05622634 -0.38555062 0.3761627 0.48928773 0.118205756
0.035270937 -0.013016906 0.11042412 0.08592546 -0.045058075 0.099308 -0.050216313 -0.2493513
-0.09296592 0.06994549 -0.06981177 -0.015109276 0.058945745 0.18757272 0.12673168 -0.12868492
-0.06559634 -0.020425336 -0.11008223 -0.00020744134 -0.012353129 0.038775954 -0.08021025 -0.008587847
0.11265758 0.105270185 -0.25728223 0.090516075 0.022794275 -0.11656715 -0.0014797115 -0.084012434
0.025465341 -0.10584363 -0.29937688 0.059479974 0.054400656 0.011251861 -0.14660718 -0.23045267
0.024487762 -0.127687 0.04087577 0.007872454 0.6972578 0.55791694 -0.02567287 0.2945496
0.14127737 -0.051760454 -0.1388333 0.41106638 0.44033268 -0.24720433 0.3206398 -0.12197969
-0.06528135 0.0019859509 0.29860985 0.22265264 0.007706176 -0.036065936 0.2523418 0.11259551
0.021745577 -0.2861793 -0.098371804 0.24788794 -0.03450858 0.057039816 -0.11803449 -0.08215638
-0.65253884 -0.3351414 -0.0963272 -0.007417064 -0.005081684 0.116164975 0.049559645 -0.6818382
0.4688368 0.39011928 0.21452776 -0.07893897 0.14097582 0.17950223 0.09693584 -0.066459626
0.010572243 -0.11691827 -0.6144686 0.02537385 -0.18186022 -0.034281332 -0.4151471 0.09317043
0.42574835 0.04585664 -0.31000113 -0.075711116 -0.18917003 -0.20020616 0.27285263 -0.042506702
0.06389472 -0.26727682 -0.31208092 0.24453115 -0.06051057 -0.59590906 0.041426584 0.2505162
0.16438773 -0.034189872 -0.07877255 -0.17552048 0.06561298 -0.124734335 0.12821355 -0.10424823
-0.019163977 0.025733486 -0.7503484 0.4402383 0.47080135 0.09567097 -0.23633212 -0.5812794

lstm_layers.0.bias_ih_l0 f4 [332]
00000000: 500f ecbe 0e68 32bd 4b5d e8be 1050 75bf
00000010: 3d72 b6be 381b f5be bd31 1cbf f1fa 2e3e
00000020: 1092 c6be 6753 d7be d97b b1be d318 8dbc
00000030: 49fd 04be b1bd 11be 77c7 643e 605c 20bf
00000040: d986 b8be 55e4 ccbe e374 2fbe 83ff bebe
00000050: 4079 5dbe e805 85be fe36 cabd f5e6 0fbe
00000060: beaf 08bf 9915 3cbe 04e2 b2be ac52 b63c
00000070: 04d8 52be 6340 cfbe e5b4 b33d 24f9 4cbe
00000080: 922f 5bbe 9f1a 1abe fbbd b5bd c77d 6b3e
00000090: 1997 bfbe f348 e3be 15fe 393d 95b7 83bd
000000a0: d409 4fbe 6583 32bc 3fce 9fbe dd48 683e
000000b0: 00ff 24bf 0f7d 3abe 66a5 44be 2150 a7be
000000c0: 5ebc d2bd 514c 05bf 56b9 3ebd 7e2f 40be
000000d0: 5405 debe a943 0ebf 85a1 11be 9397 93be
000000e0: ab38 17bd 867c 90be 16d1 39be 837e 3bbe
000000f0: f130 89be 8afd 24be 5578 86be a1d0 5fbe
00000100: 4636 72bd cd4e aebe d2a0 a0bd 709e e6be
00000110: 696e adbe ed1e babe 84b1 93be 8e3f bd3d
00000120: 691b 98be 1daf f0be 8131 a1be 1cec d1be
00000130: 8b66 c4be 1264 8f3e 57c9 babe 6c3e 873c
00000140: e624 aabe 32a8 1b3e 788f 2ebe 6ad4 93be
00000150: 0489 04be e58c c6be 0c81 f5be d02f 00be
00000160: e570 0fbf ecb1 02bf 505c 49bf 5e9a debd
00000170: 9542 aeba cc22 d8be 6433 3bbf 5c9e 993d
00000180: e04a 0dbe bb80 f5bd 6794 2dbe 5bdf 20bd
00000190: 58e9 53bc 2d9e 39be c3ab d8be 42f3 0f3e
000001a0: 40bc bcbe 14b5 bbbe 03d1 cabd 5d0c e9be
000001b0: 1d47 f4be 93a8 94be 8c46 503d 06d5 74be
000001c0: a625 73be 0b16 103f d7ca 47be 42e0 5abe
000001d0: 8116 1bbf 7de3 56bf 9feb 6dbc 9f06 98bc
000001e0: b842 06bf e583 063e ce90 033d feab 35bd
000001f0: 33bf 3abe 1f57 09bf 017b 64bf 6e96 d5be
00000200: 4e35 34bd 2a0a efbd b656 20be 27cd 56bd
00000210: a9bd c5bd efd1 f43d 4272 ccbd f3dc 24bf
00000220: bf6d c2be be38 1bbe 8f6f 79be c4fc a6be
00000230: 9368 1b3d 11b5 9cbe cafd 90be b665 fbbd
00000240: ee67 5abe 0ad4 65be 50a3 e1be 2c4f 15be
00000250: c65f 91bd a68b 48bd 0e7b 04bd f462 20bf
00000260: 0b3f 2bbf ab62 80be b8a7 b9bd 4225 9a3d
00000270: 3fbb 93be bbf6 e3bd 5da6 08bf 9e93 82bd
00000280: 770a 43bd 092e b3bd b518 20bf d3c9 98be
00000290: 5f6c d93d 0f5f f2bd a4f4 5e3d e9cd 6c3e
000002a0: 2798 8fbc 39f5 153f e6e9 8cbd 4af1 833e
000002b0: 5fab d5bd 7da9 29bf cbcf bcbe 5015 223e
000002c0: 9bdd f23d 9798 f4be f25e c03d 836f d6bd
000002d0: a192 8ebe 225b e43e ba6a 3f3e bf6a 10be
000002e0: 41d1 733d 29dc 2e3d 7ea3 7cbe 6a66 8c3e
000002f0: 9bb7 193e c9a4 38bc b0f6 30be 78f4 91be
00000300: 6e02 993d 5b02 adbe d195 4c3e dfd0 18bc
00000310: f38f cd3e 768f cb3c d384 433e 58bc 943e
00000320: d4ef f63e 72c5 433e 8f95 373e 6c25 80bd
00000330: e430 4c3e 16c0 7c3d 5b31 5a3e 722a 9d3e
00000340: d536 7cbe 8c06 24bf 859e b4bd b45b cc3d
00000350: 723b 0ebe 0813 c3bc c3f9 69be 8ee4 8abd
00000360: a3d2 d83d 908c 873e f8a2 a03e b6bd 3bbe
00000370: 15ee 4c3d 1fcb 4f3e cd31 a03e 15be e03d
00000380: 527a 56be aaef 7e3e 6290 363e eba3 44be
00000390: 6bf0 403e ab11 913d 9c13 8fbd 669c b23e
000003a0: 3747 883d d092 bb3e e2ce 443e 09a7 13be
000003b0: 9526 cc3d 6fe6 503e 311d 153e 15b3 05bd
000003c0: 102d 01be de69 16be 552b 5abe 3b09 8a3e
000003d0: d029 fdbd 4b8c b83e 62f7 8ebc 98d3 263c
000003e0: 92bb fd3c 5e26 a7be 217a 20be c523 b0be
000003f0: 9c51 13bf 1080 92be 5857 9abe ed9b 31bf
-0.46105433 -0.043556266 -0.45383677 -0.9582529 -0.35634032 -0.4787233 -0.61013395 0.17087914
-0.38783312 -0.42055818 -0.346648 -0.017223751 -0.12987246 -0.14232518 0.22341715 -0.62640953
-0.3604038 -0.40017954 -0.17134432 -0.37304315 -0.21628284 -0.2598107 -0.0987377 -0.14052947
-0.5339316 -0.18367614 -0.3493806 0.022256218 -0.20590216 -0.4047881 0.08774737 -0.20016915
-0.21404865 -0.15049218 -0.088741265 0.22997199 -0.37419966 -0.44391593 0.045408327 -0.064315
-0.20218593 -0.010895585 -0.3121204 0.22684045 -0.644516 -0.18211769 -0.1920372 -0.3267832
-0.102898344 -0.52069575 -0.04656347 -0.18768117 -0.4336344 -0.5557199 -0.14221771 -0.2882658
-0.036919277 -0.28220004 -0.18146166 -0.18309979 -0.26795152 -0.16112342 -0.2626368 -0.2185693
-0.05913379 -0.34044495 -0.07843174 -0.45042753 -0.338733 -0.3635172 -0.2884637 0.09240638
-0.29708412 -0.470086 -0.3148308 -0.4100045 -0.38359484 0.28006035 -0.36481735 0.016509257
-0.33231276 0.1520088 -0.17046916 -0.28872997 -0.12942892 -0.3877937 -0.47950017 -0.12518239
-0.5603164 -0.5105274 -0.7865648 -0.10869287 -0.001329499 -0.42214048 -0.7312529 0.07500908
-0.13798094 -0.11987444 -0.16951142 -0.03927551 -0.012934051 -0.18126746 -0.42318544 0.14057639
-0.36862373 -0.3666159 -0.09903147 -0.45517245 -0.47710505 -0.29034862 0.05084853 -0.23909387
-0.2374483 0.56283635 -0.19510971 -0.2137461 -0.60581213 -0.8394087 -0.0145215085 -0.018557845
-0.52445555 0.13136251 0.03212052 -0.044353478 -0.18236999 -0.5364856 -0.8925019 -0.4171633
-0.043996148 -0.116718605 -0.15658078 -0.052441742 -0.096553154 0.11954104 -0.099827304 -0.6439964
-0.37974355 -0.15158364 -0.24358962 -0.3261472 0.037941527 -0.30606893 -0.28318626 -0.12275259
-0.21328709 -0.22444168 -0.4406991 -0.14580983 -0.070983455 -0.048961304 -0.032343917 -0.6265099
-0.6689307 -0.25075278 -0.09065193 0.075266376 -0.28853795 -0.111310445 -0.5337885 -0.06375812
-0.047617402 -0.08749015 -0.625377 -0.2984148 0.10616373 -0.11834537 0.054432526 0.23125423
-0.017528607 0.58577305 -0.0688055 0.25770026 -0.10433077 -0.66274244 -0.36877283 0.15828443
0.11858674 -0.47772667 0.093931094 -0.10470488 -0.27846244 0.4460078 0.18693057 -0.1410322
0.059525732 0.04269043 -0.24671742 0.27421886 0.15011446 -0.011269757 -0.17281604 -0.28506827
0.074711666 -0.3379086 0.19979025 -0.0093271425 0.40148887 0.024848681 0.19093637 0.29049945
0.4822985 0.19118288 0.17928146 -0.06257138 0.19940525 0.061706625 0.2130789 0.30696446
-0.24630292 -0.6407249 -0.08819298 0.099784285 -0.13889864 -0.023812786 -0.22849183 -0.067818746
0.10587051 0.26474428 0.31374335 -0.18334088 0.05003174 0.20292328 0.31287995 0.10973755
-0.20945099 0.24896112 0.17828515 -0.19203155 0.18841712 0.07083448 -0.06986162 0.34884948
0.06654208 0.36635447 0.19219545 -0.14419188 0.099682964 0.20400403 0.14561917 -0.03264149
-0.12614846 -0.14688823 -0.21305592 0.26960167 -0.12361491 0.36044535 -0.017451946 0.010182284
0.03097323 -0.3264646 -0.15671588 -0.3440229 -0.575464 -0.2861333 -0.30144763 -0.6937855

lstm_layers.0.bias_hh_l0 f4 [332]
00000000: 9126 e5be da49 9bbd 767c cebe 971d 7ebf
00000010: 1a77 a1be 8624 bebe 7387 05bf 33cc d83d
00000020: 6b6a e5be f54c c6be 0f84 bebe f645 ebbd
00000030: 883a 31bd 6be6 17be 5c53 333e 5516 17bf
00000040: 9a34 bdbe 1fd5 77be cace 7bbe 93d0 a0be
00000050: bc66 4dbe 551e 8ebe 3992 40be 73ac cbbd
00000060: d18a d8be a55d 71be 40ba d6be 2e82 7d3b
00000070: fe67 83be 3b0e ebbe 68cc 6b3e 796b 26be
00000080: 3b26 72bd 7be8 79be 9d20 b3bd 4cd0 4f3e
00000090: 8325 c7be 4ebc 12bf f3bf 183e 968a 2fbd
000000a0: bf7b 68be 4a1f 063d 8e42 13be 6f59 9f3e
000000b0: 50b0 32bf 5469 2cbe e394 92be f040 b9be
000000c0: b286 e0bd aac2 34bf 4eff e23d a1b3 0cbe
000000d0: cffb bbbe bd49 2abf dab6 37be 1c1e abbe
000000e0: fe73 1dbd be4c d8be 7dd7 69be bb3f 0ebe
000000f0: 0955 3abe dc48 01be 073d d6be c3ce a5be
00000100: 3302 0bbe bb6a dfbe a894 7abe d2d4 02bf
00000110: 62cd 91be 4628 09bf 6b9d bbbe 9f26 c73d
00000120: 6212 c6be 0576 c5be 075e ccbe b3fc dabe
00000130: f43d a7be 9c3e 843e 19d4 a8be 4d42 dbbd
00000140: 1856 96be 89ed 103e d7e9 98be 07ad c6be
00000150: a3b4 e2bd b8fa a5be ae45 dfbe b13b f4bd
00000160: 6126 0fbf 2dad 16bf 5bac 48bf e339 a9bd
00000170: 6328 a5bc 5900 9dbe 0e41 42bf 932d 903d
00000180: 885c 61be a89c d83c 21ab 2cbe 3177 bd3d
00000190: 1b0d 3abd da86 34be e54f 9cbe d4b8 053e
000001a0: 9aa5 aebe 7a6b c1be 9362 083d cee6 debe
000001b0: 7bf6 14bf 51f4 d7be 593b 113e 2087 d3bd
000001c0: 372a bebe bcec c93e 09b6 4bbe ec52 01be
000001d0: 36d1 05bf 766c 55bf 3c36 d1bd 30d0 5a3d
000001e0: 9d67 08bf e31e e03c 195d 413d 8827 973c
000001f0: 80ba 87be 8f06 13bf b2b3 85bf 547a 1bbf
00000200: 4822 05be aedc 21be cd79 7bbe 5fb9 f1bc
00000210: 1821 38be 9f64 463d 79ff 8cbd d56f 03bf
00000220: c09c b6be dc3e 29be b773 adbe e3de 94be
00000230: dc2b e13d 9b45 e6be d053 91be c312 4abd
00000240: ade0 8bbe fcb0 bbbe 11e1 b4be ca7c 32be
00000250: 519a 4dbe 4bdb f9bc f00e a2bd 2050 1fbf
00000260: 6855 16bf e346 60be 8f69 4fbe e26b 1a3d
00000270: 091a 90be 6d14 3c3d 39f3 10bf 7fc8 cbbd
00000280: a6bd afbc c9bd d0bd 8406 41bf 859c 95be
00000290: c9d9 a73d 9cf3 aebd 804b 84bd c70e 813d
000002a0: e339 a8bd bf99 073f 7e43 02bd 0156 823e
000002b0: 3ae6 a5bd ffca 30bf dab6 d3be 270f 0e3e
000002c0: 1f36 813c 1714 1bbf d7f4 cd3d c8c2 9ebd
000002d0: 0851 c5be 9c54 df3e bcb6 733e a826 09be
000002e0: 5dbd 733e f41c 12bd 5e1c 43bd 4c8e a83e
000002f0: 5fba 603e cf4c ffbd 6717 cdbd 4167 e9be
00000300: ca00 703d 6b33 9dbe 0cd1 023d 1751 a93d
00000310: 1819 c73e 1c3e 223e 5945 f33c 41c5 773e
00000320: 9aea 1d3f a788 1d3e c976 783e 8b08 0fbd
00000330: 123d 643e fed0 253e d85d 573e b039 823e
00000340: 3ed2 94be 706d 1cbf a870 1e3b e24b e43c
00000350: 2c3a edbd 451a 293d f274 14be 5d21 f6bd
00000360: c48f 483e 3e28 5e3e 31b6 053e 708e 29be
00000370: 3ac4 223e 8926 533e 35a3 b43e 910d 173e
00000380: 793b 57be 89d2 5c3e 6844 3e3e 7b20 35be
00000390: 09a2 283e 5d11 a03d b0b1 4fbd c99f b83e
000003a0: 8d87 e93d 8fe1 d43e 6c0b 9e3e 188f 40be
000003b0: 1931 a53d 2ee0 973e 1991 ae3d f1a7 6cbb
000003c0: 4829 fdbd cf6d 10be 9d06 6fbe 5a2f 923d
000003d0: a234 4ebe b0b8 043f 7ba2 bdbc 65d8 243e
000003e0: 37af fb3b 5d21 97be b86c 06be f032 83be
000003f0: 965a 00bf 6cb0 87be 8300 f5be ecd1 0dbf
-0.44755986 -0.075824454 -0.4032933 -0.992639 -0.3153618 -0.3713724 -0.52159804 0.10585823
-0.44807753 -0.3873059 -0.37210128 -0.11487953 -0.04326871 -0.14833991 0.17512268 -0.5901845
-0.36954194 -0.24202393 -0.24590603 -0.3140913 -0.20058721 -0.27757517 -0.1880578 -0.099450015
-0.4229341 -0.23570879 -0.41938972 0.003868233 -0.25665277 -0.45909294 0.23027194 -0.16251935
-0.05911849 -0.2440509 -0.08746455 0.20294303 -0.38895807 -0.5731858 0.14916973 -0.042856775
-0.22703455 0.032744683 -0.14380857 0.3112292 -0.6980028 -0.16837054 -0.28629217 -0.36182356
-0.10963191 -0.70609534 0.11083852 -0.13740398 -0.36715552 -0.66518766 -0.17940846 -0.3342141
-0.038440697 -0.4224605 -0.22836109 -0.13891499 -0.18196501 -0.1262545 -0.41843435 -0.3238431
-0.13575058 -0.43636116 -0.2447077 -0.5110599 -0.28477007 -0.5357708 -0.36643538 0.09724163
-0.386859 -0.38566604 -0.39915487 -0.4277092 -0.32664454 0.25829017 -0.32974318 -0.10706005
-0.2936256 0.14153112 -0.29865906 -0.38803884 -0.1106961 -0.32417846 -0.4360785 -0.11925448
-0.55917937 -0.58857995 -0.78387994 -0.08262994 -0.02016086 -0.30664328 -0.75880516 0.070399426
-0.22007954 0.026441887 -0.16862155 0.092512496 -0.045422655 -0.17629567 -0.30529705 0.13058788
-0.3411072 -0.3777731 0.033297133 -0.43535465 -0.581886 -0.42178586 0.14182796 -0.103285074
-0.37141582 0.39438426 -0.1989366 -0.12629288 -0.52272356 -0.83368623 -0.102154225 0.0534212
-0.532831 0.027358478 0.047207925 0.018451467 -0.26509476 -0.5743188 -1.0445464 -0.6073353
-0.13001359 -0.15806839 -0.24558182 -0.029507337 -0.17981374 0.048435804 -0.06884665 -0.5134252
-0.35666466 -0.16527885 -0.33877346 -0.290763 0.10994694 -0.4497498 -0.28384256 -0.0493343
-0.27319852 -0.36658466 -0.35327962 -0.17430416 -0.20078398 -0.030500075 -0.07913005 -0.62231636
-0.5872407 -0.21902041 -0.20255111 0.03770054 -0.28144863 0.045917917 -0.5662113 -0.09950351
-0.021452736 -0.10192449 -0.7540057 -0.29220977 0.08195836 -0.085425586 -0.06459713 0.06301647
-0.08214166 0.5296897 -0.031802647 0.2545624 -0.08100553 -0.6905975 -0.41350442 0.13872968
0.015772877 -0.6057753 0.10056465 -0.07751995 -0.38538384 0.4361924 0.23800176 -0.13393652
0.23802705 -0.035672143 -0.047634475 0.32921064 0.21946095 -0.12465822 -0.10014229 -0.4558659
0.058594503 -0.3070329 0.031937644 0.0826742 0.38886333 0.15844005 0.029696153 0.2419634
0.616861 0.1538416 0.24264063 -0.034920257 0.22288921 0.16193005 0.21031892 0.25434637
-0.29066652 -0.6110449 0.0024176035 0.027868215 -0.11583361 0.04128482 -0.14497736 -0.12018082
0.19586092 0.21695039 0.13057782 -0.16558242 0.15895167 0.20620169 0.35280767 0.14751269
-0.21018781 0.21564688 0.18580782 -0.17688172 0.16468062 0.07815812 -0.050706565 0.36059406
0.114028074 0.41578338 0.3086809 -0.18804586 0.08066005 0.29663223 0.08523769 -0.0036110843
-0.123613894 -0.14104389 -0.23342367 0.07137938 -0.20137265 0.5184431 -0.023148766 0.16098173
0.0076807993 -0.29517642 -0.1312741 -0.256248 -0.50138223 -0.26501787 -0.47851953 -0.5539844

lstm_layers.0.weight_ih_l0_reverse f4 [332, 11]
00000000: 6a68 00bf 372c a7be 027e 32bf a598 f23e
00000010: 00ae 6dbf d6f6 1cbf 434a c2be 6499 9abe
00000020: 1fbb 1ebf 3fd6 47bd 7e23 64bf d837 5bbe
00000030: c597 81be f564 12bf 49ea 213f 3cd6 27bf
00000040: e51b 1dbf 085b c0be f93d f3bd 0ec7 08bf
00000050: 1c27 0c3d e437 04bf 588b a0be 63b8 18be
00000060: b438 f6be 4e38 5b3e 6f5e ecbe 3a57 adbe
00000070: e3b7 cbbe 8960 bdbe c25d e2be 52b8 7d3d
00000080: 79e3 15bf 0ffa 9bbe 0f96 d23e 26a3 d2bc
00000090: b59d 833f 22f1 1c40 e669 693e 7d9f 7fbe
000000a0: dcd0 61be 9ae4 c63d dbf5 933e c067 8cbf
000000b0: acbc 063d 58c1 94bd e355 bcbe 3d46 313d
000000c0: 2341 1abf 5601 9abe 73f9 4ebe bddf 1ebe
000000d0: 638b b8be 6356 4fbd dff7 babe f10d 813e
000000e0: 56e8 3abe 2235 12bf d097 783e 635f 48bf
000000f0: 6555 72be 463f a1be a8b6 933c 1736 a6be
00000100: 8609 393e 75bc 5cbf 5e0f 5abd ec8b 473e
00000110: 069a c9be d9e9 b83e d6b4 88be 534c 2fbe
00000120: 3450 37be 21a2 49bc 4a75 a4be 9db6 d2bc
00000130: d185 2ebf 7d69 82be 689d 7cbe 12f7 71be
00000140: 5971 02be f95e b9bc 5aae 42be 9cb1 36be
00000150: 9dc6 aabd 645b 24be d7ed 0ebe d81e c7be
00000160: 10ce 013e 44e1 a9bd 41a4 e7be e48d 183f
00000170: dfc9 10be 7870 19be 15ec 4dbc 06b7 243e
00000180: 338a fbbb 7911 8d3e 7391 66bf 0ad4 9d3c
00000190: 263e 96be 1472 97bf b603 a83e aef8 c6bf
000001a0: 2d89 0abf c246 b0be c29e 9fbe 2d86 93bf
000001b0: aa0d 18be f669 40bf 8ec4 cfbe a659 cfbe
000001c0: 1c38 c6be 5e7e a23e 2eec 2dbf fa1f d6be
000001d0: a95a e0be 293f 90be cae3 bdbe ca02 febd
000001e0: 1b2d 5bbe 1c9f e9bd e9ef 04be ca18 83be
000001f0: 2efa 9f3e f589 bb3e 47a2 6fbe 00a8 d7bd
00000200: 4392 313d cd55 50bd 84f4 643d 9e49 04bf
00000210: 8b0b babd 8617 96be 95fc 0abf 7b96 bc3e
00000220: 88fa 95bf af71 f1be 2088 b6bd 26ac c2bc
00000230: 3d8c 01bf 8048 93be 372f 32bf 9a8e 6fbe
00000240: 7322 063f b5ce 92bd 0bb9 13be 2dad 0140
00000250: e014 bc3e 682b 94be 0130 7ebe 84a4 983d
00000260: bbc0 1abe 4d89 c8bf 041f 87bd 5020 eabe
00000270: 64a2 41bf f838 803e c59d 41bf d762 cbbe
00000280: 7c95 0cbf c49b a2be 93d0 1cbf 8d24 68bd
00000290: 85e8 60bf 52d6 013c 6597 43be c336 fbbe
000002a0: 473c 3bbe 6972 1dbf eb45 78be 81e8 5dbe
000002b0: 9867 18be f8a9 ebbe 0f87 74be 40de 4fbf
000002c0: d572 b4bd 8fea a1be 7d4b 89be 6434 f4bc
000002d0: 97c5 1cbf 311f 85be 5e8f cfbe 9ed3 debe
000002e0: 5948 bbbe 940c bfbd 6222 2cbf 64ca 1dbe
000002f0: 6ed4 eabe ce46 1abe ea30 403f 7b2c 0ebc
00000300: 1164 2ebe c6a0 f83c ae71 4bbe 1e74 26bd
00000310: 8b88 cdbd 9657 08bf af6e 423e a532 6a3b
00000320: e9d1 8bbe 98fc 503f 45db 96be d5fa 0bbe
00000330: 0b1d 483d 292a f93d 5e0f 17bd 5039 dbbc
00000340: d379 2bbf 708b 76be 6b7a c1bd 19f5 3abe
00000350: 42bb acbc c150 c03e be99 dabd 9584 43be
00000360: 3943 33be 26b7 88be 40e4 0e3e ccb1 68bf
00000370: a9e6 b0be 7b48 ff3e 1c3a 82be e156 493f
00000380: 659d dd3f 2908 813d 1d4f d3be e7da 82be
00000390: 7650 85be b9f5 88be 18fd b1bf 7af7 c33d
000003a0: 1f5f c0be 6c4d 71be 0cee 163f d9f3 aabd
000003b0: a9ca db3d 2910 233e a23f 883d 2712 2c3d
000003c0: 80c6 0d3d 253c 51bf f214 86be c2fd bc3e
000003d0: 2eff 1d3e 1557 9d3f 195b 0140 9279 46bd
000003e0: a501 d2bd bb2e 88be 83aa b7bd ed23 7b3e
000003f0: 31c0 a9bf 5ca3 35be c4a1 9cbd c308 2fbe
-0.50159323 -0.3265092 -0.6972352 0.47382084 -0.9284363 -0.6131414 -0.37947282 -0.30195153
-0.62004274 -0.048788305 -0.89116657 -0.21408021 -0.25311103 -0.571853 0.63248116 -0.6556127
-0.6137069 -0.3756945 -0.11877055 -0.53428733 0.034216985 -0.5164778 -0.3135631 -0.14914088
-0.48090136 0.21408197 -0.46165797 -0.3385561 -0.39788732 -0.36987713 -0.44212157 0.06194336
-0.5855022 -0.30464217 0.4113011 -0.02571256 1.0282503 2.4522176 0.22794303 -0.24963184
-0.2205233 0.09711571 0.2889851 -1.0969162 0.032894775 -0.0726344 -0.36784276 0.043279875
-0.6025564 -0.30079144 -0.20212345 -0.15515037 -0.36043844 -0.050619494 -0.36517236 0.2520595
-0.18252692 -0.57112324 0.24276662 -0.7827055 -0.23665388 -0.31493586 0.018031433 -0.32463142
0.18070039 -0.8622506 -0.05323731 0.1948697 -0.39375323 0.36115912 -0.26700467 -0.17118959
-0.17901689 -0.012306721 -0.32120734 -0.025721842 -0.6817294 -0.25471106 -0.2466942 -0.23629406
-0.12738551 -0.022628294 -0.19011822 -0.1784119 -0.08338664 -0.16050488 -0.13957916 -0.3889072
0.12676263 -0.08294919 -0.45242503 0.5959151 -0.14139508 -0.1498431 -0.012568493 0.16085443
-0.0076763867 0.27552393 -0.9006569 0.019266147 -0.2934429 -1.1831689 0.3281533 -1.5544641
-0.54115564 -0.34428984 -0.3117581 -1.1525322 -0.14848962 -0.75161684 -0.40579647 -0.40498084
-0.38714683 0.31737036 -0.67938507 -0.4182127 -0.43819168 -0.28173187 -0.37087852 -0.12402876
-0.21403925 -0.11407301 -0.12982143 -0.2560485 0.3124556 0.3662869 -0.23401748 -0.1053009
0.043352377 -0.050863076 0.05589725 -0.5167483 -0.09084233 -0.29314822 -0.5429166 0.36833557
-1.1717081 -0.47157046 -0.089126825 -0.023763727 -0.5060461 -0.2876625 -0.69603294 -0.23394242
0.52396315 -0.071683325 -0.14426057 2.0261948 0.36734676 -0.28939366 -0.24823 0.07453254
-0.15112583 -1.5666901 -0.06597713 -0.45727777 -0.75638413 0.25043464 -0.7563136 -0.39723846
-0.54915595 -0.31759465 -0.6125576 -0.056675483 -0.87854797 0.007924633 -0.19100721 -0.49065217
-0.18284713 -0.615027 -0.24245422 -0.21670724 -0.14883268 -0.46028113 -0.23879646 -0.811985
-0.08810965 -0.31624267 -0.26815405 -0.029810138 -0.61239 -0.2600036 -0.40539068 -0.43520826
-0.36578634 -0.09328571 -0.67239964 -0.15409237 -0.45865196 -0.15066072 0.75074637 -0.008677597
-0.1703036 0.0303501 -0.19867584 -0.04063808 -0.10035809 -0.53258646 0.18987535 0.0035735753
-0.27308586 0.8163543 -0.29464164 -0.13669904 0.048855823 0.121662445 -0.03687989 -0.026760727
-0.66982764 -0.24076629 -0.094471775 -0.1825756 -0.021085385 0.3756161 -0.10673855 -0.19093545
-0.17506112 -0.2670223 0.13954258 -0.90896297 -0.3455098 0.49859986 -0.2543496 0.7864819
1.7313658 0.063003846 -0.41271296 -0.25557634 -0.2603795 -0.26749972 -1.3905363 0.09568687
-0.37572572 -0.2356469 0.5895698 -0.083472915 0.10732014 0.15924133 0.06652762 0.0420095
0.034613132 -0.817324 -0.26187855 0.36912352 0.15429375 1.22922 2.0211852 -0.048455782
-0.1025422 -0.26598153 -0.089680694 0.24525423 -1.3261777 -0.17738098 -0.07648042 -0.17093186

lstm_layers.0.weight_hh_l0_reverse f4 [332, 83]
00000000: ba67 80be 6686 eabc 2379 803d 3a27 113e
00000010: 1af5 0e3e 0344 24bd 5906 fd3d e2a7 a6bd
00000020: b73b 263d ca0d 923d 9680 28be c566 f43d
00000030: 9b24 f1bd 308a 0bbf 2e04 9c3d 7ecb 54bd
00000040: 7ba5 b33d 2a37 dfbd 12e0 3abd 8674 843e
00000050: 8493 e5be aa3e f1bd f428 0bbf 521d 1bbe
00000060: 7830 64bd 0e82 26bd bc4d 0bbd d7af 663c
00000070: 6122 5cbe 8fd1 a9bc f6d5 623b 8baa 62be
00000080: a2ae 84bb b0eb 08be 4cd8 febd a1cf 973d
00000090: 92bb 343e f3f1 8cbe aca4 113f ce57 14be
000000a0: 8363 d8be c2c6 aa3d 6d6b c03d 442b 7abd
000000b0: ecad 573d f9e8 f93e b834 aebd 0916 f33d
000000c0: 6c38 f0bc 724a 193e 7d54 313e 91ab 6cbc
000000d0: 60be 94bd 9120 f93d 1b96 f33d 8079 99bd
000000e0: defe e8bd 74a0 f9bd 42c6 b43d e680 7bbd
000000f0: ee9d 1ebe 5998 23be 1e55 33be 9658 f03c
00000100: 65db 4e3d 169c 0a3e 089e d3be eafc b8bd
00000110: d86e 0abd 6ca4 c63c 57e8 0ebf 29d7 9f3c
00000120: 00df 853c b20f 7dbe 9d61 093e 474d b0be
00000130: fb44 b43d 123e 69be 1375 a6bd e7de 033e
00000140: 12e3 e73d e344 d9bc d8e1 2c3d 2d91 bb3e
00000150: 9a7b ba3d 4dd6 c73d 5361 3a3f 9917 cfbc
00000160: 297c 993d 5d6a 083d 1ca5 83bc 3699 873d
00000170: 1962 3a3e 62d8 17be e3c2 203e a8e0 213e
00000180: 3e8d 12bf 6ed6 97bc d560 313c 8223 ce3b
00000190: f128 fe3d a72f a23e 383b 01be 395c 0abf
000001a0: 3b2b 8d3e 82d3 02bf 55ed 4e3d 6eec 34be
000001b0: 29eb edbd 77c4 213e 322c 92bd a869 bdbd
000001c0: 4bb0 0b3e f503 91be 5c8c 4f3e 09db 433d
000001d0: 5baf dc3e c2f1 083d 72e4 c93d 614b 09bf
000001e0: bc7f e7be 4d5d e1be d37e 623e 658b fcbe
000001f0: 0e78 ab3d 525e 54be 6aaf 0e3e 0efb 81bd
00000200: e10a 153f aa53 073e ad2e 8abe 6a8e bcbc
00000210: 20b4 063d ace5 4c3e 3181 8c3e ce05 4bbc
00000220: 0060 8fbe b972 773e cf97 81be 3c6a 013e
00000230: 1c7e b1be f523 fe3c 9ed9 f63d d53e b4be
00000240: 50fd a43e ddb3 143e b4b0 4f3e 809b 673b
00000250: 6e32 483d 51fb 2dbf 06aa bd3d b42c 87be
00000260: 65c6 67be 150a 023f 3eed a13d e6f1 a3be
00000270: edb8 dd3d 32b3 3cbe 1ff5 85be fbd4 be3e
00000280: 5460 293e 807d 0cbf 3d1f cfbc da3e e83e
00000290: 49cf f13d 5b5d 783e f06a 093e 8163 75bd
000002a0: c51b 073e 2db3 c4bd 45b1 253e 3275 0d3e
000002b0: 8315 d23d 9d21 413d 181c 3bbd 941f be3d
000002c0: 08a8 c2be 4915 903e 8e66 a83a 59d2 1fbf
000002d0: a0a3 cb3d acd4 9c3b 617b 2bbd ff96 ef3d
000002e0: 568d af3d f16c a33d b37c 5bbe 6894 563c
000002f0: 67db 00be a8e3 e83b 3102 71bd 418f 4e3b
00000300: d71d 0e3e d806 27be 1478 72be 2cae 1b3e
00000310: 8a01 04be efbf 57be ca5b ceba 9cbb 71be
00000320: 9161 08bd 2536 8ebd a09d 35bd ada3 98bc
00000330: 10c4 543f 2103 24be 0e99 7fbe 8ea5 d4bd
00000340: 555e 42bc 8828 b43d 1cee 463c e073 b93e
00000350: 28b9 4c3c f029 78bc 35f8 673b 159c 9f3d
00000360: ef09 9a3e 9036 1bbd 05cf c0bd 8a6c 653e
00000370: ebb7 fc3e be31 45bd abe3 4fbd 064d 8ebe
00000380: 12d5 023b df9e 3fbe 0932 523e 6d33 7bbd
00000390: 3cab 8b3b 713d 633e 3fba 83bd 099a 69be
000003a0: 8313 35bf 7a4c ec3d cec8 48be e7e0 9a3d
000003b0: ead4 883e edff 1d3d ab8e c93d 83b9 37bf
000003c0: 65e3 89bd 8d9a 0abf 5a7f 763c a5ee 213e
000003d0: f1c6 9ebd a5d4 3f3e a358 313e ce9a 733d
000003e0: 57c5 a13c 9f8f 98be 2677 b13d 347f 813d
000003f0: ed6f 32bf d7df 98bd 77c2 36bc 2ca4 a33b
-0.25079137 -0.02862854 0.06273105 0.1417512 0.13960686 -0.040103924 0.12354726 -0.0813749
0.040584292 0.07131536 -0.16455302 0.11933664 -0.1177456 -0.5450773 0.07617985 -0.051951878
0.08771797 -0.108991936 -0.045623846 0.2587015 -0.44839108 -0.1177953 -0.54359365 -0.15147904
-0.055710286 -0.040651374 -0.03400968 0.014080009 -0.2149749 -0.020729808 0.0034612394 -0.2213537
-0.004049138 -0.13371158 -0.12443599 0.07412649 0.17649677 -0.27528343 0.56891894 -0.1448662
-0.4226342 0.08338691 0.0939549 -0.061076418 0.0526561 0.48810557 -0.08506149 0.11869437
-0.029323779 0.14969805 0.17317386 -0.0144452015 -0.07262874 0.12164415 0.11893865 -0.074938774
-0.11376737 -0.12188807 0.08826877 -0.061402224 -0.15489933 -0.15976085 -0.17512938 0.029339116
0.0505022 0.13536105 -0.41331506 -0.090326145 -0.033797115 0.024248324 -0.5582327 0.019511776
0.016341686 -0.24713019 0.13416143 -0.34433958 0.088022195 -0.22777584 -0.08127799 0.12877999
0.11322607 -0.026522106 0.04220757 0.36634198 0.091056064 0.097576715 0.72804755 -0.025279807
0.07494385 0.03330456 -0.016069941 0.066210195 0.18201484 -0.14828637 0.15699343 0.15808356
-0.5724677 -0.018534865 0.010826309 0.006290854 0.12410153 0.3167698 -0.12620246 -0.5404697
0.27572045 -0.51103985 0.050519306 -0.17668316 -0.11617119 0.15797602 -0.07137336 -0.09248668
0.13641469 -0.2832333 0.20268387 0.04781631 0.43102536 0.033433683 0.098580256 -0.53630644
-0.4521464 -0.44016495 0.22118692 -0.493251 0.08372508 -0.20739105 0.13934103 -0.06346713
0.58219725 0.13215509 -0.26988736 -0.023017127 0.032886624 0.20009488 0.27442315 -0.012391521
-0.2800293 0.24164857 -0.25311133 0.12638181 -0.34666526 0.031023005 0.12053226 -0.35204187
0.32224512 0.14521737 0.2028225 0.0035340488 0.04887622 -0.67961603 0.09260945 -0.26401293
-0.22634275 0.50796634 0.079065785 -0.3202049 0.108262874 -0.18427733 -0.26163575 0.37271866
0.16540653 -0.54879 -0.02528345 0.45360452 0.11807115 0.24254362 0.134197 -0.059909347
0.13194187 -0.096044876 0.16180904 0.13814238 0.10258009 0.047151197 -0.04568109 0.09283367
-0.38018823 0.2814124 0.0012847946 -0.6243034 0.09943318 0.0047860947 -0.04186571 0.11698722
0.085718796 0.07979763 -0.21434288 0.013096906 -0.12583695 0.007107217 -0.05883998 0.0031518491
0.1387857 -0.16311204 -0.23678619 0.1520316 -0.12891212 -0.2106931 -0.0015743908 -0.23606724
-0.03329617 -0.06943921 -0.044339776 -0.018632734 0.8311167 -0.16016819 -0.2496073 -0.103831396
-0.011863311 0.08796793 0.012141731 0.36221218 0.012495317 -0.015146717 0.0035395746 0.07793442
0.30085704 -0.03789383 -0.09414486 0.22404686 0.49359068 -0.04814314 -0.05075423 -0.2779314
0.0019963426 -0.18712948 0.205269 -0.06132834 0.004262356 0.22191407 -0.06432008 -0.22812666
-0.707329 0.11538024 -0.19607851 0.07562428 0.2672494 0.038574148 0.09841665 -0.71767443
-0.06732825 -0.54142076 0.015045011 0.15813692 -0.07752789 0.18733461 0.17318968 0.059473805
0.01974742 -0.29797074 0.08665304 0.0632309 -0.69702035 -0.07464569 -0.0111547625 0.004993936

lstm_layers.0.bias_ih_l0_reverse f4 [332]
00000000: 43fd 55be e3ed c03b 2a3d 0b3d 08c2 cfbe
00000010: ac4c 8dbe 15eb e43d 6a12 33be 160f 1abc
00000020: bc93 7e3e d8aa 51bd f7bc 233e 9632 58bd
00000030: 5e61 e8bc dbbb efbe aa3b aebe 308e 69be
00000040: 7cb7 31be 1d29 fb3d 7aef 5a3e f05b 7cbe
00000050: b77c f8be 96b8 913e 779f cdbe 8925 8ebe
00000060: 0a67 05bd db35 30be ba18 633d 7fbd 513e
00000070: d42e 7e3e 52a1 38be f6d1 bdbe 9a6d aebe
00000080: 76c9 0bbe c79b 02bf a0fa 32be 1554 293e
00000090: ccc9 2dbe ae10 06bf 5cc3 3c3f f385 86be
000000a0: 4475 f6be d052 a6be acc2 d1bd 3964 b9bc
000000b0: 8519 81be 8929 03bf ff82 e3be 931d aebe
000000c0: 51bf 653d 7459 863d 39cd 30be 5d6d 193e
000000d0: 9dd2 553d 39e4 06bf baa0 de3e fc1d 8abd
000000e0: 42c9 f9bc 2310 f9be db88 e0bc 605e 8d3e
000000f0: 6460 20bf 82d4 b3be 50bf b4be 5805 a43c
00000100: 3170 cf3e 6648 fe3d d986 ef3e e4b3 653e
00000110: 2e13 ce3e 598d 01bf 44b5 80be 3d42 ea3d
00000120: 9802 42be 2f6a a4be 4bc6 4d3d 53a9 7f3e
00000130: 6cff 14bf bf21 5f3e 2015 15bf 6cb2 3bbe
00000140: 8e97 ae3c ba61 adbd 7f34 b3be 5ba1 90be
00000150: e6b9 223e 5c4a ee3c c758 54be f8e4 ff3c
00000160: dd48 873d 0466 2abe 4a4b 04bd e915 3d3e
00000170: 0ef7 8c3e c181 67be a41b 44be 91f6 0b3e
00000180: b651 883e 5176 63be 7d1d e63b 7a26 6dbb
00000190: ffa6 1e3e 7433 c9be 328f 4bbd 5ed9 46be
000001a0: 1543 a93e 267c 6ebe 981d a3ba c2c8 b13e
000001b0: 6e89 d33d 447e 733e b310 ab3e 44b9 40be
000001c0: 1d55 46be 48d6 88be f3c8 9a3d bb14 f6bd
000001d0: 0b2a d4be 5d74 81bd 05ef 863e df2f 3d3e
000001e0: fb67 90bd 78f7 5abf 6b7c d63e b527 b7be
000001f0: d44c 91be 1035 0ebe 24b2 c13e 1ab2 063e
00000200: 1542 30be 6b02 0dbd 2d2c cc3e b110 873e
00000210: 37a6 803b 1c2e d4bd c588 3d3e 4044 03bb
00000220: 234a bdbe 110c 9abe 0dd0 b03e ef39 073e
00000230: c64a 9abe 491d 5e3d b503 633e 6a30 47be
00000240: cb48 cb3c a3eb 00bd 3565 083e e696 b53e
00000250: b963 dabc 12b2 9d3e a45f c23e 20e0 973e
00000260: 3b2f 603e 0b62 28be d827 a83d 7fc0 95bd
00000270: ec3a 8dbe c9ee 6bbd 2ea8 35bf a213 073c
00000280: ab3a a6be 9393 54be 8dd5 0dbe 9879 003e
00000290: 5c9f 01be 7306 82bc 9c37 3d3e 5c69 f53d
000002a0: b3ab 843e 1c3f f4be 6830 113e ce57 bf3c
000002b0: eb0e c33d ccd6 f0bc 677c 833d ad56 a13d
000002c0: 8dce 7ebd 18b1 293e 5a12 683e 09cf e93e
000002d0: ae49 0cbe ed0c d7bc c834 0fbe 3556 f13d
000002e0: 313d 5f3e 71f1 37be 749f e73e 1328 413d
000002f0: 329d 053f 3c18 0ebe 36dd 043d 3265 82bb
00000300: ec23 ebbd 8a34 69bc 4bce bc3c 7e69 e43d
00000310: a193 473e 8f86 3ebc 966a 2ebd a573 8cbe
00000320: 2b34 923d 724a 40be fa6c 4ebd df9d f63e
00000330: 178e f2bd 7518 06be 8531 b33e 590e efbe
00000340: 4b76 8cbd 660b 77bc 3685 ea3c 0329 efbe
00000350: dee5 6abe ba21 8e3d 13d9 213e 29cd 163e
00000360: 6001 833e 9cfc 693e 6051 35be dbba 003f
00000370: e8ef f4bd 710e e0bd 6a86 313e 0298 6d3e
00000380: 0e8d 9d3e ef06 06bc 0836 e13e e81c 1ebe
00000390: ad39 b13d cb2b d33d d85f fa3d 9d6f 6dbe
000003a0: 270b d9be b67c 15be d536 863e 1f6b 353e
000003b0: 90c8 7c3d 9ec3 b93b 6279 7d3e 8d75 37bf
000003c0: 4bad 293d ae5d 00be d99a 90be b408 2e3d
000003d0: 045c d63e b7fe bd3d f98d cb3e 9873 3b3e
000003e0: ad23 29be b4ae 2abe c939 37bd 088b ef3d
000003f0: b414 fabe eeb6 cdbd 6cb8 133d 10a1 ddbe
-0.20897393 0.0058877333 0.033993877 -0.40577722 -0.27597558 0.11177651 -0.17487493 -0.009403011
0.24861044 -0.05118832 0.15990053 -0.052782618 -0.02836674 -0.4682301 -0.34029895 -0.22808146
-0.1735515 0.12263701 0.21380416 -0.24644446 -0.4853265 0.2846114 -0.40160725 -0.27763012
-0.03256897 -0.17208044 0.055443503 0.20482443 0.24822551 -0.18030289 -0.3707425 -0.34067994
-0.1365107 -0.5101895 -0.17478418 0.16535981 -0.1697151 -0.523692 0.73735595 -0.2627407
-0.48136342 -0.32485056 -0.10242209 -0.022630798 -0.25214782 -0.5123525 -0.4443588 -0.34006938
0.056090657 0.065600306 -0.17265786 0.14983125 0.05220281 -0.5269199 0.43482 -0.06744
-0.030491475 -0.48645124 -0.027409008 0.27611065 -0.6264708 -0.35123068 -0.3530221 0.02002208
0.40515283 0.12416153 0.46782568 0.22431904 0.40249008 -0.50606304 -0.25138295 0.11438415
-0.18946302 -0.32112262 0.050237935 0.24966936 -0.5820224 0.21790217 -0.5823536 -0.18329781
0.021312501 -0.084659055 -0.3500099 -0.28248104 0.15891227 0.029088192 -0.20736991 0.03123711
0.066056944 -0.16640478 -0.032298364 0.1846539 0.27532238 -0.22608091 -0.19151169 0.13668276
0.2662484 -0.22213103 0.0070225582 -0.0036186264 0.15493391 -0.39297068 -0.04969711 -0.19418857
0.33058992 -0.23289546 -0.0012444733 0.3472348 0.10328947 0.23778635 0.33411178 -0.18820673
-0.19368406 -0.26725984 0.07557859 -0.12015673 -0.41438326 -0.06321023 0.26354232 0.18475293
-0.07051083 -0.8553386 0.41891798 -0.35772482 -0.28378928 -0.13887429 0.37831223 0.13153878
-0.17212708 -0.034426134 0.39877453 0.26379922 0.0039260644 -0.10360357 0.18509205 -0.0020029694
-0.36970624 -0.3008733 0.3453373 0.13205694 -0.30135173 0.054227147 0.22169383 -0.19452062
0.024814984 -0.03147472 0.13319857 0.3546669 -0.02665888 0.3079992 0.37963593 0.2966318
0.21893017 -0.1644365 0.082107246 -0.07312106 -0.27584016 -0.05760077 -0.70959747 0.008244427
-0.32466635 -0.2075942 -0.13850994 0.12546384 -0.12658447 -0.015872216 0.18478245 0.11982986
0.25912246 -0.477044 0.14178622 0.023357298 0.0952433 -0.029399298 0.06420212 0.0787786
-0.0622087 0.16571462 0.2266325 0.45665768 -0.13699982 -0.02625128 -0.13984978 0.11784021
0.21800686 -0.17963196 0.4523884 0.04715736 0.52192986 -0.13876432 0.032437526 -0.0039793486
-0.11481461 -0.014233718 0.023047587 0.111529335 0.1948991 -0.011628761 -0.042582117 -0.2743198
0.071388565 -0.18778399 -0.050396897 0.4816732 -0.11843508 -0.13095267 0.34998718 -0.46690634
-0.068585 -0.015078401 0.028627973 -0.46710977 -0.2293925 0.069400266 0.15805463 0.147267
0.25586987 0.22850269 -0.17706823 0.5028512 -0.11959821 -0.109402545 0.17336431 0.23202518
0.3077168 -0.008180364 0.43986535 -0.15440714 0.08653579 0.10311087 0.12225312 -0.23187108
-0.4239132 -0.14598355 0.2621371 0.17716645 0.06171471 0.0056690713 0.24753335 -0.71663743
0.04142503 -0.12535736 -0.2824314 0.04248877 0.41867077 0.092770986 0.39756754 0.18305814
-0.16517515 -0.16668206 -0.044732843 0.1169644 -0.4884392 -0.10044657 0.03606455 -0.43286943

lstm_layers.0.bias_hh_l0_reverse f4 [332]
00000000: 861d cbbd 6991 d8bd 2d04 463e 4c9d acbe
00000010: dd5a e3bd 4629 f73d 26b3 1cbe 7d97 07bd
00000020: 3745 cf3e 6287 8fbb 9f65 3b3e c619 87bd
00000030: 213d 973d 32c7 19bf 03af 57be 11c3 4abe
00000040: c9f6 0fbe eeba 473e 2062 783e 604a 9bbe
00000050: 7fe6 13bf a4ad c23e d423 eebe 063f a6be
00000060: bdea ed3d 8413 d3bd 4001 a9bc b456 1a3e
00000070: 1d31 6d3e 8b0f 8ebe d778 e2be 6d32 8bbe
00000080: 8a7d c0bd 4c5a cfbe 1459 20be 238f b5bc
00000090: ad5a 1dbe f8d2 01bf 0746 493f 46eb 9cbe
000000a0: 3cbd 04bf b21a 61be 3924 d6bc 10c3 4e3d
000000b0: 5b5d 54be 6eb4 d5be fea4 1fbf 37fc efbe
000000c0: 609d a1bc 8198 de3d f1c6 b4bd 6ca3 6f3d
000000d0: 64c2 e83d ef68 d4be a603 ef3e 5879 9cbd
000000e0: a0ff 74bd cc13 1dbf 546e 73bd ae56 0e3e
000000f0: 3b36 35bf 7982 9dbe bc53 b6be 645d 0b3e
00000100: 0268 883e a84b ec3d 3d58 f83e edbb 343e
00000110: 9120 b13e c727 f5be 6623 78bd 58ad 93bc
00000120: 7fca 30be b3d6 bebe dfe4 7c3d 47ee ca3e
00000130: d673 f1be 32ec 9a3e 6805 19bf 146f 74be
00000140: 693a 94bc 7b95 19bd dbac d4be 51c0 d7be
00000150: c67f ad3d bb5d 21be 7796 bcbe 75a3 72bb
00000160: 4b0f e63d a9fe 48be 4079 1cbc f33b d13d
00000170: f850 bb3e 3618 90be d67c 1abe 8624 213e
00000180: bea6 4b3e 5ca3 84be adef d9bc 2be9 aebd
00000190: e2e6 3b3e 6ee3 b3be e645 7bbd 1006 86be
000001a0: a926 a53e ecb0 2dbe 15cf b23c 1d2d a73e
000001b0: 2f61 38bc c513 873e c651 e03e 2900 b1be
000001c0: 6408 8cbe f60e 92be 5135 043d 29f3 9dbc
000001d0: 0fb8 b6be fe67 113c 58e7 b83e 5d67 863e
000001e0: fffe 8a3d 9fda 68bf c926 a63e 4cdf a4be
000001f0: 9766 5dbe d4cb 25be be29 e13e 2bdc 5f3e
00000200: d4cf 9fbe a22e cdbc d978 bc3e f814 f53d
00000210: 304a 53bd 2b4d 65bc af92 303c 5906 313d
00000220: 129f 9dbe fc4a 99be 1a3f e83e 6e99 5f3e
00000230: 4aaa aebe ed5c b2bd d47c 723e a7b7 68be
00000240: 9e55 873d 5b51 99bd d87a c53d ef1a 7d3e
00000250: 6f84 9a3c b053 cc3e 1771 a03e 3410 473e
00000260: 1c94 823e 962f 63ba 27ad 5c3d a56a 66be
00000270: afe2 d0be 044e 993d 030a 27bf 389a a8bb
00000280: ea88 01bf 5f8c 3fbe 13a3 61bd 5c96 f03d
00000290: 7ec8 8ebd 71f4 fabc cfc2 013e 04d6 5d3e
000002a0: 794e 503e c53c e4be e7b3 be3d d0d0 653b
000002b0: 3f3b 293e 45c8 c0bc 29b3 243e 8f91 e93d
000002c0: 9aba 1ebe 6919 9b3e ea13 d93c 25a0 ba3e
000002d0: a811 58bd 6c2c 5ebd 7a65 34be b4d1 883d
000002e0: 2b1e e23d 98f1 68be cbce c13e 25bd c03d
000002f0: 6986 dc3e 4fe9 113d 5198 4fbd 7dfe 18bd
00000300: a1aa 87bd d0a7 913c 11cf 1c3d bbb7 c13d
00000310: 9644 4f3e 8481 74bd 1019 b93d 491c debe
00000320: dd43 c53d 3296 46be f9fb 3ebc e831 033f
00000330: 6550 10be 3106 84bd 4a8e de3e 0d53 e6be
00000340: 4d2d b8bd c9f8 9e3c e79e 5c3c b9fd fbbe
00000350: a1e3 77be 3d56 853e 9e55 85ba ea3e 3a3b
00000360: 20cd 2a3d 3679 e03d 6e3f e4bd 72ac dc3e
00000370: 3b36 2fbd 3d5a 53be 4d78 773e 195f ac3e
00000380: 0585 1e3e f8ec a33d c282 0e3f 8e1c edbd
00000390: 170a 483d 0273 2f3e fcff 893e 6261 68be
000003a0: b12a a1be 66db 80bc 10e0 d23d 07f8 823e
000003b0: 4517 d23d a6cb bebc 9e66 ba3e 02f1 1bbf
000003c0: 68c5 cf3d df54 a0bc 2767 bbbe 6ccd 043e
000003d0: 5f56 913e 62a2 d23d dd06 d43e 3263 ff3d
000003e0: a5b3 febd 3efe 5dbe 9c14 f5bd b6e1 25bd
000003f0: 0080 06bf 805f 87be dc35 6e3d 7915 d9be
-0.099177405 -0.1057461 0.1933753 -0.33713758 -0.11101315 0.12068419 -0.15302715 -0.033103455
0.40482494 -0.0043801526 0.18300484 -0.06596713 0.07384706 -0.6006957 -0.21062855 -0.19800974
-0.14058985 0.19504902 0.24256182 -0.3033018 -0.57773584 0.38023102 -0.4651171 -0.32469958
0.116170384 -0.10306457 -0.020630479 0.15072137 0.23163266 -0.27746233 -0.44232818 -0.2718691
-0.09398945 -0.4049858 -0.1565898 -0.02216298 -0.15366621 -0.5071254 0.7862248 -0.3064825
-0.5185125 -0.2198284 -0.02614032 0.050478995 -0.20738737 -0.4173922 -0.62361133 -0.46872112
-0.019728363 0.108689316 -0.088270076 0.05850546 0.11365202 -0.41486308 0.4668247 -0.07640332
-0.059814095 -0.6135833 -0.05943139 0.13900253 -0.70785874 -0.30763605 -0.3561076 0.13609844
0.26641852 0.11537868 0.4850482 0.17649813 0.3459516 -0.4788191 -0.060580634 -0.018026993
-0.17264746 -0.37273178 0.061741706 0.39634916 -0.47158688 0.30258328 -0.59773874 -0.23870498
-0.018094258 -0.03749607 -0.41538128 -0.42138913 0.084716365 -0.15758412 -0.36833546 -0.0037023698
0.11233386 -0.19628395 -0.009550393 0.102165125 0.36585212 -0.2814347 -0.15086684 0.15736589
0.19887826 -0.25905883 -0.026603544 -0.08540567 0.18349794 -0.35134453 -0.061345957 -0.261765
0.32256058 -0.16962022 0.02182726 0.32651606 -0.011253639 0.2638227 0.43812388 -0.34570435
-0.27350152 -0.2852704 0.03227741 -0.019280987 -0.356873 0.008874891 0.36114 0.26250735
0.06786918 -0.9095859 0.32451466 -0.32201612 -0.21621166 -0.16191036 0.4397716 0.21861331
-0.31213248 -0.02504665 0.3681095 0.1196689 -0.051584423 -0.013995449 0.01077716 0.043218944
-0.30785424 -0.2994002 0.45360643 0.21835873 -0.34114295 -0.087091304 0.2368043 -0.22726308
0.06608127 -0.074862204 0.09642571 0.24717306 0.018861977 0.39907598 0.3133628 0.19439775
0.25503623 -0.00086664537 0.05387607 -0.22501619 -0.40797946 0.074855834 -0.6524965 -0.0051453374
-0.5059954 -0.18705891 -0.05508716 0.11747429 -0.069718346 -0.030634137 0.1267197 0.21663672
0.20342435 -0.44577613 0.093116574 0.003506709 0.16526507 -0.023532996 0.16083969 0.11404716
-0.1550087 0.30292824 0.026498754 0.36450306 -0.052751213 -0.054241583 -0.17616835 0.06680623
0.1104091 -0.2274841 0.37853083 0.094110765 0.43071297 0.03562289 -0.05068237 -0.037352074
-0.06624342 0.017780215 0.03828341 0.09458872 0.20241007 -0.05969383 0.090379834 -0.43380955
0.096320845 -0.19393232 -0.011656755 0.51248026 -0.14093168 -0.064464934 0.43467933 -0.44985238
-0.089930154 0.01940574 0.01346562 -0.49217013 -0.24207927 0.26042357 -0.0010172611 0.0028418847
0.04169953 0.10960619 -0.11144911 0.43100315 -0.042776328 -0.20639892 0.24166985 0.33666304
0.1548043 0.080041826 0.5566827 -0.11577712 0.048837747 0.17133716 0.26953113 -0.22693399
-0.31477883 -0.015729617 0.10296643 0.25579855 0.102583446 -0.023290467 0.36406416 -0.60914624
0.10145074 -0.01957172 -0.36602136 0.12968987 0.28386208 0.10284878 0.41411486 0.12470092
-0.12436608 -0.21679017 -0.119668216 -0.040498458 -0.5253906 -0.26440048 0.058156833 -0.42399195
