foundation_models/Ensemble_model30_DeepHit_ANN_Both_20250807_164222.pt (torch, 270364 bytes, 44 tensors)

conv1.weight f4 [32, 1, 3]
00000000: fb3b c33e 14ff 14bf be37 753e 2f8c 723a
00000010: 18ab 363d 94d3 fcba c081 d6be 69e5 843e
00000020: 03fe 3b3f 90eb b8be 36df 3cbe 454a 5b3e
00000030: e131 b4be 2a75 913e 9e0a 683e 5a08 4b3e
00000040: 4653 02be fa3b 6bbe ee69 fe3d f2a4 48bd
00000050: 0919 4d3e 3fe4 d1bd fac9 5e3c c8d3 a8be
00000060: 7b24 4dbc 19a6 04bc 8c04 02bd d5cc 75bb
00000070: f89d b3bb 78da 37bc 856d 7abe a271 16bf
00000080: fc73 993e 13e8 7f3e e58c 24bf 378c 01be
00000090: 8e03 3bbf 5cdc 16bf cef8 85be 4d3f c73e
000000a0: 0e1a 39be 3c2b 573e c402 35be e86c 12bf
000000b0: 90ac 74bf 06e0 c3bf 5f89 fe3d 9cc5 80be
000000c0: 0b30 b7be 7468 c03e 0a64 4fbf ae56 e0be
000000d0: 2e06 293f a9b3 22be 0c14 72be bb3d 07bf
000000e0: e7b2 d13e 9ae4 96bf d54c 5abe 9912 a93e
000000f0: d38c 1dbf 1dc3 00be 2de4 4b3e 67e5 863c
00000100: b949 b13e da8b 9d3e 2a40 033f 87cb d3be
00000110: bea6 7a3e c6ab 533e c28f 47be 6a68 9dbe
00000120: 5f61 283e 57a5 ca3e a441 9e3e 8d5a 573c
00000130: f1c8 073d 178c 57bf 3184 79bd 3593 19be
00000140: ffb5 e6be a65e 44bf 0ae4 46bf c662 f7be
00000150: 582a 183e c7d8 5fbe 4a9b 1e3e f85e 02bf
00000160: 163e 0cbe 3a02 22bf 50e0 64be ffd8 dabb
00000170: c6c6 27bf 4b68 35be 4358 0cbd 889a d93d
0.381317 -0.5820172 0.23947045 0.00092524564 0.04459676 -0.0019289129 -0.41895866 0.25956276
0.73434466 -0.3611722 -0.18444523 0.2141505 -0.35194305 0.28409702 0.226603 0.19827405
-0.12727079 -0.22972098 0.12422548 -0.04898543 0.20029081 -0.102486126 0.01359796 -0.32974076
-0.012520905 -0.008096241 -0.031742617 -0.0037506123 -0.005481478 -0.011221521 -0.24455841 -0.5876714
0.29971302 0.24990873 -0.6427749 -0.12651144 -0.730523 -0.5892999 -0.26166385 0.38915482
-0.18076345 0.21012586 -0.17676836 -0.5719743 -0.9557581 -1.5302742 0.12428545 -0.25150764
-0.3577884 0.3757969 -0.8101202 -0.4381613 0.66025054 -0.15888847 -0.2364046 -0.5282857
0.40956804 -1.1788514 -0.21318372 0.33022 -0.61543006 -0.1257443 0.19911261 0.01646681
0.34626558 0.3077076 0.5126978 -0.41366217 0.2447767 0.20670995 -0.19488433 -0.30743724
0.16443394 0.3957927 0.30909455 0.013144148 0.033150617 -0.84198135 -0.060917083 -0.14997561
-0.45060727 -0.7670692 -0.7769171 -0.48317546 0.14859903 -0.21860038 0.15488926 -0.5092616
-0.13695559 -0.6328465 -0.22351193 -0.0066787 -0.6553768 -0.17715566 -0.03426386 0.106251776

conv1.bias f4 [32]
00000000: 0442 41bf f08a 30be cc68 96be af53 86bd
00000010: 7e54 fdbd 53fc 02bf d4b3 3cbf 5f3c d53e
00000020: 29e8 acbc ce76 9cbc 7d0d a4bd 2f15 7fbf
00000030: f779 143f 3409 0abf 38b7 2e3d 2a85 11bf
00000040: baaf d23e cdeb 44be 08bf e6bc 5e09 0dbf
00000050: c9b9 7f3e 80a0 c33d 70c2 203e 5e94 d0be
00000060: f58f 45bd ab65 c03e b922 03be 4553 0d3f
00000070: ad52 febe 5129 23be 957b 3f3f bc40 683e
-0.75491357 -0.172405 -0.2937683 -0.0655893 -0.12369631 -0.51166266 -0.73711896 0.41647622
-0.021106796 -0.01909962 -0.08010385 -0.996417 0.57998604 -0.5392029 0.0426552 -0.5684382
0.41149694 -0.19230576 -0.028167263 -0.5509242 0.24973215 0.09552097 0.15699172 -0.40738195
-0.04823299 0.37577567 -0.12806214 0.55205184 -0.49672452 -0.1593373 0.74797946 0.22680944

conv2.weight f4 [64, 32, 3]
00000000: fa5d 3fbd d3a5 75bc 678a 80bd e615 bcbd
00000010: d5bb 07be 309c 06be cbc0 893d 5411 7ebc
00000020: f3bb 77bd 225d 403d f8e1 e83a b49f a3bd
00000030: 081d 82bd dde7 65bd cd59 9cbb 301f dabc
00000040: 1fb9 c6bd 92ba 9f3c 6c99 1bbd 2b20 99bd
00000050: e874 b53c 2465 a5bc c535 a3bd ca4e 12bd
00000060: 8f61 fcbd 4371 d1bd edb7 cabd ae8c 2c3d
00000070: 8ab8 ae3d 7d9d eab9 af1a 953d 1072 fd3b
00000080: bd14 ddbd 224f b23d ca63 babd 897c cf3c
00000090: b428 9dbd 1d21 443d 7d07 dbbc a504 65bd
000000a0: 93d8 b7bd e370 933c 2dc1 f0bd b4c8 323d
000000b0: 73cf 293d 3f2e 05bd e845 82bb 23a0 bdbd
000000c0: 7479 4cbd 5288 38bd 834d c53d ee3e b43c
000000d0: 1f1e 41bc d358 923d 2128 f3bc dbb3 90bd
000000e0: cc1b 2abb 6ce2 7a3c 8012 b9bd 4b3e 98bc
000000f0: 2ec3 d0bd aa0e 5c3b 7825 09bd 175d 9fbd
00000100: d51c 43bd 0402 37bd d610 863b ac2a 9c3d
00000110: 7442 b63d 363f a0bd e1b6 b4bd f742 a6bc
00000120: 0592 0c3c e22e b53c 0afd 3bbd e65e 8d3c
00000130: 3c52 91bd 46b5 f6bb 9982 d9bc 1c55 c13d
00000140: 98d0 2a3c 0eab d53d e4ba e53b e14b 133c
00000150: 6252 7dbc d5d6 073c 6ad5 68bd 45fb 10bb
00000160: 01c8 66bd e683 253d d8bf 88bc 2dd5 b9bb
00000170: 01a1 4dbd dbab cbbd 30eb b6bc b95a 8d3b
00000180: edaa 313d c42f 86bc 734a e9bc 49b5 a4bd
00000190: 84d1 99bc d344 b13d 2a38 cdbd 128c c73c
000001a0: 690d b9bd c138 b6bd 04b5 1fbd 3030 5b3d
000001b0: 8870 cb3d df3f c8bd de01 8f3d 513d 413d
000001c0: 408d 143d 0842 69bd c2bb 333d 3e0e b5bd
000001d0: 4fcb 98bd 5c8e 4d3d 9a40 7cbd 745a 3d3d
000001e0: 845d 823d fd38 323b 2b81 aebb ede3 9fbd
000001f0: 89b6 54bd c57b 5bbd 0d2e 09bd 2832 4b3d
00000200: 673d 8dbd e509 373d 2bf3 c5bd 50d2 71bc
00000210: 9bc0 5bbd 9777 d0bd 9fdf 93bd 4ffc 433d
00000220: 73b3 0c3d 95a7 3e3d 8594 b0bb f9ab 5bbd
00000230: 2645 2dbc d48e 02bc f7a5 04bd ee0b 843d
00000240: 4302 053c 20c5 17bd e449 273c a76d 8abd
00000250: deeb b1bd 445b 0a3c c700 3dbd 7698 42bd
00000260: f05f 7d3d 00eb 6c3c 23dd 733d 2dce c7bd
00000270: 6db0 7dbd bd4d acbc c2b7 203c 0e76 c8bc
00000280: 1339 45bd 7b0c 44bd 8fea 883d 55c5 cabd
00000290: 5b00 6a3d 51ef 5fbd d4f6 e13c 82af 2ebd
000002a0: 6508 9bbd 61b0 24bd 6bc3 e0bc 2a7b aebd
000002b0: 00fd dbbc e429 b8bd 91ca 32bd 12a7 bbbd
000002c0: 1b88 c7bd 5e83 73bd da3b 4dbc db14 a13c
000002d0: 1eec 67bd 4bbd cbbd 8715 9ebd a94b bd3d
000002e0: b09c b6bd 0c1f 583d dc84 5cbc ad2c 47bd
000002f0: 0fce ccbc 6ff5 2ebd 1436 ddbd 7f24 77bd
00000300: e89f c93c 323b c7bd 8743 c6bd edc3 83bb
00000310: b4b2 50bd 498c 20bd a7e2 45bd aeb1 7e3d
00000320: c6b0 1f3d 7317 6dbc 356f 20bb 7284 b6bd
00000330: ab79 883d f33d c7bd ce3e aa3c f0df 84bc
00000340: 5068 79bd 7b02 bcbd 066c 03bd fa51 883d
00000350: b3f4 ab3d c8ad e63c 7712 42bd 3ae9 233d
00000360: 6451 a3bd b18a b1bd 58fc 1d3d 8575 8b3d
00000370: 8467 b73c dcb0 cbbd 2d7f 503d 5529 853d
00000380: 2bb7 cbbd 42b1 113d a4ca 65bc 3539 32bd
00000390: 3a4d a9bd 83ca a8bd 6f24 53bd d182 82bd
000003a0: 790a 83bd a2e0 d03d b7b1 5b3d df6c f7bc
000003b0: 7044 b93d 3071 a9bd 94cb 6c3d 15ea f63c
000003c0: 984f 213c 3a51 493d 11a9 8d3d 2545 e5bb
000003d0: b565 a43d 87a2 9d3a 1bf7 d0bd 0bf5 aebd
000003e0: 7109 0dbd e4f4 8cbd 314d ebbc 7e8f e7bc
000003f0: 3641 ae3d 4cab d0bd b986 9dbd 8a64 223d
-0.046720482 -0.014993149 -0.06276398 -0.09183864 -0.13255246 -0.13145518 0.067262255 -0.015507061
-0.060481977 0.04696382 0.0017767539 -0.07989445 -0.063531935 -0.056129325 -0.0047714473 -0.0266262
-0.09703278 0.019498143 -0.03798811 -0.07476839 0.022150472 -0.02018983 -0.0796924 -0.03571967
-0.12323295 -0.10226681 -0.09898362 0.04212635 0.08531292 -0.00044749296 0.0728048 0.0077345446
-0.10794971 0.087065 -0.091010645 0.025327938 -0.07673779 0.04788314 -0.02673697 -0.055912632
-0.08976855 0.017998165 -0.11755595 0.043648437 0.041457605 -0.032514807 -0.0039756186 -0.09259059
-0.049920514 -0.04505188 0.09633925 0.022002663 -0.011786967 0.07145848 -0.02968222 -0.07065555
-0.002595651 0.015312772 -0.09036732 -0.018584391 -0.101934776 0.0033578076 -0.033483 -0.07781427
-0.04763492 -0.044679657 0.0040913625 0.076253265 0.08899394 -0.078245565 -0.08823944 -0.020295603
0.008579736 0.022117082 -0.045895614 0.017257165 -0.07095763 -0.0075289337 -0.026551532 0.094400615
0.010425709 0.10433017 0.0070108045 0.008990259 -0.015461536 0.008290966 -0.056844153 -0.0022122425
-0.056343082 0.04040899 -0.01669304 -0.0056711645 -0.050202373 -0.09944888 -0.022328943 0.0043137935
0.0433759 -0.016380198 -0.028477883 -0.0804239 -0.018776663 0.08655705 -0.10020478 0.024358783
-0.09035761 -0.08897544 -0.03899099 0.053512752 0.09933573 -0.097778074 0.06982778 0.047177617
0.03626752 -0.056947738 0.04388023 -0.08840607 -0.07460653 0.050184593 -0.061585046 0.04622884
0.06365493 0.0027194612 -0.0053254566 -0.07807145 -0.05193189 -0.053584833 -0.033491183 0.04960838
-0.06896477 0.04468717 -0.09665521 -0.014759615 -0.05365048 -0.1017906 -0.07220387 0.047848042
0.034350824 0.046546537 -0.0053887987 -0.053630803 -0.010575568 -0.007968623 -0.03238484 0.06447588
0.008118215 -0.037053227 0.010210488 -0.06759196 -0.08687566 0.008444611 -0.04614332 -0.04750868
0.06185907 0.014460325 0.059537064 -0.09756122 -0.06193583 -0.021033162 0.009809436 -0.024470355
-0.048150133 -0.047863465 0.066853635 -0.09900919 0.057129245 -0.05467159 0.027583517 -0.042647846
-0.075699605 -0.04020727 -0.027436933 -0.085195854 -0.026854038 -0.08992365 -0.043650214 -0.091627255
-0.09742757 -0.059451453 -0.012526477 0.019663265 -0.056621663 -0.09948214 -0.0771895 0.09242947
-0.089166045 0.052763984 -0.0134594105 -0.04862659 -0.0250006 -0.042714532 -0.1080133 -0.06033754
0.024612382 -0.097280875 -0.096808486 -0.004021159 -0.050951675 -0.039196286 -0.048311856 0.062181167
0.038986944 -0.014470923 -0.0024480347 -0.08911981 0.06663831 -0.09728613 0.0207819 -0.016220063
-0.060890496 -0.091801606 -0.03208544 0.06656261 0.08396282 0.028159037 -0.04738089 0.040017344
-0.079745084 -0.086690314 0.038570732 0.068095244 0.022388227 -0.099458426 0.050902534 0.06502024
-0.09947046 0.035569437 -0.014025364 -0.043511588 -0.08266683 -0.08241751 -0.051548418 -0.063726075
-0.06398482 0.10199095 0.05363628 -0.030203281 0.090462565 -0.08273542 0.057811335 0.030140916
0.009845637 0.04914973 0.069170125 -0.006996768 0.080272116 0.0012026586 -0.10203382 -0.08542832
-0.034432832 -0.06882647 -0.028723331 -0.028266665 0.08508532 -0.10188922 -0.07691712 0.039646663

conv2.bias f4 [64]
00000000: b1bc d03d ae99 4a3b a7eb 03bd c9c5 ce3c
00000010: 0aeb 593d 6277 71bf b626 60bc 7d04 acbd
00000020: ee84 bebd 28ce af3d 343f 20bd c6b7 a4bf
00000030: 3eb4 2c3d 870d 073c c307 03bc 4512 75bd
00000040: 705a f93d e69b 60bd 1a13 95be d520 e3be
00000050: 31ba 0bbf fda9 493d 9220 77bd c394 abbc
00000060: accb 8d3d 7b7d fdbd dcef bdbb c91a 0abd
00000070: 9da1 7cbd 9961 413c 9f11 b4bd 2e41 4dbe
00000080: 2f3d c4bd e2f4 573e 4023 dd3c 6d73 a0bd
00000090: 9894 91bd 2f13 7bbd fc91 a7bd 1864 8bbd
000000a0: aa55 85bf a94e ed3e e749 f3bd 26dc 403d
000000b0: d399 b6be 831c 513e 92af d9bd 2b69 0fbc
000000c0: 7feb 963c efac bebe 1970 723d c96e d83e
000000d0: 5e07 bcbc d173 1e3e 64d9 b0bd 5beb 783c
000000e0: 0f60 a03e 3f8a eb3e 79b2 edbc b17f 023e
000000f0: d0e3 923d c879 563f 5cba ac3d 91b1 c53c
0.1019224 0.0030914354 -0.032207157 0.025240796 0.053202666 -0.9432279 -0.013681104 -0.083992936
-0.09302698 0.08584243 -0.039122775 -1.2868583 0.04216408 0.008242971 -0.007997456 -0.059831876
0.12175453 -0.054836176 -0.29116136 -0.44360986 -0.5458098 0.04923438 -0.060333796 -0.020944959
0.06923613 -0.12377449 -0.0057964157 -0.03371695 -0.061677564 0.011803054 -0.087924235 -0.20044395
-0.09581982 0.21089509 0.026994348 -0.07834516 -0.0710842 -0.06129759 -0.08182141 -0.06806201
-1.0416768 0.46349075 -0.1187933 0.04708495 -0.35664234 0.20421033 -0.106291905 -0.008753101
0.01842284 -0.37241313 0.059188936 0.42272022 -0.022952732 0.15473868 -0.08635214 0.015192832
0.31323287 0.4600391 -0.029015766 0.12744023 0.07172358 0.83779573 0.08433983 0.024132522

cause_networks.0.0.weight f4 [113, 128]
00000000: 9bbc 423d edc7 e2bd 6122 62bd 3273 e6bc
00000010: 1c87 293d cc8f 7a3d 9ca4 a53d 0494 34bd
00000020: 9769 0fbd 11d6 e93b 82f2 abbe 5229 a1be
00000030: 0807 7dbb 7e15 5a3c b100 02bd 9549 01be
00000040: 591c 8b3b 497c fcbb 6527 d83c 1f31 0c3d
00000050: 61e9 473d 399e 11bd 3674 a03e 7b28 5dbe
00000060: 88b8 9cbb a7e4 1d3c 2244 123c d17f 95bd
00000070: 5cf1 77be 968a 013e f891 3ebd 573c 1e3d
00000080: afb1 f5be 6504 113e ace9 78bd 588b 1cbd
00000090: 6de3 023d 766c a8bc 6a0a c1bd fee8 5c3e
000000a0: b08f 27bd 4d07 ae3e de8f d83c 3c0a 6d3d
000000b0: 4874 a9bd e58d 823d a379 9d3d f4f3 673d
000000c0: f6c3 b4bd cf10 233d 6d16 a53d 47e6 433c
000000d0: 812f 79bd 4e87 94bd 6eeb bbbd ed06 853c
000000e0: 78ed 4e3d bb84 a53d 6ee4 0dbd ede9 47bd
000000f0: 1167 7abd 011d 9a3c 0944 563e 040e 113e
00000100: b06c 68bc 5011 49bd 1d0e 25be ffcf 31be
00000110: 72a8 2bbc 5f8b 4a3d a3a1 29b9 228c a23d
00000120: a7dd 6e3d de5d 543d 775d 843d 0407 01bd
00000130: 0668 523b 0c25 e83c 0637 4bbd e43f 66bb
00000140: 1a7e 95be 57f0 e4be ffbb ba3d 01ec 633e
00000150: de3b dabd ebf5 76bc ba9d a93d 9f5b 4e3d
00000160: 576c 65bd b319 5dbe f98b 893e a9d6 6dbe
00000170: f5d9 37bc 9855 f2bc 10ce 50bd d991 88bd
00000180: d6c0 323d c0f3 29bc e5d3 803e 1962 c6bd
00000190: 715a 853d 0c91 d83c 3046 2bbe dd03 c2bb
000001a0: 1bed a1bd 6938 48bd 5b99 063d 256f bb3d
000001b0: b43c 6bbd 7678 42bd 1e0b 16bd 1e5a 28bd
000001c0: c1a3 24bd 9262 283f d251 723d e470 80be
000001d0: 4a14 05be b81c 7f3e 5ef0 ac3d d0df 203d
000001e0: b67d e5bb c1a9 7f3c 9c61 283f 7e81 003e
000001f0: d58e 7abd 4ca2 d33c a7d9 953d 1f23 ca3d
00000200: e16a 923c 5380 663d 84a1 d5bc 4b68 77bd
00000210: b3fc 893d 35f7 9a3c dae0 b2bd c73c 91bd
00000220: d3c9 453d ace2 8fbc 173e 22be 9ef4 283e
00000230: 0a61 7abd 804f d43d 9108 bbbe d1c3 debe
00000240: 3c76 b5bc 5a35 22bc 6f3c 073e 362a 34bd
00000250: cd7c 34bd c036 5d3f 9a2b c53d ef21 43bb
00000260: 233c 61bb bb86 a3bc aeb1 4f3d d59a b2bd
00000270: 7512 28be c92a fd3d 57b4 323d 25d9 d83c
00000280: 4dfd fb3e 3dfa babc 4572 e4bc 2d90 e8bb
00000290: bb33 833e f642 263d e5bc 393d f15a a13d
000002a0: 7910 373d c4b6 5a3c 5cf0 4b3d 88cf 943c
000002b0: 68bc 85bd e941 bcbb 42b3 b63c c762 78bd
000002c0: 1ae8 88bc 4db1 923d dbb8 803d 8037 76bd
000002d0: 7a6e 123c 7fef 9c3d c9a3 453b d290 4dbd
000002e0: 8e27 523d e9a4 46bd c7bf 1a3c aa79 eebc
000002f0: 932e 91bc 7596 51bd df33 4abb e51a 15bc
00000300: 587a d9bc 2c4d 773c 4e7e 25be 67ea 423e
00000310: d24b 5f3e 7059 ad3e 3964 8bbd e532 893d
00000320: 5a8c ae3c dd47 b13d 4c29 6ebd e9aa f7bc
00000330: 7701 803b ca19 99bd af50 6d3c e9d9 e53c
00000340: 5846 0ebe 295e 9e3d 0f3a a6bd cb09 9fbe
00000350: e246 513c c96c 2bbd 8d41 3e3d 477a a2bc
00000360: 270d f2bd 7f34 acbd 4fa5 b6be c071 1f3d
00000370: 8bdd 143c 0985 07bd 69a5 d03c 9225 21bd
00000380: 6104 0ebc 3f93 15ba 4c50 383e 58e5 08bf
00000390: 03e9 15bb 08e9 99bc 17a8 88bc 8708 94bd
000003a0: 8dcd a23b 0f16 bbbd 23f3 73bd e892 9f3c
000003b0: 2034 053d 0480 af3c 375c 4b3d 4203 2abd
000003c0: 9478 e8be 2667 2cbf ef7b 0c3e 4f88 343e
000003d0: 7be0 bfbd 4d90 eebc 4059 813d d073 1fbd
000003e0: 0eef babc 092c 58bd c4db 003d 77e5 bdbe
000003f0: 5a08 023d 0012 33bd 76cf acbd b76a 30bd
0.04754315 -0.11073289 -0.055208568 -0.028131101 0.041388616 0.06117229 0.08088037 -0.04408647
-0.035012808 0.0071361144 -0.33583456 -0.31476837 -0.0038608927 0.013310788 -0.03173894 -0.12625726
0.0042453227 -0.0077052456 0.026385972 0.034226533 0.04880655 -0.035551284 0.31338662 -0.21597473
-0.00478274 0.0096370345 0.008927377 -0.0729977 -0.24213165 0.12650523 -0.046525925 0.038631763
-0.47987124 0.14161833 -0.060769722 -0.038218826 0.03195517 -0.02055953 -0.094258144 0.21573254
-0.040908515 0.33989945 0.026435789 0.05787109 -0.08274132 0.063747205 0.07689216 0.056629136
-0.08826439 0.03981095 0.08060918 0.011956758 -0.06083632 -0.0725237 -0.09175764 0.016238654
0.050519437 0.08081957 -0.034641676 -0.048807073 -0.061133448 0.018812658 0.20924391 0.14165503
-0.014186069 -0.049088776 -0.16118665 -0.173645 -0.010477172 0.04944932 -0.0001617731 0.079368845
0.058316853 0.05184733 0.064631395 -0.03150083 0.003210546 0.028337978 -0.04961302 -0.0035133297
-0.2919777 -0.44714615 0.09117889 0.22257997 -0.1065595 -0.01507328 0.08282037 0.050380345
-0.056011524 -0.21591835 0.26864603 -0.23226418 -0.011221399 -0.02958183 -0.050977767 -0.06668443
0.043640934 -0.010373056 0.25161663 -0.096866794 0.06511391 0.026436351 -0.16725993 -0.0059208707
-0.079065524 -0.048881922 0.032861095 0.091520585 -0.057430938 -0.04747816 -0.036631696 -0.041101567
-0.04019523 0.65775406 0.05916006 -0.2508613 -0.12996021 0.24913299 0.08444284 0.039275944
-0.0070035113 0.015604437 0.6577394 0.12549397 -0.06117137 0.025834225 0.073169045 0.0986998
0.01787323 0.056274723 -0.026077993 -0.060402196 0.06737652 0.018916706 -0.08734293 -0.070916705
0.048288178 -0.01756414 -0.15843998 0.16499564 -0.0611277 0.10366726 -0.36529973 -0.4350877
-0.022151105 -0.009900415 0.13206647 -0.043985568 -0.04406433 0.86411667 0.09627457 -0.0029774865
-0.003436812 -0.019961705 0.050706558 -0.08720938 -0.16413291 0.12361676 0.043629017 0.02647073
0.4921669 -0.022824401 -0.02788652 -0.007097265 0.25625405 0.040591203 0.04534616 0.07878674
0.044693444 0.013349239 0.04978977 0.018165365 -0.06530076 -0.005745162 0.022302274 -0.060641076
-0.016712237 0.07162724 0.062852584 -0.060111523 0.0089374725 0.07662868 0.0030157438 -0.05018694
0.051307254 -0.048497114 0.009445137 -0.029110748 -0.017722404 -0.051168878 -0.0030853671 -0.00910065
-0.026547596 0.015094083 -0.16161463 0.1903473 0.21806267 0.33857298 -0.06806225 0.066991605
0.02130716 0.08656285 -0.058144853 -0.030232864 0.0039064246 -0.07475622 0.0144845685 0.02805801
-0.13894022 0.077328034 -0.081165425 -0.3106216 0.012773247 -0.041851792 0.046449233 -0.019833697
-0.11818915 -0.0840845 -0.35672995 0.03892684 0.009086023 -0.033085857 0.025469499 -0.03934247
-0.008668036 -0.00057058403 0.17999381 -0.5347495 -0.0022874482 -0.018787876 -0.016681714 -0.07228189
0.004968351 -0.09135067 -0.059558045 0.01947923 0.032520413 0.021423347 0.04964849 -0.041507013
-0.45404494 -0.6734489 0.13719152 0.17630123 -0.09368988 -0.029121542 0.06315851 -0.038928807
-0.022819068 -0.05277637 0.031459585 -0.3708913 0.031746246 -0.043718338 -0.084380075 -0.04307052

cause_networks.0.0.bias f4 [113]
00000000: 82ad a83d b8a4 423e f0c4 d33e f6c2 ee3d
00000010: a92f 9e3e a2ad a63b f2ce 13bd b089 9f3d
00000020: 282d 84be 5c19 953d bb67 d63d 44a9 2abe
00000030: c20d 4fbb 0268 973d 2648 08bd 25ff 3bbb
00000040: 26ac c13e 0860 cabe 595e 203d 8173 f63c
00000050: 4916 a43e f31a 4dbe 256e f53c 03ca 36be
00000060: ac91 e3bd df26 a63e 39d5 6c3e c9f4 33be
00000070: 61dc 123e 224c 5fbe 4634 ad3d 680d 94bd
00000080: 9c30 d3bd 95fb 803d 5531 913d 04ca 21be
00000090: 64f6 ca3d ffbd b0bd 690d 1cbd 67d6 be3e
000000a0: 9313 c2be 0478 b93c cbb0 063e fd74 d93e
000000b0: 1522 873e f07b a73c 5577 9b3d 8906 d73e
000000c0: 8018 043f bf0a 13be 8891 4d3e 4b3a e13c
000000d0: caf9 073d d553 dabd 4a48 0a3e e235 07be
000000e0: edfc f9bd c239 8f3e efbd 3d3e 34d6 51bd
000000f0: 439f 053e f331 253e aea1 55be a7ef b13d
00000100: 2b74 a23e 7238 5cbd c530 11be 04c8 f23d
00000110: 9a78 4d3d 9230 52be d020 0fbe 0f41 0ebd
00000120: 0b37 273e 1716 3f3d 9e58 b03d 1682 5c3e
00000130: 4296 4fbc 92e0 093d 055a e53d 9e5a 3b3e
00000140: 6210 743d a441 433e e5c7 d93d 5697 85be
00000150: 8936 8fbc da74 c33d d008 033e f2ee 0c3e
00000160: ec3b 733e 73a1 9f3d 5ce9 ab3d 7e15 823e
00000170: 2033 713e 69a8 c23d 97e7 f7bd 31db 6d3c
00000180: b66a 92be 68d3 abbe e4ce 35bd 45a4 50bd
00000190: 9111 78be c9eb 26bc b348 a83d 9f33 dcbe
000001a0: c688 c13d da94 473e 50c3 1c3d 38a1 e93d
000001b0: bc51 2dbd 0fc3 81bd 37d8 473d e752 55be
000001c0: f74c d0be
0.08236219 0.19008148 0.4136119 0.116582796 0.30895737 0.0050866166 -0.03608603 0.07789934
-0.258157 0.072802275 0.10469004 -0.16666132 -0.0031593894 0.07392885 -0.03327193 -0.0028686014
0.3782665 -0.3952639 0.039152477 0.030084373 0.32048252 -0.20029812 0.029959748 -0.17850499
-0.11111769 0.3245153 0.23128213 -0.17573847 0.1434188 -0.21806386 0.08457236 -0.072291195
-0.10312006 0.062979855 0.070894875 -0.15799719 0.099102765 -0.08629989 -0.038098726 0.3727295
-0.3790556 0.022640236 0.13153379 0.42472067 0.2639319 0.02044484 0.0759112 0.41997173
0.51599884 -0.14359568 0.20075047 0.027493617 0.0331972 -0.10660521 0.13504139 -0.13204148
-0.12206445 0.27973753 0.18529485 -0.05122967 0.13049035 0.16132335 -0.20862457 0.08688288
0.31729254 -0.053764768 -0.1417876 0.11854556 0.050163843 -0.2052634 -0.1397736 -0.034730013
0.16329591 0.046651926 0.086106524 0.21533999 -0.012670102 0.033661433 0.111988105 0.18296286
0.059585936 0.19068009 0.1063383 -0.26092023 -0.01748206 0.09543772 0.1279633 0.13763025
0.23753327 0.07794466 0.08394119 0.25407022 0.23554659 0.09504778 -0.12104719 0.014517591
-0.2859704 -0.33559728 -0.04438676 -0.05093791 -0.24225451 -0.0101880515 0.08216991 -0.43008134
0.094499156 0.19490376 0.038272202 0.11407703 -0.042314276 -0.063360326 0.048790183 -0.20832406
-0.4068372

cause_networks.0.1.weight f4 [113]
00000000: 6bc6 433f 0f23 653f 6d7f 923f b75d 633f
00000010: 2a7b 5d3f 477a 5d3f c4ec 853f c2f5 583f
00000020: 34c4 573f d1d2 6a3f 08f8 4e3f 8c8f 7f3f
00000030: 9df7 573f 421e 903f 04aa 7a3f 10df 833f
00000040: 1de7 533f 33b4 603f c71b 483f c706 823f
00000050: 544c 503f 82ef 6b3f e418 983f 7e3a 6f3f
00000060: 47fc 6e3f e310 693f 6ee4 763f 7500 643f
00000070: f4bb 5c3f 6cd0 653f 1cab 773f e718 863f
00000080: 10f6 963f 0cfd 663f 13ad 493f e4fb 593f
00000090: fae4 603f afd3 813f 61e2 873f 26c0 423f
000000a0: ac1b 7a3f 0f33 783f f21a 393f f642 633f
000000b0: b3dd 763f b5d9 743f 3d0e 773f 7ba2 5d3f
000000c0: 9dfb 643f 0583 9a3f e218 7f3f 0c30 5a3f
000000d0: 48f5 1f3f 545c 4c3f 7444 903f 2ab2 6c3f
000000e0: 2539 653f 6fb2 5f3f d365 403f 962c 873f
000000f0: 83d0 8a3f 3d88 603f 58ad 903f 7625 693f
00000100: 8ffc 5d3f 5f4f 793f c84b 8d3f 9ae8 713f
00000110: fad8 633f c983 4b3f 0af5 573f ddb8 663f
00000120: b334 6d3f d657 5f3f c9c9 903f 5575 633f
00000130: d313 6b3f 6be4 323f 5003 843f f030 423f
00000140: c67b 733f f1c9 583f 2aa1 303f 4bc7 2c3f
00000150: e0b1 3c3f 468d 8b3f 88c3 553f 429a 5e3f
00000160: f912 863f f975 6f3f 7013 663f 9941 7c3f
00000170: 5603 473f 4c97 853f d534 873f 39c3 6c3f
00000180: 95a1 6a3f f326 773f 6179 7c3f d7af 903f
00000190: 6207 713f ebe4 913f 2ce7 673f eec3 8c3f
000001a0: 354f 893f 6583 633f 34c8 933f 7f14 573f
000001b0: 8f95 323f 7340 4c3f a344 673f 5a62 673f
000001c0: 9d41 513f
0.76474637 0.8950662 1.1445137 0.8881487 0.8651606 0.86514705 1.046288 0.84749997
0.8428376 0.9172793 0.80847216 0.9982841 0.843622 1.1259234 0.97915673 1.0302448
0.82774526 0.8777496 0.78167385 1.0158318 0.8136647 0.92162335 1.1882596 0.93448627
0.93353695 0.9104139 0.96442306 0.890632 0.86224294 0.8977115 0.9674547 1.047635
1.1793842 0.9022987 0.78779715 0.8514998 0.8784939 1.0142726 1.061596 0.76074445
0.97698474 0.9695291 0.7230674 0.8877405 0.96432036 0.95644695 0.965061 0.8657605
0.8944643 1.2071234 0.99647343 0.85229564 0.62483644 0.7982838 1.127089 0.92459357
0.8954032 0.87381643 0.7515537 1.0560482 1.0844883 0.87707883 1.13029 0.91072786
0.867135 0.97386736 1.1038752 0.94495547 0.89002955 0.79497963 0.84358275 0.9012583
0.9265854 0.872434 1.131158 0.8885091 0.91827124 0.6987979 1.0313511 0.7585592
0.9511074 0.8468314 0.68995917 0.67491597 0.73708916 1.0902488 0.8350148 0.8695413
1.047454 0.93539387 0.8987341 0.98537594 0.77739465 1.0436797 1.0562998 0.92485386
0.91652805 0.96543807 0.9862271 1.1303662 0.9415189 1.1397985 0.90587115 1.0997293
1.0727297 0.8887237 1.1545472 0.8401565 0.6975946 0.7978584 0.90339106 0.9038445
0.8174074

cause_networks.0.1.bias f4 [113]
00000000: b2f1 e0be 7fb4 d2be dd32 bebe 9c83 0fbf
00000010: cd41 bcbe cd4d 25bf a096 19bf a569 84be
00000020: c753 b7bd 9411 0bbf faab 34be 885a f3be
00000030: 2c12 46bf a910 febe 9f60 9bbe 3d47 2fbf
00000040: 86e8 04bf 3967 ffbe ddf5 05bf 992d e8be
00000050: a461 a9be f9dd 34bf 057b 7ebe 1775 82be
00000060: e0e7 32bf 7ea9 f8be d544 1abf 0e19 02bf
00000070: cc28 3abf 01b0 0abf 8e83 88be 899a aebe
00000080: 60a0 c0be 06ad c2be f1be a6be c1eb fabd
00000090: 37fc 5ebf f68c bbbe ed6b 9dbe da4b c3be
000000a0: 36fd ebbe c07b 87be e0ee 91be 30fd 02bf
000000b0: 7251 a6be 8c4d e1be e22b f4be fc1c 34bf
000000c0: 9749 0ebf 957e 0abf 1564 9fbf ea21 e1be
000000d0: 3fa5 6bbd c635 dcbe ad18 02bf 67d2 b1be
000000e0: 37ce f1be de28 08bf 3d87 6ebe daef 02bf
000000f0: 733e 93be ec93 c8be 8133 fdbe b563 30bf
00000100: 3a4b 90be be8a fdbe 4eba e7be 2d5c e0be
00000110: c468 8fbe e2cc bbbe e37f 13bf ad8e 39bf
00000120: 49a1 06bf da6f e4be 24a2 a4be dbd8 dcbe
00000130: 69ec 31bf 917a 96bd 4a0a 88be 7d11 debe
00000140: 369b 30bf 37c8 8dbe 34c1 93be cb89 ffbd
00000150: 47fc fdbe 5671 a1be df3d 19bf f62f 4abf
00000160: 2a97 24bf f61e b6be 29b1 b5be bb12 22bf
00000170: b2f8 b3be 1b31 fdbe c920 5bbf 7647 fbbe
00000180: 8d78 d5be 8b53 f1be 7a5a b8be 9f8d d1be
00000190: 14df 00bf 1487 e7be 9b29 c2be 75b1 0fbf
000001a0: 7ed2 44be f5d2 14bf 04b3 40bf 79d6 11bf
000001b0: ba74 afbe 93de 22bf d97d 2fbf 8474 2dbf
000001c0: ecad 0dbf
-0.439344 -0.41153333 -0.3714818 -0.56060195 -0.36768952 -0.6457184 -0.5999546 -0.2586185
-0.08951526 -0.543237 -0.17643729 -0.47530007 -0.7737148 -0.49622086 -0.30347154 -0.68468076
-0.519173 -0.4988344 -0.5232828 -0.45347288 -0.33082306 -0.70651203 -0.24851616 -0.25479957
-0.69885063 -0.48566812 -0.6026128 -0.5081948 -0.727185 -0.5417481 -0.26662868 -0.34102276
-0.37622356 -0.3802263 -0.32567552 -0.12251998 -0.871036 -0.36630982 -0.30746403 -0.38143808
-0.46091622 -0.264616 -0.2850256 -0.51167583 -0.32484013 -0.44004476 -0.4768973 -0.70356727
-0.5558104 -0.540994 -1.2452418 -0.43971187 -0.057530638 -0.43009776 -0.508189 -0.34730837
-0.47227642 -0.5318736 -0.23293777 -0.51147234 -0.28758582 -0.39175355 -0.49453357 -0.6890214
-0.28182393 -0.49519914 -0.45259327 -0.43820325 -0.28009617 -0.3667975 -0.57617015 -0.7248333
-0.5258985 -0.44616586 -0.32154953 -0.43134198 -0.6950136 -0.073475964 -0.2657035 -0.43372717
-0.68986833 -0.27691814 -0.2885834 -0.12477454 -0.49606535 -0.3153178 -0.5986003 -0.7897943
-0.6429316 -0.35570496 -0.35486725 -0.6330983 -0.35150677 -0.49451527 -0.855969 -0.49077958
-0.41693535 -0.4713405 -0.36006528 -0.4092836 -0.5034039 -0.45220244 -0.37922367 -0.5613015
-0.19220921 -0.58134395 -0.75273156 -0.56967884 -0.34268743 -0.6362087 -0.68551403 -0.67755914
-0.5534351

cause_networks.0.1.running_mean f4 [113]
00000000: 7bd1 50bf 1225 bbbf 2896 f4c0 f8da 83c0
00000010: 3bbd fbbe d064 89bf 3263 5e40 183d 3c40
00000020: e4ea 5240 3945 9ebf 8d6a a2bf db42 9c40
00000030: d559 213f ea43 0ec1 c97d b53f a0e4 8140
00000040: 42d7 28bf a85f e13f ce20 47bf 2b97 07c0
00000050: 6538 44c0 2d86 cf40 8362 29c0 3d86 8b40
00000060: 8464 d53f cb53 66c0 29eb dfc0 8b9a 9540
00000070: 1ba2 9dbf 2f7c b240 5b3b 34be 6b6b 853f
00000080: df91 02bf 4f1b 25c0 fb76 2440 d39d 323f
00000090: 3229 48bf b42d ff3f 6cfb f63f 7891 08c0
000000a0: 3953 f63f 765c bdbf 160a 6a40 b0be 59bf
000000b0: af70 62c0 a2a0 d5bf 1c18 f63d a357 8bc0
000000c0: 5bfe a0c0 e5f5 21c0 7874 b5be 448f 923e
000000d0: 03f7 25be 635c 303e 6938 d8c0 140d b93f
000000e0: 4dcf b440 784b 83c0 3942 56c0 d6dd 833f
000000f0: 22be 5fc0 2d15 71bd 1da5 a53f cd42 5640
00000100: f059 bac0 cfaa 5ac0 48df af3f 7eb3 93c0
00000110: 2627 3dbf 126d 7e40 5e26 0340 6d66 7540
00000120: 0082 03c0 6a25 76bf 63ea b540 fb4c 9ac0
00000130: a2ec c23e 68e7 89bf 5f21 f3bf b621 99be
00000140: 557b 0a40 7da7 293f 638d 83bf 5c8b b040
00000150: 2750 9e40 7078 0bc1 c26c 9540 50c4 78c0
00000160: 5993 48c0 d7fc 653e 88fe efbf 555f 58c0
00000170: 6eb7 0ac0 0eab d940 6bd1 e3be 2016 afbf
00000180: 36b7 9f40 bbd4 5d40 47e6 a03e 9f75 00c0
00000190: 6e47 6240 aa5a afc0 af9b 0e40 d8b7 b540
000001a0: 4266 9bbf b02b 41c0 381a 04c0 0af1 4c40
000001b0: 7543 38bf 9b9c e43f e451 8e40 b485 a33f
000001c0: b27f a640
-0.8156964 -1.4620688 -7.6433296 -4.1204796 -0.4916781 -1.073389 3.4748044 2.9412289
3.2955866 -1.2364875 -1.2688767 4.883161 0.630277 -8.891581 1.4179012 4.0591583
-0.6595346 1.7607317 -0.7778443 -2.1186016 -3.065942 6.485129 -2.6466377 4.3601365
1.66713 -3.5988643 -6.997456 4.675115 -1.2315096 5.577659 -0.17600767 1.0423406
-0.5100383 -2.5797918 2.569762 0.6977207 -0.7818786 1.9935822 1.9295478 -2.1338787
1.9244148 -1.4793842 3.6568656 -0.8505659 -3.5381277 -1.6689646 0.12016317 -4.354448
-5.0310493 -2.5306332 -0.3544042 0.28624928 -0.16207509 0.17222743 -6.756886 1.4457116
5.6503053 -4.1029625 -3.347792 1.0302074 -3.4959798 -0.058858085 1.2941014 3.3478272
-5.8234787 -3.4166753 1.3740015 -4.6156607 -0.7388786 3.9754071 2.0492167 3.8343766
-2.0548096 -0.9615084 5.6848617 -4.821897 0.38071162 -1.0773745 -1.8994559 -0.29908532
2.1637776 0.6627119 -1.0277523 5.5170116 4.947284 -8.716904 4.669526 -3.886982
-3.1339934 0.22459732 -1.8749552 -3.3808186 -2.1674457 6.8021307 -0.4449571 -1.3678627
4.9911146 3.466109 0.31425688 -2.007179 3.5356097 -5.4798174 2.2282522 5.678692
-1.2140582 -3.0182915 -2.0641003 3.2022119 -0.7197793 1.7860292 4.4474964 1.2775178
5.203088

cause_networks.0.1.running_var f4 [113]
00000000: f08d 423e 8e37 263e 591d b93e c088 5c3e
00000010: 2804 dd3d 5dbc 003e 08f8 2f3e a553 2d3e
00000020: d55f 273e 2606 253e 0c9e 5f3e 44a2 463e
00000030: d8f0 0a3e 77fb ab3e 43bb 663e 7f28 3e3e
00000040: 07e6 d73d 6077 f63d fcfb 253e 0a6d 7b3e
00000050: d5f2 113e 530e 5a3e ccac a53e ffe5 443e
00000060: 71e7 2c3e f344 0c3e 97c9 453e 7bec 2d3e
00000070: 6a74 0a3e cd06 163e cb05 433e 8ce9 3b3e
00000080: b3ac 753e 70a2 283e 5a8e 073e 3ded 503e
00000090: b361 773e 85f6 613e 5f1f 513e d06c cc3d
000000a0: 13e6 3f3e c77c 413e bd12 4b3e 41b0 ec3d
000000b0: 3600 4d3e 2179 743e f9bb 363e 2c1d 1c3e
000000c0: 7a33 2e3e 9141 e73e 6b0e 5e3e b016 3c3e
000000d0: 8a4c 833e 0557 363e b090 733e 8832 1c3e
000000e0: 581f 1c3e bb12 153e 2281 2f3e 1bd1 323e
000000f0: da78 bc3e 005d 573e 3316 d53e ba8a b43e
00000100: 0413 113e 16f1 7e3e 62ce 573e fd88 7e3e
00000110: 7e87 703e ed96 0f3e ba53 463e c9f0 8d3e
00000120: 9a9d 5f3e 2b58 f73d ecb8 a63e 1257 433e
00000130: 1c47 9c3e 0079 2a3e f237 3b3e fd7f 3b3e
00000140: 86b1 9b3e 5372 383e 2a69 973d 5d76 7d3e
00000150: c02b 463e 7b79 823e 2d4d 323e 8359 3d3e
00000160: 25cc 2b3e c4a8 2b3e 8b48 9d3e 1422 083e
00000170: 89d4 893e 5f96 e53d 3e9f 153e 1620 b73e
00000180: 0f62 183e a08d 213e ded7 5f3e 9a33 7e3e
00000190: 7145 303e 4464 4b3e caaa 3a3e e5eb 203e
000001a0: 2be8 433e 1175 2c3e 2100 313e 0a0f 893e
000001b0: 78ea 4b3e e7d3 0d3e 2058 4e3e 5df0 0c3e
000001c0: c7b5 023e
0.18999457 0.1623213 0.36155203 0.21536541 0.10791808 0.12571855 0.1718446 0.16926439
0.16345151 0.16115627 0.21837634 0.19397837 0.13568437 0.3359029 0.22532372 0.18570136
0.10541921 0.12034488 0.16209406 0.24553314 0.1425279 0.21294527 0.32358396 0.19228362
0.16885163 0.13698177 0.19315182 0.16984741 0.13520971 0.14651032 0.19045179 0.1835081
0.23991661 0.16468215 0.13237897 0.20402999 0.24158363 0.22066696 0.20422123 0.09981692
0.1874011 0.18895255 0.19831367 0.11557055 0.20019612 0.23874332 0.17845143 0.15245503
0.17011824 0.4516721 0.21685188 0.1836803 0.25644332 0.17806633 0.23785663 0.15253651
0.15246332 0.14557926 0.17139104 0.1746258 0.36810952 0.2103157 0.416185 0.3526209
0.1416741 0.24896654 0.21074823 0.24856944 0.23489186 0.14022417 0.19367877 0.27722767
0.21837464 0.120773636 0.3256296 0.19076183 0.30523002 0.1664772 0.1828306 0.18310542
0.30408877 0.18012361 0.07393105 0.24752183 0.19352627 0.25483307 0.17412253 0.18491177
0.16777094 0.16763598 0.30719408 0.1329425 0.26919964 0.11210322 0.14611527 0.35766667
0.14881156 0.15776682 0.2185969 0.24824372 0.1721399 0.19862467 0.18229213 0.15714987
0.19131534 0.16841532 0.17285205 0.26769286 0.19913661 0.13850366 0.20150805 0.13763566
0.12764655

cause_networks.0.4.weight f4 [71, 113]
00000000: 322b f4be 9b6f fd3c 773e 76bd cca1 a83d
00000010: 8f87 78bd 0ef4 983e e0a2 003e 87e6 b43e
00000020: c856 b8bc 4c71 273d b1a3 e53c a958 623e
00000030: ab08 9cbc 14ee 2c3f c0dd 89bd e9b1 093f
00000040: 180f 85be 8dc0 df3d 75eb ecbe aea2 443b
00000050: 2fd5 bd3d 1216 533e 9dbc 2fbe 8b8b e1bd
00000060: 9b28 85bd 3235 9f3e a6cc a0be 16af c13e
00000070: b435 be3e 368b e7bd 375d 31bd b455 57be
00000080: 935c b33c c2ab e9be 323f 80bf f9cb 2f3d
00000090: 7a04 afbf cd92 da3d 07d4 e9bc 4906 00be
000000a0: e318 5abd 6568 e6bd 339f 713e 0101 2e3e
000000b0: f526 993e e94c 623d fd97 263e 6888 0bbf
000000c0: dbfc 2a3d ec5c 083c 5a32 1dbf 28d1 103f
000000d0: 3e01 f9be 1d2f a1bd a37a 6c3d 2f10 c4bd
000000e0: bf36 a9be a7ca 24be ce79 39be b198 de3d
000000f0: 4659 8b3e 929b 553e 6c23 b03e fe16 69be
00000100: 0e28 a13d 6edd 653e ef95 7b3c 7b48 813e
00000110: 7fb6 773e 8c62 6bbb 4f00 b33e e7bb c9be
00000120: 30cf d83e 735c cc3e b18b 843e 2d92 463e
00000130: b36b 873d cea3 553e c9b3 ac3d bf87 553d
00000140: 0928 ef3e cb32 9dbd 78ad 74be d974 4abf
00000150: a5bd 8c3e 661b babe 3e34 01bf 8863 5cbf
00000160: 5070 213e 7bde 883d 5d36 38be 2cb2 54be
00000170: b845 5abe df99 5c3e ea41 863e 367d 9f3e
00000180: fd53 683e 77a9 953c ca49 253e fd88 8f3e
00000190: b666 c6be 8252 0f3d 0e9f ae3e 3d3c 573e
000001a0: e6a8 b8bd e217 bc3d c064 3c3e 76db 9ebf
000001b0: d717 e6be 1b45 043e fb91 bebe 223d ce3d
000001c0: d64e fbbd f890 d53d fc57 193e e5b5 7f3e
000001d0: 7b49 bb3b 5a61 9a3e d330 c53d 8f43 8bbe
000001e0: 6b55 373e a218 3bbe 1187 fbbc a83d ecbe
000001f0: d7ff 0abf a5d5 1abe f0a4 d13e eb5d 523e
00000200: 5b93 c6bd 28cf f23d e159 8b3e 2f6a d63d
00000210: 93c5 d33e 2d94 1abe 1979 423e be09 423b
00000220: b1c8 813e ecba 1a3e ae03 00bd fd0e a43e
00000230: d46f 1f3f 8392 023e 7a4d 4e3e 9c6f 033e
00000240: b33e 17bc 22b6 79be 9a15 90bf 4c11 a63d
00000250: 6d54 913d 367b 853e 27bc 9e3e ec09 ccbd
00000260: 5f67 8a3e 852f 363e 6c7b 003e f8b6 9f3d
00000270: 639c a6bc 39e3 a43d 32dc e0bc e535 933e
00000280: dee3 983d 3da5 e93c 39a1 853e 0ea1 613e
00000290: 31b0 d73d da47 ac3e ec54 503e ae55 853e
000002a0: 928f 8dbe 9a9b 853e 44d1 b03e f35e 963d
000002b0: ffd8 e93e a614 40be ead7 903e 406c 393b
000002c0: 0475 edbd bb17 1bbe 23c7 17be ce8b 01be
000002d0: b60c b13e 9ff5 86bf d812 0a3e 39b2 afbd
000002e0: 7a6f 583e e704 8e3e 7874 3dbd a9d2 1bbf
000002f0: b20f 4ebf 39fc 16bd 3a90 06bc d0ed 2d3e
00000300: 6b6a d7bd de0a f73d 9f70 40be 86a2 ac3c
00000310: e125 493e d630 07bc 733a a33e b804 553d
00000320: 92d7 ebbe e00f b83d 6551 6bbc 7fd1 b23d
00000330: bf4e ab3e 2dad 6dbe b12d 663d 432b 00bf
00000340: e9ac b63d de8b 0e3e 70d5 cfbe 2784 8ebe
00000350: 420c 043e f4e7 58bf 20c7 a53d 17ef b03e
00000360: be29 3bbe 5cff b9bd d130 b9bd a19b e23e
00000370: 2f44 1f3e 60a7 523d 4322 d23e 84c4 5d3e
00000380: e4a4 b5be e592 a03e 187e 3abf e16c cf3c
00000390: 0874 2abe 976a 8b3e 4314 87be 69b4 233d
000003a0: a6ef f43d 1df7 b3be fd6d afbe a092 753e
000003b0: 5615 57b9 9f5b ffbc d966 dabe 7845 02be
000003c0: 6aad 35be 97fc ac3e a28f 8a3e af0e e2be
000003d0: fc16 3f3c 94c6 9a3e d498 b4bb f39a 823e
000003e0: 2196 c53d cf08 103e 1a75 1a3f 113e 17bd
000003f0: adac 4c3d 2796 e7be f354 f8bc 7553 693d
-0.47689205 0.030937007 -0.060118165 0.08233985 -0.060676154 0.298737 0.12562132 0.35332128
-0.022502318 0.040879533 0.028032156 0.22104134 -0.019047102 0.6755078 -0.067317486 0.53787094
-0.25988078 0.10925398 -0.4627339 0.0030004191 0.09269177 0.20613888 -0.17161794 -0.11012944
-0.065018855 0.31095272 -0.31406134 0.37828892 0.37150347 -0.11305849 -0.043301787 -0.21028787
0.021894729 -0.45638853 -1.0019286 0.042919133 -1.3673241 0.10672531 -0.028543485 -0.12502398
-0.05324639 -0.112503804 0.23595886 0.1699257 0.29912534 0.05524913 0.16268916 -0.54505014
0.041745048 0.008322936 -0.61404955 0.5656915 -0.4863376 -0.07870314 0.057734143 -0.09573399
-0.3304958 -0.1609293 -0.18112871 0.10868967 0.27216548 0.20860127 0.34402025 -0.22762677
0.07868968 0.2244775 0.015355571 0.2525061 0.2419071 -0.0035916893 0.34961173 -0.3940117
0.42345572 0.39914283 0.25887826 0.19391699 0.06612339 0.20863268 0.08432729 0.05213141
0.46710232 -0.076757036 -0.23894298 -0.79084545 0.27488437 -0.36349028 -0.5047034 -0.8608937
0.157655 0.0668306 -0.17989488 -0.20771092 -0.21315658 0.21543072 0.26222163 0.31150216
0.22688289 0.018269284 0.1614143 0.280342 -0.38750237 0.034990795 0.34105724 0.21019073
-0.0901659 0.09184243 0.18397808 -1.2410724 -0.44940063 0.12916987 -0.3722075 0.10070254
-0.12270896 0.10428041 0.1497497 0.24971731 0.0057155467 0.30152398 0.09628453 -0.2719998
0.17903678 -0.18271115 -0.030704053 -0.4614079 -0.5429663 -0.15120561 0.4094615 0.2054364
-0.096960746 0.11855918 0.2721701 0.10469472 0.41361675 -0.15095587 0.18991508 0.0029607858
0.25348428 0.15110368 -0.03125351 0.32042685 0.6228001 0.12751202 0.20146742 0.12835544
-0.009231257 -0.24385884 -1.1256592 0.08108768 0.07096181 0.26070565 0.31002924 -0.0996283
0.2703199 0.17791565 0.12547082 0.077985704 -0.020338243 0.08051152 -0.027448747 0.28752056
0.07465337 0.028521175 0.26099566 0.22034094 0.10531653 0.33648568 0.20344895 0.2604193
-0.27648598 0.26095277 0.34534657 0.07342329 0.45673367 -0.18757877 0.2828973 0.0028293282
-0.115945846 -0.15145771 -0.14822058 -0.12650988 0.3458001 -1.0543708 0.13483751 -0.08578915
0.21136275 0.27738115 -0.04625365 -0.60868317 -0.804927 -0.036861632 -0.008213097 0.1698525
-0.105183445 0.120626196 -0.18792962 0.021073591 0.19643356 -0.0082513895 0.3188053 0.052006453
-0.46062905 0.08987403 -0.014362668 0.087313645 0.33458516 -0.23210593 0.05619592 -0.5006601
0.08919699 0.13920543 -0.40592527 -0.278352 0.12895301 -0.8472893 0.08094621 0.3455741
-0.18277642 -0.09081909 -0.09042514 0.4425936 0.15553354 0.051429152 0.41041765 0.21656996
-0.35477364 0.31362072 -0.72848654 0.025320472 -0.16645825 0.2722976 -0.26382646 0.039966974
0.11959772 -0.3514947 -0.34263602 0.23981714 -0.00020511946 -0.031171618 -0.42656592 -0.12721813
-0.17741933 0.3378646 0.27062708 -0.44151828 0.011663195 0.30229628 -0.0055113826 0.25508842
0.096477754 0.1406586 0.6033493 -0.036924426 0.049969364 -0.45231745 -0.030313944 0.056964356

cause_networks.0.4.bias f4 [71]
00000000: 5d79 8ebb fe91 dd3c b428 26bc ca56 963d
00000010: e630 62bd 498d a73d 4980 183c 2d9f 6fbd
00000020: 2722 c7bd 164b 593c 9b18 5c3d 6c58 33bb
00000030: 2586 8d3d d2c0 a03d 03a3 c0bd 021d c3bb
00000040: ad8c 233d f258 b0bd 8a0f 07bc c553 2a3c
00000050: 67e1 063c fcaa 553d d593 4dbb 6149 a63d
00000060: 698c cd3b 4be8 593d 6be3 cdbc 487a 84bd
00000070: 968d 423d 703b 84bd faf3 87bd 6b40 5ebd
00000080: 5cdc 1bbd 90a8 1b39 4311 1f3d 1bd1 1b3d
00000090: accd c3bc dcdf cd3b 0005 85bd e2b8 ce3c
000000a0: 2386 9e3d ad0b 083d d74f c63c f4a6 453d
000000b0: da5e f2bc 2bee 0b3d 5a95 aabd 6b7f eabc
000000c0: c768 a73d ded3 42bd 7287 3dbd 02ac 94bd
000000d0: 365c 723d 1726 90bb 3797 cc3d 2b37 783c
000000e0: 68ca 613c 5cf5 c9bc b1e6 9dbd be7f 7ebc
000000f0: 1ab0 c4bd c3a4 7cbd cb26 89bb cfcb fabc
00000100: be91 a7bd 1554 b63c 21ca 223a 868e 8cbd
00000110: cf5d 8e3c c56c ae3d f590 e7bc
-0.0043479637 0.027047154 -0.01014154 0.073407724 -0.055222414 0.08181245 0.009307929 -0.05850141
-0.09723311 0.013262531 0.053734403 -0.0027365936 0.06910352 0.078492776 -0.09406092 -0.0059543857
0.03992908 -0.08610715 -0.008243451 0.010395949 0.008232451 0.052165017 -0.0031368632 0.08119465
0.0062728417 0.053200047 -0.025132855 -0.06468636 0.047498308 -0.06456649 -0.06638332 -0.054260653
-0.038051948 0.00014844746 0.03883482 0.038041215 -0.023901783 0.0062827896 -0.06495094 0.025234643
0.07740428 0.03321426 0.024207992 0.048254922 -0.029586244 0.03416268 -0.08329268 -0.02862521
0.081742816 -0.047565334 -0.04627175 -0.072593704 0.05916997 -0.004399072 0.099897794 0.015149872
0.013781168 -0.02465313 -0.077100165 -0.015533386 -0.09603901 -0.061680567 -0.0041855327 -0.030614762
-0.08182095 0.02225689 0.0006209929 -0.06863122 0.017378716 0.0851684 -0.028267363

cause_networks.0.5.weight f4 [71]
00000000: e12f 8f3f 29eb 643f 2d01 8e3f 92a8 803f
00000010: 596e 6c3f 4fc0 3c3f 0529 653f b945 5e3f
00000020: fa3c 833f 2f97 533f 380d 7e3f cccb 573f
00000030: 816f 633f 2423 843f 47ec 553f 5f53 493f
00000040: 97be 3f3f 0007 753f 5a6c 803f 45c5 533f
00000050: 65cf 653f 7c80 793f cab6 4b3f b504 633f
00000060: 94c3 623f 0cce 4e3f e92d 8c3f 6e07 6b3f
00000070: f0e7 4b3f 13f4 573f b3b2 7f3f 07af 7a3f
00000080: 64a5 6a3f 8658 563f 3467 7a3f 67bd 843f
00000090: 37dc 743f 6d4c 6d3f fb67 703f b7ba 793f
000000a0: 95c4 6a3f e431 693f 611d 8f3f 2264 563f
000000b0: 13b7 593f 7711 803f c73b 5c3f 64ba 813f
000000c0: 6939 703f b255 563f 293a 763f 3b8c 613f
000000d0: dc38 7f3f f564 5c3f 5d29 673f 109f 6a3f
000000e0: b512 573f 1001 823f e487 673f 1015 5e3f
000000f0: 4df1 893f 46fd 823f 0165 7a3f 7d1e 873f
00000100: db17 833f 74da 723f a77d 563f 1d5a 3f3f
00000110: a923 6e3f a6fe 583f c047 483f
1.1186486 0.89421326 1.1094109 1.0051444 0.9235588 0.7373094 0.89515716 0.8682514
1.0252984 0.8265256 0.9923892 0.84295344 0.88842016 1.0323224 0.83563656 0.7864284
0.7490019 0.95713806 1.0033066 0.82722884 0.89769584 0.97461677 0.7957579 0.8867906
0.8857968 0.8078315 1.0951511 0.9180821 0.79650784 0.843568 0.9988205 0.9792332
0.91658616 0.83728826 0.97813725 1.0370301 0.9564852 0.9269474 0.9390866 0.9755053
0.9170621 0.9109175 1.1180841 0.8374654 0.85044974 1.000533 0.86028713 1.0135007
0.938376 0.8372451 0.96182495 0.881046 0.99696136 0.8609155 0.9029749 0.9164896
0.8401292 1.0156574 0.9044173 0.8675089 1.0776764 1.0233543 0.9781037 1.0556179
1.0241655 0.94864583 0.8378548 0.74746877 0.93023163 0.8476356 0.7823448

cause_networks.0.5.bias f4 [71]
00000000: c86c c7be 5178 41bf a560 1dbf 72b2 4fbf
00000010: eb4a ddbe cd9a babe 8234 0dbf 597b 15bf
00000020: 6dd5 91be 6ef3 b4be 7427 ddbe b1e8 f6be
00000030: bb0d c1be 5738 dfbe ce4e b2be da27 a4be
00000040: f37b a0be fef2 f0be 66b7 a1be ae64 b8be
00000050: 8cf5 02bf 3b89 19bf 1ba9 9ebe 0612 05bf
00000060: c6cd 94be 2b80 98be 7cde efbe 104f efbe
00000070: 1a84 e6be cee3 15bf 3a3a d5be 127f 0abf
00000080: f850 99be b713 10bf 5610 fcbe 287b 03bf
00000090: 2f46 abbe cdf2 0fbf 2a2b 2fbf f650 febe
000000a0: 2166 f1be 4db8 bcbe 2bdf 03bf c648 0abf
000000b0: 88f3 2abf b7c2 8cbe 09b3 20bf 0225 c6be
000000c0: 00d8 d0be bd9d 4ebe dafc d8be 8fd8 f1be
000000d0: e323 48bf cf80 4abe 3843 0fbf 6b92 0ebf
000000e0: a92d 19bf 3a15 c4be c6da 13bf 8f43 cdbe
000000f0: 542d b2be 8882 cabe ad8c 13bf 4bf1 24bf
00000100: efe4 42be d6f0 08bf 9235 0bbf 3f68 a3be
00000110: eeb5 f2be f81d 03bf d966 14bf
-0.3895018 -0.75574213 -0.6147559 -0.8113166 -0.4322122 -0.3644623 -0.55158246 -0.5839134
-0.28483143 -0.35341972 -0.43194163 -0.48224404 -0.37705788 -0.4359767 -0.34825748 -0.32061654
-0.31344566 -0.47060388 -0.31585234 -0.36014313 -0.51155925 -0.5997502 -0.30988392 -0.51980627
-0.29063243 -0.29785284 -0.4684943 -0.46740007 -0.4502266 -0.5855073 -0.41645986 -0.54100144
-0.29944587 -0.5628008 -0.49231213 -0.51359797 -0.33451983 -0.5622986 -0.6842524 -0.49671143
-0.4714823 -0.3685936 -0.515124 -0.54017293 -0.6677785 -0.27492306 -0.62773186 -0.3870011
-0.40789795 -0.2017736 -0.4238041 -0.47235534 -0.7817976 -0.19775699 -0.5596194 -0.55692166
-0.59835297 -0.38297445 -0.57755697 -0.40090606 -0.34800208 -0.39552712 -0.5763653 -0.64430684
-0.19032644 -0.53492486 -0.54378617 -0.3191547 -0.47404426 -0.51217604 -0.57969433

cause_networks.0.5.running_mean f4 [71]
00000000: 49ea b0bd f571 023f 28bb 933f 164d be3f
00000010: 7ddd a1bf 6c87 4fbf 72cc 77bf f949 1abf
00000020: c49b 19be 615a 4fbf 70d6 98bf 1c3a 943f
00000030: 18c7 dc3c 5a3f acbf cbc3 7fbf 34a3 1ebf
00000040: 2881 90bf fb82 eb3b 739d 803e a837 94bf
00000050: 16eb 29bf e75b 42bf 5cf3 a8bf c700 ad3d
00000060: 52d2 98bd c110 dcbf bbb9 c73f 8077 1ebf
00000070: 638f 8abf 2f5e 28bf 4851 a1bf 28fd 89be
00000080: a749 bbbb 3f2e 6dbf 1fef 533f 6e01 3cbf
00000090: 7eb2 783f 35bb 8ebe c434 a4bf 030d 79bd
000000a0: 574a 2b3f be94 4c3e 43c2 94bf 4f27 b0be
000000b0: bf5e 7dbf c8c7 6dbf a90d 46bf 337e c5bc
000000c0: 5803 bbbe c46b 06bf cd5a 4bbf e769 d4bf
000000d0: 9481 23bc 4972 33bf c916 c8bf ace1 87bf
000000e0: 1950 b8bf 02e2 babf 7b4b 1fbf e8fb 9dbf
000000f0: 4907 06bf 0740 49be 4e97 b4bf a6a5 19be
00000100: ad11 083d 7061 82bf 9850 75bf 3ed1 a9bf
00000110: 5395 cf3e 8c68 cdbf 84a7 c1bf
-0.08638436 0.50955135 1.154149 1.4867275 -1.2645718 -0.8106601 -0.96796334 -0.60269123
-0.15000826 -0.8099728 -1.1940441 1.1580234 0.026950404 -1.3456833 -0.9990813 -0.6196778
-1.1289415 0.007187245 0.25120124 -1.1579485 -0.6637434 -0.7592148 -1.3199267 0.08447414
-0.074619904 -1.7192613 1.5603555 -0.6190109 -1.0825008 -0.6576871 -1.260293 -0.26950955
-0.005715567 -0.9264869 0.82786745 -0.7343968 0.9714736 -0.27877203 -1.2828603 -0.060803425
0.6691031 0.19978616 -1.1621784 -0.3440499 -0.98972696 -0.92882967 -0.77364594 -0.024108028
-0.3652599 -0.5250819 -0.79435426 -1.6594819 -0.009979624 -0.7009626 -1.5631953 -1.0615745
-1.4399444 -1.4600222 -0.6222455 -1.2342501 -0.52354866 -0.1965333 -1.4108675 -0.15004596
0.033219982 -1.0185986 -0.958261 -1.3266981 0.40543613 -1.604753 -1.5129247

cause_networks.0.5.running_var f4 [71]
00000000: a8f5 9740 affa 0440 624e db3f 4e3d 8b3f
00000010: db5a 7240 5881 d93f 74c9 4540 2ab1 a43f
00000020: b55e 2f40 4400 cc3f 5316 3c40 dbf4 ce3f
00000030: 6a5f e93f 190e 4840 c93c f63f 0623 f03f
00000040: 6d87 9840 2f9a 2340 2d49 0140 bd94 0a40
00000050: 3058 4640 df17 8340 73e2 c33f 62af e13f
00000060: 98ca ce3f 43ea 3540 461d f33f 9b1f 2a40
00000070: b26f 2840 8627 0740 dbd9 3a40 635f 5640
00000080: 0680 e13f 0133 1340 4767 8f3f 4ee0 3540
00000090: 31cf c93f de60 a03f c155 8740 5723 1a40
000000a0: 1981 0840 3351 cb3f 1c42 9840 75a0 d93f
000000b0: 50b2 1640 321c 6440 b96e bf3f 299f e13f
000000c0: 267c 4b40 20a0 0d40 2d61 ff3f 3b71 4440
000000d0: 5099 8a40 1399 ac3f f87d 4840 3a23 4a40
000000e0: 9ea5 bb3f c1ef b240 de79 b13f d2bb 2940
000000f0: efa1 8e40 75e5 8540 9489 9040 e370 3540
00000100: 7700 e33f 242e 2b40 93c6 4240 0bf5 9e3f
00000110: 6e81 0540 933f 4a40 a29e be3f
4.7487373 2.0778005 1.7133296 1.0878084 3.7867954 1.6992598 3.0904207 1.2866566
2.7401555 1.5937581 2.9388626 1.6168474 1.8232243 3.1258605 1.92373 1.8760688
4.7665315 2.5562856 2.0200913 2.1653283 3.0991325 4.096664 1.5303482 1.7631648
1.6155577 2.8424232 1.8993309 2.658179 2.6318173 2.1117873 2.9195468 3.349572
1.7617195 2.299988 1.1203393 2.8418155 1.5766355 1.2529562 4.229218 2.408407
2.1328795 1.5884155 4.75807 1.7002093 2.3546333 3.564221 1.4955665 1.7626697
3.1794524 2.2128983 1.9951531 3.069411 4.331215 1.3484215 3.1326885 3.1584
1.4659917 5.591767 1.3865316 2.6520886 4.4572673 4.18426 4.516794 2.835015
1.7734517 2.6746912 3.04337 1.2418531 2.0860248 3.1601303 1.4892161
